…
I0904 16:10:34.955051 26603 solver.cpp:59] Creating training net from file: /scr/r6/tgebru/inverting_conv/caffe_invert_alexnet/timnit_models/att_conv1/timelapse_summer_winter/train_summer_winter.prototxt
I0904 16:10:34.955732 26603 net.cpp:36] Initializing net from parameters: 
name: "CaffeNet"
layers {
  top: "source_ims"
  name: "source_ims"
  type: DATA
  data_param {
    source: "/scr/r6/tgebru/inverting_conv/caffe_invert_alexnet/data/timelapse/tiny_summer_train_227lmdb"
    batch_size: 64
    backend: LMDB
  }
}
layers {
  top: "target_ims"
  name: "target_ims"
  type: DATA
  data_param {
    source: "/scr/r6/tgebru/inverting_conv/caffe_invert_alexnet/data/timelapse/tiny_winter_train_216lmdb"
    batch_size: 64
    backend: LMDB
  }
}
layers {
  bottom: "source_ims"
  top: "conv1"
  name: "conv1"
  type: CONVOLUTION
  blobs_lr: 0
  blobs_lr: 0
  weight_decay: 1
  weight_decay: 0
  convolution_param {
    num_output: 96
    kernel_size: 11
    stride: 4
    weight_filler {
      type: "gaussian"
      std: 0.01
    }
    bias_filler {
      type: "constant"
      value: 0
    }
  }
}
layers {
  bottom: "conv1"
  top: "conv1"
  name: "relu1"
  type: RELU
}
layers {
  bottom: "conv1"
  top: "pool1"
  name: "pool1"
  type: POOLING
  pooling_param {
    pool: MAX
    kernel_size: 3
    stride: 2
  }
}
layers {
  bottom: "pool1"
  top: "norm1"
  name: "norm1"
  type: LRN
  lrn_param {
    local_size: 5
    alpha: 0.0001
    beta: 0.75
  }
}
layers {
  bottom: "norm1"
  top: "Rconv6"
  name: "Rconv6"
  type: CONVOLUTION
  blobs_lr: 1
  blobs_lr: 2
  weight_decay: 1
  weight_decay: 0
  convolution_param {
    num_output: 256
    pad: 1
    kernel_size: 3
  }
}
layers {
  bottom: "Rconv6"
  top: "Rconv6"
  name: "Rrelu6"
  type: RELU
}
layers {
  bottom: "Rconv6"
  top: "Rconv7"
  name: "Rconv7"
  type: CONVOLUTION
  blobs_lr: 1
  blobs_lr: 2
  weight_decay: 1
  weight_decay: 0
  convolution_param {
    num_output: 256
    pad: 1
    kernel_size: 3
    group: 2
  }
}
layers {
  bottom: "Rconv7"
  top: "Rconv7"
  name: "Rrelu7"
  type: RELU
}
layers {
  bottom: "Rconv7"
  top: "Rconv8"
  name: "Rconv8"
  type: CONVOLUTION
  blobs_lr: 1
  blobs_lr: 2
  weight_decay: 1
  weight_decay: 0
  convolution_param {
    num_output: 256
    pad: 1
    kernel_size: 3
    group: 2
  }
}
layers {
  bottom: "Rconv8"
  top: "Rconv8"
  name: "Rrelu8"
  type: RELU
}
layers {
  bottom: "Rconv8"
  top: "deconv2"
  name: "deconv2"
  type: DECONVOLUTION
  blobs_lr: 1
  blobs_lr: 2
  weight_decay: 1
  weight_decay: 0
  deconvolution_param {
    pad: 2
    kernel_size: 5
    stride: 2
    output_height: 54
    output_width: 54
    output_channels: 64
  }
}
layers {
  bottom: "deconv2"
  top: "deconv2"
  name: "relu_deconv2"
  type: RELU
  relu_param {
    negative_slope: 0.3
  }
}
layers {
  bottom: "deconv2"
  top: "deconv1"
  name: "deconv1"
  type: DECONVOLUTION
  blobs_lr: 1
  blobs_lr: 2
  weight_decay: 1
  weight_decay: 0
  deconvolution_param {
    pad: 2
    kernel_size: 5
    stride: 2
    output_height: 108
    output_width: 108
    output_channels: 32
  }
}
layers {
  bottom: "deconv1"
  top: "deconv1"
  name: "relu_deconv1"
  type: RELU
  relu_param {
    negative_slope: 0.3
  }
}
layers {
  bottom: "deconv1"
  top: "deconv0"
  name: "deconv0"
  type: DECONVOLUTION
  blobs_lr: 1
  blobs_lr: 2
  weight_decay: 1
  weight_decay: 1
  deconvolution_param {
    pad: 2
    kernel_size: 5
    stride: 2
    output_height: 216
    output_width: 216
    output_channels: 3
  }
}
layers {
  bottom: "deconv0"
  bottom: "target_ims"
  name: "loss"
  type: EUCLIDEAN_LOSS
}
I0904 16:10:34.955881 26603 net.cpp:65] Creating Layer source_ims
I0904 16:10:34.955890 26603 net.cpp:189] source_ims -> source_ims
I0904 16:10:34.956008 26603 data_layer.cpp:223] Opening lmdb /scr/r6/tgebru/inverting_conv/caffe_invert_alexnet/data/timelapse/tiny_summer_train_227lmdb
I0904 16:10:34.956183 26603 data_layer.cpp:285] output data size: 64,3,227,227
I0904 16:10:34.968504 26603 net.cpp:84] Top shape: 64 3 227 227 (9893568)
I0904 16:10:34.968525 26603 net.cpp:116] source_ims does not need backward computation.
I0904 16:10:34.968538 26603 net.cpp:65] Creating Layer target_ims
I0904 16:10:34.968544 26603 net.cpp:189] target_ims -> target_ims
I0904 16:10:34.968667 26603 data_layer.cpp:223] Opening lmdb /scr/r6/tgebru/inverting_conv/caffe_invert_alexnet/data/timelapse/tiny_winter_train_216lmdb
I0904 16:10:34.968771 26603 data_layer.cpp:285] output data size: 64,3,216,216
I0904 16:10:34.979841 26603 net.cpp:84] Top shape: 64 3 216 216 (8957952)
I0904 16:10:34.979859 26603 net.cpp:116] target_ims does not need backward computation.
I0904 16:10:34.979877 26603 net.cpp:65] Creating Layer conv1
I0904 16:10:34.979882 26603 net.cpp:228] conv1 <- source_ims
I0904 16:10:34.979909 26603 net.cpp:189] conv1 -> conv1
I0904 16:10:34.981220 26603 net.cpp:84] Top shape: 64 96 55 55 (18585600)
I0904 16:10:34.981225 26603 net.cpp:116] conv1 does not need backward computation.
I0904 16:10:34.981230 26603 net.cpp:65] Creating Layer relu1
I0904 16:10:34.981232 26603 net.cpp:228] relu1 <- conv1
I0904 16:10:34.981237 26603 net.cpp:179] relu1 -> conv1 (in-place)
I0904 16:10:34.981246 26603 net.cpp:84] Top shape: 64 96 55 55 (18585600)
I0904 16:10:34.981250 26603 net.cpp:116] relu1 does not need backward computation.
I0904 16:10:34.981256 26603 net.cpp:65] Creating Layer pool1
I0904 16:10:34.981257 26603 net.cpp:228] pool1 <- conv1
I0904 16:10:34.981262 26603 net.cpp:189] pool1 -> pool1
I0904 16:10:34.981276 26603 net.cpp:84] Top shape: 64 96 27 27 (4478976)
I0904 16:10:34.981279 26603 net.cpp:116] pool1 does not need backward computation.
I0904 16:10:34.981286 26603 net.cpp:65] Creating Layer norm1
I0904 16:10:34.981288 26603 net.cpp:228] norm1 <- pool1
I0904 16:10:34.981292 26603 net.cpp:189] norm1 -> norm1
I0904 16:10:34.981302 26603 net.cpp:84] Top shape: 64 96 27 27 (4478976)
I0904 16:10:34.981305 26603 net.cpp:116] norm1 does not need backward computation.
I0904 16:10:34.981309 26603 net.cpp:65] Creating Layer Rconv6
I0904 16:10:34.981312 26603 net.cpp:228] Rconv6 <- norm1
I0904 16:10:34.981317 26603 net.cpp:189] Rconv6 -> Rconv6
I0904 16:10:34.981927 26603 net.cpp:84] Top shape: 64 256 27 27 (11943936)
I0904 16:10:34.981932 26603 net.cpp:111] Rconv6 needs backward computation.
I0904 16:10:34.981937 26603 net.cpp:65] Creating Layer Rrelu6
I0904 16:10:34.981940 26603 net.cpp:228] Rrelu6 <- Rconv6
I0904 16:10:34.981947 26603 net.cpp:179] Rrelu6 -> Rconv6 (in-place)
I0904 16:10:34.981952 26603 net.cpp:84] Top shape: 64 256 27 27 (11943936)
I0904 16:10:34.981956 26603 net.cpp:111] Rrelu6 needs backward computation.
I0904 16:10:34.981961 26603 net.cpp:65] Creating Layer Rconv7
I0904 16:10:34.981964 26603 net.cpp:228] Rconv7 <- Rconv6
I0904 16:10:34.981968 26603 net.cpp:189] Rconv7 -> Rconv7
I0904 16:10:34.982702 26603 net.cpp:84] Top shape: 64 256 27 27 (11943936)
I0904 16:10:34.982705 26603 net.cpp:111] Rconv7 needs backward computation.
I0904 16:10:34.982709 26603 net.cpp:65] Creating Layer Rrelu7
I0904 16:10:34.982712 26603 net.cpp:228] Rrelu7 <- Rconv7
I0904 16:10:34.982717 26603 net.cpp:179] Rrelu7 -> Rconv7 (in-place)
I0904 16:10:34.982720 26603 net.cpp:84] Top shape: 64 256 27 27 (11943936)
I0904 16:10:34.982723 26603 net.cpp:111] Rrelu7 needs backward computation.
I0904 16:10:34.982728 26603 net.cpp:65] Creating Layer Rconv8
I0904 16:10:34.982729 26603 net.cpp:228] Rconv8 <- Rconv7
I0904 16:10:34.982735 26603 net.cpp:189] Rconv8 -> Rconv8
I0904 16:10:34.983559 26603 net.cpp:84] Top shape: 64 256 27 27 (11943936)
I0904 16:10:34.983563 26603 net.cpp:111] Rconv8 needs backward computation.
I0904 16:10:34.983567 26603 net.cpp:65] Creating Layer Rrelu8
I0904 16:10:34.983571 26603 net.cpp:228] Rrelu8 <- Rconv8
I0904 16:10:34.983577 26603 net.cpp:179] Rrelu8 -> Rconv8 (in-place)
I0904 16:10:34.983580 26603 net.cpp:84] Top shape: 64 256 27 27 (11943936)
I0904 16:10:34.983583 26603 net.cpp:111] Rrelu8 needs backward computation.
I0904 16:10:34.983588 26603 net.cpp:65] Creating Layer deconv2
I0904 16:10:34.983590 26603 net.cpp:228] deconv2 <- Rconv8
I0904 16:10:34.983594 26603 net.cpp:189] deconv2 -> deconv2
I0904 16:10:34.984621 26603 net.cpp:84] Top shape: 64 64 54 54 (11943936)
I0904 16:10:34.984624 26603 net.cpp:111] deconv2 needs backward computation.
I0904 16:10:34.984629 26603 net.cpp:65] Creating Layer relu_deconv2
I0904 16:10:34.984632 26603 net.cpp:228] relu_deconv2 <- deconv2
I0904 16:10:34.984638 26603 net.cpp:179] relu_deconv2 -> deconv2 (in-place)
I0904 16:10:34.984643 26603 net.cpp:84] Top shape: 64 64 54 54 (11943936)
I0904 16:10:34.984645 26603 net.cpp:111] relu_deconv2 needs backward computation.
I0904 16:10:34.984650 26603 net.cpp:65] Creating Layer deconv1
I0904 16:10:34.984652 26603 net.cpp:228] deconv1 <- deconv2
I0904 16:10:34.984658 26603 net.cpp:189] deconv1 -> deconv1
I0904 16:10:34.984797 26603 net.cpp:84] Top shape: 64 32 108 108 (23887872)
I0904 16:10:34.984800 26603 net.cpp:111] deconv1 needs backward computation.
I0904 16:10:34.984804 26603 net.cpp:65] Creating Layer relu_deconv1
I0904 16:10:34.984807 26603 net.cpp:228] relu_deconv1 <- deconv1
I0904 16:10:34.984810 26603 net.cpp:179] relu_deconv1 -> deconv1 (in-place)
I0904 16:10:34.984814 26603 net.cpp:84] Top shape: 64 32 108 108 (23887872)
I0904 16:10:34.984817 26603 net.cpp:111] relu_deconv1 needs backward computation.
I0904 16:10:34.984824 26603 net.cpp:65] Creating Layer deconv0
I0904 16:10:34.984827 26603 net.cpp:228] deconv0 <- deconv1
I0904 16:10:34.984832 26603 net.cpp:189] deconv0 -> deconv0
I0904 16:10:34.984870 26603 net.cpp:84] Top shape: 64 3 216 216 (8957952)
I0904 16:10:34.984874 26603 net.cpp:111] deconv0 needs backward computation.
I0904 16:10:34.984877 26603 net.cpp:65] Creating Layer loss
I0904 16:10:34.984879 26603 net.cpp:228] loss <- deconv0
I0904 16:10:34.984884 26603 net.cpp:228] loss <- target_ims
I0904 16:10:34.984891 26603 net.cpp:111] loss needs backward computation.
I0904 16:10:34.984905 26603 net.cpp:238] Collecting Learning Rate and Weight Decay.
I0904 16:10:34.984916 26603 net.cpp:161] Network initialization done.
I0904 16:10:34.984920 26603 net.cpp:162] Memory required for data: 0
I0904 16:10:34.984962 26603 solver.cpp:78] Creating testing net (#0) from file: /scr/r6/tgebru/inverting_conv/caffe_invert_alexnet/timnit_models/att_conv1/timelapse_summer_winter/val_summer_winter.prototxt
I0904 16:10:34.985599 26603 net.cpp:36] Initializing net from parameters: 
name: "CaffeNet"
layers {
  top: "source_ims"
  name: "source_ims"
  type: DATA
  data_param {
    source: "/scr/r6/tgebru/inverting_conv/caffe_invert_alexnet/data/timelapse/tiny_summer_train_227lmdb"
    batch_size: 64
    backend: LMDB
  }
}
layers {
  top: "target_ims"
  name: "target_ims"
  type: DATA
  data_param {
    source: "/scr/r6/tgebru/inverting_conv/caffe_invert_alexnet/data/timelapse/tiny_winter_train_216lmdb"
    batch_size: 64
    backend: LMDB
  }
}
layers {
  bottom: "source_ims"
  top: "conv1"
  name: "conv1"
  type: CONVOLUTION
  blobs_lr: 0
  blobs_lr: 0
  weight_decay: 1
  weight_decay: 0
  convolution_param {
    num_output: 96
    kernel_size: 11
    stride: 4
    weight_filler {
      type: "gaussian"
      std: 0.01
    }
    bias_filler {
      type: "constant"
      value: 0
    }
  }
}
layers {
  bottom: "conv1"
  top: "conv1"
  name: "relu1"
  type: RELU
}
layers {
  bottom: "conv1"
  top: "pool1"
  name: "pool1"
  type: POOLING
  pooling_param {
    pool: MAX
    kernel_size: 3
    stride: 2
  }
}
layers {
  bottom: "pool1"
  top: "norm1"
  name: "norm1"
  type: LRN
  lrn_param {
    local_size: 5
    alpha: 0.0001
    beta: 0.75
  }
}
layers {
  bottom: "norm1"
  top: "Rconv6"
  name: "Rconv6"
  type: CONVOLUTION
  blobs_lr: 0
  blobs_lr: 0
  weight_decay: 1
  weight_decay: 0
  convolution_param {
    num_output: 256
    pad: 1
    kernel_size: 3
  }
}
layers {
  bottom: "Rconv6"
  top: "Rconv6"
  name: "Rrelu6"
  type: RELU
}
layers {
  bottom: "Rconv6"
  top: "Rconv7"
  name: "Rconv7"
  type: CONVOLUTION
  blobs_lr: 0
  blobs_lr: 0
  weight_decay: 1
  weight_decay: 0
  convolution_param {
    num_output: 256
    pad: 1
    kernel_size: 3
    group: 2
  }
}
layers {
  bottom: "Rconv7"
  top: "Rconv7"
  name: "Rrelu7"
  type: RELU
}
layers {
  bottom: "Rconv7"
  top: "Rconv8"
  name: "Rconv8"
  type: CONVOLUTION
  blobs_lr: 0
  blobs_lr: 0
  weight_decay: 1
  weight_decay: 0
  convolution_param {
    num_output: 256
    pad: 1
    kernel_size: 3
    group: 2
  }
}
layers {
  bottom: "Rconv8"
  top: "Rconv8"
  name: "Rrelu8"
  type: RELU
}
layers {
  bottom: "Rconv8"
  top: "deconv2"
  name: "deconv2"
  type: DECONVOLUTION
  blobs_lr: 0
  blobs_lr: 0
  weight_decay: 1
  weight_decay: 0
  deconvolution_param {
    pad: 2
    kernel_size: 5
    stride: 2
    output_height: 54
    output_width: 54
    output_channels: 64
  }
}
layers {
  bottom: "deconv2"
  top: "deconv2"
  name: "relu_deconv2"
  type: RELU
  relu_param {
    negative_slope: 0.3
  }
}
layers {
  bottom: "deconv2"
  top: "deconv1"
  name: "deconv1"
  type: DECONVOLUTION
  blobs_lr: 0
  blobs_lr: 0
  weight_decay: 1
  weight_decay: 0
  deconvolution_param {
    pad: 2
    kernel_size: 5
    stride: 2
    output_height: 108
    output_width: 108
    output_channels: 32
  }
}
layers {
  bottom: "deconv1"
  top: "deconv1"
  name: "relu_deconv1"
  type: RELU
  relu_param {
    negative_slope: 0.3
  }
}
layers {
  bottom: "deconv1"
  top: "deconv0"
  name: "deconv0"
  type: DECONVOLUTION
  blobs_lr: 0
  blobs_lr: 0
  weight_decay: 1
  weight_decay: 0
  deconvolution_param {
    pad: 2
    kernel_size: 5
    stride: 2
    output_height: 216
    output_width: 216
    output_channels: 3
  }
}
layers {
  bottom: "deconv0"
  bottom: "target_ims"
  name: "loss"
  type: EUCLIDEAN_LOSS
}
I0904 16:10:34.985687 26603 net.cpp:65] Creating Layer source_ims
I0904 16:10:34.985692 26603 net.cpp:189] source_ims -> source_ims
I0904 16:10:34.985757 26603 data_layer.cpp:223] Opening lmdb /scr/r6/tgebru/inverting_conv/caffe_invert_alexnet/data/timelapse/tiny_summer_train_227lmdb
I0904 16:10:34.985903 26603 data_layer.cpp:285] output data size: 64,3,227,227
I0904 16:10:34.998466 26603 net.cpp:84] Top shape: 64 3 227 227 (9893568)
I0904 16:10:34.998486 26603 net.cpp:116] source_ims does not need backward computation.
I0904 16:10:34.998497 26603 net.cpp:65] Creating Layer target_ims
I0904 16:10:34.998502 26603 net.cpp:189] target_ims -> target_ims
I0904 16:10:34.998596 26603 data_layer.cpp:223] Opening lmdb /scr/r6/tgebru/inverting_conv/caffe_invert_alexnet/data/timelapse/tiny_winter_train_216lmdb
I0904 16:10:34.998697 26603 data_layer.cpp:285] output data size: 64,3,216,216
I0904 16:10:35.011487 26603 net.cpp:84] Top shape: 64 3 216 216 (8957952)
I0904 16:10:35.011507 26603 net.cpp:116] target_ims does not need backward computation.
I0904 16:10:35.011528 26603 net.cpp:65] Creating Layer conv1
I0904 16:10:35.011533 26603 net.cpp:228] conv1 <- source_ims
I0904 16:10:35.011543 26603 net.cpp:189] conv1 -> conv1
I0904 16:10:35.012810 26603 net.cpp:84] Top shape: 64 96 55 55 (18585600)
I0904 16:10:35.012815 26603 net.cpp:116] conv1 does not need backward computation.
I0904 16:10:35.012820 26603 net.cpp:65] Creating Layer relu1
I0904 16:10:35.012823 26603 net.cpp:228] relu1 <- conv1
I0904 16:10:35.012828 26603 net.cpp:179] relu1 -> conv1 (in-place)
I0904 16:10:35.012835 26603 net.cpp:84] Top shape: 64 96 55 55 (18585600)
I0904 16:10:35.012837 26603 net.cpp:116] relu1 does not need backward computation.
I0904 16:10:35.012843 26603 net.cpp:65] Creating Layer pool1
I0904 16:10:35.012845 26603 net.cpp:228] pool1 <- conv1
I0904 16:10:35.012850 26603 net.cpp:189] pool1 -> pool1
I0904 16:10:35.012897 26603 net.cpp:84] Top shape: 64 96 27 27 (4478976)
I0904 16:10:35.012899 26603 net.cpp:116] pool1 does not need backward computation.
I0904 16:10:35.012907 26603 net.cpp:65] Creating Layer norm1
I0904 16:10:35.012909 26603 net.cpp:228] norm1 <- pool1
I0904 16:10:35.012913 26603 net.cpp:189] norm1 -> norm1
I0904 16:10:35.012920 26603 net.cpp:84] Top shape: 64 96 27 27 (4478976)
I0904 16:10:35.012923 26603 net.cpp:116] norm1 does not need backward computation.
I0904 16:10:35.012929 26603 net.cpp:65] Creating Layer Rconv6
I0904 16:10:35.012933 26603 net.cpp:228] Rconv6 <- norm1
I0904 16:10:35.012936 26603 net.cpp:189] Rconv6 -> Rconv6
I0904 16:10:35.013512 26603 net.cpp:84] Top shape: 64 256 27 27 (11943936)
I0904 16:10:35.013516 26603 net.cpp:116] Rconv6 does not need backward computation.
I0904 16:10:35.013520 26603 net.cpp:65] Creating Layer Rrelu6
I0904 16:10:35.013523 26603 net.cpp:228] Rrelu6 <- Rconv6
I0904 16:10:35.013530 26603 net.cpp:179] Rrelu6 -> Rconv6 (in-place)
I0904 16:10:35.013533 26603 net.cpp:84] Top shape: 64 256 27 27 (11943936)
I0904 16:10:35.013536 26603 net.cpp:116] Rrelu6 does not need backward computation.
I0904 16:10:35.013542 26603 net.cpp:65] Creating Layer Rconv7
I0904 16:10:35.013545 26603 net.cpp:228] Rconv7 <- Rconv6
I0904 16:10:35.013550 26603 net.cpp:189] Rconv7 -> Rconv7
I0904 16:10:35.014307 26603 net.cpp:84] Top shape: 64 256 27 27 (11943936)
I0904 16:10:35.014312 26603 net.cpp:116] Rconv7 does not need backward computation.
I0904 16:10:35.014315 26603 net.cpp:65] Creating Layer Rrelu7
I0904 16:10:35.014318 26603 net.cpp:228] Rrelu7 <- Rconv7
I0904 16:10:35.014322 26603 net.cpp:179] Rrelu7 -> Rconv7 (in-place)
I0904 16:10:35.014325 26603 net.cpp:84] Top shape: 64 256 27 27 (11943936)
I0904 16:10:35.014328 26603 net.cpp:116] Rrelu7 does not need backward computation.
I0904 16:10:35.014333 26603 net.cpp:65] Creating Layer Rconv8
I0904 16:10:35.014335 26603 net.cpp:228] Rconv8 <- Rconv7
I0904 16:10:35.014341 26603 net.cpp:189] Rconv8 -> Rconv8
I0904 16:10:35.015081 26603 net.cpp:84] Top shape: 64 256 27 27 (11943936)
I0904 16:10:35.015085 26603 net.cpp:116] Rconv8 does not need backward computation.
I0904 16:10:35.015092 26603 net.cpp:65] Creating Layer Rrelu8
I0904 16:10:35.015095 26603 net.cpp:228] Rrelu8 <- Rconv8
I0904 16:10:35.015099 26603 net.cpp:179] Rrelu8 -> Rconv8 (in-place)
I0904 16:10:35.015102 26603 net.cpp:84] Top shape: 64 256 27 27 (11943936)
I0904 16:10:35.015105 26603 net.cpp:116] Rrelu8 does not need backward computation.
I0904 16:10:35.015110 26603 net.cpp:65] Creating Layer deconv2
I0904 16:10:35.015113 26603 net.cpp:228] deconv2 <- Rconv8
I0904 16:10:35.015117 26603 net.cpp:189] deconv2 -> deconv2
I0904 16:10:35.016165 26603 net.cpp:84] Top shape: 64 64 54 54 (11943936)
I0904 16:10:35.016170 26603 net.cpp:116] deconv2 does not need backward computation.
I0904 16:10:35.016176 26603 net.cpp:65] Creating Layer relu_deconv2
I0904 16:10:35.016180 26603 net.cpp:228] relu_deconv2 <- deconv2
I0904 16:10:35.016183 26603 net.cpp:179] relu_deconv2 -> deconv2 (in-place)
I0904 16:10:35.016190 26603 net.cpp:84] Top shape: 64 64 54 54 (11943936)
I0904 16:10:35.016192 26603 net.cpp:116] relu_deconv2 does not need backward computation.
I0904 16:10:35.016196 26603 net.cpp:65] Creating Layer deconv1
I0904 16:10:35.016199 26603 net.cpp:228] deconv1 <- deconv2
I0904 16:10:35.016204 26603 net.cpp:189] deconv1 -> deconv1
I0904 16:10:35.016345 26603 net.cpp:84] Top shape: 64 32 108 108 (23887872)
I0904 16:10:35.016348 26603 net.cpp:116] deconv1 does not need backward computation.
I0904 16:10:35.016352 26603 net.cpp:65] Creating Layer relu_deconv1
I0904 16:10:35.016355 26603 net.cpp:228] relu_deconv1 <- deconv1
I0904 16:10:35.016358 26603 net.cpp:179] relu_deconv1 -> deconv1 (in-place)
I0904 16:10:35.016362 26603 net.cpp:84] Top shape: 64 32 108 108 (23887872)
I0904 16:10:35.016366 26603 net.cpp:116] relu_deconv1 does not need backward computation.
I0904 16:10:35.016373 26603 net.cpp:65] Creating Layer deconv0
I0904 16:10:35.016376 26603 net.cpp:228] deconv0 <- deconv1
I0904 16:10:35.016392 26603 net.cpp:189] deconv0 -> deconv0
I0904 16:10:35.016440 26603 net.cpp:84] Top shape: 64 3 216 216 (8957952)
I0904 16:10:35.016443 26603 net.cpp:116] deconv0 does not need backward computation.
I0904 16:10:35.016448 26603 net.cpp:65] Creating Layer loss
I0904 16:10:35.016450 26603 net.cpp:228] loss <- deconv0
I0904 16:10:35.016453 26603 net.cpp:228] loss <- target_ims
I0904 16:10:35.016458 26603 net.cpp:116] loss does not need backward computation.
I0904 16:10:35.016472 26603 net.cpp:238] Collecting Learning Rate and Weight Decay.
…
