…
I0903 20:38:49.188814 19445 solver.cpp:59] Creating training net from file: /scr/r6/tgebru/inverting_conv/caffe_invert_alexnet/timnit_models/att_conv1/timelapse_summer_winter/train_summer_winter.prototxt
I0903 20:38:49.189488 19445 net.cpp:36] Initializing net from parameters: 
name: "CaffeNet"
layers {
  top: "source_ims"
  name: "source_ims"
  type: DATA
  data_param {
    source: "/scr/r6/tgebru/inverting_conv/caffe_invert_alexnet/data/timelapse/tiny_summer_train_227lmdb"
    batch_size: 64
    backend: LMDB
  }
}
layers {
  top: "target_ims"
  name: "target_ims"
  type: DATA
  data_param {
    source: "/scr/r6/tgebru/inverting_conv/caffe_invert_alexnet/data/timelapse/tiny_winter_train_216lmdb"
    batch_size: 64
    backend: LMDB
  }
}
layers {
  bottom: "source_ims"
  top: "conv1"
  name: "conv1"
  type: CONVOLUTION
  blobs_lr: 0
  blobs_lr: 0
  weight_decay: 1
  weight_decay: 0
  convolution_param {
    num_output: 96
    kernel_size: 11
    stride: 4
    weight_filler {
      type: "gaussian"
      std: 0.01
    }
    bias_filler {
      type: "constant"
      value: 0
    }
  }
}
layers {
  bottom: "conv1"
  top: "conv1"
  name: "relu1"
  type: RELU
}
layers {
  bottom: "conv1"
  top: "pool1"
  name: "pool1"
  type: POOLING
  pooling_param {
    pool: MAX
    kernel_size: 3
    stride: 2
  }
}
layers {
  bottom: "pool1"
  top: "norm1"
  name: "norm1"
  type: LRN
  lrn_param {
    local_size: 5
    alpha: 0.0001
    beta: 0.75
  }
}
layers {
  bottom: "norm1"
  top: "Rconv6"
  name: "Rconv6"
  type: CONVOLUTION
  blobs_lr: 1
  blobs_lr: 2
  weight_decay: 1
  weight_decay: 0
  convolution_param {
    num_output: 256
    pad: 1
    kernel_size: 3
  }
}
layers {
  bottom: "Rconv6"
  top: "Rconv6"
  name: "Rrelu6"
  type: RELU
}
layers {
  bottom: "Rconv6"
  top: "Rconv7"
  name: "Rconv7"
  type: CONVOLUTION
  blobs_lr: 1
  blobs_lr: 2
  weight_decay: 1
  weight_decay: 0
  convolution_param {
    num_output: 256
    pad: 1
    kernel_size: 3
    group: 2
  }
}
layers {
  bottom: "Rconv7"
  top: "Rconv7"
  name: "Rrelu7"
  type: RELU
}
layers {
  bottom: "Rconv7"
  top: "Rconv8"
  name: "Rconv8"
  type: CONVOLUTION
  blobs_lr: 1
  blobs_lr: 2
  weight_decay: 1
  weight_decay: 0
  convolution_param {
    num_output: 256
    pad: 1
    kernel_size: 3
    group: 2
  }
}
layers {
  bottom: "Rconv8"
  top: "Rconv8"
  name: "Rrelu8"
  type: RELU
}
layers {
  bottom: "Rconv8"
  top: "deconv2"
  name: "deconv2"
  type: DECONVOLUTION
  blobs_lr: 1
  blobs_lr: 2
  weight_decay: 1
  weight_decay: 0
  deconvolution_param {
    pad: 2
    kernel_size: 5
    stride: 2
    output_height: 54
    output_width: 54
    output_channels: 64
  }
}
layers {
  bottom: "deconv2"
  top: "deconv2"
  name: "relu_deconv2"
  type: RELU
  relu_param {
    negative_slope: 0.3
  }
}
layers {
  bottom: "deconv2"
  top: "deconv1"
  name: "deconv1"
  type: DECONVOLUTION
  blobs_lr: 1
  blobs_lr: 2
  weight_decay: 1
  weight_decay: 0
  deconvolution_param {
    pad: 2
    kernel_size: 5
    stride: 2
    output_height: 108
    output_width: 108
    output_channels: 32
  }
}
layers {
  bottom: "deconv1"
  top: "deconv1"
  name: "relu_deconv1"
  type: RELU
  relu_param {
    negative_slope: 0.3
  }
}
layers {
  bottom: "deconv1"
  top: "deconv0"
  name: "deconv0"
  type: DECONVOLUTION
  blobs_lr: 1
  blobs_lr: 2
  weight_decay: 1
  weight_decay: 1
  deconvolution_param {
    pad: 2
    kernel_size: 5
    stride: 2
    output_height: 216
    output_width: 216
    output_channels: 3
  }
}
layers {
  bottom: "deconv0"
  bottom: "target_ims"
  name: "loss"
  type: EUCLIDEAN_LOSS
}
I0903 20:38:49.189623 19445 net.cpp:65] Creating Layer source_ims
I0903 20:38:49.189632 19445 net.cpp:189] source_ims -> source_ims
I0903 20:38:49.189741 19445 data_layer.cpp:223] Opening lmdb /scr/r6/tgebru/inverting_conv/caffe_invert_alexnet/data/timelapse/tiny_summer_train_227lmdb
I0903 20:38:49.189909 19445 data_layer.cpp:285] output data size: 64,3,227,227
I0903 20:38:49.243836 19445 net.cpp:84] Top shape: 64 3 227 227 (9893568)
I0903 20:38:49.243855 19445 net.cpp:116] source_ims does not need backward computation.
I0903 20:38:49.243867 19445 net.cpp:65] Creating Layer target_ims
I0903 20:38:49.243872 19445 net.cpp:189] target_ims -> target_ims
I0903 20:38:49.244032 19445 data_layer.cpp:223] Opening lmdb /scr/r6/tgebru/inverting_conv/caffe_invert_alexnet/data/timelapse/tiny_winter_train_216lmdb
I0903 20:38:49.244228 19445 data_layer.cpp:285] output data size: 64,3,216,216
I0903 20:38:49.269189 19445 net.cpp:84] Top shape: 64 3 216 216 (8957952)
I0903 20:38:49.269212 19445 net.cpp:116] target_ims does not need backward computation.
I0903 20:38:49.269227 19445 net.cpp:65] Creating Layer conv1
I0903 20:38:49.269232 19445 net.cpp:228] conv1 <- source_ims
I0903 20:38:49.269285 19445 net.cpp:189] conv1 -> conv1
I0903 20:38:49.270676 19445 net.cpp:84] Top shape: 64 96 55 55 (18585600)
I0903 20:38:49.270687 19445 net.cpp:116] conv1 does not need backward computation.
I0903 20:38:49.270694 19445 net.cpp:65] Creating Layer relu1
I0903 20:38:49.270697 19445 net.cpp:228] relu1 <- conv1
I0903 20:38:49.270704 19445 net.cpp:179] relu1 -> conv1 (in-place)
I0903 20:38:49.270714 19445 net.cpp:84] Top shape: 64 96 55 55 (18585600)
I0903 20:38:49.270717 19445 net.cpp:116] relu1 does not need backward computation.
I0903 20:38:49.270723 19445 net.cpp:65] Creating Layer pool1
I0903 20:38:49.270726 19445 net.cpp:228] pool1 <- conv1
I0903 20:38:49.270730 19445 net.cpp:189] pool1 -> pool1
I0903 20:38:49.270743 19445 net.cpp:84] Top shape: 64 96 27 27 (4478976)
I0903 20:38:49.270747 19445 net.cpp:116] pool1 does not need backward computation.
I0903 20:38:49.270752 19445 net.cpp:65] Creating Layer norm1
I0903 20:38:49.270756 19445 net.cpp:228] norm1 <- pool1
I0903 20:38:49.270761 19445 net.cpp:189] norm1 -> norm1
I0903 20:38:49.270769 19445 net.cpp:84] Top shape: 64 96 27 27 (4478976)
I0903 20:38:49.270772 19445 net.cpp:116] norm1 does not need backward computation.
I0903 20:38:49.270778 19445 net.cpp:65] Creating Layer Rconv6
I0903 20:38:49.270781 19445 net.cpp:228] Rconv6 <- norm1
I0903 20:38:49.270786 19445 net.cpp:189] Rconv6 -> Rconv6
I0903 20:38:49.271389 19445 net.cpp:84] Top shape: 64 256 27 27 (11943936)
I0903 20:38:49.271394 19445 net.cpp:111] Rconv6 needs backward computation.
I0903 20:38:49.271399 19445 net.cpp:65] Creating Layer Rrelu6
I0903 20:38:49.271402 19445 net.cpp:228] Rrelu6 <- Rconv6
I0903 20:38:49.271410 19445 net.cpp:179] Rrelu6 -> Rconv6 (in-place)
I0903 20:38:49.271414 19445 net.cpp:84] Top shape: 64 256 27 27 (11943936)
I0903 20:38:49.271417 19445 net.cpp:111] Rrelu6 needs backward computation.
I0903 20:38:49.271423 19445 net.cpp:65] Creating Layer Rconv7
I0903 20:38:49.271426 19445 net.cpp:228] Rconv7 <- Rconv6
I0903 20:38:49.271430 19445 net.cpp:189] Rconv7 -> Rconv7
I0903 20:38:49.272256 19445 net.cpp:84] Top shape: 64 256 27 27 (11943936)
I0903 20:38:49.272260 19445 net.cpp:111] Rconv7 needs backward computation.
I0903 20:38:49.272267 19445 net.cpp:65] Creating Layer Rrelu7
I0903 20:38:49.272270 19445 net.cpp:228] Rrelu7 <- Rconv7
I0903 20:38:49.272274 19445 net.cpp:179] Rrelu7 -> Rconv7 (in-place)
I0903 20:38:49.272279 19445 net.cpp:84] Top shape: 64 256 27 27 (11943936)
I0903 20:38:49.272281 19445 net.cpp:111] Rrelu7 needs backward computation.
I0903 20:38:49.272285 19445 net.cpp:65] Creating Layer Rconv8
I0903 20:38:49.272289 19445 net.cpp:228] Rconv8 <- Rconv7
I0903 20:38:49.272295 19445 net.cpp:189] Rconv8 -> Rconv8
I0903 20:38:49.273108 19445 net.cpp:84] Top shape: 64 256 27 27 (11943936)
I0903 20:38:49.273113 19445 net.cpp:111] Rconv8 needs backward computation.
I0903 20:38:49.273118 19445 net.cpp:65] Creating Layer Rrelu8
I0903 20:38:49.273120 19445 net.cpp:228] Rrelu8 <- Rconv8
I0903 20:38:49.273124 19445 net.cpp:179] Rrelu8 -> Rconv8 (in-place)
I0903 20:38:49.273128 19445 net.cpp:84] Top shape: 64 256 27 27 (11943936)
I0903 20:38:49.273130 19445 net.cpp:111] Rrelu8 needs backward computation.
I0903 20:38:49.273138 19445 net.cpp:65] Creating Layer deconv2
I0903 20:38:49.273140 19445 net.cpp:228] deconv2 <- Rconv8
I0903 20:38:49.273144 19445 net.cpp:189] deconv2 -> deconv2
I0903 20:38:49.274253 19445 net.cpp:84] Top shape: 64 64 54 54 (11943936)
I0903 20:38:49.274258 19445 net.cpp:111] deconv2 needs backward computation.
I0903 20:38:49.274263 19445 net.cpp:65] Creating Layer relu_deconv2
I0903 20:38:49.274266 19445 net.cpp:228] relu_deconv2 <- deconv2
I0903 20:38:49.274271 19445 net.cpp:179] relu_deconv2 -> deconv2 (in-place)
I0903 20:38:49.274276 19445 net.cpp:84] Top shape: 64 64 54 54 (11943936)
I0903 20:38:49.274279 19445 net.cpp:111] relu_deconv2 needs backward computation.
I0903 20:38:49.274283 19445 net.cpp:65] Creating Layer deconv1
I0903 20:38:49.274286 19445 net.cpp:228] deconv1 <- deconv2
I0903 20:38:49.274289 19445 net.cpp:189] deconv1 -> deconv1
I0903 20:38:49.274444 19445 net.cpp:84] Top shape: 64 32 108 108 (23887872)
I0903 20:38:49.274447 19445 net.cpp:111] deconv1 needs backward computation.
I0903 20:38:49.274453 19445 net.cpp:65] Creating Layer relu_deconv1
I0903 20:38:49.274456 19445 net.cpp:228] relu_deconv1 <- deconv1
I0903 20:38:49.274461 19445 net.cpp:179] relu_deconv1 -> deconv1 (in-place)
I0903 20:38:49.274464 19445 net.cpp:84] Top shape: 64 32 108 108 (23887872)
I0903 20:38:49.274467 19445 net.cpp:111] relu_deconv1 needs backward computation.
I0903 20:38:49.274474 19445 net.cpp:65] Creating Layer deconv0
I0903 20:38:49.274477 19445 net.cpp:228] deconv0 <- deconv1
I0903 20:38:49.274480 19445 net.cpp:189] deconv0 -> deconv0
I0903 20:38:49.274528 19445 net.cpp:84] Top shape: 64 3 216 216 (8957952)
I0903 20:38:49.274531 19445 net.cpp:111] deconv0 needs backward computation.
I0903 20:38:49.274535 19445 net.cpp:65] Creating Layer loss
I0903 20:38:49.274538 19445 net.cpp:228] loss <- deconv0
I0903 20:38:49.274541 19445 net.cpp:228] loss <- target_ims
I0903 20:38:49.274549 19445 net.cpp:111] loss needs backward computation.
I0903 20:38:49.274564 19445 net.cpp:238] Collecting Learning Rate and Weight Decay.
I0903 20:38:49.274574 19445 net.cpp:161] Network initialization done.
I0903 20:38:49.274576 19445 net.cpp:162] Memory required for data: 0
I0903 20:38:49.274618 19445 solver.cpp:78] Creating testing net (#0) from file: /scr/r6/tgebru/inverting_conv/caffe_invert_alexnet/timnit_models/att_conv1/timelapse_summer_winter/val_summer_winter.prototxt
I0903 20:38:49.275228 19445 net.cpp:36] Initializing net from parameters: 
name: "CaffeNet"
layers {
  top: "source_ims"
  name: "source_ims"
  type: DATA
  data_param {
    source: "/scr/r6/tgebru/inverting_conv/caffe_invert_alexnet/data/timelapse/tiny_summer_train_227lmdb"
    batch_size: 64
    backend: LMDB
  }
}
layers {
  top: "target_ims"
  name: "target_ims"
  type: DATA
  data_param {
    source: "/scr/r6/tgebru/inverting_conv/caffe_invert_alexnet/data/timelapse/tiny_winter_train_216lmdb"
    batch_size: 64
    backend: LMDB
  }
}
layers {
  bottom: "source_ims"
  top: "conv1"
  name: "conv1"
  type: CONVOLUTION
  blobs_lr: 0
  blobs_lr: 0
  weight_decay: 1
  weight_decay: 0
  convolution_param {
    num_output: 96
    kernel_size: 11
    stride: 4
    weight_filler {
      type: "gaussian"
      std: 0.01
    }
    bias_filler {
      type: "constant"
      value: 0
    }
  }
}
layers {
  bottom: "conv1"
  top: "conv1"
  name: "relu1"
  type: RELU
}
layers {
  bottom: "conv1"
  top: "pool1"
  name: "pool1"
  type: POOLING
  pooling_param {
    pool: MAX
    kernel_size: 3
    stride: 2
  }
}
layers {
  bottom: "pool1"
  top: "norm1"
  name: "norm1"
  type: LRN
  lrn_param {
    local_size: 5
    alpha: 0.0001
    beta: 0.75
  }
}
layers {
  bottom: "norm1"
  top: "Rconv6"
  name: "Rconv6"
  type: CONVOLUTION
  blobs_lr: 0
  blobs_lr: 0
  weight_decay: 1
  weight_decay: 0
  convolution_param {
    num_output: 256
    pad: 1
    kernel_size: 3
  }
}
layers {
  bottom: "Rconv6"
  top: "Rconv6"
  name: "Rrelu6"
  type: RELU
}
layers {
  bottom: "Rconv6"
  top: "Rconv7"
  name: "Rconv7"
  type: CONVOLUTION
  blobs_lr: 0
  blobs_lr: 0
  weight_decay: 1
  weight_decay: 0
  convolution_param {
    num_output: 256
    pad: 1
    kernel_size: 3
    group: 2
  }
}
layers {
  bottom: "Rconv7"
  top: "Rconv7"
  name: "Rrelu7"
  type: RELU
}
layers {
  bottom: "Rconv7"
  top: "Rconv8"
  name: "Rconv8"
  type: CONVOLUTION
  blobs_lr: 0
  blobs_lr: 0
  weight_decay: 1
  weight_decay: 0
  convolution_param {
    num_output: 256
    pad: 1
    kernel_size: 3
    group: 2
  }
}
layers {
  bottom: "Rconv8"
  top: "Rconv8"
  name: "Rrelu8"
  type: RELU
}
layers {
  bottom: "Rconv8"
  top: "deconv2"
  name: "deconv2"
  type: DECONVOLUTION
  blobs_lr: 0
  blobs_lr: 0
  weight_decay: 1
  weight_decay: 0
  deconvolution_param {
    pad: 2
    kernel_size: 5
    stride: 2
    output_height: 54
    output_width: 54
    output_channels: 64
  }
}
layers {
  bottom: "deconv2"
  top: "deconv2"
  name: "relu_deconv2"
  type: RELU
  relu_param {
    negative_slope: 0.3
  }
}
layers {
  bottom: "deconv2"
  top: "deconv1"
  name: "deconv1"
  type: DECONVOLUTION
  blobs_lr: 0
  blobs_lr: 0
  weight_decay: 1
  weight_decay: 0
  deconvolution_param {
    pad: 2
    kernel_size: 5
    stride: 2
    output_height: 108
    output_width: 108
    output_channels: 32
  }
}
layers {
  bottom: "deconv1"
  top: "deconv1"
  name: "relu_deconv1"
  type: RELU
  relu_param {
    negative_slope: 0.3
  }
}
layers {
  bottom: "deconv1"
  top: "deconv0"
  name: "deconv0"
  type: DECONVOLUTION
  blobs_lr: 0
  blobs_lr: 0
  weight_decay: 1
  weight_decay: 0
  deconvolution_param {
    pad: 2
    kernel_size: 5
    stride: 2
    output_height: 216
    output_width: 216
    output_channels: 3
  }
}
layers {
  bottom: "deconv0"
  bottom: "target_ims"
  name: "loss"
  type: EUCLIDEAN_LOSS
}
I0903 20:38:49.275316 19445 net.cpp:65] Creating Layer source_ims
I0903 20:38:49.275321 19445 net.cpp:189] source_ims -> source_ims
I0903 20:38:49.275379 19445 data_layer.cpp:223] Opening lmdb /scr/r6/tgebru/inverting_conv/caffe_invert_alexnet/data/timelapse/tiny_summer_train_227lmdb
I0903 20:38:49.275527 19445 data_layer.cpp:285] output data size: 64,3,227,227
I0903 20:38:49.325909 19445 net.cpp:84] Top shape: 64 3 227 227 (9893568)
I0903 20:38:49.325928 19445 net.cpp:116] source_ims does not need backward computation.
I0903 20:38:49.325939 19445 net.cpp:65] Creating Layer target_ims
I0903 20:38:49.325944 19445 net.cpp:189] target_ims -> target_ims
I0903 20:38:49.326120 19445 data_layer.cpp:223] Opening lmdb /scr/r6/tgebru/inverting_conv/caffe_invert_alexnet/data/timelapse/tiny_winter_train_216lmdb
I0903 20:38:49.326303 19445 data_layer.cpp:285] output data size: 64,3,216,216
I0903 20:38:49.353534 19445 net.cpp:84] Top shape: 64 3 216 216 (8957952)
I0903 20:38:49.353559 19445 net.cpp:116] target_ims does not need backward computation.
I0903 20:38:49.353576 19445 net.cpp:65] Creating Layer conv1
I0903 20:38:49.353581 19445 net.cpp:228] conv1 <- source_ims
I0903 20:38:49.353591 19445 net.cpp:189] conv1 -> conv1
I0903 20:38:49.354889 19445 net.cpp:84] Top shape: 64 96 55 55 (18585600)
I0903 20:38:49.354894 19445 net.cpp:116] conv1 does not need backward computation.
I0903 20:38:49.354899 19445 net.cpp:65] Creating Layer relu1
I0903 20:38:49.354902 19445 net.cpp:228] relu1 <- conv1
I0903 20:38:49.354907 19445 net.cpp:179] relu1 -> conv1 (in-place)
I0903 20:38:49.354913 19445 net.cpp:84] Top shape: 64 96 55 55 (18585600)
I0903 20:38:49.354917 19445 net.cpp:116] relu1 does not need backward computation.
I0903 20:38:49.354923 19445 net.cpp:65] Creating Layer pool1
I0903 20:38:49.354925 19445 net.cpp:228] pool1 <- conv1
I0903 20:38:49.354933 19445 net.cpp:189] pool1 -> pool1
I0903 20:38:49.354984 19445 net.cpp:84] Top shape: 64 96 27 27 (4478976)
I0903 20:38:49.354986 19445 net.cpp:116] pool1 does not need backward computation.
I0903 20:38:49.354995 19445 net.cpp:65] Creating Layer norm1
I0903 20:38:49.354997 19445 net.cpp:228] norm1 <- pool1
I0903 20:38:49.355001 19445 net.cpp:189] norm1 -> norm1
I0903 20:38:49.355007 19445 net.cpp:84] Top shape: 64 96 27 27 (4478976)
I0903 20:38:49.355010 19445 net.cpp:116] norm1 does not need backward computation.
I0903 20:38:49.355015 19445 net.cpp:65] Creating Layer Rconv6
I0903 20:38:49.355018 19445 net.cpp:228] Rconv6 <- norm1
I0903 20:38:49.355023 19445 net.cpp:189] Rconv6 -> Rconv6
I0903 20:38:49.355655 19445 net.cpp:84] Top shape: 64 256 27 27 (11943936)
I0903 20:38:49.355659 19445 net.cpp:116] Rconv6 does not need backward computation.
I0903 20:38:49.355664 19445 net.cpp:65] Creating Layer Rrelu6
I0903 20:38:49.355666 19445 net.cpp:228] Rrelu6 <- Rconv6
I0903 20:38:49.355674 19445 net.cpp:179] Rrelu6 -> Rconv6 (in-place)
I0903 20:38:49.355679 19445 net.cpp:84] Top shape: 64 256 27 27 (11943936)
I0903 20:38:49.355681 19445 net.cpp:116] Rrelu6 does not need backward computation.
I0903 20:38:49.355687 19445 net.cpp:65] Creating Layer Rconv7
I0903 20:38:49.355690 19445 net.cpp:228] Rconv7 <- Rconv6
I0903 20:38:49.355693 19445 net.cpp:189] Rconv7 -> Rconv7
I0903 20:38:49.356524 19445 net.cpp:84] Top shape: 64 256 27 27 (11943936)
I0903 20:38:49.356528 19445 net.cpp:116] Rconv7 does not need backward computation.
I0903 20:38:49.356534 19445 net.cpp:65] Creating Layer Rrelu7
I0903 20:38:49.356537 19445 net.cpp:228] Rrelu7 <- Rconv7
I0903 20:38:49.356541 19445 net.cpp:179] Rrelu7 -> Rconv7 (in-place)
I0903 20:38:49.356545 19445 net.cpp:84] Top shape: 64 256 27 27 (11943936)
I0903 20:38:49.356549 19445 net.cpp:116] Rrelu7 does not need backward computation.
I0903 20:38:49.356552 19445 net.cpp:65] Creating Layer Rconv8
I0903 20:38:49.356555 19445 net.cpp:228] Rconv8 <- Rconv7
I0903 20:38:49.356560 19445 net.cpp:189] Rconv8 -> Rconv8
I0903 20:38:49.357321 19445 net.cpp:84] Top shape: 64 256 27 27 (11943936)
I0903 20:38:49.357326 19445 net.cpp:116] Rconv8 does not need backward computation.
I0903 20:38:49.357331 19445 net.cpp:65] Creating Layer Rrelu8
I0903 20:38:49.357332 19445 net.cpp:228] Rrelu8 <- Rconv8
I0903 20:38:49.357336 19445 net.cpp:179] Rrelu8 -> Rconv8 (in-place)
I0903 20:38:49.357341 19445 net.cpp:84] Top shape: 64 256 27 27 (11943936)
I0903 20:38:49.357343 19445 net.cpp:116] Rrelu8 does not need backward computation.
I0903 20:38:49.357352 19445 net.cpp:65] Creating Layer deconv2
I0903 20:38:49.357353 19445 net.cpp:228] deconv2 <- Rconv8
I0903 20:38:49.357357 19445 net.cpp:189] deconv2 -> deconv2
I0903 20:38:49.358428 19445 net.cpp:84] Top shape: 64 64 54 54 (11943936)
I0903 20:38:49.358431 19445 net.cpp:116] deconv2 does not need backward computation.
I0903 20:38:49.358438 19445 net.cpp:65] Creating Layer relu_deconv2
I0903 20:38:49.358443 19445 net.cpp:228] relu_deconv2 <- deconv2
I0903 20:38:49.358446 19445 net.cpp:179] relu_deconv2 -> deconv2 (in-place)
I0903 20:38:49.358450 19445 net.cpp:84] Top shape: 64 64 54 54 (11943936)
I0903 20:38:49.358453 19445 net.cpp:116] relu_deconv2 does not need backward computation.
I0903 20:38:49.358458 19445 net.cpp:65] Creating Layer deconv1
I0903 20:38:49.358460 19445 net.cpp:228] deconv1 <- deconv2
I0903 20:38:49.358464 19445 net.cpp:189] deconv1 -> deconv1
I0903 20:38:49.358620 19445 net.cpp:84] Top shape: 64 32 108 108 (23887872)
I0903 20:38:49.358624 19445 net.cpp:116] deconv1 does not need backward computation.
I0903 20:38:49.358633 19445 net.cpp:65] Creating Layer relu_deconv1
I0903 20:38:49.358635 19445 net.cpp:228] relu_deconv1 <- deconv1
I0903 20:38:49.358639 19445 net.cpp:179] relu_deconv1 -> deconv1 (in-place)
I0903 20:38:49.358642 19445 net.cpp:84] Top shape: 64 32 108 108 (23887872)
I0903 20:38:49.358645 19445 net.cpp:116] relu_deconv1 does not need backward computation.
I0903 20:38:49.358652 19445 net.cpp:65] Creating Layer deconv0
I0903 20:38:49.358655 19445 net.cpp:228] deconv0 <- deconv1
I0903 20:38:49.358671 19445 net.cpp:189] deconv0 -> deconv0
I0903 20:38:49.358712 19445 net.cpp:84] Top shape: 64 3 216 216 (8957952)
I0903 20:38:49.358716 19445 net.cpp:116] deconv0 does not need backward computation.
I0903 20:38:49.358721 19445 net.cpp:65] Creating Layer loss
I0903 20:38:49.358722 19445 net.cpp:228] loss <- deconv0
I0903 20:38:49.358726 19445 net.cpp:228] loss <- target_ims
I0903 20:38:49.358731 19445 net.cpp:116] loss does not need backward computation.
I0903 20:38:49.358744 19445 net.cpp:238] Collecting Learning Rate and Weight Decay.
…
