…
    source: "/scr/r6/tgebru/inverting_conv/caffe_invert_alexnet/data/siggraph/tiny_summer_train_lmdb"
    mean_file: "/scr/r6/tgebru/timnit_caffe/data/ilsvrc12/imagenet_mean.binaryproto"
    batch_size: 12
    crop_size: 227
    mirror: false
    backend: LMDB
  }
}
layers {
  top: "target_ims"
  name: "target_ims"
  type: DATA
  data_param {
    source: "/scr/r6/tgebru/inverting_conv/caffe_invert_alexnet/data/siggraph/tiny_summer_train_lmdb"
    mean_file: "/scr/r6/tgebru/timnit_caffe/data/ilsvrc12/imagenet_mean.binaryproto"
    batch_size: 12
    crop_size: 216
    mirror: false
    backend: LMDB
  }
}
layers {
  bottom: "source_ims"
  top: "conv1"
  name: "conv1"
  type: CONVOLUTION
  blobs_lr: 0
  blobs_lr: 0
  weight_decay: 1
  weight_decay: 0
  convolution_param {
    num_output: 96
    kernel_size: 11
    stride: 4
    weight_filler {
      type: "gaussian"
      std: 0.01
    }
    bias_filler {
      type: "constant"
      value: 0
    }
  }
}
layers {
  bottom: "conv1"
  top: "conv1"
  name: "relu1"
  type: RELU
}
layers {
  bottom: "conv1"
  top: "pool1"
  name: "pool1"
  type: POOLING
  pooling_param {
    pool: MAX
    kernel_size: 3
    stride: 2
  }
}
layers {
  bottom: "pool1"
  top: "norm1"
  name: "norm1"
  type: LRN
  lrn_param {
    local_size: 5
    alpha: 0.0001
    beta: 0.75
  }
}
layers {
  bottom: "norm1"
  top: "Rconv6"
  name: "Rconv6"
  type: CONVOLUTION
  blobs_lr: 1
  blobs_lr: 2
  weight_decay: 1
  weight_decay: 0
  convolution_param {
    num_output: 256
    pad: 1
    kernel_size: 3
  }
}
layers {
  bottom: "Rconv6"
  top: "Rconv6"
  name: "Rrelu6"
  type: RELU
}
layers {
  bottom: "Rconv6"
  top: "Rconv7"
  name: "Rconv7"
  type: CONVOLUTION
  blobs_lr: 1
  blobs_lr: 2
  weight_decay: 1
  weight_decay: 0
  convolution_param {
    num_output: 256
    pad: 1
    kernel_size: 3
    group: 2
  }
}
layers {
  bottom: "Rconv7"
  top: "Rconv7"
  name: "Rrelu7"
  type: RELU
}
layers {
  bottom: "Rconv7"
  top: "Rconv8"
  name: "Rconv8"
  type: CONVOLUTION
  blobs_lr: 1
  blobs_lr: 2
  weight_decay: 1
  weight_decay: 0
  convolution_param {
    num_output: 256
    pad: 1
    kernel_size: 3
    group: 2
  }
}
layers {
  bottom: "Rconv8"
  top: "Rconv8"
  name: "Rrelu8"
  type: RELU
}
layers {
  bottom: "Rconv8"
  top: "deconv2"
  name: "deconv2"
  type: DECONVOLUTION
  blobs_lr: 1
  blobs_lr: 2
  weight_decay: 1
  weight_decay: 0
  deconvolution_param {
    pad: 2
    kernel_size: 5
    stride: 2
    output_height: 54
    output_width: 54
    output_channels: 64
  }
}
layers {
  bottom: "deconv2"
  top: "deconv2"
  name: "relu_deconv2"
  type: RELU
  relu_param {
    negative_slope: 0.3
  }
}
layers {
  bottom: "deconv2"
  top: "deconv1"
  name: "deconv1"
  type: DECONVOLUTION
  blobs_lr: 1
  blobs_lr: 2
  weight_decay: 1
  weight_decay: 0
  deconvolution_param {
    pad: 2
    kernel_size: 5
    stride: 2
    output_height: 108
    output_width: 108
    output_channels: 32
  }
}
layers {
  bottom: "deconv1"
  top: "deconv1"
  name: "relu_deconv1"
  type: RELU
  relu_param {
    negative_slope: 0.3
  }
}
layers {
  bottom: "deconv1"
  top: "deconv0"
  name: "deconv0"
  type: DECONVOLUTION
  blobs_lr: 1
  blobs_lr: 2
  weight_decay: 1
  weight_decay: 1
  deconvolution_param {
    pad: 2
    kernel_size: 5
    stride: 2
    output_height: 216
    output_width: 216
    output_channels: 3
  }
}
layers {
  bottom: "deconv0"
  bottom: "target_ims"
  name: "loss"
  type: EUCLIDEAN_LOSS
}
I0813 06:11:30.335458 21381 net.cpp:65] Creating Layer source_ims
I0813 06:11:30.335465 21381 net.cpp:189] source_ims -> source_ims
I0813 06:11:30.335583 21381 data_layer.cpp:223] Opening lmdb /scr/r6/tgebru/inverting_conv/caffe_invert_alexnet/data/siggraph/tiny_summer_train_lmdb
I0813 06:11:30.335800 21381 data_layer.cpp:285] output data size: 12,3,227,227
I0813 06:11:30.335808 21381 data_layer.cpp:304] Loading mean file from/scr/r6/tgebru/timnit_caffe/data/ilsvrc12/imagenet_mean.binaryproto
I0813 06:11:30.340306 21381 net.cpp:84] Top shape: 12 3 227 227 (1855044)
I0813 06:11:30.340314 21381 net.cpp:116] source_ims does not need backward computation.
I0813 06:11:30.340322 21381 net.cpp:65] Creating Layer target_ims
I0813 06:11:30.340327 21381 net.cpp:189] target_ims -> target_ims
I0813 06:11:30.340488 21381 data_layer.cpp:223] Opening lmdb /scr/r6/tgebru/inverting_conv/caffe_invert_alexnet/data/siggraph/tiny_summer_train_lmdb
I0813 06:11:30.340610 21381 data_layer.cpp:285] output data size: 12,3,216,216
I0813 06:11:30.340615 21381 data_layer.cpp:304] Loading mean file from/scr/r6/tgebru/timnit_caffe/data/ilsvrc12/imagenet_mean.binaryproto
I0813 06:11:30.345026 21381 net.cpp:84] Top shape: 12 3 216 216 (1679616)
I0813 06:11:30.345034 21381 net.cpp:116] target_ims does not need backward computation.
I0813 06:11:30.345044 21381 net.cpp:65] Creating Layer conv1
I0813 06:11:30.345048 21381 net.cpp:228] conv1 <- source_ims
I0813 06:11:30.345134 21381 net.cpp:189] conv1 -> conv1
I0813 06:11:30.346524 21381 net.cpp:84] Top shape: 12 96 55 55 (3484800)
I0813 06:11:30.346530 21381 net.cpp:116] conv1 does not need backward computation.
I0813 06:11:30.346535 21381 net.cpp:65] Creating Layer relu1
I0813 06:11:30.346539 21381 net.cpp:228] relu1 <- conv1
I0813 06:11:30.346544 21381 net.cpp:179] relu1 -> conv1 (in-place)
I0813 06:11:30.346554 21381 net.cpp:84] Top shape: 12 96 55 55 (3484800)
I0813 06:11:30.346556 21381 net.cpp:116] relu1 does not need backward computation.
I0813 06:11:30.346561 21381 net.cpp:65] Creating Layer pool1
I0813 06:11:30.346563 21381 net.cpp:228] pool1 <- conv1
I0813 06:11:30.346568 21381 net.cpp:189] pool1 -> pool1
I0813 06:11:30.346580 21381 net.cpp:84] Top shape: 12 96 27 27 (839808)
I0813 06:11:30.346583 21381 net.cpp:116] pool1 does not need backward computation.
I0813 06:11:30.346588 21381 net.cpp:65] Creating Layer norm1
I0813 06:11:30.346590 21381 net.cpp:228] norm1 <- pool1
I0813 06:11:30.346595 21381 net.cpp:189] norm1 -> norm1
I0813 06:11:30.346603 21381 net.cpp:84] Top shape: 12 96 27 27 (839808)
I0813 06:11:30.346606 21381 net.cpp:116] norm1 does not need backward computation.
I0813 06:11:30.346611 21381 net.cpp:65] Creating Layer Rconv6
I0813 06:11:30.346613 21381 net.cpp:228] Rconv6 <- norm1
I0813 06:11:30.346617 21381 net.cpp:189] Rconv6 -> Rconv6
I0813 06:11:30.346907 21381 net.cpp:84] Top shape: 12 256 27 27 (2239488)
I0813 06:11:30.346911 21381 net.cpp:111] Rconv6 needs backward computation.
I0813 06:11:30.346915 21381 net.cpp:65] Creating Layer Rrelu6
I0813 06:11:30.346920 21381 net.cpp:228] Rrelu6 <- Rconv6
I0813 06:11:30.346923 21381 net.cpp:179] Rrelu6 -> Rconv6 (in-place)
I0813 06:11:30.346927 21381 net.cpp:84] Top shape: 12 256 27 27 (2239488)
I0813 06:11:30.346930 21381 net.cpp:111] Rrelu6 needs backward computation.
I0813 06:11:30.346935 21381 net.cpp:65] Creating Layer Rconv7
I0813 06:11:30.346938 21381 net.cpp:228] Rconv7 <- Rconv6
I0813 06:11:30.346941 21381 net.cpp:189] Rconv7 -> Rconv7
I0813 06:11:30.347671 21381 net.cpp:84] Top shape: 12 256 27 27 (2239488)
I0813 06:11:30.347676 21381 net.cpp:111] Rconv7 needs backward computation.
I0813 06:11:30.347679 21381 net.cpp:65] Creating Layer Rrelu7
I0813 06:11:30.347682 21381 net.cpp:228] Rrelu7 <- Rconv7
I0813 06:11:30.347704 21381 net.cpp:179] Rrelu7 -> Rconv7 (in-place)
I0813 06:11:30.347709 21381 net.cpp:84] Top shape: 12 256 27 27 (2239488)
I0813 06:11:30.347712 21381 net.cpp:111] Rrelu7 needs backward computation.
I0813 06:11:30.347715 21381 net.cpp:65] Creating Layer Rconv8
I0813 06:11:30.347718 21381 net.cpp:228] Rconv8 <- Rconv7
I0813 06:11:30.347722 21381 net.cpp:189] Rconv8 -> Rconv8
I0813 06:11:30.348482 21381 net.cpp:84] Top shape: 12 256 27 27 (2239488)
I0813 06:11:30.348489 21381 net.cpp:111] Rconv8 needs backward computation.
I0813 06:11:30.348492 21381 net.cpp:65] Creating Layer Rrelu8
I0813 06:11:30.348495 21381 net.cpp:228] Rrelu8 <- Rconv8
I0813 06:11:30.348498 21381 net.cpp:179] Rrelu8 -> Rconv8 (in-place)
I0813 06:11:30.348503 21381 net.cpp:84] Top shape: 12 256 27 27 (2239488)
I0813 06:11:30.348505 21381 net.cpp:111] Rrelu8 needs backward computation.
I0813 06:11:30.348510 21381 net.cpp:65] Creating Layer deconv2
I0813 06:11:30.348512 21381 net.cpp:228] deconv2 <- Rconv8
I0813 06:11:30.348516 21381 net.cpp:189] deconv2 -> deconv2
I0813 06:11:30.349604 21381 net.cpp:84] Top shape: 12 64 54 54 (2239488)
I0813 06:11:30.349609 21381 net.cpp:111] deconv2 needs backward computation.
I0813 06:11:30.349613 21381 net.cpp:65] Creating Layer relu_deconv2
I0813 06:11:30.349617 21381 net.cpp:228] relu_deconv2 <- deconv2
I0813 06:11:30.349620 21381 net.cpp:179] relu_deconv2 -> deconv2 (in-place)
I0813 06:11:30.349625 21381 net.cpp:84] Top shape: 12 64 54 54 (2239488)
I0813 06:11:30.349627 21381 net.cpp:111] relu_deconv2 needs backward computation.
I0813 06:11:30.349632 21381 net.cpp:65] Creating Layer deconv1
I0813 06:11:30.349634 21381 net.cpp:228] deconv1 <- deconv2
I0813 06:11:30.349638 21381 net.cpp:189] deconv1 -> deconv1
I0813 06:11:30.349779 21381 net.cpp:84] Top shape: 12 32 108 108 (4478976)
I0813 06:11:30.349784 21381 net.cpp:111] deconv1 needs backward computation.
I0813 06:11:30.349787 21381 net.cpp:65] Creating Layer relu_deconv1
I0813 06:11:30.349791 21381 net.cpp:228] relu_deconv1 <- deconv1
I0813 06:11:30.349794 21381 net.cpp:179] relu_deconv1 -> deconv1 (in-place)
I0813 06:11:30.349798 21381 net.cpp:84] Top shape: 12 32 108 108 (4478976)
I0813 06:11:30.349802 21381 net.cpp:111] relu_deconv1 needs backward computation.
I0813 06:11:30.349807 21381 net.cpp:65] Creating Layer deconv0
I0813 06:11:30.349808 21381 net.cpp:228] deconv0 <- deconv1
I0813 06:11:30.349812 21381 net.cpp:189] deconv0 -> deconv0
I0813 06:11:30.349835 21381 net.cpp:84] Top shape: 12 3 216 216 (1679616)
I0813 06:11:30.349838 21381 net.cpp:111] deconv0 needs backward computation.
I0813 06:11:30.349841 21381 net.cpp:65] Creating Layer loss
I0813 06:11:30.349844 21381 net.cpp:228] loss <- deconv0
I0813 06:11:30.349848 21381 net.cpp:228] loss <- target_ims
I0813 06:11:30.349856 21381 net.cpp:111] loss needs backward computation.
I0813 06:11:30.349869 21381 net.cpp:238] Collecting Learning Rate and Weight Decay.
…
    source: "/scr/r6/tgebru/inverting_conv/caffe_invert_alexnet/data/siggraph/tiny_summer_val_lmdb"
    mean_file: "/scr/r6/tgebru/timnit_caffe/data/ilsvrc12/imagenet_mean.binaryproto"
    batch_size: 2
    crop_size: 227
    mirror: false
    backend: LMDB
  }
}
layers {
  top: "target_ims"
  name: "target_ims"
  type: DATA
  data_param {
    source: "/scr/r6/tgebru/inverting_conv/caffe_invert_alexnet/data/siggraph/tiny_summer_val_lmdb"
    mean_file: "/scr/r6/tgebru/timnit_caffe/data/ilsvrc12/imagenet_mean.binaryproto"
    batch_size: 2
    crop_size: 216
    mirror: false
    backend: LMDB
  }
}
layers {
  bottom: "source_ims"
  top: "conv1"
  name: "conv1"
  type: CONVOLUTION
  blobs_lr: 0
  blobs_lr: 0
  weight_decay: 1
  weight_decay: 0
  convolution_param {
    num_output: 96
    kernel_size: 11
    stride: 4
    weight_filler {
      type: "gaussian"
      std: 0.01
    }
    bias_filler {
      type: "constant"
      value: 0
    }
  }
}
layers {
  bottom: "conv1"
  top: "conv1"
  name: "relu1"
  type: RELU
}
layers {
  bottom: "conv1"
  top: "pool1"
  name: "pool1"
  type: POOLING
  pooling_param {
    pool: MAX
    kernel_size: 3
    stride: 2
  }
}
layers {
  bottom: "pool1"
  top: "norm1"
  name: "norm1"
  type: LRN
  lrn_param {
    local_size: 5
    alpha: 0.0001
    beta: 0.75
  }
}
layers {
  bottom: "norm1"
  top: "Rconv6"
  name: "Rconv6"
  type: CONVOLUTION
  blobs_lr: 0
  blobs_lr: 0
  weight_decay: 1
  weight_decay: 0
  convolution_param {
    num_output: 256
    pad: 1
    kernel_size: 3
  }
}
layers {
  bottom: "Rconv6"
  top: "Rconv6"
  name: "Rrelu6"
  type: RELU
}
layers {
  bottom: "Rconv6"
  top: "Rconv7"
  name: "Rconv7"
  type: CONVOLUTION
  blobs_lr: 0
  blobs_lr: 0
  weight_decay: 1
  weight_decay: 0
  convolution_param {
    num_output: 256
    pad: 1
    kernel_size: 3
    group: 2
  }
}
layers {
  bottom: "Rconv7"
  top: "Rconv7"
  name: "Rrelu7"
  type: RELU
}
layers {
  bottom: "Rconv7"
  top: "Rconv8"
  name: "Rconv8"
  type: CONVOLUTION
  blobs_lr: 0
  blobs_lr: 0
  weight_decay: 1
  weight_decay: 0
  convolution_param {
    num_output: 256
    pad: 1
    kernel_size: 3
    group: 2
  }
}
layers {
  bottom: "Rconv8"
  top: "Rconv8"
  name: "Rrelu8"
  type: RELU
}
layers {
  bottom: "Rconv8"
  top: "deconv2"
  name: "deconv2"
  type: DECONVOLUTION
  blobs_lr: 0
  blobs_lr: 0
  weight_decay: 1
  weight_decay: 0
  deconvolution_param {
    pad: 2
    kernel_size: 5
    stride: 2
    output_height: 54
    output_width: 54
    output_channels: 64
  }
}
layers {
  bottom: "deconv2"
  top: "deconv2"
  name: "relu_deconv2"
  type: RELU
  relu_param {
    negative_slope: 0.3
  }
}
layers {
  bottom: "deconv2"
  top: "deconv1"
  name: "deconv1"
  type: DECONVOLUTION
  blobs_lr: 0
  blobs_lr: 0
  weight_decay: 1
  weight_decay: 0
  deconvolution_param {
    pad: 2
    kernel_size: 5
    stride: 2
    output_height: 108
    output_width: 108
    output_channels: 32
  }
}
layers {
  bottom: "deconv1"
  top: "deconv1"
  name: "relu_deconv1"
  type: RELU
  relu_param {
    negative_slope: 0.3
  }
}
layers {
  bottom: "deconv1"
  top: "deconv0"
  name: "deconv0"
  type: DECONVOLUTION
  blobs_lr: 0
  blobs_lr: 0
  weight_decay: 1
  weight_decay: 0
  deconvolution_param {
    pad: 2
    kernel_size: 5
    stride: 2
    output_height: 216
    output_width: 216
    output_channels: 3
  }
}
layers {
  bottom: "deconv0"
  bottom: "target_ims"
  name: "loss"
  type: EUCLIDEAN_LOSS
}
I0813 06:11:30.350575 21381 net.cpp:65] Creating Layer source_ims
I0813 06:11:30.350580 21381 net.cpp:189] source_ims -> source_ims
I0813 06:11:30.350636 21381 data_layer.cpp:223] Opening lmdb /scr/r6/tgebru/inverting_conv/caffe_invert_alexnet/data/siggraph/tiny_summer_val_lmdb
I0813 06:11:30.350826 21381 data_layer.cpp:285] output data size: 2,3,227,227
I0813 06:11:30.350831 21381 data_layer.cpp:304] Loading mean file from/scr/r6/tgebru/timnit_caffe/data/ilsvrc12/imagenet_mean.binaryproto
I0813 06:11:30.353552 21381 net.cpp:84] Top shape: 2 3 227 227 (309174)
I0813 06:11:30.353559 21381 net.cpp:116] source_ims does not need backward computation.
I0813 06:11:30.353565 21381 net.cpp:65] Creating Layer target_ims
I0813 06:11:30.353569 21381 net.cpp:189] target_ims -> target_ims
I0813 06:11:30.353615 21381 data_layer.cpp:223] Opening lmdb /scr/r6/tgebru/inverting_conv/caffe_invert_alexnet/data/siggraph/tiny_summer_val_lmdb
I0813 06:11:30.353693 21381 data_layer.cpp:285] output data size: 2,3,216,216
I0813 06:11:30.353696 21381 data_layer.cpp:304] Loading mean file from/scr/r6/tgebru/timnit_caffe/data/ilsvrc12/imagenet_mean.binaryproto
I0813 06:11:30.355912 21381 net.cpp:84] Top shape: 2 3 216 216 (279936)
I0813 06:11:30.355918 21381 net.cpp:116] target_ims does not need backward computation.
I0813 06:11:30.355939 21381 net.cpp:65] Creating Layer conv1
I0813 06:11:30.355942 21381 net.cpp:228] conv1 <- source_ims
I0813 06:11:30.355948 21381 net.cpp:189] conv1 -> conv1
I0813 06:11:30.357257 21381 net.cpp:84] Top shape: 2 96 55 55 (580800)
I0813 06:11:30.357261 21381 net.cpp:116] conv1 does not need backward computation.
I0813 06:11:30.357265 21381 net.cpp:65] Creating Layer relu1
I0813 06:11:30.357269 21381 net.cpp:228] relu1 <- conv1
I0813 06:11:30.357272 21381 net.cpp:179] relu1 -> conv1 (in-place)
I0813 06:11:30.357277 21381 net.cpp:84] Top shape: 2 96 55 55 (580800)
I0813 06:11:30.357280 21381 net.cpp:116] relu1 does not need backward computation.
I0813 06:11:30.357285 21381 net.cpp:65] Creating Layer pool1
I0813 06:11:30.357286 21381 net.cpp:228] pool1 <- conv1
I0813 06:11:30.357290 21381 net.cpp:189] pool1 -> pool1
I0813 06:11:30.357296 21381 net.cpp:84] Top shape: 2 96 27 27 (139968)
I0813 06:11:30.357300 21381 net.cpp:116] pool1 does not need backward computation.
I0813 06:11:30.357303 21381 net.cpp:65] Creating Layer norm1
I0813 06:11:30.357306 21381 net.cpp:228] norm1 <- pool1
I0813 06:11:30.357309 21381 net.cpp:189] norm1 -> norm1
I0813 06:11:30.357316 21381 net.cpp:84] Top shape: 2 96 27 27 (139968)
I0813 06:11:30.357317 21381 net.cpp:116] norm1 does not need backward computation.
I0813 06:11:30.357321 21381 net.cpp:65] Creating Layer Rconv6
I0813 06:11:30.357324 21381 net.cpp:228] Rconv6 <- norm1
I0813 06:11:30.357328 21381 net.cpp:189] Rconv6 -> Rconv6
I0813 06:11:30.357861 21381 net.cpp:84] Top shape: 2 256 27 27 (373248)
I0813 06:11:30.357867 21381 net.cpp:116] Rconv6 does not need backward computation.
I0813 06:11:30.357869 21381 net.cpp:65] Creating Layer Rrelu6
I0813 06:11:30.357872 21381 net.cpp:228] Rrelu6 <- Rconv6
I0813 06:11:30.357877 21381 net.cpp:179] Rrelu6 -> Rconv6 (in-place)
I0813 06:11:30.357882 21381 net.cpp:84] Top shape: 2 256 27 27 (373248)
I0813 06:11:30.357884 21381 net.cpp:116] Rrelu6 does not need backward computation.
I0813 06:11:30.357889 21381 net.cpp:65] Creating Layer Rconv7
I0813 06:11:30.357892 21381 net.cpp:228] Rconv7 <- Rconv6
I0813 06:11:30.357895 21381 net.cpp:189] Rconv7 -> Rconv7
I0813 06:11:30.358605 21381 net.cpp:84] Top shape: 2 256 27 27 (373248)
I0813 06:11:30.358609 21381 net.cpp:116] Rconv7 does not need backward computation.
I0813 06:11:30.358613 21381 net.cpp:65] Creating Layer Rrelu7
I0813 06:11:30.358616 21381 net.cpp:228] Rrelu7 <- Rconv7
I0813 06:11:30.358619 21381 net.cpp:179] Rrelu7 -> Rconv7 (in-place)
I0813 06:11:30.358623 21381 net.cpp:84] Top shape: 2 256 27 27 (373248)
I0813 06:11:30.358626 21381 net.cpp:116] Rrelu7 does not need backward computation.
I0813 06:11:30.358630 21381 net.cpp:65] Creating Layer Rconv8
I0813 06:11:30.358633 21381 net.cpp:228] Rconv8 <- Rconv7
I0813 06:11:30.358636 21381 net.cpp:189] Rconv8 -> Rconv8
I0813 06:11:30.359346 21381 net.cpp:84] Top shape: 2 256 27 27 (373248)
I0813 06:11:30.359351 21381 net.cpp:116] Rconv8 does not need backward computation.
I0813 06:11:30.359354 21381 net.cpp:65] Creating Layer Rrelu8
I0813 06:11:30.359357 21381 net.cpp:228] Rrelu8 <- Rconv8
I0813 06:11:30.359360 21381 net.cpp:179] Rrelu8 -> Rconv8 (in-place)
I0813 06:11:30.359364 21381 net.cpp:84] Top shape: 2 256 27 27 (373248)
I0813 06:11:30.359367 21381 net.cpp:116] Rrelu8 does not need backward computation.
I0813 06:11:30.359371 21381 net.cpp:65] Creating Layer deconv2
I0813 06:11:30.359374 21381 net.cpp:228] deconv2 <- Rconv8
I0813 06:11:30.359377 21381 net.cpp:189] deconv2 -> deconv2
I0813 06:11:30.360358 21381 net.cpp:84] Top shape: 2 64 54 54 (373248)
I0813 06:11:30.360363 21381 net.cpp:116] deconv2 does not need backward computation.
I0813 06:11:30.360368 21381 net.cpp:65] Creating Layer relu_deconv2
I0813 06:11:30.360370 21381 net.cpp:228] relu_deconv2 <- deconv2
I0813 06:11:30.360374 21381 net.cpp:179] relu_deconv2 -> deconv2 (in-place)
I0813 06:11:30.360378 21381 net.cpp:84] Top shape: 2 64 54 54 (373248)
I0813 06:11:30.360381 21381 net.cpp:116] relu_deconv2 does not need backward computation.
I0813 06:11:30.360397 21381 net.cpp:65] Creating Layer deconv1
I0813 06:11:30.360400 21381 net.cpp:228] deconv1 <- deconv2
I0813 06:11:30.360404 21381 net.cpp:189] deconv1 -> deconv1
I0813 06:11:30.360538 21381 net.cpp:84] Top shape: 2 32 108 108 (746496)
I0813 06:11:30.360541 21381 net.cpp:116] deconv1 does not need backward computation.
I0813 06:11:30.360545 21381 net.cpp:65] Creating Layer relu_deconv1
I0813 06:11:30.360548 21381 net.cpp:228] relu_deconv1 <- deconv1
I0813 06:11:30.360551 21381 net.cpp:179] relu_deconv1 -> deconv1 (in-place)
I0813 06:11:30.360556 21381 net.cpp:84] Top shape: 2 32 108 108 (746496)
I0813 06:11:30.360559 21381 net.cpp:116] relu_deconv1 does not need backward computation.
I0813 06:11:30.360564 21381 net.cpp:65] Creating Layer deconv0
I0813 06:11:30.360568 21381 net.cpp:228] deconv0 <- deconv1
I0813 06:11:30.360571 21381 net.cpp:189] deconv0 -> deconv0
I0813 06:11:30.360589 21381 net.cpp:84] Top shape: 2 3 216 216 (279936)
I0813 06:11:30.360592 21381 net.cpp:116] deconv0 does not need backward computation.
I0813 06:11:30.360595 21381 net.cpp:65] Creating Layer loss
I0813 06:11:30.360599 21381 net.cpp:228] loss <- deconv0
I0813 06:11:30.360601 21381 net.cpp:228] loss <- target_ims
I0813 06:11:30.360606 21381 net.cpp:116] loss does not need backward computation.
I0813 06:11:30.360618 21381 net.cpp:238] Collecting Learning Rate and Weight Decay.
…
