…
    source: "/scr/r6/tgebru/inverting_conv/caffe_invert_alexnet/data/siggraph/tiny_winter_train_lmdb"
    mean_file: "/scr/r6/tgebru/timnit_caffe/data/ilsvrc12/imagenet_mean.binaryproto"
    batch_size: 12
    crop_size: 227
    mirror: false
    backend: LMDB
  }
}
layers {
  top: "target_ims"
  name: "target_ims"
  type: DATA
  data_param {
    source: "/scr/r6/tgebru/inverting_conv/caffe_invert_alexnet/data/siggraph/tiny_summer_train_lmdb"
    mean_file: "/scr/r6/tgebru/timnit_caffe/data/ilsvrc12/imagenet_mean.binaryproto"
    batch_size: 12
    crop_size: 216
    mirror: false
    backend: LMDB
  }
}
layers {
  bottom: "source_ims"
  top: "conv1"
  name: "conv1"
  type: CONVOLUTION
  blobs_lr: 0
  blobs_lr: 0
  weight_decay: 1
  weight_decay: 0
  convolution_param {
    num_output: 96
    kernel_size: 11
    stride: 4
    weight_filler {
      type: "gaussian"
      std: 0.01
    }
    bias_filler {
      type: "constant"
      value: 0
    }
  }
}
layers {
  bottom: "conv1"
  top: "conv1"
  name: "relu1"
  type: RELU
}
layers {
  bottom: "conv1"
  top: "pool1"
  name: "pool1"
  type: POOLING
  pooling_param {
    pool: MAX
    kernel_size: 3
    stride: 2
  }
}
layers {
  bottom: "pool1"
  top: "norm1"
  name: "norm1"
  type: LRN
  lrn_param {
    local_size: 5
    alpha: 0.0001
    beta: 0.75
  }
}
layers {
  bottom: "norm1"
  top: "Rconv6"
  name: "Rconv6"
  type: CONVOLUTION
  blobs_lr: 1
  blobs_lr: 2
  weight_decay: 1
  weight_decay: 0
  convolution_param {
    num_output: 256
    pad: 1
    kernel_size: 3
  }
}
layers {
  bottom: "Rconv6"
  top: "Rconv6"
  name: "Rrelu6"
  type: RELU
}
layers {
  bottom: "Rconv6"
  top: "Rconv7"
  name: "Rconv7"
  type: CONVOLUTION
  blobs_lr: 1
  blobs_lr: 2
  weight_decay: 1
  weight_decay: 0
  convolution_param {
    num_output: 256
    pad: 1
    kernel_size: 3
    group: 2
  }
}
layers {
  bottom: "Rconv7"
  top: "Rconv7"
  name: "Rrelu7"
  type: RELU
}
layers {
  bottom: "Rconv7"
  top: "Rconv8"
  name: "Rconv8"
  type: CONVOLUTION
  blobs_lr: 1
  blobs_lr: 2
  weight_decay: 1
  weight_decay: 0
  convolution_param {
    num_output: 256
    pad: 1
    kernel_size: 3
    group: 2
  }
}
layers {
  bottom: "Rconv8"
  top: "Rconv8"
  name: "Rrelu8"
  type: RELU
}
layers {
  bottom: "Rconv8"
  top: "deconv2"
  name: "deconv2"
  type: DECONVOLUTION
  blobs_lr: 1
  blobs_lr: 2
  weight_decay: 1
  weight_decay: 0
  deconvolution_param {
    pad: 2
    kernel_size: 5
    stride: 2
    output_height: 54
    output_width: 54
    output_channels: 64
  }
}
layers {
  bottom: "deconv2"
  top: "deconv2"
  name: "relu_deconv2"
  type: RELU
  relu_param {
    negative_slope: 0.3
  }
}
layers {
  bottom: "deconv2"
  top: "deconv1"
  name: "deconv1"
  type: DECONVOLUTION
  blobs_lr: 1
  blobs_lr: 2
  weight_decay: 1
  weight_decay: 0
  deconvolution_param {
    pad: 2
    kernel_size: 5
    stride: 2
    output_height: 108
    output_width: 108
    output_channels: 32
  }
}
layers {
  bottom: "deconv1"
  top: "deconv1"
  name: "relu_deconv1"
  type: RELU
  relu_param {
    negative_slope: 0.3
  }
}
layers {
  bottom: "deconv1"
  top: "deconv0"
  name: "deconv0"
  type: DECONVOLUTION
  blobs_lr: 1
  blobs_lr: 2
  weight_decay: 1
  weight_decay: 1
  deconvolution_param {
    pad: 2
    kernel_size: 5
    stride: 2
    output_height: 216
    output_width: 216
    output_channels: 3
  }
}
layers {
  bottom: "deconv0"
  bottom: "target_ims"
  name: "loss"
  type: EUCLIDEAN_LOSS
}
I0813 13:19:07.447432 24256 net.cpp:65] Creating Layer source_ims
I0813 13:19:07.447441 24256 net.cpp:189] source_ims -> source_ims
I0813 13:19:07.447546 24256 data_layer.cpp:223] Opening lmdb /scr/r6/tgebru/inverting_conv/caffe_invert_alexnet/data/siggraph/tiny_winter_train_lmdb
I0813 13:19:07.447760 24256 data_layer.cpp:285] output data size: 12,3,227,227
I0813 13:19:07.447767 24256 data_layer.cpp:304] Loading mean file from/scr/r6/tgebru/timnit_caffe/data/ilsvrc12/imagenet_mean.binaryproto
I0813 13:19:07.453239 24256 net.cpp:84] Top shape: 12 3 227 227 (1855044)
I0813 13:19:07.453248 24256 net.cpp:116] source_ims does not need backward computation.
I0813 13:19:07.453255 24256 net.cpp:65] Creating Layer target_ims
I0813 13:19:07.453260 24256 net.cpp:189] target_ims -> target_ims
I0813 13:19:07.453428 24256 data_layer.cpp:223] Opening lmdb /scr/r6/tgebru/inverting_conv/caffe_invert_alexnet/data/siggraph/tiny_summer_train_lmdb
I0813 13:19:07.453610 24256 data_layer.cpp:285] output data size: 12,3,216,216
I0813 13:19:07.453616 24256 data_layer.cpp:304] Loading mean file from/scr/r6/tgebru/timnit_caffe/data/ilsvrc12/imagenet_mean.binaryproto
I0813 13:19:07.457970 24256 net.cpp:84] Top shape: 12 3 216 216 (1679616)
I0813 13:19:07.457978 24256 net.cpp:116] target_ims does not need backward computation.
I0813 13:19:07.457991 24256 net.cpp:65] Creating Layer conv1
I0813 13:19:07.457995 24256 net.cpp:228] conv1 <- source_ims
I0813 13:19:07.458060 24256 net.cpp:189] conv1 -> conv1
I0813 13:19:07.459411 24256 net.cpp:84] Top shape: 12 96 55 55 (3484800)
I0813 13:19:07.459417 24256 net.cpp:116] conv1 does not need backward computation.
I0813 13:19:07.459422 24256 net.cpp:65] Creating Layer relu1
I0813 13:19:07.459425 24256 net.cpp:228] relu1 <- conv1
I0813 13:19:07.459429 24256 net.cpp:179] relu1 -> conv1 (in-place)
I0813 13:19:07.459439 24256 net.cpp:84] Top shape: 12 96 55 55 (3484800)
I0813 13:19:07.459441 24256 net.cpp:116] relu1 does not need backward computation.
I0813 13:19:07.459446 24256 net.cpp:65] Creating Layer pool1
I0813 13:19:07.459450 24256 net.cpp:228] pool1 <- conv1
I0813 13:19:07.459453 24256 net.cpp:189] pool1 -> pool1
I0813 13:19:07.459465 24256 net.cpp:84] Top shape: 12 96 27 27 (839808)
I0813 13:19:07.459468 24256 net.cpp:116] pool1 does not need backward computation.
I0813 13:19:07.459473 24256 net.cpp:65] Creating Layer norm1
I0813 13:19:07.459475 24256 net.cpp:228] norm1 <- pool1
I0813 13:19:07.459480 24256 net.cpp:189] norm1 -> norm1
I0813 13:19:07.459487 24256 net.cpp:84] Top shape: 12 96 27 27 (839808)
I0813 13:19:07.459491 24256 net.cpp:116] norm1 does not need backward computation.
I0813 13:19:07.459494 24256 net.cpp:65] Creating Layer Rconv6
I0813 13:19:07.459497 24256 net.cpp:228] Rconv6 <- norm1
I0813 13:19:07.459501 24256 net.cpp:189] Rconv6 -> Rconv6
I0813 13:19:07.459764 24256 net.cpp:84] Top shape: 12 256 27 27 (2239488)
I0813 13:19:07.459769 24256 net.cpp:111] Rconv6 needs backward computation.
I0813 13:19:07.459774 24256 net.cpp:65] Creating Layer Rrelu6
I0813 13:19:07.459776 24256 net.cpp:228] Rrelu6 <- Rconv6
I0813 13:19:07.459780 24256 net.cpp:179] Rrelu6 -> Rconv6 (in-place)
I0813 13:19:07.459785 24256 net.cpp:84] Top shape: 12 256 27 27 (2239488)
I0813 13:19:07.459787 24256 net.cpp:111] Rrelu6 needs backward computation.
I0813 13:19:07.459792 24256 net.cpp:65] Creating Layer Rconv7
I0813 13:19:07.459795 24256 net.cpp:228] Rconv7 <- Rconv6
I0813 13:19:07.459800 24256 net.cpp:189] Rconv7 -> Rconv7
I0813 13:19:07.460602 24256 net.cpp:84] Top shape: 12 256 27 27 (2239488)
I0813 13:19:07.460608 24256 net.cpp:111] Rconv7 needs backward computation.
I0813 13:19:07.460610 24256 net.cpp:65] Creating Layer Rrelu7
I0813 13:19:07.460630 24256 net.cpp:228] Rrelu7 <- Rconv7
I0813 13:19:07.460635 24256 net.cpp:179] Rrelu7 -> Rconv7 (in-place)
I0813 13:19:07.460640 24256 net.cpp:84] Top shape: 12 256 27 27 (2239488)
I0813 13:19:07.460643 24256 net.cpp:111] Rrelu7 needs backward computation.
I0813 13:19:07.460646 24256 net.cpp:65] Creating Layer Rconv8
I0813 13:19:07.460649 24256 net.cpp:228] Rconv8 <- Rconv7
I0813 13:19:07.460652 24256 net.cpp:189] Rconv8 -> Rconv8
I0813 13:19:07.461469 24256 net.cpp:84] Top shape: 12 256 27 27 (2239488)
I0813 13:19:07.461474 24256 net.cpp:111] Rconv8 needs backward computation.
I0813 13:19:07.461479 24256 net.cpp:65] Creating Layer Rrelu8
I0813 13:19:07.461482 24256 net.cpp:228] Rrelu8 <- Rconv8
I0813 13:19:07.461485 24256 net.cpp:179] Rrelu8 -> Rconv8 (in-place)
I0813 13:19:07.461489 24256 net.cpp:84] Top shape: 12 256 27 27 (2239488)
I0813 13:19:07.461493 24256 net.cpp:111] Rrelu8 needs backward computation.
I0813 13:19:07.461496 24256 net.cpp:65] Creating Layer deconv2
I0813 13:19:07.461498 24256 net.cpp:228] deconv2 <- Rconv8
I0813 13:19:07.461503 24256 net.cpp:189] deconv2 -> deconv2
I0813 13:19:07.462566 24256 net.cpp:84] Top shape: 12 64 54 54 (2239488)
I0813 13:19:07.462571 24256 net.cpp:111] deconv2 needs backward computation.
I0813 13:19:07.462575 24256 net.cpp:65] Creating Layer relu_deconv2
I0813 13:19:07.462579 24256 net.cpp:228] relu_deconv2 <- deconv2
I0813 13:19:07.462582 24256 net.cpp:179] relu_deconv2 -> deconv2 (in-place)
I0813 13:19:07.462587 24256 net.cpp:84] Top shape: 12 64 54 54 (2239488)
I0813 13:19:07.462589 24256 net.cpp:111] relu_deconv2 needs backward computation.
I0813 13:19:07.462594 24256 net.cpp:65] Creating Layer deconv1
I0813 13:19:07.462596 24256 net.cpp:228] deconv1 <- deconv2
I0813 13:19:07.462600 24256 net.cpp:189] deconv1 -> deconv1
I0813 13:19:07.462770 24256 net.cpp:84] Top shape: 12 32 108 108 (4478976)
I0813 13:19:07.462775 24256 net.cpp:111] deconv1 needs backward computation.
I0813 13:19:07.462779 24256 net.cpp:65] Creating Layer relu_deconv1
I0813 13:19:07.462781 24256 net.cpp:228] relu_deconv1 <- deconv1
I0813 13:19:07.462785 24256 net.cpp:179] relu_deconv1 -> deconv1 (in-place)
I0813 13:19:07.462790 24256 net.cpp:84] Top shape: 12 32 108 108 (4478976)
I0813 13:19:07.462792 24256 net.cpp:111] relu_deconv1 needs backward computation.
I0813 13:19:07.462797 24256 net.cpp:65] Creating Layer deconv0
I0813 13:19:07.462800 24256 net.cpp:228] deconv0 <- deconv1
I0813 13:19:07.462803 24256 net.cpp:189] deconv0 -> deconv0
I0813 13:19:07.462826 24256 net.cpp:84] Top shape: 12 3 216 216 (1679616)
I0813 13:19:07.462831 24256 net.cpp:111] deconv0 needs backward computation.
I0813 13:19:07.462833 24256 net.cpp:65] Creating Layer loss
I0813 13:19:07.462836 24256 net.cpp:228] loss <- deconv0
I0813 13:19:07.462839 24256 net.cpp:228] loss <- target_ims
I0813 13:19:07.462848 24256 net.cpp:111] loss needs backward computation.
I0813 13:19:07.462860 24256 net.cpp:238] Collecting Learning Rate and Weight Decay.
…
    source: "/scr/r6/tgebru/inverting_conv/caffe_invert_alexnet/data/siggraph/tiny_winter_val_lmdb"
    mean_file: "/scr/r6/tgebru/timnit_caffe/data/ilsvrc12/imagenet_mean.binaryproto"
    batch_size: 2
    crop_size: 227
    mirror: false
    backend: LMDB
  }
}
layers {
  top: "target_ims"
  name: "target_ims"
  type: DATA
  data_param {
    source: "/scr/r6/tgebru/inverting_conv/caffe_invert_alexnet/data/siggraph/tiny_summer_val_lmdb"
    mean_file: "/scr/r6/tgebru/timnit_caffe/data/ilsvrc12/imagenet_mean.binaryproto"
    batch_size: 2
    crop_size: 216
    mirror: false
    backend: LMDB
  }
}
layers {
  bottom: "source_ims"
  top: "conv1"
  name: "conv1"
  type: CONVOLUTION
  blobs_lr: 0
  blobs_lr: 0
  weight_decay: 1
  weight_decay: 0
  convolution_param {
    num_output: 96
    kernel_size: 11
    stride: 4
    weight_filler {
      type: "gaussian"
      std: 0.01
    }
    bias_filler {
      type: "constant"
      value: 0
    }
  }
}
layers {
  bottom: "conv1"
  top: "conv1"
  name: "relu1"
  type: RELU
}
layers {
  bottom: "conv1"
  top: "pool1"
  name: "pool1"
  type: POOLING
  pooling_param {
    pool: MAX
    kernel_size: 3
    stride: 2
  }
}
layers {
  bottom: "pool1"
  top: "norm1"
  name: "norm1"
  type: LRN
  lrn_param {
    local_size: 5
    alpha: 0.0001
    beta: 0.75
  }
}
layers {
  bottom: "norm1"
  top: "Rconv6"
  name: "Rconv6"
  type: CONVOLUTION
  blobs_lr: 0
  blobs_lr: 0
  weight_decay: 1
  weight_decay: 0
  convolution_param {
    num_output: 256
    pad: 1
    kernel_size: 3
  }
}
layers {
  bottom: "Rconv6"
  top: "Rconv6"
  name: "Rrelu6"
  type: RELU
}
layers {
  bottom: "Rconv6"
  top: "Rconv7"
  name: "Rconv7"
  type: CONVOLUTION
  blobs_lr: 0
  blobs_lr: 0
  weight_decay: 1
  weight_decay: 0
  convolution_param {
    num_output: 256
    pad: 1
    kernel_size: 3
    group: 2
  }
}
layers {
  bottom: "Rconv7"
  top: "Rconv7"
  name: "Rrelu7"
  type: RELU
}
layers {
  bottom: "Rconv7"
  top: "Rconv8"
  name: "Rconv8"
  type: CONVOLUTION
  blobs_lr: 0
  blobs_lr: 0
  weight_decay: 1
  weight_decay: 0
  convolution_param {
    num_output: 256
    pad: 1
    kernel_size: 3
    group: 2
  }
}
layers {
  bottom: "Rconv8"
  top: "Rconv8"
  name: "Rrelu8"
  type: RELU
}
layers {
  bottom: "Rconv8"
  top: "deconv2"
  name: "deconv2"
  type: DECONVOLUTION
  blobs_lr: 0
  blobs_lr: 0
  weight_decay: 1
  weight_decay: 0
  deconvolution_param {
    pad: 2
    kernel_size: 5
    stride: 2
    output_height: 54
    output_width: 54
    output_channels: 64
  }
}
layers {
  bottom: "deconv2"
  top: "deconv2"
  name: "relu_deconv2"
  type: RELU
  relu_param {
    negative_slope: 0.3
  }
}
layers {
  bottom: "deconv2"
  top: "deconv1"
  name: "deconv1"
  type: DECONVOLUTION
  blobs_lr: 0
  blobs_lr: 0
  weight_decay: 1
  weight_decay: 0
  deconvolution_param {
    pad: 2
    kernel_size: 5
    stride: 2
    output_height: 108
    output_width: 108
    output_channels: 32
  }
}
layers {
  bottom: "deconv1"
  top: "deconv1"
  name: "relu_deconv1"
  type: RELU
  relu_param {
    negative_slope: 0.3
  }
}
layers {
  bottom: "deconv1"
  top: "deconv0"
  name: "deconv0"
  type: DECONVOLUTION
  blobs_lr: 0
  blobs_lr: 0
  weight_decay: 1
  weight_decay: 0
  deconvolution_param {
    pad: 2
    kernel_size: 5
    stride: 2
    output_height: 216
    output_width: 216
    output_channels: 3
  }
}
layers {
  bottom: "deconv0"
  bottom: "target_ims"
  name: "loss"
  type: EUCLIDEAN_LOSS
}
I0813 13:19:07.463580 24256 net.cpp:65] Creating Layer source_ims
I0813 13:19:07.463587 24256 net.cpp:189] source_ims -> source_ims
I0813 13:19:07.463688 24256 data_layer.cpp:223] Opening lmdb /scr/r6/tgebru/inverting_conv/caffe_invert_alexnet/data/siggraph/tiny_winter_val_lmdb
I0813 13:19:07.463881 24256 data_layer.cpp:285] output data size: 2,3,227,227
I0813 13:19:07.463886 24256 data_layer.cpp:304] Loading mean file from/scr/r6/tgebru/timnit_caffe/data/ilsvrc12/imagenet_mean.binaryproto
I0813 13:19:07.466277 24256 net.cpp:84] Top shape: 2 3 227 227 (309174)
I0813 13:19:07.466284 24256 net.cpp:116] source_ims does not need backward computation.
I0813 13:19:07.466290 24256 net.cpp:65] Creating Layer target_ims
I0813 13:19:07.466295 24256 net.cpp:189] target_ims -> target_ims
I0813 13:19:07.466349 24256 data_layer.cpp:223] Opening lmdb /scr/r6/tgebru/inverting_conv/caffe_invert_alexnet/data/siggraph/tiny_summer_val_lmdb
I0813 13:19:07.466471 24256 data_layer.cpp:285] output data size: 2,3,216,216
I0813 13:19:07.466475 24256 data_layer.cpp:304] Loading mean file from/scr/r6/tgebru/timnit_caffe/data/ilsvrc12/imagenet_mean.binaryproto
I0813 13:19:07.468674 24256 net.cpp:84] Top shape: 2 3 216 216 (279936)
I0813 13:19:07.468693 24256 net.cpp:116] target_ims does not need backward computation.
I0813 13:19:07.468704 24256 net.cpp:65] Creating Layer conv1
I0813 13:19:07.468708 24256 net.cpp:228] conv1 <- source_ims
I0813 13:19:07.468713 24256 net.cpp:189] conv1 -> conv1
I0813 13:19:07.470024 24256 net.cpp:84] Top shape: 2 96 55 55 (580800)
I0813 13:19:07.470029 24256 net.cpp:116] conv1 does not need backward computation.
I0813 13:19:07.470033 24256 net.cpp:65] Creating Layer relu1
I0813 13:19:07.470036 24256 net.cpp:228] relu1 <- conv1
I0813 13:19:07.470041 24256 net.cpp:179] relu1 -> conv1 (in-place)
I0813 13:19:07.470046 24256 net.cpp:84] Top shape: 2 96 55 55 (580800)
I0813 13:19:07.470049 24256 net.cpp:116] relu1 does not need backward computation.
I0813 13:19:07.470054 24256 net.cpp:65] Creating Layer pool1
I0813 13:19:07.470057 24256 net.cpp:228] pool1 <- conv1
I0813 13:19:07.470060 24256 net.cpp:189] pool1 -> pool1
I0813 13:19:07.470067 24256 net.cpp:84] Top shape: 2 96 27 27 (139968)
I0813 13:19:07.470069 24256 net.cpp:116] pool1 does not need backward computation.
I0813 13:19:07.470073 24256 net.cpp:65] Creating Layer norm1
I0813 13:19:07.470075 24256 net.cpp:228] norm1 <- pool1
I0813 13:19:07.470079 24256 net.cpp:189] norm1 -> norm1
I0813 13:19:07.470085 24256 net.cpp:84] Top shape: 2 96 27 27 (139968)
I0813 13:19:07.470088 24256 net.cpp:116] norm1 does not need backward computation.
I0813 13:19:07.470091 24256 net.cpp:65] Creating Layer Rconv6
I0813 13:19:07.470094 24256 net.cpp:228] Rconv6 <- norm1
I0813 13:19:07.470098 24256 net.cpp:189] Rconv6 -> Rconv6
I0813 13:19:07.470660 24256 net.cpp:84] Top shape: 2 256 27 27 (373248)
I0813 13:19:07.470665 24256 net.cpp:116] Rconv6 does not need backward computation.
I0813 13:19:07.470669 24256 net.cpp:65] Creating Layer Rrelu6
I0813 13:19:07.470671 24256 net.cpp:228] Rrelu6 <- Rconv6
I0813 13:19:07.470675 24256 net.cpp:179] Rrelu6 -> Rconv6 (in-place)
I0813 13:19:07.470680 24256 net.cpp:84] Top shape: 2 256 27 27 (373248)
I0813 13:19:07.470684 24256 net.cpp:116] Rrelu6 does not need backward computation.
I0813 13:19:07.470688 24256 net.cpp:65] Creating Layer Rconv7
I0813 13:19:07.470690 24256 net.cpp:228] Rconv7 <- Rconv6
I0813 13:19:07.470695 24256 net.cpp:189] Rconv7 -> Rconv7
I0813 13:19:07.471421 24256 net.cpp:84] Top shape: 2 256 27 27 (373248)
I0813 13:19:07.471426 24256 net.cpp:116] Rconv7 does not need backward computation.
I0813 13:19:07.471431 24256 net.cpp:65] Creating Layer Rrelu7
I0813 13:19:07.471433 24256 net.cpp:228] Rrelu7 <- Rconv7
I0813 13:19:07.471437 24256 net.cpp:179] Rrelu7 -> Rconv7 (in-place)
I0813 13:19:07.471441 24256 net.cpp:84] Top shape: 2 256 27 27 (373248)
I0813 13:19:07.471444 24256 net.cpp:116] Rrelu7 does not need backward computation.
I0813 13:19:07.471447 24256 net.cpp:65] Creating Layer Rconv8
I0813 13:19:07.471451 24256 net.cpp:228] Rconv8 <- Rconv7
I0813 13:19:07.471454 24256 net.cpp:189] Rconv8 -> Rconv8
I0813 13:19:07.472183 24256 net.cpp:84] Top shape: 2 256 27 27 (373248)
I0813 13:19:07.472188 24256 net.cpp:116] Rconv8 does not need backward computation.
I0813 13:19:07.472192 24256 net.cpp:65] Creating Layer Rrelu8
I0813 13:19:07.472194 24256 net.cpp:228] Rrelu8 <- Rconv8
I0813 13:19:07.472198 24256 net.cpp:179] Rrelu8 -> Rconv8 (in-place)
I0813 13:19:07.472203 24256 net.cpp:84] Top shape: 2 256 27 27 (373248)
I0813 13:19:07.472204 24256 net.cpp:116] Rrelu8 does not need backward computation.
I0813 13:19:07.472208 24256 net.cpp:65] Creating Layer deconv2
I0813 13:19:07.472211 24256 net.cpp:228] deconv2 <- Rconv8
I0813 13:19:07.472215 24256 net.cpp:189] deconv2 -> deconv2
I0813 13:19:07.473224 24256 net.cpp:84] Top shape: 2 64 54 54 (373248)
I0813 13:19:07.473229 24256 net.cpp:116] deconv2 does not need backward computation.
I0813 13:19:07.473233 24256 net.cpp:65] Creating Layer relu_deconv2
I0813 13:19:07.473237 24256 net.cpp:228] relu_deconv2 <- deconv2
I0813 13:19:07.473240 24256 net.cpp:179] relu_deconv2 -> deconv2 (in-place)
I0813 13:19:07.473244 24256 net.cpp:84] Top shape: 2 64 54 54 (373248)
I0813 13:19:07.473248 24256 net.cpp:116] relu_deconv2 does not need backward computation.
I0813 13:19:07.473263 24256 net.cpp:65] Creating Layer deconv1
I0813 13:19:07.473265 24256 net.cpp:228] deconv1 <- deconv2
I0813 13:19:07.473269 24256 net.cpp:189] deconv1 -> deconv1
I0813 13:19:07.473410 24256 net.cpp:84] Top shape: 2 32 108 108 (746496)
I0813 13:19:07.473414 24256 net.cpp:116] deconv1 does not need backward computation.
I0813 13:19:07.473423 24256 net.cpp:65] Creating Layer relu_deconv1
I0813 13:19:07.473426 24256 net.cpp:228] relu_deconv1 <- deconv1
I0813 13:19:07.473430 24256 net.cpp:179] relu_deconv1 -> deconv1 (in-place)
I0813 13:19:07.473434 24256 net.cpp:84] Top shape: 2 32 108 108 (746496)
I0813 13:19:07.473438 24256 net.cpp:116] relu_deconv1 does not need backward computation.
I0813 13:19:07.473443 24256 net.cpp:65] Creating Layer deconv0
I0813 13:19:07.473445 24256 net.cpp:228] deconv0 <- deconv1
I0813 13:19:07.473449 24256 net.cpp:189] deconv0 -> deconv0
I0813 13:19:07.473469 24256 net.cpp:84] Top shape: 2 3 216 216 (279936)
I0813 13:19:07.473471 24256 net.cpp:116] deconv0 does not need backward computation.
I0813 13:19:07.473474 24256 net.cpp:65] Creating Layer loss
I0813 13:19:07.473477 24256 net.cpp:228] loss <- deconv0
I0813 13:19:07.473480 24256 net.cpp:228] loss <- target_ims
I0813 13:19:07.473485 24256 net.cpp:116] loss does not need backward computation.
I0813 13:19:07.473497 24256 net.cpp:238] Collecting Learning Rate and Weight Decay.
…
