…
    source: "/scr/r6/tgebru/inverting_conv/caffe_invert_alexnet/data/siggraph/tiny_winter_train_lmdb"
    mean_file: "/scr/r6/tgebru/timnit_caffe/data/ilsvrc12/imagenet_mean.binaryproto"
    batch_size: 12
    crop_size: 227
    mirror: false
    backend: LMDB
  }
}
layers {
  top: "target_ims"
  name: "target_ims"
  type: DATA
  data_param {
    source: "/scr/r6/tgebru/inverting_conv/caffe_invert_alexnet/data/siggraph/tiny_summer_train_lmdb"
    mean_file: "/scr/r6/tgebru/timnit_caffe/data/ilsvrc12/imagenet_mean.binaryproto"
    batch_size: 12
    crop_size: 216
    mirror: false
    backend: LMDB
  }
}
layers {
  bottom: "source_ims"
  top: "conv1"
  name: "conv1"
  type: CONVOLUTION
  blobs_lr: 0
  blobs_lr: 0
  weight_decay: 1
  weight_decay: 0
  convolution_param {
    num_output: 96
    kernel_size: 11
    stride: 4
    weight_filler {
      type: "gaussian"
      std: 0.01
    }
    bias_filler {
      type: "constant"
      value: 0
    }
  }
}
layers {
  bottom: "conv1"
  top: "conv1"
  name: "relu1"
  type: RELU
}
layers {
  bottom: "conv1"
  top: "pool1"
  name: "pool1"
  type: POOLING
  pooling_param {
    pool: MAX
    kernel_size: 3
    stride: 2
  }
}
layers {
  bottom: "pool1"
  top: "norm1"
  name: "norm1"
  type: LRN
  lrn_param {
    local_size: 5
    alpha: 0.0001
    beta: 0.75
  }
}
layers {
  bottom: "norm1"
  top: "Rconv6"
  name: "Rconv6"
  type: CONVOLUTION
  blobs_lr: 1
  blobs_lr: 2
  weight_decay: 1
  weight_decay: 0
  convolution_param {
    num_output: 256
    pad: 1
    kernel_size: 3
  }
}
layers {
  bottom: "Rconv6"
  top: "Rconv6"
  name: "Rrelu6"
  type: RELU
}
layers {
  bottom: "Rconv6"
  top: "Rconv7"
  name: "Rconv7"
  type: CONVOLUTION
  blobs_lr: 1
  blobs_lr: 2
  weight_decay: 1
  weight_decay: 0
  convolution_param {
    num_output: 256
    pad: 1
    kernel_size: 3
    group: 2
  }
}
layers {
  bottom: "Rconv7"
  top: "Rconv7"
  name: "Rrelu7"
  type: RELU
}
layers {
  bottom: "Rconv7"
  top: "Rconv8"
  name: "Rconv8"
  type: CONVOLUTION
  blobs_lr: 1
  blobs_lr: 2
  weight_decay: 1
  weight_decay: 0
  convolution_param {
    num_output: 256
    pad: 1
    kernel_size: 3
    group: 2
  }
}
layers {
  bottom: "Rconv8"
  top: "Rconv8"
  name: "Rrelu8"
  type: RELU
}
layers {
  bottom: "Rconv8"
  top: "deconv2"
  name: "deconv2"
  type: DECONVOLUTION
  blobs_lr: 1
  blobs_lr: 2
  weight_decay: 1
  weight_decay: 0
  deconvolution_param {
    pad: 2
    kernel_size: 5
    stride: 2
    output_height: 54
    output_width: 54
    output_channels: 64
  }
}
layers {
  bottom: "deconv2"
  top: "deconv2"
  name: "relu_deconv2"
  type: RELU
  relu_param {
    negative_slope: 0.3
  }
}
layers {
  bottom: "deconv2"
  top: "deconv1"
  name: "deconv1"
  type: DECONVOLUTION
  blobs_lr: 1
  blobs_lr: 2
  weight_decay: 1
  weight_decay: 0
  deconvolution_param {
    pad: 2
    kernel_size: 5
    stride: 2
    output_height: 108
    output_width: 108
    output_channels: 32
  }
}
layers {
  bottom: "deconv1"
  top: "deconv1"
  name: "relu_deconv1"
  type: RELU
  relu_param {
    negative_slope: 0.3
  }
}
layers {
  bottom: "deconv1"
  top: "deconv0"
  name: "deconv0"
  type: DECONVOLUTION
  blobs_lr: 1
  blobs_lr: 2
  weight_decay: 1
  weight_decay: 1
  deconvolution_param {
    pad: 2
    kernel_size: 5
    stride: 2
    output_height: 216
    output_width: 216
    output_channels: 3
  }
}
layers {
  bottom: "deconv0"
  bottom: "target_ims"
  name: "loss"
  type: EUCLIDEAN_LOSS
}
I0812 17:24:19.347141 15732 net.cpp:65] Creating Layer source_ims
I0812 17:24:19.347148 15732 net.cpp:189] source_ims -> source_ims
I0812 17:24:19.347252 15732 data_layer.cpp:223] Opening lmdb /scr/r6/tgebru/inverting_conv/caffe_invert_alexnet/data/siggraph/tiny_winter_train_lmdb
I0812 17:24:19.347476 15732 data_layer.cpp:285] output data size: 12,3,227,227
I0812 17:24:19.347482 15732 data_layer.cpp:304] Loading mean file from/scr/r6/tgebru/timnit_caffe/data/ilsvrc12/imagenet_mean.binaryproto
I0812 17:24:19.352660 15732 net.cpp:84] Top shape: 12 3 227 227 (1855044)
I0812 17:24:19.352669 15732 net.cpp:116] source_ims does not need backward computation.
I0812 17:24:19.352675 15732 net.cpp:65] Creating Layer target_ims
I0812 17:24:19.352679 15732 net.cpp:189] target_ims -> target_ims
I0812 17:24:19.352831 15732 data_layer.cpp:223] Opening lmdb /scr/r6/tgebru/inverting_conv/caffe_invert_alexnet/data/siggraph/tiny_summer_train_lmdb
I0812 17:24:19.353029 15732 data_layer.cpp:285] output data size: 12,3,216,216
I0812 17:24:19.353032 15732 data_layer.cpp:304] Loading mean file from/scr/r6/tgebru/timnit_caffe/data/ilsvrc12/imagenet_mean.binaryproto
I0812 17:24:19.357022 15732 net.cpp:84] Top shape: 12 3 216 216 (1679616)
I0812 17:24:19.357031 15732 net.cpp:116] target_ims does not need backward computation.
I0812 17:24:19.357045 15732 net.cpp:65] Creating Layer conv1
I0812 17:24:19.357059 15732 net.cpp:228] conv1 <- source_ims
I0812 17:24:19.357117 15732 net.cpp:189] conv1 -> conv1
I0812 17:24:19.358428 15732 net.cpp:84] Top shape: 12 96 55 55 (3484800)
I0812 17:24:19.358433 15732 net.cpp:116] conv1 does not need backward computation.
I0812 17:24:19.358438 15732 net.cpp:65] Creating Layer relu1
I0812 17:24:19.358441 15732 net.cpp:228] relu1 <- conv1
I0812 17:24:19.358445 15732 net.cpp:179] relu1 -> conv1 (in-place)
I0812 17:24:19.358455 15732 net.cpp:84] Top shape: 12 96 55 55 (3484800)
I0812 17:24:19.358458 15732 net.cpp:116] relu1 does not need backward computation.
I0812 17:24:19.358464 15732 net.cpp:65] Creating Layer pool1
I0812 17:24:19.358466 15732 net.cpp:228] pool1 <- conv1
I0812 17:24:19.358471 15732 net.cpp:189] pool1 -> pool1
I0812 17:24:19.358484 15732 net.cpp:84] Top shape: 12 96 27 27 (839808)
I0812 17:24:19.358489 15732 net.cpp:116] pool1 does not need backward computation.
I0812 17:24:19.358494 15732 net.cpp:65] Creating Layer norm1
I0812 17:24:19.358496 15732 net.cpp:228] norm1 <- pool1
I0812 17:24:19.358500 15732 net.cpp:189] norm1 -> norm1
I0812 17:24:19.358510 15732 net.cpp:84] Top shape: 12 96 27 27 (839808)
I0812 17:24:19.358513 15732 net.cpp:116] norm1 does not need backward computation.
I0812 17:24:19.358517 15732 net.cpp:65] Creating Layer Rconv6
I0812 17:24:19.358520 15732 net.cpp:228] Rconv6 <- norm1
I0812 17:24:19.358525 15732 net.cpp:189] Rconv6 -> Rconv6
I0812 17:24:19.358695 15732 net.cpp:84] Top shape: 12 256 27 27 (2239488)
I0812 17:24:19.358700 15732 net.cpp:111] Rconv6 needs backward computation.
I0812 17:24:19.358703 15732 net.cpp:65] Creating Layer Rrelu6
I0812 17:24:19.358706 15732 net.cpp:228] Rrelu6 <- Rconv6
I0812 17:24:19.358711 15732 net.cpp:179] Rrelu6 -> Rconv6 (in-place)
I0812 17:24:19.358716 15732 net.cpp:84] Top shape: 12 256 27 27 (2239488)
I0812 17:24:19.358718 15732 net.cpp:111] Rrelu6 needs backward computation.
I0812 17:24:19.358724 15732 net.cpp:65] Creating Layer Rconv7
I0812 17:24:19.358727 15732 net.cpp:228] Rconv7 <- Rconv6
I0812 17:24:19.358731 15732 net.cpp:189] Rconv7 -> Rconv7
I0812 17:24:19.359433 15732 net.cpp:84] Top shape: 12 256 27 27 (2239488)
I0812 17:24:19.359439 15732 net.cpp:111] Rconv7 needs backward computation.
I0812 17:24:19.359443 15732 net.cpp:65] Creating Layer Rrelu7
I0812 17:24:19.359472 15732 net.cpp:228] Rrelu7 <- Rconv7
I0812 17:24:19.359477 15732 net.cpp:179] Rrelu7 -> Rconv7 (in-place)
I0812 17:24:19.359483 15732 net.cpp:84] Top shape: 12 256 27 27 (2239488)
I0812 17:24:19.359485 15732 net.cpp:111] Rrelu7 needs backward computation.
I0812 17:24:19.359489 15732 net.cpp:65] Creating Layer Rconv8
I0812 17:24:19.359493 15732 net.cpp:228] Rconv8 <- Rconv7
I0812 17:24:19.359496 15732 net.cpp:189] Rconv8 -> Rconv8
I0812 17:24:19.360291 15732 net.cpp:84] Top shape: 12 256 27 27 (2239488)
I0812 17:24:19.360296 15732 net.cpp:111] Rconv8 needs backward computation.
I0812 17:24:19.360299 15732 net.cpp:65] Creating Layer Rrelu8
I0812 17:24:19.360302 15732 net.cpp:228] Rrelu8 <- Rconv8
I0812 17:24:19.360306 15732 net.cpp:179] Rrelu8 -> Rconv8 (in-place)
I0812 17:24:19.360311 15732 net.cpp:84] Top shape: 12 256 27 27 (2239488)
I0812 17:24:19.360313 15732 net.cpp:111] Rrelu8 needs backward computation.
I0812 17:24:19.360318 15732 net.cpp:65] Creating Layer deconv2
I0812 17:24:19.360321 15732 net.cpp:228] deconv2 <- Rconv8
I0812 17:24:19.360324 15732 net.cpp:189] deconv2 -> deconv2
I0812 17:24:19.361395 15732 net.cpp:84] Top shape: 12 64 54 54 (2239488)
I0812 17:24:19.361402 15732 net.cpp:111] deconv2 needs backward computation.
I0812 17:24:19.361405 15732 net.cpp:65] Creating Layer relu_deconv2
I0812 17:24:19.361408 15732 net.cpp:228] relu_deconv2 <- deconv2
I0812 17:24:19.361413 15732 net.cpp:179] relu_deconv2 -> deconv2 (in-place)
I0812 17:24:19.361423 15732 net.cpp:84] Top shape: 12 64 54 54 (2239488)
I0812 17:24:19.361425 15732 net.cpp:111] relu_deconv2 needs backward computation.
I0812 17:24:19.361429 15732 net.cpp:65] Creating Layer deconv1
I0812 17:24:19.361433 15732 net.cpp:228] deconv1 <- deconv2
I0812 17:24:19.361436 15732 net.cpp:189] deconv1 -> deconv1
I0812 17:24:19.361582 15732 net.cpp:84] Top shape: 12 32 108 108 (4478976)
I0812 17:24:19.361585 15732 net.cpp:111] deconv1 needs backward computation.
I0812 17:24:19.361589 15732 net.cpp:65] Creating Layer relu_deconv1
I0812 17:24:19.361593 15732 net.cpp:228] relu_deconv1 <- deconv1
I0812 17:24:19.361595 15732 net.cpp:179] relu_deconv1 -> deconv1 (in-place)
I0812 17:24:19.361600 15732 net.cpp:84] Top shape: 12 32 108 108 (4478976)
I0812 17:24:19.361603 15732 net.cpp:111] relu_deconv1 needs backward computation.
I0812 17:24:19.361608 15732 net.cpp:65] Creating Layer deconv0
I0812 17:24:19.361611 15732 net.cpp:228] deconv0 <- deconv1
I0812 17:24:19.361615 15732 net.cpp:189] deconv0 -> deconv0
I0812 17:24:19.361660 15732 net.cpp:84] Top shape: 12 3 216 216 (1679616)
I0812 17:24:19.361663 15732 net.cpp:111] deconv0 needs backward computation.
I0812 17:24:19.361667 15732 net.cpp:65] Creating Layer loss
I0812 17:24:19.361670 15732 net.cpp:228] loss <- deconv0
I0812 17:24:19.361673 15732 net.cpp:228] loss <- target_ims
I0812 17:24:19.361682 15732 net.cpp:111] loss needs backward computation.
I0812 17:24:19.361697 15732 net.cpp:238] Collecting Learning Rate and Weight Decay.
…
    source: "/scr/r6/tgebru/inverting_conv/caffe_invert_alexnet/data/siggraph/tiny_winter_val_lmdb"
    mean_file: "/scr/r6/tgebru/timnit_caffe/data/ilsvrc12/imagenet_mean.binaryproto"
    batch_size: 2
    crop_size: 227
    mirror: false
    backend: LMDB
  }
}
layers {
  top: "target_ims"
  name: "target_ims"
  type: DATA
  data_param {
    source: "/scr/r6/tgebru/inverting_conv/caffe_invert_alexnet/data/siggraph/tiny_summer_val_lmdb"
    mean_file: "/scr/r6/tgebru/timnit_caffe/data/ilsvrc12/imagenet_mean.binaryproto"
    batch_size: 2
    crop_size: 216
    mirror: false
    backend: LMDB
  }
}
layers {
  bottom: "source_ims"
  top: "conv1"
  name: "conv1"
  type: CONVOLUTION
  blobs_lr: 0
  blobs_lr: 0
  weight_decay: 1
  weight_decay: 0
  convolution_param {
    num_output: 96
    kernel_size: 11
    stride: 4
    weight_filler {
      type: "gaussian"
      std: 0.01
    }
    bias_filler {
      type: "constant"
      value: 0
    }
  }
}
layers {
  bottom: "conv1"
  top: "conv1"
  name: "relu1"
  type: RELU
}
layers {
  bottom: "conv1"
  top: "pool1"
  name: "pool1"
  type: POOLING
  pooling_param {
    pool: MAX
    kernel_size: 3
    stride: 2
  }
}
layers {
  bottom: "pool1"
  top: "norm1"
  name: "norm1"
  type: LRN
  lrn_param {
    local_size: 5
    alpha: 0.0001
    beta: 0.75
  }
}
layers {
  bottom: "norm1"
  top: "Rconv6"
  name: "Rconv6"
  type: CONVOLUTION
  blobs_lr: 0
  blobs_lr: 0
  weight_decay: 1
  weight_decay: 0
  convolution_param {
    num_output: 256
    pad: 1
    kernel_size: 3
  }
}
layers {
  bottom: "Rconv6"
  top: "Rconv6"
  name: "Rrelu6"
  type: RELU
}
layers {
  bottom: "Rconv6"
  top: "Rconv7"
  name: "Rconv7"
  type: CONVOLUTION
  blobs_lr: 0
  blobs_lr: 0
  weight_decay: 1
  weight_decay: 0
  convolution_param {
    num_output: 256
    pad: 1
    kernel_size: 3
    group: 2
  }
}
layers {
  bottom: "Rconv7"
  top: "Rconv7"
  name: "Rrelu7"
  type: RELU
}
layers {
  bottom: "Rconv7"
  top: "Rconv8"
  name: "Rconv8"
  type: CONVOLUTION
  blobs_lr: 0
  blobs_lr: 0
  weight_decay: 1
  weight_decay: 0
  convolution_param {
    num_output: 256
    pad: 1
    kernel_size: 3
    group: 2
  }
}
layers {
  bottom: "Rconv8"
  top: "Rconv8"
  name: "Rrelu8"
  type: RELU
}
layers {
  bottom: "Rconv8"
  top: "deconv2"
  name: "deconv2"
  type: DECONVOLUTION
  blobs_lr: 0
  blobs_lr: 0
  weight_decay: 1
  weight_decay: 0
  deconvolution_param {
    pad: 2
    kernel_size: 5
    stride: 2
    output_height: 54
    output_width: 54
    output_channels: 64
  }
}
layers {
  bottom: "deconv2"
  top: "deconv2"
  name: "relu_deconv2"
  type: RELU
  relu_param {
    negative_slope: 0.3
  }
}
layers {
  bottom: "deconv2"
  top: "deconv1"
  name: "deconv1"
  type: DECONVOLUTION
  blobs_lr: 0
  blobs_lr: 0
  weight_decay: 1
  weight_decay: 0
  deconvolution_param {
    pad: 2
    kernel_size: 5
    stride: 2
    output_height: 108
    output_width: 108
    output_channels: 32
  }
}
layers {
  bottom: "deconv1"
  top: "deconv1"
  name: "relu_deconv1"
  type: RELU
  relu_param {
    negative_slope: 0.3
  }
}
layers {
  bottom: "deconv1"
  top: "deconv0"
  name: "deconv0"
  type: DECONVOLUTION
  blobs_lr: 0
  blobs_lr: 0
  weight_decay: 1
  weight_decay: 0
  deconvolution_param {
    pad: 2
    kernel_size: 5
    stride: 2
    output_height: 216
    output_width: 216
    output_channels: 3
  }
}
layers {
  bottom: "deconv0"
  bottom: "target_ims"
  name: "loss"
  type: EUCLIDEAN_LOSS
}
I0812 17:24:19.362462 15732 net.cpp:65] Creating Layer source_ims
I0812 17:24:19.362468 15732 net.cpp:189] source_ims -> source_ims
I0812 17:24:19.362541 15732 data_layer.cpp:223] Opening lmdb /scr/r6/tgebru/inverting_conv/caffe_invert_alexnet/data/siggraph/tiny_winter_val_lmdb
I0812 17:24:19.362766 15732 data_layer.cpp:285] output data size: 2,3,227,227
I0812 17:24:19.362771 15732 data_layer.cpp:304] Loading mean file from/scr/r6/tgebru/timnit_caffe/data/ilsvrc12/imagenet_mean.binaryproto
I0812 17:24:19.365105 15732 net.cpp:84] Top shape: 2 3 227 227 (309174)
I0812 17:24:19.365113 15732 net.cpp:116] source_ims does not need backward computation.
I0812 17:24:19.365118 15732 net.cpp:65] Creating Layer target_ims
I0812 17:24:19.365123 15732 net.cpp:189] target_ims -> target_ims
I0812 17:24:19.365172 15732 data_layer.cpp:223] Opening lmdb /scr/r6/tgebru/inverting_conv/caffe_invert_alexnet/data/siggraph/tiny_summer_val_lmdb
I0812 17:24:19.365352 15732 data_layer.cpp:285] output data size: 2,3,216,216
I0812 17:24:19.365357 15732 data_layer.cpp:304] Loading mean file from/scr/r6/tgebru/timnit_caffe/data/ilsvrc12/imagenet_mean.binaryproto
I0812 17:24:19.367568 15732 net.cpp:84] Top shape: 2 3 216 216 (279936)
I0812 17:24:19.367575 15732 net.cpp:116] target_ims does not need backward computation.
I0812 17:24:19.367594 15732 net.cpp:65] Creating Layer conv1
I0812 17:24:19.367599 15732 net.cpp:228] conv1 <- source_ims
I0812 17:24:19.367604 15732 net.cpp:189] conv1 -> conv1
I0812 17:24:19.368844 15732 net.cpp:84] Top shape: 2 96 55 55 (580800)
I0812 17:24:19.368847 15732 net.cpp:116] conv1 does not need backward computation.
I0812 17:24:19.368851 15732 net.cpp:65] Creating Layer relu1
I0812 17:24:19.368854 15732 net.cpp:228] relu1 <- conv1
I0812 17:24:19.368859 15732 net.cpp:179] relu1 -> conv1 (in-place)
I0812 17:24:19.368863 15732 net.cpp:84] Top shape: 2 96 55 55 (580800)
I0812 17:24:19.368866 15732 net.cpp:116] relu1 does not need backward computation.
I0812 17:24:19.368870 15732 net.cpp:65] Creating Layer pool1
I0812 17:24:19.368873 15732 net.cpp:228] pool1 <- conv1
I0812 17:24:19.368877 15732 net.cpp:189] pool1 -> pool1
I0812 17:24:19.368883 15732 net.cpp:84] Top shape: 2 96 27 27 (139968)
I0812 17:24:19.368885 15732 net.cpp:116] pool1 does not need backward computation.
I0812 17:24:19.368890 15732 net.cpp:65] Creating Layer norm1
I0812 17:24:19.368892 15732 net.cpp:228] norm1 <- pool1
I0812 17:24:19.368896 15732 net.cpp:189] norm1 -> norm1
I0812 17:24:19.368901 15732 net.cpp:84] Top shape: 2 96 27 27 (139968)
I0812 17:24:19.368904 15732 net.cpp:116] norm1 does not need backward computation.
I0812 17:24:19.368908 15732 net.cpp:65] Creating Layer Rconv6
I0812 17:24:19.368911 15732 net.cpp:228] Rconv6 <- norm1
I0812 17:24:19.368914 15732 net.cpp:189] Rconv6 -> Rconv6
I0812 17:24:19.369492 15732 net.cpp:84] Top shape: 2 256 27 27 (373248)
I0812 17:24:19.369496 15732 net.cpp:116] Rconv6 does not need backward computation.
I0812 17:24:19.369500 15732 net.cpp:65] Creating Layer Rrelu6
I0812 17:24:19.369503 15732 net.cpp:228] Rrelu6 <- Rconv6
I0812 17:24:19.369508 15732 net.cpp:179] Rrelu6 -> Rconv6 (in-place)
I0812 17:24:19.369513 15732 net.cpp:84] Top shape: 2 256 27 27 (373248)
I0812 17:24:19.369515 15732 net.cpp:116] Rrelu6 does not need backward computation.
I0812 17:24:19.369520 15732 net.cpp:65] Creating Layer Rconv7
I0812 17:24:19.369523 15732 net.cpp:228] Rconv7 <- Rconv6
I0812 17:24:19.369526 15732 net.cpp:189] Rconv7 -> Rconv7
I0812 17:24:19.370319 15732 net.cpp:84] Top shape: 2 256 27 27 (373248)
I0812 17:24:19.370323 15732 net.cpp:116] Rconv7 does not need backward computation.
I0812 17:24:19.370327 15732 net.cpp:65] Creating Layer Rrelu7
I0812 17:24:19.370331 15732 net.cpp:228] Rrelu7 <- Rconv7
I0812 17:24:19.370333 15732 net.cpp:179] Rrelu7 -> Rconv7 (in-place)
I0812 17:24:19.370337 15732 net.cpp:84] Top shape: 2 256 27 27 (373248)
I0812 17:24:19.370340 15732 net.cpp:116] Rrelu7 does not need backward computation.
I0812 17:24:19.370343 15732 net.cpp:65] Creating Layer Rconv8
I0812 17:24:19.370347 15732 net.cpp:228] Rconv8 <- Rconv7
I0812 17:24:19.370349 15732 net.cpp:189] Rconv8 -> Rconv8
I0812 17:24:19.371090 15732 net.cpp:84] Top shape: 2 256 27 27 (373248)
I0812 17:24:19.371095 15732 net.cpp:116] Rconv8 does not need backward computation.
I0812 17:24:19.371098 15732 net.cpp:65] Creating Layer Rrelu8
I0812 17:24:19.371101 15732 net.cpp:228] Rrelu8 <- Rconv8
I0812 17:24:19.371105 15732 net.cpp:179] Rrelu8 -> Rconv8 (in-place)
I0812 17:24:19.371109 15732 net.cpp:84] Top shape: 2 256 27 27 (373248)
I0812 17:24:19.371111 15732 net.cpp:116] Rrelu8 does not need backward computation.
I0812 17:24:19.371115 15732 net.cpp:65] Creating Layer deconv2
I0812 17:24:19.371119 15732 net.cpp:228] deconv2 <- Rconv8
I0812 17:24:19.371121 15732 net.cpp:189] deconv2 -> deconv2
I0812 17:24:19.372144 15732 net.cpp:84] Top shape: 2 64 54 54 (373248)
I0812 17:24:19.372149 15732 net.cpp:116] deconv2 does not need backward computation.
I0812 17:24:19.372153 15732 net.cpp:65] Creating Layer relu_deconv2
I0812 17:24:19.372156 15732 net.cpp:228] relu_deconv2 <- deconv2
I0812 17:24:19.372160 15732 net.cpp:179] relu_deconv2 -> deconv2 (in-place)
I0812 17:24:19.372164 15732 net.cpp:84] Top shape: 2 64 54 54 (373248)
I0812 17:24:19.372167 15732 net.cpp:116] relu_deconv2 does not need backward computation.
I0812 17:24:19.372184 15732 net.cpp:65] Creating Layer deconv1
I0812 17:24:19.372186 15732 net.cpp:228] deconv1 <- deconv2
I0812 17:24:19.372190 15732 net.cpp:189] deconv1 -> deconv1
I0812 17:24:19.372336 15732 net.cpp:84] Top shape: 2 32 108 108 (746496)
I0812 17:24:19.372340 15732 net.cpp:116] deconv1 does not need backward computation.
I0812 17:24:19.372344 15732 net.cpp:65] Creating Layer relu_deconv1
I0812 17:24:19.372346 15732 net.cpp:228] relu_deconv1 <- deconv1
I0812 17:24:19.372350 15732 net.cpp:179] relu_deconv1 -> deconv1 (in-place)
I0812 17:24:19.372354 15732 net.cpp:84] Top shape: 2 32 108 108 (746496)
I0812 17:24:19.372357 15732 net.cpp:116] relu_deconv1 does not need backward computation.
I0812 17:24:19.372362 15732 net.cpp:65] Creating Layer deconv0
I0812 17:24:19.372364 15732 net.cpp:228] deconv0 <- deconv1
I0812 17:24:19.372369 15732 net.cpp:189] deconv0 -> deconv0
I0812 17:24:19.372386 15732 net.cpp:84] Top shape: 2 3 216 216 (279936)
I0812 17:24:19.372390 15732 net.cpp:116] deconv0 does not need backward computation.
I0812 17:24:19.372392 15732 net.cpp:65] Creating Layer loss
I0812 17:24:19.372395 15732 net.cpp:228] loss <- deconv0
I0812 17:24:19.372398 15732 net.cpp:228] loss <- target_ims
I0812 17:24:19.372402 15732 net.cpp:116] loss does not need backward computation.
I0812 17:24:19.372414 15732 net.cpp:238] Collecting Learning Rate and Weight Decay.
…
