…
    source: "/scr/r6/tgebru/inverting_conv/caffe_invert_alexnet/data/siggraph/tiny_winter_train_lmdb"
    mean_file: "/scr/r6/tgebru/timnit_caffe/data/ilsvrc12/imagenet_mean.binaryproto"
    batch_size: 12
    crop_size: 227
    mirror: false
    backend: LMDB
  }
}
layers {
  top: "target_ims"
  name: "target_ims"
  type: DATA
  data_param {
    source: "/scr/r6/tgebru/inverting_conv/caffe_invert_alexnet/data/siggraph/tiny_summer_train_lmdb"
    mean_file: "/scr/r6/tgebru/timnit_caffe/data/ilsvrc12/imagenet_mean.binaryproto"
    batch_size: 12
    crop_size: 216
    mirror: false
    backend: LMDB
  }
}
layers {
  bottom: "source_ims"
  top: "conv1"
  name: "conv1"
  type: CONVOLUTION
  blobs_lr: 0
  blobs_lr: 0
  weight_decay: 1
  weight_decay: 0
  convolution_param {
    num_output: 96
    kernel_size: 11
    stride: 4
    weight_filler {
      type: "gaussian"
      std: 0.01
    }
    bias_filler {
      type: "constant"
      value: 0
    }
  }
}
layers {
  bottom: "conv1"
  top: "conv1"
  name: "relu1"
  type: RELU
}
layers {
  bottom: "conv1"
  top: "pool1"
  name: "pool1"
  type: POOLING
  pooling_param {
    pool: MAX
    kernel_size: 3
    stride: 2
  }
}
layers {
  bottom: "pool1"
  top: "norm1"
  name: "norm1"
  type: LRN
  lrn_param {
    local_size: 5
    alpha: 0.0001
    beta: 0.75
  }
}
layers {
  bottom: "norm1"
  top: "Rconv6"
  name: "Rconv6"
  type: CONVOLUTION
  blobs_lr: 1
  blobs_lr: 2
  weight_decay: 1
  weight_decay: 0
  convolution_param {
    num_output: 256
    pad: 1
    kernel_size: 3
  }
}
layers {
  bottom: "Rconv6"
  top: "Rconv6"
  name: "Rrelu6"
  type: RELU
}
layers {
  bottom: "Rconv6"
  top: "Rconv7"
  name: "Rconv7"
  type: CONVOLUTION
  blobs_lr: 1
  blobs_lr: 2
  weight_decay: 1
  weight_decay: 0
  convolution_param {
    num_output: 256
    pad: 1
    kernel_size: 3
    group: 2
  }
}
layers {
  bottom: "Rconv7"
  top: "Rconv7"
  name: "Rrelu7"
  type: RELU
}
layers {
  bottom: "Rconv7"
  top: "Rconv8"
  name: "Rconv8"
  type: CONVOLUTION
  blobs_lr: 1
  blobs_lr: 2
  weight_decay: 1
  weight_decay: 0
  convolution_param {
    num_output: 256
    pad: 1
    kernel_size: 3
    group: 2
  }
}
layers {
  bottom: "Rconv8"
  top: "Rconv8"
  name: "Rrelu8"
  type: RELU
}
layers {
  bottom: "Rconv8"
  top: "deconv2"
  name: "deconv2"
  type: DECONVOLUTION
  blobs_lr: 1
  blobs_lr: 2
  weight_decay: 1
  weight_decay: 0
  deconvolution_param {
    pad: 2
    kernel_size: 5
    stride: 2
    output_height: 54
    output_width: 54
    output_channels: 64
  }
}
layers {
  bottom: "deconv2"
  top: "deconv2"
  name: "relu_deconv2"
  type: RELU
  relu_param {
    negative_slope: 0.3
  }
}
layers {
  bottom: "deconv2"
  top: "deconv1"
  name: "deconv1"
  type: DECONVOLUTION
  blobs_lr: 1
  blobs_lr: 2
  weight_decay: 1
  weight_decay: 0
  deconvolution_param {
    pad: 2
    kernel_size: 5
    stride: 2
    output_height: 108
    output_width: 108
    output_channels: 32
  }
}
layers {
  bottom: "deconv1"
  top: "deconv1"
  name: "relu_deconv1"
  type: RELU
  relu_param {
    negative_slope: 0.3
  }
}
layers {
  bottom: "deconv1"
  top: "deconv0"
  name: "deconv0"
  type: DECONVOLUTION
  blobs_lr: 1
  blobs_lr: 2
  weight_decay: 1
  weight_decay: 1
  deconvolution_param {
    pad: 2
    kernel_size: 5
    stride: 2
    output_height: 216
    output_width: 216
    output_channels: 3
  }
}
layers {
  bottom: "deconv0"
  bottom: "target_ims"
  name: "loss"
  type: EUCLIDEAN_LOSS
}
I0813 09:38:04.632043 27919 net.cpp:65] Creating Layer source_ims
I0813 09:38:04.632052 27919 net.cpp:189] source_ims -> source_ims
I0813 09:38:04.632166 27919 data_layer.cpp:223] Opening lmdb /scr/r6/tgebru/inverting_conv/caffe_invert_alexnet/data/siggraph/tiny_winter_train_lmdb
I0813 09:38:04.632369 27919 data_layer.cpp:285] output data size: 12,3,227,227
I0813 09:38:04.632375 27919 data_layer.cpp:304] Loading mean file from/scr/r6/tgebru/timnit_caffe/data/ilsvrc12/imagenet_mean.binaryproto
I0813 09:38:04.637256 27919 net.cpp:84] Top shape: 12 3 227 227 (1855044)
I0813 09:38:04.637264 27919 net.cpp:116] source_ims does not need backward computation.
I0813 09:38:04.637270 27919 net.cpp:65] Creating Layer target_ims
I0813 09:38:04.637274 27919 net.cpp:189] target_ims -> target_ims
I0813 09:38:04.637444 27919 data_layer.cpp:223] Opening lmdb /scr/r6/tgebru/inverting_conv/caffe_invert_alexnet/data/siggraph/tiny_summer_train_lmdb
I0813 09:38:04.637583 27919 data_layer.cpp:285] output data size: 12,3,216,216
I0813 09:38:04.637588 27919 data_layer.cpp:304] Loading mean file from/scr/r6/tgebru/timnit_caffe/data/ilsvrc12/imagenet_mean.binaryproto
I0813 09:38:04.642514 27919 net.cpp:84] Top shape: 12 3 216 216 (1679616)
I0813 09:38:04.642524 27919 net.cpp:116] target_ims does not need backward computation.
I0813 09:38:04.642535 27919 net.cpp:65] Creating Layer conv1
I0813 09:38:04.642539 27919 net.cpp:228] conv1 <- source_ims
I0813 09:38:04.642632 27919 net.cpp:189] conv1 -> conv1
I0813 09:38:04.644029 27919 net.cpp:84] Top shape: 12 96 55 55 (3484800)
I0813 09:38:04.644035 27919 net.cpp:116] conv1 does not need backward computation.
I0813 09:38:04.644040 27919 net.cpp:65] Creating Layer relu1
I0813 09:38:04.644043 27919 net.cpp:228] relu1 <- conv1
I0813 09:38:04.644048 27919 net.cpp:179] relu1 -> conv1 (in-place)
I0813 09:38:04.644057 27919 net.cpp:84] Top shape: 12 96 55 55 (3484800)
I0813 09:38:04.644060 27919 net.cpp:116] relu1 does not need backward computation.
I0813 09:38:04.644065 27919 net.cpp:65] Creating Layer pool1
I0813 09:38:04.644068 27919 net.cpp:228] pool1 <- conv1
I0813 09:38:04.644073 27919 net.cpp:189] pool1 -> pool1
I0813 09:38:04.644086 27919 net.cpp:84] Top shape: 12 96 27 27 (839808)
I0813 09:38:04.644089 27919 net.cpp:116] pool1 does not need backward computation.
I0813 09:38:04.644094 27919 net.cpp:65] Creating Layer norm1
I0813 09:38:04.644098 27919 net.cpp:228] norm1 <- pool1
I0813 09:38:04.644101 27919 net.cpp:189] norm1 -> norm1
I0813 09:38:04.644111 27919 net.cpp:84] Top shape: 12 96 27 27 (839808)
I0813 09:38:04.644114 27919 net.cpp:116] norm1 does not need backward computation.
I0813 09:38:04.644119 27919 net.cpp:65] Creating Layer Rconv6
I0813 09:38:04.644121 27919 net.cpp:228] Rconv6 <- norm1
I0813 09:38:04.644126 27919 net.cpp:189] Rconv6 -> Rconv6
I0813 09:38:04.644387 27919 net.cpp:84] Top shape: 12 256 27 27 (2239488)
I0813 09:38:04.644392 27919 net.cpp:111] Rconv6 needs backward computation.
I0813 09:38:04.644395 27919 net.cpp:65] Creating Layer Rrelu6
I0813 09:38:04.644398 27919 net.cpp:228] Rrelu6 <- Rconv6
I0813 09:38:04.644403 27919 net.cpp:179] Rrelu6 -> Rconv6 (in-place)
I0813 09:38:04.644408 27919 net.cpp:84] Top shape: 12 256 27 27 (2239488)
I0813 09:38:04.644410 27919 net.cpp:111] Rrelu6 needs backward computation.
I0813 09:38:04.644417 27919 net.cpp:65] Creating Layer Rconv7
I0813 09:38:04.644419 27919 net.cpp:228] Rconv7 <- Rconv6
I0813 09:38:04.644423 27919 net.cpp:189] Rconv7 -> Rconv7
I0813 09:38:04.645108 27919 net.cpp:84] Top shape: 12 256 27 27 (2239488)
I0813 09:38:04.645113 27919 net.cpp:111] Rconv7 needs backward computation.
I0813 09:38:04.645117 27919 net.cpp:65] Creating Layer Rrelu7
I0813 09:38:04.645139 27919 net.cpp:228] Rrelu7 <- Rconv7
I0813 09:38:04.645144 27919 net.cpp:179] Rrelu7 -> Rconv7 (in-place)
I0813 09:38:04.645148 27919 net.cpp:84] Top shape: 12 256 27 27 (2239488)
I0813 09:38:04.645151 27919 net.cpp:111] Rrelu7 needs backward computation.
I0813 09:38:04.645155 27919 net.cpp:65] Creating Layer Rconv8
I0813 09:38:04.645158 27919 net.cpp:228] Rconv8 <- Rconv7
I0813 09:38:04.645162 27919 net.cpp:189] Rconv8 -> Rconv8
I0813 09:38:04.645966 27919 net.cpp:84] Top shape: 12 256 27 27 (2239488)
I0813 09:38:04.645970 27919 net.cpp:111] Rconv8 needs backward computation.
I0813 09:38:04.645974 27919 net.cpp:65] Creating Layer Rrelu8
I0813 09:38:04.645977 27919 net.cpp:228] Rrelu8 <- Rconv8
I0813 09:38:04.645982 27919 net.cpp:179] Rrelu8 -> Rconv8 (in-place)
I0813 09:38:04.645985 27919 net.cpp:84] Top shape: 12 256 27 27 (2239488)
I0813 09:38:04.645988 27919 net.cpp:111] Rrelu8 needs backward computation.
I0813 09:38:04.645992 27919 net.cpp:65] Creating Layer deconv2
I0813 09:38:04.645994 27919 net.cpp:228] deconv2 <- Rconv8
I0813 09:38:04.645998 27919 net.cpp:189] deconv2 -> deconv2
I0813 09:38:04.647016 27919 net.cpp:84] Top shape: 12 64 54 54 (2239488)
I0813 09:38:04.647019 27919 net.cpp:111] deconv2 needs backward computation.
I0813 09:38:04.647024 27919 net.cpp:65] Creating Layer relu_deconv2
I0813 09:38:04.647027 27919 net.cpp:228] relu_deconv2 <- deconv2
I0813 09:38:04.647030 27919 net.cpp:179] relu_deconv2 -> deconv2 (in-place)
I0813 09:38:04.647035 27919 net.cpp:84] Top shape: 12 64 54 54 (2239488)
I0813 09:38:04.647038 27919 net.cpp:111] relu_deconv2 needs backward computation.
I0813 09:38:04.647042 27919 net.cpp:65] Creating Layer deconv1
I0813 09:38:04.647044 27919 net.cpp:228] deconv1 <- deconv2
I0813 09:38:04.647048 27919 net.cpp:189] deconv1 -> deconv1
I0813 09:38:04.647181 27919 net.cpp:84] Top shape: 12 32 108 108 (4478976)
I0813 09:38:04.647184 27919 net.cpp:111] deconv1 needs backward computation.
I0813 09:38:04.647188 27919 net.cpp:65] Creating Layer relu_deconv1
I0813 09:38:04.647192 27919 net.cpp:228] relu_deconv1 <- deconv1
I0813 09:38:04.647195 27919 net.cpp:179] relu_deconv1 -> deconv1 (in-place)
I0813 09:38:04.647199 27919 net.cpp:84] Top shape: 12 32 108 108 (4478976)
I0813 09:38:04.647202 27919 net.cpp:111] relu_deconv1 needs backward computation.
I0813 09:38:04.647207 27919 net.cpp:65] Creating Layer deconv0
I0813 09:38:04.647209 27919 net.cpp:228] deconv0 <- deconv1
I0813 09:38:04.647213 27919 net.cpp:189] deconv0 -> deconv0
I0813 09:38:04.647258 27919 net.cpp:84] Top shape: 12 3 216 216 (1679616)
I0813 09:38:04.647261 27919 net.cpp:111] deconv0 needs backward computation.
I0813 09:38:04.647265 27919 net.cpp:65] Creating Layer loss
I0813 09:38:04.647267 27919 net.cpp:228] loss <- deconv0
I0813 09:38:04.647271 27919 net.cpp:228] loss <- target_ims
I0813 09:38:04.647280 27919 net.cpp:111] loss needs backward computation.
I0813 09:38:04.647292 27919 net.cpp:238] Collecting Learning Rate and Weight Decay.
…
    source: "/scr/r6/tgebru/inverting_conv/caffe_invert_alexnet/data/siggraph/tiny_winter_val_lmdb"
    mean_file: "/scr/r6/tgebru/timnit_caffe/data/ilsvrc12/imagenet_mean.binaryproto"
    batch_size: 2
    crop_size: 227
    mirror: false
    backend: LMDB
  }
}
layers {
  top: "target_ims"
  name: "target_ims"
  type: DATA
  data_param {
    source: "/scr/r6/tgebru/inverting_conv/caffe_invert_alexnet/data/siggraph/tiny_summer_val_lmdb"
    mean_file: "/scr/r6/tgebru/timnit_caffe/data/ilsvrc12/imagenet_mean.binaryproto"
    batch_size: 2
    crop_size: 216
    mirror: false
    backend: LMDB
  }
}
layers {
  bottom: "source_ims"
  top: "conv1"
  name: "conv1"
  type: CONVOLUTION
  blobs_lr: 0
  blobs_lr: 0
  weight_decay: 1
  weight_decay: 0
  convolution_param {
    num_output: 96
    kernel_size: 11
    stride: 4
    weight_filler {
      type: "gaussian"
      std: 0.01
    }
    bias_filler {
      type: "constant"
      value: 0
    }
  }
}
layers {
  bottom: "conv1"
  top: "conv1"
  name: "relu1"
  type: RELU
}
layers {
  bottom: "conv1"
  top: "pool1"
  name: "pool1"
  type: POOLING
  pooling_param {
    pool: MAX
    kernel_size: 3
    stride: 2
  }
}
layers {
  bottom: "pool1"
  top: "norm1"
  name: "norm1"
  type: LRN
  lrn_param {
    local_size: 5
    alpha: 0.0001
    beta: 0.75
  }
}
layers {
  bottom: "norm1"
  top: "Rconv6"
  name: "Rconv6"
  type: CONVOLUTION
  blobs_lr: 0
  blobs_lr: 0
  weight_decay: 1
  weight_decay: 0
  convolution_param {
    num_output: 256
    pad: 1
    kernel_size: 3
  }
}
layers {
  bottom: "Rconv6"
  top: "Rconv6"
  name: "Rrelu6"
  type: RELU
}
layers {
  bottom: "Rconv6"
  top: "Rconv7"
  name: "Rconv7"
  type: CONVOLUTION
  blobs_lr: 0
  blobs_lr: 0
  weight_decay: 1
  weight_decay: 0
  convolution_param {
    num_output: 256
    pad: 1
    kernel_size: 3
    group: 2
  }
}
layers {
  bottom: "Rconv7"
  top: "Rconv7"
  name: "Rrelu7"
  type: RELU
}
layers {
  bottom: "Rconv7"
  top: "Rconv8"
  name: "Rconv8"
  type: CONVOLUTION
  blobs_lr: 0
  blobs_lr: 0
  weight_decay: 1
  weight_decay: 0
  convolution_param {
    num_output: 256
    pad: 1
    kernel_size: 3
    group: 2
  }
}
layers {
  bottom: "Rconv8"
  top: "Rconv8"
  name: "Rrelu8"
  type: RELU
}
layers {
  bottom: "Rconv8"
  top: "deconv2"
  name: "deconv2"
  type: DECONVOLUTION
  blobs_lr: 0
  blobs_lr: 0
  weight_decay: 1
  weight_decay: 0
  deconvolution_param {
    pad: 2
    kernel_size: 5
    stride: 2
    output_height: 54
    output_width: 54
    output_channels: 64
  }
}
layers {
  bottom: "deconv2"
  top: "deconv2"
  name: "relu_deconv2"
  type: RELU
  relu_param {
    negative_slope: 0.3
  }
}
layers {
  bottom: "deconv2"
  top: "deconv1"
  name: "deconv1"
  type: DECONVOLUTION
  blobs_lr: 0
  blobs_lr: 0
  weight_decay: 1
  weight_decay: 0
  deconvolution_param {
    pad: 2
    kernel_size: 5
    stride: 2
    output_height: 108
    output_width: 108
    output_channels: 32
  }
}
layers {
  bottom: "deconv1"
  top: "deconv1"
  name: "relu_deconv1"
  type: RELU
  relu_param {
    negative_slope: 0.3
  }
}
layers {
  bottom: "deconv1"
  top: "deconv0"
  name: "deconv0"
  type: DECONVOLUTION
  blobs_lr: 0
  blobs_lr: 0
  weight_decay: 1
  weight_decay: 0
  deconvolution_param {
    pad: 2
    kernel_size: 5
    stride: 2
    output_height: 216
    output_width: 216
    output_channels: 3
  }
}
layers {
  bottom: "deconv0"
  bottom: "target_ims"
  name: "loss"
  type: EUCLIDEAN_LOSS
}
I0813 09:38:04.648000 27919 net.cpp:65] Creating Layer source_ims
I0813 09:38:04.648005 27919 net.cpp:189] source_ims -> source_ims
I0813 09:38:04.648077 27919 data_layer.cpp:223] Opening lmdb /scr/r6/tgebru/inverting_conv/caffe_invert_alexnet/data/siggraph/tiny_winter_val_lmdb
I0813 09:38:04.648291 27919 data_layer.cpp:285] output data size: 2,3,227,227
I0813 09:38:04.648296 27919 data_layer.cpp:304] Loading mean file from/scr/r6/tgebru/timnit_caffe/data/ilsvrc12/imagenet_mean.binaryproto
I0813 09:38:04.650549 27919 net.cpp:84] Top shape: 2 3 227 227 (309174)
I0813 09:38:04.650557 27919 net.cpp:116] source_ims does not need backward computation.
I0813 09:38:04.650563 27919 net.cpp:65] Creating Layer target_ims
I0813 09:38:04.650568 27919 net.cpp:189] target_ims -> target_ims
I0813 09:38:04.650615 27919 data_layer.cpp:223] Opening lmdb /scr/r6/tgebru/inverting_conv/caffe_invert_alexnet/data/siggraph/tiny_summer_val_lmdb
I0813 09:38:04.650791 27919 data_layer.cpp:285] output data size: 2,3,216,216
I0813 09:38:04.650795 27919 data_layer.cpp:304] Loading mean file from/scr/r6/tgebru/timnit_caffe/data/ilsvrc12/imagenet_mean.binaryproto
I0813 09:38:04.652979 27919 net.cpp:84] Top shape: 2 3 216 216 (279936)
I0813 09:38:04.652999 27919 net.cpp:116] target_ims does not need backward computation.
I0813 09:38:04.653007 27919 net.cpp:65] Creating Layer conv1
I0813 09:38:04.653010 27919 net.cpp:228] conv1 <- source_ims
I0813 09:38:04.653017 27919 net.cpp:189] conv1 -> conv1
I0813 09:38:04.654265 27919 net.cpp:84] Top shape: 2 96 55 55 (580800)
I0813 09:38:04.654270 27919 net.cpp:116] conv1 does not need backward computation.
I0813 09:38:04.654274 27919 net.cpp:65] Creating Layer relu1
I0813 09:38:04.654278 27919 net.cpp:228] relu1 <- conv1
I0813 09:38:04.654281 27919 net.cpp:179] relu1 -> conv1 (in-place)
I0813 09:38:04.654286 27919 net.cpp:84] Top shape: 2 96 55 55 (580800)
I0813 09:38:04.654289 27919 net.cpp:116] relu1 does not need backward computation.
I0813 09:38:04.654294 27919 net.cpp:65] Creating Layer pool1
I0813 09:38:04.654296 27919 net.cpp:228] pool1 <- conv1
I0813 09:38:04.654300 27919 net.cpp:189] pool1 -> pool1
I0813 09:38:04.654305 27919 net.cpp:84] Top shape: 2 96 27 27 (139968)
I0813 09:38:04.654309 27919 net.cpp:116] pool1 does not need backward computation.
I0813 09:38:04.654312 27919 net.cpp:65] Creating Layer norm1
I0813 09:38:04.654315 27919 net.cpp:228] norm1 <- pool1
I0813 09:38:04.654320 27919 net.cpp:189] norm1 -> norm1
I0813 09:38:04.654325 27919 net.cpp:84] Top shape: 2 96 27 27 (139968)
I0813 09:38:04.654327 27919 net.cpp:116] norm1 does not need backward computation.
I0813 09:38:04.654331 27919 net.cpp:65] Creating Layer Rconv6
I0813 09:38:04.654335 27919 net.cpp:228] Rconv6 <- norm1
I0813 09:38:04.654338 27919 net.cpp:189] Rconv6 -> Rconv6
I0813 09:38:04.654916 27919 net.cpp:84] Top shape: 2 256 27 27 (373248)
I0813 09:38:04.654920 27919 net.cpp:116] Rconv6 does not need backward computation.
I0813 09:38:04.654924 27919 net.cpp:65] Creating Layer Rrelu6
I0813 09:38:04.654927 27919 net.cpp:228] Rrelu6 <- Rconv6
I0813 09:38:04.654932 27919 net.cpp:179] Rrelu6 -> Rconv6 (in-place)
I0813 09:38:04.654937 27919 net.cpp:84] Top shape: 2 256 27 27 (373248)
I0813 09:38:04.654938 27919 net.cpp:116] Rrelu6 does not need backward computation.
I0813 09:38:04.654943 27919 net.cpp:65] Creating Layer Rconv7
I0813 09:38:04.654947 27919 net.cpp:228] Rconv7 <- Rconv6
I0813 09:38:04.654950 27919 net.cpp:189] Rconv7 -> Rconv7
I0813 09:38:04.655658 27919 net.cpp:84] Top shape: 2 256 27 27 (373248)
I0813 09:38:04.655663 27919 net.cpp:116] Rconv7 does not need backward computation.
I0813 09:38:04.655666 27919 net.cpp:65] Creating Layer Rrelu7
I0813 09:38:04.655669 27919 net.cpp:228] Rrelu7 <- Rconv7
I0813 09:38:04.655673 27919 net.cpp:179] Rrelu7 -> Rconv7 (in-place)
I0813 09:38:04.655678 27919 net.cpp:84] Top shape: 2 256 27 27 (373248)
I0813 09:38:04.655679 27919 net.cpp:116] Rrelu7 does not need backward computation.
I0813 09:38:04.655683 27919 net.cpp:65] Creating Layer Rconv8
I0813 09:38:04.655685 27919 net.cpp:228] Rconv8 <- Rconv7
I0813 09:38:04.655689 27919 net.cpp:189] Rconv8 -> Rconv8
I0813 09:38:04.656401 27919 net.cpp:84] Top shape: 2 256 27 27 (373248)
I0813 09:38:04.656405 27919 net.cpp:116] Rconv8 does not need backward computation.
I0813 09:38:04.656409 27919 net.cpp:65] Creating Layer Rrelu8
I0813 09:38:04.656412 27919 net.cpp:228] Rrelu8 <- Rconv8
I0813 09:38:04.656415 27919 net.cpp:179] Rrelu8 -> Rconv8 (in-place)
I0813 09:38:04.656420 27919 net.cpp:84] Top shape: 2 256 27 27 (373248)
I0813 09:38:04.656422 27919 net.cpp:116] Rrelu8 does not need backward computation.
I0813 09:38:04.656426 27919 net.cpp:65] Creating Layer deconv2
I0813 09:38:04.656430 27919 net.cpp:228] deconv2 <- Rconv8
I0813 09:38:04.656433 27919 net.cpp:189] deconv2 -> deconv2
I0813 09:38:04.657413 27919 net.cpp:84] Top shape: 2 64 54 54 (373248)
I0813 09:38:04.657423 27919 net.cpp:116] deconv2 does not need backward computation.
I0813 09:38:04.657428 27919 net.cpp:65] Creating Layer relu_deconv2
I0813 09:38:04.657431 27919 net.cpp:228] relu_deconv2 <- deconv2
I0813 09:38:04.657434 27919 net.cpp:179] relu_deconv2 -> deconv2 (in-place)
I0813 09:38:04.657439 27919 net.cpp:84] Top shape: 2 64 54 54 (373248)
I0813 09:38:04.657443 27919 net.cpp:116] relu_deconv2 does not need backward computation.
I0813 09:38:04.657457 27919 net.cpp:65] Creating Layer deconv1
I0813 09:38:04.657460 27919 net.cpp:228] deconv1 <- deconv2
I0813 09:38:04.657464 27919 net.cpp:189] deconv1 -> deconv1
I0813 09:38:04.657598 27919 net.cpp:84] Top shape: 2 32 108 108 (746496)
I0813 09:38:04.657603 27919 net.cpp:116] deconv1 does not need backward computation.
I0813 09:38:04.657606 27919 net.cpp:65] Creating Layer relu_deconv1
I0813 09:38:04.657608 27919 net.cpp:228] relu_deconv1 <- deconv1
I0813 09:38:04.657613 27919 net.cpp:179] relu_deconv1 -> deconv1 (in-place)
I0813 09:38:04.657616 27919 net.cpp:84] Top shape: 2 32 108 108 (746496)
I0813 09:38:04.657619 27919 net.cpp:116] relu_deconv1 does not need backward computation.
I0813 09:38:04.657624 27919 net.cpp:65] Creating Layer deconv0
I0813 09:38:04.657626 27919 net.cpp:228] deconv0 <- deconv1
I0813 09:38:04.657630 27919 net.cpp:189] deconv0 -> deconv0
I0813 09:38:04.657649 27919 net.cpp:84] Top shape: 2 3 216 216 (279936)
I0813 09:38:04.657651 27919 net.cpp:116] deconv0 does not need backward computation.
I0813 09:38:04.657655 27919 net.cpp:65] Creating Layer loss
I0813 09:38:04.657657 27919 net.cpp:228] loss <- deconv0
I0813 09:38:04.657660 27919 net.cpp:228] loss <- target_ims
I0813 09:38:04.657665 27919 net.cpp:116] loss does not need backward computation.
I0813 09:38:04.657676 27919 net.cpp:238] Collecting Learning Rate and Weight Decay.
…
