…
    source: "/scr/r6/tgebru/inverting_conv/caffe_invert_alexnet/data/siggraph/tiny_summer_train_lmdb"
    mean_file: "/scr/r6/tgebru/timnit_caffe/data/ilsvrc12/imagenet_mean.binaryproto"
    batch_size: 12
    crop_size: 227
    mirror: false
    backend: LMDB
  }
}
layers {
  top: "target_ims"
  name: "target_ims"
  type: DATA
  data_param {
    source: "/scr/r6/tgebru/inverting_conv/caffe_invert_alexnet/data/siggraph/tiny_winter_train_lmdb"
    mean_file: "/scr/r6/tgebru/timnit_caffe/data/ilsvrc12/imagenet_mean.binaryproto"
    batch_size: 12
    crop_size: 216
    mirror: false
    backend: LMDB
  }
}
layers {
  bottom: "source_ims"
  top: "conv1"
  name: "conv1"
  type: CONVOLUTION
  blobs_lr: 0
  blobs_lr: 0
  weight_decay: 1
  weight_decay: 0
  convolution_param {
    num_output: 96
    kernel_size: 11
    stride: 4
    weight_filler {
      type: "gaussian"
      std: 0.01
    }
    bias_filler {
      type: "constant"
      value: 0
    }
  }
}
layers {
  bottom: "conv1"
  top: "conv1"
  name: "relu1"
  type: RELU
}
layers {
  bottom: "conv1"
  top: "pool1"
  name: "pool1"
  type: POOLING
  pooling_param {
    pool: MAX
    kernel_size: 3
    stride: 2
  }
}
layers {
  bottom: "pool1"
  top: "norm1"
  name: "norm1"
  type: LRN
  lrn_param {
    local_size: 5
    alpha: 0.0001
    beta: 0.75
  }
}
layers {
  bottom: "norm1"
  top: "Rconv6"
  name: "Rconv6"
  type: CONVOLUTION
  blobs_lr: 1
  blobs_lr: 2
  weight_decay: 1
  weight_decay: 0
  convolution_param {
    num_output: 256
    pad: 1
    kernel_size: 3
  }
}
layers {
  bottom: "Rconv6"
  top: "Rconv6"
  name: "Rrelu6"
  type: RELU
}
layers {
  bottom: "Rconv6"
  top: "Rconv7"
  name: "Rconv7"
  type: CONVOLUTION
  blobs_lr: 1
  blobs_lr: 2
  weight_decay: 1
  weight_decay: 0
  convolution_param {
    num_output: 256
    pad: 1
    kernel_size: 3
    group: 2
  }
}
layers {
  bottom: "Rconv7"
  top: "Rconv7"
  name: "Rrelu7"
  type: RELU
}
layers {
  bottom: "Rconv7"
  top: "Rconv8"
  name: "Rconv8"
  type: CONVOLUTION
  blobs_lr: 1
  blobs_lr: 2
  weight_decay: 1
  weight_decay: 0
  convolution_param {
    num_output: 256
    pad: 1
    kernel_size: 3
    group: 2
  }
}
layers {
  bottom: "Rconv8"
  top: "Rconv8"
  name: "Rrelu8"
  type: RELU
}
layers {
  bottom: "Rconv8"
  top: "deconv2"
  name: "deconv2"
  type: DECONVOLUTION
  blobs_lr: 1
  blobs_lr: 2
  weight_decay: 1
  weight_decay: 0
  deconvolution_param {
    pad: 2
    kernel_size: 5
    stride: 2
    output_height: 54
    output_width: 54
    output_channels: 64
  }
}
layers {
  bottom: "deconv2"
  top: "deconv2"
  name: "relu_deconv2"
  type: RELU
  relu_param {
    negative_slope: 0.3
  }
}
layers {
  bottom: "deconv2"
  top: "deconv1"
  name: "deconv1"
  type: DECONVOLUTION
  blobs_lr: 1
  blobs_lr: 2
  weight_decay: 1
  weight_decay: 0
  deconvolution_param {
    pad: 2
    kernel_size: 5
    stride: 2
    output_height: 108
    output_width: 108
    output_channels: 32
  }
}
layers {
  bottom: "deconv1"
  top: "deconv1"
  name: "relu_deconv1"
  type: RELU
  relu_param {
    negative_slope: 0.3
  }
}
layers {
  bottom: "deconv1"
  top: "deconv0"
  name: "deconv0"
  type: DECONVOLUTION
  blobs_lr: 1
  blobs_lr: 2
  weight_decay: 1
  weight_decay: 1
  deconvolution_param {
    pad: 2
    kernel_size: 5
    stride: 2
    output_height: 216
    output_width: 216
    output_channels: 3
  }
}
layers {
  bottom: "deconv0"
  bottom: "target_ims"
  name: "loss"
  type: EUCLIDEAN_LOSS
}
I0813 04:13:45.240970 13127 net.cpp:65] Creating Layer source_ims
I0813 04:13:45.240979 13127 net.cpp:189] source_ims -> source_ims
I0813 04:13:45.241085 13127 data_layer.cpp:223] Opening lmdb /scr/r6/tgebru/inverting_conv/caffe_invert_alexnet/data/siggraph/tiny_summer_train_lmdb
I0813 04:13:45.241291 13127 data_layer.cpp:285] output data size: 12,3,227,227
I0813 04:13:45.241298 13127 data_layer.cpp:304] Loading mean file from/scr/r6/tgebru/timnit_caffe/data/ilsvrc12/imagenet_mean.binaryproto
I0813 04:13:45.245923 13127 net.cpp:84] Top shape: 12 3 227 227 (1855044)
I0813 04:13:45.245930 13127 net.cpp:116] source_ims does not need backward computation.
I0813 04:13:45.245936 13127 net.cpp:65] Creating Layer target_ims
I0813 04:13:45.245940 13127 net.cpp:189] target_ims -> target_ims
I0813 04:13:45.246052 13127 data_layer.cpp:223] Opening lmdb /scr/r6/tgebru/inverting_conv/caffe_invert_alexnet/data/siggraph/tiny_winter_train_lmdb
I0813 04:13:45.246181 13127 data_layer.cpp:285] output data size: 12,3,216,216
I0813 04:13:45.246186 13127 data_layer.cpp:304] Loading mean file from/scr/r6/tgebru/timnit_caffe/data/ilsvrc12/imagenet_mean.binaryproto
I0813 04:13:45.250828 13127 net.cpp:84] Top shape: 12 3 216 216 (1679616)
I0813 04:13:45.250835 13127 net.cpp:116] target_ims does not need backward computation.
I0813 04:13:45.250843 13127 net.cpp:65] Creating Layer conv1
I0813 04:13:45.250845 13127 net.cpp:228] conv1 <- source_ims
I0813 04:13:45.250880 13127 net.cpp:189] conv1 -> conv1
I0813 04:13:45.252157 13127 net.cpp:84] Top shape: 12 96 55 55 (3484800)
I0813 04:13:45.252162 13127 net.cpp:116] conv1 does not need backward computation.
I0813 04:13:45.252167 13127 net.cpp:65] Creating Layer relu1
I0813 04:13:45.252171 13127 net.cpp:228] relu1 <- conv1
I0813 04:13:45.252176 13127 net.cpp:179] relu1 -> conv1 (in-place)
I0813 04:13:45.252184 13127 net.cpp:84] Top shape: 12 96 55 55 (3484800)
I0813 04:13:45.252187 13127 net.cpp:116] relu1 does not need backward computation.
I0813 04:13:45.252193 13127 net.cpp:65] Creating Layer pool1
I0813 04:13:45.252197 13127 net.cpp:228] pool1 <- conv1
I0813 04:13:45.252200 13127 net.cpp:189] pool1 -> pool1
I0813 04:13:45.252213 13127 net.cpp:84] Top shape: 12 96 27 27 (839808)
I0813 04:13:45.252215 13127 net.cpp:116] pool1 does not need backward computation.
I0813 04:13:45.252221 13127 net.cpp:65] Creating Layer norm1
I0813 04:13:45.252224 13127 net.cpp:228] norm1 <- pool1
I0813 04:13:45.252229 13127 net.cpp:189] norm1 -> norm1
I0813 04:13:45.252238 13127 net.cpp:84] Top shape: 12 96 27 27 (839808)
I0813 04:13:45.252241 13127 net.cpp:116] norm1 does not need backward computation.
I0813 04:13:45.252245 13127 net.cpp:65] Creating Layer Rconv6
I0813 04:13:45.252249 13127 net.cpp:228] Rconv6 <- norm1
I0813 04:13:45.252252 13127 net.cpp:189] Rconv6 -> Rconv6
I0813 04:13:45.252426 13127 net.cpp:84] Top shape: 12 256 27 27 (2239488)
I0813 04:13:45.252430 13127 net.cpp:111] Rconv6 needs backward computation.
I0813 04:13:45.252435 13127 net.cpp:65] Creating Layer Rrelu6
I0813 04:13:45.252439 13127 net.cpp:228] Rrelu6 <- Rconv6
I0813 04:13:45.252442 13127 net.cpp:179] Rrelu6 -> Rconv6 (in-place)
I0813 04:13:45.252447 13127 net.cpp:84] Top shape: 12 256 27 27 (2239488)
I0813 04:13:45.252450 13127 net.cpp:111] Rrelu6 needs backward computation.
I0813 04:13:45.252455 13127 net.cpp:65] Creating Layer Rconv7
I0813 04:13:45.252459 13127 net.cpp:228] Rconv7 <- Rconv6
I0813 04:13:45.252462 13127 net.cpp:189] Rconv7 -> Rconv7
I0813 04:13:45.253214 13127 net.cpp:84] Top shape: 12 256 27 27 (2239488)
I0813 04:13:45.253219 13127 net.cpp:111] Rconv7 needs backward computation.
I0813 04:13:45.253223 13127 net.cpp:65] Creating Layer Rrelu7
I0813 04:13:45.253247 13127 net.cpp:228] Rrelu7 <- Rconv7
I0813 04:13:45.253252 13127 net.cpp:179] Rrelu7 -> Rconv7 (in-place)
I0813 04:13:45.253257 13127 net.cpp:84] Top shape: 12 256 27 27 (2239488)
I0813 04:13:45.253259 13127 net.cpp:111] Rrelu7 needs backward computation.
I0813 04:13:45.253264 13127 net.cpp:65] Creating Layer Rconv8
I0813 04:13:45.253267 13127 net.cpp:228] Rconv8 <- Rconv7
I0813 04:13:45.253270 13127 net.cpp:189] Rconv8 -> Rconv8
I0813 04:13:45.254078 13127 net.cpp:84] Top shape: 12 256 27 27 (2239488)
I0813 04:13:45.254083 13127 net.cpp:111] Rconv8 needs backward computation.
I0813 04:13:45.254087 13127 net.cpp:65] Creating Layer Rrelu8
I0813 04:13:45.254091 13127 net.cpp:228] Rrelu8 <- Rconv8
I0813 04:13:45.254094 13127 net.cpp:179] Rrelu8 -> Rconv8 (in-place)
I0813 04:13:45.254098 13127 net.cpp:84] Top shape: 12 256 27 27 (2239488)
I0813 04:13:45.254101 13127 net.cpp:111] Rrelu8 needs backward computation.
I0813 04:13:45.254106 13127 net.cpp:65] Creating Layer deconv2
I0813 04:13:45.254108 13127 net.cpp:228] deconv2 <- Rconv8
I0813 04:13:45.254112 13127 net.cpp:189] deconv2 -> deconv2
I0813 04:13:45.255228 13127 net.cpp:84] Top shape: 12 64 54 54 (2239488)
I0813 04:13:45.255233 13127 net.cpp:111] deconv2 needs backward computation.
I0813 04:13:45.255237 13127 net.cpp:65] Creating Layer relu_deconv2
I0813 04:13:45.255240 13127 net.cpp:228] relu_deconv2 <- deconv2
I0813 04:13:45.255244 13127 net.cpp:179] relu_deconv2 -> deconv2 (in-place)
I0813 04:13:45.255249 13127 net.cpp:84] Top shape: 12 64 54 54 (2239488)
I0813 04:13:45.255251 13127 net.cpp:111] relu_deconv2 needs backward computation.
I0813 04:13:45.255255 13127 net.cpp:65] Creating Layer deconv1
I0813 04:13:45.255257 13127 net.cpp:228] deconv1 <- deconv2
I0813 04:13:45.255261 13127 net.cpp:189] deconv1 -> deconv1
I0813 04:13:45.255419 13127 net.cpp:84] Top shape: 12 32 108 108 (4478976)
I0813 04:13:45.255424 13127 net.cpp:111] deconv1 needs backward computation.
I0813 04:13:45.255427 13127 net.cpp:65] Creating Layer relu_deconv1
I0813 04:13:45.255430 13127 net.cpp:228] relu_deconv1 <- deconv1
I0813 04:13:45.255434 13127 net.cpp:179] relu_deconv1 -> deconv1 (in-place)
I0813 04:13:45.255439 13127 net.cpp:84] Top shape: 12 32 108 108 (4478976)
I0813 04:13:45.255440 13127 net.cpp:111] relu_deconv1 needs backward computation.
I0813 04:13:45.255446 13127 net.cpp:65] Creating Layer deconv0
I0813 04:13:45.255448 13127 net.cpp:228] deconv0 <- deconv1
I0813 04:13:45.255452 13127 net.cpp:189] deconv0 -> deconv0
I0813 04:13:45.255475 13127 net.cpp:84] Top shape: 12 3 216 216 (1679616)
I0813 04:13:45.255477 13127 net.cpp:111] deconv0 needs backward computation.
I0813 04:13:45.255481 13127 net.cpp:65] Creating Layer loss
I0813 04:13:45.255483 13127 net.cpp:228] loss <- deconv0
I0813 04:13:45.255487 13127 net.cpp:228] loss <- target_ims
I0813 04:13:45.255496 13127 net.cpp:111] loss needs backward computation.
I0813 04:13:45.255508 13127 net.cpp:238] Collecting Learning Rate and Weight Decay.
…
    source: "/scr/r6/tgebru/inverting_conv/caffe_invert_alexnet/data/siggraph/tiny_summer_val_lmdb"
    mean_file: "/scr/r6/tgebru/timnit_caffe/data/ilsvrc12/imagenet_mean.binaryproto"
    batch_size: 64
    crop_size: 227
    mirror: false
    backend: LMDB
  }
}
layers {
  top: "target_ims"
  name: "target_ims"
  type: DATA
  data_param {
    source: "/scr/r6/tgebru/inverting_conv/caffe_invert_alexnet/data/siggraph/tiny_winter_val_lmdb"
    mean_file: "/scr/r6/tgebru/timnit_caffe/data/ilsvrc12/imagenet_mean.binaryproto"
    batch_size: 64
    crop_size: 216
    mirror: false
    backend: LMDB
  }
}
layers {
  bottom: "source_ims"
  top: "conv1"
  name: "conv1"
  type: CONVOLUTION
  blobs_lr: 0
  blobs_lr: 0
  weight_decay: 1
  weight_decay: 0
  convolution_param {
    num_output: 96
    kernel_size: 11
    stride: 4
    weight_filler {
      type: "gaussian"
      std: 0.01
    }
    bias_filler {
      type: "constant"
      value: 0
    }
  }
}
layers {
  bottom: "conv1"
  top: "conv1"
  name: "relu1"
  type: RELU
}
layers {
  bottom: "conv1"
  top: "pool1"
  name: "pool1"
  type: POOLING
  pooling_param {
    pool: MAX
    kernel_size: 3
    stride: 2
  }
}
layers {
  bottom: "pool1"
  top: "norm1"
  name: "norm1"
  type: LRN
  lrn_param {
    local_size: 5
    alpha: 0.0001
    beta: 0.75
  }
}
layers {
  bottom: "norm1"
  top: "Rconv6"
  name: "Rconv6"
  type: CONVOLUTION
  blobs_lr: 0
  blobs_lr: 0
  weight_decay: 1
  weight_decay: 0
  convolution_param {
    num_output: 256
    pad: 1
    kernel_size: 3
  }
}
layers {
  bottom: "Rconv6"
  top: "Rconv6"
  name: "Rrelu6"
  type: RELU
}
layers {
  bottom: "Rconv6"
  top: "Rconv7"
  name: "Rconv7"
  type: CONVOLUTION
  blobs_lr: 0
  blobs_lr: 0
  weight_decay: 1
  weight_decay: 0
  convolution_param {
    num_output: 256
    pad: 1
    kernel_size: 3
    group: 2
  }
}
layers {
  bottom: "Rconv7"
  top: "Rconv7"
  name: "Rrelu7"
  type: RELU
}
layers {
  bottom: "Rconv7"
  top: "Rconv8"
  name: "Rconv8"
  type: CONVOLUTION
  blobs_lr: 0
  blobs_lr: 0
  weight_decay: 1
  weight_decay: 0
  convolution_param {
    num_output: 256
    pad: 1
    kernel_size: 3
    group: 2
  }
}
layers {
  bottom: "Rconv8"
  top: "Rconv8"
  name: "Rrelu8"
  type: RELU
}
layers {
  bottom: "Rconv8"
  top: "deconv2"
  name: "deconv2"
  type: DECONVOLUTION
  blobs_lr: 0
  blobs_lr: 0
  weight_decay: 1
  weight_decay: 0
  deconvolution_param {
    pad: 2
    kernel_size: 5
    stride: 2
    output_height: 54
    output_width: 54
    output_channels: 64
  }
}
layers {
  bottom: "deconv2"
  top: "deconv2"
  name: "relu_deconv2"
  type: RELU
  relu_param {
    negative_slope: 0.3
  }
}
layers {
  bottom: "deconv2"
  top: "deconv1"
  name: "deconv1"
  type: DECONVOLUTION
  blobs_lr: 0
  blobs_lr: 0
  weight_decay: 1
  weight_decay: 0
  deconvolution_param {
    pad: 2
    kernel_size: 5
    stride: 2
    output_height: 108
    output_width: 108
    output_channels: 32
  }
}
layers {
  bottom: "deconv1"
  top: "deconv1"
  name: "relu_deconv1"
  type: RELU
  relu_param {
    negative_slope: 0.3
  }
}
layers {
  bottom: "deconv1"
  top: "deconv0"
  name: "deconv0"
  type: DECONVOLUTION
  blobs_lr: 0
  blobs_lr: 0
  weight_decay: 1
  weight_decay: 0
  deconvolution_param {
    pad: 2
    kernel_size: 5
    stride: 2
    output_height: 216
    output_width: 216
    output_channels: 3
  }
}
layers {
  bottom: "deconv0"
  bottom: "target_ims"
  name: "loss"
  type: EUCLIDEAN_LOSS
}
I0813 04:13:45.256234 13127 net.cpp:65] Creating Layer source_ims
I0813 04:13:45.256239 13127 net.cpp:189] source_ims -> source_ims
I0813 04:13:45.256291 13127 data_layer.cpp:223] Opening lmdb /scr/r6/tgebru/inverting_conv/caffe_invert_alexnet/data/siggraph/tiny_summer_val_lmdb
I0813 04:13:45.256495 13127 data_layer.cpp:285] output data size: 64,3,227,227
I0813 04:13:45.256500 13127 data_layer.cpp:304] Loading mean file from/scr/r6/tgebru/timnit_caffe/data/ilsvrc12/imagenet_mean.binaryproto
I0813 04:13:45.271073 13127 net.cpp:84] Top shape: 64 3 227 227 (9893568)
I0813 04:13:45.271091 13127 net.cpp:116] source_ims does not need backward computation.
I0813 04:13:45.271103 13127 net.cpp:65] Creating Layer target_ims
I0813 04:13:45.271109 13127 net.cpp:189] target_ims -> target_ims
I0813 04:13:45.271191 13127 data_layer.cpp:223] Opening lmdb /scr/r6/tgebru/inverting_conv/caffe_invert_alexnet/data/siggraph/tiny_winter_val_lmdb
I0813 04:13:45.271308 13127 data_layer.cpp:285] output data size: 64,3,216,216
I0813 04:13:45.271312 13127 data_layer.cpp:304] Loading mean file from/scr/r6/tgebru/timnit_caffe/data/ilsvrc12/imagenet_mean.binaryproto
I0813 04:13:45.283928 13127 net.cpp:84] Top shape: 64 3 216 216 (8957952)
I0813 04:13:45.283977 13127 net.cpp:116] target_ims does not need backward computation.
I0813 04:13:45.283992 13127 net.cpp:65] Creating Layer conv1
I0813 04:13:45.283994 13127 net.cpp:228] conv1 <- source_ims
I0813 04:13:45.284003 13127 net.cpp:189] conv1 -> conv1
I0813 04:13:45.285264 13127 net.cpp:84] Top shape: 64 96 55 55 (18585600)
I0813 04:13:45.285269 13127 net.cpp:116] conv1 does not need backward computation.
I0813 04:13:45.285274 13127 net.cpp:65] Creating Layer relu1
I0813 04:13:45.285276 13127 net.cpp:228] relu1 <- conv1
I0813 04:13:45.285281 13127 net.cpp:179] relu1 -> conv1 (in-place)
I0813 04:13:45.285286 13127 net.cpp:84] Top shape: 64 96 55 55 (18585600)
I0813 04:13:45.285290 13127 net.cpp:116] relu1 does not need backward computation.
I0813 04:13:45.285295 13127 net.cpp:65] Creating Layer pool1
I0813 04:13:45.285298 13127 net.cpp:228] pool1 <- conv1
I0813 04:13:45.285302 13127 net.cpp:189] pool1 -> pool1
I0813 04:13:45.285310 13127 net.cpp:84] Top shape: 64 96 27 27 (4478976)
I0813 04:13:45.285312 13127 net.cpp:116] pool1 does not need backward computation.
I0813 04:13:45.285317 13127 net.cpp:65] Creating Layer norm1
I0813 04:13:45.285320 13127 net.cpp:228] norm1 <- pool1
I0813 04:13:45.285326 13127 net.cpp:189] norm1 -> norm1
I0813 04:13:45.285331 13127 net.cpp:84] Top shape: 64 96 27 27 (4478976)
I0813 04:13:45.285334 13127 net.cpp:116] norm1 does not need backward computation.
I0813 04:13:45.285338 13127 net.cpp:65] Creating Layer Rconv6
I0813 04:13:45.285341 13127 net.cpp:228] Rconv6 <- norm1
I0813 04:13:45.285346 13127 net.cpp:189] Rconv6 -> Rconv6
I0813 04:13:45.285591 13127 net.cpp:84] Top shape: 64 256 27 27 (11943936)
I0813 04:13:45.285595 13127 net.cpp:116] Rconv6 does not need backward computation.
I0813 04:13:45.285599 13127 net.cpp:65] Creating Layer Rrelu6
I0813 04:13:45.285603 13127 net.cpp:228] Rrelu6 <- Rconv6
I0813 04:13:45.285606 13127 net.cpp:179] Rrelu6 -> Rconv6 (in-place)
I0813 04:13:45.285611 13127 net.cpp:84] Top shape: 64 256 27 27 (11943936)
I0813 04:13:45.285614 13127 net.cpp:116] Rrelu6 does not need backward computation.
I0813 04:13:45.285619 13127 net.cpp:65] Creating Layer Rconv7
I0813 04:13:45.285622 13127 net.cpp:228] Rconv7 <- Rconv6
I0813 04:13:45.285626 13127 net.cpp:189] Rconv7 -> Rconv7
I0813 04:13:45.286348 13127 net.cpp:84] Top shape: 64 256 27 27 (11943936)
I0813 04:13:45.286353 13127 net.cpp:116] Rconv7 does not need backward computation.
I0813 04:13:45.286357 13127 net.cpp:65] Creating Layer Rrelu7
I0813 04:13:45.286360 13127 net.cpp:228] Rrelu7 <- Rconv7
I0813 04:13:45.286365 13127 net.cpp:179] Rrelu7 -> Rconv7 (in-place)
I0813 04:13:45.286370 13127 net.cpp:84] Top shape: 64 256 27 27 (11943936)
I0813 04:13:45.286371 13127 net.cpp:116] Rrelu7 does not need backward computation.
I0813 04:13:45.286376 13127 net.cpp:65] Creating Layer Rconv8
I0813 04:13:45.286378 13127 net.cpp:228] Rconv8 <- Rconv7
I0813 04:13:45.286382 13127 net.cpp:189] Rconv8 -> Rconv8
I0813 04:13:45.287176 13127 net.cpp:84] Top shape: 64 256 27 27 (11943936)
I0813 04:13:45.287181 13127 net.cpp:116] Rconv8 does not need backward computation.
I0813 04:13:45.287185 13127 net.cpp:65] Creating Layer Rrelu8
I0813 04:13:45.287189 13127 net.cpp:228] Rrelu8 <- Rconv8
I0813 04:13:45.287192 13127 net.cpp:179] Rrelu8 -> Rconv8 (in-place)
I0813 04:13:45.287196 13127 net.cpp:84] Top shape: 64 256 27 27 (11943936)
I0813 04:13:45.287199 13127 net.cpp:116] Rrelu8 does not need backward computation.
I0813 04:13:45.287204 13127 net.cpp:65] Creating Layer deconv2
I0813 04:13:45.287206 13127 net.cpp:228] deconv2 <- Rconv8
I0813 04:13:45.287210 13127 net.cpp:189] deconv2 -> deconv2
I0813 04:13:45.288239 13127 net.cpp:84] Top shape: 64 64 54 54 (11943936)
I0813 04:13:45.288244 13127 net.cpp:116] deconv2 does not need backward computation.
I0813 04:13:45.288249 13127 net.cpp:65] Creating Layer relu_deconv2
I0813 04:13:45.288251 13127 net.cpp:228] relu_deconv2 <- deconv2
I0813 04:13:45.288255 13127 net.cpp:179] relu_deconv2 -> deconv2 (in-place)
I0813 04:13:45.288260 13127 net.cpp:84] Top shape: 64 64 54 54 (11943936)
I0813 04:13:45.288275 13127 net.cpp:116] relu_deconv2 does not need backward computation.
I0813 04:13:45.288280 13127 net.cpp:65] Creating Layer deconv1
I0813 04:13:45.288282 13127 net.cpp:228] deconv1 <- deconv2
I0813 04:13:45.288286 13127 net.cpp:189] deconv1 -> deconv1
I0813 04:13:45.288442 13127 net.cpp:84] Top shape: 64 32 108 108 (23887872)
I0813 04:13:45.288446 13127 net.cpp:116] deconv1 does not need backward computation.
I0813 04:13:45.288450 13127 net.cpp:65] Creating Layer relu_deconv1
I0813 04:13:45.288453 13127 net.cpp:228] relu_deconv1 <- deconv1
I0813 04:13:45.288457 13127 net.cpp:179] relu_deconv1 -> deconv1 (in-place)
I0813 04:13:45.288462 13127 net.cpp:84] Top shape: 64 32 108 108 (23887872)
I0813 04:13:45.288465 13127 net.cpp:116] relu_deconv1 does not need backward computation.
I0813 04:13:45.288470 13127 net.cpp:65] Creating Layer deconv0
I0813 04:13:45.288473 13127 net.cpp:228] deconv0 <- deconv1
I0813 04:13:45.288478 13127 net.cpp:189] deconv0 -> deconv0
I0813 04:13:45.288503 13127 net.cpp:84] Top shape: 64 3 216 216 (8957952)
I0813 04:13:45.288506 13127 net.cpp:116] deconv0 does not need backward computation.
I0813 04:13:45.288511 13127 net.cpp:65] Creating Layer loss
I0813 04:13:45.288513 13127 net.cpp:228] loss <- deconv0
I0813 04:13:45.288516 13127 net.cpp:228] loss <- target_ims
I0813 04:13:45.288522 13127 net.cpp:116] loss does not need backward computation.
I0813 04:13:45.288534 13127 net.cpp:238] Collecting Learning Rate and Weight Decay.
…
