…
    source: "/scr/r6/tgebru/inverting_conv/caffe_invert_alexnet/data/siggraph/tiny_summer_train_lmdb"
    mean_file: "/scr/r6/tgebru/timnit_caffe/data/ilsvrc12/imagenet_mean.binaryproto"
    batch_size: 12
    crop_size: 227
    mirror: false
    backend: LMDB
  }
}
layers {
  top: "target_ims"
  name: "target_ims"
  type: DATA
  data_param {
    source: "/scr/r6/tgebru/inverting_conv/caffe_invert_alexnet/data/siggraph/tiny_winter_train_lmdb"
    mean_file: "/scr/r6/tgebru/timnit_caffe/data/ilsvrc12/imagenet_mean.binaryproto"
    batch_size: 12
    crop_size: 216
    mirror: false
    backend: LMDB
  }
}
layers {
  bottom: "source_ims"
  top: "conv1"
  name: "conv1"
  type: CONVOLUTION
  blobs_lr: 0
  blobs_lr: 0
  weight_decay: 1
  weight_decay: 0
  convolution_param {
    num_output: 96
    kernel_size: 11
    stride: 4
    weight_filler {
      type: "gaussian"
      std: 0.01
    }
    bias_filler {
      type: "constant"
      value: 0
    }
  }
}
layers {
  bottom: "conv1"
  top: "conv1"
  name: "relu1"
  type: RELU
}
layers {
  bottom: "conv1"
  top: "pool1"
  name: "pool1"
  type: POOLING
  pooling_param {
    pool: MAX
    kernel_size: 3
    stride: 2
  }
}
layers {
  bottom: "pool1"
  top: "norm1"
  name: "norm1"
  type: LRN
  lrn_param {
    local_size: 5
    alpha: 0.0001
    beta: 0.75
  }
}
layers {
  bottom: "norm1"
  top: "Rconv6"
  name: "Rconv6"
  type: CONVOLUTION
  blobs_lr: 1
  blobs_lr: 2
  weight_decay: 1
  weight_decay: 0
  convolution_param {
    num_output: 256
    pad: 1
    kernel_size: 3
  }
}
layers {
  bottom: "Rconv6"
  top: "Rconv6"
  name: "Rrelu6"
  type: RELU
}
layers {
  bottom: "Rconv6"
  top: "Rconv7"
  name: "Rconv7"
  type: CONVOLUTION
  blobs_lr: 1
  blobs_lr: 2
  weight_decay: 1
  weight_decay: 0
  convolution_param {
    num_output: 256
    pad: 1
    kernel_size: 3
    group: 2
  }
}
layers {
  bottom: "Rconv7"
  top: "Rconv7"
  name: "Rrelu7"
  type: RELU
}
layers {
  bottom: "Rconv7"
  top: "Rconv8"
  name: "Rconv8"
  type: CONVOLUTION
  blobs_lr: 1
  blobs_lr: 2
  weight_decay: 1
  weight_decay: 0
  convolution_param {
    num_output: 256
    pad: 1
    kernel_size: 3
    group: 2
  }
}
layers {
  bottom: "Rconv8"
  top: "Rconv8"
  name: "Rrelu8"
  type: RELU
}
layers {
  bottom: "Rconv8"
  top: "deconv2"
  name: "deconv2"
  type: DECONVOLUTION
  blobs_lr: 1
  blobs_lr: 2
  weight_decay: 1
  weight_decay: 0
  deconvolution_param {
    pad: 2
    kernel_size: 5
    stride: 2
    output_height: 54
    output_width: 54
    output_channels: 64
  }
}
layers {
  bottom: "deconv2"
  top: "deconv2"
  name: "relu_deconv2"
  type: RELU
  relu_param {
    negative_slope: 0.3
  }
}
layers {
  bottom: "deconv2"
  top: "deconv1"
  name: "deconv1"
  type: DECONVOLUTION
  blobs_lr: 1
  blobs_lr: 2
  weight_decay: 1
  weight_decay: 0
  deconvolution_param {
    pad: 2
    kernel_size: 5
    stride: 2
    output_height: 108
    output_width: 108
    output_channels: 32
  }
}
layers {
  bottom: "deconv1"
  top: "deconv1"
  name: "relu_deconv1"
  type: RELU
  relu_param {
    negative_slope: 0.3
  }
}
layers {
  bottom: "deconv1"
  top: "deconv0"
  name: "deconv0"
  type: DECONVOLUTION
  blobs_lr: 1
  blobs_lr: 2
  weight_decay: 1
  weight_decay: 1
  deconvolution_param {
    pad: 2
    kernel_size: 5
    stride: 2
    output_height: 216
    output_width: 216
    output_channels: 3
  }
}
layers {
  bottom: "deconv0"
  bottom: "target_ims"
  name: "loss"
  type: EUCLIDEAN_LOSS
}
I0813 10:07:27.992182  5824 net.cpp:65] Creating Layer source_ims
I0813 10:07:27.992192  5824 net.cpp:189] source_ims -> source_ims
I0813 10:07:27.992308  5824 data_layer.cpp:223] Opening lmdb /scr/r6/tgebru/inverting_conv/caffe_invert_alexnet/data/siggraph/tiny_summer_train_lmdb
I0813 10:07:27.992524  5824 data_layer.cpp:285] output data size: 12,3,227,227
I0813 10:07:27.992532  5824 data_layer.cpp:304] Loading mean file from/scr/r6/tgebru/timnit_caffe/data/ilsvrc12/imagenet_mean.binaryproto
I0813 10:07:27.997030  5824 net.cpp:84] Top shape: 12 3 227 227 (1855044)
I0813 10:07:27.997040  5824 net.cpp:116] source_ims does not need backward computation.
I0813 10:07:27.997046  5824 net.cpp:65] Creating Layer target_ims
I0813 10:07:27.997051  5824 net.cpp:189] target_ims -> target_ims
I0813 10:07:27.997153  5824 data_layer.cpp:223] Opening lmdb /scr/r6/tgebru/inverting_conv/caffe_invert_alexnet/data/siggraph/tiny_winter_train_lmdb
I0813 10:07:27.997262  5824 data_layer.cpp:285] output data size: 12,3,216,216
I0813 10:07:27.997267  5824 data_layer.cpp:304] Loading mean file from/scr/r6/tgebru/timnit_caffe/data/ilsvrc12/imagenet_mean.binaryproto
I0813 10:07:28.001384  5824 net.cpp:84] Top shape: 12 3 216 216 (1679616)
I0813 10:07:28.001390  5824 net.cpp:116] target_ims does not need backward computation.
I0813 10:07:28.001399  5824 net.cpp:65] Creating Layer conv1
I0813 10:07:28.001401  5824 net.cpp:228] conv1 <- source_ims
I0813 10:07:28.001454  5824 net.cpp:189] conv1 -> conv1
I0813 10:07:28.002742  5824 net.cpp:84] Top shape: 12 96 55 55 (3484800)
I0813 10:07:28.002746  5824 net.cpp:116] conv1 does not need backward computation.
I0813 10:07:28.002751  5824 net.cpp:65] Creating Layer relu1
I0813 10:07:28.002754  5824 net.cpp:228] relu1 <- conv1
I0813 10:07:28.002760  5824 net.cpp:179] relu1 -> conv1 (in-place)
I0813 10:07:28.002769  5824 net.cpp:84] Top shape: 12 96 55 55 (3484800)
I0813 10:07:28.002773  5824 net.cpp:116] relu1 does not need backward computation.
I0813 10:07:28.002779  5824 net.cpp:65] Creating Layer pool1
I0813 10:07:28.002781  5824 net.cpp:228] pool1 <- conv1
I0813 10:07:28.002785  5824 net.cpp:189] pool1 -> pool1
I0813 10:07:28.002799  5824 net.cpp:84] Top shape: 12 96 27 27 (839808)
I0813 10:07:28.002801  5824 net.cpp:116] pool1 does not need backward computation.
I0813 10:07:28.002807  5824 net.cpp:65] Creating Layer norm1
I0813 10:07:28.002810  5824 net.cpp:228] norm1 <- pool1
I0813 10:07:28.002813  5824 net.cpp:189] norm1 -> norm1
I0813 10:07:28.002823  5824 net.cpp:84] Top shape: 12 96 27 27 (839808)
I0813 10:07:28.002826  5824 net.cpp:116] norm1 does not need backward computation.
I0813 10:07:28.002830  5824 net.cpp:65] Creating Layer Rconv6
I0813 10:07:28.002833  5824 net.cpp:228] Rconv6 <- norm1
I0813 10:07:28.002837  5824 net.cpp:189] Rconv6 -> Rconv6
I0813 10:07:28.003006  5824 net.cpp:84] Top shape: 12 256 27 27 (2239488)
I0813 10:07:28.003011  5824 net.cpp:111] Rconv6 needs backward computation.
I0813 10:07:28.003016  5824 net.cpp:65] Creating Layer Rrelu6
I0813 10:07:28.003020  5824 net.cpp:228] Rrelu6 <- Rconv6
I0813 10:07:28.003023  5824 net.cpp:179] Rrelu6 -> Rconv6 (in-place)
I0813 10:07:28.003028  5824 net.cpp:84] Top shape: 12 256 27 27 (2239488)
I0813 10:07:28.003031  5824 net.cpp:111] Rrelu6 needs backward computation.
I0813 10:07:28.003036  5824 net.cpp:65] Creating Layer Rconv7
I0813 10:07:28.003039  5824 net.cpp:228] Rconv7 <- Rconv6
I0813 10:07:28.003043  5824 net.cpp:189] Rconv7 -> Rconv7
I0813 10:07:28.003747  5824 net.cpp:84] Top shape: 12 256 27 27 (2239488)
I0813 10:07:28.003753  5824 net.cpp:111] Rconv7 needs backward computation.
I0813 10:07:28.003757  5824 net.cpp:65] Creating Layer Rrelu7
I0813 10:07:28.003782  5824 net.cpp:228] Rrelu7 <- Rconv7
I0813 10:07:28.003785  5824 net.cpp:179] Rrelu7 -> Rconv7 (in-place)
I0813 10:07:28.003790  5824 net.cpp:84] Top shape: 12 256 27 27 (2239488)
I0813 10:07:28.003793  5824 net.cpp:111] Rrelu7 needs backward computation.
I0813 10:07:28.003798  5824 net.cpp:65] Creating Layer Rconv8
I0813 10:07:28.003800  5824 net.cpp:228] Rconv8 <- Rconv7
I0813 10:07:28.003804  5824 net.cpp:189] Rconv8 -> Rconv8
I0813 10:07:28.004585  5824 net.cpp:84] Top shape: 12 256 27 27 (2239488)
I0813 10:07:28.004590  5824 net.cpp:111] Rconv8 needs backward computation.
I0813 10:07:28.004595  5824 net.cpp:65] Creating Layer Rrelu8
I0813 10:07:28.004597  5824 net.cpp:228] Rrelu8 <- Rconv8
I0813 10:07:28.004601  5824 net.cpp:179] Rrelu8 -> Rconv8 (in-place)
I0813 10:07:28.004606  5824 net.cpp:84] Top shape: 12 256 27 27 (2239488)
I0813 10:07:28.004608  5824 net.cpp:111] Rrelu8 needs backward computation.
I0813 10:07:28.004613  5824 net.cpp:65] Creating Layer deconv2
I0813 10:07:28.004616  5824 net.cpp:228] deconv2 <- Rconv8
I0813 10:07:28.004621  5824 net.cpp:189] deconv2 -> deconv2
I0813 10:07:28.005642  5824 net.cpp:84] Top shape: 12 64 54 54 (2239488)
I0813 10:07:28.005647  5824 net.cpp:111] deconv2 needs backward computation.
I0813 10:07:28.005651  5824 net.cpp:65] Creating Layer relu_deconv2
I0813 10:07:28.005655  5824 net.cpp:228] relu_deconv2 <- deconv2
I0813 10:07:28.005659  5824 net.cpp:179] relu_deconv2 -> deconv2 (in-place)
I0813 10:07:28.005664  5824 net.cpp:84] Top shape: 12 64 54 54 (2239488)
I0813 10:07:28.005666  5824 net.cpp:111] relu_deconv2 needs backward computation.
I0813 10:07:28.005671  5824 net.cpp:65] Creating Layer deconv1
I0813 10:07:28.005673  5824 net.cpp:228] deconv1 <- deconv2
I0813 10:07:28.005677  5824 net.cpp:189] deconv1 -> deconv1
I0813 10:07:28.005811  5824 net.cpp:84] Top shape: 12 32 108 108 (4478976)
I0813 10:07:28.005815  5824 net.cpp:111] deconv1 needs backward computation.
I0813 10:07:28.005820  5824 net.cpp:65] Creating Layer relu_deconv1
I0813 10:07:28.005822  5824 net.cpp:228] relu_deconv1 <- deconv1
I0813 10:07:28.005826  5824 net.cpp:179] relu_deconv1 -> deconv1 (in-place)
I0813 10:07:28.005831  5824 net.cpp:84] Top shape: 12 32 108 108 (4478976)
I0813 10:07:28.005834  5824 net.cpp:111] relu_deconv1 needs backward computation.
I0813 10:07:28.005839  5824 net.cpp:65] Creating Layer deconv0
I0813 10:07:28.005841  5824 net.cpp:228] deconv0 <- deconv1
I0813 10:07:28.005846  5824 net.cpp:189] deconv0 -> deconv0
I0813 10:07:28.005866  5824 net.cpp:84] Top shape: 12 3 216 216 (1679616)
I0813 10:07:28.005869  5824 net.cpp:111] deconv0 needs backward computation.
I0813 10:07:28.005872  5824 net.cpp:65] Creating Layer loss
I0813 10:07:28.005875  5824 net.cpp:228] loss <- deconv0
I0813 10:07:28.005878  5824 net.cpp:228] loss <- target_ims
I0813 10:07:28.005887  5824 net.cpp:111] loss needs backward computation.
I0813 10:07:28.005899  5824 net.cpp:238] Collecting Learning Rate and Weight Decay.
…
    source: "/scr/r6/tgebru/inverting_conv/caffe_invert_alexnet/data/siggraph/tiny_summer_val_lmdb"
    mean_file: "/scr/r6/tgebru/timnit_caffe/data/ilsvrc12/imagenet_mean.binaryproto"
    batch_size: 64
    crop_size: 227
    mirror: false
    backend: LMDB
  }
}
layers {
  top: "target_ims"
  name: "target_ims"
  type: DATA
  data_param {
    source: "/scr/r6/tgebru/inverting_conv/caffe_invert_alexnet/data/siggraph/tiny_winter_val_lmdb"
    mean_file: "/scr/r6/tgebru/timnit_caffe/data/ilsvrc12/imagenet_mean.binaryproto"
    batch_size: 64
    crop_size: 216
    mirror: false
    backend: LMDB
  }
}
layers {
  bottom: "source_ims"
  top: "conv1"
  name: "conv1"
  type: CONVOLUTION
  blobs_lr: 0
  blobs_lr: 0
  weight_decay: 1
  weight_decay: 0
  convolution_param {
    num_output: 96
    kernel_size: 11
    stride: 4
    weight_filler {
      type: "gaussian"
      std: 0.01
    }
    bias_filler {
      type: "constant"
      value: 0
    }
  }
}
layers {
  bottom: "conv1"
  top: "conv1"
  name: "relu1"
  type: RELU
}
layers {
  bottom: "conv1"
  top: "pool1"
  name: "pool1"
  type: POOLING
  pooling_param {
    pool: MAX
    kernel_size: 3
    stride: 2
  }
}
layers {
  bottom: "pool1"
  top: "norm1"
  name: "norm1"
  type: LRN
  lrn_param {
    local_size: 5
    alpha: 0.0001
    beta: 0.75
  }
}
layers {
  bottom: "norm1"
  top: "Rconv6"
  name: "Rconv6"
  type: CONVOLUTION
  blobs_lr: 0
  blobs_lr: 0
  weight_decay: 1
  weight_decay: 0
  convolution_param {
    num_output: 256
    pad: 1
    kernel_size: 3
  }
}
layers {
  bottom: "Rconv6"
  top: "Rconv6"
  name: "Rrelu6"
  type: RELU
}
layers {
  bottom: "Rconv6"
  top: "Rconv7"
  name: "Rconv7"
  type: CONVOLUTION
  blobs_lr: 0
  blobs_lr: 0
  weight_decay: 1
  weight_decay: 0
  convolution_param {
    num_output: 256
    pad: 1
    kernel_size: 3
    group: 2
  }
}
layers {
  bottom: "Rconv7"
  top: "Rconv7"
  name: "Rrelu7"
  type: RELU
}
layers {
  bottom: "Rconv7"
  top: "Rconv8"
  name: "Rconv8"
  type: CONVOLUTION
  blobs_lr: 0
  blobs_lr: 0
  weight_decay: 1
  weight_decay: 0
  convolution_param {
    num_output: 256
    pad: 1
    kernel_size: 3
    group: 2
  }
}
layers {
  bottom: "Rconv8"
  top: "Rconv8"
  name: "Rrelu8"
  type: RELU
}
layers {
  bottom: "Rconv8"
  top: "deconv2"
  name: "deconv2"
  type: DECONVOLUTION
  blobs_lr: 0
  blobs_lr: 0
  weight_decay: 1
  weight_decay: 0
  deconvolution_param {
    pad: 2
    kernel_size: 5
    stride: 2
    output_height: 54
    output_width: 54
    output_channels: 64
  }
}
layers {
  bottom: "deconv2"
  top: "deconv2"
  name: "relu_deconv2"
  type: RELU
  relu_param {
    negative_slope: 0.3
  }
}
layers {
  bottom: "deconv2"
  top: "deconv1"
  name: "deconv1"
  type: DECONVOLUTION
  blobs_lr: 0
  blobs_lr: 0
  weight_decay: 1
  weight_decay: 0
  deconvolution_param {
    pad: 2
    kernel_size: 5
    stride: 2
    output_height: 108
    output_width: 108
    output_channels: 32
  }
}
layers {
  bottom: "deconv1"
  top: "deconv1"
  name: "relu_deconv1"
  type: RELU
  relu_param {
    negative_slope: 0.3
  }
}
layers {
  bottom: "deconv1"
  top: "deconv0"
  name: "deconv0"
  type: DECONVOLUTION
  blobs_lr: 0
  blobs_lr: 0
  weight_decay: 1
  weight_decay: 0
  deconvolution_param {
    pad: 2
    kernel_size: 5
    stride: 2
    output_height: 216
    output_width: 216
    output_channels: 3
  }
}
layers {
  bottom: "deconv0"
  bottom: "target_ims"
  name: "loss"
  type: EUCLIDEAN_LOSS
}
I0813 10:07:28.006628  5824 net.cpp:65] Creating Layer source_ims
I0813 10:07:28.006633  5824 net.cpp:189] source_ims -> source_ims
I0813 10:07:28.006682  5824 data_layer.cpp:223] Opening lmdb /scr/r6/tgebru/inverting_conv/caffe_invert_alexnet/data/siggraph/tiny_summer_val_lmdb
I0813 10:07:28.006878  5824 data_layer.cpp:285] output data size: 64,3,227,227
I0813 10:07:28.006883  5824 data_layer.cpp:304] Loading mean file from/scr/r6/tgebru/timnit_caffe/data/ilsvrc12/imagenet_mean.binaryproto
I0813 10:07:28.021018  5824 net.cpp:84] Top shape: 64 3 227 227 (9893568)
I0813 10:07:28.021041  5824 net.cpp:116] source_ims does not need backward computation.
I0813 10:07:28.021054  5824 net.cpp:65] Creating Layer target_ims
I0813 10:07:28.021061  5824 net.cpp:189] target_ims -> target_ims
I0813 10:07:28.021162  5824 data_layer.cpp:223] Opening lmdb /scr/r6/tgebru/inverting_conv/caffe_invert_alexnet/data/siggraph/tiny_winter_val_lmdb
I0813 10:07:28.021299  5824 data_layer.cpp:285] output data size: 64,3,216,216
I0813 10:07:28.021304  5824 data_layer.cpp:304] Loading mean file from/scr/r6/tgebru/timnit_caffe/data/ilsvrc12/imagenet_mean.binaryproto
I0813 10:07:28.033838  5824 net.cpp:84] Top shape: 64 3 216 216 (8957952)
I0813 10:07:28.033910  5824 net.cpp:116] target_ims does not need backward computation.
I0813 10:07:28.033926  5824 net.cpp:65] Creating Layer conv1
I0813 10:07:28.033931  5824 net.cpp:228] conv1 <- source_ims
I0813 10:07:28.033941  5824 net.cpp:189] conv1 -> conv1
I0813 10:07:28.035204  5824 net.cpp:84] Top shape: 64 96 55 55 (18585600)
I0813 10:07:28.035208  5824 net.cpp:116] conv1 does not need backward computation.
I0813 10:07:28.035213  5824 net.cpp:65] Creating Layer relu1
I0813 10:07:28.035217  5824 net.cpp:228] relu1 <- conv1
I0813 10:07:28.035223  5824 net.cpp:179] relu1 -> conv1 (in-place)
I0813 10:07:28.035228  5824 net.cpp:84] Top shape: 64 96 55 55 (18585600)
I0813 10:07:28.035231  5824 net.cpp:116] relu1 does not need backward computation.
I0813 10:07:28.035238  5824 net.cpp:65] Creating Layer pool1
I0813 10:07:28.035239  5824 net.cpp:228] pool1 <- conv1
I0813 10:07:28.035244  5824 net.cpp:189] pool1 -> pool1
I0813 10:07:28.035253  5824 net.cpp:84] Top shape: 64 96 27 27 (4478976)
I0813 10:07:28.035254  5824 net.cpp:116] pool1 does not need backward computation.
I0813 10:07:28.035260  5824 net.cpp:65] Creating Layer norm1
I0813 10:07:28.035264  5824 net.cpp:228] norm1 <- pool1
I0813 10:07:28.035269  5824 net.cpp:189] norm1 -> norm1
I0813 10:07:28.035275  5824 net.cpp:84] Top shape: 64 96 27 27 (4478976)
I0813 10:07:28.035279  5824 net.cpp:116] norm1 does not need backward computation.
I0813 10:07:28.035282  5824 net.cpp:65] Creating Layer Rconv6
I0813 10:07:28.035284  5824 net.cpp:228] Rconv6 <- norm1
I0813 10:07:28.035290  5824 net.cpp:189] Rconv6 -> Rconv6
I0813 10:07:28.035524  5824 net.cpp:84] Top shape: 64 256 27 27 (11943936)
I0813 10:07:28.035528  5824 net.cpp:116] Rconv6 does not need backward computation.
I0813 10:07:28.035532  5824 net.cpp:65] Creating Layer Rrelu6
I0813 10:07:28.035536  5824 net.cpp:228] Rrelu6 <- Rconv6
I0813 10:07:28.035540  5824 net.cpp:179] Rrelu6 -> Rconv6 (in-place)
I0813 10:07:28.035545  5824 net.cpp:84] Top shape: 64 256 27 27 (11943936)
I0813 10:07:28.035547  5824 net.cpp:116] Rrelu6 does not need backward computation.
I0813 10:07:28.035553  5824 net.cpp:65] Creating Layer Rconv7
I0813 10:07:28.035555  5824 net.cpp:228] Rconv7 <- Rconv6
I0813 10:07:28.035560  5824 net.cpp:189] Rconv7 -> Rconv7
I0813 10:07:28.036260  5824 net.cpp:84] Top shape: 64 256 27 27 (11943936)
I0813 10:07:28.036265  5824 net.cpp:116] Rconv7 does not need backward computation.
I0813 10:07:28.036270  5824 net.cpp:65] Creating Layer Rrelu7
I0813 10:07:28.036273  5824 net.cpp:228] Rrelu7 <- Rconv7
I0813 10:07:28.036278  5824 net.cpp:179] Rrelu7 -> Rconv7 (in-place)
I0813 10:07:28.036283  5824 net.cpp:84] Top shape: 64 256 27 27 (11943936)
I0813 10:07:28.036285  5824 net.cpp:116] Rrelu7 does not need backward computation.
I0813 10:07:28.036289  5824 net.cpp:65] Creating Layer Rconv8
I0813 10:07:28.036293  5824 net.cpp:228] Rconv8 <- Rconv7
I0813 10:07:28.036296  5824 net.cpp:189] Rconv8 -> Rconv8
I0813 10:07:28.037014  5824 net.cpp:84] Top shape: 64 256 27 27 (11943936)
I0813 10:07:28.037019  5824 net.cpp:116] Rconv8 does not need backward computation.
I0813 10:07:28.037024  5824 net.cpp:65] Creating Layer Rrelu8
I0813 10:07:28.037026  5824 net.cpp:228] Rrelu8 <- Rconv8
I0813 10:07:28.037030  5824 net.cpp:179] Rrelu8 -> Rconv8 (in-place)
I0813 10:07:28.037034  5824 net.cpp:84] Top shape: 64 256 27 27 (11943936)
I0813 10:07:28.037037  5824 net.cpp:116] Rrelu8 does not need backward computation.
I0813 10:07:28.037042  5824 net.cpp:65] Creating Layer deconv2
I0813 10:07:28.037045  5824 net.cpp:228] deconv2 <- Rconv8
I0813 10:07:28.037048  5824 net.cpp:189] deconv2 -> deconv2
I0813 10:07:28.038055  5824 net.cpp:84] Top shape: 64 64 54 54 (11943936)
I0813 10:07:28.038060  5824 net.cpp:116] deconv2 does not need backward computation.
I0813 10:07:28.038065  5824 net.cpp:65] Creating Layer relu_deconv2
I0813 10:07:28.038069  5824 net.cpp:228] relu_deconv2 <- deconv2
I0813 10:07:28.038072  5824 net.cpp:179] relu_deconv2 -> deconv2 (in-place)
I0813 10:07:28.038077  5824 net.cpp:84] Top shape: 64 64 54 54 (11943936)
I0813 10:07:28.038101  5824 net.cpp:116] relu_deconv2 does not need backward computation.
I0813 10:07:28.038106  5824 net.cpp:65] Creating Layer deconv1
I0813 10:07:28.038110  5824 net.cpp:228] deconv1 <- deconv2
I0813 10:07:28.038113  5824 net.cpp:189] deconv1 -> deconv1
I0813 10:07:28.038249  5824 net.cpp:84] Top shape: 64 32 108 108 (23887872)
I0813 10:07:28.038252  5824 net.cpp:116] deconv1 does not need backward computation.
I0813 10:07:28.038257  5824 net.cpp:65] Creating Layer relu_deconv1
I0813 10:07:28.038260  5824 net.cpp:228] relu_deconv1 <- deconv1
I0813 10:07:28.038264  5824 net.cpp:179] relu_deconv1 -> deconv1 (in-place)
I0813 10:07:28.038269  5824 net.cpp:84] Top shape: 64 32 108 108 (23887872)
I0813 10:07:28.038272  5824 net.cpp:116] relu_deconv1 does not need backward computation.
I0813 10:07:28.038278  5824 net.cpp:65] Creating Layer deconv0
I0813 10:07:28.038280  5824 net.cpp:228] deconv0 <- deconv1
I0813 10:07:28.038286  5824 net.cpp:189] deconv0 -> deconv0
I0813 10:07:28.038310  5824 net.cpp:84] Top shape: 64 3 216 216 (8957952)
I0813 10:07:28.038312  5824 net.cpp:116] deconv0 does not need backward computation.
I0813 10:07:28.038317  5824 net.cpp:65] Creating Layer loss
I0813 10:07:28.038319  5824 net.cpp:228] loss <- deconv0
I0813 10:07:28.038323  5824 net.cpp:228] loss <- target_ims
I0813 10:07:28.038329  5824 net.cpp:116] loss does not need backward computation.
I0813 10:07:28.038342  5824 net.cpp:238] Collecting Learning Rate and Weight Decay.
…
