…
  data_param {
    source: "/scr/r6/tgebru/inverting_conv/caffe_invert_alexnet/data/siggraph/small_summer_train_227lmdb"
    mean_file: "/scr/r6/tgebru/timnit_caffe/data/ilsvrc12/imagenet_mean227.binaryproto"
    batch_size: 12
    mirror: false
    backend: LMDB
  }
}
layers {
  top: "target_ims"
  name: "target_ims"
  type: DATA
  data_param {
    source: "/scr/r6/tgebru/inverting_conv/caffe_invert_alexnet/data/siggraph/small_summer_train_216lmdb"
    mean_file: "/scr/r6/tgebru/timnit_caffe/data/ilsvrc12/imagenet_mean216.binaryproto"
    batch_size: 12
    mirror: false
    backend: LMDB
  }
}
layers {
  bottom: "source_ims"
  top: "conv1"
  name: "conv1"
  type: CONVOLUTION
  blobs_lr: 0
  blobs_lr: 0
  weight_decay: 1
  weight_decay: 0
  convolution_param {
    num_output: 96
    kernel_size: 11
    stride: 4
    weight_filler {
      type: "gaussian"
      std: 0.01
    }
    bias_filler {
      type: "constant"
      value: 0
    }
  }
}
layers {
  bottom: "conv1"
  top: "conv1"
  name: "relu1"
  type: RELU
}
layers {
  bottom: "conv1"
  top: "pool1"
  name: "pool1"
  type: POOLING
  pooling_param {
    pool: MAX
    kernel_size: 3
    stride: 2
  }
}
layers {
  bottom: "pool1"
  top: "norm1"
  name: "norm1"
  type: LRN
  lrn_param {
    local_size: 5
    alpha: 0.0001
    beta: 0.75
  }
}
layers {
  bottom: "norm1"
  top: "Rconv6"
  name: "Rconv6"
  type: CONVOLUTION
  blobs_lr: 1
  blobs_lr: 2
  weight_decay: 1
  weight_decay: 0
  convolution_param {
    num_output: 256
    pad: 1
    kernel_size: 3
  }
}
layers {
  bottom: "Rconv6"
  top: "Rconv6"
  name: "Rrelu6"
  type: RELU
}
layers {
  bottom: "Rconv6"
  top: "Rconv7"
  name: "Rconv7"
  type: CONVOLUTION
  blobs_lr: 1
  blobs_lr: 2
  weight_decay: 1
  weight_decay: 0
  convolution_param {
    num_output: 256
    pad: 1
    kernel_size: 3
    group: 2
  }
}
layers {
  bottom: "Rconv7"
  top: "Rconv7"
  name: "Rrelu7"
  type: RELU
}
layers {
  bottom: "Rconv7"
  top: "Rconv8"
  name: "Rconv8"
  type: CONVOLUTION
  blobs_lr: 1
  blobs_lr: 2
  weight_decay: 1
  weight_decay: 0
  convolution_param {
    num_output: 256
    pad: 1
    kernel_size: 3
    group: 2
  }
}
layers {
  bottom: "Rconv8"
  top: "Rconv8"
  name: "Rrelu8"
  type: RELU
}
layers {
  bottom: "Rconv8"
  top: "deconv2"
  name: "deconv2"
  type: DECONVOLUTION
  blobs_lr: 1
  blobs_lr: 2
  weight_decay: 1
  weight_decay: 0
  deconvolution_param {
    pad: 2
    kernel_size: 5
    stride: 2
    output_height: 54
    output_width: 54
    output_channels: 64
  }
}
layers {
  bottom: "deconv2"
  top: "deconv2"
  name: "relu_deconv2"
  type: RELU
  relu_param {
    negative_slope: 0.3
  }
}
layers {
  bottom: "deconv2"
  top: "deconv1"
  name: "deconv1"
  type: DECONVOLUTION
  blobs_lr: 1
  blobs_lr: 2
  weight_decay: 1
  weight_decay: 0
  deconvolution_param {
    pad: 2
    kernel_size: 5
    stride: 2
    output_height: 108
    output_width: 108
    output_channels: 32
  }
}
layers {
  bottom: "deconv1"
  top: "deconv1"
  name: "relu_deconv1"
  type: RELU
  relu_param {
    negative_slope: 0.3
  }
}
layers {
  bottom: "deconv1"
  top: "deconv0"
  name: "deconv0"
  type: DECONVOLUTION
  blobs_lr: 1
  blobs_lr: 2
  weight_decay: 1
  weight_decay: 1
  deconvolution_param {
    pad: 2
    kernel_size: 5
    stride: 2
    output_height: 216
    output_width: 216
    output_channels: 3
  }
}
layers {
  bottom: "deconv0"
  bottom: "target_ims"
  name: "loss"
  type: EUCLIDEAN_LOSS
}
I0825 21:10:59.797665 32740 net.cpp:65] Creating Layer source_ims
I0825 21:10:59.797677 32740 net.cpp:189] source_ims -> source_ims
I0825 21:10:59.797791 32740 data_layer.cpp:223] Opening lmdb /scr/r6/tgebru/inverting_conv/caffe_invert_alexnet/data/siggraph/small_summer_train_227lmdb
I0825 21:10:59.797957 32740 data_layer.cpp:285] output data size: 12,3,227,227
I0825 21:10:59.797965 32740 data_layer.cpp:304] Loading mean file from/scr/r6/tgebru/timnit_caffe/data/ilsvrc12/imagenet_mean227.binaryproto
I0825 21:10:59.802176 32740 net.cpp:84] Top shape: 12 3 227 227 (1855044)
I0825 21:10:59.802183 32740 net.cpp:116] source_ims does not need backward computation.
I0825 21:10:59.802189 32740 net.cpp:65] Creating Layer target_ims
I0825 21:10:59.802193 32740 net.cpp:189] target_ims -> target_ims
I0825 21:10:59.802340 32740 data_layer.cpp:223] Opening lmdb /scr/r6/tgebru/inverting_conv/caffe_invert_alexnet/data/siggraph/small_summer_train_216lmdb
I0825 21:10:59.802449 32740 data_layer.cpp:285] output data size: 12,3,216,216
I0825 21:10:59.802454 32740 data_layer.cpp:304] Loading mean file from/scr/r6/tgebru/timnit_caffe/data/ilsvrc12/imagenet_mean216.binaryproto
I0825 21:10:59.806437 32740 net.cpp:84] Top shape: 12 3 216 216 (1679616)
I0825 21:10:59.806445 32740 net.cpp:116] target_ims does not need backward computation.
I0825 21:10:59.806457 32740 net.cpp:65] Creating Layer conv1
I0825 21:10:59.806462 32740 net.cpp:228] conv1 <- source_ims
I0825 21:10:59.806568 32740 net.cpp:189] conv1 -> conv1
I0825 21:10:59.807870 32740 net.cpp:84] Top shape: 12 96 55 55 (3484800)
I0825 21:10:59.807876 32740 net.cpp:116] conv1 does not need backward computation.
I0825 21:10:59.807881 32740 net.cpp:65] Creating Layer relu1
I0825 21:10:59.807885 32740 net.cpp:228] relu1 <- conv1
I0825 21:10:59.807889 32740 net.cpp:179] relu1 -> conv1 (in-place)
I0825 21:10:59.807898 32740 net.cpp:84] Top shape: 12 96 55 55 (3484800)
I0825 21:10:59.807901 32740 net.cpp:116] relu1 does not need backward computation.
I0825 21:10:59.807907 32740 net.cpp:65] Creating Layer pool1
I0825 21:10:59.807909 32740 net.cpp:228] pool1 <- conv1
I0825 21:10:59.807914 32740 net.cpp:189] pool1 -> pool1
I0825 21:10:59.807926 32740 net.cpp:84] Top shape: 12 96 27 27 (839808)
I0825 21:10:59.807929 32740 net.cpp:116] pool1 does not need backward computation.
I0825 21:10:59.807934 32740 net.cpp:65] Creating Layer norm1
I0825 21:10:59.807937 32740 net.cpp:228] norm1 <- pool1
I0825 21:10:59.807941 32740 net.cpp:189] norm1 -> norm1
I0825 21:10:59.807950 32740 net.cpp:84] Top shape: 12 96 27 27 (839808)
I0825 21:10:59.807953 32740 net.cpp:116] norm1 does not need backward computation.
I0825 21:10:59.807956 32740 net.cpp:65] Creating Layer Rconv6
I0825 21:10:59.807960 32740 net.cpp:228] Rconv6 <- norm1
I0825 21:10:59.807963 32740 net.cpp:189] Rconv6 -> Rconv6
I0825 21:10:59.808223 32740 net.cpp:84] Top shape: 12 256 27 27 (2239488)
I0825 21:10:59.808228 32740 net.cpp:111] Rconv6 needs backward computation.
I0825 21:10:59.808231 32740 net.cpp:65] Creating Layer Rrelu6
I0825 21:10:59.808234 32740 net.cpp:228] Rrelu6 <- Rconv6
I0825 21:10:59.808238 32740 net.cpp:179] Rrelu6 -> Rconv6 (in-place)
I0825 21:10:59.808243 32740 net.cpp:84] Top shape: 12 256 27 27 (2239488)
I0825 21:10:59.808245 32740 net.cpp:111] Rrelu6 needs backward computation.
I0825 21:10:59.808251 32740 net.cpp:65] Creating Layer Rconv7
I0825 21:10:59.808254 32740 net.cpp:228] Rconv7 <- Rconv6
I0825 21:10:59.808259 32740 net.cpp:189] Rconv7 -> Rconv7
I0825 21:10:59.808926 32740 net.cpp:84] Top shape: 12 256 27 27 (2239488)
I0825 21:10:59.808930 32740 net.cpp:111] Rconv7 needs backward computation.
I0825 21:10:59.808934 32740 net.cpp:65] Creating Layer Rrelu7
I0825 21:10:59.808938 32740 net.cpp:228] Rrelu7 <- Rconv7
I0825 21:10:59.808959 32740 net.cpp:179] Rrelu7 -> Rconv7 (in-place)
I0825 21:10:59.808964 32740 net.cpp:84] Top shape: 12 256 27 27 (2239488)
I0825 21:10:59.808967 32740 net.cpp:111] Rrelu7 needs backward computation.
I0825 21:10:59.808974 32740 net.cpp:65] Creating Layer Rconv8
I0825 21:10:59.808975 32740 net.cpp:228] Rconv8 <- Rconv7
I0825 21:10:59.808979 32740 net.cpp:189] Rconv8 -> Rconv8
I0825 21:10:59.809705 32740 net.cpp:84] Top shape: 12 256 27 27 (2239488)
I0825 21:10:59.809711 32740 net.cpp:111] Rconv8 needs backward computation.
I0825 21:10:59.809715 32740 net.cpp:65] Creating Layer Rrelu8
I0825 21:10:59.809718 32740 net.cpp:228] Rrelu8 <- Rconv8
I0825 21:10:59.809721 32740 net.cpp:179] Rrelu8 -> Rconv8 (in-place)
I0825 21:10:59.809726 32740 net.cpp:84] Top shape: 12 256 27 27 (2239488)
I0825 21:10:59.809728 32740 net.cpp:111] Rrelu8 needs backward computation.
I0825 21:10:59.809733 32740 net.cpp:65] Creating Layer deconv2
I0825 21:10:59.809736 32740 net.cpp:228] deconv2 <- Rconv8
I0825 21:10:59.809741 32740 net.cpp:189] deconv2 -> deconv2
I0825 21:10:59.810749 32740 net.cpp:84] Top shape: 12 64 54 54 (2239488)
I0825 21:10:59.810753 32740 net.cpp:111] deconv2 needs backward computation.
I0825 21:10:59.810760 32740 net.cpp:65] Creating Layer relu_deconv2
I0825 21:10:59.810762 32740 net.cpp:228] relu_deconv2 <- deconv2
I0825 21:10:59.810766 32740 net.cpp:179] relu_deconv2 -> deconv2 (in-place)
I0825 21:10:59.810770 32740 net.cpp:84] Top shape: 12 64 54 54 (2239488)
I0825 21:10:59.810773 32740 net.cpp:111] relu_deconv2 needs backward computation.
I0825 21:10:59.810777 32740 net.cpp:65] Creating Layer deconv1
I0825 21:10:59.810781 32740 net.cpp:228] deconv1 <- deconv2
I0825 21:10:59.810786 32740 net.cpp:189] deconv1 -> deconv1
I0825 21:10:59.810930 32740 net.cpp:84] Top shape: 12 32 108 108 (4478976)
I0825 21:10:59.810933 32740 net.cpp:111] deconv1 needs backward computation.
I0825 21:10:59.810937 32740 net.cpp:65] Creating Layer relu_deconv1
I0825 21:10:59.810940 32740 net.cpp:228] relu_deconv1 <- deconv1
I0825 21:10:59.810943 32740 net.cpp:179] relu_deconv1 -> deconv1 (in-place)
I0825 21:10:59.810947 32740 net.cpp:84] Top shape: 12 32 108 108 (4478976)
I0825 21:10:59.810950 32740 net.cpp:111] relu_deconv1 needs backward computation.
I0825 21:10:59.810958 32740 net.cpp:65] Creating Layer deconv0
I0825 21:10:59.810961 32740 net.cpp:228] deconv0 <- deconv1
I0825 21:10:59.810964 32740 net.cpp:189] deconv0 -> deconv0
I0825 21:10:59.811005 32740 net.cpp:84] Top shape: 12 3 216 216 (1679616)
I0825 21:10:59.811008 32740 net.cpp:111] deconv0 needs backward computation.
I0825 21:10:59.811012 32740 net.cpp:65] Creating Layer loss
I0825 21:10:59.811017 32740 net.cpp:228] loss <- deconv0
I0825 21:10:59.811019 32740 net.cpp:228] loss <- target_ims
I0825 21:10:59.811028 32740 net.cpp:111] loss needs backward computation.
I0825 21:10:59.811039 32740 net.cpp:238] Collecting Learning Rate and Weight Decay.
…
  data_param {
    source: "/scr/r6/tgebru/inverting_conv/caffe_invert_alexnet/data/siggraph/small_summer_val_227lmdb"
    mean_file: "/scr/r6/tgebru/timnit_caffe/data/ilsvrc12/imagenet_mean227.binaryproto"
    batch_size: 2
    mirror: false
    backend: LMDB
  }
}
layers {
  top: "target_ims"
  name: "target_ims"
  type: DATA
  data_param {
    source: "/scr/r6/tgebru/inverting_conv/caffe_invert_alexnet/data/siggraph/small_summer_val_216lmdb"
    mean_file: "/scr/r6/tgebru/timnit_caffe/data/ilsvrc12/imagenet_mean216.binaryproto"
    batch_size: 2
    mirror: false
    backend: LMDB
  }
}
layers {
  bottom: "source_ims"
  top: "conv1"
  name: "conv1"
  type: CONVOLUTION
  blobs_lr: 0
  blobs_lr: 0
  weight_decay: 1
  weight_decay: 0
  convolution_param {
    num_output: 96
    kernel_size: 11
    stride: 4
    weight_filler {
      type: "gaussian"
      std: 0.01
    }
    bias_filler {
      type: "constant"
      value: 0
    }
  }
}
layers {
  bottom: "conv1"
  top: "conv1"
  name: "relu1"
  type: RELU
}
layers {
  bottom: "conv1"
  top: "pool1"
  name: "pool1"
  type: POOLING
  pooling_param {
    pool: MAX
    kernel_size: 3
    stride: 2
  }
}
layers {
  bottom: "pool1"
  top: "norm1"
  name: "norm1"
  type: LRN
  lrn_param {
    local_size: 5
    alpha: 0.0001
    beta: 0.75
  }
}
layers {
  bottom: "norm1"
  top: "Rconv6"
  name: "Rconv6"
  type: CONVOLUTION
  blobs_lr: 0
  blobs_lr: 0
  weight_decay: 1
  weight_decay: 0
  convolution_param {
    num_output: 256
    pad: 1
    kernel_size: 3
  }
}
layers {
  bottom: "Rconv6"
  top: "Rconv6"
  name: "Rrelu6"
  type: RELU
}
layers {
  bottom: "Rconv6"
  top: "Rconv7"
  name: "Rconv7"
  type: CONVOLUTION
  blobs_lr: 0
  blobs_lr: 0
  weight_decay: 1
  weight_decay: 0
  convolution_param {
    num_output: 256
    pad: 1
    kernel_size: 3
    group: 2
  }
}
layers {
  bottom: "Rconv7"
  top: "Rconv7"
  name: "Rrelu7"
  type: RELU
}
layers {
  bottom: "Rconv7"
  top: "Rconv8"
  name: "Rconv8"
  type: CONVOLUTION
  blobs_lr: 0
  blobs_lr: 0
  weight_decay: 1
  weight_decay: 0
  convolution_param {
    num_output: 256
    pad: 1
    kernel_size: 3
    group: 2
  }
}
layers {
  bottom: "Rconv8"
  top: "Rconv8"
  name: "Rrelu8"
  type: RELU
}
layers {
  bottom: "Rconv8"
  top: "deconv2"
  name: "deconv2"
  type: DECONVOLUTION
  blobs_lr: 0
  blobs_lr: 0
  weight_decay: 1
  weight_decay: 0
  deconvolution_param {
    pad: 2
    kernel_size: 5
    stride: 2
    output_height: 54
    output_width: 54
    output_channels: 64
  }
}
layers {
  bottom: "deconv2"
  top: "deconv2"
  name: "relu_deconv2"
  type: RELU
  relu_param {
    negative_slope: 0.3
  }
}
layers {
  bottom: "deconv2"
  top: "deconv1"
  name: "deconv1"
  type: DECONVOLUTION
  blobs_lr: 0
  blobs_lr: 0
  weight_decay: 1
  weight_decay: 0
  deconvolution_param {
    pad: 2
    kernel_size: 5
    stride: 2
    output_height: 108
    output_width: 108
    output_channels: 32
  }
}
layers {
  bottom: "deconv1"
  top: "deconv1"
  name: "relu_deconv1"
  type: RELU
  relu_param {
    negative_slope: 0.3
  }
}
layers {
  bottom: "deconv1"
  top: "deconv0"
  name: "deconv0"
  type: DECONVOLUTION
  blobs_lr: 0
  blobs_lr: 0
  weight_decay: 1
  weight_decay: 0
  deconvolution_param {
    pad: 2
    kernel_size: 5
    stride: 2
    output_height: 216
    output_width: 216
    output_channels: 3
  }
}
layers {
  bottom: "deconv0"
  bottom: "target_ims"
  name: "loss"
  type: EUCLIDEAN_LOSS
}
I0825 21:10:59.811755 32740 net.cpp:65] Creating Layer source_ims
I0825 21:10:59.811760 32740 net.cpp:189] source_ims -> source_ims
I0825 21:10:59.811812 32740 data_layer.cpp:223] Opening lmdb /scr/r6/tgebru/inverting_conv/caffe_invert_alexnet/data/siggraph/small_summer_val_227lmdb
I0825 21:10:59.811959 32740 data_layer.cpp:285] output data size: 2,3,227,227
I0825 21:10:59.811964 32740 data_layer.cpp:304] Loading mean file from/scr/r6/tgebru/timnit_caffe/data/ilsvrc12/imagenet_mean227.binaryproto
I0825 21:10:59.813917 32740 net.cpp:84] Top shape: 2 3 227 227 (309174)
I0825 21:10:59.813925 32740 net.cpp:116] source_ims does not need backward computation.
I0825 21:10:59.813930 32740 net.cpp:65] Creating Layer target_ims
I0825 21:10:59.813935 32740 net.cpp:189] target_ims -> target_ims
I0825 21:10:59.813985 32740 data_layer.cpp:223] Opening lmdb /scr/r6/tgebru/inverting_conv/caffe_invert_alexnet/data/siggraph/small_summer_val_216lmdb
I0825 21:10:59.814065 32740 data_layer.cpp:285] output data size: 2,3,216,216
I0825 21:10:59.814069 32740 data_layer.cpp:304] Loading mean file from/scr/r6/tgebru/timnit_caffe/data/ilsvrc12/imagenet_mean216.binaryproto
I0825 21:10:59.816030 32740 net.cpp:84] Top shape: 2 3 216 216 (279936)
I0825 21:10:59.816040 32740 net.cpp:116] target_ims does not need backward computation.
I0825 21:10:59.816073 32740 net.cpp:65] Creating Layer conv1
I0825 21:10:59.816079 32740 net.cpp:228] conv1 <- source_ims
I0825 21:10:59.816087 32740 net.cpp:189] conv1 -> conv1
I0825 21:10:59.817351 32740 net.cpp:84] Top shape: 2 96 55 55 (580800)
I0825 21:10:59.817355 32740 net.cpp:116] conv1 does not need backward computation.
I0825 21:10:59.817360 32740 net.cpp:65] Creating Layer relu1
I0825 21:10:59.817363 32740 net.cpp:228] relu1 <- conv1
I0825 21:10:59.817368 32740 net.cpp:179] relu1 -> conv1 (in-place)
I0825 21:10:59.817373 32740 net.cpp:84] Top shape: 2 96 55 55 (580800)
I0825 21:10:59.817376 32740 net.cpp:116] relu1 does not need backward computation.
I0825 21:10:59.817383 32740 net.cpp:65] Creating Layer pool1
I0825 21:10:59.817384 32740 net.cpp:228] pool1 <- conv1
I0825 21:10:59.817389 32740 net.cpp:189] pool1 -> pool1
I0825 21:10:59.817395 32740 net.cpp:84] Top shape: 2 96 27 27 (139968)
I0825 21:10:59.817399 32740 net.cpp:116] pool1 does not need backward computation.
I0825 21:10:59.817404 32740 net.cpp:65] Creating Layer norm1
I0825 21:10:59.817407 32740 net.cpp:228] norm1 <- pool1
I0825 21:10:59.817411 32740 net.cpp:189] norm1 -> norm1
I0825 21:10:59.817425 32740 net.cpp:84] Top shape: 2 96 27 27 (139968)
I0825 21:10:59.817430 32740 net.cpp:116] norm1 does not need backward computation.
I0825 21:10:59.817437 32740 net.cpp:65] Creating Layer Rconv6
I0825 21:10:59.817440 32740 net.cpp:228] Rconv6 <- norm1
I0825 21:10:59.817443 32740 net.cpp:189] Rconv6 -> Rconv6
I0825 21:10:59.818056 32740 net.cpp:84] Top shape: 2 256 27 27 (373248)
I0825 21:10:59.818060 32740 net.cpp:116] Rconv6 does not need backward computation.
I0825 21:10:59.818068 32740 net.cpp:65] Creating Layer Rrelu6
I0825 21:10:59.818070 32740 net.cpp:228] Rrelu6 <- Rconv6
I0825 21:10:59.818073 32740 net.cpp:179] Rrelu6 -> Rconv6 (in-place)
I0825 21:10:59.818078 32740 net.cpp:84] Top shape: 2 256 27 27 (373248)
I0825 21:10:59.818080 32740 net.cpp:116] Rrelu6 does not need backward computation.
I0825 21:10:59.818086 32740 net.cpp:65] Creating Layer Rconv7
I0825 21:10:59.818089 32740 net.cpp:228] Rconv7 <- Rconv6
I0825 21:10:59.818092 32740 net.cpp:189] Rconv7 -> Rconv7
I0825 21:10:59.818855 32740 net.cpp:84] Top shape: 2 256 27 27 (373248)
I0825 21:10:59.818858 32740 net.cpp:116] Rconv7 does not need backward computation.
I0825 21:10:59.818862 32740 net.cpp:65] Creating Layer Rrelu7
I0825 21:10:59.818866 32740 net.cpp:228] Rrelu7 <- Rconv7
I0825 21:10:59.818868 32740 net.cpp:179] Rrelu7 -> Rconv7 (in-place)
I0825 21:10:59.818874 32740 net.cpp:84] Top shape: 2 256 27 27 (373248)
I0825 21:10:59.818877 32740 net.cpp:116] Rrelu7 does not need backward computation.
I0825 21:10:59.818881 32740 net.cpp:65] Creating Layer Rconv8
I0825 21:10:59.818884 32740 net.cpp:228] Rconv8 <- Rconv7
I0825 21:10:59.818888 32740 net.cpp:189] Rconv8 -> Rconv8
I0825 21:10:59.819669 32740 net.cpp:84] Top shape: 2 256 27 27 (373248)
I0825 21:10:59.819674 32740 net.cpp:116] Rconv8 does not need backward computation.
I0825 21:10:59.819677 32740 net.cpp:65] Creating Layer Rrelu8
I0825 21:10:59.819680 32740 net.cpp:228] Rrelu8 <- Rconv8
I0825 21:10:59.819686 32740 net.cpp:179] Rrelu8 -> Rconv8 (in-place)
I0825 21:10:59.819690 32740 net.cpp:84] Top shape: 2 256 27 27 (373248)
I0825 21:10:59.819694 32740 net.cpp:116] Rrelu8 does not need backward computation.
I0825 21:10:59.819699 32740 net.cpp:65] Creating Layer deconv2
I0825 21:10:59.819700 32740 net.cpp:228] deconv2 <- Rconv8
I0825 21:10:59.819706 32740 net.cpp:189] deconv2 -> deconv2
I0825 21:10:59.820765 32740 net.cpp:84] Top shape: 2 64 54 54 (373248)
I0825 21:10:59.820770 32740 net.cpp:116] deconv2 does not need backward computation.
I0825 21:10:59.820773 32740 net.cpp:65] Creating Layer relu_deconv2
I0825 21:10:59.820776 32740 net.cpp:228] relu_deconv2 <- deconv2
I0825 21:10:59.820780 32740 net.cpp:179] relu_deconv2 -> deconv2 (in-place)
I0825 21:10:59.820785 32740 net.cpp:84] Top shape: 2 64 54 54 (373248)
I0825 21:10:59.820788 32740 net.cpp:116] relu_deconv2 does not need backward computation.
I0825 21:10:59.820806 32740 net.cpp:65] Creating Layer deconv1
I0825 21:10:59.820808 32740 net.cpp:228] deconv1 <- deconv2
I0825 21:10:59.820814 32740 net.cpp:189] deconv1 -> deconv1
I0825 21:10:59.820960 32740 net.cpp:84] Top shape: 2 32 108 108 (746496)
I0825 21:10:59.820965 32740 net.cpp:116] deconv1 does not need backward computation.
I0825 21:10:59.820968 32740 net.cpp:65] Creating Layer relu_deconv1
I0825 21:10:59.820971 32740 net.cpp:228] relu_deconv1 <- deconv1
I0825 21:10:59.820977 32740 net.cpp:179] relu_deconv1 -> deconv1 (in-place)
I0825 21:10:59.820981 32740 net.cpp:84] Top shape: 2 32 108 108 (746496)
I0825 21:10:59.820984 32740 net.cpp:116] relu_deconv1 does not need backward computation.
I0825 21:10:59.820991 32740 net.cpp:65] Creating Layer deconv0
I0825 21:10:59.820992 32740 net.cpp:228] deconv0 <- deconv1
I0825 21:10:59.820996 32740 net.cpp:189] deconv0 -> deconv0
I0825 21:10:59.821043 32740 net.cpp:84] Top shape: 2 3 216 216 (279936)
I0825 21:10:59.821045 32740 net.cpp:116] deconv0 does not need backward computation.
I0825 21:10:59.821049 32740 net.cpp:65] Creating Layer loss
I0825 21:10:59.821051 32740 net.cpp:228] loss <- deconv0
I0825 21:10:59.821055 32740 net.cpp:228] loss <- target_ims
I0825 21:10:59.821059 32740 net.cpp:116] loss does not need backward computation.
I0825 21:10:59.821074 32740 net.cpp:238] Collecting Learning Rate and Weight Decay.
…
