…
    source: "/scr/r6/tgebru/inverting_conv/caffe_invert_alexnet/data/siggraph/tiny_summer_train_lmdb"
    mean_file: "/scr/r6/tgebru/timnit_caffe/data/ilsvrc12/imagenet_mean.binaryproto"
    batch_size: 12
    crop_size: 227
    mirror: false
    backend: LMDB
  }
}
layers {
  top: "target_ims"
  name: "target_ims"
  type: DATA
  data_param {
    source: "/scr/r6/tgebru/inverting_conv/caffe_invert_alexnet/data/siggraph/tiny_summer_train_lmdb"
    mean_file: "/scr/r6/tgebru/timnit_caffe/data/ilsvrc12/imagenet_mean.binaryproto"
    batch_size: 12
    crop_size: 216
    mirror: false
    backend: LMDB
  }
}
layers {
  bottom: "source_ims"
  top: "conv1"
  name: "conv1"
  type: CONVOLUTION
  blobs_lr: 0
  blobs_lr: 0
  weight_decay: 1
  weight_decay: 0
  convolution_param {
    num_output: 96
    kernel_size: 11
    stride: 4
    weight_filler {
      type: "gaussian"
      std: 0.01
    }
    bias_filler {
      type: "constant"
      value: 0
    }
  }
}
layers {
  bottom: "conv1"
  top: "conv1"
  name: "relu1"
  type: RELU
}
layers {
  bottom: "conv1"
  top: "pool1"
  name: "pool1"
  type: POOLING
  pooling_param {
    pool: MAX
    kernel_size: 3
    stride: 2
  }
}
layers {
  bottom: "pool1"
  top: "norm1"
  name: "norm1"
  type: LRN
  lrn_param {
    local_size: 5
    alpha: 0.0001
    beta: 0.75
  }
}
layers {
  bottom: "norm1"
  top: "Rconv6"
  name: "Rconv6"
  type: CONVOLUTION
  blobs_lr: 1
  blobs_lr: 2
  weight_decay: 1
  weight_decay: 0
  convolution_param {
    num_output: 256
    pad: 1
    kernel_size: 3
  }
}
layers {
  bottom: "Rconv6"
  top: "Rconv6"
  name: "Rrelu6"
  type: RELU
}
layers {
  bottom: "Rconv6"
  top: "Rconv7"
  name: "Rconv7"
  type: CONVOLUTION
  blobs_lr: 1
  blobs_lr: 2
  weight_decay: 1
  weight_decay: 0
  convolution_param {
    num_output: 256
    pad: 1
    kernel_size: 3
    group: 2
  }
}
layers {
  bottom: "Rconv7"
  top: "Rconv7"
  name: "Rrelu7"
  type: RELU
}
layers {
  bottom: "Rconv7"
  top: "Rconv8"
  name: "Rconv8"
  type: CONVOLUTION
  blobs_lr: 1
  blobs_lr: 2
  weight_decay: 1
  weight_decay: 0
  convolution_param {
    num_output: 256
    pad: 1
    kernel_size: 3
    group: 2
  }
}
layers {
  bottom: "Rconv8"
  top: "Rconv8"
  name: "Rrelu8"
  type: RELU
}
layers {
  bottom: "Rconv8"
  top: "deconv2"
  name: "deconv2"
  type: DECONVOLUTION
  blobs_lr: 1
  blobs_lr: 2
  weight_decay: 1
  weight_decay: 0
  deconvolution_param {
    pad: 2
    kernel_size: 5
    stride: 2
    output_height: 54
    output_width: 54
    output_channels: 64
  }
}
layers {
  bottom: "deconv2"
  top: "deconv2"
  name: "relu_deconv2"
  type: RELU
  relu_param {
    negative_slope: 0.3
  }
}
layers {
  bottom: "deconv2"
  top: "deconv1"
  name: "deconv1"
  type: DECONVOLUTION
  blobs_lr: 1
  blobs_lr: 2
  weight_decay: 1
  weight_decay: 0
  deconvolution_param {
    pad: 2
    kernel_size: 5
    stride: 2
    output_height: 108
    output_width: 108
    output_channels: 32
  }
}
layers {
  bottom: "deconv1"
  top: "deconv1"
  name: "relu_deconv1"
  type: RELU
  relu_param {
    negative_slope: 0.3
  }
}
layers {
  bottom: "deconv1"
  top: "deconv0"
  name: "deconv0"
  type: DECONVOLUTION
  blobs_lr: 1
  blobs_lr: 2
  weight_decay: 1
  weight_decay: 1
  deconvolution_param {
    pad: 2
    kernel_size: 5
    stride: 2
    output_height: 216
    output_width: 216
    output_channels: 3
  }
}
layers {
  bottom: "deconv0"
  bottom: "target_ims"
  name: "loss"
  type: EUCLIDEAN_LOSS
}
I0813 10:37:05.653656 16306 net.cpp:65] Creating Layer source_ims
I0813 10:37:05.653667 16306 net.cpp:189] source_ims -> source_ims
I0813 10:37:05.653786 16306 data_layer.cpp:223] Opening lmdb /scr/r6/tgebru/inverting_conv/caffe_invert_alexnet/data/siggraph/tiny_summer_train_lmdb
I0813 10:37:05.653997 16306 data_layer.cpp:285] output data size: 12,3,227,227
I0813 10:37:05.654003 16306 data_layer.cpp:304] Loading mean file from/scr/r6/tgebru/timnit_caffe/data/ilsvrc12/imagenet_mean.binaryproto
I0813 10:37:05.658888 16306 net.cpp:84] Top shape: 12 3 227 227 (1855044)
I0813 10:37:05.658896 16306 net.cpp:116] source_ims does not need backward computation.
I0813 10:37:05.658903 16306 net.cpp:65] Creating Layer target_ims
I0813 10:37:05.658907 16306 net.cpp:189] target_ims -> target_ims
I0813 10:37:05.659014 16306 data_layer.cpp:223] Opening lmdb /scr/r6/tgebru/inverting_conv/caffe_invert_alexnet/data/siggraph/tiny_summer_train_lmdb
I0813 10:37:05.659106 16306 data_layer.cpp:285] output data size: 12,3,216,216
I0813 10:37:05.659111 16306 data_layer.cpp:304] Loading mean file from/scr/r6/tgebru/timnit_caffe/data/ilsvrc12/imagenet_mean.binaryproto
I0813 10:37:05.662860 16306 net.cpp:84] Top shape: 12 3 216 216 (1679616)
I0813 10:37:05.662868 16306 net.cpp:116] target_ims does not need backward computation.
I0813 10:37:05.662874 16306 net.cpp:65] Creating Layer conv1
I0813 10:37:05.662878 16306 net.cpp:228] conv1 <- source_ims
I0813 10:37:05.662919 16306 net.cpp:189] conv1 -> conv1
I0813 10:37:05.664197 16306 net.cpp:84] Top shape: 12 96 55 55 (3484800)
I0813 10:37:05.664202 16306 net.cpp:116] conv1 does not need backward computation.
I0813 10:37:05.664207 16306 net.cpp:65] Creating Layer relu1
I0813 10:37:05.664211 16306 net.cpp:228] relu1 <- conv1
I0813 10:37:05.664216 16306 net.cpp:179] relu1 -> conv1 (in-place)
I0813 10:37:05.664225 16306 net.cpp:84] Top shape: 12 96 55 55 (3484800)
I0813 10:37:05.664228 16306 net.cpp:116] relu1 does not need backward computation.
I0813 10:37:05.664233 16306 net.cpp:65] Creating Layer pool1
I0813 10:37:05.664237 16306 net.cpp:228] pool1 <- conv1
I0813 10:37:05.664240 16306 net.cpp:189] pool1 -> pool1
I0813 10:37:05.664253 16306 net.cpp:84] Top shape: 12 96 27 27 (839808)
I0813 10:37:05.664257 16306 net.cpp:116] pool1 does not need backward computation.
I0813 10:37:05.664261 16306 net.cpp:65] Creating Layer norm1
I0813 10:37:05.664264 16306 net.cpp:228] norm1 <- pool1
I0813 10:37:05.664268 16306 net.cpp:189] norm1 -> norm1
I0813 10:37:05.664278 16306 net.cpp:84] Top shape: 12 96 27 27 (839808)
I0813 10:37:05.664281 16306 net.cpp:116] norm1 does not need backward computation.
I0813 10:37:05.664285 16306 net.cpp:65] Creating Layer Rconv6
I0813 10:37:05.664289 16306 net.cpp:228] Rconv6 <- norm1
I0813 10:37:05.664294 16306 net.cpp:189] Rconv6 -> Rconv6
I0813 10:37:05.664463 16306 net.cpp:84] Top shape: 12 256 27 27 (2239488)
I0813 10:37:05.664468 16306 net.cpp:111] Rconv6 needs backward computation.
I0813 10:37:05.664471 16306 net.cpp:65] Creating Layer Rrelu6
I0813 10:37:05.664474 16306 net.cpp:228] Rrelu6 <- Rconv6
I0813 10:37:05.664479 16306 net.cpp:179] Rrelu6 -> Rconv6 (in-place)
I0813 10:37:05.664484 16306 net.cpp:84] Top shape: 12 256 27 27 (2239488)
I0813 10:37:05.664486 16306 net.cpp:111] Rrelu6 needs backward computation.
I0813 10:37:05.664491 16306 net.cpp:65] Creating Layer Rconv7
I0813 10:37:05.664494 16306 net.cpp:228] Rconv7 <- Rconv6
I0813 10:37:05.664499 16306 net.cpp:189] Rconv7 -> Rconv7
I0813 10:37:05.665220 16306 net.cpp:84] Top shape: 12 256 27 27 (2239488)
I0813 10:37:05.665225 16306 net.cpp:111] Rconv7 needs backward computation.
I0813 10:37:05.665228 16306 net.cpp:65] Creating Layer Rrelu7
I0813 10:37:05.665231 16306 net.cpp:228] Rrelu7 <- Rconv7
I0813 10:37:05.665256 16306 net.cpp:179] Rrelu7 -> Rconv7 (in-place)
I0813 10:37:05.665261 16306 net.cpp:84] Top shape: 12 256 27 27 (2239488)
I0813 10:37:05.665264 16306 net.cpp:111] Rrelu7 needs backward computation.
I0813 10:37:05.665268 16306 net.cpp:65] Creating Layer Rconv8
I0813 10:37:05.665271 16306 net.cpp:228] Rconv8 <- Rconv7
I0813 10:37:05.665274 16306 net.cpp:189] Rconv8 -> Rconv8
I0813 10:37:05.666020 16306 net.cpp:84] Top shape: 12 256 27 27 (2239488)
I0813 10:37:05.666024 16306 net.cpp:111] Rconv8 needs backward computation.
I0813 10:37:05.666028 16306 net.cpp:65] Creating Layer Rrelu8
I0813 10:37:05.666031 16306 net.cpp:228] Rrelu8 <- Rconv8
I0813 10:37:05.666035 16306 net.cpp:179] Rrelu8 -> Rconv8 (in-place)
I0813 10:37:05.666039 16306 net.cpp:84] Top shape: 12 256 27 27 (2239488)
I0813 10:37:05.666041 16306 net.cpp:111] Rrelu8 needs backward computation.
I0813 10:37:05.666046 16306 net.cpp:65] Creating Layer deconv2
I0813 10:37:05.666049 16306 net.cpp:228] deconv2 <- Rconv8
I0813 10:37:05.666052 16306 net.cpp:189] deconv2 -> deconv2
I0813 10:37:05.667069 16306 net.cpp:84] Top shape: 12 64 54 54 (2239488)
I0813 10:37:05.667074 16306 net.cpp:111] deconv2 needs backward computation.
I0813 10:37:05.667079 16306 net.cpp:65] Creating Layer relu_deconv2
I0813 10:37:05.667081 16306 net.cpp:228] relu_deconv2 <- deconv2
I0813 10:37:05.667085 16306 net.cpp:179] relu_deconv2 -> deconv2 (in-place)
I0813 10:37:05.667090 16306 net.cpp:84] Top shape: 12 64 54 54 (2239488)
I0813 10:37:05.667093 16306 net.cpp:111] relu_deconv2 needs backward computation.
I0813 10:37:05.667098 16306 net.cpp:65] Creating Layer deconv1
I0813 10:37:05.667099 16306 net.cpp:228] deconv1 <- deconv2
I0813 10:37:05.667104 16306 net.cpp:189] deconv1 -> deconv1
I0813 10:37:05.667243 16306 net.cpp:84] Top shape: 12 32 108 108 (4478976)
I0813 10:37:05.667248 16306 net.cpp:111] deconv1 needs backward computation.
I0813 10:37:05.667251 16306 net.cpp:65] Creating Layer relu_deconv1
I0813 10:37:05.667254 16306 net.cpp:228] relu_deconv1 <- deconv1
I0813 10:37:05.667258 16306 net.cpp:179] relu_deconv1 -> deconv1 (in-place)
I0813 10:37:05.667263 16306 net.cpp:84] Top shape: 12 32 108 108 (4478976)
I0813 10:37:05.667265 16306 net.cpp:111] relu_deconv1 needs backward computation.
I0813 10:37:05.667270 16306 net.cpp:65] Creating Layer deconv0
I0813 10:37:05.667273 16306 net.cpp:228] deconv0 <- deconv1
I0813 10:37:05.667276 16306 net.cpp:189] deconv0 -> deconv0
I0813 10:37:05.667295 16306 net.cpp:84] Top shape: 12 3 216 216 (1679616)
I0813 10:37:05.667299 16306 net.cpp:111] deconv0 needs backward computation.
I0813 10:37:05.667302 16306 net.cpp:65] Creating Layer loss
I0813 10:37:05.667305 16306 net.cpp:228] loss <- deconv0
I0813 10:37:05.667309 16306 net.cpp:228] loss <- target_ims
I0813 10:37:05.667317 16306 net.cpp:111] loss needs backward computation.
I0813 10:37:05.667330 16306 net.cpp:238] Collecting Learning Rate and Weight Decay.
…
    source: "/scr/r6/tgebru/inverting_conv/caffe_invert_alexnet/data/siggraph/tiny_summer_val_lmdb"
    mean_file: "/scr/r6/tgebru/timnit_caffe/data/ilsvrc12/imagenet_mean.binaryproto"
    batch_size: 2
    crop_size: 227
    mirror: false
    backend: LMDB
  }
}
layers {
  top: "target_ims"
  name: "target_ims"
  type: DATA
  data_param {
    source: "/scr/r6/tgebru/inverting_conv/caffe_invert_alexnet/data/siggraph/tiny_summer_val_lmdb"
    mean_file: "/scr/r6/tgebru/timnit_caffe/data/ilsvrc12/imagenet_mean.binaryproto"
    batch_size: 2
    crop_size: 216
    mirror: false
    backend: LMDB
  }
}
layers {
  bottom: "source_ims"
  top: "conv1"
  name: "conv1"
  type: CONVOLUTION
  blobs_lr: 0
  blobs_lr: 0
  weight_decay: 1
  weight_decay: 0
  convolution_param {
    num_output: 96
    kernel_size: 11
    stride: 4
    weight_filler {
      type: "gaussian"
      std: 0.01
    }
    bias_filler {
      type: "constant"
      value: 0
    }
  }
}
layers {
  bottom: "conv1"
  top: "conv1"
  name: "relu1"
  type: RELU
}
layers {
  bottom: "conv1"
  top: "pool1"
  name: "pool1"
  type: POOLING
  pooling_param {
    pool: MAX
    kernel_size: 3
    stride: 2
  }
}
layers {
  bottom: "pool1"
  top: "norm1"
  name: "norm1"
  type: LRN
  lrn_param {
    local_size: 5
    alpha: 0.0001
    beta: 0.75
  }
}
layers {
  bottom: "norm1"
  top: "Rconv6"
  name: "Rconv6"
  type: CONVOLUTION
  blobs_lr: 0
  blobs_lr: 0
  weight_decay: 1
  weight_decay: 0
  convolution_param {
    num_output: 256
    pad: 1
    kernel_size: 3
  }
}
layers {
  bottom: "Rconv6"
  top: "Rconv6"
  name: "Rrelu6"
  type: RELU
}
layers {
  bottom: "Rconv6"
  top: "Rconv7"
  name: "Rconv7"
  type: CONVOLUTION
  blobs_lr: 0
  blobs_lr: 0
  weight_decay: 1
  weight_decay: 0
  convolution_param {
    num_output: 256
    pad: 1
    kernel_size: 3
    group: 2
  }
}
layers {
  bottom: "Rconv7"
  top: "Rconv7"
  name: "Rrelu7"
  type: RELU
}
layers {
  bottom: "Rconv7"
  top: "Rconv8"
  name: "Rconv8"
  type: CONVOLUTION
  blobs_lr: 0
  blobs_lr: 0
  weight_decay: 1
  weight_decay: 0
  convolution_param {
    num_output: 256
    pad: 1
    kernel_size: 3
    group: 2
  }
}
layers {
  bottom: "Rconv8"
  top: "Rconv8"
  name: "Rrelu8"
  type: RELU
}
layers {
  bottom: "Rconv8"
  top: "deconv2"
  name: "deconv2"
  type: DECONVOLUTION
  blobs_lr: 0
  blobs_lr: 0
  weight_decay: 1
  weight_decay: 0
  deconvolution_param {
    pad: 2
    kernel_size: 5
    stride: 2
    output_height: 54
    output_width: 54
    output_channels: 64
  }
}
layers {
  bottom: "deconv2"
  top: "deconv2"
  name: "relu_deconv2"
  type: RELU
  relu_param {
    negative_slope: 0.3
  }
}
layers {
  bottom: "deconv2"
  top: "deconv1"
  name: "deconv1"
  type: DECONVOLUTION
  blobs_lr: 0
  blobs_lr: 0
  weight_decay: 1
  weight_decay: 0
  deconvolution_param {
    pad: 2
    kernel_size: 5
    stride: 2
    output_height: 108
    output_width: 108
    output_channels: 32
  }
}
layers {
  bottom: "deconv1"
  top: "deconv1"
  name: "relu_deconv1"
  type: RELU
  relu_param {
    negative_slope: 0.3
  }
}
layers {
  bottom: "deconv1"
  top: "deconv0"
  name: "deconv0"
  type: DECONVOLUTION
  blobs_lr: 0
  blobs_lr: 0
  weight_decay: 1
  weight_decay: 0
  deconvolution_param {
    pad: 2
    kernel_size: 5
    stride: 2
    output_height: 216
    output_width: 216
    output_channels: 3
  }
}
layers {
  bottom: "deconv0"
  bottom: "target_ims"
  name: "loss"
  type: EUCLIDEAN_LOSS
}
I0813 10:37:05.668047 16306 net.cpp:65] Creating Layer source_ims
I0813 10:37:05.668052 16306 net.cpp:189] source_ims -> source_ims
I0813 10:37:05.668107 16306 data_layer.cpp:223] Opening lmdb /scr/r6/tgebru/inverting_conv/caffe_invert_alexnet/data/siggraph/tiny_summer_val_lmdb
I0813 10:37:05.668299 16306 data_layer.cpp:285] output data size: 2,3,227,227
I0813 10:37:05.668303 16306 data_layer.cpp:304] Loading mean file from/scr/r6/tgebru/timnit_caffe/data/ilsvrc12/imagenet_mean.binaryproto
I0813 10:37:05.670558 16306 net.cpp:84] Top shape: 2 3 227 227 (309174)
I0813 10:37:05.670567 16306 net.cpp:116] source_ims does not need backward computation.
I0813 10:37:05.670572 16306 net.cpp:65] Creating Layer target_ims
I0813 10:37:05.670577 16306 net.cpp:189] target_ims -> target_ims
I0813 10:37:05.670617 16306 data_layer.cpp:223] Opening lmdb /scr/r6/tgebru/inverting_conv/caffe_invert_alexnet/data/siggraph/tiny_summer_val_lmdb
I0813 10:37:05.670687 16306 data_layer.cpp:285] output data size: 2,3,216,216
I0813 10:37:05.670691 16306 data_layer.cpp:304] Loading mean file from/scr/r6/tgebru/timnit_caffe/data/ilsvrc12/imagenet_mean.binaryproto
I0813 10:37:05.672842 16306 net.cpp:84] Top shape: 2 3 216 216 (279936)
I0813 10:37:05.672848 16306 net.cpp:116] target_ims does not need backward computation.
I0813 10:37:05.672868 16306 net.cpp:65] Creating Layer conv1
I0813 10:37:05.672871 16306 net.cpp:228] conv1 <- source_ims
I0813 10:37:05.672878 16306 net.cpp:189] conv1 -> conv1
I0813 10:37:05.674124 16306 net.cpp:84] Top shape: 2 96 55 55 (580800)
I0813 10:37:05.674129 16306 net.cpp:116] conv1 does not need backward computation.
I0813 10:37:05.674132 16306 net.cpp:65] Creating Layer relu1
I0813 10:37:05.674135 16306 net.cpp:228] relu1 <- conv1
I0813 10:37:05.674139 16306 net.cpp:179] relu1 -> conv1 (in-place)
I0813 10:37:05.674144 16306 net.cpp:84] Top shape: 2 96 55 55 (580800)
I0813 10:37:05.674147 16306 net.cpp:116] relu1 does not need backward computation.
I0813 10:37:05.674151 16306 net.cpp:65] Creating Layer pool1
I0813 10:37:05.674154 16306 net.cpp:228] pool1 <- conv1
I0813 10:37:05.674159 16306 net.cpp:189] pool1 -> pool1
I0813 10:37:05.674165 16306 net.cpp:84] Top shape: 2 96 27 27 (139968)
I0813 10:37:05.674167 16306 net.cpp:116] pool1 does not need backward computation.
I0813 10:37:05.674170 16306 net.cpp:65] Creating Layer norm1
I0813 10:37:05.674173 16306 net.cpp:228] norm1 <- pool1
I0813 10:37:05.674177 16306 net.cpp:189] norm1 -> norm1
I0813 10:37:05.674182 16306 net.cpp:84] Top shape: 2 96 27 27 (139968)
I0813 10:37:05.674185 16306 net.cpp:116] norm1 does not need backward computation.
I0813 10:37:05.674190 16306 net.cpp:65] Creating Layer Rconv6
I0813 10:37:05.674191 16306 net.cpp:228] Rconv6 <- norm1
I0813 10:37:05.674196 16306 net.cpp:189] Rconv6 -> Rconv6
I0813 10:37:05.674739 16306 net.cpp:84] Top shape: 2 256 27 27 (373248)
I0813 10:37:05.674744 16306 net.cpp:116] Rconv6 does not need backward computation.
I0813 10:37:05.674748 16306 net.cpp:65] Creating Layer Rrelu6
I0813 10:37:05.674751 16306 net.cpp:228] Rrelu6 <- Rconv6
I0813 10:37:05.674756 16306 net.cpp:179] Rrelu6 -> Rconv6 (in-place)
I0813 10:37:05.674759 16306 net.cpp:84] Top shape: 2 256 27 27 (373248)
I0813 10:37:05.674762 16306 net.cpp:116] Rrelu6 does not need backward computation.
I0813 10:37:05.674767 16306 net.cpp:65] Creating Layer Rconv7
I0813 10:37:05.674769 16306 net.cpp:228] Rconv7 <- Rconv6
I0813 10:37:05.674773 16306 net.cpp:189] Rconv7 -> Rconv7
I0813 10:37:05.675484 16306 net.cpp:84] Top shape: 2 256 27 27 (373248)
I0813 10:37:05.675488 16306 net.cpp:116] Rconv7 does not need backward computation.
I0813 10:37:05.675493 16306 net.cpp:65] Creating Layer Rrelu7
I0813 10:37:05.675495 16306 net.cpp:228] Rrelu7 <- Rconv7
I0813 10:37:05.675499 16306 net.cpp:179] Rrelu7 -> Rconv7 (in-place)
I0813 10:37:05.675503 16306 net.cpp:84] Top shape: 2 256 27 27 (373248)
I0813 10:37:05.675506 16306 net.cpp:116] Rrelu7 does not need backward computation.
I0813 10:37:05.675509 16306 net.cpp:65] Creating Layer Rconv8
I0813 10:37:05.675513 16306 net.cpp:228] Rconv8 <- Rconv7
I0813 10:37:05.675516 16306 net.cpp:189] Rconv8 -> Rconv8
I0813 10:37:05.676225 16306 net.cpp:84] Top shape: 2 256 27 27 (373248)
I0813 10:37:05.676230 16306 net.cpp:116] Rconv8 does not need backward computation.
I0813 10:37:05.676234 16306 net.cpp:65] Creating Layer Rrelu8
I0813 10:37:05.676236 16306 net.cpp:228] Rrelu8 <- Rconv8
I0813 10:37:05.676240 16306 net.cpp:179] Rrelu8 -> Rconv8 (in-place)
I0813 10:37:05.676244 16306 net.cpp:84] Top shape: 2 256 27 27 (373248)
I0813 10:37:05.676247 16306 net.cpp:116] Rrelu8 does not need backward computation.
I0813 10:37:05.676252 16306 net.cpp:65] Creating Layer deconv2
I0813 10:37:05.676254 16306 net.cpp:228] deconv2 <- Rconv8
I0813 10:37:05.676259 16306 net.cpp:189] deconv2 -> deconv2
I0813 10:37:05.677239 16306 net.cpp:84] Top shape: 2 64 54 54 (373248)
I0813 10:37:05.677243 16306 net.cpp:116] deconv2 does not need backward computation.
I0813 10:37:05.677248 16306 net.cpp:65] Creating Layer relu_deconv2
I0813 10:37:05.677250 16306 net.cpp:228] relu_deconv2 <- deconv2
I0813 10:37:05.677254 16306 net.cpp:179] relu_deconv2 -> deconv2 (in-place)
I0813 10:37:05.677258 16306 net.cpp:84] Top shape: 2 64 54 54 (373248)
I0813 10:37:05.677261 16306 net.cpp:116] relu_deconv2 does not need backward computation.
I0813 10:37:05.677279 16306 net.cpp:65] Creating Layer deconv1
I0813 10:37:05.677283 16306 net.cpp:228] deconv1 <- deconv2
I0813 10:37:05.677286 16306 net.cpp:189] deconv1 -> deconv1
I0813 10:37:05.677429 16306 net.cpp:84] Top shape: 2 32 108 108 (746496)
I0813 10:37:05.677434 16306 net.cpp:116] deconv1 does not need backward computation.
I0813 10:37:05.677438 16306 net.cpp:65] Creating Layer relu_deconv1
I0813 10:37:05.677440 16306 net.cpp:228] relu_deconv1 <- deconv1
I0813 10:37:05.677444 16306 net.cpp:179] relu_deconv1 -> deconv1 (in-place)
I0813 10:37:05.677449 16306 net.cpp:84] Top shape: 2 32 108 108 (746496)
I0813 10:37:05.677451 16306 net.cpp:116] relu_deconv1 does not need backward computation.
I0813 10:37:05.677458 16306 net.cpp:65] Creating Layer deconv0
I0813 10:37:05.677459 16306 net.cpp:228] deconv0 <- deconv1
I0813 10:37:05.677464 16306 net.cpp:189] deconv0 -> deconv0
I0813 10:37:05.677484 16306 net.cpp:84] Top shape: 2 3 216 216 (279936)
I0813 10:37:05.677486 16306 net.cpp:116] deconv0 does not need backward computation.
I0813 10:37:05.677489 16306 net.cpp:65] Creating Layer loss
I0813 10:37:05.677492 16306 net.cpp:228] loss <- deconv0
I0813 10:37:05.677495 16306 net.cpp:228] loss <- target_ims
I0813 10:37:05.677500 16306 net.cpp:116] loss does not need backward computation.
I0813 10:37:05.677511 16306 net.cpp:238] Collecting Learning Rate and Weight Decay.
…
