…
    source: "/scr/r6/tgebru/inverting_conv/caffe_invert_alexnet/data/siggraph/tiny_summer_train_lmdb"
    mean_file: "/scr/r6/tgebru/timnit_caffe/data/ilsvrc12/imagenet_mean.binaryproto"
    batch_size: 12
    crop_size: 227
    mirror: false
    backend: LMDB
  }
}
layers {
  top: "target_ims"
  name: "target_ims"
  type: DATA
  data_param {
    source: "/scr/r6/tgebru/inverting_conv/caffe_invert_alexnet/data/siggraph/tiny_summer_train_lmdb"
    mean_file: "/scr/r6/tgebru/timnit_caffe/data/ilsvrc12/imagenet_mean.binaryproto"
    batch_size: 12
    crop_size: 216
    mirror: false
    backend: LMDB
  }
}
layers {
  bottom: "source_ims"
  top: "conv1"
  name: "conv1"
  type: CONVOLUTION
  blobs_lr: 0
  blobs_lr: 0
  weight_decay: 1
  weight_decay: 0
  convolution_param {
    num_output: 96
    kernel_size: 11
    stride: 4
    weight_filler {
      type: "gaussian"
      std: 0.01
    }
    bias_filler {
      type: "constant"
      value: 0
    }
  }
}
layers {
  bottom: "conv1"
  top: "conv1"
  name: "relu1"
  type: RELU
}
layers {
  bottom: "conv1"
  top: "pool1"
  name: "pool1"
  type: POOLING
  pooling_param {
    pool: MAX
    kernel_size: 3
    stride: 2
  }
}
layers {
  bottom: "pool1"
  top: "norm1"
  name: "norm1"
  type: LRN
  lrn_param {
    local_size: 5
    alpha: 0.0001
    beta: 0.75
  }
}
layers {
  bottom: "norm1"
  top: "Rconv6"
  name: "Rconv6"
  type: CONVOLUTION
  blobs_lr: 1
  blobs_lr: 2
  weight_decay: 1
  weight_decay: 0
  convolution_param {
    num_output: 256
    pad: 1
    kernel_size: 3
  }
}
layers {
  bottom: "Rconv6"
  top: "Rconv6"
  name: "Rrelu6"
  type: RELU
}
layers {
  bottom: "Rconv6"
  top: "Rconv7"
  name: "Rconv7"
  type: CONVOLUTION
  blobs_lr: 1
  blobs_lr: 2
  weight_decay: 1
  weight_decay: 0
  convolution_param {
    num_output: 256
    pad: 1
    kernel_size: 3
    group: 2
  }
}
layers {
  bottom: "Rconv7"
  top: "Rconv7"
  name: "Rrelu7"
  type: RELU
}
layers {
  bottom: "Rconv7"
  top: "Rconv8"
  name: "Rconv8"
  type: CONVOLUTION
  blobs_lr: 1
  blobs_lr: 2
  weight_decay: 1
  weight_decay: 0
  convolution_param {
    num_output: 256
    pad: 1
    kernel_size: 3
    group: 2
  }
}
layers {
  bottom: "Rconv8"
  top: "Rconv8"
  name: "Rrelu8"
  type: RELU
}
layers {
  bottom: "Rconv8"
  top: "deconv2"
  name: "deconv2"
  type: DECONVOLUTION
  blobs_lr: 1
  blobs_lr: 2
  weight_decay: 1
  weight_decay: 0
  deconvolution_param {
    pad: 2
    kernel_size: 5
    stride: 2
    output_height: 54
    output_width: 54
    output_channels: 64
  }
}
layers {
  bottom: "deconv2"
  top: "deconv2"
  name: "relu_deconv2"
  type: RELU
  relu_param {
    negative_slope: 0.3
  }
}
layers {
  bottom: "deconv2"
  top: "deconv1"
  name: "deconv1"
  type: DECONVOLUTION
  blobs_lr: 1
  blobs_lr: 2
  weight_decay: 1
  weight_decay: 0
  deconvolution_param {
    pad: 2
    kernel_size: 5
    stride: 2
    output_height: 108
    output_width: 108
    output_channels: 32
  }
}
layers {
  bottom: "deconv1"
  top: "deconv1"
  name: "relu_deconv1"
  type: RELU
  relu_param {
    negative_slope: 0.3
  }
}
layers {
  bottom: "deconv1"
  top: "deconv0"
  name: "deconv0"
  type: DECONVOLUTION
  blobs_lr: 1
  blobs_lr: 2
  weight_decay: 1
  weight_decay: 1
  deconvolution_param {
    pad: 2
    kernel_size: 5
    stride: 2
    output_height: 216
    output_width: 216
    output_channels: 3
  }
}
layers {
  bottom: "deconv0"
  bottom: "target_ims"
  name: "loss"
  type: EUCLIDEAN_LOSS
}
I0813 14:17:44.749953 12641 net.cpp:65] Creating Layer source_ims
I0813 14:17:44.749963 12641 net.cpp:189] source_ims -> source_ims
I0813 14:17:44.750068 12641 data_layer.cpp:223] Opening lmdb /scr/r6/tgebru/inverting_conv/caffe_invert_alexnet/data/siggraph/tiny_summer_train_lmdb
I0813 14:17:44.750272 12641 data_layer.cpp:285] output data size: 12,3,227,227
I0813 14:17:44.750278 12641 data_layer.cpp:304] Loading mean file from/scr/r6/tgebru/timnit_caffe/data/ilsvrc12/imagenet_mean.binaryproto
I0813 14:17:44.754916 12641 net.cpp:84] Top shape: 12 3 227 227 (1855044)
I0813 14:17:44.754925 12641 net.cpp:116] source_ims does not need backward computation.
I0813 14:17:44.754930 12641 net.cpp:65] Creating Layer target_ims
I0813 14:17:44.754935 12641 net.cpp:189] target_ims -> target_ims
I0813 14:17:44.755020 12641 data_layer.cpp:223] Opening lmdb /scr/r6/tgebru/inverting_conv/caffe_invert_alexnet/data/siggraph/tiny_summer_train_lmdb
I0813 14:17:44.755128 12641 data_layer.cpp:285] output data size: 12,3,216,216
I0813 14:17:44.755133 12641 data_layer.cpp:304] Loading mean file from/scr/r6/tgebru/timnit_caffe/data/ilsvrc12/imagenet_mean.binaryproto
I0813 14:17:44.759294 12641 net.cpp:84] Top shape: 12 3 216 216 (1679616)
I0813 14:17:44.759301 12641 net.cpp:116] target_ims does not need backward computation.
I0813 14:17:44.759310 12641 net.cpp:65] Creating Layer conv1
I0813 14:17:44.759313 12641 net.cpp:228] conv1 <- source_ims
I0813 14:17:44.759358 12641 net.cpp:189] conv1 -> conv1
I0813 14:17:44.760648 12641 net.cpp:84] Top shape: 12 96 55 55 (3484800)
I0813 14:17:44.760653 12641 net.cpp:116] conv1 does not need backward computation.
I0813 14:17:44.760658 12641 net.cpp:65] Creating Layer relu1
I0813 14:17:44.760661 12641 net.cpp:228] relu1 <- conv1
I0813 14:17:44.760666 12641 net.cpp:179] relu1 -> conv1 (in-place)
I0813 14:17:44.760675 12641 net.cpp:84] Top shape: 12 96 55 55 (3484800)
I0813 14:17:44.760679 12641 net.cpp:116] relu1 does not need backward computation.
I0813 14:17:44.760684 12641 net.cpp:65] Creating Layer pool1
I0813 14:17:44.760686 12641 net.cpp:228] pool1 <- conv1
I0813 14:17:44.760690 12641 net.cpp:189] pool1 -> pool1
I0813 14:17:44.760702 12641 net.cpp:84] Top shape: 12 96 27 27 (839808)
I0813 14:17:44.760705 12641 net.cpp:116] pool1 does not need backward computation.
I0813 14:17:44.760710 12641 net.cpp:65] Creating Layer norm1
I0813 14:17:44.760712 12641 net.cpp:228] norm1 <- pool1
I0813 14:17:44.760716 12641 net.cpp:189] norm1 -> norm1
I0813 14:17:44.760725 12641 net.cpp:84] Top shape: 12 96 27 27 (839808)
I0813 14:17:44.760728 12641 net.cpp:116] norm1 does not need backward computation.
I0813 14:17:44.760732 12641 net.cpp:65] Creating Layer Rconv6
I0813 14:17:44.760735 12641 net.cpp:228] Rconv6 <- norm1
I0813 14:17:44.760740 12641 net.cpp:189] Rconv6 -> Rconv6
I0813 14:17:44.760910 12641 net.cpp:84] Top shape: 12 256 27 27 (2239488)
I0813 14:17:44.760915 12641 net.cpp:111] Rconv6 needs backward computation.
I0813 14:17:44.760918 12641 net.cpp:65] Creating Layer Rrelu6
I0813 14:17:44.760921 12641 net.cpp:228] Rrelu6 <- Rconv6
I0813 14:17:44.760926 12641 net.cpp:179] Rrelu6 -> Rconv6 (in-place)
I0813 14:17:44.760929 12641 net.cpp:84] Top shape: 12 256 27 27 (2239488)
I0813 14:17:44.760932 12641 net.cpp:111] Rrelu6 needs backward computation.
I0813 14:17:44.760937 12641 net.cpp:65] Creating Layer Rconv7
I0813 14:17:44.760941 12641 net.cpp:228] Rconv7 <- Rconv6
I0813 14:17:44.760943 12641 net.cpp:189] Rconv7 -> Rconv7
I0813 14:17:44.761639 12641 net.cpp:84] Top shape: 12 256 27 27 (2239488)
I0813 14:17:44.761644 12641 net.cpp:111] Rconv7 needs backward computation.
I0813 14:17:44.761648 12641 net.cpp:65] Creating Layer Rrelu7
I0813 14:17:44.761651 12641 net.cpp:228] Rrelu7 <- Rconv7
I0813 14:17:44.761675 12641 net.cpp:179] Rrelu7 -> Rconv7 (in-place)
I0813 14:17:44.761680 12641 net.cpp:84] Top shape: 12 256 27 27 (2239488)
I0813 14:17:44.761683 12641 net.cpp:111] Rrelu7 needs backward computation.
I0813 14:17:44.761687 12641 net.cpp:65] Creating Layer Rconv8
I0813 14:17:44.761690 12641 net.cpp:228] Rconv8 <- Rconv7
I0813 14:17:44.761694 12641 net.cpp:189] Rconv8 -> Rconv8
I0813 14:17:44.762462 12641 net.cpp:84] Top shape: 12 256 27 27 (2239488)
I0813 14:17:44.762467 12641 net.cpp:111] Rconv8 needs backward computation.
I0813 14:17:44.762471 12641 net.cpp:65] Creating Layer Rrelu8
I0813 14:17:44.762475 12641 net.cpp:228] Rrelu8 <- Rconv8
I0813 14:17:44.762477 12641 net.cpp:179] Rrelu8 -> Rconv8 (in-place)
I0813 14:17:44.762481 12641 net.cpp:84] Top shape: 12 256 27 27 (2239488)
I0813 14:17:44.762485 12641 net.cpp:111] Rrelu8 needs backward computation.
I0813 14:17:44.762488 12641 net.cpp:65] Creating Layer deconv2
I0813 14:17:44.762491 12641 net.cpp:228] deconv2 <- Rconv8
I0813 14:17:44.762495 12641 net.cpp:189] deconv2 -> deconv2
I0813 14:17:44.763553 12641 net.cpp:84] Top shape: 12 64 54 54 (2239488)
I0813 14:17:44.763558 12641 net.cpp:111] deconv2 needs backward computation.
I0813 14:17:44.763562 12641 net.cpp:65] Creating Layer relu_deconv2
I0813 14:17:44.763566 12641 net.cpp:228] relu_deconv2 <- deconv2
I0813 14:17:44.763569 12641 net.cpp:179] relu_deconv2 -> deconv2 (in-place)
I0813 14:17:44.763573 12641 net.cpp:84] Top shape: 12 64 54 54 (2239488)
I0813 14:17:44.763576 12641 net.cpp:111] relu_deconv2 needs backward computation.
I0813 14:17:44.763581 12641 net.cpp:65] Creating Layer deconv1
I0813 14:17:44.763582 12641 net.cpp:228] deconv1 <- deconv2
I0813 14:17:44.763586 12641 net.cpp:189] deconv1 -> deconv1
I0813 14:17:44.763756 12641 net.cpp:84] Top shape: 12 32 108 108 (4478976)
I0813 14:17:44.763759 12641 net.cpp:111] deconv1 needs backward computation.
I0813 14:17:44.763763 12641 net.cpp:65] Creating Layer relu_deconv1
I0813 14:17:44.763767 12641 net.cpp:228] relu_deconv1 <- deconv1
I0813 14:17:44.763769 12641 net.cpp:179] relu_deconv1 -> deconv1 (in-place)
I0813 14:17:44.763774 12641 net.cpp:84] Top shape: 12 32 108 108 (4478976)
I0813 14:17:44.763777 12641 net.cpp:111] relu_deconv1 needs backward computation.
I0813 14:17:44.763782 12641 net.cpp:65] Creating Layer deconv0
I0813 14:17:44.763785 12641 net.cpp:228] deconv0 <- deconv1
I0813 14:17:44.763789 12641 net.cpp:189] deconv0 -> deconv0
I0813 14:17:44.763831 12641 net.cpp:84] Top shape: 12 3 216 216 (1679616)
I0813 14:17:44.763834 12641 net.cpp:111] deconv0 needs backward computation.
I0813 14:17:44.763839 12641 net.cpp:65] Creating Layer loss
I0813 14:17:44.763841 12641 net.cpp:228] loss <- deconv0
I0813 14:17:44.763844 12641 net.cpp:228] loss <- target_ims
I0813 14:17:44.763852 12641 net.cpp:111] loss needs backward computation.
I0813 14:17:44.763865 12641 net.cpp:238] Collecting Learning Rate and Weight Decay.
…
    source: "/scr/r6/tgebru/inverting_conv/caffe_invert_alexnet/data/siggraph/tiny_summer_val_lmdb"
    mean_file: "/scr/r6/tgebru/timnit_caffe/data/ilsvrc12/imagenet_mean.binaryproto"
    batch_size: 2
    crop_size: 227
    mirror: false
    backend: LMDB
  }
}
layers {
  top: "target_ims"
  name: "target_ims"
  type: DATA
  data_param {
    source: "/scr/r6/tgebru/inverting_conv/caffe_invert_alexnet/data/siggraph/tiny_summer_val_lmdb"
    mean_file: "/scr/r6/tgebru/timnit_caffe/data/ilsvrc12/imagenet_mean.binaryproto"
    batch_size: 2
    crop_size: 216
    mirror: false
    backend: LMDB
  }
}
layers {
  bottom: "source_ims"
  top: "conv1"
  name: "conv1"
  type: CONVOLUTION
  blobs_lr: 0
  blobs_lr: 0
  weight_decay: 1
  weight_decay: 0
  convolution_param {
    num_output: 96
    kernel_size: 11
    stride: 4
    weight_filler {
      type: "gaussian"
      std: 0.01
    }
    bias_filler {
      type: "constant"
      value: 0
    }
  }
}
layers {
  bottom: "conv1"
  top: "conv1"
  name: "relu1"
  type: RELU
}
layers {
  bottom: "conv1"
  top: "pool1"
  name: "pool1"
  type: POOLING
  pooling_param {
    pool: MAX
    kernel_size: 3
    stride: 2
  }
}
layers {
  bottom: "pool1"
  top: "norm1"
  name: "norm1"
  type: LRN
  lrn_param {
    local_size: 5
    alpha: 0.0001
    beta: 0.75
  }
}
layers {
  bottom: "norm1"
  top: "Rconv6"
  name: "Rconv6"
  type: CONVOLUTION
  blobs_lr: 0
  blobs_lr: 0
  weight_decay: 1
  weight_decay: 0
  convolution_param {
    num_output: 256
    pad: 1
    kernel_size: 3
  }
}
layers {
  bottom: "Rconv6"
  top: "Rconv6"
  name: "Rrelu6"
  type: RELU
}
layers {
  bottom: "Rconv6"
  top: "Rconv7"
  name: "Rconv7"
  type: CONVOLUTION
  blobs_lr: 0
  blobs_lr: 0
  weight_decay: 1
  weight_decay: 0
  convolution_param {
    num_output: 256
    pad: 1
    kernel_size: 3
    group: 2
  }
}
layers {
  bottom: "Rconv7"
  top: "Rconv7"
  name: "Rrelu7"
  type: RELU
}
layers {
  bottom: "Rconv7"
  top: "Rconv8"
  name: "Rconv8"
  type: CONVOLUTION
  blobs_lr: 0
  blobs_lr: 0
  weight_decay: 1
  weight_decay: 0
  convolution_param {
    num_output: 256
    pad: 1
    kernel_size: 3
    group: 2
  }
}
layers {
  bottom: "Rconv8"
  top: "Rconv8"
  name: "Rrelu8"
  type: RELU
}
layers {
  bottom: "Rconv8"
  top: "deconv2"
  name: "deconv2"
  type: DECONVOLUTION
  blobs_lr: 0
  blobs_lr: 0
  weight_decay: 1
  weight_decay: 0
  deconvolution_param {
    pad: 2
    kernel_size: 5
    stride: 2
    output_height: 54
    output_width: 54
    output_channels: 64
  }
}
layers {
  bottom: "deconv2"
  top: "deconv2"
  name: "relu_deconv2"
  type: RELU
  relu_param {
    negative_slope: 0.3
  }
}
layers {
  bottom: "deconv2"
  top: "deconv1"
  name: "deconv1"
  type: DECONVOLUTION
  blobs_lr: 0
  blobs_lr: 0
  weight_decay: 1
  weight_decay: 0
  deconvolution_param {
    pad: 2
    kernel_size: 5
    stride: 2
    output_height: 108
    output_width: 108
    output_channels: 32
  }
}
layers {
  bottom: "deconv1"
  top: "deconv1"
  name: "relu_deconv1"
  type: RELU
  relu_param {
    negative_slope: 0.3
  }
}
layers {
  bottom: "deconv1"
  top: "deconv0"
  name: "deconv0"
  type: DECONVOLUTION
  blobs_lr: 0
  blobs_lr: 0
  weight_decay: 1
  weight_decay: 0
  deconvolution_param {
    pad: 2
    kernel_size: 5
    stride: 2
    output_height: 216
    output_width: 216
    output_channels: 3
  }
}
layers {
  bottom: "deconv0"
  bottom: "target_ims"
  name: "loss"
  type: EUCLIDEAN_LOSS
}
I0813 14:17:44.764595 12641 net.cpp:65] Creating Layer source_ims
I0813 14:17:44.764600 12641 net.cpp:189] source_ims -> source_ims
I0813 14:17:44.764658 12641 data_layer.cpp:223] Opening lmdb /scr/r6/tgebru/inverting_conv/caffe_invert_alexnet/data/siggraph/tiny_summer_val_lmdb
I0813 14:17:44.764866 12641 data_layer.cpp:285] output data size: 2,3,227,227
I0813 14:17:44.764871 12641 data_layer.cpp:304] Loading mean file from/scr/r6/tgebru/timnit_caffe/data/ilsvrc12/imagenet_mean.binaryproto
I0813 14:17:44.767174 12641 net.cpp:84] Top shape: 2 3 227 227 (309174)
I0813 14:17:44.767180 12641 net.cpp:116] source_ims does not need backward computation.
I0813 14:17:44.767187 12641 net.cpp:65] Creating Layer target_ims
I0813 14:17:44.767190 12641 net.cpp:189] target_ims -> target_ims
I0813 14:17:44.767233 12641 data_layer.cpp:223] Opening lmdb /scr/r6/tgebru/inverting_conv/caffe_invert_alexnet/data/siggraph/tiny_summer_val_lmdb
I0813 14:17:44.767398 12641 data_layer.cpp:285] output data size: 2,3,216,216
I0813 14:17:44.767403 12641 data_layer.cpp:304] Loading mean file from/scr/r6/tgebru/timnit_caffe/data/ilsvrc12/imagenet_mean.binaryproto
I0813 14:17:44.769613 12641 net.cpp:84] Top shape: 2 3 216 216 (279936)
I0813 14:17:44.769619 12641 net.cpp:116] target_ims does not need backward computation.
I0813 14:17:44.769639 12641 net.cpp:65] Creating Layer conv1
I0813 14:17:44.769642 12641 net.cpp:228] conv1 <- source_ims
I0813 14:17:44.769649 12641 net.cpp:189] conv1 -> conv1
I0813 14:17:44.770889 12641 net.cpp:84] Top shape: 2 96 55 55 (580800)
I0813 14:17:44.770895 12641 net.cpp:116] conv1 does not need backward computation.
I0813 14:17:44.770898 12641 net.cpp:65] Creating Layer relu1
I0813 14:17:44.770901 12641 net.cpp:228] relu1 <- conv1
I0813 14:17:44.770905 12641 net.cpp:179] relu1 -> conv1 (in-place)
I0813 14:17:44.770910 12641 net.cpp:84] Top shape: 2 96 55 55 (580800)
I0813 14:17:44.770913 12641 net.cpp:116] relu1 does not need backward computation.
I0813 14:17:44.770918 12641 net.cpp:65] Creating Layer pool1
I0813 14:17:44.770920 12641 net.cpp:228] pool1 <- conv1
I0813 14:17:44.770925 12641 net.cpp:189] pool1 -> pool1
I0813 14:17:44.770931 12641 net.cpp:84] Top shape: 2 96 27 27 (139968)
I0813 14:17:44.770933 12641 net.cpp:116] pool1 does not need backward computation.
I0813 14:17:44.770938 12641 net.cpp:65] Creating Layer norm1
I0813 14:17:44.770941 12641 net.cpp:228] norm1 <- pool1
I0813 14:17:44.770944 12641 net.cpp:189] norm1 -> norm1
I0813 14:17:44.770951 12641 net.cpp:84] Top shape: 2 96 27 27 (139968)
I0813 14:17:44.770953 12641 net.cpp:116] norm1 does not need backward computation.
I0813 14:17:44.770957 12641 net.cpp:65] Creating Layer Rconv6
I0813 14:17:44.770961 12641 net.cpp:228] Rconv6 <- norm1
I0813 14:17:44.770964 12641 net.cpp:189] Rconv6 -> Rconv6
I0813 14:17:44.771563 12641 net.cpp:84] Top shape: 2 256 27 27 (373248)
I0813 14:17:44.771566 12641 net.cpp:116] Rconv6 does not need backward computation.
I0813 14:17:44.771570 12641 net.cpp:65] Creating Layer Rrelu6
I0813 14:17:44.771574 12641 net.cpp:228] Rrelu6 <- Rconv6
I0813 14:17:44.771579 12641 net.cpp:179] Rrelu6 -> Rconv6 (in-place)
I0813 14:17:44.771582 12641 net.cpp:84] Top shape: 2 256 27 27 (373248)
I0813 14:17:44.771585 12641 net.cpp:116] Rrelu6 does not need backward computation.
I0813 14:17:44.771590 12641 net.cpp:65] Creating Layer Rconv7
I0813 14:17:44.771592 12641 net.cpp:228] Rconv7 <- Rconv6
I0813 14:17:44.771596 12641 net.cpp:189] Rconv7 -> Rconv7
I0813 14:17:44.772332 12641 net.cpp:84] Top shape: 2 256 27 27 (373248)
I0813 14:17:44.772337 12641 net.cpp:116] Rconv7 does not need backward computation.
I0813 14:17:44.772341 12641 net.cpp:65] Creating Layer Rrelu7
I0813 14:17:44.772343 12641 net.cpp:228] Rrelu7 <- Rconv7
I0813 14:17:44.772347 12641 net.cpp:179] Rrelu7 -> Rconv7 (in-place)
I0813 14:17:44.772351 12641 net.cpp:84] Top shape: 2 256 27 27 (373248)
I0813 14:17:44.772354 12641 net.cpp:116] Rrelu7 does not need backward computation.
I0813 14:17:44.772357 12641 net.cpp:65] Creating Layer Rconv8
I0813 14:17:44.772361 12641 net.cpp:228] Rconv8 <- Rconv7
I0813 14:17:44.772364 12641 net.cpp:189] Rconv8 -> Rconv8
I0813 14:17:44.773094 12641 net.cpp:84] Top shape: 2 256 27 27 (373248)
I0813 14:17:44.773098 12641 net.cpp:116] Rconv8 does not need backward computation.
I0813 14:17:44.773102 12641 net.cpp:65] Creating Layer Rrelu8
I0813 14:17:44.773105 12641 net.cpp:228] Rrelu8 <- Rconv8
I0813 14:17:44.773108 12641 net.cpp:179] Rrelu8 -> Rconv8 (in-place)
I0813 14:17:44.773113 12641 net.cpp:84] Top shape: 2 256 27 27 (373248)
I0813 14:17:44.773115 12641 net.cpp:116] Rrelu8 does not need backward computation.
I0813 14:17:44.773119 12641 net.cpp:65] Creating Layer deconv2
I0813 14:17:44.773121 12641 net.cpp:228] deconv2 <- Rconv8
I0813 14:17:44.773125 12641 net.cpp:189] deconv2 -> deconv2
I0813 14:17:44.774153 12641 net.cpp:84] Top shape: 2 64 54 54 (373248)
I0813 14:17:44.774158 12641 net.cpp:116] deconv2 does not need backward computation.
I0813 14:17:44.774163 12641 net.cpp:65] Creating Layer relu_deconv2
I0813 14:17:44.774165 12641 net.cpp:228] relu_deconv2 <- deconv2
I0813 14:17:44.774169 12641 net.cpp:179] relu_deconv2 -> deconv2 (in-place)
I0813 14:17:44.774173 12641 net.cpp:84] Top shape: 2 64 54 54 (373248)
I0813 14:17:44.774176 12641 net.cpp:116] relu_deconv2 does not need backward computation.
I0813 14:17:44.774193 12641 net.cpp:65] Creating Layer deconv1
I0813 14:17:44.774195 12641 net.cpp:228] deconv1 <- deconv2
I0813 14:17:44.774199 12641 net.cpp:189] deconv1 -> deconv1
I0813 14:17:44.774340 12641 net.cpp:84] Top shape: 2 32 108 108 (746496)
I0813 14:17:44.774344 12641 net.cpp:116] deconv1 does not need backward computation.
I0813 14:17:44.774348 12641 net.cpp:65] Creating Layer relu_deconv1
I0813 14:17:44.774350 12641 net.cpp:228] relu_deconv1 <- deconv1
I0813 14:17:44.774354 12641 net.cpp:179] relu_deconv1 -> deconv1 (in-place)
I0813 14:17:44.774358 12641 net.cpp:84] Top shape: 2 32 108 108 (746496)
I0813 14:17:44.774361 12641 net.cpp:116] relu_deconv1 does not need backward computation.
I0813 14:17:44.774366 12641 net.cpp:65] Creating Layer deconv0
I0813 14:17:44.774369 12641 net.cpp:228] deconv0 <- deconv1
I0813 14:17:44.774372 12641 net.cpp:189] deconv0 -> deconv0
I0813 14:17:44.774390 12641 net.cpp:84] Top shape: 2 3 216 216 (279936)
I0813 14:17:44.774394 12641 net.cpp:116] deconv0 does not need backward computation.
I0813 14:17:44.774397 12641 net.cpp:65] Creating Layer loss
I0813 14:17:44.774400 12641 net.cpp:228] loss <- deconv0
I0813 14:17:44.774404 12641 net.cpp:228] loss <- target_ims
I0813 14:17:44.774408 12641 net.cpp:116] loss does not need backward computation.
I0813 14:17:44.774420 12641 net.cpp:238] Collecting Learning Rate and Weight Decay.
…
