…
    source: "/scr/r6/tgebru/inverting_conv/caffe_invert_alexnet/data/siggraph/tiny_summer_train_lmdb"
    mean_file: "/scr/r6/tgebru/timnit_caffe/data/ilsvrc12/imagenet_mean.binaryproto"
    batch_size: 12
    crop_size: 227
    mirror: false
    backend: LMDB
  }
}
layers {
  top: "target_ims"
  name: "target_ims"
  type: DATA
  data_param {
    source: "/scr/r6/tgebru/inverting_conv/caffe_invert_alexnet/data/siggraph/tiny_winter_train_lmdb"
    mean_file: "/scr/r6/tgebru/timnit_caffe/data/ilsvrc12/imagenet_mean.binaryproto"
    batch_size: 12
    crop_size: 216
    mirror: false
    backend: LMDB
  }
}
layers {
  bottom: "source_ims"
  top: "conv1"
  name: "conv1"
  type: CONVOLUTION
  blobs_lr: 0
  blobs_lr: 0
  weight_decay: 1
  weight_decay: 0
  convolution_param {
    num_output: 96
    kernel_size: 11
    stride: 4
    weight_filler {
      type: "gaussian"
      std: 0.01
    }
    bias_filler {
      type: "constant"
      value: 0
    }
  }
}
layers {
  bottom: "conv1"
  top: "conv1"
  name: "relu1"
  type: RELU
}
layers {
  bottom: "conv1"
  top: "pool1"
  name: "pool1"
  type: POOLING
  pooling_param {
    pool: MAX
    kernel_size: 3
    stride: 2
  }
}
layers {
  bottom: "pool1"
  top: "norm1"
  name: "norm1"
  type: LRN
  lrn_param {
    local_size: 5
    alpha: 0.0001
    beta: 0.75
  }
}
layers {
  bottom: "norm1"
  top: "Rconv6"
  name: "Rconv6"
  type: CONVOLUTION
  blobs_lr: 1
  blobs_lr: 2
  weight_decay: 1
  weight_decay: 0
  convolution_param {
    num_output: 256
    pad: 1
    kernel_size: 3
  }
}
layers {
  bottom: "Rconv6"
  top: "Rconv6"
  name: "Rrelu6"
  type: RELU
}
layers {
  bottom: "Rconv6"
  top: "Rconv7"
  name: "Rconv7"
  type: CONVOLUTION
  blobs_lr: 1
  blobs_lr: 2
  weight_decay: 1
  weight_decay: 0
  convolution_param {
    num_output: 256
    pad: 1
    kernel_size: 3
    group: 2
  }
}
layers {
  bottom: "Rconv7"
  top: "Rconv7"
  name: "Rrelu7"
  type: RELU
}
layers {
  bottom: "Rconv7"
  top: "Rconv8"
  name: "Rconv8"
  type: CONVOLUTION
  blobs_lr: 1
  blobs_lr: 2
  weight_decay: 1
  weight_decay: 0
  convolution_param {
    num_output: 256
    pad: 1
    kernel_size: 3
    group: 2
  }
}
layers {
  bottom: "Rconv8"
  top: "Rconv8"
  name: "Rrelu8"
  type: RELU
}
layers {
  bottom: "Rconv8"
  top: "deconv2"
  name: "deconv2"
  type: DECONVOLUTION
  blobs_lr: 1
  blobs_lr: 2
  weight_decay: 1
  weight_decay: 0
  deconvolution_param {
    pad: 2
    kernel_size: 5
    stride: 2
    output_height: 54
    output_width: 54
    output_channels: 64
  }
}
layers {
  bottom: "deconv2"
  top: "deconv2"
  name: "relu_deconv2"
  type: RELU
  relu_param {
    negative_slope: 0.3
  }
}
layers {
  bottom: "deconv2"
  top: "deconv1"
  name: "deconv1"
  type: DECONVOLUTION
  blobs_lr: 1
  blobs_lr: 2
  weight_decay: 1
  weight_decay: 0
  deconvolution_param {
    pad: 2
    kernel_size: 5
    stride: 2
    output_height: 108
    output_width: 108
    output_channels: 32
  }
}
layers {
  bottom: "deconv1"
  top: "deconv1"
  name: "relu_deconv1"
  type: RELU
  relu_param {
    negative_slope: 0.3
  }
}
layers {
  bottom: "deconv1"
  top: "deconv0"
  name: "deconv0"
  type: DECONVOLUTION
  blobs_lr: 1
  blobs_lr: 2
  weight_decay: 1
  weight_decay: 1
  deconvolution_param {
    pad: 2
    kernel_size: 5
    stride: 2
    output_height: 216
    output_width: 216
    output_channels: 3
  }
}
layers {
  bottom: "deconv0"
  bottom: "target_ims"
  name: "loss"
  type: EUCLIDEAN_LOSS
}
I0812 20:51:05.519876 21950 net.cpp:65] Creating Layer source_ims
I0812 20:51:05.519884 21950 net.cpp:189] source_ims -> source_ims
I0812 20:51:05.520004 21950 data_layer.cpp:223] Opening lmdb /scr/r6/tgebru/inverting_conv/caffe_invert_alexnet/data/siggraph/tiny_summer_train_lmdb
I0812 20:51:05.520221 21950 data_layer.cpp:285] output data size: 12,3,227,227
I0812 20:51:05.520228 21950 data_layer.cpp:304] Loading mean file from/scr/r6/tgebru/timnit_caffe/data/ilsvrc12/imagenet_mean.binaryproto
I0812 20:51:05.525607 21950 net.cpp:84] Top shape: 12 3 227 227 (1855044)
I0812 20:51:05.525616 21950 net.cpp:116] source_ims does not need backward computation.
I0812 20:51:05.525624 21950 net.cpp:65] Creating Layer target_ims
I0812 20:51:05.525629 21950 net.cpp:189] target_ims -> target_ims
I0812 20:51:05.525792 21950 data_layer.cpp:223] Opening lmdb /scr/r6/tgebru/inverting_conv/caffe_invert_alexnet/data/siggraph/tiny_winter_train_lmdb
I0812 20:51:05.525955 21950 data_layer.cpp:285] output data size: 12,3,216,216
I0812 20:51:05.525960 21950 data_layer.cpp:304] Loading mean file from/scr/r6/tgebru/timnit_caffe/data/ilsvrc12/imagenet_mean.binaryproto
I0812 20:51:05.530483 21950 net.cpp:84] Top shape: 12 3 216 216 (1679616)
I0812 20:51:05.530491 21950 net.cpp:116] target_ims does not need backward computation.
I0812 20:51:05.530503 21950 net.cpp:65] Creating Layer conv1
I0812 20:51:05.530505 21950 net.cpp:228] conv1 <- source_ims
I0812 20:51:05.530575 21950 net.cpp:189] conv1 -> conv1
I0812 20:51:05.531878 21950 net.cpp:84] Top shape: 12 96 55 55 (3484800)
I0812 20:51:05.531884 21950 net.cpp:116] conv1 does not need backward computation.
I0812 20:51:05.531889 21950 net.cpp:65] Creating Layer relu1
I0812 20:51:05.531893 21950 net.cpp:228] relu1 <- conv1
I0812 20:51:05.531898 21950 net.cpp:179] relu1 -> conv1 (in-place)
I0812 20:51:05.531906 21950 net.cpp:84] Top shape: 12 96 55 55 (3484800)
I0812 20:51:05.531909 21950 net.cpp:116] relu1 does not need backward computation.
I0812 20:51:05.531914 21950 net.cpp:65] Creating Layer pool1
I0812 20:51:05.531918 21950 net.cpp:228] pool1 <- conv1
I0812 20:51:05.531921 21950 net.cpp:189] pool1 -> pool1
I0812 20:51:05.531934 21950 net.cpp:84] Top shape: 12 96 27 27 (839808)
I0812 20:51:05.531937 21950 net.cpp:116] pool1 does not need backward computation.
I0812 20:51:05.531941 21950 net.cpp:65] Creating Layer norm1
I0812 20:51:05.531944 21950 net.cpp:228] norm1 <- pool1
I0812 20:51:05.531947 21950 net.cpp:189] norm1 -> norm1
I0812 20:51:05.531956 21950 net.cpp:84] Top shape: 12 96 27 27 (839808)
I0812 20:51:05.531960 21950 net.cpp:116] norm1 does not need backward computation.
I0812 20:51:05.531963 21950 net.cpp:65] Creating Layer Rconv6
I0812 20:51:05.531966 21950 net.cpp:228] Rconv6 <- norm1
I0812 20:51:05.531970 21950 net.cpp:189] Rconv6 -> Rconv6
I0812 20:51:05.532245 21950 net.cpp:84] Top shape: 12 256 27 27 (2239488)
I0812 20:51:05.532249 21950 net.cpp:111] Rconv6 needs backward computation.
I0812 20:51:05.532254 21950 net.cpp:65] Creating Layer Rrelu6
I0812 20:51:05.532258 21950 net.cpp:228] Rrelu6 <- Rconv6
I0812 20:51:05.532261 21950 net.cpp:179] Rrelu6 -> Rconv6 (in-place)
I0812 20:51:05.532266 21950 net.cpp:84] Top shape: 12 256 27 27 (2239488)
I0812 20:51:05.532269 21950 net.cpp:111] Rrelu6 needs backward computation.
I0812 20:51:05.532274 21950 net.cpp:65] Creating Layer Rconv7
I0812 20:51:05.532276 21950 net.cpp:228] Rconv7 <- Rconv6
I0812 20:51:05.532280 21950 net.cpp:189] Rconv7 -> Rconv7
I0812 20:51:05.533013 21950 net.cpp:84] Top shape: 12 256 27 27 (2239488)
I0812 20:51:05.533018 21950 net.cpp:111] Rconv7 needs backward computation.
I0812 20:51:05.533022 21950 net.cpp:65] Creating Layer Rrelu7
I0812 20:51:05.533046 21950 net.cpp:228] Rrelu7 <- Rconv7
I0812 20:51:05.533049 21950 net.cpp:179] Rrelu7 -> Rconv7 (in-place)
I0812 20:51:05.533053 21950 net.cpp:84] Top shape: 12 256 27 27 (2239488)
I0812 20:51:05.533056 21950 net.cpp:111] Rrelu7 needs backward computation.
I0812 20:51:05.533061 21950 net.cpp:65] Creating Layer Rconv8
I0812 20:51:05.533063 21950 net.cpp:228] Rconv8 <- Rconv7
I0812 20:51:05.533066 21950 net.cpp:189] Rconv8 -> Rconv8
I0812 20:51:05.533869 21950 net.cpp:84] Top shape: 12 256 27 27 (2239488)
I0812 20:51:05.533874 21950 net.cpp:111] Rconv8 needs backward computation.
I0812 20:51:05.533877 21950 net.cpp:65] Creating Layer Rrelu8
I0812 20:51:05.533880 21950 net.cpp:228] Rrelu8 <- Rconv8
I0812 20:51:05.533885 21950 net.cpp:179] Rrelu8 -> Rconv8 (in-place)
I0812 20:51:05.533888 21950 net.cpp:84] Top shape: 12 256 27 27 (2239488)
I0812 20:51:05.533891 21950 net.cpp:111] Rrelu8 needs backward computation.
I0812 20:51:05.533895 21950 net.cpp:65] Creating Layer deconv2
I0812 20:51:05.533898 21950 net.cpp:228] deconv2 <- Rconv8
I0812 20:51:05.533902 21950 net.cpp:189] deconv2 -> deconv2
I0812 20:51:05.534994 21950 net.cpp:84] Top shape: 12 64 54 54 (2239488)
I0812 20:51:05.534999 21950 net.cpp:111] deconv2 needs backward computation.
I0812 20:51:05.535004 21950 net.cpp:65] Creating Layer relu_deconv2
I0812 20:51:05.535007 21950 net.cpp:228] relu_deconv2 <- deconv2
I0812 20:51:05.535012 21950 net.cpp:179] relu_deconv2 -> deconv2 (in-place)
I0812 20:51:05.535015 21950 net.cpp:84] Top shape: 12 64 54 54 (2239488)
I0812 20:51:05.535018 21950 net.cpp:111] relu_deconv2 needs backward computation.
I0812 20:51:05.535022 21950 net.cpp:65] Creating Layer deconv1
I0812 20:51:05.535024 21950 net.cpp:228] deconv1 <- deconv2
I0812 20:51:05.535028 21950 net.cpp:189] deconv1 -> deconv1
I0812 20:51:05.535167 21950 net.cpp:84] Top shape: 12 32 108 108 (4478976)
I0812 20:51:05.535171 21950 net.cpp:111] deconv1 needs backward computation.
I0812 20:51:05.535176 21950 net.cpp:65] Creating Layer relu_deconv1
I0812 20:51:05.535178 21950 net.cpp:228] relu_deconv1 <- deconv1
I0812 20:51:05.535181 21950 net.cpp:179] relu_deconv1 -> deconv1 (in-place)
I0812 20:51:05.535187 21950 net.cpp:84] Top shape: 12 32 108 108 (4478976)
I0812 20:51:05.535188 21950 net.cpp:111] relu_deconv1 needs backward computation.
I0812 20:51:05.535193 21950 net.cpp:65] Creating Layer deconv0
I0812 20:51:05.535197 21950 net.cpp:228] deconv0 <- deconv1
I0812 20:51:05.535200 21950 net.cpp:189] deconv0 -> deconv0
I0812 20:51:05.535223 21950 net.cpp:84] Top shape: 12 3 216 216 (1679616)
I0812 20:51:05.535226 21950 net.cpp:111] deconv0 needs backward computation.
I0812 20:51:05.535230 21950 net.cpp:65] Creating Layer loss
I0812 20:51:05.535233 21950 net.cpp:228] loss <- deconv0
I0812 20:51:05.535236 21950 net.cpp:228] loss <- target_ims
I0812 20:51:05.535245 21950 net.cpp:111] loss needs backward computation.
I0812 20:51:05.535259 21950 net.cpp:238] Collecting Learning Rate and Weight Decay.
…
    source: "/scr/r6/tgebru/inverting_conv/caffe_invert_alexnet/data/siggraph/tiny_summer_val_lmdb"
    mean_file: "/scr/r6/tgebru/timnit_caffe/data/ilsvrc12/imagenet_mean.binaryproto"
    batch_size: 64
    crop_size: 227
    mirror: false
    backend: LMDB
  }
}
layers {
  top: "target_ims"
  name: "target_ims"
  type: DATA
  data_param {
    source: "/scr/r6/tgebru/inverting_conv/caffe_invert_alexnet/data/siggraph/tiny_winter_val_lmdb"
    mean_file: "/scr/r6/tgebru/timnit_caffe/data/ilsvrc12/imagenet_mean.binaryproto"
    batch_size: 64
    crop_size: 216
    mirror: false
    backend: LMDB
  }
}
layers {
  bottom: "source_ims"
  top: "conv1"
  name: "conv1"
  type: CONVOLUTION
  blobs_lr: 0
  blobs_lr: 0
  weight_decay: 1
  weight_decay: 0
  convolution_param {
    num_output: 96
    kernel_size: 11
    stride: 4
    weight_filler {
      type: "gaussian"
      std: 0.01
    }
    bias_filler {
      type: "constant"
      value: 0
    }
  }
}
layers {
  bottom: "conv1"
  top: "conv1"
  name: "relu1"
  type: RELU
}
layers {
  bottom: "conv1"
  top: "pool1"
  name: "pool1"
  type: POOLING
  pooling_param {
    pool: MAX
    kernel_size: 3
    stride: 2
  }
}
layers {
  bottom: "pool1"
  top: "norm1"
  name: "norm1"
  type: LRN
  lrn_param {
    local_size: 5
    alpha: 0.0001
    beta: 0.75
  }
}
layers {
  bottom: "norm1"
  top: "Rconv6"
  name: "Rconv6"
  type: CONVOLUTION
  blobs_lr: 0
  blobs_lr: 0
  weight_decay: 1
  weight_decay: 0
  convolution_param {
    num_output: 256
    pad: 1
    kernel_size: 3
  }
}
layers {
  bottom: "Rconv6"
  top: "Rconv6"
  name: "Rrelu6"
  type: RELU
}
layers {
  bottom: "Rconv6"
  top: "Rconv7"
  name: "Rconv7"
  type: CONVOLUTION
  blobs_lr: 0
  blobs_lr: 0
  weight_decay: 1
  weight_decay: 0
  convolution_param {
    num_output: 256
    pad: 1
    kernel_size: 3
    group: 2
  }
}
layers {
  bottom: "Rconv7"
  top: "Rconv7"
  name: "Rrelu7"
  type: RELU
}
layers {
  bottom: "Rconv7"
  top: "Rconv8"
  name: "Rconv8"
  type: CONVOLUTION
  blobs_lr: 0
  blobs_lr: 0
  weight_decay: 1
  weight_decay: 0
  convolution_param {
    num_output: 256
    pad: 1
    kernel_size: 3
    group: 2
  }
}
layers {
  bottom: "Rconv8"
  top: "Rconv8"
  name: "Rrelu8"
  type: RELU
}
layers {
  bottom: "Rconv8"
  top: "deconv2"
  name: "deconv2"
  type: DECONVOLUTION
  blobs_lr: 0
  blobs_lr: 0
  weight_decay: 1
  weight_decay: 0
  deconvolution_param {
    pad: 2
    kernel_size: 5
    stride: 2
    output_height: 54
    output_width: 54
    output_channels: 64
  }
}
layers {
  bottom: "deconv2"
  top: "deconv2"
  name: "relu_deconv2"
  type: RELU
  relu_param {
    negative_slope: 0.3
  }
}
layers {
  bottom: "deconv2"
  top: "deconv1"
  name: "deconv1"
  type: DECONVOLUTION
  blobs_lr: 0
  blobs_lr: 0
  weight_decay: 1
  weight_decay: 0
  deconvolution_param {
    pad: 2
    kernel_size: 5
    stride: 2
    output_height: 108
    output_width: 108
    output_channels: 32
  }
}
layers {
  bottom: "deconv1"
  top: "deconv1"
  name: "relu_deconv1"
  type: RELU
  relu_param {
    negative_slope: 0.3
  }
}
layers {
  bottom: "deconv1"
  top: "deconv0"
  name: "deconv0"
  type: DECONVOLUTION
  blobs_lr: 0
  blobs_lr: 0
  weight_decay: 1
  weight_decay: 0
  deconvolution_param {
    pad: 2
    kernel_size: 5
    stride: 2
    output_height: 216
    output_width: 216
    output_channels: 3
  }
}
layers {
  bottom: "deconv0"
  bottom: "target_ims"
  name: "loss"
  type: EUCLIDEAN_LOSS
}
I0812 20:51:05.536016 21950 net.cpp:65] Creating Layer source_ims
I0812 20:51:05.536022 21950 net.cpp:189] source_ims -> source_ims
I0812 20:51:05.536077 21950 data_layer.cpp:223] Opening lmdb /scr/r6/tgebru/inverting_conv/caffe_invert_alexnet/data/siggraph/tiny_summer_val_lmdb
I0812 20:51:05.536257 21950 data_layer.cpp:285] output data size: 64,3,227,227
I0812 20:51:05.536262 21950 data_layer.cpp:304] Loading mean file from/scr/r6/tgebru/timnit_caffe/data/ilsvrc12/imagenet_mean.binaryproto
I0812 20:51:05.550678 21950 net.cpp:84] Top shape: 64 3 227 227 (9893568)
I0812 20:51:05.550696 21950 net.cpp:116] source_ims does not need backward computation.
I0812 20:51:05.550709 21950 net.cpp:65] Creating Layer target_ims
I0812 20:51:05.550714 21950 net.cpp:189] target_ims -> target_ims
I0812 20:51:05.550807 21950 data_layer.cpp:223] Opening lmdb /scr/r6/tgebru/inverting_conv/caffe_invert_alexnet/data/siggraph/tiny_winter_val_lmdb
I0812 20:51:05.550945 21950 data_layer.cpp:285] output data size: 64,3,216,216
I0812 20:51:05.550948 21950 data_layer.cpp:304] Loading mean file from/scr/r6/tgebru/timnit_caffe/data/ilsvrc12/imagenet_mean.binaryproto
I0812 20:51:05.563397 21950 net.cpp:84] Top shape: 64 3 216 216 (8957952)
I0812 20:51:05.563469 21950 net.cpp:116] target_ims does not need backward computation.
I0812 20:51:05.563488 21950 net.cpp:65] Creating Layer conv1
I0812 20:51:05.563493 21950 net.cpp:228] conv1 <- source_ims
I0812 20:51:05.563500 21950 net.cpp:189] conv1 -> conv1
I0812 20:51:05.564764 21950 net.cpp:84] Top shape: 64 96 55 55 (18585600)
I0812 20:51:05.564769 21950 net.cpp:116] conv1 does not need backward computation.
I0812 20:51:05.564774 21950 net.cpp:65] Creating Layer relu1
I0812 20:51:05.564776 21950 net.cpp:228] relu1 <- conv1
I0812 20:51:05.564781 21950 net.cpp:179] relu1 -> conv1 (in-place)
I0812 20:51:05.564786 21950 net.cpp:84] Top shape: 64 96 55 55 (18585600)
I0812 20:51:05.564790 21950 net.cpp:116] relu1 does not need backward computation.
I0812 20:51:05.564795 21950 net.cpp:65] Creating Layer pool1
I0812 20:51:05.564797 21950 net.cpp:228] pool1 <- conv1
I0812 20:51:05.564801 21950 net.cpp:189] pool1 -> pool1
I0812 20:51:05.564808 21950 net.cpp:84] Top shape: 64 96 27 27 (4478976)
I0812 20:51:05.564811 21950 net.cpp:116] pool1 does not need backward computation.
I0812 20:51:05.564816 21950 net.cpp:65] Creating Layer norm1
I0812 20:51:05.564820 21950 net.cpp:228] norm1 <- pool1
I0812 20:51:05.564823 21950 net.cpp:189] norm1 -> norm1
I0812 20:51:05.564831 21950 net.cpp:84] Top shape: 64 96 27 27 (4478976)
I0812 20:51:05.564833 21950 net.cpp:116] norm1 does not need backward computation.
I0812 20:51:05.564837 21950 net.cpp:65] Creating Layer Rconv6
I0812 20:51:05.564839 21950 net.cpp:228] Rconv6 <- norm1
I0812 20:51:05.564843 21950 net.cpp:189] Rconv6 -> Rconv6
I0812 20:51:05.565078 21950 net.cpp:84] Top shape: 64 256 27 27 (11943936)
I0812 20:51:05.565083 21950 net.cpp:116] Rconv6 does not need backward computation.
I0812 20:51:05.565086 21950 net.cpp:65] Creating Layer Rrelu6
I0812 20:51:05.565089 21950 net.cpp:228] Rrelu6 <- Rconv6
I0812 20:51:05.565094 21950 net.cpp:179] Rrelu6 -> Rconv6 (in-place)
I0812 20:51:05.565099 21950 net.cpp:84] Top shape: 64 256 27 27 (11943936)
I0812 20:51:05.565101 21950 net.cpp:116] Rrelu6 does not need backward computation.
I0812 20:51:05.565107 21950 net.cpp:65] Creating Layer Rconv7
I0812 20:51:05.565110 21950 net.cpp:228] Rconv7 <- Rconv6
I0812 20:51:05.565114 21950 net.cpp:189] Rconv7 -> Rconv7
I0812 20:51:05.565881 21950 net.cpp:84] Top shape: 64 256 27 27 (11943936)
I0812 20:51:05.565884 21950 net.cpp:116] Rconv7 does not need backward computation.
I0812 20:51:05.565889 21950 net.cpp:65] Creating Layer Rrelu7
I0812 20:51:05.565891 21950 net.cpp:228] Rrelu7 <- Rconv7
I0812 20:51:05.565896 21950 net.cpp:179] Rrelu7 -> Rconv7 (in-place)
I0812 20:51:05.565901 21950 net.cpp:84] Top shape: 64 256 27 27 (11943936)
I0812 20:51:05.565902 21950 net.cpp:116] Rrelu7 does not need backward computation.
I0812 20:51:05.565907 21950 net.cpp:65] Creating Layer Rconv8
I0812 20:51:05.565909 21950 net.cpp:228] Rconv8 <- Rconv7
I0812 20:51:05.565913 21950 net.cpp:189] Rconv8 -> Rconv8
I0812 20:51:05.566704 21950 net.cpp:84] Top shape: 64 256 27 27 (11943936)
I0812 20:51:05.566709 21950 net.cpp:116] Rconv8 does not need backward computation.
I0812 20:51:05.566714 21950 net.cpp:65] Creating Layer Rrelu8
I0812 20:51:05.566716 21950 net.cpp:228] Rrelu8 <- Rconv8
I0812 20:51:05.566720 21950 net.cpp:179] Rrelu8 -> Rconv8 (in-place)
I0812 20:51:05.566725 21950 net.cpp:84] Top shape: 64 256 27 27 (11943936)
I0812 20:51:05.566727 21950 net.cpp:116] Rrelu8 does not need backward computation.
I0812 20:51:05.566731 21950 net.cpp:65] Creating Layer deconv2
I0812 20:51:05.566735 21950 net.cpp:228] deconv2 <- Rconv8
I0812 20:51:05.566738 21950 net.cpp:189] deconv2 -> deconv2
I0812 20:51:05.567751 21950 net.cpp:84] Top shape: 64 64 54 54 (11943936)
I0812 20:51:05.567756 21950 net.cpp:116] deconv2 does not need backward computation.
I0812 20:51:05.567760 21950 net.cpp:65] Creating Layer relu_deconv2
I0812 20:51:05.567764 21950 net.cpp:228] relu_deconv2 <- deconv2
I0812 20:51:05.567769 21950 net.cpp:179] relu_deconv2 -> deconv2 (in-place)
I0812 20:51:05.567772 21950 net.cpp:84] Top shape: 64 64 54 54 (11943936)
I0812 20:51:05.567787 21950 net.cpp:116] relu_deconv2 does not need backward computation.
I0812 20:51:05.567792 21950 net.cpp:65] Creating Layer deconv1
I0812 20:51:05.567795 21950 net.cpp:228] deconv1 <- deconv2
I0812 20:51:05.567798 21950 net.cpp:189] deconv1 -> deconv1
I0812 20:51:05.567936 21950 net.cpp:84] Top shape: 64 32 108 108 (23887872)
I0812 20:51:05.567940 21950 net.cpp:116] deconv1 does not need backward computation.
I0812 20:51:05.567945 21950 net.cpp:65] Creating Layer relu_deconv1
I0812 20:51:05.567947 21950 net.cpp:228] relu_deconv1 <- deconv1
I0812 20:51:05.567951 21950 net.cpp:179] relu_deconv1 -> deconv1 (in-place)
I0812 20:51:05.567956 21950 net.cpp:84] Top shape: 64 32 108 108 (23887872)
I0812 20:51:05.567958 21950 net.cpp:116] relu_deconv1 does not need backward computation.
I0812 20:51:05.567965 21950 net.cpp:65] Creating Layer deconv0
I0812 20:51:05.567967 21950 net.cpp:228] deconv0 <- deconv1
I0812 20:51:05.567972 21950 net.cpp:189] deconv0 -> deconv0
I0812 20:51:05.567996 21950 net.cpp:84] Top shape: 64 3 216 216 (8957952)
I0812 20:51:05.567999 21950 net.cpp:116] deconv0 does not need backward computation.
I0812 20:51:05.568003 21950 net.cpp:65] Creating Layer loss
I0812 20:51:05.568006 21950 net.cpp:228] loss <- deconv0
I0812 20:51:05.568008 21950 net.cpp:228] loss <- target_ims
I0812 20:51:05.568014 21950 net.cpp:116] loss does not need backward computation.
I0812 20:51:05.568027 21950 net.cpp:238] Collecting Learning Rate and Weight Decay.
…
