…
    source: "/scr/r6/tgebru/inverting_conv/caffe_invert_alexnet/data/siggraph/tiny_summer_train_lmdb"
    mean_file: "/scr/r6/tgebru/timnit_caffe/data/ilsvrc12/imagenet_mean.binaryproto"
    batch_size: 12
    crop_size: 227
    mirror: false
    backend: LMDB
  }
}
layers {
  top: "target_ims"
  name: "target_ims"
  type: DATA
  data_param {
    source: "/scr/r6/tgebru/inverting_conv/caffe_invert_alexnet/data/siggraph/tiny_winter_train_lmdb"
    mean_file: "/scr/r6/tgebru/timnit_caffe/data/ilsvrc12/imagenet_mean.binaryproto"
    batch_size: 12
    crop_size: 216
    mirror: false
    backend: LMDB
  }
}
layers {
  bottom: "source_ims"
  top: "conv1"
  name: "conv1"
  type: CONVOLUTION
  blobs_lr: 0
  blobs_lr: 0
  weight_decay: 1
  weight_decay: 0
  convolution_param {
    num_output: 96
    kernel_size: 11
    stride: 4
    weight_filler {
      type: "gaussian"
      std: 0.01
    }
    bias_filler {
      type: "constant"
      value: 0
    }
  }
}
layers {
  bottom: "conv1"
  top: "conv1"
  name: "relu1"
  type: RELU
}
layers {
  bottom: "conv1"
  top: "pool1"
  name: "pool1"
  type: POOLING
  pooling_param {
    pool: MAX
    kernel_size: 3
    stride: 2
  }
}
layers {
  bottom: "pool1"
  top: "norm1"
  name: "norm1"
  type: LRN
  lrn_param {
    local_size: 5
    alpha: 0.0001
    beta: 0.75
  }
}
layers {
  bottom: "norm1"
  top: "Rconv6"
  name: "Rconv6"
  type: CONVOLUTION
  blobs_lr: 1
  blobs_lr: 2
  weight_decay: 1
  weight_decay: 0
  convolution_param {
    num_output: 256
    pad: 1
    kernel_size: 3
  }
}
layers {
  bottom: "Rconv6"
  top: "Rconv6"
  name: "Rrelu6"
  type: RELU
}
layers {
  bottom: "Rconv6"
  top: "Rconv7"
  name: "Rconv7"
  type: CONVOLUTION
  blobs_lr: 1
  blobs_lr: 2
  weight_decay: 1
  weight_decay: 0
  convolution_param {
    num_output: 256
    pad: 1
    kernel_size: 3
    group: 2
  }
}
layers {
  bottom: "Rconv7"
  top: "Rconv7"
  name: "Rrelu7"
  type: RELU
}
layers {
  bottom: "Rconv7"
  top: "Rconv8"
  name: "Rconv8"
  type: CONVOLUTION
  blobs_lr: 1
  blobs_lr: 2
  weight_decay: 1
  weight_decay: 0
  convolution_param {
    num_output: 256
    pad: 1
    kernel_size: 3
    group: 2
  }
}
layers {
  bottom: "Rconv8"
  top: "Rconv8"
  name: "Rrelu8"
  type: RELU
}
layers {
  bottom: "Rconv8"
  top: "deconv2"
  name: "deconv2"
  type: DECONVOLUTION
  blobs_lr: 1
  blobs_lr: 2
  weight_decay: 1
  weight_decay: 0
  deconvolution_param {
    pad: 2
    kernel_size: 5
    stride: 2
    output_height: 54
    output_width: 54
    output_channels: 64
  }
}
layers {
  bottom: "deconv2"
  top: "deconv2"
  name: "relu_deconv2"
  type: RELU
  relu_param {
    negative_slope: 0.3
  }
}
layers {
  bottom: "deconv2"
  top: "deconv1"
  name: "deconv1"
  type: DECONVOLUTION
  blobs_lr: 1
  blobs_lr: 2
  weight_decay: 1
  weight_decay: 0
  deconvolution_param {
    pad: 2
    kernel_size: 5
    stride: 2
    output_height: 108
    output_width: 108
    output_channels: 32
  }
}
layers {
  bottom: "deconv1"
  top: "deconv1"
  name: "relu_deconv1"
  type: RELU
  relu_param {
    negative_slope: 0.3
  }
}
layers {
  bottom: "deconv1"
  top: "deconv0"
  name: "deconv0"
  type: DECONVOLUTION
  blobs_lr: 1
  blobs_lr: 2
  weight_decay: 1
  weight_decay: 1
  deconvolution_param {
    pad: 2
    kernel_size: 5
    stride: 2
    output_height: 216
    output_width: 216
    output_channels: 3
  }
}
layers {
  bottom: "deconv0"
  bottom: "target_ims"
  name: "loss"
  type: EUCLIDEAN_LOSS
}
I0813 13:48:00.862346  3132 net.cpp:65] Creating Layer source_ims
I0813 13:48:00.862355  3132 net.cpp:189] source_ims -> source_ims
I0813 13:48:00.862473  3132 data_layer.cpp:223] Opening lmdb /scr/r6/tgebru/inverting_conv/caffe_invert_alexnet/data/siggraph/tiny_summer_train_lmdb
I0813 13:48:00.862692  3132 data_layer.cpp:285] output data size: 12,3,227,227
I0813 13:48:00.862699  3132 data_layer.cpp:304] Loading mean file from/scr/r6/tgebru/timnit_caffe/data/ilsvrc12/imagenet_mean.binaryproto
I0813 13:48:00.867204  3132 net.cpp:84] Top shape: 12 3 227 227 (1855044)
I0813 13:48:00.867213  3132 net.cpp:116] source_ims does not need backward computation.
I0813 13:48:00.867221  3132 net.cpp:65] Creating Layer target_ims
I0813 13:48:00.867226  3132 net.cpp:189] target_ims -> target_ims
I0813 13:48:00.867293  3132 data_layer.cpp:223] Opening lmdb /scr/r6/tgebru/inverting_conv/caffe_invert_alexnet/data/siggraph/tiny_winter_train_lmdb
I0813 13:48:00.867503  3132 data_layer.cpp:285] output data size: 12,3,216,216
I0813 13:48:00.867523  3132 data_layer.cpp:304] Loading mean file from/scr/r6/tgebru/timnit_caffe/data/ilsvrc12/imagenet_mean.binaryproto
I0813 13:48:00.871971  3132 net.cpp:84] Top shape: 12 3 216 216 (1679616)
I0813 13:48:00.871980  3132 net.cpp:116] target_ims does not need backward computation.
I0813 13:48:00.871992  3132 net.cpp:65] Creating Layer conv1
I0813 13:48:00.871996  3132 net.cpp:228] conv1 <- source_ims
I0813 13:48:00.872042  3132 net.cpp:189] conv1 -> conv1
I0813 13:48:00.873339  3132 net.cpp:84] Top shape: 12 96 55 55 (3484800)
I0813 13:48:00.873345  3132 net.cpp:116] conv1 does not need backward computation.
I0813 13:48:00.873350  3132 net.cpp:65] Creating Layer relu1
I0813 13:48:00.873353  3132 net.cpp:228] relu1 <- conv1
I0813 13:48:00.873358  3132 net.cpp:179] relu1 -> conv1 (in-place)
I0813 13:48:00.873368  3132 net.cpp:84] Top shape: 12 96 55 55 (3484800)
I0813 13:48:00.873371  3132 net.cpp:116] relu1 does not need backward computation.
I0813 13:48:00.873376  3132 net.cpp:65] Creating Layer pool1
I0813 13:48:00.873379  3132 net.cpp:228] pool1 <- conv1
I0813 13:48:00.873384  3132 net.cpp:189] pool1 -> pool1
I0813 13:48:00.873396  3132 net.cpp:84] Top shape: 12 96 27 27 (839808)
I0813 13:48:00.873399  3132 net.cpp:116] pool1 does not need backward computation.
I0813 13:48:00.873404  3132 net.cpp:65] Creating Layer norm1
I0813 13:48:00.873407  3132 net.cpp:228] norm1 <- pool1
I0813 13:48:00.873411  3132 net.cpp:189] norm1 -> norm1
I0813 13:48:00.873426  3132 net.cpp:84] Top shape: 12 96 27 27 (839808)
I0813 13:48:00.873430  3132 net.cpp:116] norm1 does not need backward computation.
I0813 13:48:00.873435  3132 net.cpp:65] Creating Layer Rconv6
I0813 13:48:00.873437  3132 net.cpp:228] Rconv6 <- norm1
I0813 13:48:00.873442  3132 net.cpp:189] Rconv6 -> Rconv6
I0813 13:48:00.873620  3132 net.cpp:84] Top shape: 12 256 27 27 (2239488)
I0813 13:48:00.873623  3132 net.cpp:111] Rconv6 needs backward computation.
I0813 13:48:00.873628  3132 net.cpp:65] Creating Layer Rrelu6
I0813 13:48:00.873631  3132 net.cpp:228] Rrelu6 <- Rconv6
I0813 13:48:00.873636  3132 net.cpp:179] Rrelu6 -> Rconv6 (in-place)
I0813 13:48:00.873641  3132 net.cpp:84] Top shape: 12 256 27 27 (2239488)
I0813 13:48:00.873643  3132 net.cpp:111] Rrelu6 needs backward computation.
I0813 13:48:00.873648  3132 net.cpp:65] Creating Layer Rconv7
I0813 13:48:00.873651  3132 net.cpp:228] Rconv7 <- Rconv6
I0813 13:48:00.873656  3132 net.cpp:189] Rconv7 -> Rconv7
I0813 13:48:00.874348  3132 net.cpp:84] Top shape: 12 256 27 27 (2239488)
I0813 13:48:00.874353  3132 net.cpp:111] Rconv7 needs backward computation.
I0813 13:48:00.874359  3132 net.cpp:65] Creating Layer Rrelu7
I0813 13:48:00.874392  3132 net.cpp:228] Rrelu7 <- Rconv7
I0813 13:48:00.874398  3132 net.cpp:179] Rrelu7 -> Rconv7 (in-place)
I0813 13:48:00.874403  3132 net.cpp:84] Top shape: 12 256 27 27 (2239488)
I0813 13:48:00.874405  3132 net.cpp:111] Rrelu7 needs backward computation.
I0813 13:48:00.874410  3132 net.cpp:65] Creating Layer Rconv8
I0813 13:48:00.874413  3132 net.cpp:228] Rconv8 <- Rconv7
I0813 13:48:00.874418  3132 net.cpp:189] Rconv8 -> Rconv8
I0813 13:48:00.875228  3132 net.cpp:84] Top shape: 12 256 27 27 (2239488)
I0813 13:48:00.875232  3132 net.cpp:111] Rconv8 needs backward computation.
I0813 13:48:00.875237  3132 net.cpp:65] Creating Layer Rrelu8
I0813 13:48:00.875241  3132 net.cpp:228] Rrelu8 <- Rconv8
I0813 13:48:00.875244  3132 net.cpp:179] Rrelu8 -> Rconv8 (in-place)
I0813 13:48:00.875248  3132 net.cpp:84] Top shape: 12 256 27 27 (2239488)
I0813 13:48:00.875252  3132 net.cpp:111] Rrelu8 needs backward computation.
I0813 13:48:00.875255  3132 net.cpp:65] Creating Layer deconv2
I0813 13:48:00.875258  3132 net.cpp:228] deconv2 <- Rconv8
I0813 13:48:00.875262  3132 net.cpp:189] deconv2 -> deconv2
I0813 13:48:00.876314  3132 net.cpp:84] Top shape: 12 64 54 54 (2239488)
I0813 13:48:00.876319  3132 net.cpp:111] deconv2 needs backward computation.
I0813 13:48:00.876324  3132 net.cpp:65] Creating Layer relu_deconv2
I0813 13:48:00.876327  3132 net.cpp:228] relu_deconv2 <- deconv2
I0813 13:48:00.876332  3132 net.cpp:179] relu_deconv2 -> deconv2 (in-place)
I0813 13:48:00.876337  3132 net.cpp:84] Top shape: 12 64 54 54 (2239488)
I0813 13:48:00.876339  3132 net.cpp:111] relu_deconv2 needs backward computation.
I0813 13:48:00.876343  3132 net.cpp:65] Creating Layer deconv1
I0813 13:48:00.876346  3132 net.cpp:228] deconv1 <- deconv2
I0813 13:48:00.876350  3132 net.cpp:189] deconv1 -> deconv1
I0813 13:48:00.876488  3132 net.cpp:84] Top shape: 12 32 108 108 (4478976)
I0813 13:48:00.876492  3132 net.cpp:111] deconv1 needs backward computation.
I0813 13:48:00.876498  3132 net.cpp:65] Creating Layer relu_deconv1
I0813 13:48:00.876500  3132 net.cpp:228] relu_deconv1 <- deconv1
I0813 13:48:00.876504  3132 net.cpp:179] relu_deconv1 -> deconv1 (in-place)
I0813 13:48:00.876508  3132 net.cpp:84] Top shape: 12 32 108 108 (4478976)
I0813 13:48:00.876512  3132 net.cpp:111] relu_deconv1 needs backward computation.
I0813 13:48:00.876518  3132 net.cpp:65] Creating Layer deconv0
I0813 13:48:00.876519  3132 net.cpp:228] deconv0 <- deconv1
I0813 13:48:00.876524  3132 net.cpp:189] deconv0 -> deconv0
I0813 13:48:00.876569  3132 net.cpp:84] Top shape: 12 3 216 216 (1679616)
I0813 13:48:00.876571  3132 net.cpp:111] deconv0 needs backward computation.
I0813 13:48:00.876575  3132 net.cpp:65] Creating Layer loss
I0813 13:48:00.876579  3132 net.cpp:228] loss <- deconv0
I0813 13:48:00.876581  3132 net.cpp:228] loss <- target_ims
I0813 13:48:00.876590  3132 net.cpp:111] loss needs backward computation.
I0813 13:48:00.876605  3132 net.cpp:238] Collecting Learning Rate and Weight Decay.
…
    source: "/scr/r6/tgebru/inverting_conv/caffe_invert_alexnet/data/siggraph/tiny_summer_val_lmdb"
    mean_file: "/scr/r6/tgebru/timnit_caffe/data/ilsvrc12/imagenet_mean.binaryproto"
    batch_size: 64
    crop_size: 227
    mirror: false
    backend: LMDB
  }
}
layers {
  top: "target_ims"
  name: "target_ims"
  type: DATA
  data_param {
    source: "/scr/r6/tgebru/inverting_conv/caffe_invert_alexnet/data/siggraph/tiny_winter_val_lmdb"
    mean_file: "/scr/r6/tgebru/timnit_caffe/data/ilsvrc12/imagenet_mean.binaryproto"
    batch_size: 64
    crop_size: 216
    mirror: false
    backend: LMDB
  }
}
layers {
  bottom: "source_ims"
  top: "conv1"
  name: "conv1"
  type: CONVOLUTION
  blobs_lr: 0
  blobs_lr: 0
  weight_decay: 1
  weight_decay: 0
  convolution_param {
    num_output: 96
    kernel_size: 11
    stride: 4
    weight_filler {
      type: "gaussian"
      std: 0.01
    }
    bias_filler {
      type: "constant"
      value: 0
    }
  }
}
layers {
  bottom: "conv1"
  top: "conv1"
  name: "relu1"
  type: RELU
}
layers {
  bottom: "conv1"
  top: "pool1"
  name: "pool1"
  type: POOLING
  pooling_param {
    pool: MAX
    kernel_size: 3
    stride: 2
  }
}
layers {
  bottom: "pool1"
  top: "norm1"
  name: "norm1"
  type: LRN
  lrn_param {
    local_size: 5
    alpha: 0.0001
    beta: 0.75
  }
}
layers {
  bottom: "norm1"
  top: "Rconv6"
  name: "Rconv6"
  type: CONVOLUTION
  blobs_lr: 0
  blobs_lr: 0
  weight_decay: 1
  weight_decay: 0
  convolution_param {
    num_output: 256
    pad: 1
    kernel_size: 3
  }
}
layers {
  bottom: "Rconv6"
  top: "Rconv6"
  name: "Rrelu6"
  type: RELU
}
layers {
  bottom: "Rconv6"
  top: "Rconv7"
  name: "Rconv7"
  type: CONVOLUTION
  blobs_lr: 0
  blobs_lr: 0
  weight_decay: 1
  weight_decay: 0
  convolution_param {
    num_output: 256
    pad: 1
    kernel_size: 3
    group: 2
  }
}
layers {
  bottom: "Rconv7"
  top: "Rconv7"
  name: "Rrelu7"
  type: RELU
}
layers {
  bottom: "Rconv7"
  top: "Rconv8"
  name: "Rconv8"
  type: CONVOLUTION
  blobs_lr: 0
  blobs_lr: 0
  weight_decay: 1
  weight_decay: 0
  convolution_param {
    num_output: 256
    pad: 1
    kernel_size: 3
    group: 2
  }
}
layers {
  bottom: "Rconv8"
  top: "Rconv8"
  name: "Rrelu8"
  type: RELU
}
layers {
  bottom: "Rconv8"
  top: "deconv2"
  name: "deconv2"
  type: DECONVOLUTION
  blobs_lr: 0
  blobs_lr: 0
  weight_decay: 1
  weight_decay: 0
  deconvolution_param {
    pad: 2
    kernel_size: 5
    stride: 2
    output_height: 54
    output_width: 54
    output_channels: 64
  }
}
layers {
  bottom: "deconv2"
  top: "deconv2"
  name: "relu_deconv2"
  type: RELU
  relu_param {
    negative_slope: 0.3
  }
}
layers {
  bottom: "deconv2"
  top: "deconv1"
  name: "deconv1"
  type: DECONVOLUTION
  blobs_lr: 0
  blobs_lr: 0
  weight_decay: 1
  weight_decay: 0
  deconvolution_param {
    pad: 2
    kernel_size: 5
    stride: 2
    output_height: 108
    output_width: 108
    output_channels: 32
  }
}
layers {
  bottom: "deconv1"
  top: "deconv1"
  name: "relu_deconv1"
  type: RELU
  relu_param {
    negative_slope: 0.3
  }
}
layers {
  bottom: "deconv1"
  top: "deconv0"
  name: "deconv0"
  type: DECONVOLUTION
  blobs_lr: 0
  blobs_lr: 0
  weight_decay: 1
  weight_decay: 0
  deconvolution_param {
    pad: 2
    kernel_size: 5
    stride: 2
    output_height: 216
    output_width: 216
    output_channels: 3
  }
}
layers {
  bottom: "deconv0"
  bottom: "target_ims"
  name: "loss"
  type: EUCLIDEAN_LOSS
}
I0813 13:48:00.877357  3132 net.cpp:65] Creating Layer source_ims
I0813 13:48:00.877363  3132 net.cpp:189] source_ims -> source_ims
I0813 13:48:00.877435  3132 data_layer.cpp:223] Opening lmdb /scr/r6/tgebru/inverting_conv/caffe_invert_alexnet/data/siggraph/tiny_summer_val_lmdb
I0813 13:48:00.877676  3132 data_layer.cpp:285] output data size: 64,3,227,227
I0813 13:48:00.877681  3132 data_layer.cpp:304] Loading mean file from/scr/r6/tgebru/timnit_caffe/data/ilsvrc12/imagenet_mean.binaryproto
I0813 13:48:00.892058  3132 net.cpp:84] Top shape: 64 3 227 227 (9893568)
I0813 13:48:00.892076  3132 net.cpp:116] source_ims does not need backward computation.
I0813 13:48:00.892088  3132 net.cpp:65] Creating Layer target_ims
I0813 13:48:00.892094  3132 net.cpp:189] target_ims -> target_ims
I0813 13:48:00.892181  3132 data_layer.cpp:223] Opening lmdb /scr/r6/tgebru/inverting_conv/caffe_invert_alexnet/data/siggraph/tiny_winter_val_lmdb
I0813 13:48:00.892300  3132 data_layer.cpp:285] output data size: 64,3,216,216
I0813 13:48:00.892305  3132 data_layer.cpp:304] Loading mean file from/scr/r6/tgebru/timnit_caffe/data/ilsvrc12/imagenet_mean.binaryproto
I0813 13:48:00.904942  3132 net.cpp:84] Top shape: 64 3 216 216 (8957952)
I0813 13:48:00.904991  3132 net.cpp:116] target_ims does not need backward computation.
I0813 13:48:00.905005  3132 net.cpp:65] Creating Layer conv1
I0813 13:48:00.905009  3132 net.cpp:228] conv1 <- source_ims
I0813 13:48:00.905016  3132 net.cpp:189] conv1 -> conv1
I0813 13:48:00.906283  3132 net.cpp:84] Top shape: 64 96 55 55 (18585600)
I0813 13:48:00.906287  3132 net.cpp:116] conv1 does not need backward computation.
I0813 13:48:00.906292  3132 net.cpp:65] Creating Layer relu1
I0813 13:48:00.906294  3132 net.cpp:228] relu1 <- conv1
I0813 13:48:00.906299  3132 net.cpp:179] relu1 -> conv1 (in-place)
I0813 13:48:00.906306  3132 net.cpp:84] Top shape: 64 96 55 55 (18585600)
I0813 13:48:00.906307  3132 net.cpp:116] relu1 does not need backward computation.
I0813 13:48:00.906313  3132 net.cpp:65] Creating Layer pool1
I0813 13:48:00.906316  3132 net.cpp:228] pool1 <- conv1
I0813 13:48:00.906321  3132 net.cpp:189] pool1 -> pool1
I0813 13:48:00.906327  3132 net.cpp:84] Top shape: 64 96 27 27 (4478976)
I0813 13:48:00.906329  3132 net.cpp:116] pool1 does not need backward computation.
I0813 13:48:00.906335  3132 net.cpp:65] Creating Layer norm1
I0813 13:48:00.906337  3132 net.cpp:228] norm1 <- pool1
I0813 13:48:00.906342  3132 net.cpp:189] norm1 -> norm1
I0813 13:48:00.906348  3132 net.cpp:84] Top shape: 64 96 27 27 (4478976)
I0813 13:48:00.906352  3132 net.cpp:116] norm1 does not need backward computation.
I0813 13:48:00.906355  3132 net.cpp:65] Creating Layer Rconv6
I0813 13:48:00.906358  3132 net.cpp:228] Rconv6 <- norm1
I0813 13:48:00.906363  3132 net.cpp:189] Rconv6 -> Rconv6
I0813 13:48:00.906599  3132 net.cpp:84] Top shape: 64 256 27 27 (11943936)
I0813 13:48:00.906602  3132 net.cpp:116] Rconv6 does not need backward computation.
I0813 13:48:00.906607  3132 net.cpp:65] Creating Layer Rrelu6
I0813 13:48:00.906610  3132 net.cpp:228] Rrelu6 <- Rconv6
I0813 13:48:00.906615  3132 net.cpp:179] Rrelu6 -> Rconv6 (in-place)
I0813 13:48:00.906620  3132 net.cpp:84] Top shape: 64 256 27 27 (11943936)
I0813 13:48:00.906622  3132 net.cpp:116] Rrelu6 does not need backward computation.
I0813 13:48:00.906627  3132 net.cpp:65] Creating Layer Rconv7
I0813 13:48:00.906630  3132 net.cpp:228] Rconv7 <- Rconv6
I0813 13:48:00.906635  3132 net.cpp:189] Rconv7 -> Rconv7
I0813 13:48:00.907423  3132 net.cpp:84] Top shape: 64 256 27 27 (11943936)
I0813 13:48:00.907428  3132 net.cpp:116] Rconv7 does not need backward computation.
I0813 13:48:00.907433  3132 net.cpp:65] Creating Layer Rrelu7
I0813 13:48:00.907435  3132 net.cpp:228] Rrelu7 <- Rconv7
I0813 13:48:00.907438  3132 net.cpp:179] Rrelu7 -> Rconv7 (in-place)
I0813 13:48:00.907444  3132 net.cpp:84] Top shape: 64 256 27 27 (11943936)
I0813 13:48:00.907445  3132 net.cpp:116] Rrelu7 does not need backward computation.
I0813 13:48:00.907449  3132 net.cpp:65] Creating Layer Rconv8
I0813 13:48:00.907452  3132 net.cpp:228] Rconv8 <- Rconv7
I0813 13:48:00.907456  3132 net.cpp:189] Rconv8 -> Rconv8
I0813 13:48:00.908207  3132 net.cpp:84] Top shape: 64 256 27 27 (11943936)
I0813 13:48:00.908211  3132 net.cpp:116] Rconv8 does not need backward computation.
I0813 13:48:00.908216  3132 net.cpp:65] Creating Layer Rrelu8
I0813 13:48:00.908220  3132 net.cpp:228] Rrelu8 <- Rconv8
I0813 13:48:00.908223  3132 net.cpp:179] Rrelu8 -> Rconv8 (in-place)
I0813 13:48:00.908227  3132 net.cpp:84] Top shape: 64 256 27 27 (11943936)
I0813 13:48:00.908231  3132 net.cpp:116] Rrelu8 does not need backward computation.
I0813 13:48:00.908236  3132 net.cpp:65] Creating Layer deconv2
I0813 13:48:00.908238  3132 net.cpp:228] deconv2 <- Rconv8
I0813 13:48:00.908243  3132 net.cpp:189] deconv2 -> deconv2
I0813 13:48:00.909348  3132 net.cpp:84] Top shape: 64 64 54 54 (11943936)
I0813 13:48:00.909353  3132 net.cpp:116] deconv2 does not need backward computation.
I0813 13:48:00.909358  3132 net.cpp:65] Creating Layer relu_deconv2
I0813 13:48:00.909361  3132 net.cpp:228] relu_deconv2 <- deconv2
I0813 13:48:00.909365  3132 net.cpp:179] relu_deconv2 -> deconv2 (in-place)
I0813 13:48:00.909369  3132 net.cpp:84] Top shape: 64 64 54 54 (11943936)
I0813 13:48:00.909384  3132 net.cpp:116] relu_deconv2 does not need backward computation.
I0813 13:48:00.909389  3132 net.cpp:65] Creating Layer deconv1
I0813 13:48:00.909392  3132 net.cpp:228] deconv1 <- deconv2
I0813 13:48:00.909397  3132 net.cpp:189] deconv1 -> deconv1
I0813 13:48:00.909541  3132 net.cpp:84] Top shape: 64 32 108 108 (23887872)
I0813 13:48:00.909545  3132 net.cpp:116] deconv1 does not need backward computation.
I0813 13:48:00.909550  3132 net.cpp:65] Creating Layer relu_deconv1
I0813 13:48:00.909553  3132 net.cpp:228] relu_deconv1 <- deconv1
I0813 13:48:00.909556  3132 net.cpp:179] relu_deconv1 -> deconv1 (in-place)
I0813 13:48:00.909561  3132 net.cpp:84] Top shape: 64 32 108 108 (23887872)
I0813 13:48:00.909564  3132 net.cpp:116] relu_deconv1 does not need backward computation.
I0813 13:48:00.909569  3132 net.cpp:65] Creating Layer deconv0
I0813 13:48:00.909571  3132 net.cpp:228] deconv0 <- deconv1
I0813 13:48:00.909575  3132 net.cpp:189] deconv0 -> deconv0
I0813 13:48:00.909598  3132 net.cpp:84] Top shape: 64 3 216 216 (8957952)
I0813 13:48:00.909602  3132 net.cpp:116] deconv0 does not need backward computation.
I0813 13:48:00.909605  3132 net.cpp:65] Creating Layer loss
I0813 13:48:00.909608  3132 net.cpp:228] loss <- deconv0
I0813 13:48:00.909611  3132 net.cpp:228] loss <- target_ims
I0813 13:48:00.909616  3132 net.cpp:116] loss does not need backward computation.
I0813 13:48:00.909628  3132 net.cpp:238] Collecting Learning Rate and Weight Decay.
…
