…
    source: "/scr/r6/tgebru/inverting_conv/caffe_invert_alexnet/data/siggraph/tiny_summer_train_lmdb"
    mean_file: "/scr/r6/tgebru/timnit_caffe/data/ilsvrc12/imagenet_mean.binaryproto"
    batch_size: 12
    crop_size: 227
    mirror: false
    backend: LMDB
  }
}
layers {
  top: "target_ims"
  name: "target_ims"
  type: DATA
  data_param {
    source: "/scr/r6/tgebru/inverting_conv/caffe_invert_alexnet/data/siggraph/tiny_winter_train_lmdb"
    mean_file: "/scr/r6/tgebru/timnit_caffe/data/ilsvrc12/imagenet_mean.binaryproto"
    batch_size: 12
    crop_size: 216
    mirror: false
    backend: LMDB
  }
}
layers {
  bottom: "source_ims"
  top: "conv1"
  name: "conv1"
  type: CONVOLUTION
  blobs_lr: 0
  blobs_lr: 0
  weight_decay: 1
  weight_decay: 0
  convolution_param {
    num_output: 96
    kernel_size: 11
    stride: 4
    weight_filler {
      type: "gaussian"
      std: 0.01
    }
    bias_filler {
      type: "constant"
      value: 0
    }
  }
}
layers {
  bottom: "conv1"
  top: "conv1"
  name: "relu1"
  type: RELU
}
layers {
  bottom: "conv1"
  top: "pool1"
  name: "pool1"
  type: POOLING
  pooling_param {
    pool: MAX
    kernel_size: 3
    stride: 2
  }
}
layers {
  bottom: "pool1"
  top: "norm1"
  name: "norm1"
  type: LRN
  lrn_param {
    local_size: 5
    alpha: 0.0001
    beta: 0.75
  }
}
layers {
  bottom: "norm1"
  top: "Rconv6"
  name: "Rconv6"
  type: CONVOLUTION
  blobs_lr: 1
  blobs_lr: 2
  weight_decay: 1
  weight_decay: 0
  convolution_param {
    num_output: 256
    pad: 1
    kernel_size: 3
  }
}
layers {
  bottom: "Rconv6"
  top: "Rconv6"
  name: "Rrelu6"
  type: RELU
}
layers {
  bottom: "Rconv6"
  top: "Rconv7"
  name: "Rconv7"
  type: CONVOLUTION
  blobs_lr: 1
  blobs_lr: 2
  weight_decay: 1
  weight_decay: 0
  convolution_param {
    num_output: 256
    pad: 1
    kernel_size: 3
    group: 2
  }
}
layers {
  bottom: "Rconv7"
  top: "Rconv7"
  name: "Rrelu7"
  type: RELU
}
layers {
  bottom: "Rconv7"
  top: "Rconv8"
  name: "Rconv8"
  type: CONVOLUTION
  blobs_lr: 1
  blobs_lr: 2
  weight_decay: 1
  weight_decay: 0
  convolution_param {
    num_output: 256
    pad: 1
    kernel_size: 3
    group: 2
  }
}
layers {
  bottom: "Rconv8"
  top: "Rconv8"
  name: "Rrelu8"
  type: RELU
}
layers {
  bottom: "Rconv8"
  top: "deconv2"
  name: "deconv2"
  type: DECONVOLUTION
  blobs_lr: 1
  blobs_lr: 2
  weight_decay: 1
  weight_decay: 0
  deconvolution_param {
    pad: 2
    kernel_size: 5
    stride: 2
    output_height: 54
    output_width: 54
    output_channels: 64
  }
}
layers {
  bottom: "deconv2"
  top: "deconv2"
  name: "relu_deconv2"
  type: RELU
  relu_param {
    negative_slope: 0.3
  }
}
layers {
  bottom: "deconv2"
  top: "deconv1"
  name: "deconv1"
  type: DECONVOLUTION
  blobs_lr: 1
  blobs_lr: 2
  weight_decay: 1
  weight_decay: 0
  deconvolution_param {
    pad: 2
    kernel_size: 5
    stride: 2
    output_height: 108
    output_width: 108
    output_channels: 32
  }
}
layers {
  bottom: "deconv1"
  top: "deconv1"
  name: "relu_deconv1"
  type: RELU
  relu_param {
    negative_slope: 0.3
  }
}
layers {
  bottom: "deconv1"
  top: "deconv0"
  name: "deconv0"
  type: DECONVOLUTION
  blobs_lr: 1
  blobs_lr: 2
  weight_decay: 1
  weight_decay: 1
  deconvolution_param {
    pad: 2
    kernel_size: 5
    stride: 2
    output_height: 216
    output_width: 216
    output_channels: 3
  }
}
layers {
  bottom: "deconv0"
  bottom: "target_ims"
  name: "loss"
  type: EUCLIDEAN_LOSS
}
I0812 22:19:36.333873 20744 net.cpp:65] Creating Layer source_ims
I0812 22:19:36.333883 20744 net.cpp:189] source_ims -> source_ims
I0812 22:19:36.333982 20744 data_layer.cpp:223] Opening lmdb /scr/r6/tgebru/inverting_conv/caffe_invert_alexnet/data/siggraph/tiny_summer_train_lmdb
I0812 22:19:36.334197 20744 data_layer.cpp:285] output data size: 12,3,227,227
I0812 22:19:36.334205 20744 data_layer.cpp:304] Loading mean file from/scr/r6/tgebru/timnit_caffe/data/ilsvrc12/imagenet_mean.binaryproto
I0812 22:19:36.339372 20744 net.cpp:84] Top shape: 12 3 227 227 (1855044)
I0812 22:19:36.339380 20744 net.cpp:116] source_ims does not need backward computation.
I0812 22:19:36.339388 20744 net.cpp:65] Creating Layer target_ims
I0812 22:19:36.339392 20744 net.cpp:189] target_ims -> target_ims
I0812 22:19:36.339567 20744 data_layer.cpp:223] Opening lmdb /scr/r6/tgebru/inverting_conv/caffe_invert_alexnet/data/siggraph/tiny_winter_train_lmdb
I0812 22:19:36.339736 20744 data_layer.cpp:285] output data size: 12,3,216,216
I0812 22:19:36.339741 20744 data_layer.cpp:304] Loading mean file from/scr/r6/tgebru/timnit_caffe/data/ilsvrc12/imagenet_mean.binaryproto
I0812 22:19:36.344184 20744 net.cpp:84] Top shape: 12 3 216 216 (1679616)
I0812 22:19:36.344192 20744 net.cpp:116] target_ims does not need backward computation.
I0812 22:19:36.344205 20744 net.cpp:65] Creating Layer conv1
I0812 22:19:36.344209 20744 net.cpp:228] conv1 <- source_ims
I0812 22:19:36.344254 20744 net.cpp:189] conv1 -> conv1
I0812 22:19:36.345546 20744 net.cpp:84] Top shape: 12 96 55 55 (3484800)
I0812 22:19:36.345551 20744 net.cpp:116] conv1 does not need backward computation.
I0812 22:19:36.345556 20744 net.cpp:65] Creating Layer relu1
I0812 22:19:36.345558 20744 net.cpp:228] relu1 <- conv1
I0812 22:19:36.345563 20744 net.cpp:179] relu1 -> conv1 (in-place)
I0812 22:19:36.345572 20744 net.cpp:84] Top shape: 12 96 55 55 (3484800)
I0812 22:19:36.345576 20744 net.cpp:116] relu1 does not need backward computation.
I0812 22:19:36.345580 20744 net.cpp:65] Creating Layer pool1
I0812 22:19:36.345583 20744 net.cpp:228] pool1 <- conv1
I0812 22:19:36.345587 20744 net.cpp:189] pool1 -> pool1
I0812 22:19:36.345598 20744 net.cpp:84] Top shape: 12 96 27 27 (839808)
I0812 22:19:36.345602 20744 net.cpp:116] pool1 does not need backward computation.
I0812 22:19:36.345607 20744 net.cpp:65] Creating Layer norm1
I0812 22:19:36.345608 20744 net.cpp:228] norm1 <- pool1
I0812 22:19:36.345613 20744 net.cpp:189] norm1 -> norm1
I0812 22:19:36.345621 20744 net.cpp:84] Top shape: 12 96 27 27 (839808)
I0812 22:19:36.345624 20744 net.cpp:116] norm1 does not need backward computation.
I0812 22:19:36.345628 20744 net.cpp:65] Creating Layer Rconv6
I0812 22:19:36.345630 20744 net.cpp:228] Rconv6 <- norm1
I0812 22:19:36.345635 20744 net.cpp:189] Rconv6 -> Rconv6
I0812 22:19:36.345911 20744 net.cpp:84] Top shape: 12 256 27 27 (2239488)
I0812 22:19:36.345914 20744 net.cpp:111] Rconv6 needs backward computation.
I0812 22:19:36.345918 20744 net.cpp:65] Creating Layer Rrelu6
I0812 22:19:36.345921 20744 net.cpp:228] Rrelu6 <- Rconv6
I0812 22:19:36.345926 20744 net.cpp:179] Rrelu6 -> Rconv6 (in-place)
I0812 22:19:36.345931 20744 net.cpp:84] Top shape: 12 256 27 27 (2239488)
I0812 22:19:36.345933 20744 net.cpp:111] Rrelu6 needs backward computation.
I0812 22:19:36.345937 20744 net.cpp:65] Creating Layer Rconv7
I0812 22:19:36.345940 20744 net.cpp:228] Rconv7 <- Rconv6
I0812 22:19:36.345944 20744 net.cpp:189] Rconv7 -> Rconv7
I0812 22:19:36.346766 20744 net.cpp:84] Top shape: 12 256 27 27 (2239488)
I0812 22:19:36.346771 20744 net.cpp:111] Rconv7 needs backward computation.
I0812 22:19:36.346773 20744 net.cpp:65] Creating Layer Rrelu7
I0812 22:19:36.346799 20744 net.cpp:228] Rrelu7 <- Rconv7
I0812 22:19:36.346804 20744 net.cpp:179] Rrelu7 -> Rconv7 (in-place)
I0812 22:19:36.346808 20744 net.cpp:84] Top shape: 12 256 27 27 (2239488)
I0812 22:19:36.346812 20744 net.cpp:111] Rrelu7 needs backward computation.
I0812 22:19:36.346815 20744 net.cpp:65] Creating Layer Rconv8
I0812 22:19:36.346818 20744 net.cpp:228] Rconv8 <- Rconv7
I0812 22:19:36.346822 20744 net.cpp:189] Rconv8 -> Rconv8
I0812 22:19:36.347658 20744 net.cpp:84] Top shape: 12 256 27 27 (2239488)
I0812 22:19:36.347663 20744 net.cpp:111] Rconv8 needs backward computation.
I0812 22:19:36.347666 20744 net.cpp:65] Creating Layer Rrelu8
I0812 22:19:36.347669 20744 net.cpp:228] Rrelu8 <- Rconv8
I0812 22:19:36.347673 20744 net.cpp:179] Rrelu8 -> Rconv8 (in-place)
I0812 22:19:36.347677 20744 net.cpp:84] Top shape: 12 256 27 27 (2239488)
I0812 22:19:36.347681 20744 net.cpp:111] Rrelu8 needs backward computation.
I0812 22:19:36.347683 20744 net.cpp:65] Creating Layer deconv2
I0812 22:19:36.347687 20744 net.cpp:228] deconv2 <- Rconv8
I0812 22:19:36.347689 20744 net.cpp:189] deconv2 -> deconv2
I0812 22:19:36.348778 20744 net.cpp:84] Top shape: 12 64 54 54 (2239488)
I0812 22:19:36.348784 20744 net.cpp:111] deconv2 needs backward computation.
I0812 22:19:36.348788 20744 net.cpp:65] Creating Layer relu_deconv2
I0812 22:19:36.348791 20744 net.cpp:228] relu_deconv2 <- deconv2
I0812 22:19:36.348795 20744 net.cpp:179] relu_deconv2 -> deconv2 (in-place)
I0812 22:19:36.348799 20744 net.cpp:84] Top shape: 12 64 54 54 (2239488)
I0812 22:19:36.348803 20744 net.cpp:111] relu_deconv2 needs backward computation.
I0812 22:19:36.348806 20744 net.cpp:65] Creating Layer deconv1
I0812 22:19:36.348809 20744 net.cpp:228] deconv1 <- deconv2
I0812 22:19:36.348812 20744 net.cpp:189] deconv1 -> deconv1
I0812 22:19:36.348989 20744 net.cpp:84] Top shape: 12 32 108 108 (4478976)
I0812 22:19:36.348994 20744 net.cpp:111] deconv1 needs backward computation.
I0812 22:19:36.348999 20744 net.cpp:65] Creating Layer relu_deconv1
I0812 22:19:36.349001 20744 net.cpp:228] relu_deconv1 <- deconv1
I0812 22:19:36.349005 20744 net.cpp:179] relu_deconv1 -> deconv1 (in-place)
I0812 22:19:36.349009 20744 net.cpp:84] Top shape: 12 32 108 108 (4478976)
I0812 22:19:36.349012 20744 net.cpp:111] relu_deconv1 needs backward computation.
I0812 22:19:36.349017 20744 net.cpp:65] Creating Layer deconv0
I0812 22:19:36.349020 20744 net.cpp:228] deconv0 <- deconv1
I0812 22:19:36.349023 20744 net.cpp:189] deconv0 -> deconv0
I0812 22:19:36.349046 20744 net.cpp:84] Top shape: 12 3 216 216 (1679616)
I0812 22:19:36.349050 20744 net.cpp:111] deconv0 needs backward computation.
I0812 22:19:36.349053 20744 net.cpp:65] Creating Layer loss
I0812 22:19:36.349056 20744 net.cpp:228] loss <- deconv0
I0812 22:19:36.349059 20744 net.cpp:228] loss <- target_ims
I0812 22:19:36.349067 20744 net.cpp:111] loss needs backward computation.
I0812 22:19:36.349081 20744 net.cpp:238] Collecting Learning Rate and Weight Decay.
…
    source: "/scr/r6/tgebru/inverting_conv/caffe_invert_alexnet/data/siggraph/tiny_summer_val_lmdb"
    mean_file: "/scr/r6/tgebru/timnit_caffe/data/ilsvrc12/imagenet_mean.binaryproto"
    batch_size: 64
    crop_size: 227
    mirror: false
    backend: LMDB
  }
}
layers {
  top: "target_ims"
  name: "target_ims"
  type: DATA
  data_param {
    source: "/scr/r6/tgebru/inverting_conv/caffe_invert_alexnet/data/siggraph/tiny_winter_val_lmdb"
    mean_file: "/scr/r6/tgebru/timnit_caffe/data/ilsvrc12/imagenet_mean.binaryproto"
    batch_size: 64
    crop_size: 216
    mirror: false
    backend: LMDB
  }
}
layers {
  bottom: "source_ims"
  top: "conv1"
  name: "conv1"
  type: CONVOLUTION
  blobs_lr: 0
  blobs_lr: 0
  weight_decay: 1
  weight_decay: 0
  convolution_param {
    num_output: 96
    kernel_size: 11
    stride: 4
    weight_filler {
      type: "gaussian"
      std: 0.01
    }
    bias_filler {
      type: "constant"
      value: 0
    }
  }
}
layers {
  bottom: "conv1"
  top: "conv1"
  name: "relu1"
  type: RELU
}
layers {
  bottom: "conv1"
  top: "pool1"
  name: "pool1"
  type: POOLING
  pooling_param {
    pool: MAX
    kernel_size: 3
    stride: 2
  }
}
layers {
  bottom: "pool1"
  top: "norm1"
  name: "norm1"
  type: LRN
  lrn_param {
    local_size: 5
    alpha: 0.0001
    beta: 0.75
  }
}
layers {
  bottom: "norm1"
  top: "Rconv6"
  name: "Rconv6"
  type: CONVOLUTION
  blobs_lr: 0
  blobs_lr: 0
  weight_decay: 1
  weight_decay: 0
  convolution_param {
    num_output: 256
    pad: 1
    kernel_size: 3
  }
}
layers {
  bottom: "Rconv6"
  top: "Rconv6"
  name: "Rrelu6"
  type: RELU
}
layers {
  bottom: "Rconv6"
  top: "Rconv7"
  name: "Rconv7"
  type: CONVOLUTION
  blobs_lr: 0
  blobs_lr: 0
  weight_decay: 1
  weight_decay: 0
  convolution_param {
    num_output: 256
    pad: 1
    kernel_size: 3
    group: 2
  }
}
layers {
  bottom: "Rconv7"
  top: "Rconv7"
  name: "Rrelu7"
  type: RELU
}
layers {
  bottom: "Rconv7"
  top: "Rconv8"
  name: "Rconv8"
  type: CONVOLUTION
  blobs_lr: 0
  blobs_lr: 0
  weight_decay: 1
  weight_decay: 0
  convolution_param {
    num_output: 256
    pad: 1
    kernel_size: 3
    group: 2
  }
}
layers {
  bottom: "Rconv8"
  top: "Rconv8"
  name: "Rrelu8"
  type: RELU
}
layers {
  bottom: "Rconv8"
  top: "deconv2"
  name: "deconv2"
  type: DECONVOLUTION
  blobs_lr: 0
  blobs_lr: 0
  weight_decay: 1
  weight_decay: 0
  deconvolution_param {
    pad: 2
    kernel_size: 5
    stride: 2
    output_height: 54
    output_width: 54
    output_channels: 64
  }
}
layers {
  bottom: "deconv2"
  top: "deconv2"
  name: "relu_deconv2"
  type: RELU
  relu_param {
    negative_slope: 0.3
  }
}
layers {
  bottom: "deconv2"
  top: "deconv1"
  name: "deconv1"
  type: DECONVOLUTION
  blobs_lr: 0
  blobs_lr: 0
  weight_decay: 1
  weight_decay: 0
  deconvolution_param {
    pad: 2
    kernel_size: 5
    stride: 2
    output_height: 108
    output_width: 108
    output_channels: 32
  }
}
layers {
  bottom: "deconv1"
  top: "deconv1"
  name: "relu_deconv1"
  type: RELU
  relu_param {
    negative_slope: 0.3
  }
}
layers {
  bottom: "deconv1"
  top: "deconv0"
  name: "deconv0"
  type: DECONVOLUTION
  blobs_lr: 0
  blobs_lr: 0
  weight_decay: 1
  weight_decay: 0
  deconvolution_param {
    pad: 2
    kernel_size: 5
    stride: 2
    output_height: 216
    output_width: 216
    output_channels: 3
  }
}
layers {
  bottom: "deconv0"
  bottom: "target_ims"
  name: "loss"
  type: EUCLIDEAN_LOSS
}
I0812 22:19:36.349803 20744 net.cpp:65] Creating Layer source_ims
I0812 22:19:36.349809 20744 net.cpp:189] source_ims -> source_ims
I0812 22:19:36.349864 20744 data_layer.cpp:223] Opening lmdb /scr/r6/tgebru/inverting_conv/caffe_invert_alexnet/data/siggraph/tiny_summer_val_lmdb
I0812 22:19:36.350078 20744 data_layer.cpp:285] output data size: 64,3,227,227
I0812 22:19:36.350083 20744 data_layer.cpp:304] Loading mean file from/scr/r6/tgebru/timnit_caffe/data/ilsvrc12/imagenet_mean.binaryproto
I0812 22:19:36.364433 20744 net.cpp:84] Top shape: 64 3 227 227 (9893568)
I0812 22:19:36.364449 20744 net.cpp:116] source_ims does not need backward computation.
I0812 22:19:36.364459 20744 net.cpp:65] Creating Layer target_ims
I0812 22:19:36.364464 20744 net.cpp:189] target_ims -> target_ims
I0812 22:19:36.364552 20744 data_layer.cpp:223] Opening lmdb /scr/r6/tgebru/inverting_conv/caffe_invert_alexnet/data/siggraph/tiny_winter_val_lmdb
I0812 22:19:36.364670 20744 data_layer.cpp:285] output data size: 64,3,216,216
I0812 22:19:36.364675 20744 data_layer.cpp:304] Loading mean file from/scr/r6/tgebru/timnit_caffe/data/ilsvrc12/imagenet_mean.binaryproto
I0812 22:19:36.377298 20744 net.cpp:84] Top shape: 64 3 216 216 (8957952)
I0812 22:19:36.377346 20744 net.cpp:116] target_ims does not need backward computation.
I0812 22:19:36.377359 20744 net.cpp:65] Creating Layer conv1
I0812 22:19:36.377363 20744 net.cpp:228] conv1 <- source_ims
I0812 22:19:36.377372 20744 net.cpp:189] conv1 -> conv1
I0812 22:19:36.378638 20744 net.cpp:84] Top shape: 64 96 55 55 (18585600)
I0812 22:19:36.378643 20744 net.cpp:116] conv1 does not need backward computation.
I0812 22:19:36.378648 20744 net.cpp:65] Creating Layer relu1
I0812 22:19:36.378651 20744 net.cpp:228] relu1 <- conv1
I0812 22:19:36.378657 20744 net.cpp:179] relu1 -> conv1 (in-place)
I0812 22:19:36.378662 20744 net.cpp:84] Top shape: 64 96 55 55 (18585600)
I0812 22:19:36.378665 20744 net.cpp:116] relu1 does not need backward computation.
I0812 22:19:36.378670 20744 net.cpp:65] Creating Layer pool1
I0812 22:19:36.378672 20744 net.cpp:228] pool1 <- conv1
I0812 22:19:36.378677 20744 net.cpp:189] pool1 -> pool1
I0812 22:19:36.378684 20744 net.cpp:84] Top shape: 64 96 27 27 (4478976)
I0812 22:19:36.378686 20744 net.cpp:116] pool1 does not need backward computation.
I0812 22:19:36.378692 20744 net.cpp:65] Creating Layer norm1
I0812 22:19:36.378695 20744 net.cpp:228] norm1 <- pool1
I0812 22:19:36.378700 20744 net.cpp:189] norm1 -> norm1
I0812 22:19:36.378706 20744 net.cpp:84] Top shape: 64 96 27 27 (4478976)
I0812 22:19:36.378710 20744 net.cpp:116] norm1 does not need backward computation.
I0812 22:19:36.378713 20744 net.cpp:65] Creating Layer Rconv6
I0812 22:19:36.378716 20744 net.cpp:228] Rconv6 <- norm1
I0812 22:19:36.378720 20744 net.cpp:189] Rconv6 -> Rconv6
I0812 22:19:36.378957 20744 net.cpp:84] Top shape: 64 256 27 27 (11943936)
I0812 22:19:36.378960 20744 net.cpp:116] Rconv6 does not need backward computation.
I0812 22:19:36.378965 20744 net.cpp:65] Creating Layer Rrelu6
I0812 22:19:36.378968 20744 net.cpp:228] Rrelu6 <- Rconv6
I0812 22:19:36.378973 20744 net.cpp:179] Rrelu6 -> Rconv6 (in-place)
I0812 22:19:36.378976 20744 net.cpp:84] Top shape: 64 256 27 27 (11943936)
I0812 22:19:36.378979 20744 net.cpp:116] Rrelu6 does not need backward computation.
I0812 22:19:36.378985 20744 net.cpp:65] Creating Layer Rconv7
I0812 22:19:36.378988 20744 net.cpp:228] Rconv7 <- Rconv6
I0812 22:19:36.378993 20744 net.cpp:189] Rconv7 -> Rconv7
I0812 22:19:36.379739 20744 net.cpp:84] Top shape: 64 256 27 27 (11943936)
I0812 22:19:36.379744 20744 net.cpp:116] Rconv7 does not need backward computation.
I0812 22:19:36.379748 20744 net.cpp:65] Creating Layer Rrelu7
I0812 22:19:36.379751 20744 net.cpp:228] Rrelu7 <- Rconv7
I0812 22:19:36.379755 20744 net.cpp:179] Rrelu7 -> Rconv7 (in-place)
I0812 22:19:36.379760 20744 net.cpp:84] Top shape: 64 256 27 27 (11943936)
I0812 22:19:36.379763 20744 net.cpp:116] Rrelu7 does not need backward computation.
I0812 22:19:36.379767 20744 net.cpp:65] Creating Layer Rconv8
I0812 22:19:36.379770 20744 net.cpp:228] Rconv8 <- Rconv7
I0812 22:19:36.379773 20744 net.cpp:189] Rconv8 -> Rconv8
I0812 22:19:36.380558 20744 net.cpp:84] Top shape: 64 256 27 27 (11943936)
I0812 22:19:36.380563 20744 net.cpp:116] Rconv8 does not need backward computation.
I0812 22:19:36.380568 20744 net.cpp:65] Creating Layer Rrelu8
I0812 22:19:36.380570 20744 net.cpp:228] Rrelu8 <- Rconv8
I0812 22:19:36.380574 20744 net.cpp:179] Rrelu8 -> Rconv8 (in-place)
I0812 22:19:36.380578 20744 net.cpp:84] Top shape: 64 256 27 27 (11943936)
I0812 22:19:36.380581 20744 net.cpp:116] Rrelu8 does not need backward computation.
I0812 22:19:36.380586 20744 net.cpp:65] Creating Layer deconv2
I0812 22:19:36.380589 20744 net.cpp:228] deconv2 <- Rconv8
I0812 22:19:36.380592 20744 net.cpp:189] deconv2 -> deconv2
I0812 22:19:36.381678 20744 net.cpp:84] Top shape: 64 64 54 54 (11943936)
I0812 22:19:36.381683 20744 net.cpp:116] deconv2 does not need backward computation.
I0812 22:19:36.381688 20744 net.cpp:65] Creating Layer relu_deconv2
I0812 22:19:36.381691 20744 net.cpp:228] relu_deconv2 <- deconv2
I0812 22:19:36.381696 20744 net.cpp:179] relu_deconv2 -> deconv2 (in-place)
I0812 22:19:36.381701 20744 net.cpp:84] Top shape: 64 64 54 54 (11943936)
I0812 22:19:36.381716 20744 net.cpp:116] relu_deconv2 does not need backward computation.
I0812 22:19:36.381721 20744 net.cpp:65] Creating Layer deconv1
I0812 22:19:36.381723 20744 net.cpp:228] deconv1 <- deconv2
I0812 22:19:36.381727 20744 net.cpp:189] deconv1 -> deconv1
I0812 22:19:36.381887 20744 net.cpp:84] Top shape: 64 32 108 108 (23887872)
I0812 22:19:36.381891 20744 net.cpp:116] deconv1 does not need backward computation.
I0812 22:19:36.381896 20744 net.cpp:65] Creating Layer relu_deconv1
I0812 22:19:36.381899 20744 net.cpp:228] relu_deconv1 <- deconv1
I0812 22:19:36.381903 20744 net.cpp:179] relu_deconv1 -> deconv1 (in-place)
I0812 22:19:36.381907 20744 net.cpp:84] Top shape: 64 32 108 108 (23887872)
I0812 22:19:36.381911 20744 net.cpp:116] relu_deconv1 does not need backward computation.
I0812 22:19:36.381916 20744 net.cpp:65] Creating Layer deconv0
I0812 22:19:36.381919 20744 net.cpp:228] deconv0 <- deconv1
I0812 22:19:36.381924 20744 net.cpp:189] deconv0 -> deconv0
I0812 22:19:36.381947 20744 net.cpp:84] Top shape: 64 3 216 216 (8957952)
I0812 22:19:36.381950 20744 net.cpp:116] deconv0 does not need backward computation.
I0812 22:19:36.381954 20744 net.cpp:65] Creating Layer loss
I0812 22:19:36.381958 20744 net.cpp:228] loss <- deconv0
I0812 22:19:36.381960 20744 net.cpp:228] loss <- target_ims
I0812 22:19:36.381965 20744 net.cpp:116] loss does not need backward computation.
I0812 22:19:36.381978 20744 net.cpp:238] Collecting Learning Rate and Weight Decay.
…
