…
    source: "/scr/r6/tgebru/inverting_conv/caffe_invert_alexnet/data/siggraph/tiny_summer_train_lmdb"
    mean_file: "/scr/r6/tgebru/timnit_caffe/data/ilsvrc12/imagenet_mean.binaryproto"
    batch_size: 12
    crop_size: 227
    mirror: false
    backend: LMDB
  }
}
layers {
  top: "target_ims"
  name: "target_ims"
  type: DATA
  data_param {
    source: "/scr/r6/tgebru/inverting_conv/caffe_invert_alexnet/data/siggraph/tiny_winter_train_lmdb"
    mean_file: "/scr/r6/tgebru/timnit_caffe/data/ilsvrc12/imagenet_mean.binaryproto"
    batch_size: 12
    crop_size: 216
    mirror: false
    backend: LMDB
  }
}
layers {
  bottom: "source_ims"
  top: "conv1"
  name: "conv1"
  type: CONVOLUTION
  blobs_lr: 0
  blobs_lr: 0
  weight_decay: 1
  weight_decay: 0
  convolution_param {
    num_output: 96
    kernel_size: 11
    stride: 4
    weight_filler {
      type: "gaussian"
      std: 0.01
    }
    bias_filler {
      type: "constant"
      value: 0
    }
  }
}
layers {
  bottom: "conv1"
  top: "conv1"
  name: "relu1"
  type: RELU
}
layers {
  bottom: "conv1"
  top: "pool1"
  name: "pool1"
  type: POOLING
  pooling_param {
    pool: MAX
    kernel_size: 3
    stride: 2
  }
}
layers {
  bottom: "pool1"
  top: "norm1"
  name: "norm1"
  type: LRN
  lrn_param {
    local_size: 5
    alpha: 0.0001
    beta: 0.75
  }
}
layers {
  bottom: "norm1"
  top: "Rconv6"
  name: "Rconv6"
  type: CONVOLUTION
  blobs_lr: 1
  blobs_lr: 2
  weight_decay: 1
  weight_decay: 0
  convolution_param {
    num_output: 256
    pad: 1
    kernel_size: 3
  }
}
layers {
  bottom: "Rconv6"
  top: "Rconv6"
  name: "Rrelu6"
  type: RELU
}
layers {
  bottom: "Rconv6"
  top: "Rconv7"
  name: "Rconv7"
  type: CONVOLUTION
  blobs_lr: 1
  blobs_lr: 2
  weight_decay: 1
  weight_decay: 0
  convolution_param {
    num_output: 256
    pad: 1
    kernel_size: 3
    group: 2
  }
}
layers {
  bottom: "Rconv7"
  top: "Rconv7"
  name: "Rrelu7"
  type: RELU
}
layers {
  bottom: "Rconv7"
  top: "Rconv8"
  name: "Rconv8"
  type: CONVOLUTION
  blobs_lr: 1
  blobs_lr: 2
  weight_decay: 1
  weight_decay: 0
  convolution_param {
    num_output: 256
    pad: 1
    kernel_size: 3
    group: 2
  }
}
layers {
  bottom: "Rconv8"
  top: "Rconv8"
  name: "Rrelu8"
  type: RELU
}
layers {
  bottom: "Rconv8"
  top: "deconv2"
  name: "deconv2"
  type: DECONVOLUTION
  blobs_lr: 1
  blobs_lr: 2
  weight_decay: 1
  weight_decay: 0
  deconvolution_param {
    pad: 2
    kernel_size: 5
    stride: 2
    output_height: 54
    output_width: 54
    output_channels: 64
  }
}
layers {
  bottom: "deconv2"
  top: "deconv2"
  name: "relu_deconv2"
  type: RELU
  relu_param {
    negative_slope: 0.3
  }
}
layers {
  bottom: "deconv2"
  top: "deconv1"
  name: "deconv1"
  type: DECONVOLUTION
  blobs_lr: 1
  blobs_lr: 2
  weight_decay: 1
  weight_decay: 0
  deconvolution_param {
    pad: 2
    kernel_size: 5
    stride: 2
    output_height: 108
    output_width: 108
    output_channels: 32
  }
}
layers {
  bottom: "deconv1"
  top: "deconv1"
  name: "relu_deconv1"
  type: RELU
  relu_param {
    negative_slope: 0.3
  }
}
layers {
  bottom: "deconv1"
  top: "deconv0"
  name: "deconv0"
  type: DECONVOLUTION
  blobs_lr: 1
  blobs_lr: 2
  weight_decay: 1
  weight_decay: 1
  deconvolution_param {
    pad: 2
    kernel_size: 5
    stride: 2
    output_height: 216
    output_width: 216
    output_channels: 3
  }
}
layers {
  bottom: "deconv0"
  bottom: "target_ims"
  name: "loss"
  type: EUCLIDEAN_LOSS
}
I0813 13:04:12.979558  2676 net.cpp:65] Creating Layer source_ims
I0813 13:04:12.979568  2676 net.cpp:189] source_ims -> source_ims
I0813 13:04:12.979686  2676 data_layer.cpp:223] Opening lmdb /scr/r6/tgebru/inverting_conv/caffe_invert_alexnet/data/siggraph/tiny_summer_train_lmdb
I0813 13:04:12.979902  2676 data_layer.cpp:285] output data size: 12,3,227,227
I0813 13:04:12.979907  2676 data_layer.cpp:304] Loading mean file from/scr/r6/tgebru/timnit_caffe/data/ilsvrc12/imagenet_mean.binaryproto
I0813 13:04:12.984408  2676 net.cpp:84] Top shape: 12 3 227 227 (1855044)
I0813 13:04:12.984417  2676 net.cpp:116] source_ims does not need backward computation.
I0813 13:04:12.984423  2676 net.cpp:65] Creating Layer target_ims
I0813 13:04:12.984427  2676 net.cpp:189] target_ims -> target_ims
I0813 13:04:12.984568  2676 data_layer.cpp:223] Opening lmdb /scr/r6/tgebru/inverting_conv/caffe_invert_alexnet/data/siggraph/tiny_winter_train_lmdb
I0813 13:04:12.984729  2676 data_layer.cpp:285] output data size: 12,3,216,216
I0813 13:04:12.984733  2676 data_layer.cpp:304] Loading mean file from/scr/r6/tgebru/timnit_caffe/data/ilsvrc12/imagenet_mean.binaryproto
I0813 13:04:12.989102  2676 net.cpp:84] Top shape: 12 3 216 216 (1679616)
I0813 13:04:12.989110  2676 net.cpp:116] target_ims does not need backward computation.
I0813 13:04:12.989121  2676 net.cpp:65] Creating Layer conv1
I0813 13:04:12.989125  2676 net.cpp:228] conv1 <- source_ims
I0813 13:04:12.989192  2676 net.cpp:189] conv1 -> conv1
I0813 13:04:12.990499  2676 net.cpp:84] Top shape: 12 96 55 55 (3484800)
I0813 13:04:12.990505  2676 net.cpp:116] conv1 does not need backward computation.
I0813 13:04:12.990510  2676 net.cpp:65] Creating Layer relu1
I0813 13:04:12.990514  2676 net.cpp:228] relu1 <- conv1
I0813 13:04:12.990519  2676 net.cpp:179] relu1 -> conv1 (in-place)
I0813 13:04:12.990528  2676 net.cpp:84] Top shape: 12 96 55 55 (3484800)
I0813 13:04:12.990530  2676 net.cpp:116] relu1 does not need backward computation.
I0813 13:04:12.990536  2676 net.cpp:65] Creating Layer pool1
I0813 13:04:12.990538  2676 net.cpp:228] pool1 <- conv1
I0813 13:04:12.990543  2676 net.cpp:189] pool1 -> pool1
I0813 13:04:12.990556  2676 net.cpp:84] Top shape: 12 96 27 27 (839808)
I0813 13:04:12.990558  2676 net.cpp:116] pool1 does not need backward computation.
I0813 13:04:12.990563  2676 net.cpp:65] Creating Layer norm1
I0813 13:04:12.990566  2676 net.cpp:228] norm1 <- pool1
I0813 13:04:12.990571  2676 net.cpp:189] norm1 -> norm1
I0813 13:04:12.990581  2676 net.cpp:84] Top shape: 12 96 27 27 (839808)
I0813 13:04:12.990583  2676 net.cpp:116] norm1 does not need backward computation.
I0813 13:04:12.990587  2676 net.cpp:65] Creating Layer Rconv6
I0813 13:04:12.990592  2676 net.cpp:228] Rconv6 <- norm1
I0813 13:04:12.990595  2676 net.cpp:189] Rconv6 -> Rconv6
I0813 13:04:12.990854  2676 net.cpp:84] Top shape: 12 256 27 27 (2239488)
I0813 13:04:12.990857  2676 net.cpp:111] Rconv6 needs backward computation.
I0813 13:04:12.990861  2676 net.cpp:65] Creating Layer Rrelu6
I0813 13:04:12.990864  2676 net.cpp:228] Rrelu6 <- Rconv6
I0813 13:04:12.990869  2676 net.cpp:179] Rrelu6 -> Rconv6 (in-place)
I0813 13:04:12.990874  2676 net.cpp:84] Top shape: 12 256 27 27 (2239488)
I0813 13:04:12.990876  2676 net.cpp:111] Rrelu6 needs backward computation.
I0813 13:04:12.990881  2676 net.cpp:65] Creating Layer Rconv7
I0813 13:04:12.990885  2676 net.cpp:228] Rconv7 <- Rconv6
I0813 13:04:12.990888  2676 net.cpp:189] Rconv7 -> Rconv7
I0813 13:04:12.991576  2676 net.cpp:84] Top shape: 12 256 27 27 (2239488)
I0813 13:04:12.991581  2676 net.cpp:111] Rconv7 needs backward computation.
I0813 13:04:12.991585  2676 net.cpp:65] Creating Layer Rrelu7
I0813 13:04:12.991606  2676 net.cpp:228] Rrelu7 <- Rconv7
I0813 13:04:12.991611  2676 net.cpp:179] Rrelu7 -> Rconv7 (in-place)
I0813 13:04:12.991616  2676 net.cpp:84] Top shape: 12 256 27 27 (2239488)
I0813 13:04:12.991619  2676 net.cpp:111] Rrelu7 needs backward computation.
I0813 13:04:12.991622  2676 net.cpp:65] Creating Layer Rconv8
I0813 13:04:12.991626  2676 net.cpp:228] Rconv8 <- Rconv7
I0813 13:04:12.991629  2676 net.cpp:189] Rconv8 -> Rconv8
I0813 13:04:12.992413  2676 net.cpp:84] Top shape: 12 256 27 27 (2239488)
I0813 13:04:12.992418  2676 net.cpp:111] Rconv8 needs backward computation.
I0813 13:04:12.992421  2676 net.cpp:65] Creating Layer Rrelu8
I0813 13:04:12.992424  2676 net.cpp:228] Rrelu8 <- Rconv8
I0813 13:04:12.992429  2676 net.cpp:179] Rrelu8 -> Rconv8 (in-place)
I0813 13:04:12.992432  2676 net.cpp:84] Top shape: 12 256 27 27 (2239488)
I0813 13:04:12.992435  2676 net.cpp:111] Rrelu8 needs backward computation.
I0813 13:04:12.992439  2676 net.cpp:65] Creating Layer deconv2
I0813 13:04:12.992441  2676 net.cpp:228] deconv2 <- Rconv8
I0813 13:04:12.992445  2676 net.cpp:189] deconv2 -> deconv2
I0813 13:04:12.993485  2676 net.cpp:84] Top shape: 12 64 54 54 (2239488)
I0813 13:04:12.993491  2676 net.cpp:111] deconv2 needs backward computation.
I0813 13:04:12.993495  2676 net.cpp:65] Creating Layer relu_deconv2
I0813 13:04:12.993499  2676 net.cpp:228] relu_deconv2 <- deconv2
I0813 13:04:12.993502  2676 net.cpp:179] relu_deconv2 -> deconv2 (in-place)
I0813 13:04:12.993507  2676 net.cpp:84] Top shape: 12 64 54 54 (2239488)
I0813 13:04:12.993510  2676 net.cpp:111] relu_deconv2 needs backward computation.
I0813 13:04:12.993513  2676 net.cpp:65] Creating Layer deconv1
I0813 13:04:12.993516  2676 net.cpp:228] deconv1 <- deconv2
I0813 13:04:12.993520  2676 net.cpp:189] deconv1 -> deconv1
I0813 13:04:12.993660  2676 net.cpp:84] Top shape: 12 32 108 108 (4478976)
I0813 13:04:12.993664  2676 net.cpp:111] deconv1 needs backward computation.
I0813 13:04:12.993669  2676 net.cpp:65] Creating Layer relu_deconv1
I0813 13:04:12.993671  2676 net.cpp:228] relu_deconv1 <- deconv1
I0813 13:04:12.993675  2676 net.cpp:179] relu_deconv1 -> deconv1 (in-place)
I0813 13:04:12.993680  2676 net.cpp:84] Top shape: 12 32 108 108 (4478976)
I0813 13:04:12.993682  2676 net.cpp:111] relu_deconv1 needs backward computation.
I0813 13:04:12.993687  2676 net.cpp:65] Creating Layer deconv0
I0813 13:04:12.993690  2676 net.cpp:228] deconv0 <- deconv1
I0813 13:04:12.993693  2676 net.cpp:189] deconv0 -> deconv0
I0813 13:04:12.993736  2676 net.cpp:84] Top shape: 12 3 216 216 (1679616)
I0813 13:04:12.993739  2676 net.cpp:111] deconv0 needs backward computation.
I0813 13:04:12.993743  2676 net.cpp:65] Creating Layer loss
I0813 13:04:12.993746  2676 net.cpp:228] loss <- deconv0
I0813 13:04:12.993749  2676 net.cpp:228] loss <- target_ims
I0813 13:04:12.993758  2676 net.cpp:111] loss needs backward computation.
I0813 13:04:12.993773  2676 net.cpp:238] Collecting Learning Rate and Weight Decay.
…
    source: "/scr/r6/tgebru/inverting_conv/caffe_invert_alexnet/data/siggraph/tiny_summer_val_lmdb"
    mean_file: "/scr/r6/tgebru/timnit_caffe/data/ilsvrc12/imagenet_mean.binaryproto"
    batch_size: 64
    crop_size: 227
    mirror: false
    backend: LMDB
  }
}
layers {
  top: "target_ims"
  name: "target_ims"
  type: DATA
  data_param {
    source: "/scr/r6/tgebru/inverting_conv/caffe_invert_alexnet/data/siggraph/tiny_winter_val_lmdb"
    mean_file: "/scr/r6/tgebru/timnit_caffe/data/ilsvrc12/imagenet_mean.binaryproto"
    batch_size: 64
    crop_size: 216
    mirror: false
    backend: LMDB
  }
}
layers {
  bottom: "source_ims"
  top: "conv1"
  name: "conv1"
  type: CONVOLUTION
  blobs_lr: 0
  blobs_lr: 0
  weight_decay: 1
  weight_decay: 0
  convolution_param {
    num_output: 96
    kernel_size: 11
    stride: 4
    weight_filler {
      type: "gaussian"
      std: 0.01
    }
    bias_filler {
      type: "constant"
      value: 0
    }
  }
}
layers {
  bottom: "conv1"
  top: "conv1"
  name: "relu1"
  type: RELU
}
layers {
  bottom: "conv1"
  top: "pool1"
  name: "pool1"
  type: POOLING
  pooling_param {
    pool: MAX
    kernel_size: 3
    stride: 2
  }
}
layers {
  bottom: "pool1"
  top: "norm1"
  name: "norm1"
  type: LRN
  lrn_param {
    local_size: 5
    alpha: 0.0001
    beta: 0.75
  }
}
layers {
  bottom: "norm1"
  top: "Rconv6"
  name: "Rconv6"
  type: CONVOLUTION
  blobs_lr: 0
  blobs_lr: 0
  weight_decay: 1
  weight_decay: 0
  convolution_param {
    num_output: 256
    pad: 1
    kernel_size: 3
  }
}
layers {
  bottom: "Rconv6"
  top: "Rconv6"
  name: "Rrelu6"
  type: RELU
}
layers {
  bottom: "Rconv6"
  top: "Rconv7"
  name: "Rconv7"
  type: CONVOLUTION
  blobs_lr: 0
  blobs_lr: 0
  weight_decay: 1
  weight_decay: 0
  convolution_param {
    num_output: 256
    pad: 1
    kernel_size: 3
    group: 2
  }
}
layers {
  bottom: "Rconv7"
  top: "Rconv7"
  name: "Rrelu7"
  type: RELU
}
layers {
  bottom: "Rconv7"
  top: "Rconv8"
  name: "Rconv8"
  type: CONVOLUTION
  blobs_lr: 0
  blobs_lr: 0
  weight_decay: 1
  weight_decay: 0
  convolution_param {
    num_output: 256
    pad: 1
    kernel_size: 3
    group: 2
  }
}
layers {
  bottom: "Rconv8"
  top: "Rconv8"
  name: "Rrelu8"
  type: RELU
}
layers {
  bottom: "Rconv8"
  top: "deconv2"
  name: "deconv2"
  type: DECONVOLUTION
  blobs_lr: 0
  blobs_lr: 0
  weight_decay: 1
  weight_decay: 0
  deconvolution_param {
    pad: 2
    kernel_size: 5
    stride: 2
    output_height: 54
    output_width: 54
    output_channels: 64
  }
}
layers {
  bottom: "deconv2"
  top: "deconv2"
  name: "relu_deconv2"
  type: RELU
  relu_param {
    negative_slope: 0.3
  }
}
layers {
  bottom: "deconv2"
  top: "deconv1"
  name: "deconv1"
  type: DECONVOLUTION
  blobs_lr: 0
  blobs_lr: 0
  weight_decay: 1
  weight_decay: 0
  deconvolution_param {
    pad: 2
    kernel_size: 5
    stride: 2
    output_height: 108
    output_width: 108
    output_channels: 32
  }
}
layers {
  bottom: "deconv1"
  top: "deconv1"
  name: "relu_deconv1"
  type: RELU
  relu_param {
    negative_slope: 0.3
  }
}
layers {
  bottom: "deconv1"
  top: "deconv0"
  name: "deconv0"
  type: DECONVOLUTION
  blobs_lr: 0
  blobs_lr: 0
  weight_decay: 1
  weight_decay: 0
  deconvolution_param {
    pad: 2
    kernel_size: 5
    stride: 2
    output_height: 216
    output_width: 216
    output_channels: 3
  }
}
layers {
  bottom: "deconv0"
  bottom: "target_ims"
  name: "loss"
  type: EUCLIDEAN_LOSS
}
I0813 13:04:12.994493  2676 net.cpp:65] Creating Layer source_ims
I0813 13:04:12.994498  2676 net.cpp:189] source_ims -> source_ims
I0813 13:04:12.994557  2676 data_layer.cpp:223] Opening lmdb /scr/r6/tgebru/inverting_conv/caffe_invert_alexnet/data/siggraph/tiny_summer_val_lmdb
I0813 13:04:12.994742  2676 data_layer.cpp:285] output data size: 64,3,227,227
I0813 13:04:12.994747  2676 data_layer.cpp:304] Loading mean file from/scr/r6/tgebru/timnit_caffe/data/ilsvrc12/imagenet_mean.binaryproto
I0813 13:04:13.008815  2676 net.cpp:84] Top shape: 64 3 227 227 (9893568)
I0813 13:04:13.008833  2676 net.cpp:116] source_ims does not need backward computation.
I0813 13:04:13.008846  2676 net.cpp:65] Creating Layer target_ims
I0813 13:04:13.008852  2676 net.cpp:189] target_ims -> target_ims
I0813 13:04:13.008949  2676 data_layer.cpp:223] Opening lmdb /scr/r6/tgebru/inverting_conv/caffe_invert_alexnet/data/siggraph/tiny_winter_val_lmdb
I0813 13:04:13.009085  2676 data_layer.cpp:285] output data size: 64,3,216,216
I0813 13:04:13.009089  2676 data_layer.cpp:304] Loading mean file from/scr/r6/tgebru/timnit_caffe/data/ilsvrc12/imagenet_mean.binaryproto
I0813 13:04:13.021572  2676 net.cpp:84] Top shape: 64 3 216 216 (8957952)
I0813 13:04:13.021647  2676 net.cpp:116] target_ims does not need backward computation.
I0813 13:04:13.021663  2676 net.cpp:65] Creating Layer conv1
I0813 13:04:13.021668  2676 net.cpp:228] conv1 <- source_ims
I0813 13:04:13.021677  2676 net.cpp:189] conv1 -> conv1
I0813 13:04:13.022940  2676 net.cpp:84] Top shape: 64 96 55 55 (18585600)
I0813 13:04:13.022944  2676 net.cpp:116] conv1 does not need backward computation.
I0813 13:04:13.022948  2676 net.cpp:65] Creating Layer relu1
I0813 13:04:13.022951  2676 net.cpp:228] relu1 <- conv1
I0813 13:04:13.022956  2676 net.cpp:179] relu1 -> conv1 (in-place)
I0813 13:04:13.022963  2676 net.cpp:84] Top shape: 64 96 55 55 (18585600)
I0813 13:04:13.022965  2676 net.cpp:116] relu1 does not need backward computation.
I0813 13:04:13.022970  2676 net.cpp:65] Creating Layer pool1
I0813 13:04:13.022972  2676 net.cpp:228] pool1 <- conv1
I0813 13:04:13.022977  2676 net.cpp:189] pool1 -> pool1
I0813 13:04:13.022984  2676 net.cpp:84] Top shape: 64 96 27 27 (4478976)
I0813 13:04:13.022986  2676 net.cpp:116] pool1 does not need backward computation.
I0813 13:04:13.022992  2676 net.cpp:65] Creating Layer norm1
I0813 13:04:13.022995  2676 net.cpp:228] norm1 <- pool1
I0813 13:04:13.023000  2676 net.cpp:189] norm1 -> norm1
I0813 13:04:13.023006  2676 net.cpp:84] Top shape: 64 96 27 27 (4478976)
I0813 13:04:13.023010  2676 net.cpp:116] norm1 does not need backward computation.
I0813 13:04:13.023013  2676 net.cpp:65] Creating Layer Rconv6
I0813 13:04:13.023017  2676 net.cpp:228] Rconv6 <- norm1
I0813 13:04:13.023021  2676 net.cpp:189] Rconv6 -> Rconv6
I0813 13:04:13.023260  2676 net.cpp:84] Top shape: 64 256 27 27 (11943936)
I0813 13:04:13.023264  2676 net.cpp:116] Rconv6 does not need backward computation.
I0813 13:04:13.023269  2676 net.cpp:65] Creating Layer Rrelu6
I0813 13:04:13.023273  2676 net.cpp:228] Rrelu6 <- Rconv6
I0813 13:04:13.023277  2676 net.cpp:179] Rrelu6 -> Rconv6 (in-place)
I0813 13:04:13.023282  2676 net.cpp:84] Top shape: 64 256 27 27 (11943936)
I0813 13:04:13.023284  2676 net.cpp:116] Rrelu6 does not need backward computation.
I0813 13:04:13.023289  2676 net.cpp:65] Creating Layer Rconv7
I0813 13:04:13.023291  2676 net.cpp:228] Rconv7 <- Rconv6
I0813 13:04:13.023295  2676 net.cpp:189] Rconv7 -> Rconv7
I0813 13:04:13.024057  2676 net.cpp:84] Top shape: 64 256 27 27 (11943936)
I0813 13:04:13.024062  2676 net.cpp:116] Rconv7 does not need backward computation.
I0813 13:04:13.024066  2676 net.cpp:65] Creating Layer Rrelu7
I0813 13:04:13.024070  2676 net.cpp:228] Rrelu7 <- Rconv7
I0813 13:04:13.024073  2676 net.cpp:179] Rrelu7 -> Rconv7 (in-place)
I0813 13:04:13.024077  2676 net.cpp:84] Top shape: 64 256 27 27 (11943936)
I0813 13:04:13.024080  2676 net.cpp:116] Rrelu7 does not need backward computation.
I0813 13:04:13.024085  2676 net.cpp:65] Creating Layer Rconv8
I0813 13:04:13.024087  2676 net.cpp:228] Rconv8 <- Rconv7
I0813 13:04:13.024091  2676 net.cpp:189] Rconv8 -> Rconv8
I0813 13:04:13.024816  2676 net.cpp:84] Top shape: 64 256 27 27 (11943936)
I0813 13:04:13.024821  2676 net.cpp:116] Rconv8 does not need backward computation.
I0813 13:04:13.024826  2676 net.cpp:65] Creating Layer Rrelu8
I0813 13:04:13.024827  2676 net.cpp:228] Rrelu8 <- Rconv8
I0813 13:04:13.024832  2676 net.cpp:179] Rrelu8 -> Rconv8 (in-place)
I0813 13:04:13.024837  2676 net.cpp:84] Top shape: 64 256 27 27 (11943936)
I0813 13:04:13.024838  2676 net.cpp:116] Rrelu8 does not need backward computation.
I0813 13:04:13.024844  2676 net.cpp:65] Creating Layer deconv2
I0813 13:04:13.024847  2676 net.cpp:228] deconv2 <- Rconv8
I0813 13:04:13.024852  2676 net.cpp:189] deconv2 -> deconv2
I0813 13:04:13.025923  2676 net.cpp:84] Top shape: 64 64 54 54 (11943936)
I0813 13:04:13.025928  2676 net.cpp:116] deconv2 does not need backward computation.
I0813 13:04:13.025933  2676 net.cpp:65] Creating Layer relu_deconv2
I0813 13:04:13.025936  2676 net.cpp:228] relu_deconv2 <- deconv2
I0813 13:04:13.025940  2676 net.cpp:179] relu_deconv2 -> deconv2 (in-place)
I0813 13:04:13.025945  2676 net.cpp:84] Top shape: 64 64 54 54 (11943936)
I0813 13:04:13.025959  2676 net.cpp:116] relu_deconv2 does not need backward computation.
I0813 13:04:13.025964  2676 net.cpp:65] Creating Layer deconv1
I0813 13:04:13.025966  2676 net.cpp:228] deconv1 <- deconv2
I0813 13:04:13.025971  2676 net.cpp:189] deconv1 -> deconv1
I0813 13:04:13.026108  2676 net.cpp:84] Top shape: 64 32 108 108 (23887872)
I0813 13:04:13.026111  2676 net.cpp:116] deconv1 does not need backward computation.
I0813 13:04:13.026116  2676 net.cpp:65] Creating Layer relu_deconv1
I0813 13:04:13.026119  2676 net.cpp:228] relu_deconv1 <- deconv1
I0813 13:04:13.026124  2676 net.cpp:179] relu_deconv1 -> deconv1 (in-place)
I0813 13:04:13.026128  2676 net.cpp:84] Top shape: 64 32 108 108 (23887872)
I0813 13:04:13.026130  2676 net.cpp:116] relu_deconv1 does not need backward computation.
I0813 13:04:13.026135  2676 net.cpp:65] Creating Layer deconv0
I0813 13:04:13.026137  2676 net.cpp:228] deconv0 <- deconv1
I0813 13:04:13.026141  2676 net.cpp:189] deconv0 -> deconv0
I0813 13:04:13.026165  2676 net.cpp:84] Top shape: 64 3 216 216 (8957952)
I0813 13:04:13.026168  2676 net.cpp:116] deconv0 does not need backward computation.
I0813 13:04:13.026172  2676 net.cpp:65] Creating Layer loss
I0813 13:04:13.026175  2676 net.cpp:228] loss <- deconv0
I0813 13:04:13.026180  2676 net.cpp:228] loss <- target_ims
I0813 13:04:13.026185  2676 net.cpp:116] loss does not need backward computation.
I0813 13:04:13.026196  2676 net.cpp:238] Collecting Learning Rate and Weight Decay.
…
