…
    source: "/scr/r6/tgebru/inverting_conv/caffe_invert_alexnet/data/siggraph/tiny_winter_train_lmdb"
    mean_file: "/scr/r6/tgebru/timnit_caffe/data/ilsvrc12/imagenet_mean.binaryproto"
    batch_size: 12
    crop_size: 227
    mirror: false
    backend: LMDB
  }
}
layers {
  top: "target_ims"
  name: "target_ims"
  type: DATA
  data_param {
    source: "/scr/r6/tgebru/inverting_conv/caffe_invert_alexnet/data/siggraph/tiny_summer_train_lmdb"
    mean_file: "/scr/r6/tgebru/timnit_caffe/data/ilsvrc12/imagenet_mean.binaryproto"
    batch_size: 12
    crop_size: 216
    mirror: false
    backend: LMDB
  }
}
layers {
  bottom: "source_ims"
  top: "conv1"
  name: "conv1"
  type: CONVOLUTION
  blobs_lr: 0
  blobs_lr: 0
  weight_decay: 1
  weight_decay: 0
  convolution_param {
    num_output: 96
    kernel_size: 11
    stride: 4
    weight_filler {
      type: "gaussian"
      std: 0.01
    }
    bias_filler {
      type: "constant"
      value: 0
    }
  }
}
layers {
  bottom: "conv1"
  top: "conv1"
  name: "relu1"
  type: RELU
}
layers {
  bottom: "conv1"
  top: "pool1"
  name: "pool1"
  type: POOLING
  pooling_param {
    pool: MAX
    kernel_size: 3
    stride: 2
  }
}
layers {
  bottom: "pool1"
  top: "norm1"
  name: "norm1"
  type: LRN
  lrn_param {
    local_size: 5
    alpha: 0.0001
    beta: 0.75
  }
}
layers {
  bottom: "norm1"
  top: "Rconv6"
  name: "Rconv6"
  type: CONVOLUTION
  blobs_lr: 1
  blobs_lr: 2
  weight_decay: 1
  weight_decay: 0
  convolution_param {
    num_output: 256
    pad: 1
    kernel_size: 3
  }
}
layers {
  bottom: "Rconv6"
  top: "Rconv6"
  name: "Rrelu6"
  type: RELU
}
layers {
  bottom: "Rconv6"
  top: "Rconv7"
  name: "Rconv7"
  type: CONVOLUTION
  blobs_lr: 1
  blobs_lr: 2
  weight_decay: 1
  weight_decay: 0
  convolution_param {
    num_output: 256
    pad: 1
    kernel_size: 3
    group: 2
  }
}
layers {
  bottom: "Rconv7"
  top: "Rconv7"
  name: "Rrelu7"
  type: RELU
}
layers {
  bottom: "Rconv7"
  top: "Rconv8"
  name: "Rconv8"
  type: CONVOLUTION
  blobs_lr: 1
  blobs_lr: 2
  weight_decay: 1
  weight_decay: 0
  convolution_param {
    num_output: 256
    pad: 1
    kernel_size: 3
    group: 2
  }
}
layers {
  bottom: "Rconv8"
  top: "Rconv8"
  name: "Rrelu8"
  type: RELU
}
layers {
  bottom: "Rconv8"
  top: "deconv2"
  name: "deconv2"
  type: DECONVOLUTION
  blobs_lr: 1
  blobs_lr: 2
  weight_decay: 1
  weight_decay: 0
  deconvolution_param {
    pad: 2
    kernel_size: 5
    stride: 2
    output_height: 54
    output_width: 54
    output_channels: 64
  }
}
layers {
  bottom: "deconv2"
  top: "deconv2"
  name: "relu_deconv2"
  type: RELU
  relu_param {
    negative_slope: 0.3
  }
}
layers {
  bottom: "deconv2"
  top: "deconv1"
  name: "deconv1"
  type: DECONVOLUTION
  blobs_lr: 1
  blobs_lr: 2
  weight_decay: 1
  weight_decay: 0
  deconvolution_param {
    pad: 2
    kernel_size: 5
    stride: 2
    output_height: 108
    output_width: 108
    output_channels: 32
  }
}
layers {
  bottom: "deconv1"
  top: "deconv1"
  name: "relu_deconv1"
  type: RELU
  relu_param {
    negative_slope: 0.3
  }
}
layers {
  bottom: "deconv1"
  top: "deconv0"
  name: "deconv0"
  type: DECONVOLUTION
  blobs_lr: 1
  blobs_lr: 2
  weight_decay: 1
  weight_decay: 1
  deconvolution_param {
    pad: 2
    kernel_size: 5
    stride: 2
    output_height: 216
    output_width: 216
    output_channels: 3
  }
}
layers {
  bottom: "deconv0"
  bottom: "target_ims"
  name: "loss"
  type: EUCLIDEAN_LOSS
}
I0812 21:05:59.476769 10905 net.cpp:65] Creating Layer source_ims
I0812 21:05:59.476778 10905 net.cpp:189] source_ims -> source_ims
I0812 21:05:59.476894 10905 data_layer.cpp:223] Opening lmdb /scr/r6/tgebru/inverting_conv/caffe_invert_alexnet/data/siggraph/tiny_winter_train_lmdb
I0812 21:05:59.477095 10905 data_layer.cpp:285] output data size: 12,3,227,227
I0812 21:05:59.477102 10905 data_layer.cpp:304] Loading mean file from/scr/r6/tgebru/timnit_caffe/data/ilsvrc12/imagenet_mean.binaryproto
I0812 21:05:59.482027 10905 net.cpp:84] Top shape: 12 3 227 227 (1855044)
I0812 21:05:59.482034 10905 net.cpp:116] source_ims does not need backward computation.
I0812 21:05:59.482041 10905 net.cpp:65] Creating Layer target_ims
I0812 21:05:59.482045 10905 net.cpp:189] target_ims -> target_ims
I0812 21:05:59.482208 10905 data_layer.cpp:223] Opening lmdb /scr/r6/tgebru/inverting_conv/caffe_invert_alexnet/data/siggraph/tiny_summer_train_lmdb
I0812 21:05:59.482343 10905 data_layer.cpp:285] output data size: 12,3,216,216
I0812 21:05:59.482348 10905 data_layer.cpp:304] Loading mean file from/scr/r6/tgebru/timnit_caffe/data/ilsvrc12/imagenet_mean.binaryproto
I0812 21:05:59.486829 10905 net.cpp:84] Top shape: 12 3 216 216 (1679616)
I0812 21:05:59.486837 10905 net.cpp:116] target_ims does not need backward computation.
I0812 21:05:59.486848 10905 net.cpp:65] Creating Layer conv1
I0812 21:05:59.486852 10905 net.cpp:228] conv1 <- source_ims
I0812 21:05:59.486930 10905 net.cpp:189] conv1 -> conv1
I0812 21:05:59.488239 10905 net.cpp:84] Top shape: 12 96 55 55 (3484800)
I0812 21:05:59.488245 10905 net.cpp:116] conv1 does not need backward computation.
I0812 21:05:59.488250 10905 net.cpp:65] Creating Layer relu1
I0812 21:05:59.488253 10905 net.cpp:228] relu1 <- conv1
I0812 21:05:59.488258 10905 net.cpp:179] relu1 -> conv1 (in-place)
I0812 21:05:59.488267 10905 net.cpp:84] Top shape: 12 96 55 55 (3484800)
I0812 21:05:59.488270 10905 net.cpp:116] relu1 does not need backward computation.
I0812 21:05:59.488276 10905 net.cpp:65] Creating Layer pool1
I0812 21:05:59.488278 10905 net.cpp:228] pool1 <- conv1
I0812 21:05:59.488284 10905 net.cpp:189] pool1 -> pool1
I0812 21:05:59.488296 10905 net.cpp:84] Top shape: 12 96 27 27 (839808)
I0812 21:05:59.488299 10905 net.cpp:116] pool1 does not need backward computation.
I0812 21:05:59.488306 10905 net.cpp:65] Creating Layer norm1
I0812 21:05:59.488307 10905 net.cpp:228] norm1 <- pool1
I0812 21:05:59.488312 10905 net.cpp:189] norm1 -> norm1
I0812 21:05:59.488322 10905 net.cpp:84] Top shape: 12 96 27 27 (839808)
I0812 21:05:59.488324 10905 net.cpp:116] norm1 does not need backward computation.
I0812 21:05:59.488329 10905 net.cpp:65] Creating Layer Rconv6
I0812 21:05:59.488332 10905 net.cpp:228] Rconv6 <- norm1
I0812 21:05:59.488337 10905 net.cpp:189] Rconv6 -> Rconv6
I0812 21:05:59.488593 10905 net.cpp:84] Top shape: 12 256 27 27 (2239488)
I0812 21:05:59.488597 10905 net.cpp:111] Rconv6 needs backward computation.
I0812 21:05:59.488602 10905 net.cpp:65] Creating Layer Rrelu6
I0812 21:05:59.488605 10905 net.cpp:228] Rrelu6 <- Rconv6
I0812 21:05:59.488610 10905 net.cpp:179] Rrelu6 -> Rconv6 (in-place)
I0812 21:05:59.488615 10905 net.cpp:84] Top shape: 12 256 27 27 (2239488)
I0812 21:05:59.488617 10905 net.cpp:111] Rrelu6 needs backward computation.
I0812 21:05:59.488622 10905 net.cpp:65] Creating Layer Rconv7
I0812 21:05:59.488626 10905 net.cpp:228] Rconv7 <- Rconv6
I0812 21:05:59.488629 10905 net.cpp:189] Rconv7 -> Rconv7
I0812 21:05:59.489316 10905 net.cpp:84] Top shape: 12 256 27 27 (2239488)
I0812 21:05:59.489320 10905 net.cpp:111] Rconv7 needs backward computation.
I0812 21:05:59.489326 10905 net.cpp:65] Creating Layer Rrelu7
I0812 21:05:59.489346 10905 net.cpp:228] Rrelu7 <- Rconv7
I0812 21:05:59.489351 10905 net.cpp:179] Rrelu7 -> Rconv7 (in-place)
I0812 21:05:59.489356 10905 net.cpp:84] Top shape: 12 256 27 27 (2239488)
I0812 21:05:59.489358 10905 net.cpp:111] Rrelu7 needs backward computation.
I0812 21:05:59.489362 10905 net.cpp:65] Creating Layer Rconv8
I0812 21:05:59.489365 10905 net.cpp:228] Rconv8 <- Rconv7
I0812 21:05:59.489369 10905 net.cpp:189] Rconv8 -> Rconv8
I0812 21:05:59.490120 10905 net.cpp:84] Top shape: 12 256 27 27 (2239488)
I0812 21:05:59.490125 10905 net.cpp:111] Rconv8 needs backward computation.
I0812 21:05:59.490130 10905 net.cpp:65] Creating Layer Rrelu8
I0812 21:05:59.490133 10905 net.cpp:228] Rrelu8 <- Rconv8
I0812 21:05:59.490136 10905 net.cpp:179] Rrelu8 -> Rconv8 (in-place)
I0812 21:05:59.490140 10905 net.cpp:84] Top shape: 12 256 27 27 (2239488)
I0812 21:05:59.490144 10905 net.cpp:111] Rrelu8 needs backward computation.
I0812 21:05:59.490147 10905 net.cpp:65] Creating Layer deconv2
I0812 21:05:59.490149 10905 net.cpp:228] deconv2 <- Rconv8
I0812 21:05:59.490154 10905 net.cpp:189] deconv2 -> deconv2
I0812 21:05:59.491189 10905 net.cpp:84] Top shape: 12 64 54 54 (2239488)
I0812 21:05:59.491194 10905 net.cpp:111] deconv2 needs backward computation.
I0812 21:05:59.491197 10905 net.cpp:65] Creating Layer relu_deconv2
I0812 21:05:59.491200 10905 net.cpp:228] relu_deconv2 <- deconv2
I0812 21:05:59.491204 10905 net.cpp:179] relu_deconv2 -> deconv2 (in-place)
I0812 21:05:59.491209 10905 net.cpp:84] Top shape: 12 64 54 54 (2239488)
I0812 21:05:59.491212 10905 net.cpp:111] relu_deconv2 needs backward computation.
I0812 21:05:59.491215 10905 net.cpp:65] Creating Layer deconv1
I0812 21:05:59.491219 10905 net.cpp:228] deconv1 <- deconv2
I0812 21:05:59.491222 10905 net.cpp:189] deconv1 -> deconv1
I0812 21:05:59.491358 10905 net.cpp:84] Top shape: 12 32 108 108 (4478976)
I0812 21:05:59.491361 10905 net.cpp:111] deconv1 needs backward computation.
I0812 21:05:59.491365 10905 net.cpp:65] Creating Layer relu_deconv1
I0812 21:05:59.491369 10905 net.cpp:228] relu_deconv1 <- deconv1
I0812 21:05:59.491372 10905 net.cpp:179] relu_deconv1 -> deconv1 (in-place)
I0812 21:05:59.491376 10905 net.cpp:84] Top shape: 12 32 108 108 (4478976)
I0812 21:05:59.491379 10905 net.cpp:111] relu_deconv1 needs backward computation.
I0812 21:05:59.491384 10905 net.cpp:65] Creating Layer deconv0
I0812 21:05:59.491387 10905 net.cpp:228] deconv0 <- deconv1
I0812 21:05:59.491391 10905 net.cpp:189] deconv0 -> deconv0
I0812 21:05:59.491436 10905 net.cpp:84] Top shape: 12 3 216 216 (1679616)
I0812 21:05:59.491438 10905 net.cpp:111] deconv0 needs backward computation.
I0812 21:05:59.491442 10905 net.cpp:65] Creating Layer loss
I0812 21:05:59.491446 10905 net.cpp:228] loss <- deconv0
I0812 21:05:59.491448 10905 net.cpp:228] loss <- target_ims
I0812 21:05:59.491457 10905 net.cpp:111] loss needs backward computation.
I0812 21:05:59.491471 10905 net.cpp:238] Collecting Learning Rate and Weight Decay.
…
    source: "/scr/r6/tgebru/inverting_conv/caffe_invert_alexnet/data/siggraph/tiny_winter_val_lmdb"
    mean_file: "/scr/r6/tgebru/timnit_caffe/data/ilsvrc12/imagenet_mean.binaryproto"
    batch_size: 2
    crop_size: 227
    mirror: false
    backend: LMDB
  }
}
layers {
  top: "target_ims"
  name: "target_ims"
  type: DATA
  data_param {
    source: "/scr/r6/tgebru/inverting_conv/caffe_invert_alexnet/data/siggraph/tiny_summer_val_lmdb"
    mean_file: "/scr/r6/tgebru/timnit_caffe/data/ilsvrc12/imagenet_mean.binaryproto"
    batch_size: 2
    crop_size: 216
    mirror: false
    backend: LMDB
  }
}
layers {
  bottom: "source_ims"
  top: "conv1"
  name: "conv1"
  type: CONVOLUTION
  blobs_lr: 0
  blobs_lr: 0
  weight_decay: 1
  weight_decay: 0
  convolution_param {
    num_output: 96
    kernel_size: 11
    stride: 4
    weight_filler {
      type: "gaussian"
      std: 0.01
    }
    bias_filler {
      type: "constant"
      value: 0
    }
  }
}
layers {
  bottom: "conv1"
  top: "conv1"
  name: "relu1"
  type: RELU
}
layers {
  bottom: "conv1"
  top: "pool1"
  name: "pool1"
  type: POOLING
  pooling_param {
    pool: MAX
    kernel_size: 3
    stride: 2
  }
}
layers {
  bottom: "pool1"
  top: "norm1"
  name: "norm1"
  type: LRN
  lrn_param {
    local_size: 5
    alpha: 0.0001
    beta: 0.75
  }
}
layers {
  bottom: "norm1"
  top: "Rconv6"
  name: "Rconv6"
  type: CONVOLUTION
  blobs_lr: 0
  blobs_lr: 0
  weight_decay: 1
  weight_decay: 0
  convolution_param {
    num_output: 256
    pad: 1
    kernel_size: 3
  }
}
layers {
  bottom: "Rconv6"
  top: "Rconv6"
  name: "Rrelu6"
  type: RELU
}
layers {
  bottom: "Rconv6"
  top: "Rconv7"
  name: "Rconv7"
  type: CONVOLUTION
  blobs_lr: 0
  blobs_lr: 0
  weight_decay: 1
  weight_decay: 0
  convolution_param {
    num_output: 256
    pad: 1
    kernel_size: 3
    group: 2
  }
}
layers {
  bottom: "Rconv7"
  top: "Rconv7"
  name: "Rrelu7"
  type: RELU
}
layers {
  bottom: "Rconv7"
  top: "Rconv8"
  name: "Rconv8"
  type: CONVOLUTION
  blobs_lr: 0
  blobs_lr: 0
  weight_decay: 1
  weight_decay: 0
  convolution_param {
    num_output: 256
    pad: 1
    kernel_size: 3
    group: 2
  }
}
layers {
  bottom: "Rconv8"
  top: "Rconv8"
  name: "Rrelu8"
  type: RELU
}
layers {
  bottom: "Rconv8"
  top: "deconv2"
  name: "deconv2"
  type: DECONVOLUTION
  blobs_lr: 0
  blobs_lr: 0
  weight_decay: 1
  weight_decay: 0
  deconvolution_param {
    pad: 2
    kernel_size: 5
    stride: 2
    output_height: 54
    output_width: 54
    output_channels: 64
  }
}
layers {
  bottom: "deconv2"
  top: "deconv2"
  name: "relu_deconv2"
  type: RELU
  relu_param {
    negative_slope: 0.3
  }
}
layers {
  bottom: "deconv2"
  top: "deconv1"
  name: "deconv1"
  type: DECONVOLUTION
  blobs_lr: 0
  blobs_lr: 0
  weight_decay: 1
  weight_decay: 0
  deconvolution_param {
    pad: 2
    kernel_size: 5
    stride: 2
    output_height: 108
    output_width: 108
    output_channels: 32
  }
}
layers {
  bottom: "deconv1"
  top: "deconv1"
  name: "relu_deconv1"
  type: RELU
  relu_param {
    negative_slope: 0.3
  }
}
layers {
  bottom: "deconv1"
  top: "deconv0"
  name: "deconv0"
  type: DECONVOLUTION
  blobs_lr: 0
  blobs_lr: 0
  weight_decay: 1
  weight_decay: 0
  deconvolution_param {
    pad: 2
    kernel_size: 5
    stride: 2
    output_height: 216
    output_width: 216
    output_channels: 3
  }
}
layers {
  bottom: "deconv0"
  bottom: "target_ims"
  name: "loss"
  type: EUCLIDEAN_LOSS
}
I0812 21:05:59.492198 10905 net.cpp:65] Creating Layer source_ims
I0812 21:05:59.492204 10905 net.cpp:189] source_ims -> source_ims
I0812 21:05:59.492290 10905 data_layer.cpp:223] Opening lmdb /scr/r6/tgebru/inverting_conv/caffe_invert_alexnet/data/siggraph/tiny_winter_val_lmdb
I0812 21:05:59.492496 10905 data_layer.cpp:285] output data size: 2,3,227,227
I0812 21:05:59.492501 10905 data_layer.cpp:304] Loading mean file from/scr/r6/tgebru/timnit_caffe/data/ilsvrc12/imagenet_mean.binaryproto
I0812 21:05:59.494789 10905 net.cpp:84] Top shape: 2 3 227 227 (309174)
I0812 21:05:59.494796 10905 net.cpp:116] source_ims does not need backward computation.
I0812 21:05:59.494802 10905 net.cpp:65] Creating Layer target_ims
I0812 21:05:59.494807 10905 net.cpp:189] target_ims -> target_ims
I0812 21:05:59.494858 10905 data_layer.cpp:223] Opening lmdb /scr/r6/tgebru/inverting_conv/caffe_invert_alexnet/data/siggraph/tiny_summer_val_lmdb
I0812 21:05:59.495043 10905 data_layer.cpp:285] output data size: 2,3,216,216
I0812 21:05:59.495046 10905 data_layer.cpp:304] Loading mean file from/scr/r6/tgebru/timnit_caffe/data/ilsvrc12/imagenet_mean.binaryproto
I0812 21:05:59.497871 10905 net.cpp:84] Top shape: 2 3 216 216 (279936)
I0812 21:05:59.497911 10905 net.cpp:116] target_ims does not need backward computation.
I0812 21:05:59.497921 10905 net.cpp:65] Creating Layer conv1
I0812 21:05:59.497925 10905 net.cpp:228] conv1 <- source_ims
I0812 21:05:59.497931 10905 net.cpp:189] conv1 -> conv1
I0812 21:05:59.499197 10905 net.cpp:84] Top shape: 2 96 55 55 (580800)
I0812 21:05:59.499200 10905 net.cpp:116] conv1 does not need backward computation.
I0812 21:05:59.499205 10905 net.cpp:65] Creating Layer relu1
I0812 21:05:59.499208 10905 net.cpp:228] relu1 <- conv1
I0812 21:05:59.499213 10905 net.cpp:179] relu1 -> conv1 (in-place)
I0812 21:05:59.499218 10905 net.cpp:84] Top shape: 2 96 55 55 (580800)
I0812 21:05:59.499222 10905 net.cpp:116] relu1 does not need backward computation.
I0812 21:05:59.499228 10905 net.cpp:65] Creating Layer pool1
I0812 21:05:59.499229 10905 net.cpp:228] pool1 <- conv1
I0812 21:05:59.499234 10905 net.cpp:189] pool1 -> pool1
I0812 21:05:59.499241 10905 net.cpp:84] Top shape: 2 96 27 27 (139968)
I0812 21:05:59.499243 10905 net.cpp:116] pool1 does not need backward computation.
I0812 21:05:59.499248 10905 net.cpp:65] Creating Layer norm1
I0812 21:05:59.499251 10905 net.cpp:228] norm1 <- pool1
I0812 21:05:59.499255 10905 net.cpp:189] norm1 -> norm1
I0812 21:05:59.499261 10905 net.cpp:84] Top shape: 2 96 27 27 (139968)
I0812 21:05:59.499264 10905 net.cpp:116] norm1 does not need backward computation.
I0812 21:05:59.499269 10905 net.cpp:65] Creating Layer Rconv6
I0812 21:05:59.499271 10905 net.cpp:228] Rconv6 <- norm1
I0812 21:05:59.499275 10905 net.cpp:189] Rconv6 -> Rconv6
I0812 21:05:59.499914 10905 net.cpp:84] Top shape: 2 256 27 27 (373248)
I0812 21:05:59.499919 10905 net.cpp:116] Rconv6 does not need backward computation.
I0812 21:05:59.499925 10905 net.cpp:65] Creating Layer Rrelu6
I0812 21:05:59.499928 10905 net.cpp:228] Rrelu6 <- Rconv6
I0812 21:05:59.499933 10905 net.cpp:179] Rrelu6 -> Rconv6 (in-place)
I0812 21:05:59.499938 10905 net.cpp:84] Top shape: 2 256 27 27 (373248)
I0812 21:05:59.499939 10905 net.cpp:116] Rrelu6 does not need backward computation.
I0812 21:05:59.499945 10905 net.cpp:65] Creating Layer Rconv7
I0812 21:05:59.499948 10905 net.cpp:228] Rconv7 <- Rconv6
I0812 21:05:59.499953 10905 net.cpp:189] Rconv7 -> Rconv7
I0812 21:05:59.500771 10905 net.cpp:84] Top shape: 2 256 27 27 (373248)
I0812 21:05:59.500776 10905 net.cpp:116] Rconv7 does not need backward computation.
I0812 21:05:59.500780 10905 net.cpp:65] Creating Layer Rrelu7
I0812 21:05:59.500783 10905 net.cpp:228] Rrelu7 <- Rconv7
I0812 21:05:59.500787 10905 net.cpp:179] Rrelu7 -> Rconv7 (in-place)
I0812 21:05:59.500792 10905 net.cpp:84] Top shape: 2 256 27 27 (373248)
I0812 21:05:59.500793 10905 net.cpp:116] Rrelu7 does not need backward computation.
I0812 21:05:59.500797 10905 net.cpp:65] Creating Layer Rconv8
I0812 21:05:59.500800 10905 net.cpp:228] Rconv8 <- Rconv7
I0812 21:05:59.500803 10905 net.cpp:189] Rconv8 -> Rconv8
I0812 21:05:59.501575 10905 net.cpp:84] Top shape: 2 256 27 27 (373248)
I0812 21:05:59.501579 10905 net.cpp:116] Rconv8 does not need backward computation.
I0812 21:05:59.501585 10905 net.cpp:65] Creating Layer Rrelu8
I0812 21:05:59.501586 10905 net.cpp:228] Rrelu8 <- Rconv8
I0812 21:05:59.501590 10905 net.cpp:179] Rrelu8 -> Rconv8 (in-place)
I0812 21:05:59.501595 10905 net.cpp:84] Top shape: 2 256 27 27 (373248)
I0812 21:05:59.501597 10905 net.cpp:116] Rrelu8 does not need backward computation.
I0812 21:05:59.501602 10905 net.cpp:65] Creating Layer deconv2
I0812 21:05:59.501605 10905 net.cpp:228] deconv2 <- Rconv8
I0812 21:05:59.501608 10905 net.cpp:189] deconv2 -> deconv2
I0812 21:05:59.502671 10905 net.cpp:84] Top shape: 2 64 54 54 (373248)
I0812 21:05:59.502676 10905 net.cpp:116] deconv2 does not need backward computation.
I0812 21:05:59.502681 10905 net.cpp:65] Creating Layer relu_deconv2
I0812 21:05:59.502683 10905 net.cpp:228] relu_deconv2 <- deconv2
I0812 21:05:59.502687 10905 net.cpp:179] relu_deconv2 -> deconv2 (in-place)
I0812 21:05:59.502692 10905 net.cpp:84] Top shape: 2 64 54 54 (373248)
I0812 21:05:59.502694 10905 net.cpp:116] relu_deconv2 does not need backward computation.
I0812 21:05:59.502718 10905 net.cpp:65] Creating Layer deconv1
I0812 21:05:59.502722 10905 net.cpp:228] deconv1 <- deconv2
I0812 21:05:59.502725 10905 net.cpp:189] deconv1 -> deconv1
I0812 21:05:59.502871 10905 net.cpp:84] Top shape: 2 32 108 108 (746496)
I0812 21:05:59.502876 10905 net.cpp:116] deconv1 does not need backward computation.
I0812 21:05:59.502879 10905 net.cpp:65] Creating Layer relu_deconv1
I0812 21:05:59.502882 10905 net.cpp:228] relu_deconv1 <- deconv1
I0812 21:05:59.502885 10905 net.cpp:179] relu_deconv1 -> deconv1 (in-place)
I0812 21:05:59.502890 10905 net.cpp:84] Top shape: 2 32 108 108 (746496)
I0812 21:05:59.502892 10905 net.cpp:116] relu_deconv1 does not need backward computation.
I0812 21:05:59.502898 10905 net.cpp:65] Creating Layer deconv0
I0812 21:05:59.502900 10905 net.cpp:228] deconv0 <- deconv1
I0812 21:05:59.502904 10905 net.cpp:189] deconv0 -> deconv0
I0812 21:05:59.502933 10905 net.cpp:84] Top shape: 2 3 216 216 (279936)
I0812 21:05:59.502935 10905 net.cpp:116] deconv0 does not need backward computation.
I0812 21:05:59.502939 10905 net.cpp:65] Creating Layer loss
I0812 21:05:59.502941 10905 net.cpp:228] loss <- deconv0
I0812 21:05:59.502945 10905 net.cpp:228] loss <- target_ims
I0812 21:05:59.502949 10905 net.cpp:116] loss does not need backward computation.
I0812 21:05:59.502961 10905 net.cpp:238] Collecting Learning Rate and Weight Decay.
…
