…
    source: "/scr/r6/tgebru/inverting_conv/caffe_invert_alexnet/data/siggraph/tiny_summer_train_lmdb"
    mean_file: "/scr/r6/tgebru/timnit_caffe/data/ilsvrc12/imagenet_mean.binaryproto"
    batch_size: 12
    crop_size: 227
    mirror: false
    backend: LMDB
  }
}
layers {
  top: "target_ims"
  name: "target_ims"
  type: DATA
  data_param {
    source: "/scr/r6/tgebru/inverting_conv/caffe_invert_alexnet/data/siggraph/tiny_winter_train_lmdb"
    mean_file: "/scr/r6/tgebru/timnit_caffe/data/ilsvrc12/imagenet_mean.binaryproto"
    batch_size: 12
    crop_size: 216
    mirror: false
    backend: LMDB
  }
}
layers {
  bottom: "source_ims"
  top: "conv1"
  name: "conv1"
  type: CONVOLUTION
  blobs_lr: 0
  blobs_lr: 0
  weight_decay: 1
  weight_decay: 0
  convolution_param {
    num_output: 96
    kernel_size: 11
    stride: 4
    weight_filler {
      type: "gaussian"
      std: 0.01
    }
    bias_filler {
      type: "constant"
      value: 0
    }
  }
}
layers {
  bottom: "conv1"
  top: "conv1"
  name: "relu1"
  type: RELU
}
layers {
  bottom: "conv1"
  top: "pool1"
  name: "pool1"
  type: POOLING
  pooling_param {
    pool: MAX
    kernel_size: 3
    stride: 2
  }
}
layers {
  bottom: "pool1"
  top: "norm1"
  name: "norm1"
  type: LRN
  lrn_param {
    local_size: 5
    alpha: 0.0001
    beta: 0.75
  }
}
layers {
  bottom: "norm1"
  top: "Rconv6"
  name: "Rconv6"
  type: CONVOLUTION
  blobs_lr: 1
  blobs_lr: 2
  weight_decay: 1
  weight_decay: 0
  convolution_param {
    num_output: 256
    pad: 1
    kernel_size: 3
  }
}
layers {
  bottom: "Rconv6"
  top: "Rconv6"
  name: "Rrelu6"
  type: RELU
}
layers {
  bottom: "Rconv6"
  top: "Rconv7"
  name: "Rconv7"
  type: CONVOLUTION
  blobs_lr: 1
  blobs_lr: 2
  weight_decay: 1
  weight_decay: 0
  convolution_param {
    num_output: 256
    pad: 1
    kernel_size: 3
    group: 2
  }
}
layers {
  bottom: "Rconv7"
  top: "Rconv7"
  name: "Rrelu7"
  type: RELU
}
layers {
  bottom: "Rconv7"
  top: "Rconv8"
  name: "Rconv8"
  type: CONVOLUTION
  blobs_lr: 1
  blobs_lr: 2
  weight_decay: 1
  weight_decay: 0
  convolution_param {
    num_output: 256
    pad: 1
    kernel_size: 3
    group: 2
  }
}
layers {
  bottom: "Rconv8"
  top: "Rconv8"
  name: "Rrelu8"
  type: RELU
}
layers {
  bottom: "Rconv8"
  top: "deconv2"
  name: "deconv2"
  type: DECONVOLUTION
  blobs_lr: 1
  blobs_lr: 2
  weight_decay: 1
  weight_decay: 0
  deconvolution_param {
    pad: 2
    kernel_size: 5
    stride: 2
    output_height: 54
    output_width: 54
    output_channels: 64
  }
}
layers {
  bottom: "deconv2"
  top: "deconv2"
  name: "relu_deconv2"
  type: RELU
  relu_param {
    negative_slope: 0.3
  }
}
layers {
  bottom: "deconv2"
  top: "deconv1"
  name: "deconv1"
  type: DECONVOLUTION
  blobs_lr: 1
  blobs_lr: 2
  weight_decay: 1
  weight_decay: 0
  deconvolution_param {
    pad: 2
    kernel_size: 5
    stride: 2
    output_height: 108
    output_width: 108
    output_channels: 32
  }
}
layers {
  bottom: "deconv1"
  top: "deconv1"
  name: "relu_deconv1"
  type: RELU
  relu_param {
    negative_slope: 0.3
  }
}
layers {
  bottom: "deconv1"
  top: "deconv0"
  name: "deconv0"
  type: DECONVOLUTION
  blobs_lr: 1
  blobs_lr: 2
  weight_decay: 1
  weight_decay: 1
  deconvolution_param {
    pad: 2
    kernel_size: 5
    stride: 2
    output_height: 216
    output_width: 216
    output_channels: 3
  }
}
layers {
  bottom: "deconv0"
  bottom: "target_ims"
  name: "loss"
  type: EUCLIDEAN_LOSS
}
I0813 00:32:28.356732 17999 net.cpp:65] Creating Layer source_ims
I0813 00:32:28.356742 17999 net.cpp:189] source_ims -> source_ims
I0813 00:32:28.356863 17999 data_layer.cpp:223] Opening lmdb /scr/r6/tgebru/inverting_conv/caffe_invert_alexnet/data/siggraph/tiny_summer_train_lmdb
I0813 00:32:28.357082 17999 data_layer.cpp:285] output data size: 12,3,227,227
I0813 00:32:28.357089 17999 data_layer.cpp:304] Loading mean file from/scr/r6/tgebru/timnit_caffe/data/ilsvrc12/imagenet_mean.binaryproto
I0813 00:32:28.362427 17999 net.cpp:84] Top shape: 12 3 227 227 (1855044)
I0813 00:32:28.362435 17999 net.cpp:116] source_ims does not need backward computation.
I0813 00:32:28.362442 17999 net.cpp:65] Creating Layer target_ims
I0813 00:32:28.362447 17999 net.cpp:189] target_ims -> target_ims
I0813 00:32:28.362607 17999 data_layer.cpp:223] Opening lmdb /scr/r6/tgebru/inverting_conv/caffe_invert_alexnet/data/siggraph/tiny_winter_train_lmdb
I0813 00:32:28.362766 17999 data_layer.cpp:285] output data size: 12,3,216,216
I0813 00:32:28.362771 17999 data_layer.cpp:304] Loading mean file from/scr/r6/tgebru/timnit_caffe/data/ilsvrc12/imagenet_mean.binaryproto
I0813 00:32:28.367259 17999 net.cpp:84] Top shape: 12 3 216 216 (1679616)
I0813 00:32:28.367267 17999 net.cpp:116] target_ims does not need backward computation.
I0813 00:32:28.367280 17999 net.cpp:65] Creating Layer conv1
I0813 00:32:28.367283 17999 net.cpp:228] conv1 <- source_ims
I0813 00:32:28.367352 17999 net.cpp:189] conv1 -> conv1
I0813 00:32:28.368669 17999 net.cpp:84] Top shape: 12 96 55 55 (3484800)
I0813 00:32:28.368674 17999 net.cpp:116] conv1 does not need backward computation.
I0813 00:32:28.368680 17999 net.cpp:65] Creating Layer relu1
I0813 00:32:28.368684 17999 net.cpp:228] relu1 <- conv1
I0813 00:32:28.368688 17999 net.cpp:179] relu1 -> conv1 (in-place)
I0813 00:32:28.368697 17999 net.cpp:84] Top shape: 12 96 55 55 (3484800)
I0813 00:32:28.368700 17999 net.cpp:116] relu1 does not need backward computation.
I0813 00:32:28.368706 17999 net.cpp:65] Creating Layer pool1
I0813 00:32:28.368710 17999 net.cpp:228] pool1 <- conv1
I0813 00:32:28.368713 17999 net.cpp:189] pool1 -> pool1
I0813 00:32:28.368726 17999 net.cpp:84] Top shape: 12 96 27 27 (839808)
I0813 00:32:28.368729 17999 net.cpp:116] pool1 does not need backward computation.
I0813 00:32:28.368734 17999 net.cpp:65] Creating Layer norm1
I0813 00:32:28.368737 17999 net.cpp:228] norm1 <- pool1
I0813 00:32:28.368741 17999 net.cpp:189] norm1 -> norm1
I0813 00:32:28.368752 17999 net.cpp:84] Top shape: 12 96 27 27 (839808)
I0813 00:32:28.368754 17999 net.cpp:116] norm1 does not need backward computation.
I0813 00:32:28.368759 17999 net.cpp:65] Creating Layer Rconv6
I0813 00:32:28.368762 17999 net.cpp:228] Rconv6 <- norm1
I0813 00:32:28.368767 17999 net.cpp:189] Rconv6 -> Rconv6
I0813 00:32:28.369024 17999 net.cpp:84] Top shape: 12 256 27 27 (2239488)
I0813 00:32:28.369029 17999 net.cpp:111] Rconv6 needs backward computation.
I0813 00:32:28.369032 17999 net.cpp:65] Creating Layer Rrelu6
I0813 00:32:28.369035 17999 net.cpp:228] Rrelu6 <- Rconv6
I0813 00:32:28.369040 17999 net.cpp:179] Rrelu6 -> Rconv6 (in-place)
I0813 00:32:28.369045 17999 net.cpp:84] Top shape: 12 256 27 27 (2239488)
I0813 00:32:28.369046 17999 net.cpp:111] Rrelu6 needs backward computation.
I0813 00:32:28.369052 17999 net.cpp:65] Creating Layer Rconv7
I0813 00:32:28.369055 17999 net.cpp:228] Rconv7 <- Rconv6
I0813 00:32:28.369060 17999 net.cpp:189] Rconv7 -> Rconv7
I0813 00:32:28.369782 17999 net.cpp:84] Top shape: 12 256 27 27 (2239488)
I0813 00:32:28.369788 17999 net.cpp:111] Rconv7 needs backward computation.
I0813 00:32:28.369793 17999 net.cpp:65] Creating Layer Rrelu7
I0813 00:32:28.369815 17999 net.cpp:228] Rrelu7 <- Rconv7
I0813 00:32:28.369820 17999 net.cpp:179] Rrelu7 -> Rconv7 (in-place)
I0813 00:32:28.369825 17999 net.cpp:84] Top shape: 12 256 27 27 (2239488)
I0813 00:32:28.369828 17999 net.cpp:111] Rrelu7 needs backward computation.
I0813 00:32:28.369832 17999 net.cpp:65] Creating Layer Rconv8
I0813 00:32:28.369835 17999 net.cpp:228] Rconv8 <- Rconv7
I0813 00:32:28.369839 17999 net.cpp:189] Rconv8 -> Rconv8
I0813 00:32:28.370630 17999 net.cpp:84] Top shape: 12 256 27 27 (2239488)
I0813 00:32:28.370635 17999 net.cpp:111] Rconv8 needs backward computation.
I0813 00:32:28.370640 17999 net.cpp:65] Creating Layer Rrelu8
I0813 00:32:28.370642 17999 net.cpp:228] Rrelu8 <- Rconv8
I0813 00:32:28.370645 17999 net.cpp:179] Rrelu8 -> Rconv8 (in-place)
I0813 00:32:28.370651 17999 net.cpp:84] Top shape: 12 256 27 27 (2239488)
I0813 00:32:28.370652 17999 net.cpp:111] Rrelu8 needs backward computation.
I0813 00:32:28.370656 17999 net.cpp:65] Creating Layer deconv2
I0813 00:32:28.370659 17999 net.cpp:228] deconv2 <- Rconv8
I0813 00:32:28.370663 17999 net.cpp:189] deconv2 -> deconv2
I0813 00:32:28.371696 17999 net.cpp:84] Top shape: 12 64 54 54 (2239488)
I0813 00:32:28.371702 17999 net.cpp:111] deconv2 needs backward computation.
I0813 00:32:28.371706 17999 net.cpp:65] Creating Layer relu_deconv2
I0813 00:32:28.371709 17999 net.cpp:228] relu_deconv2 <- deconv2
I0813 00:32:28.371713 17999 net.cpp:179] relu_deconv2 -> deconv2 (in-place)
I0813 00:32:28.371718 17999 net.cpp:84] Top shape: 12 64 54 54 (2239488)
I0813 00:32:28.371721 17999 net.cpp:111] relu_deconv2 needs backward computation.
I0813 00:32:28.371724 17999 net.cpp:65] Creating Layer deconv1
I0813 00:32:28.371727 17999 net.cpp:228] deconv1 <- deconv2
I0813 00:32:28.371731 17999 net.cpp:189] deconv1 -> deconv1
I0813 00:32:28.371863 17999 net.cpp:84] Top shape: 12 32 108 108 (4478976)
I0813 00:32:28.371867 17999 net.cpp:111] deconv1 needs backward computation.
I0813 00:32:28.371872 17999 net.cpp:65] Creating Layer relu_deconv1
I0813 00:32:28.371876 17999 net.cpp:228] relu_deconv1 <- deconv1
I0813 00:32:28.371878 17999 net.cpp:179] relu_deconv1 -> deconv1 (in-place)
I0813 00:32:28.371883 17999 net.cpp:84] Top shape: 12 32 108 108 (4478976)
I0813 00:32:28.371886 17999 net.cpp:111] relu_deconv1 needs backward computation.
I0813 00:32:28.371891 17999 net.cpp:65] Creating Layer deconv0
I0813 00:32:28.371893 17999 net.cpp:228] deconv0 <- deconv1
I0813 00:32:28.371897 17999 net.cpp:189] deconv0 -> deconv0
I0813 00:32:28.371950 17999 net.cpp:84] Top shape: 12 3 216 216 (1679616)
I0813 00:32:28.371954 17999 net.cpp:111] deconv0 needs backward computation.
I0813 00:32:28.371958 17999 net.cpp:65] Creating Layer loss
I0813 00:32:28.371960 17999 net.cpp:228] loss <- deconv0
I0813 00:32:28.371963 17999 net.cpp:228] loss <- target_ims
I0813 00:32:28.371973 17999 net.cpp:111] loss needs backward computation.
I0813 00:32:28.371984 17999 net.cpp:238] Collecting Learning Rate and Weight Decay.
…
    source: "/scr/r6/tgebru/inverting_conv/caffe_invert_alexnet/data/siggraph/tiny_summer_val_lmdb"
    mean_file: "/scr/r6/tgebru/timnit_caffe/data/ilsvrc12/imagenet_mean.binaryproto"
    batch_size: 64
    crop_size: 227
    mirror: false
    backend: LMDB
  }
}
layers {
  top: "target_ims"
  name: "target_ims"
  type: DATA
  data_param {
    source: "/scr/r6/tgebru/inverting_conv/caffe_invert_alexnet/data/siggraph/tiny_winter_val_lmdb"
    mean_file: "/scr/r6/tgebru/timnit_caffe/data/ilsvrc12/imagenet_mean.binaryproto"
    batch_size: 64
    crop_size: 216
    mirror: false
    backend: LMDB
  }
}
layers {
  bottom: "source_ims"
  top: "conv1"
  name: "conv1"
  type: CONVOLUTION
  blobs_lr: 0
  blobs_lr: 0
  weight_decay: 1
  weight_decay: 0
  convolution_param {
    num_output: 96
    kernel_size: 11
    stride: 4
    weight_filler {
      type: "gaussian"
      std: 0.01
    }
    bias_filler {
      type: "constant"
      value: 0
    }
  }
}
layers {
  bottom: "conv1"
  top: "conv1"
  name: "relu1"
  type: RELU
}
layers {
  bottom: "conv1"
  top: "pool1"
  name: "pool1"
  type: POOLING
  pooling_param {
    pool: MAX
    kernel_size: 3
    stride: 2
  }
}
layers {
  bottom: "pool1"
  top: "norm1"
  name: "norm1"
  type: LRN
  lrn_param {
    local_size: 5
    alpha: 0.0001
    beta: 0.75
  }
}
layers {
  bottom: "norm1"
  top: "Rconv6"
  name: "Rconv6"
  type: CONVOLUTION
  blobs_lr: 0
  blobs_lr: 0
  weight_decay: 1
  weight_decay: 0
  convolution_param {
    num_output: 256
    pad: 1
    kernel_size: 3
  }
}
layers {
  bottom: "Rconv6"
  top: "Rconv6"
  name: "Rrelu6"
  type: RELU
}
layers {
  bottom: "Rconv6"
  top: "Rconv7"
  name: "Rconv7"
  type: CONVOLUTION
  blobs_lr: 0
  blobs_lr: 0
  weight_decay: 1
  weight_decay: 0
  convolution_param {
    num_output: 256
    pad: 1
    kernel_size: 3
    group: 2
  }
}
layers {
  bottom: "Rconv7"
  top: "Rconv7"
  name: "Rrelu7"
  type: RELU
}
layers {
  bottom: "Rconv7"
  top: "Rconv8"
  name: "Rconv8"
  type: CONVOLUTION
  blobs_lr: 0
  blobs_lr: 0
  weight_decay: 1
  weight_decay: 0
  convolution_param {
    num_output: 256
    pad: 1
    kernel_size: 3
    group: 2
  }
}
layers {
  bottom: "Rconv8"
  top: "Rconv8"
  name: "Rrelu8"
  type: RELU
}
layers {
  bottom: "Rconv8"
  top: "deconv2"
  name: "deconv2"
  type: DECONVOLUTION
  blobs_lr: 0
  blobs_lr: 0
  weight_decay: 1
  weight_decay: 0
  deconvolution_param {
    pad: 2
    kernel_size: 5
    stride: 2
    output_height: 54
    output_width: 54
    output_channels: 64
  }
}
layers {
  bottom: "deconv2"
  top: "deconv2"
  name: "relu_deconv2"
  type: RELU
  relu_param {
    negative_slope: 0.3
  }
}
layers {
  bottom: "deconv2"
  top: "deconv1"
  name: "deconv1"
  type: DECONVOLUTION
  blobs_lr: 0
  blobs_lr: 0
  weight_decay: 1
  weight_decay: 0
  deconvolution_param {
    pad: 2
    kernel_size: 5
    stride: 2
    output_height: 108
    output_width: 108
    output_channels: 32
  }
}
layers {
  bottom: "deconv1"
  top: "deconv1"
  name: "relu_deconv1"
  type: RELU
  relu_param {
    negative_slope: 0.3
  }
}
layers {
  bottom: "deconv1"
  top: "deconv0"
  name: "deconv0"
  type: DECONVOLUTION
  blobs_lr: 0
  blobs_lr: 0
  weight_decay: 1
  weight_decay: 0
  deconvolution_param {
    pad: 2
    kernel_size: 5
    stride: 2
    output_height: 216
    output_width: 216
    output_channels: 3
  }
}
layers {
  bottom: "deconv0"
  bottom: "target_ims"
  name: "loss"
  type: EUCLIDEAN_LOSS
}
I0813 00:32:28.372731 17999 net.cpp:65] Creating Layer source_ims
I0813 00:32:28.372740 17999 net.cpp:189] source_ims -> source_ims
I0813 00:32:28.372792 17999 data_layer.cpp:223] Opening lmdb /scr/r6/tgebru/inverting_conv/caffe_invert_alexnet/data/siggraph/tiny_summer_val_lmdb
I0813 00:32:28.372967 17999 data_layer.cpp:285] output data size: 64,3,227,227
I0813 00:32:28.372972 17999 data_layer.cpp:304] Loading mean file from/scr/r6/tgebru/timnit_caffe/data/ilsvrc12/imagenet_mean.binaryproto
I0813 00:32:28.387405 17999 net.cpp:84] Top shape: 64 3 227 227 (9893568)
I0813 00:32:28.387424 17999 net.cpp:116] source_ims does not need backward computation.
I0813 00:32:28.387435 17999 net.cpp:65] Creating Layer target_ims
I0813 00:32:28.387441 17999 net.cpp:189] target_ims -> target_ims
I0813 00:32:28.387533 17999 data_layer.cpp:223] Opening lmdb /scr/r6/tgebru/inverting_conv/caffe_invert_alexnet/data/siggraph/tiny_winter_val_lmdb
I0813 00:32:28.387670 17999 data_layer.cpp:285] output data size: 64,3,216,216
I0813 00:32:28.387675 17999 data_layer.cpp:304] Loading mean file from/scr/r6/tgebru/timnit_caffe/data/ilsvrc12/imagenet_mean.binaryproto
I0813 00:32:28.400430 17999 net.cpp:84] Top shape: 64 3 216 216 (8957952)
I0813 00:32:28.400501 17999 net.cpp:116] target_ims does not need backward computation.
I0813 00:32:28.400518 17999 net.cpp:65] Creating Layer conv1
I0813 00:32:28.400523 17999 net.cpp:228] conv1 <- source_ims
I0813 00:32:28.400533 17999 net.cpp:189] conv1 -> conv1
I0813 00:32:28.401808 17999 net.cpp:84] Top shape: 64 96 55 55 (18585600)
I0813 00:32:28.401811 17999 net.cpp:116] conv1 does not need backward computation.
I0813 00:32:28.401818 17999 net.cpp:65] Creating Layer relu1
I0813 00:32:28.401819 17999 net.cpp:228] relu1 <- conv1
I0813 00:32:28.401824 17999 net.cpp:179] relu1 -> conv1 (in-place)
I0813 00:32:28.401830 17999 net.cpp:84] Top shape: 64 96 55 55 (18585600)
I0813 00:32:28.401834 17999 net.cpp:116] relu1 does not need backward computation.
I0813 00:32:28.401839 17999 net.cpp:65] Creating Layer pool1
I0813 00:32:28.401841 17999 net.cpp:228] pool1 <- conv1
I0813 00:32:28.401845 17999 net.cpp:189] pool1 -> pool1
I0813 00:32:28.401854 17999 net.cpp:84] Top shape: 64 96 27 27 (4478976)
I0813 00:32:28.401856 17999 net.cpp:116] pool1 does not need backward computation.
I0813 00:32:28.401861 17999 net.cpp:65] Creating Layer norm1
I0813 00:32:28.401865 17999 net.cpp:228] norm1 <- pool1
I0813 00:32:28.401868 17999 net.cpp:189] norm1 -> norm1
I0813 00:32:28.401875 17999 net.cpp:84] Top shape: 64 96 27 27 (4478976)
I0813 00:32:28.401877 17999 net.cpp:116] norm1 does not need backward computation.
I0813 00:32:28.401882 17999 net.cpp:65] Creating Layer Rconv6
I0813 00:32:28.401885 17999 net.cpp:228] Rconv6 <- norm1
I0813 00:32:28.401890 17999 net.cpp:189] Rconv6 -> Rconv6
I0813 00:32:28.402124 17999 net.cpp:84] Top shape: 64 256 27 27 (11943936)
I0813 00:32:28.402128 17999 net.cpp:116] Rconv6 does not need backward computation.
I0813 00:32:28.402133 17999 net.cpp:65] Creating Layer Rrelu6
I0813 00:32:28.402137 17999 net.cpp:228] Rrelu6 <- Rconv6
I0813 00:32:28.402142 17999 net.cpp:179] Rrelu6 -> Rconv6 (in-place)
I0813 00:32:28.402145 17999 net.cpp:84] Top shape: 64 256 27 27 (11943936)
I0813 00:32:28.402148 17999 net.cpp:116] Rrelu6 does not need backward computation.
I0813 00:32:28.402154 17999 net.cpp:65] Creating Layer Rconv7
I0813 00:32:28.402156 17999 net.cpp:228] Rconv7 <- Rconv6
I0813 00:32:28.402160 17999 net.cpp:189] Rconv7 -> Rconv7
I0813 00:32:28.402873 17999 net.cpp:84] Top shape: 64 256 27 27 (11943936)
I0813 00:32:28.402878 17999 net.cpp:116] Rconv7 does not need backward computation.
I0813 00:32:28.402881 17999 net.cpp:65] Creating Layer Rrelu7
I0813 00:32:28.402884 17999 net.cpp:228] Rrelu7 <- Rconv7
I0813 00:32:28.402889 17999 net.cpp:179] Rrelu7 -> Rconv7 (in-place)
I0813 00:32:28.402892 17999 net.cpp:84] Top shape: 64 256 27 27 (11943936)
I0813 00:32:28.402895 17999 net.cpp:116] Rrelu7 does not need backward computation.
I0813 00:32:28.402899 17999 net.cpp:65] Creating Layer Rconv8
I0813 00:32:28.402901 17999 net.cpp:228] Rconv8 <- Rconv7
I0813 00:32:28.402905 17999 net.cpp:189] Rconv8 -> Rconv8
I0813 00:32:28.403622 17999 net.cpp:84] Top shape: 64 256 27 27 (11943936)
I0813 00:32:28.403627 17999 net.cpp:116] Rconv8 does not need backward computation.
I0813 00:32:28.403631 17999 net.cpp:65] Creating Layer Rrelu8
I0813 00:32:28.403633 17999 net.cpp:228] Rrelu8 <- Rconv8
I0813 00:32:28.403637 17999 net.cpp:179] Rrelu8 -> Rconv8 (in-place)
I0813 00:32:28.403641 17999 net.cpp:84] Top shape: 64 256 27 27 (11943936)
I0813 00:32:28.403645 17999 net.cpp:116] Rrelu8 does not need backward computation.
I0813 00:32:28.403650 17999 net.cpp:65] Creating Layer deconv2
I0813 00:32:28.403652 17999 net.cpp:228] deconv2 <- Rconv8
I0813 00:32:28.403656 17999 net.cpp:189] deconv2 -> deconv2
I0813 00:32:28.404660 17999 net.cpp:84] Top shape: 64 64 54 54 (11943936)
I0813 00:32:28.404665 17999 net.cpp:116] deconv2 does not need backward computation.
I0813 00:32:28.404670 17999 net.cpp:65] Creating Layer relu_deconv2
I0813 00:32:28.404675 17999 net.cpp:228] relu_deconv2 <- deconv2
I0813 00:32:28.404678 17999 net.cpp:179] relu_deconv2 -> deconv2 (in-place)
I0813 00:32:28.404682 17999 net.cpp:84] Top shape: 64 64 54 54 (11943936)
I0813 00:32:28.404707 17999 net.cpp:116] relu_deconv2 does not need backward computation.
I0813 00:32:28.404711 17999 net.cpp:65] Creating Layer deconv1
I0813 00:32:28.404714 17999 net.cpp:228] deconv1 <- deconv2
I0813 00:32:28.404718 17999 net.cpp:189] deconv1 -> deconv1
I0813 00:32:28.404855 17999 net.cpp:84] Top shape: 64 32 108 108 (23887872)
I0813 00:32:28.404858 17999 net.cpp:116] deconv1 does not need backward computation.
I0813 00:32:28.404862 17999 net.cpp:65] Creating Layer relu_deconv1
I0813 00:32:28.404865 17999 net.cpp:228] relu_deconv1 <- deconv1
I0813 00:32:28.404870 17999 net.cpp:179] relu_deconv1 -> deconv1 (in-place)
I0813 00:32:28.404873 17999 net.cpp:84] Top shape: 64 32 108 108 (23887872)
I0813 00:32:28.404876 17999 net.cpp:116] relu_deconv1 does not need backward computation.
I0813 00:32:28.404881 17999 net.cpp:65] Creating Layer deconv0
I0813 00:32:28.404883 17999 net.cpp:228] deconv0 <- deconv1
I0813 00:32:28.404887 17999 net.cpp:189] deconv0 -> deconv0
I0813 00:32:28.404911 17999 net.cpp:84] Top shape: 64 3 216 216 (8957952)
I0813 00:32:28.404913 17999 net.cpp:116] deconv0 does not need backward computation.
I0813 00:32:28.404917 17999 net.cpp:65] Creating Layer loss
I0813 00:32:28.404920 17999 net.cpp:228] loss <- deconv0
I0813 00:32:28.404923 17999 net.cpp:228] loss <- target_ims
I0813 00:32:28.404929 17999 net.cpp:116] loss does not need backward computation.
I0813 00:32:28.404942 17999 net.cpp:238] Collecting Learning Rate and Weight Decay.
…
