…
    source: "/scr/r6/tgebru/inverting_conv/caffe_invert_alexnet/data/siggraph/tiny_summer_train_lmdb"
    mean_file: "/scr/r6/tgebru/timnit_caffe/data/ilsvrc12/imagenet_mean.binaryproto"
    batch_size: 12
    crop_size: 227
    mirror: false
    backend: LMDB
  }
}
layers {
  top: "target_ims"
  name: "target_ims"
  type: DATA
  data_param {
    source: "/scr/r6/tgebru/inverting_conv/caffe_invert_alexnet/data/siggraph/tiny_summer_train_lmdb"
    mean_file: "/scr/r6/tgebru/timnit_caffe/data/ilsvrc12/imagenet_mean.binaryproto"
    batch_size: 12
    crop_size: 216
    mirror: false
    backend: LMDB
  }
}
layers {
  bottom: "source_ims"
  top: "conv1"
  name: "conv1"
  type: CONVOLUTION
  blobs_lr: 0
  blobs_lr: 0
  weight_decay: 1
  weight_decay: 0
  convolution_param {
    num_output: 96
    kernel_size: 11
    stride: 4
    weight_filler {
      type: "gaussian"
      std: 0.01
    }
    bias_filler {
      type: "constant"
      value: 0
    }
  }
}
layers {
  bottom: "conv1"
  top: "conv1"
  name: "relu1"
  type: RELU
}
layers {
  bottom: "conv1"
  top: "pool1"
  name: "pool1"
  type: POOLING
  pooling_param {
    pool: MAX
    kernel_size: 3
    stride: 2
  }
}
layers {
  bottom: "pool1"
  top: "norm1"
  name: "norm1"
  type: LRN
  lrn_param {
    local_size: 5
    alpha: 0.0001
    beta: 0.75
  }
}
layers {
  bottom: "norm1"
  top: "Rconv6"
  name: "Rconv6"
  type: CONVOLUTION
  blobs_lr: 1
  blobs_lr: 2
  weight_decay: 1
  weight_decay: 0
  convolution_param {
    num_output: 256
    pad: 1
    kernel_size: 3
  }
}
layers {
  bottom: "Rconv6"
  top: "Rconv6"
  name: "Rrelu6"
  type: RELU
}
layers {
  bottom: "Rconv6"
  top: "Rconv7"
  name: "Rconv7"
  type: CONVOLUTION
  blobs_lr: 1
  blobs_lr: 2
  weight_decay: 1
  weight_decay: 0
  convolution_param {
    num_output: 256
    pad: 1
    kernel_size: 3
    group: 2
  }
}
layers {
  bottom: "Rconv7"
  top: "Rconv7"
  name: "Rrelu7"
  type: RELU
}
layers {
  bottom: "Rconv7"
  top: "Rconv8"
  name: "Rconv8"
  type: CONVOLUTION
  blobs_lr: 1
  blobs_lr: 2
  weight_decay: 1
  weight_decay: 0
  convolution_param {
    num_output: 256
    pad: 1
    kernel_size: 3
    group: 2
  }
}
layers {
  bottom: "Rconv8"
  top: "Rconv8"
  name: "Rrelu8"
  type: RELU
}
layers {
  bottom: "Rconv8"
  top: "deconv2"
  name: "deconv2"
  type: DECONVOLUTION
  blobs_lr: 1
  blobs_lr: 2
  weight_decay: 1
  weight_decay: 0
  deconvolution_param {
    pad: 2
    kernel_size: 5
    stride: 2
    output_height: 54
    output_width: 54
    output_channels: 64
  }
}
layers {
  bottom: "deconv2"
  top: "deconv2"
  name: "relu_deconv2"
  type: RELU
  relu_param {
    negative_slope: 0.3
  }
}
layers {
  bottom: "deconv2"
  top: "deconv1"
  name: "deconv1"
  type: DECONVOLUTION
  blobs_lr: 1
  blobs_lr: 2
  weight_decay: 1
  weight_decay: 0
  deconvolution_param {
    pad: 2
    kernel_size: 5
    stride: 2
    output_height: 108
    output_width: 108
    output_channels: 32
  }
}
layers {
  bottom: "deconv1"
  top: "deconv1"
  name: "relu_deconv1"
  type: RELU
  relu_param {
    negative_slope: 0.3
  }
}
layers {
  bottom: "deconv1"
  top: "deconv0"
  name: "deconv0"
  type: DECONVOLUTION
  blobs_lr: 1
  blobs_lr: 2
  weight_decay: 1
  weight_decay: 1
  deconvolution_param {
    pad: 2
    kernel_size: 5
    stride: 2
    output_height: 216
    output_width: 216
    output_channels: 3
  }
}
layers {
  bottom: "deconv0"
  bottom: "target_ims"
  name: "loss"
  type: EUCLIDEAN_LOSS
}
I0813 01:02:30.431903 27544 net.cpp:65] Creating Layer source_ims
I0813 01:02:30.431911 27544 net.cpp:189] source_ims -> source_ims
I0813 01:02:30.432014 27544 data_layer.cpp:223] Opening lmdb /scr/r6/tgebru/inverting_conv/caffe_invert_alexnet/data/siggraph/tiny_summer_train_lmdb
I0813 01:02:30.432212 27544 data_layer.cpp:285] output data size: 12,3,227,227
I0813 01:02:30.432219 27544 data_layer.cpp:304] Loading mean file from/scr/r6/tgebru/timnit_caffe/data/ilsvrc12/imagenet_mean.binaryproto
I0813 01:02:30.437288 27544 net.cpp:84] Top shape: 12 3 227 227 (1855044)
I0813 01:02:30.437297 27544 net.cpp:116] source_ims does not need backward computation.
I0813 01:02:30.437305 27544 net.cpp:65] Creating Layer target_ims
I0813 01:02:30.437309 27544 net.cpp:189] target_ims -> target_ims
I0813 01:02:30.437491 27544 data_layer.cpp:223] Opening lmdb /scr/r6/tgebru/inverting_conv/caffe_invert_alexnet/data/siggraph/tiny_summer_train_lmdb
I0813 01:02:30.437635 27544 data_layer.cpp:285] output data size: 12,3,216,216
I0813 01:02:30.437640 27544 data_layer.cpp:304] Loading mean file from/scr/r6/tgebru/timnit_caffe/data/ilsvrc12/imagenet_mean.binaryproto
I0813 01:02:30.442014 27544 net.cpp:84] Top shape: 12 3 216 216 (1679616)
I0813 01:02:30.442023 27544 net.cpp:116] target_ims does not need backward computation.
I0813 01:02:30.442036 27544 net.cpp:65] Creating Layer conv1
I0813 01:02:30.442040 27544 net.cpp:228] conv1 <- source_ims
I0813 01:02:30.442109 27544 net.cpp:189] conv1 -> conv1
I0813 01:02:30.443403 27544 net.cpp:84] Top shape: 12 96 55 55 (3484800)
I0813 01:02:30.443408 27544 net.cpp:116] conv1 does not need backward computation.
I0813 01:02:30.443413 27544 net.cpp:65] Creating Layer relu1
I0813 01:02:30.443416 27544 net.cpp:228] relu1 <- conv1
I0813 01:02:30.443421 27544 net.cpp:179] relu1 -> conv1 (in-place)
I0813 01:02:30.443430 27544 net.cpp:84] Top shape: 12 96 55 55 (3484800)
I0813 01:02:30.443434 27544 net.cpp:116] relu1 does not need backward computation.
I0813 01:02:30.443439 27544 net.cpp:65] Creating Layer pool1
I0813 01:02:30.443441 27544 net.cpp:228] pool1 <- conv1
I0813 01:02:30.443446 27544 net.cpp:189] pool1 -> pool1
I0813 01:02:30.443459 27544 net.cpp:84] Top shape: 12 96 27 27 (839808)
I0813 01:02:30.443461 27544 net.cpp:116] pool1 does not need backward computation.
I0813 01:02:30.443466 27544 net.cpp:65] Creating Layer norm1
I0813 01:02:30.443470 27544 net.cpp:228] norm1 <- pool1
I0813 01:02:30.443475 27544 net.cpp:189] norm1 -> norm1
I0813 01:02:30.443483 27544 net.cpp:84] Top shape: 12 96 27 27 (839808)
I0813 01:02:30.443486 27544 net.cpp:116] norm1 does not need backward computation.
I0813 01:02:30.443491 27544 net.cpp:65] Creating Layer Rconv6
I0813 01:02:30.443495 27544 net.cpp:228] Rconv6 <- norm1
I0813 01:02:30.443498 27544 net.cpp:189] Rconv6 -> Rconv6
I0813 01:02:30.443754 27544 net.cpp:84] Top shape: 12 256 27 27 (2239488)
I0813 01:02:30.443758 27544 net.cpp:111] Rconv6 needs backward computation.
I0813 01:02:30.443763 27544 net.cpp:65] Creating Layer Rrelu6
I0813 01:02:30.443765 27544 net.cpp:228] Rrelu6 <- Rconv6
I0813 01:02:30.443769 27544 net.cpp:179] Rrelu6 -> Rconv6 (in-place)
I0813 01:02:30.443774 27544 net.cpp:84] Top shape: 12 256 27 27 (2239488)
I0813 01:02:30.443778 27544 net.cpp:111] Rrelu6 needs backward computation.
I0813 01:02:30.443783 27544 net.cpp:65] Creating Layer Rconv7
I0813 01:02:30.443785 27544 net.cpp:228] Rconv7 <- Rconv6
I0813 01:02:30.443789 27544 net.cpp:189] Rconv7 -> Rconv7
I0813 01:02:30.444499 27544 net.cpp:84] Top shape: 12 256 27 27 (2239488)
I0813 01:02:30.444504 27544 net.cpp:111] Rconv7 needs backward computation.
I0813 01:02:30.444509 27544 net.cpp:65] Creating Layer Rrelu7
I0813 01:02:30.444511 27544 net.cpp:228] Rrelu7 <- Rconv7
I0813 01:02:30.444541 27544 net.cpp:179] Rrelu7 -> Rconv7 (in-place)
I0813 01:02:30.444546 27544 net.cpp:84] Top shape: 12 256 27 27 (2239488)
I0813 01:02:30.444550 27544 net.cpp:111] Rrelu7 needs backward computation.
I0813 01:02:30.444553 27544 net.cpp:65] Creating Layer Rconv8
I0813 01:02:30.444556 27544 net.cpp:228] Rconv8 <- Rconv7
I0813 01:02:30.444561 27544 net.cpp:189] Rconv8 -> Rconv8
I0813 01:02:30.445375 27544 net.cpp:84] Top shape: 12 256 27 27 (2239488)
I0813 01:02:30.445379 27544 net.cpp:111] Rconv8 needs backward computation.
I0813 01:02:30.445384 27544 net.cpp:65] Creating Layer Rrelu8
I0813 01:02:30.445387 27544 net.cpp:228] Rrelu8 <- Rconv8
I0813 01:02:30.445390 27544 net.cpp:179] Rrelu8 -> Rconv8 (in-place)
I0813 01:02:30.445395 27544 net.cpp:84] Top shape: 12 256 27 27 (2239488)
I0813 01:02:30.445397 27544 net.cpp:111] Rrelu8 needs backward computation.
I0813 01:02:30.445401 27544 net.cpp:65] Creating Layer deconv2
I0813 01:02:30.445405 27544 net.cpp:228] deconv2 <- Rconv8
I0813 01:02:30.445407 27544 net.cpp:189] deconv2 -> deconv2
I0813 01:02:30.446470 27544 net.cpp:84] Top shape: 12 64 54 54 (2239488)
I0813 01:02:30.446475 27544 net.cpp:111] deconv2 needs backward computation.
I0813 01:02:30.446478 27544 net.cpp:65] Creating Layer relu_deconv2
I0813 01:02:30.446481 27544 net.cpp:228] relu_deconv2 <- deconv2
I0813 01:02:30.446485 27544 net.cpp:179] relu_deconv2 -> deconv2 (in-place)
I0813 01:02:30.446491 27544 net.cpp:84] Top shape: 12 64 54 54 (2239488)
I0813 01:02:30.446492 27544 net.cpp:111] relu_deconv2 needs backward computation.
I0813 01:02:30.446496 27544 net.cpp:65] Creating Layer deconv1
I0813 01:02:30.446498 27544 net.cpp:228] deconv1 <- deconv2
I0813 01:02:30.446502 27544 net.cpp:189] deconv1 -> deconv1
I0813 01:02:30.446646 27544 net.cpp:84] Top shape: 12 32 108 108 (4478976)
I0813 01:02:30.446650 27544 net.cpp:111] deconv1 needs backward computation.
I0813 01:02:30.446655 27544 net.cpp:65] Creating Layer relu_deconv1
I0813 01:02:30.446657 27544 net.cpp:228] relu_deconv1 <- deconv1
I0813 01:02:30.446660 27544 net.cpp:179] relu_deconv1 -> deconv1 (in-place)
I0813 01:02:30.446666 27544 net.cpp:84] Top shape: 12 32 108 108 (4478976)
I0813 01:02:30.446667 27544 net.cpp:111] relu_deconv1 needs backward computation.
I0813 01:02:30.446672 27544 net.cpp:65] Creating Layer deconv0
I0813 01:02:30.446676 27544 net.cpp:228] deconv0 <- deconv1
I0813 01:02:30.446679 27544 net.cpp:189] deconv0 -> deconv0
I0813 01:02:30.446727 27544 net.cpp:84] Top shape: 12 3 216 216 (1679616)
I0813 01:02:30.446729 27544 net.cpp:111] deconv0 needs backward computation.
I0813 01:02:30.446733 27544 net.cpp:65] Creating Layer loss
I0813 01:02:30.446737 27544 net.cpp:228] loss <- deconv0
I0813 01:02:30.446739 27544 net.cpp:228] loss <- target_ims
I0813 01:02:30.446748 27544 net.cpp:111] loss needs backward computation.
I0813 01:02:30.446763 27544 net.cpp:238] Collecting Learning Rate and Weight Decay.
…
    source: "/scr/r6/tgebru/inverting_conv/caffe_invert_alexnet/data/siggraph/tiny_summer_val_lmdb"
    mean_file: "/scr/r6/tgebru/timnit_caffe/data/ilsvrc12/imagenet_mean.binaryproto"
    batch_size: 2
    crop_size: 227
    mirror: false
    backend: LMDB
  }
}
layers {
  top: "target_ims"
  name: "target_ims"
  type: DATA
  data_param {
    source: "/scr/r6/tgebru/inverting_conv/caffe_invert_alexnet/data/siggraph/tiny_summer_val_lmdb"
    mean_file: "/scr/r6/tgebru/timnit_caffe/data/ilsvrc12/imagenet_mean.binaryproto"
    batch_size: 2
    crop_size: 216
    mirror: false
    backend: LMDB
  }
}
layers {
  bottom: "source_ims"
  top: "conv1"
  name: "conv1"
  type: CONVOLUTION
  blobs_lr: 0
  blobs_lr: 0
  weight_decay: 1
  weight_decay: 0
  convolution_param {
    num_output: 96
    kernel_size: 11
    stride: 4
    weight_filler {
      type: "gaussian"
      std: 0.01
    }
    bias_filler {
      type: "constant"
      value: 0
    }
  }
}
layers {
  bottom: "conv1"
  top: "conv1"
  name: "relu1"
  type: RELU
}
layers {
  bottom: "conv1"
  top: "pool1"
  name: "pool1"
  type: POOLING
  pooling_param {
    pool: MAX
    kernel_size: 3
    stride: 2
  }
}
layers {
  bottom: "pool1"
  top: "norm1"
  name: "norm1"
  type: LRN
  lrn_param {
    local_size: 5
    alpha: 0.0001
    beta: 0.75
  }
}
layers {
  bottom: "norm1"
  top: "Rconv6"
  name: "Rconv6"
  type: CONVOLUTION
  blobs_lr: 0
  blobs_lr: 0
  weight_decay: 1
  weight_decay: 0
  convolution_param {
    num_output: 256
    pad: 1
    kernel_size: 3
  }
}
layers {
  bottom: "Rconv6"
  top: "Rconv6"
  name: "Rrelu6"
  type: RELU
}
layers {
  bottom: "Rconv6"
  top: "Rconv7"
  name: "Rconv7"
  type: CONVOLUTION
  blobs_lr: 0
  blobs_lr: 0
  weight_decay: 1
  weight_decay: 0
  convolution_param {
    num_output: 256
    pad: 1
    kernel_size: 3
    group: 2
  }
}
layers {
  bottom: "Rconv7"
  top: "Rconv7"
  name: "Rrelu7"
  type: RELU
}
layers {
  bottom: "Rconv7"
  top: "Rconv8"
  name: "Rconv8"
  type: CONVOLUTION
  blobs_lr: 0
  blobs_lr: 0
  weight_decay: 1
  weight_decay: 0
  convolution_param {
    num_output: 256
    pad: 1
    kernel_size: 3
    group: 2
  }
}
layers {
  bottom: "Rconv8"
  top: "Rconv8"
  name: "Rrelu8"
  type: RELU
}
layers {
  bottom: "Rconv8"
  top: "deconv2"
  name: "deconv2"
  type: DECONVOLUTION
  blobs_lr: 0
  blobs_lr: 0
  weight_decay: 1
  weight_decay: 0
  deconvolution_param {
    pad: 2
    kernel_size: 5
    stride: 2
    output_height: 54
    output_width: 54
    output_channels: 64
  }
}
layers {
  bottom: "deconv2"
  top: "deconv2"
  name: "relu_deconv2"
  type: RELU
  relu_param {
    negative_slope: 0.3
  }
}
layers {
  bottom: "deconv2"
  top: "deconv1"
  name: "deconv1"
  type: DECONVOLUTION
  blobs_lr: 0
  blobs_lr: 0
  weight_decay: 1
  weight_decay: 0
  deconvolution_param {
    pad: 2
    kernel_size: 5
    stride: 2
    output_height: 108
    output_width: 108
    output_channels: 32
  }
}
layers {
  bottom: "deconv1"
  top: "deconv1"
  name: "relu_deconv1"
  type: RELU
  relu_param {
    negative_slope: 0.3
  }
}
layers {
  bottom: "deconv1"
  top: "deconv0"
  name: "deconv0"
  type: DECONVOLUTION
  blobs_lr: 0
  blobs_lr: 0
  weight_decay: 1
  weight_decay: 0
  deconvolution_param {
    pad: 2
    kernel_size: 5
    stride: 2
    output_height: 216
    output_width: 216
    output_channels: 3
  }
}
layers {
  bottom: "deconv0"
  bottom: "target_ims"
  name: "loss"
  type: EUCLIDEAN_LOSS
}
I0813 01:02:30.447517 27544 net.cpp:65] Creating Layer source_ims
I0813 01:02:30.447523 27544 net.cpp:189] source_ims -> source_ims
I0813 01:02:30.447720 27544 data_layer.cpp:223] Opening lmdb /scr/r6/tgebru/inverting_conv/caffe_invert_alexnet/data/siggraph/tiny_summer_val_lmdb
I0813 01:02:30.447921 27544 data_layer.cpp:285] output data size: 2,3,227,227
I0813 01:02:30.447926 27544 data_layer.cpp:304] Loading mean file from/scr/r6/tgebru/timnit_caffe/data/ilsvrc12/imagenet_mean.binaryproto
I0813 01:02:30.450312 27544 net.cpp:84] Top shape: 2 3 227 227 (309174)
I0813 01:02:30.450320 27544 net.cpp:116] source_ims does not need backward computation.
I0813 01:02:30.450325 27544 net.cpp:65] Creating Layer target_ims
I0813 01:02:30.450330 27544 net.cpp:189] target_ims -> target_ims
I0813 01:02:30.450376 27544 data_layer.cpp:223] Opening lmdb /scr/r6/tgebru/inverting_conv/caffe_invert_alexnet/data/siggraph/tiny_summer_val_lmdb
I0813 01:02:30.450544 27544 data_layer.cpp:285] output data size: 2,3,216,216
I0813 01:02:30.450548 27544 data_layer.cpp:304] Loading mean file from/scr/r6/tgebru/timnit_caffe/data/ilsvrc12/imagenet_mean.binaryproto
I0813 01:02:30.452764 27544 net.cpp:84] Top shape: 2 3 216 216 (279936)
I0813 01:02:30.452770 27544 net.cpp:116] target_ims does not need backward computation.
I0813 01:02:30.452793 27544 net.cpp:65] Creating Layer conv1
I0813 01:02:30.452796 27544 net.cpp:228] conv1 <- source_ims
I0813 01:02:30.452802 27544 net.cpp:189] conv1 -> conv1
I0813 01:02:30.454049 27544 net.cpp:84] Top shape: 2 96 55 55 (580800)
I0813 01:02:30.454053 27544 net.cpp:116] conv1 does not need backward computation.
I0813 01:02:30.454057 27544 net.cpp:65] Creating Layer relu1
I0813 01:02:30.454061 27544 net.cpp:228] relu1 <- conv1
I0813 01:02:30.454064 27544 net.cpp:179] relu1 -> conv1 (in-place)
I0813 01:02:30.454069 27544 net.cpp:84] Top shape: 2 96 55 55 (580800)
I0813 01:02:30.454072 27544 net.cpp:116] relu1 does not need backward computation.
I0813 01:02:30.454077 27544 net.cpp:65] Creating Layer pool1
I0813 01:02:30.454080 27544 net.cpp:228] pool1 <- conv1
I0813 01:02:30.454083 27544 net.cpp:189] pool1 -> pool1
I0813 01:02:30.454090 27544 net.cpp:84] Top shape: 2 96 27 27 (139968)
I0813 01:02:30.454093 27544 net.cpp:116] pool1 does not need backward computation.
I0813 01:02:30.454097 27544 net.cpp:65] Creating Layer norm1
I0813 01:02:30.454100 27544 net.cpp:228] norm1 <- pool1
I0813 01:02:30.454104 27544 net.cpp:189] norm1 -> norm1
I0813 01:02:30.454109 27544 net.cpp:84] Top shape: 2 96 27 27 (139968)
I0813 01:02:30.454113 27544 net.cpp:116] norm1 does not need backward computation.
I0813 01:02:30.454116 27544 net.cpp:65] Creating Layer Rconv6
I0813 01:02:30.454119 27544 net.cpp:228] Rconv6 <- norm1
I0813 01:02:30.454123 27544 net.cpp:189] Rconv6 -> Rconv6
I0813 01:02:30.454682 27544 net.cpp:84] Top shape: 2 256 27 27 (373248)
I0813 01:02:30.454687 27544 net.cpp:116] Rconv6 does not need backward computation.
I0813 01:02:30.454691 27544 net.cpp:65] Creating Layer Rrelu6
I0813 01:02:30.454694 27544 net.cpp:228] Rrelu6 <- Rconv6
I0813 01:02:30.454699 27544 net.cpp:179] Rrelu6 -> Rconv6 (in-place)
I0813 01:02:30.454704 27544 net.cpp:84] Top shape: 2 256 27 27 (373248)
I0813 01:02:30.454705 27544 net.cpp:116] Rrelu6 does not need backward computation.
I0813 01:02:30.454710 27544 net.cpp:65] Creating Layer Rconv7
I0813 01:02:30.454713 27544 net.cpp:228] Rconv7 <- Rconv6
I0813 01:02:30.454717 27544 net.cpp:189] Rconv7 -> Rconv7
I0813 01:02:30.455452 27544 net.cpp:84] Top shape: 2 256 27 27 (373248)
I0813 01:02:30.455457 27544 net.cpp:116] Rconv7 does not need backward computation.
I0813 01:02:30.455461 27544 net.cpp:65] Creating Layer Rrelu7
I0813 01:02:30.455463 27544 net.cpp:228] Rrelu7 <- Rconv7
I0813 01:02:30.455467 27544 net.cpp:179] Rrelu7 -> Rconv7 (in-place)
I0813 01:02:30.455471 27544 net.cpp:84] Top shape: 2 256 27 27 (373248)
I0813 01:02:30.455474 27544 net.cpp:116] Rrelu7 does not need backward computation.
I0813 01:02:30.455477 27544 net.cpp:65] Creating Layer Rconv8
I0813 01:02:30.455481 27544 net.cpp:228] Rconv8 <- Rconv7
I0813 01:02:30.455483 27544 net.cpp:189] Rconv8 -> Rconv8
I0813 01:02:30.456212 27544 net.cpp:84] Top shape: 2 256 27 27 (373248)
I0813 01:02:30.456217 27544 net.cpp:116] Rconv8 does not need backward computation.
I0813 01:02:30.456219 27544 net.cpp:65] Creating Layer Rrelu8
I0813 01:02:30.456223 27544 net.cpp:228] Rrelu8 <- Rconv8
I0813 01:02:30.456225 27544 net.cpp:179] Rrelu8 -> Rconv8 (in-place)
I0813 01:02:30.456229 27544 net.cpp:84] Top shape: 2 256 27 27 (373248)
I0813 01:02:30.456233 27544 net.cpp:116] Rrelu8 does not need backward computation.
I0813 01:02:30.456236 27544 net.cpp:65] Creating Layer deconv2
I0813 01:02:30.456238 27544 net.cpp:228] deconv2 <- Rconv8
I0813 01:02:30.456243 27544 net.cpp:189] deconv2 -> deconv2
I0813 01:02:30.457255 27544 net.cpp:84] Top shape: 2 64 54 54 (373248)
I0813 01:02:30.457260 27544 net.cpp:116] deconv2 does not need backward computation.
I0813 01:02:30.457264 27544 net.cpp:65] Creating Layer relu_deconv2
I0813 01:02:30.457267 27544 net.cpp:228] relu_deconv2 <- deconv2
I0813 01:02:30.457270 27544 net.cpp:179] relu_deconv2 -> deconv2 (in-place)
I0813 01:02:30.457275 27544 net.cpp:84] Top shape: 2 64 54 54 (373248)
I0813 01:02:30.457278 27544 net.cpp:116] relu_deconv2 does not need backward computation.
I0813 01:02:30.457293 27544 net.cpp:65] Creating Layer deconv1
I0813 01:02:30.457298 27544 net.cpp:228] deconv1 <- deconv2
I0813 01:02:30.457301 27544 net.cpp:189] deconv1 -> deconv1
I0813 01:02:30.457444 27544 net.cpp:84] Top shape: 2 32 108 108 (746496)
I0813 01:02:30.457448 27544 net.cpp:116] deconv1 does not need backward computation.
I0813 01:02:30.457453 27544 net.cpp:65] Creating Layer relu_deconv1
I0813 01:02:30.457455 27544 net.cpp:228] relu_deconv1 <- deconv1
I0813 01:02:30.457458 27544 net.cpp:179] relu_deconv1 -> deconv1 (in-place)
I0813 01:02:30.457463 27544 net.cpp:84] Top shape: 2 32 108 108 (746496)
I0813 01:02:30.457465 27544 net.cpp:116] relu_deconv1 does not need backward computation.
I0813 01:02:30.457470 27544 net.cpp:65] Creating Layer deconv0
I0813 01:02:30.457473 27544 net.cpp:228] deconv0 <- deconv1
I0813 01:02:30.457478 27544 net.cpp:189] deconv0 -> deconv0
I0813 01:02:30.457494 27544 net.cpp:84] Top shape: 2 3 216 216 (279936)
I0813 01:02:30.457499 27544 net.cpp:116] deconv0 does not need backward computation.
I0813 01:02:30.457501 27544 net.cpp:65] Creating Layer loss
I0813 01:02:30.457504 27544 net.cpp:228] loss <- deconv0
I0813 01:02:30.457507 27544 net.cpp:228] loss <- target_ims
I0813 01:02:30.457511 27544 net.cpp:116] loss does not need backward computation.
I0813 01:02:30.457523 27544 net.cpp:238] Collecting Learning Rate and Weight Decay.
…
