…
    source: "/scr/r6/tgebru/inverting_conv/caffe_invert_alexnet/data/siggraph/tiny_summer_train_lmdb"
    mean_file: "/scr/r6/tgebru/timnit_caffe/data/ilsvrc12/imagenet_mean.binaryproto"
    batch_size: 12
    crop_size: 227
    mirror: false
    backend: LMDB
  }
}
layers {
  top: "target_ims"
  name: "target_ims"
  type: DATA
  data_param {
    source: "/scr/r6/tgebru/inverting_conv/caffe_invert_alexnet/data/siggraph/tiny_summer_train_lmdb"
    mean_file: "/scr/r6/tgebru/timnit_caffe/data/ilsvrc12/imagenet_mean.binaryproto"
    batch_size: 12
    crop_size: 216
    mirror: false
    backend: LMDB
  }
}
layers {
  bottom: "source_ims"
  top: "conv1"
  name: "conv1"
  type: CONVOLUTION
  blobs_lr: 0
  blobs_lr: 0
  weight_decay: 1
  weight_decay: 0
  convolution_param {
    num_output: 96
    kernel_size: 11
    stride: 4
    weight_filler {
      type: "gaussian"
      std: 0.01
    }
    bias_filler {
      type: "constant"
      value: 0
    }
  }
}
layers {
  bottom: "conv1"
  top: "conv1"
  name: "relu1"
  type: RELU
}
layers {
  bottom: "conv1"
  top: "pool1"
  name: "pool1"
  type: POOLING
  pooling_param {
    pool: MAX
    kernel_size: 3
    stride: 2
  }
}
layers {
  bottom: "pool1"
  top: "norm1"
  name: "norm1"
  type: LRN
  lrn_param {
    local_size: 5
    alpha: 0.0001
    beta: 0.75
  }
}
layers {
  bottom: "norm1"
  top: "Rconv6"
  name: "Rconv6"
  type: CONVOLUTION
  blobs_lr: 1
  blobs_lr: 2
  weight_decay: 1
  weight_decay: 0
  convolution_param {
    num_output: 256
    pad: 1
    kernel_size: 3
  }
}
layers {
  bottom: "Rconv6"
  top: "Rconv6"
  name: "Rrelu6"
  type: RELU
}
layers {
  bottom: "Rconv6"
  top: "Rconv7"
  name: "Rconv7"
  type: CONVOLUTION
  blobs_lr: 1
  blobs_lr: 2
  weight_decay: 1
  weight_decay: 0
  convolution_param {
    num_output: 256
    pad: 1
    kernel_size: 3
    group: 2
  }
}
layers {
  bottom: "Rconv7"
  top: "Rconv7"
  name: "Rrelu7"
  type: RELU
}
layers {
  bottom: "Rconv7"
  top: "Rconv8"
  name: "Rconv8"
  type: CONVOLUTION
  blobs_lr: 1
  blobs_lr: 2
  weight_decay: 1
  weight_decay: 0
  convolution_param {
    num_output: 256
    pad: 1
    kernel_size: 3
    group: 2
  }
}
layers {
  bottom: "Rconv8"
  top: "Rconv8"
  name: "Rrelu8"
  type: RELU
}
layers {
  bottom: "Rconv8"
  top: "deconv2"
  name: "deconv2"
  type: DECONVOLUTION
  blobs_lr: 1
  blobs_lr: 2
  weight_decay: 1
  weight_decay: 0
  deconvolution_param {
    pad: 2
    kernel_size: 5
    stride: 2
    output_height: 54
    output_width: 54
    output_channels: 64
  }
}
layers {
  bottom: "deconv2"
  top: "deconv2"
  name: "relu_deconv2"
  type: RELU
  relu_param {
    negative_slope: 0.3
  }
}
layers {
  bottom: "deconv2"
  top: "deconv1"
  name: "deconv1"
  type: DECONVOLUTION
  blobs_lr: 1
  blobs_lr: 2
  weight_decay: 1
  weight_decay: 0
  deconvolution_param {
    pad: 2
    kernel_size: 5
    stride: 2
    output_height: 108
    output_width: 108
    output_channels: 32
  }
}
layers {
  bottom: "deconv1"
  top: "deconv1"
  name: "relu_deconv1"
  type: RELU
  relu_param {
    negative_slope: 0.3
  }
}
layers {
  bottom: "deconv1"
  top: "deconv0"
  name: "deconv0"
  type: DECONVOLUTION
  blobs_lr: 1
  blobs_lr: 2
  weight_decay: 1
  weight_decay: 1
  deconvolution_param {
    pad: 2
    kernel_size: 5
    stride: 2
    output_height: 216
    output_width: 216
    output_channels: 3
  }
}
layers {
  bottom: "deconv0"
  bottom: "target_ims"
  name: "loss"
  type: EUCLIDEAN_LOSS
}
I0812 22:48:58.210422 31259 net.cpp:65] Creating Layer source_ims
I0812 22:48:58.210430 31259 net.cpp:189] source_ims -> source_ims
I0812 22:48:58.210536 31259 data_layer.cpp:223] Opening lmdb /scr/r6/tgebru/inverting_conv/caffe_invert_alexnet/data/siggraph/tiny_summer_train_lmdb
I0812 22:48:58.210752 31259 data_layer.cpp:285] output data size: 12,3,227,227
I0812 22:48:58.210758 31259 data_layer.cpp:304] Loading mean file from/scr/r6/tgebru/timnit_caffe/data/ilsvrc12/imagenet_mean.binaryproto
I0812 22:48:58.215471 31259 net.cpp:84] Top shape: 12 3 227 227 (1855044)
I0812 22:48:58.215478 31259 net.cpp:116] source_ims does not need backward computation.
I0812 22:48:58.215484 31259 net.cpp:65] Creating Layer target_ims
I0812 22:48:58.215488 31259 net.cpp:189] target_ims -> target_ims
I0812 22:48:58.215632 31259 data_layer.cpp:223] Opening lmdb /scr/r6/tgebru/inverting_conv/caffe_invert_alexnet/data/siggraph/tiny_summer_train_lmdb
I0812 22:48:58.215788 31259 data_layer.cpp:285] output data size: 12,3,216,216
I0812 22:48:58.215793 31259 data_layer.cpp:304] Loading mean file from/scr/r6/tgebru/timnit_caffe/data/ilsvrc12/imagenet_mean.binaryproto
I0812 22:48:58.220155 31259 net.cpp:84] Top shape: 12 3 216 216 (1679616)
I0812 22:48:58.220163 31259 net.cpp:116] target_ims does not need backward computation.
I0812 22:48:58.220175 31259 net.cpp:65] Creating Layer conv1
I0812 22:48:58.220180 31259 net.cpp:228] conv1 <- source_ims
I0812 22:48:58.220243 31259 net.cpp:189] conv1 -> conv1
I0812 22:48:58.221545 31259 net.cpp:84] Top shape: 12 96 55 55 (3484800)
I0812 22:48:58.221552 31259 net.cpp:116] conv1 does not need backward computation.
I0812 22:48:58.221557 31259 net.cpp:65] Creating Layer relu1
I0812 22:48:58.221560 31259 net.cpp:228] relu1 <- conv1
I0812 22:48:58.221566 31259 net.cpp:179] relu1 -> conv1 (in-place)
I0812 22:48:58.221575 31259 net.cpp:84] Top shape: 12 96 55 55 (3484800)
I0812 22:48:58.221578 31259 net.cpp:116] relu1 does not need backward computation.
I0812 22:48:58.221583 31259 net.cpp:65] Creating Layer pool1
I0812 22:48:58.221586 31259 net.cpp:228] pool1 <- conv1
I0812 22:48:58.221590 31259 net.cpp:189] pool1 -> pool1
I0812 22:48:58.221602 31259 net.cpp:84] Top shape: 12 96 27 27 (839808)
I0812 22:48:58.221606 31259 net.cpp:116] pool1 does not need backward computation.
I0812 22:48:58.221611 31259 net.cpp:65] Creating Layer norm1
I0812 22:48:58.221613 31259 net.cpp:228] norm1 <- pool1
I0812 22:48:58.221618 31259 net.cpp:189] norm1 -> norm1
I0812 22:48:58.221626 31259 net.cpp:84] Top shape: 12 96 27 27 (839808)
I0812 22:48:58.221629 31259 net.cpp:116] norm1 does not need backward computation.
I0812 22:48:58.221634 31259 net.cpp:65] Creating Layer Rconv6
I0812 22:48:58.221637 31259 net.cpp:228] Rconv6 <- norm1
I0812 22:48:58.221642 31259 net.cpp:189] Rconv6 -> Rconv6
I0812 22:48:58.221899 31259 net.cpp:84] Top shape: 12 256 27 27 (2239488)
I0812 22:48:58.221904 31259 net.cpp:111] Rconv6 needs backward computation.
I0812 22:48:58.221907 31259 net.cpp:65] Creating Layer Rrelu6
I0812 22:48:58.221910 31259 net.cpp:228] Rrelu6 <- Rconv6
I0812 22:48:58.221915 31259 net.cpp:179] Rrelu6 -> Rconv6 (in-place)
I0812 22:48:58.221920 31259 net.cpp:84] Top shape: 12 256 27 27 (2239488)
I0812 22:48:58.221922 31259 net.cpp:111] Rrelu6 needs backward computation.
I0812 22:48:58.221927 31259 net.cpp:65] Creating Layer Rconv7
I0812 22:48:58.221930 31259 net.cpp:228] Rconv7 <- Rconv6
I0812 22:48:58.221935 31259 net.cpp:189] Rconv7 -> Rconv7
I0812 22:48:58.222669 31259 net.cpp:84] Top shape: 12 256 27 27 (2239488)
I0812 22:48:58.222674 31259 net.cpp:111] Rconv7 needs backward computation.
I0812 22:48:58.222678 31259 net.cpp:65] Creating Layer Rrelu7
I0812 22:48:58.222681 31259 net.cpp:228] Rrelu7 <- Rconv7
I0812 22:48:58.222704 31259 net.cpp:179] Rrelu7 -> Rconv7 (in-place)
I0812 22:48:58.222709 31259 net.cpp:84] Top shape: 12 256 27 27 (2239488)
I0812 22:48:58.222712 31259 net.cpp:111] Rrelu7 needs backward computation.
I0812 22:48:58.222717 31259 net.cpp:65] Creating Layer Rconv8
I0812 22:48:58.222719 31259 net.cpp:228] Rconv8 <- Rconv7
I0812 22:48:58.222723 31259 net.cpp:189] Rconv8 -> Rconv8
I0812 22:48:58.223565 31259 net.cpp:84] Top shape: 12 256 27 27 (2239488)
I0812 22:48:58.223570 31259 net.cpp:111] Rconv8 needs backward computation.
I0812 22:48:58.223574 31259 net.cpp:65] Creating Layer Rrelu8
I0812 22:48:58.223577 31259 net.cpp:228] Rrelu8 <- Rconv8
I0812 22:48:58.223580 31259 net.cpp:179] Rrelu8 -> Rconv8 (in-place)
I0812 22:48:58.223584 31259 net.cpp:84] Top shape: 12 256 27 27 (2239488)
I0812 22:48:58.223587 31259 net.cpp:111] Rrelu8 needs backward computation.
I0812 22:48:58.223592 31259 net.cpp:65] Creating Layer deconv2
I0812 22:48:58.223593 31259 net.cpp:228] deconv2 <- Rconv8
I0812 22:48:58.223598 31259 net.cpp:189] deconv2 -> deconv2
I0812 22:48:58.224688 31259 net.cpp:84] Top shape: 12 64 54 54 (2239488)
I0812 22:48:58.224691 31259 net.cpp:111] deconv2 needs backward computation.
I0812 22:48:58.224696 31259 net.cpp:65] Creating Layer relu_deconv2
I0812 22:48:58.224699 31259 net.cpp:228] relu_deconv2 <- deconv2
I0812 22:48:58.224702 31259 net.cpp:179] relu_deconv2 -> deconv2 (in-place)
I0812 22:48:58.224707 31259 net.cpp:84] Top shape: 12 64 54 54 (2239488)
I0812 22:48:58.224710 31259 net.cpp:111] relu_deconv2 needs backward computation.
I0812 22:48:58.224714 31259 net.cpp:65] Creating Layer deconv1
I0812 22:48:58.224716 31259 net.cpp:228] deconv1 <- deconv2
I0812 22:48:58.224720 31259 net.cpp:189] deconv1 -> deconv1
I0812 22:48:58.224874 31259 net.cpp:84] Top shape: 12 32 108 108 (4478976)
I0812 22:48:58.224879 31259 net.cpp:111] deconv1 needs backward computation.
I0812 22:48:58.224882 31259 net.cpp:65] Creating Layer relu_deconv1
I0812 22:48:58.224884 31259 net.cpp:228] relu_deconv1 <- deconv1
I0812 22:48:58.224889 31259 net.cpp:179] relu_deconv1 -> deconv1 (in-place)
I0812 22:48:58.224894 31259 net.cpp:84] Top shape: 12 32 108 108 (4478976)
I0812 22:48:58.224895 31259 net.cpp:111] relu_deconv1 needs backward computation.
I0812 22:48:58.224900 31259 net.cpp:65] Creating Layer deconv0
I0812 22:48:58.224903 31259 net.cpp:228] deconv0 <- deconv1
I0812 22:48:58.224907 31259 net.cpp:189] deconv0 -> deconv0
I0812 22:48:58.224961 31259 net.cpp:84] Top shape: 12 3 216 216 (1679616)
I0812 22:48:58.224964 31259 net.cpp:111] deconv0 needs backward computation.
I0812 22:48:58.224967 31259 net.cpp:65] Creating Layer loss
I0812 22:48:58.224970 31259 net.cpp:228] loss <- deconv0
I0812 22:48:58.224973 31259 net.cpp:228] loss <- target_ims
I0812 22:48:58.224982 31259 net.cpp:111] loss needs backward computation.
I0812 22:48:58.224997 31259 net.cpp:238] Collecting Learning Rate and Weight Decay.
…
    source: "/scr/r6/tgebru/inverting_conv/caffe_invert_alexnet/data/siggraph/tiny_summer_val_lmdb"
    mean_file: "/scr/r6/tgebru/timnit_caffe/data/ilsvrc12/imagenet_mean.binaryproto"
    batch_size: 2
    crop_size: 227
    mirror: false
    backend: LMDB
  }
}
layers {
  top: "target_ims"
  name: "target_ims"
  type: DATA
  data_param {
    source: "/scr/r6/tgebru/inverting_conv/caffe_invert_alexnet/data/siggraph/tiny_summer_val_lmdb"
    mean_file: "/scr/r6/tgebru/timnit_caffe/data/ilsvrc12/imagenet_mean.binaryproto"
    batch_size: 2
    crop_size: 216
    mirror: false
    backend: LMDB
  }
}
layers {
  bottom: "source_ims"
  top: "conv1"
  name: "conv1"
  type: CONVOLUTION
  blobs_lr: 0
  blobs_lr: 0
  weight_decay: 1
  weight_decay: 0
  convolution_param {
    num_output: 96
    kernel_size: 11
    stride: 4
    weight_filler {
      type: "gaussian"
      std: 0.01
    }
    bias_filler {
      type: "constant"
      value: 0
    }
  }
}
layers {
  bottom: "conv1"
  top: "conv1"
  name: "relu1"
  type: RELU
}
layers {
  bottom: "conv1"
  top: "pool1"
  name: "pool1"
  type: POOLING
  pooling_param {
    pool: MAX
    kernel_size: 3
    stride: 2
  }
}
layers {
  bottom: "pool1"
  top: "norm1"
  name: "norm1"
  type: LRN
  lrn_param {
    local_size: 5
    alpha: 0.0001
    beta: 0.75
  }
}
layers {
  bottom: "norm1"
  top: "Rconv6"
  name: "Rconv6"
  type: CONVOLUTION
  blobs_lr: 0
  blobs_lr: 0
  weight_decay: 1
  weight_decay: 0
  convolution_param {
    num_output: 256
    pad: 1
    kernel_size: 3
  }
}
layers {
  bottom: "Rconv6"
  top: "Rconv6"
  name: "Rrelu6"
  type: RELU
}
layers {
  bottom: "Rconv6"
  top: "Rconv7"
  name: "Rconv7"
  type: CONVOLUTION
  blobs_lr: 0
  blobs_lr: 0
  weight_decay: 1
  weight_decay: 0
  convolution_param {
    num_output: 256
    pad: 1
    kernel_size: 3
    group: 2
  }
}
layers {
  bottom: "Rconv7"
  top: "Rconv7"
  name: "Rrelu7"
  type: RELU
}
layers {
  bottom: "Rconv7"
  top: "Rconv8"
  name: "Rconv8"
  type: CONVOLUTION
  blobs_lr: 0
  blobs_lr: 0
  weight_decay: 1
  weight_decay: 0
  convolution_param {
    num_output: 256
    pad: 1
    kernel_size: 3
    group: 2
  }
}
layers {
  bottom: "Rconv8"
  top: "Rconv8"
  name: "Rrelu8"
  type: RELU
}
layers {
  bottom: "Rconv8"
  top: "deconv2"
  name: "deconv2"
  type: DECONVOLUTION
  blobs_lr: 0
  blobs_lr: 0
  weight_decay: 1
  weight_decay: 0
  deconvolution_param {
    pad: 2
    kernel_size: 5
    stride: 2
    output_height: 54
    output_width: 54
    output_channels: 64
  }
}
layers {
  bottom: "deconv2"
  top: "deconv2"
  name: "relu_deconv2"
  type: RELU
  relu_param {
    negative_slope: 0.3
  }
}
layers {
  bottom: "deconv2"
  top: "deconv1"
  name: "deconv1"
  type: DECONVOLUTION
  blobs_lr: 0
  blobs_lr: 0
  weight_decay: 1
  weight_decay: 0
  deconvolution_param {
    pad: 2
    kernel_size: 5
    stride: 2
    output_height: 108
    output_width: 108
    output_channels: 32
  }
}
layers {
  bottom: "deconv1"
  top: "deconv1"
  name: "relu_deconv1"
  type: RELU
  relu_param {
    negative_slope: 0.3
  }
}
layers {
  bottom: "deconv1"
  top: "deconv0"
  name: "deconv0"
  type: DECONVOLUTION
  blobs_lr: 0
  blobs_lr: 0
  weight_decay: 1
  weight_decay: 0
  deconvolution_param {
    pad: 2
    kernel_size: 5
    stride: 2
    output_height: 216
    output_width: 216
    output_channels: 3
  }
}
layers {
  bottom: "deconv0"
  bottom: "target_ims"
  name: "loss"
  type: EUCLIDEAN_LOSS
}
I0812 22:48:58.225718 31259 net.cpp:65] Creating Layer source_ims
I0812 22:48:58.225724 31259 net.cpp:189] source_ims -> source_ims
I0812 22:48:58.225776 31259 data_layer.cpp:223] Opening lmdb /scr/r6/tgebru/inverting_conv/caffe_invert_alexnet/data/siggraph/tiny_summer_val_lmdb
I0812 22:48:58.225989 31259 data_layer.cpp:285] output data size: 2,3,227,227
I0812 22:48:58.225993 31259 data_layer.cpp:304] Loading mean file from/scr/r6/tgebru/timnit_caffe/data/ilsvrc12/imagenet_mean.binaryproto
I0812 22:48:58.228395 31259 net.cpp:84] Top shape: 2 3 227 227 (309174)
I0812 22:48:58.228402 31259 net.cpp:116] source_ims does not need backward computation.
I0812 22:48:58.228409 31259 net.cpp:65] Creating Layer target_ims
I0812 22:48:58.228412 31259 net.cpp:189] target_ims -> target_ims
I0812 22:48:58.228453 31259 data_layer.cpp:223] Opening lmdb /scr/r6/tgebru/inverting_conv/caffe_invert_alexnet/data/siggraph/tiny_summer_val_lmdb
I0812 22:48:58.228617 31259 data_layer.cpp:285] output data size: 2,3,216,216
I0812 22:48:58.228621 31259 data_layer.cpp:304] Loading mean file from/scr/r6/tgebru/timnit_caffe/data/ilsvrc12/imagenet_mean.binaryproto
I0812 22:48:58.230892 31259 net.cpp:84] Top shape: 2 3 216 216 (279936)
I0812 22:48:58.230898 31259 net.cpp:116] target_ims does not need backward computation.
I0812 22:48:58.230919 31259 net.cpp:65] Creating Layer conv1
I0812 22:48:58.230922 31259 net.cpp:228] conv1 <- source_ims
I0812 22:48:58.230928 31259 net.cpp:189] conv1 -> conv1
I0812 22:48:58.232169 31259 net.cpp:84] Top shape: 2 96 55 55 (580800)
I0812 22:48:58.232173 31259 net.cpp:116] conv1 does not need backward computation.
I0812 22:48:58.232177 31259 net.cpp:65] Creating Layer relu1
I0812 22:48:58.232180 31259 net.cpp:228] relu1 <- conv1
I0812 22:48:58.232184 31259 net.cpp:179] relu1 -> conv1 (in-place)
I0812 22:48:58.232189 31259 net.cpp:84] Top shape: 2 96 55 55 (580800)
I0812 22:48:58.232192 31259 net.cpp:116] relu1 does not need backward computation.
I0812 22:48:58.232197 31259 net.cpp:65] Creating Layer pool1
I0812 22:48:58.232198 31259 net.cpp:228] pool1 <- conv1
I0812 22:48:58.232203 31259 net.cpp:189] pool1 -> pool1
I0812 22:48:58.232208 31259 net.cpp:84] Top shape: 2 96 27 27 (139968)
I0812 22:48:58.232211 31259 net.cpp:116] pool1 does not need backward computation.
I0812 22:48:58.232215 31259 net.cpp:65] Creating Layer norm1
I0812 22:48:58.232218 31259 net.cpp:228] norm1 <- pool1
I0812 22:48:58.232221 31259 net.cpp:189] norm1 -> norm1
I0812 22:48:58.232226 31259 net.cpp:84] Top shape: 2 96 27 27 (139968)
I0812 22:48:58.232229 31259 net.cpp:116] norm1 does not need backward computation.
I0812 22:48:58.232234 31259 net.cpp:65] Creating Layer Rconv6
I0812 22:48:58.232235 31259 net.cpp:228] Rconv6 <- norm1
I0812 22:48:58.232239 31259 net.cpp:189] Rconv6 -> Rconv6
I0812 22:48:58.232856 31259 net.cpp:84] Top shape: 2 256 27 27 (373248)
I0812 22:48:58.232859 31259 net.cpp:116] Rconv6 does not need backward computation.
I0812 22:48:58.232863 31259 net.cpp:65] Creating Layer Rrelu6
I0812 22:48:58.232867 31259 net.cpp:228] Rrelu6 <- Rconv6
I0812 22:48:58.232870 31259 net.cpp:179] Rrelu6 -> Rconv6 (in-place)
I0812 22:48:58.232874 31259 net.cpp:84] Top shape: 2 256 27 27 (373248)
I0812 22:48:58.232877 31259 net.cpp:116] Rrelu6 does not need backward computation.
I0812 22:48:58.232882 31259 net.cpp:65] Creating Layer Rconv7
I0812 22:48:58.232884 31259 net.cpp:228] Rconv7 <- Rconv6
I0812 22:48:58.232888 31259 net.cpp:189] Rconv7 -> Rconv7
I0812 22:48:58.233661 31259 net.cpp:84] Top shape: 2 256 27 27 (373248)
I0812 22:48:58.233665 31259 net.cpp:116] Rconv7 does not need backward computation.
I0812 22:48:58.233669 31259 net.cpp:65] Creating Layer Rrelu7
I0812 22:48:58.233672 31259 net.cpp:228] Rrelu7 <- Rconv7
I0812 22:48:58.233675 31259 net.cpp:179] Rrelu7 -> Rconv7 (in-place)
I0812 22:48:58.233680 31259 net.cpp:84] Top shape: 2 256 27 27 (373248)
I0812 22:48:58.233682 31259 net.cpp:116] Rrelu7 does not need backward computation.
I0812 22:48:58.233686 31259 net.cpp:65] Creating Layer Rconv8
I0812 22:48:58.233690 31259 net.cpp:228] Rconv8 <- Rconv7
I0812 22:48:58.233692 31259 net.cpp:189] Rconv8 -> Rconv8
I0812 22:48:58.234432 31259 net.cpp:84] Top shape: 2 256 27 27 (373248)
I0812 22:48:58.234437 31259 net.cpp:116] Rconv8 does not need backward computation.
I0812 22:48:58.234441 31259 net.cpp:65] Creating Layer Rrelu8
I0812 22:48:58.234443 31259 net.cpp:228] Rrelu8 <- Rconv8
I0812 22:48:58.234447 31259 net.cpp:179] Rrelu8 -> Rconv8 (in-place)
I0812 22:48:58.234450 31259 net.cpp:84] Top shape: 2 256 27 27 (373248)
I0812 22:48:58.234453 31259 net.cpp:116] Rrelu8 does not need backward computation.
I0812 22:48:58.234457 31259 net.cpp:65] Creating Layer deconv2
I0812 22:48:58.234459 31259 net.cpp:228] deconv2 <- Rconv8
I0812 22:48:58.234463 31259 net.cpp:189] deconv2 -> deconv2
I0812 22:48:58.235517 31259 net.cpp:84] Top shape: 2 64 54 54 (373248)
I0812 22:48:58.235522 31259 net.cpp:116] deconv2 does not need backward computation.
I0812 22:48:58.235525 31259 net.cpp:65] Creating Layer relu_deconv2
I0812 22:48:58.235528 31259 net.cpp:228] relu_deconv2 <- deconv2
I0812 22:48:58.235532 31259 net.cpp:179] relu_deconv2 -> deconv2 (in-place)
I0812 22:48:58.235537 31259 net.cpp:84] Top shape: 2 64 54 54 (373248)
I0812 22:48:58.235539 31259 net.cpp:116] relu_deconv2 does not need backward computation.
I0812 22:48:58.235554 31259 net.cpp:65] Creating Layer deconv1
I0812 22:48:58.235558 31259 net.cpp:228] deconv1 <- deconv2
I0812 22:48:58.235561 31259 net.cpp:189] deconv1 -> deconv1
I0812 22:48:58.235702 31259 net.cpp:84] Top shape: 2 32 108 108 (746496)
I0812 22:48:58.235707 31259 net.cpp:116] deconv1 does not need backward computation.
I0812 22:48:58.235710 31259 net.cpp:65] Creating Layer relu_deconv1
I0812 22:48:58.235713 31259 net.cpp:228] relu_deconv1 <- deconv1
I0812 22:48:58.235716 31259 net.cpp:179] relu_deconv1 -> deconv1 (in-place)
I0812 22:48:58.235721 31259 net.cpp:84] Top shape: 2 32 108 108 (746496)
I0812 22:48:58.235723 31259 net.cpp:116] relu_deconv1 does not need backward computation.
I0812 22:48:58.235728 31259 net.cpp:65] Creating Layer deconv0
I0812 22:48:58.235731 31259 net.cpp:228] deconv0 <- deconv1
I0812 22:48:58.235735 31259 net.cpp:189] deconv0 -> deconv0
I0812 22:48:58.235752 31259 net.cpp:84] Top shape: 2 3 216 216 (279936)
I0812 22:48:58.235756 31259 net.cpp:116] deconv0 does not need backward computation.
I0812 22:48:58.235759 31259 net.cpp:65] Creating Layer loss
I0812 22:48:58.235762 31259 net.cpp:228] loss <- deconv0
I0812 22:48:58.235765 31259 net.cpp:228] loss <- target_ims
I0812 22:48:58.235769 31259 net.cpp:116] loss does not need backward computation.
I0812 22:48:58.235780 31259 net.cpp:238] Collecting Learning Rate and Weight Decay.
…
