…
    source: "/scr/r6/tgebru/inverting_conv/caffe_invert_alexnet/data/siggraph/tiny_summer_train_lmdb"
    mean_file: "/scr/r6/tgebru/timnit_caffe/data/ilsvrc12/imagenet_mean.binaryproto"
    batch_size: 12
    crop_size: 227
    mirror: false
    backend: LMDB
  }
}
layers {
  top: "target_ims"
  name: "target_ims"
  type: DATA
  data_param {
    source: "/scr/r6/tgebru/inverting_conv/caffe_invert_alexnet/data/siggraph/tiny_summer_train_lmdb"
    mean_file: "/scr/r6/tgebru/timnit_caffe/data/ilsvrc12/imagenet_mean.binaryproto"
    batch_size: 12
    crop_size: 216
    mirror: false
    backend: LMDB
  }
}
layers {
  bottom: "source_ims"
  top: "conv1"
  name: "conv1"
  type: CONVOLUTION
  blobs_lr: 0
  blobs_lr: 0
  weight_decay: 1
  weight_decay: 0
  convolution_param {
    num_output: 96
    kernel_size: 11
    stride: 4
    weight_filler {
      type: "gaussian"
      std: 0.01
    }
    bias_filler {
      type: "constant"
      value: 0
    }
  }
}
layers {
  bottom: "conv1"
  top: "conv1"
  name: "relu1"
  type: RELU
}
layers {
  bottom: "conv1"
  top: "pool1"
  name: "pool1"
  type: POOLING
  pooling_param {
    pool: MAX
    kernel_size: 3
    stride: 2
  }
}
layers {
  bottom: "pool1"
  top: "norm1"
  name: "norm1"
  type: LRN
  lrn_param {
    local_size: 5
    alpha: 0.0001
    beta: 0.75
  }
}
layers {
  bottom: "norm1"
  top: "Rconv6"
  name: "Rconv6"
  type: CONVOLUTION
  blobs_lr: 1
  blobs_lr: 2
  weight_decay: 1
  weight_decay: 0
  convolution_param {
    num_output: 256
    pad: 1
    kernel_size: 3
  }
}
layers {
  bottom: "Rconv6"
  top: "Rconv6"
  name: "Rrelu6"
  type: RELU
}
layers {
  bottom: "Rconv6"
  top: "Rconv7"
  name: "Rconv7"
  type: CONVOLUTION
  blobs_lr: 1
  blobs_lr: 2
  weight_decay: 1
  weight_decay: 0
  convolution_param {
    num_output: 256
    pad: 1
    kernel_size: 3
    group: 2
  }
}
layers {
  bottom: "Rconv7"
  top: "Rconv7"
  name: "Rrelu7"
  type: RELU
}
layers {
  bottom: "Rconv7"
  top: "Rconv8"
  name: "Rconv8"
  type: CONVOLUTION
  blobs_lr: 1
  blobs_lr: 2
  weight_decay: 1
  weight_decay: 0
  convolution_param {
    num_output: 256
    pad: 1
    kernel_size: 3
    group: 2
  }
}
layers {
  bottom: "Rconv8"
  top: "Rconv8"
  name: "Rrelu8"
  type: RELU
}
layers {
  bottom: "Rconv8"
  top: "deconv2"
  name: "deconv2"
  type: DECONVOLUTION
  blobs_lr: 1
  blobs_lr: 2
  weight_decay: 1
  weight_decay: 0
  deconvolution_param {
    pad: 2
    kernel_size: 5
    stride: 2
    output_height: 54
    output_width: 54
    output_channels: 64
  }
}
layers {
  bottom: "deconv2"
  top: "deconv2"
  name: "relu_deconv2"
  type: RELU
  relu_param {
    negative_slope: 0.3
  }
}
layers {
  bottom: "deconv2"
  top: "deconv1"
  name: "deconv1"
  type: DECONVOLUTION
  blobs_lr: 1
  blobs_lr: 2
  weight_decay: 1
  weight_decay: 0
  deconvolution_param {
    pad: 2
    kernel_size: 5
    stride: 2
    output_height: 108
    output_width: 108
    output_channels: 32
  }
}
layers {
  bottom: "deconv1"
  top: "deconv1"
  name: "relu_deconv1"
  type: RELU
  relu_param {
    negative_slope: 0.3
  }
}
layers {
  bottom: "deconv1"
  top: "deconv0"
  name: "deconv0"
  type: DECONVOLUTION
  blobs_lr: 1
  blobs_lr: 2
  weight_decay: 1
  weight_decay: 1
  deconvolution_param {
    pad: 2
    kernel_size: 5
    stride: 2
    output_height: 216
    output_width: 216
    output_channels: 3
  }
}
layers {
  bottom: "deconv0"
  bottom: "target_ims"
  name: "loss"
  type: EUCLIDEAN_LOSS
}
I0813 13:33:25.724400 13157 net.cpp:65] Creating Layer source_ims
I0813 13:33:25.724411 13157 net.cpp:189] source_ims -> source_ims
I0813 13:33:25.724524 13157 data_layer.cpp:223] Opening lmdb /scr/r6/tgebru/inverting_conv/caffe_invert_alexnet/data/siggraph/tiny_summer_train_lmdb
I0813 13:33:25.724741 13157 data_layer.cpp:285] output data size: 12,3,227,227
I0813 13:33:25.724748 13157 data_layer.cpp:304] Loading mean file from/scr/r6/tgebru/timnit_caffe/data/ilsvrc12/imagenet_mean.binaryproto
I0813 13:33:25.729238 13157 net.cpp:84] Top shape: 12 3 227 227 (1855044)
I0813 13:33:25.729248 13157 net.cpp:116] source_ims does not need backward computation.
I0813 13:33:25.729254 13157 net.cpp:65] Creating Layer target_ims
I0813 13:33:25.729257 13157 net.cpp:189] target_ims -> target_ims
I0813 13:33:25.729413 13157 data_layer.cpp:223] Opening lmdb /scr/r6/tgebru/inverting_conv/caffe_invert_alexnet/data/siggraph/tiny_summer_train_lmdb
I0813 13:33:25.729547 13157 data_layer.cpp:285] output data size: 12,3,216,216
I0813 13:33:25.729552 13157 data_layer.cpp:304] Loading mean file from/scr/r6/tgebru/timnit_caffe/data/ilsvrc12/imagenet_mean.binaryproto
I0813 13:33:25.734380 13157 net.cpp:84] Top shape: 12 3 216 216 (1679616)
I0813 13:33:25.734388 13157 net.cpp:116] target_ims does not need backward computation.
I0813 13:33:25.734400 13157 net.cpp:65] Creating Layer conv1
I0813 13:33:25.734405 13157 net.cpp:228] conv1 <- source_ims
I0813 13:33:25.734468 13157 net.cpp:189] conv1 -> conv1
I0813 13:33:25.735761 13157 net.cpp:84] Top shape: 12 96 55 55 (3484800)
I0813 13:33:25.735767 13157 net.cpp:116] conv1 does not need backward computation.
I0813 13:33:25.735772 13157 net.cpp:65] Creating Layer relu1
I0813 13:33:25.735776 13157 net.cpp:228] relu1 <- conv1
I0813 13:33:25.735781 13157 net.cpp:179] relu1 -> conv1 (in-place)
I0813 13:33:25.735790 13157 net.cpp:84] Top shape: 12 96 55 55 (3484800)
I0813 13:33:25.735792 13157 net.cpp:116] relu1 does not need backward computation.
I0813 13:33:25.735798 13157 net.cpp:65] Creating Layer pool1
I0813 13:33:25.735800 13157 net.cpp:228] pool1 <- conv1
I0813 13:33:25.735805 13157 net.cpp:189] pool1 -> pool1
I0813 13:33:25.735818 13157 net.cpp:84] Top shape: 12 96 27 27 (839808)
I0813 13:33:25.735821 13157 net.cpp:116] pool1 does not need backward computation.
I0813 13:33:25.735826 13157 net.cpp:65] Creating Layer norm1
I0813 13:33:25.735828 13157 net.cpp:228] norm1 <- pool1
I0813 13:33:25.735833 13157 net.cpp:189] norm1 -> norm1
I0813 13:33:25.735842 13157 net.cpp:84] Top shape: 12 96 27 27 (839808)
I0813 13:33:25.735846 13157 net.cpp:116] norm1 does not need backward computation.
I0813 13:33:25.735851 13157 net.cpp:65] Creating Layer Rconv6
I0813 13:33:25.735853 13157 net.cpp:228] Rconv6 <- norm1
I0813 13:33:25.735858 13157 net.cpp:189] Rconv6 -> Rconv6
I0813 13:33:25.736116 13157 net.cpp:84] Top shape: 12 256 27 27 (2239488)
I0813 13:33:25.736121 13157 net.cpp:111] Rconv6 needs backward computation.
I0813 13:33:25.736126 13157 net.cpp:65] Creating Layer Rrelu6
I0813 13:33:25.736129 13157 net.cpp:228] Rrelu6 <- Rconv6
I0813 13:33:25.736134 13157 net.cpp:179] Rrelu6 -> Rconv6 (in-place)
I0813 13:33:25.736138 13157 net.cpp:84] Top shape: 12 256 27 27 (2239488)
I0813 13:33:25.736140 13157 net.cpp:111] Rrelu6 needs backward computation.
I0813 13:33:25.736145 13157 net.cpp:65] Creating Layer Rconv7
I0813 13:33:25.736148 13157 net.cpp:228] Rconv7 <- Rconv6
I0813 13:33:25.736152 13157 net.cpp:189] Rconv7 -> Rconv7
I0813 13:33:25.736832 13157 net.cpp:84] Top shape: 12 256 27 27 (2239488)
I0813 13:33:25.736837 13157 net.cpp:111] Rconv7 needs backward computation.
I0813 13:33:25.736841 13157 net.cpp:65] Creating Layer Rrelu7
I0813 13:33:25.736845 13157 net.cpp:228] Rrelu7 <- Rconv7
I0813 13:33:25.736867 13157 net.cpp:179] Rrelu7 -> Rconv7 (in-place)
I0813 13:33:25.736872 13157 net.cpp:84] Top shape: 12 256 27 27 (2239488)
I0813 13:33:25.736876 13157 net.cpp:111] Rrelu7 needs backward computation.
I0813 13:33:25.736879 13157 net.cpp:65] Creating Layer Rconv8
I0813 13:33:25.736882 13157 net.cpp:228] Rconv8 <- Rconv7
I0813 13:33:25.736886 13157 net.cpp:189] Rconv8 -> Rconv8
I0813 13:33:25.737627 13157 net.cpp:84] Top shape: 12 256 27 27 (2239488)
I0813 13:33:25.737632 13157 net.cpp:111] Rconv8 needs backward computation.
I0813 13:33:25.737635 13157 net.cpp:65] Creating Layer Rrelu8
I0813 13:33:25.737638 13157 net.cpp:228] Rrelu8 <- Rconv8
I0813 13:33:25.737643 13157 net.cpp:179] Rrelu8 -> Rconv8 (in-place)
I0813 13:33:25.737646 13157 net.cpp:84] Top shape: 12 256 27 27 (2239488)
I0813 13:33:25.737649 13157 net.cpp:111] Rrelu8 needs backward computation.
I0813 13:33:25.737653 13157 net.cpp:65] Creating Layer deconv2
I0813 13:33:25.737655 13157 net.cpp:228] deconv2 <- Rconv8
I0813 13:33:25.737659 13157 net.cpp:189] deconv2 -> deconv2
I0813 13:33:25.738677 13157 net.cpp:84] Top shape: 12 64 54 54 (2239488)
I0813 13:33:25.738682 13157 net.cpp:111] deconv2 needs backward computation.
I0813 13:33:25.738687 13157 net.cpp:65] Creating Layer relu_deconv2
I0813 13:33:25.738690 13157 net.cpp:228] relu_deconv2 <- deconv2
I0813 13:33:25.738694 13157 net.cpp:179] relu_deconv2 -> deconv2 (in-place)
I0813 13:33:25.738699 13157 net.cpp:84] Top shape: 12 64 54 54 (2239488)
I0813 13:33:25.738703 13157 net.cpp:111] relu_deconv2 needs backward computation.
I0813 13:33:25.738705 13157 net.cpp:65] Creating Layer deconv1
I0813 13:33:25.738708 13157 net.cpp:228] deconv1 <- deconv2
I0813 13:33:25.738713 13157 net.cpp:189] deconv1 -> deconv1
I0813 13:33:25.738844 13157 net.cpp:84] Top shape: 12 32 108 108 (4478976)
I0813 13:33:25.738849 13157 net.cpp:111] deconv1 needs backward computation.
I0813 13:33:25.738853 13157 net.cpp:65] Creating Layer relu_deconv1
I0813 13:33:25.738855 13157 net.cpp:228] relu_deconv1 <- deconv1
I0813 13:33:25.738859 13157 net.cpp:179] relu_deconv1 -> deconv1 (in-place)
I0813 13:33:25.738864 13157 net.cpp:84] Top shape: 12 32 108 108 (4478976)
I0813 13:33:25.738867 13157 net.cpp:111] relu_deconv1 needs backward computation.
I0813 13:33:25.738873 13157 net.cpp:65] Creating Layer deconv0
I0813 13:33:25.738874 13157 net.cpp:228] deconv0 <- deconv1
I0813 13:33:25.738878 13157 net.cpp:189] deconv0 -> deconv0
I0813 13:33:25.738922 13157 net.cpp:84] Top shape: 12 3 216 216 (1679616)
I0813 13:33:25.738926 13157 net.cpp:111] deconv0 needs backward computation.
I0813 13:33:25.738929 13157 net.cpp:65] Creating Layer loss
I0813 13:33:25.738932 13157 net.cpp:228] loss <- deconv0
I0813 13:33:25.738935 13157 net.cpp:228] loss <- target_ims
I0813 13:33:25.738945 13157 net.cpp:111] loss needs backward computation.
I0813 13:33:25.738958 13157 net.cpp:238] Collecting Learning Rate and Weight Decay.
…
    source: "/scr/r6/tgebru/inverting_conv/caffe_invert_alexnet/data/siggraph/tiny_summer_val_lmdb"
    mean_file: "/scr/r6/tgebru/timnit_caffe/data/ilsvrc12/imagenet_mean.binaryproto"
    batch_size: 2
    crop_size: 227
    mirror: false
    backend: LMDB
  }
}
layers {
  top: "target_ims"
  name: "target_ims"
  type: DATA
  data_param {
    source: "/scr/r6/tgebru/inverting_conv/caffe_invert_alexnet/data/siggraph/tiny_summer_val_lmdb"
    mean_file: "/scr/r6/tgebru/timnit_caffe/data/ilsvrc12/imagenet_mean.binaryproto"
    batch_size: 2
    crop_size: 216
    mirror: false
    backend: LMDB
  }
}
layers {
  bottom: "source_ims"
  top: "conv1"
  name: "conv1"
  type: CONVOLUTION
  blobs_lr: 0
  blobs_lr: 0
  weight_decay: 1
  weight_decay: 0
  convolution_param {
    num_output: 96
    kernel_size: 11
    stride: 4
    weight_filler {
      type: "gaussian"
      std: 0.01
    }
    bias_filler {
      type: "constant"
      value: 0
    }
  }
}
layers {
  bottom: "conv1"
  top: "conv1"
  name: "relu1"
  type: RELU
}
layers {
  bottom: "conv1"
  top: "pool1"
  name: "pool1"
  type: POOLING
  pooling_param {
    pool: MAX
    kernel_size: 3
    stride: 2
  }
}
layers {
  bottom: "pool1"
  top: "norm1"
  name: "norm1"
  type: LRN
  lrn_param {
    local_size: 5
    alpha: 0.0001
    beta: 0.75
  }
}
layers {
  bottom: "norm1"
  top: "Rconv6"
  name: "Rconv6"
  type: CONVOLUTION
  blobs_lr: 0
  blobs_lr: 0
  weight_decay: 1
  weight_decay: 0
  convolution_param {
    num_output: 256
    pad: 1
    kernel_size: 3
  }
}
layers {
  bottom: "Rconv6"
  top: "Rconv6"
  name: "Rrelu6"
  type: RELU
}
layers {
  bottom: "Rconv6"
  top: "Rconv7"
  name: "Rconv7"
  type: CONVOLUTION
  blobs_lr: 0
  blobs_lr: 0
  weight_decay: 1
  weight_decay: 0
  convolution_param {
    num_output: 256
    pad: 1
    kernel_size: 3
    group: 2
  }
}
layers {
  bottom: "Rconv7"
  top: "Rconv7"
  name: "Rrelu7"
  type: RELU
}
layers {
  bottom: "Rconv7"
  top: "Rconv8"
  name: "Rconv8"
  type: CONVOLUTION
  blobs_lr: 0
  blobs_lr: 0
  weight_decay: 1
  weight_decay: 0
  convolution_param {
    num_output: 256
    pad: 1
    kernel_size: 3
    group: 2
  }
}
layers {
  bottom: "Rconv8"
  top: "Rconv8"
  name: "Rrelu8"
  type: RELU
}
layers {
  bottom: "Rconv8"
  top: "deconv2"
  name: "deconv2"
  type: DECONVOLUTION
  blobs_lr: 0
  blobs_lr: 0
  weight_decay: 1
  weight_decay: 0
  deconvolution_param {
    pad: 2
    kernel_size: 5
    stride: 2
    output_height: 54
    output_width: 54
    output_channels: 64
  }
}
layers {
  bottom: "deconv2"
  top: "deconv2"
  name: "relu_deconv2"
  type: RELU
  relu_param {
    negative_slope: 0.3
  }
}
layers {
  bottom: "deconv2"
  top: "deconv1"
  name: "deconv1"
  type: DECONVOLUTION
  blobs_lr: 0
  blobs_lr: 0
  weight_decay: 1
  weight_decay: 0
  deconvolution_param {
    pad: 2
    kernel_size: 5
    stride: 2
    output_height: 108
    output_width: 108
    output_channels: 32
  }
}
layers {
  bottom: "deconv1"
  top: "deconv1"
  name: "relu_deconv1"
  type: RELU
  relu_param {
    negative_slope: 0.3
  }
}
layers {
  bottom: "deconv1"
  top: "deconv0"
  name: "deconv0"
  type: DECONVOLUTION
  blobs_lr: 0
  blobs_lr: 0
  weight_decay: 1
  weight_decay: 0
  deconvolution_param {
    pad: 2
    kernel_size: 5
    stride: 2
    output_height: 216
    output_width: 216
    output_channels: 3
  }
}
layers {
  bottom: "deconv0"
  bottom: "target_ims"
  name: "loss"
  type: EUCLIDEAN_LOSS
}
I0813 13:33:25.739672 13157 net.cpp:65] Creating Layer source_ims
I0813 13:33:25.739677 13157 net.cpp:189] source_ims -> source_ims
I0813 13:33:25.739738 13157 data_layer.cpp:223] Opening lmdb /scr/r6/tgebru/inverting_conv/caffe_invert_alexnet/data/siggraph/tiny_summer_val_lmdb
I0813 13:33:25.739929 13157 data_layer.cpp:285] output data size: 2,3,227,227
I0813 13:33:25.739934 13157 data_layer.cpp:304] Loading mean file from/scr/r6/tgebru/timnit_caffe/data/ilsvrc12/imagenet_mean.binaryproto
I0813 13:33:25.742182 13157 net.cpp:84] Top shape: 2 3 227 227 (309174)
I0813 13:33:25.742188 13157 net.cpp:116] source_ims does not need backward computation.
I0813 13:33:25.742194 13157 net.cpp:65] Creating Layer target_ims
I0813 13:33:25.742198 13157 net.cpp:189] target_ims -> target_ims
I0813 13:33:25.742247 13157 data_layer.cpp:223] Opening lmdb /scr/r6/tgebru/inverting_conv/caffe_invert_alexnet/data/siggraph/tiny_summer_val_lmdb
I0813 13:33:25.742403 13157 data_layer.cpp:285] output data size: 2,3,216,216
I0813 13:33:25.742408 13157 data_layer.cpp:304] Loading mean file from/scr/r6/tgebru/timnit_caffe/data/ilsvrc12/imagenet_mean.binaryproto
I0813 13:33:25.744632 13157 net.cpp:84] Top shape: 2 3 216 216 (279936)
I0813 13:33:25.744639 13157 net.cpp:116] target_ims does not need backward computation.
I0813 13:33:25.744659 13157 net.cpp:65] Creating Layer conv1
I0813 13:33:25.744663 13157 net.cpp:228] conv1 <- source_ims
I0813 13:33:25.744669 13157 net.cpp:189] conv1 -> conv1
I0813 13:33:25.745919 13157 net.cpp:84] Top shape: 2 96 55 55 (580800)
I0813 13:33:25.745924 13157 net.cpp:116] conv1 does not need backward computation.
I0813 13:33:25.745929 13157 net.cpp:65] Creating Layer relu1
I0813 13:33:25.745931 13157 net.cpp:228] relu1 <- conv1
I0813 13:33:25.745936 13157 net.cpp:179] relu1 -> conv1 (in-place)
I0813 13:33:25.745941 13157 net.cpp:84] Top shape: 2 96 55 55 (580800)
I0813 13:33:25.745944 13157 net.cpp:116] relu1 does not need backward computation.
I0813 13:33:25.745949 13157 net.cpp:65] Creating Layer pool1
I0813 13:33:25.745951 13157 net.cpp:228] pool1 <- conv1
I0813 13:33:25.745954 13157 net.cpp:189] pool1 -> pool1
I0813 13:33:25.745961 13157 net.cpp:84] Top shape: 2 96 27 27 (139968)
I0813 13:33:25.745964 13157 net.cpp:116] pool1 does not need backward computation.
I0813 13:33:25.745967 13157 net.cpp:65] Creating Layer norm1
I0813 13:33:25.745970 13157 net.cpp:228] norm1 <- pool1
I0813 13:33:25.745975 13157 net.cpp:189] norm1 -> norm1
I0813 13:33:25.745980 13157 net.cpp:84] Top shape: 2 96 27 27 (139968)
I0813 13:33:25.745982 13157 net.cpp:116] norm1 does not need backward computation.
I0813 13:33:25.745986 13157 net.cpp:65] Creating Layer Rconv6
I0813 13:33:25.745990 13157 net.cpp:228] Rconv6 <- norm1
I0813 13:33:25.745993 13157 net.cpp:189] Rconv6 -> Rconv6
I0813 13:33:25.746533 13157 net.cpp:84] Top shape: 2 256 27 27 (373248)
I0813 13:33:25.746538 13157 net.cpp:116] Rconv6 does not need backward computation.
I0813 13:33:25.746542 13157 net.cpp:65] Creating Layer Rrelu6
I0813 13:33:25.746546 13157 net.cpp:228] Rrelu6 <- Rconv6
I0813 13:33:25.746551 13157 net.cpp:179] Rrelu6 -> Rconv6 (in-place)
I0813 13:33:25.746554 13157 net.cpp:84] Top shape: 2 256 27 27 (373248)
I0813 13:33:25.746557 13157 net.cpp:116] Rrelu6 does not need backward computation.
I0813 13:33:25.746562 13157 net.cpp:65] Creating Layer Rconv7
I0813 13:33:25.746564 13157 net.cpp:228] Rconv7 <- Rconv6
I0813 13:33:25.746568 13157 net.cpp:189] Rconv7 -> Rconv7
I0813 13:33:25.747277 13157 net.cpp:84] Top shape: 2 256 27 27 (373248)
I0813 13:33:25.747282 13157 net.cpp:116] Rconv7 does not need backward computation.
I0813 13:33:25.747285 13157 net.cpp:65] Creating Layer Rrelu7
I0813 13:33:25.747288 13157 net.cpp:228] Rrelu7 <- Rconv7
I0813 13:33:25.747292 13157 net.cpp:179] Rrelu7 -> Rconv7 (in-place)
I0813 13:33:25.747295 13157 net.cpp:84] Top shape: 2 256 27 27 (373248)
I0813 13:33:25.747298 13157 net.cpp:116] Rrelu7 does not need backward computation.
I0813 13:33:25.747303 13157 net.cpp:65] Creating Layer Rconv8
I0813 13:33:25.747304 13157 net.cpp:228] Rconv8 <- Rconv7
I0813 13:33:25.747308 13157 net.cpp:189] Rconv8 -> Rconv8
I0813 13:33:25.748016 13157 net.cpp:84] Top shape: 2 256 27 27 (373248)
I0813 13:33:25.748021 13157 net.cpp:116] Rconv8 does not need backward computation.
I0813 13:33:25.748025 13157 net.cpp:65] Creating Layer Rrelu8
I0813 13:33:25.748028 13157 net.cpp:228] Rrelu8 <- Rconv8
I0813 13:33:25.748031 13157 net.cpp:179] Rrelu8 -> Rconv8 (in-place)
I0813 13:33:25.748035 13157 net.cpp:84] Top shape: 2 256 27 27 (373248)
I0813 13:33:25.748039 13157 net.cpp:116] Rrelu8 does not need backward computation.
I0813 13:33:25.748042 13157 net.cpp:65] Creating Layer deconv2
I0813 13:33:25.748045 13157 net.cpp:228] deconv2 <- Rconv8
I0813 13:33:25.748049 13157 net.cpp:189] deconv2 -> deconv2
I0813 13:33:25.749035 13157 net.cpp:84] Top shape: 2 64 54 54 (373248)
I0813 13:33:25.749040 13157 net.cpp:116] deconv2 does not need backward computation.
I0813 13:33:25.749044 13157 net.cpp:65] Creating Layer relu_deconv2
I0813 13:33:25.749047 13157 net.cpp:228] relu_deconv2 <- deconv2
I0813 13:33:25.749052 13157 net.cpp:179] relu_deconv2 -> deconv2 (in-place)
I0813 13:33:25.749056 13157 net.cpp:84] Top shape: 2 64 54 54 (373248)
I0813 13:33:25.749059 13157 net.cpp:116] relu_deconv2 does not need backward computation.
I0813 13:33:25.749074 13157 net.cpp:65] Creating Layer deconv1
I0813 13:33:25.749078 13157 net.cpp:228] deconv1 <- deconv2
I0813 13:33:25.749083 13157 net.cpp:189] deconv1 -> deconv1
I0813 13:33:25.749215 13157 net.cpp:84] Top shape: 2 32 108 108 (746496)
I0813 13:33:25.749219 13157 net.cpp:116] deconv1 does not need backward computation.
I0813 13:33:25.749223 13157 net.cpp:65] Creating Layer relu_deconv1
I0813 13:33:25.749227 13157 net.cpp:228] relu_deconv1 <- deconv1
I0813 13:33:25.749230 13157 net.cpp:179] relu_deconv1 -> deconv1 (in-place)
I0813 13:33:25.749234 13157 net.cpp:84] Top shape: 2 32 108 108 (746496)
I0813 13:33:25.749238 13157 net.cpp:116] relu_deconv1 does not need backward computation.
I0813 13:33:25.749243 13157 net.cpp:65] Creating Layer deconv0
I0813 13:33:25.749244 13157 net.cpp:228] deconv0 <- deconv1
I0813 13:33:25.749248 13157 net.cpp:189] deconv0 -> deconv0
I0813 13:33:25.749265 13157 net.cpp:84] Top shape: 2 3 216 216 (279936)
I0813 13:33:25.749269 13157 net.cpp:116] deconv0 does not need backward computation.
I0813 13:33:25.749272 13157 net.cpp:65] Creating Layer loss
I0813 13:33:25.749275 13157 net.cpp:228] loss <- deconv0
I0813 13:33:25.749279 13157 net.cpp:228] loss <- target_ims
I0813 13:33:25.749282 13157 net.cpp:116] loss does not need backward computation.
I0813 13:33:25.749294 13157 net.cpp:238] Collecting Learning Rate and Weight Decay.
…
