…
    source: "/scr/r6/tgebru/inverting_conv/caffe_invert_alexnet/data/siggraph/tiny_summer_train_lmdb"
    mean_file: "/scr/r6/tgebru/timnit_caffe/data/ilsvrc12/imagenet_mean.binaryproto"
    batch_size: 12
    crop_size: 227
    mirror: false
    backend: LMDB
  }
}
layers {
  top: "target_ims"
  name: "target_ims"
  type: DATA
  data_param {
    source: "/scr/r6/tgebru/inverting_conv/caffe_invert_alexnet/data/siggraph/tiny_summer_train_lmdb"
    mean_file: "/scr/r6/tgebru/timnit_caffe/data/ilsvrc12/imagenet_mean.binaryproto"
    batch_size: 12
    crop_size: 216
    mirror: false
    backend: LMDB
  }
}
layers {
  bottom: "source_ims"
  top: "conv1"
  name: "conv1"
  type: CONVOLUTION
  blobs_lr: 0
  blobs_lr: 0
  weight_decay: 1
  weight_decay: 0
  convolution_param {
    num_output: 96
    kernel_size: 11
    stride: 4
    weight_filler {
      type: "gaussian"
      std: 0.01
    }
    bias_filler {
      type: "constant"
      value: 0
    }
  }
}
layers {
  bottom: "conv1"
  top: "conv1"
  name: "relu1"
  type: RELU
}
layers {
  bottom: "conv1"
  top: "pool1"
  name: "pool1"
  type: POOLING
  pooling_param {
    pool: MAX
    kernel_size: 3
    stride: 2
  }
}
layers {
  bottom: "pool1"
  top: "norm1"
  name: "norm1"
  type: LRN
  lrn_param {
    local_size: 5
    alpha: 0.0001
    beta: 0.75
  }
}
layers {
  bottom: "norm1"
  top: "Rconv6"
  name: "Rconv6"
  type: CONVOLUTION
  blobs_lr: 1
  blobs_lr: 2
  weight_decay: 1
  weight_decay: 0
  convolution_param {
    num_output: 256
    pad: 1
    kernel_size: 3
  }
}
layers {
  bottom: "Rconv6"
  top: "Rconv6"
  name: "Rrelu6"
  type: RELU
}
layers {
  bottom: "Rconv6"
  top: "Rconv7"
  name: "Rconv7"
  type: CONVOLUTION
  blobs_lr: 1
  blobs_lr: 2
  weight_decay: 1
  weight_decay: 0
  convolution_param {
    num_output: 256
    pad: 1
    kernel_size: 3
    group: 2
  }
}
layers {
  bottom: "Rconv7"
  top: "Rconv7"
  name: "Rrelu7"
  type: RELU
}
layers {
  bottom: "Rconv7"
  top: "Rconv8"
  name: "Rconv8"
  type: CONVOLUTION
  blobs_lr: 1
  blobs_lr: 2
  weight_decay: 1
  weight_decay: 0
  convolution_param {
    num_output: 256
    pad: 1
    kernel_size: 3
    group: 2
  }
}
layers {
  bottom: "Rconv8"
  top: "Rconv8"
  name: "Rrelu8"
  type: RELU
}
layers {
  bottom: "Rconv8"
  top: "deconv2"
  name: "deconv2"
  type: DECONVOLUTION
  blobs_lr: 1
  blobs_lr: 2
  weight_decay: 1
  weight_decay: 0
  deconvolution_param {
    pad: 2
    kernel_size: 5
    stride: 2
    output_height: 54
    output_width: 54
    output_channels: 64
  }
}
layers {
  bottom: "deconv2"
  top: "deconv2"
  name: "relu_deconv2"
  type: RELU
  relu_param {
    negative_slope: 0.3
  }
}
layers {
  bottom: "deconv2"
  top: "deconv1"
  name: "deconv1"
  type: DECONVOLUTION
  blobs_lr: 1
  blobs_lr: 2
  weight_decay: 1
  weight_decay: 0
  deconvolution_param {
    pad: 2
    kernel_size: 5
    stride: 2
    output_height: 108
    output_width: 108
    output_channels: 32
  }
}
layers {
  bottom: "deconv1"
  top: "deconv1"
  name: "relu_deconv1"
  type: RELU
  relu_param {
    negative_slope: 0.3
  }
}
layers {
  bottom: "deconv1"
  top: "deconv0"
  name: "deconv0"
  type: DECONVOLUTION
  blobs_lr: 1
  blobs_lr: 2
  weight_decay: 1
  weight_decay: 1
  deconvolution_param {
    pad: 2
    kernel_size: 5
    stride: 2
    output_height: 216
    output_width: 216
    output_channels: 3
  }
}
layers {
  bottom: "deconv0"
  bottom: "target_ims"
  name: "loss"
  type: EUCLIDEAN_LOSS
}
I0813 08:24:19.218648 17933 net.cpp:65] Creating Layer source_ims
I0813 08:24:19.218657 17933 net.cpp:189] source_ims -> source_ims
I0813 08:24:19.218762 17933 data_layer.cpp:223] Opening lmdb /scr/r6/tgebru/inverting_conv/caffe_invert_alexnet/data/siggraph/tiny_summer_train_lmdb
I0813 08:24:19.218963 17933 data_layer.cpp:285] output data size: 12,3,227,227
I0813 08:24:19.218971 17933 data_layer.cpp:304] Loading mean file from/scr/r6/tgebru/timnit_caffe/data/ilsvrc12/imagenet_mean.binaryproto
I0813 08:24:19.223598 17933 net.cpp:84] Top shape: 12 3 227 227 (1855044)
I0813 08:24:19.223605 17933 net.cpp:116] source_ims does not need backward computation.
I0813 08:24:19.223613 17933 net.cpp:65] Creating Layer target_ims
I0813 08:24:19.223616 17933 net.cpp:189] target_ims -> target_ims
I0813 08:24:19.223708 17933 data_layer.cpp:223] Opening lmdb /scr/r6/tgebru/inverting_conv/caffe_invert_alexnet/data/siggraph/tiny_summer_train_lmdb
I0813 08:24:19.223808 17933 data_layer.cpp:285] output data size: 12,3,216,216
I0813 08:24:19.223812 17933 data_layer.cpp:304] Loading mean file from/scr/r6/tgebru/timnit_caffe/data/ilsvrc12/imagenet_mean.binaryproto
I0813 08:24:19.227953 17933 net.cpp:84] Top shape: 12 3 216 216 (1679616)
I0813 08:24:19.227960 17933 net.cpp:116] target_ims does not need backward computation.
I0813 08:24:19.227968 17933 net.cpp:65] Creating Layer conv1
I0813 08:24:19.227972 17933 net.cpp:228] conv1 <- source_ims
I0813 08:24:19.228041 17933 net.cpp:189] conv1 -> conv1
I0813 08:24:19.229315 17933 net.cpp:84] Top shape: 12 96 55 55 (3484800)
I0813 08:24:19.229321 17933 net.cpp:116] conv1 does not need backward computation.
I0813 08:24:19.229324 17933 net.cpp:65] Creating Layer relu1
I0813 08:24:19.229327 17933 net.cpp:228] relu1 <- conv1
I0813 08:24:19.229332 17933 net.cpp:179] relu1 -> conv1 (in-place)
I0813 08:24:19.229341 17933 net.cpp:84] Top shape: 12 96 55 55 (3484800)
I0813 08:24:19.229343 17933 net.cpp:116] relu1 does not need backward computation.
I0813 08:24:19.229348 17933 net.cpp:65] Creating Layer pool1
I0813 08:24:19.229351 17933 net.cpp:228] pool1 <- conv1
I0813 08:24:19.229356 17933 net.cpp:189] pool1 -> pool1
I0813 08:24:19.229367 17933 net.cpp:84] Top shape: 12 96 27 27 (839808)
I0813 08:24:19.229370 17933 net.cpp:116] pool1 does not need backward computation.
I0813 08:24:19.229375 17933 net.cpp:65] Creating Layer norm1
I0813 08:24:19.229378 17933 net.cpp:228] norm1 <- pool1
I0813 08:24:19.229382 17933 net.cpp:189] norm1 -> norm1
I0813 08:24:19.229390 17933 net.cpp:84] Top shape: 12 96 27 27 (839808)
I0813 08:24:19.229393 17933 net.cpp:116] norm1 does not need backward computation.
I0813 08:24:19.229398 17933 net.cpp:65] Creating Layer Rconv6
I0813 08:24:19.229400 17933 net.cpp:228] Rconv6 <- norm1
I0813 08:24:19.229404 17933 net.cpp:189] Rconv6 -> Rconv6
I0813 08:24:19.229583 17933 net.cpp:84] Top shape: 12 256 27 27 (2239488)
I0813 08:24:19.229588 17933 net.cpp:111] Rconv6 needs backward computation.
I0813 08:24:19.229593 17933 net.cpp:65] Creating Layer Rrelu6
I0813 08:24:19.229594 17933 net.cpp:228] Rrelu6 <- Rconv6
I0813 08:24:19.229598 17933 net.cpp:179] Rrelu6 -> Rconv6 (in-place)
I0813 08:24:19.229604 17933 net.cpp:84] Top shape: 12 256 27 27 (2239488)
I0813 08:24:19.229606 17933 net.cpp:111] Rrelu6 needs backward computation.
I0813 08:24:19.229610 17933 net.cpp:65] Creating Layer Rconv7
I0813 08:24:19.229614 17933 net.cpp:228] Rconv7 <- Rconv6
I0813 08:24:19.229617 17933 net.cpp:189] Rconv7 -> Rconv7
I0813 08:24:19.230298 17933 net.cpp:84] Top shape: 12 256 27 27 (2239488)
I0813 08:24:19.230301 17933 net.cpp:111] Rconv7 needs backward computation.
I0813 08:24:19.230306 17933 net.cpp:65] Creating Layer Rrelu7
I0813 08:24:19.230309 17933 net.cpp:228] Rrelu7 <- Rconv7
I0813 08:24:19.230335 17933 net.cpp:179] Rrelu7 -> Rconv7 (in-place)
I0813 08:24:19.230340 17933 net.cpp:84] Top shape: 12 256 27 27 (2239488)
I0813 08:24:19.230342 17933 net.cpp:111] Rrelu7 needs backward computation.
I0813 08:24:19.230347 17933 net.cpp:65] Creating Layer Rconv8
I0813 08:24:19.230350 17933 net.cpp:228] Rconv8 <- Rconv7
I0813 08:24:19.230353 17933 net.cpp:189] Rconv8 -> Rconv8
I0813 08:24:19.231168 17933 net.cpp:84] Top shape: 12 256 27 27 (2239488)
I0813 08:24:19.231173 17933 net.cpp:111] Rconv8 needs backward computation.
I0813 08:24:19.231176 17933 net.cpp:65] Creating Layer Rrelu8
I0813 08:24:19.231178 17933 net.cpp:228] Rrelu8 <- Rconv8
I0813 08:24:19.231183 17933 net.cpp:179] Rrelu8 -> Rconv8 (in-place)
I0813 08:24:19.231186 17933 net.cpp:84] Top shape: 12 256 27 27 (2239488)
I0813 08:24:19.231189 17933 net.cpp:111] Rrelu8 needs backward computation.
I0813 08:24:19.231194 17933 net.cpp:65] Creating Layer deconv2
I0813 08:24:19.231196 17933 net.cpp:228] deconv2 <- Rconv8
I0813 08:24:19.231199 17933 net.cpp:189] deconv2 -> deconv2
I0813 08:24:19.232245 17933 net.cpp:84] Top shape: 12 64 54 54 (2239488)
I0813 08:24:19.232250 17933 net.cpp:111] deconv2 needs backward computation.
I0813 08:24:19.232254 17933 net.cpp:65] Creating Layer relu_deconv2
I0813 08:24:19.232257 17933 net.cpp:228] relu_deconv2 <- deconv2
I0813 08:24:19.232261 17933 net.cpp:179] relu_deconv2 -> deconv2 (in-place)
I0813 08:24:19.232266 17933 net.cpp:84] Top shape: 12 64 54 54 (2239488)
I0813 08:24:19.232269 17933 net.cpp:111] relu_deconv2 needs backward computation.
I0813 08:24:19.232273 17933 net.cpp:65] Creating Layer deconv1
I0813 08:24:19.232275 17933 net.cpp:228] deconv1 <- deconv2
I0813 08:24:19.232280 17933 net.cpp:189] deconv1 -> deconv1
I0813 08:24:19.232414 17933 net.cpp:84] Top shape: 12 32 108 108 (4478976)
I0813 08:24:19.232419 17933 net.cpp:111] deconv1 needs backward computation.
I0813 08:24:19.232424 17933 net.cpp:65] Creating Layer relu_deconv1
I0813 08:24:19.232425 17933 net.cpp:228] relu_deconv1 <- deconv1
I0813 08:24:19.232429 17933 net.cpp:179] relu_deconv1 -> deconv1 (in-place)
I0813 08:24:19.232434 17933 net.cpp:84] Top shape: 12 32 108 108 (4478976)
I0813 08:24:19.232436 17933 net.cpp:111] relu_deconv1 needs backward computation.
I0813 08:24:19.232441 17933 net.cpp:65] Creating Layer deconv0
I0813 08:24:19.232445 17933 net.cpp:228] deconv0 <- deconv1
I0813 08:24:19.232448 17933 net.cpp:189] deconv0 -> deconv0
I0813 08:24:19.232492 17933 net.cpp:84] Top shape: 12 3 216 216 (1679616)
I0813 08:24:19.232496 17933 net.cpp:111] deconv0 needs backward computation.
I0813 08:24:19.232499 17933 net.cpp:65] Creating Layer loss
I0813 08:24:19.232501 17933 net.cpp:228] loss <- deconv0
I0813 08:24:19.232506 17933 net.cpp:228] loss <- target_ims
I0813 08:24:19.232513 17933 net.cpp:111] loss needs backward computation.
I0813 08:24:19.232525 17933 net.cpp:238] Collecting Learning Rate and Weight Decay.
…
    source: "/scr/r6/tgebru/inverting_conv/caffe_invert_alexnet/data/siggraph/tiny_summer_val_lmdb"
    mean_file: "/scr/r6/tgebru/timnit_caffe/data/ilsvrc12/imagenet_mean.binaryproto"
    batch_size: 2
    crop_size: 227
    mirror: false
    backend: LMDB
  }
}
layers {
  top: "target_ims"
  name: "target_ims"
  type: DATA
  data_param {
    source: "/scr/r6/tgebru/inverting_conv/caffe_invert_alexnet/data/siggraph/tiny_summer_val_lmdb"
    mean_file: "/scr/r6/tgebru/timnit_caffe/data/ilsvrc12/imagenet_mean.binaryproto"
    batch_size: 2
    crop_size: 216
    mirror: false
    backend: LMDB
  }
}
layers {
  bottom: "source_ims"
  top: "conv1"
  name: "conv1"
  type: CONVOLUTION
  blobs_lr: 0
  blobs_lr: 0
  weight_decay: 1
  weight_decay: 0
  convolution_param {
    num_output: 96
    kernel_size: 11
    stride: 4
    weight_filler {
      type: "gaussian"
      std: 0.01
    }
    bias_filler {
      type: "constant"
      value: 0
    }
  }
}
layers {
  bottom: "conv1"
  top: "conv1"
  name: "relu1"
  type: RELU
}
layers {
  bottom: "conv1"
  top: "pool1"
  name: "pool1"
  type: POOLING
  pooling_param {
    pool: MAX
    kernel_size: 3
    stride: 2
  }
}
layers {
  bottom: "pool1"
  top: "norm1"
  name: "norm1"
  type: LRN
  lrn_param {
    local_size: 5
    alpha: 0.0001
    beta: 0.75
  }
}
layers {
  bottom: "norm1"
  top: "Rconv6"
  name: "Rconv6"
  type: CONVOLUTION
  blobs_lr: 0
  blobs_lr: 0
  weight_decay: 1
  weight_decay: 0
  convolution_param {
    num_output: 256
    pad: 1
    kernel_size: 3
  }
}
layers {
  bottom: "Rconv6"
  top: "Rconv6"
  name: "Rrelu6"
  type: RELU
}
layers {
  bottom: "Rconv6"
  top: "Rconv7"
  name: "Rconv7"
  type: CONVOLUTION
  blobs_lr: 0
  blobs_lr: 0
  weight_decay: 1
  weight_decay: 0
  convolution_param {
    num_output: 256
    pad: 1
    kernel_size: 3
    group: 2
  }
}
layers {
  bottom: "Rconv7"
  top: "Rconv7"
  name: "Rrelu7"
  type: RELU
}
layers {
  bottom: "Rconv7"
  top: "Rconv8"
  name: "Rconv8"
  type: CONVOLUTION
  blobs_lr: 0
  blobs_lr: 0
  weight_decay: 1
  weight_decay: 0
  convolution_param {
    num_output: 256
    pad: 1
    kernel_size: 3
    group: 2
  }
}
layers {
  bottom: "Rconv8"
  top: "Rconv8"
  name: "Rrelu8"
  type: RELU
}
layers {
  bottom: "Rconv8"
  top: "deconv2"
  name: "deconv2"
  type: DECONVOLUTION
  blobs_lr: 0
  blobs_lr: 0
  weight_decay: 1
  weight_decay: 0
  deconvolution_param {
    pad: 2
    kernel_size: 5
    stride: 2
    output_height: 54
    output_width: 54
    output_channels: 64
  }
}
layers {
  bottom: "deconv2"
  top: "deconv2"
  name: "relu_deconv2"
  type: RELU
  relu_param {
    negative_slope: 0.3
  }
}
layers {
  bottom: "deconv2"
  top: "deconv1"
  name: "deconv1"
  type: DECONVOLUTION
  blobs_lr: 0
  blobs_lr: 0
  weight_decay: 1
  weight_decay: 0
  deconvolution_param {
    pad: 2
    kernel_size: 5
    stride: 2
    output_height: 108
    output_width: 108
    output_channels: 32
  }
}
layers {
  bottom: "deconv1"
  top: "deconv1"
  name: "relu_deconv1"
  type: RELU
  relu_param {
    negative_slope: 0.3
  }
}
layers {
  bottom: "deconv1"
  top: "deconv0"
  name: "deconv0"
  type: DECONVOLUTION
  blobs_lr: 0
  blobs_lr: 0
  weight_decay: 1
  weight_decay: 0
  deconvolution_param {
    pad: 2
    kernel_size: 5
    stride: 2
    output_height: 216
    output_width: 216
    output_channels: 3
  }
}
layers {
  bottom: "deconv0"
  bottom: "target_ims"
  name: "loss"
  type: EUCLIDEAN_LOSS
}
I0813 08:24:19.233271 17933 net.cpp:65] Creating Layer source_ims
I0813 08:24:19.233276 17933 net.cpp:189] source_ims -> source_ims
I0813 08:24:19.233336 17933 data_layer.cpp:223] Opening lmdb /scr/r6/tgebru/inverting_conv/caffe_invert_alexnet/data/siggraph/tiny_summer_val_lmdb
I0813 08:24:19.233546 17933 data_layer.cpp:285] output data size: 2,3,227,227
I0813 08:24:19.233549 17933 data_layer.cpp:304] Loading mean file from/scr/r6/tgebru/timnit_caffe/data/ilsvrc12/imagenet_mean.binaryproto
I0813 08:24:19.235906 17933 net.cpp:84] Top shape: 2 3 227 227 (309174)
I0813 08:24:19.235913 17933 net.cpp:116] source_ims does not need backward computation.
I0813 08:24:19.235919 17933 net.cpp:65] Creating Layer target_ims
I0813 08:24:19.235924 17933 net.cpp:189] target_ims -> target_ims
I0813 08:24:19.235970 17933 data_layer.cpp:223] Opening lmdb /scr/r6/tgebru/inverting_conv/caffe_invert_alexnet/data/siggraph/tiny_summer_val_lmdb
I0813 08:24:19.236135 17933 data_layer.cpp:285] output data size: 2,3,216,216
I0813 08:24:19.236138 17933 data_layer.cpp:304] Loading mean file from/scr/r6/tgebru/timnit_caffe/data/ilsvrc12/imagenet_mean.binaryproto
I0813 08:24:19.238337 17933 net.cpp:84] Top shape: 2 3 216 216 (279936)
I0813 08:24:19.238343 17933 net.cpp:116] target_ims does not need backward computation.
I0813 08:24:19.238363 17933 net.cpp:65] Creating Layer conv1
I0813 08:24:19.238368 17933 net.cpp:228] conv1 <- source_ims
I0813 08:24:19.238373 17933 net.cpp:189] conv1 -> conv1
I0813 08:24:19.239616 17933 net.cpp:84] Top shape: 2 96 55 55 (580800)
I0813 08:24:19.239620 17933 net.cpp:116] conv1 does not need backward computation.
I0813 08:24:19.239624 17933 net.cpp:65] Creating Layer relu1
I0813 08:24:19.239627 17933 net.cpp:228] relu1 <- conv1
I0813 08:24:19.239631 17933 net.cpp:179] relu1 -> conv1 (in-place)
I0813 08:24:19.239636 17933 net.cpp:84] Top shape: 2 96 55 55 (580800)
I0813 08:24:19.239639 17933 net.cpp:116] relu1 does not need backward computation.
I0813 08:24:19.239644 17933 net.cpp:65] Creating Layer pool1
I0813 08:24:19.239646 17933 net.cpp:228] pool1 <- conv1
I0813 08:24:19.239650 17933 net.cpp:189] pool1 -> pool1
I0813 08:24:19.239656 17933 net.cpp:84] Top shape: 2 96 27 27 (139968)
I0813 08:24:19.239660 17933 net.cpp:116] pool1 does not need backward computation.
I0813 08:24:19.239663 17933 net.cpp:65] Creating Layer norm1
I0813 08:24:19.239665 17933 net.cpp:228] norm1 <- pool1
I0813 08:24:19.239670 17933 net.cpp:189] norm1 -> norm1
I0813 08:24:19.239675 17933 net.cpp:84] Top shape: 2 96 27 27 (139968)
I0813 08:24:19.239677 17933 net.cpp:116] norm1 does not need backward computation.
I0813 08:24:19.239681 17933 net.cpp:65] Creating Layer Rconv6
I0813 08:24:19.239683 17933 net.cpp:228] Rconv6 <- norm1
I0813 08:24:19.239687 17933 net.cpp:189] Rconv6 -> Rconv6
I0813 08:24:19.240249 17933 net.cpp:84] Top shape: 2 256 27 27 (373248)
I0813 08:24:19.240254 17933 net.cpp:116] Rconv6 does not need backward computation.
I0813 08:24:19.240257 17933 net.cpp:65] Creating Layer Rrelu6
I0813 08:24:19.240260 17933 net.cpp:228] Rrelu6 <- Rconv6
I0813 08:24:19.240264 17933 net.cpp:179] Rrelu6 -> Rconv6 (in-place)
I0813 08:24:19.240269 17933 net.cpp:84] Top shape: 2 256 27 27 (373248)
I0813 08:24:19.240272 17933 net.cpp:116] Rrelu6 does not need backward computation.
I0813 08:24:19.240277 17933 net.cpp:65] Creating Layer Rconv7
I0813 08:24:19.240278 17933 net.cpp:228] Rconv7 <- Rconv6
I0813 08:24:19.240283 17933 net.cpp:189] Rconv7 -> Rconv7
I0813 08:24:19.241019 17933 net.cpp:84] Top shape: 2 256 27 27 (373248)
I0813 08:24:19.241022 17933 net.cpp:116] Rconv7 does not need backward computation.
I0813 08:24:19.241026 17933 net.cpp:65] Creating Layer Rrelu7
I0813 08:24:19.241029 17933 net.cpp:228] Rrelu7 <- Rconv7
I0813 08:24:19.241032 17933 net.cpp:179] Rrelu7 -> Rconv7 (in-place)
I0813 08:24:19.241036 17933 net.cpp:84] Top shape: 2 256 27 27 (373248)
I0813 08:24:19.241039 17933 net.cpp:116] Rrelu7 does not need backward computation.
I0813 08:24:19.241042 17933 net.cpp:65] Creating Layer Rconv8
I0813 08:24:19.241045 17933 net.cpp:228] Rconv8 <- Rconv7
I0813 08:24:19.241049 17933 net.cpp:189] Rconv8 -> Rconv8
I0813 08:24:19.241837 17933 net.cpp:84] Top shape: 2 256 27 27 (373248)
I0813 08:24:19.241840 17933 net.cpp:116] Rconv8 does not need backward computation.
I0813 08:24:19.241844 17933 net.cpp:65] Creating Layer Rrelu8
I0813 08:24:19.241847 17933 net.cpp:228] Rrelu8 <- Rconv8
I0813 08:24:19.241850 17933 net.cpp:179] Rrelu8 -> Rconv8 (in-place)
I0813 08:24:19.241854 17933 net.cpp:84] Top shape: 2 256 27 27 (373248)
I0813 08:24:19.241857 17933 net.cpp:116] Rrelu8 does not need backward computation.
I0813 08:24:19.241860 17933 net.cpp:65] Creating Layer deconv2
I0813 08:24:19.241863 17933 net.cpp:228] deconv2 <- Rconv8
I0813 08:24:19.241866 17933 net.cpp:189] deconv2 -> deconv2
I0813 08:24:19.242883 17933 net.cpp:84] Top shape: 2 64 54 54 (373248)
I0813 08:24:19.242887 17933 net.cpp:116] deconv2 does not need backward computation.
I0813 08:24:19.242892 17933 net.cpp:65] Creating Layer relu_deconv2
I0813 08:24:19.242894 17933 net.cpp:228] relu_deconv2 <- deconv2
I0813 08:24:19.242898 17933 net.cpp:179] relu_deconv2 -> deconv2 (in-place)
I0813 08:24:19.242902 17933 net.cpp:84] Top shape: 2 64 54 54 (373248)
I0813 08:24:19.242905 17933 net.cpp:116] relu_deconv2 does not need backward computation.
I0813 08:24:19.242920 17933 net.cpp:65] Creating Layer deconv1
I0813 08:24:19.242923 17933 net.cpp:228] deconv1 <- deconv2
I0813 08:24:19.242928 17933 net.cpp:189] deconv1 -> deconv1
I0813 08:24:19.243062 17933 net.cpp:84] Top shape: 2 32 108 108 (746496)
I0813 08:24:19.243067 17933 net.cpp:116] deconv1 does not need backward computation.
I0813 08:24:19.243069 17933 net.cpp:65] Creating Layer relu_deconv1
I0813 08:24:19.243072 17933 net.cpp:228] relu_deconv1 <- deconv1
I0813 08:24:19.243077 17933 net.cpp:179] relu_deconv1 -> deconv1 (in-place)
I0813 08:24:19.243080 17933 net.cpp:84] Top shape: 2 32 108 108 (746496)
I0813 08:24:19.243083 17933 net.cpp:116] relu_deconv1 does not need backward computation.
I0813 08:24:19.243088 17933 net.cpp:65] Creating Layer deconv0
I0813 08:24:19.243090 17933 net.cpp:228] deconv0 <- deconv1
I0813 08:24:19.243094 17933 net.cpp:189] deconv0 -> deconv0
I0813 08:24:19.243111 17933 net.cpp:84] Top shape: 2 3 216 216 (279936)
I0813 08:24:19.243114 17933 net.cpp:116] deconv0 does not need backward computation.
I0813 08:24:19.243119 17933 net.cpp:65] Creating Layer loss
I0813 08:24:19.243121 17933 net.cpp:228] loss <- deconv0
I0813 08:24:19.243124 17933 net.cpp:228] loss <- target_ims
I0813 08:24:19.243129 17933 net.cpp:116] loss does not need backward computation.
I0813 08:24:19.243140 17933 net.cpp:238] Collecting Learning Rate and Weight Decay.
…
