…
    source: "/scr/r6/tgebru/inverting_conv/caffe_invert_alexnet/data/siggraph/tiny_winter_train_lmdb"
    mean_file: "/scr/r6/tgebru/timnit_caffe/data/ilsvrc12/imagenet_mean.binaryproto"
    batch_size: 12
    crop_size: 227
    mirror: false
    backend: LMDB
  }
}
layers {
  top: "target_ims"
  name: "target_ims"
  type: DATA
  data_param {
    source: "/scr/r6/tgebru/inverting_conv/caffe_invert_alexnet/data/siggraph/tiny_summer_train_lmdb"
    mean_file: "/scr/r6/tgebru/timnit_caffe/data/ilsvrc12/imagenet_mean.binaryproto"
    batch_size: 12
    crop_size: 216
    mirror: false
    backend: LMDB
  }
}
layers {
  bottom: "source_ims"
  top: "conv1"
  name: "conv1"
  type: CONVOLUTION
  blobs_lr: 0
  blobs_lr: 0
  weight_decay: 1
  weight_decay: 0
  convolution_param {
    num_output: 96
    kernel_size: 11
    stride: 4
    weight_filler {
      type: "gaussian"
      std: 0.01
    }
    bias_filler {
      type: "constant"
      value: 0
    }
  }
}
layers {
  bottom: "conv1"
  top: "conv1"
  name: "relu1"
  type: RELU
}
layers {
  bottom: "conv1"
  top: "pool1"
  name: "pool1"
  type: POOLING
  pooling_param {
    pool: MAX
    kernel_size: 3
    stride: 2
  }
}
layers {
  bottom: "pool1"
  top: "norm1"
  name: "norm1"
  type: LRN
  lrn_param {
    local_size: 5
    alpha: 0.0001
    beta: 0.75
  }
}
layers {
  bottom: "norm1"
  top: "Rconv6"
  name: "Rconv6"
  type: CONVOLUTION
  blobs_lr: 1
  blobs_lr: 2
  weight_decay: 1
  weight_decay: 0
  convolution_param {
    num_output: 256
    pad: 1
    kernel_size: 3
  }
}
layers {
  bottom: "Rconv6"
  top: "Rconv6"
  name: "Rrelu6"
  type: RELU
}
layers {
  bottom: "Rconv6"
  top: "Rconv7"
  name: "Rconv7"
  type: CONVOLUTION
  blobs_lr: 1
  blobs_lr: 2
  weight_decay: 1
  weight_decay: 0
  convolution_param {
    num_output: 256
    pad: 1
    kernel_size: 3
    group: 2
  }
}
layers {
  bottom: "Rconv7"
  top: "Rconv7"
  name: "Rrelu7"
  type: RELU
}
layers {
  bottom: "Rconv7"
  top: "Rconv8"
  name: "Rconv8"
  type: CONVOLUTION
  blobs_lr: 1
  blobs_lr: 2
  weight_decay: 1
  weight_decay: 0
  convolution_param {
    num_output: 256
    pad: 1
    kernel_size: 3
    group: 2
  }
}
layers {
  bottom: "Rconv8"
  top: "Rconv8"
  name: "Rrelu8"
  type: RELU
}
layers {
  bottom: "Rconv8"
  top: "deconv2"
  name: "deconv2"
  type: DECONVOLUTION
  blobs_lr: 1
  blobs_lr: 2
  weight_decay: 1
  weight_decay: 0
  deconvolution_param {
    pad: 2
    kernel_size: 5
    stride: 2
    output_height: 54
    output_width: 54
    output_channels: 64
  }
}
layers {
  bottom: "deconv2"
  top: "deconv2"
  name: "relu_deconv2"
  type: RELU
  relu_param {
    negative_slope: 0.3
  }
}
layers {
  bottom: "deconv2"
  top: "deconv1"
  name: "deconv1"
  type: DECONVOLUTION
  blobs_lr: 1
  blobs_lr: 2
  weight_decay: 1
  weight_decay: 0
  deconvolution_param {
    pad: 2
    kernel_size: 5
    stride: 2
    output_height: 108
    output_width: 108
    output_channels: 32
  }
}
layers {
  bottom: "deconv1"
  top: "deconv1"
  name: "relu_deconv1"
  type: RELU
  relu_param {
    negative_slope: 0.3
  }
}
layers {
  bottom: "deconv1"
  top: "deconv0"
  name: "deconv0"
  type: DECONVOLUTION
  blobs_lr: 1
  blobs_lr: 2
  weight_decay: 1
  weight_decay: 1
  deconvolution_param {
    pad: 2
    kernel_size: 5
    stride: 2
    output_height: 216
    output_width: 216
    output_channels: 3
  }
}
layers {
  bottom: "deconv0"
  bottom: "target_ims"
  name: "loss"
  type: EUCLIDEAN_LOSS
}
I0812 19:37:07.125180 12996 net.cpp:65] Creating Layer source_ims
I0812 19:37:07.125188 12996 net.cpp:189] source_ims -> source_ims
I0812 19:37:07.125291 12996 data_layer.cpp:223] Opening lmdb /scr/r6/tgebru/inverting_conv/caffe_invert_alexnet/data/siggraph/tiny_winter_train_lmdb
I0812 19:37:07.125519 12996 data_layer.cpp:285] output data size: 12,3,227,227
I0812 19:37:07.125527 12996 data_layer.cpp:304] Loading mean file from/scr/r6/tgebru/timnit_caffe/data/ilsvrc12/imagenet_mean.binaryproto
I0812 19:37:07.130710 12996 net.cpp:84] Top shape: 12 3 227 227 (1855044)
I0812 19:37:07.130718 12996 net.cpp:116] source_ims does not need backward computation.
I0812 19:37:07.130725 12996 net.cpp:65] Creating Layer target_ims
I0812 19:37:07.130729 12996 net.cpp:189] target_ims -> target_ims
I0812 19:37:07.130900 12996 data_layer.cpp:223] Opening lmdb /scr/r6/tgebru/inverting_conv/caffe_invert_alexnet/data/siggraph/tiny_summer_train_lmdb
I0812 19:37:07.131099 12996 data_layer.cpp:285] output data size: 12,3,216,216
I0812 19:37:07.131104 12996 data_layer.cpp:304] Loading mean file from/scr/r6/tgebru/timnit_caffe/data/ilsvrc12/imagenet_mean.binaryproto
I0812 19:37:07.135469 12996 net.cpp:84] Top shape: 12 3 216 216 (1679616)
I0812 19:37:07.135478 12996 net.cpp:116] target_ims does not need backward computation.
I0812 19:37:07.135489 12996 net.cpp:65] Creating Layer conv1
I0812 19:37:07.135493 12996 net.cpp:228] conv1 <- source_ims
I0812 19:37:07.135578 12996 net.cpp:189] conv1 -> conv1
I0812 19:37:07.136869 12996 net.cpp:84] Top shape: 12 96 55 55 (3484800)
I0812 19:37:07.136874 12996 net.cpp:116] conv1 does not need backward computation.
I0812 19:37:07.136880 12996 net.cpp:65] Creating Layer relu1
I0812 19:37:07.136883 12996 net.cpp:228] relu1 <- conv1
I0812 19:37:07.136888 12996 net.cpp:179] relu1 -> conv1 (in-place)
I0812 19:37:07.136898 12996 net.cpp:84] Top shape: 12 96 55 55 (3484800)
I0812 19:37:07.136900 12996 net.cpp:116] relu1 does not need backward computation.
I0812 19:37:07.136905 12996 net.cpp:65] Creating Layer pool1
I0812 19:37:07.136909 12996 net.cpp:228] pool1 <- conv1
I0812 19:37:07.136912 12996 net.cpp:189] pool1 -> pool1
I0812 19:37:07.136924 12996 net.cpp:84] Top shape: 12 96 27 27 (839808)
I0812 19:37:07.136927 12996 net.cpp:116] pool1 does not need backward computation.
I0812 19:37:07.136932 12996 net.cpp:65] Creating Layer norm1
I0812 19:37:07.136935 12996 net.cpp:228] norm1 <- pool1
I0812 19:37:07.136940 12996 net.cpp:189] norm1 -> norm1
I0812 19:37:07.136948 12996 net.cpp:84] Top shape: 12 96 27 27 (839808)
I0812 19:37:07.136951 12996 net.cpp:116] norm1 does not need backward computation.
I0812 19:37:07.136955 12996 net.cpp:65] Creating Layer Rconv6
I0812 19:37:07.136958 12996 net.cpp:228] Rconv6 <- norm1
I0812 19:37:07.136962 12996 net.cpp:189] Rconv6 -> Rconv6
I0812 19:37:07.137219 12996 net.cpp:84] Top shape: 12 256 27 27 (2239488)
I0812 19:37:07.137224 12996 net.cpp:111] Rconv6 needs backward computation.
I0812 19:37:07.137228 12996 net.cpp:65] Creating Layer Rrelu6
I0812 19:37:07.137230 12996 net.cpp:228] Rrelu6 <- Rconv6
I0812 19:37:07.137235 12996 net.cpp:179] Rrelu6 -> Rconv6 (in-place)
I0812 19:37:07.137239 12996 net.cpp:84] Top shape: 12 256 27 27 (2239488)
I0812 19:37:07.137243 12996 net.cpp:111] Rrelu6 needs backward computation.
I0812 19:37:07.137248 12996 net.cpp:65] Creating Layer Rconv7
I0812 19:37:07.137250 12996 net.cpp:228] Rconv7 <- Rconv6
I0812 19:37:07.137255 12996 net.cpp:189] Rconv7 -> Rconv7
I0812 19:37:07.138007 12996 net.cpp:84] Top shape: 12 256 27 27 (2239488)
I0812 19:37:07.138013 12996 net.cpp:111] Rconv7 needs backward computation.
I0812 19:37:07.138018 12996 net.cpp:65] Creating Layer Rrelu7
I0812 19:37:07.138041 12996 net.cpp:228] Rrelu7 <- Rconv7
I0812 19:37:07.138046 12996 net.cpp:179] Rrelu7 -> Rconv7 (in-place)
I0812 19:37:07.138051 12996 net.cpp:84] Top shape: 12 256 27 27 (2239488)
I0812 19:37:07.138054 12996 net.cpp:111] Rrelu7 needs backward computation.
I0812 19:37:07.138058 12996 net.cpp:65] Creating Layer Rconv8
I0812 19:37:07.138061 12996 net.cpp:228] Rconv8 <- Rconv7
I0812 19:37:07.138064 12996 net.cpp:189] Rconv8 -> Rconv8
I0812 19:37:07.138866 12996 net.cpp:84] Top shape: 12 256 27 27 (2239488)
I0812 19:37:07.138871 12996 net.cpp:111] Rconv8 needs backward computation.
I0812 19:37:07.138875 12996 net.cpp:65] Creating Layer Rrelu8
I0812 19:37:07.138878 12996 net.cpp:228] Rrelu8 <- Rconv8
I0812 19:37:07.138882 12996 net.cpp:179] Rrelu8 -> Rconv8 (in-place)
I0812 19:37:07.138886 12996 net.cpp:84] Top shape: 12 256 27 27 (2239488)
I0812 19:37:07.138888 12996 net.cpp:111] Rrelu8 needs backward computation.
I0812 19:37:07.138892 12996 net.cpp:65] Creating Layer deconv2
I0812 19:37:07.138895 12996 net.cpp:228] deconv2 <- Rconv8
I0812 19:37:07.138898 12996 net.cpp:189] deconv2 -> deconv2
I0812 19:37:07.139989 12996 net.cpp:84] Top shape: 12 64 54 54 (2239488)
I0812 19:37:07.139994 12996 net.cpp:111] deconv2 needs backward computation.
I0812 19:37:07.139998 12996 net.cpp:65] Creating Layer relu_deconv2
I0812 19:37:07.140002 12996 net.cpp:228] relu_deconv2 <- deconv2
I0812 19:37:07.140005 12996 net.cpp:179] relu_deconv2 -> deconv2 (in-place)
I0812 19:37:07.140009 12996 net.cpp:84] Top shape: 12 64 54 54 (2239488)
I0812 19:37:07.140012 12996 net.cpp:111] relu_deconv2 needs backward computation.
I0812 19:37:07.140017 12996 net.cpp:65] Creating Layer deconv1
I0812 19:37:07.140018 12996 net.cpp:228] deconv1 <- deconv2
I0812 19:37:07.140022 12996 net.cpp:189] deconv1 -> deconv1
I0812 19:37:07.140178 12996 net.cpp:84] Top shape: 12 32 108 108 (4478976)
I0812 19:37:07.140182 12996 net.cpp:111] deconv1 needs backward computation.
I0812 19:37:07.140187 12996 net.cpp:65] Creating Layer relu_deconv1
I0812 19:37:07.140190 12996 net.cpp:228] relu_deconv1 <- deconv1
I0812 19:37:07.140194 12996 net.cpp:179] relu_deconv1 -> deconv1 (in-place)
I0812 19:37:07.140198 12996 net.cpp:84] Top shape: 12 32 108 108 (4478976)
I0812 19:37:07.140202 12996 net.cpp:111] relu_deconv1 needs backward computation.
I0812 19:37:07.140207 12996 net.cpp:65] Creating Layer deconv0
I0812 19:37:07.140208 12996 net.cpp:228] deconv0 <- deconv1
I0812 19:37:07.140213 12996 net.cpp:189] deconv0 -> deconv0
I0812 19:37:07.140256 12996 net.cpp:84] Top shape: 12 3 216 216 (1679616)
I0812 19:37:07.140259 12996 net.cpp:111] deconv0 needs backward computation.
I0812 19:37:07.140264 12996 net.cpp:65] Creating Layer loss
I0812 19:37:07.140265 12996 net.cpp:228] loss <- deconv0
I0812 19:37:07.140269 12996 net.cpp:228] loss <- target_ims
I0812 19:37:07.140276 12996 net.cpp:111] loss needs backward computation.
I0812 19:37:07.140290 12996 net.cpp:238] Collecting Learning Rate and Weight Decay.
…
    source: "/scr/r6/tgebru/inverting_conv/caffe_invert_alexnet/data/siggraph/tiny_winter_val_lmdb"
    mean_file: "/scr/r6/tgebru/timnit_caffe/data/ilsvrc12/imagenet_mean.binaryproto"
    batch_size: 2
    crop_size: 227
    mirror: false
    backend: LMDB
  }
}
layers {
  top: "target_ims"
  name: "target_ims"
  type: DATA
  data_param {
    source: "/scr/r6/tgebru/inverting_conv/caffe_invert_alexnet/data/siggraph/tiny_summer_val_lmdb"
    mean_file: "/scr/r6/tgebru/timnit_caffe/data/ilsvrc12/imagenet_mean.binaryproto"
    batch_size: 2
    crop_size: 216
    mirror: false
    backend: LMDB
  }
}
layers {
  bottom: "source_ims"
  top: "conv1"
  name: "conv1"
  type: CONVOLUTION
  blobs_lr: 0
  blobs_lr: 0
  weight_decay: 1
  weight_decay: 0
  convolution_param {
    num_output: 96
    kernel_size: 11
    stride: 4
    weight_filler {
      type: "gaussian"
      std: 0.01
    }
    bias_filler {
      type: "constant"
      value: 0
    }
  }
}
layers {
  bottom: "conv1"
  top: "conv1"
  name: "relu1"
  type: RELU
}
layers {
  bottom: "conv1"
  top: "pool1"
  name: "pool1"
  type: POOLING
  pooling_param {
    pool: MAX
    kernel_size: 3
    stride: 2
  }
}
layers {
  bottom: "pool1"
  top: "norm1"
  name: "norm1"
  type: LRN
  lrn_param {
    local_size: 5
    alpha: 0.0001
    beta: 0.75
  }
}
layers {
  bottom: "norm1"
  top: "Rconv6"
  name: "Rconv6"
  type: CONVOLUTION
  blobs_lr: 0
  blobs_lr: 0
  weight_decay: 1
  weight_decay: 0
  convolution_param {
    num_output: 256
    pad: 1
    kernel_size: 3
  }
}
layers {
  bottom: "Rconv6"
  top: "Rconv6"
  name: "Rrelu6"
  type: RELU
}
layers {
  bottom: "Rconv6"
  top: "Rconv7"
  name: "Rconv7"
  type: CONVOLUTION
  blobs_lr: 0
  blobs_lr: 0
  weight_decay: 1
  weight_decay: 0
  convolution_param {
    num_output: 256
    pad: 1
    kernel_size: 3
    group: 2
  }
}
layers {
  bottom: "Rconv7"
  top: "Rconv7"
  name: "Rrelu7"
  type: RELU
}
layers {
  bottom: "Rconv7"
  top: "Rconv8"
  name: "Rconv8"
  type: CONVOLUTION
  blobs_lr: 0
  blobs_lr: 0
  weight_decay: 1
  weight_decay: 0
  convolution_param {
    num_output: 256
    pad: 1
    kernel_size: 3
    group: 2
  }
}
layers {
  bottom: "Rconv8"
  top: "Rconv8"
  name: "Rrelu8"
  type: RELU
}
layers {
  bottom: "Rconv8"
  top: "deconv2"
  name: "deconv2"
  type: DECONVOLUTION
  blobs_lr: 0
  blobs_lr: 0
  weight_decay: 1
  weight_decay: 0
  deconvolution_param {
    pad: 2
    kernel_size: 5
    stride: 2
    output_height: 54
    output_width: 54
    output_channels: 64
  }
}
layers {
  bottom: "deconv2"
  top: "deconv2"
  name: "relu_deconv2"
  type: RELU
  relu_param {
    negative_slope: 0.3
  }
}
layers {
  bottom: "deconv2"
  top: "deconv1"
  name: "deconv1"
  type: DECONVOLUTION
  blobs_lr: 0
  blobs_lr: 0
  weight_decay: 1
  weight_decay: 0
  deconvolution_param {
    pad: 2
    kernel_size: 5
    stride: 2
    output_height: 108
    output_width: 108
    output_channels: 32
  }
}
layers {
  bottom: "deconv1"
  top: "deconv1"
  name: "relu_deconv1"
  type: RELU
  relu_param {
    negative_slope: 0.3
  }
}
layers {
  bottom: "deconv1"
  top: "deconv0"
  name: "deconv0"
  type: DECONVOLUTION
  blobs_lr: 0
  blobs_lr: 0
  weight_decay: 1
  weight_decay: 0
  deconvolution_param {
    pad: 2
    kernel_size: 5
    stride: 2
    output_height: 216
    output_width: 216
    output_channels: 3
  }
}
layers {
  bottom: "deconv0"
  bottom: "target_ims"
  name: "loss"
  type: EUCLIDEAN_LOSS
}
I0812 19:37:07.141021 12996 net.cpp:65] Creating Layer source_ims
I0812 19:37:07.141027 12996 net.cpp:189] source_ims -> source_ims
I0812 19:37:07.141166 12996 data_layer.cpp:223] Opening lmdb /scr/r6/tgebru/inverting_conv/caffe_invert_alexnet/data/siggraph/tiny_winter_val_lmdb
I0812 19:37:07.141358 12996 data_layer.cpp:285] output data size: 2,3,227,227
I0812 19:37:07.141363 12996 data_layer.cpp:304] Loading mean file from/scr/r6/tgebru/timnit_caffe/data/ilsvrc12/imagenet_mean.binaryproto
I0812 19:37:07.143816 12996 net.cpp:84] Top shape: 2 3 227 227 (309174)
I0812 19:37:07.143823 12996 net.cpp:116] source_ims does not need backward computation.
I0812 19:37:07.143829 12996 net.cpp:65] Creating Layer target_ims
I0812 19:37:07.143834 12996 net.cpp:189] target_ims -> target_ims
I0812 19:37:07.143882 12996 data_layer.cpp:223] Opening lmdb /scr/r6/tgebru/inverting_conv/caffe_invert_alexnet/data/siggraph/tiny_summer_val_lmdb
I0812 19:37:07.144099 12996 data_layer.cpp:285] output data size: 2,3,216,216
I0812 19:37:07.144104 12996 data_layer.cpp:304] Loading mean file from/scr/r6/tgebru/timnit_caffe/data/ilsvrc12/imagenet_mean.binaryproto
I0812 19:37:07.146376 12996 net.cpp:84] Top shape: 2 3 216 216 (279936)
I0812 19:37:07.146414 12996 net.cpp:116] target_ims does not need backward computation.
I0812 19:37:07.146422 12996 net.cpp:65] Creating Layer conv1
I0812 19:37:07.146425 12996 net.cpp:228] conv1 <- source_ims
I0812 19:37:07.146431 12996 net.cpp:189] conv1 -> conv1
I0812 19:37:07.147671 12996 net.cpp:84] Top shape: 2 96 55 55 (580800)
I0812 19:37:07.147675 12996 net.cpp:116] conv1 does not need backward computation.
I0812 19:37:07.147680 12996 net.cpp:65] Creating Layer relu1
I0812 19:37:07.147682 12996 net.cpp:228] relu1 <- conv1
I0812 19:37:07.147686 12996 net.cpp:179] relu1 -> conv1 (in-place)
I0812 19:37:07.147691 12996 net.cpp:84] Top shape: 2 96 55 55 (580800)
I0812 19:37:07.147694 12996 net.cpp:116] relu1 does not need backward computation.
I0812 19:37:07.147698 12996 net.cpp:65] Creating Layer pool1
I0812 19:37:07.147701 12996 net.cpp:228] pool1 <- conv1
I0812 19:37:07.147706 12996 net.cpp:189] pool1 -> pool1
I0812 19:37:07.147711 12996 net.cpp:84] Top shape: 2 96 27 27 (139968)
I0812 19:37:07.147714 12996 net.cpp:116] pool1 does not need backward computation.
I0812 19:37:07.147718 12996 net.cpp:65] Creating Layer norm1
I0812 19:37:07.147721 12996 net.cpp:228] norm1 <- pool1
I0812 19:37:07.147724 12996 net.cpp:189] norm1 -> norm1
I0812 19:37:07.147730 12996 net.cpp:84] Top shape: 2 96 27 27 (139968)
I0812 19:37:07.147733 12996 net.cpp:116] norm1 does not need backward computation.
I0812 19:37:07.147737 12996 net.cpp:65] Creating Layer Rconv6
I0812 19:37:07.147739 12996 net.cpp:228] Rconv6 <- norm1
I0812 19:37:07.147743 12996 net.cpp:189] Rconv6 -> Rconv6
I0812 19:37:07.148321 12996 net.cpp:84] Top shape: 2 256 27 27 (373248)
I0812 19:37:07.148326 12996 net.cpp:116] Rconv6 does not need backward computation.
I0812 19:37:07.148330 12996 net.cpp:65] Creating Layer Rrelu6
I0812 19:37:07.148334 12996 net.cpp:228] Rrelu6 <- Rconv6
I0812 19:37:07.148337 12996 net.cpp:179] Rrelu6 -> Rconv6 (in-place)
I0812 19:37:07.148342 12996 net.cpp:84] Top shape: 2 256 27 27 (373248)
I0812 19:37:07.148345 12996 net.cpp:116] Rrelu6 does not need backward computation.
I0812 19:37:07.148350 12996 net.cpp:65] Creating Layer Rconv7
I0812 19:37:07.148352 12996 net.cpp:228] Rconv7 <- Rconv6
I0812 19:37:07.148356 12996 net.cpp:189] Rconv7 -> Rconv7
I0812 19:37:07.149173 12996 net.cpp:84] Top shape: 2 256 27 27 (373248)
I0812 19:37:07.149178 12996 net.cpp:116] Rconv7 does not need backward computation.
I0812 19:37:07.149181 12996 net.cpp:65] Creating Layer Rrelu7
I0812 19:37:07.149183 12996 net.cpp:228] Rrelu7 <- Rconv7
I0812 19:37:07.149188 12996 net.cpp:179] Rrelu7 -> Rconv7 (in-place)
I0812 19:37:07.149191 12996 net.cpp:84] Top shape: 2 256 27 27 (373248)
I0812 19:37:07.149194 12996 net.cpp:116] Rrelu7 does not need backward computation.
I0812 19:37:07.149197 12996 net.cpp:65] Creating Layer Rconv8
I0812 19:37:07.149200 12996 net.cpp:228] Rconv8 <- Rconv7
I0812 19:37:07.149204 12996 net.cpp:189] Rconv8 -> Rconv8
I0812 19:37:07.150019 12996 net.cpp:84] Top shape: 2 256 27 27 (373248)
I0812 19:37:07.150024 12996 net.cpp:116] Rconv8 does not need backward computation.
I0812 19:37:07.150028 12996 net.cpp:65] Creating Layer Rrelu8
I0812 19:37:07.150032 12996 net.cpp:228] Rrelu8 <- Rconv8
I0812 19:37:07.150034 12996 net.cpp:179] Rrelu8 -> Rconv8 (in-place)
I0812 19:37:07.150038 12996 net.cpp:84] Top shape: 2 256 27 27 (373248)
I0812 19:37:07.150041 12996 net.cpp:116] Rrelu8 does not need backward computation.
I0812 19:37:07.150045 12996 net.cpp:65] Creating Layer deconv2
I0812 19:37:07.150048 12996 net.cpp:228] deconv2 <- Rconv8
I0812 19:37:07.150051 12996 net.cpp:189] deconv2 -> deconv2
I0812 19:37:07.151105 12996 net.cpp:84] Top shape: 2 64 54 54 (373248)
I0812 19:37:07.151109 12996 net.cpp:116] deconv2 does not need backward computation.
I0812 19:37:07.151113 12996 net.cpp:65] Creating Layer relu_deconv2
I0812 19:37:07.151116 12996 net.cpp:228] relu_deconv2 <- deconv2
I0812 19:37:07.151120 12996 net.cpp:179] relu_deconv2 -> deconv2 (in-place)
I0812 19:37:07.151124 12996 net.cpp:84] Top shape: 2 64 54 54 (373248)
I0812 19:37:07.151128 12996 net.cpp:116] relu_deconv2 does not need backward computation.
I0812 19:37:07.151144 12996 net.cpp:65] Creating Layer deconv1
I0812 19:37:07.151146 12996 net.cpp:228] deconv1 <- deconv2
I0812 19:37:07.151150 12996 net.cpp:189] deconv1 -> deconv1
I0812 19:37:07.151293 12996 net.cpp:84] Top shape: 2 32 108 108 (746496)
I0812 19:37:07.151298 12996 net.cpp:116] deconv1 does not need backward computation.
I0812 19:37:07.151301 12996 net.cpp:65] Creating Layer relu_deconv1
I0812 19:37:07.151304 12996 net.cpp:228] relu_deconv1 <- deconv1
I0812 19:37:07.151307 12996 net.cpp:179] relu_deconv1 -> deconv1 (in-place)
I0812 19:37:07.151311 12996 net.cpp:84] Top shape: 2 32 108 108 (746496)
I0812 19:37:07.151314 12996 net.cpp:116] relu_deconv1 does not need backward computation.
I0812 19:37:07.151319 12996 net.cpp:65] Creating Layer deconv0
I0812 19:37:07.151321 12996 net.cpp:228] deconv0 <- deconv1
I0812 19:37:07.151325 12996 net.cpp:189] deconv0 -> deconv0
I0812 19:37:07.151342 12996 net.cpp:84] Top shape: 2 3 216 216 (279936)
I0812 19:37:07.151346 12996 net.cpp:116] deconv0 does not need backward computation.
I0812 19:37:07.151350 12996 net.cpp:65] Creating Layer loss
I0812 19:37:07.151351 12996 net.cpp:228] loss <- deconv0
I0812 19:37:07.151355 12996 net.cpp:228] loss <- target_ims
I0812 19:37:07.151360 12996 net.cpp:116] loss does not need backward computation.
I0812 19:37:07.151371 12996 net.cpp:238] Collecting Learning Rate and Weight Decay.
…
