…
  data_param {
    source: "/scr/r6/tgebru/inverting_conv/caffe_invert_alexnet/data/siggraph/tiny_winter_train_227lmdb"
    mean_file: "/scr/r6/tgebru/timnit_caffe/data/ilsvrc12/imagenet_mean227.binaryproto"
    batch_size: 12
    mirror: false
    backend: LMDB
  }
}
layers {
  top: "target_ims"
  name: "target_ims"
  type: DATA
  data_param {
    source: "/scr/r6/tgebru/inverting_conv/caffe_invert_alexnet/data/siggraph/tiny_summer_train_216lmdb"
    mean_file: "/scr/r6/tgebru/timnit_caffe/data/ilsvrc12/imagenet_mean216.binaryproto"
    batch_size: 12
    mirror: false
    backend: LMDB
  }
}
layers {
  bottom: "source_ims"
  top: "conv1"
  name: "conv1"
  type: CONVOLUTION
  blobs_lr: 0
  blobs_lr: 0
  weight_decay: 1
  weight_decay: 0
  convolution_param {
    num_output: 96
    kernel_size: 11
    stride: 4
    weight_filler {
      type: "gaussian"
      std: 0.01
    }
    bias_filler {
      type: "constant"
      value: 0
    }
  }
}
layers {
  bottom: "conv1"
  top: "conv1"
  name: "relu1"
  type: RELU
}
layers {
  bottom: "conv1"
  top: "pool1"
  name: "pool1"
  type: POOLING
  pooling_param {
    pool: MAX
    kernel_size: 3
    stride: 2
  }
}
layers {
  bottom: "pool1"
  top: "norm1"
  name: "norm1"
  type: LRN
  lrn_param {
    local_size: 5
    alpha: 0.0001
    beta: 0.75
  }
}
layers {
  bottom: "norm1"
  top: "Rconv6"
  name: "Rconv6"
  type: CONVOLUTION
  blobs_lr: 1
  blobs_lr: 2
  weight_decay: 1
  weight_decay: 0
  convolution_param {
    num_output: 256
    pad: 1
    kernel_size: 3
  }
}
layers {
  bottom: "Rconv6"
  top: "Rconv6"
  name: "Rrelu6"
  type: RELU
}
layers {
  bottom: "Rconv6"
  top: "Rconv7"
  name: "Rconv7"
  type: CONVOLUTION
  blobs_lr: 1
  blobs_lr: 2
  weight_decay: 1
  weight_decay: 0
  convolution_param {
    num_output: 256
    pad: 1
    kernel_size: 3
    group: 2
  }
}
layers {
  bottom: "Rconv7"
  top: "Rconv7"
  name: "Rrelu7"
  type: RELU
}
layers {
  bottom: "Rconv7"
  top: "Rconv8"
  name: "Rconv8"
  type: CONVOLUTION
  blobs_lr: 1
  blobs_lr: 2
  weight_decay: 1
  weight_decay: 0
  convolution_param {
    num_output: 256
    pad: 1
    kernel_size: 3
    group: 2
  }
}
layers {
  bottom: "Rconv8"
  top: "Rconv8"
  name: "Rrelu8"
  type: RELU
}
layers {
  bottom: "Rconv8"
  top: "deconv2"
  name: "deconv2"
  type: DECONVOLUTION
  blobs_lr: 1
  blobs_lr: 2
  weight_decay: 1
  weight_decay: 0
  deconvolution_param {
    pad: 2
    kernel_size: 5
    stride: 2
    output_height: 54
    output_width: 54
    output_channels: 64
  }
}
layers {
  bottom: "deconv2"
  top: "deconv2"
  name: "relu_deconv2"
  type: RELU
  relu_param {
    negative_slope: 0.3
  }
}
layers {
  bottom: "deconv2"
  top: "deconv1"
  name: "deconv1"
  type: DECONVOLUTION
  blobs_lr: 1
  blobs_lr: 2
  weight_decay: 1
  weight_decay: 0
  deconvolution_param {
    pad: 2
    kernel_size: 5
    stride: 2
    output_height: 108
    output_width: 108
    output_channels: 32
  }
}
layers {
  bottom: "deconv1"
  top: "deconv1"
  name: "relu_deconv1"
  type: RELU
  relu_param {
    negative_slope: 0.3
  }
}
layers {
  bottom: "deconv1"
  top: "deconv0"
  name: "deconv0"
  type: DECONVOLUTION
  blobs_lr: 1
  blobs_lr: 2
  weight_decay: 1
  weight_decay: 1
  deconvolution_param {
    pad: 2
    kernel_size: 5
    stride: 2
    output_height: 216
    output_width: 216
    output_channels: 3
  }
}
layers {
  bottom: "deconv0"
  bottom: "target_ims"
  name: "loss"
  type: EUCLIDEAN_LOSS
}
I0824 19:50:33.890610  2351 net.cpp:65] Creating Layer source_ims
I0824 19:50:33.890619  2351 net.cpp:189] source_ims -> source_ims
I0824 19:50:33.890722  2351 data_layer.cpp:223] Opening lmdb /scr/r6/tgebru/inverting_conv/caffe_invert_alexnet/data/siggraph/tiny_winter_train_227lmdb
I0824 19:50:33.890895  2351 data_layer.cpp:285] output data size: 12,3,227,227
I0824 19:50:33.890902  2351 data_layer.cpp:304] Loading mean file from/scr/r6/tgebru/timnit_caffe/data/ilsvrc12/imagenet_mean227.binaryproto
I0824 19:50:33.895673  2351 net.cpp:84] Top shape: 12 3 227 227 (1855044)
I0824 19:50:33.895681  2351 net.cpp:116] source_ims does not need backward computation.
I0824 19:50:33.895689  2351 net.cpp:65] Creating Layer target_ims
I0824 19:50:33.895691  2351 net.cpp:189] target_ims -> target_ims
I0824 19:50:33.895843  2351 data_layer.cpp:223] Opening lmdb /scr/r6/tgebru/inverting_conv/caffe_invert_alexnet/data/siggraph/tiny_summer_train_216lmdb
I0824 19:50:33.896019  2351 data_layer.cpp:285] output data size: 12,3,216,216
I0824 19:50:33.896024  2351 data_layer.cpp:304] Loading mean file from/scr/r6/tgebru/timnit_caffe/data/ilsvrc12/imagenet_mean216.binaryproto
I0824 19:50:33.900177  2351 net.cpp:84] Top shape: 12 3 216 216 (1679616)
I0824 19:50:33.900184  2351 net.cpp:116] target_ims does not need backward computation.
I0824 19:50:33.900197  2351 net.cpp:65] Creating Layer conv1
I0824 19:50:33.900202  2351 net.cpp:228] conv1 <- source_ims
I0824 19:50:33.900264  2351 net.cpp:189] conv1 -> conv1
I0824 19:50:33.901583  2351 net.cpp:84] Top shape: 12 96 55 55 (3484800)
I0824 19:50:33.901590  2351 net.cpp:116] conv1 does not need backward computation.
I0824 19:50:33.901595  2351 net.cpp:65] Creating Layer relu1
I0824 19:50:33.901598  2351 net.cpp:228] relu1 <- conv1
I0824 19:50:33.901603  2351 net.cpp:179] relu1 -> conv1 (in-place)
I0824 19:50:33.901613  2351 net.cpp:84] Top shape: 12 96 55 55 (3484800)
I0824 19:50:33.901617  2351 net.cpp:116] relu1 does not need backward computation.
I0824 19:50:33.901623  2351 net.cpp:65] Creating Layer pool1
I0824 19:50:33.901624  2351 net.cpp:228] pool1 <- conv1
I0824 19:50:33.901628  2351 net.cpp:189] pool1 -> pool1
I0824 19:50:33.901644  2351 net.cpp:84] Top shape: 12 96 27 27 (839808)
I0824 19:50:33.901648  2351 net.cpp:116] pool1 does not need backward computation.
I0824 19:50:33.901654  2351 net.cpp:65] Creating Layer norm1
I0824 19:50:33.901655  2351 net.cpp:228] norm1 <- pool1
I0824 19:50:33.901659  2351 net.cpp:189] norm1 -> norm1
I0824 19:50:33.901669  2351 net.cpp:84] Top shape: 12 96 27 27 (839808)
I0824 19:50:33.901672  2351 net.cpp:116] norm1 does not need backward computation.
I0824 19:50:33.901677  2351 net.cpp:65] Creating Layer Rconv6
I0824 19:50:33.901680  2351 net.cpp:228] Rconv6 <- norm1
I0824 19:50:33.901684  2351 net.cpp:189] Rconv6 -> Rconv6
I0824 19:50:33.901857  2351 net.cpp:84] Top shape: 12 256 27 27 (2239488)
I0824 19:50:33.901861  2351 net.cpp:111] Rconv6 needs backward computation.
I0824 19:50:33.901865  2351 net.cpp:65] Creating Layer Rrelu6
I0824 19:50:33.901867  2351 net.cpp:228] Rrelu6 <- Rconv6
I0824 19:50:33.901872  2351 net.cpp:179] Rrelu6 -> Rconv6 (in-place)
I0824 19:50:33.901876  2351 net.cpp:84] Top shape: 12 256 27 27 (2239488)
I0824 19:50:33.901880  2351 net.cpp:111] Rrelu6 needs backward computation.
I0824 19:50:33.901885  2351 net.cpp:65] Creating Layer Rconv7
I0824 19:50:33.901887  2351 net.cpp:228] Rconv7 <- Rconv6
I0824 19:50:33.901891  2351 net.cpp:189] Rconv7 -> Rconv7
I0824 19:50:33.902609  2351 net.cpp:84] Top shape: 12 256 27 27 (2239488)
I0824 19:50:33.902613  2351 net.cpp:111] Rconv7 needs backward computation.
I0824 19:50:33.902618  2351 net.cpp:65] Creating Layer Rrelu7
I0824 19:50:33.902645  2351 net.cpp:228] Rrelu7 <- Rconv7
I0824 19:50:33.902652  2351 net.cpp:179] Rrelu7 -> Rconv7 (in-place)
I0824 19:50:33.902657  2351 net.cpp:84] Top shape: 12 256 27 27 (2239488)
I0824 19:50:33.902659  2351 net.cpp:111] Rrelu7 needs backward computation.
I0824 19:50:33.902663  2351 net.cpp:65] Creating Layer Rconv8
I0824 19:50:33.902665  2351 net.cpp:228] Rconv8 <- Rconv7
I0824 19:50:33.902669  2351 net.cpp:189] Rconv8 -> Rconv8
I0824 19:50:33.903441  2351 net.cpp:84] Top shape: 12 256 27 27 (2239488)
I0824 19:50:33.903446  2351 net.cpp:111] Rconv8 needs backward computation.
I0824 19:50:33.903452  2351 net.cpp:65] Creating Layer Rrelu8
I0824 19:50:33.903455  2351 net.cpp:228] Rrelu8 <- Rconv8
I0824 19:50:33.903458  2351 net.cpp:179] Rrelu8 -> Rconv8 (in-place)
I0824 19:50:33.903462  2351 net.cpp:84] Top shape: 12 256 27 27 (2239488)
I0824 19:50:33.903465  2351 net.cpp:111] Rrelu8 needs backward computation.
I0824 19:50:33.903470  2351 net.cpp:65] Creating Layer deconv2
I0824 19:50:33.903472  2351 net.cpp:228] deconv2 <- Rconv8
I0824 19:50:33.903478  2351 net.cpp:189] deconv2 -> deconv2
I0824 19:50:33.904537  2351 net.cpp:84] Top shape: 12 64 54 54 (2239488)
I0824 19:50:33.904542  2351 net.cpp:111] deconv2 needs backward computation.
I0824 19:50:33.904547  2351 net.cpp:65] Creating Layer relu_deconv2
I0824 19:50:33.904549  2351 net.cpp:228] relu_deconv2 <- deconv2
I0824 19:50:33.904553  2351 net.cpp:179] relu_deconv2 -> deconv2 (in-place)
I0824 19:50:33.904558  2351 net.cpp:84] Top shape: 12 64 54 54 (2239488)
I0824 19:50:33.904561  2351 net.cpp:111] relu_deconv2 needs backward computation.
I0824 19:50:33.904566  2351 net.cpp:65] Creating Layer deconv1
I0824 19:50:33.904567  2351 net.cpp:228] deconv1 <- deconv2
I0824 19:50:33.904574  2351 net.cpp:189] deconv1 -> deconv1
I0824 19:50:33.904732  2351 net.cpp:84] Top shape: 12 32 108 108 (4478976)
I0824 19:50:33.904737  2351 net.cpp:111] deconv1 needs backward computation.
I0824 19:50:33.904742  2351 net.cpp:65] Creating Layer relu_deconv1
I0824 19:50:33.904743  2351 net.cpp:228] relu_deconv1 <- deconv1
I0824 19:50:33.904749  2351 net.cpp:179] relu_deconv1 -> deconv1 (in-place)
I0824 19:50:33.904753  2351 net.cpp:84] Top shape: 12 32 108 108 (4478976)
I0824 19:50:33.904755  2351 net.cpp:111] relu_deconv1 needs backward computation.
I0824 19:50:33.904762  2351 net.cpp:65] Creating Layer deconv0
I0824 19:50:33.904763  2351 net.cpp:228] deconv0 <- deconv1
I0824 19:50:33.904767  2351 net.cpp:189] deconv0 -> deconv0
I0824 19:50:33.904814  2351 net.cpp:84] Top shape: 12 3 216 216 (1679616)
I0824 19:50:33.904816  2351 net.cpp:111] deconv0 needs backward computation.
I0824 19:50:33.904820  2351 net.cpp:65] Creating Layer loss
I0824 19:50:33.904822  2351 net.cpp:228] loss <- deconv0
I0824 19:50:33.904825  2351 net.cpp:228] loss <- target_ims
I0824 19:50:33.904835  2351 net.cpp:111] loss needs backward computation.
I0824 19:50:33.904851  2351 net.cpp:238] Collecting Learning Rate and Weight Decay.
…
  data_param {
    source: "/scr/r6/tgebru/inverting_conv/caffe_invert_alexnet/data/siggraph/tiny_winter_val_227lmdb"
    mean_file: "/scr/r6/tgebru/timnit_caffe/data/ilsvrc12/imagenet_mean227.binaryproto"
    batch_size: 64
    mirror: false
    backend: LMDB
  }
}
layers {
  top: "target_ims"
  name: "target_ims"
  type: DATA
  data_param {
    source: "/scr/r6/tgebru/inverting_conv/caffe_invert_alexnet/data/siggraph/tiny_summer_val_216lmdb"
    mean_file: "/scr/r6/tgebru/timnit_caffe/data/ilsvrc12/imagenet_mean216.binaryproto"
    batch_size: 64
    mirror: false
    backend: LMDB
  }
}
layers {
  bottom: "source_ims"
  top: "conv1"
  name: "conv1"
  type: CONVOLUTION
  blobs_lr: 0
  blobs_lr: 0
  weight_decay: 1
  weight_decay: 0
  convolution_param {
    num_output: 96
    kernel_size: 11
    stride: 4
    weight_filler {
      type: "gaussian"
      std: 0.01
    }
    bias_filler {
      type: "constant"
      value: 0
    }
  }
}
layers {
  bottom: "conv1"
  top: "conv1"
  name: "relu1"
  type: RELU
}
layers {
  bottom: "conv1"
  top: "pool1"
  name: "pool1"
  type: POOLING
  pooling_param {
    pool: MAX
    kernel_size: 3
    stride: 2
  }
}
layers {
  bottom: "pool1"
  top: "norm1"
  name: "norm1"
  type: LRN
  lrn_param {
    local_size: 5
    alpha: 0.0001
    beta: 0.75
  }
}
layers {
  bottom: "norm1"
  top: "Rconv6"
  name: "Rconv6"
  type: CONVOLUTION
  blobs_lr: 0
  blobs_lr: 0
  weight_decay: 1
  weight_decay: 0
  convolution_param {
    num_output: 256
    pad: 1
    kernel_size: 3
  }
}
layers {
  bottom: "Rconv6"
  top: "Rconv6"
  name: "Rrelu6"
  type: RELU
}
layers {
  bottom: "Rconv6"
  top: "Rconv7"
  name: "Rconv7"
  type: CONVOLUTION
  blobs_lr: 0
  blobs_lr: 0
  weight_decay: 1
  weight_decay: 0
  convolution_param {
    num_output: 256
    pad: 1
    kernel_size: 3
    group: 2
  }
}
layers {
  bottom: "Rconv7"
  top: "Rconv7"
  name: "Rrelu7"
  type: RELU
}
layers {
  bottom: "Rconv7"
  top: "Rconv8"
  name: "Rconv8"
  type: CONVOLUTION
  blobs_lr: 0
  blobs_lr: 0
  weight_decay: 1
  weight_decay: 0
  convolution_param {
    num_output: 256
    pad: 1
    kernel_size: 3
    group: 2
  }
}
layers {
  bottom: "Rconv8"
  top: "Rconv8"
  name: "Rrelu8"
  type: RELU
}
layers {
  bottom: "Rconv8"
  top: "deconv2"
  name: "deconv2"
  type: DECONVOLUTION
  blobs_lr: 0
  blobs_lr: 0
  weight_decay: 1
  weight_decay: 0
  deconvolution_param {
    pad: 2
    kernel_size: 5
    stride: 2
    output_height: 54
    output_width: 54
    output_channels: 64
  }
}
layers {
  bottom: "deconv2"
  top: "deconv2"
  name: "relu_deconv2"
  type: RELU
  relu_param {
    negative_slope: 0.3
  }
}
layers {
  bottom: "deconv2"
  top: "deconv1"
  name: "deconv1"
  type: DECONVOLUTION
  blobs_lr: 0
  blobs_lr: 0
  weight_decay: 1
  weight_decay: 0
  deconvolution_param {
    pad: 2
    kernel_size: 5
    stride: 2
    output_height: 108
    output_width: 108
    output_channels: 32
  }
}
layers {
  bottom: "deconv1"
  top: "deconv1"
  name: "relu_deconv1"
  type: RELU
  relu_param {
    negative_slope: 0.3
  }
}
layers {
  bottom: "deconv1"
  top: "deconv0"
  name: "deconv0"
  type: DECONVOLUTION
  blobs_lr: 0
  blobs_lr: 0
  weight_decay: 1
  weight_decay: 0
  deconvolution_param {
    pad: 2
    kernel_size: 5
    stride: 2
    output_height: 216
    output_width: 216
    output_channels: 3
  }
}
layers {
  bottom: "deconv0"
  bottom: "target_ims"
  name: "loss"
  type: EUCLIDEAN_LOSS
}
I0824 19:50:33.905621  2351 net.cpp:65] Creating Layer source_ims
I0824 19:50:33.905627  2351 net.cpp:189] source_ims -> source_ims
I0824 19:50:33.905849  2351 data_layer.cpp:223] Opening lmdb /scr/r6/tgebru/inverting_conv/caffe_invert_alexnet/data/siggraph/tiny_winter_val_227lmdb
I0824 19:50:33.906023  2351 data_layer.cpp:285] output data size: 64,3,227,227
I0824 19:50:33.906029  2351 data_layer.cpp:304] Loading mean file from/scr/r6/tgebru/timnit_caffe/data/ilsvrc12/imagenet_mean227.binaryproto
I0824 19:50:33.920487  2351 net.cpp:84] Top shape: 64 3 227 227 (9893568)
I0824 19:50:33.920513  2351 net.cpp:116] source_ims does not need backward computation.
I0824 19:50:33.920526  2351 net.cpp:65] Creating Layer target_ims
I0824 19:50:33.920532  2351 net.cpp:189] target_ims -> target_ims
I0824 19:50:33.920644  2351 data_layer.cpp:223] Opening lmdb /scr/r6/tgebru/inverting_conv/caffe_invert_alexnet/data/siggraph/tiny_summer_val_216lmdb
I0824 19:50:33.920758  2351 data_layer.cpp:285] output data size: 64,3,216,216
I0824 19:50:33.920763  2351 data_layer.cpp:304] Loading mean file from/scr/r6/tgebru/timnit_caffe/data/ilsvrc12/imagenet_mean216.binaryproto
I0824 19:50:33.933287  2351 net.cpp:84] Top shape: 64 3 216 216 (8957952)
I0824 19:50:33.933362  2351 net.cpp:116] target_ims does not need backward computation.
I0824 19:50:33.933378  2351 net.cpp:65] Creating Layer conv1
I0824 19:50:33.933382  2351 net.cpp:228] conv1 <- source_ims
I0824 19:50:33.933392  2351 net.cpp:189] conv1 -> conv1
I0824 19:50:33.934661  2351 net.cpp:84] Top shape: 64 96 55 55 (18585600)
I0824 19:50:33.934665  2351 net.cpp:116] conv1 does not need backward computation.
I0824 19:50:33.934671  2351 net.cpp:65] Creating Layer relu1
I0824 19:50:33.934674  2351 net.cpp:228] relu1 <- conv1
I0824 19:50:33.934679  2351 net.cpp:179] relu1 -> conv1 (in-place)
I0824 19:50:33.934684  2351 net.cpp:84] Top shape: 64 96 55 55 (18585600)
I0824 19:50:33.934687  2351 net.cpp:116] relu1 does not need backward computation.
I0824 19:50:33.934694  2351 net.cpp:65] Creating Layer pool1
I0824 19:50:33.934695  2351 net.cpp:228] pool1 <- conv1
I0824 19:50:33.934700  2351 net.cpp:189] pool1 -> pool1
I0824 19:50:33.934707  2351 net.cpp:84] Top shape: 64 96 27 27 (4478976)
I0824 19:50:33.934710  2351 net.cpp:116] pool1 does not need backward computation.
I0824 19:50:33.934715  2351 net.cpp:65] Creating Layer norm1
I0824 19:50:33.934718  2351 net.cpp:228] norm1 <- pool1
I0824 19:50:33.934722  2351 net.cpp:189] norm1 -> norm1
I0824 19:50:33.934730  2351 net.cpp:84] Top shape: 64 96 27 27 (4478976)
I0824 19:50:33.934731  2351 net.cpp:116] norm1 does not need backward computation.
I0824 19:50:33.934737  2351 net.cpp:65] Creating Layer Rconv6
I0824 19:50:33.934739  2351 net.cpp:228] Rconv6 <- norm1
I0824 19:50:33.934743  2351 net.cpp:189] Rconv6 -> Rconv6
I0824 19:50:33.934978  2351 net.cpp:84] Top shape: 64 256 27 27 (11943936)
I0824 19:50:33.934981  2351 net.cpp:116] Rconv6 does not need backward computation.
I0824 19:50:33.934985  2351 net.cpp:65] Creating Layer Rrelu6
I0824 19:50:33.934988  2351 net.cpp:228] Rrelu6 <- Rconv6
I0824 19:50:33.934993  2351 net.cpp:179] Rrelu6 -> Rconv6 (in-place)
I0824 19:50:33.934998  2351 net.cpp:84] Top shape: 64 256 27 27 (11943936)
I0824 19:50:33.934999  2351 net.cpp:116] Rrelu6 does not need backward computation.
I0824 19:50:33.935005  2351 net.cpp:65] Creating Layer Rconv7
I0824 19:50:33.935009  2351 net.cpp:228] Rconv7 <- Rconv6
I0824 19:50:33.935012  2351 net.cpp:189] Rconv7 -> Rconv7
I0824 19:50:33.935719  2351 net.cpp:84] Top shape: 64 256 27 27 (11943936)
I0824 19:50:33.935724  2351 net.cpp:116] Rconv7 does not need backward computation.
I0824 19:50:33.935730  2351 net.cpp:65] Creating Layer Rrelu7
I0824 19:50:33.935734  2351 net.cpp:228] Rrelu7 <- Rconv7
I0824 19:50:33.935736  2351 net.cpp:179] Rrelu7 -> Rconv7 (in-place)
I0824 19:50:33.935741  2351 net.cpp:84] Top shape: 64 256 27 27 (11943936)
I0824 19:50:33.935745  2351 net.cpp:116] Rrelu7 does not need backward computation.
I0824 19:50:33.935749  2351 net.cpp:65] Creating Layer Rconv8
I0824 19:50:33.935750  2351 net.cpp:228] Rconv8 <- Rconv7
I0824 19:50:33.935755  2351 net.cpp:189] Rconv8 -> Rconv8
I0824 19:50:33.936564  2351 net.cpp:84] Top shape: 64 256 27 27 (11943936)
I0824 19:50:33.936568  2351 net.cpp:116] Rconv8 does not need backward computation.
I0824 19:50:33.936573  2351 net.cpp:65] Creating Layer Rrelu8
I0824 19:50:33.936576  2351 net.cpp:228] Rrelu8 <- Rconv8
I0824 19:50:33.936579  2351 net.cpp:179] Rrelu8 -> Rconv8 (in-place)
I0824 19:50:33.936585  2351 net.cpp:84] Top shape: 64 256 27 27 (11943936)
I0824 19:50:33.936589  2351 net.cpp:116] Rrelu8 does not need backward computation.
I0824 19:50:33.936594  2351 net.cpp:65] Creating Layer deconv2
I0824 19:50:33.936595  2351 net.cpp:228] deconv2 <- Rconv8
I0824 19:50:33.936599  2351 net.cpp:189] deconv2 -> deconv2
I0824 19:50:33.937728  2351 net.cpp:84] Top shape: 64 64 54 54 (11943936)
I0824 19:50:33.937732  2351 net.cpp:116] deconv2 does not need backward computation.
I0824 19:50:33.937738  2351 net.cpp:65] Creating Layer relu_deconv2
I0824 19:50:33.937741  2351 net.cpp:228] relu_deconv2 <- deconv2
I0824 19:50:33.937750  2351 net.cpp:179] relu_deconv2 -> deconv2 (in-place)
I0824 19:50:33.937754  2351 net.cpp:84] Top shape: 64 64 54 54 (11943936)
I0824 19:50:33.937769  2351 net.cpp:116] relu_deconv2 does not need backward computation.
I0824 19:50:33.937775  2351 net.cpp:65] Creating Layer deconv1
I0824 19:50:33.937778  2351 net.cpp:228] deconv1 <- deconv2
I0824 19:50:33.937782  2351 net.cpp:189] deconv1 -> deconv1
I0824 19:50:33.937922  2351 net.cpp:84] Top shape: 64 32 108 108 (23887872)
I0824 19:50:33.937927  2351 net.cpp:116] deconv1 does not need backward computation.
I0824 19:50:33.937932  2351 net.cpp:65] Creating Layer relu_deconv1
I0824 19:50:33.937935  2351 net.cpp:228] relu_deconv1 <- deconv1
I0824 19:50:33.937939  2351 net.cpp:179] relu_deconv1 -> deconv1 (in-place)
I0824 19:50:33.937943  2351 net.cpp:84] Top shape: 64 32 108 108 (23887872)
I0824 19:50:33.937947  2351 net.cpp:116] relu_deconv1 does not need backward computation.
I0824 19:50:33.937952  2351 net.cpp:65] Creating Layer deconv0
I0824 19:50:33.937954  2351 net.cpp:228] deconv0 <- deconv1
I0824 19:50:33.937960  2351 net.cpp:189] deconv0 -> deconv0
I0824 19:50:33.938004  2351 net.cpp:84] Top shape: 64 3 216 216 (8957952)
I0824 19:50:33.938007  2351 net.cpp:116] deconv0 does not need backward computation.
I0824 19:50:33.938012  2351 net.cpp:65] Creating Layer loss
I0824 19:50:33.938015  2351 net.cpp:228] loss <- deconv0
I0824 19:50:33.938019  2351 net.cpp:228] loss <- target_ims
I0824 19:50:33.938024  2351 net.cpp:116] loss does not need backward computation.
I0824 19:50:33.938036  2351 net.cpp:238] Collecting Learning Rate and Weight Decay.
…
