…
    source: "/scr/r6/tgebru/inverting_conv/caffe_invert_alexnet/data/siggraph/tiny_summer_train_lmdb"
    mean_file: "/scr/r6/tgebru/timnit_caffe/data/ilsvrc12/imagenet_mean.binaryproto"
    batch_size: 12
    crop_size: 227
    mirror: false
    backend: LMDB
  }
}
layers {
  top: "target_ims"
  name: "target_ims"
  type: DATA
  data_param {
    source: "/scr/r6/tgebru/inverting_conv/caffe_invert_alexnet/data/siggraph/tiny_summer_train_lmdb"
    mean_file: "/scr/r6/tgebru/timnit_caffe/data/ilsvrc12/imagenet_mean.binaryproto"
    batch_size: 12
    crop_size: 216
    mirror: false
    backend: LMDB
  }
}
layers {
  bottom: "source_ims"
  top: "conv1"
  name: "conv1"
  type: CONVOLUTION
  blobs_lr: 0
  blobs_lr: 0
  weight_decay: 1
  weight_decay: 0
  convolution_param {
    num_output: 96
    kernel_size: 11
    stride: 4
    weight_filler {
      type: "gaussian"
      std: 0.01
    }
    bias_filler {
      type: "constant"
      value: 0
    }
  }
}
layers {
  bottom: "conv1"
  top: "conv1"
  name: "relu1"
  type: RELU
}
layers {
  bottom: "conv1"
  top: "pool1"
  name: "pool1"
  type: POOLING
  pooling_param {
    pool: MAX
    kernel_size: 3
    stride: 2
  }
}
layers {
  bottom: "pool1"
  top: "norm1"
  name: "norm1"
  type: LRN
  lrn_param {
    local_size: 5
    alpha: 0.0001
    beta: 0.75
  }
}
layers {
  bottom: "norm1"
  top: "Rconv6"
  name: "Rconv6"
  type: CONVOLUTION
  blobs_lr: 1
  blobs_lr: 2
  weight_decay: 1
  weight_decay: 0
  convolution_param {
    num_output: 256
    pad: 1
    kernel_size: 3
  }
}
layers {
  bottom: "Rconv6"
  top: "Rconv6"
  name: "Rrelu6"
  type: RELU
}
layers {
  bottom: "Rconv6"
  top: "Rconv7"
  name: "Rconv7"
  type: CONVOLUTION
  blobs_lr: 1
  blobs_lr: 2
  weight_decay: 1
  weight_decay: 0
  convolution_param {
    num_output: 256
    pad: 1
    kernel_size: 3
    group: 2
  }
}
layers {
  bottom: "Rconv7"
  top: "Rconv7"
  name: "Rrelu7"
  type: RELU
}
layers {
  bottom: "Rconv7"
  top: "Rconv8"
  name: "Rconv8"
  type: CONVOLUTION
  blobs_lr: 1
  blobs_lr: 2
  weight_decay: 1
  weight_decay: 0
  convolution_param {
    num_output: 256
    pad: 1
    kernel_size: 3
    group: 2
  }
}
layers {
  bottom: "Rconv8"
  top: "Rconv8"
  name: "Rrelu8"
  type: RELU
}
layers {
  bottom: "Rconv8"
  top: "deconv2"
  name: "deconv2"
  type: DECONVOLUTION
  blobs_lr: 1
  blobs_lr: 2
  weight_decay: 1
  weight_decay: 0
  deconvolution_param {
    pad: 2
    kernel_size: 5
    stride: 2
    output_height: 54
    output_width: 54
    output_channels: 64
  }
}
layers {
  bottom: "deconv2"
  top: "deconv2"
  name: "relu_deconv2"
  type: RELU
  relu_param {
    negative_slope: 0.3
  }
}
layers {
  bottom: "deconv2"
  top: "deconv1"
  name: "deconv1"
  type: DECONVOLUTION
  blobs_lr: 1
  blobs_lr: 2
  weight_decay: 1
  weight_decay: 0
  deconvolution_param {
    pad: 2
    kernel_size: 5
    stride: 2
    output_height: 108
    output_width: 108
    output_channels: 32
  }
}
layers {
  bottom: "deconv1"
  top: "deconv1"
  name: "relu_deconv1"
  type: RELU
  relu_param {
    negative_slope: 0.3
  }
}
layers {
  bottom: "deconv1"
  top: "deconv0"
  name: "deconv0"
  type: DECONVOLUTION
  blobs_lr: 1
  blobs_lr: 2
  weight_decay: 1
  weight_decay: 1
  deconvolution_param {
    pad: 2
    kernel_size: 5
    stride: 2
    output_height: 216
    output_width: 216
    output_channels: 3
  }
}
layers {
  bottom: "deconv0"
  bottom: "target_ims"
  name: "loss"
  type: EUCLIDEAN_LOSS
}
I0813 09:08:40.124310 18354 net.cpp:65] Creating Layer source_ims
I0813 09:08:40.124320 18354 net.cpp:189] source_ims -> source_ims
I0813 09:08:40.124420 18354 data_layer.cpp:223] Opening lmdb /scr/r6/tgebru/inverting_conv/caffe_invert_alexnet/data/siggraph/tiny_summer_train_lmdb
I0813 09:08:40.124626 18354 data_layer.cpp:285] output data size: 12,3,227,227
I0813 09:08:40.124634 18354 data_layer.cpp:304] Loading mean file from/scr/r6/tgebru/timnit_caffe/data/ilsvrc12/imagenet_mean.binaryproto
I0813 09:08:40.129667 18354 net.cpp:84] Top shape: 12 3 227 227 (1855044)
I0813 09:08:40.129673 18354 net.cpp:116] source_ims does not need backward computation.
I0813 09:08:40.129679 18354 net.cpp:65] Creating Layer target_ims
I0813 09:08:40.129684 18354 net.cpp:189] target_ims -> target_ims
I0813 09:08:40.129851 18354 data_layer.cpp:223] Opening lmdb /scr/r6/tgebru/inverting_conv/caffe_invert_alexnet/data/siggraph/tiny_summer_train_lmdb
I0813 09:08:40.129992 18354 data_layer.cpp:285] output data size: 12,3,216,216
I0813 09:08:40.129997 18354 data_layer.cpp:304] Loading mean file from/scr/r6/tgebru/timnit_caffe/data/ilsvrc12/imagenet_mean.binaryproto
I0813 09:08:40.133930 18354 net.cpp:84] Top shape: 12 3 216 216 (1679616)
I0813 09:08:40.133939 18354 net.cpp:116] target_ims does not need backward computation.
I0813 09:08:40.133950 18354 net.cpp:65] Creating Layer conv1
I0813 09:08:40.133955 18354 net.cpp:228] conv1 <- source_ims
I0813 09:08:40.134032 18354 net.cpp:189] conv1 -> conv1
I0813 09:08:40.135352 18354 net.cpp:84] Top shape: 12 96 55 55 (3484800)
I0813 09:08:40.135359 18354 net.cpp:116] conv1 does not need backward computation.
I0813 09:08:40.135363 18354 net.cpp:65] Creating Layer relu1
I0813 09:08:40.135366 18354 net.cpp:228] relu1 <- conv1
I0813 09:08:40.135372 18354 net.cpp:179] relu1 -> conv1 (in-place)
I0813 09:08:40.135381 18354 net.cpp:84] Top shape: 12 96 55 55 (3484800)
I0813 09:08:40.135385 18354 net.cpp:116] relu1 does not need backward computation.
I0813 09:08:40.135390 18354 net.cpp:65] Creating Layer pool1
I0813 09:08:40.135392 18354 net.cpp:228] pool1 <- conv1
I0813 09:08:40.135397 18354 net.cpp:189] pool1 -> pool1
I0813 09:08:40.135409 18354 net.cpp:84] Top shape: 12 96 27 27 (839808)
I0813 09:08:40.135412 18354 net.cpp:116] pool1 does not need backward computation.
I0813 09:08:40.135417 18354 net.cpp:65] Creating Layer norm1
I0813 09:08:40.135421 18354 net.cpp:228] norm1 <- pool1
I0813 09:08:40.135426 18354 net.cpp:189] norm1 -> norm1
I0813 09:08:40.135434 18354 net.cpp:84] Top shape: 12 96 27 27 (839808)
I0813 09:08:40.135437 18354 net.cpp:116] norm1 does not need backward computation.
I0813 09:08:40.135442 18354 net.cpp:65] Creating Layer Rconv6
I0813 09:08:40.135445 18354 net.cpp:228] Rconv6 <- norm1
I0813 09:08:40.135449 18354 net.cpp:189] Rconv6 -> Rconv6
I0813 09:08:40.135705 18354 net.cpp:84] Top shape: 12 256 27 27 (2239488)
I0813 09:08:40.135710 18354 net.cpp:111] Rconv6 needs backward computation.
I0813 09:08:40.135715 18354 net.cpp:65] Creating Layer Rrelu6
I0813 09:08:40.135717 18354 net.cpp:228] Rrelu6 <- Rconv6
I0813 09:08:40.135721 18354 net.cpp:179] Rrelu6 -> Rconv6 (in-place)
I0813 09:08:40.135726 18354 net.cpp:84] Top shape: 12 256 27 27 (2239488)
I0813 09:08:40.135730 18354 net.cpp:111] Rrelu6 needs backward computation.
I0813 09:08:40.135735 18354 net.cpp:65] Creating Layer Rconv7
I0813 09:08:40.135737 18354 net.cpp:228] Rconv7 <- Rconv6
I0813 09:08:40.135742 18354 net.cpp:189] Rconv7 -> Rconv7
I0813 09:08:40.136452 18354 net.cpp:84] Top shape: 12 256 27 27 (2239488)
I0813 09:08:40.136457 18354 net.cpp:111] Rconv7 needs backward computation.
I0813 09:08:40.136462 18354 net.cpp:65] Creating Layer Rrelu7
I0813 09:08:40.136466 18354 net.cpp:228] Rrelu7 <- Rconv7
I0813 09:08:40.136490 18354 net.cpp:179] Rrelu7 -> Rconv7 (in-place)
I0813 09:08:40.136497 18354 net.cpp:84] Top shape: 12 256 27 27 (2239488)
I0813 09:08:40.136499 18354 net.cpp:111] Rrelu7 needs backward computation.
I0813 09:08:40.136503 18354 net.cpp:65] Creating Layer Rconv8
I0813 09:08:40.136507 18354 net.cpp:228] Rconv8 <- Rconv7
I0813 09:08:40.136510 18354 net.cpp:189] Rconv8 -> Rconv8
I0813 09:08:40.137315 18354 net.cpp:84] Top shape: 12 256 27 27 (2239488)
I0813 09:08:40.137320 18354 net.cpp:111] Rconv8 needs backward computation.
I0813 09:08:40.137323 18354 net.cpp:65] Creating Layer Rrelu8
I0813 09:08:40.137326 18354 net.cpp:228] Rrelu8 <- Rconv8
I0813 09:08:40.137329 18354 net.cpp:179] Rrelu8 -> Rconv8 (in-place)
I0813 09:08:40.137334 18354 net.cpp:84] Top shape: 12 256 27 27 (2239488)
I0813 09:08:40.137336 18354 net.cpp:111] Rrelu8 needs backward computation.
I0813 09:08:40.137341 18354 net.cpp:65] Creating Layer deconv2
I0813 09:08:40.137343 18354 net.cpp:228] deconv2 <- Rconv8
I0813 09:08:40.137347 18354 net.cpp:189] deconv2 -> deconv2
I0813 09:08:40.138401 18354 net.cpp:84] Top shape: 12 64 54 54 (2239488)
I0813 09:08:40.138406 18354 net.cpp:111] deconv2 needs backward computation.
I0813 09:08:40.138411 18354 net.cpp:65] Creating Layer relu_deconv2
I0813 09:08:40.138413 18354 net.cpp:228] relu_deconv2 <- deconv2
I0813 09:08:40.138417 18354 net.cpp:179] relu_deconv2 -> deconv2 (in-place)
I0813 09:08:40.138422 18354 net.cpp:84] Top shape: 12 64 54 54 (2239488)
I0813 09:08:40.138425 18354 net.cpp:111] relu_deconv2 needs backward computation.
I0813 09:08:40.138429 18354 net.cpp:65] Creating Layer deconv1
I0813 09:08:40.138432 18354 net.cpp:228] deconv1 <- deconv2
I0813 09:08:40.138435 18354 net.cpp:189] deconv1 -> deconv1
I0813 09:08:40.138592 18354 net.cpp:84] Top shape: 12 32 108 108 (4478976)
I0813 09:08:40.138595 18354 net.cpp:111] deconv1 needs backward computation.
I0813 09:08:40.138599 18354 net.cpp:65] Creating Layer relu_deconv1
I0813 09:08:40.138602 18354 net.cpp:228] relu_deconv1 <- deconv1
I0813 09:08:40.138607 18354 net.cpp:179] relu_deconv1 -> deconv1 (in-place)
I0813 09:08:40.138610 18354 net.cpp:84] Top shape: 12 32 108 108 (4478976)
I0813 09:08:40.138613 18354 net.cpp:111] relu_deconv1 needs backward computation.
I0813 09:08:40.138618 18354 net.cpp:65] Creating Layer deconv0
I0813 09:08:40.138622 18354 net.cpp:228] deconv0 <- deconv1
I0813 09:08:40.138625 18354 net.cpp:189] deconv0 -> deconv0
I0813 09:08:40.138675 18354 net.cpp:84] Top shape: 12 3 216 216 (1679616)
I0813 09:08:40.138679 18354 net.cpp:111] deconv0 needs backward computation.
I0813 09:08:40.138684 18354 net.cpp:65] Creating Layer loss
I0813 09:08:40.138685 18354 net.cpp:228] loss <- deconv0
I0813 09:08:40.138689 18354 net.cpp:228] loss <- target_ims
I0813 09:08:40.138697 18354 net.cpp:111] loss needs backward computation.
I0813 09:08:40.138710 18354 net.cpp:238] Collecting Learning Rate and Weight Decay.
…
    source: "/scr/r6/tgebru/inverting_conv/caffe_invert_alexnet/data/siggraph/tiny_summer_val_lmdb"
    mean_file: "/scr/r6/tgebru/timnit_caffe/data/ilsvrc12/imagenet_mean.binaryproto"
    batch_size: 2
    crop_size: 227
    mirror: false
    backend: LMDB
  }
}
layers {
  top: "target_ims"
  name: "target_ims"
  type: DATA
  data_param {
    source: "/scr/r6/tgebru/inverting_conv/caffe_invert_alexnet/data/siggraph/tiny_summer_val_lmdb"
    mean_file: "/scr/r6/tgebru/timnit_caffe/data/ilsvrc12/imagenet_mean.binaryproto"
    batch_size: 2
    crop_size: 216
    mirror: false
    backend: LMDB
  }
}
layers {
  bottom: "source_ims"
  top: "conv1"
  name: "conv1"
  type: CONVOLUTION
  blobs_lr: 0
  blobs_lr: 0
  weight_decay: 1
  weight_decay: 0
  convolution_param {
    num_output: 96
    kernel_size: 11
    stride: 4
    weight_filler {
      type: "gaussian"
      std: 0.01
    }
    bias_filler {
      type: "constant"
      value: 0
    }
  }
}
layers {
  bottom: "conv1"
  top: "conv1"
  name: "relu1"
  type: RELU
}
layers {
  bottom: "conv1"
  top: "pool1"
  name: "pool1"
  type: POOLING
  pooling_param {
    pool: MAX
    kernel_size: 3
    stride: 2
  }
}
layers {
  bottom: "pool1"
  top: "norm1"
  name: "norm1"
  type: LRN
  lrn_param {
    local_size: 5
    alpha: 0.0001
    beta: 0.75
  }
}
layers {
  bottom: "norm1"
  top: "Rconv6"
  name: "Rconv6"
  type: CONVOLUTION
  blobs_lr: 0
  blobs_lr: 0
  weight_decay: 1
  weight_decay: 0
  convolution_param {
    num_output: 256
    pad: 1
    kernel_size: 3
  }
}
layers {
  bottom: "Rconv6"
  top: "Rconv6"
  name: "Rrelu6"
  type: RELU
}
layers {
  bottom: "Rconv6"
  top: "Rconv7"
  name: "Rconv7"
  type: CONVOLUTION
  blobs_lr: 0
  blobs_lr: 0
  weight_decay: 1
  weight_decay: 0
  convolution_param {
    num_output: 256
    pad: 1
    kernel_size: 3
    group: 2
  }
}
layers {
  bottom: "Rconv7"
  top: "Rconv7"
  name: "Rrelu7"
  type: RELU
}
layers {
  bottom: "Rconv7"
  top: "Rconv8"
  name: "Rconv8"
  type: CONVOLUTION
  blobs_lr: 0
  blobs_lr: 0
  weight_decay: 1
  weight_decay: 0
  convolution_param {
    num_output: 256
    pad: 1
    kernel_size: 3
    group: 2
  }
}
layers {
  bottom: "Rconv8"
  top: "Rconv8"
  name: "Rrelu8"
  type: RELU
}
layers {
  bottom: "Rconv8"
  top: "deconv2"
  name: "deconv2"
  type: DECONVOLUTION
  blobs_lr: 0
  blobs_lr: 0
  weight_decay: 1
  weight_decay: 0
  deconvolution_param {
    pad: 2
    kernel_size: 5
    stride: 2
    output_height: 54
    output_width: 54
    output_channels: 64
  }
}
layers {
  bottom: "deconv2"
  top: "deconv2"
  name: "relu_deconv2"
  type: RELU
  relu_param {
    negative_slope: 0.3
  }
}
layers {
  bottom: "deconv2"
  top: "deconv1"
  name: "deconv1"
  type: DECONVOLUTION
  blobs_lr: 0
  blobs_lr: 0
  weight_decay: 1
  weight_decay: 0
  deconvolution_param {
    pad: 2
    kernel_size: 5
    stride: 2
    output_height: 108
    output_width: 108
    output_channels: 32
  }
}
layers {
  bottom: "deconv1"
  top: "deconv1"
  name: "relu_deconv1"
  type: RELU
  relu_param {
    negative_slope: 0.3
  }
}
layers {
  bottom: "deconv1"
  top: "deconv0"
  name: "deconv0"
  type: DECONVOLUTION
  blobs_lr: 0
  blobs_lr: 0
  weight_decay: 1
  weight_decay: 0
  deconvolution_param {
    pad: 2
    kernel_size: 5
    stride: 2
    output_height: 216
    output_width: 216
    output_channels: 3
  }
}
layers {
  bottom: "deconv0"
  bottom: "target_ims"
  name: "loss"
  type: EUCLIDEAN_LOSS
}
I0813 09:08:40.139461 18354 net.cpp:65] Creating Layer source_ims
I0813 09:08:40.139467 18354 net.cpp:189] source_ims -> source_ims
I0813 09:08:40.139521 18354 data_layer.cpp:223] Opening lmdb /scr/r6/tgebru/inverting_conv/caffe_invert_alexnet/data/siggraph/tiny_summer_val_lmdb
I0813 09:08:40.139729 18354 data_layer.cpp:285] output data size: 2,3,227,227
I0813 09:08:40.139734 18354 data_layer.cpp:304] Loading mean file from/scr/r6/tgebru/timnit_caffe/data/ilsvrc12/imagenet_mean.binaryproto
I0813 09:08:40.142137 18354 net.cpp:84] Top shape: 2 3 227 227 (309174)
I0813 09:08:40.142143 18354 net.cpp:116] source_ims does not need backward computation.
I0813 09:08:40.142150 18354 net.cpp:65] Creating Layer target_ims
I0813 09:08:40.142154 18354 net.cpp:189] target_ims -> target_ims
I0813 09:08:40.142202 18354 data_layer.cpp:223] Opening lmdb /scr/r6/tgebru/inverting_conv/caffe_invert_alexnet/data/siggraph/tiny_summer_val_lmdb
I0813 09:08:40.142364 18354 data_layer.cpp:285] output data size: 2,3,216,216
I0813 09:08:40.142369 18354 data_layer.cpp:304] Loading mean file from/scr/r6/tgebru/timnit_caffe/data/ilsvrc12/imagenet_mean.binaryproto
I0813 09:08:40.144582 18354 net.cpp:84] Top shape: 2 3 216 216 (279936)
I0813 09:08:40.144588 18354 net.cpp:116] target_ims does not need backward computation.
I0813 09:08:40.144610 18354 net.cpp:65] Creating Layer conv1
I0813 09:08:40.144614 18354 net.cpp:228] conv1 <- source_ims
I0813 09:08:40.144619 18354 net.cpp:189] conv1 -> conv1
I0813 09:08:40.145866 18354 net.cpp:84] Top shape: 2 96 55 55 (580800)
I0813 09:08:40.145871 18354 net.cpp:116] conv1 does not need backward computation.
I0813 09:08:40.145875 18354 net.cpp:65] Creating Layer relu1
I0813 09:08:40.145879 18354 net.cpp:228] relu1 <- conv1
I0813 09:08:40.145882 18354 net.cpp:179] relu1 -> conv1 (in-place)
I0813 09:08:40.145887 18354 net.cpp:84] Top shape: 2 96 55 55 (580800)
I0813 09:08:40.145890 18354 net.cpp:116] relu1 does not need backward computation.
I0813 09:08:40.145895 18354 net.cpp:65] Creating Layer pool1
I0813 09:08:40.145897 18354 net.cpp:228] pool1 <- conv1
I0813 09:08:40.145901 18354 net.cpp:189] pool1 -> pool1
I0813 09:08:40.145907 18354 net.cpp:84] Top shape: 2 96 27 27 (139968)
I0813 09:08:40.145910 18354 net.cpp:116] pool1 does not need backward computation.
I0813 09:08:40.145915 18354 net.cpp:65] Creating Layer norm1
I0813 09:08:40.145917 18354 net.cpp:228] norm1 <- pool1
I0813 09:08:40.145920 18354 net.cpp:189] norm1 -> norm1
I0813 09:08:40.145926 18354 net.cpp:84] Top shape: 2 96 27 27 (139968)
I0813 09:08:40.145930 18354 net.cpp:116] norm1 does not need backward computation.
I0813 09:08:40.145933 18354 net.cpp:65] Creating Layer Rconv6
I0813 09:08:40.145936 18354 net.cpp:228] Rconv6 <- norm1
I0813 09:08:40.145941 18354 net.cpp:189] Rconv6 -> Rconv6
I0813 09:08:40.146495 18354 net.cpp:84] Top shape: 2 256 27 27 (373248)
I0813 09:08:40.146500 18354 net.cpp:116] Rconv6 does not need backward computation.
I0813 09:08:40.146504 18354 net.cpp:65] Creating Layer Rrelu6
I0813 09:08:40.146507 18354 net.cpp:228] Rrelu6 <- Rconv6
I0813 09:08:40.146512 18354 net.cpp:179] Rrelu6 -> Rconv6 (in-place)
I0813 09:08:40.146515 18354 net.cpp:84] Top shape: 2 256 27 27 (373248)
I0813 09:08:40.146518 18354 net.cpp:116] Rrelu6 does not need backward computation.
I0813 09:08:40.146523 18354 net.cpp:65] Creating Layer Rconv7
I0813 09:08:40.146525 18354 net.cpp:228] Rconv7 <- Rconv6
I0813 09:08:40.146529 18354 net.cpp:189] Rconv7 -> Rconv7
I0813 09:08:40.147316 18354 net.cpp:84] Top shape: 2 256 27 27 (373248)
I0813 09:08:40.147320 18354 net.cpp:116] Rconv7 does not need backward computation.
I0813 09:08:40.147325 18354 net.cpp:65] Creating Layer Rrelu7
I0813 09:08:40.147327 18354 net.cpp:228] Rrelu7 <- Rconv7
I0813 09:08:40.147330 18354 net.cpp:179] Rrelu7 -> Rconv7 (in-place)
I0813 09:08:40.147336 18354 net.cpp:84] Top shape: 2 256 27 27 (373248)
I0813 09:08:40.147337 18354 net.cpp:116] Rrelu7 does not need backward computation.
I0813 09:08:40.147341 18354 net.cpp:65] Creating Layer Rconv8
I0813 09:08:40.147343 18354 net.cpp:228] Rconv8 <- Rconv7
I0813 09:08:40.147347 18354 net.cpp:189] Rconv8 -> Rconv8
I0813 09:08:40.148066 18354 net.cpp:84] Top shape: 2 256 27 27 (373248)
I0813 09:08:40.148072 18354 net.cpp:116] Rconv8 does not need backward computation.
I0813 09:08:40.148074 18354 net.cpp:65] Creating Layer Rrelu8
I0813 09:08:40.148077 18354 net.cpp:228] Rrelu8 <- Rconv8
I0813 09:08:40.148080 18354 net.cpp:179] Rrelu8 -> Rconv8 (in-place)
I0813 09:08:40.148085 18354 net.cpp:84] Top shape: 2 256 27 27 (373248)
I0813 09:08:40.148087 18354 net.cpp:116] Rrelu8 does not need backward computation.
I0813 09:08:40.148092 18354 net.cpp:65] Creating Layer deconv2
I0813 09:08:40.148094 18354 net.cpp:228] deconv2 <- Rconv8
I0813 09:08:40.148097 18354 net.cpp:189] deconv2 -> deconv2
I0813 09:08:40.149108 18354 net.cpp:84] Top shape: 2 64 54 54 (373248)
I0813 09:08:40.149112 18354 net.cpp:116] deconv2 does not need backward computation.
I0813 09:08:40.149116 18354 net.cpp:65] Creating Layer relu_deconv2
I0813 09:08:40.149119 18354 net.cpp:228] relu_deconv2 <- deconv2
I0813 09:08:40.149123 18354 net.cpp:179] relu_deconv2 -> deconv2 (in-place)
I0813 09:08:40.149128 18354 net.cpp:84] Top shape: 2 64 54 54 (373248)
I0813 09:08:40.149132 18354 net.cpp:116] relu_deconv2 does not need backward computation.
I0813 09:08:40.149147 18354 net.cpp:65] Creating Layer deconv1
I0813 09:08:40.149149 18354 net.cpp:228] deconv1 <- deconv2
I0813 09:08:40.149153 18354 net.cpp:189] deconv1 -> deconv1
I0813 09:08:40.149294 18354 net.cpp:84] Top shape: 2 32 108 108 (746496)
I0813 09:08:40.149298 18354 net.cpp:116] deconv1 does not need backward computation.
I0813 09:08:40.149302 18354 net.cpp:65] Creating Layer relu_deconv1
I0813 09:08:40.149305 18354 net.cpp:228] relu_deconv1 <- deconv1
I0813 09:08:40.149309 18354 net.cpp:179] relu_deconv1 -> deconv1 (in-place)
I0813 09:08:40.149313 18354 net.cpp:84] Top shape: 2 32 108 108 (746496)
I0813 09:08:40.149317 18354 net.cpp:116] relu_deconv1 does not need backward computation.
I0813 09:08:40.149322 18354 net.cpp:65] Creating Layer deconv0
I0813 09:08:40.149323 18354 net.cpp:228] deconv0 <- deconv1
I0813 09:08:40.149327 18354 net.cpp:189] deconv0 -> deconv0
I0813 09:08:40.149345 18354 net.cpp:84] Top shape: 2 3 216 216 (279936)
I0813 09:08:40.149348 18354 net.cpp:116] deconv0 does not need backward computation.
I0813 09:08:40.149351 18354 net.cpp:65] Creating Layer loss
I0813 09:08:40.149354 18354 net.cpp:228] loss <- deconv0
I0813 09:08:40.149358 18354 net.cpp:228] loss <- target_ims
I0813 09:08:40.149363 18354 net.cpp:116] loss does not need backward computation.
I0813 09:08:40.149374 18354 net.cpp:238] Collecting Learning Rate and Weight Decay.
…
