…
    source: "/scr/r6/tgebru/inverting_conv/caffe_invert_alexnet/data/siggraph/tiny_winter_train_lmdb"
    mean_file: "/scr/r6/tgebru/timnit_caffe/data/ilsvrc12/imagenet_mean.binaryproto"
    batch_size: 12
    crop_size: 227
    mirror: false
    backend: LMDB
  }
}
layers {
  top: "target_ims"
  name: "target_ims"
  type: DATA
  data_param {
    source: "/scr/r6/tgebru/inverting_conv/caffe_invert_alexnet/data/siggraph/tiny_summer_train_lmdb"
    mean_file: "/scr/r6/tgebru/timnit_caffe/data/ilsvrc12/imagenet_mean.binaryproto"
    batch_size: 12
    crop_size: 216
    mirror: false
    backend: LMDB
  }
}
layers {
  bottom: "source_ims"
  top: "conv1"
  name: "conv1"
  type: CONVOLUTION
  blobs_lr: 0
  blobs_lr: 0
  weight_decay: 1
  weight_decay: 0
  convolution_param {
    num_output: 96
    kernel_size: 11
    stride: 4
    weight_filler {
      type: "gaussian"
      std: 0.01
    }
    bias_filler {
      type: "constant"
      value: 0
    }
  }
}
layers {
  bottom: "conv1"
  top: "conv1"
  name: "relu1"
  type: RELU
}
layers {
  bottom: "conv1"
  top: "pool1"
  name: "pool1"
  type: POOLING
  pooling_param {
    pool: MAX
    kernel_size: 3
    stride: 2
  }
}
layers {
  bottom: "pool1"
  top: "norm1"
  name: "norm1"
  type: LRN
  lrn_param {
    local_size: 5
    alpha: 0.0001
    beta: 0.75
  }
}
layers {
  bottom: "norm1"
  top: "Rconv6"
  name: "Rconv6"
  type: CONVOLUTION
  blobs_lr: 1
  blobs_lr: 2
  weight_decay: 1
  weight_decay: 0
  convolution_param {
    num_output: 256
    pad: 1
    kernel_size: 3
  }
}
layers {
  bottom: "Rconv6"
  top: "Rconv6"
  name: "Rrelu6"
  type: RELU
}
layers {
  bottom: "Rconv6"
  top: "Rconv7"
  name: "Rconv7"
  type: CONVOLUTION
  blobs_lr: 1
  blobs_lr: 2
  weight_decay: 1
  weight_decay: 0
  convolution_param {
    num_output: 256
    pad: 1
    kernel_size: 3
    group: 2
  }
}
layers {
  bottom: "Rconv7"
  top: "Rconv7"
  name: "Rrelu7"
  type: RELU
}
layers {
  bottom: "Rconv7"
  top: "Rconv8"
  name: "Rconv8"
  type: CONVOLUTION
  blobs_lr: 1
  blobs_lr: 2
  weight_decay: 1
  weight_decay: 0
  convolution_param {
    num_output: 256
    pad: 1
    kernel_size: 3
    group: 2
  }
}
layers {
  bottom: "Rconv8"
  top: "Rconv8"
  name: "Rrelu8"
  type: RELU
}
layers {
  bottom: "Rconv8"
  top: "deconv2"
  name: "deconv2"
  type: DECONVOLUTION
  blobs_lr: 1
  blobs_lr: 2
  weight_decay: 1
  weight_decay: 0
  deconvolution_param {
    pad: 2
    kernel_size: 5
    stride: 2
    output_height: 54
    output_width: 54
    output_channels: 64
  }
}
layers {
  bottom: "deconv2"
  top: "deconv2"
  name: "relu_deconv2"
  type: RELU
  relu_param {
    negative_slope: 0.3
  }
}
layers {
  bottom: "deconv2"
  top: "deconv1"
  name: "deconv1"
  type: DECONVOLUTION
  blobs_lr: 1
  blobs_lr: 2
  weight_decay: 1
  weight_decay: 0
  deconvolution_param {
    pad: 2
    kernel_size: 5
    stride: 2
    output_height: 108
    output_width: 108
    output_channels: 32
  }
}
layers {
  bottom: "deconv1"
  top: "deconv1"
  name: "relu_deconv1"
  type: RELU
  relu_param {
    negative_slope: 0.3
  }
}
layers {
  bottom: "deconv1"
  top: "deconv0"
  name: "deconv0"
  type: DECONVOLUTION
  blobs_lr: 1
  blobs_lr: 2
  weight_decay: 1
  weight_decay: 1
  deconvolution_param {
    pad: 2
    kernel_size: 5
    stride: 2
    output_height: 216
    output_width: 216
    output_channels: 3
  }
}
layers {
  bottom: "deconv0"
  bottom: "target_ims"
  name: "loss"
  type: EUCLIDEAN_LOSS
}
I0813 11:06:21.323012 25843 net.cpp:65] Creating Layer source_ims
I0813 11:06:21.323021 25843 net.cpp:189] source_ims -> source_ims
I0813 11:06:21.323124 25843 data_layer.cpp:223] Opening lmdb /scr/r6/tgebru/inverting_conv/caffe_invert_alexnet/data/siggraph/tiny_winter_train_lmdb
I0813 11:06:21.323338 25843 data_layer.cpp:285] output data size: 12,3,227,227
I0813 11:06:21.323345 25843 data_layer.cpp:304] Loading mean file from/scr/r6/tgebru/timnit_caffe/data/ilsvrc12/imagenet_mean.binaryproto
I0813 11:06:21.327978 25843 net.cpp:84] Top shape: 12 3 227 227 (1855044)
I0813 11:06:21.327986 25843 net.cpp:116] source_ims does not need backward computation.
I0813 11:06:21.327992 25843 net.cpp:65] Creating Layer target_ims
I0813 11:06:21.327996 25843 net.cpp:189] target_ims -> target_ims
I0813 11:06:21.328172 25843 data_layer.cpp:223] Opening lmdb /scr/r6/tgebru/inverting_conv/caffe_invert_alexnet/data/siggraph/tiny_summer_train_lmdb
I0813 11:06:21.328383 25843 data_layer.cpp:285] output data size: 12,3,216,216
I0813 11:06:21.328388 25843 data_layer.cpp:304] Loading mean file from/scr/r6/tgebru/timnit_caffe/data/ilsvrc12/imagenet_mean.binaryproto
I0813 11:06:21.332417 25843 net.cpp:84] Top shape: 12 3 216 216 (1679616)
I0813 11:06:21.332425 25843 net.cpp:116] target_ims does not need backward computation.
I0813 11:06:21.332437 25843 net.cpp:65] Creating Layer conv1
I0813 11:06:21.332442 25843 net.cpp:228] conv1 <- source_ims
I0813 11:06:21.332504 25843 net.cpp:189] conv1 -> conv1
I0813 11:06:21.333812 25843 net.cpp:84] Top shape: 12 96 55 55 (3484800)
I0813 11:06:21.333818 25843 net.cpp:116] conv1 does not need backward computation.
I0813 11:06:21.333823 25843 net.cpp:65] Creating Layer relu1
I0813 11:06:21.333827 25843 net.cpp:228] relu1 <- conv1
I0813 11:06:21.333832 25843 net.cpp:179] relu1 -> conv1 (in-place)
I0813 11:06:21.333842 25843 net.cpp:84] Top shape: 12 96 55 55 (3484800)
I0813 11:06:21.333844 25843 net.cpp:116] relu1 does not need backward computation.
I0813 11:06:21.333850 25843 net.cpp:65] Creating Layer pool1
I0813 11:06:21.333853 25843 net.cpp:228] pool1 <- conv1
I0813 11:06:21.333858 25843 net.cpp:189] pool1 -> pool1
I0813 11:06:21.333873 25843 net.cpp:84] Top shape: 12 96 27 27 (839808)
I0813 11:06:21.333875 25843 net.cpp:116] pool1 does not need backward computation.
I0813 11:06:21.333881 25843 net.cpp:65] Creating Layer norm1
I0813 11:06:21.333884 25843 net.cpp:228] norm1 <- pool1
I0813 11:06:21.333889 25843 net.cpp:189] norm1 -> norm1
I0813 11:06:21.333899 25843 net.cpp:84] Top shape: 12 96 27 27 (839808)
I0813 11:06:21.333901 25843 net.cpp:116] norm1 does not need backward computation.
I0813 11:06:21.333906 25843 net.cpp:65] Creating Layer Rconv6
I0813 11:06:21.333910 25843 net.cpp:228] Rconv6 <- norm1
I0813 11:06:21.333914 25843 net.cpp:189] Rconv6 -> Rconv6
I0813 11:06:21.334086 25843 net.cpp:84] Top shape: 12 256 27 27 (2239488)
I0813 11:06:21.334090 25843 net.cpp:111] Rconv6 needs backward computation.
I0813 11:06:21.334095 25843 net.cpp:65] Creating Layer Rrelu6
I0813 11:06:21.334098 25843 net.cpp:228] Rrelu6 <- Rconv6
I0813 11:06:21.334102 25843 net.cpp:179] Rrelu6 -> Rconv6 (in-place)
I0813 11:06:21.334107 25843 net.cpp:84] Top shape: 12 256 27 27 (2239488)
I0813 11:06:21.334110 25843 net.cpp:111] Rrelu6 needs backward computation.
I0813 11:06:21.334115 25843 net.cpp:65] Creating Layer Rconv7
I0813 11:06:21.334118 25843 net.cpp:228] Rconv7 <- Rconv6
I0813 11:06:21.334122 25843 net.cpp:189] Rconv7 -> Rconv7
I0813 11:06:21.334923 25843 net.cpp:84] Top shape: 12 256 27 27 (2239488)
I0813 11:06:21.334928 25843 net.cpp:111] Rconv7 needs backward computation.
I0813 11:06:21.334933 25843 net.cpp:65] Creating Layer Rrelu7
I0813 11:06:21.334960 25843 net.cpp:228] Rrelu7 <- Rconv7
I0813 11:06:21.334966 25843 net.cpp:179] Rrelu7 -> Rconv7 (in-place)
I0813 11:06:21.334970 25843 net.cpp:84] Top shape: 12 256 27 27 (2239488)
I0813 11:06:21.334974 25843 net.cpp:111] Rrelu7 needs backward computation.
I0813 11:06:21.334978 25843 net.cpp:65] Creating Layer Rconv8
I0813 11:06:21.334981 25843 net.cpp:228] Rconv8 <- Rconv7
I0813 11:06:21.334985 25843 net.cpp:189] Rconv8 -> Rconv8
I0813 11:06:21.335763 25843 net.cpp:84] Top shape: 12 256 27 27 (2239488)
I0813 11:06:21.335768 25843 net.cpp:111] Rconv8 needs backward computation.
I0813 11:06:21.335772 25843 net.cpp:65] Creating Layer Rrelu8
I0813 11:06:21.335775 25843 net.cpp:228] Rrelu8 <- Rconv8
I0813 11:06:21.335779 25843 net.cpp:179] Rrelu8 -> Rconv8 (in-place)
I0813 11:06:21.335783 25843 net.cpp:84] Top shape: 12 256 27 27 (2239488)
I0813 11:06:21.335786 25843 net.cpp:111] Rrelu8 needs backward computation.
I0813 11:06:21.335791 25843 net.cpp:65] Creating Layer deconv2
I0813 11:06:21.335794 25843 net.cpp:228] deconv2 <- Rconv8
I0813 11:06:21.335798 25843 net.cpp:189] deconv2 -> deconv2
I0813 11:06:21.336833 25843 net.cpp:84] Top shape: 12 64 54 54 (2239488)
I0813 11:06:21.336838 25843 net.cpp:111] deconv2 needs backward computation.
I0813 11:06:21.336843 25843 net.cpp:65] Creating Layer relu_deconv2
I0813 11:06:21.336845 25843 net.cpp:228] relu_deconv2 <- deconv2
I0813 11:06:21.336849 25843 net.cpp:179] relu_deconv2 -> deconv2 (in-place)
I0813 11:06:21.336854 25843 net.cpp:84] Top shape: 12 64 54 54 (2239488)
I0813 11:06:21.336858 25843 net.cpp:111] relu_deconv2 needs backward computation.
I0813 11:06:21.336861 25843 net.cpp:65] Creating Layer deconv1
I0813 11:06:21.336863 25843 net.cpp:228] deconv1 <- deconv2
I0813 11:06:21.336868 25843 net.cpp:189] deconv1 -> deconv1
I0813 11:06:21.337005 25843 net.cpp:84] Top shape: 12 32 108 108 (4478976)
I0813 11:06:21.337009 25843 net.cpp:111] deconv1 needs backward computation.
I0813 11:06:21.337013 25843 net.cpp:65] Creating Layer relu_deconv1
I0813 11:06:21.337016 25843 net.cpp:228] relu_deconv1 <- deconv1
I0813 11:06:21.337020 25843 net.cpp:179] relu_deconv1 -> deconv1 (in-place)
I0813 11:06:21.337025 25843 net.cpp:84] Top shape: 12 32 108 108 (4478976)
I0813 11:06:21.337028 25843 net.cpp:111] relu_deconv1 needs backward computation.
I0813 11:06:21.337033 25843 net.cpp:65] Creating Layer deconv0
I0813 11:06:21.337035 25843 net.cpp:228] deconv0 <- deconv1
I0813 11:06:21.337040 25843 net.cpp:189] deconv0 -> deconv0
I0813 11:06:21.337069 25843 net.cpp:84] Top shape: 12 3 216 216 (1679616)
I0813 11:06:21.337071 25843 net.cpp:111] deconv0 needs backward computation.
I0813 11:06:21.337075 25843 net.cpp:65] Creating Layer loss
I0813 11:06:21.337079 25843 net.cpp:228] loss <- deconv0
I0813 11:06:21.337081 25843 net.cpp:228] loss <- target_ims
I0813 11:06:21.337091 25843 net.cpp:111] loss needs backward computation.
I0813 11:06:21.337103 25843 net.cpp:238] Collecting Learning Rate and Weight Decay.
…
    source: "/scr/r6/tgebru/inverting_conv/caffe_invert_alexnet/data/siggraph/tiny_winter_val_lmdb"
    mean_file: "/scr/r6/tgebru/timnit_caffe/data/ilsvrc12/imagenet_mean.binaryproto"
    batch_size: 2
    crop_size: 227
    mirror: false
    backend: LMDB
  }
}
layers {
  top: "target_ims"
  name: "target_ims"
  type: DATA
  data_param {
    source: "/scr/r6/tgebru/inverting_conv/caffe_invert_alexnet/data/siggraph/tiny_summer_val_lmdb"
    mean_file: "/scr/r6/tgebru/timnit_caffe/data/ilsvrc12/imagenet_mean.binaryproto"
    batch_size: 2
    crop_size: 216
    mirror: false
    backend: LMDB
  }
}
layers {
  bottom: "source_ims"
  top: "conv1"
  name: "conv1"
  type: CONVOLUTION
  blobs_lr: 0
  blobs_lr: 0
  weight_decay: 1
  weight_decay: 0
  convolution_param {
    num_output: 96
    kernel_size: 11
    stride: 4
    weight_filler {
      type: "gaussian"
      std: 0.01
    }
    bias_filler {
      type: "constant"
      value: 0
    }
  }
}
layers {
  bottom: "conv1"
  top: "conv1"
  name: "relu1"
  type: RELU
}
layers {
  bottom: "conv1"
  top: "pool1"
  name: "pool1"
  type: POOLING
  pooling_param {
    pool: MAX
    kernel_size: 3
    stride: 2
  }
}
layers {
  bottom: "pool1"
  top: "norm1"
  name: "norm1"
  type: LRN
  lrn_param {
    local_size: 5
    alpha: 0.0001
    beta: 0.75
  }
}
layers {
  bottom: "norm1"
  top: "Rconv6"
  name: "Rconv6"
  type: CONVOLUTION
  blobs_lr: 0
  blobs_lr: 0
  weight_decay: 1
  weight_decay: 0
  convolution_param {
    num_output: 256
    pad: 1
    kernel_size: 3
  }
}
layers {
  bottom: "Rconv6"
  top: "Rconv6"
  name: "Rrelu6"
  type: RELU
}
layers {
  bottom: "Rconv6"
  top: "Rconv7"
  name: "Rconv7"
  type: CONVOLUTION
  blobs_lr: 0
  blobs_lr: 0
  weight_decay: 1
  weight_decay: 0
  convolution_param {
    num_output: 256
    pad: 1
    kernel_size: 3
    group: 2
  }
}
layers {
  bottom: "Rconv7"
  top: "Rconv7"
  name: "Rrelu7"
  type: RELU
}
layers {
  bottom: "Rconv7"
  top: "Rconv8"
  name: "Rconv8"
  type: CONVOLUTION
  blobs_lr: 0
  blobs_lr: 0
  weight_decay: 1
  weight_decay: 0
  convolution_param {
    num_output: 256
    pad: 1
    kernel_size: 3
    group: 2
  }
}
layers {
  bottom: "Rconv8"
  top: "Rconv8"
  name: "Rrelu8"
  type: RELU
}
layers {
  bottom: "Rconv8"
  top: "deconv2"
  name: "deconv2"
  type: DECONVOLUTION
  blobs_lr: 0
  blobs_lr: 0
  weight_decay: 1
  weight_decay: 0
  deconvolution_param {
    pad: 2
    kernel_size: 5
    stride: 2
    output_height: 54
    output_width: 54
    output_channels: 64
  }
}
layers {
  bottom: "deconv2"
  top: "deconv2"
  name: "relu_deconv2"
  type: RELU
  relu_param {
    negative_slope: 0.3
  }
}
layers {
  bottom: "deconv2"
  top: "deconv1"
  name: "deconv1"
  type: DECONVOLUTION
  blobs_lr: 0
  blobs_lr: 0
  weight_decay: 1
  weight_decay: 0
  deconvolution_param {
    pad: 2
    kernel_size: 5
    stride: 2
    output_height: 108
    output_width: 108
    output_channels: 32
  }
}
layers {
  bottom: "deconv1"
  top: "deconv1"
  name: "relu_deconv1"
  type: RELU
  relu_param {
    negative_slope: 0.3
  }
}
layers {
  bottom: "deconv1"
  top: "deconv0"
  name: "deconv0"
  type: DECONVOLUTION
  blobs_lr: 0
  blobs_lr: 0
  weight_decay: 1
  weight_decay: 0
  deconvolution_param {
    pad: 2
    kernel_size: 5
    stride: 2
    output_height: 216
    output_width: 216
    output_channels: 3
  }
}
layers {
  bottom: "deconv0"
  bottom: "target_ims"
  name: "loss"
  type: EUCLIDEAN_LOSS
}
I0813 11:06:21.337868 25843 net.cpp:65] Creating Layer source_ims
I0813 11:06:21.337873 25843 net.cpp:189] source_ims -> source_ims
I0813 11:06:21.337932 25843 data_layer.cpp:223] Opening lmdb /scr/r6/tgebru/inverting_conv/caffe_invert_alexnet/data/siggraph/tiny_winter_val_lmdb
I0813 11:06:21.338155 25843 data_layer.cpp:285] output data size: 2,3,227,227
I0813 11:06:21.338160 25843 data_layer.cpp:304] Loading mean file from/scr/r6/tgebru/timnit_caffe/data/ilsvrc12/imagenet_mean.binaryproto
I0813 11:06:21.340461 25843 net.cpp:84] Top shape: 2 3 227 227 (309174)
I0813 11:06:21.340468 25843 net.cpp:116] source_ims does not need backward computation.
I0813 11:06:21.340474 25843 net.cpp:65] Creating Layer target_ims
I0813 11:06:21.340478 25843 net.cpp:189] target_ims -> target_ims
I0813 11:06:21.340529 25843 data_layer.cpp:223] Opening lmdb /scr/r6/tgebru/inverting_conv/caffe_invert_alexnet/data/siggraph/tiny_summer_val_lmdb
I0813 11:06:21.340626 25843 data_layer.cpp:285] output data size: 2,3,216,216
I0813 11:06:21.340629 25843 data_layer.cpp:304] Loading mean file from/scr/r6/tgebru/timnit_caffe/data/ilsvrc12/imagenet_mean.binaryproto
I0813 11:06:21.342779 25843 net.cpp:84] Top shape: 2 3 216 216 (279936)
I0813 11:06:21.342798 25843 net.cpp:116] target_ims does not need backward computation.
I0813 11:06:21.342805 25843 net.cpp:65] Creating Layer conv1
I0813 11:06:21.342808 25843 net.cpp:228] conv1 <- source_ims
I0813 11:06:21.342814 25843 net.cpp:189] conv1 -> conv1
I0813 11:06:21.344055 25843 net.cpp:84] Top shape: 2 96 55 55 (580800)
I0813 11:06:21.344059 25843 net.cpp:116] conv1 does not need backward computation.
I0813 11:06:21.344063 25843 net.cpp:65] Creating Layer relu1
I0813 11:06:21.344066 25843 net.cpp:228] relu1 <- conv1
I0813 11:06:21.344070 25843 net.cpp:179] relu1 -> conv1 (in-place)
I0813 11:06:21.344075 25843 net.cpp:84] Top shape: 2 96 55 55 (580800)
I0813 11:06:21.344079 25843 net.cpp:116] relu1 does not need backward computation.
I0813 11:06:21.344084 25843 net.cpp:65] Creating Layer pool1
I0813 11:06:21.344085 25843 net.cpp:228] pool1 <- conv1
I0813 11:06:21.344089 25843 net.cpp:189] pool1 -> pool1
I0813 11:06:21.344095 25843 net.cpp:84] Top shape: 2 96 27 27 (139968)
I0813 11:06:21.344099 25843 net.cpp:116] pool1 does not need backward computation.
I0813 11:06:21.344102 25843 net.cpp:65] Creating Layer norm1
I0813 11:06:21.344105 25843 net.cpp:228] norm1 <- pool1
I0813 11:06:21.344108 25843 net.cpp:189] norm1 -> norm1
I0813 11:06:21.344115 25843 net.cpp:84] Top shape: 2 96 27 27 (139968)
I0813 11:06:21.344117 25843 net.cpp:116] norm1 does not need backward computation.
I0813 11:06:21.344120 25843 net.cpp:65] Creating Layer Rconv6
I0813 11:06:21.344123 25843 net.cpp:228] Rconv6 <- norm1
I0813 11:06:21.344127 25843 net.cpp:189] Rconv6 -> Rconv6
I0813 11:06:21.344676 25843 net.cpp:84] Top shape: 2 256 27 27 (373248)
I0813 11:06:21.344681 25843 net.cpp:116] Rconv6 does not need backward computation.
I0813 11:06:21.344683 25843 net.cpp:65] Creating Layer Rrelu6
I0813 11:06:21.344686 25843 net.cpp:228] Rrelu6 <- Rconv6
I0813 11:06:21.344691 25843 net.cpp:179] Rrelu6 -> Rconv6 (in-place)
I0813 11:06:21.344696 25843 net.cpp:84] Top shape: 2 256 27 27 (373248)
I0813 11:06:21.344698 25843 net.cpp:116] Rrelu6 does not need backward computation.
I0813 11:06:21.344702 25843 net.cpp:65] Creating Layer Rconv7
I0813 11:06:21.344705 25843 net.cpp:228] Rconv7 <- Rconv6
I0813 11:06:21.344709 25843 net.cpp:189] Rconv7 -> Rconv7
I0813 11:06:21.345463 25843 net.cpp:84] Top shape: 2 256 27 27 (373248)
I0813 11:06:21.345468 25843 net.cpp:116] Rconv7 does not need backward computation.
I0813 11:06:21.345471 25843 net.cpp:65] Creating Layer Rrelu7
I0813 11:06:21.345474 25843 net.cpp:228] Rrelu7 <- Rconv7
I0813 11:06:21.345477 25843 net.cpp:179] Rrelu7 -> Rconv7 (in-place)
I0813 11:06:21.345482 25843 net.cpp:84] Top shape: 2 256 27 27 (373248)
I0813 11:06:21.345485 25843 net.cpp:116] Rrelu7 does not need backward computation.
I0813 11:06:21.345489 25843 net.cpp:65] Creating Layer Rconv8
I0813 11:06:21.345491 25843 net.cpp:228] Rconv8 <- Rconv7
I0813 11:06:21.345494 25843 net.cpp:189] Rconv8 -> Rconv8
I0813 11:06:21.346207 25843 net.cpp:84] Top shape: 2 256 27 27 (373248)
I0813 11:06:21.346212 25843 net.cpp:116] Rconv8 does not need backward computation.
I0813 11:06:21.346216 25843 net.cpp:65] Creating Layer Rrelu8
I0813 11:06:21.346220 25843 net.cpp:228] Rrelu8 <- Rconv8
I0813 11:06:21.346222 25843 net.cpp:179] Rrelu8 -> Rconv8 (in-place)
I0813 11:06:21.346227 25843 net.cpp:84] Top shape: 2 256 27 27 (373248)
I0813 11:06:21.346230 25843 net.cpp:116] Rrelu8 does not need backward computation.
I0813 11:06:21.346233 25843 net.cpp:65] Creating Layer deconv2
I0813 11:06:21.346235 25843 net.cpp:228] deconv2 <- Rconv8
I0813 11:06:21.346240 25843 net.cpp:189] deconv2 -> deconv2
I0813 11:06:21.347223 25843 net.cpp:84] Top shape: 2 64 54 54 (373248)
I0813 11:06:21.347226 25843 net.cpp:116] deconv2 does not need backward computation.
I0813 11:06:21.347230 25843 net.cpp:65] Creating Layer relu_deconv2
I0813 11:06:21.347234 25843 net.cpp:228] relu_deconv2 <- deconv2
I0813 11:06:21.347237 25843 net.cpp:179] relu_deconv2 -> deconv2 (in-place)
I0813 11:06:21.347241 25843 net.cpp:84] Top shape: 2 64 54 54 (373248)
I0813 11:06:21.347244 25843 net.cpp:116] relu_deconv2 does not need backward computation.
I0813 11:06:21.347260 25843 net.cpp:65] Creating Layer deconv1
I0813 11:06:21.347264 25843 net.cpp:228] deconv1 <- deconv2
I0813 11:06:21.347267 25843 net.cpp:189] deconv1 -> deconv1
I0813 11:06:21.347405 25843 net.cpp:84] Top shape: 2 32 108 108 (746496)
I0813 11:06:21.347409 25843 net.cpp:116] deconv1 does not need backward computation.
I0813 11:06:21.347414 25843 net.cpp:65] Creating Layer relu_deconv1
I0813 11:06:21.347415 25843 net.cpp:228] relu_deconv1 <- deconv1
I0813 11:06:21.347419 25843 net.cpp:179] relu_deconv1 -> deconv1 (in-place)
I0813 11:06:21.347424 25843 net.cpp:84] Top shape: 2 32 108 108 (746496)
I0813 11:06:21.347426 25843 net.cpp:116] relu_deconv1 does not need backward computation.
I0813 11:06:21.347432 25843 net.cpp:65] Creating Layer deconv0
I0813 11:06:21.347435 25843 net.cpp:228] deconv0 <- deconv1
I0813 11:06:21.347440 25843 net.cpp:189] deconv0 -> deconv0
I0813 11:06:21.347458 25843 net.cpp:84] Top shape: 2 3 216 216 (279936)
I0813 11:06:21.347461 25843 net.cpp:116] deconv0 does not need backward computation.
I0813 11:06:21.347465 25843 net.cpp:65] Creating Layer loss
I0813 11:06:21.347467 25843 net.cpp:228] loss <- deconv0
I0813 11:06:21.347471 25843 net.cpp:228] loss <- target_ims
I0813 11:06:21.347476 25843 net.cpp:116] loss does not need backward computation.
I0813 11:06:21.347488 25843 net.cpp:238] Collecting Learning Rate and Weight Decay.
…
