…
    source: "/scr/r6/tgebru/inverting_conv/caffe_invert_alexnet/data/siggraph/tiny_summer_train_lmdb"
    mean_file: "/scr/r6/tgebru/timnit_caffe/data/ilsvrc12/imagenet_mean.binaryproto"
    batch_size: 12
    crop_size: 227
    mirror: false
    backend: LMDB
  }
}
layers {
  top: "target_ims"
  name: "target_ims"
  type: DATA
  data_param {
    source: "/scr/r6/tgebru/inverting_conv/caffe_invert_alexnet/data/siggraph/tiny_summer_train_lmdb"
    mean_file: "/scr/r6/tgebru/timnit_caffe/data/ilsvrc12/imagenet_mean.binaryproto"
    batch_size: 12
    crop_size: 216
    mirror: false
    backend: LMDB
  }
}
layers {
  bottom: "source_ims"
  top: "conv1"
  name: "conv1"
  type: CONVOLUTION
  blobs_lr: 0
  blobs_lr: 0
  weight_decay: 1
  weight_decay: 0
  convolution_param {
    num_output: 96
    kernel_size: 11
    stride: 4
    weight_filler {
      type: "gaussian"
      std: 0.01
    }
    bias_filler {
      type: "constant"
      value: 0
    }
  }
}
layers {
  bottom: "conv1"
  top: "conv1"
  name: "relu1"
  type: RELU
}
layers {
  bottom: "conv1"
  top: "pool1"
  name: "pool1"
  type: POOLING
  pooling_param {
    pool: MAX
    kernel_size: 3
    stride: 2
  }
}
layers {
  bottom: "pool1"
  top: "norm1"
  name: "norm1"
  type: LRN
  lrn_param {
    local_size: 5
    alpha: 0.0001
    beta: 0.75
  }
}
layers {
  bottom: "norm1"
  top: "Rconv6"
  name: "Rconv6"
  type: CONVOLUTION
  blobs_lr: 1
  blobs_lr: 2
  weight_decay: 1
  weight_decay: 0
  convolution_param {
    num_output: 256
    pad: 1
    kernel_size: 3
  }
}
layers {
  bottom: "Rconv6"
  top: "Rconv6"
  name: "Rrelu6"
  type: RELU
}
layers {
  bottom: "Rconv6"
  top: "Rconv7"
  name: "Rconv7"
  type: CONVOLUTION
  blobs_lr: 1
  blobs_lr: 2
  weight_decay: 1
  weight_decay: 0
  convolution_param {
    num_output: 256
    pad: 1
    kernel_size: 3
    group: 2
  }
}
layers {
  bottom: "Rconv7"
  top: "Rconv7"
  name: "Rrelu7"
  type: RELU
}
layers {
  bottom: "Rconv7"
  top: "Rconv8"
  name: "Rconv8"
  type: CONVOLUTION
  blobs_lr: 1
  blobs_lr: 2
  weight_decay: 1
  weight_decay: 0
  convolution_param {
    num_output: 256
    pad: 1
    kernel_size: 3
    group: 2
  }
}
layers {
  bottom: "Rconv8"
  top: "Rconv8"
  name: "Rrelu8"
  type: RELU
}
layers {
  bottom: "Rconv8"
  top: "deconv2"
  name: "deconv2"
  type: DECONVOLUTION
  blobs_lr: 1
  blobs_lr: 2
  weight_decay: 1
  weight_decay: 0
  deconvolution_param {
    pad: 2
    kernel_size: 5
    stride: 2
    output_height: 54
    output_width: 54
    output_channels: 64
  }
}
layers {
  bottom: "deconv2"
  top: "deconv2"
  name: "relu_deconv2"
  type: RELU
  relu_param {
    negative_slope: 0.3
  }
}
layers {
  bottom: "deconv2"
  top: "deconv1"
  name: "deconv1"
  type: DECONVOLUTION
  blobs_lr: 1
  blobs_lr: 2
  weight_decay: 1
  weight_decay: 0
  deconvolution_param {
    pad: 2
    kernel_size: 5
    stride: 2
    output_height: 108
    output_width: 108
    output_channels: 32
  }
}
layers {
  bottom: "deconv1"
  top: "deconv1"
  name: "relu_deconv1"
  type: RELU
  relu_param {
    negative_slope: 0.3
  }
}
layers {
  bottom: "deconv1"
  top: "deconv0"
  name: "deconv0"
  type: DECONVOLUTION
  blobs_lr: 1
  blobs_lr: 2
  weight_decay: 1
  weight_decay: 1
  deconvolution_param {
    pad: 2
    kernel_size: 5
    stride: 2
    output_height: 216
    output_width: 216
    output_channels: 3
  }
}
layers {
  bottom: "deconv0"
  bottom: "target_ims"
  name: "loss"
  type: EUCLIDEAN_LOSS
}
I0813 07:40:10.557456 19298 net.cpp:65] Creating Layer source_ims
I0813 07:40:10.557466 19298 net.cpp:189] source_ims -> source_ims
I0813 07:40:10.557569 19298 data_layer.cpp:223] Opening lmdb /scr/r6/tgebru/inverting_conv/caffe_invert_alexnet/data/siggraph/tiny_summer_train_lmdb
I0813 07:40:10.557770 19298 data_layer.cpp:285] output data size: 12,3,227,227
I0813 07:40:10.557776 19298 data_layer.cpp:304] Loading mean file from/scr/r6/tgebru/timnit_caffe/data/ilsvrc12/imagenet_mean.binaryproto
I0813 07:40:10.562844 19298 net.cpp:84] Top shape: 12 3 227 227 (1855044)
I0813 07:40:10.562854 19298 net.cpp:116] source_ims does not need backward computation.
I0813 07:40:10.562860 19298 net.cpp:65] Creating Layer target_ims
I0813 07:40:10.562865 19298 net.cpp:189] target_ims -> target_ims
I0813 07:40:10.563027 19298 data_layer.cpp:223] Opening lmdb /scr/r6/tgebru/inverting_conv/caffe_invert_alexnet/data/siggraph/tiny_summer_train_lmdb
I0813 07:40:10.563166 19298 data_layer.cpp:285] output data size: 12,3,216,216
I0813 07:40:10.563171 19298 data_layer.cpp:304] Loading mean file from/scr/r6/tgebru/timnit_caffe/data/ilsvrc12/imagenet_mean.binaryproto
I0813 07:40:10.567535 19298 net.cpp:84] Top shape: 12 3 216 216 (1679616)
I0813 07:40:10.567543 19298 net.cpp:116] target_ims does not need backward computation.
I0813 07:40:10.567554 19298 net.cpp:65] Creating Layer conv1
I0813 07:40:10.567559 19298 net.cpp:228] conv1 <- source_ims
I0813 07:40:10.567662 19298 net.cpp:189] conv1 -> conv1
I0813 07:40:10.569092 19298 net.cpp:84] Top shape: 12 96 55 55 (3484800)
I0813 07:40:10.569097 19298 net.cpp:116] conv1 does not need backward computation.
I0813 07:40:10.569103 19298 net.cpp:65] Creating Layer relu1
I0813 07:40:10.569105 19298 net.cpp:228] relu1 <- conv1
I0813 07:40:10.569110 19298 net.cpp:179] relu1 -> conv1 (in-place)
I0813 07:40:10.569118 19298 net.cpp:84] Top shape: 12 96 55 55 (3484800)
I0813 07:40:10.569121 19298 net.cpp:116] relu1 does not need backward computation.
I0813 07:40:10.569128 19298 net.cpp:65] Creating Layer pool1
I0813 07:40:10.569129 19298 net.cpp:228] pool1 <- conv1
I0813 07:40:10.569134 19298 net.cpp:189] pool1 -> pool1
I0813 07:40:10.569145 19298 net.cpp:84] Top shape: 12 96 27 27 (839808)
I0813 07:40:10.569149 19298 net.cpp:116] pool1 does not need backward computation.
I0813 07:40:10.569154 19298 net.cpp:65] Creating Layer norm1
I0813 07:40:10.569156 19298 net.cpp:228] norm1 <- pool1
I0813 07:40:10.569160 19298 net.cpp:189] norm1 -> norm1
I0813 07:40:10.569169 19298 net.cpp:84] Top shape: 12 96 27 27 (839808)
I0813 07:40:10.569171 19298 net.cpp:116] norm1 does not need backward computation.
I0813 07:40:10.569175 19298 net.cpp:65] Creating Layer Rconv6
I0813 07:40:10.569178 19298 net.cpp:228] Rconv6 <- norm1
I0813 07:40:10.569182 19298 net.cpp:189] Rconv6 -> Rconv6
I0813 07:40:10.569455 19298 net.cpp:84] Top shape: 12 256 27 27 (2239488)
I0813 07:40:10.569460 19298 net.cpp:111] Rconv6 needs backward computation.
I0813 07:40:10.569464 19298 net.cpp:65] Creating Layer Rrelu6
I0813 07:40:10.569468 19298 net.cpp:228] Rrelu6 <- Rconv6
I0813 07:40:10.569473 19298 net.cpp:179] Rrelu6 -> Rconv6 (in-place)
I0813 07:40:10.569476 19298 net.cpp:84] Top shape: 12 256 27 27 (2239488)
I0813 07:40:10.569479 19298 net.cpp:111] Rrelu6 needs backward computation.
I0813 07:40:10.569484 19298 net.cpp:65] Creating Layer Rconv7
I0813 07:40:10.569486 19298 net.cpp:228] Rconv7 <- Rconv6
I0813 07:40:10.569490 19298 net.cpp:189] Rconv7 -> Rconv7
I0813 07:40:10.570238 19298 net.cpp:84] Top shape: 12 256 27 27 (2239488)
I0813 07:40:10.570242 19298 net.cpp:111] Rconv7 needs backward computation.
I0813 07:40:10.570246 19298 net.cpp:65] Creating Layer Rrelu7
I0813 07:40:10.570248 19298 net.cpp:228] Rrelu7 <- Rconv7
I0813 07:40:10.570272 19298 net.cpp:179] Rrelu7 -> Rconv7 (in-place)
I0813 07:40:10.570277 19298 net.cpp:84] Top shape: 12 256 27 27 (2239488)
I0813 07:40:10.570279 19298 net.cpp:111] Rrelu7 needs backward computation.
I0813 07:40:10.570283 19298 net.cpp:65] Creating Layer Rconv8
I0813 07:40:10.570286 19298 net.cpp:228] Rconv8 <- Rconv7
I0813 07:40:10.570291 19298 net.cpp:189] Rconv8 -> Rconv8
I0813 07:40:10.571055 19298 net.cpp:84] Top shape: 12 256 27 27 (2239488)
I0813 07:40:10.571060 19298 net.cpp:111] Rconv8 needs backward computation.
I0813 07:40:10.571064 19298 net.cpp:65] Creating Layer Rrelu8
I0813 07:40:10.571068 19298 net.cpp:228] Rrelu8 <- Rconv8
I0813 07:40:10.571071 19298 net.cpp:179] Rrelu8 -> Rconv8 (in-place)
I0813 07:40:10.571075 19298 net.cpp:84] Top shape: 12 256 27 27 (2239488)
I0813 07:40:10.571079 19298 net.cpp:111] Rrelu8 needs backward computation.
I0813 07:40:10.571081 19298 net.cpp:65] Creating Layer deconv2
I0813 07:40:10.571084 19298 net.cpp:228] deconv2 <- Rconv8
I0813 07:40:10.571087 19298 net.cpp:189] deconv2 -> deconv2
I0813 07:40:10.572201 19298 net.cpp:84] Top shape: 12 64 54 54 (2239488)
I0813 07:40:10.572206 19298 net.cpp:111] deconv2 needs backward computation.
I0813 07:40:10.572211 19298 net.cpp:65] Creating Layer relu_deconv2
I0813 07:40:10.572213 19298 net.cpp:228] relu_deconv2 <- deconv2
I0813 07:40:10.572217 19298 net.cpp:179] relu_deconv2 -> deconv2 (in-place)
I0813 07:40:10.572222 19298 net.cpp:84] Top shape: 12 64 54 54 (2239488)
I0813 07:40:10.572226 19298 net.cpp:111] relu_deconv2 needs backward computation.
I0813 07:40:10.572229 19298 net.cpp:65] Creating Layer deconv1
I0813 07:40:10.572232 19298 net.cpp:228] deconv1 <- deconv2
I0813 07:40:10.572235 19298 net.cpp:189] deconv1 -> deconv1
I0813 07:40:10.572394 19298 net.cpp:84] Top shape: 12 32 108 108 (4478976)
I0813 07:40:10.572398 19298 net.cpp:111] deconv1 needs backward computation.
I0813 07:40:10.572402 19298 net.cpp:65] Creating Layer relu_deconv1
I0813 07:40:10.572404 19298 net.cpp:228] relu_deconv1 <- deconv1
I0813 07:40:10.572408 19298 net.cpp:179] relu_deconv1 -> deconv1 (in-place)
I0813 07:40:10.572413 19298 net.cpp:84] Top shape: 12 32 108 108 (4478976)
I0813 07:40:10.572415 19298 net.cpp:111] relu_deconv1 needs backward computation.
I0813 07:40:10.572422 19298 net.cpp:65] Creating Layer deconv0
I0813 07:40:10.572423 19298 net.cpp:228] deconv0 <- deconv1
I0813 07:40:10.572427 19298 net.cpp:189] deconv0 -> deconv0
I0813 07:40:10.572450 19298 net.cpp:84] Top shape: 12 3 216 216 (1679616)
I0813 07:40:10.572454 19298 net.cpp:111] deconv0 needs backward computation.
I0813 07:40:10.572458 19298 net.cpp:65] Creating Layer loss
I0813 07:40:10.572460 19298 net.cpp:228] loss <- deconv0
I0813 07:40:10.572463 19298 net.cpp:228] loss <- target_ims
I0813 07:40:10.572473 19298 net.cpp:111] loss needs backward computation.
I0813 07:40:10.572484 19298 net.cpp:238] Collecting Learning Rate and Weight Decay.
…
    source: "/scr/r6/tgebru/inverting_conv/caffe_invert_alexnet/data/siggraph/tiny_summer_val_lmdb"
    mean_file: "/scr/r6/tgebru/timnit_caffe/data/ilsvrc12/imagenet_mean.binaryproto"
    batch_size: 2
    crop_size: 227
    mirror: false
    backend: LMDB
  }
}
layers {
  top: "target_ims"
  name: "target_ims"
  type: DATA
  data_param {
    source: "/scr/r6/tgebru/inverting_conv/caffe_invert_alexnet/data/siggraph/tiny_summer_val_lmdb"
    mean_file: "/scr/r6/tgebru/timnit_caffe/data/ilsvrc12/imagenet_mean.binaryproto"
    batch_size: 2
    crop_size: 216
    mirror: false
    backend: LMDB
  }
}
layers {
  bottom: "source_ims"
  top: "conv1"
  name: "conv1"
  type: CONVOLUTION
  blobs_lr: 0
  blobs_lr: 0
  weight_decay: 1
  weight_decay: 0
  convolution_param {
    num_output: 96
    kernel_size: 11
    stride: 4
    weight_filler {
      type: "gaussian"
      std: 0.01
    }
    bias_filler {
      type: "constant"
      value: 0
    }
  }
}
layers {
  bottom: "conv1"
  top: "conv1"
  name: "relu1"
  type: RELU
}
layers {
  bottom: "conv1"
  top: "pool1"
  name: "pool1"
  type: POOLING
  pooling_param {
    pool: MAX
    kernel_size: 3
    stride: 2
  }
}
layers {
  bottom: "pool1"
  top: "norm1"
  name: "norm1"
  type: LRN
  lrn_param {
    local_size: 5
    alpha: 0.0001
    beta: 0.75
  }
}
layers {
  bottom: "norm1"
  top: "Rconv6"
  name: "Rconv6"
  type: CONVOLUTION
  blobs_lr: 0
  blobs_lr: 0
  weight_decay: 1
  weight_decay: 0
  convolution_param {
    num_output: 256
    pad: 1
    kernel_size: 3
  }
}
layers {
  bottom: "Rconv6"
  top: "Rconv6"
  name: "Rrelu6"
  type: RELU
}
layers {
  bottom: "Rconv6"
  top: "Rconv7"
  name: "Rconv7"
  type: CONVOLUTION
  blobs_lr: 0
  blobs_lr: 0
  weight_decay: 1
  weight_decay: 0
  convolution_param {
    num_output: 256
    pad: 1
    kernel_size: 3
    group: 2
  }
}
layers {
  bottom: "Rconv7"
  top: "Rconv7"
  name: "Rrelu7"
  type: RELU
}
layers {
  bottom: "Rconv7"
  top: "Rconv8"
  name: "Rconv8"
  type: CONVOLUTION
  blobs_lr: 0
  blobs_lr: 0
  weight_decay: 1
  weight_decay: 0
  convolution_param {
    num_output: 256
    pad: 1
    kernel_size: 3
    group: 2
  }
}
layers {
  bottom: "Rconv8"
  top: "Rconv8"
  name: "Rrelu8"
  type: RELU
}
layers {
  bottom: "Rconv8"
  top: "deconv2"
  name: "deconv2"
  type: DECONVOLUTION
  blobs_lr: 0
  blobs_lr: 0
  weight_decay: 1
  weight_decay: 0
  deconvolution_param {
    pad: 2
    kernel_size: 5
    stride: 2
    output_height: 54
    output_width: 54
    output_channels: 64
  }
}
layers {
  bottom: "deconv2"
  top: "deconv2"
  name: "relu_deconv2"
  type: RELU
  relu_param {
    negative_slope: 0.3
  }
}
layers {
  bottom: "deconv2"
  top: "deconv1"
  name: "deconv1"
  type: DECONVOLUTION
  blobs_lr: 0
  blobs_lr: 0
  weight_decay: 1
  weight_decay: 0
  deconvolution_param {
    pad: 2
    kernel_size: 5
    stride: 2
    output_height: 108
    output_width: 108
    output_channels: 32
  }
}
layers {
  bottom: "deconv1"
  top: "deconv1"
  name: "relu_deconv1"
  type: RELU
  relu_param {
    negative_slope: 0.3
  }
}
layers {
  bottom: "deconv1"
  top: "deconv0"
  name: "deconv0"
  type: DECONVOLUTION
  blobs_lr: 0
  blobs_lr: 0
  weight_decay: 1
  weight_decay: 0
  deconvolution_param {
    pad: 2
    kernel_size: 5
    stride: 2
    output_height: 216
    output_width: 216
    output_channels: 3
  }
}
layers {
  bottom: "deconv0"
  bottom: "target_ims"
  name: "loss"
  type: EUCLIDEAN_LOSS
}
I0813 07:40:10.573194 19298 net.cpp:65] Creating Layer source_ims
I0813 07:40:10.573199 19298 net.cpp:189] source_ims -> source_ims
I0813 07:40:10.573251 19298 data_layer.cpp:223] Opening lmdb /scr/r6/tgebru/inverting_conv/caffe_invert_alexnet/data/siggraph/tiny_summer_val_lmdb
I0813 07:40:10.573472 19298 data_layer.cpp:285] output data size: 2,3,227,227
I0813 07:40:10.573477 19298 data_layer.cpp:304] Loading mean file from/scr/r6/tgebru/timnit_caffe/data/ilsvrc12/imagenet_mean.binaryproto
I0813 07:40:10.575829 19298 net.cpp:84] Top shape: 2 3 227 227 (309174)
I0813 07:40:10.575835 19298 net.cpp:116] source_ims does not need backward computation.
I0813 07:40:10.575842 19298 net.cpp:65] Creating Layer target_ims
I0813 07:40:10.575846 19298 net.cpp:189] target_ims -> target_ims
I0813 07:40:10.575891 19298 data_layer.cpp:223] Opening lmdb /scr/r6/tgebru/inverting_conv/caffe_invert_alexnet/data/siggraph/tiny_summer_val_lmdb
I0813 07:40:10.575973 19298 data_layer.cpp:285] output data size: 2,3,216,216
I0813 07:40:10.575976 19298 data_layer.cpp:304] Loading mean file from/scr/r6/tgebru/timnit_caffe/data/ilsvrc12/imagenet_mean.binaryproto
I0813 07:40:10.578640 19298 net.cpp:84] Top shape: 2 3 216 216 (279936)
I0813 07:40:10.578646 19298 net.cpp:116] target_ims does not need backward computation.
I0813 07:40:10.578670 19298 net.cpp:65] Creating Layer conv1
I0813 07:40:10.578675 19298 net.cpp:228] conv1 <- source_ims
I0813 07:40:10.578680 19298 net.cpp:189] conv1 -> conv1
I0813 07:40:10.579921 19298 net.cpp:84] Top shape: 2 96 55 55 (580800)
I0813 07:40:10.579926 19298 net.cpp:116] conv1 does not need backward computation.
I0813 07:40:10.579931 19298 net.cpp:65] Creating Layer relu1
I0813 07:40:10.579933 19298 net.cpp:228] relu1 <- conv1
I0813 07:40:10.579937 19298 net.cpp:179] relu1 -> conv1 (in-place)
I0813 07:40:10.579942 19298 net.cpp:84] Top shape: 2 96 55 55 (580800)
I0813 07:40:10.579946 19298 net.cpp:116] relu1 does not need backward computation.
I0813 07:40:10.579949 19298 net.cpp:65] Creating Layer pool1
I0813 07:40:10.579952 19298 net.cpp:228] pool1 <- conv1
I0813 07:40:10.579957 19298 net.cpp:189] pool1 -> pool1
I0813 07:40:10.579962 19298 net.cpp:84] Top shape: 2 96 27 27 (139968)
I0813 07:40:10.579964 19298 net.cpp:116] pool1 does not need backward computation.
I0813 07:40:10.579969 19298 net.cpp:65] Creating Layer norm1
I0813 07:40:10.579972 19298 net.cpp:228] norm1 <- pool1
I0813 07:40:10.579975 19298 net.cpp:189] norm1 -> norm1
I0813 07:40:10.579982 19298 net.cpp:84] Top shape: 2 96 27 27 (139968)
I0813 07:40:10.579984 19298 net.cpp:116] norm1 does not need backward computation.
I0813 07:40:10.579988 19298 net.cpp:65] Creating Layer Rconv6
I0813 07:40:10.579990 19298 net.cpp:228] Rconv6 <- norm1
I0813 07:40:10.579994 19298 net.cpp:189] Rconv6 -> Rconv6
I0813 07:40:10.580554 19298 net.cpp:84] Top shape: 2 256 27 27 (373248)
I0813 07:40:10.580559 19298 net.cpp:116] Rconv6 does not need backward computation.
I0813 07:40:10.580562 19298 net.cpp:65] Creating Layer Rrelu6
I0813 07:40:10.580565 19298 net.cpp:228] Rrelu6 <- Rconv6
I0813 07:40:10.580569 19298 net.cpp:179] Rrelu6 -> Rconv6 (in-place)
I0813 07:40:10.580574 19298 net.cpp:84] Top shape: 2 256 27 27 (373248)
I0813 07:40:10.580577 19298 net.cpp:116] Rrelu6 does not need backward computation.
I0813 07:40:10.580581 19298 net.cpp:65] Creating Layer Rconv7
I0813 07:40:10.580585 19298 net.cpp:228] Rconv7 <- Rconv6
I0813 07:40:10.580588 19298 net.cpp:189] Rconv7 -> Rconv7
I0813 07:40:10.581318 19298 net.cpp:84] Top shape: 2 256 27 27 (373248)
I0813 07:40:10.581323 19298 net.cpp:116] Rconv7 does not need backward computation.
I0813 07:40:10.581326 19298 net.cpp:65] Creating Layer Rrelu7
I0813 07:40:10.581329 19298 net.cpp:228] Rrelu7 <- Rconv7
I0813 07:40:10.581333 19298 net.cpp:179] Rrelu7 -> Rconv7 (in-place)
I0813 07:40:10.581338 19298 net.cpp:84] Top shape: 2 256 27 27 (373248)
I0813 07:40:10.581341 19298 net.cpp:116] Rrelu7 does not need backward computation.
I0813 07:40:10.581344 19298 net.cpp:65] Creating Layer Rconv8
I0813 07:40:10.581346 19298 net.cpp:228] Rconv8 <- Rconv7
I0813 07:40:10.581351 19298 net.cpp:189] Rconv8 -> Rconv8
I0813 07:40:10.582083 19298 net.cpp:84] Top shape: 2 256 27 27 (373248)
I0813 07:40:10.582088 19298 net.cpp:116] Rconv8 does not need backward computation.
I0813 07:40:10.582092 19298 net.cpp:65] Creating Layer Rrelu8
I0813 07:40:10.582094 19298 net.cpp:228] Rrelu8 <- Rconv8
I0813 07:40:10.582098 19298 net.cpp:179] Rrelu8 -> Rconv8 (in-place)
I0813 07:40:10.582103 19298 net.cpp:84] Top shape: 2 256 27 27 (373248)
I0813 07:40:10.582104 19298 net.cpp:116] Rrelu8 does not need backward computation.
I0813 07:40:10.582108 19298 net.cpp:65] Creating Layer deconv2
I0813 07:40:10.582111 19298 net.cpp:228] deconv2 <- Rconv8
I0813 07:40:10.582114 19298 net.cpp:189] deconv2 -> deconv2
I0813 07:40:10.583123 19298 net.cpp:84] Top shape: 2 64 54 54 (373248)
I0813 07:40:10.583127 19298 net.cpp:116] deconv2 does not need backward computation.
I0813 07:40:10.583132 19298 net.cpp:65] Creating Layer relu_deconv2
I0813 07:40:10.583134 19298 net.cpp:228] relu_deconv2 <- deconv2
I0813 07:40:10.583138 19298 net.cpp:179] relu_deconv2 -> deconv2 (in-place)
I0813 07:40:10.583142 19298 net.cpp:84] Top shape: 2 64 54 54 (373248)
I0813 07:40:10.583145 19298 net.cpp:116] relu_deconv2 does not need backward computation.
I0813 07:40:10.583160 19298 net.cpp:65] Creating Layer deconv1
I0813 07:40:10.583163 19298 net.cpp:228] deconv1 <- deconv2
I0813 07:40:10.583168 19298 net.cpp:189] deconv1 -> deconv1
I0813 07:40:10.583307 19298 net.cpp:84] Top shape: 2 32 108 108 (746496)
I0813 07:40:10.583310 19298 net.cpp:116] deconv1 does not need backward computation.
I0813 07:40:10.583314 19298 net.cpp:65] Creating Layer relu_deconv1
I0813 07:40:10.583317 19298 net.cpp:228] relu_deconv1 <- deconv1
I0813 07:40:10.583322 19298 net.cpp:179] relu_deconv1 -> deconv1 (in-place)
I0813 07:40:10.583325 19298 net.cpp:84] Top shape: 2 32 108 108 (746496)
I0813 07:40:10.583328 19298 net.cpp:116] relu_deconv1 does not need backward computation.
I0813 07:40:10.583333 19298 net.cpp:65] Creating Layer deconv0
I0813 07:40:10.583336 19298 net.cpp:228] deconv0 <- deconv1
I0813 07:40:10.583340 19298 net.cpp:189] deconv0 -> deconv0
I0813 07:40:10.583359 19298 net.cpp:84] Top shape: 2 3 216 216 (279936)
I0813 07:40:10.583362 19298 net.cpp:116] deconv0 does not need backward computation.
I0813 07:40:10.583366 19298 net.cpp:65] Creating Layer loss
I0813 07:40:10.583369 19298 net.cpp:228] loss <- deconv0
I0813 07:40:10.583372 19298 net.cpp:228] loss <- target_ims
I0813 07:40:10.583376 19298 net.cpp:116] loss does not need backward computation.
I0813 07:40:10.583389 19298 net.cpp:238] Collecting Learning Rate and Weight Decay.
…
