…
    source: "/scr/r6/tgebru/inverting_conv/caffe_invert_alexnet/data/siggraph/tiny_summer_train_lmdb"
    mean_file: "/scr/r6/tgebru/timnit_caffe/data/ilsvrc12/imagenet_mean.binaryproto"
    batch_size: 12
    crop_size: 227
    mirror: false
    backend: LMDB
  }
}
layers {
  top: "target_ims"
  name: "target_ims"
  type: DATA
  data_param {
    source: "/scr/r6/tgebru/inverting_conv/caffe_invert_alexnet/data/siggraph/tiny_summer_train_lmdb"
    mean_file: "/scr/r6/tgebru/timnit_caffe/data/ilsvrc12/imagenet_mean.binaryproto"
    batch_size: 12
    crop_size: 216
    mirror: false
    backend: LMDB
  }
}
layers {
  bottom: "source_ims"
  top: "conv1"
  name: "conv1"
  type: CONVOLUTION
  blobs_lr: 0
  blobs_lr: 0
  weight_decay: 1
  weight_decay: 0
  convolution_param {
    num_output: 96
    kernel_size: 11
    stride: 4
    weight_filler {
      type: "gaussian"
      std: 0.01
    }
    bias_filler {
      type: "constant"
      value: 0
    }
  }
}
layers {
  bottom: "conv1"
  top: "conv1"
  name: "relu1"
  type: RELU
}
layers {
  bottom: "conv1"
  top: "pool1"
  name: "pool1"
  type: POOLING
  pooling_param {
    pool: MAX
    kernel_size: 3
    stride: 2
  }
}
layers {
  bottom: "pool1"
  top: "norm1"
  name: "norm1"
  type: LRN
  lrn_param {
    local_size: 5
    alpha: 0.0001
    beta: 0.75
  }
}
layers {
  bottom: "norm1"
  top: "Rconv6"
  name: "Rconv6"
  type: CONVOLUTION
  blobs_lr: 1
  blobs_lr: 2
  weight_decay: 1
  weight_decay: 0
  convolution_param {
    num_output: 256
    pad: 1
    kernel_size: 3
  }
}
layers {
  bottom: "Rconv6"
  top: "Rconv6"
  name: "Rrelu6"
  type: RELU
}
layers {
  bottom: "Rconv6"
  top: "Rconv7"
  name: "Rconv7"
  type: CONVOLUTION
  blobs_lr: 1
  blobs_lr: 2
  weight_decay: 1
  weight_decay: 0
  convolution_param {
    num_output: 256
    pad: 1
    kernel_size: 3
    group: 2
  }
}
layers {
  bottom: "Rconv7"
  top: "Rconv7"
  name: "Rrelu7"
  type: RELU
}
layers {
  bottom: "Rconv7"
  top: "Rconv8"
  name: "Rconv8"
  type: CONVOLUTION
  blobs_lr: 1
  blobs_lr: 2
  weight_decay: 1
  weight_decay: 0
  convolution_param {
    num_output: 256
    pad: 1
    kernel_size: 3
    group: 2
  }
}
layers {
  bottom: "Rconv8"
  top: "Rconv8"
  name: "Rrelu8"
  type: RELU
}
layers {
  bottom: "Rconv8"
  top: "deconv2"
  name: "deconv2"
  type: DECONVOLUTION
  blobs_lr: 1
  blobs_lr: 2
  weight_decay: 1
  weight_decay: 0
  deconvolution_param {
    pad: 2
    kernel_size: 5
    stride: 2
    output_height: 54
    output_width: 54
    output_channels: 64
  }
}
layers {
  bottom: "deconv2"
  top: "deconv2"
  name: "relu_deconv2"
  type: RELU
  relu_param {
    negative_slope: 0.3
  }
}
layers {
  bottom: "deconv2"
  top: "deconv1"
  name: "deconv1"
  type: DECONVOLUTION
  blobs_lr: 1
  blobs_lr: 2
  weight_decay: 1
  weight_decay: 0
  deconvolution_param {
    pad: 2
    kernel_size: 5
    stride: 2
    output_height: 108
    output_width: 108
    output_channels: 32
  }
}
layers {
  bottom: "deconv1"
  top: "deconv1"
  name: "relu_deconv1"
  type: RELU
  relu_param {
    negative_slope: 0.3
  }
}
layers {
  bottom: "deconv1"
  top: "deconv0"
  name: "deconv0"
  type: DECONVOLUTION
  blobs_lr: 1
  blobs_lr: 2
  weight_decay: 1
  weight_decay: 1
  deconvolution_param {
    pad: 2
    kernel_size: 5
    stride: 2
    output_height: 216
    output_width: 216
    output_channels: 3
  }
}
layers {
  bottom: "deconv0"
  bottom: "target_ims"
  name: "loss"
  type: EUCLIDEAN_LOSS
}
I0812 15:26:56.687423  7271 net.cpp:65] Creating Layer source_ims
I0812 15:26:56.687432  7271 net.cpp:189] source_ims -> source_ims
I0812 15:26:56.687536  7271 data_layer.cpp:223] Opening lmdb /scr/r6/tgebru/inverting_conv/caffe_invert_alexnet/data/siggraph/tiny_summer_train_lmdb
I0812 15:26:56.687744  7271 data_layer.cpp:285] output data size: 12,3,227,227
I0812 15:26:56.687752  7271 data_layer.cpp:304] Loading mean file from/scr/r6/tgebru/timnit_caffe/data/ilsvrc12/imagenet_mean.binaryproto
I0812 15:26:56.692945  7271 net.cpp:84] Top shape: 12 3 227 227 (1855044)
I0812 15:26:56.692953  7271 net.cpp:116] source_ims does not need backward computation.
I0812 15:26:56.692960  7271 net.cpp:65] Creating Layer target_ims
I0812 15:26:56.692963  7271 net.cpp:189] target_ims -> target_ims
I0812 15:26:56.693136  7271 data_layer.cpp:223] Opening lmdb /scr/r6/tgebru/inverting_conv/caffe_invert_alexnet/data/siggraph/tiny_summer_train_lmdb
I0812 15:26:56.693279  7271 data_layer.cpp:285] output data size: 12,3,216,216
I0812 15:26:56.693284  7271 data_layer.cpp:304] Loading mean file from/scr/r6/tgebru/timnit_caffe/data/ilsvrc12/imagenet_mean.binaryproto
I0812 15:26:56.697784  7271 net.cpp:84] Top shape: 12 3 216 216 (1679616)
I0812 15:26:56.697793  7271 net.cpp:116] target_ims does not need backward computation.
I0812 15:26:56.697806  7271 net.cpp:65] Creating Layer conv1
I0812 15:26:56.697810  7271 net.cpp:228] conv1 <- source_ims
I0812 15:26:56.697877  7271 net.cpp:189] conv1 -> conv1
I0812 15:26:56.699167  7271 net.cpp:84] Top shape: 12 96 55 55 (3484800)
I0812 15:26:56.699173  7271 net.cpp:116] conv1 does not need backward computation.
I0812 15:26:56.699178  7271 net.cpp:65] Creating Layer relu1
I0812 15:26:56.699182  7271 net.cpp:228] relu1 <- conv1
I0812 15:26:56.699187  7271 net.cpp:179] relu1 -> conv1 (in-place)
I0812 15:26:56.699195  7271 net.cpp:84] Top shape: 12 96 55 55 (3484800)
I0812 15:26:56.699198  7271 net.cpp:116] relu1 does not need backward computation.
I0812 15:26:56.699204  7271 net.cpp:65] Creating Layer pool1
I0812 15:26:56.699206  7271 net.cpp:228] pool1 <- conv1
I0812 15:26:56.699211  7271 net.cpp:189] pool1 -> pool1
I0812 15:26:56.699223  7271 net.cpp:84] Top shape: 12 96 27 27 (839808)
I0812 15:26:56.699225  7271 net.cpp:116] pool1 does not need backward computation.
I0812 15:26:56.699230  7271 net.cpp:65] Creating Layer norm1
I0812 15:26:56.699234  7271 net.cpp:228] norm1 <- pool1
I0812 15:26:56.699236  7271 net.cpp:189] norm1 -> norm1
I0812 15:26:56.699245  7271 net.cpp:84] Top shape: 12 96 27 27 (839808)
I0812 15:26:56.699249  7271 net.cpp:116] norm1 does not need backward computation.
I0812 15:26:56.699251  7271 net.cpp:65] Creating Layer Rconv6
I0812 15:26:56.699254  7271 net.cpp:228] Rconv6 <- norm1
I0812 15:26:56.699259  7271 net.cpp:189] Rconv6 -> Rconv6
I0812 15:26:56.699532  7271 net.cpp:84] Top shape: 12 256 27 27 (2239488)
I0812 15:26:56.699535  7271 net.cpp:111] Rconv6 needs backward computation.
I0812 15:26:56.699539  7271 net.cpp:65] Creating Layer Rrelu6
I0812 15:26:56.699543  7271 net.cpp:228] Rrelu6 <- Rconv6
I0812 15:26:56.699547  7271 net.cpp:179] Rrelu6 -> Rconv6 (in-place)
I0812 15:26:56.699551  7271 net.cpp:84] Top shape: 12 256 27 27 (2239488)
I0812 15:26:56.699554  7271 net.cpp:111] Rrelu6 needs backward computation.
I0812 15:26:56.699558  7271 net.cpp:65] Creating Layer Rconv7
I0812 15:26:56.699561  7271 net.cpp:228] Rconv7 <- Rconv6
I0812 15:26:56.699565  7271 net.cpp:189] Rconv7 -> Rconv7
I0812 15:26:56.700371  7271 net.cpp:84] Top shape: 12 256 27 27 (2239488)
I0812 15:26:56.700377  7271 net.cpp:111] Rconv7 needs backward computation.
I0812 15:26:56.700381  7271 net.cpp:65] Creating Layer Rrelu7
I0812 15:26:56.700384  7271 net.cpp:228] Rrelu7 <- Rconv7
I0812 15:26:56.700409  7271 net.cpp:179] Rrelu7 -> Rconv7 (in-place)
I0812 15:26:56.700415  7271 net.cpp:84] Top shape: 12 256 27 27 (2239488)
I0812 15:26:56.700417  7271 net.cpp:111] Rrelu7 needs backward computation.
I0812 15:26:56.700422  7271 net.cpp:65] Creating Layer Rconv8
I0812 15:26:56.700424  7271 net.cpp:228] Rconv8 <- Rconv7
I0812 15:26:56.700428  7271 net.cpp:189] Rconv8 -> Rconv8
I0812 15:26:56.701267  7271 net.cpp:84] Top shape: 12 256 27 27 (2239488)
I0812 15:26:56.701272  7271 net.cpp:111] Rconv8 needs backward computation.
I0812 15:26:56.701275  7271 net.cpp:65] Creating Layer Rrelu8
I0812 15:26:56.701278  7271 net.cpp:228] Rrelu8 <- Rconv8
I0812 15:26:56.701282  7271 net.cpp:179] Rrelu8 -> Rconv8 (in-place)
I0812 15:26:56.701287  7271 net.cpp:84] Top shape: 12 256 27 27 (2239488)
I0812 15:26:56.701288  7271 net.cpp:111] Rrelu8 needs backward computation.
I0812 15:26:56.701292  7271 net.cpp:65] Creating Layer deconv2
I0812 15:26:56.701295  7271 net.cpp:228] deconv2 <- Rconv8
I0812 15:26:56.701298  7271 net.cpp:189] deconv2 -> deconv2
I0812 15:26:56.702395  7271 net.cpp:84] Top shape: 12 64 54 54 (2239488)
I0812 15:26:56.702400  7271 net.cpp:111] deconv2 needs backward computation.
I0812 15:26:56.702404  7271 net.cpp:65] Creating Layer relu_deconv2
I0812 15:26:56.702407  7271 net.cpp:228] relu_deconv2 <- deconv2
I0812 15:26:56.702411  7271 net.cpp:179] relu_deconv2 -> deconv2 (in-place)
I0812 15:26:56.702416  7271 net.cpp:84] Top shape: 12 64 54 54 (2239488)
I0812 15:26:56.702419  7271 net.cpp:111] relu_deconv2 needs backward computation.
I0812 15:26:56.702422  7271 net.cpp:65] Creating Layer deconv1
I0812 15:26:56.702425  7271 net.cpp:228] deconv1 <- deconv2
I0812 15:26:56.702430  7271 net.cpp:189] deconv1 -> deconv1
I0812 15:26:56.702602  7271 net.cpp:84] Top shape: 12 32 108 108 (4478976)
I0812 15:26:56.702606  7271 net.cpp:111] deconv1 needs backward computation.
I0812 15:26:56.702610  7271 net.cpp:65] Creating Layer relu_deconv1
I0812 15:26:56.702613  7271 net.cpp:228] relu_deconv1 <- deconv1
I0812 15:26:56.702617  7271 net.cpp:179] relu_deconv1 -> deconv1 (in-place)
I0812 15:26:56.702621  7271 net.cpp:84] Top shape: 12 32 108 108 (4478976)
I0812 15:26:56.702623  7271 net.cpp:111] relu_deconv1 needs backward computation.
I0812 15:26:56.702628  7271 net.cpp:65] Creating Layer deconv0
I0812 15:26:56.702631  7271 net.cpp:228] deconv0 <- deconv1
I0812 15:26:56.702636  7271 net.cpp:189] deconv0 -> deconv0
I0812 15:26:56.702658  7271 net.cpp:84] Top shape: 12 3 216 216 (1679616)
I0812 15:26:56.702661  7271 net.cpp:111] deconv0 needs backward computation.
I0812 15:26:56.702666  7271 net.cpp:65] Creating Layer loss
I0812 15:26:56.702667  7271 net.cpp:228] loss <- deconv0
I0812 15:26:56.702671  7271 net.cpp:228] loss <- target_ims
I0812 15:26:56.702679  7271 net.cpp:111] loss needs backward computation.
I0812 15:26:56.702692  7271 net.cpp:238] Collecting Learning Rate and Weight Decay.
…
    source: "/scr/r6/tgebru/inverting_conv/caffe_invert_alexnet/data/siggraph/tiny_summer_val_lmdb"
    mean_file: "/scr/r6/tgebru/timnit_caffe/data/ilsvrc12/imagenet_mean.binaryproto"
    batch_size: 2
    crop_size: 227
    mirror: false
    backend: LMDB
  }
}
layers {
  top: "target_ims"
  name: "target_ims"
  type: DATA
  data_param {
    source: "/scr/r6/tgebru/inverting_conv/caffe_invert_alexnet/data/siggraph/tiny_summer_val_lmdb"
    mean_file: "/scr/r6/tgebru/timnit_caffe/data/ilsvrc12/imagenet_mean.binaryproto"
    batch_size: 2
    crop_size: 216
    mirror: false
    backend: LMDB
  }
}
layers {
  bottom: "source_ims"
  top: "conv1"
  name: "conv1"
  type: CONVOLUTION
  blobs_lr: 0
  blobs_lr: 0
  weight_decay: 1
  weight_decay: 0
  convolution_param {
    num_output: 96
    kernel_size: 11
    stride: 4
    weight_filler {
      type: "gaussian"
      std: 0.01
    }
    bias_filler {
      type: "constant"
      value: 0
    }
  }
}
layers {
  bottom: "conv1"
  top: "conv1"
  name: "relu1"
  type: RELU
}
layers {
  bottom: "conv1"
  top: "pool1"
  name: "pool1"
  type: POOLING
  pooling_param {
    pool: MAX
    kernel_size: 3
    stride: 2
  }
}
layers {
  bottom: "pool1"
  top: "norm1"
  name: "norm1"
  type: LRN
  lrn_param {
    local_size: 5
    alpha: 0.0001
    beta: 0.75
  }
}
layers {
  bottom: "norm1"
  top: "Rconv6"
  name: "Rconv6"
  type: CONVOLUTION
  blobs_lr: 0
  blobs_lr: 0
  weight_decay: 1
  weight_decay: 0
  convolution_param {
    num_output: 256
    pad: 1
    kernel_size: 3
  }
}
layers {
  bottom: "Rconv6"
  top: "Rconv6"
  name: "Rrelu6"
  type: RELU
}
layers {
  bottom: "Rconv6"
  top: "Rconv7"
  name: "Rconv7"
  type: CONVOLUTION
  blobs_lr: 0
  blobs_lr: 0
  weight_decay: 1
  weight_decay: 0
  convolution_param {
    num_output: 256
    pad: 1
    kernel_size: 3
    group: 2
  }
}
layers {
  bottom: "Rconv7"
  top: "Rconv7"
  name: "Rrelu7"
  type: RELU
}
layers {
  bottom: "Rconv7"
  top: "Rconv8"
  name: "Rconv8"
  type: CONVOLUTION
  blobs_lr: 0
  blobs_lr: 0
  weight_decay: 1
  weight_decay: 0
  convolution_param {
    num_output: 256
    pad: 1
    kernel_size: 3
    group: 2
  }
}
layers {
  bottom: "Rconv8"
  top: "Rconv8"
  name: "Rrelu8"
  type: RELU
}
layers {
  bottom: "Rconv8"
  top: "deconv2"
  name: "deconv2"
  type: DECONVOLUTION
  blobs_lr: 0
  blobs_lr: 0
  weight_decay: 1
  weight_decay: 0
  deconvolution_param {
    pad: 2
    kernel_size: 5
    stride: 2
    output_height: 54
    output_width: 54
    output_channels: 64
  }
}
layers {
  bottom: "deconv2"
  top: "deconv2"
  name: "relu_deconv2"
  type: RELU
  relu_param {
    negative_slope: 0.3
  }
}
layers {
  bottom: "deconv2"
  top: "deconv1"
  name: "deconv1"
  type: DECONVOLUTION
  blobs_lr: 0
  blobs_lr: 0
  weight_decay: 1
  weight_decay: 0
  deconvolution_param {
    pad: 2
    kernel_size: 5
    stride: 2
    output_height: 108
    output_width: 108
    output_channels: 32
  }
}
layers {
  bottom: "deconv1"
  top: "deconv1"
  name: "relu_deconv1"
  type: RELU
  relu_param {
    negative_slope: 0.3
  }
}
layers {
  bottom: "deconv1"
  top: "deconv0"
  name: "deconv0"
  type: DECONVOLUTION
  blobs_lr: 0
  blobs_lr: 0
  weight_decay: 1
  weight_decay: 0
  deconvolution_param {
    pad: 2
    kernel_size: 5
    stride: 2
    output_height: 216
    output_width: 216
    output_channels: 3
  }
}
layers {
  bottom: "deconv0"
  bottom: "target_ims"
  name: "loss"
  type: EUCLIDEAN_LOSS
}
I0812 15:26:56.703402  7271 net.cpp:65] Creating Layer source_ims
I0812 15:26:56.703407  7271 net.cpp:189] source_ims -> source_ims
I0812 15:26:56.703461  7271 data_layer.cpp:223] Opening lmdb /scr/r6/tgebru/inverting_conv/caffe_invert_alexnet/data/siggraph/tiny_summer_val_lmdb
I0812 15:26:56.703672  7271 data_layer.cpp:285] output data size: 2,3,227,227
I0812 15:26:56.703677  7271 data_layer.cpp:304] Loading mean file from/scr/r6/tgebru/timnit_caffe/data/ilsvrc12/imagenet_mean.binaryproto
I0812 15:26:56.706118  7271 net.cpp:84] Top shape: 2 3 227 227 (309174)
I0812 15:26:56.706125  7271 net.cpp:116] source_ims does not need backward computation.
I0812 15:26:56.706131  7271 net.cpp:65] Creating Layer target_ims
I0812 15:26:56.706135  7271 net.cpp:189] target_ims -> target_ims
I0812 15:26:56.706182  7271 data_layer.cpp:223] Opening lmdb /scr/r6/tgebru/inverting_conv/caffe_invert_alexnet/data/siggraph/tiny_summer_val_lmdb
I0812 15:26:56.706259  7271 data_layer.cpp:285] output data size: 2,3,216,216
I0812 15:26:56.706262  7271 data_layer.cpp:304] Loading mean file from/scr/r6/tgebru/timnit_caffe/data/ilsvrc12/imagenet_mean.binaryproto
I0812 15:26:56.708973  7271 net.cpp:84] Top shape: 2 3 216 216 (279936)
I0812 15:26:56.708979  7271 net.cpp:116] target_ims does not need backward computation.
I0812 15:26:56.709002  7271 net.cpp:65] Creating Layer conv1
I0812 15:26:56.709007  7271 net.cpp:228] conv1 <- source_ims
I0812 15:26:56.709012  7271 net.cpp:189] conv1 -> conv1
I0812 15:26:56.710258  7271 net.cpp:84] Top shape: 2 96 55 55 (580800)
I0812 15:26:56.710263  7271 net.cpp:116] conv1 does not need backward computation.
I0812 15:26:56.710268  7271 net.cpp:65] Creating Layer relu1
I0812 15:26:56.710270  7271 net.cpp:228] relu1 <- conv1
I0812 15:26:56.710275  7271 net.cpp:179] relu1 -> conv1 (in-place)
I0812 15:26:56.710279  7271 net.cpp:84] Top shape: 2 96 55 55 (580800)
I0812 15:26:56.710283  7271 net.cpp:116] relu1 does not need backward computation.
I0812 15:26:56.710288  7271 net.cpp:65] Creating Layer pool1
I0812 15:26:56.710289  7271 net.cpp:228] pool1 <- conv1
I0812 15:26:56.710294  7271 net.cpp:189] pool1 -> pool1
I0812 15:26:56.710299  7271 net.cpp:84] Top shape: 2 96 27 27 (139968)
I0812 15:26:56.710302  7271 net.cpp:116] pool1 does not need backward computation.
I0812 15:26:56.710306  7271 net.cpp:65] Creating Layer norm1
I0812 15:26:56.710309  7271 net.cpp:228] norm1 <- pool1
I0812 15:26:56.710312  7271 net.cpp:189] norm1 -> norm1
I0812 15:26:56.710319  7271 net.cpp:84] Top shape: 2 96 27 27 (139968)
I0812 15:26:56.710321  7271 net.cpp:116] norm1 does not need backward computation.
I0812 15:26:56.710325  7271 net.cpp:65] Creating Layer Rconv6
I0812 15:26:56.710327  7271 net.cpp:228] Rconv6 <- norm1
I0812 15:26:56.710331  7271 net.cpp:189] Rconv6 -> Rconv6
I0812 15:26:56.710902  7271 net.cpp:84] Top shape: 2 256 27 27 (373248)
I0812 15:26:56.710907  7271 net.cpp:116] Rconv6 does not need backward computation.
I0812 15:26:56.710911  7271 net.cpp:65] Creating Layer Rrelu6
I0812 15:26:56.710913  7271 net.cpp:228] Rrelu6 <- Rconv6
I0812 15:26:56.710917  7271 net.cpp:179] Rrelu6 -> Rconv6 (in-place)
I0812 15:26:56.710922  7271 net.cpp:84] Top shape: 2 256 27 27 (373248)
I0812 15:26:56.710925  7271 net.cpp:116] Rrelu6 does not need backward computation.
I0812 15:26:56.710930  7271 net.cpp:65] Creating Layer Rconv7
I0812 15:26:56.710932  7271 net.cpp:228] Rconv7 <- Rconv6
I0812 15:26:56.710937  7271 net.cpp:189] Rconv7 -> Rconv7
I0812 15:26:56.711704  7271 net.cpp:84] Top shape: 2 256 27 27 (373248)
I0812 15:26:56.711709  7271 net.cpp:116] Rconv7 does not need backward computation.
I0812 15:26:56.711714  7271 net.cpp:65] Creating Layer Rrelu7
I0812 15:26:56.711716  7271 net.cpp:228] Rrelu7 <- Rconv7
I0812 15:26:56.711720  7271 net.cpp:179] Rrelu7 -> Rconv7 (in-place)
I0812 15:26:56.711724  7271 net.cpp:84] Top shape: 2 256 27 27 (373248)
I0812 15:26:56.711726  7271 net.cpp:116] Rrelu7 does not need backward computation.
I0812 15:26:56.711730  7271 net.cpp:65] Creating Layer Rconv8
I0812 15:26:56.711732  7271 net.cpp:228] Rconv8 <- Rconv7
I0812 15:26:56.711736  7271 net.cpp:189] Rconv8 -> Rconv8
I0812 15:26:56.712492  7271 net.cpp:84] Top shape: 2 256 27 27 (373248)
I0812 15:26:56.712496  7271 net.cpp:116] Rconv8 does not need backward computation.
I0812 15:26:56.712501  7271 net.cpp:65] Creating Layer Rrelu8
I0812 15:26:56.712503  7271 net.cpp:228] Rrelu8 <- Rconv8
I0812 15:26:56.712507  7271 net.cpp:179] Rrelu8 -> Rconv8 (in-place)
I0812 15:26:56.712510  7271 net.cpp:84] Top shape: 2 256 27 27 (373248)
I0812 15:26:56.712513  7271 net.cpp:116] Rrelu8 does not need backward computation.
I0812 15:26:56.712517  7271 net.cpp:65] Creating Layer deconv2
I0812 15:26:56.712519  7271 net.cpp:228] deconv2 <- Rconv8
I0812 15:26:56.712523  7271 net.cpp:189] deconv2 -> deconv2
I0812 15:26:56.713579  7271 net.cpp:84] Top shape: 2 64 54 54 (373248)
I0812 15:26:56.713584  7271 net.cpp:116] deconv2 does not need backward computation.
I0812 15:26:56.713588  7271 net.cpp:65] Creating Layer relu_deconv2
I0812 15:26:56.713592  7271 net.cpp:228] relu_deconv2 <- deconv2
I0812 15:26:56.713595  7271 net.cpp:179] relu_deconv2 -> deconv2 (in-place)
I0812 15:26:56.713599  7271 net.cpp:84] Top shape: 2 64 54 54 (373248)
I0812 15:26:56.713603  7271 net.cpp:116] relu_deconv2 does not need backward computation.
I0812 15:26:56.713618  7271 net.cpp:65] Creating Layer deconv1
I0812 15:26:56.713620  7271 net.cpp:228] deconv1 <- deconv2
I0812 15:26:56.713624  7271 net.cpp:189] deconv1 -> deconv1
I0812 15:26:56.713767  7271 net.cpp:84] Top shape: 2 32 108 108 (746496)
I0812 15:26:56.713770  7271 net.cpp:116] deconv1 does not need backward computation.
I0812 15:26:56.713774  7271 net.cpp:65] Creating Layer relu_deconv1
I0812 15:26:56.713776  7271 net.cpp:228] relu_deconv1 <- deconv1
I0812 15:26:56.713780  7271 net.cpp:179] relu_deconv1 -> deconv1 (in-place)
I0812 15:26:56.713785  7271 net.cpp:84] Top shape: 2 32 108 108 (746496)
I0812 15:26:56.713788  7271 net.cpp:116] relu_deconv1 does not need backward computation.
I0812 15:26:56.713793  7271 net.cpp:65] Creating Layer deconv0
I0812 15:26:56.713796  7271 net.cpp:228] deconv0 <- deconv1
I0812 15:26:56.713799  7271 net.cpp:189] deconv0 -> deconv0
I0812 15:26:56.713819  7271 net.cpp:84] Top shape: 2 3 216 216 (279936)
I0812 15:26:56.713821  7271 net.cpp:116] deconv0 does not need backward computation.
I0812 15:26:56.713825  7271 net.cpp:65] Creating Layer loss
I0812 15:26:56.713827  7271 net.cpp:228] loss <- deconv0
I0812 15:26:56.713831  7271 net.cpp:228] loss <- target_ims
I0812 15:26:56.713835  7271 net.cpp:116] loss does not need backward computation.
I0812 15:26:56.713847  7271 net.cpp:238] Collecting Learning Rate and Weight Decay.
…
