…
    source: "/scr/r6/tgebru/inverting_conv/caffe_invert_alexnet/data/siggraph/tiny_winter_train_lmdb"
    mean_file: "/scr/r6/tgebru/timnit_caffe/data/ilsvrc12/imagenet_mean.binaryproto"
    batch_size: 12
    crop_size: 227
    mirror: false
    backend: LMDB
  }
}
layers {
  top: "target_ims"
  name: "target_ims"
  type: DATA
  data_param {
    source: "/scr/r6/tgebru/inverting_conv/caffe_invert_alexnet/data/siggraph/tiny_summer_train_lmdb"
    mean_file: "/scr/r6/tgebru/timnit_caffe/data/ilsvrc12/imagenet_mean.binaryproto"
    batch_size: 12
    crop_size: 216
    mirror: false
    backend: LMDB
  }
}
layers {
  bottom: "source_ims"
  top: "conv1"
  name: "conv1"
  type: CONVOLUTION
  blobs_lr: 0
  blobs_lr: 0
  weight_decay: 1
  weight_decay: 0
  convolution_param {
    num_output: 96
    kernel_size: 11
    stride: 4
    weight_filler {
      type: "gaussian"
      std: 0.01
    }
    bias_filler {
      type: "constant"
      value: 0
    }
  }
}
layers {
  bottom: "conv1"
  top: "conv1"
  name: "relu1"
  type: RELU
}
layers {
  bottom: "conv1"
  top: "pool1"
  name: "pool1"
  type: POOLING
  pooling_param {
    pool: MAX
    kernel_size: 3
    stride: 2
  }
}
layers {
  bottom: "pool1"
  top: "norm1"
  name: "norm1"
  type: LRN
  lrn_param {
    local_size: 5
    alpha: 0.0001
    beta: 0.75
  }
}
layers {
  bottom: "norm1"
  top: "Rconv6"
  name: "Rconv6"
  type: CONVOLUTION
  blobs_lr: 1
  blobs_lr: 2
  weight_decay: 1
  weight_decay: 0
  convolution_param {
    num_output: 256
    pad: 1
    kernel_size: 3
  }
}
layers {
  bottom: "Rconv6"
  top: "Rconv6"
  name: "Rrelu6"
  type: RELU
}
layers {
  bottom: "Rconv6"
  top: "Rconv7"
  name: "Rconv7"
  type: CONVOLUTION
  blobs_lr: 1
  blobs_lr: 2
  weight_decay: 1
  weight_decay: 0
  convolution_param {
    num_output: 256
    pad: 1
    kernel_size: 3
    group: 2
  }
}
layers {
  bottom: "Rconv7"
  top: "Rconv7"
  name: "Rrelu7"
  type: RELU
}
layers {
  bottom: "Rconv7"
  top: "Rconv8"
  name: "Rconv8"
  type: CONVOLUTION
  blobs_lr: 1
  blobs_lr: 2
  weight_decay: 1
  weight_decay: 0
  convolution_param {
    num_output: 256
    pad: 1
    kernel_size: 3
    group: 2
  }
}
layers {
  bottom: "Rconv8"
  top: "Rconv8"
  name: "Rrelu8"
  type: RELU
}
layers {
  bottom: "Rconv8"
  top: "deconv2"
  name: "deconv2"
  type: DECONVOLUTION
  blobs_lr: 1
  blobs_lr: 2
  weight_decay: 1
  weight_decay: 0
  deconvolution_param {
    pad: 2
    kernel_size: 5
    stride: 2
    output_height: 54
    output_width: 54
    output_channels: 64
  }
}
layers {
  bottom: "deconv2"
  top: "deconv2"
  name: "relu_deconv2"
  type: RELU
  relu_param {
    negative_slope: 0.3
  }
}
layers {
  bottom: "deconv2"
  top: "deconv1"
  name: "deconv1"
  type: DECONVOLUTION
  blobs_lr: 1
  blobs_lr: 2
  weight_decay: 1
  weight_decay: 0
  deconvolution_param {
    pad: 2
    kernel_size: 5
    stride: 2
    output_height: 108
    output_width: 108
    output_channels: 32
  }
}
layers {
  bottom: "deconv1"
  top: "deconv1"
  name: "relu_deconv1"
  type: RELU
  relu_param {
    negative_slope: 0.3
  }
}
layers {
  bottom: "deconv1"
  top: "deconv0"
  name: "deconv0"
  type: DECONVOLUTION
  blobs_lr: 1
  blobs_lr: 2
  weight_decay: 1
  weight_decay: 1
  deconvolution_param {
    pad: 2
    kernel_size: 5
    stride: 2
    output_height: 216
    output_width: 216
    output_channels: 3
  }
}
layers {
  bottom: "deconv0"
  bottom: "target_ims"
  name: "loss"
  type: EUCLIDEAN_LOSS
}
I0813 05:12:42.243981  1463 net.cpp:65] Creating Layer source_ims
I0813 05:12:42.243989  1463 net.cpp:189] source_ims -> source_ims
I0813 05:12:42.244091  1463 data_layer.cpp:223] Opening lmdb /scr/r6/tgebru/inverting_conv/caffe_invert_alexnet/data/siggraph/tiny_winter_train_lmdb
I0813 05:12:42.244312  1463 data_layer.cpp:285] output data size: 12,3,227,227
I0813 05:12:42.244318  1463 data_layer.cpp:304] Loading mean file from/scr/r6/tgebru/timnit_caffe/data/ilsvrc12/imagenet_mean.binaryproto
I0813 05:12:42.248924  1463 net.cpp:84] Top shape: 12 3 227 227 (1855044)
I0813 05:12:42.248931  1463 net.cpp:116] source_ims does not need backward computation.
I0813 05:12:42.248939  1463 net.cpp:65] Creating Layer target_ims
I0813 05:12:42.248942  1463 net.cpp:189] target_ims -> target_ims
I0813 05:12:42.249115  1463 data_layer.cpp:223] Opening lmdb /scr/r6/tgebru/inverting_conv/caffe_invert_alexnet/data/siggraph/tiny_summer_train_lmdb
I0813 05:12:42.249311  1463 data_layer.cpp:285] output data size: 12,3,216,216
I0813 05:12:42.249316  1463 data_layer.cpp:304] Loading mean file from/scr/r6/tgebru/timnit_caffe/data/ilsvrc12/imagenet_mean.binaryproto
I0813 05:12:42.254118  1463 net.cpp:84] Top shape: 12 3 216 216 (1679616)
I0813 05:12:42.254130  1463 net.cpp:116] target_ims does not need backward computation.
I0813 05:12:42.254144  1463 net.cpp:65] Creating Layer conv1
I0813 05:12:42.254149  1463 net.cpp:228] conv1 <- source_ims
I0813 05:12:42.254256  1463 net.cpp:189] conv1 -> conv1
I0813 05:12:42.255650  1463 net.cpp:84] Top shape: 12 96 55 55 (3484800)
I0813 05:12:42.255656  1463 net.cpp:116] conv1 does not need backward computation.
I0813 05:12:42.255662  1463 net.cpp:65] Creating Layer relu1
I0813 05:12:42.255666  1463 net.cpp:228] relu1 <- conv1
I0813 05:12:42.255671  1463 net.cpp:179] relu1 -> conv1 (in-place)
I0813 05:12:42.255679  1463 net.cpp:84] Top shape: 12 96 55 55 (3484800)
I0813 05:12:42.255682  1463 net.cpp:116] relu1 does not need backward computation.
I0813 05:12:42.255687  1463 net.cpp:65] Creating Layer pool1
I0813 05:12:42.255691  1463 net.cpp:228] pool1 <- conv1
I0813 05:12:42.255694  1463 net.cpp:189] pool1 -> pool1
I0813 05:12:42.255707  1463 net.cpp:84] Top shape: 12 96 27 27 (839808)
I0813 05:12:42.255709  1463 net.cpp:116] pool1 does not need backward computation.
I0813 05:12:42.255715  1463 net.cpp:65] Creating Layer norm1
I0813 05:12:42.255717  1463 net.cpp:228] norm1 <- pool1
I0813 05:12:42.255722  1463 net.cpp:189] norm1 -> norm1
I0813 05:12:42.255731  1463 net.cpp:84] Top shape: 12 96 27 27 (839808)
I0813 05:12:42.255733  1463 net.cpp:116] norm1 does not need backward computation.
I0813 05:12:42.255739  1463 net.cpp:65] Creating Layer Rconv6
I0813 05:12:42.255743  1463 net.cpp:228] Rconv6 <- norm1
I0813 05:12:42.255748  1463 net.cpp:189] Rconv6 -> Rconv6
I0813 05:12:42.256005  1463 net.cpp:84] Top shape: 12 256 27 27 (2239488)
I0813 05:12:42.256008  1463 net.cpp:111] Rconv6 needs backward computation.
I0813 05:12:42.256013  1463 net.cpp:65] Creating Layer Rrelu6
I0813 05:12:42.256016  1463 net.cpp:228] Rrelu6 <- Rconv6
I0813 05:12:42.256021  1463 net.cpp:179] Rrelu6 -> Rconv6 (in-place)
I0813 05:12:42.256026  1463 net.cpp:84] Top shape: 12 256 27 27 (2239488)
I0813 05:12:42.256028  1463 net.cpp:111] Rrelu6 needs backward computation.
I0813 05:12:42.256033  1463 net.cpp:65] Creating Layer Rconv7
I0813 05:12:42.256036  1463 net.cpp:228] Rconv7 <- Rconv6
I0813 05:12:42.256042  1463 net.cpp:189] Rconv7 -> Rconv7
I0813 05:12:42.256734  1463 net.cpp:84] Top shape: 12 256 27 27 (2239488)
I0813 05:12:42.256739  1463 net.cpp:111] Rconv7 needs backward computation.
I0813 05:12:42.256743  1463 net.cpp:65] Creating Layer Rrelu7
I0813 05:12:42.256764  1463 net.cpp:228] Rrelu7 <- Rconv7
I0813 05:12:42.256770  1463 net.cpp:179] Rrelu7 -> Rconv7 (in-place)
I0813 05:12:42.256775  1463 net.cpp:84] Top shape: 12 256 27 27 (2239488)
I0813 05:12:42.256778  1463 net.cpp:111] Rrelu7 needs backward computation.
I0813 05:12:42.256783  1463 net.cpp:65] Creating Layer Rconv8
I0813 05:12:42.256785  1463 net.cpp:228] Rconv8 <- Rconv7
I0813 05:12:42.256789  1463 net.cpp:189] Rconv8 -> Rconv8
I0813 05:12:42.257623  1463 net.cpp:84] Top shape: 12 256 27 27 (2239488)
I0813 05:12:42.257628  1463 net.cpp:111] Rconv8 needs backward computation.
I0813 05:12:42.257633  1463 net.cpp:65] Creating Layer Rrelu8
I0813 05:12:42.257635  1463 net.cpp:228] Rrelu8 <- Rconv8
I0813 05:12:42.257639  1463 net.cpp:179] Rrelu8 -> Rconv8 (in-place)
I0813 05:12:42.257644  1463 net.cpp:84] Top shape: 12 256 27 27 (2239488)
I0813 05:12:42.257647  1463 net.cpp:111] Rrelu8 needs backward computation.
I0813 05:12:42.257652  1463 net.cpp:65] Creating Layer deconv2
I0813 05:12:42.257654  1463 net.cpp:228] deconv2 <- Rconv8
I0813 05:12:42.257658  1463 net.cpp:189] deconv2 -> deconv2
I0813 05:12:42.258777  1463 net.cpp:84] Top shape: 12 64 54 54 (2239488)
I0813 05:12:42.258782  1463 net.cpp:111] deconv2 needs backward computation.
I0813 05:12:42.258787  1463 net.cpp:65] Creating Layer relu_deconv2
I0813 05:12:42.258790  1463 net.cpp:228] relu_deconv2 <- deconv2
I0813 05:12:42.258795  1463 net.cpp:179] relu_deconv2 -> deconv2 (in-place)
I0813 05:12:42.258800  1463 net.cpp:84] Top shape: 12 64 54 54 (2239488)
I0813 05:12:42.258802  1463 net.cpp:111] relu_deconv2 needs backward computation.
I0813 05:12:42.258806  1463 net.cpp:65] Creating Layer deconv1
I0813 05:12:42.258808  1463 net.cpp:228] deconv1 <- deconv2
I0813 05:12:42.258812  1463 net.cpp:189] deconv1 -> deconv1
I0813 05:12:42.258955  1463 net.cpp:84] Top shape: 12 32 108 108 (4478976)
I0813 05:12:42.258958  1463 net.cpp:111] deconv1 needs backward computation.
I0813 05:12:42.258963  1463 net.cpp:65] Creating Layer relu_deconv1
I0813 05:12:42.258966  1463 net.cpp:228] relu_deconv1 <- deconv1
I0813 05:12:42.258970  1463 net.cpp:179] relu_deconv1 -> deconv1 (in-place)
I0813 05:12:42.258975  1463 net.cpp:84] Top shape: 12 32 108 108 (4478976)
I0813 05:12:42.258977  1463 net.cpp:111] relu_deconv1 needs backward computation.
I0813 05:12:42.258982  1463 net.cpp:65] Creating Layer deconv0
I0813 05:12:42.258985  1463 net.cpp:228] deconv0 <- deconv1
I0813 05:12:42.258990  1463 net.cpp:189] deconv0 -> deconv0
I0813 05:12:42.259034  1463 net.cpp:84] Top shape: 12 3 216 216 (1679616)
I0813 05:12:42.259038  1463 net.cpp:111] deconv0 needs backward computation.
I0813 05:12:42.259042  1463 net.cpp:65] Creating Layer loss
I0813 05:12:42.259044  1463 net.cpp:228] loss <- deconv0
I0813 05:12:42.259048  1463 net.cpp:228] loss <- target_ims
I0813 05:12:42.259057  1463 net.cpp:111] loss needs backward computation.
I0813 05:12:42.259069  1463 net.cpp:238] Collecting Learning Rate and Weight Decay.
…
    source: "/scr/r6/tgebru/inverting_conv/caffe_invert_alexnet/data/siggraph/tiny_winter_val_lmdb"
    mean_file: "/scr/r6/tgebru/timnit_caffe/data/ilsvrc12/imagenet_mean.binaryproto"
    batch_size: 2
    crop_size: 227
    mirror: false
    backend: LMDB
  }
}
layers {
  top: "target_ims"
  name: "target_ims"
  type: DATA
  data_param {
    source: "/scr/r6/tgebru/inverting_conv/caffe_invert_alexnet/data/siggraph/tiny_summer_val_lmdb"
    mean_file: "/scr/r6/tgebru/timnit_caffe/data/ilsvrc12/imagenet_mean.binaryproto"
    batch_size: 2
    crop_size: 216
    mirror: false
    backend: LMDB
  }
}
layers {
  bottom: "source_ims"
  top: "conv1"
  name: "conv1"
  type: CONVOLUTION
  blobs_lr: 0
  blobs_lr: 0
  weight_decay: 1
  weight_decay: 0
  convolution_param {
    num_output: 96
    kernel_size: 11
    stride: 4
    weight_filler {
      type: "gaussian"
      std: 0.01
    }
    bias_filler {
      type: "constant"
      value: 0
    }
  }
}
layers {
  bottom: "conv1"
  top: "conv1"
  name: "relu1"
  type: RELU
}
layers {
  bottom: "conv1"
  top: "pool1"
  name: "pool1"
  type: POOLING
  pooling_param {
    pool: MAX
    kernel_size: 3
    stride: 2
  }
}
layers {
  bottom: "pool1"
  top: "norm1"
  name: "norm1"
  type: LRN
  lrn_param {
    local_size: 5
    alpha: 0.0001
    beta: 0.75
  }
}
layers {
  bottom: "norm1"
  top: "Rconv6"
  name: "Rconv6"
  type: CONVOLUTION
  blobs_lr: 0
  blobs_lr: 0
  weight_decay: 1
  weight_decay: 0
  convolution_param {
    num_output: 256
    pad: 1
    kernel_size: 3
  }
}
layers {
  bottom: "Rconv6"
  top: "Rconv6"
  name: "Rrelu6"
  type: RELU
}
layers {
  bottom: "Rconv6"
  top: "Rconv7"
  name: "Rconv7"
  type: CONVOLUTION
  blobs_lr: 0
  blobs_lr: 0
  weight_decay: 1
  weight_decay: 0
  convolution_param {
    num_output: 256
    pad: 1
    kernel_size: 3
    group: 2
  }
}
layers {
  bottom: "Rconv7"
  top: "Rconv7"
  name: "Rrelu7"
  type: RELU
}
layers {
  bottom: "Rconv7"
  top: "Rconv8"
  name: "Rconv8"
  type: CONVOLUTION
  blobs_lr: 0
  blobs_lr: 0
  weight_decay: 1
  weight_decay: 0
  convolution_param {
    num_output: 256
    pad: 1
    kernel_size: 3
    group: 2
  }
}
layers {
  bottom: "Rconv8"
  top: "Rconv8"
  name: "Rrelu8"
  type: RELU
}
layers {
  bottom: "Rconv8"
  top: "deconv2"
  name: "deconv2"
  type: DECONVOLUTION
  blobs_lr: 0
  blobs_lr: 0
  weight_decay: 1
  weight_decay: 0
  deconvolution_param {
    pad: 2
    kernel_size: 5
    stride: 2
    output_height: 54
    output_width: 54
    output_channels: 64
  }
}
layers {
  bottom: "deconv2"
  top: "deconv2"
  name: "relu_deconv2"
  type: RELU
  relu_param {
    negative_slope: 0.3
  }
}
layers {
  bottom: "deconv2"
  top: "deconv1"
  name: "deconv1"
  type: DECONVOLUTION
  blobs_lr: 0
  blobs_lr: 0
  weight_decay: 1
  weight_decay: 0
  deconvolution_param {
    pad: 2
    kernel_size: 5
    stride: 2
    output_height: 108
    output_width: 108
    output_channels: 32
  }
}
layers {
  bottom: "deconv1"
  top: "deconv1"
  name: "relu_deconv1"
  type: RELU
  relu_param {
    negative_slope: 0.3
  }
}
layers {
  bottom: "deconv1"
  top: "deconv0"
  name: "deconv0"
  type: DECONVOLUTION
  blobs_lr: 0
  blobs_lr: 0
  weight_decay: 1
  weight_decay: 0
  deconvolution_param {
    pad: 2
    kernel_size: 5
    stride: 2
    output_height: 216
    output_width: 216
    output_channels: 3
  }
}
layers {
  bottom: "deconv0"
  bottom: "target_ims"
  name: "loss"
  type: EUCLIDEAN_LOSS
}
I0813 05:12:42.259810  1463 net.cpp:65] Creating Layer source_ims
I0813 05:12:42.259816  1463 net.cpp:189] source_ims -> source_ims
I0813 05:12:42.259868  1463 data_layer.cpp:223] Opening lmdb /scr/r6/tgebru/inverting_conv/caffe_invert_alexnet/data/siggraph/tiny_winter_val_lmdb
I0813 05:12:42.260056  1463 data_layer.cpp:285] output data size: 2,3,227,227
I0813 05:12:42.260061  1463 data_layer.cpp:304] Loading mean file from/scr/r6/tgebru/timnit_caffe/data/ilsvrc12/imagenet_mean.binaryproto
I0813 05:12:42.262456  1463 net.cpp:84] Top shape: 2 3 227 227 (309174)
I0813 05:12:42.262464  1463 net.cpp:116] source_ims does not need backward computation.
I0813 05:12:42.262470  1463 net.cpp:65] Creating Layer target_ims
I0813 05:12:42.262473  1463 net.cpp:189] target_ims -> target_ims
I0813 05:12:42.262526  1463 data_layer.cpp:223] Opening lmdb /scr/r6/tgebru/inverting_conv/caffe_invert_alexnet/data/siggraph/tiny_summer_val_lmdb
I0813 05:12:42.262738  1463 data_layer.cpp:285] output data size: 2,3,216,216
I0813 05:12:42.262742  1463 data_layer.cpp:304] Loading mean file from/scr/r6/tgebru/timnit_caffe/data/ilsvrc12/imagenet_mean.binaryproto
I0813 05:12:42.265147  1463 net.cpp:84] Top shape: 2 3 216 216 (279936)
I0813 05:12:42.265179  1463 net.cpp:116] target_ims does not need backward computation.
I0813 05:12:42.265188  1463 net.cpp:65] Creating Layer conv1
I0813 05:12:42.265192  1463 net.cpp:228] conv1 <- source_ims
I0813 05:12:42.265197  1463 net.cpp:189] conv1 -> conv1
I0813 05:12:42.266446  1463 net.cpp:84] Top shape: 2 96 55 55 (580800)
I0813 05:12:42.266451  1463 net.cpp:116] conv1 does not need backward computation.
I0813 05:12:42.266455  1463 net.cpp:65] Creating Layer relu1
I0813 05:12:42.266458  1463 net.cpp:228] relu1 <- conv1
I0813 05:12:42.266463  1463 net.cpp:179] relu1 -> conv1 (in-place)
I0813 05:12:42.266469  1463 net.cpp:84] Top shape: 2 96 55 55 (580800)
I0813 05:12:42.266470  1463 net.cpp:116] relu1 does not need backward computation.
I0813 05:12:42.266475  1463 net.cpp:65] Creating Layer pool1
I0813 05:12:42.266477  1463 net.cpp:228] pool1 <- conv1
I0813 05:12:42.266481  1463 net.cpp:189] pool1 -> pool1
I0813 05:12:42.266489  1463 net.cpp:84] Top shape: 2 96 27 27 (139968)
I0813 05:12:42.266491  1463 net.cpp:116] pool1 does not need backward computation.
I0813 05:12:42.266495  1463 net.cpp:65] Creating Layer norm1
I0813 05:12:42.266499  1463 net.cpp:228] norm1 <- pool1
I0813 05:12:42.266501  1463 net.cpp:189] norm1 -> norm1
I0813 05:12:42.266507  1463 net.cpp:84] Top shape: 2 96 27 27 (139968)
I0813 05:12:42.266510  1463 net.cpp:116] norm1 does not need backward computation.
I0813 05:12:42.266515  1463 net.cpp:65] Creating Layer Rconv6
I0813 05:12:42.266516  1463 net.cpp:228] Rconv6 <- norm1
I0813 05:12:42.266520  1463 net.cpp:189] Rconv6 -> Rconv6
I0813 05:12:42.267076  1463 net.cpp:84] Top shape: 2 256 27 27 (373248)
I0813 05:12:42.267081  1463 net.cpp:116] Rconv6 does not need backward computation.
I0813 05:12:42.267083  1463 net.cpp:65] Creating Layer Rrelu6
I0813 05:12:42.267087  1463 net.cpp:228] Rrelu6 <- Rconv6
I0813 05:12:42.267091  1463 net.cpp:179] Rrelu6 -> Rconv6 (in-place)
I0813 05:12:42.267096  1463 net.cpp:84] Top shape: 2 256 27 27 (373248)
I0813 05:12:42.267098  1463 net.cpp:116] Rrelu6 does not need backward computation.
I0813 05:12:42.267103  1463 net.cpp:65] Creating Layer Rconv7
I0813 05:12:42.267105  1463 net.cpp:228] Rconv7 <- Rconv6
I0813 05:12:42.267109  1463 net.cpp:189] Rconv7 -> Rconv7
I0813 05:12:42.267841  1463 net.cpp:84] Top shape: 2 256 27 27 (373248)
I0813 05:12:42.267846  1463 net.cpp:116] Rconv7 does not need backward computation.
I0813 05:12:42.267849  1463 net.cpp:65] Creating Layer Rrelu7
I0813 05:12:42.267853  1463 net.cpp:228] Rrelu7 <- Rconv7
I0813 05:12:42.267855  1463 net.cpp:179] Rrelu7 -> Rconv7 (in-place)
I0813 05:12:42.267860  1463 net.cpp:84] Top shape: 2 256 27 27 (373248)
I0813 05:12:42.267863  1463 net.cpp:116] Rrelu7 does not need backward computation.
I0813 05:12:42.267866  1463 net.cpp:65] Creating Layer Rconv8
I0813 05:12:42.267868  1463 net.cpp:228] Rconv8 <- Rconv7
I0813 05:12:42.267873  1463 net.cpp:189] Rconv8 -> Rconv8
I0813 05:12:42.268597  1463 net.cpp:84] Top shape: 2 256 27 27 (373248)
I0813 05:12:42.268601  1463 net.cpp:116] Rconv8 does not need backward computation.
I0813 05:12:42.268605  1463 net.cpp:65] Creating Layer Rrelu8
I0813 05:12:42.268607  1463 net.cpp:228] Rrelu8 <- Rconv8
I0813 05:12:42.268611  1463 net.cpp:179] Rrelu8 -> Rconv8 (in-place)
I0813 05:12:42.268615  1463 net.cpp:84] Top shape: 2 256 27 27 (373248)
I0813 05:12:42.268618  1463 net.cpp:116] Rrelu8 does not need backward computation.
I0813 05:12:42.268622  1463 net.cpp:65] Creating Layer deconv2
I0813 05:12:42.268625  1463 net.cpp:228] deconv2 <- Rconv8
I0813 05:12:42.268628  1463 net.cpp:189] deconv2 -> deconv2
I0813 05:12:42.269644  1463 net.cpp:84] Top shape: 2 64 54 54 (373248)
I0813 05:12:42.269649  1463 net.cpp:116] deconv2 does not need backward computation.
I0813 05:12:42.269654  1463 net.cpp:65] Creating Layer relu_deconv2
I0813 05:12:42.269656  1463 net.cpp:228] relu_deconv2 <- deconv2
I0813 05:12:42.269660  1463 net.cpp:179] relu_deconv2 -> deconv2 (in-place)
I0813 05:12:42.269665  1463 net.cpp:84] Top shape: 2 64 54 54 (373248)
I0813 05:12:42.269667  1463 net.cpp:116] relu_deconv2 does not need backward computation.
I0813 05:12:42.269685  1463 net.cpp:65] Creating Layer deconv1
I0813 05:12:42.269687  1463 net.cpp:228] deconv1 <- deconv2
I0813 05:12:42.269691  1463 net.cpp:189] deconv1 -> deconv1
I0813 05:12:42.269827  1463 net.cpp:84] Top shape: 2 32 108 108 (746496)
I0813 05:12:42.269831  1463 net.cpp:116] deconv1 does not need backward computation.
I0813 05:12:42.269835  1463 net.cpp:65] Creating Layer relu_deconv1
I0813 05:12:42.269839  1463 net.cpp:228] relu_deconv1 <- deconv1
I0813 05:12:42.269842  1463 net.cpp:179] relu_deconv1 -> deconv1 (in-place)
I0813 05:12:42.269846  1463 net.cpp:84] Top shape: 2 32 108 108 (746496)
I0813 05:12:42.269850  1463 net.cpp:116] relu_deconv1 does not need backward computation.
I0813 05:12:42.269853  1463 net.cpp:65] Creating Layer deconv0
I0813 05:12:42.269856  1463 net.cpp:228] deconv0 <- deconv1
I0813 05:12:42.269860  1463 net.cpp:189] deconv0 -> deconv0
I0813 05:12:42.269877  1463 net.cpp:84] Top shape: 2 3 216 216 (279936)
I0813 05:12:42.269881  1463 net.cpp:116] deconv0 does not need backward computation.
I0813 05:12:42.269884  1463 net.cpp:65] Creating Layer loss
I0813 05:12:42.269886  1463 net.cpp:228] loss <- deconv0
I0813 05:12:42.269891  1463 net.cpp:228] loss <- target_ims
I0813 05:12:42.269894  1463 net.cpp:116] loss does not need backward computation.
I0813 05:12:42.269906  1463 net.cpp:238] Collecting Learning Rate and Weight Decay.
…
