…
    source: "/scr/r6/tgebru/inverting_conv/caffe_invert_alexnet/data/siggraph/tiny_summer_train_lmdb"
    mean_file: "/scr/r6/tgebru/timnit_caffe/data/ilsvrc12/imagenet_mean.binaryproto"
    batch_size: 12
    crop_size: 227
    mirror: false
    backend: LMDB
  }
}
layers {
  top: "target_ims"
  name: "target_ims"
  type: DATA
  data_param {
    source: "/scr/r6/tgebru/inverting_conv/caffe_invert_alexnet/data/siggraph/tiny_summer_train_lmdb"
    mean_file: "/scr/r6/tgebru/timnit_caffe/data/ilsvrc12/imagenet_mean.binaryproto"
    batch_size: 12
    crop_size: 216
    mirror: false
    backend: LMDB
  }
}
layers {
  bottom: "source_ims"
  top: "conv1"
  name: "conv1"
  type: CONVOLUTION
  blobs_lr: 0
  blobs_lr: 0
  weight_decay: 1
  weight_decay: 0
  convolution_param {
    num_output: 96
    kernel_size: 11
    stride: 4
    weight_filler {
      type: "gaussian"
      std: 0.01
    }
    bias_filler {
      type: "constant"
      value: 0
    }
  }
}
layers {
  bottom: "conv1"
  top: "conv1"
  name: "relu1"
  type: RELU
}
layers {
  bottom: "conv1"
  top: "pool1"
  name: "pool1"
  type: POOLING
  pooling_param {
    pool: MAX
    kernel_size: 3
    stride: 2
  }
}
layers {
  bottom: "pool1"
  top: "norm1"
  name: "norm1"
  type: LRN
  lrn_param {
    local_size: 5
    alpha: 0.0001
    beta: 0.75
  }
}
layers {
  bottom: "norm1"
  top: "Rconv6"
  name: "Rconv6"
  type: CONVOLUTION
  blobs_lr: 1
  blobs_lr: 2
  weight_decay: 1
  weight_decay: 0
  convolution_param {
    num_output: 256
    pad: 1
    kernel_size: 3
  }
}
layers {
  bottom: "Rconv6"
  top: "Rconv6"
  name: "Rrelu6"
  type: RELU
}
layers {
  bottom: "Rconv6"
  top: "Rconv7"
  name: "Rconv7"
  type: CONVOLUTION
  blobs_lr: 1
  blobs_lr: 2
  weight_decay: 1
  weight_decay: 0
  convolution_param {
    num_output: 256
    pad: 1
    kernel_size: 3
    group: 2
  }
}
layers {
  bottom: "Rconv7"
  top: "Rconv7"
  name: "Rrelu7"
  type: RELU
}
layers {
  bottom: "Rconv7"
  top: "Rconv8"
  name: "Rconv8"
  type: CONVOLUTION
  blobs_lr: 1
  blobs_lr: 2
  weight_decay: 1
  weight_decay: 0
  convolution_param {
    num_output: 256
    pad: 1
    kernel_size: 3
    group: 2
  }
}
layers {
  bottom: "Rconv8"
  top: "Rconv8"
  name: "Rrelu8"
  type: RELU
}
layers {
  bottom: "Rconv8"
  top: "deconv2"
  name: "deconv2"
  type: DECONVOLUTION
  blobs_lr: 1
  blobs_lr: 2
  weight_decay: 1
  weight_decay: 0
  deconvolution_param {
    pad: 2
    kernel_size: 5
    stride: 2
    output_height: 54
    output_width: 54
    output_channels: 64
  }
}
layers {
  bottom: "deconv2"
  top: "deconv2"
  name: "relu_deconv2"
  type: RELU
  relu_param {
    negative_slope: 0.3
  }
}
layers {
  bottom: "deconv2"
  top: "deconv1"
  name: "deconv1"
  type: DECONVOLUTION
  blobs_lr: 1
  blobs_lr: 2
  weight_decay: 1
  weight_decay: 0
  deconvolution_param {
    pad: 2
    kernel_size: 5
    stride: 2
    output_height: 108
    output_width: 108
    output_channels: 32
  }
}
layers {
  bottom: "deconv1"
  top: "deconv1"
  name: "relu_deconv1"
  type: RELU
  relu_param {
    negative_slope: 0.3
  }
}
layers {
  bottom: "deconv1"
  top: "deconv0"
  name: "deconv0"
  type: DECONVOLUTION
  blobs_lr: 1
  blobs_lr: 2
  weight_decay: 1
  weight_decay: 1
  deconvolution_param {
    pad: 2
    kernel_size: 5
    stride: 2
    output_height: 216
    output_width: 216
    output_channels: 3
  }
}
layers {
  bottom: "deconv0"
  bottom: "target_ims"
  name: "loss"
  type: EUCLIDEAN_LOSS
}
I0813 03:15:07.387207 24820 net.cpp:65] Creating Layer source_ims
I0813 03:15:07.387215 24820 net.cpp:189] source_ims -> source_ims
I0813 03:15:07.387317 24820 data_layer.cpp:223] Opening lmdb /scr/r6/tgebru/inverting_conv/caffe_invert_alexnet/data/siggraph/tiny_summer_train_lmdb
I0813 03:15:07.387519 24820 data_layer.cpp:285] output data size: 12,3,227,227
I0813 03:15:07.387527 24820 data_layer.cpp:304] Loading mean file from/scr/r6/tgebru/timnit_caffe/data/ilsvrc12/imagenet_mean.binaryproto
I0813 03:15:07.392165 24820 net.cpp:84] Top shape: 12 3 227 227 (1855044)
I0813 03:15:07.392174 24820 net.cpp:116] source_ims does not need backward computation.
I0813 03:15:07.392181 24820 net.cpp:65] Creating Layer target_ims
I0813 03:15:07.392186 24820 net.cpp:189] target_ims -> target_ims
I0813 03:15:07.392348 24820 data_layer.cpp:223] Opening lmdb /scr/r6/tgebru/inverting_conv/caffe_invert_alexnet/data/siggraph/tiny_summer_train_lmdb
I0813 03:15:07.392490 24820 data_layer.cpp:285] output data size: 12,3,216,216
I0813 03:15:07.392495 24820 data_layer.cpp:304] Loading mean file from/scr/r6/tgebru/timnit_caffe/data/ilsvrc12/imagenet_mean.binaryproto
I0813 03:15:07.396849 24820 net.cpp:84] Top shape: 12 3 216 216 (1679616)
I0813 03:15:07.396857 24820 net.cpp:116] target_ims does not need backward computation.
I0813 03:15:07.396869 24820 net.cpp:65] Creating Layer conv1
I0813 03:15:07.396873 24820 net.cpp:228] conv1 <- source_ims
I0813 03:15:07.396937 24820 net.cpp:189] conv1 -> conv1
I0813 03:15:07.398236 24820 net.cpp:84] Top shape: 12 96 55 55 (3484800)
I0813 03:15:07.398242 24820 net.cpp:116] conv1 does not need backward computation.
I0813 03:15:07.398248 24820 net.cpp:65] Creating Layer relu1
I0813 03:15:07.398252 24820 net.cpp:228] relu1 <- conv1
I0813 03:15:07.398257 24820 net.cpp:179] relu1 -> conv1 (in-place)
I0813 03:15:07.398265 24820 net.cpp:84] Top shape: 12 96 55 55 (3484800)
I0813 03:15:07.398268 24820 net.cpp:116] relu1 does not need backward computation.
I0813 03:15:07.398274 24820 net.cpp:65] Creating Layer pool1
I0813 03:15:07.398277 24820 net.cpp:228] pool1 <- conv1
I0813 03:15:07.398282 24820 net.cpp:189] pool1 -> pool1
I0813 03:15:07.398293 24820 net.cpp:84] Top shape: 12 96 27 27 (839808)
I0813 03:15:07.398298 24820 net.cpp:116] pool1 does not need backward computation.
I0813 03:15:07.398303 24820 net.cpp:65] Creating Layer norm1
I0813 03:15:07.398305 24820 net.cpp:228] norm1 <- pool1
I0813 03:15:07.398310 24820 net.cpp:189] norm1 -> norm1
I0813 03:15:07.398319 24820 net.cpp:84] Top shape: 12 96 27 27 (839808)
I0813 03:15:07.398321 24820 net.cpp:116] norm1 does not need backward computation.
I0813 03:15:07.398326 24820 net.cpp:65] Creating Layer Rconv6
I0813 03:15:07.398329 24820 net.cpp:228] Rconv6 <- norm1
I0813 03:15:07.398334 24820 net.cpp:189] Rconv6 -> Rconv6
I0813 03:15:07.398591 24820 net.cpp:84] Top shape: 12 256 27 27 (2239488)
I0813 03:15:07.398594 24820 net.cpp:111] Rconv6 needs backward computation.
I0813 03:15:07.398598 24820 net.cpp:65] Creating Layer Rrelu6
I0813 03:15:07.398602 24820 net.cpp:228] Rrelu6 <- Rconv6
I0813 03:15:07.398607 24820 net.cpp:179] Rrelu6 -> Rconv6 (in-place)
I0813 03:15:07.398612 24820 net.cpp:84] Top shape: 12 256 27 27 (2239488)
I0813 03:15:07.398614 24820 net.cpp:111] Rrelu6 needs backward computation.
I0813 03:15:07.398619 24820 net.cpp:65] Creating Layer Rconv7
I0813 03:15:07.398622 24820 net.cpp:228] Rconv7 <- Rconv6
I0813 03:15:07.398627 24820 net.cpp:189] Rconv7 -> Rconv7
I0813 03:15:07.399322 24820 net.cpp:84] Top shape: 12 256 27 27 (2239488)
I0813 03:15:07.399325 24820 net.cpp:111] Rconv7 needs backward computation.
I0813 03:15:07.399329 24820 net.cpp:65] Creating Layer Rrelu7
I0813 03:15:07.399333 24820 net.cpp:228] Rrelu7 <- Rconv7
I0813 03:15:07.399361 24820 net.cpp:179] Rrelu7 -> Rconv7 (in-place)
I0813 03:15:07.399368 24820 net.cpp:84] Top shape: 12 256 27 27 (2239488)
I0813 03:15:07.399370 24820 net.cpp:111] Rrelu7 needs backward computation.
I0813 03:15:07.399374 24820 net.cpp:65] Creating Layer Rconv8
I0813 03:15:07.399377 24820 net.cpp:228] Rconv8 <- Rconv7
I0813 03:15:07.399381 24820 net.cpp:189] Rconv8 -> Rconv8
I0813 03:15:07.400143 24820 net.cpp:84] Top shape: 12 256 27 27 (2239488)
I0813 03:15:07.400148 24820 net.cpp:111] Rconv8 needs backward computation.
I0813 03:15:07.400153 24820 net.cpp:65] Creating Layer Rrelu8
I0813 03:15:07.400156 24820 net.cpp:228] Rrelu8 <- Rconv8
I0813 03:15:07.400159 24820 net.cpp:179] Rrelu8 -> Rconv8 (in-place)
I0813 03:15:07.400164 24820 net.cpp:84] Top shape: 12 256 27 27 (2239488)
I0813 03:15:07.400166 24820 net.cpp:111] Rrelu8 needs backward computation.
I0813 03:15:07.400171 24820 net.cpp:65] Creating Layer deconv2
I0813 03:15:07.400173 24820 net.cpp:228] deconv2 <- Rconv8
I0813 03:15:07.400177 24820 net.cpp:189] deconv2 -> deconv2
I0813 03:15:07.401234 24820 net.cpp:84] Top shape: 12 64 54 54 (2239488)
I0813 03:15:07.401239 24820 net.cpp:111] deconv2 needs backward computation.
I0813 03:15:07.401244 24820 net.cpp:65] Creating Layer relu_deconv2
I0813 03:15:07.401247 24820 net.cpp:228] relu_deconv2 <- deconv2
I0813 03:15:07.401250 24820 net.cpp:179] relu_deconv2 -> deconv2 (in-place)
I0813 03:15:07.401255 24820 net.cpp:84] Top shape: 12 64 54 54 (2239488)
I0813 03:15:07.401258 24820 net.cpp:111] relu_deconv2 needs backward computation.
I0813 03:15:07.401262 24820 net.cpp:65] Creating Layer deconv1
I0813 03:15:07.401264 24820 net.cpp:228] deconv1 <- deconv2
I0813 03:15:07.401268 24820 net.cpp:189] deconv1 -> deconv1
I0813 03:15:07.401423 24820 net.cpp:84] Top shape: 12 32 108 108 (4478976)
I0813 03:15:07.401428 24820 net.cpp:111] deconv1 needs backward computation.
I0813 03:15:07.401432 24820 net.cpp:65] Creating Layer relu_deconv1
I0813 03:15:07.401435 24820 net.cpp:228] relu_deconv1 <- deconv1
I0813 03:15:07.401439 24820 net.cpp:179] relu_deconv1 -> deconv1 (in-place)
I0813 03:15:07.401443 24820 net.cpp:84] Top shape: 12 32 108 108 (4478976)
I0813 03:15:07.401446 24820 net.cpp:111] relu_deconv1 needs backward computation.
I0813 03:15:07.401451 24820 net.cpp:65] Creating Layer deconv0
I0813 03:15:07.401454 24820 net.cpp:228] deconv0 <- deconv1
I0813 03:15:07.401458 24820 net.cpp:189] deconv0 -> deconv0
I0813 03:15:07.401500 24820 net.cpp:84] Top shape: 12 3 216 216 (1679616)
I0813 03:15:07.401504 24820 net.cpp:111] deconv0 needs backward computation.
I0813 03:15:07.401509 24820 net.cpp:65] Creating Layer loss
I0813 03:15:07.401511 24820 net.cpp:228] loss <- deconv0
I0813 03:15:07.401515 24820 net.cpp:228] loss <- target_ims
I0813 03:15:07.401522 24820 net.cpp:111] loss needs backward computation.
I0813 03:15:07.401538 24820 net.cpp:238] Collecting Learning Rate and Weight Decay.
…
    source: "/scr/r6/tgebru/inverting_conv/caffe_invert_alexnet/data/siggraph/tiny_summer_val_lmdb"
    mean_file: "/scr/r6/tgebru/timnit_caffe/data/ilsvrc12/imagenet_mean.binaryproto"
    batch_size: 2
    crop_size: 227
    mirror: false
    backend: LMDB
  }
}
layers {
  top: "target_ims"
  name: "target_ims"
  type: DATA
  data_param {
    source: "/scr/r6/tgebru/inverting_conv/caffe_invert_alexnet/data/siggraph/tiny_summer_val_lmdb"
    mean_file: "/scr/r6/tgebru/timnit_caffe/data/ilsvrc12/imagenet_mean.binaryproto"
    batch_size: 2
    crop_size: 216
    mirror: false
    backend: LMDB
  }
}
layers {
  bottom: "source_ims"
  top: "conv1"
  name: "conv1"
  type: CONVOLUTION
  blobs_lr: 0
  blobs_lr: 0
  weight_decay: 1
  weight_decay: 0
  convolution_param {
    num_output: 96
    kernel_size: 11
    stride: 4
    weight_filler {
      type: "gaussian"
      std: 0.01
    }
    bias_filler {
      type: "constant"
      value: 0
    }
  }
}
layers {
  bottom: "conv1"
  top: "conv1"
  name: "relu1"
  type: RELU
}
layers {
  bottom: "conv1"
  top: "pool1"
  name: "pool1"
  type: POOLING
  pooling_param {
    pool: MAX
    kernel_size: 3
    stride: 2
  }
}
layers {
  bottom: "pool1"
  top: "norm1"
  name: "norm1"
  type: LRN
  lrn_param {
    local_size: 5
    alpha: 0.0001
    beta: 0.75
  }
}
layers {
  bottom: "norm1"
  top: "Rconv6"
  name: "Rconv6"
  type: CONVOLUTION
  blobs_lr: 0
  blobs_lr: 0
  weight_decay: 1
  weight_decay: 0
  convolution_param {
    num_output: 256
    pad: 1
    kernel_size: 3
  }
}
layers {
  bottom: "Rconv6"
  top: "Rconv6"
  name: "Rrelu6"
  type: RELU
}
layers {
  bottom: "Rconv6"
  top: "Rconv7"
  name: "Rconv7"
  type: CONVOLUTION
  blobs_lr: 0
  blobs_lr: 0
  weight_decay: 1
  weight_decay: 0
  convolution_param {
    num_output: 256
    pad: 1
    kernel_size: 3
    group: 2
  }
}
layers {
  bottom: "Rconv7"
  top: "Rconv7"
  name: "Rrelu7"
  type: RELU
}
layers {
  bottom: "Rconv7"
  top: "Rconv8"
  name: "Rconv8"
  type: CONVOLUTION
  blobs_lr: 0
  blobs_lr: 0
  weight_decay: 1
  weight_decay: 0
  convolution_param {
    num_output: 256
    pad: 1
    kernel_size: 3
    group: 2
  }
}
layers {
  bottom: "Rconv8"
  top: "Rconv8"
  name: "Rrelu8"
  type: RELU
}
layers {
  bottom: "Rconv8"
  top: "deconv2"
  name: "deconv2"
  type: DECONVOLUTION
  blobs_lr: 0
  blobs_lr: 0
  weight_decay: 1
  weight_decay: 0
  deconvolution_param {
    pad: 2
    kernel_size: 5
    stride: 2
    output_height: 54
    output_width: 54
    output_channels: 64
  }
}
layers {
  bottom: "deconv2"
  top: "deconv2"
  name: "relu_deconv2"
  type: RELU
  relu_param {
    negative_slope: 0.3
  }
}
layers {
  bottom: "deconv2"
  top: "deconv1"
  name: "deconv1"
  type: DECONVOLUTION
  blobs_lr: 0
  blobs_lr: 0
  weight_decay: 1
  weight_decay: 0
  deconvolution_param {
    pad: 2
    kernel_size: 5
    stride: 2
    output_height: 108
    output_width: 108
    output_channels: 32
  }
}
layers {
  bottom: "deconv1"
  top: "deconv1"
  name: "relu_deconv1"
  type: RELU
  relu_param {
    negative_slope: 0.3
  }
}
layers {
  bottom: "deconv1"
  top: "deconv0"
  name: "deconv0"
  type: DECONVOLUTION
  blobs_lr: 0
  blobs_lr: 0
  weight_decay: 1
  weight_decay: 0
  deconvolution_param {
    pad: 2
    kernel_size: 5
    stride: 2
    output_height: 216
    output_width: 216
    output_channels: 3
  }
}
layers {
  bottom: "deconv0"
  bottom: "target_ims"
  name: "loss"
  type: EUCLIDEAN_LOSS
}
I0813 03:15:07.402269 24820 net.cpp:65] Creating Layer source_ims
I0813 03:15:07.402276 24820 net.cpp:189] source_ims -> source_ims
I0813 03:15:07.402333 24820 data_layer.cpp:223] Opening lmdb /scr/r6/tgebru/inverting_conv/caffe_invert_alexnet/data/siggraph/tiny_summer_val_lmdb
I0813 03:15:07.402549 24820 data_layer.cpp:285] output data size: 2,3,227,227
I0813 03:15:07.402554 24820 data_layer.cpp:304] Loading mean file from/scr/r6/tgebru/timnit_caffe/data/ilsvrc12/imagenet_mean.binaryproto
I0813 03:15:07.404906 24820 net.cpp:84] Top shape: 2 3 227 227 (309174)
I0813 03:15:07.404912 24820 net.cpp:116] source_ims does not need backward computation.
I0813 03:15:07.404919 24820 net.cpp:65] Creating Layer target_ims
I0813 03:15:07.404923 24820 net.cpp:189] target_ims -> target_ims
I0813 03:15:07.404966 24820 data_layer.cpp:223] Opening lmdb /scr/r6/tgebru/inverting_conv/caffe_invert_alexnet/data/siggraph/tiny_summer_val_lmdb
I0813 03:15:07.405141 24820 data_layer.cpp:285] output data size: 2,3,216,216
I0813 03:15:07.405145 24820 data_layer.cpp:304] Loading mean file from/scr/r6/tgebru/timnit_caffe/data/ilsvrc12/imagenet_mean.binaryproto
I0813 03:15:07.407358 24820 net.cpp:84] Top shape: 2 3 216 216 (279936)
I0813 03:15:07.407366 24820 net.cpp:116] target_ims does not need backward computation.
I0813 03:15:07.407388 24820 net.cpp:65] Creating Layer conv1
I0813 03:15:07.407392 24820 net.cpp:228] conv1 <- source_ims
I0813 03:15:07.407398 24820 net.cpp:189] conv1 -> conv1
I0813 03:15:07.408640 24820 net.cpp:84] Top shape: 2 96 55 55 (580800)
I0813 03:15:07.408644 24820 net.cpp:116] conv1 does not need backward computation.
I0813 03:15:07.408648 24820 net.cpp:65] Creating Layer relu1
I0813 03:15:07.408651 24820 net.cpp:228] relu1 <- conv1
I0813 03:15:07.408656 24820 net.cpp:179] relu1 -> conv1 (in-place)
I0813 03:15:07.408661 24820 net.cpp:84] Top shape: 2 96 55 55 (580800)
I0813 03:15:07.408664 24820 net.cpp:116] relu1 does not need backward computation.
I0813 03:15:07.408669 24820 net.cpp:65] Creating Layer pool1
I0813 03:15:07.408671 24820 net.cpp:228] pool1 <- conv1
I0813 03:15:07.408675 24820 net.cpp:189] pool1 -> pool1
I0813 03:15:07.408682 24820 net.cpp:84] Top shape: 2 96 27 27 (139968)
I0813 03:15:07.408685 24820 net.cpp:116] pool1 does not need backward computation.
I0813 03:15:07.408689 24820 net.cpp:65] Creating Layer norm1
I0813 03:15:07.408692 24820 net.cpp:228] norm1 <- pool1
I0813 03:15:07.408696 24820 net.cpp:189] norm1 -> norm1
I0813 03:15:07.408702 24820 net.cpp:84] Top shape: 2 96 27 27 (139968)
I0813 03:15:07.408705 24820 net.cpp:116] norm1 does not need backward computation.
I0813 03:15:07.408709 24820 net.cpp:65] Creating Layer Rconv6
I0813 03:15:07.408711 24820 net.cpp:228] Rconv6 <- norm1
I0813 03:15:07.408716 24820 net.cpp:189] Rconv6 -> Rconv6
I0813 03:15:07.409315 24820 net.cpp:84] Top shape: 2 256 27 27 (373248)
I0813 03:15:07.409320 24820 net.cpp:116] Rconv6 does not need backward computation.
I0813 03:15:07.409325 24820 net.cpp:65] Creating Layer Rrelu6
I0813 03:15:07.409328 24820 net.cpp:228] Rrelu6 <- Rconv6
I0813 03:15:07.409332 24820 net.cpp:179] Rrelu6 -> Rconv6 (in-place)
I0813 03:15:07.409337 24820 net.cpp:84] Top shape: 2 256 27 27 (373248)
I0813 03:15:07.409339 24820 net.cpp:116] Rrelu6 does not need backward computation.
I0813 03:15:07.409344 24820 net.cpp:65] Creating Layer Rconv7
I0813 03:15:07.409348 24820 net.cpp:228] Rconv7 <- Rconv6
I0813 03:15:07.409351 24820 net.cpp:189] Rconv7 -> Rconv7
I0813 03:15:07.410681 24820 net.cpp:84] Top shape: 2 256 27 27 (373248)
I0813 03:15:07.410688 24820 net.cpp:116] Rconv7 does not need backward computation.
I0813 03:15:07.410692 24820 net.cpp:65] Creating Layer Rrelu7
I0813 03:15:07.410696 24820 net.cpp:228] Rrelu7 <- Rconv7
I0813 03:15:07.410699 24820 net.cpp:179] Rrelu7 -> Rconv7 (in-place)
I0813 03:15:07.410704 24820 net.cpp:84] Top shape: 2 256 27 27 (373248)
I0813 03:15:07.410707 24820 net.cpp:116] Rrelu7 does not need backward computation.
I0813 03:15:07.410712 24820 net.cpp:65] Creating Layer Rconv8
I0813 03:15:07.410714 24820 net.cpp:228] Rconv8 <- Rconv7
I0813 03:15:07.410718 24820 net.cpp:189] Rconv8 -> Rconv8
I0813 03:15:07.411442 24820 net.cpp:84] Top shape: 2 256 27 27 (373248)
I0813 03:15:07.411445 24820 net.cpp:116] Rconv8 does not need backward computation.
I0813 03:15:07.411449 24820 net.cpp:65] Creating Layer Rrelu8
I0813 03:15:07.411453 24820 net.cpp:228] Rrelu8 <- Rconv8
I0813 03:15:07.411456 24820 net.cpp:179] Rrelu8 -> Rconv8 (in-place)
I0813 03:15:07.411460 24820 net.cpp:84] Top shape: 2 256 27 27 (373248)
I0813 03:15:07.411463 24820 net.cpp:116] Rrelu8 does not need backward computation.
I0813 03:15:07.411468 24820 net.cpp:65] Creating Layer deconv2
I0813 03:15:07.411469 24820 net.cpp:228] deconv2 <- Rconv8
I0813 03:15:07.411473 24820 net.cpp:189] deconv2 -> deconv2
I0813 03:15:07.412485 24820 net.cpp:84] Top shape: 2 64 54 54 (373248)
I0813 03:15:07.412490 24820 net.cpp:116] deconv2 does not need backward computation.
I0813 03:15:07.412494 24820 net.cpp:65] Creating Layer relu_deconv2
I0813 03:15:07.412498 24820 net.cpp:228] relu_deconv2 <- deconv2
I0813 03:15:07.412503 24820 net.cpp:179] relu_deconv2 -> deconv2 (in-place)
I0813 03:15:07.412508 24820 net.cpp:84] Top shape: 2 64 54 54 (373248)
I0813 03:15:07.412509 24820 net.cpp:116] relu_deconv2 does not need backward computation.
I0813 03:15:07.412526 24820 net.cpp:65] Creating Layer deconv1
I0813 03:15:07.412530 24820 net.cpp:228] deconv1 <- deconv2
I0813 03:15:07.412534 24820 net.cpp:189] deconv1 -> deconv1
I0813 03:15:07.412669 24820 net.cpp:84] Top shape: 2 32 108 108 (746496)
I0813 03:15:07.412673 24820 net.cpp:116] deconv1 does not need backward computation.
I0813 03:15:07.412678 24820 net.cpp:65] Creating Layer relu_deconv1
I0813 03:15:07.412680 24820 net.cpp:228] relu_deconv1 <- deconv1
I0813 03:15:07.412684 24820 net.cpp:179] relu_deconv1 -> deconv1 (in-place)
I0813 03:15:07.412688 24820 net.cpp:84] Top shape: 2 32 108 108 (746496)
I0813 03:15:07.412691 24820 net.cpp:116] relu_deconv1 does not need backward computation.
I0813 03:15:07.412696 24820 net.cpp:65] Creating Layer deconv0
I0813 03:15:07.412699 24820 net.cpp:228] deconv0 <- deconv1
I0813 03:15:07.412703 24820 net.cpp:189] deconv0 -> deconv0
I0813 03:15:07.412721 24820 net.cpp:84] Top shape: 2 3 216 216 (279936)
I0813 03:15:07.412724 24820 net.cpp:116] deconv0 does not need backward computation.
I0813 03:15:07.412729 24820 net.cpp:65] Creating Layer loss
I0813 03:15:07.412731 24820 net.cpp:228] loss <- deconv0
I0813 03:15:07.412734 24820 net.cpp:228] loss <- target_ims
I0813 03:15:07.412739 24820 net.cpp:116] loss does not need backward computation.
I0813 03:15:07.412750 24820 net.cpp:238] Collecting Learning Rate and Weight Decay.
…
