…
    source: "/scr/r6/tgebru/inverting_conv/caffe_invert_alexnet/data/siggraph/tiny_summer_train_lmdb"
    mean_file: "/scr/r6/tgebru/timnit_caffe/data/ilsvrc12/imagenet_mean.binaryproto"
    batch_size: 12
    crop_size: 227
    mirror: false
    backend: LMDB
  }
}
layers {
  top: "target_ims"
  name: "target_ims"
  type: DATA
  data_param {
    source: "/scr/r6/tgebru/inverting_conv/caffe_invert_alexnet/data/siggraph/tiny_winter_train_lmdb"
    mean_file: "/scr/r6/tgebru/timnit_caffe/data/ilsvrc12/imagenet_mean.binaryproto"
    batch_size: 12
    crop_size: 216
    mirror: false
    backend: LMDB
  }
}
layers {
  bottom: "source_ims"
  top: "conv1"
  name: "conv1"
  type: CONVOLUTION
  blobs_lr: 0
  blobs_lr: 0
  weight_decay: 1
  weight_decay: 0
  convolution_param {
    num_output: 96
    kernel_size: 11
    stride: 4
    weight_filler {
      type: "gaussian"
      std: 0.01
    }
    bias_filler {
      type: "constant"
      value: 0
    }
  }
}
layers {
  bottom: "conv1"
  top: "conv1"
  name: "relu1"
  type: RELU
}
layers {
  bottom: "conv1"
  top: "pool1"
  name: "pool1"
  type: POOLING
  pooling_param {
    pool: MAX
    kernel_size: 3
    stride: 2
  }
}
layers {
  bottom: "pool1"
  top: "norm1"
  name: "norm1"
  type: LRN
  lrn_param {
    local_size: 5
    alpha: 0.0001
    beta: 0.75
  }
}
layers {
  bottom: "norm1"
  top: "Rconv6"
  name: "Rconv6"
  type: CONVOLUTION
  blobs_lr: 1
  blobs_lr: 2
  weight_decay: 1
  weight_decay: 0
  convolution_param {
    num_output: 256
    pad: 1
    kernel_size: 3
  }
}
layers {
  bottom: "Rconv6"
  top: "Rconv6"
  name: "Rrelu6"
  type: RELU
}
layers {
  bottom: "Rconv6"
  top: "Rconv7"
  name: "Rconv7"
  type: CONVOLUTION
  blobs_lr: 1
  blobs_lr: 2
  weight_decay: 1
  weight_decay: 0
  convolution_param {
    num_output: 256
    pad: 1
    kernel_size: 3
    group: 2
  }
}
layers {
  bottom: "Rconv7"
  top: "Rconv7"
  name: "Rrelu7"
  type: RELU
}
layers {
  bottom: "Rconv7"
  top: "Rconv8"
  name: "Rconv8"
  type: CONVOLUTION
  blobs_lr: 1
  blobs_lr: 2
  weight_decay: 1
  weight_decay: 0
  convolution_param {
    num_output: 256
    pad: 1
    kernel_size: 3
    group: 2
  }
}
layers {
  bottom: "Rconv8"
  top: "Rconv8"
  name: "Rrelu8"
  type: RELU
}
layers {
  bottom: "Rconv8"
  top: "deconv2"
  name: "deconv2"
  type: DECONVOLUTION
  blobs_lr: 1
  blobs_lr: 2
  weight_decay: 1
  weight_decay: 0
  deconvolution_param {
    pad: 2
    kernel_size: 5
    stride: 2
    output_height: 54
    output_width: 54
    output_channels: 64
  }
}
layers {
  bottom: "deconv2"
  top: "deconv2"
  name: "relu_deconv2"
  type: RELU
  relu_param {
    negative_slope: 0.3
  }
}
layers {
  bottom: "deconv2"
  top: "deconv1"
  name: "deconv1"
  type: DECONVOLUTION
  blobs_lr: 1
  blobs_lr: 2
  weight_decay: 1
  weight_decay: 0
  deconvolution_param {
    pad: 2
    kernel_size: 5
    stride: 2
    output_height: 108
    output_width: 108
    output_channels: 32
  }
}
layers {
  bottom: "deconv1"
  top: "deconv1"
  name: "relu_deconv1"
  type: RELU
  relu_param {
    negative_slope: 0.3
  }
}
layers {
  bottom: "deconv1"
  top: "deconv0"
  name: "deconv0"
  type: DECONVOLUTION
  blobs_lr: 1
  blobs_lr: 2
  weight_decay: 1
  weight_decay: 1
  deconvolution_param {
    pad: 2
    kernel_size: 5
    stride: 2
    output_height: 216
    output_width: 216
    output_channels: 3
  }
}
layers {
  bottom: "deconv0"
  bottom: "target_ims"
  name: "loss"
  type: EUCLIDEAN_LOSS
}
I0813 06:26:03.730242 10380 net.cpp:65] Creating Layer source_ims
I0813 06:26:03.730250 10380 net.cpp:189] source_ims -> source_ims
I0813 06:26:03.730351 10380 data_layer.cpp:223] Opening lmdb /scr/r6/tgebru/inverting_conv/caffe_invert_alexnet/data/siggraph/tiny_summer_train_lmdb
I0813 06:26:03.730556 10380 data_layer.cpp:285] output data size: 12,3,227,227
I0813 06:26:03.730564 10380 data_layer.cpp:304] Loading mean file from/scr/r6/tgebru/timnit_caffe/data/ilsvrc12/imagenet_mean.binaryproto
I0813 06:26:03.735173 10380 net.cpp:84] Top shape: 12 3 227 227 (1855044)
I0813 06:26:03.735183 10380 net.cpp:116] source_ims does not need backward computation.
I0813 06:26:03.735189 10380 net.cpp:65] Creating Layer target_ims
I0813 06:26:03.735193 10380 net.cpp:189] target_ims -> target_ims
I0813 06:26:03.735328 10380 data_layer.cpp:223] Opening lmdb /scr/r6/tgebru/inverting_conv/caffe_invert_alexnet/data/siggraph/tiny_winter_train_lmdb
I0813 06:26:03.735486 10380 data_layer.cpp:285] output data size: 12,3,216,216
I0813 06:26:03.735491 10380 data_layer.cpp:304] Loading mean file from/scr/r6/tgebru/timnit_caffe/data/ilsvrc12/imagenet_mean.binaryproto
I0813 06:26:03.739840 10380 net.cpp:84] Top shape: 12 3 216 216 (1679616)
I0813 06:26:03.739848 10380 net.cpp:116] target_ims does not need backward computation.
I0813 06:26:03.739861 10380 net.cpp:65] Creating Layer conv1
I0813 06:26:03.739864 10380 net.cpp:228] conv1 <- source_ims
I0813 06:26:03.739975 10380 net.cpp:189] conv1 -> conv1
I0813 06:26:03.741266 10380 net.cpp:84] Top shape: 12 96 55 55 (3484800)
I0813 06:26:03.741272 10380 net.cpp:116] conv1 does not need backward computation.
I0813 06:26:03.741277 10380 net.cpp:65] Creating Layer relu1
I0813 06:26:03.741281 10380 net.cpp:228] relu1 <- conv1
I0813 06:26:03.741286 10380 net.cpp:179] relu1 -> conv1 (in-place)
I0813 06:26:03.741294 10380 net.cpp:84] Top shape: 12 96 55 55 (3484800)
I0813 06:26:03.741297 10380 net.cpp:116] relu1 does not need backward computation.
I0813 06:26:03.741302 10380 net.cpp:65] Creating Layer pool1
I0813 06:26:03.741305 10380 net.cpp:228] pool1 <- conv1
I0813 06:26:03.741309 10380 net.cpp:189] pool1 -> pool1
I0813 06:26:03.741322 10380 net.cpp:84] Top shape: 12 96 27 27 (839808)
I0813 06:26:03.741323 10380 net.cpp:116] pool1 does not need backward computation.
I0813 06:26:03.741329 10380 net.cpp:65] Creating Layer norm1
I0813 06:26:03.741331 10380 net.cpp:228] norm1 <- pool1
I0813 06:26:03.741336 10380 net.cpp:189] norm1 -> norm1
I0813 06:26:03.741345 10380 net.cpp:84] Top shape: 12 96 27 27 (839808)
I0813 06:26:03.741348 10380 net.cpp:116] norm1 does not need backward computation.
I0813 06:26:03.741353 10380 net.cpp:65] Creating Layer Rconv6
I0813 06:26:03.741355 10380 net.cpp:228] Rconv6 <- norm1
I0813 06:26:03.741359 10380 net.cpp:189] Rconv6 -> Rconv6
I0813 06:26:03.741629 10380 net.cpp:84] Top shape: 12 256 27 27 (2239488)
I0813 06:26:03.741633 10380 net.cpp:111] Rconv6 needs backward computation.
I0813 06:26:03.741637 10380 net.cpp:65] Creating Layer Rrelu6
I0813 06:26:03.741641 10380 net.cpp:228] Rrelu6 <- Rconv6
I0813 06:26:03.741646 10380 net.cpp:179] Rrelu6 -> Rconv6 (in-place)
I0813 06:26:03.741649 10380 net.cpp:84] Top shape: 12 256 27 27 (2239488)
I0813 06:26:03.741652 10380 net.cpp:111] Rrelu6 needs backward computation.
I0813 06:26:03.741658 10380 net.cpp:65] Creating Layer Rconv7
I0813 06:26:03.741660 10380 net.cpp:228] Rconv7 <- Rconv6
I0813 06:26:03.741665 10380 net.cpp:189] Rconv7 -> Rconv7
I0813 06:26:03.742377 10380 net.cpp:84] Top shape: 12 256 27 27 (2239488)
I0813 06:26:03.742382 10380 net.cpp:111] Rconv7 needs backward computation.
I0813 06:26:03.742385 10380 net.cpp:65] Creating Layer Rrelu7
I0813 06:26:03.742410 10380 net.cpp:228] Rrelu7 <- Rconv7
I0813 06:26:03.742416 10380 net.cpp:179] Rrelu7 -> Rconv7 (in-place)
I0813 06:26:03.742420 10380 net.cpp:84] Top shape: 12 256 27 27 (2239488)
I0813 06:26:03.742424 10380 net.cpp:111] Rrelu7 needs backward computation.
I0813 06:26:03.742427 10380 net.cpp:65] Creating Layer Rconv8
I0813 06:26:03.742429 10380 net.cpp:228] Rconv8 <- Rconv7
I0813 06:26:03.742434 10380 net.cpp:189] Rconv8 -> Rconv8
I0813 06:26:03.743242 10380 net.cpp:84] Top shape: 12 256 27 27 (2239488)
I0813 06:26:03.743247 10380 net.cpp:111] Rconv8 needs backward computation.
I0813 06:26:03.743250 10380 net.cpp:65] Creating Layer Rrelu8
I0813 06:26:03.743253 10380 net.cpp:228] Rrelu8 <- Rconv8
I0813 06:26:03.743257 10380 net.cpp:179] Rrelu8 -> Rconv8 (in-place)
I0813 06:26:03.743262 10380 net.cpp:84] Top shape: 12 256 27 27 (2239488)
I0813 06:26:03.743264 10380 net.cpp:111] Rrelu8 needs backward computation.
I0813 06:26:03.743268 10380 net.cpp:65] Creating Layer deconv2
I0813 06:26:03.743270 10380 net.cpp:228] deconv2 <- Rconv8
I0813 06:26:03.743274 10380 net.cpp:189] deconv2 -> deconv2
I0813 06:26:03.744338 10380 net.cpp:84] Top shape: 12 64 54 54 (2239488)
I0813 06:26:03.744343 10380 net.cpp:111] deconv2 needs backward computation.
I0813 06:26:03.744348 10380 net.cpp:65] Creating Layer relu_deconv2
I0813 06:26:03.744350 10380 net.cpp:228] relu_deconv2 <- deconv2
I0813 06:26:03.744354 10380 net.cpp:179] relu_deconv2 -> deconv2 (in-place)
I0813 06:26:03.744359 10380 net.cpp:84] Top shape: 12 64 54 54 (2239488)
I0813 06:26:03.744361 10380 net.cpp:111] relu_deconv2 needs backward computation.
I0813 06:26:03.744365 10380 net.cpp:65] Creating Layer deconv1
I0813 06:26:03.744367 10380 net.cpp:228] deconv1 <- deconv2
I0813 06:26:03.744372 10380 net.cpp:189] deconv1 -> deconv1
I0813 06:26:03.744508 10380 net.cpp:84] Top shape: 12 32 108 108 (4478976)
I0813 06:26:03.744513 10380 net.cpp:111] deconv1 needs backward computation.
I0813 06:26:03.744518 10380 net.cpp:65] Creating Layer relu_deconv1
I0813 06:26:03.744519 10380 net.cpp:228] relu_deconv1 <- deconv1
I0813 06:26:03.744524 10380 net.cpp:179] relu_deconv1 -> deconv1 (in-place)
I0813 06:26:03.744527 10380 net.cpp:84] Top shape: 12 32 108 108 (4478976)
I0813 06:26:03.744530 10380 net.cpp:111] relu_deconv1 needs backward computation.
I0813 06:26:03.744535 10380 net.cpp:65] Creating Layer deconv0
I0813 06:26:03.744539 10380 net.cpp:228] deconv0 <- deconv1
I0813 06:26:03.744541 10380 net.cpp:189] deconv0 -> deconv0
I0813 06:26:03.744596 10380 net.cpp:84] Top shape: 12 3 216 216 (1679616)
I0813 06:26:03.744599 10380 net.cpp:111] deconv0 needs backward computation.
I0813 06:26:03.744603 10380 net.cpp:65] Creating Layer loss
I0813 06:26:03.744606 10380 net.cpp:228] loss <- deconv0
I0813 06:26:03.744609 10380 net.cpp:228] loss <- target_ims
I0813 06:26:03.744617 10380 net.cpp:111] loss needs backward computation.
I0813 06:26:03.744633 10380 net.cpp:238] Collecting Learning Rate and Weight Decay.
…
    source: "/scr/r6/tgebru/inverting_conv/caffe_invert_alexnet/data/siggraph/tiny_summer_val_lmdb"
    mean_file: "/scr/r6/tgebru/timnit_caffe/data/ilsvrc12/imagenet_mean.binaryproto"
    batch_size: 64
    crop_size: 227
    mirror: false
    backend: LMDB
  }
}
layers {
  top: "target_ims"
  name: "target_ims"
  type: DATA
  data_param {
    source: "/scr/r6/tgebru/inverting_conv/caffe_invert_alexnet/data/siggraph/tiny_winter_val_lmdb"
    mean_file: "/scr/r6/tgebru/timnit_caffe/data/ilsvrc12/imagenet_mean.binaryproto"
    batch_size: 64
    crop_size: 216
    mirror: false
    backend: LMDB
  }
}
layers {
  bottom: "source_ims"
  top: "conv1"
  name: "conv1"
  type: CONVOLUTION
  blobs_lr: 0
  blobs_lr: 0
  weight_decay: 1
  weight_decay: 0
  convolution_param {
    num_output: 96
    kernel_size: 11
    stride: 4
    weight_filler {
      type: "gaussian"
      std: 0.01
    }
    bias_filler {
      type: "constant"
      value: 0
    }
  }
}
layers {
  bottom: "conv1"
  top: "conv1"
  name: "relu1"
  type: RELU
}
layers {
  bottom: "conv1"
  top: "pool1"
  name: "pool1"
  type: POOLING
  pooling_param {
    pool: MAX
    kernel_size: 3
    stride: 2
  }
}
layers {
  bottom: "pool1"
  top: "norm1"
  name: "norm1"
  type: LRN
  lrn_param {
    local_size: 5
    alpha: 0.0001
    beta: 0.75
  }
}
layers {
  bottom: "norm1"
  top: "Rconv6"
  name: "Rconv6"
  type: CONVOLUTION
  blobs_lr: 0
  blobs_lr: 0
  weight_decay: 1
  weight_decay: 0
  convolution_param {
    num_output: 256
    pad: 1
    kernel_size: 3
  }
}
layers {
  bottom: "Rconv6"
  top: "Rconv6"
  name: "Rrelu6"
  type: RELU
}
layers {
  bottom: "Rconv6"
  top: "Rconv7"
  name: "Rconv7"
  type: CONVOLUTION
  blobs_lr: 0
  blobs_lr: 0
  weight_decay: 1
  weight_decay: 0
  convolution_param {
    num_output: 256
    pad: 1
    kernel_size: 3
    group: 2
  }
}
layers {
  bottom: "Rconv7"
  top: "Rconv7"
  name: "Rrelu7"
  type: RELU
}
layers {
  bottom: "Rconv7"
  top: "Rconv8"
  name: "Rconv8"
  type: CONVOLUTION
  blobs_lr: 0
  blobs_lr: 0
  weight_decay: 1
  weight_decay: 0
  convolution_param {
    num_output: 256
    pad: 1
    kernel_size: 3
    group: 2
  }
}
layers {
  bottom: "Rconv8"
  top: "Rconv8"
  name: "Rrelu8"
  type: RELU
}
layers {
  bottom: "Rconv8"
  top: "deconv2"
  name: "deconv2"
  type: DECONVOLUTION
  blobs_lr: 0
  blobs_lr: 0
  weight_decay: 1
  weight_decay: 0
  deconvolution_param {
    pad: 2
    kernel_size: 5
    stride: 2
    output_height: 54
    output_width: 54
    output_channels: 64
  }
}
layers {
  bottom: "deconv2"
  top: "deconv2"
  name: "relu_deconv2"
  type: RELU
  relu_param {
    negative_slope: 0.3
  }
}
layers {
  bottom: "deconv2"
  top: "deconv1"
  name: "deconv1"
  type: DECONVOLUTION
  blobs_lr: 0
  blobs_lr: 0
  weight_decay: 1
  weight_decay: 0
  deconvolution_param {
    pad: 2
    kernel_size: 5
    stride: 2
    output_height: 108
    output_width: 108
    output_channels: 32
  }
}
layers {
  bottom: "deconv1"
  top: "deconv1"
  name: "relu_deconv1"
  type: RELU
  relu_param {
    negative_slope: 0.3
  }
}
layers {
  bottom: "deconv1"
  top: "deconv0"
  name: "deconv0"
  type: DECONVOLUTION
  blobs_lr: 0
  blobs_lr: 0
  weight_decay: 1
  weight_decay: 0
  deconvolution_param {
    pad: 2
    kernel_size: 5
    stride: 2
    output_height: 216
    output_width: 216
    output_channels: 3
  }
}
layers {
  bottom: "deconv0"
  bottom: "target_ims"
  name: "loss"
  type: EUCLIDEAN_LOSS
}
I0813 06:26:03.745348 10380 net.cpp:65] Creating Layer source_ims
I0813 06:26:03.745354 10380 net.cpp:189] source_ims -> source_ims
I0813 06:26:03.745434 10380 data_layer.cpp:223] Opening lmdb /scr/r6/tgebru/inverting_conv/caffe_invert_alexnet/data/siggraph/tiny_summer_val_lmdb
I0813 06:26:03.745645 10380 data_layer.cpp:285] output data size: 64,3,227,227
I0813 06:26:03.745650 10380 data_layer.cpp:304] Loading mean file from/scr/r6/tgebru/timnit_caffe/data/ilsvrc12/imagenet_mean.binaryproto
I0813 06:26:03.759946 10380 net.cpp:84] Top shape: 64 3 227 227 (9893568)
I0813 06:26:03.759965 10380 net.cpp:116] source_ims does not need backward computation.
I0813 06:26:03.759976 10380 net.cpp:65] Creating Layer target_ims
I0813 06:26:03.759981 10380 net.cpp:189] target_ims -> target_ims
I0813 06:26:03.760064 10380 data_layer.cpp:223] Opening lmdb /scr/r6/tgebru/inverting_conv/caffe_invert_alexnet/data/siggraph/tiny_winter_val_lmdb
I0813 06:26:03.760184 10380 data_layer.cpp:285] output data size: 64,3,216,216
I0813 06:26:03.760187 10380 data_layer.cpp:304] Loading mean file from/scr/r6/tgebru/timnit_caffe/data/ilsvrc12/imagenet_mean.binaryproto
I0813 06:26:03.772780 10380 net.cpp:84] Top shape: 64 3 216 216 (8957952)
I0813 06:26:03.772827 10380 net.cpp:116] target_ims does not need backward computation.
I0813 06:26:03.772840 10380 net.cpp:65] Creating Layer conv1
I0813 06:26:03.772845 10380 net.cpp:228] conv1 <- source_ims
I0813 06:26:03.772852 10380 net.cpp:189] conv1 -> conv1
I0813 06:26:03.774117 10380 net.cpp:84] Top shape: 64 96 55 55 (18585600)
I0813 06:26:03.774122 10380 net.cpp:116] conv1 does not need backward computation.
I0813 06:26:03.774127 10380 net.cpp:65] Creating Layer relu1
I0813 06:26:03.774130 10380 net.cpp:228] relu1 <- conv1
I0813 06:26:03.774135 10380 net.cpp:179] relu1 -> conv1 (in-place)
I0813 06:26:03.774140 10380 net.cpp:84] Top shape: 64 96 55 55 (18585600)
I0813 06:26:03.774143 10380 net.cpp:116] relu1 does not need backward computation.
I0813 06:26:03.774148 10380 net.cpp:65] Creating Layer pool1
I0813 06:26:03.774152 10380 net.cpp:228] pool1 <- conv1
I0813 06:26:03.774155 10380 net.cpp:189] pool1 -> pool1
I0813 06:26:03.774163 10380 net.cpp:84] Top shape: 64 96 27 27 (4478976)
I0813 06:26:03.774165 10380 net.cpp:116] pool1 does not need backward computation.
I0813 06:26:03.774170 10380 net.cpp:65] Creating Layer norm1
I0813 06:26:03.774173 10380 net.cpp:228] norm1 <- pool1
I0813 06:26:03.774178 10380 net.cpp:189] norm1 -> norm1
I0813 06:26:03.774183 10380 net.cpp:84] Top shape: 64 96 27 27 (4478976)
I0813 06:26:03.774186 10380 net.cpp:116] norm1 does not need backward computation.
I0813 06:26:03.774190 10380 net.cpp:65] Creating Layer Rconv6
I0813 06:26:03.774194 10380 net.cpp:228] Rconv6 <- norm1
I0813 06:26:03.774199 10380 net.cpp:189] Rconv6 -> Rconv6
I0813 06:26:03.774435 10380 net.cpp:84] Top shape: 64 256 27 27 (11943936)
I0813 06:26:03.774440 10380 net.cpp:116] Rconv6 does not need backward computation.
I0813 06:26:03.774444 10380 net.cpp:65] Creating Layer Rrelu6
I0813 06:26:03.774447 10380 net.cpp:228] Rrelu6 <- Rconv6
I0813 06:26:03.774451 10380 net.cpp:179] Rrelu6 -> Rconv6 (in-place)
I0813 06:26:03.774456 10380 net.cpp:84] Top shape: 64 256 27 27 (11943936)
I0813 06:26:03.774458 10380 net.cpp:116] Rrelu6 does not need backward computation.
I0813 06:26:03.774463 10380 net.cpp:65] Creating Layer Rconv7
I0813 06:26:03.774466 10380 net.cpp:228] Rconv7 <- Rconv6
I0813 06:26:03.774469 10380 net.cpp:189] Rconv7 -> Rconv7
I0813 06:26:03.775189 10380 net.cpp:84] Top shape: 64 256 27 27 (11943936)
I0813 06:26:03.775193 10380 net.cpp:116] Rconv7 does not need backward computation.
I0813 06:26:03.775197 10380 net.cpp:65] Creating Layer Rrelu7
I0813 06:26:03.775199 10380 net.cpp:228] Rrelu7 <- Rconv7
I0813 06:26:03.775203 10380 net.cpp:179] Rrelu7 -> Rconv7 (in-place)
I0813 06:26:03.775207 10380 net.cpp:84] Top shape: 64 256 27 27 (11943936)
I0813 06:26:03.775210 10380 net.cpp:116] Rrelu7 does not need backward computation.
I0813 06:26:03.775214 10380 net.cpp:65] Creating Layer Rconv8
I0813 06:26:03.775218 10380 net.cpp:228] Rconv8 <- Rconv7
I0813 06:26:03.775221 10380 net.cpp:189] Rconv8 -> Rconv8
I0813 06:26:03.776021 10380 net.cpp:84] Top shape: 64 256 27 27 (11943936)
I0813 06:26:03.776026 10380 net.cpp:116] Rconv8 does not need backward computation.
I0813 06:26:03.776031 10380 net.cpp:65] Creating Layer Rrelu8
I0813 06:26:03.776033 10380 net.cpp:228] Rrelu8 <- Rconv8
I0813 06:26:03.776037 10380 net.cpp:179] Rrelu8 -> Rconv8 (in-place)
I0813 06:26:03.776041 10380 net.cpp:84] Top shape: 64 256 27 27 (11943936)
I0813 06:26:03.776044 10380 net.cpp:116] Rrelu8 does not need backward computation.
I0813 06:26:03.776049 10380 net.cpp:65] Creating Layer deconv2
I0813 06:26:03.776052 10380 net.cpp:228] deconv2 <- Rconv8
I0813 06:26:03.776057 10380 net.cpp:189] deconv2 -> deconv2
I0813 06:26:03.777156 10380 net.cpp:84] Top shape: 64 64 54 54 (11943936)
I0813 06:26:03.777161 10380 net.cpp:116] deconv2 does not need backward computation.
I0813 06:26:03.777166 10380 net.cpp:65] Creating Layer relu_deconv2
I0813 06:26:03.777169 10380 net.cpp:228] relu_deconv2 <- deconv2
I0813 06:26:03.777173 10380 net.cpp:179] relu_deconv2 -> deconv2 (in-place)
I0813 06:26:03.777179 10380 net.cpp:84] Top shape: 64 64 54 54 (11943936)
I0813 06:26:03.777200 10380 net.cpp:116] relu_deconv2 does not need backward computation.
I0813 06:26:03.777205 10380 net.cpp:65] Creating Layer deconv1
I0813 06:26:03.777209 10380 net.cpp:228] deconv1 <- deconv2
I0813 06:26:03.777212 10380 net.cpp:189] deconv1 -> deconv1
I0813 06:26:03.777350 10380 net.cpp:84] Top shape: 64 32 108 108 (23887872)
I0813 06:26:03.777354 10380 net.cpp:116] deconv1 does not need backward computation.
I0813 06:26:03.777359 10380 net.cpp:65] Creating Layer relu_deconv1
I0813 06:26:03.777362 10380 net.cpp:228] relu_deconv1 <- deconv1
I0813 06:26:03.777366 10380 net.cpp:179] relu_deconv1 -> deconv1 (in-place)
I0813 06:26:03.777370 10380 net.cpp:84] Top shape: 64 32 108 108 (23887872)
I0813 06:26:03.777374 10380 net.cpp:116] relu_deconv1 does not need backward computation.
I0813 06:26:03.777379 10380 net.cpp:65] Creating Layer deconv0
I0813 06:26:03.777381 10380 net.cpp:228] deconv0 <- deconv1
I0813 06:26:03.777385 10380 net.cpp:189] deconv0 -> deconv0
I0813 06:26:03.777407 10380 net.cpp:84] Top shape: 64 3 216 216 (8957952)
I0813 06:26:03.777411 10380 net.cpp:116] deconv0 does not need backward computation.
I0813 06:26:03.777415 10380 net.cpp:65] Creating Layer loss
I0813 06:26:03.777423 10380 net.cpp:228] loss <- deconv0
I0813 06:26:03.777427 10380 net.cpp:228] loss <- target_ims
I0813 06:26:03.777432 10380 net.cpp:116] loss does not need backward computation.
I0813 06:26:03.777446 10380 net.cpp:238] Collecting Learning Rate and Weight Decay.
…
