…
    source: "/scr/r6/tgebru/inverting_conv/caffe_invert_alexnet/data/siggraph/tiny_summer_train_lmdb"
    mean_file: "/scr/r6/tgebru/timnit_caffe/data/ilsvrc12/imagenet_mean.binaryproto"
    batch_size: 12
    crop_size: 227
    mirror: false
    backend: LMDB
  }
}
layers {
  top: "target_ims"
  name: "target_ims"
  type: DATA
  data_param {
    source: "/scr/r6/tgebru/inverting_conv/caffe_invert_alexnet/data/siggraph/tiny_summer_train_lmdb"
    mean_file: "/scr/r6/tgebru/timnit_caffe/data/ilsvrc12/imagenet_mean.binaryproto"
    batch_size: 12
    crop_size: 216
    mirror: false
    backend: LMDB
  }
}
layers {
  bottom: "source_ims"
  top: "conv1"
  name: "conv1"
  type: CONVOLUTION
  blobs_lr: 0
  blobs_lr: 0
  weight_decay: 1
  weight_decay: 0
  convolution_param {
    num_output: 96
    kernel_size: 11
    stride: 4
    weight_filler {
      type: "gaussian"
      std: 0.01
    }
    bias_filler {
      type: "constant"
      value: 0
    }
  }
}
layers {
  bottom: "conv1"
  top: "conv1"
  name: "relu1"
  type: RELU
}
layers {
  bottom: "conv1"
  top: "pool1"
  name: "pool1"
  type: POOLING
  pooling_param {
    pool: MAX
    kernel_size: 3
    stride: 2
  }
}
layers {
  bottom: "pool1"
  top: "norm1"
  name: "norm1"
  type: LRN
  lrn_param {
    local_size: 5
    alpha: 0.0001
    beta: 0.75
  }
}
layers {
  bottom: "norm1"
  top: "Rconv6"
  name: "Rconv6"
  type: CONVOLUTION
  blobs_lr: 1
  blobs_lr: 2
  weight_decay: 1
  weight_decay: 0
  convolution_param {
    num_output: 256
    pad: 1
    kernel_size: 3
  }
}
layers {
  bottom: "Rconv6"
  top: "Rconv6"
  name: "Rrelu6"
  type: RELU
}
layers {
  bottom: "Rconv6"
  top: "Rconv7"
  name: "Rconv7"
  type: CONVOLUTION
  blobs_lr: 1
  blobs_lr: 2
  weight_decay: 1
  weight_decay: 0
  convolution_param {
    num_output: 256
    pad: 1
    kernel_size: 3
    group: 2
  }
}
layers {
  bottom: "Rconv7"
  top: "Rconv7"
  name: "Rrelu7"
  type: RELU
}
layers {
  bottom: "Rconv7"
  top: "Rconv8"
  name: "Rconv8"
  type: CONVOLUTION
  blobs_lr: 1
  blobs_lr: 2
  weight_decay: 1
  weight_decay: 0
  convolution_param {
    num_output: 256
    pad: 1
    kernel_size: 3
    group: 2
  }
}
layers {
  bottom: "Rconv8"
  top: "Rconv8"
  name: "Rrelu8"
  type: RELU
}
layers {
  bottom: "Rconv8"
  top: "deconv2"
  name: "deconv2"
  type: DECONVOLUTION
  blobs_lr: 1
  blobs_lr: 2
  weight_decay: 1
  weight_decay: 0
  deconvolution_param {
    pad: 2
    kernel_size: 5
    stride: 2
    output_height: 54
    output_width: 54
    output_channels: 64
  }
}
layers {
  bottom: "deconv2"
  top: "deconv2"
  name: "relu_deconv2"
  type: RELU
  relu_param {
    negative_slope: 0.3
  }
}
layers {
  bottom: "deconv2"
  top: "deconv1"
  name: "deconv1"
  type: DECONVOLUTION
  blobs_lr: 1
  blobs_lr: 2
  weight_decay: 1
  weight_decay: 0
  deconvolution_param {
    pad: 2
    kernel_size: 5
    stride: 2
    output_height: 108
    output_width: 108
    output_channels: 32
  }
}
layers {
  bottom: "deconv1"
  top: "deconv1"
  name: "relu_deconv1"
  type: RELU
  relu_param {
    negative_slope: 0.3
  }
}
layers {
  bottom: "deconv1"
  top: "deconv0"
  name: "deconv0"
  type: DECONVOLUTION
  blobs_lr: 1
  blobs_lr: 2
  weight_decay: 1
  weight_decay: 1
  deconvolution_param {
    pad: 2
    kernel_size: 5
    stride: 2
    output_height: 216
    output_width: 216
    output_channels: 3
  }
}
layers {
  bottom: "deconv0"
  bottom: "target_ims"
  name: "loss"
  type: EUCLIDEAN_LOSS
}
I0813 05:27:27.651540 21984 net.cpp:65] Creating Layer source_ims
I0813 05:27:27.651549 21984 net.cpp:189] source_ims -> source_ims
I0813 05:27:27.651648 21984 data_layer.cpp:223] Opening lmdb /scr/r6/tgebru/inverting_conv/caffe_invert_alexnet/data/siggraph/tiny_summer_train_lmdb
I0813 05:27:27.651854 21984 data_layer.cpp:285] output data size: 12,3,227,227
I0813 05:27:27.651861 21984 data_layer.cpp:304] Loading mean file from/scr/r6/tgebru/timnit_caffe/data/ilsvrc12/imagenet_mean.binaryproto
I0813 05:27:27.656486 21984 net.cpp:84] Top shape: 12 3 227 227 (1855044)
I0813 05:27:27.656493 21984 net.cpp:116] source_ims does not need backward computation.
I0813 05:27:27.656499 21984 net.cpp:65] Creating Layer target_ims
I0813 05:27:27.656504 21984 net.cpp:189] target_ims -> target_ims
I0813 05:27:27.656610 21984 data_layer.cpp:223] Opening lmdb /scr/r6/tgebru/inverting_conv/caffe_invert_alexnet/data/siggraph/tiny_summer_train_lmdb
I0813 05:27:27.656702 21984 data_layer.cpp:285] output data size: 12,3,216,216
I0813 05:27:27.656705 21984 data_layer.cpp:304] Loading mean file from/scr/r6/tgebru/timnit_caffe/data/ilsvrc12/imagenet_mean.binaryproto
I0813 05:27:27.661386 21984 net.cpp:84] Top shape: 12 3 216 216 (1679616)
I0813 05:27:27.661393 21984 net.cpp:116] target_ims does not need backward computation.
I0813 05:27:27.661401 21984 net.cpp:65] Creating Layer conv1
I0813 05:27:27.661406 21984 net.cpp:228] conv1 <- source_ims
I0813 05:27:27.661443 21984 net.cpp:189] conv1 -> conv1
I0813 05:27:27.662726 21984 net.cpp:84] Top shape: 12 96 55 55 (3484800)
I0813 05:27:27.662731 21984 net.cpp:116] conv1 does not need backward computation.
I0813 05:27:27.662736 21984 net.cpp:65] Creating Layer relu1
I0813 05:27:27.662739 21984 net.cpp:228] relu1 <- conv1
I0813 05:27:27.662745 21984 net.cpp:179] relu1 -> conv1 (in-place)
I0813 05:27:27.662753 21984 net.cpp:84] Top shape: 12 96 55 55 (3484800)
I0813 05:27:27.662756 21984 net.cpp:116] relu1 does not need backward computation.
I0813 05:27:27.662762 21984 net.cpp:65] Creating Layer pool1
I0813 05:27:27.662765 21984 net.cpp:228] pool1 <- conv1
I0813 05:27:27.662770 21984 net.cpp:189] pool1 -> pool1
I0813 05:27:27.662782 21984 net.cpp:84] Top shape: 12 96 27 27 (839808)
I0813 05:27:27.662786 21984 net.cpp:116] pool1 does not need backward computation.
I0813 05:27:27.662791 21984 net.cpp:65] Creating Layer norm1
I0813 05:27:27.662793 21984 net.cpp:228] norm1 <- pool1
I0813 05:27:27.662797 21984 net.cpp:189] norm1 -> norm1
I0813 05:27:27.662806 21984 net.cpp:84] Top shape: 12 96 27 27 (839808)
I0813 05:27:27.662809 21984 net.cpp:116] norm1 does not need backward computation.
I0813 05:27:27.662813 21984 net.cpp:65] Creating Layer Rconv6
I0813 05:27:27.662817 21984 net.cpp:228] Rconv6 <- norm1
I0813 05:27:27.662822 21984 net.cpp:189] Rconv6 -> Rconv6
I0813 05:27:27.662993 21984 net.cpp:84] Top shape: 12 256 27 27 (2239488)
I0813 05:27:27.662997 21984 net.cpp:111] Rconv6 needs backward computation.
I0813 05:27:27.663002 21984 net.cpp:65] Creating Layer Rrelu6
I0813 05:27:27.663005 21984 net.cpp:228] Rrelu6 <- Rconv6
I0813 05:27:27.663009 21984 net.cpp:179] Rrelu6 -> Rconv6 (in-place)
I0813 05:27:27.663014 21984 net.cpp:84] Top shape: 12 256 27 27 (2239488)
I0813 05:27:27.663017 21984 net.cpp:111] Rrelu6 needs backward computation.
I0813 05:27:27.663022 21984 net.cpp:65] Creating Layer Rconv7
I0813 05:27:27.663025 21984 net.cpp:228] Rconv7 <- Rconv6
I0813 05:27:27.663029 21984 net.cpp:189] Rconv7 -> Rconv7
I0813 05:27:27.663828 21984 net.cpp:84] Top shape: 12 256 27 27 (2239488)
I0813 05:27:27.663833 21984 net.cpp:111] Rconv7 needs backward computation.
I0813 05:27:27.663837 21984 net.cpp:65] Creating Layer Rrelu7
I0813 05:27:27.663841 21984 net.cpp:228] Rrelu7 <- Rconv7
I0813 05:27:27.663864 21984 net.cpp:179] Rrelu7 -> Rconv7 (in-place)
I0813 05:27:27.663871 21984 net.cpp:84] Top shape: 12 256 27 27 (2239488)
I0813 05:27:27.663872 21984 net.cpp:111] Rrelu7 needs backward computation.
I0813 05:27:27.663877 21984 net.cpp:65] Creating Layer Rconv8
I0813 05:27:27.663880 21984 net.cpp:228] Rconv8 <- Rconv7
I0813 05:27:27.663884 21984 net.cpp:189] Rconv8 -> Rconv8
I0813 05:27:27.664692 21984 net.cpp:84] Top shape: 12 256 27 27 (2239488)
I0813 05:27:27.664697 21984 net.cpp:111] Rconv8 needs backward computation.
I0813 05:27:27.664701 21984 net.cpp:65] Creating Layer Rrelu8
I0813 05:27:27.664705 21984 net.cpp:228] Rrelu8 <- Rconv8
I0813 05:27:27.664707 21984 net.cpp:179] Rrelu8 -> Rconv8 (in-place)
I0813 05:27:27.664711 21984 net.cpp:84] Top shape: 12 256 27 27 (2239488)
I0813 05:27:27.664715 21984 net.cpp:111] Rrelu8 needs backward computation.
I0813 05:27:27.664718 21984 net.cpp:65] Creating Layer deconv2
I0813 05:27:27.664721 21984 net.cpp:228] deconv2 <- Rconv8
I0813 05:27:27.664726 21984 net.cpp:189] deconv2 -> deconv2
I0813 05:27:27.665849 21984 net.cpp:84] Top shape: 12 64 54 54 (2239488)
I0813 05:27:27.665854 21984 net.cpp:111] deconv2 needs backward computation.
I0813 05:27:27.665859 21984 net.cpp:65] Creating Layer relu_deconv2
I0813 05:27:27.665863 21984 net.cpp:228] relu_deconv2 <- deconv2
I0813 05:27:27.665866 21984 net.cpp:179] relu_deconv2 -> deconv2 (in-place)
I0813 05:27:27.665871 21984 net.cpp:84] Top shape: 12 64 54 54 (2239488)
I0813 05:27:27.665874 21984 net.cpp:111] relu_deconv2 needs backward computation.
I0813 05:27:27.665879 21984 net.cpp:65] Creating Layer deconv1
I0813 05:27:27.665880 21984 net.cpp:228] deconv1 <- deconv2
I0813 05:27:27.665885 21984 net.cpp:189] deconv1 -> deconv1
I0813 05:27:27.666050 21984 net.cpp:84] Top shape: 12 32 108 108 (4478976)
I0813 05:27:27.666054 21984 net.cpp:111] deconv1 needs backward computation.
I0813 05:27:27.666059 21984 net.cpp:65] Creating Layer relu_deconv1
I0813 05:27:27.666061 21984 net.cpp:228] relu_deconv1 <- deconv1
I0813 05:27:27.666065 21984 net.cpp:179] relu_deconv1 -> deconv1 (in-place)
I0813 05:27:27.666070 21984 net.cpp:84] Top shape: 12 32 108 108 (4478976)
I0813 05:27:27.666074 21984 net.cpp:111] relu_deconv1 needs backward computation.
I0813 05:27:27.666079 21984 net.cpp:65] Creating Layer deconv0
I0813 05:27:27.666081 21984 net.cpp:228] deconv0 <- deconv1
I0813 05:27:27.666085 21984 net.cpp:189] deconv0 -> deconv0
I0813 05:27:27.666105 21984 net.cpp:84] Top shape: 12 3 216 216 (1679616)
I0813 05:27:27.666108 21984 net.cpp:111] deconv0 needs backward computation.
I0813 05:27:27.666112 21984 net.cpp:65] Creating Layer loss
I0813 05:27:27.666115 21984 net.cpp:228] loss <- deconv0
I0813 05:27:27.666118 21984 net.cpp:228] loss <- target_ims
I0813 05:27:27.666126 21984 net.cpp:111] loss needs backward computation.
I0813 05:27:27.666139 21984 net.cpp:238] Collecting Learning Rate and Weight Decay.
…
    source: "/scr/r6/tgebru/inverting_conv/caffe_invert_alexnet/data/siggraph/tiny_summer_val_lmdb"
    mean_file: "/scr/r6/tgebru/timnit_caffe/data/ilsvrc12/imagenet_mean.binaryproto"
    batch_size: 2
    crop_size: 227
    mirror: false
    backend: LMDB
  }
}
layers {
  top: "target_ims"
  name: "target_ims"
  type: DATA
  data_param {
    source: "/scr/r6/tgebru/inverting_conv/caffe_invert_alexnet/data/siggraph/tiny_summer_val_lmdb"
    mean_file: "/scr/r6/tgebru/timnit_caffe/data/ilsvrc12/imagenet_mean.binaryproto"
    batch_size: 2
    crop_size: 216
    mirror: false
    backend: LMDB
  }
}
layers {
  bottom: "source_ims"
  top: "conv1"
  name: "conv1"
  type: CONVOLUTION
  blobs_lr: 0
  blobs_lr: 0
  weight_decay: 1
  weight_decay: 0
  convolution_param {
    num_output: 96
    kernel_size: 11
    stride: 4
    weight_filler {
      type: "gaussian"
      std: 0.01
    }
    bias_filler {
      type: "constant"
      value: 0
    }
  }
}
layers {
  bottom: "conv1"
  top: "conv1"
  name: "relu1"
  type: RELU
}
layers {
  bottom: "conv1"
  top: "pool1"
  name: "pool1"
  type: POOLING
  pooling_param {
    pool: MAX
    kernel_size: 3
    stride: 2
  }
}
layers {
  bottom: "pool1"
  top: "norm1"
  name: "norm1"
  type: LRN
  lrn_param {
    local_size: 5
    alpha: 0.0001
    beta: 0.75
  }
}
layers {
  bottom: "norm1"
  top: "Rconv6"
  name: "Rconv6"
  type: CONVOLUTION
  blobs_lr: 0
  blobs_lr: 0
  weight_decay: 1
  weight_decay: 0
  convolution_param {
    num_output: 256
    pad: 1
    kernel_size: 3
  }
}
layers {
  bottom: "Rconv6"
  top: "Rconv6"
  name: "Rrelu6"
  type: RELU
}
layers {
  bottom: "Rconv6"
  top: "Rconv7"
  name: "Rconv7"
  type: CONVOLUTION
  blobs_lr: 0
  blobs_lr: 0
  weight_decay: 1
  weight_decay: 0
  convolution_param {
    num_output: 256
    pad: 1
    kernel_size: 3
    group: 2
  }
}
layers {
  bottom: "Rconv7"
  top: "Rconv7"
  name: "Rrelu7"
  type: RELU
}
layers {
  bottom: "Rconv7"
  top: "Rconv8"
  name: "Rconv8"
  type: CONVOLUTION
  blobs_lr: 0
  blobs_lr: 0
  weight_decay: 1
  weight_decay: 0
  convolution_param {
    num_output: 256
    pad: 1
    kernel_size: 3
    group: 2
  }
}
layers {
  bottom: "Rconv8"
  top: "Rconv8"
  name: "Rrelu8"
  type: RELU
}
layers {
  bottom: "Rconv8"
  top: "deconv2"
  name: "deconv2"
  type: DECONVOLUTION
  blobs_lr: 0
  blobs_lr: 0
  weight_decay: 1
  weight_decay: 0
  deconvolution_param {
    pad: 2
    kernel_size: 5
    stride: 2
    output_height: 54
    output_width: 54
    output_channels: 64
  }
}
layers {
  bottom: "deconv2"
  top: "deconv2"
  name: "relu_deconv2"
  type: RELU
  relu_param {
    negative_slope: 0.3
  }
}
layers {
  bottom: "deconv2"
  top: "deconv1"
  name: "deconv1"
  type: DECONVOLUTION
  blobs_lr: 0
  blobs_lr: 0
  weight_decay: 1
  weight_decay: 0
  deconvolution_param {
    pad: 2
    kernel_size: 5
    stride: 2
    output_height: 108
    output_width: 108
    output_channels: 32
  }
}
layers {
  bottom: "deconv1"
  top: "deconv1"
  name: "relu_deconv1"
  type: RELU
  relu_param {
    negative_slope: 0.3
  }
}
layers {
  bottom: "deconv1"
  top: "deconv0"
  name: "deconv0"
  type: DECONVOLUTION
  blobs_lr: 0
  blobs_lr: 0
  weight_decay: 1
  weight_decay: 0
  deconvolution_param {
    pad: 2
    kernel_size: 5
    stride: 2
    output_height: 216
    output_width: 216
    output_channels: 3
  }
}
layers {
  bottom: "deconv0"
  bottom: "target_ims"
  name: "loss"
  type: EUCLIDEAN_LOSS
}
I0813 05:27:27.666877 21984 net.cpp:65] Creating Layer source_ims
I0813 05:27:27.666882 21984 net.cpp:189] source_ims -> source_ims
I0813 05:27:27.666939 21984 data_layer.cpp:223] Opening lmdb /scr/r6/tgebru/inverting_conv/caffe_invert_alexnet/data/siggraph/tiny_summer_val_lmdb
I0813 05:27:27.667143 21984 data_layer.cpp:285] output data size: 2,3,227,227
I0813 05:27:27.667147 21984 data_layer.cpp:304] Loading mean file from/scr/r6/tgebru/timnit_caffe/data/ilsvrc12/imagenet_mean.binaryproto
I0813 05:27:27.669491 21984 net.cpp:84] Top shape: 2 3 227 227 (309174)
I0813 05:27:27.669497 21984 net.cpp:116] source_ims does not need backward computation.
I0813 05:27:27.669503 21984 net.cpp:65] Creating Layer target_ims
I0813 05:27:27.669507 21984 net.cpp:189] target_ims -> target_ims
I0813 05:27:27.669549 21984 data_layer.cpp:223] Opening lmdb /scr/r6/tgebru/inverting_conv/caffe_invert_alexnet/data/siggraph/tiny_summer_val_lmdb
I0813 05:27:27.669628 21984 data_layer.cpp:285] output data size: 2,3,216,216
I0813 05:27:27.669632 21984 data_layer.cpp:304] Loading mean file from/scr/r6/tgebru/timnit_caffe/data/ilsvrc12/imagenet_mean.binaryproto
I0813 05:27:27.671835 21984 net.cpp:84] Top shape: 2 3 216 216 (279936)
I0813 05:27:27.671841 21984 net.cpp:116] target_ims does not need backward computation.
I0813 05:27:27.671862 21984 net.cpp:65] Creating Layer conv1
I0813 05:27:27.671866 21984 net.cpp:228] conv1 <- source_ims
I0813 05:27:27.671872 21984 net.cpp:189] conv1 -> conv1
I0813 05:27:27.673112 21984 net.cpp:84] Top shape: 2 96 55 55 (580800)
I0813 05:27:27.673116 21984 net.cpp:116] conv1 does not need backward computation.
I0813 05:27:27.673120 21984 net.cpp:65] Creating Layer relu1
I0813 05:27:27.673123 21984 net.cpp:228] relu1 <- conv1
I0813 05:27:27.673128 21984 net.cpp:179] relu1 -> conv1 (in-place)
I0813 05:27:27.673133 21984 net.cpp:84] Top shape: 2 96 55 55 (580800)
I0813 05:27:27.673135 21984 net.cpp:116] relu1 does not need backward computation.
I0813 05:27:27.673141 21984 net.cpp:65] Creating Layer pool1
I0813 05:27:27.673143 21984 net.cpp:228] pool1 <- conv1
I0813 05:27:27.673147 21984 net.cpp:189] pool1 -> pool1
I0813 05:27:27.673153 21984 net.cpp:84] Top shape: 2 96 27 27 (139968)
I0813 05:27:27.673156 21984 net.cpp:116] pool1 does not need backward computation.
I0813 05:27:27.673161 21984 net.cpp:65] Creating Layer norm1
I0813 05:27:27.673163 21984 net.cpp:228] norm1 <- pool1
I0813 05:27:27.673167 21984 net.cpp:189] norm1 -> norm1
I0813 05:27:27.673173 21984 net.cpp:84] Top shape: 2 96 27 27 (139968)
I0813 05:27:27.673177 21984 net.cpp:116] norm1 does not need backward computation.
I0813 05:27:27.673180 21984 net.cpp:65] Creating Layer Rconv6
I0813 05:27:27.673182 21984 net.cpp:228] Rconv6 <- norm1
I0813 05:27:27.673187 21984 net.cpp:189] Rconv6 -> Rconv6
I0813 05:27:27.673748 21984 net.cpp:84] Top shape: 2 256 27 27 (373248)
I0813 05:27:27.673753 21984 net.cpp:116] Rconv6 does not need backward computation.
I0813 05:27:27.673758 21984 net.cpp:65] Creating Layer Rrelu6
I0813 05:27:27.673760 21984 net.cpp:228] Rrelu6 <- Rconv6
I0813 05:27:27.673764 21984 net.cpp:179] Rrelu6 -> Rconv6 (in-place)
I0813 05:27:27.673769 21984 net.cpp:84] Top shape: 2 256 27 27 (373248)
I0813 05:27:27.673773 21984 net.cpp:116] Rrelu6 does not need backward computation.
I0813 05:27:27.673777 21984 net.cpp:65] Creating Layer Rconv7
I0813 05:27:27.673779 21984 net.cpp:228] Rconv7 <- Rconv6
I0813 05:27:27.673784 21984 net.cpp:189] Rconv7 -> Rconv7
I0813 05:27:27.674515 21984 net.cpp:84] Top shape: 2 256 27 27 (373248)
I0813 05:27:27.674520 21984 net.cpp:116] Rconv7 does not need backward computation.
I0813 05:27:27.674523 21984 net.cpp:65] Creating Layer Rrelu7
I0813 05:27:27.674526 21984 net.cpp:228] Rrelu7 <- Rconv7
I0813 05:27:27.674530 21984 net.cpp:179] Rrelu7 -> Rconv7 (in-place)
I0813 05:27:27.674535 21984 net.cpp:84] Top shape: 2 256 27 27 (373248)
I0813 05:27:27.674536 21984 net.cpp:116] Rrelu7 does not need backward computation.
I0813 05:27:27.674540 21984 net.cpp:65] Creating Layer Rconv8
I0813 05:27:27.674542 21984 net.cpp:228] Rconv8 <- Rconv7
I0813 05:27:27.674546 21984 net.cpp:189] Rconv8 -> Rconv8
I0813 05:27:27.675283 21984 net.cpp:84] Top shape: 2 256 27 27 (373248)
I0813 05:27:27.675287 21984 net.cpp:116] Rconv8 does not need backward computation.
I0813 05:27:27.675292 21984 net.cpp:65] Creating Layer Rrelu8
I0813 05:27:27.675294 21984 net.cpp:228] Rrelu8 <- Rconv8
I0813 05:27:27.675297 21984 net.cpp:179] Rrelu8 -> Rconv8 (in-place)
I0813 05:27:27.675302 21984 net.cpp:84] Top shape: 2 256 27 27 (373248)
I0813 05:27:27.675304 21984 net.cpp:116] Rrelu8 does not need backward computation.
I0813 05:27:27.675308 21984 net.cpp:65] Creating Layer deconv2
I0813 05:27:27.675312 21984 net.cpp:228] deconv2 <- Rconv8
I0813 05:27:27.675315 21984 net.cpp:189] deconv2 -> deconv2
I0813 05:27:27.676327 21984 net.cpp:84] Top shape: 2 64 54 54 (373248)
I0813 05:27:27.676332 21984 net.cpp:116] deconv2 does not need backward computation.
I0813 05:27:27.676336 21984 net.cpp:65] Creating Layer relu_deconv2
I0813 05:27:27.676338 21984 net.cpp:228] relu_deconv2 <- deconv2
I0813 05:27:27.676342 21984 net.cpp:179] relu_deconv2 -> deconv2 (in-place)
I0813 05:27:27.676347 21984 net.cpp:84] Top shape: 2 64 54 54 (373248)
I0813 05:27:27.676350 21984 net.cpp:116] relu_deconv2 does not need backward computation.
I0813 05:27:27.676367 21984 net.cpp:65] Creating Layer deconv1
I0813 05:27:27.676369 21984 net.cpp:228] deconv1 <- deconv2
I0813 05:27:27.676373 21984 net.cpp:189] deconv1 -> deconv1
I0813 05:27:27.676520 21984 net.cpp:84] Top shape: 2 32 108 108 (746496)
I0813 05:27:27.676524 21984 net.cpp:116] deconv1 does not need backward computation.
I0813 05:27:27.676528 21984 net.cpp:65] Creating Layer relu_deconv1
I0813 05:27:27.676530 21984 net.cpp:228] relu_deconv1 <- deconv1
I0813 05:27:27.676535 21984 net.cpp:179] relu_deconv1 -> deconv1 (in-place)
I0813 05:27:27.676539 21984 net.cpp:84] Top shape: 2 32 108 108 (746496)
I0813 05:27:27.676542 21984 net.cpp:116] relu_deconv1 does not need backward computation.
I0813 05:27:27.676548 21984 net.cpp:65] Creating Layer deconv0
I0813 05:27:27.676550 21984 net.cpp:228] deconv0 <- deconv1
I0813 05:27:27.676554 21984 net.cpp:189] deconv0 -> deconv0
I0813 05:27:27.676573 21984 net.cpp:84] Top shape: 2 3 216 216 (279936)
I0813 05:27:27.676575 21984 net.cpp:116] deconv0 does not need backward computation.
I0813 05:27:27.676579 21984 net.cpp:65] Creating Layer loss
I0813 05:27:27.676583 21984 net.cpp:228] loss <- deconv0
I0813 05:27:27.676585 21984 net.cpp:228] loss <- target_ims
I0813 05:27:27.676589 21984 net.cpp:116] loss does not need backward computation.
I0813 05:27:27.676602 21984 net.cpp:238] Collecting Learning Rate and Weight Decay.
…
