…
    source: "/scr/r6/tgebru/inverting_conv/caffe_invert_alexnet/data/siggraph/tiny_winter_train_lmdb"
    mean_file: "/scr/r6/tgebru/timnit_caffe/data/ilsvrc12/imagenet_mean.binaryproto"
    batch_size: 12
    crop_size: 227
    mirror: false
    backend: LMDB
  }
}
layers {
  top: "target_ims"
  name: "target_ims"
  type: DATA
  data_param {
    source: "/scr/r6/tgebru/inverting_conv/caffe_invert_alexnet/data/siggraph/tiny_summer_train_lmdb"
    mean_file: "/scr/r6/tgebru/timnit_caffe/data/ilsvrc12/imagenet_mean.binaryproto"
    batch_size: 12
    crop_size: 216
    mirror: false
    backend: LMDB
  }
}
layers {
  bottom: "source_ims"
  top: "conv1"
  name: "conv1"
  type: CONVOLUTION
  blobs_lr: 0
  blobs_lr: 0
  weight_decay: 1
  weight_decay: 0
  convolution_param {
    num_output: 96
    kernel_size: 11
    stride: 4
    weight_filler {
      type: "gaussian"
      std: 0.01
    }
    bias_filler {
      type: "constant"
      value: 0
    }
  }
}
layers {
  bottom: "conv1"
  top: "conv1"
  name: "relu1"
  type: RELU
}
layers {
  bottom: "conv1"
  top: "pool1"
  name: "pool1"
  type: POOLING
  pooling_param {
    pool: MAX
    kernel_size: 3
    stride: 2
  }
}
layers {
  bottom: "pool1"
  top: "norm1"
  name: "norm1"
  type: LRN
  lrn_param {
    local_size: 5
    alpha: 0.0001
    beta: 0.75
  }
}
layers {
  bottom: "norm1"
  top: "Rconv6"
  name: "Rconv6"
  type: CONVOLUTION
  blobs_lr: 1
  blobs_lr: 2
  weight_decay: 1
  weight_decay: 0
  convolution_param {
    num_output: 256
    pad: 1
    kernel_size: 3
  }
}
layers {
  bottom: "Rconv6"
  top: "Rconv6"
  name: "Rrelu6"
  type: RELU
}
layers {
  bottom: "Rconv6"
  top: "Rconv7"
  name: "Rconv7"
  type: CONVOLUTION
  blobs_lr: 1
  blobs_lr: 2
  weight_decay: 1
  weight_decay: 0
  convolution_param {
    num_output: 256
    pad: 1
    kernel_size: 3
    group: 2
  }
}
layers {
  bottom: "Rconv7"
  top: "Rconv7"
  name: "Rrelu7"
  type: RELU
}
layers {
  bottom: "Rconv7"
  top: "Rconv8"
  name: "Rconv8"
  type: CONVOLUTION
  blobs_lr: 1
  blobs_lr: 2
  weight_decay: 1
  weight_decay: 0
  convolution_param {
    num_output: 256
    pad: 1
    kernel_size: 3
    group: 2
  }
}
layers {
  bottom: "Rconv8"
  top: "Rconv8"
  name: "Rrelu8"
  type: RELU
}
layers {
  bottom: "Rconv8"
  top: "deconv2"
  name: "deconv2"
  type: DECONVOLUTION
  blobs_lr: 1
  blobs_lr: 2
  weight_decay: 1
  weight_decay: 0
  deconvolution_param {
    pad: 2
    kernel_size: 5
    stride: 2
    output_height: 54
    output_width: 54
    output_channels: 64
  }
}
layers {
  bottom: "deconv2"
  top: "deconv2"
  name: "relu_deconv2"
  type: RELU
  relu_param {
    negative_slope: 0.3
  }
}
layers {
  bottom: "deconv2"
  top: "deconv1"
  name: "deconv1"
  type: DECONVOLUTION
  blobs_lr: 1
  blobs_lr: 2
  weight_decay: 1
  weight_decay: 0
  deconvolution_param {
    pad: 2
    kernel_size: 5
    stride: 2
    output_height: 108
    output_width: 108
    output_channels: 32
  }
}
layers {
  bottom: "deconv1"
  top: "deconv1"
  name: "relu_deconv1"
  type: RELU
  relu_param {
    negative_slope: 0.3
  }
}
layers {
  bottom: "deconv1"
  top: "deconv0"
  name: "deconv0"
  type: DECONVOLUTION
  blobs_lr: 1
  blobs_lr: 2
  weight_decay: 1
  weight_decay: 1
  deconvolution_param {
    pad: 2
    kernel_size: 5
    stride: 2
    output_height: 216
    output_width: 216
    output_channels: 3
  }
}
layers {
  bottom: "deconv0"
  bottom: "target_ims"
  name: "loss"
  type: EUCLIDEAN_LOSS
}
I0813 01:31:53.589627  5422 net.cpp:65] Creating Layer source_ims
I0813 01:31:53.589635  5422 net.cpp:189] source_ims -> source_ims
I0813 01:31:53.589740  5422 data_layer.cpp:223] Opening lmdb /scr/r6/tgebru/inverting_conv/caffe_invert_alexnet/data/siggraph/tiny_winter_train_lmdb
I0813 01:31:53.589959  5422 data_layer.cpp:285] output data size: 12,3,227,227
I0813 01:31:53.589967  5422 data_layer.cpp:304] Loading mean file from/scr/r6/tgebru/timnit_caffe/data/ilsvrc12/imagenet_mean.binaryproto
I0813 01:31:53.594995  5422 net.cpp:84] Top shape: 12 3 227 227 (1855044)
I0813 01:31:53.595003  5422 net.cpp:116] source_ims does not need backward computation.
I0813 01:31:53.595011  5422 net.cpp:65] Creating Layer target_ims
I0813 01:31:53.595016  5422 net.cpp:189] target_ims -> target_ims
I0813 01:31:53.595156  5422 data_layer.cpp:223] Opening lmdb /scr/r6/tgebru/inverting_conv/caffe_invert_alexnet/data/siggraph/tiny_summer_train_lmdb
I0813 01:31:53.595352  5422 data_layer.cpp:285] output data size: 12,3,216,216
I0813 01:31:53.595357  5422 data_layer.cpp:304] Loading mean file from/scr/r6/tgebru/timnit_caffe/data/ilsvrc12/imagenet_mean.binaryproto
I0813 01:31:53.599772  5422 net.cpp:84] Top shape: 12 3 216 216 (1679616)
I0813 01:31:53.599781  5422 net.cpp:116] target_ims does not need backward computation.
I0813 01:31:53.599793  5422 net.cpp:65] Creating Layer conv1
I0813 01:31:53.599797  5422 net.cpp:228] conv1 <- source_ims
I0813 01:31:53.599863  5422 net.cpp:189] conv1 -> conv1
I0813 01:31:53.601222  5422 net.cpp:84] Top shape: 12 96 55 55 (3484800)
I0813 01:31:53.601227  5422 net.cpp:116] conv1 does not need backward computation.
I0813 01:31:53.601233  5422 net.cpp:65] Creating Layer relu1
I0813 01:31:53.601236  5422 net.cpp:228] relu1 <- conv1
I0813 01:31:53.601241  5422 net.cpp:179] relu1 -> conv1 (in-place)
I0813 01:31:53.601249  5422 net.cpp:84] Top shape: 12 96 55 55 (3484800)
I0813 01:31:53.601253  5422 net.cpp:116] relu1 does not need backward computation.
I0813 01:31:53.601258  5422 net.cpp:65] Creating Layer pool1
I0813 01:31:53.601260  5422 net.cpp:228] pool1 <- conv1
I0813 01:31:53.601265  5422 net.cpp:189] pool1 -> pool1
I0813 01:31:53.601277  5422 net.cpp:84] Top shape: 12 96 27 27 (839808)
I0813 01:31:53.601280  5422 net.cpp:116] pool1 does not need backward computation.
I0813 01:31:53.601285  5422 net.cpp:65] Creating Layer norm1
I0813 01:31:53.601287  5422 net.cpp:228] norm1 <- pool1
I0813 01:31:53.601292  5422 net.cpp:189] norm1 -> norm1
I0813 01:31:53.601301  5422 net.cpp:84] Top shape: 12 96 27 27 (839808)
I0813 01:31:53.601305  5422 net.cpp:116] norm1 does not need backward computation.
I0813 01:31:53.601310  5422 net.cpp:65] Creating Layer Rconv6
I0813 01:31:53.601312  5422 net.cpp:228] Rconv6 <- norm1
I0813 01:31:53.601316  5422 net.cpp:189] Rconv6 -> Rconv6
I0813 01:31:53.601586  5422 net.cpp:84] Top shape: 12 256 27 27 (2239488)
I0813 01:31:53.601591  5422 net.cpp:111] Rconv6 needs backward computation.
I0813 01:31:53.601595  5422 net.cpp:65] Creating Layer Rrelu6
I0813 01:31:53.601598  5422 net.cpp:228] Rrelu6 <- Rconv6
I0813 01:31:53.601603  5422 net.cpp:179] Rrelu6 -> Rconv6 (in-place)
I0813 01:31:53.601608  5422 net.cpp:84] Top shape: 12 256 27 27 (2239488)
I0813 01:31:53.601609  5422 net.cpp:111] Rrelu6 needs backward computation.
I0813 01:31:53.601615  5422 net.cpp:65] Creating Layer Rconv7
I0813 01:31:53.601618  5422 net.cpp:228] Rconv7 <- Rconv6
I0813 01:31:53.601622  5422 net.cpp:189] Rconv7 -> Rconv7
I0813 01:31:53.602334  5422 net.cpp:84] Top shape: 12 256 27 27 (2239488)
I0813 01:31:53.602339  5422 net.cpp:111] Rconv7 needs backward computation.
I0813 01:31:53.602342  5422 net.cpp:65] Creating Layer Rrelu7
I0813 01:31:53.602368  5422 net.cpp:228] Rrelu7 <- Rconv7
I0813 01:31:53.602373  5422 net.cpp:179] Rrelu7 -> Rconv7 (in-place)
I0813 01:31:53.602378  5422 net.cpp:84] Top shape: 12 256 27 27 (2239488)
I0813 01:31:53.602381  5422 net.cpp:111] Rrelu7 needs backward computation.
I0813 01:31:53.602385  5422 net.cpp:65] Creating Layer Rconv8
I0813 01:31:53.602387  5422 net.cpp:228] Rconv8 <- Rconv7
I0813 01:31:53.602391  5422 net.cpp:189] Rconv8 -> Rconv8
I0813 01:31:53.603201  5422 net.cpp:84] Top shape: 12 256 27 27 (2239488)
I0813 01:31:53.603205  5422 net.cpp:111] Rconv8 needs backward computation.
I0813 01:31:53.603210  5422 net.cpp:65] Creating Layer Rrelu8
I0813 01:31:53.603214  5422 net.cpp:228] Rrelu8 <- Rconv8
I0813 01:31:53.603216  5422 net.cpp:179] Rrelu8 -> Rconv8 (in-place)
I0813 01:31:53.603220  5422 net.cpp:84] Top shape: 12 256 27 27 (2239488)
I0813 01:31:53.603224  5422 net.cpp:111] Rrelu8 needs backward computation.
I0813 01:31:53.603227  5422 net.cpp:65] Creating Layer deconv2
I0813 01:31:53.603229  5422 net.cpp:228] deconv2 <- Rconv8
I0813 01:31:53.603234  5422 net.cpp:189] deconv2 -> deconv2
I0813 01:31:53.604279  5422 net.cpp:84] Top shape: 12 64 54 54 (2239488)
I0813 01:31:53.604282  5422 net.cpp:111] deconv2 needs backward computation.
I0813 01:31:53.604287  5422 net.cpp:65] Creating Layer relu_deconv2
I0813 01:31:53.604290  5422 net.cpp:228] relu_deconv2 <- deconv2
I0813 01:31:53.604295  5422 net.cpp:179] relu_deconv2 -> deconv2 (in-place)
I0813 01:31:53.604300  5422 net.cpp:84] Top shape: 12 64 54 54 (2239488)
I0813 01:31:53.604301  5422 net.cpp:111] relu_deconv2 needs backward computation.
I0813 01:31:53.604306  5422 net.cpp:65] Creating Layer deconv1
I0813 01:31:53.604308  5422 net.cpp:228] deconv1 <- deconv2
I0813 01:31:53.604312  5422 net.cpp:189] deconv1 -> deconv1
I0813 01:31:53.604486  5422 net.cpp:84] Top shape: 12 32 108 108 (4478976)
I0813 01:31:53.604490  5422 net.cpp:111] deconv1 needs backward computation.
I0813 01:31:53.604496  5422 net.cpp:65] Creating Layer relu_deconv1
I0813 01:31:53.604498  5422 net.cpp:228] relu_deconv1 <- deconv1
I0813 01:31:53.604502  5422 net.cpp:179] relu_deconv1 -> deconv1 (in-place)
I0813 01:31:53.604506  5422 net.cpp:84] Top shape: 12 32 108 108 (4478976)
I0813 01:31:53.604509  5422 net.cpp:111] relu_deconv1 needs backward computation.
I0813 01:31:53.604514  5422 net.cpp:65] Creating Layer deconv0
I0813 01:31:53.604516  5422 net.cpp:228] deconv0 <- deconv1
I0813 01:31:53.604521  5422 net.cpp:189] deconv0 -> deconv0
I0813 01:31:53.604563  5422 net.cpp:84] Top shape: 12 3 216 216 (1679616)
I0813 01:31:53.604567  5422 net.cpp:111] deconv0 needs backward computation.
I0813 01:31:53.604570  5422 net.cpp:65] Creating Layer loss
I0813 01:31:53.604573  5422 net.cpp:228] loss <- deconv0
I0813 01:31:53.604576  5422 net.cpp:228] loss <- target_ims
I0813 01:31:53.604584  5422 net.cpp:111] loss needs backward computation.
I0813 01:31:53.604599  5422 net.cpp:238] Collecting Learning Rate and Weight Decay.
…
    source: "/scr/r6/tgebru/inverting_conv/caffe_invert_alexnet/data/siggraph/tiny_winter_val_lmdb"
    mean_file: "/scr/r6/tgebru/timnit_caffe/data/ilsvrc12/imagenet_mean.binaryproto"
    batch_size: 2
    crop_size: 227
    mirror: false
    backend: LMDB
  }
}
layers {
  top: "target_ims"
  name: "target_ims"
  type: DATA
  data_param {
    source: "/scr/r6/tgebru/inverting_conv/caffe_invert_alexnet/data/siggraph/tiny_summer_val_lmdb"
    mean_file: "/scr/r6/tgebru/timnit_caffe/data/ilsvrc12/imagenet_mean.binaryproto"
    batch_size: 2
    crop_size: 216
    mirror: false
    backend: LMDB
  }
}
layers {
  bottom: "source_ims"
  top: "conv1"
  name: "conv1"
  type: CONVOLUTION
  blobs_lr: 0
  blobs_lr: 0
  weight_decay: 1
  weight_decay: 0
  convolution_param {
    num_output: 96
    kernel_size: 11
    stride: 4
    weight_filler {
      type: "gaussian"
      std: 0.01
    }
    bias_filler {
      type: "constant"
      value: 0
    }
  }
}
layers {
  bottom: "conv1"
  top: "conv1"
  name: "relu1"
  type: RELU
}
layers {
  bottom: "conv1"
  top: "pool1"
  name: "pool1"
  type: POOLING
  pooling_param {
    pool: MAX
    kernel_size: 3
    stride: 2
  }
}
layers {
  bottom: "pool1"
  top: "norm1"
  name: "norm1"
  type: LRN
  lrn_param {
    local_size: 5
    alpha: 0.0001
    beta: 0.75
  }
}
layers {
  bottom: "norm1"
  top: "Rconv6"
  name: "Rconv6"
  type: CONVOLUTION
  blobs_lr: 0
  blobs_lr: 0
  weight_decay: 1
  weight_decay: 0
  convolution_param {
    num_output: 256
    pad: 1
    kernel_size: 3
  }
}
layers {
  bottom: "Rconv6"
  top: "Rconv6"
  name: "Rrelu6"
  type: RELU
}
layers {
  bottom: "Rconv6"
  top: "Rconv7"
  name: "Rconv7"
  type: CONVOLUTION
  blobs_lr: 0
  blobs_lr: 0
  weight_decay: 1
  weight_decay: 0
  convolution_param {
    num_output: 256
    pad: 1
    kernel_size: 3
    group: 2
  }
}
layers {
  bottom: "Rconv7"
  top: "Rconv7"
  name: "Rrelu7"
  type: RELU
}
layers {
  bottom: "Rconv7"
  top: "Rconv8"
  name: "Rconv8"
  type: CONVOLUTION
  blobs_lr: 0
  blobs_lr: 0
  weight_decay: 1
  weight_decay: 0
  convolution_param {
    num_output: 256
    pad: 1
    kernel_size: 3
    group: 2
  }
}
layers {
  bottom: "Rconv8"
  top: "Rconv8"
  name: "Rrelu8"
  type: RELU
}
layers {
  bottom: "Rconv8"
  top: "deconv2"
  name: "deconv2"
  type: DECONVOLUTION
  blobs_lr: 0
  blobs_lr: 0
  weight_decay: 1
  weight_decay: 0
  deconvolution_param {
    pad: 2
    kernel_size: 5
    stride: 2
    output_height: 54
    output_width: 54
    output_channels: 64
  }
}
layers {
  bottom: "deconv2"
  top: "deconv2"
  name: "relu_deconv2"
  type: RELU
  relu_param {
    negative_slope: 0.3
  }
}
layers {
  bottom: "deconv2"
  top: "deconv1"
  name: "deconv1"
  type: DECONVOLUTION
  blobs_lr: 0
  blobs_lr: 0
  weight_decay: 1
  weight_decay: 0
  deconvolution_param {
    pad: 2
    kernel_size: 5
    stride: 2
    output_height: 108
    output_width: 108
    output_channels: 32
  }
}
layers {
  bottom: "deconv1"
  top: "deconv1"
  name: "relu_deconv1"
  type: RELU
  relu_param {
    negative_slope: 0.3
  }
}
layers {
  bottom: "deconv1"
  top: "deconv0"
  name: "deconv0"
  type: DECONVOLUTION
  blobs_lr: 0
  blobs_lr: 0
  weight_decay: 1
  weight_decay: 0
  deconvolution_param {
    pad: 2
    kernel_size: 5
    stride: 2
    output_height: 216
    output_width: 216
    output_channels: 3
  }
}
layers {
  bottom: "deconv0"
  bottom: "target_ims"
  name: "loss"
  type: EUCLIDEAN_LOSS
}
I0813 01:31:53.605325  5422 net.cpp:65] Creating Layer source_ims
I0813 01:31:53.605331  5422 net.cpp:189] source_ims -> source_ims
I0813 01:31:53.605383  5422 data_layer.cpp:223] Opening lmdb /scr/r6/tgebru/inverting_conv/caffe_invert_alexnet/data/siggraph/tiny_winter_val_lmdb
I0813 01:31:53.605577  5422 data_layer.cpp:285] output data size: 2,3,227,227
I0813 01:31:53.605583  5422 data_layer.cpp:304] Loading mean file from/scr/r6/tgebru/timnit_caffe/data/ilsvrc12/imagenet_mean.binaryproto
I0813 01:31:53.607926  5422 net.cpp:84] Top shape: 2 3 227 227 (309174)
I0813 01:31:53.607933  5422 net.cpp:116] source_ims does not need backward computation.
I0813 01:31:53.607939  5422 net.cpp:65] Creating Layer target_ims
I0813 01:31:53.607944  5422 net.cpp:189] target_ims -> target_ims
I0813 01:31:53.607996  5422 data_layer.cpp:223] Opening lmdb /scr/r6/tgebru/inverting_conv/caffe_invert_alexnet/data/siggraph/tiny_summer_val_lmdb
I0813 01:31:53.608206  5422 data_layer.cpp:285] output data size: 2,3,216,216
I0813 01:31:53.608211  5422 data_layer.cpp:304] Loading mean file from/scr/r6/tgebru/timnit_caffe/data/ilsvrc12/imagenet_mean.binaryproto
I0813 01:31:53.610604  5422 net.cpp:84] Top shape: 2 3 216 216 (279936)
I0813 01:31:53.610625  5422 net.cpp:116] target_ims does not need backward computation.
I0813 01:31:53.610633  5422 net.cpp:65] Creating Layer conv1
I0813 01:31:53.610636  5422 net.cpp:228] conv1 <- source_ims
I0813 01:31:53.610641  5422 net.cpp:189] conv1 -> conv1
I0813 01:31:53.611949  5422 net.cpp:84] Top shape: 2 96 55 55 (580800)
I0813 01:31:53.611953  5422 net.cpp:116] conv1 does not need backward computation.
I0813 01:31:53.611958  5422 net.cpp:65] Creating Layer relu1
I0813 01:31:53.611961  5422 net.cpp:228] relu1 <- conv1
I0813 01:31:53.611965  5422 net.cpp:179] relu1 -> conv1 (in-place)
I0813 01:31:53.611970  5422 net.cpp:84] Top shape: 2 96 55 55 (580800)
I0813 01:31:53.611973  5422 net.cpp:116] relu1 does not need backward computation.
I0813 01:31:53.611978  5422 net.cpp:65] Creating Layer pool1
I0813 01:31:53.611980  5422 net.cpp:228] pool1 <- conv1
I0813 01:31:53.611984  5422 net.cpp:189] pool1 -> pool1
I0813 01:31:53.611990  5422 net.cpp:84] Top shape: 2 96 27 27 (139968)
I0813 01:31:53.611994  5422 net.cpp:116] pool1 does not need backward computation.
I0813 01:31:53.611997  5422 net.cpp:65] Creating Layer norm1
I0813 01:31:53.612000  5422 net.cpp:228] norm1 <- pool1
I0813 01:31:53.612004  5422 net.cpp:189] norm1 -> norm1
I0813 01:31:53.612010  5422 net.cpp:84] Top shape: 2 96 27 27 (139968)
I0813 01:31:53.612012  5422 net.cpp:116] norm1 does not need backward computation.
I0813 01:31:53.612016  5422 net.cpp:65] Creating Layer Rconv6
I0813 01:31:53.612018  5422 net.cpp:228] Rconv6 <- norm1
I0813 01:31:53.612022  5422 net.cpp:189] Rconv6 -> Rconv6
I0813 01:31:53.612618  5422 net.cpp:84] Top shape: 2 256 27 27 (373248)
I0813 01:31:53.612623  5422 net.cpp:116] Rconv6 does not need backward computation.
I0813 01:31:53.612627  5422 net.cpp:65] Creating Layer Rrelu6
I0813 01:31:53.612630  5422 net.cpp:228] Rrelu6 <- Rconv6
I0813 01:31:53.612634  5422 net.cpp:179] Rrelu6 -> Rconv6 (in-place)
I0813 01:31:53.612639  5422 net.cpp:84] Top shape: 2 256 27 27 (373248)
I0813 01:31:53.612642  5422 net.cpp:116] Rrelu6 does not need backward computation.
I0813 01:31:53.612646  5422 net.cpp:65] Creating Layer Rconv7
I0813 01:31:53.612649  5422 net.cpp:228] Rconv7 <- Rconv6
I0813 01:31:53.612653  5422 net.cpp:189] Rconv7 -> Rconv7
I0813 01:31:53.613389  5422 net.cpp:84] Top shape: 2 256 27 27 (373248)
I0813 01:31:53.613394  5422 net.cpp:116] Rconv7 does not need backward computation.
I0813 01:31:53.613397  5422 net.cpp:65] Creating Layer Rrelu7
I0813 01:31:53.613400  5422 net.cpp:228] Rrelu7 <- Rconv7
I0813 01:31:53.613404  5422 net.cpp:179] Rrelu7 -> Rconv7 (in-place)
I0813 01:31:53.613407  5422 net.cpp:84] Top shape: 2 256 27 27 (373248)
I0813 01:31:53.613410  5422 net.cpp:116] Rrelu7 does not need backward computation.
I0813 01:31:53.613414  5422 net.cpp:65] Creating Layer Rconv8
I0813 01:31:53.613430  5422 net.cpp:228] Rconv8 <- Rconv7
I0813 01:31:53.613435  5422 net.cpp:189] Rconv8 -> Rconv8
I0813 01:31:53.614159  5422 net.cpp:84] Top shape: 2 256 27 27 (373248)
I0813 01:31:53.614163  5422 net.cpp:116] Rconv8 does not need backward computation.
I0813 01:31:53.614167  5422 net.cpp:65] Creating Layer Rrelu8
I0813 01:31:53.614171  5422 net.cpp:228] Rrelu8 <- Rconv8
I0813 01:31:53.614173  5422 net.cpp:179] Rrelu8 -> Rconv8 (in-place)
I0813 01:31:53.614177  5422 net.cpp:84] Top shape: 2 256 27 27 (373248)
I0813 01:31:53.614181  5422 net.cpp:116] Rrelu8 does not need backward computation.
I0813 01:31:53.614184  5422 net.cpp:65] Creating Layer deconv2
I0813 01:31:53.614187  5422 net.cpp:228] deconv2 <- Rconv8
I0813 01:31:53.614190  5422 net.cpp:189] deconv2 -> deconv2
I0813 01:31:53.615200  5422 net.cpp:84] Top shape: 2 64 54 54 (373248)
I0813 01:31:53.615205  5422 net.cpp:116] deconv2 does not need backward computation.
I0813 01:31:53.615208  5422 net.cpp:65] Creating Layer relu_deconv2
I0813 01:31:53.615211  5422 net.cpp:228] relu_deconv2 <- deconv2
I0813 01:31:53.615216  5422 net.cpp:179] relu_deconv2 -> deconv2 (in-place)
I0813 01:31:53.615219  5422 net.cpp:84] Top shape: 2 64 54 54 (373248)
I0813 01:31:53.615222  5422 net.cpp:116] relu_deconv2 does not need backward computation.
I0813 01:31:53.615238  5422 net.cpp:65] Creating Layer deconv1
I0813 01:31:53.615242  5422 net.cpp:228] deconv1 <- deconv2
I0813 01:31:53.615245  5422 net.cpp:189] deconv1 -> deconv1
I0813 01:31:53.615386  5422 net.cpp:84] Top shape: 2 32 108 108 (746496)
I0813 01:31:53.615389  5422 net.cpp:116] deconv1 does not need backward computation.
I0813 01:31:53.615393  5422 net.cpp:65] Creating Layer relu_deconv1
I0813 01:31:53.615396  5422 net.cpp:228] relu_deconv1 <- deconv1
I0813 01:31:53.615399  5422 net.cpp:179] relu_deconv1 -> deconv1 (in-place)
I0813 01:31:53.615404  5422 net.cpp:84] Top shape: 2 32 108 108 (746496)
I0813 01:31:53.615406  5422 net.cpp:116] relu_deconv1 does not need backward computation.
I0813 01:31:53.615412  5422 net.cpp:65] Creating Layer deconv0
I0813 01:31:53.615414  5422 net.cpp:228] deconv0 <- deconv1
I0813 01:31:53.615418  5422 net.cpp:189] deconv0 -> deconv0
I0813 01:31:53.615435  5422 net.cpp:84] Top shape: 2 3 216 216 (279936)
I0813 01:31:53.615438  5422 net.cpp:116] deconv0 does not need backward computation.
I0813 01:31:53.615442  5422 net.cpp:65] Creating Layer loss
I0813 01:31:53.615444  5422 net.cpp:228] loss <- deconv0
I0813 01:31:53.615448  5422 net.cpp:228] loss <- target_ims
I0813 01:31:53.615453  5422 net.cpp:116] loss does not need backward computation.
I0813 01:31:53.615464  5422 net.cpp:238] Collecting Learning Rate and Weight Decay.
…
