…
    source: "/scr/r6/tgebru/inverting_conv/caffe_invert_alexnet/data/siggraph/tiny_summer_train_lmdb"
    mean_file: "/scr/r6/tgebru/timnit_caffe/data/ilsvrc12/imagenet_mean.binaryproto"
    batch_size: 12
    crop_size: 227
    mirror: false
    backend: LMDB
  }
}
layers {
  top: "target_ims"
  name: "target_ims"
  type: DATA
  data_param {
    source: "/scr/r6/tgebru/inverting_conv/caffe_invert_alexnet/data/siggraph/tiny_summer_train_lmdb"
    mean_file: "/scr/r6/tgebru/timnit_caffe/data/ilsvrc12/imagenet_mean.binaryproto"
    batch_size: 12
    crop_size: 216
    mirror: false
    backend: LMDB
  }
}
layers {
  bottom: "source_ims"
  top: "conv1"
  name: "conv1"
  type: CONVOLUTION
  blobs_lr: 0
  blobs_lr: 0
  weight_decay: 1
  weight_decay: 0
  convolution_param {
    num_output: 96
    kernel_size: 11
    stride: 4
    weight_filler {
      type: "gaussian"
      std: 0.01
    }
    bias_filler {
      type: "constant"
      value: 0
    }
  }
}
layers {
  bottom: "conv1"
  top: "conv1"
  name: "relu1"
  type: RELU
}
layers {
  bottom: "conv1"
  top: "pool1"
  name: "pool1"
  type: POOLING
  pooling_param {
    pool: MAX
    kernel_size: 3
    stride: 2
  }
}
layers {
  bottom: "pool1"
  top: "norm1"
  name: "norm1"
  type: LRN
  lrn_param {
    local_size: 5
    alpha: 0.0001
    beta: 0.75
  }
}
layers {
  bottom: "norm1"
  top: "Rconv6"
  name: "Rconv6"
  type: CONVOLUTION
  blobs_lr: 1
  blobs_lr: 2
  weight_decay: 1
  weight_decay: 0
  convolution_param {
    num_output: 256
    pad: 1
    kernel_size: 3
  }
}
layers {
  bottom: "Rconv6"
  top: "Rconv6"
  name: "Rrelu6"
  type: RELU
}
layers {
  bottom: "Rconv6"
  top: "Rconv7"
  name: "Rconv7"
  type: CONVOLUTION
  blobs_lr: 1
  blobs_lr: 2
  weight_decay: 1
  weight_decay: 0
  convolution_param {
    num_output: 256
    pad: 1
    kernel_size: 3
    group: 2
  }
}
layers {
  bottom: "Rconv7"
  top: "Rconv7"
  name: "Rrelu7"
  type: RELU
}
layers {
  bottom: "Rconv7"
  top: "Rconv8"
  name: "Rconv8"
  type: CONVOLUTION
  blobs_lr: 1
  blobs_lr: 2
  weight_decay: 1
  weight_decay: 0
  convolution_param {
    num_output: 256
    pad: 1
    kernel_size: 3
    group: 2
  }
}
layers {
  bottom: "Rconv8"
  top: "Rconv8"
  name: "Rrelu8"
  type: RELU
}
layers {
  bottom: "Rconv8"
  top: "deconv2"
  name: "deconv2"
  type: DECONVOLUTION
  blobs_lr: 1
  blobs_lr: 2
  weight_decay: 1
  weight_decay: 0
  deconvolution_param {
    pad: 2
    kernel_size: 5
    stride: 2
    output_height: 54
    output_width: 54
    output_channels: 64
  }
}
layers {
  bottom: "deconv2"
  top: "deconv2"
  name: "relu_deconv2"
  type: RELU
  relu_param {
    negative_slope: 0.3
  }
}
layers {
  bottom: "deconv2"
  top: "deconv1"
  name: "deconv1"
  type: DECONVOLUTION
  blobs_lr: 1
  blobs_lr: 2
  weight_decay: 1
  weight_decay: 0
  deconvolution_param {
    pad: 2
    kernel_size: 5
    stride: 2
    output_height: 108
    output_width: 108
    output_channels: 32
  }
}
layers {
  bottom: "deconv1"
  top: "deconv1"
  name: "relu_deconv1"
  type: RELU
  relu_param {
    negative_slope: 0.3
  }
}
layers {
  bottom: "deconv1"
  top: "deconv0"
  name: "deconv0"
  type: DECONVOLUTION
  blobs_lr: 1
  blobs_lr: 2
  weight_decay: 1
  weight_decay: 1
  deconvolution_param {
    pad: 2
    kernel_size: 5
    stride: 2
    output_height: 216
    output_width: 216
    output_channels: 3
  }
}
layers {
  bottom: "deconv0"
  bottom: "target_ims"
  name: "loss"
  type: EUCLIDEAN_LOSS
}
I0812 23:33:22.376122 29685 net.cpp:65] Creating Layer source_ims
I0812 23:33:22.376132 29685 net.cpp:189] source_ims -> source_ims
I0812 23:33:22.376231 29685 data_layer.cpp:223] Opening lmdb /scr/r6/tgebru/inverting_conv/caffe_invert_alexnet/data/siggraph/tiny_summer_train_lmdb
I0812 23:33:22.376435 29685 data_layer.cpp:285] output data size: 12,3,227,227
I0812 23:33:22.376441 29685 data_layer.cpp:304] Loading mean file from/scr/r6/tgebru/timnit_caffe/data/ilsvrc12/imagenet_mean.binaryproto
I0812 23:33:22.381151 29685 net.cpp:84] Top shape: 12 3 227 227 (1855044)
I0812 23:33:22.381160 29685 net.cpp:116] source_ims does not need backward computation.
I0812 23:33:22.381166 29685 net.cpp:65] Creating Layer target_ims
I0812 23:33:22.381171 29685 net.cpp:189] target_ims -> target_ims
I0812 23:33:22.381348 29685 data_layer.cpp:223] Opening lmdb /scr/r6/tgebru/inverting_conv/caffe_invert_alexnet/data/siggraph/tiny_summer_train_lmdb
I0812 23:33:22.381500 29685 data_layer.cpp:285] output data size: 12,3,216,216
I0812 23:33:22.381505 29685 data_layer.cpp:304] Loading mean file from/scr/r6/tgebru/timnit_caffe/data/ilsvrc12/imagenet_mean.binaryproto
I0812 23:33:22.385499 29685 net.cpp:84] Top shape: 12 3 216 216 (1679616)
I0812 23:33:22.385506 29685 net.cpp:116] target_ims does not need backward computation.
I0812 23:33:22.385519 29685 net.cpp:65] Creating Layer conv1
I0812 23:33:22.385522 29685 net.cpp:228] conv1 <- source_ims
I0812 23:33:22.385603 29685 net.cpp:189] conv1 -> conv1
I0812 23:33:22.386903 29685 net.cpp:84] Top shape: 12 96 55 55 (3484800)
I0812 23:33:22.386909 29685 net.cpp:116] conv1 does not need backward computation.
I0812 23:33:22.386914 29685 net.cpp:65] Creating Layer relu1
I0812 23:33:22.386916 29685 net.cpp:228] relu1 <- conv1
I0812 23:33:22.386921 29685 net.cpp:179] relu1 -> conv1 (in-place)
I0812 23:33:22.386929 29685 net.cpp:84] Top shape: 12 96 55 55 (3484800)
I0812 23:33:22.386932 29685 net.cpp:116] relu1 does not need backward computation.
I0812 23:33:22.386937 29685 net.cpp:65] Creating Layer pool1
I0812 23:33:22.386940 29685 net.cpp:228] pool1 <- conv1
I0812 23:33:22.386945 29685 net.cpp:189] pool1 -> pool1
I0812 23:33:22.386955 29685 net.cpp:84] Top shape: 12 96 27 27 (839808)
I0812 23:33:22.386958 29685 net.cpp:116] pool1 does not need backward computation.
I0812 23:33:22.386963 29685 net.cpp:65] Creating Layer norm1
I0812 23:33:22.386966 29685 net.cpp:228] norm1 <- pool1
I0812 23:33:22.386970 29685 net.cpp:189] norm1 -> norm1
I0812 23:33:22.386978 29685 net.cpp:84] Top shape: 12 96 27 27 (839808)
I0812 23:33:22.386981 29685 net.cpp:116] norm1 does not need backward computation.
I0812 23:33:22.386986 29685 net.cpp:65] Creating Layer Rconv6
I0812 23:33:22.386988 29685 net.cpp:228] Rconv6 <- norm1
I0812 23:33:22.386992 29685 net.cpp:189] Rconv6 -> Rconv6
I0812 23:33:22.387267 29685 net.cpp:84] Top shape: 12 256 27 27 (2239488)
I0812 23:33:22.387271 29685 net.cpp:111] Rconv6 needs backward computation.
I0812 23:33:22.387276 29685 net.cpp:65] Creating Layer Rrelu6
I0812 23:33:22.387279 29685 net.cpp:228] Rrelu6 <- Rconv6
I0812 23:33:22.387284 29685 net.cpp:179] Rrelu6 -> Rconv6 (in-place)
I0812 23:33:22.387289 29685 net.cpp:84] Top shape: 12 256 27 27 (2239488)
I0812 23:33:22.387291 29685 net.cpp:111] Rrelu6 needs backward computation.
I0812 23:33:22.387296 29685 net.cpp:65] Creating Layer Rconv7
I0812 23:33:22.387298 29685 net.cpp:228] Rconv7 <- Rconv6
I0812 23:33:22.387302 29685 net.cpp:189] Rconv7 -> Rconv7
I0812 23:33:22.388067 29685 net.cpp:84] Top shape: 12 256 27 27 (2239488)
I0812 23:33:22.388072 29685 net.cpp:111] Rconv7 needs backward computation.
I0812 23:33:22.388075 29685 net.cpp:65] Creating Layer Rrelu7
I0812 23:33:22.388078 29685 net.cpp:228] Rrelu7 <- Rconv7
I0812 23:33:22.388105 29685 net.cpp:179] Rrelu7 -> Rconv7 (in-place)
I0812 23:33:22.388110 29685 net.cpp:84] Top shape: 12 256 27 27 (2239488)
I0812 23:33:22.388113 29685 net.cpp:111] Rrelu7 needs backward computation.
I0812 23:33:22.388118 29685 net.cpp:65] Creating Layer Rconv8
I0812 23:33:22.388119 29685 net.cpp:228] Rconv8 <- Rconv7
I0812 23:33:22.388123 29685 net.cpp:189] Rconv8 -> Rconv8
I0812 23:33:22.388902 29685 net.cpp:84] Top shape: 12 256 27 27 (2239488)
I0812 23:33:22.388907 29685 net.cpp:111] Rconv8 needs backward computation.
I0812 23:33:22.388911 29685 net.cpp:65] Creating Layer Rrelu8
I0812 23:33:22.388913 29685 net.cpp:228] Rrelu8 <- Rconv8
I0812 23:33:22.388917 29685 net.cpp:179] Rrelu8 -> Rconv8 (in-place)
I0812 23:33:22.388921 29685 net.cpp:84] Top shape: 12 256 27 27 (2239488)
I0812 23:33:22.388924 29685 net.cpp:111] Rrelu8 needs backward computation.
I0812 23:33:22.388928 29685 net.cpp:65] Creating Layer deconv2
I0812 23:33:22.388931 29685 net.cpp:228] deconv2 <- Rconv8
I0812 23:33:22.388934 29685 net.cpp:189] deconv2 -> deconv2
I0812 23:33:22.390022 29685 net.cpp:84] Top shape: 12 64 54 54 (2239488)
I0812 23:33:22.390027 29685 net.cpp:111] deconv2 needs backward computation.
I0812 23:33:22.390033 29685 net.cpp:65] Creating Layer relu_deconv2
I0812 23:33:22.390035 29685 net.cpp:228] relu_deconv2 <- deconv2
I0812 23:33:22.390039 29685 net.cpp:179] relu_deconv2 -> deconv2 (in-place)
I0812 23:33:22.390044 29685 net.cpp:84] Top shape: 12 64 54 54 (2239488)
I0812 23:33:22.390046 29685 net.cpp:111] relu_deconv2 needs backward computation.
I0812 23:33:22.390050 29685 net.cpp:65] Creating Layer deconv1
I0812 23:33:22.390053 29685 net.cpp:228] deconv1 <- deconv2
I0812 23:33:22.390058 29685 net.cpp:189] deconv1 -> deconv1
I0812 23:33:22.390223 29685 net.cpp:84] Top shape: 12 32 108 108 (4478976)
I0812 23:33:22.390226 29685 net.cpp:111] deconv1 needs backward computation.
I0812 23:33:22.390230 29685 net.cpp:65] Creating Layer relu_deconv1
I0812 23:33:22.390233 29685 net.cpp:228] relu_deconv1 <- deconv1
I0812 23:33:22.390238 29685 net.cpp:179] relu_deconv1 -> deconv1 (in-place)
I0812 23:33:22.390241 29685 net.cpp:84] Top shape: 12 32 108 108 (4478976)
I0812 23:33:22.390244 29685 net.cpp:111] relu_deconv1 needs backward computation.
I0812 23:33:22.390249 29685 net.cpp:65] Creating Layer deconv0
I0812 23:33:22.390252 29685 net.cpp:228] deconv0 <- deconv1
I0812 23:33:22.390256 29685 net.cpp:189] deconv0 -> deconv0
I0812 23:33:22.390280 29685 net.cpp:84] Top shape: 12 3 216 216 (1679616)
I0812 23:33:22.390282 29685 net.cpp:111] deconv0 needs backward computation.
I0812 23:33:22.390287 29685 net.cpp:65] Creating Layer loss
I0812 23:33:22.390290 29685 net.cpp:228] loss <- deconv0
I0812 23:33:22.390293 29685 net.cpp:228] loss <- target_ims
I0812 23:33:22.390301 29685 net.cpp:111] loss needs backward computation.
I0812 23:33:22.390313 29685 net.cpp:238] Collecting Learning Rate and Weight Decay.
…
    source: "/scr/r6/tgebru/inverting_conv/caffe_invert_alexnet/data/siggraph/tiny_summer_val_lmdb"
    mean_file: "/scr/r6/tgebru/timnit_caffe/data/ilsvrc12/imagenet_mean.binaryproto"
    batch_size: 2
    crop_size: 227
    mirror: false
    backend: LMDB
  }
}
layers {
  top: "target_ims"
  name: "target_ims"
  type: DATA
  data_param {
    source: "/scr/r6/tgebru/inverting_conv/caffe_invert_alexnet/data/siggraph/tiny_summer_val_lmdb"
    mean_file: "/scr/r6/tgebru/timnit_caffe/data/ilsvrc12/imagenet_mean.binaryproto"
    batch_size: 2
    crop_size: 216
    mirror: false
    backend: LMDB
  }
}
layers {
  bottom: "source_ims"
  top: "conv1"
  name: "conv1"
  type: CONVOLUTION
  blobs_lr: 0
  blobs_lr: 0
  weight_decay: 1
  weight_decay: 0
  convolution_param {
    num_output: 96
    kernel_size: 11
    stride: 4
    weight_filler {
      type: "gaussian"
      std: 0.01
    }
    bias_filler {
      type: "constant"
      value: 0
    }
  }
}
layers {
  bottom: "conv1"
  top: "conv1"
  name: "relu1"
  type: RELU
}
layers {
  bottom: "conv1"
  top: "pool1"
  name: "pool1"
  type: POOLING
  pooling_param {
    pool: MAX
    kernel_size: 3
    stride: 2
  }
}
layers {
  bottom: "pool1"
  top: "norm1"
  name: "norm1"
  type: LRN
  lrn_param {
    local_size: 5
    alpha: 0.0001
    beta: 0.75
  }
}
layers {
  bottom: "norm1"
  top: "Rconv6"
  name: "Rconv6"
  type: CONVOLUTION
  blobs_lr: 0
  blobs_lr: 0
  weight_decay: 1
  weight_decay: 0
  convolution_param {
    num_output: 256
    pad: 1
    kernel_size: 3
  }
}
layers {
  bottom: "Rconv6"
  top: "Rconv6"
  name: "Rrelu6"
  type: RELU
}
layers {
  bottom: "Rconv6"
  top: "Rconv7"
  name: "Rconv7"
  type: CONVOLUTION
  blobs_lr: 0
  blobs_lr: 0
  weight_decay: 1
  weight_decay: 0
  convolution_param {
    num_output: 256
    pad: 1
    kernel_size: 3
    group: 2
  }
}
layers {
  bottom: "Rconv7"
  top: "Rconv7"
  name: "Rrelu7"
  type: RELU
}
layers {
  bottom: "Rconv7"
  top: "Rconv8"
  name: "Rconv8"
  type: CONVOLUTION
  blobs_lr: 0
  blobs_lr: 0
  weight_decay: 1
  weight_decay: 0
  convolution_param {
    num_output: 256
    pad: 1
    kernel_size: 3
    group: 2
  }
}
layers {
  bottom: "Rconv8"
  top: "Rconv8"
  name: "Rrelu8"
  type: RELU
}
layers {
  bottom: "Rconv8"
  top: "deconv2"
  name: "deconv2"
  type: DECONVOLUTION
  blobs_lr: 0
  blobs_lr: 0
  weight_decay: 1
  weight_decay: 0
  deconvolution_param {
    pad: 2
    kernel_size: 5
    stride: 2
    output_height: 54
    output_width: 54
    output_channels: 64
  }
}
layers {
  bottom: "deconv2"
  top: "deconv2"
  name: "relu_deconv2"
  type: RELU
  relu_param {
    negative_slope: 0.3
  }
}
layers {
  bottom: "deconv2"
  top: "deconv1"
  name: "deconv1"
  type: DECONVOLUTION
  blobs_lr: 0
  blobs_lr: 0
  weight_decay: 1
  weight_decay: 0
  deconvolution_param {
    pad: 2
    kernel_size: 5
    stride: 2
    output_height: 108
    output_width: 108
    output_channels: 32
  }
}
layers {
  bottom: "deconv1"
  top: "deconv1"
  name: "relu_deconv1"
  type: RELU
  relu_param {
    negative_slope: 0.3
  }
}
layers {
  bottom: "deconv1"
  top: "deconv0"
  name: "deconv0"
  type: DECONVOLUTION
  blobs_lr: 0
  blobs_lr: 0
  weight_decay: 1
  weight_decay: 0
  deconvolution_param {
    pad: 2
    kernel_size: 5
    stride: 2
    output_height: 216
    output_width: 216
    output_channels: 3
  }
}
layers {
  bottom: "deconv0"
  bottom: "target_ims"
  name: "loss"
  type: EUCLIDEAN_LOSS
}
I0812 23:33:22.391052 29685 net.cpp:65] Creating Layer source_ims
I0812 23:33:22.391058 29685 net.cpp:189] source_ims -> source_ims
I0812 23:33:22.391116 29685 data_layer.cpp:223] Opening lmdb /scr/r6/tgebru/inverting_conv/caffe_invert_alexnet/data/siggraph/tiny_summer_val_lmdb
I0812 23:33:22.391345 29685 data_layer.cpp:285] output data size: 2,3,227,227
I0812 23:33:22.391350 29685 data_layer.cpp:304] Loading mean file from/scr/r6/tgebru/timnit_caffe/data/ilsvrc12/imagenet_mean.binaryproto
I0812 23:33:22.393821 29685 net.cpp:84] Top shape: 2 3 227 227 (309174)
I0812 23:33:22.393828 29685 net.cpp:116] source_ims does not need backward computation.
I0812 23:33:22.393834 29685 net.cpp:65] Creating Layer target_ims
I0812 23:33:22.393838 29685 net.cpp:189] target_ims -> target_ims
I0812 23:33:22.393950 29685 data_layer.cpp:223] Opening lmdb /scr/r6/tgebru/inverting_conv/caffe_invert_alexnet/data/siggraph/tiny_summer_val_lmdb
I0812 23:33:22.394099 29685 data_layer.cpp:285] output data size: 2,3,216,216
I0812 23:33:22.394104 29685 data_layer.cpp:304] Loading mean file from/scr/r6/tgebru/timnit_caffe/data/ilsvrc12/imagenet_mean.binaryproto
I0812 23:33:22.396319 29685 net.cpp:84] Top shape: 2 3 216 216 (279936)
I0812 23:33:22.396327 29685 net.cpp:116] target_ims does not need backward computation.
I0812 23:33:22.396358 29685 net.cpp:65] Creating Layer conv1
I0812 23:33:22.396360 29685 net.cpp:228] conv1 <- source_ims
I0812 23:33:22.396366 29685 net.cpp:189] conv1 -> conv1
I0812 23:33:22.397621 29685 net.cpp:84] Top shape: 2 96 55 55 (580800)
I0812 23:33:22.397626 29685 net.cpp:116] conv1 does not need backward computation.
I0812 23:33:22.397631 29685 net.cpp:65] Creating Layer relu1
I0812 23:33:22.397634 29685 net.cpp:228] relu1 <- conv1
I0812 23:33:22.397639 29685 net.cpp:179] relu1 -> conv1 (in-place)
I0812 23:33:22.397644 29685 net.cpp:84] Top shape: 2 96 55 55 (580800)
I0812 23:33:22.397647 29685 net.cpp:116] relu1 does not need backward computation.
I0812 23:33:22.397652 29685 net.cpp:65] Creating Layer pool1
I0812 23:33:22.397655 29685 net.cpp:228] pool1 <- conv1
I0812 23:33:22.397658 29685 net.cpp:189] pool1 -> pool1
I0812 23:33:22.397665 29685 net.cpp:84] Top shape: 2 96 27 27 (139968)
I0812 23:33:22.397668 29685 net.cpp:116] pool1 does not need backward computation.
I0812 23:33:22.397672 29685 net.cpp:65] Creating Layer norm1
I0812 23:33:22.397675 29685 net.cpp:228] norm1 <- pool1
I0812 23:33:22.397680 29685 net.cpp:189] norm1 -> norm1
I0812 23:33:22.397686 29685 net.cpp:84] Top shape: 2 96 27 27 (139968)
I0812 23:33:22.397688 29685 net.cpp:116] norm1 does not need backward computation.
I0812 23:33:22.397692 29685 net.cpp:65] Creating Layer Rconv6
I0812 23:33:22.397696 29685 net.cpp:228] Rconv6 <- norm1
I0812 23:33:22.397699 29685 net.cpp:189] Rconv6 -> Rconv6
I0812 23:33:22.398249 29685 net.cpp:84] Top shape: 2 256 27 27 (373248)
I0812 23:33:22.398254 29685 net.cpp:116] Rconv6 does not need backward computation.
I0812 23:33:22.398258 29685 net.cpp:65] Creating Layer Rrelu6
I0812 23:33:22.398262 29685 net.cpp:228] Rrelu6 <- Rconv6
I0812 23:33:22.398265 29685 net.cpp:179] Rrelu6 -> Rconv6 (in-place)
I0812 23:33:22.398269 29685 net.cpp:84] Top shape: 2 256 27 27 (373248)
I0812 23:33:22.398272 29685 net.cpp:116] Rrelu6 does not need backward computation.
I0812 23:33:22.398278 29685 net.cpp:65] Creating Layer Rconv7
I0812 23:33:22.398280 29685 net.cpp:228] Rconv7 <- Rconv6
I0812 23:33:22.398284 29685 net.cpp:189] Rconv7 -> Rconv7
I0812 23:33:22.399004 29685 net.cpp:84] Top shape: 2 256 27 27 (373248)
I0812 23:33:22.399008 29685 net.cpp:116] Rconv7 does not need backward computation.
I0812 23:33:22.399013 29685 net.cpp:65] Creating Layer Rrelu7
I0812 23:33:22.399015 29685 net.cpp:228] Rrelu7 <- Rconv7
I0812 23:33:22.399019 29685 net.cpp:179] Rrelu7 -> Rconv7 (in-place)
I0812 23:33:22.399024 29685 net.cpp:84] Top shape: 2 256 27 27 (373248)
I0812 23:33:22.399026 29685 net.cpp:116] Rrelu7 does not need backward computation.
I0812 23:33:22.399030 29685 net.cpp:65] Creating Layer Rconv8
I0812 23:33:22.399032 29685 net.cpp:228] Rconv8 <- Rconv7
I0812 23:33:22.399036 29685 net.cpp:189] Rconv8 -> Rconv8
I0812 23:33:22.399752 29685 net.cpp:84] Top shape: 2 256 27 27 (373248)
I0812 23:33:22.399756 29685 net.cpp:116] Rconv8 does not need backward computation.
I0812 23:33:22.399760 29685 net.cpp:65] Creating Layer Rrelu8
I0812 23:33:22.399763 29685 net.cpp:228] Rrelu8 <- Rconv8
I0812 23:33:22.399766 29685 net.cpp:179] Rrelu8 -> Rconv8 (in-place)
I0812 23:33:22.399770 29685 net.cpp:84] Top shape: 2 256 27 27 (373248)
I0812 23:33:22.399773 29685 net.cpp:116] Rrelu8 does not need backward computation.
I0812 23:33:22.399778 29685 net.cpp:65] Creating Layer deconv2
I0812 23:33:22.399780 29685 net.cpp:228] deconv2 <- Rconv8
I0812 23:33:22.399785 29685 net.cpp:189] deconv2 -> deconv2
I0812 23:33:22.400781 29685 net.cpp:84] Top shape: 2 64 54 54 (373248)
I0812 23:33:22.400786 29685 net.cpp:116] deconv2 does not need backward computation.
I0812 23:33:22.400791 29685 net.cpp:65] Creating Layer relu_deconv2
I0812 23:33:22.400794 29685 net.cpp:228] relu_deconv2 <- deconv2
I0812 23:33:22.400797 29685 net.cpp:179] relu_deconv2 -> deconv2 (in-place)
I0812 23:33:22.400802 29685 net.cpp:84] Top shape: 2 64 54 54 (373248)
I0812 23:33:22.400805 29685 net.cpp:116] relu_deconv2 does not need backward computation.
I0812 23:33:22.400822 29685 net.cpp:65] Creating Layer deconv1
I0812 23:33:22.400825 29685 net.cpp:228] deconv1 <- deconv2
I0812 23:33:22.400830 29685 net.cpp:189] deconv1 -> deconv1
I0812 23:33:22.400969 29685 net.cpp:84] Top shape: 2 32 108 108 (746496)
I0812 23:33:22.400972 29685 net.cpp:116] deconv1 does not need backward computation.
I0812 23:33:22.400976 29685 net.cpp:65] Creating Layer relu_deconv1
I0812 23:33:22.400979 29685 net.cpp:228] relu_deconv1 <- deconv1
I0812 23:33:22.400984 29685 net.cpp:179] relu_deconv1 -> deconv1 (in-place)
I0812 23:33:22.400988 29685 net.cpp:84] Top shape: 2 32 108 108 (746496)
I0812 23:33:22.400990 29685 net.cpp:116] relu_deconv1 does not need backward computation.
I0812 23:33:22.400996 29685 net.cpp:65] Creating Layer deconv0
I0812 23:33:22.401000 29685 net.cpp:228] deconv0 <- deconv1
I0812 23:33:22.401003 29685 net.cpp:189] deconv0 -> deconv0
I0812 23:33:22.401021 29685 net.cpp:84] Top shape: 2 3 216 216 (279936)
I0812 23:33:22.401024 29685 net.cpp:116] deconv0 does not need backward computation.
I0812 23:33:22.401028 29685 net.cpp:65] Creating Layer loss
I0812 23:33:22.401031 29685 net.cpp:228] loss <- deconv0
I0812 23:33:22.401034 29685 net.cpp:228] loss <- target_ims
I0812 23:33:22.401039 29685 net.cpp:116] loss does not need backward computation.
I0812 23:33:22.401051 29685 net.cpp:238] Collecting Learning Rate and Weight Decay.
…
