…
  data_param {
    source: "/scr/r6/tgebru/inverting_conv/caffe_invert_alexnet/data/siggraph/tiny_summer_train_227lmdb"
    mean_file: "/scr/r6/tgebru/timnit_caffe/data/ilsvrc12/imagenet_mean227.binaryproto"
    batch_size: 12
    mirror: false
    backend: LMDB
  }
}
layers {
  top: "target_ims"
  name: "target_ims"
  type: DATA
  data_param {
    source: "/scr/r6/tgebru/inverting_conv/caffe_invert_alexnet/data/siggraph/tiny_summer_train_216lmdb"
    mean_file: "/scr/r6/tgebru/timnit_caffe/data/ilsvrc12/imagenet_mean216.binaryproto"
    batch_size: 12
    mirror: false
    backend: LMDB
  }
}
layers {
  bottom: "source_ims"
  top: "conv1"
  name: "conv1"
  type: CONVOLUTION
  blobs_lr: 0
  blobs_lr: 0
  weight_decay: 1
  weight_decay: 0
  convolution_param {
    num_output: 96
    kernel_size: 11
    stride: 4
    weight_filler {
      type: "gaussian"
      std: 0.01
    }
    bias_filler {
      type: "constant"
      value: 0
    }
  }
}
layers {
  bottom: "conv1"
  top: "conv1"
  name: "relu1"
  type: RELU
}
layers {
  bottom: "conv1"
  top: "pool1"
  name: "pool1"
  type: POOLING
  pooling_param {
    pool: MAX
    kernel_size: 3
    stride: 2
  }
}
layers {
  bottom: "pool1"
  top: "norm1"
  name: "norm1"
  type: LRN
  lrn_param {
    local_size: 5
    alpha: 0.0001
    beta: 0.75
  }
}
layers {
  bottom: "norm1"
  top: "Rconv6"
  name: "Rconv6"
  type: CONVOLUTION
  blobs_lr: 1
  blobs_lr: 2
  weight_decay: 1
  weight_decay: 0
  convolution_param {
    num_output: 256
    pad: 1
    kernel_size: 3
  }
}
layers {
  bottom: "Rconv6"
  top: "Rconv6"
  name: "Rrelu6"
  type: RELU
}
layers {
  bottom: "Rconv6"
  top: "Rconv7"
  name: "Rconv7"
  type: CONVOLUTION
  blobs_lr: 1
  blobs_lr: 2
  weight_decay: 1
  weight_decay: 0
  convolution_param {
    num_output: 256
    pad: 1
    kernel_size: 3
    group: 2
  }
}
layers {
  bottom: "Rconv7"
  top: "Rconv7"
  name: "Rrelu7"
  type: RELU
}
layers {
  bottom: "Rconv7"
  top: "Rconv8"
  name: "Rconv8"
  type: CONVOLUTION
  blobs_lr: 1
  blobs_lr: 2
  weight_decay: 1
  weight_decay: 0
  convolution_param {
    num_output: 256
    pad: 1
    kernel_size: 3
    group: 2
  }
}
layers {
  bottom: "Rconv8"
  top: "Rconv8"
  name: "Rrelu8"
  type: RELU
}
layers {
  bottom: "Rconv8"
  top: "deconv2"
  name: "deconv2"
  type: DECONVOLUTION
  blobs_lr: 1
  blobs_lr: 2
  weight_decay: 1
  weight_decay: 0
  deconvolution_param {
    pad: 2
    kernel_size: 5
    stride: 2
    output_height: 54
    output_width: 54
    output_channels: 64
  }
}
layers {
  bottom: "deconv2"
  top: "deconv2"
  name: "relu_deconv2"
  type: RELU
  relu_param {
    negative_slope: 0.3
  }
}
layers {
  bottom: "deconv2"
  top: "deconv1"
  name: "deconv1"
  type: DECONVOLUTION
  blobs_lr: 1
  blobs_lr: 2
  weight_decay: 1
  weight_decay: 0
  deconvolution_param {
    pad: 2
    kernel_size: 5
    stride: 2
    output_height: 108
    output_width: 108
    output_channels: 32
  }
}
layers {
  bottom: "deconv1"
  top: "deconv1"
  name: "relu_deconv1"
  type: RELU
  relu_param {
    negative_slope: 0.3
  }
}
layers {
  bottom: "deconv1"
  top: "deconv0"
  name: "deconv0"
  type: DECONVOLUTION
  blobs_lr: 1
  blobs_lr: 2
  weight_decay: 1
  weight_decay: 1
  deconvolution_param {
    pad: 2
    kernel_size: 5
    stride: 2
    output_height: 216
    output_width: 216
    output_channels: 3
  }
}
layers {
  bottom: "deconv0"
  bottom: "target_ims"
  name: "loss"
  type: EUCLIDEAN_LOSS
}
I0825 20:26:49.739264 32031 net.cpp:65] Creating Layer source_ims
I0825 20:26:49.739274 32031 net.cpp:189] source_ims -> source_ims
I0825 20:26:49.739387 32031 data_layer.cpp:223] Opening lmdb /scr/r6/tgebru/inverting_conv/caffe_invert_alexnet/data/siggraph/tiny_summer_train_227lmdb
I0825 20:26:49.739558 32031 data_layer.cpp:285] output data size: 12,3,227,227
I0825 20:26:49.739565 32031 data_layer.cpp:304] Loading mean file from/scr/r6/tgebru/timnit_caffe/data/ilsvrc12/imagenet_mean227.binaryproto
I0825 20:26:49.744972 32031 net.cpp:84] Top shape: 12 3 227 227 (1855044)
I0825 20:26:49.744981 32031 net.cpp:116] source_ims does not need backward computation.
I0825 20:26:49.744987 32031 net.cpp:65] Creating Layer target_ims
I0825 20:26:49.744992 32031 net.cpp:189] target_ims -> target_ims
I0825 20:26:49.745137 32031 data_layer.cpp:223] Opening lmdb /scr/r6/tgebru/inverting_conv/caffe_invert_alexnet/data/siggraph/tiny_summer_train_216lmdb
I0825 20:26:49.745246 32031 data_layer.cpp:285] output data size: 12,3,216,216
I0825 20:26:49.745250 32031 data_layer.cpp:304] Loading mean file from/scr/r6/tgebru/timnit_caffe/data/ilsvrc12/imagenet_mean216.binaryproto
I0825 20:26:49.750174 32031 net.cpp:84] Top shape: 12 3 216 216 (1679616)
I0825 20:26:49.750181 32031 net.cpp:116] target_ims does not need backward computation.
I0825 20:26:49.750193 32031 net.cpp:65] Creating Layer conv1
I0825 20:26:49.750197 32031 net.cpp:228] conv1 <- source_ims
I0825 20:26:49.750263 32031 net.cpp:189] conv1 -> conv1
I0825 20:26:49.751570 32031 net.cpp:84] Top shape: 12 96 55 55 (3484800)
I0825 20:26:49.751575 32031 net.cpp:116] conv1 does not need backward computation.
I0825 20:26:49.751581 32031 net.cpp:65] Creating Layer relu1
I0825 20:26:49.751585 32031 net.cpp:228] relu1 <- conv1
I0825 20:26:49.751590 32031 net.cpp:179] relu1 -> conv1 (in-place)
I0825 20:26:49.751597 32031 net.cpp:84] Top shape: 12 96 55 55 (3484800)
I0825 20:26:49.751600 32031 net.cpp:116] relu1 does not need backward computation.
I0825 20:26:49.751606 32031 net.cpp:65] Creating Layer pool1
I0825 20:26:49.751608 32031 net.cpp:228] pool1 <- conv1
I0825 20:26:49.751612 32031 net.cpp:189] pool1 -> pool1
I0825 20:26:49.751623 32031 net.cpp:84] Top shape: 12 96 27 27 (839808)
I0825 20:26:49.751627 32031 net.cpp:116] pool1 does not need backward computation.
I0825 20:26:49.751632 32031 net.cpp:65] Creating Layer norm1
I0825 20:26:49.751634 32031 net.cpp:228] norm1 <- pool1
I0825 20:26:49.751638 32031 net.cpp:189] norm1 -> norm1
I0825 20:26:49.751647 32031 net.cpp:84] Top shape: 12 96 27 27 (839808)
I0825 20:26:49.751649 32031 net.cpp:116] norm1 does not need backward computation.
I0825 20:26:49.751654 32031 net.cpp:65] Creating Layer Rconv6
I0825 20:26:49.751657 32031 net.cpp:228] Rconv6 <- norm1
I0825 20:26:49.751662 32031 net.cpp:189] Rconv6 -> Rconv6
I0825 20:26:49.751844 32031 net.cpp:84] Top shape: 12 256 27 27 (2239488)
I0825 20:26:49.751848 32031 net.cpp:111] Rconv6 needs backward computation.
I0825 20:26:49.751853 32031 net.cpp:65] Creating Layer Rrelu6
I0825 20:26:49.751857 32031 net.cpp:228] Rrelu6 <- Rconv6
I0825 20:26:49.751860 32031 net.cpp:179] Rrelu6 -> Rconv6 (in-place)
I0825 20:26:49.751864 32031 net.cpp:84] Top shape: 12 256 27 27 (2239488)
I0825 20:26:49.751868 32031 net.cpp:111] Rrelu6 needs backward computation.
I0825 20:26:49.751873 32031 net.cpp:65] Creating Layer Rconv7
I0825 20:26:49.751875 32031 net.cpp:228] Rconv7 <- Rconv6
I0825 20:26:49.751879 32031 net.cpp:189] Rconv7 -> Rconv7
I0825 20:26:49.752599 32031 net.cpp:84] Top shape: 12 256 27 27 (2239488)
I0825 20:26:49.752604 32031 net.cpp:111] Rconv7 needs backward computation.
I0825 20:26:49.752609 32031 net.cpp:65] Creating Layer Rrelu7
I0825 20:26:49.752612 32031 net.cpp:228] Rrelu7 <- Rconv7
I0825 20:26:49.752643 32031 net.cpp:179] Rrelu7 -> Rconv7 (in-place)
I0825 20:26:49.752648 32031 net.cpp:84] Top shape: 12 256 27 27 (2239488)
I0825 20:26:49.752650 32031 net.cpp:111] Rrelu7 needs backward computation.
I0825 20:26:49.752655 32031 net.cpp:65] Creating Layer Rconv8
I0825 20:26:49.752657 32031 net.cpp:228] Rconv8 <- Rconv7
I0825 20:26:49.752663 32031 net.cpp:189] Rconv8 -> Rconv8
I0825 20:26:49.753486 32031 net.cpp:84] Top shape: 12 256 27 27 (2239488)
I0825 20:26:49.753491 32031 net.cpp:111] Rconv8 needs backward computation.
I0825 20:26:49.753495 32031 net.cpp:65] Creating Layer Rrelu8
I0825 20:26:49.753499 32031 net.cpp:228] Rrelu8 <- Rconv8
I0825 20:26:49.753501 32031 net.cpp:179] Rrelu8 -> Rconv8 (in-place)
I0825 20:26:49.753505 32031 net.cpp:84] Top shape: 12 256 27 27 (2239488)
I0825 20:26:49.753509 32031 net.cpp:111] Rrelu8 needs backward computation.
I0825 20:26:49.753515 32031 net.cpp:65] Creating Layer deconv2
I0825 20:26:49.753518 32031 net.cpp:228] deconv2 <- Rconv8
I0825 20:26:49.753521 32031 net.cpp:189] deconv2 -> deconv2
I0825 20:26:49.754688 32031 net.cpp:84] Top shape: 12 64 54 54 (2239488)
I0825 20:26:49.754693 32031 net.cpp:111] deconv2 needs backward computation.
I0825 20:26:49.754698 32031 net.cpp:65] Creating Layer relu_deconv2
I0825 20:26:49.754703 32031 net.cpp:228] relu_deconv2 <- deconv2
I0825 20:26:49.754708 32031 net.cpp:179] relu_deconv2 -> deconv2 (in-place)
I0825 20:26:49.754711 32031 net.cpp:84] Top shape: 12 64 54 54 (2239488)
I0825 20:26:49.754714 32031 net.cpp:111] relu_deconv2 needs backward computation.
I0825 20:26:49.754719 32031 net.cpp:65] Creating Layer deconv1
I0825 20:26:49.754721 32031 net.cpp:228] deconv1 <- deconv2
I0825 20:26:49.754725 32031 net.cpp:189] deconv1 -> deconv1
I0825 20:26:49.754881 32031 net.cpp:84] Top shape: 12 32 108 108 (4478976)
I0825 20:26:49.754885 32031 net.cpp:111] deconv1 needs backward computation.
I0825 20:26:49.754891 32031 net.cpp:65] Creating Layer relu_deconv1
I0825 20:26:49.754894 32031 net.cpp:228] relu_deconv1 <- deconv1
I0825 20:26:49.754897 32031 net.cpp:179] relu_deconv1 -> deconv1 (in-place)
I0825 20:26:49.754901 32031 net.cpp:84] Top shape: 12 32 108 108 (4478976)
I0825 20:26:49.754904 32031 net.cpp:111] relu_deconv1 needs backward computation.
I0825 20:26:49.754912 32031 net.cpp:65] Creating Layer deconv0
I0825 20:26:49.754914 32031 net.cpp:228] deconv0 <- deconv1
I0825 20:26:49.754919 32031 net.cpp:189] deconv0 -> deconv0
I0825 20:26:49.754959 32031 net.cpp:84] Top shape: 12 3 216 216 (1679616)
I0825 20:26:49.754962 32031 net.cpp:111] deconv0 needs backward computation.
I0825 20:26:49.754966 32031 net.cpp:65] Creating Layer loss
I0825 20:26:49.754969 32031 net.cpp:228] loss <- deconv0
I0825 20:26:49.754972 32031 net.cpp:228] loss <- target_ims
I0825 20:26:49.754979 32031 net.cpp:111] loss needs backward computation.
I0825 20:26:49.754994 32031 net.cpp:238] Collecting Learning Rate and Weight Decay.
…
  data_param {
    source: "/scr/r6/tgebru/inverting_conv/caffe_invert_alexnet/data/siggraph/tiny_summer_val_227lmdb"
    mean_file: "/scr/r6/tgebru/timnit_caffe/data/ilsvrc12/imagenet_mean227.binaryproto"
    batch_size: 2
    mirror: false
    backend: LMDB
  }
}
layers {
  top: "target_ims"
  name: "target_ims"
  type: DATA
  data_param {
    source: "/scr/r6/tgebru/inverting_conv/caffe_invert_alexnet/data/siggraph/tiny_summer_val_216lmdb"
    mean_file: "/scr/r6/tgebru/timnit_caffe/data/ilsvrc12/imagenet_mean216.binaryproto"
    batch_size: 2
    mirror: false
    backend: LMDB
  }
}
layers {
  bottom: "source_ims"
  top: "conv1"
  name: "conv1"
  type: CONVOLUTION
  blobs_lr: 0
  blobs_lr: 0
  weight_decay: 1
  weight_decay: 0
  convolution_param {
    num_output: 96
    kernel_size: 11
    stride: 4
    weight_filler {
      type: "gaussian"
      std: 0.01
    }
    bias_filler {
      type: "constant"
      value: 0
    }
  }
}
layers {
  bottom: "conv1"
  top: "conv1"
  name: "relu1"
  type: RELU
}
layers {
  bottom: "conv1"
  top: "pool1"
  name: "pool1"
  type: POOLING
  pooling_param {
    pool: MAX
    kernel_size: 3
    stride: 2
  }
}
layers {
  bottom: "pool1"
  top: "norm1"
  name: "norm1"
  type: LRN
  lrn_param {
    local_size: 5
    alpha: 0.0001
    beta: 0.75
  }
}
layers {
  bottom: "norm1"
  top: "Rconv6"
  name: "Rconv6"
  type: CONVOLUTION
  blobs_lr: 0
  blobs_lr: 0
  weight_decay: 1
  weight_decay: 0
  convolution_param {
    num_output: 256
    pad: 1
    kernel_size: 3
  }
}
layers {
  bottom: "Rconv6"
  top: "Rconv6"
  name: "Rrelu6"
  type: RELU
}
layers {
  bottom: "Rconv6"
  top: "Rconv7"
  name: "Rconv7"
  type: CONVOLUTION
  blobs_lr: 0
  blobs_lr: 0
  weight_decay: 1
  weight_decay: 0
  convolution_param {
    num_output: 256
    pad: 1
    kernel_size: 3
    group: 2
  }
}
layers {
  bottom: "Rconv7"
  top: "Rconv7"
  name: "Rrelu7"
  type: RELU
}
layers {
  bottom: "Rconv7"
  top: "Rconv8"
  name: "Rconv8"
  type: CONVOLUTION
  blobs_lr: 0
  blobs_lr: 0
  weight_decay: 1
  weight_decay: 0
  convolution_param {
    num_output: 256
    pad: 1
    kernel_size: 3
    group: 2
  }
}
layers {
  bottom: "Rconv8"
  top: "Rconv8"
  name: "Rrelu8"
  type: RELU
}
layers {
  bottom: "Rconv8"
  top: "deconv2"
  name: "deconv2"
  type: DECONVOLUTION
  blobs_lr: 0
  blobs_lr: 0
  weight_decay: 1
  weight_decay: 0
  deconvolution_param {
    pad: 2
    kernel_size: 5
    stride: 2
    output_height: 54
    output_width: 54
    output_channels: 64
  }
}
layers {
  bottom: "deconv2"
  top: "deconv2"
  name: "relu_deconv2"
  type: RELU
  relu_param {
    negative_slope: 0.3
  }
}
layers {
  bottom: "deconv2"
  top: "deconv1"
  name: "deconv1"
  type: DECONVOLUTION
  blobs_lr: 0
  blobs_lr: 0
  weight_decay: 1
  weight_decay: 0
  deconvolution_param {
    pad: 2
    kernel_size: 5
    stride: 2
    output_height: 108
    output_width: 108
    output_channels: 32
  }
}
layers {
  bottom: "deconv1"
  top: "deconv1"
  name: "relu_deconv1"
  type: RELU
  relu_param {
    negative_slope: 0.3
  }
}
layers {
  bottom: "deconv1"
  top: "deconv0"
  name: "deconv0"
  type: DECONVOLUTION
  blobs_lr: 0
  blobs_lr: 0
  weight_decay: 1
  weight_decay: 0
  deconvolution_param {
    pad: 2
    kernel_size: 5
    stride: 2
    output_height: 216
    output_width: 216
    output_channels: 3
  }
}
layers {
  bottom: "deconv0"
  bottom: "target_ims"
  name: "loss"
  type: EUCLIDEAN_LOSS
}
I0825 20:26:49.755753 32031 net.cpp:65] Creating Layer source_ims
I0825 20:26:49.755759 32031 net.cpp:189] source_ims -> source_ims
I0825 20:26:49.755816 32031 data_layer.cpp:223] Opening lmdb /scr/r6/tgebru/inverting_conv/caffe_invert_alexnet/data/siggraph/tiny_summer_val_227lmdb
I0825 20:26:49.755962 32031 data_layer.cpp:285] output data size: 2,3,227,227
I0825 20:26:49.755970 32031 data_layer.cpp:304] Loading mean file from/scr/r6/tgebru/timnit_caffe/data/ilsvrc12/imagenet_mean227.binaryproto
I0825 20:26:49.758047 32031 net.cpp:84] Top shape: 2 3 227 227 (309174)
I0825 20:26:49.758054 32031 net.cpp:116] source_ims does not need backward computation.
I0825 20:26:49.758060 32031 net.cpp:65] Creating Layer target_ims
I0825 20:26:49.758064 32031 net.cpp:189] target_ims -> target_ims
I0825 20:26:49.758111 32031 data_layer.cpp:223] Opening lmdb /scr/r6/tgebru/inverting_conv/caffe_invert_alexnet/data/siggraph/tiny_summer_val_216lmdb
I0825 20:26:49.758182 32031 data_layer.cpp:285] output data size: 2,3,216,216
I0825 20:26:49.758185 32031 data_layer.cpp:304] Loading mean file from/scr/r6/tgebru/timnit_caffe/data/ilsvrc12/imagenet_mean216.binaryproto
I0825 20:26:49.760040 32031 net.cpp:84] Top shape: 2 3 216 216 (279936)
I0825 20:26:49.760046 32031 net.cpp:116] target_ims does not need backward computation.
I0825 20:26:49.760069 32031 net.cpp:65] Creating Layer conv1
I0825 20:26:49.760072 32031 net.cpp:228] conv1 <- source_ims
I0825 20:26:49.760078 32031 net.cpp:189] conv1 -> conv1
I0825 20:26:49.761322 32031 net.cpp:84] Top shape: 2 96 55 55 (580800)
I0825 20:26:49.761325 32031 net.cpp:116] conv1 does not need backward computation.
I0825 20:26:49.761329 32031 net.cpp:65] Creating Layer relu1
I0825 20:26:49.761332 32031 net.cpp:228] relu1 <- conv1
I0825 20:26:49.761337 32031 net.cpp:179] relu1 -> conv1 (in-place)
I0825 20:26:49.761342 32031 net.cpp:84] Top shape: 2 96 55 55 (580800)
I0825 20:26:49.761344 32031 net.cpp:116] relu1 does not need backward computation.
I0825 20:26:49.761348 32031 net.cpp:65] Creating Layer pool1
I0825 20:26:49.761351 32031 net.cpp:228] pool1 <- conv1
I0825 20:26:49.761358 32031 net.cpp:189] pool1 -> pool1
I0825 20:26:49.761363 32031 net.cpp:84] Top shape: 2 96 27 27 (139968)
I0825 20:26:49.761366 32031 net.cpp:116] pool1 does not need backward computation.
I0825 20:26:49.761370 32031 net.cpp:65] Creating Layer norm1
I0825 20:26:49.761373 32031 net.cpp:228] norm1 <- pool1
I0825 20:26:49.761379 32031 net.cpp:189] norm1 -> norm1
I0825 20:26:49.761384 32031 net.cpp:84] Top shape: 2 96 27 27 (139968)
I0825 20:26:49.761386 32031 net.cpp:116] norm1 does not need backward computation.
I0825 20:26:49.761390 32031 net.cpp:65] Creating Layer Rconv6
I0825 20:26:49.761392 32031 net.cpp:228] Rconv6 <- norm1
I0825 20:26:49.761399 32031 net.cpp:189] Rconv6 -> Rconv6
I0825 20:26:49.761981 32031 net.cpp:84] Top shape: 2 256 27 27 (373248)
I0825 20:26:49.761984 32031 net.cpp:116] Rconv6 does not need backward computation.
I0825 20:26:49.761988 32031 net.cpp:65] Creating Layer Rrelu6
I0825 20:26:49.761991 32031 net.cpp:228] Rrelu6 <- Rconv6
I0825 20:26:49.761996 32031 net.cpp:179] Rrelu6 -> Rconv6 (in-place)
I0825 20:26:49.761999 32031 net.cpp:84] Top shape: 2 256 27 27 (373248)
I0825 20:26:49.762002 32031 net.cpp:116] Rrelu6 does not need backward computation.
I0825 20:26:49.762008 32031 net.cpp:65] Creating Layer Rconv7
I0825 20:26:49.762012 32031 net.cpp:228] Rconv7 <- Rconv6
I0825 20:26:49.762015 32031 net.cpp:189] Rconv7 -> Rconv7
I0825 20:26:49.762822 32031 net.cpp:84] Top shape: 2 256 27 27 (373248)
I0825 20:26:49.762826 32031 net.cpp:116] Rconv7 does not need backward computation.
I0825 20:26:49.762832 32031 net.cpp:65] Creating Layer Rrelu7
I0825 20:26:49.762835 32031 net.cpp:228] Rrelu7 <- Rconv7
I0825 20:26:49.762840 32031 net.cpp:179] Rrelu7 -> Rconv7 (in-place)
I0825 20:26:49.762843 32031 net.cpp:84] Top shape: 2 256 27 27 (373248)
I0825 20:26:49.762845 32031 net.cpp:116] Rrelu7 does not need backward computation.
I0825 20:26:49.762848 32031 net.cpp:65] Creating Layer Rconv8
I0825 20:26:49.762851 32031 net.cpp:228] Rconv8 <- Rconv7
I0825 20:26:49.762855 32031 net.cpp:189] Rconv8 -> Rconv8
I0825 20:26:49.763614 32031 net.cpp:84] Top shape: 2 256 27 27 (373248)
I0825 20:26:49.763618 32031 net.cpp:116] Rconv8 does not need backward computation.
I0825 20:26:49.763622 32031 net.cpp:65] Creating Layer Rrelu8
I0825 20:26:49.763624 32031 net.cpp:228] Rrelu8 <- Rconv8
I0825 20:26:49.763628 32031 net.cpp:179] Rrelu8 -> Rconv8 (in-place)
I0825 20:26:49.763634 32031 net.cpp:84] Top shape: 2 256 27 27 (373248)
I0825 20:26:49.763636 32031 net.cpp:116] Rrelu8 does not need backward computation.
I0825 20:26:49.763640 32031 net.cpp:65] Creating Layer deconv2
I0825 20:26:49.763643 32031 net.cpp:228] deconv2 <- Rconv8
I0825 20:26:49.763646 32031 net.cpp:189] deconv2 -> deconv2
I0825 20:26:49.764700 32031 net.cpp:84] Top shape: 2 64 54 54 (373248)
I0825 20:26:49.764704 32031 net.cpp:116] deconv2 does not need backward computation.
I0825 20:26:49.764708 32031 net.cpp:65] Creating Layer relu_deconv2
I0825 20:26:49.764711 32031 net.cpp:228] relu_deconv2 <- deconv2
I0825 20:26:49.764717 32031 net.cpp:179] relu_deconv2 -> deconv2 (in-place)
I0825 20:26:49.764721 32031 net.cpp:84] Top shape: 2 64 54 54 (373248)
I0825 20:26:49.764724 32031 net.cpp:116] relu_deconv2 does not need backward computation.
I0825 20:26:49.764741 32031 net.cpp:65] Creating Layer deconv1
I0825 20:26:49.764744 32031 net.cpp:228] deconv1 <- deconv2
I0825 20:26:49.764747 32031 net.cpp:189] deconv1 -> deconv1
I0825 20:26:49.764892 32031 net.cpp:84] Top shape: 2 32 108 108 (746496)
I0825 20:26:49.764896 32031 net.cpp:116] deconv1 does not need backward computation.
I0825 20:26:49.764901 32031 net.cpp:65] Creating Layer relu_deconv1
I0825 20:26:49.764904 32031 net.cpp:228] relu_deconv1 <- deconv1
I0825 20:26:49.764907 32031 net.cpp:179] relu_deconv1 -> deconv1 (in-place)
I0825 20:26:49.764911 32031 net.cpp:84] Top shape: 2 32 108 108 (746496)
I0825 20:26:49.764914 32031 net.cpp:116] relu_deconv1 does not need backward computation.
I0825 20:26:49.764919 32031 net.cpp:65] Creating Layer deconv0
I0825 20:26:49.764921 32031 net.cpp:228] deconv0 <- deconv1
I0825 20:26:49.764927 32031 net.cpp:189] deconv0 -> deconv0
I0825 20:26:49.764967 32031 net.cpp:84] Top shape: 2 3 216 216 (279936)
I0825 20:26:49.764971 32031 net.cpp:116] deconv0 does not need backward computation.
I0825 20:26:49.764976 32031 net.cpp:65] Creating Layer loss
I0825 20:26:49.764978 32031 net.cpp:228] loss <- deconv0
I0825 20:26:49.764981 32031 net.cpp:228] loss <- target_ims
I0825 20:26:49.764986 32031 net.cpp:116] loss does not need backward computation.
I0825 20:26:49.764998 32031 net.cpp:238] Collecting Learning Rate and Weight Decay.
…
