…
    source: "/scr/r6/tgebru/inverting_conv/caffe_invert_alexnet/data/siggraph/tiny_winter_train_lmdb"
    mean_file: "/scr/r6/tgebru/timnit_caffe/data/ilsvrc12/imagenet_mean.binaryproto"
    batch_size: 12
    crop_size: 227
    mirror: false
    backend: LMDB
  }
}
layers {
  top: "target_ims"
  name: "target_ims"
  type: DATA
  data_param {
    source: "/scr/r6/tgebru/inverting_conv/caffe_invert_alexnet/data/siggraph/tiny_summer_train_lmdb"
    mean_file: "/scr/r6/tgebru/timnit_caffe/data/ilsvrc12/imagenet_mean.binaryproto"
    batch_size: 12
    crop_size: 216
    mirror: false
    backend: LMDB
  }
}
layers {
  bottom: "source_ims"
  top: "conv1"
  name: "conv1"
  type: CONVOLUTION
  blobs_lr: 0
  blobs_lr: 0
  weight_decay: 1
  weight_decay: 0
  convolution_param {
    num_output: 96
    kernel_size: 11
    stride: 4
    weight_filler {
      type: "gaussian"
      std: 0.01
    }
    bias_filler {
      type: "constant"
      value: 0
    }
  }
}
layers {
  bottom: "conv1"
  top: "conv1"
  name: "relu1"
  type: RELU
}
layers {
  bottom: "conv1"
  top: "pool1"
  name: "pool1"
  type: POOLING
  pooling_param {
    pool: MAX
    kernel_size: 3
    stride: 2
  }
}
layers {
  bottom: "pool1"
  top: "norm1"
  name: "norm1"
  type: LRN
  lrn_param {
    local_size: 5
    alpha: 0.0001
    beta: 0.75
  }
}
layers {
  bottom: "norm1"
  top: "Rconv6"
  name: "Rconv6"
  type: CONVOLUTION
  blobs_lr: 1
  blobs_lr: 2
  weight_decay: 1
  weight_decay: 0
  convolution_param {
    num_output: 256
    pad: 1
    kernel_size: 3
  }
}
layers {
  bottom: "Rconv6"
  top: "Rconv6"
  name: "Rrelu6"
  type: RELU
}
layers {
  bottom: "Rconv6"
  top: "Rconv7"
  name: "Rconv7"
  type: CONVOLUTION
  blobs_lr: 1
  blobs_lr: 2
  weight_decay: 1
  weight_decay: 0
  convolution_param {
    num_output: 256
    pad: 1
    kernel_size: 3
    group: 2
  }
}
layers {
  bottom: "Rconv7"
  top: "Rconv7"
  name: "Rrelu7"
  type: RELU
}
layers {
  bottom: "Rconv7"
  top: "Rconv8"
  name: "Rconv8"
  type: CONVOLUTION
  blobs_lr: 1
  blobs_lr: 2
  weight_decay: 1
  weight_decay: 0
  convolution_param {
    num_output: 256
    pad: 1
    kernel_size: 3
    group: 2
  }
}
layers {
  bottom: "Rconv8"
  top: "Rconv8"
  name: "Rrelu8"
  type: RELU
}
layers {
  bottom: "Rconv8"
  top: "deconv2"
  name: "deconv2"
  type: DECONVOLUTION
  blobs_lr: 1
  blobs_lr: 2
  weight_decay: 1
  weight_decay: 0
  deconvolution_param {
    pad: 2
    kernel_size: 5
    stride: 2
    output_height: 54
    output_width: 54
    output_channels: 64
  }
}
layers {
  bottom: "deconv2"
  top: "deconv2"
  name: "relu_deconv2"
  type: RELU
  relu_param {
    negative_slope: 0.3
  }
}
layers {
  bottom: "deconv2"
  top: "deconv1"
  name: "deconv1"
  type: DECONVOLUTION
  blobs_lr: 1
  blobs_lr: 2
  weight_decay: 1
  weight_decay: 0
  deconvolution_param {
    pad: 2
    kernel_size: 5
    stride: 2
    output_height: 108
    output_width: 108
    output_channels: 32
  }
}
layers {
  bottom: "deconv1"
  top: "deconv1"
  name: "relu_deconv1"
  type: RELU
  relu_param {
    negative_slope: 0.3
  }
}
layers {
  bottom: "deconv1"
  top: "deconv0"
  name: "deconv0"
  type: DECONVOLUTION
  blobs_lr: 1
  blobs_lr: 2
  weight_decay: 1
  weight_decay: 1
  deconvolution_param {
    pad: 2
    kernel_size: 5
    stride: 2
    output_height: 216
    output_width: 216
    output_channels: 3
  }
}
layers {
  bottom: "deconv0"
  bottom: "target_ims"
  name: "loss"
  type: EUCLIDEAN_LOSS
}
I0813 11:50:36.012382 25311 net.cpp:65] Creating Layer source_ims
I0813 11:50:36.012392 25311 net.cpp:189] source_ims -> source_ims
I0813 11:50:36.012495 25311 data_layer.cpp:223] Opening lmdb /scr/r6/tgebru/inverting_conv/caffe_invert_alexnet/data/siggraph/tiny_winter_train_lmdb
I0813 11:50:36.012706 25311 data_layer.cpp:285] output data size: 12,3,227,227
I0813 11:50:36.012713 25311 data_layer.cpp:304] Loading mean file from/scr/r6/tgebru/timnit_caffe/data/ilsvrc12/imagenet_mean.binaryproto
I0813 11:50:36.017370 25311 net.cpp:84] Top shape: 12 3 227 227 (1855044)
I0813 11:50:36.017379 25311 net.cpp:116] source_ims does not need backward computation.
I0813 11:50:36.017385 25311 net.cpp:65] Creating Layer target_ims
I0813 11:50:36.017388 25311 net.cpp:189] target_ims -> target_ims
I0813 11:50:36.017541 25311 data_layer.cpp:223] Opening lmdb /scr/r6/tgebru/inverting_conv/caffe_invert_alexnet/data/siggraph/tiny_summer_train_lmdb
I0813 11:50:36.017741 25311 data_layer.cpp:285] output data size: 12,3,216,216
I0813 11:50:36.017746 25311 data_layer.cpp:304] Loading mean file from/scr/r6/tgebru/timnit_caffe/data/ilsvrc12/imagenet_mean.binaryproto
I0813 11:50:36.022179 25311 net.cpp:84] Top shape: 12 3 216 216 (1679616)
I0813 11:50:36.022187 25311 net.cpp:116] target_ims does not need backward computation.
I0813 11:50:36.022198 25311 net.cpp:65] Creating Layer conv1
I0813 11:50:36.022203 25311 net.cpp:228] conv1 <- source_ims
I0813 11:50:36.022312 25311 net.cpp:189] conv1 -> conv1
I0813 11:50:36.023679 25311 net.cpp:84] Top shape: 12 96 55 55 (3484800)
I0813 11:50:36.023684 25311 net.cpp:116] conv1 does not need backward computation.
I0813 11:50:36.023689 25311 net.cpp:65] Creating Layer relu1
I0813 11:50:36.023692 25311 net.cpp:228] relu1 <- conv1
I0813 11:50:36.023696 25311 net.cpp:179] relu1 -> conv1 (in-place)
I0813 11:50:36.023705 25311 net.cpp:84] Top shape: 12 96 55 55 (3484800)
I0813 11:50:36.023708 25311 net.cpp:116] relu1 does not need backward computation.
I0813 11:50:36.023715 25311 net.cpp:65] Creating Layer pool1
I0813 11:50:36.023716 25311 net.cpp:228] pool1 <- conv1
I0813 11:50:36.023721 25311 net.cpp:189] pool1 -> pool1
I0813 11:50:36.023732 25311 net.cpp:84] Top shape: 12 96 27 27 (839808)
I0813 11:50:36.023736 25311 net.cpp:116] pool1 does not need backward computation.
I0813 11:50:36.023740 25311 net.cpp:65] Creating Layer norm1
I0813 11:50:36.023742 25311 net.cpp:228] norm1 <- pool1
I0813 11:50:36.023746 25311 net.cpp:189] norm1 -> norm1
I0813 11:50:36.023754 25311 net.cpp:84] Top shape: 12 96 27 27 (839808)
I0813 11:50:36.023757 25311 net.cpp:116] norm1 does not need backward computation.
I0813 11:50:36.023761 25311 net.cpp:65] Creating Layer Rconv6
I0813 11:50:36.023764 25311 net.cpp:228] Rconv6 <- norm1
I0813 11:50:36.023768 25311 net.cpp:189] Rconv6 -> Rconv6
I0813 11:50:36.024041 25311 net.cpp:84] Top shape: 12 256 27 27 (2239488)
I0813 11:50:36.024046 25311 net.cpp:111] Rconv6 needs backward computation.
I0813 11:50:36.024050 25311 net.cpp:65] Creating Layer Rrelu6
I0813 11:50:36.024054 25311 net.cpp:228] Rrelu6 <- Rconv6
I0813 11:50:36.024057 25311 net.cpp:179] Rrelu6 -> Rconv6 (in-place)
I0813 11:50:36.024061 25311 net.cpp:84] Top shape: 12 256 27 27 (2239488)
I0813 11:50:36.024065 25311 net.cpp:111] Rrelu6 needs backward computation.
I0813 11:50:36.024070 25311 net.cpp:65] Creating Layer Rconv7
I0813 11:50:36.024072 25311 net.cpp:228] Rconv7 <- Rconv6
I0813 11:50:36.024076 25311 net.cpp:189] Rconv7 -> Rconv7
I0813 11:50:36.024819 25311 net.cpp:84] Top shape: 12 256 27 27 (2239488)
I0813 11:50:36.024824 25311 net.cpp:111] Rconv7 needs backward computation.
I0813 11:50:36.024828 25311 net.cpp:65] Creating Layer Rrelu7
I0813 11:50:36.024852 25311 net.cpp:228] Rrelu7 <- Rconv7
I0813 11:50:36.024857 25311 net.cpp:179] Rrelu7 -> Rconv7 (in-place)
I0813 11:50:36.024860 25311 net.cpp:84] Top shape: 12 256 27 27 (2239488)
I0813 11:50:36.024863 25311 net.cpp:111] Rrelu7 needs backward computation.
I0813 11:50:36.024868 25311 net.cpp:65] Creating Layer Rconv8
I0813 11:50:36.024869 25311 net.cpp:228] Rconv8 <- Rconv7
I0813 11:50:36.024873 25311 net.cpp:189] Rconv8 -> Rconv8
I0813 11:50:36.025647 25311 net.cpp:84] Top shape: 12 256 27 27 (2239488)
I0813 11:50:36.025652 25311 net.cpp:111] Rconv8 needs backward computation.
I0813 11:50:36.025656 25311 net.cpp:65] Creating Layer Rrelu8
I0813 11:50:36.025658 25311 net.cpp:228] Rrelu8 <- Rconv8
I0813 11:50:36.025662 25311 net.cpp:179] Rrelu8 -> Rconv8 (in-place)
I0813 11:50:36.025667 25311 net.cpp:84] Top shape: 12 256 27 27 (2239488)
I0813 11:50:36.025670 25311 net.cpp:111] Rrelu8 needs backward computation.
I0813 11:50:36.025674 25311 net.cpp:65] Creating Layer deconv2
I0813 11:50:36.025676 25311 net.cpp:228] deconv2 <- Rconv8
I0813 11:50:36.025681 25311 net.cpp:189] deconv2 -> deconv2
I0813 11:50:36.026734 25311 net.cpp:84] Top shape: 12 64 54 54 (2239488)
I0813 11:50:36.026738 25311 net.cpp:111] deconv2 needs backward computation.
I0813 11:50:36.026742 25311 net.cpp:65] Creating Layer relu_deconv2
I0813 11:50:36.026746 25311 net.cpp:228] relu_deconv2 <- deconv2
I0813 11:50:36.026749 25311 net.cpp:179] relu_deconv2 -> deconv2 (in-place)
I0813 11:50:36.026754 25311 net.cpp:84] Top shape: 12 64 54 54 (2239488)
I0813 11:50:36.026757 25311 net.cpp:111] relu_deconv2 needs backward computation.
I0813 11:50:36.026760 25311 net.cpp:65] Creating Layer deconv1
I0813 11:50:36.026763 25311 net.cpp:228] deconv1 <- deconv2
I0813 11:50:36.026767 25311 net.cpp:189] deconv1 -> deconv1
I0813 11:50:36.026932 25311 net.cpp:84] Top shape: 12 32 108 108 (4478976)
I0813 11:50:36.026937 25311 net.cpp:111] deconv1 needs backward computation.
I0813 11:50:36.026940 25311 net.cpp:65] Creating Layer relu_deconv1
I0813 11:50:36.026943 25311 net.cpp:228] relu_deconv1 <- deconv1
I0813 11:50:36.026947 25311 net.cpp:179] relu_deconv1 -> deconv1 (in-place)
I0813 11:50:36.026952 25311 net.cpp:84] Top shape: 12 32 108 108 (4478976)
I0813 11:50:36.026953 25311 net.cpp:111] relu_deconv1 needs backward computation.
I0813 11:50:36.026958 25311 net.cpp:65] Creating Layer deconv0
I0813 11:50:36.026962 25311 net.cpp:228] deconv0 <- deconv1
I0813 11:50:36.026965 25311 net.cpp:189] deconv0 -> deconv0
I0813 11:50:36.026988 25311 net.cpp:84] Top shape: 12 3 216 216 (1679616)
I0813 11:50:36.026991 25311 net.cpp:111] deconv0 needs backward computation.
I0813 11:50:36.026995 25311 net.cpp:65] Creating Layer loss
I0813 11:50:36.026998 25311 net.cpp:228] loss <- deconv0
I0813 11:50:36.027001 25311 net.cpp:228] loss <- target_ims
I0813 11:50:36.027009 25311 net.cpp:111] loss needs backward computation.
I0813 11:50:36.027021 25311 net.cpp:238] Collecting Learning Rate and Weight Decay.
…
    source: "/scr/r6/tgebru/inverting_conv/caffe_invert_alexnet/data/siggraph/tiny_winter_val_lmdb"
    mean_file: "/scr/r6/tgebru/timnit_caffe/data/ilsvrc12/imagenet_mean.binaryproto"
    batch_size: 2
    crop_size: 227
    mirror: false
    backend: LMDB
  }
}
layers {
  top: "target_ims"
  name: "target_ims"
  type: DATA
  data_param {
    source: "/scr/r6/tgebru/inverting_conv/caffe_invert_alexnet/data/siggraph/tiny_summer_val_lmdb"
    mean_file: "/scr/r6/tgebru/timnit_caffe/data/ilsvrc12/imagenet_mean.binaryproto"
    batch_size: 2
    crop_size: 216
    mirror: false
    backend: LMDB
  }
}
layers {
  bottom: "source_ims"
  top: "conv1"
  name: "conv1"
  type: CONVOLUTION
  blobs_lr: 0
  blobs_lr: 0
  weight_decay: 1
  weight_decay: 0
  convolution_param {
    num_output: 96
    kernel_size: 11
    stride: 4
    weight_filler {
      type: "gaussian"
      std: 0.01
    }
    bias_filler {
      type: "constant"
      value: 0
    }
  }
}
layers {
  bottom: "conv1"
  top: "conv1"
  name: "relu1"
  type: RELU
}
layers {
  bottom: "conv1"
  top: "pool1"
  name: "pool1"
  type: POOLING
  pooling_param {
    pool: MAX
    kernel_size: 3
    stride: 2
  }
}
layers {
  bottom: "pool1"
  top: "norm1"
  name: "norm1"
  type: LRN
  lrn_param {
    local_size: 5
    alpha: 0.0001
    beta: 0.75
  }
}
layers {
  bottom: "norm1"
  top: "Rconv6"
  name: "Rconv6"
  type: CONVOLUTION
  blobs_lr: 0
  blobs_lr: 0
  weight_decay: 1
  weight_decay: 0
  convolution_param {
    num_output: 256
    pad: 1
    kernel_size: 3
  }
}
layers {
  bottom: "Rconv6"
  top: "Rconv6"
  name: "Rrelu6"
  type: RELU
}
layers {
  bottom: "Rconv6"
  top: "Rconv7"
  name: "Rconv7"
  type: CONVOLUTION
  blobs_lr: 0
  blobs_lr: 0
  weight_decay: 1
  weight_decay: 0
  convolution_param {
    num_output: 256
    pad: 1
    kernel_size: 3
    group: 2
  }
}
layers {
  bottom: "Rconv7"
  top: "Rconv7"
  name: "Rrelu7"
  type: RELU
}
layers {
  bottom: "Rconv7"
  top: "Rconv8"
  name: "Rconv8"
  type: CONVOLUTION
  blobs_lr: 0
  blobs_lr: 0
  weight_decay: 1
  weight_decay: 0
  convolution_param {
    num_output: 256
    pad: 1
    kernel_size: 3
    group: 2
  }
}
layers {
  bottom: "Rconv8"
  top: "Rconv8"
  name: "Rrelu8"
  type: RELU
}
layers {
  bottom: "Rconv8"
  top: "deconv2"
  name: "deconv2"
  type: DECONVOLUTION
  blobs_lr: 0
  blobs_lr: 0
  weight_decay: 1
  weight_decay: 0
  deconvolution_param {
    pad: 2
    kernel_size: 5
    stride: 2
    output_height: 54
    output_width: 54
    output_channels: 64
  }
}
layers {
  bottom: "deconv2"
  top: "deconv2"
  name: "relu_deconv2"
  type: RELU
  relu_param {
    negative_slope: 0.3
  }
}
layers {
  bottom: "deconv2"
  top: "deconv1"
  name: "deconv1"
  type: DECONVOLUTION
  blobs_lr: 0
  blobs_lr: 0
  weight_decay: 1
  weight_decay: 0
  deconvolution_param {
    pad: 2
    kernel_size: 5
    stride: 2
    output_height: 108
    output_width: 108
    output_channels: 32
  }
}
layers {
  bottom: "deconv1"
  top: "deconv1"
  name: "relu_deconv1"
  type: RELU
  relu_param {
    negative_slope: 0.3
  }
}
layers {
  bottom: "deconv1"
  top: "deconv0"
  name: "deconv0"
  type: DECONVOLUTION
  blobs_lr: 0
  blobs_lr: 0
  weight_decay: 1
  weight_decay: 0
  deconvolution_param {
    pad: 2
    kernel_size: 5
    stride: 2
    output_height: 216
    output_width: 216
    output_channels: 3
  }
}
layers {
  bottom: "deconv0"
  bottom: "target_ims"
  name: "loss"
  type: EUCLIDEAN_LOSS
}
I0813 11:50:36.027726 25311 net.cpp:65] Creating Layer source_ims
I0813 11:50:36.027731 25311 net.cpp:189] source_ims -> source_ims
I0813 11:50:36.027784 25311 data_layer.cpp:223] Opening lmdb /scr/r6/tgebru/inverting_conv/caffe_invert_alexnet/data/siggraph/tiny_winter_val_lmdb
I0813 11:50:36.027968 25311 data_layer.cpp:285] output data size: 2,3,227,227
I0813 11:50:36.027973 25311 data_layer.cpp:304] Loading mean file from/scr/r6/tgebru/timnit_caffe/data/ilsvrc12/imagenet_mean.binaryproto
I0813 11:50:36.030339 25311 net.cpp:84] Top shape: 2 3 227 227 (309174)
I0813 11:50:36.030345 25311 net.cpp:116] source_ims does not need backward computation.
I0813 11:50:36.030351 25311 net.cpp:65] Creating Layer target_ims
I0813 11:50:36.030355 25311 net.cpp:189] target_ims -> target_ims
I0813 11:50:36.030401 25311 data_layer.cpp:223] Opening lmdb /scr/r6/tgebru/inverting_conv/caffe_invert_alexnet/data/siggraph/tiny_summer_val_lmdb
I0813 11:50:36.030522 25311 data_layer.cpp:285] output data size: 2,3,216,216
I0813 11:50:36.030526 25311 data_layer.cpp:304] Loading mean file from/scr/r6/tgebru/timnit_caffe/data/ilsvrc12/imagenet_mean.binaryproto
I0813 11:50:36.032733 25311 net.cpp:84] Top shape: 2 3 216 216 (279936)
I0813 11:50:36.032752 25311 net.cpp:116] target_ims does not need backward computation.
I0813 11:50:36.032760 25311 net.cpp:65] Creating Layer conv1
I0813 11:50:36.032763 25311 net.cpp:228] conv1 <- source_ims
I0813 11:50:36.032768 25311 net.cpp:189] conv1 -> conv1
I0813 11:50:36.034013 25311 net.cpp:84] Top shape: 2 96 55 55 (580800)
I0813 11:50:36.034018 25311 net.cpp:116] conv1 does not need backward computation.
I0813 11:50:36.034021 25311 net.cpp:65] Creating Layer relu1
I0813 11:50:36.034024 25311 net.cpp:228] relu1 <- conv1
I0813 11:50:36.034029 25311 net.cpp:179] relu1 -> conv1 (in-place)
I0813 11:50:36.034034 25311 net.cpp:84] Top shape: 2 96 55 55 (580800)
I0813 11:50:36.034036 25311 net.cpp:116] relu1 does not need backward computation.
I0813 11:50:36.034041 25311 net.cpp:65] Creating Layer pool1
I0813 11:50:36.034044 25311 net.cpp:228] pool1 <- conv1
I0813 11:50:36.034047 25311 net.cpp:189] pool1 -> pool1
I0813 11:50:36.034054 25311 net.cpp:84] Top shape: 2 96 27 27 (139968)
I0813 11:50:36.034056 25311 net.cpp:116] pool1 does not need backward computation.
I0813 11:50:36.034060 25311 net.cpp:65] Creating Layer norm1
I0813 11:50:36.034062 25311 net.cpp:228] norm1 <- pool1
I0813 11:50:36.034066 25311 net.cpp:189] norm1 -> norm1
I0813 11:50:36.034071 25311 net.cpp:84] Top shape: 2 96 27 27 (139968)
I0813 11:50:36.034075 25311 net.cpp:116] norm1 does not need backward computation.
I0813 11:50:36.034077 25311 net.cpp:65] Creating Layer Rconv6
I0813 11:50:36.034080 25311 net.cpp:228] Rconv6 <- norm1
I0813 11:50:36.034085 25311 net.cpp:189] Rconv6 -> Rconv6
I0813 11:50:36.034642 25311 net.cpp:84] Top shape: 2 256 27 27 (373248)
I0813 11:50:36.034646 25311 net.cpp:116] Rconv6 does not need backward computation.
I0813 11:50:36.034651 25311 net.cpp:65] Creating Layer Rrelu6
I0813 11:50:36.034653 25311 net.cpp:228] Rrelu6 <- Rconv6
I0813 11:50:36.034657 25311 net.cpp:179] Rrelu6 -> Rconv6 (in-place)
I0813 11:50:36.034662 25311 net.cpp:84] Top shape: 2 256 27 27 (373248)
I0813 11:50:36.034664 25311 net.cpp:116] Rrelu6 does not need backward computation.
I0813 11:50:36.034669 25311 net.cpp:65] Creating Layer Rconv7
I0813 11:50:36.034672 25311 net.cpp:228] Rconv7 <- Rconv6
I0813 11:50:36.034675 25311 net.cpp:189] Rconv7 -> Rconv7
I0813 11:50:36.035403 25311 net.cpp:84] Top shape: 2 256 27 27 (373248)
I0813 11:50:36.035406 25311 net.cpp:116] Rconv7 does not need backward computation.
I0813 11:50:36.035410 25311 net.cpp:65] Creating Layer Rrelu7
I0813 11:50:36.035413 25311 net.cpp:228] Rrelu7 <- Rconv7
I0813 11:50:36.035418 25311 net.cpp:179] Rrelu7 -> Rconv7 (in-place)
I0813 11:50:36.035421 25311 net.cpp:84] Top shape: 2 256 27 27 (373248)
I0813 11:50:36.035423 25311 net.cpp:116] Rrelu7 does not need backward computation.
I0813 11:50:36.035428 25311 net.cpp:65] Creating Layer Rconv8
I0813 11:50:36.035429 25311 net.cpp:228] Rconv8 <- Rconv7
I0813 11:50:36.035434 25311 net.cpp:189] Rconv8 -> Rconv8
I0813 11:50:36.036164 25311 net.cpp:84] Top shape: 2 256 27 27 (373248)
I0813 11:50:36.036169 25311 net.cpp:116] Rconv8 does not need backward computation.
I0813 11:50:36.036171 25311 net.cpp:65] Creating Layer Rrelu8
I0813 11:50:36.036175 25311 net.cpp:228] Rrelu8 <- Rconv8
I0813 11:50:36.036177 25311 net.cpp:179] Rrelu8 -> Rconv8 (in-place)
I0813 11:50:36.036182 25311 net.cpp:84] Top shape: 2 256 27 27 (373248)
I0813 11:50:36.036185 25311 net.cpp:116] Rrelu8 does not need backward computation.
I0813 11:50:36.036188 25311 net.cpp:65] Creating Layer deconv2
I0813 11:50:36.036190 25311 net.cpp:228] deconv2 <- Rconv8
I0813 11:50:36.036195 25311 net.cpp:189] deconv2 -> deconv2
I0813 11:50:36.037202 25311 net.cpp:84] Top shape: 2 64 54 54 (373248)
I0813 11:50:36.037206 25311 net.cpp:116] deconv2 does not need backward computation.
I0813 11:50:36.037210 25311 net.cpp:65] Creating Layer relu_deconv2
I0813 11:50:36.037214 25311 net.cpp:228] relu_deconv2 <- deconv2
I0813 11:50:36.037216 25311 net.cpp:179] relu_deconv2 -> deconv2 (in-place)
I0813 11:50:36.037221 25311 net.cpp:84] Top shape: 2 64 54 54 (373248)
I0813 11:50:36.037223 25311 net.cpp:116] relu_deconv2 does not need backward computation.
I0813 11:50:36.037240 25311 net.cpp:65] Creating Layer deconv1
I0813 11:50:36.037243 25311 net.cpp:228] deconv1 <- deconv2
I0813 11:50:36.037246 25311 net.cpp:189] deconv1 -> deconv1
I0813 11:50:36.037386 25311 net.cpp:84] Top shape: 2 32 108 108 (746496)
I0813 11:50:36.037390 25311 net.cpp:116] deconv1 does not need backward computation.
I0813 11:50:36.037395 25311 net.cpp:65] Creating Layer relu_deconv1
I0813 11:50:36.037397 25311 net.cpp:228] relu_deconv1 <- deconv1
I0813 11:50:36.037400 25311 net.cpp:179] relu_deconv1 -> deconv1 (in-place)
I0813 11:50:36.037405 25311 net.cpp:84] Top shape: 2 32 108 108 (746496)
I0813 11:50:36.037407 25311 net.cpp:116] relu_deconv1 does not need backward computation.
I0813 11:50:36.037413 25311 net.cpp:65] Creating Layer deconv0
I0813 11:50:36.037415 25311 net.cpp:228] deconv0 <- deconv1
I0813 11:50:36.037425 25311 net.cpp:189] deconv0 -> deconv0
I0813 11:50:36.037443 25311 net.cpp:84] Top shape: 2 3 216 216 (279936)
I0813 11:50:36.037447 25311 net.cpp:116] deconv0 does not need backward computation.
I0813 11:50:36.037451 25311 net.cpp:65] Creating Layer loss
I0813 11:50:36.037453 25311 net.cpp:228] loss <- deconv0
I0813 11:50:36.037456 25311 net.cpp:228] loss <- target_ims
I0813 11:50:36.037461 25311 net.cpp:116] loss does not need backward computation.
I0813 11:50:36.037472 25311 net.cpp:238] Collecting Learning Rate and Weight Decay.
…
