…
    source: "/scr/r6/tgebru/inverting_conv/caffe_invert_alexnet/data/siggraph/tiny_summer_train_lmdb"
    mean_file: "/scr/r6/tgebru/timnit_caffe/data/ilsvrc12/imagenet_mean.binaryproto"
    batch_size: 12
    crop_size: 227
    mirror: false
    backend: LMDB
  }
}
layers {
  top: "target_ims"
  name: "target_ims"
  type: DATA
  data_param {
    source: "/scr/r6/tgebru/inverting_conv/caffe_invert_alexnet/data/siggraph/tiny_winter_train_lmdb"
    mean_file: "/scr/r6/tgebru/timnit_caffe/data/ilsvrc12/imagenet_mean.binaryproto"
    batch_size: 12
    crop_size: 216
    mirror: false
    backend: LMDB
  }
}
layers {
  bottom: "source_ims"
  top: "conv1"
  name: "conv1"
  type: CONVOLUTION
  blobs_lr: 0
  blobs_lr: 0
  weight_decay: 1
  weight_decay: 0
  convolution_param {
    num_output: 96
    kernel_size: 11
    stride: 4
    weight_filler {
      type: "gaussian"
      std: 0.01
    }
    bias_filler {
      type: "constant"
      value: 0
    }
  }
}
layers {
  bottom: "conv1"
  top: "conv1"
  name: "relu1"
  type: RELU
}
layers {
  bottom: "conv1"
  top: "pool1"
  name: "pool1"
  type: POOLING
  pooling_param {
    pool: MAX
    kernel_size: 3
    stride: 2
  }
}
layers {
  bottom: "pool1"
  top: "norm1"
  name: "norm1"
  type: LRN
  lrn_param {
    local_size: 5
    alpha: 0.0001
    beta: 0.75
  }
}
layers {
  bottom: "norm1"
  top: "Rconv6"
  name: "Rconv6"
  type: CONVOLUTION
  blobs_lr: 1
  blobs_lr: 2
  weight_decay: 1
  weight_decay: 0
  convolution_param {
    num_output: 256
    pad: 1
    kernel_size: 3
  }
}
layers {
  bottom: "Rconv6"
  top: "Rconv6"
  name: "Rrelu6"
  type: RELU
}
layers {
  bottom: "Rconv6"
  top: "Rconv7"
  name: "Rconv7"
  type: CONVOLUTION
  blobs_lr: 1
  blobs_lr: 2
  weight_decay: 1
  weight_decay: 0
  convolution_param {
    num_output: 256
    pad: 1
    kernel_size: 3
    group: 2
  }
}
layers {
  bottom: "Rconv7"
  top: "Rconv7"
  name: "Rrelu7"
  type: RELU
}
layers {
  bottom: "Rconv7"
  top: "Rconv8"
  name: "Rconv8"
  type: CONVOLUTION
  blobs_lr: 1
  blobs_lr: 2
  weight_decay: 1
  weight_decay: 0
  convolution_param {
    num_output: 256
    pad: 1
    kernel_size: 3
    group: 2
  }
}
layers {
  bottom: "Rconv8"
  top: "Rconv8"
  name: "Rrelu8"
  type: RELU
}
layers {
  bottom: "Rconv8"
  top: "deconv2"
  name: "deconv2"
  type: DECONVOLUTION
  blobs_lr: 1
  blobs_lr: 2
  weight_decay: 1
  weight_decay: 0
  deconvolution_param {
    pad: 2
    kernel_size: 5
    stride: 2
    output_height: 54
    output_width: 54
    output_channels: 64
  }
}
layers {
  bottom: "deconv2"
  top: "deconv2"
  name: "relu_deconv2"
  type: RELU
  relu_param {
    negative_slope: 0.3
  }
}
layers {
  bottom: "deconv2"
  top: "deconv1"
  name: "deconv1"
  type: DECONVOLUTION
  blobs_lr: 1
  blobs_lr: 2
  weight_decay: 1
  weight_decay: 0
  deconvolution_param {
    pad: 2
    kernel_size: 5
    stride: 2
    output_height: 108
    output_width: 108
    output_channels: 32
  }
}
layers {
  bottom: "deconv1"
  top: "deconv1"
  name: "relu_deconv1"
  type: RELU
  relu_param {
    negative_slope: 0.3
  }
}
layers {
  bottom: "deconv1"
  top: "deconv0"
  name: "deconv0"
  type: DECONVOLUTION
  blobs_lr: 1
  blobs_lr: 2
  weight_decay: 1
  weight_decay: 1
  deconvolution_param {
    pad: 2
    kernel_size: 5
    stride: 2
    output_height: 216
    output_width: 216
    output_channels: 3
  }
}
layers {
  bottom: "deconv0"
  bottom: "target_ims"
  name: "loss"
  type: EUCLIDEAN_LOSS
}
I0813 08:39:03.065353  7922 net.cpp:65] Creating Layer source_ims
I0813 08:39:03.065362  7922 net.cpp:189] source_ims -> source_ims
I0813 08:39:03.065474  7922 data_layer.cpp:223] Opening lmdb /scr/r6/tgebru/inverting_conv/caffe_invert_alexnet/data/siggraph/tiny_summer_train_lmdb
I0813 08:39:03.065673  7922 data_layer.cpp:285] output data size: 12,3,227,227
I0813 08:39:03.065680  7922 data_layer.cpp:304] Loading mean file from/scr/r6/tgebru/timnit_caffe/data/ilsvrc12/imagenet_mean.binaryproto
I0813 08:39:03.070330  7922 net.cpp:84] Top shape: 12 3 227 227 (1855044)
I0813 08:39:03.070338  7922 net.cpp:116] source_ims does not need backward computation.
I0813 08:39:03.070344  7922 net.cpp:65] Creating Layer target_ims
I0813 08:39:03.070349  7922 net.cpp:189] target_ims -> target_ims
I0813 08:39:03.070502  7922 data_layer.cpp:223] Opening lmdb /scr/r6/tgebru/inverting_conv/caffe_invert_alexnet/data/siggraph/tiny_winter_train_lmdb
I0813 08:39:03.070659  7922 data_layer.cpp:285] output data size: 12,3,216,216
I0813 08:39:03.070663  7922 data_layer.cpp:304] Loading mean file from/scr/r6/tgebru/timnit_caffe/data/ilsvrc12/imagenet_mean.binaryproto
I0813 08:39:03.075038  7922 net.cpp:84] Top shape: 12 3 216 216 (1679616)
I0813 08:39:03.075047  7922 net.cpp:116] target_ims does not need backward computation.
I0813 08:39:03.075058  7922 net.cpp:65] Creating Layer conv1
I0813 08:39:03.075062  7922 net.cpp:228] conv1 <- source_ims
I0813 08:39:03.075158  7922 net.cpp:189] conv1 -> conv1
I0813 08:39:03.076499  7922 net.cpp:84] Top shape: 12 96 55 55 (3484800)
I0813 08:39:03.076505  7922 net.cpp:116] conv1 does not need backward computation.
I0813 08:39:03.076510  7922 net.cpp:65] Creating Layer relu1
I0813 08:39:03.076514  7922 net.cpp:228] relu1 <- conv1
I0813 08:39:03.076519  7922 net.cpp:179] relu1 -> conv1 (in-place)
I0813 08:39:03.076527  7922 net.cpp:84] Top shape: 12 96 55 55 (3484800)
I0813 08:39:03.076530  7922 net.cpp:116] relu1 does not need backward computation.
I0813 08:39:03.076535  7922 net.cpp:65] Creating Layer pool1
I0813 08:39:03.076539  7922 net.cpp:228] pool1 <- conv1
I0813 08:39:03.076542  7922 net.cpp:189] pool1 -> pool1
I0813 08:39:03.076555  7922 net.cpp:84] Top shape: 12 96 27 27 (839808)
I0813 08:39:03.076557  7922 net.cpp:116] pool1 does not need backward computation.
I0813 08:39:03.076562  7922 net.cpp:65] Creating Layer norm1
I0813 08:39:03.076565  7922 net.cpp:228] norm1 <- pool1
I0813 08:39:03.076568  7922 net.cpp:189] norm1 -> norm1
I0813 08:39:03.076577  7922 net.cpp:84] Top shape: 12 96 27 27 (839808)
I0813 08:39:03.076581  7922 net.cpp:116] norm1 does not need backward computation.
I0813 08:39:03.076583  7922 net.cpp:65] Creating Layer Rconv6
I0813 08:39:03.076586  7922 net.cpp:228] Rconv6 <- norm1
I0813 08:39:03.076591  7922 net.cpp:189] Rconv6 -> Rconv6
I0813 08:39:03.076860  7922 net.cpp:84] Top shape: 12 256 27 27 (2239488)
I0813 08:39:03.076864  7922 net.cpp:111] Rconv6 needs backward computation.
I0813 08:39:03.076869  7922 net.cpp:65] Creating Layer Rrelu6
I0813 08:39:03.076872  7922 net.cpp:228] Rrelu6 <- Rconv6
I0813 08:39:03.076876  7922 net.cpp:179] Rrelu6 -> Rconv6 (in-place)
I0813 08:39:03.076881  7922 net.cpp:84] Top shape: 12 256 27 27 (2239488)
I0813 08:39:03.076884  7922 net.cpp:111] Rrelu6 needs backward computation.
I0813 08:39:03.076889  7922 net.cpp:65] Creating Layer Rconv7
I0813 08:39:03.076891  7922 net.cpp:228] Rconv7 <- Rconv6
I0813 08:39:03.076895  7922 net.cpp:189] Rconv7 -> Rconv7
I0813 08:39:03.077648  7922 net.cpp:84] Top shape: 12 256 27 27 (2239488)
I0813 08:39:03.077653  7922 net.cpp:111] Rconv7 needs backward computation.
I0813 08:39:03.077657  7922 net.cpp:65] Creating Layer Rrelu7
I0813 08:39:03.077678  7922 net.cpp:228] Rrelu7 <- Rconv7
I0813 08:39:03.077683  7922 net.cpp:179] Rrelu7 -> Rconv7 (in-place)
I0813 08:39:03.077688  7922 net.cpp:84] Top shape: 12 256 27 27 (2239488)
I0813 08:39:03.077692  7922 net.cpp:111] Rrelu7 needs backward computation.
I0813 08:39:03.077694  7922 net.cpp:65] Creating Layer Rconv8
I0813 08:39:03.077697  7922 net.cpp:228] Rconv8 <- Rconv7
I0813 08:39:03.077702  7922 net.cpp:189] Rconv8 -> Rconv8
I0813 08:39:03.078517  7922 net.cpp:84] Top shape: 12 256 27 27 (2239488)
I0813 08:39:03.078521  7922 net.cpp:111] Rconv8 needs backward computation.
I0813 08:39:03.078526  7922 net.cpp:65] Creating Layer Rrelu8
I0813 08:39:03.078528  7922 net.cpp:228] Rrelu8 <- Rconv8
I0813 08:39:03.078532  7922 net.cpp:179] Rrelu8 -> Rconv8 (in-place)
I0813 08:39:03.078536  7922 net.cpp:84] Top shape: 12 256 27 27 (2239488)
I0813 08:39:03.078538  7922 net.cpp:111] Rrelu8 needs backward computation.
I0813 08:39:03.078543  7922 net.cpp:65] Creating Layer deconv2
I0813 08:39:03.078547  7922 net.cpp:228] deconv2 <- Rconv8
I0813 08:39:03.078549  7922 net.cpp:189] deconv2 -> deconv2
I0813 08:39:03.079596  7922 net.cpp:84] Top shape: 12 64 54 54 (2239488)
I0813 08:39:03.079601  7922 net.cpp:111] deconv2 needs backward computation.
I0813 08:39:03.079604  7922 net.cpp:65] Creating Layer relu_deconv2
I0813 08:39:03.079607  7922 net.cpp:228] relu_deconv2 <- deconv2
I0813 08:39:03.079612  7922 net.cpp:179] relu_deconv2 -> deconv2 (in-place)
I0813 08:39:03.079617  7922 net.cpp:84] Top shape: 12 64 54 54 (2239488)
I0813 08:39:03.079619  7922 net.cpp:111] relu_deconv2 needs backward computation.
I0813 08:39:03.079622  7922 net.cpp:65] Creating Layer deconv1
I0813 08:39:03.079625  7922 net.cpp:228] deconv1 <- deconv2
I0813 08:39:03.079629  7922 net.cpp:189] deconv1 -> deconv1
I0813 08:39:03.079777  7922 net.cpp:84] Top shape: 12 32 108 108 (4478976)
I0813 08:39:03.079780  7922 net.cpp:111] deconv1 needs backward computation.
I0813 08:39:03.079784  7922 net.cpp:65] Creating Layer relu_deconv1
I0813 08:39:03.079787  7922 net.cpp:228] relu_deconv1 <- deconv1
I0813 08:39:03.079792  7922 net.cpp:179] relu_deconv1 -> deconv1 (in-place)
I0813 08:39:03.079795  7922 net.cpp:84] Top shape: 12 32 108 108 (4478976)
I0813 08:39:03.079798  7922 net.cpp:111] relu_deconv1 needs backward computation.
I0813 08:39:03.079803  7922 net.cpp:65] Creating Layer deconv0
I0813 08:39:03.079807  7922 net.cpp:228] deconv0 <- deconv1
I0813 08:39:03.079809  7922 net.cpp:189] deconv0 -> deconv0
I0813 08:39:03.079833  7922 net.cpp:84] Top shape: 12 3 216 216 (1679616)
I0813 08:39:03.079836  7922 net.cpp:111] deconv0 needs backward computation.
I0813 08:39:03.079840  7922 net.cpp:65] Creating Layer loss
I0813 08:39:03.079843  7922 net.cpp:228] loss <- deconv0
I0813 08:39:03.079846  7922 net.cpp:228] loss <- target_ims
I0813 08:39:03.079854  7922 net.cpp:111] loss needs backward computation.
I0813 08:39:03.079867  7922 net.cpp:238] Collecting Learning Rate and Weight Decay.
…
    source: "/scr/r6/tgebru/inverting_conv/caffe_invert_alexnet/data/siggraph/tiny_summer_val_lmdb"
    mean_file: "/scr/r6/tgebru/timnit_caffe/data/ilsvrc12/imagenet_mean.binaryproto"
    batch_size: 64
    crop_size: 227
    mirror: false
    backend: LMDB
  }
}
layers {
  top: "target_ims"
  name: "target_ims"
  type: DATA
  data_param {
    source: "/scr/r6/tgebru/inverting_conv/caffe_invert_alexnet/data/siggraph/tiny_winter_val_lmdb"
    mean_file: "/scr/r6/tgebru/timnit_caffe/data/ilsvrc12/imagenet_mean.binaryproto"
    batch_size: 64
    crop_size: 216
    mirror: false
    backend: LMDB
  }
}
layers {
  bottom: "source_ims"
  top: "conv1"
  name: "conv1"
  type: CONVOLUTION
  blobs_lr: 0
  blobs_lr: 0
  weight_decay: 1
  weight_decay: 0
  convolution_param {
    num_output: 96
    kernel_size: 11
    stride: 4
    weight_filler {
      type: "gaussian"
      std: 0.01
    }
    bias_filler {
      type: "constant"
      value: 0
    }
  }
}
layers {
  bottom: "conv1"
  top: "conv1"
  name: "relu1"
  type: RELU
}
layers {
  bottom: "conv1"
  top: "pool1"
  name: "pool1"
  type: POOLING
  pooling_param {
    pool: MAX
    kernel_size: 3
    stride: 2
  }
}
layers {
  bottom: "pool1"
  top: "norm1"
  name: "norm1"
  type: LRN
  lrn_param {
    local_size: 5
    alpha: 0.0001
    beta: 0.75
  }
}
layers {
  bottom: "norm1"
  top: "Rconv6"
  name: "Rconv6"
  type: CONVOLUTION
  blobs_lr: 0
  blobs_lr: 0
  weight_decay: 1
  weight_decay: 0
  convolution_param {
    num_output: 256
    pad: 1
    kernel_size: 3
  }
}
layers {
  bottom: "Rconv6"
  top: "Rconv6"
  name: "Rrelu6"
  type: RELU
}
layers {
  bottom: "Rconv6"
  top: "Rconv7"
  name: "Rconv7"
  type: CONVOLUTION
  blobs_lr: 0
  blobs_lr: 0
  weight_decay: 1
  weight_decay: 0
  convolution_param {
    num_output: 256
    pad: 1
    kernel_size: 3
    group: 2
  }
}
layers {
  bottom: "Rconv7"
  top: "Rconv7"
  name: "Rrelu7"
  type: RELU
}
layers {
  bottom: "Rconv7"
  top: "Rconv8"
  name: "Rconv8"
  type: CONVOLUTION
  blobs_lr: 0
  blobs_lr: 0
  weight_decay: 1
  weight_decay: 0
  convolution_param {
    num_output: 256
    pad: 1
    kernel_size: 3
    group: 2
  }
}
layers {
  bottom: "Rconv8"
  top: "Rconv8"
  name: "Rrelu8"
  type: RELU
}
layers {
  bottom: "Rconv8"
  top: "deconv2"
  name: "deconv2"
  type: DECONVOLUTION
  blobs_lr: 0
  blobs_lr: 0
  weight_decay: 1
  weight_decay: 0
  deconvolution_param {
    pad: 2
    kernel_size: 5
    stride: 2
    output_height: 54
    output_width: 54
    output_channels: 64
  }
}
layers {
  bottom: "deconv2"
  top: "deconv2"
  name: "relu_deconv2"
  type: RELU
  relu_param {
    negative_slope: 0.3
  }
}
layers {
  bottom: "deconv2"
  top: "deconv1"
  name: "deconv1"
  type: DECONVOLUTION
  blobs_lr: 0
  blobs_lr: 0
  weight_decay: 1
  weight_decay: 0
  deconvolution_param {
    pad: 2
    kernel_size: 5
    stride: 2
    output_height: 108
    output_width: 108
    output_channels: 32
  }
}
layers {
  bottom: "deconv1"
  top: "deconv1"
  name: "relu_deconv1"
  type: RELU
  relu_param {
    negative_slope: 0.3
  }
}
layers {
  bottom: "deconv1"
  top: "deconv0"
  name: "deconv0"
  type: DECONVOLUTION
  blobs_lr: 0
  blobs_lr: 0
  weight_decay: 1
  weight_decay: 0
  deconvolution_param {
    pad: 2
    kernel_size: 5
    stride: 2
    output_height: 216
    output_width: 216
    output_channels: 3
  }
}
layers {
  bottom: "deconv0"
  bottom: "target_ims"
  name: "loss"
  type: EUCLIDEAN_LOSS
}
I0813 08:39:03.080574  7922 net.cpp:65] Creating Layer source_ims
I0813 08:39:03.080580  7922 net.cpp:189] source_ims -> source_ims
I0813 08:39:03.080636  7922 data_layer.cpp:223] Opening lmdb /scr/r6/tgebru/inverting_conv/caffe_invert_alexnet/data/siggraph/tiny_summer_val_lmdb
I0813 08:39:03.080847  7922 data_layer.cpp:285] output data size: 64,3,227,227
I0813 08:39:03.080852  7922 data_layer.cpp:304] Loading mean file from/scr/r6/tgebru/timnit_caffe/data/ilsvrc12/imagenet_mean.binaryproto
I0813 08:39:03.095079  7922 net.cpp:84] Top shape: 64 3 227 227 (9893568)
I0813 08:39:03.095096  7922 net.cpp:116] source_ims does not need backward computation.
I0813 08:39:03.095108  7922 net.cpp:65] Creating Layer target_ims
I0813 08:39:03.095114  7922 net.cpp:189] target_ims -> target_ims
I0813 08:39:03.095201  7922 data_layer.cpp:223] Opening lmdb /scr/r6/tgebru/inverting_conv/caffe_invert_alexnet/data/siggraph/tiny_winter_val_lmdb
I0813 08:39:03.095319  7922 data_layer.cpp:285] output data size: 64,3,216,216
I0813 08:39:03.095324  7922 data_layer.cpp:304] Loading mean file from/scr/r6/tgebru/timnit_caffe/data/ilsvrc12/imagenet_mean.binaryproto
I0813 08:39:03.107898  7922 net.cpp:84] Top shape: 64 3 216 216 (8957952)
I0813 08:39:03.107947  7922 net.cpp:116] target_ims does not need backward computation.
I0813 08:39:03.107960  7922 net.cpp:65] Creating Layer conv1
I0813 08:39:03.107965  7922 net.cpp:228] conv1 <- source_ims
I0813 08:39:03.107972  7922 net.cpp:189] conv1 -> conv1
I0813 08:39:03.109233  7922 net.cpp:84] Top shape: 64 96 55 55 (18585600)
I0813 08:39:03.109237  7922 net.cpp:116] conv1 does not need backward computation.
I0813 08:39:03.109243  7922 net.cpp:65] Creating Layer relu1
I0813 08:39:03.109246  7922 net.cpp:228] relu1 <- conv1
I0813 08:39:03.109251  7922 net.cpp:179] relu1 -> conv1 (in-place)
I0813 08:39:03.109256  7922 net.cpp:84] Top shape: 64 96 55 55 (18585600)
I0813 08:39:03.109259  7922 net.cpp:116] relu1 does not need backward computation.
I0813 08:39:03.109266  7922 net.cpp:65] Creating Layer pool1
I0813 08:39:03.109267  7922 net.cpp:228] pool1 <- conv1
I0813 08:39:03.109272  7922 net.cpp:189] pool1 -> pool1
I0813 08:39:03.109278  7922 net.cpp:84] Top shape: 64 96 27 27 (4478976)
I0813 08:39:03.109282  7922 net.cpp:116] pool1 does not need backward computation.
I0813 08:39:03.109287  7922 net.cpp:65] Creating Layer norm1
I0813 08:39:03.109290  7922 net.cpp:228] norm1 <- pool1
I0813 08:39:03.109294  7922 net.cpp:189] norm1 -> norm1
I0813 08:39:03.109302  7922 net.cpp:84] Top shape: 64 96 27 27 (4478976)
I0813 08:39:03.109303  7922 net.cpp:116] norm1 does not need backward computation.
I0813 08:39:03.109308  7922 net.cpp:65] Creating Layer Rconv6
I0813 08:39:03.109311  7922 net.cpp:228] Rconv6 <- norm1
I0813 08:39:03.109315  7922 net.cpp:189] Rconv6 -> Rconv6
I0813 08:39:03.109560  7922 net.cpp:84] Top shape: 64 256 27 27 (11943936)
I0813 08:39:03.109565  7922 net.cpp:116] Rconv6 does not need backward computation.
I0813 08:39:03.109568  7922 net.cpp:65] Creating Layer Rrelu6
I0813 08:39:03.109571  7922 net.cpp:228] Rrelu6 <- Rconv6
I0813 08:39:03.109575  7922 net.cpp:179] Rrelu6 -> Rconv6 (in-place)
I0813 08:39:03.109580  7922 net.cpp:84] Top shape: 64 256 27 27 (11943936)
I0813 08:39:03.109583  7922 net.cpp:116] Rrelu6 does not need backward computation.
I0813 08:39:03.109588  7922 net.cpp:65] Creating Layer Rconv7
I0813 08:39:03.109591  7922 net.cpp:228] Rconv7 <- Rconv6
I0813 08:39:03.109594  7922 net.cpp:189] Rconv7 -> Rconv7
I0813 08:39:03.110354  7922 net.cpp:84] Top shape: 64 256 27 27 (11943936)
I0813 08:39:03.110358  7922 net.cpp:116] Rconv7 does not need backward computation.
I0813 08:39:03.110363  7922 net.cpp:65] Creating Layer Rrelu7
I0813 08:39:03.110365  7922 net.cpp:228] Rrelu7 <- Rconv7
I0813 08:39:03.110370  7922 net.cpp:179] Rrelu7 -> Rconv7 (in-place)
I0813 08:39:03.110374  7922 net.cpp:84] Top shape: 64 256 27 27 (11943936)
I0813 08:39:03.110378  7922 net.cpp:116] Rrelu7 does not need backward computation.
I0813 08:39:03.110381  7922 net.cpp:65] Creating Layer Rconv8
I0813 08:39:03.110384  7922 net.cpp:228] Rconv8 <- Rconv7
I0813 08:39:03.110388  7922 net.cpp:189] Rconv8 -> Rconv8
I0813 08:39:03.111129  7922 net.cpp:84] Top shape: 64 256 27 27 (11943936)
I0813 08:39:03.111132  7922 net.cpp:116] Rconv8 does not need backward computation.
I0813 08:39:03.111136  7922 net.cpp:65] Creating Layer Rrelu8
I0813 08:39:03.111140  7922 net.cpp:228] Rrelu8 <- Rconv8
I0813 08:39:03.111143  7922 net.cpp:179] Rrelu8 -> Rconv8 (in-place)
I0813 08:39:03.111147  7922 net.cpp:84] Top shape: 64 256 27 27 (11943936)
I0813 08:39:03.111150  7922 net.cpp:116] Rrelu8 does not need backward computation.
I0813 08:39:03.111155  7922 net.cpp:65] Creating Layer deconv2
I0813 08:39:03.111157  7922 net.cpp:228] deconv2 <- Rconv8
I0813 08:39:03.111161  7922 net.cpp:189] deconv2 -> deconv2
I0813 08:39:03.112193  7922 net.cpp:84] Top shape: 64 64 54 54 (11943936)
I0813 08:39:03.112197  7922 net.cpp:116] deconv2 does not need backward computation.
I0813 08:39:03.112202  7922 net.cpp:65] Creating Layer relu_deconv2
I0813 08:39:03.112205  7922 net.cpp:228] relu_deconv2 <- deconv2
I0813 08:39:03.112210  7922 net.cpp:179] relu_deconv2 -> deconv2 (in-place)
I0813 08:39:03.112215  7922 net.cpp:84] Top shape: 64 64 54 54 (11943936)
I0813 08:39:03.112229  7922 net.cpp:116] relu_deconv2 does not need backward computation.
I0813 08:39:03.112234  7922 net.cpp:65] Creating Layer deconv1
I0813 08:39:03.112236  7922 net.cpp:228] deconv1 <- deconv2
I0813 08:39:03.112241  7922 net.cpp:189] deconv1 -> deconv1
I0813 08:39:03.112380  7922 net.cpp:84] Top shape: 64 32 108 108 (23887872)
I0813 08:39:03.112383  7922 net.cpp:116] deconv1 does not need backward computation.
I0813 08:39:03.112388  7922 net.cpp:65] Creating Layer relu_deconv1
I0813 08:39:03.112390  7922 net.cpp:228] relu_deconv1 <- deconv1
I0813 08:39:03.112396  7922 net.cpp:179] relu_deconv1 -> deconv1 (in-place)
I0813 08:39:03.112399  7922 net.cpp:84] Top shape: 64 32 108 108 (23887872)
I0813 08:39:03.112402  7922 net.cpp:116] relu_deconv1 does not need backward computation.
I0813 08:39:03.112408  7922 net.cpp:65] Creating Layer deconv0
I0813 08:39:03.112411  7922 net.cpp:228] deconv0 <- deconv1
I0813 08:39:03.112416  7922 net.cpp:189] deconv0 -> deconv0
I0813 08:39:03.112440  7922 net.cpp:84] Top shape: 64 3 216 216 (8957952)
I0813 08:39:03.112443  7922 net.cpp:116] deconv0 does not need backward computation.
I0813 08:39:03.112447  7922 net.cpp:65] Creating Layer loss
I0813 08:39:03.112449  7922 net.cpp:228] loss <- deconv0
I0813 08:39:03.112453  7922 net.cpp:228] loss <- target_ims
I0813 08:39:03.112457  7922 net.cpp:116] loss does not need backward computation.
I0813 08:39:03.112470  7922 net.cpp:238] Collecting Learning Rate and Weight Decay.
…
