…
    source: "/scr/r6/tgebru/inverting_conv/caffe_invert_alexnet/data/siggraph/tiny_summer_train_lmdb"
    mean_file: "/scr/r6/tgebru/timnit_caffe/data/ilsvrc12/imagenet_mean.binaryproto"
    batch_size: 12
    crop_size: 227
    mirror: false
    backend: LMDB
  }
}
layers {
  top: "target_ims"
  name: "target_ims"
  type: DATA
  data_param {
    source: "/scr/r6/tgebru/inverting_conv/caffe_invert_alexnet/data/siggraph/tiny_winter_train_lmdb"
    mean_file: "/scr/r6/tgebru/timnit_caffe/data/ilsvrc12/imagenet_mean.binaryproto"
    batch_size: 12
    crop_size: 216
    mirror: false
    backend: LMDB
  }
}
layers {
  bottom: "source_ims"
  top: "conv1"
  name: "conv1"
  type: CONVOLUTION
  blobs_lr: 0
  blobs_lr: 0
  weight_decay: 1
  weight_decay: 0
  convolution_param {
    num_output: 96
    kernel_size: 11
    stride: 4
    weight_filler {
      type: "gaussian"
      std: 0.01
    }
    bias_filler {
      type: "constant"
      value: 0
    }
  }
}
layers {
  bottom: "conv1"
  top: "conv1"
  name: "relu1"
  type: RELU
}
layers {
  bottom: "conv1"
  top: "pool1"
  name: "pool1"
  type: POOLING
  pooling_param {
    pool: MAX
    kernel_size: 3
    stride: 2
  }
}
layers {
  bottom: "pool1"
  top: "norm1"
  name: "norm1"
  type: LRN
  lrn_param {
    local_size: 5
    alpha: 0.0001
    beta: 0.75
  }
}
layers {
  bottom: "norm1"
  top: "Rconv6"
  name: "Rconv6"
  type: CONVOLUTION
  blobs_lr: 1
  blobs_lr: 2
  weight_decay: 1
  weight_decay: 0
  convolution_param {
    num_output: 256
    pad: 1
    kernel_size: 3
  }
}
layers {
  bottom: "Rconv6"
  top: "Rconv6"
  name: "Rrelu6"
  type: RELU
}
layers {
  bottom: "Rconv6"
  top: "Rconv7"
  name: "Rconv7"
  type: CONVOLUTION
  blobs_lr: 1
  blobs_lr: 2
  weight_decay: 1
  weight_decay: 0
  convolution_param {
    num_output: 256
    pad: 1
    kernel_size: 3
    group: 2
  }
}
layers {
  bottom: "Rconv7"
  top: "Rconv7"
  name: "Rrelu7"
  type: RELU
}
layers {
  bottom: "Rconv7"
  top: "Rconv8"
  name: "Rconv8"
  type: CONVOLUTION
  blobs_lr: 1
  blobs_lr: 2
  weight_decay: 1
  weight_decay: 0
  convolution_param {
    num_output: 256
    pad: 1
    kernel_size: 3
    group: 2
  }
}
layers {
  bottom: "Rconv8"
  top: "Rconv8"
  name: "Rrelu8"
  type: RELU
}
layers {
  bottom: "Rconv8"
  top: "deconv2"
  name: "deconv2"
  type: DECONVOLUTION
  blobs_lr: 1
  blobs_lr: 2
  weight_decay: 1
  weight_decay: 0
  deconvolution_param {
    pad: 2
    kernel_size: 5
    stride: 2
    output_height: 54
    output_width: 54
    output_channels: 64
  }
}
layers {
  bottom: "deconv2"
  top: "deconv2"
  name: "relu_deconv2"
  type: RELU
  relu_param {
    negative_slope: 0.3
  }
}
layers {
  bottom: "deconv2"
  top: "deconv1"
  name: "deconv1"
  type: DECONVOLUTION
  blobs_lr: 1
  blobs_lr: 2
  weight_decay: 1
  weight_decay: 0
  deconvolution_param {
    pad: 2
    kernel_size: 5
    stride: 2
    output_height: 108
    output_width: 108
    output_channels: 32
  }
}
layers {
  bottom: "deconv1"
  top: "deconv1"
  name: "relu_deconv1"
  type: RELU
  relu_param {
    negative_slope: 0.3
  }
}
layers {
  bottom: "deconv1"
  top: "deconv0"
  name: "deconv0"
  type: DECONVOLUTION
  blobs_lr: 1
  blobs_lr: 2
  weight_decay: 1
  weight_decay: 1
  deconvolution_param {
    pad: 2
    kernel_size: 5
    stride: 2
    output_height: 216
    output_width: 216
    output_channels: 3
  }
}
layers {
  bottom: "deconv0"
  bottom: "target_ims"
  name: "loss"
  type: EUCLIDEAN_LOSS
}
I0812 16:25:05.297924 27382 net.cpp:65] Creating Layer source_ims
I0812 16:25:05.297933 27382 net.cpp:189] source_ims -> source_ims
I0812 16:25:05.298032 27382 data_layer.cpp:223] Opening lmdb /scr/r6/tgebru/inverting_conv/caffe_invert_alexnet/data/siggraph/tiny_summer_train_lmdb
I0812 16:25:05.298243 27382 data_layer.cpp:285] output data size: 12,3,227,227
I0812 16:25:05.298249 27382 data_layer.cpp:304] Loading mean file from/scr/r6/tgebru/timnit_caffe/data/ilsvrc12/imagenet_mean.binaryproto
I0812 16:25:05.303395 27382 net.cpp:84] Top shape: 12 3 227 227 (1855044)
I0812 16:25:05.303403 27382 net.cpp:116] source_ims does not need backward computation.
I0812 16:25:05.303411 27382 net.cpp:65] Creating Layer target_ims
I0812 16:25:05.303414 27382 net.cpp:189] target_ims -> target_ims
I0812 16:25:05.303508 27382 data_layer.cpp:223] Opening lmdb /scr/r6/tgebru/inverting_conv/caffe_invert_alexnet/data/siggraph/tiny_winter_train_lmdb
I0812 16:25:05.303637 27382 data_layer.cpp:285] output data size: 12,3,216,216
I0812 16:25:05.303640 27382 data_layer.cpp:304] Loading mean file from/scr/r6/tgebru/timnit_caffe/data/ilsvrc12/imagenet_mean.binaryproto
I0812 16:25:05.307454 27382 net.cpp:84] Top shape: 12 3 216 216 (1679616)
I0812 16:25:05.307462 27382 net.cpp:116] target_ims does not need backward computation.
I0812 16:25:05.307471 27382 net.cpp:65] Creating Layer conv1
I0812 16:25:05.307473 27382 net.cpp:228] conv1 <- source_ims
I0812 16:25:05.307505 27382 net.cpp:189] conv1 -> conv1
I0812 16:25:05.308779 27382 net.cpp:84] Top shape: 12 96 55 55 (3484800)
I0812 16:25:05.308784 27382 net.cpp:116] conv1 does not need backward computation.
I0812 16:25:05.308789 27382 net.cpp:65] Creating Layer relu1
I0812 16:25:05.308794 27382 net.cpp:228] relu1 <- conv1
I0812 16:25:05.308799 27382 net.cpp:179] relu1 -> conv1 (in-place)
I0812 16:25:05.308806 27382 net.cpp:84] Top shape: 12 96 55 55 (3484800)
I0812 16:25:05.308809 27382 net.cpp:116] relu1 does not need backward computation.
I0812 16:25:05.308815 27382 net.cpp:65] Creating Layer pool1
I0812 16:25:05.308817 27382 net.cpp:228] pool1 <- conv1
I0812 16:25:05.308821 27382 net.cpp:189] pool1 -> pool1
I0812 16:25:05.308833 27382 net.cpp:84] Top shape: 12 96 27 27 (839808)
I0812 16:25:05.308836 27382 net.cpp:116] pool1 does not need backward computation.
I0812 16:25:05.308841 27382 net.cpp:65] Creating Layer norm1
I0812 16:25:05.308845 27382 net.cpp:228] norm1 <- pool1
I0812 16:25:05.308848 27382 net.cpp:189] norm1 -> norm1
I0812 16:25:05.308856 27382 net.cpp:84] Top shape: 12 96 27 27 (839808)
I0812 16:25:05.308859 27382 net.cpp:116] norm1 does not need backward computation.
I0812 16:25:05.308863 27382 net.cpp:65] Creating Layer Rconv6
I0812 16:25:05.308866 27382 net.cpp:228] Rconv6 <- norm1
I0812 16:25:05.308871 27382 net.cpp:189] Rconv6 -> Rconv6
I0812 16:25:05.309041 27382 net.cpp:84] Top shape: 12 256 27 27 (2239488)
I0812 16:25:05.309046 27382 net.cpp:111] Rconv6 needs backward computation.
I0812 16:25:05.309051 27382 net.cpp:65] Creating Layer Rrelu6
I0812 16:25:05.309054 27382 net.cpp:228] Rrelu6 <- Rconv6
I0812 16:25:05.309058 27382 net.cpp:179] Rrelu6 -> Rconv6 (in-place)
I0812 16:25:05.309063 27382 net.cpp:84] Top shape: 12 256 27 27 (2239488)
I0812 16:25:05.309067 27382 net.cpp:111] Rrelu6 needs backward computation.
I0812 16:25:05.309072 27382 net.cpp:65] Creating Layer Rconv7
I0812 16:25:05.309073 27382 net.cpp:228] Rconv7 <- Rconv6
I0812 16:25:05.309078 27382 net.cpp:189] Rconv7 -> Rconv7
I0812 16:25:05.309860 27382 net.cpp:84] Top shape: 12 256 27 27 (2239488)
I0812 16:25:05.309865 27382 net.cpp:111] Rconv7 needs backward computation.
I0812 16:25:05.309870 27382 net.cpp:65] Creating Layer Rrelu7
I0812 16:25:05.309892 27382 net.cpp:228] Rrelu7 <- Rconv7
I0812 16:25:05.309897 27382 net.cpp:179] Rrelu7 -> Rconv7 (in-place)
I0812 16:25:05.309902 27382 net.cpp:84] Top shape: 12 256 27 27 (2239488)
I0812 16:25:05.309906 27382 net.cpp:111] Rrelu7 needs backward computation.
I0812 16:25:05.309909 27382 net.cpp:65] Creating Layer Rconv8
I0812 16:25:05.309911 27382 net.cpp:228] Rconv8 <- Rconv7
I0812 16:25:05.309916 27382 net.cpp:189] Rconv8 -> Rconv8
I0812 16:25:05.310750 27382 net.cpp:84] Top shape: 12 256 27 27 (2239488)
I0812 16:25:05.310755 27382 net.cpp:111] Rconv8 needs backward computation.
I0812 16:25:05.310760 27382 net.cpp:65] Creating Layer Rrelu8
I0812 16:25:05.310762 27382 net.cpp:228] Rrelu8 <- Rconv8
I0812 16:25:05.310766 27382 net.cpp:179] Rrelu8 -> Rconv8 (in-place)
I0812 16:25:05.310770 27382 net.cpp:84] Top shape: 12 256 27 27 (2239488)
I0812 16:25:05.310773 27382 net.cpp:111] Rrelu8 needs backward computation.
I0812 16:25:05.310777 27382 net.cpp:65] Creating Layer deconv2
I0812 16:25:05.310781 27382 net.cpp:228] deconv2 <- Rconv8
I0812 16:25:05.310784 27382 net.cpp:189] deconv2 -> deconv2
I0812 16:25:05.311856 27382 net.cpp:84] Top shape: 12 64 54 54 (2239488)
I0812 16:25:05.311861 27382 net.cpp:111] deconv2 needs backward computation.
I0812 16:25:05.311866 27382 net.cpp:65] Creating Layer relu_deconv2
I0812 16:25:05.311869 27382 net.cpp:228] relu_deconv2 <- deconv2
I0812 16:25:05.311873 27382 net.cpp:179] relu_deconv2 -> deconv2 (in-place)
I0812 16:25:05.311878 27382 net.cpp:84] Top shape: 12 64 54 54 (2239488)
I0812 16:25:05.311882 27382 net.cpp:111] relu_deconv2 needs backward computation.
I0812 16:25:05.311885 27382 net.cpp:65] Creating Layer deconv1
I0812 16:25:05.311888 27382 net.cpp:228] deconv1 <- deconv2
I0812 16:25:05.311892 27382 net.cpp:189] deconv1 -> deconv1
I0812 16:25:05.312044 27382 net.cpp:84] Top shape: 12 32 108 108 (4478976)
I0812 16:25:05.312049 27382 net.cpp:111] deconv1 needs backward computation.
I0812 16:25:05.312053 27382 net.cpp:65] Creating Layer relu_deconv1
I0812 16:25:05.312057 27382 net.cpp:228] relu_deconv1 <- deconv1
I0812 16:25:05.312060 27382 net.cpp:179] relu_deconv1 -> deconv1 (in-place)
I0812 16:25:05.312064 27382 net.cpp:84] Top shape: 12 32 108 108 (4478976)
I0812 16:25:05.312067 27382 net.cpp:111] relu_deconv1 needs backward computation.
I0812 16:25:05.312072 27382 net.cpp:65] Creating Layer deconv0
I0812 16:25:05.312074 27382 net.cpp:228] deconv0 <- deconv1
I0812 16:25:05.312078 27382 net.cpp:189] deconv0 -> deconv0
I0812 16:25:05.312098 27382 net.cpp:84] Top shape: 12 3 216 216 (1679616)
I0812 16:25:05.312103 27382 net.cpp:111] deconv0 needs backward computation.
I0812 16:25:05.312106 27382 net.cpp:65] Creating Layer loss
I0812 16:25:05.312108 27382 net.cpp:228] loss <- deconv0
I0812 16:25:05.312113 27382 net.cpp:228] loss <- target_ims
I0812 16:25:05.312120 27382 net.cpp:111] loss needs backward computation.
I0812 16:25:05.312132 27382 net.cpp:238] Collecting Learning Rate and Weight Decay.
…
    source: "/scr/r6/tgebru/inverting_conv/caffe_invert_alexnet/data/siggraph/tiny_summer_val_lmdb"
    mean_file: "/scr/r6/tgebru/timnit_caffe/data/ilsvrc12/imagenet_mean.binaryproto"
    batch_size: 64
    crop_size: 227
    mirror: false
    backend: LMDB
  }
}
layers {
  top: "target_ims"
  name: "target_ims"
  type: DATA
  data_param {
    source: "/scr/r6/tgebru/inverting_conv/caffe_invert_alexnet/data/siggraph/tiny_winter_val_lmdb"
    mean_file: "/scr/r6/tgebru/timnit_caffe/data/ilsvrc12/imagenet_mean.binaryproto"
    batch_size: 64
    crop_size: 216
    mirror: false
    backend: LMDB
  }
}
layers {
  bottom: "source_ims"
  top: "conv1"
  name: "conv1"
  type: CONVOLUTION
  blobs_lr: 0
  blobs_lr: 0
  weight_decay: 1
  weight_decay: 0
  convolution_param {
    num_output: 96
    kernel_size: 11
    stride: 4
    weight_filler {
      type: "gaussian"
      std: 0.01
    }
    bias_filler {
      type: "constant"
      value: 0
    }
  }
}
layers {
  bottom: "conv1"
  top: "conv1"
  name: "relu1"
  type: RELU
}
layers {
  bottom: "conv1"
  top: "pool1"
  name: "pool1"
  type: POOLING
  pooling_param {
    pool: MAX
    kernel_size: 3
    stride: 2
  }
}
layers {
  bottom: "pool1"
  top: "norm1"
  name: "norm1"
  type: LRN
  lrn_param {
    local_size: 5
    alpha: 0.0001
    beta: 0.75
  }
}
layers {
  bottom: "norm1"
  top: "Rconv6"
  name: "Rconv6"
  type: CONVOLUTION
  blobs_lr: 0
  blobs_lr: 0
  weight_decay: 1
  weight_decay: 0
  convolution_param {
    num_output: 256
    pad: 1
    kernel_size: 3
  }
}
layers {
  bottom: "Rconv6"
  top: "Rconv6"
  name: "Rrelu6"
  type: RELU
}
layers {
  bottom: "Rconv6"
  top: "Rconv7"
  name: "Rconv7"
  type: CONVOLUTION
  blobs_lr: 0
  blobs_lr: 0
  weight_decay: 1
  weight_decay: 0
  convolution_param {
    num_output: 256
    pad: 1
    kernel_size: 3
    group: 2
  }
}
layers {
  bottom: "Rconv7"
  top: "Rconv7"
  name: "Rrelu7"
  type: RELU
}
layers {
  bottom: "Rconv7"
  top: "Rconv8"
  name: "Rconv8"
  type: CONVOLUTION
  blobs_lr: 0
  blobs_lr: 0
  weight_decay: 1
  weight_decay: 0
  convolution_param {
    num_output: 256
    pad: 1
    kernel_size: 3
    group: 2
  }
}
layers {
  bottom: "Rconv8"
  top: "Rconv8"
  name: "Rrelu8"
  type: RELU
}
layers {
  bottom: "Rconv8"
  top: "deconv2"
  name: "deconv2"
  type: DECONVOLUTION
  blobs_lr: 0
  blobs_lr: 0
  weight_decay: 1
  weight_decay: 0
  deconvolution_param {
    pad: 2
    kernel_size: 5
    stride: 2
    output_height: 54
    output_width: 54
    output_channels: 64
  }
}
layers {
  bottom: "deconv2"
  top: "deconv2"
  name: "relu_deconv2"
  type: RELU
  relu_param {
    negative_slope: 0.3
  }
}
layers {
  bottom: "deconv2"
  top: "deconv1"
  name: "deconv1"
  type: DECONVOLUTION
  blobs_lr: 0
  blobs_lr: 0
  weight_decay: 1
  weight_decay: 0
  deconvolution_param {
    pad: 2
    kernel_size: 5
    stride: 2
    output_height: 108
    output_width: 108
    output_channels: 32
  }
}
layers {
  bottom: "deconv1"
  top: "deconv1"
  name: "relu_deconv1"
  type: RELU
  relu_param {
    negative_slope: 0.3
  }
}
layers {
  bottom: "deconv1"
  top: "deconv0"
  name: "deconv0"
  type: DECONVOLUTION
  blobs_lr: 0
  blobs_lr: 0
  weight_decay: 1
  weight_decay: 0
  deconvolution_param {
    pad: 2
    kernel_size: 5
    stride: 2
    output_height: 216
    output_width: 216
    output_channels: 3
  }
}
layers {
  bottom: "deconv0"
  bottom: "target_ims"
  name: "loss"
  type: EUCLIDEAN_LOSS
}
I0812 16:25:05.312844 27382 net.cpp:65] Creating Layer source_ims
I0812 16:25:05.312849 27382 net.cpp:189] source_ims -> source_ims
I0812 16:25:05.312904 27382 data_layer.cpp:223] Opening lmdb /scr/r6/tgebru/inverting_conv/caffe_invert_alexnet/data/siggraph/tiny_summer_val_lmdb
I0812 16:25:05.313114 27382 data_layer.cpp:285] output data size: 64,3,227,227
I0812 16:25:05.313118 27382 data_layer.cpp:304] Loading mean file from/scr/r6/tgebru/timnit_caffe/data/ilsvrc12/imagenet_mean.binaryproto
I0812 16:25:05.327417 27382 net.cpp:84] Top shape: 64 3 227 227 (9893568)
I0812 16:25:05.327436 27382 net.cpp:116] source_ims does not need backward computation.
I0812 16:25:05.327447 27382 net.cpp:65] Creating Layer target_ims
I0812 16:25:05.327453 27382 net.cpp:189] target_ims -> target_ims
I0812 16:25:05.327543 27382 data_layer.cpp:223] Opening lmdb /scr/r6/tgebru/inverting_conv/caffe_invert_alexnet/data/siggraph/tiny_winter_val_lmdb
I0812 16:25:05.327661 27382 data_layer.cpp:285] output data size: 64,3,216,216
I0812 16:25:05.327666 27382 data_layer.cpp:304] Loading mean file from/scr/r6/tgebru/timnit_caffe/data/ilsvrc12/imagenet_mean.binaryproto
I0812 16:25:05.340265 27382 net.cpp:84] Top shape: 64 3 216 216 (8957952)
I0812 16:25:05.340313 27382 net.cpp:116] target_ims does not need backward computation.
I0812 16:25:05.340327 27382 net.cpp:65] Creating Layer conv1
I0812 16:25:05.340330 27382 net.cpp:228] conv1 <- source_ims
I0812 16:25:05.340339 27382 net.cpp:189] conv1 -> conv1
I0812 16:25:05.341609 27382 net.cpp:84] Top shape: 64 96 55 55 (18585600)
I0812 16:25:05.341614 27382 net.cpp:116] conv1 does not need backward computation.
I0812 16:25:05.341619 27382 net.cpp:65] Creating Layer relu1
I0812 16:25:05.341622 27382 net.cpp:228] relu1 <- conv1
I0812 16:25:05.341627 27382 net.cpp:179] relu1 -> conv1 (in-place)
I0812 16:25:05.341632 27382 net.cpp:84] Top shape: 64 96 55 55 (18585600)
I0812 16:25:05.341635 27382 net.cpp:116] relu1 does not need backward computation.
I0812 16:25:05.341640 27382 net.cpp:65] Creating Layer pool1
I0812 16:25:05.341644 27382 net.cpp:228] pool1 <- conv1
I0812 16:25:05.341647 27382 net.cpp:189] pool1 -> pool1
I0812 16:25:05.341655 27382 net.cpp:84] Top shape: 64 96 27 27 (4478976)
I0812 16:25:05.341658 27382 net.cpp:116] pool1 does not need backward computation.
I0812 16:25:05.341663 27382 net.cpp:65] Creating Layer norm1
I0812 16:25:05.341665 27382 net.cpp:228] norm1 <- pool1
I0812 16:25:05.341670 27382 net.cpp:189] norm1 -> norm1
I0812 16:25:05.341677 27382 net.cpp:84] Top shape: 64 96 27 27 (4478976)
I0812 16:25:05.341680 27382 net.cpp:116] norm1 does not need backward computation.
I0812 16:25:05.341684 27382 net.cpp:65] Creating Layer Rconv6
I0812 16:25:05.341686 27382 net.cpp:228] Rconv6 <- norm1
I0812 16:25:05.341691 27382 net.cpp:189] Rconv6 -> Rconv6
I0812 16:25:05.341927 27382 net.cpp:84] Top shape: 64 256 27 27 (11943936)
I0812 16:25:05.341930 27382 net.cpp:116] Rconv6 does not need backward computation.
I0812 16:25:05.341934 27382 net.cpp:65] Creating Layer Rrelu6
I0812 16:25:05.341938 27382 net.cpp:228] Rrelu6 <- Rconv6
I0812 16:25:05.341943 27382 net.cpp:179] Rrelu6 -> Rconv6 (in-place)
I0812 16:25:05.341948 27382 net.cpp:84] Top shape: 64 256 27 27 (11943936)
I0812 16:25:05.341949 27382 net.cpp:116] Rrelu6 does not need backward computation.
I0812 16:25:05.341955 27382 net.cpp:65] Creating Layer Rconv7
I0812 16:25:05.341958 27382 net.cpp:228] Rconv7 <- Rconv6
I0812 16:25:05.341961 27382 net.cpp:189] Rconv7 -> Rconv7
I0812 16:25:05.342720 27382 net.cpp:84] Top shape: 64 256 27 27 (11943936)
I0812 16:25:05.342723 27382 net.cpp:116] Rconv7 does not need backward computation.
I0812 16:25:05.342728 27382 net.cpp:65] Creating Layer Rrelu7
I0812 16:25:05.342731 27382 net.cpp:228] Rrelu7 <- Rconv7
I0812 16:25:05.342736 27382 net.cpp:179] Rrelu7 -> Rconv7 (in-place)
I0812 16:25:05.342741 27382 net.cpp:84] Top shape: 64 256 27 27 (11943936)
I0812 16:25:05.342743 27382 net.cpp:116] Rrelu7 does not need backward computation.
I0812 16:25:05.342747 27382 net.cpp:65] Creating Layer Rconv8
I0812 16:25:05.342751 27382 net.cpp:228] Rconv8 <- Rconv7
I0812 16:25:05.342754 27382 net.cpp:189] Rconv8 -> Rconv8
I0812 16:25:05.343533 27382 net.cpp:84] Top shape: 64 256 27 27 (11943936)
I0812 16:25:05.343538 27382 net.cpp:116] Rconv8 does not need backward computation.
I0812 16:25:05.343541 27382 net.cpp:65] Creating Layer Rrelu8
I0812 16:25:05.343544 27382 net.cpp:228] Rrelu8 <- Rconv8
I0812 16:25:05.343549 27382 net.cpp:179] Rrelu8 -> Rconv8 (in-place)
I0812 16:25:05.343552 27382 net.cpp:84] Top shape: 64 256 27 27 (11943936)
I0812 16:25:05.343555 27382 net.cpp:116] Rrelu8 does not need backward computation.
I0812 16:25:05.343560 27382 net.cpp:65] Creating Layer deconv2
I0812 16:25:05.343562 27382 net.cpp:228] deconv2 <- Rconv8
I0812 16:25:05.343566 27382 net.cpp:189] deconv2 -> deconv2
I0812 16:25:05.344629 27382 net.cpp:84] Top shape: 64 64 54 54 (11943936)
I0812 16:25:05.344633 27382 net.cpp:116] deconv2 does not need backward computation.
I0812 16:25:05.344638 27382 net.cpp:65] Creating Layer relu_deconv2
I0812 16:25:05.344641 27382 net.cpp:228] relu_deconv2 <- deconv2
I0812 16:25:05.344646 27382 net.cpp:179] relu_deconv2 -> deconv2 (in-place)
I0812 16:25:05.344651 27382 net.cpp:84] Top shape: 64 64 54 54 (11943936)
I0812 16:25:05.344666 27382 net.cpp:116] relu_deconv2 does not need backward computation.
I0812 16:25:05.344671 27382 net.cpp:65] Creating Layer deconv1
I0812 16:25:05.344674 27382 net.cpp:228] deconv1 <- deconv2
I0812 16:25:05.344678 27382 net.cpp:189] deconv1 -> deconv1
I0812 16:25:05.344838 27382 net.cpp:84] Top shape: 64 32 108 108 (23887872)
I0812 16:25:05.344842 27382 net.cpp:116] deconv1 does not need backward computation.
I0812 16:25:05.344847 27382 net.cpp:65] Creating Layer relu_deconv1
I0812 16:25:05.344851 27382 net.cpp:228] relu_deconv1 <- deconv1
I0812 16:25:05.344854 27382 net.cpp:179] relu_deconv1 -> deconv1 (in-place)
I0812 16:25:05.344859 27382 net.cpp:84] Top shape: 64 32 108 108 (23887872)
I0812 16:25:05.344862 27382 net.cpp:116] relu_deconv1 does not need backward computation.
I0812 16:25:05.344868 27382 net.cpp:65] Creating Layer deconv0
I0812 16:25:05.344871 27382 net.cpp:228] deconv0 <- deconv1
I0812 16:25:05.344877 27382 net.cpp:189] deconv0 -> deconv0
I0812 16:25:05.344900 27382 net.cpp:84] Top shape: 64 3 216 216 (8957952)
I0812 16:25:05.344903 27382 net.cpp:116] deconv0 does not need backward computation.
I0812 16:25:05.344907 27382 net.cpp:65] Creating Layer loss
I0812 16:25:05.344909 27382 net.cpp:228] loss <- deconv0
I0812 16:25:05.344913 27382 net.cpp:228] loss <- target_ims
I0812 16:25:05.344918 27382 net.cpp:116] loss does not need backward computation.
I0812 16:25:05.344931 27382 net.cpp:238] Collecting Learning Rate and Weight Decay.
…
