…
    source: "/scr/r6/tgebru/inverting_conv/caffe_invert_alexnet/data/siggraph/tiny_summer_train_lmdb"
    mean_file: "/scr/r6/tgebru/timnit_caffe/data/ilsvrc12/imagenet_mean.binaryproto"
    batch_size: 12
    crop_size: 227
    mirror: false
    backend: LMDB
  }
}
layers {
  top: "target_ims"
  name: "target_ims"
  type: DATA
  data_param {
    source: "/scr/r6/tgebru/inverting_conv/caffe_invert_alexnet/data/siggraph/tiny_summer_train_lmdb"
    mean_file: "/scr/r6/tgebru/timnit_caffe/data/ilsvrc12/imagenet_mean.binaryproto"
    batch_size: 12
    crop_size: 216
    mirror: false
    backend: LMDB
  }
}
layers {
  bottom: "source_ims"
  top: "conv1"
  name: "conv1"
  type: CONVOLUTION
  blobs_lr: 0
  blobs_lr: 0
  weight_decay: 1
  weight_decay: 0
  convolution_param {
    num_output: 96
    kernel_size: 11
    stride: 4
    weight_filler {
      type: "gaussian"
      std: 0.01
    }
    bias_filler {
      type: "constant"
      value: 0
    }
  }
}
layers {
  bottom: "conv1"
  top: "conv1"
  name: "relu1"
  type: RELU
}
layers {
  bottom: "conv1"
  top: "pool1"
  name: "pool1"
  type: POOLING
  pooling_param {
    pool: MAX
    kernel_size: 3
    stride: 2
  }
}
layers {
  bottom: "pool1"
  top: "norm1"
  name: "norm1"
  type: LRN
  lrn_param {
    local_size: 5
    alpha: 0.0001
    beta: 0.75
  }
}
layers {
  bottom: "norm1"
  top: "Rconv6"
  name: "Rconv6"
  type: CONVOLUTION
  blobs_lr: 1
  blobs_lr: 2
  weight_decay: 1
  weight_decay: 0
  convolution_param {
    num_output: 256
    pad: 1
    kernel_size: 3
  }
}
layers {
  bottom: "Rconv6"
  top: "Rconv6"
  name: "Rrelu6"
  type: RELU
}
layers {
  bottom: "Rconv6"
  top: "Rconv7"
  name: "Rconv7"
  type: CONVOLUTION
  blobs_lr: 1
  blobs_lr: 2
  weight_decay: 1
  weight_decay: 0
  convolution_param {
    num_output: 256
    pad: 1
    kernel_size: 3
    group: 2
  }
}
layers {
  bottom: "Rconv7"
  top: "Rconv7"
  name: "Rrelu7"
  type: RELU
}
layers {
  bottom: "Rconv7"
  top: "Rconv8"
  name: "Rconv8"
  type: CONVOLUTION
  blobs_lr: 1
  blobs_lr: 2
  weight_decay: 1
  weight_decay: 0
  convolution_param {
    num_output: 256
    pad: 1
    kernel_size: 3
    group: 2
  }
}
layers {
  bottom: "Rconv8"
  top: "Rconv8"
  name: "Rrelu8"
  type: RELU
}
layers {
  bottom: "Rconv8"
  top: "deconv2"
  name: "deconv2"
  type: DECONVOLUTION
  blobs_lr: 1
  blobs_lr: 2
  weight_decay: 1
  weight_decay: 0
  deconvolution_param {
    pad: 2
    kernel_size: 5
    stride: 2
    output_height: 54
    output_width: 54
    output_channels: 64
  }
}
layers {
  bottom: "deconv2"
  top: "deconv2"
  name: "relu_deconv2"
  type: RELU
  relu_param {
    negative_slope: 0.3
  }
}
layers {
  bottom: "deconv2"
  top: "deconv1"
  name: "deconv1"
  type: DECONVOLUTION
  blobs_lr: 1
  blobs_lr: 2
  weight_decay: 1
  weight_decay: 0
  deconvolution_param {
    pad: 2
    kernel_size: 5
    stride: 2
    output_height: 108
    output_width: 108
    output_channels: 32
  }
}
layers {
  bottom: "deconv1"
  top: "deconv1"
  name: "relu_deconv1"
  type: RELU
  relu_param {
    negative_slope: 0.3
  }
}
layers {
  bottom: "deconv1"
  top: "deconv0"
  name: "deconv0"
  type: DECONVOLUTION
  blobs_lr: 1
  blobs_lr: 2
  weight_decay: 1
  weight_decay: 1
  deconvolution_param {
    pad: 2
    kernel_size: 5
    stride: 2
    output_height: 216
    output_width: 216
    output_channels: 3
  }
}
layers {
  bottom: "deconv0"
  bottom: "target_ims"
  name: "loss"
  type: EUCLIDEAN_LOSS
}
I0812 16:54:34.642266  5272 net.cpp:65] Creating Layer source_ims
I0812 16:54:34.642273  5272 net.cpp:189] source_ims -> source_ims
I0812 16:54:34.642375  5272 data_layer.cpp:223] Opening lmdb /scr/r6/tgebru/inverting_conv/caffe_invert_alexnet/data/siggraph/tiny_summer_train_lmdb
I0812 16:54:34.642596  5272 data_layer.cpp:285] output data size: 12,3,227,227
I0812 16:54:34.642603  5272 data_layer.cpp:304] Loading mean file from/scr/r6/tgebru/timnit_caffe/data/ilsvrc12/imagenet_mean.binaryproto
I0812 16:54:34.647796  5272 net.cpp:84] Top shape: 12 3 227 227 (1855044)
I0812 16:54:34.647804  5272 net.cpp:116] source_ims does not need backward computation.
I0812 16:54:34.647810  5272 net.cpp:65] Creating Layer target_ims
I0812 16:54:34.647814  5272 net.cpp:189] target_ims -> target_ims
I0812 16:54:34.647969  5272 data_layer.cpp:223] Opening lmdb /scr/r6/tgebru/inverting_conv/caffe_invert_alexnet/data/siggraph/tiny_summer_train_lmdb
I0812 16:54:34.648118  5272 data_layer.cpp:285] output data size: 12,3,216,216
I0812 16:54:34.648121  5272 data_layer.cpp:304] Loading mean file from/scr/r6/tgebru/timnit_caffe/data/ilsvrc12/imagenet_mean.binaryproto
I0812 16:54:34.652133  5272 net.cpp:84] Top shape: 12 3 216 216 (1679616)
I0812 16:54:34.652142  5272 net.cpp:116] target_ims does not need backward computation.
I0812 16:54:34.652153  5272 net.cpp:65] Creating Layer conv1
I0812 16:54:34.652158  5272 net.cpp:228] conv1 <- source_ims
I0812 16:54:34.652266  5272 net.cpp:189] conv1 -> conv1
I0812 16:54:34.653609  5272 net.cpp:84] Top shape: 12 96 55 55 (3484800)
I0812 16:54:34.653614  5272 net.cpp:116] conv1 does not need backward computation.
I0812 16:54:34.653620  5272 net.cpp:65] Creating Layer relu1
I0812 16:54:34.653622  5272 net.cpp:228] relu1 <- conv1
I0812 16:54:34.653627  5272 net.cpp:179] relu1 -> conv1 (in-place)
I0812 16:54:34.653636  5272 net.cpp:84] Top shape: 12 96 55 55 (3484800)
I0812 16:54:34.653640  5272 net.cpp:116] relu1 does not need backward computation.
I0812 16:54:34.653645  5272 net.cpp:65] Creating Layer pool1
I0812 16:54:34.653646  5272 net.cpp:228] pool1 <- conv1
I0812 16:54:34.653650  5272 net.cpp:189] pool1 -> pool1
I0812 16:54:34.653661  5272 net.cpp:84] Top shape: 12 96 27 27 (839808)
I0812 16:54:34.653666  5272 net.cpp:116] pool1 does not need backward computation.
I0812 16:54:34.653671  5272 net.cpp:65] Creating Layer norm1
I0812 16:54:34.653672  5272 net.cpp:228] norm1 <- pool1
I0812 16:54:34.653676  5272 net.cpp:189] norm1 -> norm1
I0812 16:54:34.653686  5272 net.cpp:84] Top shape: 12 96 27 27 (839808)
I0812 16:54:34.653688  5272 net.cpp:116] norm1 does not need backward computation.
I0812 16:54:34.653692  5272 net.cpp:65] Creating Layer Rconv6
I0812 16:54:34.653694  5272 net.cpp:228] Rconv6 <- norm1
I0812 16:54:34.653698  5272 net.cpp:189] Rconv6 -> Rconv6
I0812 16:54:34.653975  5272 net.cpp:84] Top shape: 12 256 27 27 (2239488)
I0812 16:54:34.653978  5272 net.cpp:111] Rconv6 needs backward computation.
I0812 16:54:34.653983  5272 net.cpp:65] Creating Layer Rrelu6
I0812 16:54:34.653986  5272 net.cpp:228] Rrelu6 <- Rconv6
I0812 16:54:34.653990  5272 net.cpp:179] Rrelu6 -> Rconv6 (in-place)
I0812 16:54:34.653995  5272 net.cpp:84] Top shape: 12 256 27 27 (2239488)
I0812 16:54:34.653997  5272 net.cpp:111] Rrelu6 needs backward computation.
I0812 16:54:34.654002  5272 net.cpp:65] Creating Layer Rconv7
I0812 16:54:34.654006  5272 net.cpp:228] Rconv7 <- Rconv6
I0812 16:54:34.654009  5272 net.cpp:189] Rconv7 -> Rconv7
I0812 16:54:34.654781  5272 net.cpp:84] Top shape: 12 256 27 27 (2239488)
I0812 16:54:34.654786  5272 net.cpp:111] Rconv7 needs backward computation.
I0812 16:54:34.654791  5272 net.cpp:65] Creating Layer Rrelu7
I0812 16:54:34.654794  5272 net.cpp:228] Rrelu7 <- Rconv7
I0812 16:54:34.654819  5272 net.cpp:179] Rrelu7 -> Rconv7 (in-place)
I0812 16:54:34.654825  5272 net.cpp:84] Top shape: 12 256 27 27 (2239488)
I0812 16:54:34.654829  5272 net.cpp:111] Rrelu7 needs backward computation.
I0812 16:54:34.654831  5272 net.cpp:65] Creating Layer Rconv8
I0812 16:54:34.654834  5272 net.cpp:228] Rconv8 <- Rconv7
I0812 16:54:34.654839  5272 net.cpp:189] Rconv8 -> Rconv8
I0812 16:54:34.655614  5272 net.cpp:84] Top shape: 12 256 27 27 (2239488)
I0812 16:54:34.655619  5272 net.cpp:111] Rconv8 needs backward computation.
I0812 16:54:34.655623  5272 net.cpp:65] Creating Layer Rrelu8
I0812 16:54:34.655625  5272 net.cpp:228] Rrelu8 <- Rconv8
I0812 16:54:34.655629  5272 net.cpp:179] Rrelu8 -> Rconv8 (in-place)
I0812 16:54:34.655633  5272 net.cpp:84] Top shape: 12 256 27 27 (2239488)
I0812 16:54:34.655637  5272 net.cpp:111] Rrelu8 needs backward computation.
I0812 16:54:34.655642  5272 net.cpp:65] Creating Layer deconv2
I0812 16:54:34.655643  5272 net.cpp:228] deconv2 <- Rconv8
I0812 16:54:34.655647  5272 net.cpp:189] deconv2 -> deconv2
I0812 16:54:34.656723  5272 net.cpp:84] Top shape: 12 64 54 54 (2239488)
I0812 16:54:34.656728  5272 net.cpp:111] deconv2 needs backward computation.
I0812 16:54:34.656731  5272 net.cpp:65] Creating Layer relu_deconv2
I0812 16:54:34.656734  5272 net.cpp:228] relu_deconv2 <- deconv2
I0812 16:54:34.656738  5272 net.cpp:179] relu_deconv2 -> deconv2 (in-place)
I0812 16:54:34.656744  5272 net.cpp:84] Top shape: 12 64 54 54 (2239488)
I0812 16:54:34.656746  5272 net.cpp:111] relu_deconv2 needs backward computation.
I0812 16:54:34.656750  5272 net.cpp:65] Creating Layer deconv1
I0812 16:54:34.656752  5272 net.cpp:228] deconv1 <- deconv2
I0812 16:54:34.656756  5272 net.cpp:189] deconv1 -> deconv1
I0812 16:54:34.656905  5272 net.cpp:84] Top shape: 12 32 108 108 (4478976)
I0812 16:54:34.656909  5272 net.cpp:111] deconv1 needs backward computation.
I0812 16:54:34.656913  5272 net.cpp:65] Creating Layer relu_deconv1
I0812 16:54:34.656916  5272 net.cpp:228] relu_deconv1 <- deconv1
I0812 16:54:34.656920  5272 net.cpp:179] relu_deconv1 -> deconv1 (in-place)
I0812 16:54:34.656924  5272 net.cpp:84] Top shape: 12 32 108 108 (4478976)
I0812 16:54:34.656926  5272 net.cpp:111] relu_deconv1 needs backward computation.
I0812 16:54:34.656932  5272 net.cpp:65] Creating Layer deconv0
I0812 16:54:34.656934  5272 net.cpp:228] deconv0 <- deconv1
I0812 16:54:34.656939  5272 net.cpp:189] deconv0 -> deconv0
I0812 16:54:34.656961  5272 net.cpp:84] Top shape: 12 3 216 216 (1679616)
I0812 16:54:34.656965  5272 net.cpp:111] deconv0 needs backward computation.
I0812 16:54:34.656970  5272 net.cpp:65] Creating Layer loss
I0812 16:54:34.656971  5272 net.cpp:228] loss <- deconv0
I0812 16:54:34.656975  5272 net.cpp:228] loss <- target_ims
I0812 16:54:34.656983  5272 net.cpp:111] loss needs backward computation.
I0812 16:54:34.656996  5272 net.cpp:238] Collecting Learning Rate and Weight Decay.
…
    source: "/scr/r6/tgebru/inverting_conv/caffe_invert_alexnet/data/siggraph/tiny_summer_val_lmdb"
    mean_file: "/scr/r6/tgebru/timnit_caffe/data/ilsvrc12/imagenet_mean.binaryproto"
    batch_size: 2
    crop_size: 227
    mirror: false
    backend: LMDB
  }
}
layers {
  top: "target_ims"
  name: "target_ims"
  type: DATA
  data_param {
    source: "/scr/r6/tgebru/inverting_conv/caffe_invert_alexnet/data/siggraph/tiny_summer_val_lmdb"
    mean_file: "/scr/r6/tgebru/timnit_caffe/data/ilsvrc12/imagenet_mean.binaryproto"
    batch_size: 2
    crop_size: 216
    mirror: false
    backend: LMDB
  }
}
layers {
  bottom: "source_ims"
  top: "conv1"
  name: "conv1"
  type: CONVOLUTION
  blobs_lr: 0
  blobs_lr: 0
  weight_decay: 1
  weight_decay: 0
  convolution_param {
    num_output: 96
    kernel_size: 11
    stride: 4
    weight_filler {
      type: "gaussian"
      std: 0.01
    }
    bias_filler {
      type: "constant"
      value: 0
    }
  }
}
layers {
  bottom: "conv1"
  top: "conv1"
  name: "relu1"
  type: RELU
}
layers {
  bottom: "conv1"
  top: "pool1"
  name: "pool1"
  type: POOLING
  pooling_param {
    pool: MAX
    kernel_size: 3
    stride: 2
  }
}
layers {
  bottom: "pool1"
  top: "norm1"
  name: "norm1"
  type: LRN
  lrn_param {
    local_size: 5
    alpha: 0.0001
    beta: 0.75
  }
}
layers {
  bottom: "norm1"
  top: "Rconv6"
  name: "Rconv6"
  type: CONVOLUTION
  blobs_lr: 0
  blobs_lr: 0
  weight_decay: 1
  weight_decay: 0
  convolution_param {
    num_output: 256
    pad: 1
    kernel_size: 3
  }
}
layers {
  bottom: "Rconv6"
  top: "Rconv6"
  name: "Rrelu6"
  type: RELU
}
layers {
  bottom: "Rconv6"
  top: "Rconv7"
  name: "Rconv7"
  type: CONVOLUTION
  blobs_lr: 0
  blobs_lr: 0
  weight_decay: 1
  weight_decay: 0
  convolution_param {
    num_output: 256
    pad: 1
    kernel_size: 3
    group: 2
  }
}
layers {
  bottom: "Rconv7"
  top: "Rconv7"
  name: "Rrelu7"
  type: RELU
}
layers {
  bottom: "Rconv7"
  top: "Rconv8"
  name: "Rconv8"
  type: CONVOLUTION
  blobs_lr: 0
  blobs_lr: 0
  weight_decay: 1
  weight_decay: 0
  convolution_param {
    num_output: 256
    pad: 1
    kernel_size: 3
    group: 2
  }
}
layers {
  bottom: "Rconv8"
  top: "Rconv8"
  name: "Rrelu8"
  type: RELU
}
layers {
  bottom: "Rconv8"
  top: "deconv2"
  name: "deconv2"
  type: DECONVOLUTION
  blobs_lr: 0
  blobs_lr: 0
  weight_decay: 1
  weight_decay: 0
  deconvolution_param {
    pad: 2
    kernel_size: 5
    stride: 2
    output_height: 54
    output_width: 54
    output_channels: 64
  }
}
layers {
  bottom: "deconv2"
  top: "deconv2"
  name: "relu_deconv2"
  type: RELU
  relu_param {
    negative_slope: 0.3
  }
}
layers {
  bottom: "deconv2"
  top: "deconv1"
  name: "deconv1"
  type: DECONVOLUTION
  blobs_lr: 0
  blobs_lr: 0
  weight_decay: 1
  weight_decay: 0
  deconvolution_param {
    pad: 2
    kernel_size: 5
    stride: 2
    output_height: 108
    output_width: 108
    output_channels: 32
  }
}
layers {
  bottom: "deconv1"
  top: "deconv1"
  name: "relu_deconv1"
  type: RELU
  relu_param {
    negative_slope: 0.3
  }
}
layers {
  bottom: "deconv1"
  top: "deconv0"
  name: "deconv0"
  type: DECONVOLUTION
  blobs_lr: 0
  blobs_lr: 0
  weight_decay: 1
  weight_decay: 0
  deconvolution_param {
    pad: 2
    kernel_size: 5
    stride: 2
    output_height: 216
    output_width: 216
    output_channels: 3
  }
}
layers {
  bottom: "deconv0"
  bottom: "target_ims"
  name: "loss"
  type: EUCLIDEAN_LOSS
}
I0812 16:54:34.657752  5272 net.cpp:65] Creating Layer source_ims
I0812 16:54:34.657757  5272 net.cpp:189] source_ims -> source_ims
I0812 16:54:34.657817  5272 data_layer.cpp:223] Opening lmdb /scr/r6/tgebru/inverting_conv/caffe_invert_alexnet/data/siggraph/tiny_summer_val_lmdb
I0812 16:54:34.658045  5272 data_layer.cpp:285] output data size: 2,3,227,227
I0812 16:54:34.658049  5272 data_layer.cpp:304] Loading mean file from/scr/r6/tgebru/timnit_caffe/data/ilsvrc12/imagenet_mean.binaryproto
I0812 16:54:34.660524  5272 net.cpp:84] Top shape: 2 3 227 227 (309174)
I0812 16:54:34.660531  5272 net.cpp:116] source_ims does not need backward computation.
I0812 16:54:34.660537  5272 net.cpp:65] Creating Layer target_ims
I0812 16:54:34.660542  5272 net.cpp:189] target_ims -> target_ims
I0812 16:54:34.660580  5272 data_layer.cpp:223] Opening lmdb /scr/r6/tgebru/inverting_conv/caffe_invert_alexnet/data/siggraph/tiny_summer_val_lmdb
I0812 16:54:34.660655  5272 data_layer.cpp:285] output data size: 2,3,216,216
I0812 16:54:34.660658  5272 data_layer.cpp:304] Loading mean file from/scr/r6/tgebru/timnit_caffe/data/ilsvrc12/imagenet_mean.binaryproto
I0812 16:54:34.662907  5272 net.cpp:84] Top shape: 2 3 216 216 (279936)
I0812 16:54:34.662914  5272 net.cpp:116] target_ims does not need backward computation.
I0812 16:54:34.662935  5272 net.cpp:65] Creating Layer conv1
I0812 16:54:34.662938  5272 net.cpp:228] conv1 <- source_ims
I0812 16:54:34.662945  5272 net.cpp:189] conv1 -> conv1
I0812 16:54:34.664188  5272 net.cpp:84] Top shape: 2 96 55 55 (580800)
I0812 16:54:34.664193  5272 net.cpp:116] conv1 does not need backward computation.
I0812 16:54:34.664197  5272 net.cpp:65] Creating Layer relu1
I0812 16:54:34.664201  5272 net.cpp:228] relu1 <- conv1
I0812 16:54:34.664204  5272 net.cpp:179] relu1 -> conv1 (in-place)
I0812 16:54:34.664209  5272 net.cpp:84] Top shape: 2 96 55 55 (580800)
I0812 16:54:34.664212  5272 net.cpp:116] relu1 does not need backward computation.
I0812 16:54:34.664216  5272 net.cpp:65] Creating Layer pool1
I0812 16:54:34.664218  5272 net.cpp:228] pool1 <- conv1
I0812 16:54:34.664222  5272 net.cpp:189] pool1 -> pool1
I0812 16:54:34.664228  5272 net.cpp:84] Top shape: 2 96 27 27 (139968)
I0812 16:54:34.664232  5272 net.cpp:116] pool1 does not need backward computation.
I0812 16:54:34.664235  5272 net.cpp:65] Creating Layer norm1
I0812 16:54:34.664238  5272 net.cpp:228] norm1 <- pool1
I0812 16:54:34.664242  5272 net.cpp:189] norm1 -> norm1
I0812 16:54:34.664247  5272 net.cpp:84] Top shape: 2 96 27 27 (139968)
I0812 16:54:34.664250  5272 net.cpp:116] norm1 does not need backward computation.
I0812 16:54:34.664254  5272 net.cpp:65] Creating Layer Rconv6
I0812 16:54:34.664257  5272 net.cpp:228] Rconv6 <- norm1
I0812 16:54:34.664260  5272 net.cpp:189] Rconv6 -> Rconv6
I0812 16:54:34.664839  5272 net.cpp:84] Top shape: 2 256 27 27 (373248)
I0812 16:54:34.664842  5272 net.cpp:116] Rconv6 does not need backward computation.
I0812 16:54:34.664846  5272 net.cpp:65] Creating Layer Rrelu6
I0812 16:54:34.664849  5272 net.cpp:228] Rrelu6 <- Rconv6
I0812 16:54:34.664854  5272 net.cpp:179] Rrelu6 -> Rconv6 (in-place)
I0812 16:54:34.664857  5272 net.cpp:84] Top shape: 2 256 27 27 (373248)
I0812 16:54:34.664860  5272 net.cpp:116] Rrelu6 does not need backward computation.
I0812 16:54:34.664865  5272 net.cpp:65] Creating Layer Rconv7
I0812 16:54:34.664867  5272 net.cpp:228] Rconv7 <- Rconv6
I0812 16:54:34.664871  5272 net.cpp:189] Rconv7 -> Rconv7
I0812 16:54:34.665640  5272 net.cpp:84] Top shape: 2 256 27 27 (373248)
I0812 16:54:34.665645  5272 net.cpp:116] Rconv7 does not need backward computation.
I0812 16:54:34.665648  5272 net.cpp:65] Creating Layer Rrelu7
I0812 16:54:34.665652  5272 net.cpp:228] Rrelu7 <- Rconv7
I0812 16:54:34.665655  5272 net.cpp:179] Rrelu7 -> Rconv7 (in-place)
I0812 16:54:34.665659  5272 net.cpp:84] Top shape: 2 256 27 27 (373248)
I0812 16:54:34.665663  5272 net.cpp:116] Rrelu7 does not need backward computation.
I0812 16:54:34.665666  5272 net.cpp:65] Creating Layer Rconv8
I0812 16:54:34.665668  5272 net.cpp:228] Rconv8 <- Rconv7
I0812 16:54:34.665673  5272 net.cpp:189] Rconv8 -> Rconv8
I0812 16:54:34.666435  5272 net.cpp:84] Top shape: 2 256 27 27 (373248)
I0812 16:54:34.666440  5272 net.cpp:116] Rconv8 does not need backward computation.
I0812 16:54:34.666443  5272 net.cpp:65] Creating Layer Rrelu8
I0812 16:54:34.666445  5272 net.cpp:228] Rrelu8 <- Rconv8
I0812 16:54:34.666450  5272 net.cpp:179] Rrelu8 -> Rconv8 (in-place)
I0812 16:54:34.666453  5272 net.cpp:84] Top shape: 2 256 27 27 (373248)
I0812 16:54:34.666455  5272 net.cpp:116] Rrelu8 does not need backward computation.
I0812 16:54:34.666460  5272 net.cpp:65] Creating Layer deconv2
I0812 16:54:34.666462  5272 net.cpp:228] deconv2 <- Rconv8
I0812 16:54:34.666465  5272 net.cpp:189] deconv2 -> deconv2
I0812 16:54:34.667515  5272 net.cpp:84] Top shape: 2 64 54 54 (373248)
I0812 16:54:34.667520  5272 net.cpp:116] deconv2 does not need backward computation.
I0812 16:54:34.667523  5272 net.cpp:65] Creating Layer relu_deconv2
I0812 16:54:34.667526  5272 net.cpp:228] relu_deconv2 <- deconv2
I0812 16:54:34.667531  5272 net.cpp:179] relu_deconv2 -> deconv2 (in-place)
I0812 16:54:34.667534  5272 net.cpp:84] Top shape: 2 64 54 54 (373248)
I0812 16:54:34.667537  5272 net.cpp:116] relu_deconv2 does not need backward computation.
I0812 16:54:34.667553  5272 net.cpp:65] Creating Layer deconv1
I0812 16:54:34.667557  5272 net.cpp:228] deconv1 <- deconv2
I0812 16:54:34.667560  5272 net.cpp:189] deconv1 -> deconv1
I0812 16:54:34.667700  5272 net.cpp:84] Top shape: 2 32 108 108 (746496)
I0812 16:54:34.667703  5272 net.cpp:116] deconv1 does not need backward computation.
I0812 16:54:34.667707  5272 net.cpp:65] Creating Layer relu_deconv1
I0812 16:54:34.667711  5272 net.cpp:228] relu_deconv1 <- deconv1
I0812 16:54:34.667714  5272 net.cpp:179] relu_deconv1 -> deconv1 (in-place)
I0812 16:54:34.667718  5272 net.cpp:84] Top shape: 2 32 108 108 (746496)
I0812 16:54:34.667721  5272 net.cpp:116] relu_deconv1 does not need backward computation.
I0812 16:54:34.667726  5272 net.cpp:65] Creating Layer deconv0
I0812 16:54:34.667729  5272 net.cpp:228] deconv0 <- deconv1
I0812 16:54:34.667733  5272 net.cpp:189] deconv0 -> deconv0
I0812 16:54:34.667752  5272 net.cpp:84] Top shape: 2 3 216 216 (279936)
I0812 16:54:34.667754  5272 net.cpp:116] deconv0 does not need backward computation.
I0812 16:54:34.667758  5272 net.cpp:65] Creating Layer loss
I0812 16:54:34.667760  5272 net.cpp:228] loss <- deconv0
I0812 16:54:34.667764  5272 net.cpp:228] loss <- target_ims
I0812 16:54:34.667768  5272 net.cpp:116] loss does not need backward computation.
I0812 16:54:34.667780  5272 net.cpp:238] Collecting Learning Rate and Weight Decay.
…
