…
    source: "/scr/r6/tgebru/inverting_conv/caffe_invert_alexnet/data/siggraph/tiny_summer_train_lmdb"
    mean_file: "/scr/r6/tgebru/timnit_caffe/data/ilsvrc12/imagenet_mean.binaryproto"
    batch_size: 12
    crop_size: 227
    mirror: false
    backend: LMDB
  }
}
layers {
  top: "target_ims"
  name: "target_ims"
  type: DATA
  data_param {
    source: "/scr/r6/tgebru/inverting_conv/caffe_invert_alexnet/data/siggraph/tiny_winter_train_lmdb"
    mean_file: "/scr/r6/tgebru/timnit_caffe/data/ilsvrc12/imagenet_mean.binaryproto"
    batch_size: 12
    crop_size: 216
    mirror: false
    backend: LMDB
  }
}
layers {
  bottom: "source_ims"
  top: "conv1"
  name: "conv1"
  type: CONVOLUTION
  blobs_lr: 0
  blobs_lr: 0
  weight_decay: 1
  weight_decay: 0
  convolution_param {
    num_output: 96
    kernel_size: 11
    stride: 4
    weight_filler {
      type: "gaussian"
      std: 0.01
    }
    bias_filler {
      type: "constant"
      value: 0
    }
  }
}
layers {
  bottom: "conv1"
  top: "conv1"
  name: "relu1"
  type: RELU
}
layers {
  bottom: "conv1"
  top: "pool1"
  name: "pool1"
  type: POOLING
  pooling_param {
    pool: MAX
    kernel_size: 3
    stride: 2
  }
}
layers {
  bottom: "pool1"
  top: "norm1"
  name: "norm1"
  type: LRN
  lrn_param {
    local_size: 5
    alpha: 0.0001
    beta: 0.75
  }
}
layers {
  bottom: "norm1"
  top: "Rconv6"
  name: "Rconv6"
  type: CONVOLUTION
  blobs_lr: 1
  blobs_lr: 2
  weight_decay: 1
  weight_decay: 0
  convolution_param {
    num_output: 256
    pad: 1
    kernel_size: 3
  }
}
layers {
  bottom: "Rconv6"
  top: "Rconv6"
  name: "Rrelu6"
  type: RELU
}
layers {
  bottom: "Rconv6"
  top: "Rconv7"
  name: "Rconv7"
  type: CONVOLUTION
  blobs_lr: 1
  blobs_lr: 2
  weight_decay: 1
  weight_decay: 0
  convolution_param {
    num_output: 256
    pad: 1
    kernel_size: 3
    group: 2
  }
}
layers {
  bottom: "Rconv7"
  top: "Rconv7"
  name: "Rrelu7"
  type: RELU
}
layers {
  bottom: "Rconv7"
  top: "Rconv8"
  name: "Rconv8"
  type: CONVOLUTION
  blobs_lr: 1
  blobs_lr: 2
  weight_decay: 1
  weight_decay: 0
  convolution_param {
    num_output: 256
    pad: 1
    kernel_size: 3
    group: 2
  }
}
layers {
  bottom: "Rconv8"
  top: "Rconv8"
  name: "Rrelu8"
  type: RELU
}
layers {
  bottom: "Rconv8"
  top: "deconv2"
  name: "deconv2"
  type: DECONVOLUTION
  blobs_lr: 1
  blobs_lr: 2
  weight_decay: 1
  weight_decay: 0
  deconvolution_param {
    pad: 2
    kernel_size: 5
    stride: 2
    output_height: 54
    output_width: 54
    output_channels: 64
  }
}
layers {
  bottom: "deconv2"
  top: "deconv2"
  name: "relu_deconv2"
  type: RELU
  relu_param {
    negative_slope: 0.3
  }
}
layers {
  bottom: "deconv2"
  top: "deconv1"
  name: "deconv1"
  type: DECONVOLUTION
  blobs_lr: 1
  blobs_lr: 2
  weight_decay: 1
  weight_decay: 0
  deconvolution_param {
    pad: 2
    kernel_size: 5
    stride: 2
    output_height: 108
    output_width: 108
    output_channels: 32
  }
}
layers {
  bottom: "deconv1"
  top: "deconv1"
  name: "relu_deconv1"
  type: RELU
  relu_param {
    negative_slope: 0.3
  }
}
layers {
  bottom: "deconv1"
  top: "deconv0"
  name: "deconv0"
  type: DECONVOLUTION
  blobs_lr: 1
  blobs_lr: 2
  weight_decay: 1
  weight_decay: 1
  deconvolution_param {
    pad: 2
    kernel_size: 5
    stride: 2
    output_height: 216
    output_width: 216
    output_channels: 3
  }
}
layers {
  bottom: "deconv0"
  bottom: "target_ims"
  name: "loss"
  type: EUCLIDEAN_LOSS
}
I0812 18:38:39.215205 24685 net.cpp:65] Creating Layer source_ims
I0812 18:38:39.215214 24685 net.cpp:189] source_ims -> source_ims
I0812 18:38:39.215319 24685 data_layer.cpp:223] Opening lmdb /scr/r6/tgebru/inverting_conv/caffe_invert_alexnet/data/siggraph/tiny_summer_train_lmdb
I0812 18:38:39.215520 24685 data_layer.cpp:285] output data size: 12,3,227,227
I0812 18:38:39.215528 24685 data_layer.cpp:304] Loading mean file from/scr/r6/tgebru/timnit_caffe/data/ilsvrc12/imagenet_mean.binaryproto
I0812 18:38:39.220684 24685 net.cpp:84] Top shape: 12 3 227 227 (1855044)
I0812 18:38:39.220691 24685 net.cpp:116] source_ims does not need backward computation.
I0812 18:38:39.220698 24685 net.cpp:65] Creating Layer target_ims
I0812 18:38:39.220702 24685 net.cpp:189] target_ims -> target_ims
I0812 18:38:39.220873 24685 data_layer.cpp:223] Opening lmdb /scr/r6/tgebru/inverting_conv/caffe_invert_alexnet/data/siggraph/tiny_winter_train_lmdb
I0812 18:38:39.221029 24685 data_layer.cpp:285] output data size: 12,3,216,216
I0812 18:38:39.221034 24685 data_layer.cpp:304] Loading mean file from/scr/r6/tgebru/timnit_caffe/data/ilsvrc12/imagenet_mean.binaryproto
I0812 18:38:39.225414 24685 net.cpp:84] Top shape: 12 3 216 216 (1679616)
I0812 18:38:39.225426 24685 net.cpp:116] target_ims does not need backward computation.
I0812 18:38:39.225437 24685 net.cpp:65] Creating Layer conv1
I0812 18:38:39.225441 24685 net.cpp:228] conv1 <- source_ims
I0812 18:38:39.225550 24685 net.cpp:189] conv1 -> conv1
I0812 18:38:39.226877 24685 net.cpp:84] Top shape: 12 96 55 55 (3484800)
I0812 18:38:39.226882 24685 net.cpp:116] conv1 does not need backward computation.
I0812 18:38:39.226888 24685 net.cpp:65] Creating Layer relu1
I0812 18:38:39.226891 24685 net.cpp:228] relu1 <- conv1
I0812 18:38:39.226896 24685 net.cpp:179] relu1 -> conv1 (in-place)
I0812 18:38:39.226904 24685 net.cpp:84] Top shape: 12 96 55 55 (3484800)
I0812 18:38:39.226907 24685 net.cpp:116] relu1 does not need backward computation.
I0812 18:38:39.226912 24685 net.cpp:65] Creating Layer pool1
I0812 18:38:39.226915 24685 net.cpp:228] pool1 <- conv1
I0812 18:38:39.226920 24685 net.cpp:189] pool1 -> pool1
I0812 18:38:39.226932 24685 net.cpp:84] Top shape: 12 96 27 27 (839808)
I0812 18:38:39.226934 24685 net.cpp:116] pool1 does not need backward computation.
I0812 18:38:39.226939 24685 net.cpp:65] Creating Layer norm1
I0812 18:38:39.226943 24685 net.cpp:228] norm1 <- pool1
I0812 18:38:39.226948 24685 net.cpp:189] norm1 -> norm1
I0812 18:38:39.226955 24685 net.cpp:84] Top shape: 12 96 27 27 (839808)
I0812 18:38:39.226958 24685 net.cpp:116] norm1 does not need backward computation.
I0812 18:38:39.226963 24685 net.cpp:65] Creating Layer Rconv6
I0812 18:38:39.226966 24685 net.cpp:228] Rconv6 <- norm1
I0812 18:38:39.226970 24685 net.cpp:189] Rconv6 -> Rconv6
I0812 18:38:39.227227 24685 net.cpp:84] Top shape: 12 256 27 27 (2239488)
I0812 18:38:39.227231 24685 net.cpp:111] Rconv6 needs backward computation.
I0812 18:38:39.227236 24685 net.cpp:65] Creating Layer Rrelu6
I0812 18:38:39.227238 24685 net.cpp:228] Rrelu6 <- Rconv6
I0812 18:38:39.227242 24685 net.cpp:179] Rrelu6 -> Rconv6 (in-place)
I0812 18:38:39.227246 24685 net.cpp:84] Top shape: 12 256 27 27 (2239488)
I0812 18:38:39.227249 24685 net.cpp:111] Rrelu6 needs backward computation.
I0812 18:38:39.227254 24685 net.cpp:65] Creating Layer Rconv7
I0812 18:38:39.227257 24685 net.cpp:228] Rconv7 <- Rconv6
I0812 18:38:39.227262 24685 net.cpp:189] Rconv7 -> Rconv7
I0812 18:38:39.227994 24685 net.cpp:84] Top shape: 12 256 27 27 (2239488)
I0812 18:38:39.227999 24685 net.cpp:111] Rconv7 needs backward computation.
I0812 18:38:39.228003 24685 net.cpp:65] Creating Layer Rrelu7
I0812 18:38:39.228024 24685 net.cpp:228] Rrelu7 <- Rconv7
I0812 18:38:39.228029 24685 net.cpp:179] Rrelu7 -> Rconv7 (in-place)
I0812 18:38:39.228034 24685 net.cpp:84] Top shape: 12 256 27 27 (2239488)
I0812 18:38:39.228036 24685 net.cpp:111] Rrelu7 needs backward computation.
I0812 18:38:39.228039 24685 net.cpp:65] Creating Layer Rconv8
I0812 18:38:39.228042 24685 net.cpp:228] Rconv8 <- Rconv7
I0812 18:38:39.228046 24685 net.cpp:189] Rconv8 -> Rconv8
I0812 18:38:39.228893 24685 net.cpp:84] Top shape: 12 256 27 27 (2239488)
I0812 18:38:39.228896 24685 net.cpp:111] Rconv8 needs backward computation.
I0812 18:38:39.228900 24685 net.cpp:65] Creating Layer Rrelu8
I0812 18:38:39.228904 24685 net.cpp:228] Rrelu8 <- Rconv8
I0812 18:38:39.228907 24685 net.cpp:179] Rrelu8 -> Rconv8 (in-place)
I0812 18:38:39.228911 24685 net.cpp:84] Top shape: 12 256 27 27 (2239488)
I0812 18:38:39.228914 24685 net.cpp:111] Rrelu8 needs backward computation.
I0812 18:38:39.228919 24685 net.cpp:65] Creating Layer deconv2
I0812 18:38:39.228920 24685 net.cpp:228] deconv2 <- Rconv8
I0812 18:38:39.228924 24685 net.cpp:189] deconv2 -> deconv2
I0812 18:38:39.230023 24685 net.cpp:84] Top shape: 12 64 54 54 (2239488)
I0812 18:38:39.230028 24685 net.cpp:111] deconv2 needs backward computation.
I0812 18:38:39.230032 24685 net.cpp:65] Creating Layer relu_deconv2
I0812 18:38:39.230036 24685 net.cpp:228] relu_deconv2 <- deconv2
I0812 18:38:39.230039 24685 net.cpp:179] relu_deconv2 -> deconv2 (in-place)
I0812 18:38:39.230044 24685 net.cpp:84] Top shape: 12 64 54 54 (2239488)
I0812 18:38:39.230047 24685 net.cpp:111] relu_deconv2 needs backward computation.
I0812 18:38:39.230051 24685 net.cpp:65] Creating Layer deconv1
I0812 18:38:39.230053 24685 net.cpp:228] deconv1 <- deconv2
I0812 18:38:39.230057 24685 net.cpp:189] deconv1 -> deconv1
I0812 18:38:39.230249 24685 net.cpp:84] Top shape: 12 32 108 108 (4478976)
I0812 18:38:39.230253 24685 net.cpp:111] deconv1 needs backward computation.
I0812 18:38:39.230258 24685 net.cpp:65] Creating Layer relu_deconv1
I0812 18:38:39.230262 24685 net.cpp:228] relu_deconv1 <- deconv1
I0812 18:38:39.230265 24685 net.cpp:179] relu_deconv1 -> deconv1 (in-place)
I0812 18:38:39.230269 24685 net.cpp:84] Top shape: 12 32 108 108 (4478976)
I0812 18:38:39.230273 24685 net.cpp:111] relu_deconv1 needs backward computation.
I0812 18:38:39.230278 24685 net.cpp:65] Creating Layer deconv0
I0812 18:38:39.230279 24685 net.cpp:228] deconv0 <- deconv1
I0812 18:38:39.230283 24685 net.cpp:189] deconv0 -> deconv0
I0812 18:38:39.230327 24685 net.cpp:84] Top shape: 12 3 216 216 (1679616)
I0812 18:38:39.230331 24685 net.cpp:111] deconv0 needs backward computation.
I0812 18:38:39.230334 24685 net.cpp:65] Creating Layer loss
I0812 18:38:39.230337 24685 net.cpp:228] loss <- deconv0
I0812 18:38:39.230340 24685 net.cpp:228] loss <- target_ims
I0812 18:38:39.230348 24685 net.cpp:111] loss needs backward computation.
I0812 18:38:39.230362 24685 net.cpp:238] Collecting Learning Rate and Weight Decay.
…
    source: "/scr/r6/tgebru/inverting_conv/caffe_invert_alexnet/data/siggraph/tiny_summer_val_lmdb"
    mean_file: "/scr/r6/tgebru/timnit_caffe/data/ilsvrc12/imagenet_mean.binaryproto"
    batch_size: 64
    crop_size: 227
    mirror: false
    backend: LMDB
  }
}
layers {
  top: "target_ims"
  name: "target_ims"
  type: DATA
  data_param {
    source: "/scr/r6/tgebru/inverting_conv/caffe_invert_alexnet/data/siggraph/tiny_winter_val_lmdb"
    mean_file: "/scr/r6/tgebru/timnit_caffe/data/ilsvrc12/imagenet_mean.binaryproto"
    batch_size: 64
    crop_size: 216
    mirror: false
    backend: LMDB
  }
}
layers {
  bottom: "source_ims"
  top: "conv1"
  name: "conv1"
  type: CONVOLUTION
  blobs_lr: 0
  blobs_lr: 0
  weight_decay: 1
  weight_decay: 0
  convolution_param {
    num_output: 96
    kernel_size: 11
    stride: 4
    weight_filler {
      type: "gaussian"
      std: 0.01
    }
    bias_filler {
      type: "constant"
      value: 0
    }
  }
}
layers {
  bottom: "conv1"
  top: "conv1"
  name: "relu1"
  type: RELU
}
layers {
  bottom: "conv1"
  top: "pool1"
  name: "pool1"
  type: POOLING
  pooling_param {
    pool: MAX
    kernel_size: 3
    stride: 2
  }
}
layers {
  bottom: "pool1"
  top: "norm1"
  name: "norm1"
  type: LRN
  lrn_param {
    local_size: 5
    alpha: 0.0001
    beta: 0.75
  }
}
layers {
  bottom: "norm1"
  top: "Rconv6"
  name: "Rconv6"
  type: CONVOLUTION
  blobs_lr: 0
  blobs_lr: 0
  weight_decay: 1
  weight_decay: 0
  convolution_param {
    num_output: 256
    pad: 1
    kernel_size: 3
  }
}
layers {
  bottom: "Rconv6"
  top: "Rconv6"
  name: "Rrelu6"
  type: RELU
}
layers {
  bottom: "Rconv6"
  top: "Rconv7"
  name: "Rconv7"
  type: CONVOLUTION
  blobs_lr: 0
  blobs_lr: 0
  weight_decay: 1
  weight_decay: 0
  convolution_param {
    num_output: 256
    pad: 1
    kernel_size: 3
    group: 2
  }
}
layers {
  bottom: "Rconv7"
  top: "Rconv7"
  name: "Rrelu7"
  type: RELU
}
layers {
  bottom: "Rconv7"
  top: "Rconv8"
  name: "Rconv8"
  type: CONVOLUTION
  blobs_lr: 0
  blobs_lr: 0
  weight_decay: 1
  weight_decay: 0
  convolution_param {
    num_output: 256
    pad: 1
    kernel_size: 3
    group: 2
  }
}
layers {
  bottom: "Rconv8"
  top: "Rconv8"
  name: "Rrelu8"
  type: RELU
}
layers {
  bottom: "Rconv8"
  top: "deconv2"
  name: "deconv2"
  type: DECONVOLUTION
  blobs_lr: 0
  blobs_lr: 0
  weight_decay: 1
  weight_decay: 0
  deconvolution_param {
    pad: 2
    kernel_size: 5
    stride: 2
    output_height: 54
    output_width: 54
    output_channels: 64
  }
}
layers {
  bottom: "deconv2"
  top: "deconv2"
  name: "relu_deconv2"
  type: RELU
  relu_param {
    negative_slope: 0.3
  }
}
layers {
  bottom: "deconv2"
  top: "deconv1"
  name: "deconv1"
  type: DECONVOLUTION
  blobs_lr: 0
  blobs_lr: 0
  weight_decay: 1
  weight_decay: 0
  deconvolution_param {
    pad: 2
    kernel_size: 5
    stride: 2
    output_height: 108
    output_width: 108
    output_channels: 32
  }
}
layers {
  bottom: "deconv1"
  top: "deconv1"
  name: "relu_deconv1"
  type: RELU
  relu_param {
    negative_slope: 0.3
  }
}
layers {
  bottom: "deconv1"
  top: "deconv0"
  name: "deconv0"
  type: DECONVOLUTION
  blobs_lr: 0
  blobs_lr: 0
  weight_decay: 1
  weight_decay: 0
  deconvolution_param {
    pad: 2
    kernel_size: 5
    stride: 2
    output_height: 216
    output_width: 216
    output_channels: 3
  }
}
layers {
  bottom: "deconv0"
  bottom: "target_ims"
  name: "loss"
  type: EUCLIDEAN_LOSS
}
I0812 18:38:39.231077 24685 net.cpp:65] Creating Layer source_ims
I0812 18:38:39.231083 24685 net.cpp:189] source_ims -> source_ims
I0812 18:38:39.231134 24685 data_layer.cpp:223] Opening lmdb /scr/r6/tgebru/inverting_conv/caffe_invert_alexnet/data/siggraph/tiny_summer_val_lmdb
I0812 18:38:39.231344 24685 data_layer.cpp:285] output data size: 64,3,227,227
I0812 18:38:39.231349 24685 data_layer.cpp:304] Loading mean file from/scr/r6/tgebru/timnit_caffe/data/ilsvrc12/imagenet_mean.binaryproto
I0812 18:38:39.245682 24685 net.cpp:84] Top shape: 64 3 227 227 (9893568)
I0812 18:38:39.245698 24685 net.cpp:116] source_ims does not need backward computation.
I0812 18:38:39.245709 24685 net.cpp:65] Creating Layer target_ims
I0812 18:38:39.245715 24685 net.cpp:189] target_ims -> target_ims
I0812 18:38:39.245805 24685 data_layer.cpp:223] Opening lmdb /scr/r6/tgebru/inverting_conv/caffe_invert_alexnet/data/siggraph/tiny_winter_val_lmdb
I0812 18:38:39.245923 24685 data_layer.cpp:285] output data size: 64,3,216,216
I0812 18:38:39.245928 24685 data_layer.cpp:304] Loading mean file from/scr/r6/tgebru/timnit_caffe/data/ilsvrc12/imagenet_mean.binaryproto
I0812 18:38:39.258640 24685 net.cpp:84] Top shape: 64 3 216 216 (8957952)
I0812 18:38:39.258685 24685 net.cpp:116] target_ims does not need backward computation.
I0812 18:38:39.258699 24685 net.cpp:65] Creating Layer conv1
I0812 18:38:39.258703 24685 net.cpp:228] conv1 <- source_ims
I0812 18:38:39.258712 24685 net.cpp:189] conv1 -> conv1
I0812 18:38:39.259973 24685 net.cpp:84] Top shape: 64 96 55 55 (18585600)
I0812 18:38:39.259976 24685 net.cpp:116] conv1 does not need backward computation.
I0812 18:38:39.259981 24685 net.cpp:65] Creating Layer relu1
I0812 18:38:39.259984 24685 net.cpp:228] relu1 <- conv1
I0812 18:38:39.259989 24685 net.cpp:179] relu1 -> conv1 (in-place)
I0812 18:38:39.259994 24685 net.cpp:84] Top shape: 64 96 55 55 (18585600)
I0812 18:38:39.259996 24685 net.cpp:116] relu1 does not need backward computation.
I0812 18:38:39.260001 24685 net.cpp:65] Creating Layer pool1
I0812 18:38:39.260004 24685 net.cpp:228] pool1 <- conv1
I0812 18:38:39.260010 24685 net.cpp:189] pool1 -> pool1
I0812 18:38:39.260016 24685 net.cpp:84] Top shape: 64 96 27 27 (4478976)
I0812 18:38:39.260018 24685 net.cpp:116] pool1 does not need backward computation.
I0812 18:38:39.260025 24685 net.cpp:65] Creating Layer norm1
I0812 18:38:39.260026 24685 net.cpp:228] norm1 <- pool1
I0812 18:38:39.260031 24685 net.cpp:189] norm1 -> norm1
I0812 18:38:39.260038 24685 net.cpp:84] Top shape: 64 96 27 27 (4478976)
I0812 18:38:39.260040 24685 net.cpp:116] norm1 does not need backward computation.
I0812 18:38:39.260046 24685 net.cpp:65] Creating Layer Rconv6
I0812 18:38:39.260048 24685 net.cpp:228] Rconv6 <- norm1
I0812 18:38:39.260052 24685 net.cpp:189] Rconv6 -> Rconv6
I0812 18:38:39.260287 24685 net.cpp:84] Top shape: 64 256 27 27 (11943936)
I0812 18:38:39.260290 24685 net.cpp:116] Rconv6 does not need backward computation.
I0812 18:38:39.260296 24685 net.cpp:65] Creating Layer Rrelu6
I0812 18:38:39.260299 24685 net.cpp:228] Rrelu6 <- Rconv6
I0812 18:38:39.260303 24685 net.cpp:179] Rrelu6 -> Rconv6 (in-place)
I0812 18:38:39.260308 24685 net.cpp:84] Top shape: 64 256 27 27 (11943936)
I0812 18:38:39.260310 24685 net.cpp:116] Rrelu6 does not need backward computation.
I0812 18:38:39.260316 24685 net.cpp:65] Creating Layer Rconv7
I0812 18:38:39.260318 24685 net.cpp:228] Rconv7 <- Rconv6
I0812 18:38:39.260324 24685 net.cpp:189] Rconv7 -> Rconv7
I0812 18:38:39.261124 24685 net.cpp:84] Top shape: 64 256 27 27 (11943936)
I0812 18:38:39.261129 24685 net.cpp:116] Rconv7 does not need backward computation.
I0812 18:38:39.261133 24685 net.cpp:65] Creating Layer Rrelu7
I0812 18:38:39.261135 24685 net.cpp:228] Rrelu7 <- Rconv7
I0812 18:38:39.261139 24685 net.cpp:179] Rrelu7 -> Rconv7 (in-place)
I0812 18:38:39.261144 24685 net.cpp:84] Top shape: 64 256 27 27 (11943936)
I0812 18:38:39.261147 24685 net.cpp:116] Rrelu7 does not need backward computation.
I0812 18:38:39.261150 24685 net.cpp:65] Creating Layer Rconv8
I0812 18:38:39.261152 24685 net.cpp:228] Rconv8 <- Rconv7
I0812 18:38:39.261157 24685 net.cpp:189] Rconv8 -> Rconv8
I0812 18:38:39.261951 24685 net.cpp:84] Top shape: 64 256 27 27 (11943936)
I0812 18:38:39.261956 24685 net.cpp:116] Rconv8 does not need backward computation.
I0812 18:38:39.261961 24685 net.cpp:65] Creating Layer Rrelu8
I0812 18:38:39.261965 24685 net.cpp:228] Rrelu8 <- Rconv8
I0812 18:38:39.261967 24685 net.cpp:179] Rrelu8 -> Rconv8 (in-place)
I0812 18:38:39.261972 24685 net.cpp:84] Top shape: 64 256 27 27 (11943936)
I0812 18:38:39.261975 24685 net.cpp:116] Rrelu8 does not need backward computation.
I0812 18:38:39.261981 24685 net.cpp:65] Creating Layer deconv2
I0812 18:38:39.261982 24685 net.cpp:228] deconv2 <- Rconv8
I0812 18:38:39.261986 24685 net.cpp:189] deconv2 -> deconv2
I0812 18:38:39.263067 24685 net.cpp:84] Top shape: 64 64 54 54 (11943936)
I0812 18:38:39.263072 24685 net.cpp:116] deconv2 does not need backward computation.
I0812 18:38:39.263077 24685 net.cpp:65] Creating Layer relu_deconv2
I0812 18:38:39.263079 24685 net.cpp:228] relu_deconv2 <- deconv2
I0812 18:38:39.263083 24685 net.cpp:179] relu_deconv2 -> deconv2 (in-place)
I0812 18:38:39.263088 24685 net.cpp:84] Top shape: 64 64 54 54 (11943936)
I0812 18:38:39.263103 24685 net.cpp:116] relu_deconv2 does not need backward computation.
I0812 18:38:39.263108 24685 net.cpp:65] Creating Layer deconv1
I0812 18:38:39.263110 24685 net.cpp:228] deconv1 <- deconv2
I0812 18:38:39.263114 24685 net.cpp:189] deconv1 -> deconv1
I0812 18:38:39.263272 24685 net.cpp:84] Top shape: 64 32 108 108 (23887872)
I0812 18:38:39.263275 24685 net.cpp:116] deconv1 does not need backward computation.
I0812 18:38:39.263279 24685 net.cpp:65] Creating Layer relu_deconv1
I0812 18:38:39.263283 24685 net.cpp:228] relu_deconv1 <- deconv1
I0812 18:38:39.263286 24685 net.cpp:179] relu_deconv1 -> deconv1 (in-place)
I0812 18:38:39.263290 24685 net.cpp:84] Top shape: 64 32 108 108 (23887872)
I0812 18:38:39.263293 24685 net.cpp:116] relu_deconv1 does not need backward computation.
I0812 18:38:39.263298 24685 net.cpp:65] Creating Layer deconv0
I0812 18:38:39.263300 24685 net.cpp:228] deconv0 <- deconv1
I0812 18:38:39.263304 24685 net.cpp:189] deconv0 -> deconv0
I0812 18:38:39.263327 24685 net.cpp:84] Top shape: 64 3 216 216 (8957952)
I0812 18:38:39.263331 24685 net.cpp:116] deconv0 does not need backward computation.
I0812 18:38:39.263335 24685 net.cpp:65] Creating Layer loss
I0812 18:38:39.263337 24685 net.cpp:228] loss <- deconv0
I0812 18:38:39.263341 24685 net.cpp:228] loss <- target_ims
I0812 18:38:39.263345 24685 net.cpp:116] loss does not need backward computation.
I0812 18:38:39.263357 24685 net.cpp:238] Collecting Learning Rate and Weight Decay.
…
