…
    source: "/scr/r6/tgebru/inverting_conv/caffe_invert_alexnet/data/siggraph/tiny_summer_train_lmdb"
    mean_file: "/scr/r6/tgebru/timnit_caffe/data/ilsvrc12/imagenet_mean.binaryproto"
    batch_size: 12
    crop_size: 227
    mirror: false
    backend: LMDB
  }
}
layers {
  top: "target_ims"
  name: "target_ims"
  type: DATA
  data_param {
    source: "/scr/r6/tgebru/inverting_conv/caffe_invert_alexnet/data/siggraph/tiny_summer_train_lmdb"
    mean_file: "/scr/r6/tgebru/timnit_caffe/data/ilsvrc12/imagenet_mean.binaryproto"
    batch_size: 12
    crop_size: 216
    mirror: false
    backend: LMDB
  }
}
layers {
  bottom: "source_ims"
  top: "conv1"
  name: "conv1"
  type: CONVOLUTION
  blobs_lr: 0
  blobs_lr: 0
  weight_decay: 1
  weight_decay: 0
  convolution_param {
    num_output: 96
    kernel_size: 11
    stride: 4
    weight_filler {
      type: "gaussian"
      std: 0.01
    }
    bias_filler {
      type: "constant"
      value: 0
    }
  }
}
layers {
  bottom: "conv1"
  top: "conv1"
  name: "relu1"
  type: RELU
}
layers {
  bottom: "conv1"
  top: "pool1"
  name: "pool1"
  type: POOLING
  pooling_param {
    pool: MAX
    kernel_size: 3
    stride: 2
  }
}
layers {
  bottom: "pool1"
  top: "norm1"
  name: "norm1"
  type: LRN
  lrn_param {
    local_size: 5
    alpha: 0.0001
    beta: 0.75
  }
}
layers {
  bottom: "norm1"
  top: "Rconv6"
  name: "Rconv6"
  type: CONVOLUTION
  blobs_lr: 1
  blobs_lr: 2
  weight_decay: 1
  weight_decay: 0
  convolution_param {
    num_output: 256
    pad: 1
    kernel_size: 3
  }
}
layers {
  bottom: "Rconv6"
  top: "Rconv6"
  name: "Rrelu6"
  type: RELU
}
layers {
  bottom: "Rconv6"
  top: "Rconv7"
  name: "Rconv7"
  type: CONVOLUTION
  blobs_lr: 1
  blobs_lr: 2
  weight_decay: 1
  weight_decay: 0
  convolution_param {
    num_output: 256
    pad: 1
    kernel_size: 3
    group: 2
  }
}
layers {
  bottom: "Rconv7"
  top: "Rconv7"
  name: "Rrelu7"
  type: RELU
}
layers {
  bottom: "Rconv7"
  top: "Rconv8"
  name: "Rconv8"
  type: CONVOLUTION
  blobs_lr: 1
  blobs_lr: 2
  weight_decay: 1
  weight_decay: 0
  convolution_param {
    num_output: 256
    pad: 1
    kernel_size: 3
    group: 2
  }
}
layers {
  bottom: "Rconv8"
  top: "Rconv8"
  name: "Rrelu8"
  type: RELU
}
layers {
  bottom: "Rconv8"
  top: "deconv2"
  name: "deconv2"
  type: DECONVOLUTION
  blobs_lr: 1
  blobs_lr: 2
  weight_decay: 1
  weight_decay: 0
  deconvolution_param {
    pad: 2
    kernel_size: 5
    stride: 2
    output_height: 54
    output_width: 54
    output_channels: 64
  }
}
layers {
  bottom: "deconv2"
  top: "deconv2"
  name: "relu_deconv2"
  type: RELU
  relu_param {
    negative_slope: 0.3
  }
}
layers {
  bottom: "deconv2"
  top: "deconv1"
  name: "deconv1"
  type: DECONVOLUTION
  blobs_lr: 1
  blobs_lr: 2
  weight_decay: 1
  weight_decay: 0
  deconvolution_param {
    pad: 2
    kernel_size: 5
    stride: 2
    output_height: 108
    output_width: 108
    output_channels: 32
  }
}
layers {
  bottom: "deconv1"
  top: "deconv1"
  name: "relu_deconv1"
  type: RELU
  relu_param {
    negative_slope: 0.3
  }
}
layers {
  bottom: "deconv1"
  top: "deconv0"
  name: "deconv0"
  type: DECONVOLUTION
  blobs_lr: 1
  blobs_lr: 2
  weight_decay: 1
  weight_decay: 1
  deconvolution_param {
    pad: 2
    kernel_size: 5
    stride: 2
    output_height: 216
    output_width: 216
    output_channels: 3
  }
}
layers {
  bottom: "deconv0"
  bottom: "target_ims"
  name: "loss"
  type: EUCLIDEAN_LOSS
}
I0812 20:36:19.394141  1432 net.cpp:65] Creating Layer source_ims
I0812 20:36:19.394150  1432 net.cpp:189] source_ims -> source_ims
I0812 20:36:19.394253  1432 data_layer.cpp:223] Opening lmdb /scr/r6/tgebru/inverting_conv/caffe_invert_alexnet/data/siggraph/tiny_summer_train_lmdb
I0812 20:36:19.394459  1432 data_layer.cpp:285] output data size: 12,3,227,227
I0812 20:36:19.394466  1432 data_layer.cpp:304] Loading mean file from/scr/r6/tgebru/timnit_caffe/data/ilsvrc12/imagenet_mean.binaryproto
I0812 20:36:19.399191  1432 net.cpp:84] Top shape: 12 3 227 227 (1855044)
I0812 20:36:19.399199  1432 net.cpp:116] source_ims does not need backward computation.
I0812 20:36:19.399206  1432 net.cpp:65] Creating Layer target_ims
I0812 20:36:19.399211  1432 net.cpp:189] target_ims -> target_ims
I0812 20:36:19.399390  1432 data_layer.cpp:223] Opening lmdb /scr/r6/tgebru/inverting_conv/caffe_invert_alexnet/data/siggraph/tiny_summer_train_lmdb
I0812 20:36:19.399535  1432 data_layer.cpp:285] output data size: 12,3,216,216
I0812 20:36:19.399540  1432 data_layer.cpp:304] Loading mean file from/scr/r6/tgebru/timnit_caffe/data/ilsvrc12/imagenet_mean.binaryproto
I0812 20:36:19.403970  1432 net.cpp:84] Top shape: 12 3 216 216 (1679616)
I0812 20:36:19.403977  1432 net.cpp:116] target_ims does not need backward computation.
I0812 20:36:19.403990  1432 net.cpp:65] Creating Layer conv1
I0812 20:36:19.403993  1432 net.cpp:228] conv1 <- source_ims
I0812 20:36:19.404084  1432 net.cpp:189] conv1 -> conv1
I0812 20:36:19.405441  1432 net.cpp:84] Top shape: 12 96 55 55 (3484800)
I0812 20:36:19.405447  1432 net.cpp:116] conv1 does not need backward computation.
I0812 20:36:19.405452  1432 net.cpp:65] Creating Layer relu1
I0812 20:36:19.405454  1432 net.cpp:228] relu1 <- conv1
I0812 20:36:19.405459  1432 net.cpp:179] relu1 -> conv1 (in-place)
I0812 20:36:19.405468  1432 net.cpp:84] Top shape: 12 96 55 55 (3484800)
I0812 20:36:19.405472  1432 net.cpp:116] relu1 does not need backward computation.
I0812 20:36:19.405477  1432 net.cpp:65] Creating Layer pool1
I0812 20:36:19.405479  1432 net.cpp:228] pool1 <- conv1
I0812 20:36:19.405484  1432 net.cpp:189] pool1 -> pool1
I0812 20:36:19.405496  1432 net.cpp:84] Top shape: 12 96 27 27 (839808)
I0812 20:36:19.405499  1432 net.cpp:116] pool1 does not need backward computation.
I0812 20:36:19.405504  1432 net.cpp:65] Creating Layer norm1
I0812 20:36:19.405508  1432 net.cpp:228] norm1 <- pool1
I0812 20:36:19.405511  1432 net.cpp:189] norm1 -> norm1
I0812 20:36:19.405520  1432 net.cpp:84] Top shape: 12 96 27 27 (839808)
I0812 20:36:19.405524  1432 net.cpp:116] norm1 does not need backward computation.
I0812 20:36:19.405529  1432 net.cpp:65] Creating Layer Rconv6
I0812 20:36:19.405531  1432 net.cpp:228] Rconv6 <- norm1
I0812 20:36:19.405535  1432 net.cpp:189] Rconv6 -> Rconv6
I0812 20:36:19.405794  1432 net.cpp:84] Top shape: 12 256 27 27 (2239488)
I0812 20:36:19.405799  1432 net.cpp:111] Rconv6 needs backward computation.
I0812 20:36:19.405803  1432 net.cpp:65] Creating Layer Rrelu6
I0812 20:36:19.405807  1432 net.cpp:228] Rrelu6 <- Rconv6
I0812 20:36:19.405812  1432 net.cpp:179] Rrelu6 -> Rconv6 (in-place)
I0812 20:36:19.405815  1432 net.cpp:84] Top shape: 12 256 27 27 (2239488)
I0812 20:36:19.405818  1432 net.cpp:111] Rrelu6 needs backward computation.
I0812 20:36:19.405823  1432 net.cpp:65] Creating Layer Rconv7
I0812 20:36:19.405827  1432 net.cpp:228] Rconv7 <- Rconv6
I0812 20:36:19.405830  1432 net.cpp:189] Rconv7 -> Rconv7
I0812 20:36:19.406565  1432 net.cpp:84] Top shape: 12 256 27 27 (2239488)
I0812 20:36:19.406570  1432 net.cpp:111] Rconv7 needs backward computation.
I0812 20:36:19.406574  1432 net.cpp:65] Creating Layer Rrelu7
I0812 20:36:19.406577  1432 net.cpp:228] Rrelu7 <- Rconv7
I0812 20:36:19.406606  1432 net.cpp:179] Rrelu7 -> Rconv7 (in-place)
I0812 20:36:19.406611  1432 net.cpp:84] Top shape: 12 256 27 27 (2239488)
I0812 20:36:19.406615  1432 net.cpp:111] Rrelu7 needs backward computation.
I0812 20:36:19.406618  1432 net.cpp:65] Creating Layer Rconv8
I0812 20:36:19.406621  1432 net.cpp:228] Rconv8 <- Rconv7
I0812 20:36:19.406625  1432 net.cpp:189] Rconv8 -> Rconv8
I0812 20:36:19.407418  1432 net.cpp:84] Top shape: 12 256 27 27 (2239488)
I0812 20:36:19.407421  1432 net.cpp:111] Rconv8 needs backward computation.
I0812 20:36:19.407425  1432 net.cpp:65] Creating Layer Rrelu8
I0812 20:36:19.407428  1432 net.cpp:228] Rrelu8 <- Rconv8
I0812 20:36:19.407433  1432 net.cpp:179] Rrelu8 -> Rconv8 (in-place)
I0812 20:36:19.407436  1432 net.cpp:84] Top shape: 12 256 27 27 (2239488)
I0812 20:36:19.407439  1432 net.cpp:111] Rrelu8 needs backward computation.
I0812 20:36:19.407443  1432 net.cpp:65] Creating Layer deconv2
I0812 20:36:19.407445  1432 net.cpp:228] deconv2 <- Rconv8
I0812 20:36:19.407449  1432 net.cpp:189] deconv2 -> deconv2
I0812 20:36:19.408550  1432 net.cpp:84] Top shape: 12 64 54 54 (2239488)
I0812 20:36:19.408555  1432 net.cpp:111] deconv2 needs backward computation.
I0812 20:36:19.408560  1432 net.cpp:65] Creating Layer relu_deconv2
I0812 20:36:19.408562  1432 net.cpp:228] relu_deconv2 <- deconv2
I0812 20:36:19.408566  1432 net.cpp:179] relu_deconv2 -> deconv2 (in-place)
I0812 20:36:19.408571  1432 net.cpp:84] Top shape: 12 64 54 54 (2239488)
I0812 20:36:19.408573  1432 net.cpp:111] relu_deconv2 needs backward computation.
I0812 20:36:19.408576  1432 net.cpp:65] Creating Layer deconv1
I0812 20:36:19.408579  1432 net.cpp:228] deconv1 <- deconv2
I0812 20:36:19.408583  1432 net.cpp:189] deconv1 -> deconv1
I0812 20:36:19.408764  1432 net.cpp:84] Top shape: 12 32 108 108 (4478976)
I0812 20:36:19.408769  1432 net.cpp:111] deconv1 needs backward computation.
I0812 20:36:19.408773  1432 net.cpp:65] Creating Layer relu_deconv1
I0812 20:36:19.408776  1432 net.cpp:228] relu_deconv1 <- deconv1
I0812 20:36:19.408781  1432 net.cpp:179] relu_deconv1 -> deconv1 (in-place)
I0812 20:36:19.408785  1432 net.cpp:84] Top shape: 12 32 108 108 (4478976)
I0812 20:36:19.408787  1432 net.cpp:111] relu_deconv1 needs backward computation.
I0812 20:36:19.408793  1432 net.cpp:65] Creating Layer deconv0
I0812 20:36:19.408795  1432 net.cpp:228] deconv0 <- deconv1
I0812 20:36:19.408799  1432 net.cpp:189] deconv0 -> deconv0
I0812 20:36:19.408848  1432 net.cpp:84] Top shape: 12 3 216 216 (1679616)
I0812 20:36:19.408851  1432 net.cpp:111] deconv0 needs backward computation.
I0812 20:36:19.408854  1432 net.cpp:65] Creating Layer loss
I0812 20:36:19.408857  1432 net.cpp:228] loss <- deconv0
I0812 20:36:19.408860  1432 net.cpp:228] loss <- target_ims
I0812 20:36:19.408869  1432 net.cpp:111] loss needs backward computation.
I0812 20:36:19.408881  1432 net.cpp:238] Collecting Learning Rate and Weight Decay.
…
    source: "/scr/r6/tgebru/inverting_conv/caffe_invert_alexnet/data/siggraph/tiny_summer_val_lmdb"
    mean_file: "/scr/r6/tgebru/timnit_caffe/data/ilsvrc12/imagenet_mean.binaryproto"
    batch_size: 2
    crop_size: 227
    mirror: false
    backend: LMDB
  }
}
layers {
  top: "target_ims"
  name: "target_ims"
  type: DATA
  data_param {
    source: "/scr/r6/tgebru/inverting_conv/caffe_invert_alexnet/data/siggraph/tiny_summer_val_lmdb"
    mean_file: "/scr/r6/tgebru/timnit_caffe/data/ilsvrc12/imagenet_mean.binaryproto"
    batch_size: 2
    crop_size: 216
    mirror: false
    backend: LMDB
  }
}
layers {
  bottom: "source_ims"
  top: "conv1"
  name: "conv1"
  type: CONVOLUTION
  blobs_lr: 0
  blobs_lr: 0
  weight_decay: 1
  weight_decay: 0
  convolution_param {
    num_output: 96
    kernel_size: 11
    stride: 4
    weight_filler {
      type: "gaussian"
      std: 0.01
    }
    bias_filler {
      type: "constant"
      value: 0
    }
  }
}
layers {
  bottom: "conv1"
  top: "conv1"
  name: "relu1"
  type: RELU
}
layers {
  bottom: "conv1"
  top: "pool1"
  name: "pool1"
  type: POOLING
  pooling_param {
    pool: MAX
    kernel_size: 3
    stride: 2
  }
}
layers {
  bottom: "pool1"
  top: "norm1"
  name: "norm1"
  type: LRN
  lrn_param {
    local_size: 5
    alpha: 0.0001
    beta: 0.75
  }
}
layers {
  bottom: "norm1"
  top: "Rconv6"
  name: "Rconv6"
  type: CONVOLUTION
  blobs_lr: 0
  blobs_lr: 0
  weight_decay: 1
  weight_decay: 0
  convolution_param {
    num_output: 256
    pad: 1
    kernel_size: 3
  }
}
layers {
  bottom: "Rconv6"
  top: "Rconv6"
  name: "Rrelu6"
  type: RELU
}
layers {
  bottom: "Rconv6"
  top: "Rconv7"
  name: "Rconv7"
  type: CONVOLUTION
  blobs_lr: 0
  blobs_lr: 0
  weight_decay: 1
  weight_decay: 0
  convolution_param {
    num_output: 256
    pad: 1
    kernel_size: 3
    group: 2
  }
}
layers {
  bottom: "Rconv7"
  top: "Rconv7"
  name: "Rrelu7"
  type: RELU
}
layers {
  bottom: "Rconv7"
  top: "Rconv8"
  name: "Rconv8"
  type: CONVOLUTION
  blobs_lr: 0
  blobs_lr: 0
  weight_decay: 1
  weight_decay: 0
  convolution_param {
    num_output: 256
    pad: 1
    kernel_size: 3
    group: 2
  }
}
layers {
  bottom: "Rconv8"
  top: "Rconv8"
  name: "Rrelu8"
  type: RELU
}
layers {
  bottom: "Rconv8"
  top: "deconv2"
  name: "deconv2"
  type: DECONVOLUTION
  blobs_lr: 0
  blobs_lr: 0
  weight_decay: 1
  weight_decay: 0
  deconvolution_param {
    pad: 2
    kernel_size: 5
    stride: 2
    output_height: 54
    output_width: 54
    output_channels: 64
  }
}
layers {
  bottom: "deconv2"
  top: "deconv2"
  name: "relu_deconv2"
  type: RELU
  relu_param {
    negative_slope: 0.3
  }
}
layers {
  bottom: "deconv2"
  top: "deconv1"
  name: "deconv1"
  type: DECONVOLUTION
  blobs_lr: 0
  blobs_lr: 0
  weight_decay: 1
  weight_decay: 0
  deconvolution_param {
    pad: 2
    kernel_size: 5
    stride: 2
    output_height: 108
    output_width: 108
    output_channels: 32
  }
}
layers {
  bottom: "deconv1"
  top: "deconv1"
  name: "relu_deconv1"
  type: RELU
  relu_param {
    negative_slope: 0.3
  }
}
layers {
  bottom: "deconv1"
  top: "deconv0"
  name: "deconv0"
  type: DECONVOLUTION
  blobs_lr: 0
  blobs_lr: 0
  weight_decay: 1
  weight_decay: 0
  deconvolution_param {
    pad: 2
    kernel_size: 5
    stride: 2
    output_height: 216
    output_width: 216
    output_channels: 3
  }
}
layers {
  bottom: "deconv0"
  bottom: "target_ims"
  name: "loss"
  type: EUCLIDEAN_LOSS
}
I0812 20:36:19.409616  1432 net.cpp:65] Creating Layer source_ims
I0812 20:36:19.409622  1432 net.cpp:189] source_ims -> source_ims
I0812 20:36:19.409680  1432 data_layer.cpp:223] Opening lmdb /scr/r6/tgebru/inverting_conv/caffe_invert_alexnet/data/siggraph/tiny_summer_val_lmdb
I0812 20:36:19.409888  1432 data_layer.cpp:285] output data size: 2,3,227,227
I0812 20:36:19.409893  1432 data_layer.cpp:304] Loading mean file from/scr/r6/tgebru/timnit_caffe/data/ilsvrc12/imagenet_mean.binaryproto
I0812 20:36:19.412772  1432 net.cpp:84] Top shape: 2 3 227 227 (309174)
I0812 20:36:19.412780  1432 net.cpp:116] source_ims does not need backward computation.
I0812 20:36:19.412786  1432 net.cpp:65] Creating Layer target_ims
I0812 20:36:19.412791  1432 net.cpp:189] target_ims -> target_ims
I0812 20:36:19.412837  1432 data_layer.cpp:223] Opening lmdb /scr/r6/tgebru/inverting_conv/caffe_invert_alexnet/data/siggraph/tiny_summer_val_lmdb
I0812 20:36:19.413015  1432 data_layer.cpp:285] output data size: 2,3,216,216
I0812 20:36:19.413020  1432 data_layer.cpp:304] Loading mean file from/scr/r6/tgebru/timnit_caffe/data/ilsvrc12/imagenet_mean.binaryproto
I0812 20:36:19.415366  1432 net.cpp:84] Top shape: 2 3 216 216 (279936)
I0812 20:36:19.415374  1432 net.cpp:116] target_ims does not need backward computation.
I0812 20:36:19.415395  1432 net.cpp:65] Creating Layer conv1
I0812 20:36:19.415398  1432 net.cpp:228] conv1 <- source_ims
I0812 20:36:19.415405  1432 net.cpp:189] conv1 -> conv1
I0812 20:36:19.416647  1432 net.cpp:84] Top shape: 2 96 55 55 (580800)
I0812 20:36:19.416651  1432 net.cpp:116] conv1 does not need backward computation.
I0812 20:36:19.416656  1432 net.cpp:65] Creating Layer relu1
I0812 20:36:19.416658  1432 net.cpp:228] relu1 <- conv1
I0812 20:36:19.416662  1432 net.cpp:179] relu1 -> conv1 (in-place)
I0812 20:36:19.416667  1432 net.cpp:84] Top shape: 2 96 55 55 (580800)
I0812 20:36:19.416671  1432 net.cpp:116] relu1 does not need backward computation.
I0812 20:36:19.416674  1432 net.cpp:65] Creating Layer pool1
I0812 20:36:19.416677  1432 net.cpp:228] pool1 <- conv1
I0812 20:36:19.416682  1432 net.cpp:189] pool1 -> pool1
I0812 20:36:19.416687  1432 net.cpp:84] Top shape: 2 96 27 27 (139968)
I0812 20:36:19.416690  1432 net.cpp:116] pool1 does not need backward computation.
I0812 20:36:19.416694  1432 net.cpp:65] Creating Layer norm1
I0812 20:36:19.416697  1432 net.cpp:228] norm1 <- pool1
I0812 20:36:19.416700  1432 net.cpp:189] norm1 -> norm1
I0812 20:36:19.416707  1432 net.cpp:84] Top shape: 2 96 27 27 (139968)
I0812 20:36:19.416709  1432 net.cpp:116] norm1 does not need backward computation.
I0812 20:36:19.416712  1432 net.cpp:65] Creating Layer Rconv6
I0812 20:36:19.416715  1432 net.cpp:228] Rconv6 <- norm1
I0812 20:36:19.416719  1432 net.cpp:189] Rconv6 -> Rconv6
I0812 20:36:19.417304  1432 net.cpp:84] Top shape: 2 256 27 27 (373248)
I0812 20:36:19.417309  1432 net.cpp:116] Rconv6 does not need backward computation.
I0812 20:36:19.417314  1432 net.cpp:65] Creating Layer Rrelu6
I0812 20:36:19.417316  1432 net.cpp:228] Rrelu6 <- Rconv6
I0812 20:36:19.417320  1432 net.cpp:179] Rrelu6 -> Rconv6 (in-place)
I0812 20:36:19.417325  1432 net.cpp:84] Top shape: 2 256 27 27 (373248)
I0812 20:36:19.417328  1432 net.cpp:116] Rrelu6 does not need backward computation.
I0812 20:36:19.417332  1432 net.cpp:65] Creating Layer Rconv7
I0812 20:36:19.417335  1432 net.cpp:228] Rconv7 <- Rconv6
I0812 20:36:19.417340  1432 net.cpp:189] Rconv7 -> Rconv7
I0812 20:36:19.418156  1432 net.cpp:84] Top shape: 2 256 27 27 (373248)
I0812 20:36:19.418160  1432 net.cpp:116] Rconv7 does not need backward computation.
I0812 20:36:19.418164  1432 net.cpp:65] Creating Layer Rrelu7
I0812 20:36:19.418167  1432 net.cpp:228] Rrelu7 <- Rconv7
I0812 20:36:19.418171  1432 net.cpp:179] Rrelu7 -> Rconv7 (in-place)
I0812 20:36:19.418175  1432 net.cpp:84] Top shape: 2 256 27 27 (373248)
I0812 20:36:19.418177  1432 net.cpp:116] Rrelu7 does not need backward computation.
I0812 20:36:19.418181  1432 net.cpp:65] Creating Layer Rconv8
I0812 20:36:19.418184  1432 net.cpp:228] Rconv8 <- Rconv7
I0812 20:36:19.418187  1432 net.cpp:189] Rconv8 -> Rconv8
I0812 20:36:19.418951  1432 net.cpp:84] Top shape: 2 256 27 27 (373248)
I0812 20:36:19.418954  1432 net.cpp:116] Rconv8 does not need backward computation.
I0812 20:36:19.418958  1432 net.cpp:65] Creating Layer Rrelu8
I0812 20:36:19.418961  1432 net.cpp:228] Rrelu8 <- Rconv8
I0812 20:36:19.418964  1432 net.cpp:179] Rrelu8 -> Rconv8 (in-place)
I0812 20:36:19.418968  1432 net.cpp:84] Top shape: 2 256 27 27 (373248)
I0812 20:36:19.418972  1432 net.cpp:116] Rrelu8 does not need backward computation.
I0812 20:36:19.418975  1432 net.cpp:65] Creating Layer deconv2
I0812 20:36:19.418978  1432 net.cpp:228] deconv2 <- Rconv8
I0812 20:36:19.418982  1432 net.cpp:189] deconv2 -> deconv2
I0812 20:36:19.420039  1432 net.cpp:84] Top shape: 2 64 54 54 (373248)
I0812 20:36:19.420044  1432 net.cpp:116] deconv2 does not need backward computation.
I0812 20:36:19.420048  1432 net.cpp:65] Creating Layer relu_deconv2
I0812 20:36:19.420052  1432 net.cpp:228] relu_deconv2 <- deconv2
I0812 20:36:19.420055  1432 net.cpp:179] relu_deconv2 -> deconv2 (in-place)
I0812 20:36:19.420060  1432 net.cpp:84] Top shape: 2 64 54 54 (373248)
I0812 20:36:19.420063  1432 net.cpp:116] relu_deconv2 does not need backward computation.
I0812 20:36:19.420078  1432 net.cpp:65] Creating Layer deconv1
I0812 20:36:19.420081  1432 net.cpp:228] deconv1 <- deconv2
I0812 20:36:19.420085  1432 net.cpp:189] deconv1 -> deconv1
I0812 20:36:19.420228  1432 net.cpp:84] Top shape: 2 32 108 108 (746496)
I0812 20:36:19.420231  1432 net.cpp:116] deconv1 does not need backward computation.
I0812 20:36:19.420235  1432 net.cpp:65] Creating Layer relu_deconv1
I0812 20:36:19.420238  1432 net.cpp:228] relu_deconv1 <- deconv1
I0812 20:36:19.420241  1432 net.cpp:179] relu_deconv1 -> deconv1 (in-place)
I0812 20:36:19.420245  1432 net.cpp:84] Top shape: 2 32 108 108 (746496)
I0812 20:36:19.420248  1432 net.cpp:116] relu_deconv1 does not need backward computation.
I0812 20:36:19.420253  1432 net.cpp:65] Creating Layer deconv0
I0812 20:36:19.420255  1432 net.cpp:228] deconv0 <- deconv1
I0812 20:36:19.420259  1432 net.cpp:189] deconv0 -> deconv0
I0812 20:36:19.420276  1432 net.cpp:84] Top shape: 2 3 216 216 (279936)
I0812 20:36:19.420280  1432 net.cpp:116] deconv0 does not need backward computation.
I0812 20:36:19.420284  1432 net.cpp:65] Creating Layer loss
I0812 20:36:19.420286  1432 net.cpp:228] loss <- deconv0
I0812 20:36:19.420289  1432 net.cpp:228] loss <- target_ims
I0812 20:36:19.420295  1432 net.cpp:116] loss does not need backward computation.
I0812 20:36:19.420305  1432 net.cpp:238] Collecting Learning Rate and Weight Decay.
…
