…
    source: "/scr/r6/tgebru/inverting_conv/caffe_invert_alexnet/data/siggraph/tiny_summer_train_lmdb"
    mean_file: "/scr/r6/tgebru/timnit_caffe/data/ilsvrc12/imagenet_mean.binaryproto"
    batch_size: 12
    crop_size: 227
    mirror: false
    backend: LMDB
  }
}
layers {
  top: "target_ims"
  name: "target_ims"
  type: DATA
  data_param {
    source: "/scr/r6/tgebru/inverting_conv/caffe_invert_alexnet/data/siggraph/tiny_winter_train_lmdb"
    mean_file: "/scr/r6/tgebru/timnit_caffe/data/ilsvrc12/imagenet_mean.binaryproto"
    batch_size: 12
    crop_size: 216
    mirror: false
    backend: LMDB
  }
}
layers {
  bottom: "source_ims"
  top: "conv1"
  name: "conv1"
  type: CONVOLUTION
  blobs_lr: 0
  blobs_lr: 0
  weight_decay: 1
  weight_decay: 0
  convolution_param {
    num_output: 96
    kernel_size: 11
    stride: 4
    weight_filler {
      type: "gaussian"
      std: 0.01
    }
    bias_filler {
      type: "constant"
      value: 0
    }
  }
}
layers {
  bottom: "conv1"
  top: "conv1"
  name: "relu1"
  type: RELU
}
layers {
  bottom: "conv1"
  top: "pool1"
  name: "pool1"
  type: POOLING
  pooling_param {
    pool: MAX
    kernel_size: 3
    stride: 2
  }
}
layers {
  bottom: "pool1"
  top: "norm1"
  name: "norm1"
  type: LRN
  lrn_param {
    local_size: 5
    alpha: 0.0001
    beta: 0.75
  }
}
layers {
  bottom: "norm1"
  top: "Rconv6"
  name: "Rconv6"
  type: CONVOLUTION
  blobs_lr: 1
  blobs_lr: 2
  weight_decay: 1
  weight_decay: 0
  convolution_param {
    num_output: 256
    pad: 1
    kernel_size: 3
  }
}
layers {
  bottom: "Rconv6"
  top: "Rconv6"
  name: "Rrelu6"
  type: RELU
}
layers {
  bottom: "Rconv6"
  top: "Rconv7"
  name: "Rconv7"
  type: CONVOLUTION
  blobs_lr: 1
  blobs_lr: 2
  weight_decay: 1
  weight_decay: 0
  convolution_param {
    num_output: 256
    pad: 1
    kernel_size: 3
    group: 2
  }
}
layers {
  bottom: "Rconv7"
  top: "Rconv7"
  name: "Rrelu7"
  type: RELU
}
layers {
  bottom: "Rconv7"
  top: "Rconv8"
  name: "Rconv8"
  type: CONVOLUTION
  blobs_lr: 1
  blobs_lr: 2
  weight_decay: 1
  weight_decay: 0
  convolution_param {
    num_output: 256
    pad: 1
    kernel_size: 3
    group: 2
  }
}
layers {
  bottom: "Rconv8"
  top: "Rconv8"
  name: "Rrelu8"
  type: RELU
}
layers {
  bottom: "Rconv8"
  top: "deconv2"
  name: "deconv2"
  type: DECONVOLUTION
  blobs_lr: 1
  blobs_lr: 2
  weight_decay: 1
  weight_decay: 0
  deconvolution_param {
    pad: 2
    kernel_size: 5
    stride: 2
    output_height: 54
    output_width: 54
    output_channels: 64
  }
}
layers {
  bottom: "deconv2"
  top: "deconv2"
  name: "relu_deconv2"
  type: RELU
  relu_param {
    negative_slope: 0.3
  }
}
layers {
  bottom: "deconv2"
  top: "deconv1"
  name: "deconv1"
  type: DECONVOLUTION
  blobs_lr: 1
  blobs_lr: 2
  weight_decay: 1
  weight_decay: 0
  deconvolution_param {
    pad: 2
    kernel_size: 5
    stride: 2
    output_height: 108
    output_width: 108
    output_channels: 32
  }
}
layers {
  bottom: "deconv1"
  top: "deconv1"
  name: "relu_deconv1"
  type: RELU
  relu_param {
    negative_slope: 0.3
  }
}
layers {
  bottom: "deconv1"
  top: "deconv0"
  name: "deconv0"
  type: DECONVOLUTION
  blobs_lr: 1
  blobs_lr: 2
  weight_decay: 1
  weight_decay: 1
  deconvolution_param {
    pad: 2
    kernel_size: 5
    stride: 2
    output_height: 216
    output_width: 216
    output_channels: 3
  }
}
layers {
  bottom: "deconv0"
  bottom: "target_ims"
  name: "loss"
  type: EUCLIDEAN_LOSS
}
I0813 10:51:40.781870  5301 net.cpp:65] Creating Layer source_ims
I0813 10:51:40.781879  5301 net.cpp:189] source_ims -> source_ims
I0813 10:51:40.781981  5301 data_layer.cpp:223] Opening lmdb /scr/r6/tgebru/inverting_conv/caffe_invert_alexnet/data/siggraph/tiny_summer_train_lmdb
I0813 10:51:40.782183  5301 data_layer.cpp:285] output data size: 12,3,227,227
I0813 10:51:40.782191  5301 data_layer.cpp:304] Loading mean file from/scr/r6/tgebru/timnit_caffe/data/ilsvrc12/imagenet_mean.binaryproto
I0813 10:51:40.787237  5301 net.cpp:84] Top shape: 12 3 227 227 (1855044)
I0813 10:51:40.787245  5301 net.cpp:116] source_ims does not need backward computation.
I0813 10:51:40.787251  5301 net.cpp:65] Creating Layer target_ims
I0813 10:51:40.787256  5301 net.cpp:189] target_ims -> target_ims
I0813 10:51:40.787426  5301 data_layer.cpp:223] Opening lmdb /scr/r6/tgebru/inverting_conv/caffe_invert_alexnet/data/siggraph/tiny_winter_train_lmdb
I0813 10:51:40.787581  5301 data_layer.cpp:285] output data size: 12,3,216,216
I0813 10:51:40.787586  5301 data_layer.cpp:304] Loading mean file from/scr/r6/tgebru/timnit_caffe/data/ilsvrc12/imagenet_mean.binaryproto
I0813 10:51:40.791995  5301 net.cpp:84] Top shape: 12 3 216 216 (1679616)
I0813 10:51:40.792003  5301 net.cpp:116] target_ims does not need backward computation.
I0813 10:51:40.792017  5301 net.cpp:65] Creating Layer conv1
I0813 10:51:40.792021  5301 net.cpp:228] conv1 <- source_ims
I0813 10:51:40.792088  5301 net.cpp:189] conv1 -> conv1
I0813 10:51:40.793375  5301 net.cpp:84] Top shape: 12 96 55 55 (3484800)
I0813 10:51:40.793380  5301 net.cpp:116] conv1 does not need backward computation.
I0813 10:51:40.793385  5301 net.cpp:65] Creating Layer relu1
I0813 10:51:40.793390  5301 net.cpp:228] relu1 <- conv1
I0813 10:51:40.793393  5301 net.cpp:179] relu1 -> conv1 (in-place)
I0813 10:51:40.793402  5301 net.cpp:84] Top shape: 12 96 55 55 (3484800)
I0813 10:51:40.793406  5301 net.cpp:116] relu1 does not need backward computation.
I0813 10:51:40.793411  5301 net.cpp:65] Creating Layer pool1
I0813 10:51:40.793413  5301 net.cpp:228] pool1 <- conv1
I0813 10:51:40.793427  5301 net.cpp:189] pool1 -> pool1
I0813 10:51:40.793440  5301 net.cpp:84] Top shape: 12 96 27 27 (839808)
I0813 10:51:40.793443  5301 net.cpp:116] pool1 does not need backward computation.
I0813 10:51:40.793448  5301 net.cpp:65] Creating Layer norm1
I0813 10:51:40.793452  5301 net.cpp:228] norm1 <- pool1
I0813 10:51:40.793455  5301 net.cpp:189] norm1 -> norm1
I0813 10:51:40.793464  5301 net.cpp:84] Top shape: 12 96 27 27 (839808)
I0813 10:51:40.793467  5301 net.cpp:116] norm1 does not need backward computation.
I0813 10:51:40.793472  5301 net.cpp:65] Creating Layer Rconv6
I0813 10:51:40.793474  5301 net.cpp:228] Rconv6 <- norm1
I0813 10:51:40.793479  5301 net.cpp:189] Rconv6 -> Rconv6
I0813 10:51:40.793736  5301 net.cpp:84] Top shape: 12 256 27 27 (2239488)
I0813 10:51:40.793740  5301 net.cpp:111] Rconv6 needs backward computation.
I0813 10:51:40.793745  5301 net.cpp:65] Creating Layer Rrelu6
I0813 10:51:40.793748  5301 net.cpp:228] Rrelu6 <- Rconv6
I0813 10:51:40.793753  5301 net.cpp:179] Rrelu6 -> Rconv6 (in-place)
I0813 10:51:40.793757  5301 net.cpp:84] Top shape: 12 256 27 27 (2239488)
I0813 10:51:40.793761  5301 net.cpp:111] Rrelu6 needs backward computation.
I0813 10:51:40.793766  5301 net.cpp:65] Creating Layer Rconv7
I0813 10:51:40.793768  5301 net.cpp:228] Rconv7 <- Rconv6
I0813 10:51:40.793772  5301 net.cpp:189] Rconv7 -> Rconv7
I0813 10:51:40.794491  5301 net.cpp:84] Top shape: 12 256 27 27 (2239488)
I0813 10:51:40.794495  5301 net.cpp:111] Rconv7 needs backward computation.
I0813 10:51:40.794500  5301 net.cpp:65] Creating Layer Rrelu7
I0813 10:51:40.794523  5301 net.cpp:228] Rrelu7 <- Rconv7
I0813 10:51:40.794528  5301 net.cpp:179] Rrelu7 -> Rconv7 (in-place)
I0813 10:51:40.794533  5301 net.cpp:84] Top shape: 12 256 27 27 (2239488)
I0813 10:51:40.794535  5301 net.cpp:111] Rrelu7 needs backward computation.
I0813 10:51:40.794539  5301 net.cpp:65] Creating Layer Rconv8
I0813 10:51:40.794541  5301 net.cpp:228] Rconv8 <- Rconv7
I0813 10:51:40.794545  5301 net.cpp:189] Rconv8 -> Rconv8
I0813 10:51:40.795362  5301 net.cpp:84] Top shape: 12 256 27 27 (2239488)
I0813 10:51:40.795367  5301 net.cpp:111] Rconv8 needs backward computation.
I0813 10:51:40.795372  5301 net.cpp:65] Creating Layer Rrelu8
I0813 10:51:40.795374  5301 net.cpp:228] Rrelu8 <- Rconv8
I0813 10:51:40.795377  5301 net.cpp:179] Rrelu8 -> Rconv8 (in-place)
I0813 10:51:40.795382  5301 net.cpp:84] Top shape: 12 256 27 27 (2239488)
I0813 10:51:40.795384  5301 net.cpp:111] Rrelu8 needs backward computation.
I0813 10:51:40.795388  5301 net.cpp:65] Creating Layer deconv2
I0813 10:51:40.795390  5301 net.cpp:228] deconv2 <- Rconv8
I0813 10:51:40.795394  5301 net.cpp:189] deconv2 -> deconv2
I0813 10:51:40.796445  5301 net.cpp:84] Top shape: 12 64 54 54 (2239488)
I0813 10:51:40.796450  5301 net.cpp:111] deconv2 needs backward computation.
I0813 10:51:40.796454  5301 net.cpp:65] Creating Layer relu_deconv2
I0813 10:51:40.796458  5301 net.cpp:228] relu_deconv2 <- deconv2
I0813 10:51:40.796461  5301 net.cpp:179] relu_deconv2 -> deconv2 (in-place)
I0813 10:51:40.796466  5301 net.cpp:84] Top shape: 12 64 54 54 (2239488)
I0813 10:51:40.796468  5301 net.cpp:111] relu_deconv2 needs backward computation.
I0813 10:51:40.796473  5301 net.cpp:65] Creating Layer deconv1
I0813 10:51:40.796474  5301 net.cpp:228] deconv1 <- deconv2
I0813 10:51:40.796478  5301 net.cpp:189] deconv1 -> deconv1
I0813 10:51:40.796623  5301 net.cpp:84] Top shape: 12 32 108 108 (4478976)
I0813 10:51:40.796628  5301 net.cpp:111] deconv1 needs backward computation.
I0813 10:51:40.796632  5301 net.cpp:65] Creating Layer relu_deconv1
I0813 10:51:40.796634  5301 net.cpp:228] relu_deconv1 <- deconv1
I0813 10:51:40.796638  5301 net.cpp:179] relu_deconv1 -> deconv1 (in-place)
I0813 10:51:40.796643  5301 net.cpp:84] Top shape: 12 32 108 108 (4478976)
I0813 10:51:40.796645  5301 net.cpp:111] relu_deconv1 needs backward computation.
I0813 10:51:40.796650  5301 net.cpp:65] Creating Layer deconv0
I0813 10:51:40.796653  5301 net.cpp:228] deconv0 <- deconv1
I0813 10:51:40.796656  5301 net.cpp:189] deconv0 -> deconv0
I0813 10:51:40.796707  5301 net.cpp:84] Top shape: 12 3 216 216 (1679616)
I0813 10:51:40.796710  5301 net.cpp:111] deconv0 needs backward computation.
I0813 10:51:40.796713  5301 net.cpp:65] Creating Layer loss
I0813 10:51:40.796716  5301 net.cpp:228] loss <- deconv0
I0813 10:51:40.796720  5301 net.cpp:228] loss <- target_ims
I0813 10:51:40.796727  5301 net.cpp:111] loss needs backward computation.
I0813 10:51:40.796741  5301 net.cpp:238] Collecting Learning Rate and Weight Decay.
…
    source: "/scr/r6/tgebru/inverting_conv/caffe_invert_alexnet/data/siggraph/tiny_summer_val_lmdb"
    mean_file: "/scr/r6/tgebru/timnit_caffe/data/ilsvrc12/imagenet_mean.binaryproto"
    batch_size: 64
    crop_size: 227
    mirror: false
    backend: LMDB
  }
}
layers {
  top: "target_ims"
  name: "target_ims"
  type: DATA
  data_param {
    source: "/scr/r6/tgebru/inverting_conv/caffe_invert_alexnet/data/siggraph/tiny_winter_val_lmdb"
    mean_file: "/scr/r6/tgebru/timnit_caffe/data/ilsvrc12/imagenet_mean.binaryproto"
    batch_size: 64
    crop_size: 216
    mirror: false
    backend: LMDB
  }
}
layers {
  bottom: "source_ims"
  top: "conv1"
  name: "conv1"
  type: CONVOLUTION
  blobs_lr: 0
  blobs_lr: 0
  weight_decay: 1
  weight_decay: 0
  convolution_param {
    num_output: 96
    kernel_size: 11
    stride: 4
    weight_filler {
      type: "gaussian"
      std: 0.01
    }
    bias_filler {
      type: "constant"
      value: 0
    }
  }
}
layers {
  bottom: "conv1"
  top: "conv1"
  name: "relu1"
  type: RELU
}
layers {
  bottom: "conv1"
  top: "pool1"
  name: "pool1"
  type: POOLING
  pooling_param {
    pool: MAX
    kernel_size: 3
    stride: 2
  }
}
layers {
  bottom: "pool1"
  top: "norm1"
  name: "norm1"
  type: LRN
  lrn_param {
    local_size: 5
    alpha: 0.0001
    beta: 0.75
  }
}
layers {
  bottom: "norm1"
  top: "Rconv6"
  name: "Rconv6"
  type: CONVOLUTION
  blobs_lr: 0
  blobs_lr: 0
  weight_decay: 1
  weight_decay: 0
  convolution_param {
    num_output: 256
    pad: 1
    kernel_size: 3
  }
}
layers {
  bottom: "Rconv6"
  top: "Rconv6"
  name: "Rrelu6"
  type: RELU
}
layers {
  bottom: "Rconv6"
  top: "Rconv7"
  name: "Rconv7"
  type: CONVOLUTION
  blobs_lr: 0
  blobs_lr: 0
  weight_decay: 1
  weight_decay: 0
  convolution_param {
    num_output: 256
    pad: 1
    kernel_size: 3
    group: 2
  }
}
layers {
  bottom: "Rconv7"
  top: "Rconv7"
  name: "Rrelu7"
  type: RELU
}
layers {
  bottom: "Rconv7"
  top: "Rconv8"
  name: "Rconv8"
  type: CONVOLUTION
  blobs_lr: 0
  blobs_lr: 0
  weight_decay: 1
  weight_decay: 0
  convolution_param {
    num_output: 256
    pad: 1
    kernel_size: 3
    group: 2
  }
}
layers {
  bottom: "Rconv8"
  top: "Rconv8"
  name: "Rrelu8"
  type: RELU
}
layers {
  bottom: "Rconv8"
  top: "deconv2"
  name: "deconv2"
  type: DECONVOLUTION
  blobs_lr: 0
  blobs_lr: 0
  weight_decay: 1
  weight_decay: 0
  deconvolution_param {
    pad: 2
    kernel_size: 5
    stride: 2
    output_height: 54
    output_width: 54
    output_channels: 64
  }
}
layers {
  bottom: "deconv2"
  top: "deconv2"
  name: "relu_deconv2"
  type: RELU
  relu_param {
    negative_slope: 0.3
  }
}
layers {
  bottom: "deconv2"
  top: "deconv1"
  name: "deconv1"
  type: DECONVOLUTION
  blobs_lr: 0
  blobs_lr: 0
  weight_decay: 1
  weight_decay: 0
  deconvolution_param {
    pad: 2
    kernel_size: 5
    stride: 2
    output_height: 108
    output_width: 108
    output_channels: 32
  }
}
layers {
  bottom: "deconv1"
  top: "deconv1"
  name: "relu_deconv1"
  type: RELU
  relu_param {
    negative_slope: 0.3
  }
}
layers {
  bottom: "deconv1"
  top: "deconv0"
  name: "deconv0"
  type: DECONVOLUTION
  blobs_lr: 0
  blobs_lr: 0
  weight_decay: 1
  weight_decay: 0
  deconvolution_param {
    pad: 2
    kernel_size: 5
    stride: 2
    output_height: 216
    output_width: 216
    output_channels: 3
  }
}
layers {
  bottom: "deconv0"
  bottom: "target_ims"
  name: "loss"
  type: EUCLIDEAN_LOSS
}
I0813 10:51:40.797457  5301 net.cpp:65] Creating Layer source_ims
I0813 10:51:40.797463  5301 net.cpp:189] source_ims -> source_ims
I0813 10:51:40.797521  5301 data_layer.cpp:223] Opening lmdb /scr/r6/tgebru/inverting_conv/caffe_invert_alexnet/data/siggraph/tiny_summer_val_lmdb
I0813 10:51:40.797729  5301 data_layer.cpp:285] output data size: 64,3,227,227
I0813 10:51:40.797734  5301 data_layer.cpp:304] Loading mean file from/scr/r6/tgebru/timnit_caffe/data/ilsvrc12/imagenet_mean.binaryproto
I0813 10:51:40.812222  5301 net.cpp:84] Top shape: 64 3 227 227 (9893568)
I0813 10:51:40.812243  5301 net.cpp:116] source_ims does not need backward computation.
I0813 10:51:40.812254  5301 net.cpp:65] Creating Layer target_ims
I0813 10:51:40.812259  5301 net.cpp:189] target_ims -> target_ims
I0813 10:51:40.812340  5301 data_layer.cpp:223] Opening lmdb /scr/r6/tgebru/inverting_conv/caffe_invert_alexnet/data/siggraph/tiny_winter_val_lmdb
I0813 10:51:40.812458  5301 data_layer.cpp:285] output data size: 64,3,216,216
I0813 10:51:40.812463  5301 data_layer.cpp:304] Loading mean file from/scr/r6/tgebru/timnit_caffe/data/ilsvrc12/imagenet_mean.binaryproto
I0813 10:51:40.825019  5301 net.cpp:84] Top shape: 64 3 216 216 (8957952)
I0813 10:51:40.825067  5301 net.cpp:116] target_ims does not need backward computation.
I0813 10:51:40.825079  5301 net.cpp:65] Creating Layer conv1
I0813 10:51:40.825083  5301 net.cpp:228] conv1 <- source_ims
I0813 10:51:40.825090  5301 net.cpp:189] conv1 -> conv1
I0813 10:51:40.826355  5301 net.cpp:84] Top shape: 64 96 55 55 (18585600)
I0813 10:51:40.826359  5301 net.cpp:116] conv1 does not need backward computation.
I0813 10:51:40.826364  5301 net.cpp:65] Creating Layer relu1
I0813 10:51:40.826367  5301 net.cpp:228] relu1 <- conv1
I0813 10:51:40.826372  5301 net.cpp:179] relu1 -> conv1 (in-place)
I0813 10:51:40.826377  5301 net.cpp:84] Top shape: 64 96 55 55 (18585600)
I0813 10:51:40.826380  5301 net.cpp:116] relu1 does not need backward computation.
I0813 10:51:40.826386  5301 net.cpp:65] Creating Layer pool1
I0813 10:51:40.826390  5301 net.cpp:228] pool1 <- conv1
I0813 10:51:40.826393  5301 net.cpp:189] pool1 -> pool1
I0813 10:51:40.826400  5301 net.cpp:84] Top shape: 64 96 27 27 (4478976)
I0813 10:51:40.826402  5301 net.cpp:116] pool1 does not need backward computation.
I0813 10:51:40.826407  5301 net.cpp:65] Creating Layer norm1
I0813 10:51:40.826411  5301 net.cpp:228] norm1 <- pool1
I0813 10:51:40.826414  5301 net.cpp:189] norm1 -> norm1
I0813 10:51:40.826421  5301 net.cpp:84] Top shape: 64 96 27 27 (4478976)
I0813 10:51:40.826424  5301 net.cpp:116] norm1 does not need backward computation.
I0813 10:51:40.826428  5301 net.cpp:65] Creating Layer Rconv6
I0813 10:51:40.826431  5301 net.cpp:228] Rconv6 <- norm1
I0813 10:51:40.826436  5301 net.cpp:189] Rconv6 -> Rconv6
I0813 10:51:40.826669  5301 net.cpp:84] Top shape: 64 256 27 27 (11943936)
I0813 10:51:40.826673  5301 net.cpp:116] Rconv6 does not need backward computation.
I0813 10:51:40.826678  5301 net.cpp:65] Creating Layer Rrelu6
I0813 10:51:40.826681  5301 net.cpp:228] Rrelu6 <- Rconv6
I0813 10:51:40.826685  5301 net.cpp:179] Rrelu6 -> Rconv6 (in-place)
I0813 10:51:40.826690  5301 net.cpp:84] Top shape: 64 256 27 27 (11943936)
I0813 10:51:40.826692  5301 net.cpp:116] Rrelu6 does not need backward computation.
I0813 10:51:40.826697  5301 net.cpp:65] Creating Layer Rconv7
I0813 10:51:40.826700  5301 net.cpp:228] Rconv7 <- Rconv6
I0813 10:51:40.826704  5301 net.cpp:189] Rconv7 -> Rconv7
I0813 10:51:40.827425  5301 net.cpp:84] Top shape: 64 256 27 27 (11943936)
I0813 10:51:40.827430  5301 net.cpp:116] Rconv7 does not need backward computation.
I0813 10:51:40.827435  5301 net.cpp:65] Creating Layer Rrelu7
I0813 10:51:40.827437  5301 net.cpp:228] Rrelu7 <- Rconv7
I0813 10:51:40.827441  5301 net.cpp:179] Rrelu7 -> Rconv7 (in-place)
I0813 10:51:40.827445  5301 net.cpp:84] Top shape: 64 256 27 27 (11943936)
I0813 10:51:40.827448  5301 net.cpp:116] Rrelu7 does not need backward computation.
I0813 10:51:40.827452  5301 net.cpp:65] Creating Layer Rconv8
I0813 10:51:40.827455  5301 net.cpp:228] Rconv8 <- Rconv7
I0813 10:51:40.827458  5301 net.cpp:189] Rconv8 -> Rconv8
I0813 10:51:40.828213  5301 net.cpp:84] Top shape: 64 256 27 27 (11943936)
I0813 10:51:40.828218  5301 net.cpp:116] Rconv8 does not need backward computation.
I0813 10:51:40.828222  5301 net.cpp:65] Creating Layer Rrelu8
I0813 10:51:40.828225  5301 net.cpp:228] Rrelu8 <- Rconv8
I0813 10:51:40.828229  5301 net.cpp:179] Rrelu8 -> Rconv8 (in-place)
I0813 10:51:40.828233  5301 net.cpp:84] Top shape: 64 256 27 27 (11943936)
I0813 10:51:40.828236  5301 net.cpp:116] Rrelu8 does not need backward computation.
I0813 10:51:40.828241  5301 net.cpp:65] Creating Layer deconv2
I0813 10:51:40.828244  5301 net.cpp:228] deconv2 <- Rconv8
I0813 10:51:40.828248  5301 net.cpp:189] deconv2 -> deconv2
I0813 10:51:40.829283  5301 net.cpp:84] Top shape: 64 64 54 54 (11943936)
I0813 10:51:40.829288  5301 net.cpp:116] deconv2 does not need backward computation.
I0813 10:51:40.829293  5301 net.cpp:65] Creating Layer relu_deconv2
I0813 10:51:40.829296  5301 net.cpp:228] relu_deconv2 <- deconv2
I0813 10:51:40.829300  5301 net.cpp:179] relu_deconv2 -> deconv2 (in-place)
I0813 10:51:40.829305  5301 net.cpp:84] Top shape: 64 64 54 54 (11943936)
I0813 10:51:40.829320  5301 net.cpp:116] relu_deconv2 does not need backward computation.
I0813 10:51:40.829324  5301 net.cpp:65] Creating Layer deconv1
I0813 10:51:40.829327  5301 net.cpp:228] deconv1 <- deconv2
I0813 10:51:40.829331  5301 net.cpp:189] deconv1 -> deconv1
I0813 10:51:40.829488  5301 net.cpp:84] Top shape: 64 32 108 108 (23887872)
I0813 10:51:40.829493  5301 net.cpp:116] deconv1 does not need backward computation.
I0813 10:51:40.829496  5301 net.cpp:65] Creating Layer relu_deconv1
I0813 10:51:40.829499  5301 net.cpp:228] relu_deconv1 <- deconv1
I0813 10:51:40.829504  5301 net.cpp:179] relu_deconv1 -> deconv1 (in-place)
I0813 10:51:40.829507  5301 net.cpp:84] Top shape: 64 32 108 108 (23887872)
I0813 10:51:40.829510  5301 net.cpp:116] relu_deconv1 does not need backward computation.
I0813 10:51:40.829515  5301 net.cpp:65] Creating Layer deconv0
I0813 10:51:40.829517  5301 net.cpp:228] deconv0 <- deconv1
I0813 10:51:40.829522  5301 net.cpp:189] deconv0 -> deconv0
I0813 10:51:40.829545  5301 net.cpp:84] Top shape: 64 3 216 216 (8957952)
I0813 10:51:40.829548  5301 net.cpp:116] deconv0 does not need backward computation.
I0813 10:51:40.829552  5301 net.cpp:65] Creating Layer loss
I0813 10:51:40.829555  5301 net.cpp:228] loss <- deconv0
I0813 10:51:40.829558  5301 net.cpp:228] loss <- target_ims
I0813 10:51:40.829563  5301 net.cpp:116] loss does not need backward computation.
I0813 10:51:40.829576  5301 net.cpp:238] Collecting Learning Rate and Weight Decay.
…
