…
    source: "/scr/r6/tgebru/inverting_conv/caffe_invert_alexnet/data/siggraph/tiny_summer_train_lmdb"
    mean_file: "/scr/r6/tgebru/timnit_caffe/data/ilsvrc12/imagenet_mean.binaryproto"
    batch_size: 12
    crop_size: 227
    mirror: false
    backend: LMDB
  }
}
layers {
  top: "target_ims"
  name: "target_ims"
  type: DATA
  data_param {
    source: "/scr/r6/tgebru/inverting_conv/caffe_invert_alexnet/data/siggraph/tiny_summer_train_lmdb"
    mean_file: "/scr/r6/tgebru/timnit_caffe/data/ilsvrc12/imagenet_mean.binaryproto"
    batch_size: 12
    crop_size: 216
    mirror: false
    backend: LMDB
  }
}
layers {
  bottom: "source_ims"
  top: "conv1"
  name: "conv1"
  type: CONVOLUTION
  blobs_lr: 0
  blobs_lr: 0
  weight_decay: 1
  weight_decay: 0
  convolution_param {
    num_output: 96
    kernel_size: 11
    stride: 4
    weight_filler {
      type: "gaussian"
      std: 0.01
    }
    bias_filler {
      type: "constant"
      value: 0
    }
  }
}
layers {
  bottom: "conv1"
  top: "conv1"
  name: "relu1"
  type: RELU
}
layers {
  bottom: "conv1"
  top: "pool1"
  name: "pool1"
  type: POOLING
  pooling_param {
    pool: MAX
    kernel_size: 3
    stride: 2
  }
}
layers {
  bottom: "pool1"
  top: "norm1"
  name: "norm1"
  type: LRN
  lrn_param {
    local_size: 5
    alpha: 0.0001
    beta: 0.75
  }
}
layers {
  bottom: "norm1"
  top: "Rconv6"
  name: "Rconv6"
  type: CONVOLUTION
  blobs_lr: 1
  blobs_lr: 2
  weight_decay: 1
  weight_decay: 0
  convolution_param {
    num_output: 256
    pad: 1
    kernel_size: 3
  }
}
layers {
  bottom: "Rconv6"
  top: "Rconv6"
  name: "Rrelu6"
  type: RELU
}
layers {
  bottom: "Rconv6"
  top: "Rconv7"
  name: "Rconv7"
  type: CONVOLUTION
  blobs_lr: 1
  blobs_lr: 2
  weight_decay: 1
  weight_decay: 0
  convolution_param {
    num_output: 256
    pad: 1
    kernel_size: 3
    group: 2
  }
}
layers {
  bottom: "Rconv7"
  top: "Rconv7"
  name: "Rrelu7"
  type: RELU
}
layers {
  bottom: "Rconv7"
  top: "Rconv8"
  name: "Rconv8"
  type: CONVOLUTION
  blobs_lr: 1
  blobs_lr: 2
  weight_decay: 1
  weight_decay: 0
  convolution_param {
    num_output: 256
    pad: 1
    kernel_size: 3
    group: 2
  }
}
layers {
  bottom: "Rconv8"
  top: "Rconv8"
  name: "Rrelu8"
  type: RELU
}
layers {
  bottom: "Rconv8"
  top: "deconv2"
  name: "deconv2"
  type: DECONVOLUTION
  blobs_lr: 1
  blobs_lr: 2
  weight_decay: 1
  weight_decay: 0
  deconvolution_param {
    pad: 2
    kernel_size: 5
    stride: 2
    output_height: 54
    output_width: 54
    output_channels: 64
  }
}
layers {
  bottom: "deconv2"
  top: "deconv2"
  name: "relu_deconv2"
  type: RELU
  relu_param {
    negative_slope: 0.3
  }
}
layers {
  bottom: "deconv2"
  top: "deconv1"
  name: "deconv1"
  type: DECONVOLUTION
  blobs_lr: 1
  blobs_lr: 2
  weight_decay: 1
  weight_decay: 0
  deconvolution_param {
    pad: 2
    kernel_size: 5
    stride: 2
    output_height: 108
    output_width: 108
    output_channels: 32
  }
}
layers {
  bottom: "deconv1"
  top: "deconv1"
  name: "relu_deconv1"
  type: RELU
  relu_param {
    negative_slope: 0.3
  }
}
layers {
  bottom: "deconv1"
  top: "deconv0"
  name: "deconv0"
  type: DECONVOLUTION
  blobs_lr: 1
  blobs_lr: 2
  weight_decay: 1
  weight_decay: 1
  deconvolution_param {
    pad: 2
    kernel_size: 5
    stride: 2
    output_height: 216
    output_width: 216
    output_channels: 3
  }
}
layers {
  bottom: "deconv0"
  bottom: "target_ims"
  name: "loss"
  type: EUCLIDEAN_LOSS
}
I0812 21:20:34.855360 31424 net.cpp:65] Creating Layer source_ims
I0812 21:20:34.855368 31424 net.cpp:189] source_ims -> source_ims
I0812 21:20:34.855470 31424 data_layer.cpp:223] Opening lmdb /scr/r6/tgebru/inverting_conv/caffe_invert_alexnet/data/siggraph/tiny_summer_train_lmdb
I0812 21:20:34.855679 31424 data_layer.cpp:285] output data size: 12,3,227,227
I0812 21:20:34.855684 31424 data_layer.cpp:304] Loading mean file from/scr/r6/tgebru/timnit_caffe/data/ilsvrc12/imagenet_mean.binaryproto
I0812 21:20:34.860846 31424 net.cpp:84] Top shape: 12 3 227 227 (1855044)
I0812 21:20:34.860854 31424 net.cpp:116] source_ims does not need backward computation.
I0812 21:20:34.860862 31424 net.cpp:65] Creating Layer target_ims
I0812 21:20:34.860867 31424 net.cpp:189] target_ims -> target_ims
I0812 21:20:34.861048 31424 data_layer.cpp:223] Opening lmdb /scr/r6/tgebru/inverting_conv/caffe_invert_alexnet/data/siggraph/tiny_summer_train_lmdb
I0812 21:20:34.861196 31424 data_layer.cpp:285] output data size: 12,3,216,216
I0812 21:20:34.861199 31424 data_layer.cpp:304] Loading mean file from/scr/r6/tgebru/timnit_caffe/data/ilsvrc12/imagenet_mean.binaryproto
I0812 21:20:34.865617 31424 net.cpp:84] Top shape: 12 3 216 216 (1679616)
I0812 21:20:34.865627 31424 net.cpp:116] target_ims does not need backward computation.
I0812 21:20:34.865638 31424 net.cpp:65] Creating Layer conv1
I0812 21:20:34.865641 31424 net.cpp:228] conv1 <- source_ims
I0812 21:20:34.865705 31424 net.cpp:189] conv1 -> conv1
I0812 21:20:34.866994 31424 net.cpp:84] Top shape: 12 96 55 55 (3484800)
I0812 21:20:34.866999 31424 net.cpp:116] conv1 does not need backward computation.
I0812 21:20:34.867004 31424 net.cpp:65] Creating Layer relu1
I0812 21:20:34.867007 31424 net.cpp:228] relu1 <- conv1
I0812 21:20:34.867012 31424 net.cpp:179] relu1 -> conv1 (in-place)
I0812 21:20:34.867022 31424 net.cpp:84] Top shape: 12 96 55 55 (3484800)
I0812 21:20:34.867024 31424 net.cpp:116] relu1 does not need backward computation.
I0812 21:20:34.867029 31424 net.cpp:65] Creating Layer pool1
I0812 21:20:34.867033 31424 net.cpp:228] pool1 <- conv1
I0812 21:20:34.867036 31424 net.cpp:189] pool1 -> pool1
I0812 21:20:34.867048 31424 net.cpp:84] Top shape: 12 96 27 27 (839808)
I0812 21:20:34.867051 31424 net.cpp:116] pool1 does not need backward computation.
I0812 21:20:34.867055 31424 net.cpp:65] Creating Layer norm1
I0812 21:20:34.867058 31424 net.cpp:228] norm1 <- pool1
I0812 21:20:34.867061 31424 net.cpp:189] norm1 -> norm1
I0812 21:20:34.867070 31424 net.cpp:84] Top shape: 12 96 27 27 (839808)
I0812 21:20:34.867074 31424 net.cpp:116] norm1 does not need backward computation.
I0812 21:20:34.867077 31424 net.cpp:65] Creating Layer Rconv6
I0812 21:20:34.867079 31424 net.cpp:228] Rconv6 <- norm1
I0812 21:20:34.867084 31424 net.cpp:189] Rconv6 -> Rconv6
I0812 21:20:34.867353 31424 net.cpp:84] Top shape: 12 256 27 27 (2239488)
I0812 21:20:34.867357 31424 net.cpp:111] Rconv6 needs backward computation.
I0812 21:20:34.867362 31424 net.cpp:65] Creating Layer Rrelu6
I0812 21:20:34.867365 31424 net.cpp:228] Rrelu6 <- Rconv6
I0812 21:20:34.867368 31424 net.cpp:179] Rrelu6 -> Rconv6 (in-place)
I0812 21:20:34.867373 31424 net.cpp:84] Top shape: 12 256 27 27 (2239488)
I0812 21:20:34.867377 31424 net.cpp:111] Rrelu6 needs backward computation.
I0812 21:20:34.867380 31424 net.cpp:65] Creating Layer Rconv7
I0812 21:20:34.867383 31424 net.cpp:228] Rconv7 <- Rconv6
I0812 21:20:34.867388 31424 net.cpp:189] Rconv7 -> Rconv7
I0812 21:20:34.868217 31424 net.cpp:84] Top shape: 12 256 27 27 (2239488)
I0812 21:20:34.868222 31424 net.cpp:111] Rconv7 needs backward computation.
I0812 21:20:34.868226 31424 net.cpp:65] Creating Layer Rrelu7
I0812 21:20:34.868228 31424 net.cpp:228] Rrelu7 <- Rconv7
I0812 21:20:34.868255 31424 net.cpp:179] Rrelu7 -> Rconv7 (in-place)
I0812 21:20:34.868260 31424 net.cpp:84] Top shape: 12 256 27 27 (2239488)
I0812 21:20:34.868263 31424 net.cpp:111] Rrelu7 needs backward computation.
I0812 21:20:34.868266 31424 net.cpp:65] Creating Layer Rconv8
I0812 21:20:34.868269 31424 net.cpp:228] Rconv8 <- Rconv7
I0812 21:20:34.868273 31424 net.cpp:189] Rconv8 -> Rconv8
I0812 21:20:34.869109 31424 net.cpp:84] Top shape: 12 256 27 27 (2239488)
I0812 21:20:34.869113 31424 net.cpp:111] Rconv8 needs backward computation.
I0812 21:20:34.869117 31424 net.cpp:65] Creating Layer Rrelu8
I0812 21:20:34.869119 31424 net.cpp:228] Rrelu8 <- Rconv8
I0812 21:20:34.869123 31424 net.cpp:179] Rrelu8 -> Rconv8 (in-place)
I0812 21:20:34.869127 31424 net.cpp:84] Top shape: 12 256 27 27 (2239488)
I0812 21:20:34.869130 31424 net.cpp:111] Rrelu8 needs backward computation.
I0812 21:20:34.869134 31424 net.cpp:65] Creating Layer deconv2
I0812 21:20:34.869137 31424 net.cpp:228] deconv2 <- Rconv8
I0812 21:20:34.869140 31424 net.cpp:189] deconv2 -> deconv2
I0812 21:20:34.870230 31424 net.cpp:84] Top shape: 12 64 54 54 (2239488)
I0812 21:20:34.870235 31424 net.cpp:111] deconv2 needs backward computation.
I0812 21:20:34.870239 31424 net.cpp:65] Creating Layer relu_deconv2
I0812 21:20:34.870242 31424 net.cpp:228] relu_deconv2 <- deconv2
I0812 21:20:34.870246 31424 net.cpp:179] relu_deconv2 -> deconv2 (in-place)
I0812 21:20:34.870250 31424 net.cpp:84] Top shape: 12 64 54 54 (2239488)
I0812 21:20:34.870254 31424 net.cpp:111] relu_deconv2 needs backward computation.
I0812 21:20:34.870257 31424 net.cpp:65] Creating Layer deconv1
I0812 21:20:34.870260 31424 net.cpp:228] deconv1 <- deconv2
I0812 21:20:34.870264 31424 net.cpp:189] deconv1 -> deconv1
I0812 21:20:34.870420 31424 net.cpp:84] Top shape: 12 32 108 108 (4478976)
I0812 21:20:34.870424 31424 net.cpp:111] deconv1 needs backward computation.
I0812 21:20:34.870429 31424 net.cpp:65] Creating Layer relu_deconv1
I0812 21:20:34.870431 31424 net.cpp:228] relu_deconv1 <- deconv1
I0812 21:20:34.870434 31424 net.cpp:179] relu_deconv1 -> deconv1 (in-place)
I0812 21:20:34.870439 31424 net.cpp:84] Top shape: 12 32 108 108 (4478976)
I0812 21:20:34.870441 31424 net.cpp:111] relu_deconv1 needs backward computation.
I0812 21:20:34.870446 31424 net.cpp:65] Creating Layer deconv0
I0812 21:20:34.870448 31424 net.cpp:228] deconv0 <- deconv1
I0812 21:20:34.870452 31424 net.cpp:189] deconv0 -> deconv0
I0812 21:20:34.870476 31424 net.cpp:84] Top shape: 12 3 216 216 (1679616)
I0812 21:20:34.870478 31424 net.cpp:111] deconv0 needs backward computation.
I0812 21:20:34.870482 31424 net.cpp:65] Creating Layer loss
I0812 21:20:34.870486 31424 net.cpp:228] loss <- deconv0
I0812 21:20:34.870488 31424 net.cpp:228] loss <- target_ims
I0812 21:20:34.870496 31424 net.cpp:111] loss needs backward computation.
I0812 21:20:34.870508 31424 net.cpp:238] Collecting Learning Rate and Weight Decay.
…
    source: "/scr/r6/tgebru/inverting_conv/caffe_invert_alexnet/data/siggraph/tiny_summer_val_lmdb"
    mean_file: "/scr/r6/tgebru/timnit_caffe/data/ilsvrc12/imagenet_mean.binaryproto"
    batch_size: 2
    crop_size: 227
    mirror: false
    backend: LMDB
  }
}
layers {
  top: "target_ims"
  name: "target_ims"
  type: DATA
  data_param {
    source: "/scr/r6/tgebru/inverting_conv/caffe_invert_alexnet/data/siggraph/tiny_summer_val_lmdb"
    mean_file: "/scr/r6/tgebru/timnit_caffe/data/ilsvrc12/imagenet_mean.binaryproto"
    batch_size: 2
    crop_size: 216
    mirror: false
    backend: LMDB
  }
}
layers {
  bottom: "source_ims"
  top: "conv1"
  name: "conv1"
  type: CONVOLUTION
  blobs_lr: 0
  blobs_lr: 0
  weight_decay: 1
  weight_decay: 0
  convolution_param {
    num_output: 96
    kernel_size: 11
    stride: 4
    weight_filler {
      type: "gaussian"
      std: 0.01
    }
    bias_filler {
      type: "constant"
      value: 0
    }
  }
}
layers {
  bottom: "conv1"
  top: "conv1"
  name: "relu1"
  type: RELU
}
layers {
  bottom: "conv1"
  top: "pool1"
  name: "pool1"
  type: POOLING
  pooling_param {
    pool: MAX
    kernel_size: 3
    stride: 2
  }
}
layers {
  bottom: "pool1"
  top: "norm1"
  name: "norm1"
  type: LRN
  lrn_param {
    local_size: 5
    alpha: 0.0001
    beta: 0.75
  }
}
layers {
  bottom: "norm1"
  top: "Rconv6"
  name: "Rconv6"
  type: CONVOLUTION
  blobs_lr: 0
  blobs_lr: 0
  weight_decay: 1
  weight_decay: 0
  convolution_param {
    num_output: 256
    pad: 1
    kernel_size: 3
  }
}
layers {
  bottom: "Rconv6"
  top: "Rconv6"
  name: "Rrelu6"
  type: RELU
}
layers {
  bottom: "Rconv6"
  top: "Rconv7"
  name: "Rconv7"
  type: CONVOLUTION
  blobs_lr: 0
  blobs_lr: 0
  weight_decay: 1
  weight_decay: 0
  convolution_param {
    num_output: 256
    pad: 1
    kernel_size: 3
    group: 2
  }
}
layers {
  bottom: "Rconv7"
  top: "Rconv7"
  name: "Rrelu7"
  type: RELU
}
layers {
  bottom: "Rconv7"
  top: "Rconv8"
  name: "Rconv8"
  type: CONVOLUTION
  blobs_lr: 0
  blobs_lr: 0
  weight_decay: 1
  weight_decay: 0
  convolution_param {
    num_output: 256
    pad: 1
    kernel_size: 3
    group: 2
  }
}
layers {
  bottom: "Rconv8"
  top: "Rconv8"
  name: "Rrelu8"
  type: RELU
}
layers {
  bottom: "Rconv8"
  top: "deconv2"
  name: "deconv2"
  type: DECONVOLUTION
  blobs_lr: 0
  blobs_lr: 0
  weight_decay: 1
  weight_decay: 0
  deconvolution_param {
    pad: 2
    kernel_size: 5
    stride: 2
    output_height: 54
    output_width: 54
    output_channels: 64
  }
}
layers {
  bottom: "deconv2"
  top: "deconv2"
  name: "relu_deconv2"
  type: RELU
  relu_param {
    negative_slope: 0.3
  }
}
layers {
  bottom: "deconv2"
  top: "deconv1"
  name: "deconv1"
  type: DECONVOLUTION
  blobs_lr: 0
  blobs_lr: 0
  weight_decay: 1
  weight_decay: 0
  deconvolution_param {
    pad: 2
    kernel_size: 5
    stride: 2
    output_height: 108
    output_width: 108
    output_channels: 32
  }
}
layers {
  bottom: "deconv1"
  top: "deconv1"
  name: "relu_deconv1"
  type: RELU
  relu_param {
    negative_slope: 0.3
  }
}
layers {
  bottom: "deconv1"
  top: "deconv0"
  name: "deconv0"
  type: DECONVOLUTION
  blobs_lr: 0
  blobs_lr: 0
  weight_decay: 1
  weight_decay: 0
  deconvolution_param {
    pad: 2
    kernel_size: 5
    stride: 2
    output_height: 216
    output_width: 216
    output_channels: 3
  }
}
layers {
  bottom: "deconv0"
  bottom: "target_ims"
  name: "loss"
  type: EUCLIDEAN_LOSS
}
I0812 21:20:34.871227 31424 net.cpp:65] Creating Layer source_ims
I0812 21:20:34.871233 31424 net.cpp:189] source_ims -> source_ims
I0812 21:20:34.871289 31424 data_layer.cpp:223] Opening lmdb /scr/r6/tgebru/inverting_conv/caffe_invert_alexnet/data/siggraph/tiny_summer_val_lmdb
I0812 21:20:34.871506 31424 data_layer.cpp:285] output data size: 2,3,227,227
I0812 21:20:34.871511 31424 data_layer.cpp:304] Loading mean file from/scr/r6/tgebru/timnit_caffe/data/ilsvrc12/imagenet_mean.binaryproto
I0812 21:20:34.874434 31424 net.cpp:84] Top shape: 2 3 227 227 (309174)
I0812 21:20:34.874441 31424 net.cpp:116] source_ims does not need backward computation.
I0812 21:20:34.874447 31424 net.cpp:65] Creating Layer target_ims
I0812 21:20:34.874451 31424 net.cpp:189] target_ims -> target_ims
I0812 21:20:34.874502 31424 data_layer.cpp:223] Opening lmdb /scr/r6/tgebru/inverting_conv/caffe_invert_alexnet/data/siggraph/tiny_summer_val_lmdb
I0812 21:20:34.874588 31424 data_layer.cpp:285] output data size: 2,3,216,216
I0812 21:20:34.874591 31424 data_layer.cpp:304] Loading mean file from/scr/r6/tgebru/timnit_caffe/data/ilsvrc12/imagenet_mean.binaryproto
I0812 21:20:34.876934 31424 net.cpp:84] Top shape: 2 3 216 216 (279936)
I0812 21:20:34.876940 31424 net.cpp:116] target_ims does not need backward computation.
I0812 21:20:34.876965 31424 net.cpp:65] Creating Layer conv1
I0812 21:20:34.876968 31424 net.cpp:228] conv1 <- source_ims
I0812 21:20:34.876973 31424 net.cpp:189] conv1 -> conv1
I0812 21:20:34.878221 31424 net.cpp:84] Top shape: 2 96 55 55 (580800)
I0812 21:20:34.878226 31424 net.cpp:116] conv1 does not need backward computation.
I0812 21:20:34.878229 31424 net.cpp:65] Creating Layer relu1
I0812 21:20:34.878232 31424 net.cpp:228] relu1 <- conv1
I0812 21:20:34.878237 31424 net.cpp:179] relu1 -> conv1 (in-place)
I0812 21:20:34.878242 31424 net.cpp:84] Top shape: 2 96 55 55 (580800)
I0812 21:20:34.878244 31424 net.cpp:116] relu1 does not need backward computation.
I0812 21:20:34.878248 31424 net.cpp:65] Creating Layer pool1
I0812 21:20:34.878250 31424 net.cpp:228] pool1 <- conv1
I0812 21:20:34.878254 31424 net.cpp:189] pool1 -> pool1
I0812 21:20:34.878260 31424 net.cpp:84] Top shape: 2 96 27 27 (139968)
I0812 21:20:34.878263 31424 net.cpp:116] pool1 does not need backward computation.
I0812 21:20:34.878268 31424 net.cpp:65] Creating Layer norm1
I0812 21:20:34.878270 31424 net.cpp:228] norm1 <- pool1
I0812 21:20:34.878274 31424 net.cpp:189] norm1 -> norm1
I0812 21:20:34.878280 31424 net.cpp:84] Top shape: 2 96 27 27 (139968)
I0812 21:20:34.878283 31424 net.cpp:116] norm1 does not need backward computation.
I0812 21:20:34.878288 31424 net.cpp:65] Creating Layer Rconv6
I0812 21:20:34.878289 31424 net.cpp:228] Rconv6 <- norm1
I0812 21:20:34.878293 31424 net.cpp:189] Rconv6 -> Rconv6
I0812 21:20:34.878871 31424 net.cpp:84] Top shape: 2 256 27 27 (373248)
I0812 21:20:34.878875 31424 net.cpp:116] Rconv6 does not need backward computation.
I0812 21:20:34.878880 31424 net.cpp:65] Creating Layer Rrelu6
I0812 21:20:34.878882 31424 net.cpp:228] Rrelu6 <- Rconv6
I0812 21:20:34.878886 31424 net.cpp:179] Rrelu6 -> Rconv6 (in-place)
I0812 21:20:34.878890 31424 net.cpp:84] Top shape: 2 256 27 27 (373248)
I0812 21:20:34.878893 31424 net.cpp:116] Rrelu6 does not need backward computation.
I0812 21:20:34.878898 31424 net.cpp:65] Creating Layer Rconv7
I0812 21:20:34.878901 31424 net.cpp:228] Rconv7 <- Rconv6
I0812 21:20:34.878904 31424 net.cpp:189] Rconv7 -> Rconv7
I0812 21:20:34.879669 31424 net.cpp:84] Top shape: 2 256 27 27 (373248)
I0812 21:20:34.879673 31424 net.cpp:116] Rconv7 does not need backward computation.
I0812 21:20:34.879678 31424 net.cpp:65] Creating Layer Rrelu7
I0812 21:20:34.879680 31424 net.cpp:228] Rrelu7 <- Rconv7
I0812 21:20:34.879684 31424 net.cpp:179] Rrelu7 -> Rconv7 (in-place)
I0812 21:20:34.879688 31424 net.cpp:84] Top shape: 2 256 27 27 (373248)
I0812 21:20:34.879691 31424 net.cpp:116] Rrelu7 does not need backward computation.
I0812 21:20:34.879694 31424 net.cpp:65] Creating Layer Rconv8
I0812 21:20:34.879698 31424 net.cpp:228] Rconv8 <- Rconv7
I0812 21:20:34.879700 31424 net.cpp:189] Rconv8 -> Rconv8
I0812 21:20:34.880465 31424 net.cpp:84] Top shape: 2 256 27 27 (373248)
I0812 21:20:34.880470 31424 net.cpp:116] Rconv8 does not need backward computation.
I0812 21:20:34.880473 31424 net.cpp:65] Creating Layer Rrelu8
I0812 21:20:34.880476 31424 net.cpp:228] Rrelu8 <- Rconv8
I0812 21:20:34.880480 31424 net.cpp:179] Rrelu8 -> Rconv8 (in-place)
I0812 21:20:34.880483 31424 net.cpp:84] Top shape: 2 256 27 27 (373248)
I0812 21:20:34.880486 31424 net.cpp:116] Rrelu8 does not need backward computation.
I0812 21:20:34.880491 31424 net.cpp:65] Creating Layer deconv2
I0812 21:20:34.880492 31424 net.cpp:228] deconv2 <- Rconv8
I0812 21:20:34.880496 31424 net.cpp:189] deconv2 -> deconv2
I0812 21:20:34.881551 31424 net.cpp:84] Top shape: 2 64 54 54 (373248)
I0812 21:20:34.881556 31424 net.cpp:116] deconv2 does not need backward computation.
I0812 21:20:34.881558 31424 net.cpp:65] Creating Layer relu_deconv2
I0812 21:20:34.881561 31424 net.cpp:228] relu_deconv2 <- deconv2
I0812 21:20:34.881566 31424 net.cpp:179] relu_deconv2 -> deconv2 (in-place)
I0812 21:20:34.881570 31424 net.cpp:84] Top shape: 2 64 54 54 (373248)
I0812 21:20:34.881572 31424 net.cpp:116] relu_deconv2 does not need backward computation.
I0812 21:20:34.881588 31424 net.cpp:65] Creating Layer deconv1
I0812 21:20:34.881592 31424 net.cpp:228] deconv1 <- deconv2
I0812 21:20:34.881595 31424 net.cpp:189] deconv1 -> deconv1
I0812 21:20:34.881734 31424 net.cpp:84] Top shape: 2 32 108 108 (746496)
I0812 21:20:34.881737 31424 net.cpp:116] deconv1 does not need backward computation.
I0812 21:20:34.881742 31424 net.cpp:65] Creating Layer relu_deconv1
I0812 21:20:34.881744 31424 net.cpp:228] relu_deconv1 <- deconv1
I0812 21:20:34.881748 31424 net.cpp:179] relu_deconv1 -> deconv1 (in-place)
I0812 21:20:34.881753 31424 net.cpp:84] Top shape: 2 32 108 108 (746496)
I0812 21:20:34.881755 31424 net.cpp:116] relu_deconv1 does not need backward computation.
I0812 21:20:34.881760 31424 net.cpp:65] Creating Layer deconv0
I0812 21:20:34.881763 31424 net.cpp:228] deconv0 <- deconv1
I0812 21:20:34.881767 31424 net.cpp:189] deconv0 -> deconv0
I0812 21:20:34.881785 31424 net.cpp:84] Top shape: 2 3 216 216 (279936)
I0812 21:20:34.881788 31424 net.cpp:116] deconv0 does not need backward computation.
I0812 21:20:34.881791 31424 net.cpp:65] Creating Layer loss
I0812 21:20:34.881794 31424 net.cpp:228] loss <- deconv0
I0812 21:20:34.881798 31424 net.cpp:228] loss <- target_ims
I0812 21:20:34.881801 31424 net.cpp:116] loss does not need backward computation.
I0812 21:20:34.881814 31424 net.cpp:238] Collecting Learning Rate and Weight Decay.
…
