…
    source: "/scr/r6/tgebru/inverting_conv/caffe_invert_alexnet/data/siggraph/tiny_summer_train_lmdb"
    mean_file: "/scr/r6/tgebru/timnit_caffe/data/ilsvrc12/imagenet_mean.binaryproto"
    batch_size: 12
    crop_size: 227
    mirror: false
    backend: LMDB
  }
}
layers {
  top: "target_ims"
  name: "target_ims"
  type: DATA
  data_param {
    source: "/scr/r6/tgebru/inverting_conv/caffe_invert_alexnet/data/siggraph/tiny_winter_train_lmdb"
    mean_file: "/scr/r6/tgebru/timnit_caffe/data/ilsvrc12/imagenet_mean.binaryproto"
    batch_size: 12
    crop_size: 216
    mirror: false
    backend: LMDB
  }
}
layers {
  bottom: "source_ims"
  top: "conv1"
  name: "conv1"
  type: CONVOLUTION
  blobs_lr: 0
  blobs_lr: 0
  weight_decay: 1
  weight_decay: 0
  convolution_param {
    num_output: 96
    kernel_size: 11
    stride: 4
    weight_filler {
      type: "gaussian"
      std: 0.01
    }
    bias_filler {
      type: "constant"
      value: 0
    }
  }
}
layers {
  bottom: "conv1"
  top: "conv1"
  name: "relu1"
  type: RELU
}
layers {
  bottom: "conv1"
  top: "pool1"
  name: "pool1"
  type: POOLING
  pooling_param {
    pool: MAX
    kernel_size: 3
    stride: 2
  }
}
layers {
  bottom: "pool1"
  top: "norm1"
  name: "norm1"
  type: LRN
  lrn_param {
    local_size: 5
    alpha: 0.0001
    beta: 0.75
  }
}
layers {
  bottom: "norm1"
  top: "Rconv6"
  name: "Rconv6"
  type: CONVOLUTION
  blobs_lr: 1
  blobs_lr: 2
  weight_decay: 1
  weight_decay: 0
  convolution_param {
    num_output: 256
    pad: 1
    kernel_size: 3
  }
}
layers {
  bottom: "Rconv6"
  top: "Rconv6"
  name: "Rrelu6"
  type: RELU
}
layers {
  bottom: "Rconv6"
  top: "Rconv7"
  name: "Rconv7"
  type: CONVOLUTION
  blobs_lr: 1
  blobs_lr: 2
  weight_decay: 1
  weight_decay: 0
  convolution_param {
    num_output: 256
    pad: 1
    kernel_size: 3
    group: 2
  }
}
layers {
  bottom: "Rconv7"
  top: "Rconv7"
  name: "Rrelu7"
  type: RELU
}
layers {
  bottom: "Rconv7"
  top: "Rconv8"
  name: "Rconv8"
  type: CONVOLUTION
  blobs_lr: 1
  blobs_lr: 2
  weight_decay: 1
  weight_decay: 0
  convolution_param {
    num_output: 256
    pad: 1
    kernel_size: 3
    group: 2
  }
}
layers {
  bottom: "Rconv8"
  top: "Rconv8"
  name: "Rrelu8"
  type: RELU
}
layers {
  bottom: "Rconv8"
  top: "deconv2"
  name: "deconv2"
  type: DECONVOLUTION
  blobs_lr: 1
  blobs_lr: 2
  weight_decay: 1
  weight_decay: 0
  deconvolution_param {
    pad: 2
    kernel_size: 5
    stride: 2
    output_height: 54
    output_width: 54
    output_channels: 64
  }
}
layers {
  bottom: "deconv2"
  top: "deconv2"
  name: "relu_deconv2"
  type: RELU
  relu_param {
    negative_slope: 0.3
  }
}
layers {
  bottom: "deconv2"
  top: "deconv1"
  name: "deconv1"
  type: DECONVOLUTION
  blobs_lr: 1
  blobs_lr: 2
  weight_decay: 1
  weight_decay: 0
  deconvolution_param {
    pad: 2
    kernel_size: 5
    stride: 2
    output_height: 108
    output_width: 108
    output_channels: 32
  }
}
layers {
  bottom: "deconv1"
  top: "deconv1"
  name: "relu_deconv1"
  type: RELU
  relu_param {
    negative_slope: 0.3
  }
}
layers {
  bottom: "deconv1"
  top: "deconv0"
  name: "deconv0"
  type: DECONVOLUTION
  blobs_lr: 1
  blobs_lr: 2
  weight_decay: 1
  weight_decay: 1
  deconvolution_param {
    pad: 2
    kernel_size: 5
    stride: 2
    output_height: 216
    output_width: 216
    output_channels: 3
  }
}
layers {
  bottom: "deconv0"
  bottom: "target_ims"
  name: "loss"
  type: EUCLIDEAN_LOSS
}
I0813 02:45:30.093825 14296 net.cpp:65] Creating Layer source_ims
I0813 02:45:30.093834 14296 net.cpp:189] source_ims -> source_ims
I0813 02:45:30.093942 14296 data_layer.cpp:223] Opening lmdb /scr/r6/tgebru/inverting_conv/caffe_invert_alexnet/data/siggraph/tiny_summer_train_lmdb
I0813 02:45:30.094143 14296 data_layer.cpp:285] output data size: 12,3,227,227
I0813 02:45:30.094151 14296 data_layer.cpp:304] Loading mean file from/scr/r6/tgebru/timnit_caffe/data/ilsvrc12/imagenet_mean.binaryproto
I0813 02:45:30.098767 14296 net.cpp:84] Top shape: 12 3 227 227 (1855044)
I0813 02:45:30.098775 14296 net.cpp:116] source_ims does not need backward computation.
I0813 02:45:30.098781 14296 net.cpp:65] Creating Layer target_ims
I0813 02:45:30.098786 14296 net.cpp:189] target_ims -> target_ims
I0813 02:45:30.098945 14296 data_layer.cpp:223] Opening lmdb /scr/r6/tgebru/inverting_conv/caffe_invert_alexnet/data/siggraph/tiny_winter_train_lmdb
I0813 02:45:30.099108 14296 data_layer.cpp:285] output data size: 12,3,216,216
I0813 02:45:30.099113 14296 data_layer.cpp:304] Loading mean file from/scr/r6/tgebru/timnit_caffe/data/ilsvrc12/imagenet_mean.binaryproto
I0813 02:45:30.103081 14296 net.cpp:84] Top shape: 12 3 216 216 (1679616)
I0813 02:45:30.103090 14296 net.cpp:116] target_ims does not need backward computation.
I0813 02:45:30.103101 14296 net.cpp:65] Creating Layer conv1
I0813 02:45:30.103106 14296 net.cpp:228] conv1 <- source_ims
I0813 02:45:30.103173 14296 net.cpp:189] conv1 -> conv1
I0813 02:45:30.104480 14296 net.cpp:84] Top shape: 12 96 55 55 (3484800)
I0813 02:45:30.104486 14296 net.cpp:116] conv1 does not need backward computation.
I0813 02:45:30.104491 14296 net.cpp:65] Creating Layer relu1
I0813 02:45:30.104496 14296 net.cpp:228] relu1 <- conv1
I0813 02:45:30.104499 14296 net.cpp:179] relu1 -> conv1 (in-place)
I0813 02:45:30.104508 14296 net.cpp:84] Top shape: 12 96 55 55 (3484800)
I0813 02:45:30.104511 14296 net.cpp:116] relu1 does not need backward computation.
I0813 02:45:30.104516 14296 net.cpp:65] Creating Layer pool1
I0813 02:45:30.104519 14296 net.cpp:228] pool1 <- conv1
I0813 02:45:30.104523 14296 net.cpp:189] pool1 -> pool1
I0813 02:45:30.104534 14296 net.cpp:84] Top shape: 12 96 27 27 (839808)
I0813 02:45:30.104537 14296 net.cpp:116] pool1 does not need backward computation.
I0813 02:45:30.104542 14296 net.cpp:65] Creating Layer norm1
I0813 02:45:30.104544 14296 net.cpp:228] norm1 <- pool1
I0813 02:45:30.104548 14296 net.cpp:189] norm1 -> norm1
I0813 02:45:30.104557 14296 net.cpp:84] Top shape: 12 96 27 27 (839808)
I0813 02:45:30.104559 14296 net.cpp:116] norm1 does not need backward computation.
I0813 02:45:30.104563 14296 net.cpp:65] Creating Layer Rconv6
I0813 02:45:30.104567 14296 net.cpp:228] Rconv6 <- norm1
I0813 02:45:30.104570 14296 net.cpp:189] Rconv6 -> Rconv6
I0813 02:45:30.104846 14296 net.cpp:84] Top shape: 12 256 27 27 (2239488)
I0813 02:45:30.104850 14296 net.cpp:111] Rconv6 needs backward computation.
I0813 02:45:30.104853 14296 net.cpp:65] Creating Layer Rrelu6
I0813 02:45:30.104856 14296 net.cpp:228] Rrelu6 <- Rconv6
I0813 02:45:30.104861 14296 net.cpp:179] Rrelu6 -> Rconv6 (in-place)
I0813 02:45:30.104864 14296 net.cpp:84] Top shape: 12 256 27 27 (2239488)
I0813 02:45:30.104867 14296 net.cpp:111] Rrelu6 needs backward computation.
I0813 02:45:30.104872 14296 net.cpp:65] Creating Layer Rconv7
I0813 02:45:30.104876 14296 net.cpp:228] Rconv7 <- Rconv6
I0813 02:45:30.104878 14296 net.cpp:189] Rconv7 -> Rconv7
I0813 02:45:30.105628 14296 net.cpp:84] Top shape: 12 256 27 27 (2239488)
I0813 02:45:30.105633 14296 net.cpp:111] Rconv7 needs backward computation.
I0813 02:45:30.105638 14296 net.cpp:65] Creating Layer Rrelu7
I0813 02:45:30.105661 14296 net.cpp:228] Rrelu7 <- Rconv7
I0813 02:45:30.105665 14296 net.cpp:179] Rrelu7 -> Rconv7 (in-place)
I0813 02:45:30.105670 14296 net.cpp:84] Top shape: 12 256 27 27 (2239488)
I0813 02:45:30.105674 14296 net.cpp:111] Rrelu7 needs backward computation.
I0813 02:45:30.105677 14296 net.cpp:65] Creating Layer Rconv8
I0813 02:45:30.105679 14296 net.cpp:228] Rconv8 <- Rconv7
I0813 02:45:30.105684 14296 net.cpp:189] Rconv8 -> Rconv8
I0813 02:45:30.106487 14296 net.cpp:84] Top shape: 12 256 27 27 (2239488)
I0813 02:45:30.106490 14296 net.cpp:111] Rconv8 needs backward computation.
I0813 02:45:30.106494 14296 net.cpp:65] Creating Layer Rrelu8
I0813 02:45:30.106498 14296 net.cpp:228] Rrelu8 <- Rconv8
I0813 02:45:30.106500 14296 net.cpp:179] Rrelu8 -> Rconv8 (in-place)
I0813 02:45:30.106504 14296 net.cpp:84] Top shape: 12 256 27 27 (2239488)
I0813 02:45:30.106508 14296 net.cpp:111] Rrelu8 needs backward computation.
I0813 02:45:30.106513 14296 net.cpp:65] Creating Layer deconv2
I0813 02:45:30.106514 14296 net.cpp:228] deconv2 <- Rconv8
I0813 02:45:30.106518 14296 net.cpp:189] deconv2 -> deconv2
I0813 02:45:30.107559 14296 net.cpp:84] Top shape: 12 64 54 54 (2239488)
I0813 02:45:30.107564 14296 net.cpp:111] deconv2 needs backward computation.
I0813 02:45:30.107569 14296 net.cpp:65] Creating Layer relu_deconv2
I0813 02:45:30.107573 14296 net.cpp:228] relu_deconv2 <- deconv2
I0813 02:45:30.107576 14296 net.cpp:179] relu_deconv2 -> deconv2 (in-place)
I0813 02:45:30.107580 14296 net.cpp:84] Top shape: 12 64 54 54 (2239488)
I0813 02:45:30.107583 14296 net.cpp:111] relu_deconv2 needs backward computation.
I0813 02:45:30.107588 14296 net.cpp:65] Creating Layer deconv1
I0813 02:45:30.107590 14296 net.cpp:228] deconv1 <- deconv2
I0813 02:45:30.107594 14296 net.cpp:189] deconv1 -> deconv1
I0813 02:45:30.107733 14296 net.cpp:84] Top shape: 12 32 108 108 (4478976)
I0813 02:45:30.107738 14296 net.cpp:111] deconv1 needs backward computation.
I0813 02:45:30.107741 14296 net.cpp:65] Creating Layer relu_deconv1
I0813 02:45:30.107744 14296 net.cpp:228] relu_deconv1 <- deconv1
I0813 02:45:30.107748 14296 net.cpp:179] relu_deconv1 -> deconv1 (in-place)
I0813 02:45:30.107751 14296 net.cpp:84] Top shape: 12 32 108 108 (4478976)
I0813 02:45:30.107754 14296 net.cpp:111] relu_deconv1 needs backward computation.
I0813 02:45:30.107759 14296 net.cpp:65] Creating Layer deconv0
I0813 02:45:30.107763 14296 net.cpp:228] deconv0 <- deconv1
I0813 02:45:30.107765 14296 net.cpp:189] deconv0 -> deconv0
I0813 02:45:30.107789 14296 net.cpp:84] Top shape: 12 3 216 216 (1679616)
I0813 02:45:30.107792 14296 net.cpp:111] deconv0 needs backward computation.
I0813 02:45:30.107795 14296 net.cpp:65] Creating Layer loss
I0813 02:45:30.107799 14296 net.cpp:228] loss <- deconv0
I0813 02:45:30.107801 14296 net.cpp:228] loss <- target_ims
I0813 02:45:30.107810 14296 net.cpp:111] loss needs backward computation.
I0813 02:45:30.107823 14296 net.cpp:238] Collecting Learning Rate and Weight Decay.
…
    source: "/scr/r6/tgebru/inverting_conv/caffe_invert_alexnet/data/siggraph/tiny_summer_val_lmdb"
    mean_file: "/scr/r6/tgebru/timnit_caffe/data/ilsvrc12/imagenet_mean.binaryproto"
    batch_size: 64
    crop_size: 227
    mirror: false
    backend: LMDB
  }
}
layers {
  top: "target_ims"
  name: "target_ims"
  type: DATA
  data_param {
    source: "/scr/r6/tgebru/inverting_conv/caffe_invert_alexnet/data/siggraph/tiny_winter_val_lmdb"
    mean_file: "/scr/r6/tgebru/timnit_caffe/data/ilsvrc12/imagenet_mean.binaryproto"
    batch_size: 64
    crop_size: 216
    mirror: false
    backend: LMDB
  }
}
layers {
  bottom: "source_ims"
  top: "conv1"
  name: "conv1"
  type: CONVOLUTION
  blobs_lr: 0
  blobs_lr: 0
  weight_decay: 1
  weight_decay: 0
  convolution_param {
    num_output: 96
    kernel_size: 11
    stride: 4
    weight_filler {
      type: "gaussian"
      std: 0.01
    }
    bias_filler {
      type: "constant"
      value: 0
    }
  }
}
layers {
  bottom: "conv1"
  top: "conv1"
  name: "relu1"
  type: RELU
}
layers {
  bottom: "conv1"
  top: "pool1"
  name: "pool1"
  type: POOLING
  pooling_param {
    pool: MAX
    kernel_size: 3
    stride: 2
  }
}
layers {
  bottom: "pool1"
  top: "norm1"
  name: "norm1"
  type: LRN
  lrn_param {
    local_size: 5
    alpha: 0.0001
    beta: 0.75
  }
}
layers {
  bottom: "norm1"
  top: "Rconv6"
  name: "Rconv6"
  type: CONVOLUTION
  blobs_lr: 0
  blobs_lr: 0
  weight_decay: 1
  weight_decay: 0
  convolution_param {
    num_output: 256
    pad: 1
    kernel_size: 3
  }
}
layers {
  bottom: "Rconv6"
  top: "Rconv6"
  name: "Rrelu6"
  type: RELU
}
layers {
  bottom: "Rconv6"
  top: "Rconv7"
  name: "Rconv7"
  type: CONVOLUTION
  blobs_lr: 0
  blobs_lr: 0
  weight_decay: 1
  weight_decay: 0
  convolution_param {
    num_output: 256
    pad: 1
    kernel_size: 3
    group: 2
  }
}
layers {
  bottom: "Rconv7"
  top: "Rconv7"
  name: "Rrelu7"
  type: RELU
}
layers {
  bottom: "Rconv7"
  top: "Rconv8"
  name: "Rconv8"
  type: CONVOLUTION
  blobs_lr: 0
  blobs_lr: 0
  weight_decay: 1
  weight_decay: 0
  convolution_param {
    num_output: 256
    pad: 1
    kernel_size: 3
    group: 2
  }
}
layers {
  bottom: "Rconv8"
  top: "Rconv8"
  name: "Rrelu8"
  type: RELU
}
layers {
  bottom: "Rconv8"
  top: "deconv2"
  name: "deconv2"
  type: DECONVOLUTION
  blobs_lr: 0
  blobs_lr: 0
  weight_decay: 1
  weight_decay: 0
  deconvolution_param {
    pad: 2
    kernel_size: 5
    stride: 2
    output_height: 54
    output_width: 54
    output_channels: 64
  }
}
layers {
  bottom: "deconv2"
  top: "deconv2"
  name: "relu_deconv2"
  type: RELU
  relu_param {
    negative_slope: 0.3
  }
}
layers {
  bottom: "deconv2"
  top: "deconv1"
  name: "deconv1"
  type: DECONVOLUTION
  blobs_lr: 0
  blobs_lr: 0
  weight_decay: 1
  weight_decay: 0
  deconvolution_param {
    pad: 2
    kernel_size: 5
    stride: 2
    output_height: 108
    output_width: 108
    output_channels: 32
  }
}
layers {
  bottom: "deconv1"
  top: "deconv1"
  name: "relu_deconv1"
  type: RELU
  relu_param {
    negative_slope: 0.3
  }
}
layers {
  bottom: "deconv1"
  top: "deconv0"
  name: "deconv0"
  type: DECONVOLUTION
  blobs_lr: 0
  blobs_lr: 0
  weight_decay: 1
  weight_decay: 0
  deconvolution_param {
    pad: 2
    kernel_size: 5
    stride: 2
    output_height: 216
    output_width: 216
    output_channels: 3
  }
}
layers {
  bottom: "deconv0"
  bottom: "target_ims"
  name: "loss"
  type: EUCLIDEAN_LOSS
}
I0813 02:45:30.108554 14296 net.cpp:65] Creating Layer source_ims
I0813 02:45:30.108559 14296 net.cpp:189] source_ims -> source_ims
I0813 02:45:30.108615 14296 data_layer.cpp:223] Opening lmdb /scr/r6/tgebru/inverting_conv/caffe_invert_alexnet/data/siggraph/tiny_summer_val_lmdb
I0813 02:45:30.108834 14296 data_layer.cpp:285] output data size: 64,3,227,227
I0813 02:45:30.108839 14296 data_layer.cpp:304] Loading mean file from/scr/r6/tgebru/timnit_caffe/data/ilsvrc12/imagenet_mean.binaryproto
I0813 02:45:30.122948 14296 net.cpp:84] Top shape: 64 3 227 227 (9893568)
I0813 02:45:30.122966 14296 net.cpp:116] source_ims does not need backward computation.
I0813 02:45:30.122978 14296 net.cpp:65] Creating Layer target_ims
I0813 02:45:30.122983 14296 net.cpp:189] target_ims -> target_ims
I0813 02:45:30.123067 14296 data_layer.cpp:223] Opening lmdb /scr/r6/tgebru/inverting_conv/caffe_invert_alexnet/data/siggraph/tiny_winter_val_lmdb
I0813 02:45:30.123185 14296 data_layer.cpp:285] output data size: 64,3,216,216
I0813 02:45:30.123190 14296 data_layer.cpp:304] Loading mean file from/scr/r6/tgebru/timnit_caffe/data/ilsvrc12/imagenet_mean.binaryproto
I0813 02:45:30.135740 14296 net.cpp:84] Top shape: 64 3 216 216 (8957952)
I0813 02:45:30.135790 14296 net.cpp:116] target_ims does not need backward computation.
I0813 02:45:30.135804 14296 net.cpp:65] Creating Layer conv1
I0813 02:45:30.135808 14296 net.cpp:228] conv1 <- source_ims
I0813 02:45:30.135817 14296 net.cpp:189] conv1 -> conv1
I0813 02:45:30.137078 14296 net.cpp:84] Top shape: 64 96 55 55 (18585600)
I0813 02:45:30.137081 14296 net.cpp:116] conv1 does not need backward computation.
I0813 02:45:30.137086 14296 net.cpp:65] Creating Layer relu1
I0813 02:45:30.137089 14296 net.cpp:228] relu1 <- conv1
I0813 02:45:30.137094 14296 net.cpp:179] relu1 -> conv1 (in-place)
I0813 02:45:30.137099 14296 net.cpp:84] Top shape: 64 96 55 55 (18585600)
I0813 02:45:30.137102 14296 net.cpp:116] relu1 does not need backward computation.
I0813 02:45:30.137109 14296 net.cpp:65] Creating Layer pool1
I0813 02:45:30.137111 14296 net.cpp:228] pool1 <- conv1
I0813 02:45:30.137115 14296 net.cpp:189] pool1 -> pool1
I0813 02:45:30.137122 14296 net.cpp:84] Top shape: 64 96 27 27 (4478976)
I0813 02:45:30.137125 14296 net.cpp:116] pool1 does not need backward computation.
I0813 02:45:30.137130 14296 net.cpp:65] Creating Layer norm1
I0813 02:45:30.137133 14296 net.cpp:228] norm1 <- pool1
I0813 02:45:30.137138 14296 net.cpp:189] norm1 -> norm1
I0813 02:45:30.137145 14296 net.cpp:84] Top shape: 64 96 27 27 (4478976)
I0813 02:45:30.137147 14296 net.cpp:116] norm1 does not need backward computation.
I0813 02:45:30.137152 14296 net.cpp:65] Creating Layer Rconv6
I0813 02:45:30.137156 14296 net.cpp:228] Rconv6 <- norm1
I0813 02:45:30.137159 14296 net.cpp:189] Rconv6 -> Rconv6
I0813 02:45:30.137394 14296 net.cpp:84] Top shape: 64 256 27 27 (11943936)
I0813 02:45:30.137398 14296 net.cpp:116] Rconv6 does not need backward computation.
I0813 02:45:30.137403 14296 net.cpp:65] Creating Layer Rrelu6
I0813 02:45:30.137405 14296 net.cpp:228] Rrelu6 <- Rconv6
I0813 02:45:30.137409 14296 net.cpp:179] Rrelu6 -> Rconv6 (in-place)
I0813 02:45:30.137414 14296 net.cpp:84] Top shape: 64 256 27 27 (11943936)
I0813 02:45:30.137424 14296 net.cpp:116] Rrelu6 does not need backward computation.
I0813 02:45:30.137430 14296 net.cpp:65] Creating Layer Rconv7
I0813 02:45:30.137434 14296 net.cpp:228] Rconv7 <- Rconv6
I0813 02:45:30.137439 14296 net.cpp:189] Rconv7 -> Rconv7
I0813 02:45:30.138134 14296 net.cpp:84] Top shape: 64 256 27 27 (11943936)
I0813 02:45:30.138139 14296 net.cpp:116] Rconv7 does not need backward computation.
I0813 02:45:30.138142 14296 net.cpp:65] Creating Layer Rrelu7
I0813 02:45:30.138145 14296 net.cpp:228] Rrelu7 <- Rconv7
I0813 02:45:30.138149 14296 net.cpp:179] Rrelu7 -> Rconv7 (in-place)
I0813 02:45:30.138154 14296 net.cpp:84] Top shape: 64 256 27 27 (11943936)
I0813 02:45:30.138157 14296 net.cpp:116] Rrelu7 does not need backward computation.
I0813 02:45:30.138161 14296 net.cpp:65] Creating Layer Rconv8
I0813 02:45:30.138164 14296 net.cpp:228] Rconv8 <- Rconv7
I0813 02:45:30.138169 14296 net.cpp:189] Rconv8 -> Rconv8
I0813 02:45:30.138967 14296 net.cpp:84] Top shape: 64 256 27 27 (11943936)
I0813 02:45:30.138972 14296 net.cpp:116] Rconv8 does not need backward computation.
I0813 02:45:30.138977 14296 net.cpp:65] Creating Layer Rrelu8
I0813 02:45:30.138979 14296 net.cpp:228] Rrelu8 <- Rconv8
I0813 02:45:30.138983 14296 net.cpp:179] Rrelu8 -> Rconv8 (in-place)
I0813 02:45:30.138988 14296 net.cpp:84] Top shape: 64 256 27 27 (11943936)
I0813 02:45:30.138990 14296 net.cpp:116] Rrelu8 does not need backward computation.
I0813 02:45:30.138995 14296 net.cpp:65] Creating Layer deconv2
I0813 02:45:30.138998 14296 net.cpp:228] deconv2 <- Rconv8
I0813 02:45:30.139001 14296 net.cpp:189] deconv2 -> deconv2
I0813 02:45:30.140028 14296 net.cpp:84] Top shape: 64 64 54 54 (11943936)
I0813 02:45:30.140033 14296 net.cpp:116] deconv2 does not need backward computation.
I0813 02:45:30.140038 14296 net.cpp:65] Creating Layer relu_deconv2
I0813 02:45:30.140040 14296 net.cpp:228] relu_deconv2 <- deconv2
I0813 02:45:30.140044 14296 net.cpp:179] relu_deconv2 -> deconv2 (in-place)
I0813 02:45:30.140049 14296 net.cpp:84] Top shape: 64 64 54 54 (11943936)
I0813 02:45:30.140064 14296 net.cpp:116] relu_deconv2 does not need backward computation.
I0813 02:45:30.140069 14296 net.cpp:65] Creating Layer deconv1
I0813 02:45:30.140071 14296 net.cpp:228] deconv1 <- deconv2
I0813 02:45:30.140075 14296 net.cpp:189] deconv1 -> deconv1
I0813 02:45:30.140213 14296 net.cpp:84] Top shape: 64 32 108 108 (23887872)
I0813 02:45:30.140218 14296 net.cpp:116] deconv1 does not need backward computation.
I0813 02:45:30.140223 14296 net.cpp:65] Creating Layer relu_deconv1
I0813 02:45:30.140225 14296 net.cpp:228] relu_deconv1 <- deconv1
I0813 02:45:30.140229 14296 net.cpp:179] relu_deconv1 -> deconv1 (in-place)
I0813 02:45:30.140233 14296 net.cpp:84] Top shape: 64 32 108 108 (23887872)
I0813 02:45:30.140236 14296 net.cpp:116] relu_deconv1 does not need backward computation.
I0813 02:45:30.140244 14296 net.cpp:65] Creating Layer deconv0
I0813 02:45:30.140246 14296 net.cpp:228] deconv0 <- deconv1
I0813 02:45:30.140251 14296 net.cpp:189] deconv0 -> deconv0
I0813 02:45:30.140276 14296 net.cpp:84] Top shape: 64 3 216 216 (8957952)
I0813 02:45:30.140280 14296 net.cpp:116] deconv0 does not need backward computation.
I0813 02:45:30.140283 14296 net.cpp:65] Creating Layer loss
I0813 02:45:30.140285 14296 net.cpp:228] loss <- deconv0
I0813 02:45:30.140290 14296 net.cpp:228] loss <- target_ims
I0813 02:45:30.140295 14296 net.cpp:116] loss does not need backward computation.
I0813 02:45:30.140307 14296 net.cpp:238] Collecting Learning Rate and Weight Decay.
…
