…
    source: "/scr/r6/tgebru/inverting_conv/caffe_invert_alexnet/data/siggraph/tiny_summer_train_lmdb"
    mean_file: "/scr/r6/tgebru/timnit_caffe/data/ilsvrc12/imagenet_mean.binaryproto"
    batch_size: 12
    crop_size: 227
    mirror: false
    backend: LMDB
  }
}
layers {
  top: "target_ims"
  name: "target_ims"
  type: DATA
  data_param {
    source: "/scr/r6/tgebru/inverting_conv/caffe_invert_alexnet/data/siggraph/tiny_summer_train_lmdb"
    mean_file: "/scr/r6/tgebru/timnit_caffe/data/ilsvrc12/imagenet_mean.binaryproto"
    batch_size: 12
    crop_size: 216
    mirror: false
    backend: LMDB
  }
}
layers {
  bottom: "source_ims"
  top: "conv1"
  name: "conv1"
  type: CONVOLUTION
  blobs_lr: 0
  blobs_lr: 0
  weight_decay: 1
  weight_decay: 0
  convolution_param {
    num_output: 96
    kernel_size: 11
    stride: 4
    weight_filler {
      type: "gaussian"
      std: 0.01
    }
    bias_filler {
      type: "constant"
      value: 0
    }
  }
}
layers {
  bottom: "conv1"
  top: "conv1"
  name: "relu1"
  type: RELU
}
layers {
  bottom: "conv1"
  top: "pool1"
  name: "pool1"
  type: POOLING
  pooling_param {
    pool: MAX
    kernel_size: 3
    stride: 2
  }
}
layers {
  bottom: "pool1"
  top: "norm1"
  name: "norm1"
  type: LRN
  lrn_param {
    local_size: 5
    alpha: 0.0001
    beta: 0.75
  }
}
layers {
  bottom: "norm1"
  top: "Rconv6"
  name: "Rconv6"
  type: CONVOLUTION
  blobs_lr: 1
  blobs_lr: 2
  weight_decay: 1
  weight_decay: 0
  convolution_param {
    num_output: 256
    pad: 1
    kernel_size: 3
  }
}
layers {
  bottom: "Rconv6"
  top: "Rconv6"
  name: "Rrelu6"
  type: RELU
}
layers {
  bottom: "Rconv6"
  top: "Rconv7"
  name: "Rconv7"
  type: CONVOLUTION
  blobs_lr: 1
  blobs_lr: 2
  weight_decay: 1
  weight_decay: 0
  convolution_param {
    num_output: 256
    pad: 1
    kernel_size: 3
    group: 2
  }
}
layers {
  bottom: "Rconv7"
  top: "Rconv7"
  name: "Rrelu7"
  type: RELU
}
layers {
  bottom: "Rconv7"
  top: "Rconv8"
  name: "Rconv8"
  type: CONVOLUTION
  blobs_lr: 1
  blobs_lr: 2
  weight_decay: 1
  weight_decay: 0
  convolution_param {
    num_output: 256
    pad: 1
    kernel_size: 3
    group: 2
  }
}
layers {
  bottom: "Rconv8"
  top: "Rconv8"
  name: "Rrelu8"
  type: RELU
}
layers {
  bottom: "Rconv8"
  top: "deconv2"
  name: "deconv2"
  type: DECONVOLUTION
  blobs_lr: 1
  blobs_lr: 2
  weight_decay: 1
  weight_decay: 0
  deconvolution_param {
    pad: 2
    kernel_size: 5
    stride: 2
    output_height: 54
    output_width: 54
    output_channels: 64
  }
}
layers {
  bottom: "deconv2"
  top: "deconv2"
  name: "relu_deconv2"
  type: RELU
  relu_param {
    negative_slope: 0.3
  }
}
layers {
  bottom: "deconv2"
  top: "deconv1"
  name: "deconv1"
  type: DECONVOLUTION
  blobs_lr: 1
  blobs_lr: 2
  weight_decay: 1
  weight_decay: 0
  deconvolution_param {
    pad: 2
    kernel_size: 5
    stride: 2
    output_height: 108
    output_width: 108
    output_channels: 32
  }
}
layers {
  bottom: "deconv1"
  top: "deconv1"
  name: "relu_deconv1"
  type: RELU
  relu_param {
    negative_slope: 0.3
  }
}
layers {
  bottom: "deconv1"
  top: "deconv0"
  name: "deconv0"
  type: DECONVOLUTION
  blobs_lr: 1
  blobs_lr: 2
  weight_decay: 1
  weight_decay: 1
  deconvolution_param {
    pad: 2
    kernel_size: 5
    stride: 2
    output_height: 216
    output_width: 216
    output_channels: 3
  }
}
layers {
  bottom: "deconv0"
  bottom: "target_ims"
  name: "loss"
  type: EUCLIDEAN_LOSS
}
I0813 12:05:22.000254 14216 net.cpp:65] Creating Layer source_ims
I0813 12:05:22.000262 14216 net.cpp:189] source_ims -> source_ims
I0813 12:05:22.000363 14216 data_layer.cpp:223] Opening lmdb /scr/r6/tgebru/inverting_conv/caffe_invert_alexnet/data/siggraph/tiny_summer_train_lmdb
I0813 12:05:22.000571 14216 data_layer.cpp:285] output data size: 12,3,227,227
I0813 12:05:22.000577 14216 data_layer.cpp:304] Loading mean file from/scr/r6/tgebru/timnit_caffe/data/ilsvrc12/imagenet_mean.binaryproto
I0813 12:05:22.005662 14216 net.cpp:84] Top shape: 12 3 227 227 (1855044)
I0813 12:05:22.005671 14216 net.cpp:116] source_ims does not need backward computation.
I0813 12:05:22.005678 14216 net.cpp:65] Creating Layer target_ims
I0813 12:05:22.005682 14216 net.cpp:189] target_ims -> target_ims
I0813 12:05:22.005852 14216 data_layer.cpp:223] Opening lmdb /scr/r6/tgebru/inverting_conv/caffe_invert_alexnet/data/siggraph/tiny_summer_train_lmdb
I0813 12:05:22.006007 14216 data_layer.cpp:285] output data size: 12,3,216,216
I0813 12:05:22.006012 14216 data_layer.cpp:304] Loading mean file from/scr/r6/tgebru/timnit_caffe/data/ilsvrc12/imagenet_mean.binaryproto
I0813 12:05:22.010498 14216 net.cpp:84] Top shape: 12 3 216 216 (1679616)
I0813 12:05:22.010506 14216 net.cpp:116] target_ims does not need backward computation.
I0813 12:05:22.010519 14216 net.cpp:65] Creating Layer conv1
I0813 12:05:22.010522 14216 net.cpp:228] conv1 <- source_ims
I0813 12:05:22.010546 14216 net.cpp:189] conv1 -> conv1
I0813 12:05:22.012028 14216 net.cpp:84] Top shape: 12 96 55 55 (3484800)
I0813 12:05:22.012039 14216 net.cpp:116] conv1 does not need backward computation.
I0813 12:05:22.012044 14216 net.cpp:65] Creating Layer relu1
I0813 12:05:22.012048 14216 net.cpp:228] relu1 <- conv1
I0813 12:05:22.012054 14216 net.cpp:179] relu1 -> conv1 (in-place)
I0813 12:05:22.012064 14216 net.cpp:84] Top shape: 12 96 55 55 (3484800)
I0813 12:05:22.012068 14216 net.cpp:116] relu1 does not need backward computation.
I0813 12:05:22.012073 14216 net.cpp:65] Creating Layer pool1
I0813 12:05:22.012076 14216 net.cpp:228] pool1 <- conv1
I0813 12:05:22.012080 14216 net.cpp:189] pool1 -> pool1
I0813 12:05:22.012092 14216 net.cpp:84] Top shape: 12 96 27 27 (839808)
I0813 12:05:22.012095 14216 net.cpp:116] pool1 does not need backward computation.
I0813 12:05:22.012100 14216 net.cpp:65] Creating Layer norm1
I0813 12:05:22.012104 14216 net.cpp:228] norm1 <- pool1
I0813 12:05:22.012107 14216 net.cpp:189] norm1 -> norm1
I0813 12:05:22.012116 14216 net.cpp:84] Top shape: 12 96 27 27 (839808)
I0813 12:05:22.012120 14216 net.cpp:116] norm1 does not need backward computation.
I0813 12:05:22.012123 14216 net.cpp:65] Creating Layer Rconv6
I0813 12:05:22.012126 14216 net.cpp:228] Rconv6 <- norm1
I0813 12:05:22.012130 14216 net.cpp:189] Rconv6 -> Rconv6
I0813 12:05:22.012398 14216 net.cpp:84] Top shape: 12 256 27 27 (2239488)
I0813 12:05:22.012403 14216 net.cpp:111] Rconv6 needs backward computation.
I0813 12:05:22.012406 14216 net.cpp:65] Creating Layer Rrelu6
I0813 12:05:22.012410 14216 net.cpp:228] Rrelu6 <- Rconv6
I0813 12:05:22.012414 14216 net.cpp:179] Rrelu6 -> Rconv6 (in-place)
I0813 12:05:22.012418 14216 net.cpp:84] Top shape: 12 256 27 27 (2239488)
I0813 12:05:22.012421 14216 net.cpp:111] Rrelu6 needs backward computation.
I0813 12:05:22.012426 14216 net.cpp:65] Creating Layer Rconv7
I0813 12:05:22.012429 14216 net.cpp:228] Rconv7 <- Rconv6
I0813 12:05:22.012434 14216 net.cpp:189] Rconv7 -> Rconv7
I0813 12:05:22.013190 14216 net.cpp:84] Top shape: 12 256 27 27 (2239488)
I0813 12:05:22.013196 14216 net.cpp:111] Rconv7 needs backward computation.
I0813 12:05:22.013200 14216 net.cpp:65] Creating Layer Rrelu7
I0813 12:05:22.013202 14216 net.cpp:228] Rrelu7 <- Rconv7
I0813 12:05:22.013226 14216 net.cpp:179] Rrelu7 -> Rconv7 (in-place)
I0813 12:05:22.013231 14216 net.cpp:84] Top shape: 12 256 27 27 (2239488)
I0813 12:05:22.013233 14216 net.cpp:111] Rrelu7 needs backward computation.
I0813 12:05:22.013238 14216 net.cpp:65] Creating Layer Rconv8
I0813 12:05:22.013241 14216 net.cpp:228] Rconv8 <- Rconv7
I0813 12:05:22.013244 14216 net.cpp:189] Rconv8 -> Rconv8
I0813 12:05:22.014024 14216 net.cpp:84] Top shape: 12 256 27 27 (2239488)
I0813 12:05:22.014030 14216 net.cpp:111] Rconv8 needs backward computation.
I0813 12:05:22.014034 14216 net.cpp:65] Creating Layer Rrelu8
I0813 12:05:22.014036 14216 net.cpp:228] Rrelu8 <- Rconv8
I0813 12:05:22.014040 14216 net.cpp:179] Rrelu8 -> Rconv8 (in-place)
I0813 12:05:22.014045 14216 net.cpp:84] Top shape: 12 256 27 27 (2239488)
I0813 12:05:22.014047 14216 net.cpp:111] Rrelu8 needs backward computation.
I0813 12:05:22.014051 14216 net.cpp:65] Creating Layer deconv2
I0813 12:05:22.014053 14216 net.cpp:228] deconv2 <- Rconv8
I0813 12:05:22.014057 14216 net.cpp:189] deconv2 -> deconv2
I0813 12:05:22.015105 14216 net.cpp:84] Top shape: 12 64 54 54 (2239488)
I0813 12:05:22.015110 14216 net.cpp:111] deconv2 needs backward computation.
I0813 12:05:22.015113 14216 net.cpp:65] Creating Layer relu_deconv2
I0813 12:05:22.015116 14216 net.cpp:228] relu_deconv2 <- deconv2
I0813 12:05:22.015120 14216 net.cpp:179] relu_deconv2 -> deconv2 (in-place)
I0813 12:05:22.015125 14216 net.cpp:84] Top shape: 12 64 54 54 (2239488)
I0813 12:05:22.015128 14216 net.cpp:111] relu_deconv2 needs backward computation.
I0813 12:05:22.015132 14216 net.cpp:65] Creating Layer deconv1
I0813 12:05:22.015135 14216 net.cpp:228] deconv1 <- deconv2
I0813 12:05:22.015138 14216 net.cpp:189] deconv1 -> deconv1
I0813 12:05:22.015291 14216 net.cpp:84] Top shape: 12 32 108 108 (4478976)
I0813 12:05:22.015295 14216 net.cpp:111] deconv1 needs backward computation.
I0813 12:05:22.015300 14216 net.cpp:65] Creating Layer relu_deconv1
I0813 12:05:22.015303 14216 net.cpp:228] relu_deconv1 <- deconv1
I0813 12:05:22.015306 14216 net.cpp:179] relu_deconv1 -> deconv1 (in-place)
I0813 12:05:22.015311 14216 net.cpp:84] Top shape: 12 32 108 108 (4478976)
I0813 12:05:22.015313 14216 net.cpp:111] relu_deconv1 needs backward computation.
I0813 12:05:22.015319 14216 net.cpp:65] Creating Layer deconv0
I0813 12:05:22.015321 14216 net.cpp:228] deconv0 <- deconv1
I0813 12:05:22.015326 14216 net.cpp:189] deconv0 -> deconv0
I0813 12:05:22.015348 14216 net.cpp:84] Top shape: 12 3 216 216 (1679616)
I0813 12:05:22.015352 14216 net.cpp:111] deconv0 needs backward computation.
I0813 12:05:22.015355 14216 net.cpp:65] Creating Layer loss
I0813 12:05:22.015358 14216 net.cpp:228] loss <- deconv0
I0813 12:05:22.015362 14216 net.cpp:228] loss <- target_ims
I0813 12:05:22.015369 14216 net.cpp:111] loss needs backward computation.
I0813 12:05:22.015383 14216 net.cpp:238] Collecting Learning Rate and Weight Decay.
…
    source: "/scr/r6/tgebru/inverting_conv/caffe_invert_alexnet/data/siggraph/tiny_summer_val_lmdb"
    mean_file: "/scr/r6/tgebru/timnit_caffe/data/ilsvrc12/imagenet_mean.binaryproto"
    batch_size: 2
    crop_size: 227
    mirror: false
    backend: LMDB
  }
}
layers {
  top: "target_ims"
  name: "target_ims"
  type: DATA
  data_param {
    source: "/scr/r6/tgebru/inverting_conv/caffe_invert_alexnet/data/siggraph/tiny_summer_val_lmdb"
    mean_file: "/scr/r6/tgebru/timnit_caffe/data/ilsvrc12/imagenet_mean.binaryproto"
    batch_size: 2
    crop_size: 216
    mirror: false
    backend: LMDB
  }
}
layers {
  bottom: "source_ims"
  top: "conv1"
  name: "conv1"
  type: CONVOLUTION
  blobs_lr: 0
  blobs_lr: 0
  weight_decay: 1
  weight_decay: 0
  convolution_param {
    num_output: 96
    kernel_size: 11
    stride: 4
    weight_filler {
      type: "gaussian"
      std: 0.01
    }
    bias_filler {
      type: "constant"
      value: 0
    }
  }
}
layers {
  bottom: "conv1"
  top: "conv1"
  name: "relu1"
  type: RELU
}
layers {
  bottom: "conv1"
  top: "pool1"
  name: "pool1"
  type: POOLING
  pooling_param {
    pool: MAX
    kernel_size: 3
    stride: 2
  }
}
layers {
  bottom: "pool1"
  top: "norm1"
  name: "norm1"
  type: LRN
  lrn_param {
    local_size: 5
    alpha: 0.0001
    beta: 0.75
  }
}
layers {
  bottom: "norm1"
  top: "Rconv6"
  name: "Rconv6"
  type: CONVOLUTION
  blobs_lr: 0
  blobs_lr: 0
  weight_decay: 1
  weight_decay: 0
  convolution_param {
    num_output: 256
    pad: 1
    kernel_size: 3
  }
}
layers {
  bottom: "Rconv6"
  top: "Rconv6"
  name: "Rrelu6"
  type: RELU
}
layers {
  bottom: "Rconv6"
  top: "Rconv7"
  name: "Rconv7"
  type: CONVOLUTION
  blobs_lr: 0
  blobs_lr: 0
  weight_decay: 1
  weight_decay: 0
  convolution_param {
    num_output: 256
    pad: 1
    kernel_size: 3
    group: 2
  }
}
layers {
  bottom: "Rconv7"
  top: "Rconv7"
  name: "Rrelu7"
  type: RELU
}
layers {
  bottom: "Rconv7"
  top: "Rconv8"
  name: "Rconv8"
  type: CONVOLUTION
  blobs_lr: 0
  blobs_lr: 0
  weight_decay: 1
  weight_decay: 0
  convolution_param {
    num_output: 256
    pad: 1
    kernel_size: 3
    group: 2
  }
}
layers {
  bottom: "Rconv8"
  top: "Rconv8"
  name: "Rrelu8"
  type: RELU
}
layers {
  bottom: "Rconv8"
  top: "deconv2"
  name: "deconv2"
  type: DECONVOLUTION
  blobs_lr: 0
  blobs_lr: 0
  weight_decay: 1
  weight_decay: 0
  deconvolution_param {
    pad: 2
    kernel_size: 5
    stride: 2
    output_height: 54
    output_width: 54
    output_channels: 64
  }
}
layers {
  bottom: "deconv2"
  top: "deconv2"
  name: "relu_deconv2"
  type: RELU
  relu_param {
    negative_slope: 0.3
  }
}
layers {
  bottom: "deconv2"
  top: "deconv1"
  name: "deconv1"
  type: DECONVOLUTION
  blobs_lr: 0
  blobs_lr: 0
  weight_decay: 1
  weight_decay: 0
  deconvolution_param {
    pad: 2
    kernel_size: 5
    stride: 2
    output_height: 108
    output_width: 108
    output_channels: 32
  }
}
layers {
  bottom: "deconv1"
  top: "deconv1"
  name: "relu_deconv1"
  type: RELU
  relu_param {
    negative_slope: 0.3
  }
}
layers {
  bottom: "deconv1"
  top: "deconv0"
  name: "deconv0"
  type: DECONVOLUTION
  blobs_lr: 0
  blobs_lr: 0
  weight_decay: 1
  weight_decay: 0
  deconvolution_param {
    pad: 2
    kernel_size: 5
    stride: 2
    output_height: 216
    output_width: 216
    output_channels: 3
  }
}
layers {
  bottom: "deconv0"
  bottom: "target_ims"
  name: "loss"
  type: EUCLIDEAN_LOSS
}
I0813 12:05:22.016095 14216 net.cpp:65] Creating Layer source_ims
I0813 12:05:22.016100 14216 net.cpp:189] source_ims -> source_ims
I0813 12:05:22.016155 14216 data_layer.cpp:223] Opening lmdb /scr/r6/tgebru/inverting_conv/caffe_invert_alexnet/data/siggraph/tiny_summer_val_lmdb
I0813 12:05:22.016360 14216 data_layer.cpp:285] output data size: 2,3,227,227
I0813 12:05:22.016363 14216 data_layer.cpp:304] Loading mean file from/scr/r6/tgebru/timnit_caffe/data/ilsvrc12/imagenet_mean.binaryproto
I0813 12:05:22.018772 14216 net.cpp:84] Top shape: 2 3 227 227 (309174)
I0813 12:05:22.018779 14216 net.cpp:116] source_ims does not need backward computation.
I0813 12:05:22.018785 14216 net.cpp:65] Creating Layer target_ims
I0813 12:05:22.018790 14216 net.cpp:189] target_ims -> target_ims
I0813 12:05:22.018841 14216 data_layer.cpp:223] Opening lmdb /scr/r6/tgebru/inverting_conv/caffe_invert_alexnet/data/siggraph/tiny_summer_val_lmdb
I0813 12:05:22.018923 14216 data_layer.cpp:285] output data size: 2,3,216,216
I0813 12:05:22.018925 14216 data_layer.cpp:304] Loading mean file from/scr/r6/tgebru/timnit_caffe/data/ilsvrc12/imagenet_mean.binaryproto
I0813 12:05:22.021139 14216 net.cpp:84] Top shape: 2 3 216 216 (279936)
I0813 12:05:22.021145 14216 net.cpp:116] target_ims does not need backward computation.
I0813 12:05:22.021167 14216 net.cpp:65] Creating Layer conv1
I0813 12:05:22.021172 14216 net.cpp:228] conv1 <- source_ims
I0813 12:05:22.021178 14216 net.cpp:189] conv1 -> conv1
I0813 12:05:22.022428 14216 net.cpp:84] Top shape: 2 96 55 55 (580800)
I0813 12:05:22.022433 14216 net.cpp:116] conv1 does not need backward computation.
I0813 12:05:22.022436 14216 net.cpp:65] Creating Layer relu1
I0813 12:05:22.022439 14216 net.cpp:228] relu1 <- conv1
I0813 12:05:22.022444 14216 net.cpp:179] relu1 -> conv1 (in-place)
I0813 12:05:22.022449 14216 net.cpp:84] Top shape: 2 96 55 55 (580800)
I0813 12:05:22.022451 14216 net.cpp:116] relu1 does not need backward computation.
I0813 12:05:22.022455 14216 net.cpp:65] Creating Layer pool1
I0813 12:05:22.022457 14216 net.cpp:228] pool1 <- conv1
I0813 12:05:22.022462 14216 net.cpp:189] pool1 -> pool1
I0813 12:05:22.022469 14216 net.cpp:84] Top shape: 2 96 27 27 (139968)
I0813 12:05:22.022470 14216 net.cpp:116] pool1 does not need backward computation.
I0813 12:05:22.022475 14216 net.cpp:65] Creating Layer norm1
I0813 12:05:22.022477 14216 net.cpp:228] norm1 <- pool1
I0813 12:05:22.022481 14216 net.cpp:189] norm1 -> norm1
I0813 12:05:22.022486 14216 net.cpp:84] Top shape: 2 96 27 27 (139968)
I0813 12:05:22.022490 14216 net.cpp:116] norm1 does not need backward computation.
I0813 12:05:22.022493 14216 net.cpp:65] Creating Layer Rconv6
I0813 12:05:22.022495 14216 net.cpp:228] Rconv6 <- norm1
I0813 12:05:22.022500 14216 net.cpp:189] Rconv6 -> Rconv6
I0813 12:05:22.023042 14216 net.cpp:84] Top shape: 2 256 27 27 (373248)
I0813 12:05:22.023047 14216 net.cpp:116] Rconv6 does not need backward computation.
I0813 12:05:22.023051 14216 net.cpp:65] Creating Layer Rrelu6
I0813 12:05:22.023053 14216 net.cpp:228] Rrelu6 <- Rconv6
I0813 12:05:22.023057 14216 net.cpp:179] Rrelu6 -> Rconv6 (in-place)
I0813 12:05:22.023062 14216 net.cpp:84] Top shape: 2 256 27 27 (373248)
I0813 12:05:22.023066 14216 net.cpp:116] Rrelu6 does not need backward computation.
I0813 12:05:22.023069 14216 net.cpp:65] Creating Layer Rconv7
I0813 12:05:22.023072 14216 net.cpp:228] Rconv7 <- Rconv6
I0813 12:05:22.023077 14216 net.cpp:189] Rconv7 -> Rconv7
I0813 12:05:22.023810 14216 net.cpp:84] Top shape: 2 256 27 27 (373248)
I0813 12:05:22.023815 14216 net.cpp:116] Rconv7 does not need backward computation.
I0813 12:05:22.023818 14216 net.cpp:65] Creating Layer Rrelu7
I0813 12:05:22.023821 14216 net.cpp:228] Rrelu7 <- Rconv7
I0813 12:05:22.023825 14216 net.cpp:179] Rrelu7 -> Rconv7 (in-place)
I0813 12:05:22.023829 14216 net.cpp:84] Top shape: 2 256 27 27 (373248)
I0813 12:05:22.023833 14216 net.cpp:116] Rrelu7 does not need backward computation.
I0813 12:05:22.023836 14216 net.cpp:65] Creating Layer Rconv8
I0813 12:05:22.023838 14216 net.cpp:228] Rconv8 <- Rconv7
I0813 12:05:22.023843 14216 net.cpp:189] Rconv8 -> Rconv8
I0813 12:05:22.024571 14216 net.cpp:84] Top shape: 2 256 27 27 (373248)
I0813 12:05:22.024576 14216 net.cpp:116] Rconv8 does not need backward computation.
I0813 12:05:22.024580 14216 net.cpp:65] Creating Layer Rrelu8
I0813 12:05:22.024582 14216 net.cpp:228] Rrelu8 <- Rconv8
I0813 12:05:22.024586 14216 net.cpp:179] Rrelu8 -> Rconv8 (in-place)
I0813 12:05:22.024590 14216 net.cpp:84] Top shape: 2 256 27 27 (373248)
I0813 12:05:22.024592 14216 net.cpp:116] Rrelu8 does not need backward computation.
I0813 12:05:22.024596 14216 net.cpp:65] Creating Layer deconv2
I0813 12:05:22.024600 14216 net.cpp:228] deconv2 <- Rconv8
I0813 12:05:22.024602 14216 net.cpp:189] deconv2 -> deconv2
I0813 12:05:22.025619 14216 net.cpp:84] Top shape: 2 64 54 54 (373248)
I0813 12:05:22.025624 14216 net.cpp:116] deconv2 does not need backward computation.
I0813 12:05:22.025629 14216 net.cpp:65] Creating Layer relu_deconv2
I0813 12:05:22.025632 14216 net.cpp:228] relu_deconv2 <- deconv2
I0813 12:05:22.025635 14216 net.cpp:179] relu_deconv2 -> deconv2 (in-place)
I0813 12:05:22.025640 14216 net.cpp:84] Top shape: 2 64 54 54 (373248)
I0813 12:05:22.025643 14216 net.cpp:116] relu_deconv2 does not need backward computation.
I0813 12:05:22.025657 14216 net.cpp:65] Creating Layer deconv1
I0813 12:05:22.025660 14216 net.cpp:228] deconv1 <- deconv2
I0813 12:05:22.025665 14216 net.cpp:189] deconv1 -> deconv1
I0813 12:05:22.025799 14216 net.cpp:84] Top shape: 2 32 108 108 (746496)
I0813 12:05:22.025802 14216 net.cpp:116] deconv1 does not need backward computation.
I0813 12:05:22.025806 14216 net.cpp:65] Creating Layer relu_deconv1
I0813 12:05:22.025809 14216 net.cpp:228] relu_deconv1 <- deconv1
I0813 12:05:22.025812 14216 net.cpp:179] relu_deconv1 -> deconv1 (in-place)
I0813 12:05:22.025817 14216 net.cpp:84] Top shape: 2 32 108 108 (746496)
I0813 12:05:22.025820 14216 net.cpp:116] relu_deconv1 does not need backward computation.
I0813 12:05:22.025825 14216 net.cpp:65] Creating Layer deconv0
I0813 12:05:22.025828 14216 net.cpp:228] deconv0 <- deconv1
I0813 12:05:22.025832 14216 net.cpp:189] deconv0 -> deconv0
I0813 12:05:22.025851 14216 net.cpp:84] Top shape: 2 3 216 216 (279936)
I0813 12:05:22.025853 14216 net.cpp:116] deconv0 does not need backward computation.
I0813 12:05:22.025856 14216 net.cpp:65] Creating Layer loss
I0813 12:05:22.025859 14216 net.cpp:228] loss <- deconv0
I0813 12:05:22.025862 14216 net.cpp:228] loss <- target_ims
I0813 12:05:22.025866 14216 net.cpp:116] loss does not need backward computation.
I0813 12:05:22.025878 14216 net.cpp:238] Collecting Learning Rate and Weight Decay.
…
