…
    source: "/scr/r6/tgebru/inverting_conv/caffe_invert_alexnet/data/siggraph/tiny_winter_train_lmdb"
    mean_file: "/scr/r6/tgebru/timnit_caffe/data/ilsvrc12/imagenet_mean.binaryproto"
    batch_size: 12
    crop_size: 227
    mirror: false
    backend: LMDB
  }
}
layers {
  top: "target_ims"
  name: "target_ims"
  type: DATA
  data_param {
    source: "/scr/r6/tgebru/inverting_conv/caffe_invert_alexnet/data/siggraph/tiny_summer_train_lmdb"
    mean_file: "/scr/r6/tgebru/timnit_caffe/data/ilsvrc12/imagenet_mean.binaryproto"
    batch_size: 12
    crop_size: 216
    mirror: false
    backend: LMDB
  }
}
layers {
  bottom: "source_ims"
  top: "conv1"
  name: "conv1"
  type: CONVOLUTION
  blobs_lr: 0
  blobs_lr: 0
  weight_decay: 1
  weight_decay: 0
  convolution_param {
    num_output: 96
    kernel_size: 11
    stride: 4
    weight_filler {
      type: "gaussian"
      std: 0.01
    }
    bias_filler {
      type: "constant"
      value: 0
    }
  }
}
layers {
  bottom: "conv1"
  top: "conv1"
  name: "relu1"
  type: RELU
}
layers {
  bottom: "conv1"
  top: "pool1"
  name: "pool1"
  type: POOLING
  pooling_param {
    pool: MAX
    kernel_size: 3
    stride: 2
  }
}
layers {
  bottom: "pool1"
  top: "norm1"
  name: "norm1"
  type: LRN
  lrn_param {
    local_size: 5
    alpha: 0.0001
    beta: 0.75
  }
}
layers {
  bottom: "norm1"
  top: "Rconv6"
  name: "Rconv6"
  type: CONVOLUTION
  blobs_lr: 1
  blobs_lr: 2
  weight_decay: 1
  weight_decay: 0
  convolution_param {
    num_output: 256
    pad: 1
    kernel_size: 3
  }
}
layers {
  bottom: "Rconv6"
  top: "Rconv6"
  name: "Rrelu6"
  type: RELU
}
layers {
  bottom: "Rconv6"
  top: "Rconv7"
  name: "Rconv7"
  type: CONVOLUTION
  blobs_lr: 1
  blobs_lr: 2
  weight_decay: 1
  weight_decay: 0
  convolution_param {
    num_output: 256
    pad: 1
    kernel_size: 3
    group: 2
  }
}
layers {
  bottom: "Rconv7"
  top: "Rconv7"
  name: "Rrelu7"
  type: RELU
}
layers {
  bottom: "Rconv7"
  top: "Rconv8"
  name: "Rconv8"
  type: CONVOLUTION
  blobs_lr: 1
  blobs_lr: 2
  weight_decay: 1
  weight_decay: 0
  convolution_param {
    num_output: 256
    pad: 1
    kernel_size: 3
    group: 2
  }
}
layers {
  bottom: "Rconv8"
  top: "Rconv8"
  name: "Rrelu8"
  type: RELU
}
layers {
  bottom: "Rconv8"
  top: "deconv2"
  name: "deconv2"
  type: DECONVOLUTION
  blobs_lr: 1
  blobs_lr: 2
  weight_decay: 1
  weight_decay: 0
  deconvolution_param {
    pad: 2
    kernel_size: 5
    stride: 2
    output_height: 54
    output_width: 54
    output_channels: 64
  }
}
layers {
  bottom: "deconv2"
  top: "deconv2"
  name: "relu_deconv2"
  type: RELU
  relu_param {
    negative_slope: 0.3
  }
}
layers {
  bottom: "deconv2"
  top: "deconv1"
  name: "deconv1"
  type: DECONVOLUTION
  blobs_lr: 1
  blobs_lr: 2
  weight_decay: 1
  weight_decay: 0
  deconvolution_param {
    pad: 2
    kernel_size: 5
    stride: 2
    output_height: 108
    output_width: 108
    output_channels: 32
  }
}
layers {
  bottom: "deconv1"
  top: "deconv1"
  name: "relu_deconv1"
  type: RELU
  relu_param {
    negative_slope: 0.3
  }
}
layers {
  bottom: "deconv1"
  top: "deconv0"
  name: "deconv0"
  type: DECONVOLUTION
  blobs_lr: 1
  blobs_lr: 2
  weight_decay: 1
  weight_decay: 1
  deconvolution_param {
    pad: 2
    kernel_size: 5
    stride: 2
    output_height: 216
    output_width: 216
    output_channels: 3
  }
}
layers {
  bottom: "deconv0"
  bottom: "target_ims"
  name: "loss"
  type: EUCLIDEAN_LOSS
}
I0812 21:50:21.479336 11351 net.cpp:65] Creating Layer source_ims
I0812 21:50:21.479344 11351 net.cpp:189] source_ims -> source_ims
I0812 21:50:21.479449 11351 data_layer.cpp:223] Opening lmdb /scr/r6/tgebru/inverting_conv/caffe_invert_alexnet/data/siggraph/tiny_winter_train_lmdb
I0812 21:50:21.479672 11351 data_layer.cpp:285] output data size: 12,3,227,227
I0812 21:50:21.479678 11351 data_layer.cpp:304] Loading mean file from/scr/r6/tgebru/timnit_caffe/data/ilsvrc12/imagenet_mean.binaryproto
I0812 21:50:21.485312 11351 net.cpp:84] Top shape: 12 3 227 227 (1855044)
I0812 21:50:21.485321 11351 net.cpp:116] source_ims does not need backward computation.
I0812 21:50:21.485327 11351 net.cpp:65] Creating Layer target_ims
I0812 21:50:21.485332 11351 net.cpp:189] target_ims -> target_ims
I0812 21:50:21.485429 11351 data_layer.cpp:223] Opening lmdb /scr/r6/tgebru/inverting_conv/caffe_invert_alexnet/data/siggraph/tiny_summer_train_lmdb
I0812 21:50:21.485550 11351 data_layer.cpp:285] output data size: 12,3,216,216
I0812 21:50:21.485554 11351 data_layer.cpp:304] Loading mean file from/scr/r6/tgebru/timnit_caffe/data/ilsvrc12/imagenet_mean.binaryproto
I0812 21:50:21.489859 11351 net.cpp:84] Top shape: 12 3 216 216 (1679616)
I0812 21:50:21.489866 11351 net.cpp:116] target_ims does not need backward computation.
I0812 21:50:21.489874 11351 net.cpp:65] Creating Layer conv1
I0812 21:50:21.489878 11351 net.cpp:228] conv1 <- source_ims
I0812 21:50:21.489912 11351 net.cpp:189] conv1 -> conv1
I0812 21:50:21.491183 11351 net.cpp:84] Top shape: 12 96 55 55 (3484800)
I0812 21:50:21.491189 11351 net.cpp:116] conv1 does not need backward computation.
I0812 21:50:21.491194 11351 net.cpp:65] Creating Layer relu1
I0812 21:50:21.491196 11351 net.cpp:228] relu1 <- conv1
I0812 21:50:21.491201 11351 net.cpp:179] relu1 -> conv1 (in-place)
I0812 21:50:21.491210 11351 net.cpp:84] Top shape: 12 96 55 55 (3484800)
I0812 21:50:21.491212 11351 net.cpp:116] relu1 does not need backward computation.
I0812 21:50:21.491219 11351 net.cpp:65] Creating Layer pool1
I0812 21:50:21.491221 11351 net.cpp:228] pool1 <- conv1
I0812 21:50:21.491225 11351 net.cpp:189] pool1 -> pool1
I0812 21:50:21.491237 11351 net.cpp:84] Top shape: 12 96 27 27 (839808)
I0812 21:50:21.491240 11351 net.cpp:116] pool1 does not need backward computation.
I0812 21:50:21.491246 11351 net.cpp:65] Creating Layer norm1
I0812 21:50:21.491250 11351 net.cpp:228] norm1 <- pool1
I0812 21:50:21.491253 11351 net.cpp:189] norm1 -> norm1
I0812 21:50:21.491262 11351 net.cpp:84] Top shape: 12 96 27 27 (839808)
I0812 21:50:21.491266 11351 net.cpp:116] norm1 does not need backward computation.
I0812 21:50:21.491271 11351 net.cpp:65] Creating Layer Rconv6
I0812 21:50:21.491273 11351 net.cpp:228] Rconv6 <- norm1
I0812 21:50:21.491277 11351 net.cpp:189] Rconv6 -> Rconv6
I0812 21:50:21.491448 11351 net.cpp:84] Top shape: 12 256 27 27 (2239488)
I0812 21:50:21.491452 11351 net.cpp:111] Rconv6 needs backward computation.
I0812 21:50:21.491457 11351 net.cpp:65] Creating Layer Rrelu6
I0812 21:50:21.491461 11351 net.cpp:228] Rrelu6 <- Rconv6
I0812 21:50:21.491464 11351 net.cpp:179] Rrelu6 -> Rconv6 (in-place)
I0812 21:50:21.491469 11351 net.cpp:84] Top shape: 12 256 27 27 (2239488)
I0812 21:50:21.491472 11351 net.cpp:111] Rrelu6 needs backward computation.
I0812 21:50:21.491477 11351 net.cpp:65] Creating Layer Rconv7
I0812 21:50:21.491479 11351 net.cpp:228] Rconv7 <- Rconv6
I0812 21:50:21.491483 11351 net.cpp:189] Rconv7 -> Rconv7
I0812 21:50:21.492254 11351 net.cpp:84] Top shape: 12 256 27 27 (2239488)
I0812 21:50:21.492259 11351 net.cpp:111] Rconv7 needs backward computation.
I0812 21:50:21.492262 11351 net.cpp:65] Creating Layer Rrelu7
I0812 21:50:21.492287 11351 net.cpp:228] Rrelu7 <- Rconv7
I0812 21:50:21.492292 11351 net.cpp:179] Rrelu7 -> Rconv7 (in-place)
I0812 21:50:21.492297 11351 net.cpp:84] Top shape: 12 256 27 27 (2239488)
I0812 21:50:21.492300 11351 net.cpp:111] Rrelu7 needs backward computation.
I0812 21:50:21.492305 11351 net.cpp:65] Creating Layer Rconv8
I0812 21:50:21.492306 11351 net.cpp:228] Rconv8 <- Rconv7
I0812 21:50:21.492311 11351 net.cpp:189] Rconv8 -> Rconv8
I0812 21:50:21.493134 11351 net.cpp:84] Top shape: 12 256 27 27 (2239488)
I0812 21:50:21.493139 11351 net.cpp:111] Rconv8 needs backward computation.
I0812 21:50:21.493142 11351 net.cpp:65] Creating Layer Rrelu8
I0812 21:50:21.493145 11351 net.cpp:228] Rrelu8 <- Rconv8
I0812 21:50:21.493149 11351 net.cpp:179] Rrelu8 -> Rconv8 (in-place)
I0812 21:50:21.493152 11351 net.cpp:84] Top shape: 12 256 27 27 (2239488)
I0812 21:50:21.493155 11351 net.cpp:111] Rrelu8 needs backward computation.
I0812 21:50:21.493160 11351 net.cpp:65] Creating Layer deconv2
I0812 21:50:21.493162 11351 net.cpp:228] deconv2 <- Rconv8
I0812 21:50:21.493165 11351 net.cpp:189] deconv2 -> deconv2
I0812 21:50:21.494330 11351 net.cpp:84] Top shape: 12 64 54 54 (2239488)
I0812 21:50:21.494335 11351 net.cpp:111] deconv2 needs backward computation.
I0812 21:50:21.494340 11351 net.cpp:65] Creating Layer relu_deconv2
I0812 21:50:21.494343 11351 net.cpp:228] relu_deconv2 <- deconv2
I0812 21:50:21.494349 11351 net.cpp:179] relu_deconv2 -> deconv2 (in-place)
I0812 21:50:21.494352 11351 net.cpp:84] Top shape: 12 64 54 54 (2239488)
I0812 21:50:21.494355 11351 net.cpp:111] relu_deconv2 needs backward computation.
I0812 21:50:21.494360 11351 net.cpp:65] Creating Layer deconv1
I0812 21:50:21.494362 11351 net.cpp:228] deconv1 <- deconv2
I0812 21:50:21.494366 11351 net.cpp:189] deconv1 -> deconv1
I0812 21:50:21.494534 11351 net.cpp:84] Top shape: 12 32 108 108 (4478976)
I0812 21:50:21.494537 11351 net.cpp:111] deconv1 needs backward computation.
I0812 21:50:21.494541 11351 net.cpp:65] Creating Layer relu_deconv1
I0812 21:50:21.494545 11351 net.cpp:228] relu_deconv1 <- deconv1
I0812 21:50:21.494549 11351 net.cpp:179] relu_deconv1 -> deconv1 (in-place)
I0812 21:50:21.494554 11351 net.cpp:84] Top shape: 12 32 108 108 (4478976)
I0812 21:50:21.494555 11351 net.cpp:111] relu_deconv1 needs backward computation.
I0812 21:50:21.494561 11351 net.cpp:65] Creating Layer deconv0
I0812 21:50:21.494565 11351 net.cpp:228] deconv0 <- deconv1
I0812 21:50:21.494568 11351 net.cpp:189] deconv0 -> deconv0
I0812 21:50:21.494590 11351 net.cpp:84] Top shape: 12 3 216 216 (1679616)
I0812 21:50:21.494593 11351 net.cpp:111] deconv0 needs backward computation.
I0812 21:50:21.494596 11351 net.cpp:65] Creating Layer loss
I0812 21:50:21.494599 11351 net.cpp:228] loss <- deconv0
I0812 21:50:21.494602 11351 net.cpp:228] loss <- target_ims
I0812 21:50:21.494611 11351 net.cpp:111] loss needs backward computation.
I0812 21:50:21.494623 11351 net.cpp:238] Collecting Learning Rate and Weight Decay.
…
    source: "/scr/r6/tgebru/inverting_conv/caffe_invert_alexnet/data/siggraph/tiny_winter_val_lmdb"
    mean_file: "/scr/r6/tgebru/timnit_caffe/data/ilsvrc12/imagenet_mean.binaryproto"
    batch_size: 2
    crop_size: 227
    mirror: false
    backend: LMDB
  }
}
layers {
  top: "target_ims"
  name: "target_ims"
  type: DATA
  data_param {
    source: "/scr/r6/tgebru/inverting_conv/caffe_invert_alexnet/data/siggraph/tiny_summer_val_lmdb"
    mean_file: "/scr/r6/tgebru/timnit_caffe/data/ilsvrc12/imagenet_mean.binaryproto"
    batch_size: 2
    crop_size: 216
    mirror: false
    backend: LMDB
  }
}
layers {
  bottom: "source_ims"
  top: "conv1"
  name: "conv1"
  type: CONVOLUTION
  blobs_lr: 0
  blobs_lr: 0
  weight_decay: 1
  weight_decay: 0
  convolution_param {
    num_output: 96
    kernel_size: 11
    stride: 4
    weight_filler {
      type: "gaussian"
      std: 0.01
    }
    bias_filler {
      type: "constant"
      value: 0
    }
  }
}
layers {
  bottom: "conv1"
  top: "conv1"
  name: "relu1"
  type: RELU
}
layers {
  bottom: "conv1"
  top: "pool1"
  name: "pool1"
  type: POOLING
  pooling_param {
    pool: MAX
    kernel_size: 3
    stride: 2
  }
}
layers {
  bottom: "pool1"
  top: "norm1"
  name: "norm1"
  type: LRN
  lrn_param {
    local_size: 5
    alpha: 0.0001
    beta: 0.75
  }
}
layers {
  bottom: "norm1"
  top: "Rconv6"
  name: "Rconv6"
  type: CONVOLUTION
  blobs_lr: 0
  blobs_lr: 0
  weight_decay: 1
  weight_decay: 0
  convolution_param {
    num_output: 256
    pad: 1
    kernel_size: 3
  }
}
layers {
  bottom: "Rconv6"
  top: "Rconv6"
  name: "Rrelu6"
  type: RELU
}
layers {
  bottom: "Rconv6"
  top: "Rconv7"
  name: "Rconv7"
  type: CONVOLUTION
  blobs_lr: 0
  blobs_lr: 0
  weight_decay: 1
  weight_decay: 0
  convolution_param {
    num_output: 256
    pad: 1
    kernel_size: 3
    group: 2
  }
}
layers {
  bottom: "Rconv7"
  top: "Rconv7"
  name: "Rrelu7"
  type: RELU
}
layers {
  bottom: "Rconv7"
  top: "Rconv8"
  name: "Rconv8"
  type: CONVOLUTION
  blobs_lr: 0
  blobs_lr: 0
  weight_decay: 1
  weight_decay: 0
  convolution_param {
    num_output: 256
    pad: 1
    kernel_size: 3
    group: 2
  }
}
layers {
  bottom: "Rconv8"
  top: "Rconv8"
  name: "Rrelu8"
  type: RELU
}
layers {
  bottom: "Rconv8"
  top: "deconv2"
  name: "deconv2"
  type: DECONVOLUTION
  blobs_lr: 0
  blobs_lr: 0
  weight_decay: 1
  weight_decay: 0
  deconvolution_param {
    pad: 2
    kernel_size: 5
    stride: 2
    output_height: 54
    output_width: 54
    output_channels: 64
  }
}
layers {
  bottom: "deconv2"
  top: "deconv2"
  name: "relu_deconv2"
  type: RELU
  relu_param {
    negative_slope: 0.3
  }
}
layers {
  bottom: "deconv2"
  top: "deconv1"
  name: "deconv1"
  type: DECONVOLUTION
  blobs_lr: 0
  blobs_lr: 0
  weight_decay: 1
  weight_decay: 0
  deconvolution_param {
    pad: 2
    kernel_size: 5
    stride: 2
    output_height: 108
    output_width: 108
    output_channels: 32
  }
}
layers {
  bottom: "deconv1"
  top: "deconv1"
  name: "relu_deconv1"
  type: RELU
  relu_param {
    negative_slope: 0.3
  }
}
layers {
  bottom: "deconv1"
  top: "deconv0"
  name: "deconv0"
  type: DECONVOLUTION
  blobs_lr: 0
  blobs_lr: 0
  weight_decay: 1
  weight_decay: 0
  deconvolution_param {
    pad: 2
    kernel_size: 5
    stride: 2
    output_height: 216
    output_width: 216
    output_channels: 3
  }
}
layers {
  bottom: "deconv0"
  bottom: "target_ims"
  name: "loss"
  type: EUCLIDEAN_LOSS
}
I0812 21:50:21.495359 11351 net.cpp:65] Creating Layer source_ims
I0812 21:50:21.495364 11351 net.cpp:189] source_ims -> source_ims
I0812 21:50:21.495419 11351 data_layer.cpp:223] Opening lmdb /scr/r6/tgebru/inverting_conv/caffe_invert_alexnet/data/siggraph/tiny_winter_val_lmdb
I0812 21:50:21.495615 11351 data_layer.cpp:285] output data size: 2,3,227,227
I0812 21:50:21.495620 11351 data_layer.cpp:304] Loading mean file from/scr/r6/tgebru/timnit_caffe/data/ilsvrc12/imagenet_mean.binaryproto
I0812 21:50:21.498026 11351 net.cpp:84] Top shape: 2 3 227 227 (309174)
I0812 21:50:21.498034 11351 net.cpp:116] source_ims does not need backward computation.
I0812 21:50:21.498039 11351 net.cpp:65] Creating Layer target_ims
I0812 21:50:21.498044 11351 net.cpp:189] target_ims -> target_ims
I0812 21:50:21.498102 11351 data_layer.cpp:223] Opening lmdb /scr/r6/tgebru/inverting_conv/caffe_invert_alexnet/data/siggraph/tiny_summer_val_lmdb
I0812 21:50:21.498221 11351 data_layer.cpp:285] output data size: 2,3,216,216
I0812 21:50:21.498225 11351 data_layer.cpp:304] Loading mean file from/scr/r6/tgebru/timnit_caffe/data/ilsvrc12/imagenet_mean.binaryproto
I0812 21:50:21.500501 11351 net.cpp:84] Top shape: 2 3 216 216 (279936)
I0812 21:50:21.500520 11351 net.cpp:116] target_ims does not need backward computation.
I0812 21:50:21.500530 11351 net.cpp:65] Creating Layer conv1
I0812 21:50:21.500532 11351 net.cpp:228] conv1 <- source_ims
I0812 21:50:21.500537 11351 net.cpp:189] conv1 -> conv1
I0812 21:50:21.501786 11351 net.cpp:84] Top shape: 2 96 55 55 (580800)
I0812 21:50:21.501791 11351 net.cpp:116] conv1 does not need backward computation.
I0812 21:50:21.501796 11351 net.cpp:65] Creating Layer relu1
I0812 21:50:21.501798 11351 net.cpp:228] relu1 <- conv1
I0812 21:50:21.501802 11351 net.cpp:179] relu1 -> conv1 (in-place)
I0812 21:50:21.501807 11351 net.cpp:84] Top shape: 2 96 55 55 (580800)
I0812 21:50:21.501811 11351 net.cpp:116] relu1 does not need backward computation.
I0812 21:50:21.501814 11351 net.cpp:65] Creating Layer pool1
I0812 21:50:21.501817 11351 net.cpp:228] pool1 <- conv1
I0812 21:50:21.501821 11351 net.cpp:189] pool1 -> pool1
I0812 21:50:21.501827 11351 net.cpp:84] Top shape: 2 96 27 27 (139968)
I0812 21:50:21.501830 11351 net.cpp:116] pool1 does not need backward computation.
I0812 21:50:21.501834 11351 net.cpp:65] Creating Layer norm1
I0812 21:50:21.501837 11351 net.cpp:228] norm1 <- pool1
I0812 21:50:21.501840 11351 net.cpp:189] norm1 -> norm1
I0812 21:50:21.501847 11351 net.cpp:84] Top shape: 2 96 27 27 (139968)
I0812 21:50:21.501849 11351 net.cpp:116] norm1 does not need backward computation.
I0812 21:50:21.501852 11351 net.cpp:65] Creating Layer Rconv6
I0812 21:50:21.501855 11351 net.cpp:228] Rconv6 <- norm1
I0812 21:50:21.501859 11351 net.cpp:189] Rconv6 -> Rconv6
I0812 21:50:21.502475 11351 net.cpp:84] Top shape: 2 256 27 27 (373248)
I0812 21:50:21.502480 11351 net.cpp:116] Rconv6 does not need backward computation.
I0812 21:50:21.502483 11351 net.cpp:65] Creating Layer Rrelu6
I0812 21:50:21.502486 11351 net.cpp:228] Rrelu6 <- Rconv6
I0812 21:50:21.502490 11351 net.cpp:179] Rrelu6 -> Rconv6 (in-place)
I0812 21:50:21.502496 11351 net.cpp:84] Top shape: 2 256 27 27 (373248)
I0812 21:50:21.502497 11351 net.cpp:116] Rrelu6 does not need backward computation.
I0812 21:50:21.502502 11351 net.cpp:65] Creating Layer Rconv7
I0812 21:50:21.502504 11351 net.cpp:228] Rconv7 <- Rconv6
I0812 21:50:21.502508 11351 net.cpp:189] Rconv7 -> Rconv7
I0812 21:50:21.503270 11351 net.cpp:84] Top shape: 2 256 27 27 (373248)
I0812 21:50:21.503275 11351 net.cpp:116] Rconv7 does not need backward computation.
I0812 21:50:21.503279 11351 net.cpp:65] Creating Layer Rrelu7
I0812 21:50:21.503283 11351 net.cpp:228] Rrelu7 <- Rconv7
I0812 21:50:21.503286 11351 net.cpp:179] Rrelu7 -> Rconv7 (in-place)
I0812 21:50:21.503290 11351 net.cpp:84] Top shape: 2 256 27 27 (373248)
I0812 21:50:21.503293 11351 net.cpp:116] Rrelu7 does not need backward computation.
I0812 21:50:21.503296 11351 net.cpp:65] Creating Layer Rconv8
I0812 21:50:21.503299 11351 net.cpp:228] Rconv8 <- Rconv7
I0812 21:50:21.503304 11351 net.cpp:189] Rconv8 -> Rconv8
I0812 21:50:21.504065 11351 net.cpp:84] Top shape: 2 256 27 27 (373248)
I0812 21:50:21.504070 11351 net.cpp:116] Rconv8 does not need backward computation.
I0812 21:50:21.504073 11351 net.cpp:65] Creating Layer Rrelu8
I0812 21:50:21.504076 11351 net.cpp:228] Rrelu8 <- Rconv8
I0812 21:50:21.504079 11351 net.cpp:179] Rrelu8 -> Rconv8 (in-place)
I0812 21:50:21.504083 11351 net.cpp:84] Top shape: 2 256 27 27 (373248)
I0812 21:50:21.504086 11351 net.cpp:116] Rrelu8 does not need backward computation.
I0812 21:50:21.504091 11351 net.cpp:65] Creating Layer deconv2
I0812 21:50:21.504093 11351 net.cpp:228] deconv2 <- Rconv8
I0812 21:50:21.504096 11351 net.cpp:189] deconv2 -> deconv2
I0812 21:50:21.505151 11351 net.cpp:84] Top shape: 2 64 54 54 (373248)
I0812 21:50:21.505156 11351 net.cpp:116] deconv2 does not need backward computation.
I0812 21:50:21.505159 11351 net.cpp:65] Creating Layer relu_deconv2
I0812 21:50:21.505162 11351 net.cpp:228] relu_deconv2 <- deconv2
I0812 21:50:21.505167 11351 net.cpp:179] relu_deconv2 -> deconv2 (in-place)
I0812 21:50:21.505172 11351 net.cpp:84] Top shape: 2 64 54 54 (373248)
I0812 21:50:21.505173 11351 net.cpp:116] relu_deconv2 does not need backward computation.
I0812 21:50:21.505190 11351 net.cpp:65] Creating Layer deconv1
I0812 21:50:21.505193 11351 net.cpp:228] deconv1 <- deconv2
I0812 21:50:21.505198 11351 net.cpp:189] deconv1 -> deconv1
I0812 21:50:21.505341 11351 net.cpp:84] Top shape: 2 32 108 108 (746496)
I0812 21:50:21.505344 11351 net.cpp:116] deconv1 does not need backward computation.
I0812 21:50:21.505348 11351 net.cpp:65] Creating Layer relu_deconv1
I0812 21:50:21.505350 11351 net.cpp:228] relu_deconv1 <- deconv1
I0812 21:50:21.505354 11351 net.cpp:179] relu_deconv1 -> deconv1 (in-place)
I0812 21:50:21.505359 11351 net.cpp:84] Top shape: 2 32 108 108 (746496)
I0812 21:50:21.505362 11351 net.cpp:116] relu_deconv1 does not need backward computation.
I0812 21:50:21.505367 11351 net.cpp:65] Creating Layer deconv0
I0812 21:50:21.505369 11351 net.cpp:228] deconv0 <- deconv1
I0812 21:50:21.505374 11351 net.cpp:189] deconv0 -> deconv0
I0812 21:50:21.505393 11351 net.cpp:84] Top shape: 2 3 216 216 (279936)
I0812 21:50:21.505395 11351 net.cpp:116] deconv0 does not need backward computation.
I0812 21:50:21.505399 11351 net.cpp:65] Creating Layer loss
I0812 21:50:21.505401 11351 net.cpp:228] loss <- deconv0
I0812 21:50:21.505404 11351 net.cpp:228] loss <- target_ims
I0812 21:50:21.505409 11351 net.cpp:116] loss does not need backward computation.
I0812 21:50:21.505427 11351 net.cpp:238] Collecting Learning Rate and Weight Decay.
…
