…
    source: "/scr/r6/tgebru/inverting_conv/caffe_invert_alexnet/data/siggraph/tiny_summer_train_lmdb"
    mean_file: "/scr/r6/tgebru/timnit_caffe/data/ilsvrc12/imagenet_mean.binaryproto"
    batch_size: 12
    crop_size: 227
    mirror: false
    backend: LMDB
  }
}
layers {
  top: "target_ims"
  name: "target_ims"
  type: DATA
  data_param {
    source: "/scr/r6/tgebru/inverting_conv/caffe_invert_alexnet/data/siggraph/tiny_winter_train_lmdb"
    mean_file: "/scr/r6/tgebru/timnit_caffe/data/ilsvrc12/imagenet_mean.binaryproto"
    batch_size: 12
    crop_size: 216
    mirror: false
    backend: LMDB
  }
}
layers {
  bottom: "source_ims"
  top: "conv1"
  name: "conv1"
  type: CONVOLUTION
  blobs_lr: 0
  blobs_lr: 0
  weight_decay: 1
  weight_decay: 0
  convolution_param {
    num_output: 96
    kernel_size: 11
    stride: 4
    weight_filler {
      type: "gaussian"
      std: 0.01
    }
    bias_filler {
      type: "constant"
      value: 0
    }
  }
}
layers {
  bottom: "conv1"
  top: "conv1"
  name: "relu1"
  type: RELU
}
layers {
  bottom: "conv1"
  top: "pool1"
  name: "pool1"
  type: POOLING
  pooling_param {
    pool: MAX
    kernel_size: 3
    stride: 2
  }
}
layers {
  bottom: "pool1"
  top: "norm1"
  name: "norm1"
  type: LRN
  lrn_param {
    local_size: 5
    alpha: 0.0001
    beta: 0.75
  }
}
layers {
  bottom: "norm1"
  top: "Rconv6"
  name: "Rconv6"
  type: CONVOLUTION
  blobs_lr: 1
  blobs_lr: 2
  weight_decay: 1
  weight_decay: 0
  convolution_param {
    num_output: 256
    pad: 1
    kernel_size: 3
  }
}
layers {
  bottom: "Rconv6"
  top: "Rconv6"
  name: "Rrelu6"
  type: RELU
}
layers {
  bottom: "Rconv6"
  top: "Rconv7"
  name: "Rconv7"
  type: CONVOLUTION
  blobs_lr: 1
  blobs_lr: 2
  weight_decay: 1
  weight_decay: 0
  convolution_param {
    num_output: 256
    pad: 1
    kernel_size: 3
    group: 2
  }
}
layers {
  bottom: "Rconv7"
  top: "Rconv7"
  name: "Rrelu7"
  type: RELU
}
layers {
  bottom: "Rconv7"
  top: "Rconv8"
  name: "Rconv8"
  type: CONVOLUTION
  blobs_lr: 1
  blobs_lr: 2
  weight_decay: 1
  weight_decay: 0
  convolution_param {
    num_output: 256
    pad: 1
    kernel_size: 3
    group: 2
  }
}
layers {
  bottom: "Rconv8"
  top: "Rconv8"
  name: "Rrelu8"
  type: RELU
}
layers {
  bottom: "Rconv8"
  top: "deconv2"
  name: "deconv2"
  type: DECONVOLUTION
  blobs_lr: 1
  blobs_lr: 2
  weight_decay: 1
  weight_decay: 0
  deconvolution_param {
    pad: 2
    kernel_size: 5
    stride: 2
    output_height: 54
    output_width: 54
    output_channels: 64
  }
}
layers {
  bottom: "deconv2"
  top: "deconv2"
  name: "relu_deconv2"
  type: RELU
  relu_param {
    negative_slope: 0.3
  }
}
layers {
  bottom: "deconv2"
  top: "deconv1"
  name: "deconv1"
  type: DECONVOLUTION
  blobs_lr: 1
  blobs_lr: 2
  weight_decay: 1
  weight_decay: 0
  deconvolution_param {
    pad: 2
    kernel_size: 5
    stride: 2
    output_height: 108
    output_width: 108
    output_channels: 32
  }
}
layers {
  bottom: "deconv1"
  top: "deconv1"
  name: "relu_deconv1"
  type: RELU
  relu_param {
    negative_slope: 0.3
  }
}
layers {
  bottom: "deconv1"
  top: "deconv0"
  name: "deconv0"
  type: DECONVOLUTION
  blobs_lr: 1
  blobs_lr: 2
  weight_decay: 1
  weight_decay: 1
  deconvolution_param {
    pad: 2
    kernel_size: 5
    stride: 2
    output_height: 216
    output_width: 216
    output_channels: 3
  }
}
layers {
  bottom: "deconv0"
  bottom: "target_ims"
  name: "loss"
  type: EUCLIDEAN_LOSS
}
I0812 17:54:10.937021 26260 net.cpp:65] Creating Layer source_ims
I0812 17:54:10.937029 26260 net.cpp:189] source_ims -> source_ims
I0812 17:54:10.937150 26260 data_layer.cpp:223] Opening lmdb /scr/r6/tgebru/inverting_conv/caffe_invert_alexnet/data/siggraph/tiny_summer_train_lmdb
I0812 17:54:10.937371 26260 data_layer.cpp:285] output data size: 12,3,227,227
I0812 17:54:10.937378 26260 data_layer.cpp:304] Loading mean file from/scr/r6/tgebru/timnit_caffe/data/ilsvrc12/imagenet_mean.binaryproto
I0812 17:54:10.941936 26260 net.cpp:84] Top shape: 12 3 227 227 (1855044)
I0812 17:54:10.941946 26260 net.cpp:116] source_ims does not need backward computation.
I0812 17:54:10.941952 26260 net.cpp:65] Creating Layer target_ims
I0812 17:54:10.941956 26260 net.cpp:189] target_ims -> target_ims
I0812 17:54:10.942088 26260 data_layer.cpp:223] Opening lmdb /scr/r6/tgebru/inverting_conv/caffe_invert_alexnet/data/siggraph/tiny_winter_train_lmdb
I0812 17:54:10.942248 26260 data_layer.cpp:285] output data size: 12,3,216,216
I0812 17:54:10.942252 26260 data_layer.cpp:304] Loading mean file from/scr/r6/tgebru/timnit_caffe/data/ilsvrc12/imagenet_mean.binaryproto
I0812 17:54:10.947197 26260 net.cpp:84] Top shape: 12 3 216 216 (1679616)
I0812 17:54:10.947206 26260 net.cpp:116] target_ims does not need backward computation.
I0812 17:54:10.947218 26260 net.cpp:65] Creating Layer conv1
I0812 17:54:10.947222 26260 net.cpp:228] conv1 <- source_ims
I0812 17:54:10.947289 26260 net.cpp:189] conv1 -> conv1
I0812 17:54:10.948581 26260 net.cpp:84] Top shape: 12 96 55 55 (3484800)
I0812 17:54:10.948586 26260 net.cpp:116] conv1 does not need backward computation.
I0812 17:54:10.948591 26260 net.cpp:65] Creating Layer relu1
I0812 17:54:10.948595 26260 net.cpp:228] relu1 <- conv1
I0812 17:54:10.948598 26260 net.cpp:179] relu1 -> conv1 (in-place)
I0812 17:54:10.948607 26260 net.cpp:84] Top shape: 12 96 55 55 (3484800)
I0812 17:54:10.948611 26260 net.cpp:116] relu1 does not need backward computation.
I0812 17:54:10.948616 26260 net.cpp:65] Creating Layer pool1
I0812 17:54:10.948618 26260 net.cpp:228] pool1 <- conv1
I0812 17:54:10.948622 26260 net.cpp:189] pool1 -> pool1
I0812 17:54:10.948635 26260 net.cpp:84] Top shape: 12 96 27 27 (839808)
I0812 17:54:10.948638 26260 net.cpp:116] pool1 does not need backward computation.
I0812 17:54:10.948642 26260 net.cpp:65] Creating Layer norm1
I0812 17:54:10.948645 26260 net.cpp:228] norm1 <- pool1
I0812 17:54:10.948649 26260 net.cpp:189] norm1 -> norm1
I0812 17:54:10.948658 26260 net.cpp:84] Top shape: 12 96 27 27 (839808)
I0812 17:54:10.948660 26260 net.cpp:116] norm1 does not need backward computation.
I0812 17:54:10.948664 26260 net.cpp:65] Creating Layer Rconv6
I0812 17:54:10.948668 26260 net.cpp:228] Rconv6 <- norm1
I0812 17:54:10.948671 26260 net.cpp:189] Rconv6 -> Rconv6
I0812 17:54:10.948945 26260 net.cpp:84] Top shape: 12 256 27 27 (2239488)
I0812 17:54:10.948950 26260 net.cpp:111] Rconv6 needs backward computation.
I0812 17:54:10.948954 26260 net.cpp:65] Creating Layer Rrelu6
I0812 17:54:10.948957 26260 net.cpp:228] Rrelu6 <- Rconv6
I0812 17:54:10.948961 26260 net.cpp:179] Rrelu6 -> Rconv6 (in-place)
I0812 17:54:10.948966 26260 net.cpp:84] Top shape: 12 256 27 27 (2239488)
I0812 17:54:10.948968 26260 net.cpp:111] Rrelu6 needs backward computation.
I0812 17:54:10.948972 26260 net.cpp:65] Creating Layer Rconv7
I0812 17:54:10.948976 26260 net.cpp:228] Rconv7 <- Rconv6
I0812 17:54:10.948979 26260 net.cpp:189] Rconv7 -> Rconv7
I0812 17:54:10.949735 26260 net.cpp:84] Top shape: 12 256 27 27 (2239488)
I0812 17:54:10.949740 26260 net.cpp:111] Rconv7 needs backward computation.
I0812 17:54:10.949744 26260 net.cpp:65] Creating Layer Rrelu7
I0812 17:54:10.949766 26260 net.cpp:228] Rrelu7 <- Rconv7
I0812 17:54:10.949771 26260 net.cpp:179] Rrelu7 -> Rconv7 (in-place)
I0812 17:54:10.949776 26260 net.cpp:84] Top shape: 12 256 27 27 (2239488)
I0812 17:54:10.949779 26260 net.cpp:111] Rrelu7 needs backward computation.
I0812 17:54:10.949782 26260 net.cpp:65] Creating Layer Rconv8
I0812 17:54:10.949785 26260 net.cpp:228] Rconv8 <- Rconv7
I0812 17:54:10.949789 26260 net.cpp:189] Rconv8 -> Rconv8
I0812 17:54:10.950578 26260 net.cpp:84] Top shape: 12 256 27 27 (2239488)
I0812 17:54:10.950582 26260 net.cpp:111] Rconv8 needs backward computation.
I0812 17:54:10.950587 26260 net.cpp:65] Creating Layer Rrelu8
I0812 17:54:10.950588 26260 net.cpp:228] Rrelu8 <- Rconv8
I0812 17:54:10.950592 26260 net.cpp:179] Rrelu8 -> Rconv8 (in-place)
I0812 17:54:10.950597 26260 net.cpp:84] Top shape: 12 256 27 27 (2239488)
I0812 17:54:10.950598 26260 net.cpp:111] Rrelu8 needs backward computation.
I0812 17:54:10.950603 26260 net.cpp:65] Creating Layer deconv2
I0812 17:54:10.950605 26260 net.cpp:228] deconv2 <- Rconv8
I0812 17:54:10.950608 26260 net.cpp:189] deconv2 -> deconv2
I0812 17:54:10.951638 26260 net.cpp:84] Top shape: 12 64 54 54 (2239488)
I0812 17:54:10.951643 26260 net.cpp:111] deconv2 needs backward computation.
I0812 17:54:10.951647 26260 net.cpp:65] Creating Layer relu_deconv2
I0812 17:54:10.951650 26260 net.cpp:228] relu_deconv2 <- deconv2
I0812 17:54:10.951654 26260 net.cpp:179] relu_deconv2 -> deconv2 (in-place)
I0812 17:54:10.951658 26260 net.cpp:84] Top shape: 12 64 54 54 (2239488)
I0812 17:54:10.951661 26260 net.cpp:111] relu_deconv2 needs backward computation.
I0812 17:54:10.951665 26260 net.cpp:65] Creating Layer deconv1
I0812 17:54:10.951668 26260 net.cpp:228] deconv1 <- deconv2
I0812 17:54:10.951671 26260 net.cpp:189] deconv1 -> deconv1
I0812 17:54:10.951809 26260 net.cpp:84] Top shape: 12 32 108 108 (4478976)
I0812 17:54:10.951813 26260 net.cpp:111] deconv1 needs backward computation.
I0812 17:54:10.951817 26260 net.cpp:65] Creating Layer relu_deconv1
I0812 17:54:10.951820 26260 net.cpp:228] relu_deconv1 <- deconv1
I0812 17:54:10.951823 26260 net.cpp:179] relu_deconv1 -> deconv1 (in-place)
I0812 17:54:10.951828 26260 net.cpp:84] Top shape: 12 32 108 108 (4478976)
I0812 17:54:10.951830 26260 net.cpp:111] relu_deconv1 needs backward computation.
I0812 17:54:10.951835 26260 net.cpp:65] Creating Layer deconv0
I0812 17:54:10.951838 26260 net.cpp:228] deconv0 <- deconv1
I0812 17:54:10.951843 26260 net.cpp:189] deconv0 -> deconv0
I0812 17:54:10.951864 26260 net.cpp:84] Top shape: 12 3 216 216 (1679616)
I0812 17:54:10.951867 26260 net.cpp:111] deconv0 needs backward computation.
I0812 17:54:10.951870 26260 net.cpp:65] Creating Layer loss
I0812 17:54:10.951874 26260 net.cpp:228] loss <- deconv0
I0812 17:54:10.951876 26260 net.cpp:228] loss <- target_ims
I0812 17:54:10.951885 26260 net.cpp:111] loss needs backward computation.
I0812 17:54:10.951899 26260 net.cpp:238] Collecting Learning Rate and Weight Decay.
…
    source: "/scr/r6/tgebru/inverting_conv/caffe_invert_alexnet/data/siggraph/tiny_summer_val_lmdb"
    mean_file: "/scr/r6/tgebru/timnit_caffe/data/ilsvrc12/imagenet_mean.binaryproto"
    batch_size: 64
    crop_size: 227
    mirror: false
    backend: LMDB
  }
}
layers {
  top: "target_ims"
  name: "target_ims"
  type: DATA
  data_param {
    source: "/scr/r6/tgebru/inverting_conv/caffe_invert_alexnet/data/siggraph/tiny_winter_val_lmdb"
    mean_file: "/scr/r6/tgebru/timnit_caffe/data/ilsvrc12/imagenet_mean.binaryproto"
    batch_size: 64
    crop_size: 216
    mirror: false
    backend: LMDB
  }
}
layers {
  bottom: "source_ims"
  top: "conv1"
  name: "conv1"
  type: CONVOLUTION
  blobs_lr: 0
  blobs_lr: 0
  weight_decay: 1
  weight_decay: 0
  convolution_param {
    num_output: 96
    kernel_size: 11
    stride: 4
    weight_filler {
      type: "gaussian"
      std: 0.01
    }
    bias_filler {
      type: "constant"
      value: 0
    }
  }
}
layers {
  bottom: "conv1"
  top: "conv1"
  name: "relu1"
  type: RELU
}
layers {
  bottom: "conv1"
  top: "pool1"
  name: "pool1"
  type: POOLING
  pooling_param {
    pool: MAX
    kernel_size: 3
    stride: 2
  }
}
layers {
  bottom: "pool1"
  top: "norm1"
  name: "norm1"
  type: LRN
  lrn_param {
    local_size: 5
    alpha: 0.0001
    beta: 0.75
  }
}
layers {
  bottom: "norm1"
  top: "Rconv6"
  name: "Rconv6"
  type: CONVOLUTION
  blobs_lr: 0
  blobs_lr: 0
  weight_decay: 1
  weight_decay: 0
  convolution_param {
    num_output: 256
    pad: 1
    kernel_size: 3
  }
}
layers {
  bottom: "Rconv6"
  top: "Rconv6"
  name: "Rrelu6"
  type: RELU
}
layers {
  bottom: "Rconv6"
  top: "Rconv7"
  name: "Rconv7"
  type: CONVOLUTION
  blobs_lr: 0
  blobs_lr: 0
  weight_decay: 1
  weight_decay: 0
  convolution_param {
    num_output: 256
    pad: 1
    kernel_size: 3
    group: 2
  }
}
layers {
  bottom: "Rconv7"
  top: "Rconv7"
  name: "Rrelu7"
  type: RELU
}
layers {
  bottom: "Rconv7"
  top: "Rconv8"
  name: "Rconv8"
  type: CONVOLUTION
  blobs_lr: 0
  blobs_lr: 0
  weight_decay: 1
  weight_decay: 0
  convolution_param {
    num_output: 256
    pad: 1
    kernel_size: 3
    group: 2
  }
}
layers {
  bottom: "Rconv8"
  top: "Rconv8"
  name: "Rrelu8"
  type: RELU
}
layers {
  bottom: "Rconv8"
  top: "deconv2"
  name: "deconv2"
  type: DECONVOLUTION
  blobs_lr: 0
  blobs_lr: 0
  weight_decay: 1
  weight_decay: 0
  deconvolution_param {
    pad: 2
    kernel_size: 5
    stride: 2
    output_height: 54
    output_width: 54
    output_channels: 64
  }
}
layers {
  bottom: "deconv2"
  top: "deconv2"
  name: "relu_deconv2"
  type: RELU
  relu_param {
    negative_slope: 0.3
  }
}
layers {
  bottom: "deconv2"
  top: "deconv1"
  name: "deconv1"
  type: DECONVOLUTION
  blobs_lr: 0
  blobs_lr: 0
  weight_decay: 1
  weight_decay: 0
  deconvolution_param {
    pad: 2
    kernel_size: 5
    stride: 2
    output_height: 108
    output_width: 108
    output_channels: 32
  }
}
layers {
  bottom: "deconv1"
  top: "deconv1"
  name: "relu_deconv1"
  type: RELU
  relu_param {
    negative_slope: 0.3
  }
}
layers {
  bottom: "deconv1"
  top: "deconv0"
  name: "deconv0"
  type: DECONVOLUTION
  blobs_lr: 0
  blobs_lr: 0
  weight_decay: 1
  weight_decay: 0
  deconvolution_param {
    pad: 2
    kernel_size: 5
    stride: 2
    output_height: 216
    output_width: 216
    output_channels: 3
  }
}
layers {
  bottom: "deconv0"
  bottom: "target_ims"
  name: "loss"
  type: EUCLIDEAN_LOSS
}
I0812 17:54:10.952605 26260 net.cpp:65] Creating Layer source_ims
I0812 17:54:10.952610 26260 net.cpp:189] source_ims -> source_ims
I0812 17:54:10.952667 26260 data_layer.cpp:223] Opening lmdb /scr/r6/tgebru/inverting_conv/caffe_invert_alexnet/data/siggraph/tiny_summer_val_lmdb
I0812 17:54:10.952855 26260 data_layer.cpp:285] output data size: 64,3,227,227
I0812 17:54:10.952859 26260 data_layer.cpp:304] Loading mean file from/scr/r6/tgebru/timnit_caffe/data/ilsvrc12/imagenet_mean.binaryproto
I0812 17:54:10.967296 26260 net.cpp:84] Top shape: 64 3 227 227 (9893568)
I0812 17:54:10.967314 26260 net.cpp:116] source_ims does not need backward computation.
I0812 17:54:10.967327 26260 net.cpp:65] Creating Layer target_ims
I0812 17:54:10.967334 26260 net.cpp:189] target_ims -> target_ims
I0812 17:54:10.967428 26260 data_layer.cpp:223] Opening lmdb /scr/r6/tgebru/inverting_conv/caffe_invert_alexnet/data/siggraph/tiny_winter_val_lmdb
I0812 17:54:10.967566 26260 data_layer.cpp:285] output data size: 64,3,216,216
I0812 17:54:10.967571 26260 data_layer.cpp:304] Loading mean file from/scr/r6/tgebru/timnit_caffe/data/ilsvrc12/imagenet_mean.binaryproto
I0812 17:54:10.980000 26260 net.cpp:84] Top shape: 64 3 216 216 (8957952)
I0812 17:54:10.980072 26260 net.cpp:116] target_ims does not need backward computation.
I0812 17:54:10.980087 26260 net.cpp:65] Creating Layer conv1
I0812 17:54:10.980093 26260 net.cpp:228] conv1 <- source_ims
I0812 17:54:10.980101 26260 net.cpp:189] conv1 -> conv1
I0812 17:54:10.981367 26260 net.cpp:84] Top shape: 64 96 55 55 (18585600)
I0812 17:54:10.981371 26260 net.cpp:116] conv1 does not need backward computation.
I0812 17:54:10.981376 26260 net.cpp:65] Creating Layer relu1
I0812 17:54:10.981379 26260 net.cpp:228] relu1 <- conv1
I0812 17:54:10.981384 26260 net.cpp:179] relu1 -> conv1 (in-place)
I0812 17:54:10.981389 26260 net.cpp:84] Top shape: 64 96 55 55 (18585600)
I0812 17:54:10.981392 26260 net.cpp:116] relu1 does not need backward computation.
I0812 17:54:10.981397 26260 net.cpp:65] Creating Layer pool1
I0812 17:54:10.981400 26260 net.cpp:228] pool1 <- conv1
I0812 17:54:10.981405 26260 net.cpp:189] pool1 -> pool1
I0812 17:54:10.981412 26260 net.cpp:84] Top shape: 64 96 27 27 (4478976)
I0812 17:54:10.981415 26260 net.cpp:116] pool1 does not need backward computation.
I0812 17:54:10.981427 26260 net.cpp:65] Creating Layer norm1
I0812 17:54:10.981431 26260 net.cpp:228] norm1 <- pool1
I0812 17:54:10.981436 26260 net.cpp:189] norm1 -> norm1
I0812 17:54:10.981442 26260 net.cpp:84] Top shape: 64 96 27 27 (4478976)
I0812 17:54:10.981446 26260 net.cpp:116] norm1 does not need backward computation.
I0812 17:54:10.981449 26260 net.cpp:65] Creating Layer Rconv6
I0812 17:54:10.981452 26260 net.cpp:228] Rconv6 <- norm1
I0812 17:54:10.981457 26260 net.cpp:189] Rconv6 -> Rconv6
I0812 17:54:10.981693 26260 net.cpp:84] Top shape: 64 256 27 27 (11943936)
I0812 17:54:10.981695 26260 net.cpp:116] Rconv6 does not need backward computation.
I0812 17:54:10.981700 26260 net.cpp:65] Creating Layer Rrelu6
I0812 17:54:10.981703 26260 net.cpp:228] Rrelu6 <- Rconv6
I0812 17:54:10.981708 26260 net.cpp:179] Rrelu6 -> Rconv6 (in-place)
I0812 17:54:10.981712 26260 net.cpp:84] Top shape: 64 256 27 27 (11943936)
I0812 17:54:10.981714 26260 net.cpp:116] Rrelu6 does not need backward computation.
I0812 17:54:10.981720 26260 net.cpp:65] Creating Layer Rconv7
I0812 17:54:10.981724 26260 net.cpp:228] Rconv7 <- Rconv6
I0812 17:54:10.981726 26260 net.cpp:189] Rconv7 -> Rconv7
I0812 17:54:10.982432 26260 net.cpp:84] Top shape: 64 256 27 27 (11943936)
I0812 17:54:10.982436 26260 net.cpp:116] Rconv7 does not need backward computation.
I0812 17:54:10.982440 26260 net.cpp:65] Creating Layer Rrelu7
I0812 17:54:10.982444 26260 net.cpp:228] Rrelu7 <- Rconv7
I0812 17:54:10.982447 26260 net.cpp:179] Rrelu7 -> Rconv7 (in-place)
I0812 17:54:10.982451 26260 net.cpp:84] Top shape: 64 256 27 27 (11943936)
I0812 17:54:10.982455 26260 net.cpp:116] Rrelu7 does not need backward computation.
I0812 17:54:10.982460 26260 net.cpp:65] Creating Layer Rconv8
I0812 17:54:10.982461 26260 net.cpp:228] Rconv8 <- Rconv7
I0812 17:54:10.982465 26260 net.cpp:189] Rconv8 -> Rconv8
I0812 17:54:10.983199 26260 net.cpp:84] Top shape: 64 256 27 27 (11943936)
I0812 17:54:10.983203 26260 net.cpp:116] Rconv8 does not need backward computation.
I0812 17:54:10.983208 26260 net.cpp:65] Creating Layer Rrelu8
I0812 17:54:10.983211 26260 net.cpp:228] Rrelu8 <- Rconv8
I0812 17:54:10.983214 26260 net.cpp:179] Rrelu8 -> Rconv8 (in-place)
I0812 17:54:10.983218 26260 net.cpp:84] Top shape: 64 256 27 27 (11943936)
I0812 17:54:10.983222 26260 net.cpp:116] Rrelu8 does not need backward computation.
I0812 17:54:10.983227 26260 net.cpp:65] Creating Layer deconv2
I0812 17:54:10.983228 26260 net.cpp:228] deconv2 <- Rconv8
I0812 17:54:10.983232 26260 net.cpp:189] deconv2 -> deconv2
I0812 17:54:10.984249 26260 net.cpp:84] Top shape: 64 64 54 54 (11943936)
I0812 17:54:10.984253 26260 net.cpp:116] deconv2 does not need backward computation.
I0812 17:54:10.984258 26260 net.cpp:65] Creating Layer relu_deconv2
I0812 17:54:10.984261 26260 net.cpp:228] relu_deconv2 <- deconv2
I0812 17:54:10.984266 26260 net.cpp:179] relu_deconv2 -> deconv2 (in-place)
I0812 17:54:10.984271 26260 net.cpp:84] Top shape: 64 64 54 54 (11943936)
I0812 17:54:10.984285 26260 net.cpp:116] relu_deconv2 does not need backward computation.
I0812 17:54:10.984290 26260 net.cpp:65] Creating Layer deconv1
I0812 17:54:10.984292 26260 net.cpp:228] deconv1 <- deconv2
I0812 17:54:10.984297 26260 net.cpp:189] deconv1 -> deconv1
I0812 17:54:10.984434 26260 net.cpp:84] Top shape: 64 32 108 108 (23887872)
I0812 17:54:10.984438 26260 net.cpp:116] deconv1 does not need backward computation.
I0812 17:54:10.984442 26260 net.cpp:65] Creating Layer relu_deconv1
I0812 17:54:10.984446 26260 net.cpp:228] relu_deconv1 <- deconv1
I0812 17:54:10.984449 26260 net.cpp:179] relu_deconv1 -> deconv1 (in-place)
I0812 17:54:10.984453 26260 net.cpp:84] Top shape: 64 32 108 108 (23887872)
I0812 17:54:10.984457 26260 net.cpp:116] relu_deconv1 does not need backward computation.
I0812 17:54:10.984462 26260 net.cpp:65] Creating Layer deconv0
I0812 17:54:10.984464 26260 net.cpp:228] deconv0 <- deconv1
I0812 17:54:10.984468 26260 net.cpp:189] deconv0 -> deconv0
I0812 17:54:10.984493 26260 net.cpp:84] Top shape: 64 3 216 216 (8957952)
I0812 17:54:10.984495 26260 net.cpp:116] deconv0 does not need backward computation.
I0812 17:54:10.984499 26260 net.cpp:65] Creating Layer loss
I0812 17:54:10.984501 26260 net.cpp:228] loss <- deconv0
I0812 17:54:10.984505 26260 net.cpp:228] loss <- target_ims
I0812 17:54:10.984511 26260 net.cpp:116] loss does not need backward computation.
I0812 17:54:10.984524 26260 net.cpp:238] Collecting Learning Rate and Weight Decay.
…
