…
    source: "/scr/r6/tgebru/inverting_conv/caffe_invert_alexnet/data/siggraph/tiny_winter_train_lmdb"
    mean_file: "/scr/r6/tgebru/timnit_caffe/data/ilsvrc12/imagenet_mean.binaryproto"
    batch_size: 12
    crop_size: 227
    mirror: false
    backend: LMDB
  }
}
layers {
  top: "target_ims"
  name: "target_ims"
  type: DATA
  data_param {
    source: "/scr/r6/tgebru/inverting_conv/caffe_invert_alexnet/data/siggraph/tiny_summer_train_lmdb"
    mean_file: "/scr/r6/tgebru/timnit_caffe/data/ilsvrc12/imagenet_mean.binaryproto"
    batch_size: 12
    crop_size: 216
    mirror: false
    backend: LMDB
  }
}
layers {
  bottom: "source_ims"
  top: "conv1"
  name: "conv1"
  type: CONVOLUTION
  blobs_lr: 0
  blobs_lr: 0
  weight_decay: 1
  weight_decay: 0
  convolution_param {
    num_output: 96
    kernel_size: 11
    stride: 4
    weight_filler {
      type: "gaussian"
      std: 0.01
    }
    bias_filler {
      type: "constant"
      value: 0
    }
  }
}
layers {
  bottom: "conv1"
  top: "conv1"
  name: "relu1"
  type: RELU
}
layers {
  bottom: "conv1"
  top: "pool1"
  name: "pool1"
  type: POOLING
  pooling_param {
    pool: MAX
    kernel_size: 3
    stride: 2
  }
}
layers {
  bottom: "pool1"
  top: "norm1"
  name: "norm1"
  type: LRN
  lrn_param {
    local_size: 5
    alpha: 0.0001
    beta: 0.75
  }
}
layers {
  bottom: "norm1"
  top: "Rconv6"
  name: "Rconv6"
  type: CONVOLUTION
  blobs_lr: 1
  blobs_lr: 2
  weight_decay: 1
  weight_decay: 0
  convolution_param {
    num_output: 256
    pad: 1
    kernel_size: 3
  }
}
layers {
  bottom: "Rconv6"
  top: "Rconv6"
  name: "Rrelu6"
  type: RELU
}
layers {
  bottom: "Rconv6"
  top: "Rconv7"
  name: "Rconv7"
  type: CONVOLUTION
  blobs_lr: 1
  blobs_lr: 2
  weight_decay: 1
  weight_decay: 0
  convolution_param {
    num_output: 256
    pad: 1
    kernel_size: 3
    group: 2
  }
}
layers {
  bottom: "Rconv7"
  top: "Rconv7"
  name: "Rrelu7"
  type: RELU
}
layers {
  bottom: "Rconv7"
  top: "Rconv8"
  name: "Rconv8"
  type: CONVOLUTION
  blobs_lr: 1
  blobs_lr: 2
  weight_decay: 1
  weight_decay: 0
  convolution_param {
    num_output: 256
    pad: 1
    kernel_size: 3
    group: 2
  }
}
layers {
  bottom: "Rconv8"
  top: "Rconv8"
  name: "Rrelu8"
  type: RELU
}
layers {
  bottom: "Rconv8"
  top: "deconv2"
  name: "deconv2"
  type: DECONVOLUTION
  blobs_lr: 1
  blobs_lr: 2
  weight_decay: 1
  weight_decay: 0
  deconvolution_param {
    pad: 2
    kernel_size: 5
    stride: 2
    output_height: 54
    output_width: 54
    output_channels: 64
  }
}
layers {
  bottom: "deconv2"
  top: "deconv2"
  name: "relu_deconv2"
  type: RELU
  relu_param {
    negative_slope: 0.3
  }
}
layers {
  bottom: "deconv2"
  top: "deconv1"
  name: "deconv1"
  type: DECONVOLUTION
  blobs_lr: 1
  blobs_lr: 2
  weight_decay: 1
  weight_decay: 0
  deconvolution_param {
    pad: 2
    kernel_size: 5
    stride: 2
    output_height: 108
    output_width: 108
    output_channels: 32
  }
}
layers {
  bottom: "deconv1"
  top: "deconv1"
  name: "relu_deconv1"
  type: RELU
  relu_param {
    negative_slope: 0.3
  }
}
layers {
  bottom: "deconv1"
  top: "deconv0"
  name: "deconv0"
  type: DECONVOLUTION
  blobs_lr: 1
  blobs_lr: 2
  weight_decay: 1
  weight_decay: 1
  deconvolution_param {
    pad: 2
    kernel_size: 5
    stride: 2
    output_height: 216
    output_width: 216
    output_channels: 3
  }
}
layers {
  bottom: "deconv0"
  bottom: "target_ims"
  name: "loss"
  type: EUCLIDEAN_LOSS
}
I0813 14:47:05.420370 22270 net.cpp:65] Creating Layer source_ims
I0813 14:47:05.420378 22270 net.cpp:189] source_ims -> source_ims
I0813 14:47:05.420482 22270 data_layer.cpp:223] Opening lmdb /scr/r6/tgebru/inverting_conv/caffe_invert_alexnet/data/siggraph/tiny_winter_train_lmdb
I0813 14:47:05.420701 22270 data_layer.cpp:285] output data size: 12,3,227,227
I0813 14:47:05.420708 22270 data_layer.cpp:304] Loading mean file from/scr/r6/tgebru/timnit_caffe/data/ilsvrc12/imagenet_mean.binaryproto
I0813 14:47:05.425746 22270 net.cpp:84] Top shape: 12 3 227 227 (1855044)
I0813 14:47:05.425753 22270 net.cpp:116] source_ims does not need backward computation.
I0813 14:47:05.425760 22270 net.cpp:65] Creating Layer target_ims
I0813 14:47:05.425763 22270 net.cpp:189] target_ims -> target_ims
I0813 14:47:05.425940 22270 data_layer.cpp:223] Opening lmdb /scr/r6/tgebru/inverting_conv/caffe_invert_alexnet/data/siggraph/tiny_summer_train_lmdb
I0813 14:47:05.426142 22270 data_layer.cpp:285] output data size: 12,3,216,216
I0813 14:47:05.426147 22270 data_layer.cpp:304] Loading mean file from/scr/r6/tgebru/timnit_caffe/data/ilsvrc12/imagenet_mean.binaryproto
I0813 14:47:05.430562 22270 net.cpp:84] Top shape: 12 3 216 216 (1679616)
I0813 14:47:05.430572 22270 net.cpp:116] target_ims does not need backward computation.
I0813 14:47:05.430584 22270 net.cpp:65] Creating Layer conv1
I0813 14:47:05.430588 22270 net.cpp:228] conv1 <- source_ims
I0813 14:47:05.430656 22270 net.cpp:189] conv1 -> conv1
I0813 14:47:05.431947 22270 net.cpp:84] Top shape: 12 96 55 55 (3484800)
I0813 14:47:05.431952 22270 net.cpp:116] conv1 does not need backward computation.
I0813 14:47:05.431958 22270 net.cpp:65] Creating Layer relu1
I0813 14:47:05.431962 22270 net.cpp:228] relu1 <- conv1
I0813 14:47:05.431965 22270 net.cpp:179] relu1 -> conv1 (in-place)
I0813 14:47:05.431974 22270 net.cpp:84] Top shape: 12 96 55 55 (3484800)
I0813 14:47:05.431977 22270 net.cpp:116] relu1 does not need backward computation.
I0813 14:47:05.431983 22270 net.cpp:65] Creating Layer pool1
I0813 14:47:05.431987 22270 net.cpp:228] pool1 <- conv1
I0813 14:47:05.431990 22270 net.cpp:189] pool1 -> pool1
I0813 14:47:05.432003 22270 net.cpp:84] Top shape: 12 96 27 27 (839808)
I0813 14:47:05.432006 22270 net.cpp:116] pool1 does not need backward computation.
I0813 14:47:05.432010 22270 net.cpp:65] Creating Layer norm1
I0813 14:47:05.432013 22270 net.cpp:228] norm1 <- pool1
I0813 14:47:05.432018 22270 net.cpp:189] norm1 -> norm1
I0813 14:47:05.432026 22270 net.cpp:84] Top shape: 12 96 27 27 (839808)
I0813 14:47:05.432029 22270 net.cpp:116] norm1 does not need backward computation.
I0813 14:47:05.432034 22270 net.cpp:65] Creating Layer Rconv6
I0813 14:47:05.432036 22270 net.cpp:228] Rconv6 <- norm1
I0813 14:47:05.432040 22270 net.cpp:189] Rconv6 -> Rconv6
I0813 14:47:05.432297 22270 net.cpp:84] Top shape: 12 256 27 27 (2239488)
I0813 14:47:05.432301 22270 net.cpp:111] Rconv6 needs backward computation.
I0813 14:47:05.432307 22270 net.cpp:65] Creating Layer Rrelu6
I0813 14:47:05.432309 22270 net.cpp:228] Rrelu6 <- Rconv6
I0813 14:47:05.432314 22270 net.cpp:179] Rrelu6 -> Rconv6 (in-place)
I0813 14:47:05.432318 22270 net.cpp:84] Top shape: 12 256 27 27 (2239488)
I0813 14:47:05.432322 22270 net.cpp:111] Rrelu6 needs backward computation.
I0813 14:47:05.432327 22270 net.cpp:65] Creating Layer Rconv7
I0813 14:47:05.432328 22270 net.cpp:228] Rconv7 <- Rconv6
I0813 14:47:05.432332 22270 net.cpp:189] Rconv7 -> Rconv7
I0813 14:47:05.433043 22270 net.cpp:84] Top shape: 12 256 27 27 (2239488)
I0813 14:47:05.433048 22270 net.cpp:111] Rconv7 needs backward computation.
I0813 14:47:05.433053 22270 net.cpp:65] Creating Layer Rrelu7
I0813 14:47:05.433075 22270 net.cpp:228] Rrelu7 <- Rconv7
I0813 14:47:05.433080 22270 net.cpp:179] Rrelu7 -> Rconv7 (in-place)
I0813 14:47:05.433085 22270 net.cpp:84] Top shape: 12 256 27 27 (2239488)
I0813 14:47:05.433089 22270 net.cpp:111] Rrelu7 needs backward computation.
I0813 14:47:05.433092 22270 net.cpp:65] Creating Layer Rconv8
I0813 14:47:05.433095 22270 net.cpp:228] Rconv8 <- Rconv7
I0813 14:47:05.433099 22270 net.cpp:189] Rconv8 -> Rconv8
I0813 14:47:05.433871 22270 net.cpp:84] Top shape: 12 256 27 27 (2239488)
I0813 14:47:05.433876 22270 net.cpp:111] Rconv8 needs backward computation.
I0813 14:47:05.433881 22270 net.cpp:65] Creating Layer Rrelu8
I0813 14:47:05.433882 22270 net.cpp:228] Rrelu8 <- Rconv8
I0813 14:47:05.433887 22270 net.cpp:179] Rrelu8 -> Rconv8 (in-place)
I0813 14:47:05.433890 22270 net.cpp:84] Top shape: 12 256 27 27 (2239488)
I0813 14:47:05.433893 22270 net.cpp:111] Rrelu8 needs backward computation.
I0813 14:47:05.433897 22270 net.cpp:65] Creating Layer deconv2
I0813 14:47:05.433899 22270 net.cpp:228] deconv2 <- Rconv8
I0813 14:47:05.433903 22270 net.cpp:189] deconv2 -> deconv2
I0813 14:47:05.435019 22270 net.cpp:84] Top shape: 12 64 54 54 (2239488)
I0813 14:47:05.435022 22270 net.cpp:111] deconv2 needs backward computation.
I0813 14:47:05.435026 22270 net.cpp:65] Creating Layer relu_deconv2
I0813 14:47:05.435029 22270 net.cpp:228] relu_deconv2 <- deconv2
I0813 14:47:05.435034 22270 net.cpp:179] relu_deconv2 -> deconv2 (in-place)
I0813 14:47:05.435037 22270 net.cpp:84] Top shape: 12 64 54 54 (2239488)
I0813 14:47:05.435040 22270 net.cpp:111] relu_deconv2 needs backward computation.
I0813 14:47:05.435045 22270 net.cpp:65] Creating Layer deconv1
I0813 14:47:05.435046 22270 net.cpp:228] deconv1 <- deconv2
I0813 14:47:05.435050 22270 net.cpp:189] deconv1 -> deconv1
I0813 14:47:05.435209 22270 net.cpp:84] Top shape: 12 32 108 108 (4478976)
I0813 14:47:05.435212 22270 net.cpp:111] deconv1 needs backward computation.
I0813 14:47:05.435216 22270 net.cpp:65] Creating Layer relu_deconv1
I0813 14:47:05.435220 22270 net.cpp:228] relu_deconv1 <- deconv1
I0813 14:47:05.435223 22270 net.cpp:179] relu_deconv1 -> deconv1 (in-place)
I0813 14:47:05.435227 22270 net.cpp:84] Top shape: 12 32 108 108 (4478976)
I0813 14:47:05.435230 22270 net.cpp:111] relu_deconv1 needs backward computation.
I0813 14:47:05.435235 22270 net.cpp:65] Creating Layer deconv0
I0813 14:47:05.435237 22270 net.cpp:228] deconv0 <- deconv1
I0813 14:47:05.435241 22270 net.cpp:189] deconv0 -> deconv0
I0813 14:47:05.435286 22270 net.cpp:84] Top shape: 12 3 216 216 (1679616)
I0813 14:47:05.435289 22270 net.cpp:111] deconv0 needs backward computation.
I0813 14:47:05.435292 22270 net.cpp:65] Creating Layer loss
I0813 14:47:05.435295 22270 net.cpp:228] loss <- deconv0
I0813 14:47:05.435298 22270 net.cpp:228] loss <- target_ims
I0813 14:47:05.435307 22270 net.cpp:111] loss needs backward computation.
I0813 14:47:05.435318 22270 net.cpp:238] Collecting Learning Rate and Weight Decay.
…
    source: "/scr/r6/tgebru/inverting_conv/caffe_invert_alexnet/data/siggraph/tiny_winter_val_lmdb"
    mean_file: "/scr/r6/tgebru/timnit_caffe/data/ilsvrc12/imagenet_mean.binaryproto"
    batch_size: 2
    crop_size: 227
    mirror: false
    backend: LMDB
  }
}
layers {
  top: "target_ims"
  name: "target_ims"
  type: DATA
  data_param {
    source: "/scr/r6/tgebru/inverting_conv/caffe_invert_alexnet/data/siggraph/tiny_summer_val_lmdb"
    mean_file: "/scr/r6/tgebru/timnit_caffe/data/ilsvrc12/imagenet_mean.binaryproto"
    batch_size: 2
    crop_size: 216
    mirror: false
    backend: LMDB
  }
}
layers {
  bottom: "source_ims"
  top: "conv1"
  name: "conv1"
  type: CONVOLUTION
  blobs_lr: 0
  blobs_lr: 0
  weight_decay: 1
  weight_decay: 0
  convolution_param {
    num_output: 96
    kernel_size: 11
    stride: 4
    weight_filler {
      type: "gaussian"
      std: 0.01
    }
    bias_filler {
      type: "constant"
      value: 0
    }
  }
}
layers {
  bottom: "conv1"
  top: "conv1"
  name: "relu1"
  type: RELU
}
layers {
  bottom: "conv1"
  top: "pool1"
  name: "pool1"
  type: POOLING
  pooling_param {
    pool: MAX
    kernel_size: 3
    stride: 2
  }
}
layers {
  bottom: "pool1"
  top: "norm1"
  name: "norm1"
  type: LRN
  lrn_param {
    local_size: 5
    alpha: 0.0001
    beta: 0.75
  }
}
layers {
  bottom: "norm1"
  top: "Rconv6"
  name: "Rconv6"
  type: CONVOLUTION
  blobs_lr: 0
  blobs_lr: 0
  weight_decay: 1
  weight_decay: 0
  convolution_param {
    num_output: 256
    pad: 1
    kernel_size: 3
  }
}
layers {
  bottom: "Rconv6"
  top: "Rconv6"
  name: "Rrelu6"
  type: RELU
}
layers {
  bottom: "Rconv6"
  top: "Rconv7"
  name: "Rconv7"
  type: CONVOLUTION
  blobs_lr: 0
  blobs_lr: 0
  weight_decay: 1
  weight_decay: 0
  convolution_param {
    num_output: 256
    pad: 1
    kernel_size: 3
    group: 2
  }
}
layers {
  bottom: "Rconv7"
  top: "Rconv7"
  name: "Rrelu7"
  type: RELU
}
layers {
  bottom: "Rconv7"
  top: "Rconv8"
  name: "Rconv8"
  type: CONVOLUTION
  blobs_lr: 0
  blobs_lr: 0
  weight_decay: 1
  weight_decay: 0
  convolution_param {
    num_output: 256
    pad: 1
    kernel_size: 3
    group: 2
  }
}
layers {
  bottom: "Rconv8"
  top: "Rconv8"
  name: "Rrelu8"
  type: RELU
}
layers {
  bottom: "Rconv8"
  top: "deconv2"
  name: "deconv2"
  type: DECONVOLUTION
  blobs_lr: 0
  blobs_lr: 0
  weight_decay: 1
  weight_decay: 0
  deconvolution_param {
    pad: 2
    kernel_size: 5
    stride: 2
    output_height: 54
    output_width: 54
    output_channels: 64
  }
}
layers {
  bottom: "deconv2"
  top: "deconv2"
  name: "relu_deconv2"
  type: RELU
  relu_param {
    negative_slope: 0.3
  }
}
layers {
  bottom: "deconv2"
  top: "deconv1"
  name: "deconv1"
  type: DECONVOLUTION
  blobs_lr: 0
  blobs_lr: 0
  weight_decay: 1
  weight_decay: 0
  deconvolution_param {
    pad: 2
    kernel_size: 5
    stride: 2
    output_height: 108
    output_width: 108
    output_channels: 32
  }
}
layers {
  bottom: "deconv1"
  top: "deconv1"
  name: "relu_deconv1"
  type: RELU
  relu_param {
    negative_slope: 0.3
  }
}
layers {
  bottom: "deconv1"
  top: "deconv0"
  name: "deconv0"
  type: DECONVOLUTION
  blobs_lr: 0
  blobs_lr: 0
  weight_decay: 1
  weight_decay: 0
  deconvolution_param {
    pad: 2
    kernel_size: 5
    stride: 2
    output_height: 216
    output_width: 216
    output_channels: 3
  }
}
layers {
  bottom: "deconv0"
  bottom: "target_ims"
  name: "loss"
  type: EUCLIDEAN_LOSS
}
I0813 14:47:05.436028 22270 net.cpp:65] Creating Layer source_ims
I0813 14:47:05.436033 22270 net.cpp:189] source_ims -> source_ims
I0813 14:47:05.436085 22270 data_layer.cpp:223] Opening lmdb /scr/r6/tgebru/inverting_conv/caffe_invert_alexnet/data/siggraph/tiny_winter_val_lmdb
I0813 14:47:05.436264 22270 data_layer.cpp:285] output data size: 2,3,227,227
I0813 14:47:05.436269 22270 data_layer.cpp:304] Loading mean file from/scr/r6/tgebru/timnit_caffe/data/ilsvrc12/imagenet_mean.binaryproto
I0813 14:47:05.438653 22270 net.cpp:84] Top shape: 2 3 227 227 (309174)
I0813 14:47:05.438660 22270 net.cpp:116] source_ims does not need backward computation.
I0813 14:47:05.438666 22270 net.cpp:65] Creating Layer target_ims
I0813 14:47:05.438670 22270 net.cpp:189] target_ims -> target_ims
I0813 14:47:05.438719 22270 data_layer.cpp:223] Opening lmdb /scr/r6/tgebru/inverting_conv/caffe_invert_alexnet/data/siggraph/tiny_summer_val_lmdb
I0813 14:47:05.438930 22270 data_layer.cpp:285] output data size: 2,3,216,216
I0813 14:47:05.438933 22270 data_layer.cpp:304] Loading mean file from/scr/r6/tgebru/timnit_caffe/data/ilsvrc12/imagenet_mean.binaryproto
I0813 14:47:05.441139 22270 net.cpp:84] Top shape: 2 3 216 216 (279936)
I0813 14:47:05.441157 22270 net.cpp:116] target_ims does not need backward computation.
I0813 14:47:05.441166 22270 net.cpp:65] Creating Layer conv1
I0813 14:47:05.441169 22270 net.cpp:228] conv1 <- source_ims
I0813 14:47:05.441174 22270 net.cpp:189] conv1 -> conv1
I0813 14:47:05.442420 22270 net.cpp:84] Top shape: 2 96 55 55 (580800)
I0813 14:47:05.442425 22270 net.cpp:116] conv1 does not need backward computation.
I0813 14:47:05.442430 22270 net.cpp:65] Creating Layer relu1
I0813 14:47:05.442431 22270 net.cpp:228] relu1 <- conv1
I0813 14:47:05.442436 22270 net.cpp:179] relu1 -> conv1 (in-place)
I0813 14:47:05.442440 22270 net.cpp:84] Top shape: 2 96 55 55 (580800)
I0813 14:47:05.442443 22270 net.cpp:116] relu1 does not need backward computation.
I0813 14:47:05.442448 22270 net.cpp:65] Creating Layer pool1
I0813 14:47:05.442451 22270 net.cpp:228] pool1 <- conv1
I0813 14:47:05.442455 22270 net.cpp:189] pool1 -> pool1
I0813 14:47:05.442461 22270 net.cpp:84] Top shape: 2 96 27 27 (139968)
I0813 14:47:05.442463 22270 net.cpp:116] pool1 does not need backward computation.
I0813 14:47:05.442467 22270 net.cpp:65] Creating Layer norm1
I0813 14:47:05.442471 22270 net.cpp:228] norm1 <- pool1
I0813 14:47:05.442473 22270 net.cpp:189] norm1 -> norm1
I0813 14:47:05.442479 22270 net.cpp:84] Top shape: 2 96 27 27 (139968)
I0813 14:47:05.442482 22270 net.cpp:116] norm1 does not need backward computation.
I0813 14:47:05.442486 22270 net.cpp:65] Creating Layer Rconv6
I0813 14:47:05.442488 22270 net.cpp:228] Rconv6 <- norm1
I0813 14:47:05.442492 22270 net.cpp:189] Rconv6 -> Rconv6
I0813 14:47:05.443053 22270 net.cpp:84] Top shape: 2 256 27 27 (373248)
I0813 14:47:05.443058 22270 net.cpp:116] Rconv6 does not need backward computation.
I0813 14:47:05.443061 22270 net.cpp:65] Creating Layer Rrelu6
I0813 14:47:05.443064 22270 net.cpp:228] Rrelu6 <- Rconv6
I0813 14:47:05.443068 22270 net.cpp:179] Rrelu6 -> Rconv6 (in-place)
I0813 14:47:05.443073 22270 net.cpp:84] Top shape: 2 256 27 27 (373248)
I0813 14:47:05.443075 22270 net.cpp:116] Rrelu6 does not need backward computation.
I0813 14:47:05.443079 22270 net.cpp:65] Creating Layer Rconv7
I0813 14:47:05.443083 22270 net.cpp:228] Rconv7 <- Rconv6
I0813 14:47:05.443085 22270 net.cpp:189] Rconv7 -> Rconv7
I0813 14:47:05.443816 22270 net.cpp:84] Top shape: 2 256 27 27 (373248)
I0813 14:47:05.443821 22270 net.cpp:116] Rconv7 does not need backward computation.
I0813 14:47:05.443825 22270 net.cpp:65] Creating Layer Rrelu7
I0813 14:47:05.443827 22270 net.cpp:228] Rrelu7 <- Rconv7
I0813 14:47:05.443831 22270 net.cpp:179] Rrelu7 -> Rconv7 (in-place)
I0813 14:47:05.443835 22270 net.cpp:84] Top shape: 2 256 27 27 (373248)
I0813 14:47:05.443838 22270 net.cpp:116] Rrelu7 does not need backward computation.
I0813 14:47:05.443841 22270 net.cpp:65] Creating Layer Rconv8
I0813 14:47:05.443843 22270 net.cpp:228] Rconv8 <- Rconv7
I0813 14:47:05.443847 22270 net.cpp:189] Rconv8 -> Rconv8
I0813 14:47:05.444574 22270 net.cpp:84] Top shape: 2 256 27 27 (373248)
I0813 14:47:05.444578 22270 net.cpp:116] Rconv8 does not need backward computation.
I0813 14:47:05.444582 22270 net.cpp:65] Creating Layer Rrelu8
I0813 14:47:05.444584 22270 net.cpp:228] Rrelu8 <- Rconv8
I0813 14:47:05.444588 22270 net.cpp:179] Rrelu8 -> Rconv8 (in-place)
I0813 14:47:05.444592 22270 net.cpp:84] Top shape: 2 256 27 27 (373248)
I0813 14:47:05.444596 22270 net.cpp:116] Rrelu8 does not need backward computation.
I0813 14:47:05.444598 22270 net.cpp:65] Creating Layer deconv2
I0813 14:47:05.444602 22270 net.cpp:228] deconv2 <- Rconv8
I0813 14:47:05.444604 22270 net.cpp:189] deconv2 -> deconv2
I0813 14:47:05.445628 22270 net.cpp:84] Top shape: 2 64 54 54 (373248)
I0813 14:47:05.445633 22270 net.cpp:116] deconv2 does not need backward computation.
I0813 14:47:05.445637 22270 net.cpp:65] Creating Layer relu_deconv2
I0813 14:47:05.445641 22270 net.cpp:228] relu_deconv2 <- deconv2
I0813 14:47:05.445644 22270 net.cpp:179] relu_deconv2 -> deconv2 (in-place)
I0813 14:47:05.445648 22270 net.cpp:84] Top shape: 2 64 54 54 (373248)
I0813 14:47:05.445652 22270 net.cpp:116] relu_deconv2 does not need backward computation.
I0813 14:47:05.445667 22270 net.cpp:65] Creating Layer deconv1
I0813 14:47:05.445670 22270 net.cpp:228] deconv1 <- deconv2
I0813 14:47:05.445674 22270 net.cpp:189] deconv1 -> deconv1
I0813 14:47:05.445822 22270 net.cpp:84] Top shape: 2 32 108 108 (746496)
I0813 14:47:05.445827 22270 net.cpp:116] deconv1 does not need backward computation.
I0813 14:47:05.445830 22270 net.cpp:65] Creating Layer relu_deconv1
I0813 14:47:05.445833 22270 net.cpp:228] relu_deconv1 <- deconv1
I0813 14:47:05.445837 22270 net.cpp:179] relu_deconv1 -> deconv1 (in-place)
I0813 14:47:05.445840 22270 net.cpp:84] Top shape: 2 32 108 108 (746496)
I0813 14:47:05.445843 22270 net.cpp:116] relu_deconv1 does not need backward computation.
I0813 14:47:05.445848 22270 net.cpp:65] Creating Layer deconv0
I0813 14:47:05.445850 22270 net.cpp:228] deconv0 <- deconv1
I0813 14:47:05.445854 22270 net.cpp:189] deconv0 -> deconv0
I0813 14:47:05.445871 22270 net.cpp:84] Top shape: 2 3 216 216 (279936)
I0813 14:47:05.445874 22270 net.cpp:116] deconv0 does not need backward computation.
I0813 14:47:05.445878 22270 net.cpp:65] Creating Layer loss
I0813 14:47:05.445880 22270 net.cpp:228] loss <- deconv0
I0813 14:47:05.445884 22270 net.cpp:228] loss <- target_ims
I0813 14:47:05.445888 22270 net.cpp:116] loss does not need backward computation.
I0813 14:47:05.445899 22270 net.cpp:238] Collecting Learning Rate and Weight Decay.
…
