…
    source: "/scr/r6/tgebru/inverting_conv/caffe_invert_alexnet/data/siggraph/tiny_winter_train_lmdb"
    mean_file: "/scr/r6/tgebru/timnit_caffe/data/ilsvrc12/imagenet_mean.binaryproto"
    batch_size: 12
    crop_size: 227
    mirror: false
    backend: LMDB
  }
}
layers {
  top: "target_ims"
  name: "target_ims"
  type: DATA
  data_param {
    source: "/scr/r6/tgebru/inverting_conv/caffe_invert_alexnet/data/siggraph/tiny_summer_train_lmdb"
    mean_file: "/scr/r6/tgebru/timnit_caffe/data/ilsvrc12/imagenet_mean.binaryproto"
    batch_size: 12
    crop_size: 216
    mirror: false
    backend: LMDB
  }
}
layers {
  bottom: "source_ims"
  top: "conv1"
  name: "conv1"
  type: CONVOLUTION
  blobs_lr: 0
  blobs_lr: 0
  weight_decay: 1
  weight_decay: 0
  convolution_param {
    num_output: 96
    kernel_size: 11
    stride: 4
    weight_filler {
      type: "gaussian"
      std: 0.01
    }
    bias_filler {
      type: "constant"
      value: 0
    }
  }
}
layers {
  bottom: "conv1"
  top: "conv1"
  name: "relu1"
  type: RELU
}
layers {
  bottom: "conv1"
  top: "pool1"
  name: "pool1"
  type: POOLING
  pooling_param {
    pool: MAX
    kernel_size: 3
    stride: 2
  }
}
layers {
  bottom: "pool1"
  top: "norm1"
  name: "norm1"
  type: LRN
  lrn_param {
    local_size: 5
    alpha: 0.0001
    beta: 0.75
  }
}
layers {
  bottom: "norm1"
  top: "Rconv6"
  name: "Rconv6"
  type: CONVOLUTION
  blobs_lr: 1
  blobs_lr: 2
  weight_decay: 1
  weight_decay: 0
  convolution_param {
    num_output: 256
    pad: 1
    kernel_size: 3
  }
}
layers {
  bottom: "Rconv6"
  top: "Rconv6"
  name: "Rrelu6"
  type: RELU
}
layers {
  bottom: "Rconv6"
  top: "Rconv7"
  name: "Rconv7"
  type: CONVOLUTION
  blobs_lr: 1
  blobs_lr: 2
  weight_decay: 1
  weight_decay: 0
  convolution_param {
    num_output: 256
    pad: 1
    kernel_size: 3
    group: 2
  }
}
layers {
  bottom: "Rconv7"
  top: "Rconv7"
  name: "Rrelu7"
  type: RELU
}
layers {
  bottom: "Rconv7"
  top: "Rconv8"
  name: "Rconv8"
  type: CONVOLUTION
  blobs_lr: 1
  blobs_lr: 2
  weight_decay: 1
  weight_decay: 0
  convolution_param {
    num_output: 256
    pad: 1
    kernel_size: 3
    group: 2
  }
}
layers {
  bottom: "Rconv8"
  top: "Rconv8"
  name: "Rrelu8"
  type: RELU
}
layers {
  bottom: "Rconv8"
  top: "deconv2"
  name: "deconv2"
  type: DECONVOLUTION
  blobs_lr: 1
  blobs_lr: 2
  weight_decay: 1
  weight_decay: 0
  deconvolution_param {
    pad: 2
    kernel_size: 5
    stride: 2
    output_height: 54
    output_width: 54
    output_channels: 64
  }
}
layers {
  bottom: "deconv2"
  top: "deconv2"
  name: "relu_deconv2"
  type: RELU
  relu_param {
    negative_slope: 0.3
  }
}
layers {
  bottom: "deconv2"
  top: "deconv1"
  name: "deconv1"
  type: DECONVOLUTION
  blobs_lr: 1
  blobs_lr: 2
  weight_decay: 1
  weight_decay: 0
  deconvolution_param {
    pad: 2
    kernel_size: 5
    stride: 2
    output_height: 108
    output_width: 108
    output_channels: 32
  }
}
layers {
  bottom: "deconv1"
  top: "deconv1"
  name: "relu_deconv1"
  type: RELU
  relu_param {
    negative_slope: 0.3
  }
}
layers {
  bottom: "deconv1"
  top: "deconv0"
  name: "deconv0"
  type: DECONVOLUTION
  blobs_lr: 1
  blobs_lr: 2
  weight_decay: 1
  weight_decay: 1
  deconvolution_param {
    pad: 2
    kernel_size: 5
    stride: 2
    output_height: 216
    output_width: 216
    output_channels: 3
  }
}
layers {
  bottom: "deconv0"
  bottom: "target_ims"
  name: "loss"
  type: EUCLIDEAN_LOSS
}
I0813 07:25:25.359040 30328 net.cpp:65] Creating Layer source_ims
I0813 07:25:25.359050 30328 net.cpp:189] source_ims -> source_ims
I0813 07:25:25.359151 30328 data_layer.cpp:223] Opening lmdb /scr/r6/tgebru/inverting_conv/caffe_invert_alexnet/data/siggraph/tiny_winter_train_lmdb
I0813 07:25:25.359369 30328 data_layer.cpp:285] output data size: 12,3,227,227
I0813 07:25:25.359375 30328 data_layer.cpp:304] Loading mean file from/scr/r6/tgebru/timnit_caffe/data/ilsvrc12/imagenet_mean.binaryproto
I0813 07:25:25.364009 30328 net.cpp:84] Top shape: 12 3 227 227 (1855044)
I0813 07:25:25.364017 30328 net.cpp:116] source_ims does not need backward computation.
I0813 07:25:25.364024 30328 net.cpp:65] Creating Layer target_ims
I0813 07:25:25.364028 30328 net.cpp:189] target_ims -> target_ims
I0813 07:25:25.364200 30328 data_layer.cpp:223] Opening lmdb /scr/r6/tgebru/inverting_conv/caffe_invert_alexnet/data/siggraph/tiny_summer_train_lmdb
I0813 07:25:25.364415 30328 data_layer.cpp:285] output data size: 12,3,216,216
I0813 07:25:25.364420 30328 data_layer.cpp:304] Loading mean file from/scr/r6/tgebru/timnit_caffe/data/ilsvrc12/imagenet_mean.binaryproto
I0813 07:25:25.369230 30328 net.cpp:84] Top shape: 12 3 216 216 (1679616)
I0813 07:25:25.369240 30328 net.cpp:116] target_ims does not need backward computation.
I0813 07:25:25.369253 30328 net.cpp:65] Creating Layer conv1
I0813 07:25:25.369258 30328 net.cpp:228] conv1 <- source_ims
I0813 07:25:25.369319 30328 net.cpp:189] conv1 -> conv1
I0813 07:25:25.370657 30328 net.cpp:84] Top shape: 12 96 55 55 (3484800)
I0813 07:25:25.370663 30328 net.cpp:116] conv1 does not need backward computation.
I0813 07:25:25.370669 30328 net.cpp:65] Creating Layer relu1
I0813 07:25:25.370673 30328 net.cpp:228] relu1 <- conv1
I0813 07:25:25.370678 30328 net.cpp:179] relu1 -> conv1 (in-place)
I0813 07:25:25.370688 30328 net.cpp:84] Top shape: 12 96 55 55 (3484800)
I0813 07:25:25.370692 30328 net.cpp:116] relu1 does not need backward computation.
I0813 07:25:25.370698 30328 net.cpp:65] Creating Layer pool1
I0813 07:25:25.370700 30328 net.cpp:228] pool1 <- conv1
I0813 07:25:25.370707 30328 net.cpp:189] pool1 -> pool1
I0813 07:25:25.370720 30328 net.cpp:84] Top shape: 12 96 27 27 (839808)
I0813 07:25:25.370723 30328 net.cpp:116] pool1 does not need backward computation.
I0813 07:25:25.370729 30328 net.cpp:65] Creating Layer norm1
I0813 07:25:25.370733 30328 net.cpp:228] norm1 <- pool1
I0813 07:25:25.370738 30328 net.cpp:189] norm1 -> norm1
I0813 07:25:25.370746 30328 net.cpp:84] Top shape: 12 96 27 27 (839808)
I0813 07:25:25.370749 30328 net.cpp:116] norm1 does not need backward computation.
I0813 07:25:25.370754 30328 net.cpp:65] Creating Layer Rconv6
I0813 07:25:25.370757 30328 net.cpp:228] Rconv6 <- norm1
I0813 07:25:25.370761 30328 net.cpp:189] Rconv6 -> Rconv6
I0813 07:25:25.370939 30328 net.cpp:84] Top shape: 12 256 27 27 (2239488)
I0813 07:25:25.370944 30328 net.cpp:111] Rconv6 needs backward computation.
I0813 07:25:25.370949 30328 net.cpp:65] Creating Layer Rrelu6
I0813 07:25:25.370952 30328 net.cpp:228] Rrelu6 <- Rconv6
I0813 07:25:25.370956 30328 net.cpp:179] Rrelu6 -> Rconv6 (in-place)
I0813 07:25:25.370961 30328 net.cpp:84] Top shape: 12 256 27 27 (2239488)
I0813 07:25:25.370965 30328 net.cpp:111] Rrelu6 needs backward computation.
I0813 07:25:25.370970 30328 net.cpp:65] Creating Layer Rconv7
I0813 07:25:25.370973 30328 net.cpp:228] Rconv7 <- Rconv6
I0813 07:25:25.370977 30328 net.cpp:189] Rconv7 -> Rconv7
I0813 07:25:25.371709 30328 net.cpp:84] Top shape: 12 256 27 27 (2239488)
I0813 07:25:25.371714 30328 net.cpp:111] Rconv7 needs backward computation.
I0813 07:25:25.371719 30328 net.cpp:65] Creating Layer Rrelu7
I0813 07:25:25.371749 30328 net.cpp:228] Rrelu7 <- Rconv7
I0813 07:25:25.371754 30328 net.cpp:179] Rrelu7 -> Rconv7 (in-place)
I0813 07:25:25.371759 30328 net.cpp:84] Top shape: 12 256 27 27 (2239488)
I0813 07:25:25.371762 30328 net.cpp:111] Rrelu7 needs backward computation.
I0813 07:25:25.371767 30328 net.cpp:65] Creating Layer Rconv8
I0813 07:25:25.371769 30328 net.cpp:228] Rconv8 <- Rconv7
I0813 07:25:25.371773 30328 net.cpp:189] Rconv8 -> Rconv8
I0813 07:25:25.372560 30328 net.cpp:84] Top shape: 12 256 27 27 (2239488)
I0813 07:25:25.372565 30328 net.cpp:111] Rconv8 needs backward computation.
I0813 07:25:25.372568 30328 net.cpp:65] Creating Layer Rrelu8
I0813 07:25:25.372571 30328 net.cpp:228] Rrelu8 <- Rconv8
I0813 07:25:25.372575 30328 net.cpp:179] Rrelu8 -> Rconv8 (in-place)
I0813 07:25:25.372580 30328 net.cpp:84] Top shape: 12 256 27 27 (2239488)
I0813 07:25:25.372582 30328 net.cpp:111] Rrelu8 needs backward computation.
I0813 07:25:25.372587 30328 net.cpp:65] Creating Layer deconv2
I0813 07:25:25.372591 30328 net.cpp:228] deconv2 <- Rconv8
I0813 07:25:25.372593 30328 net.cpp:189] deconv2 -> deconv2
I0813 07:25:25.373620 30328 net.cpp:84] Top shape: 12 64 54 54 (2239488)
I0813 07:25:25.373625 30328 net.cpp:111] deconv2 needs backward computation.
I0813 07:25:25.373630 30328 net.cpp:65] Creating Layer relu_deconv2
I0813 07:25:25.373632 30328 net.cpp:228] relu_deconv2 <- deconv2
I0813 07:25:25.373637 30328 net.cpp:179] relu_deconv2 -> deconv2 (in-place)
I0813 07:25:25.373642 30328 net.cpp:84] Top shape: 12 64 54 54 (2239488)
I0813 07:25:25.373646 30328 net.cpp:111] relu_deconv2 needs backward computation.
I0813 07:25:25.373649 30328 net.cpp:65] Creating Layer deconv1
I0813 07:25:25.373652 30328 net.cpp:228] deconv1 <- deconv2
I0813 07:25:25.373656 30328 net.cpp:189] deconv1 -> deconv1
I0813 07:25:25.373801 30328 net.cpp:84] Top shape: 12 32 108 108 (4478976)
I0813 07:25:25.373805 30328 net.cpp:111] deconv1 needs backward computation.
I0813 07:25:25.373811 30328 net.cpp:65] Creating Layer relu_deconv1
I0813 07:25:25.373813 30328 net.cpp:228] relu_deconv1 <- deconv1
I0813 07:25:25.373817 30328 net.cpp:179] relu_deconv1 -> deconv1 (in-place)
I0813 07:25:25.373821 30328 net.cpp:84] Top shape: 12 32 108 108 (4478976)
I0813 07:25:25.373824 30328 net.cpp:111] relu_deconv1 needs backward computation.
I0813 07:25:25.373831 30328 net.cpp:65] Creating Layer deconv0
I0813 07:25:25.373833 30328 net.cpp:228] deconv0 <- deconv1
I0813 07:25:25.373837 30328 net.cpp:189] deconv0 -> deconv0
I0813 07:25:25.373869 30328 net.cpp:84] Top shape: 12 3 216 216 (1679616)
I0813 07:25:25.373872 30328 net.cpp:111] deconv0 needs backward computation.
I0813 07:25:25.373877 30328 net.cpp:65] Creating Layer loss
I0813 07:25:25.373878 30328 net.cpp:228] loss <- deconv0
I0813 07:25:25.373881 30328 net.cpp:228] loss <- target_ims
I0813 07:25:25.373890 30328 net.cpp:111] loss needs backward computation.
I0813 07:25:25.373904 30328 net.cpp:238] Collecting Learning Rate and Weight Decay.
…
    source: "/scr/r6/tgebru/inverting_conv/caffe_invert_alexnet/data/siggraph/tiny_winter_val_lmdb"
    mean_file: "/scr/r6/tgebru/timnit_caffe/data/ilsvrc12/imagenet_mean.binaryproto"
    batch_size: 2
    crop_size: 227
    mirror: false
    backend: LMDB
  }
}
layers {
  top: "target_ims"
  name: "target_ims"
  type: DATA
  data_param {
    source: "/scr/r6/tgebru/inverting_conv/caffe_invert_alexnet/data/siggraph/tiny_summer_val_lmdb"
    mean_file: "/scr/r6/tgebru/timnit_caffe/data/ilsvrc12/imagenet_mean.binaryproto"
    batch_size: 2
    crop_size: 216
    mirror: false
    backend: LMDB
  }
}
layers {
  bottom: "source_ims"
  top: "conv1"
  name: "conv1"
  type: CONVOLUTION
  blobs_lr: 0
  blobs_lr: 0
  weight_decay: 1
  weight_decay: 0
  convolution_param {
    num_output: 96
    kernel_size: 11
    stride: 4
    weight_filler {
      type: "gaussian"
      std: 0.01
    }
    bias_filler {
      type: "constant"
      value: 0
    }
  }
}
layers {
  bottom: "conv1"
  top: "conv1"
  name: "relu1"
  type: RELU
}
layers {
  bottom: "conv1"
  top: "pool1"
  name: "pool1"
  type: POOLING
  pooling_param {
    pool: MAX
    kernel_size: 3
    stride: 2
  }
}
layers {
  bottom: "pool1"
  top: "norm1"
  name: "norm1"
  type: LRN
  lrn_param {
    local_size: 5
    alpha: 0.0001
    beta: 0.75
  }
}
layers {
  bottom: "norm1"
  top: "Rconv6"
  name: "Rconv6"
  type: CONVOLUTION
  blobs_lr: 0
  blobs_lr: 0
  weight_decay: 1
  weight_decay: 0
  convolution_param {
    num_output: 256
    pad: 1
    kernel_size: 3
  }
}
layers {
  bottom: "Rconv6"
  top: "Rconv6"
  name: "Rrelu6"
  type: RELU
}
layers {
  bottom: "Rconv6"
  top: "Rconv7"
  name: "Rconv7"
  type: CONVOLUTION
  blobs_lr: 0
  blobs_lr: 0
  weight_decay: 1
  weight_decay: 0
  convolution_param {
    num_output: 256
    pad: 1
    kernel_size: 3
    group: 2
  }
}
layers {
  bottom: "Rconv7"
  top: "Rconv7"
  name: "Rrelu7"
  type: RELU
}
layers {
  bottom: "Rconv7"
  top: "Rconv8"
  name: "Rconv8"
  type: CONVOLUTION
  blobs_lr: 0
  blobs_lr: 0
  weight_decay: 1
  weight_decay: 0
  convolution_param {
    num_output: 256
    pad: 1
    kernel_size: 3
    group: 2
  }
}
layers {
  bottom: "Rconv8"
  top: "Rconv8"
  name: "Rrelu8"
  type: RELU
}
layers {
  bottom: "Rconv8"
  top: "deconv2"
  name: "deconv2"
  type: DECONVOLUTION
  blobs_lr: 0
  blobs_lr: 0
  weight_decay: 1
  weight_decay: 0
  deconvolution_param {
    pad: 2
    kernel_size: 5
    stride: 2
    output_height: 54
    output_width: 54
    output_channels: 64
  }
}
layers {
  bottom: "deconv2"
  top: "deconv2"
  name: "relu_deconv2"
  type: RELU
  relu_param {
    negative_slope: 0.3
  }
}
layers {
  bottom: "deconv2"
  top: "deconv1"
  name: "deconv1"
  type: DECONVOLUTION
  blobs_lr: 0
  blobs_lr: 0
  weight_decay: 1
  weight_decay: 0
  deconvolution_param {
    pad: 2
    kernel_size: 5
    stride: 2
    output_height: 108
    output_width: 108
    output_channels: 32
  }
}
layers {
  bottom: "deconv1"
  top: "deconv1"
  name: "relu_deconv1"
  type: RELU
  relu_param {
    negative_slope: 0.3
  }
}
layers {
  bottom: "deconv1"
  top: "deconv0"
  name: "deconv0"
  type: DECONVOLUTION
  blobs_lr: 0
  blobs_lr: 0
  weight_decay: 1
  weight_decay: 0
  deconvolution_param {
    pad: 2
    kernel_size: 5
    stride: 2
    output_height: 216
    output_width: 216
    output_channels: 3
  }
}
layers {
  bottom: "deconv0"
  bottom: "target_ims"
  name: "loss"
  type: EUCLIDEAN_LOSS
}
I0813 07:25:25.374650 30328 net.cpp:65] Creating Layer source_ims
I0813 07:25:25.374657 30328 net.cpp:189] source_ims -> source_ims
I0813 07:25:25.374725 30328 data_layer.cpp:223] Opening lmdb /scr/r6/tgebru/inverting_conv/caffe_invert_alexnet/data/siggraph/tiny_winter_val_lmdb
I0813 07:25:25.374946 30328 data_layer.cpp:285] output data size: 2,3,227,227
I0813 07:25:25.374951 30328 data_layer.cpp:304] Loading mean file from/scr/r6/tgebru/timnit_caffe/data/ilsvrc12/imagenet_mean.binaryproto
I0813 07:25:25.377248 30328 net.cpp:84] Top shape: 2 3 227 227 (309174)
I0813 07:25:25.377254 30328 net.cpp:116] source_ims does not need backward computation.
I0813 07:25:25.377260 30328 net.cpp:65] Creating Layer target_ims
I0813 07:25:25.377265 30328 net.cpp:189] target_ims -> target_ims
I0813 07:25:25.377315 30328 data_layer.cpp:223] Opening lmdb /scr/r6/tgebru/inverting_conv/caffe_invert_alexnet/data/siggraph/tiny_summer_val_lmdb
I0813 07:25:25.377409 30328 data_layer.cpp:285] output data size: 2,3,216,216
I0813 07:25:25.377413 30328 data_layer.cpp:304] Loading mean file from/scr/r6/tgebru/timnit_caffe/data/ilsvrc12/imagenet_mean.binaryproto
I0813 07:25:25.379583 30328 net.cpp:84] Top shape: 2 3 216 216 (279936)
I0813 07:25:25.379603 30328 net.cpp:116] target_ims does not need backward computation.
I0813 07:25:25.379611 30328 net.cpp:65] Creating Layer conv1
I0813 07:25:25.379614 30328 net.cpp:228] conv1 <- source_ims
I0813 07:25:25.379621 30328 net.cpp:189] conv1 -> conv1
I0813 07:25:25.380861 30328 net.cpp:84] Top shape: 2 96 55 55 (580800)
I0813 07:25:25.380866 30328 net.cpp:116] conv1 does not need backward computation.
I0813 07:25:25.380869 30328 net.cpp:65] Creating Layer relu1
I0813 07:25:25.380872 30328 net.cpp:228] relu1 <- conv1
I0813 07:25:25.380877 30328 net.cpp:179] relu1 -> conv1 (in-place)
I0813 07:25:25.380882 30328 net.cpp:84] Top shape: 2 96 55 55 (580800)
I0813 07:25:25.380885 30328 net.cpp:116] relu1 does not need backward computation.
I0813 07:25:25.380889 30328 net.cpp:65] Creating Layer pool1
I0813 07:25:25.380892 30328 net.cpp:228] pool1 <- conv1
I0813 07:25:25.380895 30328 net.cpp:189] pool1 -> pool1
I0813 07:25:25.380903 30328 net.cpp:84] Top shape: 2 96 27 27 (139968)
I0813 07:25:25.380904 30328 net.cpp:116] pool1 does not need backward computation.
I0813 07:25:25.380908 30328 net.cpp:65] Creating Layer norm1
I0813 07:25:25.380911 30328 net.cpp:228] norm1 <- pool1
I0813 07:25:25.380915 30328 net.cpp:189] norm1 -> norm1
I0813 07:25:25.380921 30328 net.cpp:84] Top shape: 2 96 27 27 (139968)
I0813 07:25:25.380924 30328 net.cpp:116] norm1 does not need backward computation.
I0813 07:25:25.380928 30328 net.cpp:65] Creating Layer Rconv6
I0813 07:25:25.380930 30328 net.cpp:228] Rconv6 <- norm1
I0813 07:25:25.380934 30328 net.cpp:189] Rconv6 -> Rconv6
I0813 07:25:25.381482 30328 net.cpp:84] Top shape: 2 256 27 27 (373248)
I0813 07:25:25.381487 30328 net.cpp:116] Rconv6 does not need backward computation.
I0813 07:25:25.381491 30328 net.cpp:65] Creating Layer Rrelu6
I0813 07:25:25.381494 30328 net.cpp:228] Rrelu6 <- Rconv6
I0813 07:25:25.381499 30328 net.cpp:179] Rrelu6 -> Rconv6 (in-place)
I0813 07:25:25.381503 30328 net.cpp:84] Top shape: 2 256 27 27 (373248)
I0813 07:25:25.381506 30328 net.cpp:116] Rrelu6 does not need backward computation.
I0813 07:25:25.381511 30328 net.cpp:65] Creating Layer Rconv7
I0813 07:25:25.381513 30328 net.cpp:228] Rconv7 <- Rconv6
I0813 07:25:25.381517 30328 net.cpp:189] Rconv7 -> Rconv7
I0813 07:25:25.382226 30328 net.cpp:84] Top shape: 2 256 27 27 (373248)
I0813 07:25:25.382231 30328 net.cpp:116] Rconv7 does not need backward computation.
I0813 07:25:25.382236 30328 net.cpp:65] Creating Layer Rrelu7
I0813 07:25:25.382238 30328 net.cpp:228] Rrelu7 <- Rconv7
I0813 07:25:25.382241 30328 net.cpp:179] Rrelu7 -> Rconv7 (in-place)
I0813 07:25:25.382246 30328 net.cpp:84] Top shape: 2 256 27 27 (373248)
I0813 07:25:25.382249 30328 net.cpp:116] Rrelu7 does not need backward computation.
I0813 07:25:25.382252 30328 net.cpp:65] Creating Layer Rconv8
I0813 07:25:25.382256 30328 net.cpp:228] Rconv8 <- Rconv7
I0813 07:25:25.382259 30328 net.cpp:189] Rconv8 -> Rconv8
I0813 07:25:25.382977 30328 net.cpp:84] Top shape: 2 256 27 27 (373248)
I0813 07:25:25.382980 30328 net.cpp:116] Rconv8 does not need backward computation.
I0813 07:25:25.382983 30328 net.cpp:65] Creating Layer Rrelu8
I0813 07:25:25.382987 30328 net.cpp:228] Rrelu8 <- Rconv8
I0813 07:25:25.382990 30328 net.cpp:179] Rrelu8 -> Rconv8 (in-place)
I0813 07:25:25.382994 30328 net.cpp:84] Top shape: 2 256 27 27 (373248)
I0813 07:25:25.382997 30328 net.cpp:116] Rrelu8 does not need backward computation.
I0813 07:25:25.383002 30328 net.cpp:65] Creating Layer deconv2
I0813 07:25:25.383003 30328 net.cpp:228] deconv2 <- Rconv8
I0813 07:25:25.383008 30328 net.cpp:189] deconv2 -> deconv2
I0813 07:25:25.383991 30328 net.cpp:84] Top shape: 2 64 54 54 (373248)
I0813 07:25:25.383994 30328 net.cpp:116] deconv2 does not need backward computation.
I0813 07:25:25.383998 30328 net.cpp:65] Creating Layer relu_deconv2
I0813 07:25:25.384001 30328 net.cpp:228] relu_deconv2 <- deconv2
I0813 07:25:25.384006 30328 net.cpp:179] relu_deconv2 -> deconv2 (in-place)
I0813 07:25:25.384011 30328 net.cpp:84] Top shape: 2 64 54 54 (373248)
I0813 07:25:25.384013 30328 net.cpp:116] relu_deconv2 does not need backward computation.
I0813 07:25:25.384028 30328 net.cpp:65] Creating Layer deconv1
I0813 07:25:25.384032 30328 net.cpp:228] deconv1 <- deconv2
I0813 07:25:25.384035 30328 net.cpp:189] deconv1 -> deconv1
I0813 07:25:25.384166 30328 net.cpp:84] Top shape: 2 32 108 108 (746496)
I0813 07:25:25.384171 30328 net.cpp:116] deconv1 does not need backward computation.
I0813 07:25:25.384174 30328 net.cpp:65] Creating Layer relu_deconv1
I0813 07:25:25.384176 30328 net.cpp:228] relu_deconv1 <- deconv1
I0813 07:25:25.384181 30328 net.cpp:179] relu_deconv1 -> deconv1 (in-place)
I0813 07:25:25.384186 30328 net.cpp:84] Top shape: 2 32 108 108 (746496)
I0813 07:25:25.384188 30328 net.cpp:116] relu_deconv1 does not need backward computation.
I0813 07:25:25.384193 30328 net.cpp:65] Creating Layer deconv0
I0813 07:25:25.384196 30328 net.cpp:228] deconv0 <- deconv1
I0813 07:25:25.384201 30328 net.cpp:189] deconv0 -> deconv0
I0813 07:25:25.384219 30328 net.cpp:84] Top shape: 2 3 216 216 (279936)
I0813 07:25:25.384222 30328 net.cpp:116] deconv0 does not need backward computation.
I0813 07:25:25.384227 30328 net.cpp:65] Creating Layer loss
I0813 07:25:25.384229 30328 net.cpp:228] loss <- deconv0
I0813 07:25:25.384232 30328 net.cpp:228] loss <- target_ims
I0813 07:25:25.384237 30328 net.cpp:116] loss does not need backward computation.
I0813 07:25:25.384249 30328 net.cpp:238] Collecting Learning Rate and Weight Decay.
…
