…
    source: "/scr/r6/tgebru/inverting_conv/caffe_invert_alexnet/data/siggraph/tiny_winter_train_lmdb"
    mean_file: "/scr/r6/tgebru/timnit_caffe/data/ilsvrc12/imagenet_mean.binaryproto"
    batch_size: 12
    crop_size: 227
    mirror: false
    backend: LMDB
  }
}
layers {
  top: "target_ims"
  name: "target_ims"
  type: DATA
  data_param {
    source: "/scr/r6/tgebru/inverting_conv/caffe_invert_alexnet/data/siggraph/tiny_summer_train_lmdb"
    mean_file: "/scr/r6/tgebru/timnit_caffe/data/ilsvrc12/imagenet_mean.binaryproto"
    batch_size: 12
    crop_size: 216
    mirror: false
    backend: LMDB
  }
}
layers {
  bottom: "source_ims"
  top: "conv1"
  name: "conv1"
  type: CONVOLUTION
  blobs_lr: 0
  blobs_lr: 0
  weight_decay: 1
  weight_decay: 0
  convolution_param {
    num_output: 96
    kernel_size: 11
    stride: 4
    weight_filler {
      type: "gaussian"
      std: 0.01
    }
    bias_filler {
      type: "constant"
      value: 0
    }
  }
}
layers {
  bottom: "conv1"
  top: "conv1"
  name: "relu1"
  type: RELU
}
layers {
  bottom: "conv1"
  top: "pool1"
  name: "pool1"
  type: POOLING
  pooling_param {
    pool: MAX
    kernel_size: 3
    stride: 2
  }
}
layers {
  bottom: "pool1"
  top: "norm1"
  name: "norm1"
  type: LRN
  lrn_param {
    local_size: 5
    alpha: 0.0001
    beta: 0.75
  }
}
layers {
  bottom: "norm1"
  top: "Rconv6"
  name: "Rconv6"
  type: CONVOLUTION
  blobs_lr: 1
  blobs_lr: 2
  weight_decay: 1
  weight_decay: 0
  convolution_param {
    num_output: 256
    pad: 1
    kernel_size: 3
  }
}
layers {
  bottom: "Rconv6"
  top: "Rconv6"
  name: "Rrelu6"
  type: RELU
}
layers {
  bottom: "Rconv6"
  top: "Rconv7"
  name: "Rconv7"
  type: CONVOLUTION
  blobs_lr: 1
  blobs_lr: 2
  weight_decay: 1
  weight_decay: 0
  convolution_param {
    num_output: 256
    pad: 1
    kernel_size: 3
    group: 2
  }
}
layers {
  bottom: "Rconv7"
  top: "Rconv7"
  name: "Rrelu7"
  type: RELU
}
layers {
  bottom: "Rconv7"
  top: "Rconv8"
  name: "Rconv8"
  type: CONVOLUTION
  blobs_lr: 1
  blobs_lr: 2
  weight_decay: 1
  weight_decay: 0
  convolution_param {
    num_output: 256
    pad: 1
    kernel_size: 3
    group: 2
  }
}
layers {
  bottom: "Rconv8"
  top: "Rconv8"
  name: "Rrelu8"
  type: RELU
}
layers {
  bottom: "Rconv8"
  top: "deconv2"
  name: "deconv2"
  type: DECONVOLUTION
  blobs_lr: 1
  blobs_lr: 2
  weight_decay: 1
  weight_decay: 0
  deconvolution_param {
    pad: 2
    kernel_size: 5
    stride: 2
    output_height: 54
    output_width: 54
    output_channels: 64
  }
}
layers {
  bottom: "deconv2"
  top: "deconv2"
  name: "relu_deconv2"
  type: RELU
  relu_param {
    negative_slope: 0.3
  }
}
layers {
  bottom: "deconv2"
  top: "deconv1"
  name: "deconv1"
  type: DECONVOLUTION
  blobs_lr: 1
  blobs_lr: 2
  weight_decay: 1
  weight_decay: 0
  deconvolution_param {
    pad: 2
    kernel_size: 5
    stride: 2
    output_height: 108
    output_width: 108
    output_channels: 32
  }
}
layers {
  bottom: "deconv1"
  top: "deconv1"
  name: "relu_deconv1"
  type: RELU
  relu_param {
    negative_slope: 0.3
  }
}
layers {
  bottom: "deconv1"
  top: "deconv0"
  name: "deconv0"
  type: DECONVOLUTION
  blobs_lr: 1
  blobs_lr: 2
  weight_decay: 1
  weight_decay: 1
  deconvolution_param {
    pad: 2
    kernel_size: 5
    stride: 2
    output_height: 216
    output_width: 216
    output_channels: 3
  }
}
layers {
  bottom: "deconv0"
  bottom: "target_ims"
  name: "loss"
  type: EUCLIDEAN_LOSS
}
I0813 08:09:57.045172 29016 net.cpp:65] Creating Layer source_ims
I0813 08:09:57.045181 29016 net.cpp:189] source_ims -> source_ims
I0813 08:09:57.045284 29016 data_layer.cpp:223] Opening lmdb /scr/r6/tgebru/inverting_conv/caffe_invert_alexnet/data/siggraph/tiny_winter_train_lmdb
I0813 08:09:57.045512 29016 data_layer.cpp:285] output data size: 12,3,227,227
I0813 08:09:57.045519 29016 data_layer.cpp:304] Loading mean file from/scr/r6/tgebru/timnit_caffe/data/ilsvrc12/imagenet_mean.binaryproto
I0813 08:09:57.050135 29016 net.cpp:84] Top shape: 12 3 227 227 (1855044)
I0813 08:09:57.050143 29016 net.cpp:116] source_ims does not need backward computation.
I0813 08:09:57.050149 29016 net.cpp:65] Creating Layer target_ims
I0813 08:09:57.050153 29016 net.cpp:189] target_ims -> target_ims
I0813 08:09:57.050248 29016 data_layer.cpp:223] Opening lmdb /scr/r6/tgebru/inverting_conv/caffe_invert_alexnet/data/siggraph/tiny_summer_train_lmdb
I0813 08:09:57.050359 29016 data_layer.cpp:285] output data size: 12,3,216,216
I0813 08:09:57.050362 29016 data_layer.cpp:304] Loading mean file from/scr/r6/tgebru/timnit_caffe/data/ilsvrc12/imagenet_mean.binaryproto
I0813 08:09:57.054594 29016 net.cpp:84] Top shape: 12 3 216 216 (1679616)
I0813 08:09:57.054600 29016 net.cpp:116] target_ims does not need backward computation.
I0813 08:09:57.054608 29016 net.cpp:65] Creating Layer conv1
I0813 08:09:57.054612 29016 net.cpp:228] conv1 <- source_ims
I0813 08:09:57.054653 29016 net.cpp:189] conv1 -> conv1
I0813 08:09:57.055938 29016 net.cpp:84] Top shape: 12 96 55 55 (3484800)
I0813 08:09:57.055943 29016 net.cpp:116] conv1 does not need backward computation.
I0813 08:09:57.055948 29016 net.cpp:65] Creating Layer relu1
I0813 08:09:57.055951 29016 net.cpp:228] relu1 <- conv1
I0813 08:09:57.055956 29016 net.cpp:179] relu1 -> conv1 (in-place)
I0813 08:09:57.055965 29016 net.cpp:84] Top shape: 12 96 55 55 (3484800)
I0813 08:09:57.055968 29016 net.cpp:116] relu1 does not need backward computation.
I0813 08:09:57.055974 29016 net.cpp:65] Creating Layer pool1
I0813 08:09:57.055976 29016 net.cpp:228] pool1 <- conv1
I0813 08:09:57.055980 29016 net.cpp:189] pool1 -> pool1
I0813 08:09:57.055991 29016 net.cpp:84] Top shape: 12 96 27 27 (839808)
I0813 08:09:57.055994 29016 net.cpp:116] pool1 does not need backward computation.
I0813 08:09:57.056000 29016 net.cpp:65] Creating Layer norm1
I0813 08:09:57.056004 29016 net.cpp:228] norm1 <- pool1
I0813 08:09:57.056007 29016 net.cpp:189] norm1 -> norm1
I0813 08:09:57.056016 29016 net.cpp:84] Top shape: 12 96 27 27 (839808)
I0813 08:09:57.056020 29016 net.cpp:116] norm1 does not need backward computation.
I0813 08:09:57.056023 29016 net.cpp:65] Creating Layer Rconv6
I0813 08:09:57.056026 29016 net.cpp:228] Rconv6 <- norm1
I0813 08:09:57.056030 29016 net.cpp:189] Rconv6 -> Rconv6
I0813 08:09:57.056200 29016 net.cpp:84] Top shape: 12 256 27 27 (2239488)
I0813 08:09:57.056205 29016 net.cpp:111] Rconv6 needs backward computation.
I0813 08:09:57.056210 29016 net.cpp:65] Creating Layer Rrelu6
I0813 08:09:57.056212 29016 net.cpp:228] Rrelu6 <- Rconv6
I0813 08:09:57.056216 29016 net.cpp:179] Rrelu6 -> Rconv6 (in-place)
I0813 08:09:57.056221 29016 net.cpp:84] Top shape: 12 256 27 27 (2239488)
I0813 08:09:57.056224 29016 net.cpp:111] Rrelu6 needs backward computation.
I0813 08:09:57.056229 29016 net.cpp:65] Creating Layer Rconv7
I0813 08:09:57.056232 29016 net.cpp:228] Rconv7 <- Rconv6
I0813 08:09:57.056236 29016 net.cpp:189] Rconv7 -> Rconv7
I0813 08:09:57.056988 29016 net.cpp:84] Top shape: 12 256 27 27 (2239488)
I0813 08:09:57.056993 29016 net.cpp:111] Rconv7 needs backward computation.
I0813 08:09:57.056996 29016 net.cpp:65] Creating Layer Rrelu7
I0813 08:09:57.057019 29016 net.cpp:228] Rrelu7 <- Rconv7
I0813 08:09:57.057024 29016 net.cpp:179] Rrelu7 -> Rconv7 (in-place)
I0813 08:09:57.057029 29016 net.cpp:84] Top shape: 12 256 27 27 (2239488)
I0813 08:09:57.057031 29016 net.cpp:111] Rrelu7 needs backward computation.
I0813 08:09:57.057035 29016 net.cpp:65] Creating Layer Rconv8
I0813 08:09:57.057037 29016 net.cpp:228] Rconv8 <- Rconv7
I0813 08:09:57.057041 29016 net.cpp:189] Rconv8 -> Rconv8
I0813 08:09:57.057811 29016 net.cpp:84] Top shape: 12 256 27 27 (2239488)
I0813 08:09:57.057816 29016 net.cpp:111] Rconv8 needs backward computation.
I0813 08:09:57.057821 29016 net.cpp:65] Creating Layer Rrelu8
I0813 08:09:57.057823 29016 net.cpp:228] Rrelu8 <- Rconv8
I0813 08:09:57.057827 29016 net.cpp:179] Rrelu8 -> Rconv8 (in-place)
I0813 08:09:57.057832 29016 net.cpp:84] Top shape: 12 256 27 27 (2239488)
I0813 08:09:57.057834 29016 net.cpp:111] Rrelu8 needs backward computation.
I0813 08:09:57.057839 29016 net.cpp:65] Creating Layer deconv2
I0813 08:09:57.057842 29016 net.cpp:228] deconv2 <- Rconv8
I0813 08:09:57.057845 29016 net.cpp:189] deconv2 -> deconv2
I0813 08:09:57.058962 29016 net.cpp:84] Top shape: 12 64 54 54 (2239488)
I0813 08:09:57.058966 29016 net.cpp:111] deconv2 needs backward computation.
I0813 08:09:57.058971 29016 net.cpp:65] Creating Layer relu_deconv2
I0813 08:09:57.058974 29016 net.cpp:228] relu_deconv2 <- deconv2
I0813 08:09:57.058979 29016 net.cpp:179] relu_deconv2 -> deconv2 (in-place)
I0813 08:09:57.058984 29016 net.cpp:84] Top shape: 12 64 54 54 (2239488)
I0813 08:09:57.058986 29016 net.cpp:111] relu_deconv2 needs backward computation.
I0813 08:09:57.058990 29016 net.cpp:65] Creating Layer deconv1
I0813 08:09:57.058992 29016 net.cpp:228] deconv1 <- deconv2
I0813 08:09:57.058996 29016 net.cpp:189] deconv1 -> deconv1
I0813 08:09:57.059140 29016 net.cpp:84] Top shape: 12 32 108 108 (4478976)
I0813 08:09:57.059144 29016 net.cpp:111] deconv1 needs backward computation.
I0813 08:09:57.059149 29016 net.cpp:65] Creating Layer relu_deconv1
I0813 08:09:57.059151 29016 net.cpp:228] relu_deconv1 <- deconv1
I0813 08:09:57.059155 29016 net.cpp:179] relu_deconv1 -> deconv1 (in-place)
I0813 08:09:57.059159 29016 net.cpp:84] Top shape: 12 32 108 108 (4478976)
I0813 08:09:57.059162 29016 net.cpp:111] relu_deconv1 needs backward computation.
I0813 08:09:57.059167 29016 net.cpp:65] Creating Layer deconv0
I0813 08:09:57.059170 29016 net.cpp:228] deconv0 <- deconv1
I0813 08:09:57.059173 29016 net.cpp:189] deconv0 -> deconv0
I0813 08:09:57.059192 29016 net.cpp:84] Top shape: 12 3 216 216 (1679616)
I0813 08:09:57.059196 29016 net.cpp:111] deconv0 needs backward computation.
I0813 08:09:57.059200 29016 net.cpp:65] Creating Layer loss
I0813 08:09:57.059202 29016 net.cpp:228] loss <- deconv0
I0813 08:09:57.059206 29016 net.cpp:228] loss <- target_ims
I0813 08:09:57.059214 29016 net.cpp:111] loss needs backward computation.
I0813 08:09:57.059226 29016 net.cpp:238] Collecting Learning Rate and Weight Decay.
…
    source: "/scr/r6/tgebru/inverting_conv/caffe_invert_alexnet/data/siggraph/tiny_winter_val_lmdb"
    mean_file: "/scr/r6/tgebru/timnit_caffe/data/ilsvrc12/imagenet_mean.binaryproto"
    batch_size: 2
    crop_size: 227
    mirror: false
    backend: LMDB
  }
}
layers {
  top: "target_ims"
  name: "target_ims"
  type: DATA
  data_param {
    source: "/scr/r6/tgebru/inverting_conv/caffe_invert_alexnet/data/siggraph/tiny_summer_val_lmdb"
    mean_file: "/scr/r6/tgebru/timnit_caffe/data/ilsvrc12/imagenet_mean.binaryproto"
    batch_size: 2
    crop_size: 216
    mirror: false
    backend: LMDB
  }
}
layers {
  bottom: "source_ims"
  top: "conv1"
  name: "conv1"
  type: CONVOLUTION
  blobs_lr: 0
  blobs_lr: 0
  weight_decay: 1
  weight_decay: 0
  convolution_param {
    num_output: 96
    kernel_size: 11
    stride: 4
    weight_filler {
      type: "gaussian"
      std: 0.01
    }
    bias_filler {
      type: "constant"
      value: 0
    }
  }
}
layers {
  bottom: "conv1"
  top: "conv1"
  name: "relu1"
  type: RELU
}
layers {
  bottom: "conv1"
  top: "pool1"
  name: "pool1"
  type: POOLING
  pooling_param {
    pool: MAX
    kernel_size: 3
    stride: 2
  }
}
layers {
  bottom: "pool1"
  top: "norm1"
  name: "norm1"
  type: LRN
  lrn_param {
    local_size: 5
    alpha: 0.0001
    beta: 0.75
  }
}
layers {
  bottom: "norm1"
  top: "Rconv6"
  name: "Rconv6"
  type: CONVOLUTION
  blobs_lr: 0
  blobs_lr: 0
  weight_decay: 1
  weight_decay: 0
  convolution_param {
    num_output: 256
    pad: 1
    kernel_size: 3
  }
}
layers {
  bottom: "Rconv6"
  top: "Rconv6"
  name: "Rrelu6"
  type: RELU
}
layers {
  bottom: "Rconv6"
  top: "Rconv7"
  name: "Rconv7"
  type: CONVOLUTION
  blobs_lr: 0
  blobs_lr: 0
  weight_decay: 1
  weight_decay: 0
  convolution_param {
    num_output: 256
    pad: 1
    kernel_size: 3
    group: 2
  }
}
layers {
  bottom: "Rconv7"
  top: "Rconv7"
  name: "Rrelu7"
  type: RELU
}
layers {
  bottom: "Rconv7"
  top: "Rconv8"
  name: "Rconv8"
  type: CONVOLUTION
  blobs_lr: 0
  blobs_lr: 0
  weight_decay: 1
  weight_decay: 0
  convolution_param {
    num_output: 256
    pad: 1
    kernel_size: 3
    group: 2
  }
}
layers {
  bottom: "Rconv8"
  top: "Rconv8"
  name: "Rrelu8"
  type: RELU
}
layers {
  bottom: "Rconv8"
  top: "deconv2"
  name: "deconv2"
  type: DECONVOLUTION
  blobs_lr: 0
  blobs_lr: 0
  weight_decay: 1
  weight_decay: 0
  deconvolution_param {
    pad: 2
    kernel_size: 5
    stride: 2
    output_height: 54
    output_width: 54
    output_channels: 64
  }
}
layers {
  bottom: "deconv2"
  top: "deconv2"
  name: "relu_deconv2"
  type: RELU
  relu_param {
    negative_slope: 0.3
  }
}
layers {
  bottom: "deconv2"
  top: "deconv1"
  name: "deconv1"
  type: DECONVOLUTION
  blobs_lr: 0
  blobs_lr: 0
  weight_decay: 1
  weight_decay: 0
  deconvolution_param {
    pad: 2
    kernel_size: 5
    stride: 2
    output_height: 108
    output_width: 108
    output_channels: 32
  }
}
layers {
  bottom: "deconv1"
  top: "deconv1"
  name: "relu_deconv1"
  type: RELU
  relu_param {
    negative_slope: 0.3
  }
}
layers {
  bottom: "deconv1"
  top: "deconv0"
  name: "deconv0"
  type: DECONVOLUTION
  blobs_lr: 0
  blobs_lr: 0
  weight_decay: 1
  weight_decay: 0
  deconvolution_param {
    pad: 2
    kernel_size: 5
    stride: 2
    output_height: 216
    output_width: 216
    output_channels: 3
  }
}
layers {
  bottom: "deconv0"
  bottom: "target_ims"
  name: "loss"
  type: EUCLIDEAN_LOSS
}
I0813 08:09:57.059955 29016 net.cpp:65] Creating Layer source_ims
I0813 08:09:57.059962 29016 net.cpp:189] source_ims -> source_ims
I0813 08:09:57.060009 29016 data_layer.cpp:223] Opening lmdb /scr/r6/tgebru/inverting_conv/caffe_invert_alexnet/data/siggraph/tiny_winter_val_lmdb
I0813 08:09:57.060195 29016 data_layer.cpp:285] output data size: 2,3,227,227
I0813 08:09:57.060199 29016 data_layer.cpp:304] Loading mean file from/scr/r6/tgebru/timnit_caffe/data/ilsvrc12/imagenet_mean.binaryproto
I0813 08:09:57.062517 29016 net.cpp:84] Top shape: 2 3 227 227 (309174)
I0813 08:09:57.062525 29016 net.cpp:116] source_ims does not need backward computation.
I0813 08:09:57.062531 29016 net.cpp:65] Creating Layer target_ims
I0813 08:09:57.062536 29016 net.cpp:189] target_ims -> target_ims
I0813 08:09:57.062580 29016 data_layer.cpp:223] Opening lmdb /scr/r6/tgebru/inverting_conv/caffe_invert_alexnet/data/siggraph/tiny_summer_val_lmdb
I0813 08:09:57.062695 29016 data_layer.cpp:285] output data size: 2,3,216,216
I0813 08:09:57.062698 29016 data_layer.cpp:304] Loading mean file from/scr/r6/tgebru/timnit_caffe/data/ilsvrc12/imagenet_mean.binaryproto
I0813 08:09:57.064908 29016 net.cpp:84] Top shape: 2 3 216 216 (279936)
I0813 08:09:57.064927 29016 net.cpp:116] target_ims does not need backward computation.
I0813 08:09:57.064934 29016 net.cpp:65] Creating Layer conv1
I0813 08:09:57.064937 29016 net.cpp:228] conv1 <- source_ims
I0813 08:09:57.064944 29016 net.cpp:189] conv1 -> conv1
I0813 08:09:57.066191 29016 net.cpp:84] Top shape: 2 96 55 55 (580800)
I0813 08:09:57.066196 29016 net.cpp:116] conv1 does not need backward computation.
I0813 08:09:57.066200 29016 net.cpp:65] Creating Layer relu1
I0813 08:09:57.066203 29016 net.cpp:228] relu1 <- conv1
I0813 08:09:57.066208 29016 net.cpp:179] relu1 -> conv1 (in-place)
I0813 08:09:57.066213 29016 net.cpp:84] Top shape: 2 96 55 55 (580800)
I0813 08:09:57.066216 29016 net.cpp:116] relu1 does not need backward computation.
I0813 08:09:57.066220 29016 net.cpp:65] Creating Layer pool1
I0813 08:09:57.066223 29016 net.cpp:228] pool1 <- conv1
I0813 08:09:57.066227 29016 net.cpp:189] pool1 -> pool1
I0813 08:09:57.066233 29016 net.cpp:84] Top shape: 2 96 27 27 (139968)
I0813 08:09:57.066236 29016 net.cpp:116] pool1 does not need backward computation.
I0813 08:09:57.066241 29016 net.cpp:65] Creating Layer norm1
I0813 08:09:57.066243 29016 net.cpp:228] norm1 <- pool1
I0813 08:09:57.066247 29016 net.cpp:189] norm1 -> norm1
I0813 08:09:57.066252 29016 net.cpp:84] Top shape: 2 96 27 27 (139968)
I0813 08:09:57.066256 29016 net.cpp:116] norm1 does not need backward computation.
I0813 08:09:57.066259 29016 net.cpp:65] Creating Layer Rconv6
I0813 08:09:57.066262 29016 net.cpp:228] Rconv6 <- norm1
I0813 08:09:57.066267 29016 net.cpp:189] Rconv6 -> Rconv6
I0813 08:09:57.066823 29016 net.cpp:84] Top shape: 2 256 27 27 (373248)
I0813 08:09:57.066828 29016 net.cpp:116] Rconv6 does not need backward computation.
I0813 08:09:57.066831 29016 net.cpp:65] Creating Layer Rrelu6
I0813 08:09:57.066834 29016 net.cpp:228] Rrelu6 <- Rconv6
I0813 08:09:57.066838 29016 net.cpp:179] Rrelu6 -> Rconv6 (in-place)
I0813 08:09:57.066843 29016 net.cpp:84] Top shape: 2 256 27 27 (373248)
I0813 08:09:57.066846 29016 net.cpp:116] Rrelu6 does not need backward computation.
I0813 08:09:57.066851 29016 net.cpp:65] Creating Layer Rconv7
I0813 08:09:57.066854 29016 net.cpp:228] Rconv7 <- Rconv6
I0813 08:09:57.066858 29016 net.cpp:189] Rconv7 -> Rconv7
I0813 08:09:57.067585 29016 net.cpp:84] Top shape: 2 256 27 27 (373248)
I0813 08:09:57.067590 29016 net.cpp:116] Rconv7 does not need backward computation.
I0813 08:09:57.067595 29016 net.cpp:65] Creating Layer Rrelu7
I0813 08:09:57.067597 29016 net.cpp:228] Rrelu7 <- Rconv7
I0813 08:09:57.067601 29016 net.cpp:179] Rrelu7 -> Rconv7 (in-place)
I0813 08:09:57.067605 29016 net.cpp:84] Top shape: 2 256 27 27 (373248)
I0813 08:09:57.067608 29016 net.cpp:116] Rrelu7 does not need backward computation.
I0813 08:09:57.067611 29016 net.cpp:65] Creating Layer Rconv8
I0813 08:09:57.067615 29016 net.cpp:228] Rconv8 <- Rconv7
I0813 08:09:57.067618 29016 net.cpp:189] Rconv8 -> Rconv8
I0813 08:09:57.068349 29016 net.cpp:84] Top shape: 2 256 27 27 (373248)
I0813 08:09:57.068353 29016 net.cpp:116] Rconv8 does not need backward computation.
I0813 08:09:57.068357 29016 net.cpp:65] Creating Layer Rrelu8
I0813 08:09:57.068361 29016 net.cpp:228] Rrelu8 <- Rconv8
I0813 08:09:57.068363 29016 net.cpp:179] Rrelu8 -> Rconv8 (in-place)
I0813 08:09:57.068368 29016 net.cpp:84] Top shape: 2 256 27 27 (373248)
I0813 08:09:57.068370 29016 net.cpp:116] Rrelu8 does not need backward computation.
I0813 08:09:57.068374 29016 net.cpp:65] Creating Layer deconv2
I0813 08:09:57.068377 29016 net.cpp:228] deconv2 <- Rconv8
I0813 08:09:57.068380 29016 net.cpp:189] deconv2 -> deconv2
I0813 08:09:57.069394 29016 net.cpp:84] Top shape: 2 64 54 54 (373248)
I0813 08:09:57.069399 29016 net.cpp:116] deconv2 does not need backward computation.
I0813 08:09:57.069403 29016 net.cpp:65] Creating Layer relu_deconv2
I0813 08:09:57.069406 29016 net.cpp:228] relu_deconv2 <- deconv2
I0813 08:09:57.069411 29016 net.cpp:179] relu_deconv2 -> deconv2 (in-place)
I0813 08:09:57.069416 29016 net.cpp:84] Top shape: 2 64 54 54 (373248)
I0813 08:09:57.069423 29016 net.cpp:116] relu_deconv2 does not need backward computation.
I0813 08:09:57.069439 29016 net.cpp:65] Creating Layer deconv1
I0813 08:09:57.069442 29016 net.cpp:228] deconv1 <- deconv2
I0813 08:09:57.069447 29016 net.cpp:189] deconv1 -> deconv1
I0813 08:09:57.069583 29016 net.cpp:84] Top shape: 2 32 108 108 (746496)
I0813 08:09:57.069587 29016 net.cpp:116] deconv1 does not need backward computation.
I0813 08:09:57.069591 29016 net.cpp:65] Creating Layer relu_deconv1
I0813 08:09:57.069594 29016 net.cpp:228] relu_deconv1 <- deconv1
I0813 08:09:57.069598 29016 net.cpp:179] relu_deconv1 -> deconv1 (in-place)
I0813 08:09:57.069602 29016 net.cpp:84] Top shape: 2 32 108 108 (746496)
I0813 08:09:57.069605 29016 net.cpp:116] relu_deconv1 does not need backward computation.
I0813 08:09:57.069610 29016 net.cpp:65] Creating Layer deconv0
I0813 08:09:57.069613 29016 net.cpp:228] deconv0 <- deconv1
I0813 08:09:57.069617 29016 net.cpp:189] deconv0 -> deconv0
I0813 08:09:57.069636 29016 net.cpp:84] Top shape: 2 3 216 216 (279936)
I0813 08:09:57.069639 29016 net.cpp:116] deconv0 does not need backward computation.
I0813 08:09:57.069643 29016 net.cpp:65] Creating Layer loss
I0813 08:09:57.069645 29016 net.cpp:228] loss <- deconv0
I0813 08:09:57.069649 29016 net.cpp:228] loss <- target_ims
I0813 08:09:57.069653 29016 net.cpp:116] loss does not need backward computation.
I0813 08:09:57.069665 29016 net.cpp:238] Collecting Learning Rate and Weight Decay.
…
