…
    source: "/scr/r6/tgebru/inverting_conv/caffe_invert_alexnet/data/siggraph/tiny_summer_train_lmdb"
    mean_file: "/scr/r6/tgebru/timnit_caffe/data/ilsvrc12/imagenet_mean.binaryproto"
    batch_size: 12
    crop_size: 227
    mirror: false
    backend: LMDB
  }
}
layers {
  top: "target_ims"
  name: "target_ims"
  type: DATA
  data_param {
    source: "/scr/r6/tgebru/inverting_conv/caffe_invert_alexnet/data/siggraph/tiny_winter_train_lmdb"
    mean_file: "/scr/r6/tgebru/timnit_caffe/data/ilsvrc12/imagenet_mean.binaryproto"
    batch_size: 12
    crop_size: 216
    mirror: false
    backend: LMDB
  }
}
layers {
  bottom: "source_ims"
  top: "conv1"
  name: "conv1"
  type: CONVOLUTION
  blobs_lr: 0
  blobs_lr: 0
  weight_decay: 1
  weight_decay: 0
  convolution_param {
    num_output: 96
    kernel_size: 11
    stride: 4
    weight_filler {
      type: "gaussian"
      std: 0.01
    }
    bias_filler {
      type: "constant"
      value: 0
    }
  }
}
layers {
  bottom: "conv1"
  top: "conv1"
  name: "relu1"
  type: RELU
}
layers {
  bottom: "conv1"
  top: "pool1"
  name: "pool1"
  type: POOLING
  pooling_param {
    pool: MAX
    kernel_size: 3
    stride: 2
  }
}
layers {
  bottom: "pool1"
  top: "norm1"
  name: "norm1"
  type: LRN
  lrn_param {
    local_size: 5
    alpha: 0.0001
    beta: 0.75
  }
}
layers {
  bottom: "norm1"
  top: "Rconv6"
  name: "Rconv6"
  type: CONVOLUTION
  blobs_lr: 1
  blobs_lr: 2
  weight_decay: 1
  weight_decay: 0
  convolution_param {
    num_output: 256
    pad: 1
    kernel_size: 3
  }
}
layers {
  bottom: "Rconv6"
  top: "Rconv6"
  name: "Rrelu6"
  type: RELU
}
layers {
  bottom: "Rconv6"
  top: "Rconv7"
  name: "Rconv7"
  type: CONVOLUTION
  blobs_lr: 1
  blobs_lr: 2
  weight_decay: 1
  weight_decay: 0
  convolution_param {
    num_output: 256
    pad: 1
    kernel_size: 3
    group: 2
  }
}
layers {
  bottom: "Rconv7"
  top: "Rconv7"
  name: "Rrelu7"
  type: RELU
}
layers {
  bottom: "Rconv7"
  top: "Rconv8"
  name: "Rconv8"
  type: CONVOLUTION
  blobs_lr: 1
  blobs_lr: 2
  weight_decay: 1
  weight_decay: 0
  convolution_param {
    num_output: 256
    pad: 1
    kernel_size: 3
    group: 2
  }
}
layers {
  bottom: "Rconv8"
  top: "Rconv8"
  name: "Rrelu8"
  type: RELU
}
layers {
  bottom: "Rconv8"
  top: "deconv2"
  name: "deconv2"
  type: DECONVOLUTION
  blobs_lr: 1
  blobs_lr: 2
  weight_decay: 1
  weight_decay: 0
  deconvolution_param {
    pad: 2
    kernel_size: 5
    stride: 2
    output_height: 54
    output_width: 54
    output_channels: 64
  }
}
layers {
  bottom: "deconv2"
  top: "deconv2"
  name: "relu_deconv2"
  type: RELU
  relu_param {
    negative_slope: 0.3
  }
}
layers {
  bottom: "deconv2"
  top: "deconv1"
  name: "deconv1"
  type: DECONVOLUTION
  blobs_lr: 1
  blobs_lr: 2
  weight_decay: 1
  weight_decay: 0
  deconvolution_param {
    pad: 2
    kernel_size: 5
    stride: 2
    output_height: 108
    output_width: 108
    output_channels: 32
  }
}
layers {
  bottom: "deconv1"
  top: "deconv1"
  name: "relu_deconv1"
  type: RELU
  relu_param {
    negative_slope: 0.3
  }
}
layers {
  bottom: "deconv1"
  top: "deconv0"
  name: "deconv0"
  type: DECONVOLUTION
  blobs_lr: 1
  blobs_lr: 2
  weight_decay: 1
  weight_decay: 1
  deconvolution_param {
    pad: 2
    kernel_size: 5
    stride: 2
    output_height: 216
    output_width: 216
    output_channels: 3
  }
}
layers {
  bottom: "deconv0"
  bottom: "target_ims"
  name: "loss"
  type: EUCLIDEAN_LOSS
}
I0813 09:23:25.006265  7344 net.cpp:65] Creating Layer source_ims
I0813 09:23:25.006274  7344 net.cpp:189] source_ims -> source_ims
I0813 09:23:25.006377  7344 data_layer.cpp:223] Opening lmdb /scr/r6/tgebru/inverting_conv/caffe_invert_alexnet/data/siggraph/tiny_summer_train_lmdb
I0813 09:23:25.006582  7344 data_layer.cpp:285] output data size: 12,3,227,227
I0813 09:23:25.006588  7344 data_layer.cpp:304] Loading mean file from/scr/r6/tgebru/timnit_caffe/data/ilsvrc12/imagenet_mean.binaryproto
I0813 09:23:25.011634  7344 net.cpp:84] Top shape: 12 3 227 227 (1855044)
I0813 09:23:25.011642  7344 net.cpp:116] source_ims does not need backward computation.
I0813 09:23:25.011651  7344 net.cpp:65] Creating Layer target_ims
I0813 09:23:25.011656  7344 net.cpp:189] target_ims -> target_ims
I0813 09:23:25.011750  7344 data_layer.cpp:223] Opening lmdb /scr/r6/tgebru/inverting_conv/caffe_invert_alexnet/data/siggraph/tiny_winter_train_lmdb
I0813 09:23:25.011890  7344 data_layer.cpp:285] output data size: 12,3,216,216
I0813 09:23:25.011895  7344 data_layer.cpp:304] Loading mean file from/scr/r6/tgebru/timnit_caffe/data/ilsvrc12/imagenet_mean.binaryproto
I0813 09:23:25.016595  7344 net.cpp:84] Top shape: 12 3 216 216 (1679616)
I0813 09:23:25.016602  7344 net.cpp:116] target_ims does not need backward computation.
I0813 09:23:25.016612  7344 net.cpp:65] Creating Layer conv1
I0813 09:23:25.016615  7344 net.cpp:228] conv1 <- source_ims
I0813 09:23:25.016650  7344 net.cpp:189] conv1 -> conv1
I0813 09:23:25.017937  7344 net.cpp:84] Top shape: 12 96 55 55 (3484800)
I0813 09:23:25.017942  7344 net.cpp:116] conv1 does not need backward computation.
I0813 09:23:25.017947  7344 net.cpp:65] Creating Layer relu1
I0813 09:23:25.017951  7344 net.cpp:228] relu1 <- conv1
I0813 09:23:25.017954  7344 net.cpp:179] relu1 -> conv1 (in-place)
I0813 09:23:25.017963  7344 net.cpp:84] Top shape: 12 96 55 55 (3484800)
I0813 09:23:25.017966  7344 net.cpp:116] relu1 does not need backward computation.
I0813 09:23:25.017972  7344 net.cpp:65] Creating Layer pool1
I0813 09:23:25.017976  7344 net.cpp:228] pool1 <- conv1
I0813 09:23:25.017979  7344 net.cpp:189] pool1 -> pool1
I0813 09:23:25.017992  7344 net.cpp:84] Top shape: 12 96 27 27 (839808)
I0813 09:23:25.017994  7344 net.cpp:116] pool1 does not need backward computation.
I0813 09:23:25.018000  7344 net.cpp:65] Creating Layer norm1
I0813 09:23:25.018003  7344 net.cpp:228] norm1 <- pool1
I0813 09:23:25.018008  7344 net.cpp:189] norm1 -> norm1
I0813 09:23:25.018017  7344 net.cpp:84] Top shape: 12 96 27 27 (839808)
I0813 09:23:25.018019  7344 net.cpp:116] norm1 does not need backward computation.
I0813 09:23:25.018024  7344 net.cpp:65] Creating Layer Rconv6
I0813 09:23:25.018028  7344 net.cpp:228] Rconv6 <- norm1
I0813 09:23:25.018033  7344 net.cpp:189] Rconv6 -> Rconv6
I0813 09:23:25.018205  7344 net.cpp:84] Top shape: 12 256 27 27 (2239488)
I0813 09:23:25.018209  7344 net.cpp:111] Rconv6 needs backward computation.
I0813 09:23:25.018214  7344 net.cpp:65] Creating Layer Rrelu6
I0813 09:23:25.018218  7344 net.cpp:228] Rrelu6 <- Rconv6
I0813 09:23:25.018221  7344 net.cpp:179] Rrelu6 -> Rconv6 (in-place)
I0813 09:23:25.018226  7344 net.cpp:84] Top shape: 12 256 27 27 (2239488)
I0813 09:23:25.018229  7344 net.cpp:111] Rrelu6 needs backward computation.
I0813 09:23:25.018234  7344 net.cpp:65] Creating Layer Rconv7
I0813 09:23:25.018236  7344 net.cpp:228] Rconv7 <- Rconv6
I0813 09:23:25.018240  7344 net.cpp:189] Rconv7 -> Rconv7
I0813 09:23:25.018987  7344 net.cpp:84] Top shape: 12 256 27 27 (2239488)
I0813 09:23:25.018991  7344 net.cpp:111] Rconv7 needs backward computation.
I0813 09:23:25.018996  7344 net.cpp:65] Creating Layer Rrelu7
I0813 09:23:25.019022  7344 net.cpp:228] Rrelu7 <- Rconv7
I0813 09:23:25.019027  7344 net.cpp:179] Rrelu7 -> Rconv7 (in-place)
I0813 09:23:25.019032  7344 net.cpp:84] Top shape: 12 256 27 27 (2239488)
I0813 09:23:25.019034  7344 net.cpp:111] Rrelu7 needs backward computation.
I0813 09:23:25.019038  7344 net.cpp:65] Creating Layer Rconv8
I0813 09:23:25.019042  7344 net.cpp:228] Rconv8 <- Rconv7
I0813 09:23:25.019045  7344 net.cpp:189] Rconv8 -> Rconv8
I0813 09:23:25.019853  7344 net.cpp:84] Top shape: 12 256 27 27 (2239488)
I0813 09:23:25.019857  7344 net.cpp:111] Rconv8 needs backward computation.
I0813 09:23:25.019861  7344 net.cpp:65] Creating Layer Rrelu8
I0813 09:23:25.019865  7344 net.cpp:228] Rrelu8 <- Rconv8
I0813 09:23:25.019868  7344 net.cpp:179] Rrelu8 -> Rconv8 (in-place)
I0813 09:23:25.019872  7344 net.cpp:84] Top shape: 12 256 27 27 (2239488)
I0813 09:23:25.019876  7344 net.cpp:111] Rrelu8 needs backward computation.
I0813 09:23:25.019879  7344 net.cpp:65] Creating Layer deconv2
I0813 09:23:25.019882  7344 net.cpp:228] deconv2 <- Rconv8
I0813 09:23:25.019886  7344 net.cpp:189] deconv2 -> deconv2
I0813 09:23:25.020939  7344 net.cpp:84] Top shape: 12 64 54 54 (2239488)
I0813 09:23:25.020944  7344 net.cpp:111] deconv2 needs backward computation.
I0813 09:23:25.020949  7344 net.cpp:65] Creating Layer relu_deconv2
I0813 09:23:25.020952  7344 net.cpp:228] relu_deconv2 <- deconv2
I0813 09:23:25.020956  7344 net.cpp:179] relu_deconv2 -> deconv2 (in-place)
I0813 09:23:25.020961  7344 net.cpp:84] Top shape: 12 64 54 54 (2239488)
I0813 09:23:25.020963  7344 net.cpp:111] relu_deconv2 needs backward computation.
I0813 09:23:25.020967  7344 net.cpp:65] Creating Layer deconv1
I0813 09:23:25.020970  7344 net.cpp:228] deconv1 <- deconv2
I0813 09:23:25.020973  7344 net.cpp:189] deconv1 -> deconv1
I0813 09:23:25.021121  7344 net.cpp:84] Top shape: 12 32 108 108 (4478976)
I0813 09:23:25.021126  7344 net.cpp:111] deconv1 needs backward computation.
I0813 09:23:25.021129  7344 net.cpp:65] Creating Layer relu_deconv1
I0813 09:23:25.021132  7344 net.cpp:228] relu_deconv1 <- deconv1
I0813 09:23:25.021136  7344 net.cpp:179] relu_deconv1 -> deconv1 (in-place)
I0813 09:23:25.021141  7344 net.cpp:84] Top shape: 12 32 108 108 (4478976)
I0813 09:23:25.021143  7344 net.cpp:111] relu_deconv1 needs backward computation.
I0813 09:23:25.021149  7344 net.cpp:65] Creating Layer deconv0
I0813 09:23:25.021152  7344 net.cpp:228] deconv0 <- deconv1
I0813 09:23:25.021155  7344 net.cpp:189] deconv0 -> deconv0
I0813 09:23:25.021175  7344 net.cpp:84] Top shape: 12 3 216 216 (1679616)
I0813 09:23:25.021178  7344 net.cpp:111] deconv0 needs backward computation.
I0813 09:23:25.021183  7344 net.cpp:65] Creating Layer loss
I0813 09:23:25.021185  7344 net.cpp:228] loss <- deconv0
I0813 09:23:25.021188  7344 net.cpp:228] loss <- target_ims
I0813 09:23:25.021198  7344 net.cpp:111] loss needs backward computation.
I0813 09:23:25.021209  7344 net.cpp:238] Collecting Learning Rate and Weight Decay.
…
    source: "/scr/r6/tgebru/inverting_conv/caffe_invert_alexnet/data/siggraph/tiny_summer_val_lmdb"
    mean_file: "/scr/r6/tgebru/timnit_caffe/data/ilsvrc12/imagenet_mean.binaryproto"
    batch_size: 64
    crop_size: 227
    mirror: false
    backend: LMDB
  }
}
layers {
  top: "target_ims"
  name: "target_ims"
  type: DATA
  data_param {
    source: "/scr/r6/tgebru/inverting_conv/caffe_invert_alexnet/data/siggraph/tiny_winter_val_lmdb"
    mean_file: "/scr/r6/tgebru/timnit_caffe/data/ilsvrc12/imagenet_mean.binaryproto"
    batch_size: 64
    crop_size: 216
    mirror: false
    backend: LMDB
  }
}
layers {
  bottom: "source_ims"
  top: "conv1"
  name: "conv1"
  type: CONVOLUTION
  blobs_lr: 0
  blobs_lr: 0
  weight_decay: 1
  weight_decay: 0
  convolution_param {
    num_output: 96
    kernel_size: 11
    stride: 4
    weight_filler {
      type: "gaussian"
      std: 0.01
    }
    bias_filler {
      type: "constant"
      value: 0
    }
  }
}
layers {
  bottom: "conv1"
  top: "conv1"
  name: "relu1"
  type: RELU
}
layers {
  bottom: "conv1"
  top: "pool1"
  name: "pool1"
  type: POOLING
  pooling_param {
    pool: MAX
    kernel_size: 3
    stride: 2
  }
}
layers {
  bottom: "pool1"
  top: "norm1"
  name: "norm1"
  type: LRN
  lrn_param {
    local_size: 5
    alpha: 0.0001
    beta: 0.75
  }
}
layers {
  bottom: "norm1"
  top: "Rconv6"
  name: "Rconv6"
  type: CONVOLUTION
  blobs_lr: 0
  blobs_lr: 0
  weight_decay: 1
  weight_decay: 0
  convolution_param {
    num_output: 256
    pad: 1
    kernel_size: 3
  }
}
layers {
  bottom: "Rconv6"
  top: "Rconv6"
  name: "Rrelu6"
  type: RELU
}
layers {
  bottom: "Rconv6"
  top: "Rconv7"
  name: "Rconv7"
  type: CONVOLUTION
  blobs_lr: 0
  blobs_lr: 0
  weight_decay: 1
  weight_decay: 0
  convolution_param {
    num_output: 256
    pad: 1
    kernel_size: 3
    group: 2
  }
}
layers {
  bottom: "Rconv7"
  top: "Rconv7"
  name: "Rrelu7"
  type: RELU
}
layers {
  bottom: "Rconv7"
  top: "Rconv8"
  name: "Rconv8"
  type: CONVOLUTION
  blobs_lr: 0
  blobs_lr: 0
  weight_decay: 1
  weight_decay: 0
  convolution_param {
    num_output: 256
    pad: 1
    kernel_size: 3
    group: 2
  }
}
layers {
  bottom: "Rconv8"
  top: "Rconv8"
  name: "Rrelu8"
  type: RELU
}
layers {
  bottom: "Rconv8"
  top: "deconv2"
  name: "deconv2"
  type: DECONVOLUTION
  blobs_lr: 0
  blobs_lr: 0
  weight_decay: 1
  weight_decay: 0
  deconvolution_param {
    pad: 2
    kernel_size: 5
    stride: 2
    output_height: 54
    output_width: 54
    output_channels: 64
  }
}
layers {
  bottom: "deconv2"
  top: "deconv2"
  name: "relu_deconv2"
  type: RELU
  relu_param {
    negative_slope: 0.3
  }
}
layers {
  bottom: "deconv2"
  top: "deconv1"
  name: "deconv1"
  type: DECONVOLUTION
  blobs_lr: 0
  blobs_lr: 0
  weight_decay: 1
  weight_decay: 0
  deconvolution_param {
    pad: 2
    kernel_size: 5
    stride: 2
    output_height: 108
    output_width: 108
    output_channels: 32
  }
}
layers {
  bottom: "deconv1"
  top: "deconv1"
  name: "relu_deconv1"
  type: RELU
  relu_param {
    negative_slope: 0.3
  }
}
layers {
  bottom: "deconv1"
  top: "deconv0"
  name: "deconv0"
  type: DECONVOLUTION
  blobs_lr: 0
  blobs_lr: 0
  weight_decay: 1
  weight_decay: 0
  deconvolution_param {
    pad: 2
    kernel_size: 5
    stride: 2
    output_height: 216
    output_width: 216
    output_channels: 3
  }
}
layers {
  bottom: "deconv0"
  bottom: "target_ims"
  name: "loss"
  type: EUCLIDEAN_LOSS
}
I0813 09:23:25.021957  7344 net.cpp:65] Creating Layer source_ims
I0813 09:23:25.021962  7344 net.cpp:189] source_ims -> source_ims
I0813 09:23:25.022018  7344 data_layer.cpp:223] Opening lmdb /scr/r6/tgebru/inverting_conv/caffe_invert_alexnet/data/siggraph/tiny_summer_val_lmdb
I0813 09:23:25.022223  7344 data_layer.cpp:285] output data size: 64,3,227,227
I0813 09:23:25.022228  7344 data_layer.cpp:304] Loading mean file from/scr/r6/tgebru/timnit_caffe/data/ilsvrc12/imagenet_mean.binaryproto
I0813 09:23:25.036777  7344 net.cpp:84] Top shape: 64 3 227 227 (9893568)
I0813 09:23:25.036797  7344 net.cpp:116] source_ims does not need backward computation.
I0813 09:23:25.036808  7344 net.cpp:65] Creating Layer target_ims
I0813 09:23:25.036814  7344 net.cpp:189] target_ims -> target_ims
I0813 09:23:25.036900  7344 data_layer.cpp:223] Opening lmdb /scr/r6/tgebru/inverting_conv/caffe_invert_alexnet/data/siggraph/tiny_winter_val_lmdb
I0813 09:23:25.037019  7344 data_layer.cpp:285] output data size: 64,3,216,216
I0813 09:23:25.037024  7344 data_layer.cpp:304] Loading mean file from/scr/r6/tgebru/timnit_caffe/data/ilsvrc12/imagenet_mean.binaryproto
I0813 09:23:25.049648  7344 net.cpp:84] Top shape: 64 3 216 216 (8957952)
I0813 09:23:25.049695  7344 net.cpp:116] target_ims does not need backward computation.
I0813 09:23:25.049708  7344 net.cpp:65] Creating Layer conv1
I0813 09:23:25.049713  7344 net.cpp:228] conv1 <- source_ims
I0813 09:23:25.049721  7344 net.cpp:189] conv1 -> conv1
I0813 09:23:25.050981  7344 net.cpp:84] Top shape: 64 96 55 55 (18585600)
I0813 09:23:25.050987  7344 net.cpp:116] conv1 does not need backward computation.
I0813 09:23:25.050992  7344 net.cpp:65] Creating Layer relu1
I0813 09:23:25.050994  7344 net.cpp:228] relu1 <- conv1
I0813 09:23:25.050999  7344 net.cpp:179] relu1 -> conv1 (in-place)
I0813 09:23:25.051004  7344 net.cpp:84] Top shape: 64 96 55 55 (18585600)
I0813 09:23:25.051007  7344 net.cpp:116] relu1 does not need backward computation.
I0813 09:23:25.051012  7344 net.cpp:65] Creating Layer pool1
I0813 09:23:25.051015  7344 net.cpp:228] pool1 <- conv1
I0813 09:23:25.051020  7344 net.cpp:189] pool1 -> pool1
I0813 09:23:25.051026  7344 net.cpp:84] Top shape: 64 96 27 27 (4478976)
I0813 09:23:25.051029  7344 net.cpp:116] pool1 does not need backward computation.
I0813 09:23:25.051035  7344 net.cpp:65] Creating Layer norm1
I0813 09:23:25.051038  7344 net.cpp:228] norm1 <- pool1
I0813 09:23:25.051043  7344 net.cpp:189] norm1 -> norm1
I0813 09:23:25.051048  7344 net.cpp:84] Top shape: 64 96 27 27 (4478976)
I0813 09:23:25.051051  7344 net.cpp:116] norm1 does not need backward computation.
I0813 09:23:25.051055  7344 net.cpp:65] Creating Layer Rconv6
I0813 09:23:25.051059  7344 net.cpp:228] Rconv6 <- norm1
I0813 09:23:25.051064  7344 net.cpp:189] Rconv6 -> Rconv6
I0813 09:23:25.051300  7344 net.cpp:84] Top shape: 64 256 27 27 (11943936)
I0813 09:23:25.051303  7344 net.cpp:116] Rconv6 does not need backward computation.
I0813 09:23:25.051307  7344 net.cpp:65] Creating Layer Rrelu6
I0813 09:23:25.051311  7344 net.cpp:228] Rrelu6 <- Rconv6
I0813 09:23:25.051316  7344 net.cpp:179] Rrelu6 -> Rconv6 (in-place)
I0813 09:23:25.051321  7344 net.cpp:84] Top shape: 64 256 27 27 (11943936)
I0813 09:23:25.051323  7344 net.cpp:116] Rrelu6 does not need backward computation.
I0813 09:23:25.051328  7344 net.cpp:65] Creating Layer Rconv7
I0813 09:23:25.051331  7344 net.cpp:228] Rconv7 <- Rconv6
I0813 09:23:25.051336  7344 net.cpp:189] Rconv7 -> Rconv7
I0813 09:23:25.052041  7344 net.cpp:84] Top shape: 64 256 27 27 (11943936)
I0813 09:23:25.052044  7344 net.cpp:116] Rconv7 does not need backward computation.
I0813 09:23:25.052048  7344 net.cpp:65] Creating Layer Rrelu7
I0813 09:23:25.052052  7344 net.cpp:228] Rrelu7 <- Rconv7
I0813 09:23:25.052055  7344 net.cpp:179] Rrelu7 -> Rconv7 (in-place)
I0813 09:23:25.052059  7344 net.cpp:84] Top shape: 64 256 27 27 (11943936)
I0813 09:23:25.052062  7344 net.cpp:116] Rrelu7 does not need backward computation.
I0813 09:23:25.052067  7344 net.cpp:65] Creating Layer Rconv8
I0813 09:23:25.052069  7344 net.cpp:228] Rconv8 <- Rconv7
I0813 09:23:25.052073  7344 net.cpp:189] Rconv8 -> Rconv8
I0813 09:23:25.052872  7344 net.cpp:84] Top shape: 64 256 27 27 (11943936)
I0813 09:23:25.052876  7344 net.cpp:116] Rconv8 does not need backward computation.
I0813 09:23:25.052881  7344 net.cpp:65] Creating Layer Rrelu8
I0813 09:23:25.052884  7344 net.cpp:228] Rrelu8 <- Rconv8
I0813 09:23:25.052888  7344 net.cpp:179] Rrelu8 -> Rconv8 (in-place)
I0813 09:23:25.052892  7344 net.cpp:84] Top shape: 64 256 27 27 (11943936)
I0813 09:23:25.052896  7344 net.cpp:116] Rrelu8 does not need backward computation.
I0813 09:23:25.052899  7344 net.cpp:65] Creating Layer deconv2
I0813 09:23:25.052902  7344 net.cpp:228] deconv2 <- Rconv8
I0813 09:23:25.052906  7344 net.cpp:189] deconv2 -> deconv2
I0813 09:23:25.053947  7344 net.cpp:84] Top shape: 64 64 54 54 (11943936)
I0813 09:23:25.053952  7344 net.cpp:116] deconv2 does not need backward computation.
I0813 09:23:25.053957  7344 net.cpp:65] Creating Layer relu_deconv2
I0813 09:23:25.053961  7344 net.cpp:228] relu_deconv2 <- deconv2
I0813 09:23:25.053964  7344 net.cpp:179] relu_deconv2 -> deconv2 (in-place)
I0813 09:23:25.053969  7344 net.cpp:84] Top shape: 64 64 54 54 (11943936)
I0813 09:23:25.053992  7344 net.cpp:116] relu_deconv2 does not need backward computation.
I0813 09:23:25.053997  7344 net.cpp:65] Creating Layer deconv1
I0813 09:23:25.053998  7344 net.cpp:228] deconv1 <- deconv2
I0813 09:23:25.054003  7344 net.cpp:189] deconv1 -> deconv1
I0813 09:23:25.054143  7344 net.cpp:84] Top shape: 64 32 108 108 (23887872)
I0813 09:23:25.054147  7344 net.cpp:116] deconv1 does not need backward computation.
I0813 09:23:25.054152  7344 net.cpp:65] Creating Layer relu_deconv1
I0813 09:23:25.054154  7344 net.cpp:228] relu_deconv1 <- deconv1
I0813 09:23:25.054158  7344 net.cpp:179] relu_deconv1 -> deconv1 (in-place)
I0813 09:23:25.054162  7344 net.cpp:84] Top shape: 64 32 108 108 (23887872)
I0813 09:23:25.054165  7344 net.cpp:116] relu_deconv1 does not need backward computation.
I0813 09:23:25.054172  7344 net.cpp:65] Creating Layer deconv0
I0813 09:23:25.054174  7344 net.cpp:228] deconv0 <- deconv1
I0813 09:23:25.054179  7344 net.cpp:189] deconv0 -> deconv0
I0813 09:23:25.054203  7344 net.cpp:84] Top shape: 64 3 216 216 (8957952)
I0813 09:23:25.054206  7344 net.cpp:116] deconv0 does not need backward computation.
I0813 09:23:25.054210  7344 net.cpp:65] Creating Layer loss
I0813 09:23:25.054213  7344 net.cpp:228] loss <- deconv0
I0813 09:23:25.054215  7344 net.cpp:228] loss <- target_ims
I0813 09:23:25.054221  7344 net.cpp:116] loss does not need backward computation.
I0813 09:23:25.054234  7344 net.cpp:238] Collecting Learning Rate and Weight Decay.
…
