…
    source: "/scr/r6/tgebru/inverting_conv/caffe_invert_alexnet/data/siggraph/tiny_summer_train_lmdb"
    mean_file: "/scr/r6/tgebru/timnit_caffe/data/ilsvrc12/imagenet_mean.binaryproto"
    batch_size: 12
    crop_size: 227
    mirror: false
    backend: LMDB
  }
}
layers {
  top: "target_ims"
  name: "target_ims"
  type: DATA
  data_param {
    source: "/scr/r6/tgebru/inverting_conv/caffe_invert_alexnet/data/siggraph/tiny_winter_train_lmdb"
    mean_file: "/scr/r6/tgebru/timnit_caffe/data/ilsvrc12/imagenet_mean.binaryproto"
    batch_size: 12
    crop_size: 216
    mirror: false
    backend: LMDB
  }
}
layers {
  bottom: "source_ims"
  top: "conv1"
  name: "conv1"
  type: CONVOLUTION
  blobs_lr: 0
  blobs_lr: 0
  weight_decay: 1
  weight_decay: 0
  convolution_param {
    num_output: 96
    kernel_size: 11
    stride: 4
    weight_filler {
      type: "gaussian"
      std: 0.01
    }
    bias_filler {
      type: "constant"
      value: 0
    }
  }
}
layers {
  bottom: "conv1"
  top: "conv1"
  name: "relu1"
  type: RELU
}
layers {
  bottom: "conv1"
  top: "pool1"
  name: "pool1"
  type: POOLING
  pooling_param {
    pool: MAX
    kernel_size: 3
    stride: 2
  }
}
layers {
  bottom: "pool1"
  top: "norm1"
  name: "norm1"
  type: LRN
  lrn_param {
    local_size: 5
    alpha: 0.0001
    beta: 0.75
  }
}
layers {
  bottom: "norm1"
  top: "Rconv6"
  name: "Rconv6"
  type: CONVOLUTION
  blobs_lr: 1
  blobs_lr: 2
  weight_decay: 1
  weight_decay: 0
  convolution_param {
    num_output: 256
    pad: 1
    kernel_size: 3
  }
}
layers {
  bottom: "Rconv6"
  top: "Rconv6"
  name: "Rrelu6"
  type: RELU
}
layers {
  bottom: "Rconv6"
  top: "Rconv7"
  name: "Rconv7"
  type: CONVOLUTION
  blobs_lr: 1
  blobs_lr: 2
  weight_decay: 1
  weight_decay: 0
  convolution_param {
    num_output: 256
    pad: 1
    kernel_size: 3
    group: 2
  }
}
layers {
  bottom: "Rconv7"
  top: "Rconv7"
  name: "Rrelu7"
  type: RELU
}
layers {
  bottom: "Rconv7"
  top: "Rconv8"
  name: "Rconv8"
  type: CONVOLUTION
  blobs_lr: 1
  blobs_lr: 2
  weight_decay: 1
  weight_decay: 0
  convolution_param {
    num_output: 256
    pad: 1
    kernel_size: 3
    group: 2
  }
}
layers {
  bottom: "Rconv8"
  top: "Rconv8"
  name: "Rrelu8"
  type: RELU
}
layers {
  bottom: "Rconv8"
  top: "deconv2"
  name: "deconv2"
  type: DECONVOLUTION
  blobs_lr: 1
  blobs_lr: 2
  weight_decay: 1
  weight_decay: 0
  deconvolution_param {
    pad: 2
    kernel_size: 5
    stride: 2
    output_height: 54
    output_width: 54
    output_channels: 64
  }
}
layers {
  bottom: "deconv2"
  top: "deconv2"
  name: "relu_deconv2"
  type: RELU
  relu_param {
    negative_slope: 0.3
  }
}
layers {
  bottom: "deconv2"
  top: "deconv1"
  name: "deconv1"
  type: DECONVOLUTION
  blobs_lr: 1
  blobs_lr: 2
  weight_decay: 1
  weight_decay: 0
  deconvolution_param {
    pad: 2
    kernel_size: 5
    stride: 2
    output_height: 108
    output_width: 108
    output_channels: 32
  }
}
layers {
  bottom: "deconv1"
  top: "deconv1"
  name: "relu_deconv1"
  type: RELU
  relu_param {
    negative_slope: 0.3
  }
}
layers {
  bottom: "deconv1"
  top: "deconv0"
  name: "deconv0"
  type: DECONVOLUTION
  blobs_lr: 1
  blobs_lr: 2
  weight_decay: 1
  weight_decay: 1
  deconvolution_param {
    pad: 2
    kernel_size: 5
    stride: 2
    output_height: 216
    output_width: 216
    output_channels: 3
  }
}
layers {
  bottom: "deconv0"
  bottom: "target_ims"
  name: "loss"
  type: EUCLIDEAN_LOSS
}
I0813 02:01:30.561825 15858 net.cpp:65] Creating Layer source_ims
I0813 02:01:30.561835 15858 net.cpp:189] source_ims -> source_ims
I0813 02:01:30.561950 15858 data_layer.cpp:223] Opening lmdb /scr/r6/tgebru/inverting_conv/caffe_invert_alexnet/data/siggraph/tiny_summer_train_lmdb
I0813 02:01:30.562165 15858 data_layer.cpp:285] output data size: 12,3,227,227
I0813 02:01:30.562171 15858 data_layer.cpp:304] Loading mean file from/scr/r6/tgebru/timnit_caffe/data/ilsvrc12/imagenet_mean.binaryproto
I0813 02:01:30.566695 15858 net.cpp:84] Top shape: 12 3 227 227 (1855044)
I0813 02:01:30.566702 15858 net.cpp:116] source_ims does not need backward computation.
I0813 02:01:30.566709 15858 net.cpp:65] Creating Layer target_ims
I0813 02:01:30.566714 15858 net.cpp:189] target_ims -> target_ims
I0813 02:01:30.566804 15858 data_layer.cpp:223] Opening lmdb /scr/r6/tgebru/inverting_conv/caffe_invert_alexnet/data/siggraph/tiny_winter_train_lmdb
I0813 02:01:30.566911 15858 data_layer.cpp:285] output data size: 12,3,216,216
I0813 02:01:30.566915 15858 data_layer.cpp:304] Loading mean file from/scr/r6/tgebru/timnit_caffe/data/ilsvrc12/imagenet_mean.binaryproto
I0813 02:01:30.571054 15858 net.cpp:84] Top shape: 12 3 216 216 (1679616)
I0813 02:01:30.571061 15858 net.cpp:116] target_ims does not need backward computation.
I0813 02:01:30.571069 15858 net.cpp:65] Creating Layer conv1
I0813 02:01:30.571071 15858 net.cpp:228] conv1 <- source_ims
I0813 02:01:30.571104 15858 net.cpp:189] conv1 -> conv1
I0813 02:01:30.572376 15858 net.cpp:84] Top shape: 12 96 55 55 (3484800)
I0813 02:01:30.572381 15858 net.cpp:116] conv1 does not need backward computation.
I0813 02:01:30.572386 15858 net.cpp:65] Creating Layer relu1
I0813 02:01:30.572388 15858 net.cpp:228] relu1 <- conv1
I0813 02:01:30.572393 15858 net.cpp:179] relu1 -> conv1 (in-place)
I0813 02:01:30.572402 15858 net.cpp:84] Top shape: 12 96 55 55 (3484800)
I0813 02:01:30.572406 15858 net.cpp:116] relu1 does not need backward computation.
I0813 02:01:30.572410 15858 net.cpp:65] Creating Layer pool1
I0813 02:01:30.572412 15858 net.cpp:228] pool1 <- conv1
I0813 02:01:30.572417 15858 net.cpp:189] pool1 -> pool1
I0813 02:01:30.572429 15858 net.cpp:84] Top shape: 12 96 27 27 (839808)
I0813 02:01:30.572432 15858 net.cpp:116] pool1 does not need backward computation.
I0813 02:01:30.572438 15858 net.cpp:65] Creating Layer norm1
I0813 02:01:30.572440 15858 net.cpp:228] norm1 <- pool1
I0813 02:01:30.572444 15858 net.cpp:189] norm1 -> norm1
I0813 02:01:30.572453 15858 net.cpp:84] Top shape: 12 96 27 27 (839808)
I0813 02:01:30.572456 15858 net.cpp:116] norm1 does not need backward computation.
I0813 02:01:30.572460 15858 net.cpp:65] Creating Layer Rconv6
I0813 02:01:30.572463 15858 net.cpp:228] Rconv6 <- norm1
I0813 02:01:30.572468 15858 net.cpp:189] Rconv6 -> Rconv6
I0813 02:01:30.572638 15858 net.cpp:84] Top shape: 12 256 27 27 (2239488)
I0813 02:01:30.572641 15858 net.cpp:111] Rconv6 needs backward computation.
I0813 02:01:30.572646 15858 net.cpp:65] Creating Layer Rrelu6
I0813 02:01:30.572649 15858 net.cpp:228] Rrelu6 <- Rconv6
I0813 02:01:30.572654 15858 net.cpp:179] Rrelu6 -> Rconv6 (in-place)
I0813 02:01:30.572659 15858 net.cpp:84] Top shape: 12 256 27 27 (2239488)
I0813 02:01:30.572661 15858 net.cpp:111] Rrelu6 needs backward computation.
I0813 02:01:30.572665 15858 net.cpp:65] Creating Layer Rconv7
I0813 02:01:30.572669 15858 net.cpp:228] Rconv7 <- Rconv6
I0813 02:01:30.572672 15858 net.cpp:189] Rconv7 -> Rconv7
I0813 02:01:30.573434 15858 net.cpp:84] Top shape: 12 256 27 27 (2239488)
I0813 02:01:30.573439 15858 net.cpp:111] Rconv7 needs backward computation.
I0813 02:01:30.573443 15858 net.cpp:65] Creating Layer Rrelu7
I0813 02:01:30.573467 15858 net.cpp:228] Rrelu7 <- Rconv7
I0813 02:01:30.573470 15858 net.cpp:179] Rrelu7 -> Rconv7 (in-place)
I0813 02:01:30.573475 15858 net.cpp:84] Top shape: 12 256 27 27 (2239488)
I0813 02:01:30.573478 15858 net.cpp:111] Rrelu7 needs backward computation.
I0813 02:01:30.573482 15858 net.cpp:65] Creating Layer Rconv8
I0813 02:01:30.573484 15858 net.cpp:228] Rconv8 <- Rconv7
I0813 02:01:30.573488 15858 net.cpp:189] Rconv8 -> Rconv8
I0813 02:01:30.574270 15858 net.cpp:84] Top shape: 12 256 27 27 (2239488)
I0813 02:01:30.574275 15858 net.cpp:111] Rconv8 needs backward computation.
I0813 02:01:30.574278 15858 net.cpp:65] Creating Layer Rrelu8
I0813 02:01:30.574281 15858 net.cpp:228] Rrelu8 <- Rconv8
I0813 02:01:30.574285 15858 net.cpp:179] Rrelu8 -> Rconv8 (in-place)
I0813 02:01:30.574290 15858 net.cpp:84] Top shape: 12 256 27 27 (2239488)
I0813 02:01:30.574292 15858 net.cpp:111] Rrelu8 needs backward computation.
I0813 02:01:30.574296 15858 net.cpp:65] Creating Layer deconv2
I0813 02:01:30.574298 15858 net.cpp:228] deconv2 <- Rconv8
I0813 02:01:30.574302 15858 net.cpp:189] deconv2 -> deconv2
I0813 02:01:30.575387 15858 net.cpp:84] Top shape: 12 64 54 54 (2239488)
I0813 02:01:30.575392 15858 net.cpp:111] deconv2 needs backward computation.
I0813 02:01:30.575397 15858 net.cpp:65] Creating Layer relu_deconv2
I0813 02:01:30.575399 15858 net.cpp:228] relu_deconv2 <- deconv2
I0813 02:01:30.575404 15858 net.cpp:179] relu_deconv2 -> deconv2 (in-place)
I0813 02:01:30.575409 15858 net.cpp:84] Top shape: 12 64 54 54 (2239488)
I0813 02:01:30.575412 15858 net.cpp:111] relu_deconv2 needs backward computation.
I0813 02:01:30.575417 15858 net.cpp:65] Creating Layer deconv1
I0813 02:01:30.575418 15858 net.cpp:228] deconv1 <- deconv2
I0813 02:01:30.575423 15858 net.cpp:189] deconv1 -> deconv1
I0813 02:01:30.575556 15858 net.cpp:84] Top shape: 12 32 108 108 (4478976)
I0813 02:01:30.575561 15858 net.cpp:111] deconv1 needs backward computation.
I0813 02:01:30.575564 15858 net.cpp:65] Creating Layer relu_deconv1
I0813 02:01:30.575567 15858 net.cpp:228] relu_deconv1 <- deconv1
I0813 02:01:30.575570 15858 net.cpp:179] relu_deconv1 -> deconv1 (in-place)
I0813 02:01:30.575575 15858 net.cpp:84] Top shape: 12 32 108 108 (4478976)
I0813 02:01:30.575578 15858 net.cpp:111] relu_deconv1 needs backward computation.
I0813 02:01:30.575583 15858 net.cpp:65] Creating Layer deconv0
I0813 02:01:30.575587 15858 net.cpp:228] deconv0 <- deconv1
I0813 02:01:30.575590 15858 net.cpp:189] deconv0 -> deconv0
I0813 02:01:30.575608 15858 net.cpp:84] Top shape: 12 3 216 216 (1679616)
I0813 02:01:30.575611 15858 net.cpp:111] deconv0 needs backward computation.
I0813 02:01:30.575614 15858 net.cpp:65] Creating Layer loss
I0813 02:01:30.575618 15858 net.cpp:228] loss <- deconv0
I0813 02:01:30.575620 15858 net.cpp:228] loss <- target_ims
I0813 02:01:30.575629 15858 net.cpp:111] loss needs backward computation.
I0813 02:01:30.575642 15858 net.cpp:238] Collecting Learning Rate and Weight Decay.
…
    source: "/scr/r6/tgebru/inverting_conv/caffe_invert_alexnet/data/siggraph/tiny_summer_val_lmdb"
    mean_file: "/scr/r6/tgebru/timnit_caffe/data/ilsvrc12/imagenet_mean.binaryproto"
    batch_size: 64
    crop_size: 227
    mirror: false
    backend: LMDB
  }
}
layers {
  top: "target_ims"
  name: "target_ims"
  type: DATA
  data_param {
    source: "/scr/r6/tgebru/inverting_conv/caffe_invert_alexnet/data/siggraph/tiny_winter_val_lmdb"
    mean_file: "/scr/r6/tgebru/timnit_caffe/data/ilsvrc12/imagenet_mean.binaryproto"
    batch_size: 64
    crop_size: 216
    mirror: false
    backend: LMDB
  }
}
layers {
  bottom: "source_ims"
  top: "conv1"
  name: "conv1"
  type: CONVOLUTION
  blobs_lr: 0
  blobs_lr: 0
  weight_decay: 1
  weight_decay: 0
  convolution_param {
    num_output: 96
    kernel_size: 11
    stride: 4
    weight_filler {
      type: "gaussian"
      std: 0.01
    }
    bias_filler {
      type: "constant"
      value: 0
    }
  }
}
layers {
  bottom: "conv1"
  top: "conv1"
  name: "relu1"
  type: RELU
}
layers {
  bottom: "conv1"
  top: "pool1"
  name: "pool1"
  type: POOLING
  pooling_param {
    pool: MAX
    kernel_size: 3
    stride: 2
  }
}
layers {
  bottom: "pool1"
  top: "norm1"
  name: "norm1"
  type: LRN
  lrn_param {
    local_size: 5
    alpha: 0.0001
    beta: 0.75
  }
}
layers {
  bottom: "norm1"
  top: "Rconv6"
  name: "Rconv6"
  type: CONVOLUTION
  blobs_lr: 0
  blobs_lr: 0
  weight_decay: 1
  weight_decay: 0
  convolution_param {
    num_output: 256
    pad: 1
    kernel_size: 3
  }
}
layers {
  bottom: "Rconv6"
  top: "Rconv6"
  name: "Rrelu6"
  type: RELU
}
layers {
  bottom: "Rconv6"
  top: "Rconv7"
  name: "Rconv7"
  type: CONVOLUTION
  blobs_lr: 0
  blobs_lr: 0
  weight_decay: 1
  weight_decay: 0
  convolution_param {
    num_output: 256
    pad: 1
    kernel_size: 3
    group: 2
  }
}
layers {
  bottom: "Rconv7"
  top: "Rconv7"
  name: "Rrelu7"
  type: RELU
}
layers {
  bottom: "Rconv7"
  top: "Rconv8"
  name: "Rconv8"
  type: CONVOLUTION
  blobs_lr: 0
  blobs_lr: 0
  weight_decay: 1
  weight_decay: 0
  convolution_param {
    num_output: 256
    pad: 1
    kernel_size: 3
    group: 2
  }
}
layers {
  bottom: "Rconv8"
  top: "Rconv8"
  name: "Rrelu8"
  type: RELU
}
layers {
  bottom: "Rconv8"
  top: "deconv2"
  name: "deconv2"
  type: DECONVOLUTION
  blobs_lr: 0
  blobs_lr: 0
  weight_decay: 1
  weight_decay: 0
  deconvolution_param {
    pad: 2
    kernel_size: 5
    stride: 2
    output_height: 54
    output_width: 54
    output_channels: 64
  }
}
layers {
  bottom: "deconv2"
  top: "deconv2"
  name: "relu_deconv2"
  type: RELU
  relu_param {
    negative_slope: 0.3
  }
}
layers {
  bottom: "deconv2"
  top: "deconv1"
  name: "deconv1"
  type: DECONVOLUTION
  blobs_lr: 0
  blobs_lr: 0
  weight_decay: 1
  weight_decay: 0
  deconvolution_param {
    pad: 2
    kernel_size: 5
    stride: 2
    output_height: 108
    output_width: 108
    output_channels: 32
  }
}
layers {
  bottom: "deconv1"
  top: "deconv1"
  name: "relu_deconv1"
  type: RELU
  relu_param {
    negative_slope: 0.3
  }
}
layers {
  bottom: "deconv1"
  top: "deconv0"
  name: "deconv0"
  type: DECONVOLUTION
  blobs_lr: 0
  blobs_lr: 0
  weight_decay: 1
  weight_decay: 0
  deconvolution_param {
    pad: 2
    kernel_size: 5
    stride: 2
    output_height: 216
    output_width: 216
    output_channels: 3
  }
}
layers {
  bottom: "deconv0"
  bottom: "target_ims"
  name: "loss"
  type: EUCLIDEAN_LOSS
}
I0813 02:01:30.576370 15858 net.cpp:65] Creating Layer source_ims
I0813 02:01:30.576375 15858 net.cpp:189] source_ims -> source_ims
I0813 02:01:30.576426 15858 data_layer.cpp:223] Opening lmdb /scr/r6/tgebru/inverting_conv/caffe_invert_alexnet/data/siggraph/tiny_summer_val_lmdb
I0813 02:01:30.576629 15858 data_layer.cpp:285] output data size: 64,3,227,227
I0813 02:01:30.576633 15858 data_layer.cpp:304] Loading mean file from/scr/r6/tgebru/timnit_caffe/data/ilsvrc12/imagenet_mean.binaryproto
I0813 02:01:30.590754 15858 net.cpp:84] Top shape: 64 3 227 227 (9893568)
I0813 02:01:30.590773 15858 net.cpp:116] source_ims does not need backward computation.
I0813 02:01:30.590786 15858 net.cpp:65] Creating Layer target_ims
I0813 02:01:30.590791 15858 net.cpp:189] target_ims -> target_ims
I0813 02:01:30.590900 15858 data_layer.cpp:223] Opening lmdb /scr/r6/tgebru/inverting_conv/caffe_invert_alexnet/data/siggraph/tiny_winter_val_lmdb
I0813 02:01:30.591037 15858 data_layer.cpp:285] output data size: 64,3,216,216
I0813 02:01:30.591040 15858 data_layer.cpp:304] Loading mean file from/scr/r6/tgebru/timnit_caffe/data/ilsvrc12/imagenet_mean.binaryproto
I0813 02:01:30.603508 15858 net.cpp:84] Top shape: 64 3 216 216 (8957952)
I0813 02:01:30.603576 15858 net.cpp:116] target_ims does not need backward computation.
I0813 02:01:30.603592 15858 net.cpp:65] Creating Layer conv1
I0813 02:01:30.603597 15858 net.cpp:228] conv1 <- source_ims
I0813 02:01:30.603606 15858 net.cpp:189] conv1 -> conv1
I0813 02:01:30.604871 15858 net.cpp:84] Top shape: 64 96 55 55 (18585600)
I0813 02:01:30.604874 15858 net.cpp:116] conv1 does not need backward computation.
I0813 02:01:30.604879 15858 net.cpp:65] Creating Layer relu1
I0813 02:01:30.604882 15858 net.cpp:228] relu1 <- conv1
I0813 02:01:30.604887 15858 net.cpp:179] relu1 -> conv1 (in-place)
I0813 02:01:30.604892 15858 net.cpp:84] Top shape: 64 96 55 55 (18585600)
I0813 02:01:30.604895 15858 net.cpp:116] relu1 does not need backward computation.
I0813 02:01:30.604902 15858 net.cpp:65] Creating Layer pool1
I0813 02:01:30.604904 15858 net.cpp:228] pool1 <- conv1
I0813 02:01:30.604908 15858 net.cpp:189] pool1 -> pool1
I0813 02:01:30.604915 15858 net.cpp:84] Top shape: 64 96 27 27 (4478976)
I0813 02:01:30.604918 15858 net.cpp:116] pool1 does not need backward computation.
I0813 02:01:30.604923 15858 net.cpp:65] Creating Layer norm1
I0813 02:01:30.604926 15858 net.cpp:228] norm1 <- pool1
I0813 02:01:30.604931 15858 net.cpp:189] norm1 -> norm1
I0813 02:01:30.604938 15858 net.cpp:84] Top shape: 64 96 27 27 (4478976)
I0813 02:01:30.604941 15858 net.cpp:116] norm1 does not need backward computation.
I0813 02:01:30.604945 15858 net.cpp:65] Creating Layer Rconv6
I0813 02:01:30.604948 15858 net.cpp:228] Rconv6 <- norm1
I0813 02:01:30.604953 15858 net.cpp:189] Rconv6 -> Rconv6
I0813 02:01:30.605188 15858 net.cpp:84] Top shape: 64 256 27 27 (11943936)
I0813 02:01:30.605192 15858 net.cpp:116] Rconv6 does not need backward computation.
I0813 02:01:30.605196 15858 net.cpp:65] Creating Layer Rrelu6
I0813 02:01:30.605200 15858 net.cpp:228] Rrelu6 <- Rconv6
I0813 02:01:30.605204 15858 net.cpp:179] Rrelu6 -> Rconv6 (in-place)
I0813 02:01:30.605208 15858 net.cpp:84] Top shape: 64 256 27 27 (11943936)
I0813 02:01:30.605211 15858 net.cpp:116] Rrelu6 does not need backward computation.
I0813 02:01:30.605217 15858 net.cpp:65] Creating Layer Rconv7
I0813 02:01:30.605219 15858 net.cpp:228] Rconv7 <- Rconv6
I0813 02:01:30.605224 15858 net.cpp:189] Rconv7 -> Rconv7
I0813 02:01:30.605924 15858 net.cpp:84] Top shape: 64 256 27 27 (11943936)
I0813 02:01:30.605929 15858 net.cpp:116] Rconv7 does not need backward computation.
I0813 02:01:30.605934 15858 net.cpp:65] Creating Layer Rrelu7
I0813 02:01:30.605937 15858 net.cpp:228] Rrelu7 <- Rconv7
I0813 02:01:30.605942 15858 net.cpp:179] Rrelu7 -> Rconv7 (in-place)
I0813 02:01:30.605945 15858 net.cpp:84] Top shape: 64 256 27 27 (11943936)
I0813 02:01:30.605948 15858 net.cpp:116] Rrelu7 does not need backward computation.
I0813 02:01:30.605952 15858 net.cpp:65] Creating Layer Rconv8
I0813 02:01:30.605954 15858 net.cpp:228] Rconv8 <- Rconv7
I0813 02:01:30.605958 15858 net.cpp:189] Rconv8 -> Rconv8
I0813 02:01:30.606689 15858 net.cpp:84] Top shape: 64 256 27 27 (11943936)
I0813 02:01:30.606693 15858 net.cpp:116] Rconv8 does not need backward computation.
I0813 02:01:30.606698 15858 net.cpp:65] Creating Layer Rrelu8
I0813 02:01:30.606701 15858 net.cpp:228] Rrelu8 <- Rconv8
I0813 02:01:30.606705 15858 net.cpp:179] Rrelu8 -> Rconv8 (in-place)
I0813 02:01:30.606709 15858 net.cpp:84] Top shape: 64 256 27 27 (11943936)
I0813 02:01:30.606712 15858 net.cpp:116] Rrelu8 does not need backward computation.
I0813 02:01:30.606716 15858 net.cpp:65] Creating Layer deconv2
I0813 02:01:30.606719 15858 net.cpp:228] deconv2 <- Rconv8
I0813 02:01:30.606724 15858 net.cpp:189] deconv2 -> deconv2
I0813 02:01:30.607728 15858 net.cpp:84] Top shape: 64 64 54 54 (11943936)
I0813 02:01:30.607733 15858 net.cpp:116] deconv2 does not need backward computation.
I0813 02:01:30.607736 15858 net.cpp:65] Creating Layer relu_deconv2
I0813 02:01:30.607739 15858 net.cpp:228] relu_deconv2 <- deconv2
I0813 02:01:30.607743 15858 net.cpp:179] relu_deconv2 -> deconv2 (in-place)
I0813 02:01:30.607748 15858 net.cpp:84] Top shape: 64 64 54 54 (11943936)
I0813 02:01:30.607763 15858 net.cpp:116] relu_deconv2 does not need backward computation.
I0813 02:01:30.607767 15858 net.cpp:65] Creating Layer deconv1
I0813 02:01:30.607770 15858 net.cpp:228] deconv1 <- deconv2
I0813 02:01:30.607774 15858 net.cpp:189] deconv1 -> deconv1
I0813 02:01:30.607909 15858 net.cpp:84] Top shape: 64 32 108 108 (23887872)
I0813 02:01:30.607913 15858 net.cpp:116] deconv1 does not need backward computation.
I0813 02:01:30.607918 15858 net.cpp:65] Creating Layer relu_deconv1
I0813 02:01:30.607921 15858 net.cpp:228] relu_deconv1 <- deconv1
I0813 02:01:30.607925 15858 net.cpp:179] relu_deconv1 -> deconv1 (in-place)
I0813 02:01:30.607929 15858 net.cpp:84] Top shape: 64 32 108 108 (23887872)
I0813 02:01:30.607933 15858 net.cpp:116] relu_deconv1 does not need backward computation.
I0813 02:01:30.607939 15858 net.cpp:65] Creating Layer deconv0
I0813 02:01:30.607940 15858 net.cpp:228] deconv0 <- deconv1
I0813 02:01:30.607946 15858 net.cpp:189] deconv0 -> deconv0
I0813 02:01:30.607970 15858 net.cpp:84] Top shape: 64 3 216 216 (8957952)
I0813 02:01:30.607974 15858 net.cpp:116] deconv0 does not need backward computation.
I0813 02:01:30.607977 15858 net.cpp:65] Creating Layer loss
I0813 02:01:30.607980 15858 net.cpp:228] loss <- deconv0
I0813 02:01:30.607983 15858 net.cpp:228] loss <- target_ims
I0813 02:01:30.607988 15858 net.cpp:116] loss does not need backward computation.
I0813 02:01:30.608000 15858 net.cpp:238] Collecting Learning Rate and Weight Decay.
…
