…
    source: "/scr/r6/tgebru/inverting_conv/caffe_invert_alexnet/data/siggraph/tiny_summer_train_lmdb"
    mean_file: "/scr/r6/tgebru/timnit_caffe/data/ilsvrc12/imagenet_mean.binaryproto"
    batch_size: 12
    crop_size: 227
    mirror: false
    backend: LMDB
  }
}
layers {
  top: "target_ims"
  name: "target_ims"
  type: DATA
  data_param {
    source: "/scr/r6/tgebru/inverting_conv/caffe_invert_alexnet/data/siggraph/tiny_winter_train_lmdb"
    mean_file: "/scr/r6/tgebru/timnit_caffe/data/ilsvrc12/imagenet_mean.binaryproto"
    batch_size: 12
    crop_size: 216
    mirror: false
    backend: LMDB
  }
}
layers {
  bottom: "source_ims"
  top: "conv1"
  name: "conv1"
  type: CONVOLUTION
  blobs_lr: 0
  blobs_lr: 0
  weight_decay: 1
  weight_decay: 0
  convolution_param {
    num_output: 96
    kernel_size: 11
    stride: 4
    weight_filler {
      type: "gaussian"
      std: 0.01
    }
    bias_filler {
      type: "constant"
      value: 0
    }
  }
}
layers {
  bottom: "conv1"
  top: "conv1"
  name: "relu1"
  type: RELU
}
layers {
  bottom: "conv1"
  top: "pool1"
  name: "pool1"
  type: POOLING
  pooling_param {
    pool: MAX
    kernel_size: 3
    stride: 2
  }
}
layers {
  bottom: "pool1"
  top: "norm1"
  name: "norm1"
  type: LRN
  lrn_param {
    local_size: 5
    alpha: 0.0001
    beta: 0.75
  }
}
layers {
  bottom: "norm1"
  top: "Rconv6"
  name: "Rconv6"
  type: CONVOLUTION
  blobs_lr: 1
  blobs_lr: 2
  weight_decay: 1
  weight_decay: 0
  convolution_param {
    num_output: 256
    pad: 1
    kernel_size: 3
  }
}
layers {
  bottom: "Rconv6"
  top: "Rconv6"
  name: "Rrelu6"
  type: RELU
}
layers {
  bottom: "Rconv6"
  top: "Rconv7"
  name: "Rconv7"
  type: CONVOLUTION
  blobs_lr: 1
  blobs_lr: 2
  weight_decay: 1
  weight_decay: 0
  convolution_param {
    num_output: 256
    pad: 1
    kernel_size: 3
    group: 2
  }
}
layers {
  bottom: "Rconv7"
  top: "Rconv7"
  name: "Rrelu7"
  type: RELU
}
layers {
  bottom: "Rconv7"
  top: "Rconv8"
  name: "Rconv8"
  type: CONVOLUTION
  blobs_lr: 1
  blobs_lr: 2
  weight_decay: 1
  weight_decay: 0
  convolution_param {
    num_output: 256
    pad: 1
    kernel_size: 3
    group: 2
  }
}
layers {
  bottom: "Rconv8"
  top: "Rconv8"
  name: "Rrelu8"
  type: RELU
}
layers {
  bottom: "Rconv8"
  top: "deconv2"
  name: "deconv2"
  type: DECONVOLUTION
  blobs_lr: 1
  blobs_lr: 2
  weight_decay: 1
  weight_decay: 0
  deconvolution_param {
    pad: 2
    kernel_size: 5
    stride: 2
    output_height: 54
    output_width: 54
    output_channels: 64
  }
}
layers {
  bottom: "deconv2"
  top: "deconv2"
  name: "relu_deconv2"
  type: RELU
  relu_param {
    negative_slope: 0.3
  }
}
layers {
  bottom: "deconv2"
  top: "deconv1"
  name: "deconv1"
  type: DECONVOLUTION
  blobs_lr: 1
  blobs_lr: 2
  weight_decay: 1
  weight_decay: 0
  deconvolution_param {
    pad: 2
    kernel_size: 5
    stride: 2
    output_height: 108
    output_width: 108
    output_channels: 32
  }
}
layers {
  bottom: "deconv1"
  top: "deconv1"
  name: "relu_deconv1"
  type: RELU
  relu_param {
    negative_slope: 0.3
  }
}
layers {
  bottom: "deconv1"
  top: "deconv0"
  name: "deconv0"
  type: DECONVOLUTION
  blobs_lr: 1
  blobs_lr: 2
  weight_decay: 1
  weight_decay: 1
  deconvolution_param {
    pad: 2
    kernel_size: 5
    stride: 2
    output_height: 216
    output_width: 216
    output_channels: 3
  }
}
layers {
  bottom: "deconv0"
  bottom: "target_ims"
  name: "loss"
  type: EUCLIDEAN_LOSS
}
I0813 01:16:51.169638 16442 net.cpp:65] Creating Layer source_ims
I0813 01:16:51.169647 16442 net.cpp:189] source_ims -> source_ims
I0813 01:16:51.169754 16442 data_layer.cpp:223] Opening lmdb /scr/r6/tgebru/inverting_conv/caffe_invert_alexnet/data/siggraph/tiny_summer_train_lmdb
I0813 01:16:51.169955 16442 data_layer.cpp:285] output data size: 12,3,227,227
I0813 01:16:51.169961 16442 data_layer.cpp:304] Loading mean file from/scr/r6/tgebru/timnit_caffe/data/ilsvrc12/imagenet_mean.binaryproto
I0813 01:16:51.174592 16442 net.cpp:84] Top shape: 12 3 227 227 (1855044)
I0813 01:16:51.174599 16442 net.cpp:116] source_ims does not need backward computation.
I0813 01:16:51.174605 16442 net.cpp:65] Creating Layer target_ims
I0813 01:16:51.174610 16442 net.cpp:189] target_ims -> target_ims
I0813 01:16:51.174762 16442 data_layer.cpp:223] Opening lmdb /scr/r6/tgebru/inverting_conv/caffe_invert_alexnet/data/siggraph/tiny_winter_train_lmdb
I0813 01:16:51.174917 16442 data_layer.cpp:285] output data size: 12,3,216,216
I0813 01:16:51.174921 16442 data_layer.cpp:304] Loading mean file from/scr/r6/tgebru/timnit_caffe/data/ilsvrc12/imagenet_mean.binaryproto
I0813 01:16:51.179267 16442 net.cpp:84] Top shape: 12 3 216 216 (1679616)
I0813 01:16:51.179276 16442 net.cpp:116] target_ims does not need backward computation.
I0813 01:16:51.179288 16442 net.cpp:65] Creating Layer conv1
I0813 01:16:51.179293 16442 net.cpp:228] conv1 <- source_ims
I0813 01:16:51.179358 16442 net.cpp:189] conv1 -> conv1
I0813 01:16:51.180646 16442 net.cpp:84] Top shape: 12 96 55 55 (3484800)
I0813 01:16:51.180651 16442 net.cpp:116] conv1 does not need backward computation.
I0813 01:16:51.180656 16442 net.cpp:65] Creating Layer relu1
I0813 01:16:51.180660 16442 net.cpp:228] relu1 <- conv1
I0813 01:16:51.180665 16442 net.cpp:179] relu1 -> conv1 (in-place)
I0813 01:16:51.180673 16442 net.cpp:84] Top shape: 12 96 55 55 (3484800)
I0813 01:16:51.180676 16442 net.cpp:116] relu1 does not need backward computation.
I0813 01:16:51.180681 16442 net.cpp:65] Creating Layer pool1
I0813 01:16:51.180683 16442 net.cpp:228] pool1 <- conv1
I0813 01:16:51.180688 16442 net.cpp:189] pool1 -> pool1
I0813 01:16:51.180699 16442 net.cpp:84] Top shape: 12 96 27 27 (839808)
I0813 01:16:51.180703 16442 net.cpp:116] pool1 does not need backward computation.
I0813 01:16:51.180708 16442 net.cpp:65] Creating Layer norm1
I0813 01:16:51.180711 16442 net.cpp:228] norm1 <- pool1
I0813 01:16:51.180716 16442 net.cpp:189] norm1 -> norm1
I0813 01:16:51.180724 16442 net.cpp:84] Top shape: 12 96 27 27 (839808)
I0813 01:16:51.180727 16442 net.cpp:116] norm1 does not need backward computation.
I0813 01:16:51.180732 16442 net.cpp:65] Creating Layer Rconv6
I0813 01:16:51.180734 16442 net.cpp:228] Rconv6 <- norm1
I0813 01:16:51.180739 16442 net.cpp:189] Rconv6 -> Rconv6
I0813 01:16:51.180997 16442 net.cpp:84] Top shape: 12 256 27 27 (2239488)
I0813 01:16:51.181001 16442 net.cpp:111] Rconv6 needs backward computation.
I0813 01:16:51.181005 16442 net.cpp:65] Creating Layer Rrelu6
I0813 01:16:51.181008 16442 net.cpp:228] Rrelu6 <- Rconv6
I0813 01:16:51.181013 16442 net.cpp:179] Rrelu6 -> Rconv6 (in-place)
I0813 01:16:51.181017 16442 net.cpp:84] Top shape: 12 256 27 27 (2239488)
I0813 01:16:51.181020 16442 net.cpp:111] Rrelu6 needs backward computation.
I0813 01:16:51.181025 16442 net.cpp:65] Creating Layer Rconv7
I0813 01:16:51.181028 16442 net.cpp:228] Rconv7 <- Rconv6
I0813 01:16:51.181032 16442 net.cpp:189] Rconv7 -> Rconv7
I0813 01:16:51.181751 16442 net.cpp:84] Top shape: 12 256 27 27 (2239488)
I0813 01:16:51.181756 16442 net.cpp:111] Rconv7 needs backward computation.
I0813 01:16:51.181761 16442 net.cpp:65] Creating Layer Rrelu7
I0813 01:16:51.181782 16442 net.cpp:228] Rrelu7 <- Rconv7
I0813 01:16:51.181787 16442 net.cpp:179] Rrelu7 -> Rconv7 (in-place)
I0813 01:16:51.181792 16442 net.cpp:84] Top shape: 12 256 27 27 (2239488)
I0813 01:16:51.181794 16442 net.cpp:111] Rrelu7 needs backward computation.
I0813 01:16:51.181798 16442 net.cpp:65] Creating Layer Rconv8
I0813 01:16:51.181802 16442 net.cpp:228] Rconv8 <- Rconv7
I0813 01:16:51.181805 16442 net.cpp:189] Rconv8 -> Rconv8
I0813 01:16:51.182626 16442 net.cpp:84] Top shape: 12 256 27 27 (2239488)
I0813 01:16:51.182631 16442 net.cpp:111] Rconv8 needs backward computation.
I0813 01:16:51.182636 16442 net.cpp:65] Creating Layer Rrelu8
I0813 01:16:51.182638 16442 net.cpp:228] Rrelu8 <- Rconv8
I0813 01:16:51.182642 16442 net.cpp:179] Rrelu8 -> Rconv8 (in-place)
I0813 01:16:51.182646 16442 net.cpp:84] Top shape: 12 256 27 27 (2239488)
I0813 01:16:51.182649 16442 net.cpp:111] Rrelu8 needs backward computation.
I0813 01:16:51.182653 16442 net.cpp:65] Creating Layer deconv2
I0813 01:16:51.182656 16442 net.cpp:228] deconv2 <- Rconv8
I0813 01:16:51.182659 16442 net.cpp:189] deconv2 -> deconv2
I0813 01:16:51.183703 16442 net.cpp:84] Top shape: 12 64 54 54 (2239488)
I0813 01:16:51.183708 16442 net.cpp:111] deconv2 needs backward computation.
I0813 01:16:51.183713 16442 net.cpp:65] Creating Layer relu_deconv2
I0813 01:16:51.183717 16442 net.cpp:228] relu_deconv2 <- deconv2
I0813 01:16:51.183720 16442 net.cpp:179] relu_deconv2 -> deconv2 (in-place)
I0813 01:16:51.183724 16442 net.cpp:84] Top shape: 12 64 54 54 (2239488)
I0813 01:16:51.183727 16442 net.cpp:111] relu_deconv2 needs backward computation.
I0813 01:16:51.183732 16442 net.cpp:65] Creating Layer deconv1
I0813 01:16:51.183733 16442 net.cpp:228] deconv1 <- deconv2
I0813 01:16:51.183738 16442 net.cpp:189] deconv1 -> deconv1
I0813 01:16:51.183881 16442 net.cpp:84] Top shape: 12 32 108 108 (4478976)
I0813 01:16:51.183887 16442 net.cpp:111] deconv1 needs backward computation.
I0813 01:16:51.183890 16442 net.cpp:65] Creating Layer relu_deconv1
I0813 01:16:51.183893 16442 net.cpp:228] relu_deconv1 <- deconv1
I0813 01:16:51.183897 16442 net.cpp:179] relu_deconv1 -> deconv1 (in-place)
I0813 01:16:51.183902 16442 net.cpp:84] Top shape: 12 32 108 108 (4478976)
I0813 01:16:51.183904 16442 net.cpp:111] relu_deconv1 needs backward computation.
I0813 01:16:51.183910 16442 net.cpp:65] Creating Layer deconv0
I0813 01:16:51.183912 16442 net.cpp:228] deconv0 <- deconv1
I0813 01:16:51.183917 16442 net.cpp:189] deconv0 -> deconv0
I0813 01:16:51.183966 16442 net.cpp:84] Top shape: 12 3 216 216 (1679616)
I0813 01:16:51.183969 16442 net.cpp:111] deconv0 needs backward computation.
I0813 01:16:51.183974 16442 net.cpp:65] Creating Layer loss
I0813 01:16:51.183975 16442 net.cpp:228] loss <- deconv0
I0813 01:16:51.183979 16442 net.cpp:228] loss <- target_ims
I0813 01:16:51.183987 16442 net.cpp:111] loss needs backward computation.
I0813 01:16:51.184000 16442 net.cpp:238] Collecting Learning Rate and Weight Decay.
…
    source: "/scr/r6/tgebru/inverting_conv/caffe_invert_alexnet/data/siggraph/tiny_summer_val_lmdb"
    mean_file: "/scr/r6/tgebru/timnit_caffe/data/ilsvrc12/imagenet_mean.binaryproto"
    batch_size: 64
    crop_size: 227
    mirror: false
    backend: LMDB
  }
}
layers {
  top: "target_ims"
  name: "target_ims"
  type: DATA
  data_param {
    source: "/scr/r6/tgebru/inverting_conv/caffe_invert_alexnet/data/siggraph/tiny_winter_val_lmdb"
    mean_file: "/scr/r6/tgebru/timnit_caffe/data/ilsvrc12/imagenet_mean.binaryproto"
    batch_size: 64
    crop_size: 216
    mirror: false
    backend: LMDB
  }
}
layers {
  bottom: "source_ims"
  top: "conv1"
  name: "conv1"
  type: CONVOLUTION
  blobs_lr: 0
  blobs_lr: 0
  weight_decay: 1
  weight_decay: 0
  convolution_param {
    num_output: 96
    kernel_size: 11
    stride: 4
    weight_filler {
      type: "gaussian"
      std: 0.01
    }
    bias_filler {
      type: "constant"
      value: 0
    }
  }
}
layers {
  bottom: "conv1"
  top: "conv1"
  name: "relu1"
  type: RELU
}
layers {
  bottom: "conv1"
  top: "pool1"
  name: "pool1"
  type: POOLING
  pooling_param {
    pool: MAX
    kernel_size: 3
    stride: 2
  }
}
layers {
  bottom: "pool1"
  top: "norm1"
  name: "norm1"
  type: LRN
  lrn_param {
    local_size: 5
    alpha: 0.0001
    beta: 0.75
  }
}
layers {
  bottom: "norm1"
  top: "Rconv6"
  name: "Rconv6"
  type: CONVOLUTION
  blobs_lr: 0
  blobs_lr: 0
  weight_decay: 1
  weight_decay: 0
  convolution_param {
    num_output: 256
    pad: 1
    kernel_size: 3
  }
}
layers {
  bottom: "Rconv6"
  top: "Rconv6"
  name: "Rrelu6"
  type: RELU
}
layers {
  bottom: "Rconv6"
  top: "Rconv7"
  name: "Rconv7"
  type: CONVOLUTION
  blobs_lr: 0
  blobs_lr: 0
  weight_decay: 1
  weight_decay: 0
  convolution_param {
    num_output: 256
    pad: 1
    kernel_size: 3
    group: 2
  }
}
layers {
  bottom: "Rconv7"
  top: "Rconv7"
  name: "Rrelu7"
  type: RELU
}
layers {
  bottom: "Rconv7"
  top: "Rconv8"
  name: "Rconv8"
  type: CONVOLUTION
  blobs_lr: 0
  blobs_lr: 0
  weight_decay: 1
  weight_decay: 0
  convolution_param {
    num_output: 256
    pad: 1
    kernel_size: 3
    group: 2
  }
}
layers {
  bottom: "Rconv8"
  top: "Rconv8"
  name: "Rrelu8"
  type: RELU
}
layers {
  bottom: "Rconv8"
  top: "deconv2"
  name: "deconv2"
  type: DECONVOLUTION
  blobs_lr: 0
  blobs_lr: 0
  weight_decay: 1
  weight_decay: 0
  deconvolution_param {
    pad: 2
    kernel_size: 5
    stride: 2
    output_height: 54
    output_width: 54
    output_channels: 64
  }
}
layers {
  bottom: "deconv2"
  top: "deconv2"
  name: "relu_deconv2"
  type: RELU
  relu_param {
    negative_slope: 0.3
  }
}
layers {
  bottom: "deconv2"
  top: "deconv1"
  name: "deconv1"
  type: DECONVOLUTION
  blobs_lr: 0
  blobs_lr: 0
  weight_decay: 1
  weight_decay: 0
  deconvolution_param {
    pad: 2
    kernel_size: 5
    stride: 2
    output_height: 108
    output_width: 108
    output_channels: 32
  }
}
layers {
  bottom: "deconv1"
  top: "deconv1"
  name: "relu_deconv1"
  type: RELU
  relu_param {
    negative_slope: 0.3
  }
}
layers {
  bottom: "deconv1"
  top: "deconv0"
  name: "deconv0"
  type: DECONVOLUTION
  blobs_lr: 0
  blobs_lr: 0
  weight_decay: 1
  weight_decay: 0
  deconvolution_param {
    pad: 2
    kernel_size: 5
    stride: 2
    output_height: 216
    output_width: 216
    output_channels: 3
  }
}
layers {
  bottom: "deconv0"
  bottom: "target_ims"
  name: "loss"
  type: EUCLIDEAN_LOSS
}
I0813 01:16:51.184710 16442 net.cpp:65] Creating Layer source_ims
I0813 01:16:51.184715 16442 net.cpp:189] source_ims -> source_ims
I0813 01:16:51.184767 16442 data_layer.cpp:223] Opening lmdb /scr/r6/tgebru/inverting_conv/caffe_invert_alexnet/data/siggraph/tiny_summer_val_lmdb
I0813 01:16:51.184976 16442 data_layer.cpp:285] output data size: 64,3,227,227
I0813 01:16:51.184981 16442 data_layer.cpp:304] Loading mean file from/scr/r6/tgebru/timnit_caffe/data/ilsvrc12/imagenet_mean.binaryproto
I0813 01:16:51.199228 16442 net.cpp:84] Top shape: 64 3 227 227 (9893568)
I0813 01:16:51.199246 16442 net.cpp:116] source_ims does not need backward computation.
I0813 01:16:51.199257 16442 net.cpp:65] Creating Layer target_ims
I0813 01:16:51.199264 16442 net.cpp:189] target_ims -> target_ims
I0813 01:16:51.199345 16442 data_layer.cpp:223] Opening lmdb /scr/r6/tgebru/inverting_conv/caffe_invert_alexnet/data/siggraph/tiny_winter_val_lmdb
I0813 01:16:51.199466 16442 data_layer.cpp:285] output data size: 64,3,216,216
I0813 01:16:51.199470 16442 data_layer.cpp:304] Loading mean file from/scr/r6/tgebru/timnit_caffe/data/ilsvrc12/imagenet_mean.binaryproto
I0813 01:16:51.212069 16442 net.cpp:84] Top shape: 64 3 216 216 (8957952)
I0813 01:16:51.212117 16442 net.cpp:116] target_ims does not need backward computation.
I0813 01:16:51.212131 16442 net.cpp:65] Creating Layer conv1
I0813 01:16:51.212134 16442 net.cpp:228] conv1 <- source_ims
I0813 01:16:51.212143 16442 net.cpp:189] conv1 -> conv1
I0813 01:16:51.213407 16442 net.cpp:84] Top shape: 64 96 55 55 (18585600)
I0813 01:16:51.213412 16442 net.cpp:116] conv1 does not need backward computation.
I0813 01:16:51.214083 16442 net.cpp:65] Creating Layer relu1
I0813 01:16:51.214090 16442 net.cpp:228] relu1 <- conv1
I0813 01:16:51.214095 16442 net.cpp:179] relu1 -> conv1 (in-place)
I0813 01:16:51.214102 16442 net.cpp:84] Top shape: 64 96 55 55 (18585600)
I0813 01:16:51.214105 16442 net.cpp:116] relu1 does not need backward computation.
I0813 01:16:51.214112 16442 net.cpp:65] Creating Layer pool1
I0813 01:16:51.214114 16442 net.cpp:228] pool1 <- conv1
I0813 01:16:51.214119 16442 net.cpp:189] pool1 -> pool1
I0813 01:16:51.214126 16442 net.cpp:84] Top shape: 64 96 27 27 (4478976)
I0813 01:16:51.214129 16442 net.cpp:116] pool1 does not need backward computation.
I0813 01:16:51.214134 16442 net.cpp:65] Creating Layer norm1
I0813 01:16:51.214138 16442 net.cpp:228] norm1 <- pool1
I0813 01:16:51.214143 16442 net.cpp:189] norm1 -> norm1
I0813 01:16:51.214148 16442 net.cpp:84] Top shape: 64 96 27 27 (4478976)
I0813 01:16:51.214151 16442 net.cpp:116] norm1 does not need backward computation.
I0813 01:16:51.214156 16442 net.cpp:65] Creating Layer Rconv6
I0813 01:16:51.214159 16442 net.cpp:228] Rconv6 <- norm1
I0813 01:16:51.214164 16442 net.cpp:189] Rconv6 -> Rconv6
I0813 01:16:51.214400 16442 net.cpp:84] Top shape: 64 256 27 27 (11943936)
I0813 01:16:51.214403 16442 net.cpp:116] Rconv6 does not need backward computation.
I0813 01:16:51.214409 16442 net.cpp:65] Creating Layer Rrelu6
I0813 01:16:51.214412 16442 net.cpp:228] Rrelu6 <- Rconv6
I0813 01:16:51.214416 16442 net.cpp:179] Rrelu6 -> Rconv6 (in-place)
I0813 01:16:51.214421 16442 net.cpp:84] Top shape: 64 256 27 27 (11943936)
I0813 01:16:51.214423 16442 net.cpp:116] Rrelu6 does not need backward computation.
I0813 01:16:51.214429 16442 net.cpp:65] Creating Layer Rconv7
I0813 01:16:51.214432 16442 net.cpp:228] Rconv7 <- Rconv6
I0813 01:16:51.214437 16442 net.cpp:189] Rconv7 -> Rconv7
I0813 01:16:51.215216 16442 net.cpp:84] Top shape: 64 256 27 27 (11943936)
I0813 01:16:51.215222 16442 net.cpp:116] Rconv7 does not need backward computation.
I0813 01:16:51.215226 16442 net.cpp:65] Creating Layer Rrelu7
I0813 01:16:51.215229 16442 net.cpp:228] Rrelu7 <- Rconv7
I0813 01:16:51.215234 16442 net.cpp:179] Rrelu7 -> Rconv7 (in-place)
I0813 01:16:51.215237 16442 net.cpp:84] Top shape: 64 256 27 27 (11943936)
I0813 01:16:51.215240 16442 net.cpp:116] Rrelu7 does not need backward computation.
I0813 01:16:51.215245 16442 net.cpp:65] Creating Layer Rconv8
I0813 01:16:51.215247 16442 net.cpp:228] Rconv8 <- Rconv7
I0813 01:16:51.215251 16442 net.cpp:189] Rconv8 -> Rconv8
I0813 01:16:51.215996 16442 net.cpp:84] Top shape: 64 256 27 27 (11943936)
I0813 01:16:51.216001 16442 net.cpp:116] Rconv8 does not need backward computation.
I0813 01:16:51.216006 16442 net.cpp:65] Creating Layer Rrelu8
I0813 01:16:51.216008 16442 net.cpp:228] Rrelu8 <- Rconv8
I0813 01:16:51.216012 16442 net.cpp:179] Rrelu8 -> Rconv8 (in-place)
I0813 01:16:51.216017 16442 net.cpp:84] Top shape: 64 256 27 27 (11943936)
I0813 01:16:51.216019 16442 net.cpp:116] Rrelu8 does not need backward computation.
I0813 01:16:51.216025 16442 net.cpp:65] Creating Layer deconv2
I0813 01:16:51.216028 16442 net.cpp:228] deconv2 <- Rconv8
I0813 01:16:51.216032 16442 net.cpp:189] deconv2 -> deconv2
I0813 01:16:51.217133 16442 net.cpp:84] Top shape: 64 64 54 54 (11943936)
I0813 01:16:51.217138 16442 net.cpp:116] deconv2 does not need backward computation.
I0813 01:16:51.217142 16442 net.cpp:65] Creating Layer relu_deconv2
I0813 01:16:51.217145 16442 net.cpp:228] relu_deconv2 <- deconv2
I0813 01:16:51.217149 16442 net.cpp:179] relu_deconv2 -> deconv2 (in-place)
I0813 01:16:51.217154 16442 net.cpp:84] Top shape: 64 64 54 54 (11943936)
I0813 01:16:51.217177 16442 net.cpp:116] relu_deconv2 does not need backward computation.
I0813 01:16:51.217181 16442 net.cpp:65] Creating Layer deconv1
I0813 01:16:51.217185 16442 net.cpp:228] deconv1 <- deconv2
I0813 01:16:51.217188 16442 net.cpp:189] deconv1 -> deconv1
I0813 01:16:51.217326 16442 net.cpp:84] Top shape: 64 32 108 108 (23887872)
I0813 01:16:51.217330 16442 net.cpp:116] deconv1 does not need backward computation.
I0813 01:16:51.217335 16442 net.cpp:65] Creating Layer relu_deconv1
I0813 01:16:51.217339 16442 net.cpp:228] relu_deconv1 <- deconv1
I0813 01:16:51.217342 16442 net.cpp:179] relu_deconv1 -> deconv1 (in-place)
I0813 01:16:51.217346 16442 net.cpp:84] Top shape: 64 32 108 108 (23887872)
I0813 01:16:51.217350 16442 net.cpp:116] relu_deconv1 does not need backward computation.
I0813 01:16:51.217355 16442 net.cpp:65] Creating Layer deconv0
I0813 01:16:51.217357 16442 net.cpp:228] deconv0 <- deconv1
I0813 01:16:51.217361 16442 net.cpp:189] deconv0 -> deconv0
I0813 01:16:51.217385 16442 net.cpp:84] Top shape: 64 3 216 216 (8957952)
I0813 01:16:51.217388 16442 net.cpp:116] deconv0 does not need backward computation.
I0813 01:16:51.217392 16442 net.cpp:65] Creating Layer loss
I0813 01:16:51.217394 16442 net.cpp:228] loss <- deconv0
I0813 01:16:51.217398 16442 net.cpp:228] loss <- target_ims
I0813 01:16:51.217403 16442 net.cpp:116] loss does not need backward computation.
I0813 01:16:51.217416 16442 net.cpp:238] Collecting Learning Rate and Weight Decay.
…
