…
    source: "/scr/r6/tgebru/inverting_conv/caffe_invert_alexnet/data/siggraph/tiny_winter_train_lmdb"
    mean_file: "/scr/r6/tgebru/timnit_caffe/data/ilsvrc12/imagenet_mean.binaryproto"
    batch_size: 12
    crop_size: 227
    mirror: false
    backend: LMDB
  }
}
layers {
  top: "target_ims"
  name: "target_ims"
  type: DATA
  data_param {
    source: "/scr/r6/tgebru/inverting_conv/caffe_invert_alexnet/data/siggraph/tiny_summer_train_lmdb"
    mean_file: "/scr/r6/tgebru/timnit_caffe/data/ilsvrc12/imagenet_mean.binaryproto"
    batch_size: 12
    crop_size: 216
    mirror: false
    backend: LMDB
  }
}
layers {
  bottom: "source_ims"
  top: "conv1"
  name: "conv1"
  type: CONVOLUTION
  blobs_lr: 0
  blobs_lr: 0
  weight_decay: 1
  weight_decay: 0
  convolution_param {
    num_output: 96
    kernel_size: 11
    stride: 4
    weight_filler {
      type: "gaussian"
      std: 0.01
    }
    bias_filler {
      type: "constant"
      value: 0
    }
  }
}
layers {
  bottom: "conv1"
  top: "conv1"
  name: "relu1"
  type: RELU
}
layers {
  bottom: "conv1"
  top: "pool1"
  name: "pool1"
  type: POOLING
  pooling_param {
    pool: MAX
    kernel_size: 3
    stride: 2
  }
}
layers {
  bottom: "pool1"
  top: "norm1"
  name: "norm1"
  type: LRN
  lrn_param {
    local_size: 5
    alpha: 0.0001
    beta: 0.75
  }
}
layers {
  bottom: "norm1"
  top: "Rconv6"
  name: "Rconv6"
  type: CONVOLUTION
  blobs_lr: 1
  blobs_lr: 2
  weight_decay: 1
  weight_decay: 0
  convolution_param {
    num_output: 256
    pad: 1
    kernel_size: 3
  }
}
layers {
  bottom: "Rconv6"
  top: "Rconv6"
  name: "Rrelu6"
  type: RELU
}
layers {
  bottom: "Rconv6"
  top: "Rconv7"
  name: "Rconv7"
  type: CONVOLUTION
  blobs_lr: 1
  blobs_lr: 2
  weight_decay: 1
  weight_decay: 0
  convolution_param {
    num_output: 256
    pad: 1
    kernel_size: 3
    group: 2
  }
}
layers {
  bottom: "Rconv7"
  top: "Rconv7"
  name: "Rrelu7"
  type: RELU
}
layers {
  bottom: "Rconv7"
  top: "Rconv8"
  name: "Rconv8"
  type: CONVOLUTION
  blobs_lr: 1
  blobs_lr: 2
  weight_decay: 1
  weight_decay: 0
  convolution_param {
    num_output: 256
    pad: 1
    kernel_size: 3
    group: 2
  }
}
layers {
  bottom: "Rconv8"
  top: "Rconv8"
  name: "Rrelu8"
  type: RELU
}
layers {
  bottom: "Rconv8"
  top: "deconv2"
  name: "deconv2"
  type: DECONVOLUTION
  blobs_lr: 1
  blobs_lr: 2
  weight_decay: 1
  weight_decay: 0
  deconvolution_param {
    pad: 2
    kernel_size: 5
    stride: 2
    output_height: 54
    output_width: 54
    output_channels: 64
  }
}
layers {
  bottom: "deconv2"
  top: "deconv2"
  name: "relu_deconv2"
  type: RELU
  relu_param {
    negative_slope: 0.3
  }
}
layers {
  bottom: "deconv2"
  top: "deconv1"
  name: "deconv1"
  type: DECONVOLUTION
  blobs_lr: 1
  blobs_lr: 2
  weight_decay: 1
  weight_decay: 0
  deconvolution_param {
    pad: 2
    kernel_size: 5
    stride: 2
    output_height: 108
    output_width: 108
    output_channels: 32
  }
}
layers {
  bottom: "deconv1"
  top: "deconv1"
  name: "relu_deconv1"
  type: RELU
  relu_param {
    negative_slope: 0.3
  }
}
layers {
  bottom: "deconv1"
  top: "deconv0"
  name: "deconv0"
  type: DECONVOLUTION
  blobs_lr: 1
  blobs_lr: 2
  weight_decay: 1
  weight_decay: 1
  deconvolution_param {
    pad: 2
    kernel_size: 5
    stride: 2
    output_height: 216
    output_width: 216
    output_channels: 3
  }
}
layers {
  bottom: "deconv0"
  bottom: "target_ims"
  name: "loss"
  type: EUCLIDEAN_LOSS
}
I0813 00:03:03.966351  7573 net.cpp:65] Creating Layer source_ims
I0813 00:03:03.966359  7573 net.cpp:189] source_ims -> source_ims
I0813 00:03:03.966475  7573 data_layer.cpp:223] Opening lmdb /scr/r6/tgebru/inverting_conv/caffe_invert_alexnet/data/siggraph/tiny_winter_train_lmdb
I0813 00:03:03.966681  7573 data_layer.cpp:285] output data size: 12,3,227,227
I0813 00:03:03.966688  7573 data_layer.cpp:304] Loading mean file from/scr/r6/tgebru/timnit_caffe/data/ilsvrc12/imagenet_mean.binaryproto
I0813 00:03:03.971185  7573 net.cpp:84] Top shape: 12 3 227 227 (1855044)
I0813 00:03:03.971194  7573 net.cpp:116] source_ims does not need backward computation.
I0813 00:03:03.971200  7573 net.cpp:65] Creating Layer target_ims
I0813 00:03:03.971204  7573 net.cpp:189] target_ims -> target_ims
I0813 00:03:03.971369  7573 data_layer.cpp:223] Opening lmdb /scr/r6/tgebru/inverting_conv/caffe_invert_alexnet/data/siggraph/tiny_summer_train_lmdb
I0813 00:03:03.971514  7573 data_layer.cpp:285] output data size: 12,3,216,216
I0813 00:03:03.971519  7573 data_layer.cpp:304] Loading mean file from/scr/r6/tgebru/timnit_caffe/data/ilsvrc12/imagenet_mean.binaryproto
I0813 00:03:03.976461  7573 net.cpp:84] Top shape: 12 3 216 216 (1679616)
I0813 00:03:03.976470  7573 net.cpp:116] target_ims does not need backward computation.
I0813 00:03:03.976482  7573 net.cpp:65] Creating Layer conv1
I0813 00:03:03.976486  7573 net.cpp:228] conv1 <- source_ims
I0813 00:03:03.976558  7573 net.cpp:189] conv1 -> conv1
I0813 00:03:03.977867  7573 net.cpp:84] Top shape: 12 96 55 55 (3484800)
I0813 00:03:03.977874  7573 net.cpp:116] conv1 does not need backward computation.
I0813 00:03:03.977880  7573 net.cpp:65] Creating Layer relu1
I0813 00:03:03.977882  7573 net.cpp:228] relu1 <- conv1
I0813 00:03:03.977887  7573 net.cpp:179] relu1 -> conv1 (in-place)
I0813 00:03:03.977896  7573 net.cpp:84] Top shape: 12 96 55 55 (3484800)
I0813 00:03:03.977900  7573 net.cpp:116] relu1 does not need backward computation.
I0813 00:03:03.977905  7573 net.cpp:65] Creating Layer pool1
I0813 00:03:03.977907  7573 net.cpp:228] pool1 <- conv1
I0813 00:03:03.977912  7573 net.cpp:189] pool1 -> pool1
I0813 00:03:03.977924  7573 net.cpp:84] Top shape: 12 96 27 27 (839808)
I0813 00:03:03.977928  7573 net.cpp:116] pool1 does not need backward computation.
I0813 00:03:03.977932  7573 net.cpp:65] Creating Layer norm1
I0813 00:03:03.977936  7573 net.cpp:228] norm1 <- pool1
I0813 00:03:03.977939  7573 net.cpp:189] norm1 -> norm1
I0813 00:03:03.977948  7573 net.cpp:84] Top shape: 12 96 27 27 (839808)
I0813 00:03:03.977952  7573 net.cpp:116] norm1 does not need backward computation.
I0813 00:03:03.977955  7573 net.cpp:65] Creating Layer Rconv6
I0813 00:03:03.977958  7573 net.cpp:228] Rconv6 <- norm1
I0813 00:03:03.977962  7573 net.cpp:189] Rconv6 -> Rconv6
I0813 00:03:03.978236  7573 net.cpp:84] Top shape: 12 256 27 27 (2239488)
I0813 00:03:03.978240  7573 net.cpp:111] Rconv6 needs backward computation.
I0813 00:03:03.978245  7573 net.cpp:65] Creating Layer Rrelu6
I0813 00:03:03.978247  7573 net.cpp:228] Rrelu6 <- Rconv6
I0813 00:03:03.978251  7573 net.cpp:179] Rrelu6 -> Rconv6 (in-place)
I0813 00:03:03.978256  7573 net.cpp:84] Top shape: 12 256 27 27 (2239488)
I0813 00:03:03.978260  7573 net.cpp:111] Rrelu6 needs backward computation.
I0813 00:03:03.978265  7573 net.cpp:65] Creating Layer Rconv7
I0813 00:03:03.978266  7573 net.cpp:228] Rconv7 <- Rconv6
I0813 00:03:03.978271  7573 net.cpp:189] Rconv7 -> Rconv7
I0813 00:03:03.979048  7573 net.cpp:84] Top shape: 12 256 27 27 (2239488)
I0813 00:03:03.979053  7573 net.cpp:111] Rconv7 needs backward computation.
I0813 00:03:03.979055  7573 net.cpp:65] Creating Layer Rrelu7
I0813 00:03:03.979076  7573 net.cpp:228] Rrelu7 <- Rconv7
I0813 00:03:03.979081  7573 net.cpp:179] Rrelu7 -> Rconv7 (in-place)
I0813 00:03:03.979085  7573 net.cpp:84] Top shape: 12 256 27 27 (2239488)
I0813 00:03:03.979089  7573 net.cpp:111] Rrelu7 needs backward computation.
I0813 00:03:03.979092  7573 net.cpp:65] Creating Layer Rconv8
I0813 00:03:03.979094  7573 net.cpp:228] Rconv8 <- Rconv7
I0813 00:03:03.979099  7573 net.cpp:189] Rconv8 -> Rconv8
I0813 00:03:03.979831  7573 net.cpp:84] Top shape: 12 256 27 27 (2239488)
I0813 00:03:03.979836  7573 net.cpp:111] Rconv8 needs backward computation.
I0813 00:03:03.979840  7573 net.cpp:65] Creating Layer Rrelu8
I0813 00:03:03.979842  7573 net.cpp:228] Rrelu8 <- Rconv8
I0813 00:03:03.979846  7573 net.cpp:179] Rrelu8 -> Rconv8 (in-place)
I0813 00:03:03.979851  7573 net.cpp:84] Top shape: 12 256 27 27 (2239488)
I0813 00:03:03.979853  7573 net.cpp:111] Rrelu8 needs backward computation.
I0813 00:03:03.979857  7573 net.cpp:65] Creating Layer deconv2
I0813 00:03:03.979859  7573 net.cpp:228] deconv2 <- Rconv8
I0813 00:03:03.979863  7573 net.cpp:189] deconv2 -> deconv2
I0813 00:03:03.980876  7573 net.cpp:84] Top shape: 12 64 54 54 (2239488)
I0813 00:03:03.980880  7573 net.cpp:111] deconv2 needs backward computation.
I0813 00:03:03.980885  7573 net.cpp:65] Creating Layer relu_deconv2
I0813 00:03:03.980888  7573 net.cpp:228] relu_deconv2 <- deconv2
I0813 00:03:03.980892  7573 net.cpp:179] relu_deconv2 -> deconv2 (in-place)
I0813 00:03:03.980896  7573 net.cpp:84] Top shape: 12 64 54 54 (2239488)
I0813 00:03:03.980900  7573 net.cpp:111] relu_deconv2 needs backward computation.
I0813 00:03:03.980903  7573 net.cpp:65] Creating Layer deconv1
I0813 00:03:03.980906  7573 net.cpp:228] deconv1 <- deconv2
I0813 00:03:03.980909  7573 net.cpp:189] deconv1 -> deconv1
I0813 00:03:03.981051  7573 net.cpp:84] Top shape: 12 32 108 108 (4478976)
I0813 00:03:03.981056  7573 net.cpp:111] deconv1 needs backward computation.
I0813 00:03:03.981060  7573 net.cpp:65] Creating Layer relu_deconv1
I0813 00:03:03.981063  7573 net.cpp:228] relu_deconv1 <- deconv1
I0813 00:03:03.981067  7573 net.cpp:179] relu_deconv1 -> deconv1 (in-place)
I0813 00:03:03.981071  7573 net.cpp:84] Top shape: 12 32 108 108 (4478976)
I0813 00:03:03.981075  7573 net.cpp:111] relu_deconv1 needs backward computation.
I0813 00:03:03.981079  7573 net.cpp:65] Creating Layer deconv0
I0813 00:03:03.981081  7573 net.cpp:228] deconv0 <- deconv1
I0813 00:03:03.981086  7573 net.cpp:189] deconv0 -> deconv0
I0813 00:03:03.981108  7573 net.cpp:84] Top shape: 12 3 216 216 (1679616)
I0813 00:03:03.981112  7573 net.cpp:111] deconv0 needs backward computation.
I0813 00:03:03.981115  7573 net.cpp:65] Creating Layer loss
I0813 00:03:03.981117  7573 net.cpp:228] loss <- deconv0
I0813 00:03:03.981122  7573 net.cpp:228] loss <- target_ims
I0813 00:03:03.981130  7573 net.cpp:111] loss needs backward computation.
I0813 00:03:03.981143  7573 net.cpp:238] Collecting Learning Rate and Weight Decay.
…
    source: "/scr/r6/tgebru/inverting_conv/caffe_invert_alexnet/data/siggraph/tiny_winter_val_lmdb"
    mean_file: "/scr/r6/tgebru/timnit_caffe/data/ilsvrc12/imagenet_mean.binaryproto"
    batch_size: 2
    crop_size: 227
    mirror: false
    backend: LMDB
  }
}
layers {
  top: "target_ims"
  name: "target_ims"
  type: DATA
  data_param {
    source: "/scr/r6/tgebru/inverting_conv/caffe_invert_alexnet/data/siggraph/tiny_summer_val_lmdb"
    mean_file: "/scr/r6/tgebru/timnit_caffe/data/ilsvrc12/imagenet_mean.binaryproto"
    batch_size: 2
    crop_size: 216
    mirror: false
    backend: LMDB
  }
}
layers {
  bottom: "source_ims"
  top: "conv1"
  name: "conv1"
  type: CONVOLUTION
  blobs_lr: 0
  blobs_lr: 0
  weight_decay: 1
  weight_decay: 0
  convolution_param {
    num_output: 96
    kernel_size: 11
    stride: 4
    weight_filler {
      type: "gaussian"
      std: 0.01
    }
    bias_filler {
      type: "constant"
      value: 0
    }
  }
}
layers {
  bottom: "conv1"
  top: "conv1"
  name: "relu1"
  type: RELU
}
layers {
  bottom: "conv1"
  top: "pool1"
  name: "pool1"
  type: POOLING
  pooling_param {
    pool: MAX
    kernel_size: 3
    stride: 2
  }
}
layers {
  bottom: "pool1"
  top: "norm1"
  name: "norm1"
  type: LRN
  lrn_param {
    local_size: 5
    alpha: 0.0001
    beta: 0.75
  }
}
layers {
  bottom: "norm1"
  top: "Rconv6"
  name: "Rconv6"
  type: CONVOLUTION
  blobs_lr: 0
  blobs_lr: 0
  weight_decay: 1
  weight_decay: 0
  convolution_param {
    num_output: 256
    pad: 1
    kernel_size: 3
  }
}
layers {
  bottom: "Rconv6"
  top: "Rconv6"
  name: "Rrelu6"
  type: RELU
}
layers {
  bottom: "Rconv6"
  top: "Rconv7"
  name: "Rconv7"
  type: CONVOLUTION
  blobs_lr: 0
  blobs_lr: 0
  weight_decay: 1
  weight_decay: 0
  convolution_param {
    num_output: 256
    pad: 1
    kernel_size: 3
    group: 2
  }
}
layers {
  bottom: "Rconv7"
  top: "Rconv7"
  name: "Rrelu7"
  type: RELU
}
layers {
  bottom: "Rconv7"
  top: "Rconv8"
  name: "Rconv8"
  type: CONVOLUTION
  blobs_lr: 0
  blobs_lr: 0
  weight_decay: 1
  weight_decay: 0
  convolution_param {
    num_output: 256
    pad: 1
    kernel_size: 3
    group: 2
  }
}
layers {
  bottom: "Rconv8"
  top: "Rconv8"
  name: "Rrelu8"
  type: RELU
}
layers {
  bottom: "Rconv8"
  top: "deconv2"
  name: "deconv2"
  type: DECONVOLUTION
  blobs_lr: 0
  blobs_lr: 0
  weight_decay: 1
  weight_decay: 0
  deconvolution_param {
    pad: 2
    kernel_size: 5
    stride: 2
    output_height: 54
    output_width: 54
    output_channels: 64
  }
}
layers {
  bottom: "deconv2"
  top: "deconv2"
  name: "relu_deconv2"
  type: RELU
  relu_param {
    negative_slope: 0.3
  }
}
layers {
  bottom: "deconv2"
  top: "deconv1"
  name: "deconv1"
  type: DECONVOLUTION
  blobs_lr: 0
  blobs_lr: 0
  weight_decay: 1
  weight_decay: 0
  deconvolution_param {
    pad: 2
    kernel_size: 5
    stride: 2
    output_height: 108
    output_width: 108
    output_channels: 32
  }
}
layers {
  bottom: "deconv1"
  top: "deconv1"
  name: "relu_deconv1"
  type: RELU
  relu_param {
    negative_slope: 0.3
  }
}
layers {
  bottom: "deconv1"
  top: "deconv0"
  name: "deconv0"
  type: DECONVOLUTION
  blobs_lr: 0
  blobs_lr: 0
  weight_decay: 1
  weight_decay: 0
  deconvolution_param {
    pad: 2
    kernel_size: 5
    stride: 2
    output_height: 216
    output_width: 216
    output_channels: 3
  }
}
layers {
  bottom: "deconv0"
  bottom: "target_ims"
  name: "loss"
  type: EUCLIDEAN_LOSS
}
I0813 00:03:03.981848  7573 net.cpp:65] Creating Layer source_ims
I0813 00:03:03.981854  7573 net.cpp:189] source_ims -> source_ims
I0813 00:03:03.981915  7573 data_layer.cpp:223] Opening lmdb /scr/r6/tgebru/inverting_conv/caffe_invert_alexnet/data/siggraph/tiny_winter_val_lmdb
I0813 00:03:03.982125  7573 data_layer.cpp:285] output data size: 2,3,227,227
I0813 00:03:03.982130  7573 data_layer.cpp:304] Loading mean file from/scr/r6/tgebru/timnit_caffe/data/ilsvrc12/imagenet_mean.binaryproto
I0813 00:03:03.984401  7573 net.cpp:84] Top shape: 2 3 227 227 (309174)
I0813 00:03:03.984408  7573 net.cpp:116] source_ims does not need backward computation.
I0813 00:03:03.984413  7573 net.cpp:65] Creating Layer target_ims
I0813 00:03:03.984418  7573 net.cpp:189] target_ims -> target_ims
I0813 00:03:03.984477  7573 data_layer.cpp:223] Opening lmdb /scr/r6/tgebru/inverting_conv/caffe_invert_alexnet/data/siggraph/tiny_summer_val_lmdb
I0813 00:03:03.984572  7573 data_layer.cpp:285] output data size: 2,3,216,216
I0813 00:03:03.984576  7573 data_layer.cpp:304] Loading mean file from/scr/r6/tgebru/timnit_caffe/data/ilsvrc12/imagenet_mean.binaryproto
I0813 00:03:03.986863  7573 net.cpp:84] Top shape: 2 3 216 216 (279936)
I0813 00:03:03.986883  7573 net.cpp:116] target_ims does not need backward computation.
I0813 00:03:03.986891  7573 net.cpp:65] Creating Layer conv1
I0813 00:03:03.986894  7573 net.cpp:228] conv1 <- source_ims
I0813 00:03:03.986901  7573 net.cpp:189] conv1 -> conv1
I0813 00:03:03.988139  7573 net.cpp:84] Top shape: 2 96 55 55 (580800)
I0813 00:03:03.988144  7573 net.cpp:116] conv1 does not need backward computation.
I0813 00:03:03.988148  7573 net.cpp:65] Creating Layer relu1
I0813 00:03:03.988152  7573 net.cpp:228] relu1 <- conv1
I0813 00:03:03.988155  7573 net.cpp:179] relu1 -> conv1 (in-place)
I0813 00:03:03.988160  7573 net.cpp:84] Top shape: 2 96 55 55 (580800)
I0813 00:03:03.988163  7573 net.cpp:116] relu1 does not need backward computation.
I0813 00:03:03.988168  7573 net.cpp:65] Creating Layer pool1
I0813 00:03:03.988170  7573 net.cpp:228] pool1 <- conv1
I0813 00:03:03.988174  7573 net.cpp:189] pool1 -> pool1
I0813 00:03:03.988180  7573 net.cpp:84] Top shape: 2 96 27 27 (139968)
I0813 00:03:03.988183  7573 net.cpp:116] pool1 does not need backward computation.
I0813 00:03:03.988188  7573 net.cpp:65] Creating Layer norm1
I0813 00:03:03.988189  7573 net.cpp:228] norm1 <- pool1
I0813 00:03:03.988193  7573 net.cpp:189] norm1 -> norm1
I0813 00:03:03.988199  7573 net.cpp:84] Top shape: 2 96 27 27 (139968)
I0813 00:03:03.988203  7573 net.cpp:116] norm1 does not need backward computation.
I0813 00:03:03.988206  7573 net.cpp:65] Creating Layer Rconv6
I0813 00:03:03.988209  7573 net.cpp:228] Rconv6 <- norm1
I0813 00:03:03.988214  7573 net.cpp:189] Rconv6 -> Rconv6
I0813 00:03:03.988751  7573 net.cpp:84] Top shape: 2 256 27 27 (373248)
I0813 00:03:03.988756  7573 net.cpp:116] Rconv6 does not need backward computation.
I0813 00:03:03.988759  7573 net.cpp:65] Creating Layer Rrelu6
I0813 00:03:03.988762  7573 net.cpp:228] Rrelu6 <- Rconv6
I0813 00:03:03.988766  7573 net.cpp:179] Rrelu6 -> Rconv6 (in-place)
I0813 00:03:03.988771  7573 net.cpp:84] Top shape: 2 256 27 27 (373248)
I0813 00:03:03.988775  7573 net.cpp:116] Rrelu6 does not need backward computation.
I0813 00:03:03.988780  7573 net.cpp:65] Creating Layer Rconv7
I0813 00:03:03.988781  7573 net.cpp:228] Rconv7 <- Rconv6
I0813 00:03:03.988785  7573 net.cpp:189] Rconv7 -> Rconv7
I0813 00:03:03.989500  7573 net.cpp:84] Top shape: 2 256 27 27 (373248)
I0813 00:03:03.989505  7573 net.cpp:116] Rconv7 does not need backward computation.
I0813 00:03:03.989508  7573 net.cpp:65] Creating Layer Rrelu7
I0813 00:03:03.989511  7573 net.cpp:228] Rrelu7 <- Rconv7
I0813 00:03:03.989516  7573 net.cpp:179] Rrelu7 -> Rconv7 (in-place)
I0813 00:03:03.989519  7573 net.cpp:84] Top shape: 2 256 27 27 (373248)
I0813 00:03:03.989522  7573 net.cpp:116] Rrelu7 does not need backward computation.
I0813 00:03:03.989526  7573 net.cpp:65] Creating Layer Rconv8
I0813 00:03:03.989528  7573 net.cpp:228] Rconv8 <- Rconv7
I0813 00:03:03.989532  7573 net.cpp:189] Rconv8 -> Rconv8
I0813 00:03:03.990243  7573 net.cpp:84] Top shape: 2 256 27 27 (373248)
I0813 00:03:03.990248  7573 net.cpp:116] Rconv8 does not need backward computation.
I0813 00:03:03.990252  7573 net.cpp:65] Creating Layer Rrelu8
I0813 00:03:03.990254  7573 net.cpp:228] Rrelu8 <- Rconv8
I0813 00:03:03.990258  7573 net.cpp:179] Rrelu8 -> Rconv8 (in-place)
I0813 00:03:03.990262  7573 net.cpp:84] Top shape: 2 256 27 27 (373248)
I0813 00:03:03.990265  7573 net.cpp:116] Rrelu8 does not need backward computation.
I0813 00:03:03.990268  7573 net.cpp:65] Creating Layer deconv2
I0813 00:03:03.990272  7573 net.cpp:228] deconv2 <- Rconv8
I0813 00:03:03.990275  7573 net.cpp:189] deconv2 -> deconv2
I0813 00:03:03.991261  7573 net.cpp:84] Top shape: 2 64 54 54 (373248)
I0813 00:03:03.991266  7573 net.cpp:116] deconv2 does not need backward computation.
I0813 00:03:03.991268  7573 net.cpp:65] Creating Layer relu_deconv2
I0813 00:03:03.991271  7573 net.cpp:228] relu_deconv2 <- deconv2
I0813 00:03:03.991276  7573 net.cpp:179] relu_deconv2 -> deconv2 (in-place)
I0813 00:03:03.991281  7573 net.cpp:84] Top shape: 2 64 54 54 (373248)
I0813 00:03:03.991283  7573 net.cpp:116] relu_deconv2 does not need backward computation.
I0813 00:03:03.991298  7573 net.cpp:65] Creating Layer deconv1
I0813 00:03:03.991302  7573 net.cpp:228] deconv1 <- deconv2
I0813 00:03:03.991305  7573 net.cpp:189] deconv1 -> deconv1
I0813 00:03:03.991436  7573 net.cpp:84] Top shape: 2 32 108 108 (746496)
I0813 00:03:03.991441  7573 net.cpp:116] deconv1 does not need backward computation.
I0813 00:03:03.991444  7573 net.cpp:65] Creating Layer relu_deconv1
I0813 00:03:03.991447  7573 net.cpp:228] relu_deconv1 <- deconv1
I0813 00:03:03.991451  7573 net.cpp:179] relu_deconv1 -> deconv1 (in-place)
I0813 00:03:03.991456  7573 net.cpp:84] Top shape: 2 32 108 108 (746496)
I0813 00:03:03.991458  7573 net.cpp:116] relu_deconv1 does not need backward computation.
I0813 00:03:03.991463  7573 net.cpp:65] Creating Layer deconv0
I0813 00:03:03.991466  7573 net.cpp:228] deconv0 <- deconv1
I0813 00:03:03.991471  7573 net.cpp:189] deconv0 -> deconv0
I0813 00:03:03.991488  7573 net.cpp:84] Top shape: 2 3 216 216 (279936)
I0813 00:03:03.991492  7573 net.cpp:116] deconv0 does not need backward computation.
I0813 00:03:03.991495  7573 net.cpp:65] Creating Layer loss
I0813 00:03:03.991498  7573 net.cpp:228] loss <- deconv0
I0813 00:03:03.991502  7573 net.cpp:228] loss <- target_ims
I0813 00:03:03.991507  7573 net.cpp:116] loss does not need backward computation.
I0813 00:03:03.991518  7573 net.cpp:238] Collecting Learning Rate and Weight Decay.
…
