…
    source: "/scr/r6/tgebru/inverting_conv/caffe_invert_alexnet/data/siggraph/tiny_winter_train_lmdb"
    mean_file: "/scr/r6/tgebru/timnit_caffe/data/ilsvrc12/imagenet_mean.binaryproto"
    batch_size: 12
    crop_size: 227
    mirror: false
    backend: LMDB
  }
}
layers {
  top: "target_ims"
  name: "target_ims"
  type: DATA
  data_param {
    source: "/scr/r6/tgebru/inverting_conv/caffe_invert_alexnet/data/siggraph/tiny_summer_train_lmdb"
    mean_file: "/scr/r6/tgebru/timnit_caffe/data/ilsvrc12/imagenet_mean.binaryproto"
    batch_size: 12
    crop_size: 216
    mirror: false
    backend: LMDB
  }
}
layers {
  bottom: "source_ims"
  top: "conv1"
  name: "conv1"
  type: CONVOLUTION
  blobs_lr: 0
  blobs_lr: 0
  weight_decay: 1
  weight_decay: 0
  convolution_param {
    num_output: 96
    kernel_size: 11
    stride: 4
    weight_filler {
      type: "gaussian"
      std: 0.01
    }
    bias_filler {
      type: "constant"
      value: 0
    }
  }
}
layers {
  bottom: "conv1"
  top: "conv1"
  name: "relu1"
  type: RELU
}
layers {
  bottom: "conv1"
  top: "pool1"
  name: "pool1"
  type: POOLING
  pooling_param {
    pool: MAX
    kernel_size: 3
    stride: 2
  }
}
layers {
  bottom: "pool1"
  top: "norm1"
  name: "norm1"
  type: LRN
  lrn_param {
    local_size: 5
    alpha: 0.0001
    beta: 0.75
  }
}
layers {
  bottom: "norm1"
  top: "Rconv6"
  name: "Rconv6"
  type: CONVOLUTION
  blobs_lr: 1
  blobs_lr: 2
  weight_decay: 1
  weight_decay: 0
  convolution_param {
    num_output: 256
    pad: 1
    kernel_size: 3
  }
}
layers {
  bottom: "Rconv6"
  top: "Rconv6"
  name: "Rrelu6"
  type: RELU
}
layers {
  bottom: "Rconv6"
  top: "Rconv7"
  name: "Rconv7"
  type: CONVOLUTION
  blobs_lr: 1
  blobs_lr: 2
  weight_decay: 1
  weight_decay: 0
  convolution_param {
    num_output: 256
    pad: 1
    kernel_size: 3
    group: 2
  }
}
layers {
  bottom: "Rconv7"
  top: "Rconv7"
  name: "Rrelu7"
  type: RELU
}
layers {
  bottom: "Rconv7"
  top: "Rconv8"
  name: "Rconv8"
  type: CONVOLUTION
  blobs_lr: 1
  blobs_lr: 2
  weight_decay: 1
  weight_decay: 0
  convolution_param {
    num_output: 256
    pad: 1
    kernel_size: 3
    group: 2
  }
}
layers {
  bottom: "Rconv8"
  top: "Rconv8"
  name: "Rrelu8"
  type: RELU
}
layers {
  bottom: "Rconv8"
  top: "deconv2"
  name: "deconv2"
  type: DECONVOLUTION
  blobs_lr: 1
  blobs_lr: 2
  weight_decay: 1
  weight_decay: 0
  deconvolution_param {
    pad: 2
    kernel_size: 5
    stride: 2
    output_height: 54
    output_width: 54
    output_channels: 64
  }
}
layers {
  bottom: "deconv2"
  top: "deconv2"
  name: "relu_deconv2"
  type: RELU
  relu_param {
    negative_slope: 0.3
  }
}
layers {
  bottom: "deconv2"
  top: "deconv1"
  name: "deconv1"
  type: DECONVOLUTION
  blobs_lr: 1
  blobs_lr: 2
  weight_decay: 1
  weight_decay: 0
  deconvolution_param {
    pad: 2
    kernel_size: 5
    stride: 2
    output_height: 108
    output_width: 108
    output_channels: 32
  }
}
layers {
  bottom: "deconv1"
  top: "deconv1"
  name: "relu_deconv1"
  type: RELU
  relu_param {
    negative_slope: 0.3
  }
}
layers {
  bottom: "deconv1"
  top: "deconv0"
  name: "deconv0"
  type: DECONVOLUTION
  blobs_lr: 1
  blobs_lr: 2
  weight_decay: 1
  weight_decay: 1
  deconvolution_param {
    pad: 2
    kernel_size: 5
    stride: 2
    output_height: 216
    output_width: 216
    output_channels: 3
  }
}
layers {
  bottom: "deconv0"
  bottom: "target_ims"
  name: "loss"
  type: EUCLIDEAN_LOSS
}
I0812 22:34:12.652391  9749 net.cpp:65] Creating Layer source_ims
I0812 22:34:12.652400  9749 net.cpp:189] source_ims -> source_ims
I0812 22:34:12.652503  9749 data_layer.cpp:223] Opening lmdb /scr/r6/tgebru/inverting_conv/caffe_invert_alexnet/data/siggraph/tiny_winter_train_lmdb
I0812 22:34:12.652727  9749 data_layer.cpp:285] output data size: 12,3,227,227
I0812 22:34:12.652734  9749 data_layer.cpp:304] Loading mean file from/scr/r6/tgebru/timnit_caffe/data/ilsvrc12/imagenet_mean.binaryproto
I0812 22:34:12.657485  9749 net.cpp:84] Top shape: 12 3 227 227 (1855044)
I0812 22:34:12.657492  9749 net.cpp:116] source_ims does not need backward computation.
I0812 22:34:12.657500  9749 net.cpp:65] Creating Layer target_ims
I0812 22:34:12.657503  9749 net.cpp:189] target_ims -> target_ims
I0812 22:34:12.657656  9749 data_layer.cpp:223] Opening lmdb /scr/r6/tgebru/inverting_conv/caffe_invert_alexnet/data/siggraph/tiny_summer_train_lmdb
I0812 22:34:12.657858  9749 data_layer.cpp:285] output data size: 12,3,216,216
I0812 22:34:12.657863  9749 data_layer.cpp:304] Loading mean file from/scr/r6/tgebru/timnit_caffe/data/ilsvrc12/imagenet_mean.binaryproto
I0812 22:34:12.662282  9749 net.cpp:84] Top shape: 12 3 216 216 (1679616)
I0812 22:34:12.662291  9749 net.cpp:116] target_ims does not need backward computation.
I0812 22:34:12.662302  9749 net.cpp:65] Creating Layer conv1
I0812 22:34:12.662307  9749 net.cpp:228] conv1 <- source_ims
I0812 22:34:12.662408  9749 net.cpp:189] conv1 -> conv1
I0812 22:34:12.663781  9749 net.cpp:84] Top shape: 12 96 55 55 (3484800)
I0812 22:34:12.663787  9749 net.cpp:116] conv1 does not need backward computation.
I0812 22:34:12.663791  9749 net.cpp:65] Creating Layer relu1
I0812 22:34:12.663795  9749 net.cpp:228] relu1 <- conv1
I0812 22:34:12.663800  9749 net.cpp:179] relu1 -> conv1 (in-place)
I0812 22:34:12.663808  9749 net.cpp:84] Top shape: 12 96 55 55 (3484800)
I0812 22:34:12.663811  9749 net.cpp:116] relu1 does not need backward computation.
I0812 22:34:12.663817  9749 net.cpp:65] Creating Layer pool1
I0812 22:34:12.663820  9749 net.cpp:228] pool1 <- conv1
I0812 22:34:12.663823  9749 net.cpp:189] pool1 -> pool1
I0812 22:34:12.663835  9749 net.cpp:84] Top shape: 12 96 27 27 (839808)
I0812 22:34:12.663837  9749 net.cpp:116] pool1 does not need backward computation.
I0812 22:34:12.663842  9749 net.cpp:65] Creating Layer norm1
I0812 22:34:12.663844  9749 net.cpp:228] norm1 <- pool1
I0812 22:34:12.663848  9749 net.cpp:189] norm1 -> norm1
I0812 22:34:12.663857  9749 net.cpp:84] Top shape: 12 96 27 27 (839808)
I0812 22:34:12.663861  9749 net.cpp:116] norm1 does not need backward computation.
I0812 22:34:12.663864  9749 net.cpp:65] Creating Layer Rconv6
I0812 22:34:12.663867  9749 net.cpp:228] Rconv6 <- norm1
I0812 22:34:12.663872  9749 net.cpp:189] Rconv6 -> Rconv6
I0812 22:34:12.664144  9749 net.cpp:84] Top shape: 12 256 27 27 (2239488)
I0812 22:34:12.664147  9749 net.cpp:111] Rconv6 needs backward computation.
I0812 22:34:12.664152  9749 net.cpp:65] Creating Layer Rrelu6
I0812 22:34:12.664155  9749 net.cpp:228] Rrelu6 <- Rconv6
I0812 22:34:12.664160  9749 net.cpp:179] Rrelu6 -> Rconv6 (in-place)
I0812 22:34:12.664163  9749 net.cpp:84] Top shape: 12 256 27 27 (2239488)
I0812 22:34:12.664166  9749 net.cpp:111] Rrelu6 needs backward computation.
I0812 22:34:12.664171  9749 net.cpp:65] Creating Layer Rconv7
I0812 22:34:12.664175  9749 net.cpp:228] Rconv7 <- Rconv6
I0812 22:34:12.664178  9749 net.cpp:189] Rconv7 -> Rconv7
I0812 22:34:12.664929  9749 net.cpp:84] Top shape: 12 256 27 27 (2239488)
I0812 22:34:12.664934  9749 net.cpp:111] Rconv7 needs backward computation.
I0812 22:34:12.664937  9749 net.cpp:65] Creating Layer Rrelu7
I0812 22:34:12.664959  9749 net.cpp:228] Rrelu7 <- Rconv7
I0812 22:34:12.664963  9749 net.cpp:179] Rrelu7 -> Rconv7 (in-place)
I0812 22:34:12.664968  9749 net.cpp:84] Top shape: 12 256 27 27 (2239488)
I0812 22:34:12.664971  9749 net.cpp:111] Rrelu7 needs backward computation.
I0812 22:34:12.664974  9749 net.cpp:65] Creating Layer Rconv8
I0812 22:34:12.664978  9749 net.cpp:228] Rconv8 <- Rconv7
I0812 22:34:12.664981  9749 net.cpp:189] Rconv8 -> Rconv8
I0812 22:34:12.665824  9749 net.cpp:84] Top shape: 12 256 27 27 (2239488)
I0812 22:34:12.665829  9749 net.cpp:111] Rconv8 needs backward computation.
I0812 22:34:12.665833  9749 net.cpp:65] Creating Layer Rrelu8
I0812 22:34:12.665837  9749 net.cpp:228] Rrelu8 <- Rconv8
I0812 22:34:12.665840  9749 net.cpp:179] Rrelu8 -> Rconv8 (in-place)
I0812 22:34:12.665844  9749 net.cpp:84] Top shape: 12 256 27 27 (2239488)
I0812 22:34:12.665848  9749 net.cpp:111] Rrelu8 needs backward computation.
I0812 22:34:12.665851  9749 net.cpp:65] Creating Layer deconv2
I0812 22:34:12.665853  9749 net.cpp:228] deconv2 <- Rconv8
I0812 22:34:12.665858  9749 net.cpp:189] deconv2 -> deconv2
I0812 22:34:12.667014  9749 net.cpp:84] Top shape: 12 64 54 54 (2239488)
I0812 22:34:12.667019  9749 net.cpp:111] deconv2 needs backward computation.
I0812 22:34:12.667023  9749 net.cpp:65] Creating Layer relu_deconv2
I0812 22:34:12.667027  9749 net.cpp:228] relu_deconv2 <- deconv2
I0812 22:34:12.667032  9749 net.cpp:179] relu_deconv2 -> deconv2 (in-place)
I0812 22:34:12.667035  9749 net.cpp:84] Top shape: 12 64 54 54 (2239488)
I0812 22:34:12.667038  9749 net.cpp:111] relu_deconv2 needs backward computation.
I0812 22:34:12.667042  9749 net.cpp:65] Creating Layer deconv1
I0812 22:34:12.667044  9749 net.cpp:228] deconv1 <- deconv2
I0812 22:34:12.667049  9749 net.cpp:189] deconv1 -> deconv1
I0812 22:34:12.667196  9749 net.cpp:84] Top shape: 12 32 108 108 (4478976)
I0812 22:34:12.667199  9749 net.cpp:111] deconv1 needs backward computation.
I0812 22:34:12.667203  9749 net.cpp:65] Creating Layer relu_deconv1
I0812 22:34:12.667207  9749 net.cpp:228] relu_deconv1 <- deconv1
I0812 22:34:12.667210  9749 net.cpp:179] relu_deconv1 -> deconv1 (in-place)
I0812 22:34:12.667214  9749 net.cpp:84] Top shape: 12 32 108 108 (4478976)
I0812 22:34:12.667217  9749 net.cpp:111] relu_deconv1 needs backward computation.
I0812 22:34:12.667222  9749 net.cpp:65] Creating Layer deconv0
I0812 22:34:12.667224  9749 net.cpp:228] deconv0 <- deconv1
I0812 22:34:12.667228  9749 net.cpp:189] deconv0 -> deconv0
I0812 22:34:12.667251  9749 net.cpp:84] Top shape: 12 3 216 216 (1679616)
I0812 22:34:12.667255  9749 net.cpp:111] deconv0 needs backward computation.
I0812 22:34:12.667258  9749 net.cpp:65] Creating Layer loss
I0812 22:34:12.667261  9749 net.cpp:228] loss <- deconv0
I0812 22:34:12.667264  9749 net.cpp:228] loss <- target_ims
I0812 22:34:12.667273  9749 net.cpp:111] loss needs backward computation.
I0812 22:34:12.667285  9749 net.cpp:238] Collecting Learning Rate and Weight Decay.
…
    source: "/scr/r6/tgebru/inverting_conv/caffe_invert_alexnet/data/siggraph/tiny_winter_val_lmdb"
    mean_file: "/scr/r6/tgebru/timnit_caffe/data/ilsvrc12/imagenet_mean.binaryproto"
    batch_size: 2
    crop_size: 227
    mirror: false
    backend: LMDB
  }
}
layers {
  top: "target_ims"
  name: "target_ims"
  type: DATA
  data_param {
    source: "/scr/r6/tgebru/inverting_conv/caffe_invert_alexnet/data/siggraph/tiny_summer_val_lmdb"
    mean_file: "/scr/r6/tgebru/timnit_caffe/data/ilsvrc12/imagenet_mean.binaryproto"
    batch_size: 2
    crop_size: 216
    mirror: false
    backend: LMDB
  }
}
layers {
  bottom: "source_ims"
  top: "conv1"
  name: "conv1"
  type: CONVOLUTION
  blobs_lr: 0
  blobs_lr: 0
  weight_decay: 1
  weight_decay: 0
  convolution_param {
    num_output: 96
    kernel_size: 11
    stride: 4
    weight_filler {
      type: "gaussian"
      std: 0.01
    }
    bias_filler {
      type: "constant"
      value: 0
    }
  }
}
layers {
  bottom: "conv1"
  top: "conv1"
  name: "relu1"
  type: RELU
}
layers {
  bottom: "conv1"
  top: "pool1"
  name: "pool1"
  type: POOLING
  pooling_param {
    pool: MAX
    kernel_size: 3
    stride: 2
  }
}
layers {
  bottom: "pool1"
  top: "norm1"
  name: "norm1"
  type: LRN
  lrn_param {
    local_size: 5
    alpha: 0.0001
    beta: 0.75
  }
}
layers {
  bottom: "norm1"
  top: "Rconv6"
  name: "Rconv6"
  type: CONVOLUTION
  blobs_lr: 0
  blobs_lr: 0
  weight_decay: 1
  weight_decay: 0
  convolution_param {
    num_output: 256
    pad: 1
    kernel_size: 3
  }
}
layers {
  bottom: "Rconv6"
  top: "Rconv6"
  name: "Rrelu6"
  type: RELU
}
layers {
  bottom: "Rconv6"
  top: "Rconv7"
  name: "Rconv7"
  type: CONVOLUTION
  blobs_lr: 0
  blobs_lr: 0
  weight_decay: 1
  weight_decay: 0
  convolution_param {
    num_output: 256
    pad: 1
    kernel_size: 3
    group: 2
  }
}
layers {
  bottom: "Rconv7"
  top: "Rconv7"
  name: "Rrelu7"
  type: RELU
}
layers {
  bottom: "Rconv7"
  top: "Rconv8"
  name: "Rconv8"
  type: CONVOLUTION
  blobs_lr: 0
  blobs_lr: 0
  weight_decay: 1
  weight_decay: 0
  convolution_param {
    num_output: 256
    pad: 1
    kernel_size: 3
    group: 2
  }
}
layers {
  bottom: "Rconv8"
  top: "Rconv8"
  name: "Rrelu8"
  type: RELU
}
layers {
  bottom: "Rconv8"
  top: "deconv2"
  name: "deconv2"
  type: DECONVOLUTION
  blobs_lr: 0
  blobs_lr: 0
  weight_decay: 1
  weight_decay: 0
  deconvolution_param {
    pad: 2
    kernel_size: 5
    stride: 2
    output_height: 54
    output_width: 54
    output_channels: 64
  }
}
layers {
  bottom: "deconv2"
  top: "deconv2"
  name: "relu_deconv2"
  type: RELU
  relu_param {
    negative_slope: 0.3
  }
}
layers {
  bottom: "deconv2"
  top: "deconv1"
  name: "deconv1"
  type: DECONVOLUTION
  blobs_lr: 0
  blobs_lr: 0
  weight_decay: 1
  weight_decay: 0
  deconvolution_param {
    pad: 2
    kernel_size: 5
    stride: 2
    output_height: 108
    output_width: 108
    output_channels: 32
  }
}
layers {
  bottom: "deconv1"
  top: "deconv1"
  name: "relu_deconv1"
  type: RELU
  relu_param {
    negative_slope: 0.3
  }
}
layers {
  bottom: "deconv1"
  top: "deconv0"
  name: "deconv0"
  type: DECONVOLUTION
  blobs_lr: 0
  blobs_lr: 0
  weight_decay: 1
  weight_decay: 0
  deconvolution_param {
    pad: 2
    kernel_size: 5
    stride: 2
    output_height: 216
    output_width: 216
    output_channels: 3
  }
}
layers {
  bottom: "deconv0"
  bottom: "target_ims"
  name: "loss"
  type: EUCLIDEAN_LOSS
}
I0812 22:34:12.667994  9749 net.cpp:65] Creating Layer source_ims
I0812 22:34:12.667999  9749 net.cpp:189] source_ims -> source_ims
I0812 22:34:12.668051  9749 data_layer.cpp:223] Opening lmdb /scr/r6/tgebru/inverting_conv/caffe_invert_alexnet/data/siggraph/tiny_winter_val_lmdb
I0812 22:34:12.668244  9749 data_layer.cpp:285] output data size: 2,3,227,227
I0812 22:34:12.668249  9749 data_layer.cpp:304] Loading mean file from/scr/r6/tgebru/timnit_caffe/data/ilsvrc12/imagenet_mean.binaryproto
I0812 22:34:12.670675  9749 net.cpp:84] Top shape: 2 3 227 227 (309174)
I0812 22:34:12.670682  9749 net.cpp:116] source_ims does not need backward computation.
I0812 22:34:12.670688  9749 net.cpp:65] Creating Layer target_ims
I0812 22:34:12.670693  9749 net.cpp:189] target_ims -> target_ims
I0812 22:34:12.670747  9749 data_layer.cpp:223] Opening lmdb /scr/r6/tgebru/inverting_conv/caffe_invert_alexnet/data/siggraph/tiny_summer_val_lmdb
I0812 22:34:12.670869  9749 data_layer.cpp:285] output data size: 2,3,216,216
I0812 22:34:12.670873  9749 data_layer.cpp:304] Loading mean file from/scr/r6/tgebru/timnit_caffe/data/ilsvrc12/imagenet_mean.binaryproto
I0812 22:34:12.673135  9749 net.cpp:84] Top shape: 2 3 216 216 (279936)
I0812 22:34:12.673153  9749 net.cpp:116] target_ims does not need backward computation.
I0812 22:34:12.673162  9749 net.cpp:65] Creating Layer conv1
I0812 22:34:12.673166  9749 net.cpp:228] conv1 <- source_ims
I0812 22:34:12.673171  9749 net.cpp:189] conv1 -> conv1
I0812 22:34:12.674417  9749 net.cpp:84] Top shape: 2 96 55 55 (580800)
I0812 22:34:12.674422  9749 net.cpp:116] conv1 does not need backward computation.
I0812 22:34:12.674427  9749 net.cpp:65] Creating Layer relu1
I0812 22:34:12.674429  9749 net.cpp:228] relu1 <- conv1
I0812 22:34:12.674434  9749 net.cpp:179] relu1 -> conv1 (in-place)
I0812 22:34:12.674439  9749 net.cpp:84] Top shape: 2 96 55 55 (580800)
I0812 22:34:12.674442  9749 net.cpp:116] relu1 does not need backward computation.
I0812 22:34:12.674446  9749 net.cpp:65] Creating Layer pool1
I0812 22:34:12.674448  9749 net.cpp:228] pool1 <- conv1
I0812 22:34:12.674453  9749 net.cpp:189] pool1 -> pool1
I0812 22:34:12.674458  9749 net.cpp:84] Top shape: 2 96 27 27 (139968)
I0812 22:34:12.674461  9749 net.cpp:116] pool1 does not need backward computation.
I0812 22:34:12.674465  9749 net.cpp:65] Creating Layer norm1
I0812 22:34:12.674468  9749 net.cpp:228] norm1 <- pool1
I0812 22:34:12.674471  9749 net.cpp:189] norm1 -> norm1
I0812 22:34:12.674478  9749 net.cpp:84] Top shape: 2 96 27 27 (139968)
I0812 22:34:12.674479  9749 net.cpp:116] norm1 does not need backward computation.
I0812 22:34:12.674484  9749 net.cpp:65] Creating Layer Rconv6
I0812 22:34:12.674486  9749 net.cpp:228] Rconv6 <- norm1
I0812 22:34:12.674490  9749 net.cpp:189] Rconv6 -> Rconv6
I0812 22:34:12.675072  9749 net.cpp:84] Top shape: 2 256 27 27 (373248)
I0812 22:34:12.675077  9749 net.cpp:116] Rconv6 does not need backward computation.
I0812 22:34:12.675081  9749 net.cpp:65] Creating Layer Rrelu6
I0812 22:34:12.675084  9749 net.cpp:228] Rrelu6 <- Rconv6
I0812 22:34:12.675088  9749 net.cpp:179] Rrelu6 -> Rconv6 (in-place)
I0812 22:34:12.675092  9749 net.cpp:84] Top shape: 2 256 27 27 (373248)
I0812 22:34:12.675096  9749 net.cpp:116] Rrelu6 does not need backward computation.
I0812 22:34:12.675101  9749 net.cpp:65] Creating Layer Rconv7
I0812 22:34:12.675102  9749 net.cpp:228] Rconv7 <- Rconv6
I0812 22:34:12.675107  9749 net.cpp:189] Rconv7 -> Rconv7
I0812 22:34:12.675863  9749 net.cpp:84] Top shape: 2 256 27 27 (373248)
I0812 22:34:12.675868  9749 net.cpp:116] Rconv7 does not need backward computation.
I0812 22:34:12.675873  9749 net.cpp:65] Creating Layer Rrelu7
I0812 22:34:12.675875  9749 net.cpp:228] Rrelu7 <- Rconv7
I0812 22:34:12.675879  9749 net.cpp:179] Rrelu7 -> Rconv7 (in-place)
I0812 22:34:12.675884  9749 net.cpp:84] Top shape: 2 256 27 27 (373248)
I0812 22:34:12.675886  9749 net.cpp:116] Rrelu7 does not need backward computation.
I0812 22:34:12.675890  9749 net.cpp:65] Creating Layer Rconv8
I0812 22:34:12.675892  9749 net.cpp:228] Rconv8 <- Rconv7
I0812 22:34:12.675896  9749 net.cpp:189] Rconv8 -> Rconv8
I0812 22:34:12.676658  9749 net.cpp:84] Top shape: 2 256 27 27 (373248)
I0812 22:34:12.676663  9749 net.cpp:116] Rconv8 does not need backward computation.
I0812 22:34:12.676667  9749 net.cpp:65] Creating Layer Rrelu8
I0812 22:34:12.676669  9749 net.cpp:228] Rrelu8 <- Rconv8
I0812 22:34:12.676673  9749 net.cpp:179] Rrelu8 -> Rconv8 (in-place)
I0812 22:34:12.676677  9749 net.cpp:84] Top shape: 2 256 27 27 (373248)
I0812 22:34:12.676681  9749 net.cpp:116] Rrelu8 does not need backward computation.
I0812 22:34:12.676684  9749 net.cpp:65] Creating Layer deconv2
I0812 22:34:12.676687  9749 net.cpp:228] deconv2 <- Rconv8
I0812 22:34:12.676690  9749 net.cpp:189] deconv2 -> deconv2
I0812 22:34:12.677728  9749 net.cpp:84] Top shape: 2 64 54 54 (373248)
I0812 22:34:12.677733  9749 net.cpp:116] deconv2 does not need backward computation.
I0812 22:34:12.677737  9749 net.cpp:65] Creating Layer relu_deconv2
I0812 22:34:12.677741  9749 net.cpp:228] relu_deconv2 <- deconv2
I0812 22:34:12.677744  9749 net.cpp:179] relu_deconv2 -> deconv2 (in-place)
I0812 22:34:12.677749  9749 net.cpp:84] Top shape: 2 64 54 54 (373248)
I0812 22:34:12.677752  9749 net.cpp:116] relu_deconv2 does not need backward computation.
I0812 22:34:12.677768  9749 net.cpp:65] Creating Layer deconv1
I0812 22:34:12.677772  9749 net.cpp:228] deconv1 <- deconv2
I0812 22:34:12.677775  9749 net.cpp:189] deconv1 -> deconv1
I0812 22:34:12.677919  9749 net.cpp:84] Top shape: 2 32 108 108 (746496)
I0812 22:34:12.677923  9749 net.cpp:116] deconv1 does not need backward computation.
I0812 22:34:12.677927  9749 net.cpp:65] Creating Layer relu_deconv1
I0812 22:34:12.677930  9749 net.cpp:228] relu_deconv1 <- deconv1
I0812 22:34:12.677934  9749 net.cpp:179] relu_deconv1 -> deconv1 (in-place)
I0812 22:34:12.677938  9749 net.cpp:84] Top shape: 2 32 108 108 (746496)
I0812 22:34:12.677942  9749 net.cpp:116] relu_deconv1 does not need backward computation.
I0812 22:34:12.677947  9749 net.cpp:65] Creating Layer deconv0
I0812 22:34:12.677949  9749 net.cpp:228] deconv0 <- deconv1
I0812 22:34:12.677954  9749 net.cpp:189] deconv0 -> deconv0
I0812 22:34:12.677973  9749 net.cpp:84] Top shape: 2 3 216 216 (279936)
I0812 22:34:12.677975  9749 net.cpp:116] deconv0 does not need backward computation.
I0812 22:34:12.677979  9749 net.cpp:65] Creating Layer loss
I0812 22:34:12.677983  9749 net.cpp:228] loss <- deconv0
I0812 22:34:12.677985  9749 net.cpp:228] loss <- target_ims
I0812 22:34:12.677989  9749 net.cpp:116] loss does not need backward computation.
I0812 22:34:12.678001  9749 net.cpp:238] Collecting Learning Rate and Weight Decay.
…
