…
    source: "/scr/r6/tgebru/inverting_conv/caffe_invert_alexnet/data/siggraph/tiny_summer_train_lmdb"
    mean_file: "/scr/r6/tgebru/timnit_caffe/data/ilsvrc12/imagenet_mean.binaryproto"
    batch_size: 12
    crop_size: 227
    mirror: false
    backend: LMDB
  }
}
layers {
  top: "target_ims"
  name: "target_ims"
  type: DATA
  data_param {
    source: "/scr/r6/tgebru/inverting_conv/caffe_invert_alexnet/data/siggraph/tiny_winter_train_lmdb"
    mean_file: "/scr/r6/tgebru/timnit_caffe/data/ilsvrc12/imagenet_mean.binaryproto"
    batch_size: 12
    crop_size: 216
    mirror: false
    backend: LMDB
  }
}
layers {
  bottom: "source_ims"
  top: "conv1"
  name: "conv1"
  type: CONVOLUTION
  blobs_lr: 0
  blobs_lr: 0
  weight_decay: 1
  weight_decay: 0
  convolution_param {
    num_output: 96
    kernel_size: 11
    stride: 4
    weight_filler {
      type: "gaussian"
      std: 0.01
    }
    bias_filler {
      type: "constant"
      value: 0
    }
  }
}
layers {
  bottom: "conv1"
  top: "conv1"
  name: "relu1"
  type: RELU
}
layers {
  bottom: "conv1"
  top: "pool1"
  name: "pool1"
  type: POOLING
  pooling_param {
    pool: MAX
    kernel_size: 3
    stride: 2
  }
}
layers {
  bottom: "pool1"
  top: "norm1"
  name: "norm1"
  type: LRN
  lrn_param {
    local_size: 5
    alpha: 0.0001
    beta: 0.75
  }
}
layers {
  bottom: "norm1"
  top: "Rconv6"
  name: "Rconv6"
  type: CONVOLUTION
  blobs_lr: 1
  blobs_lr: 2
  weight_decay: 1
  weight_decay: 0
  convolution_param {
    num_output: 256
    pad: 1
    kernel_size: 3
  }
}
layers {
  bottom: "Rconv6"
  top: "Rconv6"
  name: "Rrelu6"
  type: RELU
}
layers {
  bottom: "Rconv6"
  top: "Rconv7"
  name: "Rconv7"
  type: CONVOLUTION
  blobs_lr: 1
  blobs_lr: 2
  weight_decay: 1
  weight_decay: 0
  convolution_param {
    num_output: 256
    pad: 1
    kernel_size: 3
    group: 2
  }
}
layers {
  bottom: "Rconv7"
  top: "Rconv7"
  name: "Rrelu7"
  type: RELU
}
layers {
  bottom: "Rconv7"
  top: "Rconv8"
  name: "Rconv8"
  type: CONVOLUTION
  blobs_lr: 1
  blobs_lr: 2
  weight_decay: 1
  weight_decay: 0
  convolution_param {
    num_output: 256
    pad: 1
    kernel_size: 3
    group: 2
  }
}
layers {
  bottom: "Rconv8"
  top: "Rconv8"
  name: "Rrelu8"
  type: RELU
}
layers {
  bottom: "Rconv8"
  top: "deconv2"
  name: "deconv2"
  type: DECONVOLUTION
  blobs_lr: 1
  blobs_lr: 2
  weight_decay: 1
  weight_decay: 0
  deconvolution_param {
    pad: 2
    kernel_size: 5
    stride: 2
    output_height: 54
    output_width: 54
    output_channels: 64
  }
}
layers {
  bottom: "deconv2"
  top: "deconv2"
  name: "relu_deconv2"
  type: RELU
  relu_param {
    negative_slope: 0.3
  }
}
layers {
  bottom: "deconv2"
  top: "deconv1"
  name: "deconv1"
  type: DECONVOLUTION
  blobs_lr: 1
  blobs_lr: 2
  weight_decay: 1
  weight_decay: 0
  deconvolution_param {
    pad: 2
    kernel_size: 5
    stride: 2
    output_height: 108
    output_width: 108
    output_channels: 32
  }
}
layers {
  bottom: "deconv1"
  top: "deconv1"
  name: "relu_deconv1"
  type: RELU
  relu_param {
    negative_slope: 0.3
  }
}
layers {
  bottom: "deconv1"
  top: "deconv0"
  name: "deconv0"
  type: DECONVOLUTION
  blobs_lr: 1
  blobs_lr: 2
  weight_decay: 1
  weight_decay: 1
  deconvolution_param {
    pad: 2
    kernel_size: 5
    stride: 2
    output_height: 216
    output_width: 216
    output_channels: 3
  }
}
layers {
  bottom: "deconv0"
  bottom: "target_ims"
  name: "loss"
  type: EUCLIDEAN_LOSS
}
I0812 17:08:53.851997 25812 net.cpp:65] Creating Layer source_ims
I0812 17:08:53.852007 25812 net.cpp:189] source_ims -> source_ims
I0812 17:08:53.852125 25812 data_layer.cpp:223] Opening lmdb /scr/r6/tgebru/inverting_conv/caffe_invert_alexnet/data/siggraph/tiny_summer_train_lmdb
I0812 17:08:53.852344 25812 data_layer.cpp:285] output data size: 12,3,227,227
I0812 17:08:53.852351 25812 data_layer.cpp:304] Loading mean file from/scr/r6/tgebru/timnit_caffe/data/ilsvrc12/imagenet_mean.binaryproto
I0812 17:08:53.856884 25812 net.cpp:84] Top shape: 12 3 227 227 (1855044)
I0812 17:08:53.856894 25812 net.cpp:116] source_ims does not need backward computation.
I0812 17:08:53.856899 25812 net.cpp:65] Creating Layer target_ims
I0812 17:08:53.856904 25812 net.cpp:189] target_ims -> target_ims
I0812 17:08:53.857048 25812 data_layer.cpp:223] Opening lmdb /scr/r6/tgebru/inverting_conv/caffe_invert_alexnet/data/siggraph/tiny_winter_train_lmdb
I0812 17:08:53.857209 25812 data_layer.cpp:285] output data size: 12,3,216,216
I0812 17:08:53.857214 25812 data_layer.cpp:304] Loading mean file from/scr/r6/tgebru/timnit_caffe/data/ilsvrc12/imagenet_mean.binaryproto
I0812 17:08:53.861752 25812 net.cpp:84] Top shape: 12 3 216 216 (1679616)
I0812 17:08:53.861760 25812 net.cpp:116] target_ims does not need backward computation.
I0812 17:08:53.861773 25812 net.cpp:65] Creating Layer conv1
I0812 17:08:53.861776 25812 net.cpp:228] conv1 <- source_ims
I0812 17:08:53.861886 25812 net.cpp:189] conv1 -> conv1
I0812 17:08:53.863205 25812 net.cpp:84] Top shape: 12 96 55 55 (3484800)
I0812 17:08:53.863211 25812 net.cpp:116] conv1 does not need backward computation.
I0812 17:08:53.863216 25812 net.cpp:65] Creating Layer relu1
I0812 17:08:53.863219 25812 net.cpp:228] relu1 <- conv1
I0812 17:08:53.863224 25812 net.cpp:179] relu1 -> conv1 (in-place)
I0812 17:08:53.863234 25812 net.cpp:84] Top shape: 12 96 55 55 (3484800)
I0812 17:08:53.863236 25812 net.cpp:116] relu1 does not need backward computation.
I0812 17:08:53.863242 25812 net.cpp:65] Creating Layer pool1
I0812 17:08:53.863245 25812 net.cpp:228] pool1 <- conv1
I0812 17:08:53.863250 25812 net.cpp:189] pool1 -> pool1
I0812 17:08:53.863262 25812 net.cpp:84] Top shape: 12 96 27 27 (839808)
I0812 17:08:53.863265 25812 net.cpp:116] pool1 does not need backward computation.
I0812 17:08:53.863270 25812 net.cpp:65] Creating Layer norm1
I0812 17:08:53.863272 25812 net.cpp:228] norm1 <- pool1
I0812 17:08:53.863276 25812 net.cpp:189] norm1 -> norm1
I0812 17:08:53.863286 25812 net.cpp:84] Top shape: 12 96 27 27 (839808)
I0812 17:08:53.863289 25812 net.cpp:116] norm1 does not need backward computation.
I0812 17:08:53.863293 25812 net.cpp:65] Creating Layer Rconv6
I0812 17:08:53.863296 25812 net.cpp:228] Rconv6 <- norm1
I0812 17:08:53.863301 25812 net.cpp:189] Rconv6 -> Rconv6
I0812 17:08:53.863571 25812 net.cpp:84] Top shape: 12 256 27 27 (2239488)
I0812 17:08:53.863575 25812 net.cpp:111] Rconv6 needs backward computation.
I0812 17:08:53.863579 25812 net.cpp:65] Creating Layer Rrelu6
I0812 17:08:53.863582 25812 net.cpp:228] Rrelu6 <- Rconv6
I0812 17:08:53.863586 25812 net.cpp:179] Rrelu6 -> Rconv6 (in-place)
I0812 17:08:53.863591 25812 net.cpp:84] Top shape: 12 256 27 27 (2239488)
I0812 17:08:53.863595 25812 net.cpp:111] Rrelu6 needs backward computation.
I0812 17:08:53.863598 25812 net.cpp:65] Creating Layer Rconv7
I0812 17:08:53.863601 25812 net.cpp:228] Rconv7 <- Rconv6
I0812 17:08:53.863605 25812 net.cpp:189] Rconv7 -> Rconv7
I0812 17:08:53.864330 25812 net.cpp:84] Top shape: 12 256 27 27 (2239488)
I0812 17:08:53.864333 25812 net.cpp:111] Rconv7 needs backward computation.
I0812 17:08:53.864337 25812 net.cpp:65] Creating Layer Rrelu7
I0812 17:08:53.864358 25812 net.cpp:228] Rrelu7 <- Rconv7
I0812 17:08:53.864363 25812 net.cpp:179] Rrelu7 -> Rconv7 (in-place)
I0812 17:08:53.864367 25812 net.cpp:84] Top shape: 12 256 27 27 (2239488)
I0812 17:08:53.864370 25812 net.cpp:111] Rrelu7 needs backward computation.
I0812 17:08:53.864374 25812 net.cpp:65] Creating Layer Rconv8
I0812 17:08:53.864377 25812 net.cpp:228] Rconv8 <- Rconv7
I0812 17:08:53.864380 25812 net.cpp:189] Rconv8 -> Rconv8
I0812 17:08:53.865161 25812 net.cpp:84] Top shape: 12 256 27 27 (2239488)
I0812 17:08:53.865166 25812 net.cpp:111] Rconv8 needs backward computation.
I0812 17:08:53.865170 25812 net.cpp:65] Creating Layer Rrelu8
I0812 17:08:53.865173 25812 net.cpp:228] Rrelu8 <- Rconv8
I0812 17:08:53.865176 25812 net.cpp:179] Rrelu8 -> Rconv8 (in-place)
I0812 17:08:53.865180 25812 net.cpp:84] Top shape: 12 256 27 27 (2239488)
I0812 17:08:53.865183 25812 net.cpp:111] Rrelu8 needs backward computation.
I0812 17:08:53.865188 25812 net.cpp:65] Creating Layer deconv2
I0812 17:08:53.865190 25812 net.cpp:228] deconv2 <- Rconv8
I0812 17:08:53.865195 25812 net.cpp:189] deconv2 -> deconv2
I0812 17:08:53.866226 25812 net.cpp:84] Top shape: 12 64 54 54 (2239488)
I0812 17:08:53.866232 25812 net.cpp:111] deconv2 needs backward computation.
I0812 17:08:53.866236 25812 net.cpp:65] Creating Layer relu_deconv2
I0812 17:08:53.866240 25812 net.cpp:228] relu_deconv2 <- deconv2
I0812 17:08:53.866245 25812 net.cpp:179] relu_deconv2 -> deconv2 (in-place)
I0812 17:08:53.866248 25812 net.cpp:84] Top shape: 12 64 54 54 (2239488)
I0812 17:08:53.866251 25812 net.cpp:111] relu_deconv2 needs backward computation.
I0812 17:08:53.866255 25812 net.cpp:65] Creating Layer deconv1
I0812 17:08:53.866257 25812 net.cpp:228] deconv1 <- deconv2
I0812 17:08:53.866261 25812 net.cpp:189] deconv1 -> deconv1
I0812 17:08:53.866400 25812 net.cpp:84] Top shape: 12 32 108 108 (4478976)
I0812 17:08:53.866405 25812 net.cpp:111] deconv1 needs backward computation.
I0812 17:08:53.866410 25812 net.cpp:65] Creating Layer relu_deconv1
I0812 17:08:53.866411 25812 net.cpp:228] relu_deconv1 <- deconv1
I0812 17:08:53.866415 25812 net.cpp:179] relu_deconv1 -> deconv1 (in-place)
I0812 17:08:53.866420 25812 net.cpp:84] Top shape: 12 32 108 108 (4478976)
I0812 17:08:53.866422 25812 net.cpp:111] relu_deconv1 needs backward computation.
I0812 17:08:53.866428 25812 net.cpp:65] Creating Layer deconv0
I0812 17:08:53.866430 25812 net.cpp:228] deconv0 <- deconv1
I0812 17:08:53.866435 25812 net.cpp:189] deconv0 -> deconv0
I0812 17:08:53.866457 25812 net.cpp:84] Top shape: 12 3 216 216 (1679616)
I0812 17:08:53.866461 25812 net.cpp:111] deconv0 needs backward computation.
I0812 17:08:53.866464 25812 net.cpp:65] Creating Layer loss
I0812 17:08:53.866467 25812 net.cpp:228] loss <- deconv0
I0812 17:08:53.866472 25812 net.cpp:228] loss <- target_ims
I0812 17:08:53.866482 25812 net.cpp:111] loss needs backward computation.
I0812 17:08:53.866493 25812 net.cpp:238] Collecting Learning Rate and Weight Decay.
…
    source: "/scr/r6/tgebru/inverting_conv/caffe_invert_alexnet/data/siggraph/tiny_summer_val_lmdb"
    mean_file: "/scr/r6/tgebru/timnit_caffe/data/ilsvrc12/imagenet_mean.binaryproto"
    batch_size: 64
    crop_size: 227
    mirror: false
    backend: LMDB
  }
}
layers {
  top: "target_ims"
  name: "target_ims"
  type: DATA
  data_param {
    source: "/scr/r6/tgebru/inverting_conv/caffe_invert_alexnet/data/siggraph/tiny_winter_val_lmdb"
    mean_file: "/scr/r6/tgebru/timnit_caffe/data/ilsvrc12/imagenet_mean.binaryproto"
    batch_size: 64
    crop_size: 216
    mirror: false
    backend: LMDB
  }
}
layers {
  bottom: "source_ims"
  top: "conv1"
  name: "conv1"
  type: CONVOLUTION
  blobs_lr: 0
  blobs_lr: 0
  weight_decay: 1
  weight_decay: 0
  convolution_param {
    num_output: 96
    kernel_size: 11
    stride: 4
    weight_filler {
      type: "gaussian"
      std: 0.01
    }
    bias_filler {
      type: "constant"
      value: 0
    }
  }
}
layers {
  bottom: "conv1"
  top: "conv1"
  name: "relu1"
  type: RELU
}
layers {
  bottom: "conv1"
  top: "pool1"
  name: "pool1"
  type: POOLING
  pooling_param {
    pool: MAX
    kernel_size: 3
    stride: 2
  }
}
layers {
  bottom: "pool1"
  top: "norm1"
  name: "norm1"
  type: LRN
  lrn_param {
    local_size: 5
    alpha: 0.0001
    beta: 0.75
  }
}
layers {
  bottom: "norm1"
  top: "Rconv6"
  name: "Rconv6"
  type: CONVOLUTION
  blobs_lr: 0
  blobs_lr: 0
  weight_decay: 1
  weight_decay: 0
  convolution_param {
    num_output: 256
    pad: 1
    kernel_size: 3
  }
}
layers {
  bottom: "Rconv6"
  top: "Rconv6"
  name: "Rrelu6"
  type: RELU
}
layers {
  bottom: "Rconv6"
  top: "Rconv7"
  name: "Rconv7"
  type: CONVOLUTION
  blobs_lr: 0
  blobs_lr: 0
  weight_decay: 1
  weight_decay: 0
  convolution_param {
    num_output: 256
    pad: 1
    kernel_size: 3
    group: 2
  }
}
layers {
  bottom: "Rconv7"
  top: "Rconv7"
  name: "Rrelu7"
  type: RELU
}
layers {
  bottom: "Rconv7"
  top: "Rconv8"
  name: "Rconv8"
  type: CONVOLUTION
  blobs_lr: 0
  blobs_lr: 0
  weight_decay: 1
  weight_decay: 0
  convolution_param {
    num_output: 256
    pad: 1
    kernel_size: 3
    group: 2
  }
}
layers {
  bottom: "Rconv8"
  top: "Rconv8"
  name: "Rrelu8"
  type: RELU
}
layers {
  bottom: "Rconv8"
  top: "deconv2"
  name: "deconv2"
  type: DECONVOLUTION
  blobs_lr: 0
  blobs_lr: 0
  weight_decay: 1
  weight_decay: 0
  deconvolution_param {
    pad: 2
    kernel_size: 5
    stride: 2
    output_height: 54
    output_width: 54
    output_channels: 64
  }
}
layers {
  bottom: "deconv2"
  top: "deconv2"
  name: "relu_deconv2"
  type: RELU
  relu_param {
    negative_slope: 0.3
  }
}
layers {
  bottom: "deconv2"
  top: "deconv1"
  name: "deconv1"
  type: DECONVOLUTION
  blobs_lr: 0
  blobs_lr: 0
  weight_decay: 1
  weight_decay: 0
  deconvolution_param {
    pad: 2
    kernel_size: 5
    stride: 2
    output_height: 108
    output_width: 108
    output_channels: 32
  }
}
layers {
  bottom: "deconv1"
  top: "deconv1"
  name: "relu_deconv1"
  type: RELU
  relu_param {
    negative_slope: 0.3
  }
}
layers {
  bottom: "deconv1"
  top: "deconv0"
  name: "deconv0"
  type: DECONVOLUTION
  blobs_lr: 0
  blobs_lr: 0
  weight_decay: 1
  weight_decay: 0
  deconvolution_param {
    pad: 2
    kernel_size: 5
    stride: 2
    output_height: 216
    output_width: 216
    output_channels: 3
  }
}
layers {
  bottom: "deconv0"
  bottom: "target_ims"
  name: "loss"
  type: EUCLIDEAN_LOSS
}
I0812 17:08:53.867241 25812 net.cpp:65] Creating Layer source_ims
I0812 17:08:53.867246 25812 net.cpp:189] source_ims -> source_ims
I0812 17:08:53.867329 25812 data_layer.cpp:223] Opening lmdb /scr/r6/tgebru/inverting_conv/caffe_invert_alexnet/data/siggraph/tiny_summer_val_lmdb
I0812 17:08:53.867516 25812 data_layer.cpp:285] output data size: 64,3,227,227
I0812 17:08:53.867521 25812 data_layer.cpp:304] Loading mean file from/scr/r6/tgebru/timnit_caffe/data/ilsvrc12/imagenet_mean.binaryproto
I0812 17:08:53.881628 25812 net.cpp:84] Top shape: 64 3 227 227 (9893568)
I0812 17:08:53.881645 25812 net.cpp:116] source_ims does not need backward computation.
I0812 17:08:53.881657 25812 net.cpp:65] Creating Layer target_ims
I0812 17:08:53.881664 25812 net.cpp:189] target_ims -> target_ims
I0812 17:08:53.881757 25812 data_layer.cpp:223] Opening lmdb /scr/r6/tgebru/inverting_conv/caffe_invert_alexnet/data/siggraph/tiny_winter_val_lmdb
I0812 17:08:53.881893 25812 data_layer.cpp:285] output data size: 64,3,216,216
I0812 17:08:53.881897 25812 data_layer.cpp:304] Loading mean file from/scr/r6/tgebru/timnit_caffe/data/ilsvrc12/imagenet_mean.binaryproto
I0812 17:08:53.894345 25812 net.cpp:84] Top shape: 64 3 216 216 (8957952)
I0812 17:08:53.894409 25812 net.cpp:116] target_ims does not need backward computation.
I0812 17:08:53.894426 25812 net.cpp:65] Creating Layer conv1
I0812 17:08:53.894431 25812 net.cpp:228] conv1 <- source_ims
I0812 17:08:53.894443 25812 net.cpp:189] conv1 -> conv1
I0812 17:08:53.895707 25812 net.cpp:84] Top shape: 64 96 55 55 (18585600)
I0812 17:08:53.895711 25812 net.cpp:116] conv1 does not need backward computation.
I0812 17:08:53.895716 25812 net.cpp:65] Creating Layer relu1
I0812 17:08:53.895720 25812 net.cpp:228] relu1 <- conv1
I0812 17:08:53.895725 25812 net.cpp:179] relu1 -> conv1 (in-place)
I0812 17:08:53.895730 25812 net.cpp:84] Top shape: 64 96 55 55 (18585600)
I0812 17:08:53.895732 25812 net.cpp:116] relu1 does not need backward computation.
I0812 17:08:53.895738 25812 net.cpp:65] Creating Layer pool1
I0812 17:08:53.895741 25812 net.cpp:228] pool1 <- conv1
I0812 17:08:53.895745 25812 net.cpp:189] pool1 -> pool1
I0812 17:08:53.895753 25812 net.cpp:84] Top shape: 64 96 27 27 (4478976)
I0812 17:08:53.895756 25812 net.cpp:116] pool1 does not need backward computation.
I0812 17:08:53.895762 25812 net.cpp:65] Creating Layer norm1
I0812 17:08:53.895764 25812 net.cpp:228] norm1 <- pool1
I0812 17:08:53.895769 25812 net.cpp:189] norm1 -> norm1
I0812 17:08:53.895776 25812 net.cpp:84] Top shape: 64 96 27 27 (4478976)
I0812 17:08:53.895779 25812 net.cpp:116] norm1 does not need backward computation.
I0812 17:08:53.895783 25812 net.cpp:65] Creating Layer Rconv6
I0812 17:08:53.895787 25812 net.cpp:228] Rconv6 <- norm1
I0812 17:08:53.895791 25812 net.cpp:189] Rconv6 -> Rconv6
I0812 17:08:53.896026 25812 net.cpp:84] Top shape: 64 256 27 27 (11943936)
I0812 17:08:53.896030 25812 net.cpp:116] Rconv6 does not need backward computation.
I0812 17:08:53.896034 25812 net.cpp:65] Creating Layer Rrelu6
I0812 17:08:53.896037 25812 net.cpp:228] Rrelu6 <- Rconv6
I0812 17:08:53.896042 25812 net.cpp:179] Rrelu6 -> Rconv6 (in-place)
I0812 17:08:53.896047 25812 net.cpp:84] Top shape: 64 256 27 27 (11943936)
I0812 17:08:53.896050 25812 net.cpp:116] Rrelu6 does not need backward computation.
I0812 17:08:53.896055 25812 net.cpp:65] Creating Layer Rconv7
I0812 17:08:53.896059 25812 net.cpp:228] Rconv7 <- Rconv6
I0812 17:08:53.896064 25812 net.cpp:189] Rconv7 -> Rconv7
I0812 17:08:53.896769 25812 net.cpp:84] Top shape: 64 256 27 27 (11943936)
I0812 17:08:53.896774 25812 net.cpp:116] Rconv7 does not need backward computation.
I0812 17:08:53.896778 25812 net.cpp:65] Creating Layer Rrelu7
I0812 17:08:53.896781 25812 net.cpp:228] Rrelu7 <- Rconv7
I0812 17:08:53.896786 25812 net.cpp:179] Rrelu7 -> Rconv7 (in-place)
I0812 17:08:53.896790 25812 net.cpp:84] Top shape: 64 256 27 27 (11943936)
I0812 17:08:53.896793 25812 net.cpp:116] Rrelu7 does not need backward computation.
I0812 17:08:53.896797 25812 net.cpp:65] Creating Layer Rconv8
I0812 17:08:53.896800 25812 net.cpp:228] Rconv8 <- Rconv7
I0812 17:08:53.896806 25812 net.cpp:189] Rconv8 -> Rconv8
I0812 17:08:53.897557 25812 net.cpp:84] Top shape: 64 256 27 27 (11943936)
I0812 17:08:53.897562 25812 net.cpp:116] Rconv8 does not need backward computation.
I0812 17:08:53.897567 25812 net.cpp:65] Creating Layer Rrelu8
I0812 17:08:53.897569 25812 net.cpp:228] Rrelu8 <- Rconv8
I0812 17:08:53.897573 25812 net.cpp:179] Rrelu8 -> Rconv8 (in-place)
I0812 17:08:53.897578 25812 net.cpp:84] Top shape: 64 256 27 27 (11943936)
I0812 17:08:53.897580 25812 net.cpp:116] Rrelu8 does not need backward computation.
I0812 17:08:53.897585 25812 net.cpp:65] Creating Layer deconv2
I0812 17:08:53.897588 25812 net.cpp:228] deconv2 <- Rconv8
I0812 17:08:53.897591 25812 net.cpp:189] deconv2 -> deconv2
I0812 17:08:53.898608 25812 net.cpp:84] Top shape: 64 64 54 54 (11943936)
I0812 17:08:53.898613 25812 net.cpp:116] deconv2 does not need backward computation.
I0812 17:08:53.898617 25812 net.cpp:65] Creating Layer relu_deconv2
I0812 17:08:53.898620 25812 net.cpp:228] relu_deconv2 <- deconv2
I0812 17:08:53.898625 25812 net.cpp:179] relu_deconv2 -> deconv2 (in-place)
I0812 17:08:53.898630 25812 net.cpp:84] Top shape: 64 64 54 54 (11943936)
I0812 17:08:53.898645 25812 net.cpp:116] relu_deconv2 does not need backward computation.
I0812 17:08:53.898650 25812 net.cpp:65] Creating Layer deconv1
I0812 17:08:53.898653 25812 net.cpp:228] deconv1 <- deconv2
I0812 17:08:53.898658 25812 net.cpp:189] deconv1 -> deconv1
I0812 17:08:53.898803 25812 net.cpp:84] Top shape: 64 32 108 108 (23887872)
I0812 17:08:53.898808 25812 net.cpp:116] deconv1 does not need backward computation.
I0812 17:08:53.898813 25812 net.cpp:65] Creating Layer relu_deconv1
I0812 17:08:53.898815 25812 net.cpp:228] relu_deconv1 <- deconv1
I0812 17:08:53.898819 25812 net.cpp:179] relu_deconv1 -> deconv1 (in-place)
I0812 17:08:53.898823 25812 net.cpp:84] Top shape: 64 32 108 108 (23887872)
I0812 17:08:53.898826 25812 net.cpp:116] relu_deconv1 does not need backward computation.
I0812 17:08:53.898833 25812 net.cpp:65] Creating Layer deconv0
I0812 17:08:53.898835 25812 net.cpp:228] deconv0 <- deconv1
I0812 17:08:53.898840 25812 net.cpp:189] deconv0 -> deconv0
I0812 17:08:53.898864 25812 net.cpp:84] Top shape: 64 3 216 216 (8957952)
I0812 17:08:53.898867 25812 net.cpp:116] deconv0 does not need backward computation.
I0812 17:08:53.898872 25812 net.cpp:65] Creating Layer loss
I0812 17:08:53.898875 25812 net.cpp:228] loss <- deconv0
I0812 17:08:53.898879 25812 net.cpp:228] loss <- target_ims
I0812 17:08:53.898885 25812 net.cpp:116] loss does not need backward computation.
I0812 17:08:53.898897 25812 net.cpp:238] Collecting Learning Rate and Weight Decay.
…
