…
    source: "/scr/r6/tgebru/inverting_conv/caffe_invert_alexnet/data/siggraph/tiny_winter_train_lmdb"
    mean_file: "/scr/r6/tgebru/timnit_caffe/data/ilsvrc12/imagenet_mean.binaryproto"
    batch_size: 12
    crop_size: 227
    mirror: false
    backend: LMDB
  }
}
layers {
  top: "target_ims"
  name: "target_ims"
  type: DATA
  data_param {
    source: "/scr/r6/tgebru/inverting_conv/caffe_invert_alexnet/data/siggraph/tiny_summer_train_lmdb"
    mean_file: "/scr/r6/tgebru/timnit_caffe/data/ilsvrc12/imagenet_mean.binaryproto"
    batch_size: 12
    crop_size: 216
    mirror: false
    backend: LMDB
  }
}
layers {
  bottom: "source_ims"
  top: "conv1"
  name: "conv1"
  type: CONVOLUTION
  blobs_lr: 0
  blobs_lr: 0
  weight_decay: 1
  weight_decay: 0
  convolution_param {
    num_output: 96
    kernel_size: 11
    stride: 4
    weight_filler {
      type: "gaussian"
      std: 0.01
    }
    bias_filler {
      type: "constant"
      value: 0
    }
  }
}
layers {
  bottom: "conv1"
  top: "conv1"
  name: "relu1"
  type: RELU
}
layers {
  bottom: "conv1"
  top: "pool1"
  name: "pool1"
  type: POOLING
  pooling_param {
    pool: MAX
    kernel_size: 3
    stride: 2
  }
}
layers {
  bottom: "pool1"
  top: "norm1"
  name: "norm1"
  type: LRN
  lrn_param {
    local_size: 5
    alpha: 0.0001
    beta: 0.75
  }
}
layers {
  bottom: "norm1"
  top: "Rconv6"
  name: "Rconv6"
  type: CONVOLUTION
  blobs_lr: 1
  blobs_lr: 2
  weight_decay: 1
  weight_decay: 0
  convolution_param {
    num_output: 256
    pad: 1
    kernel_size: 3
  }
}
layers {
  bottom: "Rconv6"
  top: "Rconv6"
  name: "Rrelu6"
  type: RELU
}
layers {
  bottom: "Rconv6"
  top: "Rconv7"
  name: "Rconv7"
  type: CONVOLUTION
  blobs_lr: 1
  blobs_lr: 2
  weight_decay: 1
  weight_decay: 0
  convolution_param {
    num_output: 256
    pad: 1
    kernel_size: 3
    group: 2
  }
}
layers {
  bottom: "Rconv7"
  top: "Rconv7"
  name: "Rrelu7"
  type: RELU
}
layers {
  bottom: "Rconv7"
  top: "Rconv8"
  name: "Rconv8"
  type: CONVOLUTION
  blobs_lr: 1
  blobs_lr: 2
  weight_decay: 1
  weight_decay: 0
  convolution_param {
    num_output: 256
    pad: 1
    kernel_size: 3
    group: 2
  }
}
layers {
  bottom: "Rconv8"
  top: "Rconv8"
  name: "Rrelu8"
  type: RELU
}
layers {
  bottom: "Rconv8"
  top: "deconv2"
  name: "deconv2"
  type: DECONVOLUTION
  blobs_lr: 1
  blobs_lr: 2
  weight_decay: 1
  weight_decay: 0
  deconvolution_param {
    pad: 2
    kernel_size: 5
    stride: 2
    output_height: 54
    output_width: 54
    output_channels: 64
  }
}
layers {
  bottom: "deconv2"
  top: "deconv2"
  name: "relu_deconv2"
  type: RELU
  relu_param {
    negative_slope: 0.3
  }
}
layers {
  bottom: "deconv2"
  top: "deconv1"
  name: "deconv1"
  type: DECONVOLUTION
  blobs_lr: 1
  blobs_lr: 2
  weight_decay: 1
  weight_decay: 0
  deconvolution_param {
    pad: 2
    kernel_size: 5
    stride: 2
    output_height: 108
    output_width: 108
    output_channels: 32
  }
}
layers {
  bottom: "deconv1"
  top: "deconv1"
  name: "relu_deconv1"
  type: RELU
  relu_param {
    negative_slope: 0.3
  }
}
layers {
  bottom: "deconv1"
  top: "deconv0"
  name: "deconv0"
  type: DECONVOLUTION
  blobs_lr: 1
  blobs_lr: 2
  weight_decay: 1
  weight_decay: 1
  deconvolution_param {
    pad: 2
    kernel_size: 5
    stride: 2
    output_height: 216
    output_width: 216
    output_channels: 3
  }
}
layers {
  bottom: "deconv0"
  bottom: "target_ims"
  name: "loss"
  type: EUCLIDEAN_LOSS
}
I0813 06:41:08.377110 30925 net.cpp:65] Creating Layer source_ims
I0813 06:41:08.377120 30925 net.cpp:189] source_ims -> source_ims
I0813 06:41:08.377235 30925 data_layer.cpp:223] Opening lmdb /scr/r6/tgebru/inverting_conv/caffe_invert_alexnet/data/siggraph/tiny_winter_train_lmdb
I0813 06:41:08.377449 30925 data_layer.cpp:285] output data size: 12,3,227,227
I0813 06:41:08.377456 30925 data_layer.cpp:304] Loading mean file from/scr/r6/tgebru/timnit_caffe/data/ilsvrc12/imagenet_mean.binaryproto
I0813 06:41:08.381960 30925 net.cpp:84] Top shape: 12 3 227 227 (1855044)
I0813 06:41:08.381969 30925 net.cpp:116] source_ims does not need backward computation.
I0813 06:41:08.381975 30925 net.cpp:65] Creating Layer target_ims
I0813 06:41:08.381979 30925 net.cpp:189] target_ims -> target_ims
I0813 06:41:08.382120 30925 data_layer.cpp:223] Opening lmdb /scr/r6/tgebru/inverting_conv/caffe_invert_alexnet/data/siggraph/tiny_summer_train_lmdb
I0813 06:41:08.382267 30925 data_layer.cpp:285] output data size: 12,3,216,216
I0813 06:41:08.382272 30925 data_layer.cpp:304] Loading mean file from/scr/r6/tgebru/timnit_caffe/data/ilsvrc12/imagenet_mean.binaryproto
I0813 06:41:08.386742 30925 net.cpp:84] Top shape: 12 3 216 216 (1679616)
I0813 06:41:08.386751 30925 net.cpp:116] target_ims does not need backward computation.
I0813 06:41:08.386762 30925 net.cpp:65] Creating Layer conv1
I0813 06:41:08.386766 30925 net.cpp:228] conv1 <- source_ims
I0813 06:41:08.386860 30925 net.cpp:189] conv1 -> conv1
I0813 06:41:08.388249 30925 net.cpp:84] Top shape: 12 96 55 55 (3484800)
I0813 06:41:08.388254 30925 net.cpp:116] conv1 does not need backward computation.
I0813 06:41:08.388259 30925 net.cpp:65] Creating Layer relu1
I0813 06:41:08.388263 30925 net.cpp:228] relu1 <- conv1
I0813 06:41:08.388267 30925 net.cpp:179] relu1 -> conv1 (in-place)
I0813 06:41:08.388278 30925 net.cpp:84] Top shape: 12 96 55 55 (3484800)
I0813 06:41:08.388280 30925 net.cpp:116] relu1 does not need backward computation.
I0813 06:41:08.388285 30925 net.cpp:65] Creating Layer pool1
I0813 06:41:08.388288 30925 net.cpp:228] pool1 <- conv1
I0813 06:41:08.388293 30925 net.cpp:189] pool1 -> pool1
I0813 06:41:08.388304 30925 net.cpp:84] Top shape: 12 96 27 27 (839808)
I0813 06:41:08.388309 30925 net.cpp:116] pool1 does not need backward computation.
I0813 06:41:08.388312 30925 net.cpp:65] Creating Layer norm1
I0813 06:41:08.388315 30925 net.cpp:228] norm1 <- pool1
I0813 06:41:08.388319 30925 net.cpp:189] norm1 -> norm1
I0813 06:41:08.388329 30925 net.cpp:84] Top shape: 12 96 27 27 (839808)
I0813 06:41:08.388331 30925 net.cpp:116] norm1 does not need backward computation.
I0813 06:41:08.388335 30925 net.cpp:65] Creating Layer Rconv6
I0813 06:41:08.388339 30925 net.cpp:228] Rconv6 <- norm1
I0813 06:41:08.388342 30925 net.cpp:189] Rconv6 -> Rconv6
I0813 06:41:08.388617 30925 net.cpp:84] Top shape: 12 256 27 27 (2239488)
I0813 06:41:08.388622 30925 net.cpp:111] Rconv6 needs backward computation.
I0813 06:41:08.388627 30925 net.cpp:65] Creating Layer Rrelu6
I0813 06:41:08.388629 30925 net.cpp:228] Rrelu6 <- Rconv6
I0813 06:41:08.388633 30925 net.cpp:179] Rrelu6 -> Rconv6 (in-place)
I0813 06:41:08.388638 30925 net.cpp:84] Top shape: 12 256 27 27 (2239488)
I0813 06:41:08.388641 30925 net.cpp:111] Rrelu6 needs backward computation.
I0813 06:41:08.388646 30925 net.cpp:65] Creating Layer Rconv7
I0813 06:41:08.388648 30925 net.cpp:228] Rconv7 <- Rconv6
I0813 06:41:08.388653 30925 net.cpp:189] Rconv7 -> Rconv7
I0813 06:41:08.389437 30925 net.cpp:84] Top shape: 12 256 27 27 (2239488)
I0813 06:41:08.389442 30925 net.cpp:111] Rconv7 needs backward computation.
I0813 06:41:08.389446 30925 net.cpp:65] Creating Layer Rrelu7
I0813 06:41:08.389467 30925 net.cpp:228] Rrelu7 <- Rconv7
I0813 06:41:08.389472 30925 net.cpp:179] Rrelu7 -> Rconv7 (in-place)
I0813 06:41:08.389477 30925 net.cpp:84] Top shape: 12 256 27 27 (2239488)
I0813 06:41:08.389479 30925 net.cpp:111] Rrelu7 needs backward computation.
I0813 06:41:08.389482 30925 net.cpp:65] Creating Layer Rconv8
I0813 06:41:08.389485 30925 net.cpp:228] Rconv8 <- Rconv7
I0813 06:41:08.389489 30925 net.cpp:189] Rconv8 -> Rconv8
I0813 06:41:08.390269 30925 net.cpp:84] Top shape: 12 256 27 27 (2239488)
I0813 06:41:08.390274 30925 net.cpp:111] Rconv8 needs backward computation.
I0813 06:41:08.390277 30925 net.cpp:65] Creating Layer Rrelu8
I0813 06:41:08.390280 30925 net.cpp:228] Rrelu8 <- Rconv8
I0813 06:41:08.390283 30925 net.cpp:179] Rrelu8 -> Rconv8 (in-place)
I0813 06:41:08.390288 30925 net.cpp:84] Top shape: 12 256 27 27 (2239488)
I0813 06:41:08.390290 30925 net.cpp:111] Rrelu8 needs backward computation.
I0813 06:41:08.390295 30925 net.cpp:65] Creating Layer deconv2
I0813 06:41:08.390297 30925 net.cpp:228] deconv2 <- Rconv8
I0813 06:41:08.390300 30925 net.cpp:189] deconv2 -> deconv2
I0813 06:41:08.391335 30925 net.cpp:84] Top shape: 12 64 54 54 (2239488)
I0813 06:41:08.391340 30925 net.cpp:111] deconv2 needs backward computation.
I0813 06:41:08.391345 30925 net.cpp:65] Creating Layer relu_deconv2
I0813 06:41:08.391347 30925 net.cpp:228] relu_deconv2 <- deconv2
I0813 06:41:08.391351 30925 net.cpp:179] relu_deconv2 -> deconv2 (in-place)
I0813 06:41:08.391356 30925 net.cpp:84] Top shape: 12 64 54 54 (2239488)
I0813 06:41:08.391360 30925 net.cpp:111] relu_deconv2 needs backward computation.
I0813 06:41:08.391362 30925 net.cpp:65] Creating Layer deconv1
I0813 06:41:08.391366 30925 net.cpp:228] deconv1 <- deconv2
I0813 06:41:08.391369 30925 net.cpp:189] deconv1 -> deconv1
I0813 06:41:08.391517 30925 net.cpp:84] Top shape: 12 32 108 108 (4478976)
I0813 06:41:08.391522 30925 net.cpp:111] deconv1 needs backward computation.
I0813 06:41:08.391525 30925 net.cpp:65] Creating Layer relu_deconv1
I0813 06:41:08.391528 30925 net.cpp:228] relu_deconv1 <- deconv1
I0813 06:41:08.391532 30925 net.cpp:179] relu_deconv1 -> deconv1 (in-place)
I0813 06:41:08.391537 30925 net.cpp:84] Top shape: 12 32 108 108 (4478976)
I0813 06:41:08.391540 30925 net.cpp:111] relu_deconv1 needs backward computation.
I0813 06:41:08.391546 30925 net.cpp:65] Creating Layer deconv0
I0813 06:41:08.391547 30925 net.cpp:228] deconv0 <- deconv1
I0813 06:41:08.391551 30925 net.cpp:189] deconv0 -> deconv0
I0813 06:41:08.391576 30925 net.cpp:84] Top shape: 12 3 216 216 (1679616)
I0813 06:41:08.391578 30925 net.cpp:111] deconv0 needs backward computation.
I0813 06:41:08.391582 30925 net.cpp:65] Creating Layer loss
I0813 06:41:08.391584 30925 net.cpp:228] loss <- deconv0
I0813 06:41:08.391588 30925 net.cpp:228] loss <- target_ims
I0813 06:41:08.391597 30925 net.cpp:111] loss needs backward computation.
I0813 06:41:08.391610 30925 net.cpp:238] Collecting Learning Rate and Weight Decay.
…
    source: "/scr/r6/tgebru/inverting_conv/caffe_invert_alexnet/data/siggraph/tiny_winter_val_lmdb"
    mean_file: "/scr/r6/tgebru/timnit_caffe/data/ilsvrc12/imagenet_mean.binaryproto"
    batch_size: 2
    crop_size: 227
    mirror: false
    backend: LMDB
  }
}
layers {
  top: "target_ims"
  name: "target_ims"
  type: DATA
  data_param {
    source: "/scr/r6/tgebru/inverting_conv/caffe_invert_alexnet/data/siggraph/tiny_summer_val_lmdb"
    mean_file: "/scr/r6/tgebru/timnit_caffe/data/ilsvrc12/imagenet_mean.binaryproto"
    batch_size: 2
    crop_size: 216
    mirror: false
    backend: LMDB
  }
}
layers {
  bottom: "source_ims"
  top: "conv1"
  name: "conv1"
  type: CONVOLUTION
  blobs_lr: 0
  blobs_lr: 0
  weight_decay: 1
  weight_decay: 0
  convolution_param {
    num_output: 96
    kernel_size: 11
    stride: 4
    weight_filler {
      type: "gaussian"
      std: 0.01
    }
    bias_filler {
      type: "constant"
      value: 0
    }
  }
}
layers {
  bottom: "conv1"
  top: "conv1"
  name: "relu1"
  type: RELU
}
layers {
  bottom: "conv1"
  top: "pool1"
  name: "pool1"
  type: POOLING
  pooling_param {
    pool: MAX
    kernel_size: 3
    stride: 2
  }
}
layers {
  bottom: "pool1"
  top: "norm1"
  name: "norm1"
  type: LRN
  lrn_param {
    local_size: 5
    alpha: 0.0001
    beta: 0.75
  }
}
layers {
  bottom: "norm1"
  top: "Rconv6"
  name: "Rconv6"
  type: CONVOLUTION
  blobs_lr: 0
  blobs_lr: 0
  weight_decay: 1
  weight_decay: 0
  convolution_param {
    num_output: 256
    pad: 1
    kernel_size: 3
  }
}
layers {
  bottom: "Rconv6"
  top: "Rconv6"
  name: "Rrelu6"
  type: RELU
}
layers {
  bottom: "Rconv6"
  top: "Rconv7"
  name: "Rconv7"
  type: CONVOLUTION
  blobs_lr: 0
  blobs_lr: 0
  weight_decay: 1
  weight_decay: 0
  convolution_param {
    num_output: 256
    pad: 1
    kernel_size: 3
    group: 2
  }
}
layers {
  bottom: "Rconv7"
  top: "Rconv7"
  name: "Rrelu7"
  type: RELU
}
layers {
  bottom: "Rconv7"
  top: "Rconv8"
  name: "Rconv8"
  type: CONVOLUTION
  blobs_lr: 0
  blobs_lr: 0
  weight_decay: 1
  weight_decay: 0
  convolution_param {
    num_output: 256
    pad: 1
    kernel_size: 3
    group: 2
  }
}
layers {
  bottom: "Rconv8"
  top: "Rconv8"
  name: "Rrelu8"
  type: RELU
}
layers {
  bottom: "Rconv8"
  top: "deconv2"
  name: "deconv2"
  type: DECONVOLUTION
  blobs_lr: 0
  blobs_lr: 0
  weight_decay: 1
  weight_decay: 0
  deconvolution_param {
    pad: 2
    kernel_size: 5
    stride: 2
    output_height: 54
    output_width: 54
    output_channels: 64
  }
}
layers {
  bottom: "deconv2"
  top: "deconv2"
  name: "relu_deconv2"
  type: RELU
  relu_param {
    negative_slope: 0.3
  }
}
layers {
  bottom: "deconv2"
  top: "deconv1"
  name: "deconv1"
  type: DECONVOLUTION
  blobs_lr: 0
  blobs_lr: 0
  weight_decay: 1
  weight_decay: 0
  deconvolution_param {
    pad: 2
    kernel_size: 5
    stride: 2
    output_height: 108
    output_width: 108
    output_channels: 32
  }
}
layers {
  bottom: "deconv1"
  top: "deconv1"
  name: "relu_deconv1"
  type: RELU
  relu_param {
    negative_slope: 0.3
  }
}
layers {
  bottom: "deconv1"
  top: "deconv0"
  name: "deconv0"
  type: DECONVOLUTION
  blobs_lr: 0
  blobs_lr: 0
  weight_decay: 1
  weight_decay: 0
  deconvolution_param {
    pad: 2
    kernel_size: 5
    stride: 2
    output_height: 216
    output_width: 216
    output_channels: 3
  }
}
layers {
  bottom: "deconv0"
  bottom: "target_ims"
  name: "loss"
  type: EUCLIDEAN_LOSS
}
I0813 06:41:08.392315 30925 net.cpp:65] Creating Layer source_ims
I0813 06:41:08.392321 30925 net.cpp:189] source_ims -> source_ims
I0813 06:41:08.392376 30925 data_layer.cpp:223] Opening lmdb /scr/r6/tgebru/inverting_conv/caffe_invert_alexnet/data/siggraph/tiny_winter_val_lmdb
I0813 06:41:08.392576 30925 data_layer.cpp:285] output data size: 2,3,227,227
I0813 06:41:08.392581 30925 data_layer.cpp:304] Loading mean file from/scr/r6/tgebru/timnit_caffe/data/ilsvrc12/imagenet_mean.binaryproto
I0813 06:41:08.394845 30925 net.cpp:84] Top shape: 2 3 227 227 (309174)
I0813 06:41:08.394851 30925 net.cpp:116] source_ims does not need backward computation.
I0813 06:41:08.394858 30925 net.cpp:65] Creating Layer target_ims
I0813 06:41:08.394862 30925 net.cpp:189] target_ims -> target_ims
I0813 06:41:08.394908 30925 data_layer.cpp:223] Opening lmdb /scr/r6/tgebru/inverting_conv/caffe_invert_alexnet/data/siggraph/tiny_summer_val_lmdb
I0813 06:41:08.395004 30925 data_layer.cpp:285] output data size: 2,3,216,216
I0813 06:41:08.395009 30925 data_layer.cpp:304] Loading mean file from/scr/r6/tgebru/timnit_caffe/data/ilsvrc12/imagenet_mean.binaryproto
I0813 06:41:08.397156 30925 net.cpp:84] Top shape: 2 3 216 216 (279936)
I0813 06:41:08.397176 30925 net.cpp:116] target_ims does not need backward computation.
I0813 06:41:08.397182 30925 net.cpp:65] Creating Layer conv1
I0813 06:41:08.397186 30925 net.cpp:228] conv1 <- source_ims
I0813 06:41:08.397192 30925 net.cpp:189] conv1 -> conv1
I0813 06:41:08.398437 30925 net.cpp:84] Top shape: 2 96 55 55 (580800)
I0813 06:41:08.398440 30925 net.cpp:116] conv1 does not need backward computation.
I0813 06:41:08.398444 30925 net.cpp:65] Creating Layer relu1
I0813 06:41:08.398447 30925 net.cpp:228] relu1 <- conv1
I0813 06:41:08.398452 30925 net.cpp:179] relu1 -> conv1 (in-place)
I0813 06:41:08.398458 30925 net.cpp:84] Top shape: 2 96 55 55 (580800)
I0813 06:41:08.398459 30925 net.cpp:116] relu1 does not need backward computation.
I0813 06:41:08.398464 30925 net.cpp:65] Creating Layer pool1
I0813 06:41:08.398466 30925 net.cpp:228] pool1 <- conv1
I0813 06:41:08.398470 30925 net.cpp:189] pool1 -> pool1
I0813 06:41:08.398476 30925 net.cpp:84] Top shape: 2 96 27 27 (139968)
I0813 06:41:08.398479 30925 net.cpp:116] pool1 does not need backward computation.
I0813 06:41:08.398483 30925 net.cpp:65] Creating Layer norm1
I0813 06:41:08.398486 30925 net.cpp:228] norm1 <- pool1
I0813 06:41:08.398490 30925 net.cpp:189] norm1 -> norm1
I0813 06:41:08.398496 30925 net.cpp:84] Top shape: 2 96 27 27 (139968)
I0813 06:41:08.398499 30925 net.cpp:116] norm1 does not need backward computation.
I0813 06:41:08.398502 30925 net.cpp:65] Creating Layer Rconv6
I0813 06:41:08.398505 30925 net.cpp:228] Rconv6 <- norm1
I0813 06:41:08.398509 30925 net.cpp:189] Rconv6 -> Rconv6
I0813 06:41:08.399087 30925 net.cpp:84] Top shape: 2 256 27 27 (373248)
I0813 06:41:08.399091 30925 net.cpp:116] Rconv6 does not need backward computation.
I0813 06:41:08.399096 30925 net.cpp:65] Creating Layer Rrelu6
I0813 06:41:08.399098 30925 net.cpp:228] Rrelu6 <- Rconv6
I0813 06:41:08.399101 30925 net.cpp:179] Rrelu6 -> Rconv6 (in-place)
I0813 06:41:08.399106 30925 net.cpp:84] Top shape: 2 256 27 27 (373248)
I0813 06:41:08.399109 30925 net.cpp:116] Rrelu6 does not need backward computation.
I0813 06:41:08.399113 30925 net.cpp:65] Creating Layer Rconv7
I0813 06:41:08.399116 30925 net.cpp:228] Rconv7 <- Rconv6
I0813 06:41:08.399121 30925 net.cpp:189] Rconv7 -> Rconv7
I0813 06:41:08.399830 30925 net.cpp:84] Top shape: 2 256 27 27 (373248)
I0813 06:41:08.399835 30925 net.cpp:116] Rconv7 does not need backward computation.
I0813 06:41:08.399839 30925 net.cpp:65] Creating Layer Rrelu7
I0813 06:41:08.399842 30925 net.cpp:228] Rrelu7 <- Rconv7
I0813 06:41:08.399845 30925 net.cpp:179] Rrelu7 -> Rconv7 (in-place)
I0813 06:41:08.399850 30925 net.cpp:84] Top shape: 2 256 27 27 (373248)
I0813 06:41:08.399852 30925 net.cpp:116] Rrelu7 does not need backward computation.
I0813 06:41:08.399857 30925 net.cpp:65] Creating Layer Rconv8
I0813 06:41:08.399858 30925 net.cpp:228] Rconv8 <- Rconv7
I0813 06:41:08.399863 30925 net.cpp:189] Rconv8 -> Rconv8
I0813 06:41:08.400575 30925 net.cpp:84] Top shape: 2 256 27 27 (373248)
I0813 06:41:08.400579 30925 net.cpp:116] Rconv8 does not need backward computation.
I0813 06:41:08.400583 30925 net.cpp:65] Creating Layer Rrelu8
I0813 06:41:08.400586 30925 net.cpp:228] Rrelu8 <- Rconv8
I0813 06:41:08.400589 30925 net.cpp:179] Rrelu8 -> Rconv8 (in-place)
I0813 06:41:08.400593 30925 net.cpp:84] Top shape: 2 256 27 27 (373248)
I0813 06:41:08.400596 30925 net.cpp:116] Rrelu8 does not need backward computation.
I0813 06:41:08.400600 30925 net.cpp:65] Creating Layer deconv2
I0813 06:41:08.400602 30925 net.cpp:228] deconv2 <- Rconv8
I0813 06:41:08.400606 30925 net.cpp:189] deconv2 -> deconv2
I0813 06:41:08.401600 30925 net.cpp:84] Top shape: 2 64 54 54 (373248)
I0813 06:41:08.401605 30925 net.cpp:116] deconv2 does not need backward computation.
I0813 06:41:08.401608 30925 net.cpp:65] Creating Layer relu_deconv2
I0813 06:41:08.401612 30925 net.cpp:228] relu_deconv2 <- deconv2
I0813 06:41:08.401615 30925 net.cpp:179] relu_deconv2 -> deconv2 (in-place)
I0813 06:41:08.401620 30925 net.cpp:84] Top shape: 2 64 54 54 (373248)
I0813 06:41:08.401623 30925 net.cpp:116] relu_deconv2 does not need backward computation.
I0813 06:41:08.401638 30925 net.cpp:65] Creating Layer deconv1
I0813 06:41:08.401640 30925 net.cpp:228] deconv1 <- deconv2
I0813 06:41:08.401644 30925 net.cpp:189] deconv1 -> deconv1
I0813 06:41:08.401777 30925 net.cpp:84] Top shape: 2 32 108 108 (746496)
I0813 06:41:08.401782 30925 net.cpp:116] deconv1 does not need backward computation.
I0813 06:41:08.401785 30925 net.cpp:65] Creating Layer relu_deconv1
I0813 06:41:08.401788 30925 net.cpp:228] relu_deconv1 <- deconv1
I0813 06:41:08.401793 30925 net.cpp:179] relu_deconv1 -> deconv1 (in-place)
I0813 06:41:08.401796 30925 net.cpp:84] Top shape: 2 32 108 108 (746496)
I0813 06:41:08.401799 30925 net.cpp:116] relu_deconv1 does not need backward computation.
I0813 06:41:08.401804 30925 net.cpp:65] Creating Layer deconv0
I0813 06:41:08.401808 30925 net.cpp:228] deconv0 <- deconv1
I0813 06:41:08.401811 30925 net.cpp:189] deconv0 -> deconv0
I0813 06:41:08.401830 30925 net.cpp:84] Top shape: 2 3 216 216 (279936)
I0813 06:41:08.401834 30925 net.cpp:116] deconv0 does not need backward computation.
I0813 06:41:08.401836 30925 net.cpp:65] Creating Layer loss
I0813 06:41:08.401839 30925 net.cpp:228] loss <- deconv0
I0813 06:41:08.401842 30925 net.cpp:228] loss <- target_ims
I0813 06:41:08.401846 30925 net.cpp:116] loss does not need backward computation.
I0813 06:41:08.401859 30925 net.cpp:238] Collecting Learning Rate and Weight Decay.
…
