…
    source: "/scr/r6/tgebru/inverting_conv/caffe_invert_alexnet/data/siggraph/tiny_summer_train_lmdb"
    mean_file: "/scr/r6/tgebru/timnit_caffe/data/ilsvrc12/imagenet_mean.binaryproto"
    batch_size: 12
    crop_size: 227
    mirror: false
    backend: LMDB
  }
}
layers {
  top: "target_ims"
  name: "target_ims"
  type: DATA
  data_param {
    source: "/scr/r6/tgebru/inverting_conv/caffe_invert_alexnet/data/siggraph/tiny_winter_train_lmdb"
    mean_file: "/scr/r6/tgebru/timnit_caffe/data/ilsvrc12/imagenet_mean.binaryproto"
    batch_size: 12
    crop_size: 216
    mirror: false
    backend: LMDB
  }
}
layers {
  bottom: "source_ims"
  top: "conv1"
  name: "conv1"
  type: CONVOLUTION
  blobs_lr: 0
  blobs_lr: 0
  weight_decay: 1
  weight_decay: 0
  convolution_param {
    num_output: 96
    kernel_size: 11
    stride: 4
    weight_filler {
      type: "gaussian"
      std: 0.01
    }
    bias_filler {
      type: "constant"
      value: 0
    }
  }
}
layers {
  bottom: "conv1"
  top: "conv1"
  name: "relu1"
  type: RELU
}
layers {
  bottom: "conv1"
  top: "pool1"
  name: "pool1"
  type: POOLING
  pooling_param {
    pool: MAX
    kernel_size: 3
    stride: 2
  }
}
layers {
  bottom: "pool1"
  top: "norm1"
  name: "norm1"
  type: LRN
  lrn_param {
    local_size: 5
    alpha: 0.0001
    beta: 0.75
  }
}
layers {
  bottom: "norm1"
  top: "Rconv6"
  name: "Rconv6"
  type: CONVOLUTION
  blobs_lr: 1
  blobs_lr: 2
  weight_decay: 1
  weight_decay: 0
  convolution_param {
    num_output: 256
    pad: 1
    kernel_size: 3
  }
}
layers {
  bottom: "Rconv6"
  top: "Rconv6"
  name: "Rrelu6"
  type: RELU
}
layers {
  bottom: "Rconv6"
  top: "Rconv7"
  name: "Rconv7"
  type: CONVOLUTION
  blobs_lr: 1
  blobs_lr: 2
  weight_decay: 1
  weight_decay: 0
  convolution_param {
    num_output: 256
    pad: 1
    kernel_size: 3
    group: 2
  }
}
layers {
  bottom: "Rconv7"
  top: "Rconv7"
  name: "Rrelu7"
  type: RELU
}
layers {
  bottom: "Rconv7"
  top: "Rconv8"
  name: "Rconv8"
  type: CONVOLUTION
  blobs_lr: 1
  blobs_lr: 2
  weight_decay: 1
  weight_decay: 0
  convolution_param {
    num_output: 256
    pad: 1
    kernel_size: 3
    group: 2
  }
}
layers {
  bottom: "Rconv8"
  top: "Rconv8"
  name: "Rrelu8"
  type: RELU
}
layers {
  bottom: "Rconv8"
  top: "deconv2"
  name: "deconv2"
  type: DECONVOLUTION
  blobs_lr: 1
  blobs_lr: 2
  weight_decay: 1
  weight_decay: 0
  deconvolution_param {
    pad: 2
    kernel_size: 5
    stride: 2
    output_height: 54
    output_width: 54
    output_channels: 64
  }
}
layers {
  bottom: "deconv2"
  top: "deconv2"
  name: "relu_deconv2"
  type: RELU
  relu_param {
    negative_slope: 0.3
  }
}
layers {
  bottom: "deconv2"
  top: "deconv1"
  name: "deconv1"
  type: DECONVOLUTION
  blobs_lr: 1
  blobs_lr: 2
  weight_decay: 1
  weight_decay: 0
  deconvolution_param {
    pad: 2
    kernel_size: 5
    stride: 2
    output_height: 108
    output_width: 108
    output_channels: 32
  }
}
layers {
  bottom: "deconv1"
  top: "deconv1"
  name: "relu_deconv1"
  type: RELU
  relu_param {
    negative_slope: 0.3
  }
}
layers {
  bottom: "deconv1"
  top: "deconv0"
  name: "deconv0"
  type: DECONVOLUTION
  blobs_lr: 1
  blobs_lr: 2
  weight_decay: 1
  weight_decay: 1
  deconvolution_param {
    pad: 2
    kernel_size: 5
    stride: 2
    output_height: 216
    output_width: 216
    output_channels: 3
  }
}
layers {
  bottom: "deconv0"
  bottom: "target_ims"
  name: "loss"
  type: EUCLIDEAN_LOSS
}
I0812 23:03:43.150882 20150 net.cpp:65] Creating Layer source_ims
I0812 23:03:43.150892 20150 net.cpp:189] source_ims -> source_ims
I0812 23:03:43.150992 20150 data_layer.cpp:223] Opening lmdb /scr/r6/tgebru/inverting_conv/caffe_invert_alexnet/data/siggraph/tiny_summer_train_lmdb
I0812 23:03:43.151202 20150 data_layer.cpp:285] output data size: 12,3,227,227
I0812 23:03:43.151209 20150 data_layer.cpp:304] Loading mean file from/scr/r6/tgebru/timnit_caffe/data/ilsvrc12/imagenet_mean.binaryproto
I0812 23:03:43.156421 20150 net.cpp:84] Top shape: 12 3 227 227 (1855044)
I0812 23:03:43.156430 20150 net.cpp:116] source_ims does not need backward computation.
I0812 23:03:43.156435 20150 net.cpp:65] Creating Layer target_ims
I0812 23:03:43.156440 20150 net.cpp:189] target_ims -> target_ims
I0812 23:03:43.156615 20150 data_layer.cpp:223] Opening lmdb /scr/r6/tgebru/inverting_conv/caffe_invert_alexnet/data/siggraph/tiny_winter_train_lmdb
I0812 23:03:43.156771 20150 data_layer.cpp:285] output data size: 12,3,216,216
I0812 23:03:43.156776 20150 data_layer.cpp:304] Loading mean file from/scr/r6/tgebru/timnit_caffe/data/ilsvrc12/imagenet_mean.binaryproto
I0812 23:03:43.160763 20150 net.cpp:84] Top shape: 12 3 216 216 (1679616)
I0812 23:03:43.160771 20150 net.cpp:116] target_ims does not need backward computation.
I0812 23:03:43.160783 20150 net.cpp:65] Creating Layer conv1
I0812 23:03:43.160786 20150 net.cpp:228] conv1 <- source_ims
I0812 23:03:43.160850 20150 net.cpp:189] conv1 -> conv1
I0812 23:03:43.162175 20150 net.cpp:84] Top shape: 12 96 55 55 (3484800)
I0812 23:03:43.162183 20150 net.cpp:116] conv1 does not need backward computation.
I0812 23:03:43.162189 20150 net.cpp:65] Creating Layer relu1
I0812 23:03:43.162191 20150 net.cpp:228] relu1 <- conv1
I0812 23:03:43.162196 20150 net.cpp:179] relu1 -> conv1 (in-place)
I0812 23:03:43.162205 20150 net.cpp:84] Top shape: 12 96 55 55 (3484800)
I0812 23:03:43.162209 20150 net.cpp:116] relu1 does not need backward computation.
I0812 23:03:43.162214 20150 net.cpp:65] Creating Layer pool1
I0812 23:03:43.162216 20150 net.cpp:228] pool1 <- conv1
I0812 23:03:43.162221 20150 net.cpp:189] pool1 -> pool1
I0812 23:03:43.162233 20150 net.cpp:84] Top shape: 12 96 27 27 (839808)
I0812 23:03:43.162236 20150 net.cpp:116] pool1 does not need backward computation.
I0812 23:03:43.162241 20150 net.cpp:65] Creating Layer norm1
I0812 23:03:43.162243 20150 net.cpp:228] norm1 <- pool1
I0812 23:03:43.162248 20150 net.cpp:189] norm1 -> norm1
I0812 23:03:43.162257 20150 net.cpp:84] Top shape: 12 96 27 27 (839808)
I0812 23:03:43.162261 20150 net.cpp:116] norm1 does not need backward computation.
I0812 23:03:43.162264 20150 net.cpp:65] Creating Layer Rconv6
I0812 23:03:43.162268 20150 net.cpp:228] Rconv6 <- norm1
I0812 23:03:43.162272 20150 net.cpp:189] Rconv6 -> Rconv6
I0812 23:03:43.162530 20150 net.cpp:84] Top shape: 12 256 27 27 (2239488)
I0812 23:03:43.162534 20150 net.cpp:111] Rconv6 needs backward computation.
I0812 23:03:43.162539 20150 net.cpp:65] Creating Layer Rrelu6
I0812 23:03:43.162542 20150 net.cpp:228] Rrelu6 <- Rconv6
I0812 23:03:43.162547 20150 net.cpp:179] Rrelu6 -> Rconv6 (in-place)
I0812 23:03:43.162551 20150 net.cpp:84] Top shape: 12 256 27 27 (2239488)
I0812 23:03:43.162554 20150 net.cpp:111] Rrelu6 needs backward computation.
I0812 23:03:43.162559 20150 net.cpp:65] Creating Layer Rconv7
I0812 23:03:43.162562 20150 net.cpp:228] Rconv7 <- Rconv6
I0812 23:03:43.162566 20150 net.cpp:189] Rconv7 -> Rconv7
I0812 23:03:43.163288 20150 net.cpp:84] Top shape: 12 256 27 27 (2239488)
I0812 23:03:43.163293 20150 net.cpp:111] Rconv7 needs backward computation.
I0812 23:03:43.163298 20150 net.cpp:65] Creating Layer Rrelu7
I0812 23:03:43.163322 20150 net.cpp:228] Rrelu7 <- Rconv7
I0812 23:03:43.163327 20150 net.cpp:179] Rrelu7 -> Rconv7 (in-place)
I0812 23:03:43.163332 20150 net.cpp:84] Top shape: 12 256 27 27 (2239488)
I0812 23:03:43.163336 20150 net.cpp:111] Rrelu7 needs backward computation.
I0812 23:03:43.163339 20150 net.cpp:65] Creating Layer Rconv8
I0812 23:03:43.163341 20150 net.cpp:228] Rconv8 <- Rconv7
I0812 23:03:43.163346 20150 net.cpp:189] Rconv8 -> Rconv8
I0812 23:03:43.164180 20150 net.cpp:84] Top shape: 12 256 27 27 (2239488)
I0812 23:03:43.164183 20150 net.cpp:111] Rconv8 needs backward computation.
I0812 23:03:43.164188 20150 net.cpp:65] Creating Layer Rrelu8
I0812 23:03:43.164191 20150 net.cpp:228] Rrelu8 <- Rconv8
I0812 23:03:43.164194 20150 net.cpp:179] Rrelu8 -> Rconv8 (in-place)
I0812 23:03:43.164199 20150 net.cpp:84] Top shape: 12 256 27 27 (2239488)
I0812 23:03:43.164201 20150 net.cpp:111] Rrelu8 needs backward computation.
I0812 23:03:43.164206 20150 net.cpp:65] Creating Layer deconv2
I0812 23:03:43.164208 20150 net.cpp:228] deconv2 <- Rconv8
I0812 23:03:43.164212 20150 net.cpp:189] deconv2 -> deconv2
I0812 23:03:43.165292 20150 net.cpp:84] Top shape: 12 64 54 54 (2239488)
I0812 23:03:43.165297 20150 net.cpp:111] deconv2 needs backward computation.
I0812 23:03:43.165302 20150 net.cpp:65] Creating Layer relu_deconv2
I0812 23:03:43.165304 20150 net.cpp:228] relu_deconv2 <- deconv2
I0812 23:03:43.165309 20150 net.cpp:179] relu_deconv2 -> deconv2 (in-place)
I0812 23:03:43.165313 20150 net.cpp:84] Top shape: 12 64 54 54 (2239488)
I0812 23:03:43.165316 20150 net.cpp:111] relu_deconv2 needs backward computation.
I0812 23:03:43.165320 20150 net.cpp:65] Creating Layer deconv1
I0812 23:03:43.165323 20150 net.cpp:228] deconv1 <- deconv2
I0812 23:03:43.165328 20150 net.cpp:189] deconv1 -> deconv1
I0812 23:03:43.165482 20150 net.cpp:84] Top shape: 12 32 108 108 (4478976)
I0812 23:03:43.165488 20150 net.cpp:111] deconv1 needs backward computation.
I0812 23:03:43.165491 20150 net.cpp:65] Creating Layer relu_deconv1
I0812 23:03:43.165494 20150 net.cpp:228] relu_deconv1 <- deconv1
I0812 23:03:43.165498 20150 net.cpp:179] relu_deconv1 -> deconv1 (in-place)
I0812 23:03:43.165503 20150 net.cpp:84] Top shape: 12 32 108 108 (4478976)
I0812 23:03:43.165505 20150 net.cpp:111] relu_deconv1 needs backward computation.
I0812 23:03:43.165511 20150 net.cpp:65] Creating Layer deconv0
I0812 23:03:43.165513 20150 net.cpp:228] deconv0 <- deconv1
I0812 23:03:43.165518 20150 net.cpp:189] deconv0 -> deconv0
I0812 23:03:43.165561 20150 net.cpp:84] Top shape: 12 3 216 216 (1679616)
I0812 23:03:43.165565 20150 net.cpp:111] deconv0 needs backward computation.
I0812 23:03:43.165568 20150 net.cpp:65] Creating Layer loss
I0812 23:03:43.165571 20150 net.cpp:228] loss <- deconv0
I0812 23:03:43.165575 20150 net.cpp:228] loss <- target_ims
I0812 23:03:43.165582 20150 net.cpp:111] loss needs backward computation.
I0812 23:03:43.165596 20150 net.cpp:238] Collecting Learning Rate and Weight Decay.
…
    source: "/scr/r6/tgebru/inverting_conv/caffe_invert_alexnet/data/siggraph/tiny_summer_val_lmdb"
    mean_file: "/scr/r6/tgebru/timnit_caffe/data/ilsvrc12/imagenet_mean.binaryproto"
    batch_size: 64
    crop_size: 227
    mirror: false
    backend: LMDB
  }
}
layers {
  top: "target_ims"
  name: "target_ims"
  type: DATA
  data_param {
    source: "/scr/r6/tgebru/inverting_conv/caffe_invert_alexnet/data/siggraph/tiny_winter_val_lmdb"
    mean_file: "/scr/r6/tgebru/timnit_caffe/data/ilsvrc12/imagenet_mean.binaryproto"
    batch_size: 64
    crop_size: 216
    mirror: false
    backend: LMDB
  }
}
layers {
  bottom: "source_ims"
  top: "conv1"
  name: "conv1"
  type: CONVOLUTION
  blobs_lr: 0
  blobs_lr: 0
  weight_decay: 1
  weight_decay: 0
  convolution_param {
    num_output: 96
    kernel_size: 11
    stride: 4
    weight_filler {
      type: "gaussian"
      std: 0.01
    }
    bias_filler {
      type: "constant"
      value: 0
    }
  }
}
layers {
  bottom: "conv1"
  top: "conv1"
  name: "relu1"
  type: RELU
}
layers {
  bottom: "conv1"
  top: "pool1"
  name: "pool1"
  type: POOLING
  pooling_param {
    pool: MAX
    kernel_size: 3
    stride: 2
  }
}
layers {
  bottom: "pool1"
  top: "norm1"
  name: "norm1"
  type: LRN
  lrn_param {
    local_size: 5
    alpha: 0.0001
    beta: 0.75
  }
}
layers {
  bottom: "norm1"
  top: "Rconv6"
  name: "Rconv6"
  type: CONVOLUTION
  blobs_lr: 0
  blobs_lr: 0
  weight_decay: 1
  weight_decay: 0
  convolution_param {
    num_output: 256
    pad: 1
    kernel_size: 3
  }
}
layers {
  bottom: "Rconv6"
  top: "Rconv6"
  name: "Rrelu6"
  type: RELU
}
layers {
  bottom: "Rconv6"
  top: "Rconv7"
  name: "Rconv7"
  type: CONVOLUTION
  blobs_lr: 0
  blobs_lr: 0
  weight_decay: 1
  weight_decay: 0
  convolution_param {
    num_output: 256
    pad: 1
    kernel_size: 3
    group: 2
  }
}
layers {
  bottom: "Rconv7"
  top: "Rconv7"
  name: "Rrelu7"
  type: RELU
}
layers {
  bottom: "Rconv7"
  top: "Rconv8"
  name: "Rconv8"
  type: CONVOLUTION
  blobs_lr: 0
  blobs_lr: 0
  weight_decay: 1
  weight_decay: 0
  convolution_param {
    num_output: 256
    pad: 1
    kernel_size: 3
    group: 2
  }
}
layers {
  bottom: "Rconv8"
  top: "Rconv8"
  name: "Rrelu8"
  type: RELU
}
layers {
  bottom: "Rconv8"
  top: "deconv2"
  name: "deconv2"
  type: DECONVOLUTION
  blobs_lr: 0
  blobs_lr: 0
  weight_decay: 1
  weight_decay: 0
  deconvolution_param {
    pad: 2
    kernel_size: 5
    stride: 2
    output_height: 54
    output_width: 54
    output_channels: 64
  }
}
layers {
  bottom: "deconv2"
  top: "deconv2"
  name: "relu_deconv2"
  type: RELU
  relu_param {
    negative_slope: 0.3
  }
}
layers {
  bottom: "deconv2"
  top: "deconv1"
  name: "deconv1"
  type: DECONVOLUTION
  blobs_lr: 0
  blobs_lr: 0
  weight_decay: 1
  weight_decay: 0
  deconvolution_param {
    pad: 2
    kernel_size: 5
    stride: 2
    output_height: 108
    output_width: 108
    output_channels: 32
  }
}
layers {
  bottom: "deconv1"
  top: "deconv1"
  name: "relu_deconv1"
  type: RELU
  relu_param {
    negative_slope: 0.3
  }
}
layers {
  bottom: "deconv1"
  top: "deconv0"
  name: "deconv0"
  type: DECONVOLUTION
  blobs_lr: 0
  blobs_lr: 0
  weight_decay: 1
  weight_decay: 0
  deconvolution_param {
    pad: 2
    kernel_size: 5
    stride: 2
    output_height: 216
    output_width: 216
    output_channels: 3
  }
}
layers {
  bottom: "deconv0"
  bottom: "target_ims"
  name: "loss"
  type: EUCLIDEAN_LOSS
}
I0812 23:03:43.166344 20150 net.cpp:65] Creating Layer source_ims
I0812 23:03:43.166352 20150 net.cpp:189] source_ims -> source_ims
I0812 23:03:43.166406 20150 data_layer.cpp:223] Opening lmdb /scr/r6/tgebru/inverting_conv/caffe_invert_alexnet/data/siggraph/tiny_summer_val_lmdb
I0812 23:03:43.166630 20150 data_layer.cpp:285] output data size: 64,3,227,227
I0812 23:03:43.166633 20150 data_layer.cpp:304] Loading mean file from/scr/r6/tgebru/timnit_caffe/data/ilsvrc12/imagenet_mean.binaryproto
I0812 23:03:43.181006 20150 net.cpp:84] Top shape: 64 3 227 227 (9893568)
I0812 23:03:43.181025 20150 net.cpp:116] source_ims does not need backward computation.
I0812 23:03:43.181036 20150 net.cpp:65] Creating Layer target_ims
I0812 23:03:43.181041 20150 net.cpp:189] target_ims -> target_ims
I0812 23:03:43.181123 20150 data_layer.cpp:223] Opening lmdb /scr/r6/tgebru/inverting_conv/caffe_invert_alexnet/data/siggraph/tiny_winter_val_lmdb
I0812 23:03:43.181242 20150 data_layer.cpp:285] output data size: 64,3,216,216
I0812 23:03:43.181247 20150 data_layer.cpp:304] Loading mean file from/scr/r6/tgebru/timnit_caffe/data/ilsvrc12/imagenet_mean.binaryproto
I0812 23:03:43.193922 20150 net.cpp:84] Top shape: 64 3 216 216 (8957952)
I0812 23:03:43.193970 20150 net.cpp:116] target_ims does not need backward computation.
I0812 23:03:43.193984 20150 net.cpp:65] Creating Layer conv1
I0812 23:03:43.193989 20150 net.cpp:228] conv1 <- source_ims
I0812 23:03:43.193996 20150 net.cpp:189] conv1 -> conv1
I0812 23:03:43.195257 20150 net.cpp:84] Top shape: 64 96 55 55 (18585600)
I0812 23:03:43.195261 20150 net.cpp:116] conv1 does not need backward computation.
I0812 23:03:43.195266 20150 net.cpp:65] Creating Layer relu1
I0812 23:03:43.195269 20150 net.cpp:228] relu1 <- conv1
I0812 23:03:43.195273 20150 net.cpp:179] relu1 -> conv1 (in-place)
I0812 23:03:43.195279 20150 net.cpp:84] Top shape: 64 96 55 55 (18585600)
I0812 23:03:43.195281 20150 net.cpp:116] relu1 does not need backward computation.
I0812 23:03:43.195287 20150 net.cpp:65] Creating Layer pool1
I0812 23:03:43.195289 20150 net.cpp:228] pool1 <- conv1
I0812 23:03:43.195293 20150 net.cpp:189] pool1 -> pool1
I0812 23:03:43.195302 20150 net.cpp:84] Top shape: 64 96 27 27 (4478976)
I0812 23:03:43.195304 20150 net.cpp:116] pool1 does not need backward computation.
I0812 23:03:43.195309 20150 net.cpp:65] Creating Layer norm1
I0812 23:03:43.195312 20150 net.cpp:228] norm1 <- pool1
I0812 23:03:43.195315 20150 net.cpp:189] norm1 -> norm1
I0812 23:03:43.195322 20150 net.cpp:84] Top shape: 64 96 27 27 (4478976)
I0812 23:03:43.195325 20150 net.cpp:116] norm1 does not need backward computation.
I0812 23:03:43.195328 20150 net.cpp:65] Creating Layer Rconv6
I0812 23:03:43.195332 20150 net.cpp:228] Rconv6 <- norm1
I0812 23:03:43.195336 20150 net.cpp:189] Rconv6 -> Rconv6
I0812 23:03:43.195572 20150 net.cpp:84] Top shape: 64 256 27 27 (11943936)
I0812 23:03:43.195576 20150 net.cpp:116] Rconv6 does not need backward computation.
I0812 23:03:43.195581 20150 net.cpp:65] Creating Layer Rrelu6
I0812 23:03:43.195585 20150 net.cpp:228] Rrelu6 <- Rconv6
I0812 23:03:43.195588 20150 net.cpp:179] Rrelu6 -> Rconv6 (in-place)
I0812 23:03:43.195593 20150 net.cpp:84] Top shape: 64 256 27 27 (11943936)
I0812 23:03:43.195595 20150 net.cpp:116] Rrelu6 does not need backward computation.
I0812 23:03:43.195600 20150 net.cpp:65] Creating Layer Rconv7
I0812 23:03:43.195603 20150 net.cpp:228] Rconv7 <- Rconv6
I0812 23:03:43.195607 20150 net.cpp:189] Rconv7 -> Rconv7
I0812 23:03:43.196435 20150 net.cpp:84] Top shape: 64 256 27 27 (11943936)
I0812 23:03:43.196440 20150 net.cpp:116] Rconv7 does not need backward computation.
I0812 23:03:43.196445 20150 net.cpp:65] Creating Layer Rrelu7
I0812 23:03:43.196447 20150 net.cpp:228] Rrelu7 <- Rconv7
I0812 23:03:43.196451 20150 net.cpp:179] Rrelu7 -> Rconv7 (in-place)
I0812 23:03:43.196455 20150 net.cpp:84] Top shape: 64 256 27 27 (11943936)
I0812 23:03:43.196458 20150 net.cpp:116] Rrelu7 does not need backward computation.
I0812 23:03:43.196462 20150 net.cpp:65] Creating Layer Rconv8
I0812 23:03:43.196465 20150 net.cpp:228] Rconv8 <- Rconv7
I0812 23:03:43.196468 20150 net.cpp:189] Rconv8 -> Rconv8
I0812 23:03:43.197302 20150 net.cpp:84] Top shape: 64 256 27 27 (11943936)
I0812 23:03:43.197307 20150 net.cpp:116] Rconv8 does not need backward computation.
I0812 23:03:43.197311 20150 net.cpp:65] Creating Layer Rrelu8
I0812 23:03:43.197314 20150 net.cpp:228] Rrelu8 <- Rconv8
I0812 23:03:43.197317 20150 net.cpp:179] Rrelu8 -> Rconv8 (in-place)
I0812 23:03:43.197322 20150 net.cpp:84] Top shape: 64 256 27 27 (11943936)
I0812 23:03:43.197324 20150 net.cpp:116] Rrelu8 does not need backward computation.
I0812 23:03:43.197330 20150 net.cpp:65] Creating Layer deconv2
I0812 23:03:43.197332 20150 net.cpp:228] deconv2 <- Rconv8
I0812 23:03:43.197336 20150 net.cpp:189] deconv2 -> deconv2
I0812 23:03:43.198422 20150 net.cpp:84] Top shape: 64 64 54 54 (11943936)
I0812 23:03:43.198427 20150 net.cpp:116] deconv2 does not need backward computation.
I0812 23:03:43.198432 20150 net.cpp:65] Creating Layer relu_deconv2
I0812 23:03:43.198436 20150 net.cpp:228] relu_deconv2 <- deconv2
I0812 23:03:43.198439 20150 net.cpp:179] relu_deconv2 -> deconv2 (in-place)
I0812 23:03:43.198444 20150 net.cpp:84] Top shape: 64 64 54 54 (11943936)
I0812 23:03:43.198458 20150 net.cpp:116] relu_deconv2 does not need backward computation.
I0812 23:03:43.198463 20150 net.cpp:65] Creating Layer deconv1
I0812 23:03:43.198467 20150 net.cpp:228] deconv1 <- deconv2
I0812 23:03:43.198470 20150 net.cpp:189] deconv1 -> deconv1
I0812 23:03:43.198621 20150 net.cpp:84] Top shape: 64 32 108 108 (23887872)
I0812 23:03:43.198626 20150 net.cpp:116] deconv1 does not need backward computation.
I0812 23:03:43.198631 20150 net.cpp:65] Creating Layer relu_deconv1
I0812 23:03:43.198633 20150 net.cpp:228] relu_deconv1 <- deconv1
I0812 23:03:43.198637 20150 net.cpp:179] relu_deconv1 -> deconv1 (in-place)
I0812 23:03:43.198640 20150 net.cpp:84] Top shape: 64 32 108 108 (23887872)
I0812 23:03:43.198643 20150 net.cpp:116] relu_deconv1 does not need backward computation.
I0812 23:03:43.198648 20150 net.cpp:65] Creating Layer deconv0
I0812 23:03:43.198652 20150 net.cpp:228] deconv0 <- deconv1
I0812 23:03:43.198655 20150 net.cpp:189] deconv0 -> deconv0
I0812 23:03:43.198678 20150 net.cpp:84] Top shape: 64 3 216 216 (8957952)
I0812 23:03:43.198681 20150 net.cpp:116] deconv0 does not need backward computation.
I0812 23:03:43.198685 20150 net.cpp:65] Creating Layer loss
I0812 23:03:43.198688 20150 net.cpp:228] loss <- deconv0
I0812 23:03:43.198691 20150 net.cpp:228] loss <- target_ims
I0812 23:03:43.198696 20150 net.cpp:116] loss does not need backward computation.
I0812 23:03:43.198709 20150 net.cpp:238] Collecting Learning Rate and Weight Decay.
…
