…
    source: "/scr/r6/tgebru/inverting_conv/caffe_invert_alexnet/data/siggraph/tiny_summer_train_lmdb"
    mean_file: "/scr/r6/tgebru/timnit_caffe/data/ilsvrc12/imagenet_mean.binaryproto"
    batch_size: 12
    crop_size: 227
    mirror: false
    backend: LMDB
  }
}
layers {
  top: "target_ims"
  name: "target_ims"
  type: DATA
  data_param {
    source: "/scr/r6/tgebru/inverting_conv/caffe_invert_alexnet/data/siggraph/tiny_summer_train_lmdb"
    mean_file: "/scr/r6/tgebru/timnit_caffe/data/ilsvrc12/imagenet_mean.binaryproto"
    batch_size: 12
    crop_size: 216
    mirror: false
    backend: LMDB
  }
}
layers {
  bottom: "source_ims"
  top: "conv1"
  name: "conv1"
  type: CONVOLUTION
  blobs_lr: 0
  blobs_lr: 0
  weight_decay: 1
  weight_decay: 0
  convolution_param {
    num_output: 96
    kernel_size: 11
    stride: 4
    weight_filler {
      type: "gaussian"
      std: 0.01
    }
    bias_filler {
      type: "constant"
      value: 0
    }
  }
}
layers {
  bottom: "conv1"
  top: "conv1"
  name: "relu1"
  type: RELU
}
layers {
  bottom: "conv1"
  top: "pool1"
  name: "pool1"
  type: POOLING
  pooling_param {
    pool: MAX
    kernel_size: 3
    stride: 2
  }
}
layers {
  bottom: "pool1"
  top: "norm1"
  name: "norm1"
  type: LRN
  lrn_param {
    local_size: 5
    alpha: 0.0001
    beta: 0.75
  }
}
layers {
  bottom: "norm1"
  top: "Rconv6"
  name: "Rconv6"
  type: CONVOLUTION
  blobs_lr: 1
  blobs_lr: 2
  weight_decay: 1
  weight_decay: 0
  convolution_param {
    num_output: 256
    pad: 1
    kernel_size: 3
  }
}
layers {
  bottom: "Rconv6"
  top: "Rconv6"
  name: "Rrelu6"
  type: RELU
}
layers {
  bottom: "Rconv6"
  top: "Rconv7"
  name: "Rconv7"
  type: CONVOLUTION
  blobs_lr: 1
  blobs_lr: 2
  weight_decay: 1
  weight_decay: 0
  convolution_param {
    num_output: 256
    pad: 1
    kernel_size: 3
    group: 2
  }
}
layers {
  bottom: "Rconv7"
  top: "Rconv7"
  name: "Rrelu7"
  type: RELU
}
layers {
  bottom: "Rconv7"
  top: "Rconv8"
  name: "Rconv8"
  type: CONVOLUTION
  blobs_lr: 1
  blobs_lr: 2
  weight_decay: 1
  weight_decay: 0
  convolution_param {
    num_output: 256
    pad: 1
    kernel_size: 3
    group: 2
  }
}
layers {
  bottom: "Rconv8"
  top: "Rconv8"
  name: "Rrelu8"
  type: RELU
}
layers {
  bottom: "Rconv8"
  top: "deconv2"
  name: "deconv2"
  type: DECONVOLUTION
  blobs_lr: 1
  blobs_lr: 2
  weight_decay: 1
  weight_decay: 0
  deconvolution_param {
    pad: 2
    kernel_size: 5
    stride: 2
    output_height: 54
    output_width: 54
    output_channels: 64
  }
}
layers {
  bottom: "deconv2"
  top: "deconv2"
  name: "relu_deconv2"
  type: RELU
  relu_param {
    negative_slope: 0.3
  }
}
layers {
  bottom: "deconv2"
  top: "deconv1"
  name: "deconv1"
  type: DECONVOLUTION
  blobs_lr: 1
  blobs_lr: 2
  weight_decay: 1
  weight_decay: 0
  deconvolution_param {
    pad: 2
    kernel_size: 5
    stride: 2
    output_height: 108
    output_width: 108
    output_channels: 32
  }
}
layers {
  bottom: "deconv1"
  top: "deconv1"
  name: "relu_deconv1"
  type: RELU
  relu_param {
    negative_slope: 0.3
  }
}
layers {
  bottom: "deconv1"
  top: "deconv0"
  name: "deconv0"
  type: DECONVOLUTION
  blobs_lr: 1
  blobs_lr: 2
  weight_decay: 1
  weight_decay: 1
  deconvolution_param {
    pad: 2
    kernel_size: 5
    stride: 2
    output_height: 216
    output_width: 216
    output_channels: 3
  }
}
layers {
  bottom: "deconv0"
  bottom: "target_ims"
  name: "loss"
  type: EUCLIDEAN_LOSS
}
I0812 17:39:05.837978  4735 net.cpp:65] Creating Layer source_ims
I0812 17:39:05.837988  4735 net.cpp:189] source_ims -> source_ims
I0812 17:39:05.838106  4735 data_layer.cpp:223] Opening lmdb /scr/r6/tgebru/inverting_conv/caffe_invert_alexnet/data/siggraph/tiny_summer_train_lmdb
I0812 17:39:05.838325  4735 data_layer.cpp:285] output data size: 12,3,227,227
I0812 17:39:05.838332  4735 data_layer.cpp:304] Loading mean file from/scr/r6/tgebru/timnit_caffe/data/ilsvrc12/imagenet_mean.binaryproto
I0812 17:39:05.842869  4735 net.cpp:84] Top shape: 12 3 227 227 (1855044)
I0812 17:39:05.842876  4735 net.cpp:116] source_ims does not need backward computation.
I0812 17:39:05.842882  4735 net.cpp:65] Creating Layer target_ims
I0812 17:39:05.842886  4735 net.cpp:189] target_ims -> target_ims
I0812 17:39:05.843050  4735 data_layer.cpp:223] Opening lmdb /scr/r6/tgebru/inverting_conv/caffe_invert_alexnet/data/siggraph/tiny_summer_train_lmdb
I0812 17:39:05.843173  4735 data_layer.cpp:285] output data size: 12,3,216,216
I0812 17:39:05.843178  4735 data_layer.cpp:304] Loading mean file from/scr/r6/tgebru/timnit_caffe/data/ilsvrc12/imagenet_mean.binaryproto
I0812 17:39:05.847669  4735 net.cpp:84] Top shape: 12 3 216 216 (1679616)
I0812 17:39:05.847678  4735 net.cpp:116] target_ims does not need backward computation.
I0812 17:39:05.847689  4735 net.cpp:65] Creating Layer conv1
I0812 17:39:05.847693  4735 net.cpp:228] conv1 <- source_ims
I0812 17:39:05.847728  4735 net.cpp:189] conv1 -> conv1
I0812 17:39:05.849050  4735 net.cpp:84] Top shape: 12 96 55 55 (3484800)
I0812 17:39:05.849056  4735 net.cpp:116] conv1 does not need backward computation.
I0812 17:39:05.849062  4735 net.cpp:65] Creating Layer relu1
I0812 17:39:05.849066  4735 net.cpp:228] relu1 <- conv1
I0812 17:39:05.849071  4735 net.cpp:179] relu1 -> conv1 (in-place)
I0812 17:39:05.849081  4735 net.cpp:84] Top shape: 12 96 55 55 (3484800)
I0812 17:39:05.849082  4735 net.cpp:116] relu1 does not need backward computation.
I0812 17:39:05.849089  4735 net.cpp:65] Creating Layer pool1
I0812 17:39:05.849092  4735 net.cpp:228] pool1 <- conv1
I0812 17:39:05.849097  4735 net.cpp:189] pool1 -> pool1
I0812 17:39:05.849109  4735 net.cpp:84] Top shape: 12 96 27 27 (839808)
I0812 17:39:05.849112  4735 net.cpp:116] pool1 does not need backward computation.
I0812 17:39:05.849118  4735 net.cpp:65] Creating Layer norm1
I0812 17:39:05.849122  4735 net.cpp:228] norm1 <- pool1
I0812 17:39:05.849125  4735 net.cpp:189] norm1 -> norm1
I0812 17:39:05.849134  4735 net.cpp:84] Top shape: 12 96 27 27 (839808)
I0812 17:39:05.849138  4735 net.cpp:116] norm1 does not need backward computation.
I0812 17:39:05.849143  4735 net.cpp:65] Creating Layer Rconv6
I0812 17:39:05.849145  4735 net.cpp:228] Rconv6 <- norm1
I0812 17:39:05.849149  4735 net.cpp:189] Rconv6 -> Rconv6
I0812 17:39:05.849323  4735 net.cpp:84] Top shape: 12 256 27 27 (2239488)
I0812 17:39:05.849326  4735 net.cpp:111] Rconv6 needs backward computation.
I0812 17:39:05.849331  4735 net.cpp:65] Creating Layer Rrelu6
I0812 17:39:05.849335  4735 net.cpp:228] Rrelu6 <- Rconv6
I0812 17:39:05.849339  4735 net.cpp:179] Rrelu6 -> Rconv6 (in-place)
I0812 17:39:05.849344  4735 net.cpp:84] Top shape: 12 256 27 27 (2239488)
I0812 17:39:05.849346  4735 net.cpp:111] Rrelu6 needs backward computation.
I0812 17:39:05.849351  4735 net.cpp:65] Creating Layer Rconv7
I0812 17:39:05.849354  4735 net.cpp:228] Rconv7 <- Rconv6
I0812 17:39:05.849359  4735 net.cpp:189] Rconv7 -> Rconv7
I0812 17:39:05.850148  4735 net.cpp:84] Top shape: 12 256 27 27 (2239488)
I0812 17:39:05.850154  4735 net.cpp:111] Rconv7 needs backward computation.
I0812 17:39:05.850159  4735 net.cpp:65] Creating Layer Rrelu7
I0812 17:39:05.850162  4735 net.cpp:228] Rrelu7 <- Rconv7
I0812 17:39:05.850189  4735 net.cpp:179] Rrelu7 -> Rconv7 (in-place)
I0812 17:39:05.850194  4735 net.cpp:84] Top shape: 12 256 27 27 (2239488)
I0812 17:39:05.850198  4735 net.cpp:111] Rrelu7 needs backward computation.
I0812 17:39:05.850203  4735 net.cpp:65] Creating Layer Rconv8
I0812 17:39:05.850204  4735 net.cpp:228] Rconv8 <- Rconv7
I0812 17:39:05.850208  4735 net.cpp:189] Rconv8 -> Rconv8
I0812 17:39:05.851004  4735 net.cpp:84] Top shape: 12 256 27 27 (2239488)
I0812 17:39:05.851009  4735 net.cpp:111] Rconv8 needs backward computation.
I0812 17:39:05.851014  4735 net.cpp:65] Creating Layer Rrelu8
I0812 17:39:05.851017  4735 net.cpp:228] Rrelu8 <- Rconv8
I0812 17:39:05.851022  4735 net.cpp:179] Rrelu8 -> Rconv8 (in-place)
I0812 17:39:05.851025  4735 net.cpp:84] Top shape: 12 256 27 27 (2239488)
I0812 17:39:05.851027  4735 net.cpp:111] Rrelu8 needs backward computation.
I0812 17:39:05.851032  4735 net.cpp:65] Creating Layer deconv2
I0812 17:39:05.851035  4735 net.cpp:228] deconv2 <- Rconv8
I0812 17:39:05.851039  4735 net.cpp:189] deconv2 -> deconv2
I0812 17:39:05.852141  4735 net.cpp:84] Top shape: 12 64 54 54 (2239488)
I0812 17:39:05.852146  4735 net.cpp:111] deconv2 needs backward computation.
I0812 17:39:05.852151  4735 net.cpp:65] Creating Layer relu_deconv2
I0812 17:39:05.852155  4735 net.cpp:228] relu_deconv2 <- deconv2
I0812 17:39:05.852159  4735 net.cpp:179] relu_deconv2 -> deconv2 (in-place)
I0812 17:39:05.852164  4735 net.cpp:84] Top shape: 12 64 54 54 (2239488)
I0812 17:39:05.852166  4735 net.cpp:111] relu_deconv2 needs backward computation.
I0812 17:39:05.852171  4735 net.cpp:65] Creating Layer deconv1
I0812 17:39:05.852174  4735 net.cpp:228] deconv1 <- deconv2
I0812 17:39:05.852177  4735 net.cpp:189] deconv1 -> deconv1
I0812 17:39:05.852324  4735 net.cpp:84] Top shape: 12 32 108 108 (4478976)
I0812 17:39:05.852327  4735 net.cpp:111] deconv1 needs backward computation.
I0812 17:39:05.852332  4735 net.cpp:65] Creating Layer relu_deconv1
I0812 17:39:05.852334  4735 net.cpp:228] relu_deconv1 <- deconv1
I0812 17:39:05.852339  4735 net.cpp:179] relu_deconv1 -> deconv1 (in-place)
I0812 17:39:05.852344  4735 net.cpp:84] Top shape: 12 32 108 108 (4478976)
I0812 17:39:05.852346  4735 net.cpp:111] relu_deconv1 needs backward computation.
I0812 17:39:05.852352  4735 net.cpp:65] Creating Layer deconv0
I0812 17:39:05.852355  4735 net.cpp:228] deconv0 <- deconv1
I0812 17:39:05.852358  4735 net.cpp:189] deconv0 -> deconv0
I0812 17:39:05.852383  4735 net.cpp:84] Top shape: 12 3 216 216 (1679616)
I0812 17:39:05.852386  4735 net.cpp:111] deconv0 needs backward computation.
I0812 17:39:05.852391  4735 net.cpp:65] Creating Layer loss
I0812 17:39:05.852393  4735 net.cpp:228] loss <- deconv0
I0812 17:39:05.852397  4735 net.cpp:228] loss <- target_ims
I0812 17:39:05.852406  4735 net.cpp:111] loss needs backward computation.
I0812 17:39:05.852419  4735 net.cpp:238] Collecting Learning Rate and Weight Decay.
…
    source: "/scr/r6/tgebru/inverting_conv/caffe_invert_alexnet/data/siggraph/tiny_summer_val_lmdb"
    mean_file: "/scr/r6/tgebru/timnit_caffe/data/ilsvrc12/imagenet_mean.binaryproto"
    batch_size: 2
    crop_size: 227
    mirror: false
    backend: LMDB
  }
}
layers {
  top: "target_ims"
  name: "target_ims"
  type: DATA
  data_param {
    source: "/scr/r6/tgebru/inverting_conv/caffe_invert_alexnet/data/siggraph/tiny_summer_val_lmdb"
    mean_file: "/scr/r6/tgebru/timnit_caffe/data/ilsvrc12/imagenet_mean.binaryproto"
    batch_size: 2
    crop_size: 216
    mirror: false
    backend: LMDB
  }
}
layers {
  bottom: "source_ims"
  top: "conv1"
  name: "conv1"
  type: CONVOLUTION
  blobs_lr: 0
  blobs_lr: 0
  weight_decay: 1
  weight_decay: 0
  convolution_param {
    num_output: 96
    kernel_size: 11
    stride: 4
    weight_filler {
      type: "gaussian"
      std: 0.01
    }
    bias_filler {
      type: "constant"
      value: 0
    }
  }
}
layers {
  bottom: "conv1"
  top: "conv1"
  name: "relu1"
  type: RELU
}
layers {
  bottom: "conv1"
  top: "pool1"
  name: "pool1"
  type: POOLING
  pooling_param {
    pool: MAX
    kernel_size: 3
    stride: 2
  }
}
layers {
  bottom: "pool1"
  top: "norm1"
  name: "norm1"
  type: LRN
  lrn_param {
    local_size: 5
    alpha: 0.0001
    beta: 0.75
  }
}
layers {
  bottom: "norm1"
  top: "Rconv6"
  name: "Rconv6"
  type: CONVOLUTION
  blobs_lr: 0
  blobs_lr: 0
  weight_decay: 1
  weight_decay: 0
  convolution_param {
    num_output: 256
    pad: 1
    kernel_size: 3
  }
}
layers {
  bottom: "Rconv6"
  top: "Rconv6"
  name: "Rrelu6"
  type: RELU
}
layers {
  bottom: "Rconv6"
  top: "Rconv7"
  name: "Rconv7"
  type: CONVOLUTION
  blobs_lr: 0
  blobs_lr: 0
  weight_decay: 1
  weight_decay: 0
  convolution_param {
    num_output: 256
    pad: 1
    kernel_size: 3
    group: 2
  }
}
layers {
  bottom: "Rconv7"
  top: "Rconv7"
  name: "Rrelu7"
  type: RELU
}
layers {
  bottom: "Rconv7"
  top: "Rconv8"
  name: "Rconv8"
  type: CONVOLUTION
  blobs_lr: 0
  blobs_lr: 0
  weight_decay: 1
  weight_decay: 0
  convolution_param {
    num_output: 256
    pad: 1
    kernel_size: 3
    group: 2
  }
}
layers {
  bottom: "Rconv8"
  top: "Rconv8"
  name: "Rrelu8"
  type: RELU
}
layers {
  bottom: "Rconv8"
  top: "deconv2"
  name: "deconv2"
  type: DECONVOLUTION
  blobs_lr: 0
  blobs_lr: 0
  weight_decay: 1
  weight_decay: 0
  deconvolution_param {
    pad: 2
    kernel_size: 5
    stride: 2
    output_height: 54
    output_width: 54
    output_channels: 64
  }
}
layers {
  bottom: "deconv2"
  top: "deconv2"
  name: "relu_deconv2"
  type: RELU
  relu_param {
    negative_slope: 0.3
  }
}
layers {
  bottom: "deconv2"
  top: "deconv1"
  name: "deconv1"
  type: DECONVOLUTION
  blobs_lr: 0
  blobs_lr: 0
  weight_decay: 1
  weight_decay: 0
  deconvolution_param {
    pad: 2
    kernel_size: 5
    stride: 2
    output_height: 108
    output_width: 108
    output_channels: 32
  }
}
layers {
  bottom: "deconv1"
  top: "deconv1"
  name: "relu_deconv1"
  type: RELU
  relu_param {
    negative_slope: 0.3
  }
}
layers {
  bottom: "deconv1"
  top: "deconv0"
  name: "deconv0"
  type: DECONVOLUTION
  blobs_lr: 0
  blobs_lr: 0
  weight_decay: 1
  weight_decay: 0
  deconvolution_param {
    pad: 2
    kernel_size: 5
    stride: 2
    output_height: 216
    output_width: 216
    output_channels: 3
  }
}
layers {
  bottom: "deconv0"
  bottom: "target_ims"
  name: "loss"
  type: EUCLIDEAN_LOSS
}
I0812 17:39:05.853155  4735 net.cpp:65] Creating Layer source_ims
I0812 17:39:05.853162  4735 net.cpp:189] source_ims -> source_ims
I0812 17:39:05.853219  4735 data_layer.cpp:223] Opening lmdb /scr/r6/tgebru/inverting_conv/caffe_invert_alexnet/data/siggraph/tiny_summer_val_lmdb
I0812 17:39:05.853433  4735 data_layer.cpp:285] output data size: 2,3,227,227
I0812 17:39:05.853438  4735 data_layer.cpp:304] Loading mean file from/scr/r6/tgebru/timnit_caffe/data/ilsvrc12/imagenet_mean.binaryproto
I0812 17:39:05.856358  4735 net.cpp:84] Top shape: 2 3 227 227 (309174)
I0812 17:39:05.856364  4735 net.cpp:116] source_ims does not need backward computation.
I0812 17:39:05.856370  4735 net.cpp:65] Creating Layer target_ims
I0812 17:39:05.856374  4735 net.cpp:189] target_ims -> target_ims
I0812 17:39:05.856417  4735 data_layer.cpp:223] Opening lmdb /scr/r6/tgebru/inverting_conv/caffe_invert_alexnet/data/siggraph/tiny_summer_val_lmdb
I0812 17:39:05.856487  4735 data_layer.cpp:285] output data size: 2,3,216,216
I0812 17:39:05.856489  4735 data_layer.cpp:304] Loading mean file from/scr/r6/tgebru/timnit_caffe/data/ilsvrc12/imagenet_mean.binaryproto
I0812 17:39:05.858764  4735 net.cpp:84] Top shape: 2 3 216 216 (279936)
I0812 17:39:05.858770  4735 net.cpp:116] target_ims does not need backward computation.
I0812 17:39:05.858795  4735 net.cpp:65] Creating Layer conv1
I0812 17:39:05.858798  4735 net.cpp:228] conv1 <- source_ims
I0812 17:39:05.858804  4735 net.cpp:189] conv1 -> conv1
I0812 17:39:05.860046  4735 net.cpp:84] Top shape: 2 96 55 55 (580800)
I0812 17:39:05.860050  4735 net.cpp:116] conv1 does not need backward computation.
I0812 17:39:05.860055  4735 net.cpp:65] Creating Layer relu1
I0812 17:39:05.860057  4735 net.cpp:228] relu1 <- conv1
I0812 17:39:05.860062  4735 net.cpp:179] relu1 -> conv1 (in-place)
I0812 17:39:05.860067  4735 net.cpp:84] Top shape: 2 96 55 55 (580800)
I0812 17:39:05.860070  4735 net.cpp:116] relu1 does not need backward computation.
I0812 17:39:05.860074  4735 net.cpp:65] Creating Layer pool1
I0812 17:39:05.860077  4735 net.cpp:228] pool1 <- conv1
I0812 17:39:05.860081  4735 net.cpp:189] pool1 -> pool1
I0812 17:39:05.860087  4735 net.cpp:84] Top shape: 2 96 27 27 (139968)
I0812 17:39:05.860090  4735 net.cpp:116] pool1 does not need backward computation.
I0812 17:39:05.860095  4735 net.cpp:65] Creating Layer norm1
I0812 17:39:05.860097  4735 net.cpp:228] norm1 <- pool1
I0812 17:39:05.860100  4735 net.cpp:189] norm1 -> norm1
I0812 17:39:05.860106  4735 net.cpp:84] Top shape: 2 96 27 27 (139968)
I0812 17:39:05.860110  4735 net.cpp:116] norm1 does not need backward computation.
I0812 17:39:05.860112  4735 net.cpp:65] Creating Layer Rconv6
I0812 17:39:05.860116  4735 net.cpp:228] Rconv6 <- norm1
I0812 17:39:05.860119  4735 net.cpp:189] Rconv6 -> Rconv6
I0812 17:39:05.860703  4735 net.cpp:84] Top shape: 2 256 27 27 (373248)
I0812 17:39:05.860708  4735 net.cpp:116] Rconv6 does not need backward computation.
I0812 17:39:05.860712  4735 net.cpp:65] Creating Layer Rrelu6
I0812 17:39:05.860714  4735 net.cpp:228] Rrelu6 <- Rconv6
I0812 17:39:05.860718  4735 net.cpp:179] Rrelu6 -> Rconv6 (in-place)
I0812 17:39:05.860723  4735 net.cpp:84] Top shape: 2 256 27 27 (373248)
I0812 17:39:05.860726  4735 net.cpp:116] Rrelu6 does not need backward computation.
I0812 17:39:05.860731  4735 net.cpp:65] Creating Layer Rconv7
I0812 17:39:05.860733  4735 net.cpp:228] Rconv7 <- Rconv6
I0812 17:39:05.860738  4735 net.cpp:189] Rconv7 -> Rconv7
I0812 17:39:05.861507  4735 net.cpp:84] Top shape: 2 256 27 27 (373248)
I0812 17:39:05.861511  4735 net.cpp:116] Rconv7 does not need backward computation.
I0812 17:39:05.861515  4735 net.cpp:65] Creating Layer Rrelu7
I0812 17:39:05.861520  4735 net.cpp:228] Rrelu7 <- Rconv7
I0812 17:39:05.861522  4735 net.cpp:179] Rrelu7 -> Rconv7 (in-place)
I0812 17:39:05.861527  4735 net.cpp:84] Top shape: 2 256 27 27 (373248)
I0812 17:39:05.861529  4735 net.cpp:116] Rrelu7 does not need backward computation.
I0812 17:39:05.861533  4735 net.cpp:65] Creating Layer Rconv8
I0812 17:39:05.861536  4735 net.cpp:228] Rconv8 <- Rconv7
I0812 17:39:05.861539  4735 net.cpp:189] Rconv8 -> Rconv8
I0812 17:39:05.862301  4735 net.cpp:84] Top shape: 2 256 27 27 (373248)
I0812 17:39:05.862305  4735 net.cpp:116] Rconv8 does not need backward computation.
I0812 17:39:05.862310  4735 net.cpp:65] Creating Layer Rrelu8
I0812 17:39:05.862313  4735 net.cpp:228] Rrelu8 <- Rconv8
I0812 17:39:05.862316  4735 net.cpp:179] Rrelu8 -> Rconv8 (in-place)
I0812 17:39:05.862320  4735 net.cpp:84] Top shape: 2 256 27 27 (373248)
I0812 17:39:05.862323  4735 net.cpp:116] Rrelu8 does not need backward computation.
I0812 17:39:05.862328  4735 net.cpp:65] Creating Layer deconv2
I0812 17:39:05.862330  4735 net.cpp:228] deconv2 <- Rconv8
I0812 17:39:05.862334  4735 net.cpp:189] deconv2 -> deconv2
I0812 17:39:05.863390  4735 net.cpp:84] Top shape: 2 64 54 54 (373248)
I0812 17:39:05.863395  4735 net.cpp:116] deconv2 does not need backward computation.
I0812 17:39:05.863399  4735 net.cpp:65] Creating Layer relu_deconv2
I0812 17:39:05.863402  4735 net.cpp:228] relu_deconv2 <- deconv2
I0812 17:39:05.863406  4735 net.cpp:179] relu_deconv2 -> deconv2 (in-place)
I0812 17:39:05.863411  4735 net.cpp:84] Top shape: 2 64 54 54 (373248)
I0812 17:39:05.863415  4735 net.cpp:116] relu_deconv2 does not need backward computation.
I0812 17:39:05.863430  4735 net.cpp:65] Creating Layer deconv1
I0812 17:39:05.863432  4735 net.cpp:228] deconv1 <- deconv2
I0812 17:39:05.863436  4735 net.cpp:189] deconv1 -> deconv1
I0812 17:39:05.863590  4735 net.cpp:84] Top shape: 2 32 108 108 (746496)
I0812 17:39:05.863593  4735 net.cpp:116] deconv1 does not need backward computation.
I0812 17:39:05.863597  4735 net.cpp:65] Creating Layer relu_deconv1
I0812 17:39:05.863600  4735 net.cpp:228] relu_deconv1 <- deconv1
I0812 17:39:05.863605  4735 net.cpp:179] relu_deconv1 -> deconv1 (in-place)
I0812 17:39:05.863608  4735 net.cpp:84] Top shape: 2 32 108 108 (746496)
I0812 17:39:05.863611  4735 net.cpp:116] relu_deconv1 does not need backward computation.
I0812 17:39:05.863616  4735 net.cpp:65] Creating Layer deconv0
I0812 17:39:05.863620  4735 net.cpp:228] deconv0 <- deconv1
I0812 17:39:05.863623  4735 net.cpp:189] deconv0 -> deconv0
I0812 17:39:05.863642  4735 net.cpp:84] Top shape: 2 3 216 216 (279936)
I0812 17:39:05.863646  4735 net.cpp:116] deconv0 does not need backward computation.
I0812 17:39:05.863649  4735 net.cpp:65] Creating Layer loss
I0812 17:39:05.863652  4735 net.cpp:228] loss <- deconv0
I0812 17:39:05.863656  4735 net.cpp:228] loss <- target_ims
I0812 17:39:05.863659  4735 net.cpp:116] loss does not need backward computation.
I0812 17:39:05.863672  4735 net.cpp:238] Collecting Learning Rate and Weight Decay.
…
