…
    source: "/scr/r6/tgebru/inverting_conv/caffe_invert_alexnet/data/siggraph/tiny_summer_train_lmdb"
    mean_file: "/scr/r6/tgebru/timnit_caffe/data/ilsvrc12/imagenet_mean.binaryproto"
    batch_size: 12
    crop_size: 227
    mirror: false
    backend: LMDB
  }
}
layers {
  top: "target_ims"
  name: "target_ims"
  type: DATA
  data_param {
    source: "/scr/r6/tgebru/inverting_conv/caffe_invert_alexnet/data/siggraph/tiny_summer_train_lmdb"
    mean_file: "/scr/r6/tgebru/timnit_caffe/data/ilsvrc12/imagenet_mean.binaryproto"
    batch_size: 12
    crop_size: 216
    mirror: false
    backend: LMDB
  }
}
layers {
  bottom: "source_ims"
  top: "conv1"
  name: "conv1"
  type: CONVOLUTION
  blobs_lr: 0
  blobs_lr: 0
  weight_decay: 1
  weight_decay: 0
  convolution_param {
    num_output: 96
    kernel_size: 11
    stride: 4
    weight_filler {
      type: "gaussian"
      std: 0.01
    }
    bias_filler {
      type: "constant"
      value: 0
    }
  }
}
layers {
  bottom: "conv1"
  top: "conv1"
  name: "relu1"
  type: RELU
}
layers {
  bottom: "conv1"
  top: "pool1"
  name: "pool1"
  type: POOLING
  pooling_param {
    pool: MAX
    kernel_size: 3
    stride: 2
  }
}
layers {
  bottom: "pool1"
  top: "norm1"
  name: "norm1"
  type: LRN
  lrn_param {
    local_size: 5
    alpha: 0.0001
    beta: 0.75
  }
}
layers {
  bottom: "norm1"
  top: "Rconv6"
  name: "Rconv6"
  type: CONVOLUTION
  blobs_lr: 1
  blobs_lr: 2
  weight_decay: 1
  weight_decay: 0
  convolution_param {
    num_output: 256
    pad: 1
    kernel_size: 3
  }
}
layers {
  bottom: "Rconv6"
  top: "Rconv6"
  name: "Rrelu6"
  type: RELU
}
layers {
  bottom: "Rconv6"
  top: "Rconv7"
  name: "Rconv7"
  type: CONVOLUTION
  blobs_lr: 1
  blobs_lr: 2
  weight_decay: 1
  weight_decay: 0
  convolution_param {
    num_output: 256
    pad: 1
    kernel_size: 3
    group: 2
  }
}
layers {
  bottom: "Rconv7"
  top: "Rconv7"
  name: "Rrelu7"
  type: RELU
}
layers {
  bottom: "Rconv7"
  top: "Rconv8"
  name: "Rconv8"
  type: CONVOLUTION
  blobs_lr: 1
  blobs_lr: 2
  weight_decay: 1
  weight_decay: 0
  convolution_param {
    num_output: 256
    pad: 1
    kernel_size: 3
    group: 2
  }
}
layers {
  bottom: "Rconv8"
  top: "Rconv8"
  name: "Rrelu8"
  type: RELU
}
layers {
  bottom: "Rconv8"
  top: "deconv2"
  name: "deconv2"
  type: DECONVOLUTION
  blobs_lr: 1
  blobs_lr: 2
  weight_decay: 1
  weight_decay: 0
  deconvolution_param {
    pad: 2
    kernel_size: 5
    stride: 2
    output_height: 54
    output_width: 54
    output_channels: 64
  }
}
layers {
  bottom: "deconv2"
  top: "deconv2"
  name: "relu_deconv2"
  type: RELU
  relu_param {
    negative_slope: 0.3
  }
}
layers {
  bottom: "deconv2"
  top: "deconv1"
  name: "deconv1"
  type: DECONVOLUTION
  blobs_lr: 1
  blobs_lr: 2
  weight_decay: 1
  weight_decay: 0
  deconvolution_param {
    pad: 2
    kernel_size: 5
    stride: 2
    output_height: 108
    output_width: 108
    output_channels: 32
  }
}
layers {
  bottom: "deconv1"
  top: "deconv1"
  name: "relu_deconv1"
  type: RELU
  relu_param {
    negative_slope: 0.3
  }
}
layers {
  bottom: "deconv1"
  top: "deconv0"
  name: "deconv0"
  type: DECONVOLUTION
  blobs_lr: 1
  blobs_lr: 2
  weight_decay: 1
  weight_decay: 1
  deconvolution_param {
    pad: 2
    kernel_size: 5
    stride: 2
    output_height: 216
    output_width: 216
    output_channels: 3
  }
}
layers {
  bottom: "deconv0"
  bottom: "target_ims"
  name: "loss"
  type: EUCLIDEAN_LOSS
}
I0812 22:04:47.387754 31826 net.cpp:65] Creating Layer source_ims
I0812 22:04:47.387763 31826 net.cpp:189] source_ims -> source_ims
I0812 22:04:47.387867 31826 data_layer.cpp:223] Opening lmdb /scr/r6/tgebru/inverting_conv/caffe_invert_alexnet/data/siggraph/tiny_summer_train_lmdb
I0812 22:04:47.388074 31826 data_layer.cpp:285] output data size: 12,3,227,227
I0812 22:04:47.388082 31826 data_layer.cpp:304] Loading mean file from/scr/r6/tgebru/timnit_caffe/data/ilsvrc12/imagenet_mean.binaryproto
I0812 22:04:47.392797 31826 net.cpp:84] Top shape: 12 3 227 227 (1855044)
I0812 22:04:47.392806 31826 net.cpp:116] source_ims does not need backward computation.
I0812 22:04:47.392812 31826 net.cpp:65] Creating Layer target_ims
I0812 22:04:47.392815 31826 net.cpp:189] target_ims -> target_ims
I0812 22:04:47.392947 31826 data_layer.cpp:223] Opening lmdb /scr/r6/tgebru/inverting_conv/caffe_invert_alexnet/data/siggraph/tiny_summer_train_lmdb
I0812 22:04:47.393093 31826 data_layer.cpp:285] output data size: 12,3,216,216
I0812 22:04:47.393098 31826 data_layer.cpp:304] Loading mean file from/scr/r6/tgebru/timnit_caffe/data/ilsvrc12/imagenet_mean.binaryproto
I0812 22:04:47.397483 31826 net.cpp:84] Top shape: 12 3 216 216 (1679616)
I0812 22:04:47.397492 31826 net.cpp:116] target_ims does not need backward computation.
I0812 22:04:47.397503 31826 net.cpp:65] Creating Layer conv1
I0812 22:04:47.397508 31826 net.cpp:228] conv1 <- source_ims
I0812 22:04:47.397621 31826 net.cpp:189] conv1 -> conv1
I0812 22:04:47.398954 31826 net.cpp:84] Top shape: 12 96 55 55 (3484800)
I0812 22:04:47.398959 31826 net.cpp:116] conv1 does not need backward computation.
I0812 22:04:47.398965 31826 net.cpp:65] Creating Layer relu1
I0812 22:04:47.398968 31826 net.cpp:228] relu1 <- conv1
I0812 22:04:47.398974 31826 net.cpp:179] relu1 -> conv1 (in-place)
I0812 22:04:47.398983 31826 net.cpp:84] Top shape: 12 96 55 55 (3484800)
I0812 22:04:47.398986 31826 net.cpp:116] relu1 does not need backward computation.
I0812 22:04:47.398991 31826 net.cpp:65] Creating Layer pool1
I0812 22:04:47.398993 31826 net.cpp:228] pool1 <- conv1
I0812 22:04:47.398998 31826 net.cpp:189] pool1 -> pool1
I0812 22:04:47.399010 31826 net.cpp:84] Top shape: 12 96 27 27 (839808)
I0812 22:04:47.399014 31826 net.cpp:116] pool1 does not need backward computation.
I0812 22:04:47.399019 31826 net.cpp:65] Creating Layer norm1
I0812 22:04:47.399022 31826 net.cpp:228] norm1 <- pool1
I0812 22:04:47.399026 31826 net.cpp:189] norm1 -> norm1
I0812 22:04:47.399035 31826 net.cpp:84] Top shape: 12 96 27 27 (839808)
I0812 22:04:47.399039 31826 net.cpp:116] norm1 does not need backward computation.
I0812 22:04:47.399044 31826 net.cpp:65] Creating Layer Rconv6
I0812 22:04:47.399046 31826 net.cpp:228] Rconv6 <- norm1
I0812 22:04:47.399050 31826 net.cpp:189] Rconv6 -> Rconv6
I0812 22:04:47.399307 31826 net.cpp:84] Top shape: 12 256 27 27 (2239488)
I0812 22:04:47.399312 31826 net.cpp:111] Rconv6 needs backward computation.
I0812 22:04:47.399317 31826 net.cpp:65] Creating Layer Rrelu6
I0812 22:04:47.399319 31826 net.cpp:228] Rrelu6 <- Rconv6
I0812 22:04:47.399324 31826 net.cpp:179] Rrelu6 -> Rconv6 (in-place)
I0812 22:04:47.399328 31826 net.cpp:84] Top shape: 12 256 27 27 (2239488)
I0812 22:04:47.399332 31826 net.cpp:111] Rrelu6 needs backward computation.
I0812 22:04:47.399338 31826 net.cpp:65] Creating Layer Rconv7
I0812 22:04:47.399340 31826 net.cpp:228] Rconv7 <- Rconv6
I0812 22:04:47.399344 31826 net.cpp:189] Rconv7 -> Rconv7
I0812 22:04:47.400063 31826 net.cpp:84] Top shape: 12 256 27 27 (2239488)
I0812 22:04:47.400068 31826 net.cpp:111] Rconv7 needs backward computation.
I0812 22:04:47.400071 31826 net.cpp:65] Creating Layer Rrelu7
I0812 22:04:47.400075 31826 net.cpp:228] Rrelu7 <- Rconv7
I0812 22:04:47.400100 31826 net.cpp:179] Rrelu7 -> Rconv7 (in-place)
I0812 22:04:47.400106 31826 net.cpp:84] Top shape: 12 256 27 27 (2239488)
I0812 22:04:47.400110 31826 net.cpp:111] Rrelu7 needs backward computation.
I0812 22:04:47.400112 31826 net.cpp:65] Creating Layer Rconv8
I0812 22:04:47.400115 31826 net.cpp:228] Rconv8 <- Rconv7
I0812 22:04:47.400120 31826 net.cpp:189] Rconv8 -> Rconv8
I0812 22:04:47.400959 31826 net.cpp:84] Top shape: 12 256 27 27 (2239488)
I0812 22:04:47.400964 31826 net.cpp:111] Rconv8 needs backward computation.
I0812 22:04:47.400969 31826 net.cpp:65] Creating Layer Rrelu8
I0812 22:04:47.400971 31826 net.cpp:228] Rrelu8 <- Rconv8
I0812 22:04:47.400975 31826 net.cpp:179] Rrelu8 -> Rconv8 (in-place)
I0812 22:04:47.400979 31826 net.cpp:84] Top shape: 12 256 27 27 (2239488)
I0812 22:04:47.400982 31826 net.cpp:111] Rrelu8 needs backward computation.
I0812 22:04:47.400986 31826 net.cpp:65] Creating Layer deconv2
I0812 22:04:47.400988 31826 net.cpp:228] deconv2 <- Rconv8
I0812 22:04:47.400992 31826 net.cpp:189] deconv2 -> deconv2
I0812 22:04:47.402091 31826 net.cpp:84] Top shape: 12 64 54 54 (2239488)
I0812 22:04:47.402096 31826 net.cpp:111] deconv2 needs backward computation.
I0812 22:04:47.402101 31826 net.cpp:65] Creating Layer relu_deconv2
I0812 22:04:47.402104 31826 net.cpp:228] relu_deconv2 <- deconv2
I0812 22:04:47.402108 31826 net.cpp:179] relu_deconv2 -> deconv2 (in-place)
I0812 22:04:47.402112 31826 net.cpp:84] Top shape: 12 64 54 54 (2239488)
I0812 22:04:47.402115 31826 net.cpp:111] relu_deconv2 needs backward computation.
I0812 22:04:47.402119 31826 net.cpp:65] Creating Layer deconv1
I0812 22:04:47.402122 31826 net.cpp:228] deconv1 <- deconv2
I0812 22:04:47.402127 31826 net.cpp:189] deconv1 -> deconv1
I0812 22:04:47.402308 31826 net.cpp:84] Top shape: 12 32 108 108 (4478976)
I0812 22:04:47.402313 31826 net.cpp:111] deconv1 needs backward computation.
I0812 22:04:47.402318 31826 net.cpp:65] Creating Layer relu_deconv1
I0812 22:04:47.402320 31826 net.cpp:228] relu_deconv1 <- deconv1
I0812 22:04:47.402324 31826 net.cpp:179] relu_deconv1 -> deconv1 (in-place)
I0812 22:04:47.402329 31826 net.cpp:84] Top shape: 12 32 108 108 (4478976)
I0812 22:04:47.402333 31826 net.cpp:111] relu_deconv1 needs backward computation.
I0812 22:04:47.402338 31826 net.cpp:65] Creating Layer deconv0
I0812 22:04:47.402339 31826 net.cpp:228] deconv0 <- deconv1
I0812 22:04:47.402343 31826 net.cpp:189] deconv0 -> deconv0
I0812 22:04:47.402393 31826 net.cpp:84] Top shape: 12 3 216 216 (1679616)
I0812 22:04:47.402397 31826 net.cpp:111] deconv0 needs backward computation.
I0812 22:04:47.402401 31826 net.cpp:65] Creating Layer loss
I0812 22:04:47.402405 31826 net.cpp:228] loss <- deconv0
I0812 22:04:47.402407 31826 net.cpp:228] loss <- target_ims
I0812 22:04:47.402415 31826 net.cpp:111] loss needs backward computation.
I0812 22:04:47.402427 31826 net.cpp:238] Collecting Learning Rate and Weight Decay.
…
    source: "/scr/r6/tgebru/inverting_conv/caffe_invert_alexnet/data/siggraph/tiny_summer_val_lmdb"
    mean_file: "/scr/r6/tgebru/timnit_caffe/data/ilsvrc12/imagenet_mean.binaryproto"
    batch_size: 2
    crop_size: 227
    mirror: false
    backend: LMDB
  }
}
layers {
  top: "target_ims"
  name: "target_ims"
  type: DATA
  data_param {
    source: "/scr/r6/tgebru/inverting_conv/caffe_invert_alexnet/data/siggraph/tiny_summer_val_lmdb"
    mean_file: "/scr/r6/tgebru/timnit_caffe/data/ilsvrc12/imagenet_mean.binaryproto"
    batch_size: 2
    crop_size: 216
    mirror: false
    backend: LMDB
  }
}
layers {
  bottom: "source_ims"
  top: "conv1"
  name: "conv1"
  type: CONVOLUTION
  blobs_lr: 0
  blobs_lr: 0
  weight_decay: 1
  weight_decay: 0
  convolution_param {
    num_output: 96
    kernel_size: 11
    stride: 4
    weight_filler {
      type: "gaussian"
      std: 0.01
    }
    bias_filler {
      type: "constant"
      value: 0
    }
  }
}
layers {
  bottom: "conv1"
  top: "conv1"
  name: "relu1"
  type: RELU
}
layers {
  bottom: "conv1"
  top: "pool1"
  name: "pool1"
  type: POOLING
  pooling_param {
    pool: MAX
    kernel_size: 3
    stride: 2
  }
}
layers {
  bottom: "pool1"
  top: "norm1"
  name: "norm1"
  type: LRN
  lrn_param {
    local_size: 5
    alpha: 0.0001
    beta: 0.75
  }
}
layers {
  bottom: "norm1"
  top: "Rconv6"
  name: "Rconv6"
  type: CONVOLUTION
  blobs_lr: 0
  blobs_lr: 0
  weight_decay: 1
  weight_decay: 0
  convolution_param {
    num_output: 256
    pad: 1
    kernel_size: 3
  }
}
layers {
  bottom: "Rconv6"
  top: "Rconv6"
  name: "Rrelu6"
  type: RELU
}
layers {
  bottom: "Rconv6"
  top: "Rconv7"
  name: "Rconv7"
  type: CONVOLUTION
  blobs_lr: 0
  blobs_lr: 0
  weight_decay: 1
  weight_decay: 0
  convolution_param {
    num_output: 256
    pad: 1
    kernel_size: 3
    group: 2
  }
}
layers {
  bottom: "Rconv7"
  top: "Rconv7"
  name: "Rrelu7"
  type: RELU
}
layers {
  bottom: "Rconv7"
  top: "Rconv8"
  name: "Rconv8"
  type: CONVOLUTION
  blobs_lr: 0
  blobs_lr: 0
  weight_decay: 1
  weight_decay: 0
  convolution_param {
    num_output: 256
    pad: 1
    kernel_size: 3
    group: 2
  }
}
layers {
  bottom: "Rconv8"
  top: "Rconv8"
  name: "Rrelu8"
  type: RELU
}
layers {
  bottom: "Rconv8"
  top: "deconv2"
  name: "deconv2"
  type: DECONVOLUTION
  blobs_lr: 0
  blobs_lr: 0
  weight_decay: 1
  weight_decay: 0
  deconvolution_param {
    pad: 2
    kernel_size: 5
    stride: 2
    output_height: 54
    output_width: 54
    output_channels: 64
  }
}
layers {
  bottom: "deconv2"
  top: "deconv2"
  name: "relu_deconv2"
  type: RELU
  relu_param {
    negative_slope: 0.3
  }
}
layers {
  bottom: "deconv2"
  top: "deconv1"
  name: "deconv1"
  type: DECONVOLUTION
  blobs_lr: 0
  blobs_lr: 0
  weight_decay: 1
  weight_decay: 0
  deconvolution_param {
    pad: 2
    kernel_size: 5
    stride: 2
    output_height: 108
    output_width: 108
    output_channels: 32
  }
}
layers {
  bottom: "deconv1"
  top: "deconv1"
  name: "relu_deconv1"
  type: RELU
  relu_param {
    negative_slope: 0.3
  }
}
layers {
  bottom: "deconv1"
  top: "deconv0"
  name: "deconv0"
  type: DECONVOLUTION
  blobs_lr: 0
  blobs_lr: 0
  weight_decay: 1
  weight_decay: 0
  deconvolution_param {
    pad: 2
    kernel_size: 5
    stride: 2
    output_height: 216
    output_width: 216
    output_channels: 3
  }
}
layers {
  bottom: "deconv0"
  bottom: "target_ims"
  name: "loss"
  type: EUCLIDEAN_LOSS
}
I0812 22:04:47.403139 31826 net.cpp:65] Creating Layer source_ims
I0812 22:04:47.403146 31826 net.cpp:189] source_ims -> source_ims
I0812 22:04:47.403200 31826 data_layer.cpp:223] Opening lmdb /scr/r6/tgebru/inverting_conv/caffe_invert_alexnet/data/siggraph/tiny_summer_val_lmdb
I0812 22:04:47.403408 31826 data_layer.cpp:285] output data size: 2,3,227,227
I0812 22:04:47.403412 31826 data_layer.cpp:304] Loading mean file from/scr/r6/tgebru/timnit_caffe/data/ilsvrc12/imagenet_mean.binaryproto
I0812 22:04:47.405839 31826 net.cpp:84] Top shape: 2 3 227 227 (309174)
I0812 22:04:47.405848 31826 net.cpp:116] source_ims does not need backward computation.
I0812 22:04:47.405853 31826 net.cpp:65] Creating Layer target_ims
I0812 22:04:47.405858 31826 net.cpp:189] target_ims -> target_ims
I0812 22:04:47.405901 31826 data_layer.cpp:223] Opening lmdb /scr/r6/tgebru/inverting_conv/caffe_invert_alexnet/data/siggraph/tiny_summer_val_lmdb
I0812 22:04:47.406065 31826 data_layer.cpp:285] output data size: 2,3,216,216
I0812 22:04:47.406069 31826 data_layer.cpp:304] Loading mean file from/scr/r6/tgebru/timnit_caffe/data/ilsvrc12/imagenet_mean.binaryproto
I0812 22:04:47.408404 31826 net.cpp:84] Top shape: 2 3 216 216 (279936)
I0812 22:04:47.408416 31826 net.cpp:116] target_ims does not need backward computation.
I0812 22:04:47.408453 31826 net.cpp:65] Creating Layer conv1
I0812 22:04:47.408457 31826 net.cpp:228] conv1 <- source_ims
I0812 22:04:47.408465 31826 net.cpp:189] conv1 -> conv1
I0812 22:04:47.409747 31826 net.cpp:84] Top shape: 2 96 55 55 (580800)
I0812 22:04:47.409752 31826 net.cpp:116] conv1 does not need backward computation.
I0812 22:04:47.409759 31826 net.cpp:65] Creating Layer relu1
I0812 22:04:47.409761 31826 net.cpp:228] relu1 <- conv1
I0812 22:04:47.409766 31826 net.cpp:179] relu1 -> conv1 (in-place)
I0812 22:04:47.409772 31826 net.cpp:84] Top shape: 2 96 55 55 (580800)
I0812 22:04:47.409775 31826 net.cpp:116] relu1 does not need backward computation.
I0812 22:04:47.409780 31826 net.cpp:65] Creating Layer pool1
I0812 22:04:47.409783 31826 net.cpp:228] pool1 <- conv1
I0812 22:04:47.409787 31826 net.cpp:189] pool1 -> pool1
I0812 22:04:47.409795 31826 net.cpp:84] Top shape: 2 96 27 27 (139968)
I0812 22:04:47.409797 31826 net.cpp:116] pool1 does not need backward computation.
I0812 22:04:47.409802 31826 net.cpp:65] Creating Layer norm1
I0812 22:04:47.409806 31826 net.cpp:228] norm1 <- pool1
I0812 22:04:47.409809 31826 net.cpp:189] norm1 -> norm1
I0812 22:04:47.409816 31826 net.cpp:84] Top shape: 2 96 27 27 (139968)
I0812 22:04:47.409819 31826 net.cpp:116] norm1 does not need backward computation.
I0812 22:04:47.409823 31826 net.cpp:65] Creating Layer Rconv6
I0812 22:04:47.409826 31826 net.cpp:228] Rconv6 <- norm1
I0812 22:04:47.409831 31826 net.cpp:189] Rconv6 -> Rconv6
I0812 22:04:47.410418 31826 net.cpp:84] Top shape: 2 256 27 27 (373248)
I0812 22:04:47.410423 31826 net.cpp:116] Rconv6 does not need backward computation.
I0812 22:04:47.410428 31826 net.cpp:65] Creating Layer Rrelu6
I0812 22:04:47.410431 31826 net.cpp:228] Rrelu6 <- Rconv6
I0812 22:04:47.410434 31826 net.cpp:179] Rrelu6 -> Rconv6 (in-place)
I0812 22:04:47.410439 31826 net.cpp:84] Top shape: 2 256 27 27 (373248)
I0812 22:04:47.410442 31826 net.cpp:116] Rrelu6 does not need backward computation.
I0812 22:04:47.410449 31826 net.cpp:65] Creating Layer Rconv7
I0812 22:04:47.410450 31826 net.cpp:228] Rconv7 <- Rconv6
I0812 22:04:47.410454 31826 net.cpp:189] Rconv7 -> Rconv7
I0812 22:04:47.411229 31826 net.cpp:84] Top shape: 2 256 27 27 (373248)
I0812 22:04:47.411234 31826 net.cpp:116] Rconv7 does not need backward computation.
I0812 22:04:47.411238 31826 net.cpp:65] Creating Layer Rrelu7
I0812 22:04:47.411242 31826 net.cpp:228] Rrelu7 <- Rconv7
I0812 22:04:47.411245 31826 net.cpp:179] Rrelu7 -> Rconv7 (in-place)
I0812 22:04:47.411249 31826 net.cpp:84] Top shape: 2 256 27 27 (373248)
I0812 22:04:47.411252 31826 net.cpp:116] Rrelu7 does not need backward computation.
I0812 22:04:47.411257 31826 net.cpp:65] Creating Layer Rconv8
I0812 22:04:47.411258 31826 net.cpp:228] Rconv8 <- Rconv7
I0812 22:04:47.411262 31826 net.cpp:189] Rconv8 -> Rconv8
I0812 22:04:47.411984 31826 net.cpp:84] Top shape: 2 256 27 27 (373248)
I0812 22:04:47.411989 31826 net.cpp:116] Rconv8 does not need backward computation.
I0812 22:04:47.411993 31826 net.cpp:65] Creating Layer Rrelu8
I0812 22:04:47.411996 31826 net.cpp:228] Rrelu8 <- Rconv8
I0812 22:04:47.412000 31826 net.cpp:179] Rrelu8 -> Rconv8 (in-place)
I0812 22:04:47.412004 31826 net.cpp:84] Top shape: 2 256 27 27 (373248)
I0812 22:04:47.412008 31826 net.cpp:116] Rrelu8 does not need backward computation.
I0812 22:04:47.412013 31826 net.cpp:65] Creating Layer deconv2
I0812 22:04:47.412014 31826 net.cpp:228] deconv2 <- Rconv8
I0812 22:04:47.412019 31826 net.cpp:189] deconv2 -> deconv2
I0812 22:04:47.413018 31826 net.cpp:84] Top shape: 2 64 54 54 (373248)
I0812 22:04:47.413023 31826 net.cpp:116] deconv2 does not need backward computation.
I0812 22:04:47.413028 31826 net.cpp:65] Creating Layer relu_deconv2
I0812 22:04:47.413031 31826 net.cpp:228] relu_deconv2 <- deconv2
I0812 22:04:47.413035 31826 net.cpp:179] relu_deconv2 -> deconv2 (in-place)
I0812 22:04:47.413040 31826 net.cpp:84] Top shape: 2 64 54 54 (373248)
I0812 22:04:47.413043 31826 net.cpp:116] relu_deconv2 does not need backward computation.
I0812 22:04:47.413061 31826 net.cpp:65] Creating Layer deconv1
I0812 22:04:47.413064 31826 net.cpp:228] deconv1 <- deconv2
I0812 22:04:47.413069 31826 net.cpp:189] deconv1 -> deconv1
I0812 22:04:47.413204 31826 net.cpp:84] Top shape: 2 32 108 108 (746496)
I0812 22:04:47.413208 31826 net.cpp:116] deconv1 does not need backward computation.
I0812 22:04:47.413213 31826 net.cpp:65] Creating Layer relu_deconv1
I0812 22:04:47.413216 31826 net.cpp:228] relu_deconv1 <- deconv1
I0812 22:04:47.413220 31826 net.cpp:179] relu_deconv1 -> deconv1 (in-place)
I0812 22:04:47.413224 31826 net.cpp:84] Top shape: 2 32 108 108 (746496)
I0812 22:04:47.413228 31826 net.cpp:116] relu_deconv1 does not need backward computation.
I0812 22:04:47.413233 31826 net.cpp:65] Creating Layer deconv0
I0812 22:04:47.413235 31826 net.cpp:228] deconv0 <- deconv1
I0812 22:04:47.413239 31826 net.cpp:189] deconv0 -> deconv0
I0812 22:04:47.413269 31826 net.cpp:84] Top shape: 2 3 216 216 (279936)
I0812 22:04:47.413271 31826 net.cpp:116] deconv0 does not need backward computation.
I0812 22:04:47.413275 31826 net.cpp:65] Creating Layer loss
I0812 22:04:47.413278 31826 net.cpp:228] loss <- deconv0
I0812 22:04:47.413281 31826 net.cpp:228] loss <- target_ims
I0812 22:04:47.413286 31826 net.cpp:116] loss does not need backward computation.
I0812 22:04:47.413298 31826 net.cpp:238] Collecting Learning Rate and Weight Decay.
…
