…
    source: "/scr/r6/tgebru/inverting_conv/caffe_invert_alexnet/data/siggraph/tiny_summer_train_lmdb"
    mean_file: "/scr/r6/tgebru/timnit_caffe/data/ilsvrc12/imagenet_mean.binaryproto"
    batch_size: 12
    crop_size: 227
    mirror: false
    backend: LMDB
  }
}
layers {
  top: "target_ims"
  name: "target_ims"
  type: DATA
  data_param {
    source: "/scr/r6/tgebru/inverting_conv/caffe_invert_alexnet/data/siggraph/tiny_winter_train_lmdb"
    mean_file: "/scr/r6/tgebru/timnit_caffe/data/ilsvrc12/imagenet_mean.binaryproto"
    batch_size: 12
    crop_size: 216
    mirror: false
    backend: LMDB
  }
}
layers {
  bottom: "source_ims"
  top: "conv1"
  name: "conv1"
  type: CONVOLUTION
  blobs_lr: 0
  blobs_lr: 0
  weight_decay: 1
  weight_decay: 0
  convolution_param {
    num_output: 96
    kernel_size: 11
    stride: 4
    weight_filler {
      type: "gaussian"
      std: 0.01
    }
    bias_filler {
      type: "constant"
      value: 0
    }
  }
}
layers {
  bottom: "conv1"
  top: "conv1"
  name: "relu1"
  type: RELU
}
layers {
  bottom: "conv1"
  top: "pool1"
  name: "pool1"
  type: POOLING
  pooling_param {
    pool: MAX
    kernel_size: 3
    stride: 2
  }
}
layers {
  bottom: "pool1"
  top: "norm1"
  name: "norm1"
  type: LRN
  lrn_param {
    local_size: 5
    alpha: 0.0001
    beta: 0.75
  }
}
layers {
  bottom: "norm1"
  top: "Rconv6"
  name: "Rconv6"
  type: CONVOLUTION
  blobs_lr: 1
  blobs_lr: 2
  weight_decay: 1
  weight_decay: 0
  convolution_param {
    num_output: 256
    pad: 1
    kernel_size: 3
  }
}
layers {
  bottom: "Rconv6"
  top: "Rconv6"
  name: "Rrelu6"
  type: RELU
}
layers {
  bottom: "Rconv6"
  top: "Rconv7"
  name: "Rconv7"
  type: CONVOLUTION
  blobs_lr: 1
  blobs_lr: 2
  weight_decay: 1
  weight_decay: 0
  convolution_param {
    num_output: 256
    pad: 1
    kernel_size: 3
    group: 2
  }
}
layers {
  bottom: "Rconv7"
  top: "Rconv7"
  name: "Rrelu7"
  type: RELU
}
layers {
  bottom: "Rconv7"
  top: "Rconv8"
  name: "Rconv8"
  type: CONVOLUTION
  blobs_lr: 1
  blobs_lr: 2
  weight_decay: 1
  weight_decay: 0
  convolution_param {
    num_output: 256
    pad: 1
    kernel_size: 3
    group: 2
  }
}
layers {
  bottom: "Rconv8"
  top: "Rconv8"
  name: "Rrelu8"
  type: RELU
}
layers {
  bottom: "Rconv8"
  top: "deconv2"
  name: "deconv2"
  type: DECONVOLUTION
  blobs_lr: 1
  blobs_lr: 2
  weight_decay: 1
  weight_decay: 0
  deconvolution_param {
    pad: 2
    kernel_size: 5
    stride: 2
    output_height: 54
    output_width: 54
    output_channels: 64
  }
}
layers {
  bottom: "deconv2"
  top: "deconv2"
  name: "relu_deconv2"
  type: RELU
  relu_param {
    negative_slope: 0.3
  }
}
layers {
  bottom: "deconv2"
  top: "deconv1"
  name: "deconv1"
  type: DECONVOLUTION
  blobs_lr: 1
  blobs_lr: 2
  weight_decay: 1
  weight_decay: 0
  deconvolution_param {
    pad: 2
    kernel_size: 5
    stride: 2
    output_height: 108
    output_width: 108
    output_channels: 32
  }
}
layers {
  bottom: "deconv1"
  top: "deconv1"
  name: "relu_deconv1"
  type: RELU
  relu_param {
    negative_slope: 0.3
  }
}
layers {
  bottom: "deconv1"
  top: "deconv0"
  name: "deconv0"
  type: DECONVOLUTION
  blobs_lr: 1
  blobs_lr: 2
  weight_decay: 1
  weight_decay: 1
  deconvolution_param {
    pad: 2
    kernel_size: 5
    stride: 2
    output_height: 216
    output_width: 216
    output_channels: 3
  }
}
layers {
  bottom: "deconv0"
  bottom: "target_ims"
  name: "loss"
  type: EUCLIDEAN_LOSS
}
I0813 14:32:29.652199  1631 net.cpp:65] Creating Layer source_ims
I0813 14:32:29.652209  1631 net.cpp:189] source_ims -> source_ims
I0813 14:32:29.652307  1631 data_layer.cpp:223] Opening lmdb /scr/r6/tgebru/inverting_conv/caffe_invert_alexnet/data/siggraph/tiny_summer_train_lmdb
I0813 14:32:29.652515  1631 data_layer.cpp:285] output data size: 12,3,227,227
I0813 14:32:29.652523  1631 data_layer.cpp:304] Loading mean file from/scr/r6/tgebru/timnit_caffe/data/ilsvrc12/imagenet_mean.binaryproto
I0813 14:32:29.657158  1631 net.cpp:84] Top shape: 12 3 227 227 (1855044)
I0813 14:32:29.657166  1631 net.cpp:116] source_ims does not need backward computation.
I0813 14:32:29.657172  1631 net.cpp:65] Creating Layer target_ims
I0813 14:32:29.657176  1631 net.cpp:189] target_ims -> target_ims
I0813 14:32:29.657268  1631 data_layer.cpp:223] Opening lmdb /scr/r6/tgebru/inverting_conv/caffe_invert_alexnet/data/siggraph/tiny_winter_train_lmdb
I0813 14:32:29.657410  1631 data_layer.cpp:285] output data size: 12,3,216,216
I0813 14:32:29.657415  1631 data_layer.cpp:304] Loading mean file from/scr/r6/tgebru/timnit_caffe/data/ilsvrc12/imagenet_mean.binaryproto
I0813 14:32:29.661633  1631 net.cpp:84] Top shape: 12 3 216 216 (1679616)
I0813 14:32:29.661640  1631 net.cpp:116] target_ims does not need backward computation.
I0813 14:32:29.661648  1631 net.cpp:65] Creating Layer conv1
I0813 14:32:29.661651  1631 net.cpp:228] conv1 <- source_ims
I0813 14:32:29.661701  1631 net.cpp:189] conv1 -> conv1
I0813 14:32:29.662976  1631 net.cpp:84] Top shape: 12 96 55 55 (3484800)
I0813 14:32:29.662981  1631 net.cpp:116] conv1 does not need backward computation.
I0813 14:32:29.662986  1631 net.cpp:65] Creating Layer relu1
I0813 14:32:29.662989  1631 net.cpp:228] relu1 <- conv1
I0813 14:32:29.662993  1631 net.cpp:179] relu1 -> conv1 (in-place)
I0813 14:32:29.663002  1631 net.cpp:84] Top shape: 12 96 55 55 (3484800)
I0813 14:32:29.663005  1631 net.cpp:116] relu1 does not need backward computation.
I0813 14:32:29.663010  1631 net.cpp:65] Creating Layer pool1
I0813 14:32:29.663013  1631 net.cpp:228] pool1 <- conv1
I0813 14:32:29.663018  1631 net.cpp:189] pool1 -> pool1
I0813 14:32:29.663029  1631 net.cpp:84] Top shape: 12 96 27 27 (839808)
I0813 14:32:29.663033  1631 net.cpp:116] pool1 does not need backward computation.
I0813 14:32:29.663038  1631 net.cpp:65] Creating Layer norm1
I0813 14:32:29.663040  1631 net.cpp:228] norm1 <- pool1
I0813 14:32:29.663044  1631 net.cpp:189] norm1 -> norm1
I0813 14:32:29.663053  1631 net.cpp:84] Top shape: 12 96 27 27 (839808)
I0813 14:32:29.663055  1631 net.cpp:116] norm1 does not need backward computation.
I0813 14:32:29.663059  1631 net.cpp:65] Creating Layer Rconv6
I0813 14:32:29.663063  1631 net.cpp:228] Rconv6 <- norm1
I0813 14:32:29.663066  1631 net.cpp:189] Rconv6 -> Rconv6
I0813 14:32:29.663236  1631 net.cpp:84] Top shape: 12 256 27 27 (2239488)
I0813 14:32:29.663240  1631 net.cpp:111] Rconv6 needs backward computation.
I0813 14:32:29.663246  1631 net.cpp:65] Creating Layer Rrelu6
I0813 14:32:29.663249  1631 net.cpp:228] Rrelu6 <- Rconv6
I0813 14:32:29.663254  1631 net.cpp:179] Rrelu6 -> Rconv6 (in-place)
I0813 14:32:29.663259  1631 net.cpp:84] Top shape: 12 256 27 27 (2239488)
I0813 14:32:29.663260  1631 net.cpp:111] Rrelu6 needs backward computation.
I0813 14:32:29.663265  1631 net.cpp:65] Creating Layer Rconv7
I0813 14:32:29.663269  1631 net.cpp:228] Rconv7 <- Rconv6
I0813 14:32:29.663274  1631 net.cpp:189] Rconv7 -> Rconv7
I0813 14:32:29.664075  1631 net.cpp:84] Top shape: 12 256 27 27 (2239488)
I0813 14:32:29.664080  1631 net.cpp:111] Rconv7 needs backward computation.
I0813 14:32:29.664083  1631 net.cpp:65] Creating Layer Rrelu7
I0813 14:32:29.664105  1631 net.cpp:228] Rrelu7 <- Rconv7
I0813 14:32:29.664110  1631 net.cpp:179] Rrelu7 -> Rconv7 (in-place)
I0813 14:32:29.664114  1631 net.cpp:84] Top shape: 12 256 27 27 (2239488)
I0813 14:32:29.664118  1631 net.cpp:111] Rrelu7 needs backward computation.
I0813 14:32:29.664121  1631 net.cpp:65] Creating Layer Rconv8
I0813 14:32:29.664124  1631 net.cpp:228] Rconv8 <- Rconv7
I0813 14:32:29.664129  1631 net.cpp:189] Rconv8 -> Rconv8
I0813 14:32:29.664885  1631 net.cpp:84] Top shape: 12 256 27 27 (2239488)
I0813 14:32:29.664890  1631 net.cpp:111] Rconv8 needs backward computation.
I0813 14:32:29.664894  1631 net.cpp:65] Creating Layer Rrelu8
I0813 14:32:29.664897  1631 net.cpp:228] Rrelu8 <- Rconv8
I0813 14:32:29.664901  1631 net.cpp:179] Rrelu8 -> Rconv8 (in-place)
I0813 14:32:29.664904  1631 net.cpp:84] Top shape: 12 256 27 27 (2239488)
I0813 14:32:29.664907  1631 net.cpp:111] Rrelu8 needs backward computation.
I0813 14:32:29.664911  1631 net.cpp:65] Creating Layer deconv2
I0813 14:32:29.664914  1631 net.cpp:228] deconv2 <- Rconv8
I0813 14:32:29.664918  1631 net.cpp:189] deconv2 -> deconv2
I0813 14:32:29.665962  1631 net.cpp:84] Top shape: 12 64 54 54 (2239488)
I0813 14:32:29.665967  1631 net.cpp:111] deconv2 needs backward computation.
I0813 14:32:29.665972  1631 net.cpp:65] Creating Layer relu_deconv2
I0813 14:32:29.665976  1631 net.cpp:228] relu_deconv2 <- deconv2
I0813 14:32:29.665979  1631 net.cpp:179] relu_deconv2 -> deconv2 (in-place)
I0813 14:32:29.665984  1631 net.cpp:84] Top shape: 12 64 54 54 (2239488)
I0813 14:32:29.665987  1631 net.cpp:111] relu_deconv2 needs backward computation.
I0813 14:32:29.665992  1631 net.cpp:65] Creating Layer deconv1
I0813 14:32:29.665993  1631 net.cpp:228] deconv1 <- deconv2
I0813 14:32:29.665997  1631 net.cpp:189] deconv1 -> deconv1
I0813 14:32:29.666148  1631 net.cpp:84] Top shape: 12 32 108 108 (4478976)
I0813 14:32:29.666152  1631 net.cpp:111] deconv1 needs backward computation.
I0813 14:32:29.666157  1631 net.cpp:65] Creating Layer relu_deconv1
I0813 14:32:29.666159  1631 net.cpp:228] relu_deconv1 <- deconv1
I0813 14:32:29.666162  1631 net.cpp:179] relu_deconv1 -> deconv1 (in-place)
I0813 14:32:29.666167  1631 net.cpp:84] Top shape: 12 32 108 108 (4478976)
I0813 14:32:29.666169  1631 net.cpp:111] relu_deconv1 needs backward computation.
I0813 14:32:29.666174  1631 net.cpp:65] Creating Layer deconv0
I0813 14:32:29.666177  1631 net.cpp:228] deconv0 <- deconv1
I0813 14:32:29.666182  1631 net.cpp:189] deconv0 -> deconv0
I0813 14:32:29.666201  1631 net.cpp:84] Top shape: 12 3 216 216 (1679616)
I0813 14:32:29.666204  1631 net.cpp:111] deconv0 needs backward computation.
I0813 14:32:29.666208  1631 net.cpp:65] Creating Layer loss
I0813 14:32:29.666210  1631 net.cpp:228] loss <- deconv0
I0813 14:32:29.666213  1631 net.cpp:228] loss <- target_ims
I0813 14:32:29.666221  1631 net.cpp:111] loss needs backward computation.
I0813 14:32:29.666234  1631 net.cpp:238] Collecting Learning Rate and Weight Decay.
…
    source: "/scr/r6/tgebru/inverting_conv/caffe_invert_alexnet/data/siggraph/tiny_summer_val_lmdb"
    mean_file: "/scr/r6/tgebru/timnit_caffe/data/ilsvrc12/imagenet_mean.binaryproto"
    batch_size: 64
    crop_size: 227
    mirror: false
    backend: LMDB
  }
}
layers {
  top: "target_ims"
  name: "target_ims"
  type: DATA
  data_param {
    source: "/scr/r6/tgebru/inverting_conv/caffe_invert_alexnet/data/siggraph/tiny_winter_val_lmdb"
    mean_file: "/scr/r6/tgebru/timnit_caffe/data/ilsvrc12/imagenet_mean.binaryproto"
    batch_size: 64
    crop_size: 216
    mirror: false
    backend: LMDB
  }
}
layers {
  bottom: "source_ims"
  top: "conv1"
  name: "conv1"
  type: CONVOLUTION
  blobs_lr: 0
  blobs_lr: 0
  weight_decay: 1
  weight_decay: 0
  convolution_param {
    num_output: 96
    kernel_size: 11
    stride: 4
    weight_filler {
      type: "gaussian"
      std: 0.01
    }
    bias_filler {
      type: "constant"
      value: 0
    }
  }
}
layers {
  bottom: "conv1"
  top: "conv1"
  name: "relu1"
  type: RELU
}
layers {
  bottom: "conv1"
  top: "pool1"
  name: "pool1"
  type: POOLING
  pooling_param {
    pool: MAX
    kernel_size: 3
    stride: 2
  }
}
layers {
  bottom: "pool1"
  top: "norm1"
  name: "norm1"
  type: LRN
  lrn_param {
    local_size: 5
    alpha: 0.0001
    beta: 0.75
  }
}
layers {
  bottom: "norm1"
  top: "Rconv6"
  name: "Rconv6"
  type: CONVOLUTION
  blobs_lr: 0
  blobs_lr: 0
  weight_decay: 1
  weight_decay: 0
  convolution_param {
    num_output: 256
    pad: 1
    kernel_size: 3
  }
}
layers {
  bottom: "Rconv6"
  top: "Rconv6"
  name: "Rrelu6"
  type: RELU
}
layers {
  bottom: "Rconv6"
  top: "Rconv7"
  name: "Rconv7"
  type: CONVOLUTION
  blobs_lr: 0
  blobs_lr: 0
  weight_decay: 1
  weight_decay: 0
  convolution_param {
    num_output: 256
    pad: 1
    kernel_size: 3
    group: 2
  }
}
layers {
  bottom: "Rconv7"
  top: "Rconv7"
  name: "Rrelu7"
  type: RELU
}
layers {
  bottom: "Rconv7"
  top: "Rconv8"
  name: "Rconv8"
  type: CONVOLUTION
  blobs_lr: 0
  blobs_lr: 0
  weight_decay: 1
  weight_decay: 0
  convolution_param {
    num_output: 256
    pad: 1
    kernel_size: 3
    group: 2
  }
}
layers {
  bottom: "Rconv8"
  top: "Rconv8"
  name: "Rrelu8"
  type: RELU
}
layers {
  bottom: "Rconv8"
  top: "deconv2"
  name: "deconv2"
  type: DECONVOLUTION
  blobs_lr: 0
  blobs_lr: 0
  weight_decay: 1
  weight_decay: 0
  deconvolution_param {
    pad: 2
    kernel_size: 5
    stride: 2
    output_height: 54
    output_width: 54
    output_channels: 64
  }
}
layers {
  bottom: "deconv2"
  top: "deconv2"
  name: "relu_deconv2"
  type: RELU
  relu_param {
    negative_slope: 0.3
  }
}
layers {
  bottom: "deconv2"
  top: "deconv1"
  name: "deconv1"
  type: DECONVOLUTION
  blobs_lr: 0
  blobs_lr: 0
  weight_decay: 1
  weight_decay: 0
  deconvolution_param {
    pad: 2
    kernel_size: 5
    stride: 2
    output_height: 108
    output_width: 108
    output_channels: 32
  }
}
layers {
  bottom: "deconv1"
  top: "deconv1"
  name: "relu_deconv1"
  type: RELU
  relu_param {
    negative_slope: 0.3
  }
}
layers {
  bottom: "deconv1"
  top: "deconv0"
  name: "deconv0"
  type: DECONVOLUTION
  blobs_lr: 0
  blobs_lr: 0
  weight_decay: 1
  weight_decay: 0
  deconvolution_param {
    pad: 2
    kernel_size: 5
    stride: 2
    output_height: 216
    output_width: 216
    output_channels: 3
  }
}
layers {
  bottom: "deconv0"
  bottom: "target_ims"
  name: "loss"
  type: EUCLIDEAN_LOSS
}
I0813 14:32:29.666940  1631 net.cpp:65] Creating Layer source_ims
I0813 14:32:29.666945  1631 net.cpp:189] source_ims -> source_ims
I0813 14:32:29.667001  1631 data_layer.cpp:223] Opening lmdb /scr/r6/tgebru/inverting_conv/caffe_invert_alexnet/data/siggraph/tiny_summer_val_lmdb
I0813 14:32:29.667217  1631 data_layer.cpp:285] output data size: 64,3,227,227
I0813 14:32:29.667222  1631 data_layer.cpp:304] Loading mean file from/scr/r6/tgebru/timnit_caffe/data/ilsvrc12/imagenet_mean.binaryproto
I0813 14:32:29.681466  1631 net.cpp:84] Top shape: 64 3 227 227 (9893568)
I0813 14:32:29.681483  1631 net.cpp:116] source_ims does not need backward computation.
I0813 14:32:29.681495  1631 net.cpp:65] Creating Layer target_ims
I0813 14:32:29.681501  1631 net.cpp:189] target_ims -> target_ims
I0813 14:32:29.681586  1631 data_layer.cpp:223] Opening lmdb /scr/r6/tgebru/inverting_conv/caffe_invert_alexnet/data/siggraph/tiny_winter_val_lmdb
I0813 14:32:29.681705  1631 data_layer.cpp:285] output data size: 64,3,216,216
I0813 14:32:29.681710  1631 data_layer.cpp:304] Loading mean file from/scr/r6/tgebru/timnit_caffe/data/ilsvrc12/imagenet_mean.binaryproto
I0813 14:32:29.694283  1631 net.cpp:84] Top shape: 64 3 216 216 (8957952)
I0813 14:32:29.694327  1631 net.cpp:116] target_ims does not need backward computation.
I0813 14:32:29.694340  1631 net.cpp:65] Creating Layer conv1
I0813 14:32:29.694344  1631 net.cpp:228] conv1 <- source_ims
I0813 14:32:29.694352  1631 net.cpp:189] conv1 -> conv1
I0813 14:32:29.695611  1631 net.cpp:84] Top shape: 64 96 55 55 (18585600)
I0813 14:32:29.695616  1631 net.cpp:116] conv1 does not need backward computation.
I0813 14:32:29.695621  1631 net.cpp:65] Creating Layer relu1
I0813 14:32:29.695623  1631 net.cpp:228] relu1 <- conv1
I0813 14:32:29.695627  1631 net.cpp:179] relu1 -> conv1 (in-place)
I0813 14:32:29.695633  1631 net.cpp:84] Top shape: 64 96 55 55 (18585600)
I0813 14:32:29.695636  1631 net.cpp:116] relu1 does not need backward computation.
I0813 14:32:29.695641  1631 net.cpp:65] Creating Layer pool1
I0813 14:32:29.695644  1631 net.cpp:228] pool1 <- conv1
I0813 14:32:29.695648  1631 net.cpp:189] pool1 -> pool1
I0813 14:32:29.695655  1631 net.cpp:84] Top shape: 64 96 27 27 (4478976)
I0813 14:32:29.695658  1631 net.cpp:116] pool1 does not need backward computation.
I0813 14:32:29.695663  1631 net.cpp:65] Creating Layer norm1
I0813 14:32:29.695667  1631 net.cpp:228] norm1 <- pool1
I0813 14:32:29.695670  1631 net.cpp:189] norm1 -> norm1
I0813 14:32:29.695677  1631 net.cpp:84] Top shape: 64 96 27 27 (4478976)
I0813 14:32:29.695680  1631 net.cpp:116] norm1 does not need backward computation.
I0813 14:32:29.695683  1631 net.cpp:65] Creating Layer Rconv6
I0813 14:32:29.695688  1631 net.cpp:228] Rconv6 <- norm1
I0813 14:32:29.695691  1631 net.cpp:189] Rconv6 -> Rconv6
I0813 14:32:29.695929  1631 net.cpp:84] Top shape: 64 256 27 27 (11943936)
I0813 14:32:29.695931  1631 net.cpp:116] Rconv6 does not need backward computation.
I0813 14:32:29.695936  1631 net.cpp:65] Creating Layer Rrelu6
I0813 14:32:29.695940  1631 net.cpp:228] Rrelu6 <- Rconv6
I0813 14:32:29.695943  1631 net.cpp:179] Rrelu6 -> Rconv6 (in-place)
I0813 14:32:29.695948  1631 net.cpp:84] Top shape: 64 256 27 27 (11943936)
I0813 14:32:29.695951  1631 net.cpp:116] Rrelu6 does not need backward computation.
I0813 14:32:29.695957  1631 net.cpp:65] Creating Layer Rconv7
I0813 14:32:29.695960  1631 net.cpp:228] Rconv7 <- Rconv6
I0813 14:32:29.695966  1631 net.cpp:189] Rconv7 -> Rconv7
I0813 14:32:29.696676  1631 net.cpp:84] Top shape: 64 256 27 27 (11943936)
I0813 14:32:29.696679  1631 net.cpp:116] Rconv7 does not need backward computation.
I0813 14:32:29.696684  1631 net.cpp:65] Creating Layer Rrelu7
I0813 14:32:29.696688  1631 net.cpp:228] Rrelu7 <- Rconv7
I0813 14:32:29.696692  1631 net.cpp:179] Rrelu7 -> Rconv7 (in-place)
I0813 14:32:29.696696  1631 net.cpp:84] Top shape: 64 256 27 27 (11943936)
I0813 14:32:29.696699  1631 net.cpp:116] Rrelu7 does not need backward computation.
I0813 14:32:29.696703  1631 net.cpp:65] Creating Layer Rconv8
I0813 14:32:29.696705  1631 net.cpp:228] Rconv8 <- Rconv7
I0813 14:32:29.696709  1631 net.cpp:189] Rconv8 -> Rconv8
I0813 14:32:29.697494  1631 net.cpp:84] Top shape: 64 256 27 27 (11943936)
I0813 14:32:29.697499  1631 net.cpp:116] Rconv8 does not need backward computation.
I0813 14:32:29.697502  1631 net.cpp:65] Creating Layer Rrelu8
I0813 14:32:29.697505  1631 net.cpp:228] Rrelu8 <- Rconv8
I0813 14:32:29.697510  1631 net.cpp:179] Rrelu8 -> Rconv8 (in-place)
I0813 14:32:29.697513  1631 net.cpp:84] Top shape: 64 256 27 27 (11943936)
I0813 14:32:29.697516  1631 net.cpp:116] Rrelu8 does not need backward computation.
I0813 14:32:29.697521  1631 net.cpp:65] Creating Layer deconv2
I0813 14:32:29.697525  1631 net.cpp:228] deconv2 <- Rconv8
I0813 14:32:29.697527  1631 net.cpp:189] deconv2 -> deconv2
I0813 14:32:29.698550  1631 net.cpp:84] Top shape: 64 64 54 54 (11943936)
I0813 14:32:29.698554  1631 net.cpp:116] deconv2 does not need backward computation.
I0813 14:32:29.698559  1631 net.cpp:65] Creating Layer relu_deconv2
I0813 14:32:29.698561  1631 net.cpp:228] relu_deconv2 <- deconv2
I0813 14:32:29.698565  1631 net.cpp:179] relu_deconv2 -> deconv2 (in-place)
I0813 14:32:29.698570  1631 net.cpp:84] Top shape: 64 64 54 54 (11943936)
I0813 14:32:29.698585  1631 net.cpp:116] relu_deconv2 does not need backward computation.
I0813 14:32:29.698590  1631 net.cpp:65] Creating Layer deconv1
I0813 14:32:29.698591  1631 net.cpp:228] deconv1 <- deconv2
I0813 14:32:29.698596  1631 net.cpp:189] deconv1 -> deconv1
I0813 14:32:29.698742  1631 net.cpp:84] Top shape: 64 32 108 108 (23887872)
I0813 14:32:29.698746  1631 net.cpp:116] deconv1 does not need backward computation.
I0813 14:32:29.698750  1631 net.cpp:65] Creating Layer relu_deconv1
I0813 14:32:29.698753  1631 net.cpp:228] relu_deconv1 <- deconv1
I0813 14:32:29.698757  1631 net.cpp:179] relu_deconv1 -> deconv1 (in-place)
I0813 14:32:29.698762  1631 net.cpp:84] Top shape: 64 32 108 108 (23887872)
I0813 14:32:29.698765  1631 net.cpp:116] relu_deconv1 does not need backward computation.
I0813 14:32:29.698771  1631 net.cpp:65] Creating Layer deconv0
I0813 14:32:29.698773  1631 net.cpp:228] deconv0 <- deconv1
I0813 14:32:29.698779  1631 net.cpp:189] deconv0 -> deconv0
I0813 14:32:29.698803  1631 net.cpp:84] Top shape: 64 3 216 216 (8957952)
I0813 14:32:29.698807  1631 net.cpp:116] deconv0 does not need backward computation.
I0813 14:32:29.698810  1631 net.cpp:65] Creating Layer loss
I0813 14:32:29.698812  1631 net.cpp:228] loss <- deconv0
I0813 14:32:29.698817  1631 net.cpp:228] loss <- target_ims
I0813 14:32:29.698820  1631 net.cpp:116] loss does not need backward computation.
I0813 14:32:29.698834  1631 net.cpp:238] Collecting Learning Rate and Weight Decay.
…
