…
    source: "/scr/r6/tgebru/inverting_conv/caffe_invert_alexnet/data/siggraph/tiny_winter_train_lmdb"
    mean_file: "/scr/r6/tgebru/timnit_caffe/data/ilsvrc12/imagenet_mean.binaryproto"
    batch_size: 12
    crop_size: 227
    mirror: false
    backend: LMDB
  }
}
layers {
  top: "target_ims"
  name: "target_ims"
  type: DATA
  data_param {
    source: "/scr/r6/tgebru/inverting_conv/caffe_invert_alexnet/data/siggraph/tiny_summer_train_lmdb"
    mean_file: "/scr/r6/tgebru/timnit_caffe/data/ilsvrc12/imagenet_mean.binaryproto"
    batch_size: 12
    crop_size: 216
    mirror: false
    backend: LMDB
  }
}
layers {
  bottom: "source_ims"
  top: "conv1"
  name: "conv1"
  type: CONVOLUTION
  blobs_lr: 0
  blobs_lr: 0
  weight_decay: 1
  weight_decay: 0
  convolution_param {
    num_output: 96
    kernel_size: 11
    stride: 4
    weight_filler {
      type: "gaussian"
      std: 0.01
    }
    bias_filler {
      type: "constant"
      value: 0
    }
  }
}
layers {
  bottom: "conv1"
  top: "conv1"
  name: "relu1"
  type: RELU
}
layers {
  bottom: "conv1"
  top: "pool1"
  name: "pool1"
  type: POOLING
  pooling_param {
    pool: MAX
    kernel_size: 3
    stride: 2
  }
}
layers {
  bottom: "pool1"
  top: "norm1"
  name: "norm1"
  type: LRN
  lrn_param {
    local_size: 5
    alpha: 0.0001
    beta: 0.75
  }
}
layers {
  bottom: "norm1"
  top: "Rconv6"
  name: "Rconv6"
  type: CONVOLUTION
  blobs_lr: 1
  blobs_lr: 2
  weight_decay: 1
  weight_decay: 0
  convolution_param {
    num_output: 256
    pad: 1
    kernel_size: 3
  }
}
layers {
  bottom: "Rconv6"
  top: "Rconv6"
  name: "Rrelu6"
  type: RELU
}
layers {
  bottom: "Rconv6"
  top: "Rconv7"
  name: "Rconv7"
  type: CONVOLUTION
  blobs_lr: 1
  blobs_lr: 2
  weight_decay: 1
  weight_decay: 0
  convolution_param {
    num_output: 256
    pad: 1
    kernel_size: 3
    group: 2
  }
}
layers {
  bottom: "Rconv7"
  top: "Rconv7"
  name: "Rrelu7"
  type: RELU
}
layers {
  bottom: "Rconv7"
  top: "Rconv8"
  name: "Rconv8"
  type: CONVOLUTION
  blobs_lr: 1
  blobs_lr: 2
  weight_decay: 1
  weight_decay: 0
  convolution_param {
    num_output: 256
    pad: 1
    kernel_size: 3
    group: 2
  }
}
layers {
  bottom: "Rconv8"
  top: "Rconv8"
  name: "Rrelu8"
  type: RELU
}
layers {
  bottom: "Rconv8"
  top: "deconv2"
  name: "deconv2"
  type: DECONVOLUTION
  blobs_lr: 1
  blobs_lr: 2
  weight_decay: 1
  weight_decay: 0
  deconvolution_param {
    pad: 2
    kernel_size: 5
    stride: 2
    output_height: 54
    output_width: 54
    output_channels: 64
  }
}
layers {
  bottom: "deconv2"
  top: "deconv2"
  name: "relu_deconv2"
  type: RELU
  relu_param {
    negative_slope: 0.3
  }
}
layers {
  bottom: "deconv2"
  top: "deconv1"
  name: "deconv1"
  type: DECONVOLUTION
  blobs_lr: 1
  blobs_lr: 2
  weight_decay: 1
  weight_decay: 0
  deconvolution_param {
    pad: 2
    kernel_size: 5
    stride: 2
    output_height: 108
    output_width: 108
    output_channels: 32
  }
}
layers {
  bottom: "deconv1"
  top: "deconv1"
  name: "relu_deconv1"
  type: RELU
  relu_param {
    negative_slope: 0.3
  }
}
layers {
  bottom: "deconv1"
  top: "deconv0"
  name: "deconv0"
  type: DECONVOLUTION
  blobs_lr: 1
  blobs_lr: 2
  weight_decay: 1
  weight_decay: 1
  deconvolution_param {
    pad: 2
    kernel_size: 5
    stride: 2
    output_height: 216
    output_width: 216
    output_channels: 3
  }
}
layers {
  bottom: "deconv0"
  bottom: "target_ims"
  name: "loss"
  type: EUCLIDEAN_LOSS
}
I0812 20:21:54.309238 12495 net.cpp:65] Creating Layer source_ims
I0812 20:21:54.309247 12495 net.cpp:189] source_ims -> source_ims
I0812 20:21:54.309348 12495 data_layer.cpp:223] Opening lmdb /scr/r6/tgebru/inverting_conv/caffe_invert_alexnet/data/siggraph/tiny_winter_train_lmdb
I0812 20:21:54.309579 12495 data_layer.cpp:285] output data size: 12,3,227,227
I0812 20:21:54.309587 12495 data_layer.cpp:304] Loading mean file from/scr/r6/tgebru/timnit_caffe/data/ilsvrc12/imagenet_mean.binaryproto
I0812 20:21:54.314322 12495 net.cpp:84] Top shape: 12 3 227 227 (1855044)
I0812 20:21:54.314330 12495 net.cpp:116] source_ims does not need backward computation.
I0812 20:21:54.314337 12495 net.cpp:65] Creating Layer target_ims
I0812 20:21:54.314342 12495 net.cpp:189] target_ims -> target_ims
I0812 20:21:54.314450 12495 data_layer.cpp:223] Opening lmdb /scr/r6/tgebru/inverting_conv/caffe_invert_alexnet/data/siggraph/tiny_summer_train_lmdb
I0812 20:21:54.314568 12495 data_layer.cpp:285] output data size: 12,3,216,216
I0812 20:21:54.314573 12495 data_layer.cpp:304] Loading mean file from/scr/r6/tgebru/timnit_caffe/data/ilsvrc12/imagenet_mean.binaryproto
I0812 20:21:54.318825 12495 net.cpp:84] Top shape: 12 3 216 216 (1679616)
I0812 20:21:54.318832 12495 net.cpp:116] target_ims does not need backward computation.
I0812 20:21:54.318840 12495 net.cpp:65] Creating Layer conv1
I0812 20:21:54.318843 12495 net.cpp:228] conv1 <- source_ims
I0812 20:21:54.318884 12495 net.cpp:189] conv1 -> conv1
I0812 20:21:54.320159 12495 net.cpp:84] Top shape: 12 96 55 55 (3484800)
I0812 20:21:54.320164 12495 net.cpp:116] conv1 does not need backward computation.
I0812 20:21:54.320168 12495 net.cpp:65] Creating Layer relu1
I0812 20:21:54.320173 12495 net.cpp:228] relu1 <- conv1
I0812 20:21:54.320176 12495 net.cpp:179] relu1 -> conv1 (in-place)
I0812 20:21:54.320185 12495 net.cpp:84] Top shape: 12 96 55 55 (3484800)
I0812 20:21:54.320188 12495 net.cpp:116] relu1 does not need backward computation.
I0812 20:21:54.320194 12495 net.cpp:65] Creating Layer pool1
I0812 20:21:54.320196 12495 net.cpp:228] pool1 <- conv1
I0812 20:21:54.320200 12495 net.cpp:189] pool1 -> pool1
I0812 20:21:54.320211 12495 net.cpp:84] Top shape: 12 96 27 27 (839808)
I0812 20:21:54.320215 12495 net.cpp:116] pool1 does not need backward computation.
I0812 20:21:54.320219 12495 net.cpp:65] Creating Layer norm1
I0812 20:21:54.320222 12495 net.cpp:228] norm1 <- pool1
I0812 20:21:54.320226 12495 net.cpp:189] norm1 -> norm1
I0812 20:21:54.320235 12495 net.cpp:84] Top shape: 12 96 27 27 (839808)
I0812 20:21:54.320238 12495 net.cpp:116] norm1 does not need backward computation.
I0812 20:21:54.320243 12495 net.cpp:65] Creating Layer Rconv6
I0812 20:21:54.320246 12495 net.cpp:228] Rconv6 <- norm1
I0812 20:21:54.320250 12495 net.cpp:189] Rconv6 -> Rconv6
I0812 20:21:54.320420 12495 net.cpp:84] Top shape: 12 256 27 27 (2239488)
I0812 20:21:54.320425 12495 net.cpp:111] Rconv6 needs backward computation.
I0812 20:21:54.320428 12495 net.cpp:65] Creating Layer Rrelu6
I0812 20:21:54.320431 12495 net.cpp:228] Rrelu6 <- Rconv6
I0812 20:21:54.320436 12495 net.cpp:179] Rrelu6 -> Rconv6 (in-place)
I0812 20:21:54.320441 12495 net.cpp:84] Top shape: 12 256 27 27 (2239488)
I0812 20:21:54.320442 12495 net.cpp:111] Rrelu6 needs backward computation.
I0812 20:21:54.320448 12495 net.cpp:65] Creating Layer Rconv7
I0812 20:21:54.320451 12495 net.cpp:228] Rconv7 <- Rconv6
I0812 20:21:54.320454 12495 net.cpp:189] Rconv7 -> Rconv7
I0812 20:21:54.321159 12495 net.cpp:84] Top shape: 12 256 27 27 (2239488)
I0812 20:21:54.321164 12495 net.cpp:111] Rconv7 needs backward computation.
I0812 20:21:54.321168 12495 net.cpp:65] Creating Layer Rrelu7
I0812 20:21:54.321190 12495 net.cpp:228] Rrelu7 <- Rconv7
I0812 20:21:54.321194 12495 net.cpp:179] Rrelu7 -> Rconv7 (in-place)
I0812 20:21:54.321199 12495 net.cpp:84] Top shape: 12 256 27 27 (2239488)
I0812 20:21:54.321202 12495 net.cpp:111] Rrelu7 needs backward computation.
I0812 20:21:54.321207 12495 net.cpp:65] Creating Layer Rconv8
I0812 20:21:54.321209 12495 net.cpp:228] Rconv8 <- Rconv7
I0812 20:21:54.321213 12495 net.cpp:189] Rconv8 -> Rconv8
I0812 20:21:54.322016 12495 net.cpp:84] Top shape: 12 256 27 27 (2239488)
I0812 20:21:54.322021 12495 net.cpp:111] Rconv8 needs backward computation.
I0812 20:21:54.322026 12495 net.cpp:65] Creating Layer Rrelu8
I0812 20:21:54.322028 12495 net.cpp:228] Rrelu8 <- Rconv8
I0812 20:21:54.322032 12495 net.cpp:179] Rrelu8 -> Rconv8 (in-place)
I0812 20:21:54.322036 12495 net.cpp:84] Top shape: 12 256 27 27 (2239488)
I0812 20:21:54.322039 12495 net.cpp:111] Rrelu8 needs backward computation.
I0812 20:21:54.322043 12495 net.cpp:65] Creating Layer deconv2
I0812 20:21:54.322046 12495 net.cpp:228] deconv2 <- Rconv8
I0812 20:21:54.322049 12495 net.cpp:189] deconv2 -> deconv2
I0812 20:21:54.323120 12495 net.cpp:84] Top shape: 12 64 54 54 (2239488)
I0812 20:21:54.323125 12495 net.cpp:111] deconv2 needs backward computation.
I0812 20:21:54.323129 12495 net.cpp:65] Creating Layer relu_deconv2
I0812 20:21:54.323132 12495 net.cpp:228] relu_deconv2 <- deconv2
I0812 20:21:54.323137 12495 net.cpp:179] relu_deconv2 -> deconv2 (in-place)
I0812 20:21:54.323142 12495 net.cpp:84] Top shape: 12 64 54 54 (2239488)
I0812 20:21:54.323143 12495 net.cpp:111] relu_deconv2 needs backward computation.
I0812 20:21:54.323148 12495 net.cpp:65] Creating Layer deconv1
I0812 20:21:54.323150 12495 net.cpp:228] deconv1 <- deconv2
I0812 20:21:54.323154 12495 net.cpp:189] deconv1 -> deconv1
I0812 20:21:54.323304 12495 net.cpp:84] Top shape: 12 32 108 108 (4478976)
I0812 20:21:54.323309 12495 net.cpp:111] deconv1 needs backward computation.
I0812 20:21:54.323313 12495 net.cpp:65] Creating Layer relu_deconv1
I0812 20:21:54.323315 12495 net.cpp:228] relu_deconv1 <- deconv1
I0812 20:21:54.323319 12495 net.cpp:179] relu_deconv1 -> deconv1 (in-place)
I0812 20:21:54.323323 12495 net.cpp:84] Top shape: 12 32 108 108 (4478976)
I0812 20:21:54.323326 12495 net.cpp:111] relu_deconv1 needs backward computation.
I0812 20:21:54.323331 12495 net.cpp:65] Creating Layer deconv0
I0812 20:21:54.323334 12495 net.cpp:228] deconv0 <- deconv1
I0812 20:21:54.323338 12495 net.cpp:189] deconv0 -> deconv0
I0812 20:21:54.323381 12495 net.cpp:84] Top shape: 12 3 216 216 (1679616)
I0812 20:21:54.323385 12495 net.cpp:111] deconv0 needs backward computation.
I0812 20:21:54.323389 12495 net.cpp:65] Creating Layer loss
I0812 20:21:54.323391 12495 net.cpp:228] loss <- deconv0
I0812 20:21:54.323395 12495 net.cpp:228] loss <- target_ims
I0812 20:21:54.323402 12495 net.cpp:111] loss needs backward computation.
I0812 20:21:54.323416 12495 net.cpp:238] Collecting Learning Rate and Weight Decay.
…
    source: "/scr/r6/tgebru/inverting_conv/caffe_invert_alexnet/data/siggraph/tiny_winter_val_lmdb"
    mean_file: "/scr/r6/tgebru/timnit_caffe/data/ilsvrc12/imagenet_mean.binaryproto"
    batch_size: 2
    crop_size: 227
    mirror: false
    backend: LMDB
  }
}
layers {
  top: "target_ims"
  name: "target_ims"
  type: DATA
  data_param {
    source: "/scr/r6/tgebru/inverting_conv/caffe_invert_alexnet/data/siggraph/tiny_summer_val_lmdb"
    mean_file: "/scr/r6/tgebru/timnit_caffe/data/ilsvrc12/imagenet_mean.binaryproto"
    batch_size: 2
    crop_size: 216
    mirror: false
    backend: LMDB
  }
}
layers {
  bottom: "source_ims"
  top: "conv1"
  name: "conv1"
  type: CONVOLUTION
  blobs_lr: 0
  blobs_lr: 0
  weight_decay: 1
  weight_decay: 0
  convolution_param {
    num_output: 96
    kernel_size: 11
    stride: 4
    weight_filler {
      type: "gaussian"
      std: 0.01
    }
    bias_filler {
      type: "constant"
      value: 0
    }
  }
}
layers {
  bottom: "conv1"
  top: "conv1"
  name: "relu1"
  type: RELU
}
layers {
  bottom: "conv1"
  top: "pool1"
  name: "pool1"
  type: POOLING
  pooling_param {
    pool: MAX
    kernel_size: 3
    stride: 2
  }
}
layers {
  bottom: "pool1"
  top: "norm1"
  name: "norm1"
  type: LRN
  lrn_param {
    local_size: 5
    alpha: 0.0001
    beta: 0.75
  }
}
layers {
  bottom: "norm1"
  top: "Rconv6"
  name: "Rconv6"
  type: CONVOLUTION
  blobs_lr: 0
  blobs_lr: 0
  weight_decay: 1
  weight_decay: 0
  convolution_param {
    num_output: 256
    pad: 1
    kernel_size: 3
  }
}
layers {
  bottom: "Rconv6"
  top: "Rconv6"
  name: "Rrelu6"
  type: RELU
}
layers {
  bottom: "Rconv6"
  top: "Rconv7"
  name: "Rconv7"
  type: CONVOLUTION
  blobs_lr: 0
  blobs_lr: 0
  weight_decay: 1
  weight_decay: 0
  convolution_param {
    num_output: 256
    pad: 1
    kernel_size: 3
    group: 2
  }
}
layers {
  bottom: "Rconv7"
  top: "Rconv7"
  name: "Rrelu7"
  type: RELU
}
layers {
  bottom: "Rconv7"
  top: "Rconv8"
  name: "Rconv8"
  type: CONVOLUTION
  blobs_lr: 0
  blobs_lr: 0
  weight_decay: 1
  weight_decay: 0
  convolution_param {
    num_output: 256
    pad: 1
    kernel_size: 3
    group: 2
  }
}
layers {
  bottom: "Rconv8"
  top: "Rconv8"
  name: "Rrelu8"
  type: RELU
}
layers {
  bottom: "Rconv8"
  top: "deconv2"
  name: "deconv2"
  type: DECONVOLUTION
  blobs_lr: 0
  blobs_lr: 0
  weight_decay: 1
  weight_decay: 0
  deconvolution_param {
    pad: 2
    kernel_size: 5
    stride: 2
    output_height: 54
    output_width: 54
    output_channels: 64
  }
}
layers {
  bottom: "deconv2"
  top: "deconv2"
  name: "relu_deconv2"
  type: RELU
  relu_param {
    negative_slope: 0.3
  }
}
layers {
  bottom: "deconv2"
  top: "deconv1"
  name: "deconv1"
  type: DECONVOLUTION
  blobs_lr: 0
  blobs_lr: 0
  weight_decay: 1
  weight_decay: 0
  deconvolution_param {
    pad: 2
    kernel_size: 5
    stride: 2
    output_height: 108
    output_width: 108
    output_channels: 32
  }
}
layers {
  bottom: "deconv1"
  top: "deconv1"
  name: "relu_deconv1"
  type: RELU
  relu_param {
    negative_slope: 0.3
  }
}
layers {
  bottom: "deconv1"
  top: "deconv0"
  name: "deconv0"
  type: DECONVOLUTION
  blobs_lr: 0
  blobs_lr: 0
  weight_decay: 1
  weight_decay: 0
  deconvolution_param {
    pad: 2
    kernel_size: 5
    stride: 2
    output_height: 216
    output_width: 216
    output_channels: 3
  }
}
layers {
  bottom: "deconv0"
  bottom: "target_ims"
  name: "loss"
  type: EUCLIDEAN_LOSS
}
I0812 20:21:54.324152 12495 net.cpp:65] Creating Layer source_ims
I0812 20:21:54.324157 12495 net.cpp:189] source_ims -> source_ims
I0812 20:21:54.324223 12495 data_layer.cpp:223] Opening lmdb /scr/r6/tgebru/inverting_conv/caffe_invert_alexnet/data/siggraph/tiny_winter_val_lmdb
I0812 20:21:54.324410 12495 data_layer.cpp:285] output data size: 2,3,227,227
I0812 20:21:54.324415 12495 data_layer.cpp:304] Loading mean file from/scr/r6/tgebru/timnit_caffe/data/ilsvrc12/imagenet_mean.binaryproto
I0812 20:21:54.326802 12495 net.cpp:84] Top shape: 2 3 227 227 (309174)
I0812 20:21:54.326808 12495 net.cpp:116] source_ims does not need backward computation.
I0812 20:21:54.326815 12495 net.cpp:65] Creating Layer target_ims
I0812 20:21:54.326819 12495 net.cpp:189] target_ims -> target_ims
I0812 20:21:54.326865 12495 data_layer.cpp:223] Opening lmdb /scr/r6/tgebru/inverting_conv/caffe_invert_alexnet/data/siggraph/tiny_summer_val_lmdb
I0812 20:21:54.327070 12495 data_layer.cpp:285] output data size: 2,3,216,216
I0812 20:21:54.327075 12495 data_layer.cpp:304] Loading mean file from/scr/r6/tgebru/timnit_caffe/data/ilsvrc12/imagenet_mean.binaryproto
I0812 20:21:54.329792 12495 net.cpp:84] Top shape: 2 3 216 216 (279936)
I0812 20:21:54.329812 12495 net.cpp:116] target_ims does not need backward computation.
I0812 20:21:54.329819 12495 net.cpp:65] Creating Layer conv1
I0812 20:21:54.329823 12495 net.cpp:228] conv1 <- source_ims
I0812 20:21:54.329828 12495 net.cpp:189] conv1 -> conv1
I0812 20:21:54.331070 12495 net.cpp:84] Top shape: 2 96 55 55 (580800)
I0812 20:21:54.331075 12495 net.cpp:116] conv1 does not need backward computation.
I0812 20:21:54.331079 12495 net.cpp:65] Creating Layer relu1
I0812 20:21:54.331082 12495 net.cpp:228] relu1 <- conv1
I0812 20:21:54.331087 12495 net.cpp:179] relu1 -> conv1 (in-place)
I0812 20:21:54.331092 12495 net.cpp:84] Top shape: 2 96 55 55 (580800)
I0812 20:21:54.331094 12495 net.cpp:116] relu1 does not need backward computation.
I0812 20:21:54.331099 12495 net.cpp:65] Creating Layer pool1
I0812 20:21:54.331101 12495 net.cpp:228] pool1 <- conv1
I0812 20:21:54.331105 12495 net.cpp:189] pool1 -> pool1
I0812 20:21:54.331112 12495 net.cpp:84] Top shape: 2 96 27 27 (139968)
I0812 20:21:54.331115 12495 net.cpp:116] pool1 does not need backward computation.
I0812 20:21:54.331120 12495 net.cpp:65] Creating Layer norm1
I0812 20:21:54.331121 12495 net.cpp:228] norm1 <- pool1
I0812 20:21:54.331125 12495 net.cpp:189] norm1 -> norm1
I0812 20:21:54.331131 12495 net.cpp:84] Top shape: 2 96 27 27 (139968)
I0812 20:21:54.331135 12495 net.cpp:116] norm1 does not need backward computation.
I0812 20:21:54.331137 12495 net.cpp:65] Creating Layer Rconv6
I0812 20:21:54.331140 12495 net.cpp:228] Rconv6 <- norm1
I0812 20:21:54.331145 12495 net.cpp:189] Rconv6 -> Rconv6
I0812 20:21:54.331784 12495 net.cpp:84] Top shape: 2 256 27 27 (373248)
I0812 20:21:54.331789 12495 net.cpp:116] Rconv6 does not need backward computation.
I0812 20:21:54.331794 12495 net.cpp:65] Creating Layer Rrelu6
I0812 20:21:54.331797 12495 net.cpp:228] Rrelu6 <- Rconv6
I0812 20:21:54.331801 12495 net.cpp:179] Rrelu6 -> Rconv6 (in-place)
I0812 20:21:54.331805 12495 net.cpp:84] Top shape: 2 256 27 27 (373248)
I0812 20:21:54.331809 12495 net.cpp:116] Rrelu6 does not need backward computation.
I0812 20:21:54.331814 12495 net.cpp:65] Creating Layer Rconv7
I0812 20:21:54.331815 12495 net.cpp:228] Rconv7 <- Rconv6
I0812 20:21:54.331820 12495 net.cpp:189] Rconv7 -> Rconv7
I0812 20:21:54.332581 12495 net.cpp:84] Top shape: 2 256 27 27 (373248)
I0812 20:21:54.332587 12495 net.cpp:116] Rconv7 does not need backward computation.
I0812 20:21:54.332589 12495 net.cpp:65] Creating Layer Rrelu7
I0812 20:21:54.332592 12495 net.cpp:228] Rrelu7 <- Rconv7
I0812 20:21:54.332597 12495 net.cpp:179] Rrelu7 -> Rconv7 (in-place)
I0812 20:21:54.332600 12495 net.cpp:84] Top shape: 2 256 27 27 (373248)
I0812 20:21:54.332602 12495 net.cpp:116] Rrelu7 does not need backward computation.
I0812 20:21:54.332607 12495 net.cpp:65] Creating Layer Rconv8
I0812 20:21:54.332608 12495 net.cpp:228] Rconv8 <- Rconv7
I0812 20:21:54.332612 12495 net.cpp:189] Rconv8 -> Rconv8
I0812 20:21:54.333374 12495 net.cpp:84] Top shape: 2 256 27 27 (373248)
I0812 20:21:54.333379 12495 net.cpp:116] Rconv8 does not need backward computation.
I0812 20:21:54.333381 12495 net.cpp:65] Creating Layer Rrelu8
I0812 20:21:54.333384 12495 net.cpp:228] Rrelu8 <- Rconv8
I0812 20:21:54.333389 12495 net.cpp:179] Rrelu8 -> Rconv8 (in-place)
I0812 20:21:54.333392 12495 net.cpp:84] Top shape: 2 256 27 27 (373248)
I0812 20:21:54.333395 12495 net.cpp:116] Rrelu8 does not need backward computation.
I0812 20:21:54.333400 12495 net.cpp:65] Creating Layer deconv2
I0812 20:21:54.333401 12495 net.cpp:228] deconv2 <- Rconv8
I0812 20:21:54.333405 12495 net.cpp:189] deconv2 -> deconv2
I0812 20:21:54.334453 12495 net.cpp:84] Top shape: 2 64 54 54 (373248)
I0812 20:21:54.334458 12495 net.cpp:116] deconv2 does not need backward computation.
I0812 20:21:54.334463 12495 net.cpp:65] Creating Layer relu_deconv2
I0812 20:21:54.334466 12495 net.cpp:228] relu_deconv2 <- deconv2
I0812 20:21:54.334470 12495 net.cpp:179] relu_deconv2 -> deconv2 (in-place)
I0812 20:21:54.334475 12495 net.cpp:84] Top shape: 2 64 54 54 (373248)
I0812 20:21:54.334477 12495 net.cpp:116] relu_deconv2 does not need backward computation.
I0812 20:21:54.334493 12495 net.cpp:65] Creating Layer deconv1
I0812 20:21:54.334496 12495 net.cpp:228] deconv1 <- deconv2
I0812 20:21:54.334501 12495 net.cpp:189] deconv1 -> deconv1
I0812 20:21:54.334648 12495 net.cpp:84] Top shape: 2 32 108 108 (746496)
I0812 20:21:54.334652 12495 net.cpp:116] deconv1 does not need backward computation.
I0812 20:21:54.334656 12495 net.cpp:65] Creating Layer relu_deconv1
I0812 20:21:54.334660 12495 net.cpp:228] relu_deconv1 <- deconv1
I0812 20:21:54.334662 12495 net.cpp:179] relu_deconv1 -> deconv1 (in-place)
I0812 20:21:54.334666 12495 net.cpp:84] Top shape: 2 32 108 108 (746496)
I0812 20:21:54.334669 12495 net.cpp:116] relu_deconv1 does not need backward computation.
I0812 20:21:54.334674 12495 net.cpp:65] Creating Layer deconv0
I0812 20:21:54.334676 12495 net.cpp:228] deconv0 <- deconv1
I0812 20:21:54.334681 12495 net.cpp:189] deconv0 -> deconv0
I0812 20:21:54.334698 12495 net.cpp:84] Top shape: 2 3 216 216 (279936)
I0812 20:21:54.334702 12495 net.cpp:116] deconv0 does not need backward computation.
I0812 20:21:54.334705 12495 net.cpp:65] Creating Layer loss
I0812 20:21:54.334708 12495 net.cpp:228] loss <- deconv0
I0812 20:21:54.334712 12495 net.cpp:228] loss <- target_ims
I0812 20:21:54.334717 12495 net.cpp:116] loss does not need backward computation.
I0812 20:21:54.334728 12495 net.cpp:238] Collecting Learning Rate and Weight Decay.
…
