…
    source: "/scr/r6/tgebru/inverting_conv/caffe_invert_alexnet/data/siggraph/tiny_summer_train_lmdb"
    mean_file: "/scr/r6/tgebru/timnit_caffe/data/ilsvrc12/imagenet_mean.binaryproto"
    batch_size: 12
    crop_size: 227
    mirror: false
    backend: LMDB
  }
}
layers {
  top: "target_ims"
  name: "target_ims"
  type: DATA
  data_param {
    source: "/scr/r6/tgebru/inverting_conv/caffe_invert_alexnet/data/siggraph/tiny_summer_train_lmdb"
    mean_file: "/scr/r6/tgebru/timnit_caffe/data/ilsvrc12/imagenet_mean.binaryproto"
    batch_size: 12
    crop_size: 216
    mirror: false
    backend: LMDB
  }
}
layers {
  bottom: "source_ims"
  top: "conv1"
  name: "conv1"
  type: CONVOLUTION
  blobs_lr: 0
  blobs_lr: 0
  weight_decay: 1
  weight_decay: 0
  convolution_param {
    num_output: 96
    kernel_size: 11
    stride: 4
    weight_filler {
      type: "gaussian"
      std: 0.01
    }
    bias_filler {
      type: "constant"
      value: 0
    }
  }
}
layers {
  bottom: "conv1"
  top: "conv1"
  name: "relu1"
  type: RELU
}
layers {
  bottom: "conv1"
  top: "pool1"
  name: "pool1"
  type: POOLING
  pooling_param {
    pool: MAX
    kernel_size: 3
    stride: 2
  }
}
layers {
  bottom: "pool1"
  top: "norm1"
  name: "norm1"
  type: LRN
  lrn_param {
    local_size: 5
    alpha: 0.0001
    beta: 0.75
  }
}
layers {
  bottom: "norm1"
  top: "Rconv6"
  name: "Rconv6"
  type: CONVOLUTION
  blobs_lr: 1
  blobs_lr: 2
  weight_decay: 1
  weight_decay: 0
  convolution_param {
    num_output: 256
    pad: 1
    kernel_size: 3
  }
}
layers {
  bottom: "Rconv6"
  top: "Rconv6"
  name: "Rrelu6"
  type: RELU
}
layers {
  bottom: "Rconv6"
  top: "Rconv7"
  name: "Rconv7"
  type: CONVOLUTION
  blobs_lr: 1
  blobs_lr: 2
  weight_decay: 1
  weight_decay: 0
  convolution_param {
    num_output: 256
    pad: 1
    kernel_size: 3
    group: 2
  }
}
layers {
  bottom: "Rconv7"
  top: "Rconv7"
  name: "Rrelu7"
  type: RELU
}
layers {
  bottom: "Rconv7"
  top: "Rconv8"
  name: "Rconv8"
  type: CONVOLUTION
  blobs_lr: 1
  blobs_lr: 2
  weight_decay: 1
  weight_decay: 0
  convolution_param {
    num_output: 256
    pad: 1
    kernel_size: 3
    group: 2
  }
}
layers {
  bottom: "Rconv8"
  top: "Rconv8"
  name: "Rrelu8"
  type: RELU
}
layers {
  bottom: "Rconv8"
  top: "deconv2"
  name: "deconv2"
  type: DECONVOLUTION
  blobs_lr: 1
  blobs_lr: 2
  weight_decay: 1
  weight_decay: 0
  deconvolution_param {
    pad: 2
    kernel_size: 5
    stride: 2
    output_height: 54
    output_width: 54
    output_channels: 64
  }
}
layers {
  bottom: "deconv2"
  top: "deconv2"
  name: "relu_deconv2"
  type: RELU
  relu_param {
    negative_slope: 0.3
  }
}
layers {
  bottom: "deconv2"
  top: "deconv1"
  name: "deconv1"
  type: DECONVOLUTION
  blobs_lr: 1
  blobs_lr: 2
  weight_decay: 1
  weight_decay: 0
  deconvolution_param {
    pad: 2
    kernel_size: 5
    stride: 2
    output_height: 108
    output_width: 108
    output_channels: 32
  }
}
layers {
  bottom: "deconv1"
  top: "deconv1"
  name: "relu_deconv1"
  type: RELU
  relu_param {
    negative_slope: 0.3
  }
}
layers {
  bottom: "deconv1"
  top: "deconv0"
  name: "deconv0"
  type: DECONVOLUTION
  blobs_lr: 1
  blobs_lr: 2
  weight_decay: 1
  weight_decay: 1
  deconvolution_param {
    pad: 2
    kernel_size: 5
    stride: 2
    output_height: 216
    output_width: 216
    output_channels: 3
  }
}
layers {
  bottom: "deconv0"
  bottom: "target_ims"
  name: "loss"
  type: EUCLIDEAN_LOSS
}
I0813 03:59:00.197518 24234 net.cpp:65] Creating Layer source_ims
I0813 03:59:00.197528 24234 net.cpp:189] source_ims -> source_ims
I0813 03:59:00.197634 24234 data_layer.cpp:223] Opening lmdb /scr/r6/tgebru/inverting_conv/caffe_invert_alexnet/data/siggraph/tiny_summer_train_lmdb
I0813 03:59:00.197837 24234 data_layer.cpp:285] output data size: 12,3,227,227
I0813 03:59:00.197844 24234 data_layer.cpp:304] Loading mean file from/scr/r6/tgebru/timnit_caffe/data/ilsvrc12/imagenet_mean.binaryproto
I0813 03:59:00.202456 24234 net.cpp:84] Top shape: 12 3 227 227 (1855044)
I0813 03:59:00.202464 24234 net.cpp:116] source_ims does not need backward computation.
I0813 03:59:00.202471 24234 net.cpp:65] Creating Layer target_ims
I0813 03:59:00.202476 24234 net.cpp:189] target_ims -> target_ims
I0813 03:59:00.202646 24234 data_layer.cpp:223] Opening lmdb /scr/r6/tgebru/inverting_conv/caffe_invert_alexnet/data/siggraph/tiny_summer_train_lmdb
I0813 03:59:00.202795 24234 data_layer.cpp:285] output data size: 12,3,216,216
I0813 03:59:00.202798 24234 data_layer.cpp:304] Loading mean file from/scr/r6/tgebru/timnit_caffe/data/ilsvrc12/imagenet_mean.binaryproto
I0813 03:59:00.207162 24234 net.cpp:84] Top shape: 12 3 216 216 (1679616)
I0813 03:59:00.207171 24234 net.cpp:116] target_ims does not need backward computation.
I0813 03:59:00.207183 24234 net.cpp:65] Creating Layer conv1
I0813 03:59:00.207187 24234 net.cpp:228] conv1 <- source_ims
I0813 03:59:00.207281 24234 net.cpp:189] conv1 -> conv1
I0813 03:59:00.208626 24234 net.cpp:84] Top shape: 12 96 55 55 (3484800)
I0813 03:59:00.208631 24234 net.cpp:116] conv1 does not need backward computation.
I0813 03:59:00.208634 24234 net.cpp:65] Creating Layer relu1
I0813 03:59:00.208638 24234 net.cpp:228] relu1 <- conv1
I0813 03:59:00.208642 24234 net.cpp:179] relu1 -> conv1 (in-place)
I0813 03:59:00.208652 24234 net.cpp:84] Top shape: 12 96 55 55 (3484800)
I0813 03:59:00.208654 24234 net.cpp:116] relu1 does not need backward computation.
I0813 03:59:00.208659 24234 net.cpp:65] Creating Layer pool1
I0813 03:59:00.208662 24234 net.cpp:228] pool1 <- conv1
I0813 03:59:00.208667 24234 net.cpp:189] pool1 -> pool1
I0813 03:59:00.208678 24234 net.cpp:84] Top shape: 12 96 27 27 (839808)
I0813 03:59:00.208680 24234 net.cpp:116] pool1 does not need backward computation.
I0813 03:59:00.208685 24234 net.cpp:65] Creating Layer norm1
I0813 03:59:00.208688 24234 net.cpp:228] norm1 <- pool1
I0813 03:59:00.208691 24234 net.cpp:189] norm1 -> norm1
I0813 03:59:00.208700 24234 net.cpp:84] Top shape: 12 96 27 27 (839808)
I0813 03:59:00.208703 24234 net.cpp:116] norm1 does not need backward computation.
I0813 03:59:00.208708 24234 net.cpp:65] Creating Layer Rconv6
I0813 03:59:00.208710 24234 net.cpp:228] Rconv6 <- norm1
I0813 03:59:00.208714 24234 net.cpp:189] Rconv6 -> Rconv6
I0813 03:59:00.208986 24234 net.cpp:84] Top shape: 12 256 27 27 (2239488)
I0813 03:59:00.208989 24234 net.cpp:111] Rconv6 needs backward computation.
I0813 03:59:00.208994 24234 net.cpp:65] Creating Layer Rrelu6
I0813 03:59:00.208997 24234 net.cpp:228] Rrelu6 <- Rconv6
I0813 03:59:00.209002 24234 net.cpp:179] Rrelu6 -> Rconv6 (in-place)
I0813 03:59:00.209007 24234 net.cpp:84] Top shape: 12 256 27 27 (2239488)
I0813 03:59:00.209008 24234 net.cpp:111] Rrelu6 needs backward computation.
I0813 03:59:00.209013 24234 net.cpp:65] Creating Layer Rconv7
I0813 03:59:00.209015 24234 net.cpp:228] Rconv7 <- Rconv6
I0813 03:59:00.209019 24234 net.cpp:189] Rconv7 -> Rconv7
I0813 03:59:00.209770 24234 net.cpp:84] Top shape: 12 256 27 27 (2239488)
I0813 03:59:00.209775 24234 net.cpp:111] Rconv7 needs backward computation.
I0813 03:59:00.209779 24234 net.cpp:65] Creating Layer Rrelu7
I0813 03:59:00.209781 24234 net.cpp:228] Rrelu7 <- Rconv7
I0813 03:59:00.209802 24234 net.cpp:179] Rrelu7 -> Rconv7 (in-place)
I0813 03:59:00.209807 24234 net.cpp:84] Top shape: 12 256 27 27 (2239488)
I0813 03:59:00.209810 24234 net.cpp:111] Rrelu7 needs backward computation.
I0813 03:59:00.209813 24234 net.cpp:65] Creating Layer Rconv8
I0813 03:59:00.209816 24234 net.cpp:228] Rconv8 <- Rconv7
I0813 03:59:00.209820 24234 net.cpp:189] Rconv8 -> Rconv8
I0813 03:59:00.210577 24234 net.cpp:84] Top shape: 12 256 27 27 (2239488)
I0813 03:59:00.210582 24234 net.cpp:111] Rconv8 needs backward computation.
I0813 03:59:00.210585 24234 net.cpp:65] Creating Layer Rrelu8
I0813 03:59:00.210588 24234 net.cpp:228] Rrelu8 <- Rconv8
I0813 03:59:00.210592 24234 net.cpp:179] Rrelu8 -> Rconv8 (in-place)
I0813 03:59:00.210597 24234 net.cpp:84] Top shape: 12 256 27 27 (2239488)
I0813 03:59:00.210598 24234 net.cpp:111] Rrelu8 needs backward computation.
I0813 03:59:00.210602 24234 net.cpp:65] Creating Layer deconv2
I0813 03:59:00.210605 24234 net.cpp:228] deconv2 <- Rconv8
I0813 03:59:00.210609 24234 net.cpp:189] deconv2 -> deconv2
I0813 03:59:00.211653 24234 net.cpp:84] Top shape: 12 64 54 54 (2239488)
I0813 03:59:00.211658 24234 net.cpp:111] deconv2 needs backward computation.
I0813 03:59:00.211663 24234 net.cpp:65] Creating Layer relu_deconv2
I0813 03:59:00.211665 24234 net.cpp:228] relu_deconv2 <- deconv2
I0813 03:59:00.211669 24234 net.cpp:179] relu_deconv2 -> deconv2 (in-place)
I0813 03:59:00.211674 24234 net.cpp:84] Top shape: 12 64 54 54 (2239488)
I0813 03:59:00.211676 24234 net.cpp:111] relu_deconv2 needs backward computation.
I0813 03:59:00.211680 24234 net.cpp:65] Creating Layer deconv1
I0813 03:59:00.211683 24234 net.cpp:228] deconv1 <- deconv2
I0813 03:59:00.211688 24234 net.cpp:189] deconv1 -> deconv1
I0813 03:59:00.211827 24234 net.cpp:84] Top shape: 12 32 108 108 (4478976)
I0813 03:59:00.211832 24234 net.cpp:111] deconv1 needs backward computation.
I0813 03:59:00.211835 24234 net.cpp:65] Creating Layer relu_deconv1
I0813 03:59:00.211838 24234 net.cpp:228] relu_deconv1 <- deconv1
I0813 03:59:00.211841 24234 net.cpp:179] relu_deconv1 -> deconv1 (in-place)
I0813 03:59:00.211846 24234 net.cpp:84] Top shape: 12 32 108 108 (4478976)
I0813 03:59:00.211849 24234 net.cpp:111] relu_deconv1 needs backward computation.
I0813 03:59:00.211853 24234 net.cpp:65] Creating Layer deconv0
I0813 03:59:00.211856 24234 net.cpp:228] deconv0 <- deconv1
I0813 03:59:00.211860 24234 net.cpp:189] deconv0 -> deconv0
I0813 03:59:00.211884 24234 net.cpp:84] Top shape: 12 3 216 216 (1679616)
I0813 03:59:00.211887 24234 net.cpp:111] deconv0 needs backward computation.
I0813 03:59:00.211890 24234 net.cpp:65] Creating Layer loss
I0813 03:59:00.211894 24234 net.cpp:228] loss <- deconv0
I0813 03:59:00.211896 24234 net.cpp:228] loss <- target_ims
I0813 03:59:00.211905 24234 net.cpp:111] loss needs backward computation.
I0813 03:59:00.211917 24234 net.cpp:238] Collecting Learning Rate and Weight Decay.
…
    source: "/scr/r6/tgebru/inverting_conv/caffe_invert_alexnet/data/siggraph/tiny_summer_val_lmdb"
    mean_file: "/scr/r6/tgebru/timnit_caffe/data/ilsvrc12/imagenet_mean.binaryproto"
    batch_size: 2
    crop_size: 227
    mirror: false
    backend: LMDB
  }
}
layers {
  top: "target_ims"
  name: "target_ims"
  type: DATA
  data_param {
    source: "/scr/r6/tgebru/inverting_conv/caffe_invert_alexnet/data/siggraph/tiny_summer_val_lmdb"
    mean_file: "/scr/r6/tgebru/timnit_caffe/data/ilsvrc12/imagenet_mean.binaryproto"
    batch_size: 2
    crop_size: 216
    mirror: false
    backend: LMDB
  }
}
layers {
  bottom: "source_ims"
  top: "conv1"
  name: "conv1"
  type: CONVOLUTION
  blobs_lr: 0
  blobs_lr: 0
  weight_decay: 1
  weight_decay: 0
  convolution_param {
    num_output: 96
    kernel_size: 11
    stride: 4
    weight_filler {
      type: "gaussian"
      std: 0.01
    }
    bias_filler {
      type: "constant"
      value: 0
    }
  }
}
layers {
  bottom: "conv1"
  top: "conv1"
  name: "relu1"
  type: RELU
}
layers {
  bottom: "conv1"
  top: "pool1"
  name: "pool1"
  type: POOLING
  pooling_param {
    pool: MAX
    kernel_size: 3
    stride: 2
  }
}
layers {
  bottom: "pool1"
  top: "norm1"
  name: "norm1"
  type: LRN
  lrn_param {
    local_size: 5
    alpha: 0.0001
    beta: 0.75
  }
}
layers {
  bottom: "norm1"
  top: "Rconv6"
  name: "Rconv6"
  type: CONVOLUTION
  blobs_lr: 0
  blobs_lr: 0
  weight_decay: 1
  weight_decay: 0
  convolution_param {
    num_output: 256
    pad: 1
    kernel_size: 3
  }
}
layers {
  bottom: "Rconv6"
  top: "Rconv6"
  name: "Rrelu6"
  type: RELU
}
layers {
  bottom: "Rconv6"
  top: "Rconv7"
  name: "Rconv7"
  type: CONVOLUTION
  blobs_lr: 0
  blobs_lr: 0
  weight_decay: 1
  weight_decay: 0
  convolution_param {
    num_output: 256
    pad: 1
    kernel_size: 3
    group: 2
  }
}
layers {
  bottom: "Rconv7"
  top: "Rconv7"
  name: "Rrelu7"
  type: RELU
}
layers {
  bottom: "Rconv7"
  top: "Rconv8"
  name: "Rconv8"
  type: CONVOLUTION
  blobs_lr: 0
  blobs_lr: 0
  weight_decay: 1
  weight_decay: 0
  convolution_param {
    num_output: 256
    pad: 1
    kernel_size: 3
    group: 2
  }
}
layers {
  bottom: "Rconv8"
  top: "Rconv8"
  name: "Rrelu8"
  type: RELU
}
layers {
  bottom: "Rconv8"
  top: "deconv2"
  name: "deconv2"
  type: DECONVOLUTION
  blobs_lr: 0
  blobs_lr: 0
  weight_decay: 1
  weight_decay: 0
  deconvolution_param {
    pad: 2
    kernel_size: 5
    stride: 2
    output_height: 54
    output_width: 54
    output_channels: 64
  }
}
layers {
  bottom: "deconv2"
  top: "deconv2"
  name: "relu_deconv2"
  type: RELU
  relu_param {
    negative_slope: 0.3
  }
}
layers {
  bottom: "deconv2"
  top: "deconv1"
  name: "deconv1"
  type: DECONVOLUTION
  blobs_lr: 0
  blobs_lr: 0
  weight_decay: 1
  weight_decay: 0
  deconvolution_param {
    pad: 2
    kernel_size: 5
    stride: 2
    output_height: 108
    output_width: 108
    output_channels: 32
  }
}
layers {
  bottom: "deconv1"
  top: "deconv1"
  name: "relu_deconv1"
  type: RELU
  relu_param {
    negative_slope: 0.3
  }
}
layers {
  bottom: "deconv1"
  top: "deconv0"
  name: "deconv0"
  type: DECONVOLUTION
  blobs_lr: 0
  blobs_lr: 0
  weight_decay: 1
  weight_decay: 0
  deconvolution_param {
    pad: 2
    kernel_size: 5
    stride: 2
    output_height: 216
    output_width: 216
    output_channels: 3
  }
}
layers {
  bottom: "deconv0"
  bottom: "target_ims"
  name: "loss"
  type: EUCLIDEAN_LOSS
}
I0813 03:59:00.212615 24234 net.cpp:65] Creating Layer source_ims
I0813 03:59:00.212620 24234 net.cpp:189] source_ims -> source_ims
I0813 03:59:00.212693 24234 data_layer.cpp:223] Opening lmdb /scr/r6/tgebru/inverting_conv/caffe_invert_alexnet/data/siggraph/tiny_summer_val_lmdb
I0813 03:59:00.212908 24234 data_layer.cpp:285] output data size: 2,3,227,227
I0813 03:59:00.212913 24234 data_layer.cpp:304] Loading mean file from/scr/r6/tgebru/timnit_caffe/data/ilsvrc12/imagenet_mean.binaryproto
I0813 03:59:00.215271 24234 net.cpp:84] Top shape: 2 3 227 227 (309174)
I0813 03:59:00.215278 24234 net.cpp:116] source_ims does not need backward computation.
I0813 03:59:00.215284 24234 net.cpp:65] Creating Layer target_ims
I0813 03:59:00.215288 24234 net.cpp:189] target_ims -> target_ims
I0813 03:59:00.215338 24234 data_layer.cpp:223] Opening lmdb /scr/r6/tgebru/inverting_conv/caffe_invert_alexnet/data/siggraph/tiny_summer_val_lmdb
I0813 03:59:00.215415 24234 data_layer.cpp:285] output data size: 2,3,216,216
I0813 03:59:00.215419 24234 data_layer.cpp:304] Loading mean file from/scr/r6/tgebru/timnit_caffe/data/ilsvrc12/imagenet_mean.binaryproto
I0813 03:59:00.218114 24234 net.cpp:84] Top shape: 2 3 216 216 (279936)
I0813 03:59:00.218121 24234 net.cpp:116] target_ims does not need backward computation.
I0813 03:59:00.218142 24234 net.cpp:65] Creating Layer conv1
I0813 03:59:00.218145 24234 net.cpp:228] conv1 <- source_ims
I0813 03:59:00.218152 24234 net.cpp:189] conv1 -> conv1
I0813 03:59:00.219393 24234 net.cpp:84] Top shape: 2 96 55 55 (580800)
I0813 03:59:00.219396 24234 net.cpp:116] conv1 does not need backward computation.
I0813 03:59:00.219400 24234 net.cpp:65] Creating Layer relu1
I0813 03:59:00.219403 24234 net.cpp:228] relu1 <- conv1
I0813 03:59:00.219408 24234 net.cpp:179] relu1 -> conv1 (in-place)
I0813 03:59:00.219413 24234 net.cpp:84] Top shape: 2 96 55 55 (580800)
I0813 03:59:00.219415 24234 net.cpp:116] relu1 does not need backward computation.
I0813 03:59:00.219420 24234 net.cpp:65] Creating Layer pool1
I0813 03:59:00.219422 24234 net.cpp:228] pool1 <- conv1
I0813 03:59:00.219426 24234 net.cpp:189] pool1 -> pool1
I0813 03:59:00.219434 24234 net.cpp:84] Top shape: 2 96 27 27 (139968)
I0813 03:59:00.219436 24234 net.cpp:116] pool1 does not need backward computation.
I0813 03:59:00.219440 24234 net.cpp:65] Creating Layer norm1
I0813 03:59:00.219444 24234 net.cpp:228] norm1 <- pool1
I0813 03:59:00.219447 24234 net.cpp:189] norm1 -> norm1
I0813 03:59:00.219454 24234 net.cpp:84] Top shape: 2 96 27 27 (139968)
I0813 03:59:00.219455 24234 net.cpp:116] norm1 does not need backward computation.
I0813 03:59:00.219460 24234 net.cpp:65] Creating Layer Rconv6
I0813 03:59:00.219462 24234 net.cpp:228] Rconv6 <- norm1
I0813 03:59:00.219466 24234 net.cpp:189] Rconv6 -> Rconv6
I0813 03:59:00.220027 24234 net.cpp:84] Top shape: 2 256 27 27 (373248)
I0813 03:59:00.220032 24234 net.cpp:116] Rconv6 does not need backward computation.
I0813 03:59:00.220036 24234 net.cpp:65] Creating Layer Rrelu6
I0813 03:59:00.220039 24234 net.cpp:228] Rrelu6 <- Rconv6
I0813 03:59:00.220043 24234 net.cpp:179] Rrelu6 -> Rconv6 (in-place)
I0813 03:59:00.220048 24234 net.cpp:84] Top shape: 2 256 27 27 (373248)
I0813 03:59:00.220052 24234 net.cpp:116] Rrelu6 does not need backward computation.
I0813 03:59:00.220055 24234 net.cpp:65] Creating Layer Rconv7
I0813 03:59:00.220058 24234 net.cpp:228] Rconv7 <- Rconv6
I0813 03:59:00.220062 24234 net.cpp:189] Rconv7 -> Rconv7
I0813 03:59:00.220799 24234 net.cpp:84] Top shape: 2 256 27 27 (373248)
I0813 03:59:00.220803 24234 net.cpp:116] Rconv7 does not need backward computation.
I0813 03:59:00.220808 24234 net.cpp:65] Creating Layer Rrelu7
I0813 03:59:00.220810 24234 net.cpp:228] Rrelu7 <- Rconv7
I0813 03:59:00.220814 24234 net.cpp:179] Rrelu7 -> Rconv7 (in-place)
I0813 03:59:00.220819 24234 net.cpp:84] Top shape: 2 256 27 27 (373248)
I0813 03:59:00.220823 24234 net.cpp:116] Rrelu7 does not need backward computation.
I0813 03:59:00.220826 24234 net.cpp:65] Creating Layer Rconv8
I0813 03:59:00.220829 24234 net.cpp:228] Rconv8 <- Rconv7
I0813 03:59:00.220832 24234 net.cpp:189] Rconv8 -> Rconv8
I0813 03:59:00.221565 24234 net.cpp:84] Top shape: 2 256 27 27 (373248)
I0813 03:59:00.221568 24234 net.cpp:116] Rconv8 does not need backward computation.
I0813 03:59:00.221572 24234 net.cpp:65] Creating Layer Rrelu8
I0813 03:59:00.221575 24234 net.cpp:228] Rrelu8 <- Rconv8
I0813 03:59:00.221580 24234 net.cpp:179] Rrelu8 -> Rconv8 (in-place)
I0813 03:59:00.221583 24234 net.cpp:84] Top shape: 2 256 27 27 (373248)
I0813 03:59:00.221585 24234 net.cpp:116] Rrelu8 does not need backward computation.
I0813 03:59:00.221590 24234 net.cpp:65] Creating Layer deconv2
I0813 03:59:00.221592 24234 net.cpp:228] deconv2 <- Rconv8
I0813 03:59:00.221596 24234 net.cpp:189] deconv2 -> deconv2
I0813 03:59:00.222609 24234 net.cpp:84] Top shape: 2 64 54 54 (373248)
I0813 03:59:00.222612 24234 net.cpp:116] deconv2 does not need backward computation.
I0813 03:59:00.222616 24234 net.cpp:65] Creating Layer relu_deconv2
I0813 03:59:00.222620 24234 net.cpp:228] relu_deconv2 <- deconv2
I0813 03:59:00.222623 24234 net.cpp:179] relu_deconv2 -> deconv2 (in-place)
I0813 03:59:00.222628 24234 net.cpp:84] Top shape: 2 64 54 54 (373248)
I0813 03:59:00.222630 24234 net.cpp:116] relu_deconv2 does not need backward computation.
I0813 03:59:00.222646 24234 net.cpp:65] Creating Layer deconv1
I0813 03:59:00.222650 24234 net.cpp:228] deconv1 <- deconv2
I0813 03:59:00.222654 24234 net.cpp:189] deconv1 -> deconv1
I0813 03:59:00.222795 24234 net.cpp:84] Top shape: 2 32 108 108 (746496)
I0813 03:59:00.222798 24234 net.cpp:116] deconv1 does not need backward computation.
I0813 03:59:00.222802 24234 net.cpp:65] Creating Layer relu_deconv1
I0813 03:59:00.222805 24234 net.cpp:228] relu_deconv1 <- deconv1
I0813 03:59:00.222810 24234 net.cpp:179] relu_deconv1 -> deconv1 (in-place)
I0813 03:59:00.222813 24234 net.cpp:84] Top shape: 2 32 108 108 (746496)
I0813 03:59:00.222816 24234 net.cpp:116] relu_deconv1 does not need backward computation.
I0813 03:59:00.222821 24234 net.cpp:65] Creating Layer deconv0
I0813 03:59:00.222825 24234 net.cpp:228] deconv0 <- deconv1
I0813 03:59:00.222828 24234 net.cpp:189] deconv0 -> deconv0
I0813 03:59:00.222847 24234 net.cpp:84] Top shape: 2 3 216 216 (279936)
I0813 03:59:00.222851 24234 net.cpp:116] deconv0 does not need backward computation.
I0813 03:59:00.222854 24234 net.cpp:65] Creating Layer loss
I0813 03:59:00.222857 24234 net.cpp:228] loss <- deconv0
I0813 03:59:00.222861 24234 net.cpp:228] loss <- target_ims
I0813 03:59:00.222865 24234 net.cpp:116] loss does not need backward computation.
I0813 03:59:00.222877 24234 net.cpp:238] Collecting Learning Rate and Weight Decay.
…
