…
    source: "/scr/r6/tgebru/inverting_conv/caffe_invert_alexnet/data/siggraph/tiny_summer_train_lmdb"
    mean_file: "/scr/r6/tgebru/timnit_caffe/data/ilsvrc12/imagenet_mean.binaryproto"
    batch_size: 12
    crop_size: 227
    mirror: false
    backend: LMDB
  }
}
layers {
  top: "target_ims"
  name: "target_ims"
  type: DATA
  data_param {
    source: "/scr/r6/tgebru/inverting_conv/caffe_invert_alexnet/data/siggraph/tiny_winter_train_lmdb"
    mean_file: "/scr/r6/tgebru/timnit_caffe/data/ilsvrc12/imagenet_mean.binaryproto"
    batch_size: 12
    crop_size: 216
    mirror: false
    backend: LMDB
  }
}
layers {
  bottom: "source_ims"
  top: "conv1"
  name: "conv1"
  type: CONVOLUTION
  blobs_lr: 0
  blobs_lr: 0
  weight_decay: 1
  weight_decay: 0
  convolution_param {
    num_output: 96
    kernel_size: 11
    stride: 4
    weight_filler {
      type: "gaussian"
      std: 0.01
    }
    bias_filler {
      type: "constant"
      value: 0
    }
  }
}
layers {
  bottom: "conv1"
  top: "conv1"
  name: "relu1"
  type: RELU
}
layers {
  bottom: "conv1"
  top: "pool1"
  name: "pool1"
  type: POOLING
  pooling_param {
    pool: MAX
    kernel_size: 3
    stride: 2
  }
}
layers {
  bottom: "pool1"
  top: "norm1"
  name: "norm1"
  type: LRN
  lrn_param {
    local_size: 5
    alpha: 0.0001
    beta: 0.75
  }
}
layers {
  bottom: "norm1"
  top: "Rconv6"
  name: "Rconv6"
  type: CONVOLUTION
  blobs_lr: 1
  blobs_lr: 2
  weight_decay: 1
  weight_decay: 0
  convolution_param {
    num_output: 256
    pad: 1
    kernel_size: 3
  }
}
layers {
  bottom: "Rconv6"
  top: "Rconv6"
  name: "Rrelu6"
  type: RELU
}
layers {
  bottom: "Rconv6"
  top: "Rconv7"
  name: "Rconv7"
  type: CONVOLUTION
  blobs_lr: 1
  blobs_lr: 2
  weight_decay: 1
  weight_decay: 0
  convolution_param {
    num_output: 256
    pad: 1
    kernel_size: 3
    group: 2
  }
}
layers {
  bottom: "Rconv7"
  top: "Rconv7"
  name: "Rrelu7"
  type: RELU
}
layers {
  bottom: "Rconv7"
  top: "Rconv8"
  name: "Rconv8"
  type: CONVOLUTION
  blobs_lr: 1
  blobs_lr: 2
  weight_decay: 1
  weight_decay: 0
  convolution_param {
    num_output: 256
    pad: 1
    kernel_size: 3
    group: 2
  }
}
layers {
  bottom: "Rconv8"
  top: "Rconv8"
  name: "Rrelu8"
  type: RELU
}
layers {
  bottom: "Rconv8"
  top: "deconv2"
  name: "deconv2"
  type: DECONVOLUTION
  blobs_lr: 1
  blobs_lr: 2
  weight_decay: 1
  weight_decay: 0
  deconvolution_param {
    pad: 2
    kernel_size: 5
    stride: 2
    output_height: 54
    output_width: 54
    output_channels: 64
  }
}
layers {
  bottom: "deconv2"
  top: "deconv2"
  name: "relu_deconv2"
  type: RELU
  relu_param {
    negative_slope: 0.3
  }
}
layers {
  bottom: "deconv2"
  top: "deconv1"
  name: "deconv1"
  type: DECONVOLUTION
  blobs_lr: 1
  blobs_lr: 2
  weight_decay: 1
  weight_decay: 0
  deconvolution_param {
    pad: 2
    kernel_size: 5
    stride: 2
    output_height: 108
    output_width: 108
    output_channels: 32
  }
}
layers {
  bottom: "deconv1"
  top: "deconv1"
  name: "relu_deconv1"
  type: RELU
  relu_param {
    negative_slope: 0.3
  }
}
layers {
  bottom: "deconv1"
  top: "deconv0"
  name: "deconv0"
  type: DECONVOLUTION
  blobs_lr: 1
  blobs_lr: 2
  weight_decay: 1
  weight_decay: 1
  deconvolution_param {
    pad: 2
    kernel_size: 5
    stride: 2
    output_height: 216
    output_width: 216
    output_channels: 3
  }
}
layers {
  bottom: "deconv0"
  bottom: "target_ims"
  name: "loss"
  type: EUCLIDEAN_LOSS
}
I0813 03:29:51.859989 13695 net.cpp:65] Creating Layer source_ims
I0813 03:29:51.859998 13695 net.cpp:189] source_ims -> source_ims
I0813 03:29:51.860103 13695 data_layer.cpp:223] Opening lmdb /scr/r6/tgebru/inverting_conv/caffe_invert_alexnet/data/siggraph/tiny_summer_train_lmdb
I0813 03:29:51.860307 13695 data_layer.cpp:285] output data size: 12,3,227,227
I0813 03:29:51.860314 13695 data_layer.cpp:304] Loading mean file from/scr/r6/tgebru/timnit_caffe/data/ilsvrc12/imagenet_mean.binaryproto
I0813 03:29:51.864944 13695 net.cpp:84] Top shape: 12 3 227 227 (1855044)
I0813 03:29:51.864953 13695 net.cpp:116] source_ims does not need backward computation.
I0813 03:29:51.864959 13695 net.cpp:65] Creating Layer target_ims
I0813 03:29:51.864964 13695 net.cpp:189] target_ims -> target_ims
I0813 03:29:51.865100 13695 data_layer.cpp:223] Opening lmdb /scr/r6/tgebru/inverting_conv/caffe_invert_alexnet/data/siggraph/tiny_winter_train_lmdb
I0813 03:29:51.865257 13695 data_layer.cpp:285] output data size: 12,3,216,216
I0813 03:29:51.865262 13695 data_layer.cpp:304] Loading mean file from/scr/r6/tgebru/timnit_caffe/data/ilsvrc12/imagenet_mean.binaryproto
I0813 03:29:51.869597 13695 net.cpp:84] Top shape: 12 3 216 216 (1679616)
I0813 03:29:51.869606 13695 net.cpp:116] target_ims does not need backward computation.
I0813 03:29:51.869617 13695 net.cpp:65] Creating Layer conv1
I0813 03:29:51.869621 13695 net.cpp:228] conv1 <- source_ims
I0813 03:29:51.869696 13695 net.cpp:189] conv1 -> conv1
I0813 03:29:51.871003 13695 net.cpp:84] Top shape: 12 96 55 55 (3484800)
I0813 03:29:51.871009 13695 net.cpp:116] conv1 does not need backward computation.
I0813 03:29:51.871016 13695 net.cpp:65] Creating Layer relu1
I0813 03:29:51.871018 13695 net.cpp:228] relu1 <- conv1
I0813 03:29:51.871023 13695 net.cpp:179] relu1 -> conv1 (in-place)
I0813 03:29:51.871032 13695 net.cpp:84] Top shape: 12 96 55 55 (3484800)
I0813 03:29:51.871036 13695 net.cpp:116] relu1 does not need backward computation.
I0813 03:29:51.871040 13695 net.cpp:65] Creating Layer pool1
I0813 03:29:51.871043 13695 net.cpp:228] pool1 <- conv1
I0813 03:29:51.871047 13695 net.cpp:189] pool1 -> pool1
I0813 03:29:51.871060 13695 net.cpp:84] Top shape: 12 96 27 27 (839808)
I0813 03:29:51.871063 13695 net.cpp:116] pool1 does not need backward computation.
I0813 03:29:51.871068 13695 net.cpp:65] Creating Layer norm1
I0813 03:29:51.871072 13695 net.cpp:228] norm1 <- pool1
I0813 03:29:51.871075 13695 net.cpp:189] norm1 -> norm1
I0813 03:29:51.871084 13695 net.cpp:84] Top shape: 12 96 27 27 (839808)
I0813 03:29:51.871088 13695 net.cpp:116] norm1 does not need backward computation.
I0813 03:29:51.871091 13695 net.cpp:65] Creating Layer Rconv6
I0813 03:29:51.871094 13695 net.cpp:228] Rconv6 <- norm1
I0813 03:29:51.871099 13695 net.cpp:189] Rconv6 -> Rconv6
I0813 03:29:51.871356 13695 net.cpp:84] Top shape: 12 256 27 27 (2239488)
I0813 03:29:51.871361 13695 net.cpp:111] Rconv6 needs backward computation.
I0813 03:29:51.871366 13695 net.cpp:65] Creating Layer Rrelu6
I0813 03:29:51.871368 13695 net.cpp:228] Rrelu6 <- Rconv6
I0813 03:29:51.871372 13695 net.cpp:179] Rrelu6 -> Rconv6 (in-place)
I0813 03:29:51.871377 13695 net.cpp:84] Top shape: 12 256 27 27 (2239488)
I0813 03:29:51.871379 13695 net.cpp:111] Rrelu6 needs backward computation.
I0813 03:29:51.871384 13695 net.cpp:65] Creating Layer Rconv7
I0813 03:29:51.871387 13695 net.cpp:228] Rconv7 <- Rconv6
I0813 03:29:51.871392 13695 net.cpp:189] Rconv7 -> Rconv7
I0813 03:29:51.872097 13695 net.cpp:84] Top shape: 12 256 27 27 (2239488)
I0813 03:29:51.872102 13695 net.cpp:111] Rconv7 needs backward computation.
I0813 03:29:51.872107 13695 net.cpp:65] Creating Layer Rrelu7
I0813 03:29:51.872130 13695 net.cpp:228] Rrelu7 <- Rconv7
I0813 03:29:51.872136 13695 net.cpp:179] Rrelu7 -> Rconv7 (in-place)
I0813 03:29:51.872140 13695 net.cpp:84] Top shape: 12 256 27 27 (2239488)
I0813 03:29:51.872143 13695 net.cpp:111] Rrelu7 needs backward computation.
I0813 03:29:51.872148 13695 net.cpp:65] Creating Layer Rconv8
I0813 03:29:51.872149 13695 net.cpp:228] Rconv8 <- Rconv7
I0813 03:29:51.872153 13695 net.cpp:189] Rconv8 -> Rconv8
I0813 03:29:51.872913 13695 net.cpp:84] Top shape: 12 256 27 27 (2239488)
I0813 03:29:51.872917 13695 net.cpp:111] Rconv8 needs backward computation.
I0813 03:29:51.872921 13695 net.cpp:65] Creating Layer Rrelu8
I0813 03:29:51.872925 13695 net.cpp:228] Rrelu8 <- Rconv8
I0813 03:29:51.872928 13695 net.cpp:179] Rrelu8 -> Rconv8 (in-place)
I0813 03:29:51.872932 13695 net.cpp:84] Top shape: 12 256 27 27 (2239488)
I0813 03:29:51.872936 13695 net.cpp:111] Rrelu8 needs backward computation.
I0813 03:29:51.872939 13695 net.cpp:65] Creating Layer deconv2
I0813 03:29:51.872941 13695 net.cpp:228] deconv2 <- Rconv8
I0813 03:29:51.872946 13695 net.cpp:189] deconv2 -> deconv2
I0813 03:29:51.874008 13695 net.cpp:84] Top shape: 12 64 54 54 (2239488)
I0813 03:29:51.874014 13695 net.cpp:111] deconv2 needs backward computation.
I0813 03:29:51.874018 13695 net.cpp:65] Creating Layer relu_deconv2
I0813 03:29:51.874022 13695 net.cpp:228] relu_deconv2 <- deconv2
I0813 03:29:51.874025 13695 net.cpp:179] relu_deconv2 -> deconv2 (in-place)
I0813 03:29:51.874029 13695 net.cpp:84] Top shape: 12 64 54 54 (2239488)
I0813 03:29:51.874032 13695 net.cpp:111] relu_deconv2 needs backward computation.
I0813 03:29:51.874037 13695 net.cpp:65] Creating Layer deconv1
I0813 03:29:51.874039 13695 net.cpp:228] deconv1 <- deconv2
I0813 03:29:51.874042 13695 net.cpp:189] deconv1 -> deconv1
I0813 03:29:51.874181 13695 net.cpp:84] Top shape: 12 32 108 108 (4478976)
I0813 03:29:51.874186 13695 net.cpp:111] deconv1 needs backward computation.
I0813 03:29:51.874191 13695 net.cpp:65] Creating Layer relu_deconv1
I0813 03:29:51.874193 13695 net.cpp:228] relu_deconv1 <- deconv1
I0813 03:29:51.874197 13695 net.cpp:179] relu_deconv1 -> deconv1 (in-place)
I0813 03:29:51.874202 13695 net.cpp:84] Top shape: 12 32 108 108 (4478976)
I0813 03:29:51.874204 13695 net.cpp:111] relu_deconv1 needs backward computation.
I0813 03:29:51.874209 13695 net.cpp:65] Creating Layer deconv0
I0813 03:29:51.874212 13695 net.cpp:228] deconv0 <- deconv1
I0813 03:29:51.874215 13695 net.cpp:189] deconv0 -> deconv0
I0813 03:29:51.874258 13695 net.cpp:84] Top shape: 12 3 216 216 (1679616)
I0813 03:29:51.874260 13695 net.cpp:111] deconv0 needs backward computation.
I0813 03:29:51.874264 13695 net.cpp:65] Creating Layer loss
I0813 03:29:51.874266 13695 net.cpp:228] loss <- deconv0
I0813 03:29:51.874270 13695 net.cpp:228] loss <- target_ims
I0813 03:29:51.874279 13695 net.cpp:111] loss needs backward computation.
I0813 03:29:51.874294 13695 net.cpp:238] Collecting Learning Rate and Weight Decay.
…
    source: "/scr/r6/tgebru/inverting_conv/caffe_invert_alexnet/data/siggraph/tiny_summer_val_lmdb"
    mean_file: "/scr/r6/tgebru/timnit_caffe/data/ilsvrc12/imagenet_mean.binaryproto"
    batch_size: 64
    crop_size: 227
    mirror: false
    backend: LMDB
  }
}
layers {
  top: "target_ims"
  name: "target_ims"
  type: DATA
  data_param {
    source: "/scr/r6/tgebru/inverting_conv/caffe_invert_alexnet/data/siggraph/tiny_winter_val_lmdb"
    mean_file: "/scr/r6/tgebru/timnit_caffe/data/ilsvrc12/imagenet_mean.binaryproto"
    batch_size: 64
    crop_size: 216
    mirror: false
    backend: LMDB
  }
}
layers {
  bottom: "source_ims"
  top: "conv1"
  name: "conv1"
  type: CONVOLUTION
  blobs_lr: 0
  blobs_lr: 0
  weight_decay: 1
  weight_decay: 0
  convolution_param {
    num_output: 96
    kernel_size: 11
    stride: 4
    weight_filler {
      type: "gaussian"
      std: 0.01
    }
    bias_filler {
      type: "constant"
      value: 0
    }
  }
}
layers {
  bottom: "conv1"
  top: "conv1"
  name: "relu1"
  type: RELU
}
layers {
  bottom: "conv1"
  top: "pool1"
  name: "pool1"
  type: POOLING
  pooling_param {
    pool: MAX
    kernel_size: 3
    stride: 2
  }
}
layers {
  bottom: "pool1"
  top: "norm1"
  name: "norm1"
  type: LRN
  lrn_param {
    local_size: 5
    alpha: 0.0001
    beta: 0.75
  }
}
layers {
  bottom: "norm1"
  top: "Rconv6"
  name: "Rconv6"
  type: CONVOLUTION
  blobs_lr: 0
  blobs_lr: 0
  weight_decay: 1
  weight_decay: 0
  convolution_param {
    num_output: 256
    pad: 1
    kernel_size: 3
  }
}
layers {
  bottom: "Rconv6"
  top: "Rconv6"
  name: "Rrelu6"
  type: RELU
}
layers {
  bottom: "Rconv6"
  top: "Rconv7"
  name: "Rconv7"
  type: CONVOLUTION
  blobs_lr: 0
  blobs_lr: 0
  weight_decay: 1
  weight_decay: 0
  convolution_param {
    num_output: 256
    pad: 1
    kernel_size: 3
    group: 2
  }
}
layers {
  bottom: "Rconv7"
  top: "Rconv7"
  name: "Rrelu7"
  type: RELU
}
layers {
  bottom: "Rconv7"
  top: "Rconv8"
  name: "Rconv8"
  type: CONVOLUTION
  blobs_lr: 0
  blobs_lr: 0
  weight_decay: 1
  weight_decay: 0
  convolution_param {
    num_output: 256
    pad: 1
    kernel_size: 3
    group: 2
  }
}
layers {
  bottom: "Rconv8"
  top: "Rconv8"
  name: "Rrelu8"
  type: RELU
}
layers {
  bottom: "Rconv8"
  top: "deconv2"
  name: "deconv2"
  type: DECONVOLUTION
  blobs_lr: 0
  blobs_lr: 0
  weight_decay: 1
  weight_decay: 0
  deconvolution_param {
    pad: 2
    kernel_size: 5
    stride: 2
    output_height: 54
    output_width: 54
    output_channels: 64
  }
}
layers {
  bottom: "deconv2"
  top: "deconv2"
  name: "relu_deconv2"
  type: RELU
  relu_param {
    negative_slope: 0.3
  }
}
layers {
  bottom: "deconv2"
  top: "deconv1"
  name: "deconv1"
  type: DECONVOLUTION
  blobs_lr: 0
  blobs_lr: 0
  weight_decay: 1
  weight_decay: 0
  deconvolution_param {
    pad: 2
    kernel_size: 5
    stride: 2
    output_height: 108
    output_width: 108
    output_channels: 32
  }
}
layers {
  bottom: "deconv1"
  top: "deconv1"
  name: "relu_deconv1"
  type: RELU
  relu_param {
    negative_slope: 0.3
  }
}
layers {
  bottom: "deconv1"
  top: "deconv0"
  name: "deconv0"
  type: DECONVOLUTION
  blobs_lr: 0
  blobs_lr: 0
  weight_decay: 1
  weight_decay: 0
  deconvolution_param {
    pad: 2
    kernel_size: 5
    stride: 2
    output_height: 216
    output_width: 216
    output_channels: 3
  }
}
layers {
  bottom: "deconv0"
  bottom: "target_ims"
  name: "loss"
  type: EUCLIDEAN_LOSS
}
I0813 03:29:51.875016 13695 net.cpp:65] Creating Layer source_ims
I0813 03:29:51.875021 13695 net.cpp:189] source_ims -> source_ims
I0813 03:29:51.875073 13695 data_layer.cpp:223] Opening lmdb /scr/r6/tgebru/inverting_conv/caffe_invert_alexnet/data/siggraph/tiny_summer_val_lmdb
I0813 03:29:51.875283 13695 data_layer.cpp:285] output data size: 64,3,227,227
I0813 03:29:51.875288 13695 data_layer.cpp:304] Loading mean file from/scr/r6/tgebru/timnit_caffe/data/ilsvrc12/imagenet_mean.binaryproto
I0813 03:29:51.889499 13695 net.cpp:84] Top shape: 64 3 227 227 (9893568)
I0813 03:29:51.889516 13695 net.cpp:116] source_ims does not need backward computation.
I0813 03:29:51.889528 13695 net.cpp:65] Creating Layer target_ims
I0813 03:29:51.889534 13695 net.cpp:189] target_ims -> target_ims
I0813 03:29:51.889617 13695 data_layer.cpp:223] Opening lmdb /scr/r6/tgebru/inverting_conv/caffe_invert_alexnet/data/siggraph/tiny_winter_val_lmdb
I0813 03:29:51.889736 13695 data_layer.cpp:285] output data size: 64,3,216,216
I0813 03:29:51.889740 13695 data_layer.cpp:304] Loading mean file from/scr/r6/tgebru/timnit_caffe/data/ilsvrc12/imagenet_mean.binaryproto
I0813 03:29:51.902317 13695 net.cpp:84] Top shape: 64 3 216 216 (8957952)
I0813 03:29:51.902365 13695 net.cpp:116] target_ims does not need backward computation.
I0813 03:29:51.902379 13695 net.cpp:65] Creating Layer conv1
I0813 03:29:51.902382 13695 net.cpp:228] conv1 <- source_ims
I0813 03:29:51.902390 13695 net.cpp:189] conv1 -> conv1
I0813 03:29:51.903650 13695 net.cpp:84] Top shape: 64 96 55 55 (18585600)
I0813 03:29:51.903655 13695 net.cpp:116] conv1 does not need backward computation.
I0813 03:29:51.903659 13695 net.cpp:65] Creating Layer relu1
I0813 03:29:51.903662 13695 net.cpp:228] relu1 <- conv1
I0813 03:29:51.903667 13695 net.cpp:179] relu1 -> conv1 (in-place)
I0813 03:29:51.903672 13695 net.cpp:84] Top shape: 64 96 55 55 (18585600)
I0813 03:29:51.903676 13695 net.cpp:116] relu1 does not need backward computation.
I0813 03:29:51.903681 13695 net.cpp:65] Creating Layer pool1
I0813 03:29:51.903683 13695 net.cpp:228] pool1 <- conv1
I0813 03:29:51.903687 13695 net.cpp:189] pool1 -> pool1
I0813 03:29:51.903694 13695 net.cpp:84] Top shape: 64 96 27 27 (4478976)
I0813 03:29:51.903697 13695 net.cpp:116] pool1 does not need backward computation.
I0813 03:29:51.903703 13695 net.cpp:65] Creating Layer norm1
I0813 03:29:51.903705 13695 net.cpp:228] norm1 <- pool1
I0813 03:29:51.903709 13695 net.cpp:189] norm1 -> norm1
I0813 03:29:51.903715 13695 net.cpp:84] Top shape: 64 96 27 27 (4478976)
I0813 03:29:51.903718 13695 net.cpp:116] norm1 does not need backward computation.
I0813 03:29:51.903723 13695 net.cpp:65] Creating Layer Rconv6
I0813 03:29:51.903725 13695 net.cpp:228] Rconv6 <- norm1
I0813 03:29:51.903729 13695 net.cpp:189] Rconv6 -> Rconv6
I0813 03:29:51.903966 13695 net.cpp:84] Top shape: 64 256 27 27 (11943936)
I0813 03:29:51.903970 13695 net.cpp:116] Rconv6 does not need backward computation.
I0813 03:29:51.903975 13695 net.cpp:65] Creating Layer Rrelu6
I0813 03:29:51.903978 13695 net.cpp:228] Rrelu6 <- Rconv6
I0813 03:29:51.903982 13695 net.cpp:179] Rrelu6 -> Rconv6 (in-place)
I0813 03:29:51.903987 13695 net.cpp:84] Top shape: 64 256 27 27 (11943936)
I0813 03:29:51.903990 13695 net.cpp:116] Rrelu6 does not need backward computation.
I0813 03:29:51.903995 13695 net.cpp:65] Creating Layer Rconv7
I0813 03:29:51.903997 13695 net.cpp:228] Rconv7 <- Rconv6
I0813 03:29:51.904001 13695 net.cpp:189] Rconv7 -> Rconv7
I0813 03:29:51.904793 13695 net.cpp:84] Top shape: 64 256 27 27 (11943936)
I0813 03:29:51.904798 13695 net.cpp:116] Rconv7 does not need backward computation.
I0813 03:29:51.904803 13695 net.cpp:65] Creating Layer Rrelu7
I0813 03:29:51.904804 13695 net.cpp:228] Rrelu7 <- Rconv7
I0813 03:29:51.904808 13695 net.cpp:179] Rrelu7 -> Rconv7 (in-place)
I0813 03:29:51.904814 13695 net.cpp:84] Top shape: 64 256 27 27 (11943936)
I0813 03:29:51.904816 13695 net.cpp:116] Rrelu7 does not need backward computation.
I0813 03:29:51.904820 13695 net.cpp:65] Creating Layer Rconv8
I0813 03:29:51.904822 13695 net.cpp:228] Rconv8 <- Rconv7
I0813 03:29:51.904826 13695 net.cpp:189] Rconv8 -> Rconv8
I0813 03:29:51.905627 13695 net.cpp:84] Top shape: 64 256 27 27 (11943936)
I0813 03:29:51.905632 13695 net.cpp:116] Rconv8 does not need backward computation.
I0813 03:29:51.905635 13695 net.cpp:65] Creating Layer Rrelu8
I0813 03:29:51.905638 13695 net.cpp:228] Rrelu8 <- Rconv8
I0813 03:29:51.905642 13695 net.cpp:179] Rrelu8 -> Rconv8 (in-place)
I0813 03:29:51.905647 13695 net.cpp:84] Top shape: 64 256 27 27 (11943936)
I0813 03:29:51.905649 13695 net.cpp:116] Rrelu8 does not need backward computation.
I0813 03:29:51.905654 13695 net.cpp:65] Creating Layer deconv2
I0813 03:29:51.905658 13695 net.cpp:228] deconv2 <- Rconv8
I0813 03:29:51.905663 13695 net.cpp:189] deconv2 -> deconv2
I0813 03:29:51.906692 13695 net.cpp:84] Top shape: 64 64 54 54 (11943936)
I0813 03:29:51.906697 13695 net.cpp:116] deconv2 does not need backward computation.
I0813 03:29:51.906702 13695 net.cpp:65] Creating Layer relu_deconv2
I0813 03:29:51.906705 13695 net.cpp:228] relu_deconv2 <- deconv2
I0813 03:29:51.906709 13695 net.cpp:179] relu_deconv2 -> deconv2 (in-place)
I0813 03:29:51.906715 13695 net.cpp:84] Top shape: 64 64 54 54 (11943936)
I0813 03:29:51.906729 13695 net.cpp:116] relu_deconv2 does not need backward computation.
I0813 03:29:51.906733 13695 net.cpp:65] Creating Layer deconv1
I0813 03:29:51.906736 13695 net.cpp:228] deconv1 <- deconv2
I0813 03:29:51.906740 13695 net.cpp:189] deconv1 -> deconv1
I0813 03:29:51.906893 13695 net.cpp:84] Top shape: 64 32 108 108 (23887872)
I0813 03:29:51.906898 13695 net.cpp:116] deconv1 does not need backward computation.
I0813 03:29:51.906903 13695 net.cpp:65] Creating Layer relu_deconv1
I0813 03:29:51.906906 13695 net.cpp:228] relu_deconv1 <- deconv1
I0813 03:29:51.906910 13695 net.cpp:179] relu_deconv1 -> deconv1 (in-place)
I0813 03:29:51.906914 13695 net.cpp:84] Top shape: 64 32 108 108 (23887872)
I0813 03:29:51.906918 13695 net.cpp:116] relu_deconv1 does not need backward computation.
I0813 03:29:51.906922 13695 net.cpp:65] Creating Layer deconv0
I0813 03:29:51.906924 13695 net.cpp:228] deconv0 <- deconv1
I0813 03:29:51.906929 13695 net.cpp:189] deconv0 -> deconv0
I0813 03:29:51.906951 13695 net.cpp:84] Top shape: 64 3 216 216 (8957952)
I0813 03:29:51.906955 13695 net.cpp:116] deconv0 does not need backward computation.
I0813 03:29:51.906958 13695 net.cpp:65] Creating Layer loss
I0813 03:29:51.906961 13695 net.cpp:228] loss <- deconv0
I0813 03:29:51.906965 13695 net.cpp:228] loss <- target_ims
I0813 03:29:51.906970 13695 net.cpp:116] loss does not need backward computation.
I0813 03:29:51.906982 13695 net.cpp:238] Collecting Learning Rate and Weight Decay.
…
