…
    source: "/scr/r6/tgebru/inverting_conv/caffe_invert_alexnet/data/siggraph/tiny_winter_train_lmdb"
    mean_file: "/scr/r6/tgebru/timnit_caffe/data/ilsvrc12/imagenet_mean.binaryproto"
    batch_size: 12
    crop_size: 227
    mirror: false
    backend: LMDB
  }
}
layers {
  top: "target_ims"
  name: "target_ims"
  type: DATA
  data_param {
    source: "/scr/r6/tgebru/inverting_conv/caffe_invert_alexnet/data/siggraph/tiny_summer_train_lmdb"
    mean_file: "/scr/r6/tgebru/timnit_caffe/data/ilsvrc12/imagenet_mean.binaryproto"
    batch_size: 12
    crop_size: 216
    mirror: false
    backend: LMDB
  }
}
layers {
  bottom: "source_ims"
  top: "conv1"
  name: "conv1"
  type: CONVOLUTION
  blobs_lr: 0
  blobs_lr: 0
  weight_decay: 1
  weight_decay: 0
  convolution_param {
    num_output: 96
    kernel_size: 11
    stride: 4
    weight_filler {
      type: "gaussian"
      std: 0.01
    }
    bias_filler {
      type: "constant"
      value: 0
    }
  }
}
layers {
  bottom: "conv1"
  top: "conv1"
  name: "relu1"
  type: RELU
}
layers {
  bottom: "conv1"
  top: "pool1"
  name: "pool1"
  type: POOLING
  pooling_param {
    pool: MAX
    kernel_size: 3
    stride: 2
  }
}
layers {
  bottom: "pool1"
  top: "norm1"
  name: "norm1"
  type: LRN
  lrn_param {
    local_size: 5
    alpha: 0.0001
    beta: 0.75
  }
}
layers {
  bottom: "norm1"
  top: "Rconv6"
  name: "Rconv6"
  type: CONVOLUTION
  blobs_lr: 1
  blobs_lr: 2
  weight_decay: 1
  weight_decay: 0
  convolution_param {
    num_output: 256
    pad: 1
    kernel_size: 3
  }
}
layers {
  bottom: "Rconv6"
  top: "Rconv6"
  name: "Rrelu6"
  type: RELU
}
layers {
  bottom: "Rconv6"
  top: "Rconv7"
  name: "Rconv7"
  type: CONVOLUTION
  blobs_lr: 1
  blobs_lr: 2
  weight_decay: 1
  weight_decay: 0
  convolution_param {
    num_output: 256
    pad: 1
    kernel_size: 3
    group: 2
  }
}
layers {
  bottom: "Rconv7"
  top: "Rconv7"
  name: "Rrelu7"
  type: RELU
}
layers {
  bottom: "Rconv7"
  top: "Rconv8"
  name: "Rconv8"
  type: CONVOLUTION
  blobs_lr: 1
  blobs_lr: 2
  weight_decay: 1
  weight_decay: 0
  convolution_param {
    num_output: 256
    pad: 1
    kernel_size: 3
    group: 2
  }
}
layers {
  bottom: "Rconv8"
  top: "Rconv8"
  name: "Rrelu8"
  type: RELU
}
layers {
  bottom: "Rconv8"
  top: "deconv2"
  name: "deconv2"
  type: DECONVOLUTION
  blobs_lr: 1
  blobs_lr: 2
  weight_decay: 1
  weight_decay: 0
  deconvolution_param {
    pad: 2
    kernel_size: 5
    stride: 2
    output_height: 54
    output_width: 54
    output_channels: 64
  }
}
layers {
  bottom: "deconv2"
  top: "deconv2"
  name: "relu_deconv2"
  type: RELU
  relu_param {
    negative_slope: 0.3
  }
}
layers {
  bottom: "deconv2"
  top: "deconv1"
  name: "deconv1"
  type: DECONVOLUTION
  blobs_lr: 1
  blobs_lr: 2
  weight_decay: 1
  weight_decay: 0
  deconvolution_param {
    pad: 2
    kernel_size: 5
    stride: 2
    output_height: 108
    output_width: 108
    output_channels: 32
  }
}
layers {
  bottom: "deconv1"
  top: "deconv1"
  name: "relu_deconv1"
  type: RELU
  relu_param {
    negative_slope: 0.3
  }
}
layers {
  bottom: "deconv1"
  top: "deconv0"
  name: "deconv0"
  type: DECONVOLUTION
  blobs_lr: 1
  blobs_lr: 2
  weight_decay: 1
  weight_decay: 1
  deconvolution_param {
    pad: 2
    kernel_size: 5
    stride: 2
    output_height: 216
    output_width: 216
    output_channels: 3
  }
}
layers {
  bottom: "deconv0"
  bottom: "target_ims"
  name: "loss"
  type: EUCLIDEAN_LOSS
}
I0813 02:16:22.555286  4837 net.cpp:65] Creating Layer source_ims
I0813 02:16:22.555295  4837 net.cpp:189] source_ims -> source_ims
I0813 02:16:22.555412  4837 data_layer.cpp:223] Opening lmdb /scr/r6/tgebru/inverting_conv/caffe_invert_alexnet/data/siggraph/tiny_winter_train_lmdb
I0813 02:16:22.555618  4837 data_layer.cpp:285] output data size: 12,3,227,227
I0813 02:16:22.555624  4837 data_layer.cpp:304] Loading mean file from/scr/r6/tgebru/timnit_caffe/data/ilsvrc12/imagenet_mean.binaryproto
I0813 02:16:22.560528  4837 net.cpp:84] Top shape: 12 3 227 227 (1855044)
I0813 02:16:22.560536  4837 net.cpp:116] source_ims does not need backward computation.
I0813 02:16:22.560544  4837 net.cpp:65] Creating Layer target_ims
I0813 02:16:22.560547  4837 net.cpp:189] target_ims -> target_ims
I0813 02:16:22.560679  4837 data_layer.cpp:223] Opening lmdb /scr/r6/tgebru/inverting_conv/caffe_invert_alexnet/data/siggraph/tiny_summer_train_lmdb
I0813 02:16:22.560818  4837 data_layer.cpp:285] output data size: 12,3,216,216
I0813 02:16:22.560823  4837 data_layer.cpp:304] Loading mean file from/scr/r6/tgebru/timnit_caffe/data/ilsvrc12/imagenet_mean.binaryproto
I0813 02:16:22.565343  4837 net.cpp:84] Top shape: 12 3 216 216 (1679616)
I0813 02:16:22.565351  4837 net.cpp:116] target_ims does not need backward computation.
I0813 02:16:22.565362  4837 net.cpp:65] Creating Layer conv1
I0813 02:16:22.565367  4837 net.cpp:228] conv1 <- source_ims
I0813 02:16:22.565400  4837 net.cpp:189] conv1 -> conv1
I0813 02:16:22.566799  4837 net.cpp:84] Top shape: 12 96 55 55 (3484800)
I0813 02:16:22.566809  4837 net.cpp:116] conv1 does not need backward computation.
I0813 02:16:22.566815  4837 net.cpp:65] Creating Layer relu1
I0813 02:16:22.566819  4837 net.cpp:228] relu1 <- conv1
I0813 02:16:22.566825  4837 net.cpp:179] relu1 -> conv1 (in-place)
I0813 02:16:22.566835  4837 net.cpp:84] Top shape: 12 96 55 55 (3484800)
I0813 02:16:22.566839  4837 net.cpp:116] relu1 does not need backward computation.
I0813 02:16:22.566844  4837 net.cpp:65] Creating Layer pool1
I0813 02:16:22.566848  4837 net.cpp:228] pool1 <- conv1
I0813 02:16:22.566851  4837 net.cpp:189] pool1 -> pool1
I0813 02:16:22.566864  4837 net.cpp:84] Top shape: 12 96 27 27 (839808)
I0813 02:16:22.566867  4837 net.cpp:116] pool1 does not need backward computation.
I0813 02:16:22.566871  4837 net.cpp:65] Creating Layer norm1
I0813 02:16:22.566874  4837 net.cpp:228] norm1 <- pool1
I0813 02:16:22.566879  4837 net.cpp:189] norm1 -> norm1
I0813 02:16:22.566889  4837 net.cpp:84] Top shape: 12 96 27 27 (839808)
I0813 02:16:22.566891  4837 net.cpp:116] norm1 does not need backward computation.
I0813 02:16:22.566896  4837 net.cpp:65] Creating Layer Rconv6
I0813 02:16:22.566898  4837 net.cpp:228] Rconv6 <- norm1
I0813 02:16:22.566903  4837 net.cpp:189] Rconv6 -> Rconv6
I0813 02:16:22.567176  4837 net.cpp:84] Top shape: 12 256 27 27 (2239488)
I0813 02:16:22.567180  4837 net.cpp:111] Rconv6 needs backward computation.
I0813 02:16:22.567185  4837 net.cpp:65] Creating Layer Rrelu6
I0813 02:16:22.567188  4837 net.cpp:228] Rrelu6 <- Rconv6
I0813 02:16:22.567193  4837 net.cpp:179] Rrelu6 -> Rconv6 (in-place)
I0813 02:16:22.567198  4837 net.cpp:84] Top shape: 12 256 27 27 (2239488)
I0813 02:16:22.567200  4837 net.cpp:111] Rrelu6 needs backward computation.
I0813 02:16:22.567205  4837 net.cpp:65] Creating Layer Rconv7
I0813 02:16:22.567208  4837 net.cpp:228] Rconv7 <- Rconv6
I0813 02:16:22.567211  4837 net.cpp:189] Rconv7 -> Rconv7
I0813 02:16:22.567961  4837 net.cpp:84] Top shape: 12 256 27 27 (2239488)
I0813 02:16:22.567967  4837 net.cpp:111] Rconv7 needs backward computation.
I0813 02:16:22.567971  4837 net.cpp:65] Creating Layer Rrelu7
I0813 02:16:22.567994  4837 net.cpp:228] Rrelu7 <- Rconv7
I0813 02:16:22.567999  4837 net.cpp:179] Rrelu7 -> Rconv7 (in-place)
I0813 02:16:22.568004  4837 net.cpp:84] Top shape: 12 256 27 27 (2239488)
I0813 02:16:22.568006  4837 net.cpp:111] Rrelu7 needs backward computation.
I0813 02:16:22.568011  4837 net.cpp:65] Creating Layer Rconv8
I0813 02:16:22.568013  4837 net.cpp:228] Rconv8 <- Rconv7
I0813 02:16:22.568017  4837 net.cpp:189] Rconv8 -> Rconv8
I0813 02:16:22.568790  4837 net.cpp:84] Top shape: 12 256 27 27 (2239488)
I0813 02:16:22.568795  4837 net.cpp:111] Rconv8 needs backward computation.
I0813 02:16:22.568799  4837 net.cpp:65] Creating Layer Rrelu8
I0813 02:16:22.568802  4837 net.cpp:228] Rrelu8 <- Rconv8
I0813 02:16:22.568806  4837 net.cpp:179] Rrelu8 -> Rconv8 (in-place)
I0813 02:16:22.568810  4837 net.cpp:84] Top shape: 12 256 27 27 (2239488)
I0813 02:16:22.568814  4837 net.cpp:111] Rrelu8 needs backward computation.
I0813 02:16:22.568817  4837 net.cpp:65] Creating Layer deconv2
I0813 02:16:22.568820  4837 net.cpp:228] deconv2 <- Rconv8
I0813 02:16:22.568825  4837 net.cpp:189] deconv2 -> deconv2
I0813 02:16:22.569849  4837 net.cpp:84] Top shape: 12 64 54 54 (2239488)
I0813 02:16:22.569855  4837 net.cpp:111] deconv2 needs backward computation.
I0813 02:16:22.569860  4837 net.cpp:65] Creating Layer relu_deconv2
I0813 02:16:22.569864  4837 net.cpp:228] relu_deconv2 <- deconv2
I0813 02:16:22.569869  4837 net.cpp:179] relu_deconv2 -> deconv2 (in-place)
I0813 02:16:22.569874  4837 net.cpp:84] Top shape: 12 64 54 54 (2239488)
I0813 02:16:22.569875  4837 net.cpp:111] relu_deconv2 needs backward computation.
I0813 02:16:22.569880  4837 net.cpp:65] Creating Layer deconv1
I0813 02:16:22.569882  4837 net.cpp:228] deconv1 <- deconv2
I0813 02:16:22.569886  4837 net.cpp:189] deconv1 -> deconv1
I0813 02:16:22.570025  4837 net.cpp:84] Top shape: 12 32 108 108 (4478976)
I0813 02:16:22.570030  4837 net.cpp:111] deconv1 needs backward computation.
I0813 02:16:22.570034  4837 net.cpp:65] Creating Layer relu_deconv1
I0813 02:16:22.570037  4837 net.cpp:228] relu_deconv1 <- deconv1
I0813 02:16:22.570041  4837 net.cpp:179] relu_deconv1 -> deconv1 (in-place)
I0813 02:16:22.570045  4837 net.cpp:84] Top shape: 12 32 108 108 (4478976)
I0813 02:16:22.570049  4837 net.cpp:111] relu_deconv1 needs backward computation.
I0813 02:16:22.570053  4837 net.cpp:65] Creating Layer deconv0
I0813 02:16:22.570056  4837 net.cpp:228] deconv0 <- deconv1
I0813 02:16:22.570060  4837 net.cpp:189] deconv0 -> deconv0
I0813 02:16:22.570083  4837 net.cpp:84] Top shape: 12 3 216 216 (1679616)
I0813 02:16:22.570086  4837 net.cpp:111] deconv0 needs backward computation.
I0813 02:16:22.570091  4837 net.cpp:65] Creating Layer loss
I0813 02:16:22.570092  4837 net.cpp:228] loss <- deconv0
I0813 02:16:22.570096  4837 net.cpp:228] loss <- target_ims
I0813 02:16:22.570106  4837 net.cpp:111] loss needs backward computation.
I0813 02:16:22.570119  4837 net.cpp:238] Collecting Learning Rate and Weight Decay.
…
    source: "/scr/r6/tgebru/inverting_conv/caffe_invert_alexnet/data/siggraph/tiny_winter_val_lmdb"
    mean_file: "/scr/r6/tgebru/timnit_caffe/data/ilsvrc12/imagenet_mean.binaryproto"
    batch_size: 2
    crop_size: 227
    mirror: false
    backend: LMDB
  }
}
layers {
  top: "target_ims"
  name: "target_ims"
  type: DATA
  data_param {
    source: "/scr/r6/tgebru/inverting_conv/caffe_invert_alexnet/data/siggraph/tiny_summer_val_lmdb"
    mean_file: "/scr/r6/tgebru/timnit_caffe/data/ilsvrc12/imagenet_mean.binaryproto"
    batch_size: 2
    crop_size: 216
    mirror: false
    backend: LMDB
  }
}
layers {
  bottom: "source_ims"
  top: "conv1"
  name: "conv1"
  type: CONVOLUTION
  blobs_lr: 0
  blobs_lr: 0
  weight_decay: 1
  weight_decay: 0
  convolution_param {
    num_output: 96
    kernel_size: 11
    stride: 4
    weight_filler {
      type: "gaussian"
      std: 0.01
    }
    bias_filler {
      type: "constant"
      value: 0
    }
  }
}
layers {
  bottom: "conv1"
  top: "conv1"
  name: "relu1"
  type: RELU
}
layers {
  bottom: "conv1"
  top: "pool1"
  name: "pool1"
  type: POOLING
  pooling_param {
    pool: MAX
    kernel_size: 3
    stride: 2
  }
}
layers {
  bottom: "pool1"
  top: "norm1"
  name: "norm1"
  type: LRN
  lrn_param {
    local_size: 5
    alpha: 0.0001
    beta: 0.75
  }
}
layers {
  bottom: "norm1"
  top: "Rconv6"
  name: "Rconv6"
  type: CONVOLUTION
  blobs_lr: 0
  blobs_lr: 0
  weight_decay: 1
  weight_decay: 0
  convolution_param {
    num_output: 256
    pad: 1
    kernel_size: 3
  }
}
layers {
  bottom: "Rconv6"
  top: "Rconv6"
  name: "Rrelu6"
  type: RELU
}
layers {
  bottom: "Rconv6"
  top: "Rconv7"
  name: "Rconv7"
  type: CONVOLUTION
  blobs_lr: 0
  blobs_lr: 0
  weight_decay: 1
  weight_decay: 0
  convolution_param {
    num_output: 256
    pad: 1
    kernel_size: 3
    group: 2
  }
}
layers {
  bottom: "Rconv7"
  top: "Rconv7"
  name: "Rrelu7"
  type: RELU
}
layers {
  bottom: "Rconv7"
  top: "Rconv8"
  name: "Rconv8"
  type: CONVOLUTION
  blobs_lr: 0
  blobs_lr: 0
  weight_decay: 1
  weight_decay: 0
  convolution_param {
    num_output: 256
    pad: 1
    kernel_size: 3
    group: 2
  }
}
layers {
  bottom: "Rconv8"
  top: "Rconv8"
  name: "Rrelu8"
  type: RELU
}
layers {
  bottom: "Rconv8"
  top: "deconv2"
  name: "deconv2"
  type: DECONVOLUTION
  blobs_lr: 0
  blobs_lr: 0
  weight_decay: 1
  weight_decay: 0
  deconvolution_param {
    pad: 2
    kernel_size: 5
    stride: 2
    output_height: 54
    output_width: 54
    output_channels: 64
  }
}
layers {
  bottom: "deconv2"
  top: "deconv2"
  name: "relu_deconv2"
  type: RELU
  relu_param {
    negative_slope: 0.3
  }
}
layers {
  bottom: "deconv2"
  top: "deconv1"
  name: "deconv1"
  type: DECONVOLUTION
  blobs_lr: 0
  blobs_lr: 0
  weight_decay: 1
  weight_decay: 0
  deconvolution_param {
    pad: 2
    kernel_size: 5
    stride: 2
    output_height: 108
    output_width: 108
    output_channels: 32
  }
}
layers {
  bottom: "deconv1"
  top: "deconv1"
  name: "relu_deconv1"
  type: RELU
  relu_param {
    negative_slope: 0.3
  }
}
layers {
  bottom: "deconv1"
  top: "deconv0"
  name: "deconv0"
  type: DECONVOLUTION
  blobs_lr: 0
  blobs_lr: 0
  weight_decay: 1
  weight_decay: 0
  deconvolution_param {
    pad: 2
    kernel_size: 5
    stride: 2
    output_height: 216
    output_width: 216
    output_channels: 3
  }
}
layers {
  bottom: "deconv0"
  bottom: "target_ims"
  name: "loss"
  type: EUCLIDEAN_LOSS
}
I0813 02:16:22.570858  4837 net.cpp:65] Creating Layer source_ims
I0813 02:16:22.570863  4837 net.cpp:189] source_ims -> source_ims
I0813 02:16:22.570935  4837 data_layer.cpp:223] Opening lmdb /scr/r6/tgebru/inverting_conv/caffe_invert_alexnet/data/siggraph/tiny_winter_val_lmdb
I0813 02:16:22.571146  4837 data_layer.cpp:285] output data size: 2,3,227,227
I0813 02:16:22.571151  4837 data_layer.cpp:304] Loading mean file from/scr/r6/tgebru/timnit_caffe/data/ilsvrc12/imagenet_mean.binaryproto
I0813 02:16:22.573444  4837 net.cpp:84] Top shape: 2 3 227 227 (309174)
I0813 02:16:22.573451  4837 net.cpp:116] source_ims does not need backward computation.
I0813 02:16:22.573457  4837 net.cpp:65] Creating Layer target_ims
I0813 02:16:22.573462  4837 net.cpp:189] target_ims -> target_ims
I0813 02:16:22.573513  4837 data_layer.cpp:223] Opening lmdb /scr/r6/tgebru/inverting_conv/caffe_invert_alexnet/data/siggraph/tiny_summer_val_lmdb
I0813 02:16:22.573607  4837 data_layer.cpp:285] output data size: 2,3,216,216
I0813 02:16:22.573611  4837 data_layer.cpp:304] Loading mean file from/scr/r6/tgebru/timnit_caffe/data/ilsvrc12/imagenet_mean.binaryproto
I0813 02:16:22.575770  4837 net.cpp:84] Top shape: 2 3 216 216 (279936)
I0813 02:16:22.575788  4837 net.cpp:116] target_ims does not need backward computation.
I0813 02:16:22.575798  4837 net.cpp:65] Creating Layer conv1
I0813 02:16:22.575800  4837 net.cpp:228] conv1 <- source_ims
I0813 02:16:22.575806  4837 net.cpp:189] conv1 -> conv1
I0813 02:16:22.577049  4837 net.cpp:84] Top shape: 2 96 55 55 (580800)
I0813 02:16:22.577052  4837 net.cpp:116] conv1 does not need backward computation.
I0813 02:16:22.577056  4837 net.cpp:65] Creating Layer relu1
I0813 02:16:22.577059  4837 net.cpp:228] relu1 <- conv1
I0813 02:16:22.577064  4837 net.cpp:179] relu1 -> conv1 (in-place)
I0813 02:16:22.577069  4837 net.cpp:84] Top shape: 2 96 55 55 (580800)
I0813 02:16:22.577071  4837 net.cpp:116] relu1 does not need backward computation.
I0813 02:16:22.577075  4837 net.cpp:65] Creating Layer pool1
I0813 02:16:22.577078  4837 net.cpp:228] pool1 <- conv1
I0813 02:16:22.577082  4837 net.cpp:189] pool1 -> pool1
I0813 02:16:22.577088  4837 net.cpp:84] Top shape: 2 96 27 27 (139968)
I0813 02:16:22.577091  4837 net.cpp:116] pool1 does not need backward computation.
I0813 02:16:22.577095  4837 net.cpp:65] Creating Layer norm1
I0813 02:16:22.577098  4837 net.cpp:228] norm1 <- pool1
I0813 02:16:22.577101  4837 net.cpp:189] norm1 -> norm1
I0813 02:16:22.577107  4837 net.cpp:84] Top shape: 2 96 27 27 (139968)
I0813 02:16:22.577111  4837 net.cpp:116] norm1 does not need backward computation.
I0813 02:16:22.577114  4837 net.cpp:65] Creating Layer Rconv6
I0813 02:16:22.577117  4837 net.cpp:228] Rconv6 <- norm1
I0813 02:16:22.577121  4837 net.cpp:189] Rconv6 -> Rconv6
I0813 02:16:22.577707  4837 net.cpp:84] Top shape: 2 256 27 27 (373248)
I0813 02:16:22.577711  4837 net.cpp:116] Rconv6 does not need backward computation.
I0813 02:16:22.577714  4837 net.cpp:65] Creating Layer Rrelu6
I0813 02:16:22.577718  4837 net.cpp:228] Rrelu6 <- Rconv6
I0813 02:16:22.577723  4837 net.cpp:179] Rrelu6 -> Rconv6 (in-place)
I0813 02:16:22.577726  4837 net.cpp:84] Top shape: 2 256 27 27 (373248)
I0813 02:16:22.577729  4837 net.cpp:116] Rrelu6 does not need backward computation.
I0813 02:16:22.577734  4837 net.cpp:65] Creating Layer Rconv7
I0813 02:16:22.577736  4837 net.cpp:228] Rconv7 <- Rconv6
I0813 02:16:22.577740  4837 net.cpp:189] Rconv7 -> Rconv7
I0813 02:16:22.578459  4837 net.cpp:84] Top shape: 2 256 27 27 (373248)
I0813 02:16:22.578464  4837 net.cpp:116] Rconv7 does not need backward computation.
I0813 02:16:22.578467  4837 net.cpp:65] Creating Layer Rrelu7
I0813 02:16:22.578470  4837 net.cpp:228] Rrelu7 <- Rconv7
I0813 02:16:22.578474  4837 net.cpp:179] Rrelu7 -> Rconv7 (in-place)
I0813 02:16:22.578479  4837 net.cpp:84] Top shape: 2 256 27 27 (373248)
I0813 02:16:22.578481  4837 net.cpp:116] Rrelu7 does not need backward computation.
I0813 02:16:22.578485  4837 net.cpp:65] Creating Layer Rconv8
I0813 02:16:22.578487  4837 net.cpp:228] Rconv8 <- Rconv7
I0813 02:16:22.578491  4837 net.cpp:189] Rconv8 -> Rconv8
I0813 02:16:22.579201  4837 net.cpp:84] Top shape: 2 256 27 27 (373248)
I0813 02:16:22.579205  4837 net.cpp:116] Rconv8 does not need backward computation.
I0813 02:16:22.579210  4837 net.cpp:65] Creating Layer Rrelu8
I0813 02:16:22.579212  4837 net.cpp:228] Rrelu8 <- Rconv8
I0813 02:16:22.579216  4837 net.cpp:179] Rrelu8 -> Rconv8 (in-place)
I0813 02:16:22.579221  4837 net.cpp:84] Top shape: 2 256 27 27 (373248)
I0813 02:16:22.579222  4837 net.cpp:116] Rrelu8 does not need backward computation.
I0813 02:16:22.579226  4837 net.cpp:65] Creating Layer deconv2
I0813 02:16:22.579229  4837 net.cpp:228] deconv2 <- Rconv8
I0813 02:16:22.579232  4837 net.cpp:189] deconv2 -> deconv2
I0813 02:16:22.580214  4837 net.cpp:84] Top shape: 2 64 54 54 (373248)
I0813 02:16:22.580219  4837 net.cpp:116] deconv2 does not need backward computation.
I0813 02:16:22.580224  4837 net.cpp:65] Creating Layer relu_deconv2
I0813 02:16:22.580226  4837 net.cpp:228] relu_deconv2 <- deconv2
I0813 02:16:22.580230  4837 net.cpp:179] relu_deconv2 -> deconv2 (in-place)
I0813 02:16:22.580235  4837 net.cpp:84] Top shape: 2 64 54 54 (373248)
I0813 02:16:22.580237  4837 net.cpp:116] relu_deconv2 does not need backward computation.
I0813 02:16:22.580252  4837 net.cpp:65] Creating Layer deconv1
I0813 02:16:22.580255  4837 net.cpp:228] deconv1 <- deconv2
I0813 02:16:22.580260  4837 net.cpp:189] deconv1 -> deconv1
I0813 02:16:22.580394  4837 net.cpp:84] Top shape: 2 32 108 108 (746496)
I0813 02:16:22.580397  4837 net.cpp:116] deconv1 does not need backward computation.
I0813 02:16:22.580401  4837 net.cpp:65] Creating Layer relu_deconv1
I0813 02:16:22.580404  4837 net.cpp:228] relu_deconv1 <- deconv1
I0813 02:16:22.580409  4837 net.cpp:179] relu_deconv1 -> deconv1 (in-place)
I0813 02:16:22.580412  4837 net.cpp:84] Top shape: 2 32 108 108 (746496)
I0813 02:16:22.580415  4837 net.cpp:116] relu_deconv1 does not need backward computation.
I0813 02:16:22.580420  4837 net.cpp:65] Creating Layer deconv0
I0813 02:16:22.580423  4837 net.cpp:228] deconv0 <- deconv1
I0813 02:16:22.580427  4837 net.cpp:189] deconv0 -> deconv0
I0813 02:16:22.580446  4837 net.cpp:84] Top shape: 2 3 216 216 (279936)
I0813 02:16:22.580448  4837 net.cpp:116] deconv0 does not need backward computation.
I0813 02:16:22.580452  4837 net.cpp:65] Creating Layer loss
I0813 02:16:22.580454  4837 net.cpp:228] loss <- deconv0
I0813 02:16:22.580458  4837 net.cpp:228] loss <- target_ims
I0813 02:16:22.580462  4837 net.cpp:116] loss does not need backward computation.
I0813 02:16:22.580474  4837 net.cpp:238] Collecting Learning Rate and Weight Decay.
…
