…
  data_param {
    source: "/scr/r6/tgebru/inverting_conv/caffe_invert_alexnet/data/siggraph/tiny_winter_train_227lmdb"
    mean_file: "/scr/r6/tgebru/timnit_caffe/data/ilsvrc12/imagenet_mean227.binaryproto"
    batch_size: 12
    mirror: false
    backend: LMDB
  }
}
layers {
  top: "target_ims"
  name: "target_ims"
  type: DATA
  data_param {
    source: "/scr/r6/tgebru/inverting_conv/caffe_invert_alexnet/data/siggraph/tiny_summer_train_216lmdb"
    mean_file: "/scr/r6/tgebru/timnit_caffe/data/ilsvrc12/imagenet_mean216.binaryproto"
    batch_size: 12
    mirror: false
    backend: LMDB
  }
}
layers {
  bottom: "source_ims"
  top: "conv1"
  name: "conv1"
  type: CONVOLUTION
  blobs_lr: 0
  blobs_lr: 0
  weight_decay: 1
  weight_decay: 0
  convolution_param {
    num_output: 96
    kernel_size: 11
    stride: 4
    weight_filler {
      type: "gaussian"
      std: 0.01
    }
    bias_filler {
      type: "constant"
      value: 0
    }
  }
}
layers {
  bottom: "conv1"
  top: "conv1"
  name: "relu1"
  type: RELU
}
layers {
  bottom: "conv1"
  top: "pool1"
  name: "pool1"
  type: POOLING
  pooling_param {
    pool: MAX
    kernel_size: 3
    stride: 2
  }
}
layers {
  bottom: "pool1"
  top: "norm1"
  name: "norm1"
  type: LRN
  lrn_param {
    local_size: 5
    alpha: 0.0001
    beta: 0.75
  }
}
layers {
  bottom: "norm1"
  top: "Rconv6"
  name: "Rconv6"
  type: CONVOLUTION
  blobs_lr: 1
  blobs_lr: 2
  weight_decay: 1
  weight_decay: 0
  convolution_param {
    num_output: 256
    pad: 1
    kernel_size: 3
  }
}
layers {
  bottom: "Rconv6"
  top: "Rconv6"
  name: "Rrelu6"
  type: RELU
}
layers {
  bottom: "Rconv6"
  top: "Rconv7"
  name: "Rconv7"
  type: CONVOLUTION
  blobs_lr: 1
  blobs_lr: 2
  weight_decay: 1
  weight_decay: 0
  convolution_param {
    num_output: 256
    pad: 1
    kernel_size: 3
    group: 2
  }
}
layers {
  bottom: "Rconv7"
  top: "Rconv7"
  name: "Rrelu7"
  type: RELU
}
layers {
  bottom: "Rconv7"
  top: "Rconv8"
  name: "Rconv8"
  type: CONVOLUTION
  blobs_lr: 1
  blobs_lr: 2
  weight_decay: 1
  weight_decay: 0
  convolution_param {
    num_output: 256
    pad: 1
    kernel_size: 3
    group: 2
  }
}
layers {
  bottom: "Rconv8"
  top: "Rconv8"
  name: "Rrelu8"
  type: RELU
}
layers {
  bottom: "Rconv8"
  top: "deconv2"
  name: "deconv2"
  type: DECONVOLUTION
  blobs_lr: 1
  blobs_lr: 2
  weight_decay: 1
  weight_decay: 0
  deconvolution_param {
    pad: 2
    kernel_size: 5
    stride: 2
    output_height: 54
    output_width: 54
    output_channels: 64
  }
}
layers {
  bottom: "deconv2"
  top: "deconv2"
  name: "relu_deconv2"
  type: RELU
  relu_param {
    negative_slope: 0.3
  }
}
layers {
  bottom: "deconv2"
  top: "deconv1"
  name: "deconv1"
  type: DECONVOLUTION
  blobs_lr: 1
  blobs_lr: 2
  weight_decay: 1
  weight_decay: 0
  deconvolution_param {
    pad: 2
    kernel_size: 5
    stride: 2
    output_height: 108
    output_width: 108
    output_channels: 32
  }
}
layers {
  bottom: "deconv1"
  top: "deconv1"
  name: "relu_deconv1"
  type: RELU
  relu_param {
    negative_slope: 0.3
  }
}
layers {
  bottom: "deconv1"
  top: "deconv0"
  name: "deconv0"
  type: DECONVOLUTION
  blobs_lr: 1
  blobs_lr: 2
  weight_decay: 1
  weight_decay: 1
  deconvolution_param {
    pad: 2
    kernel_size: 5
    stride: 2
    output_height: 216
    output_width: 216
    output_channels: 3
  }
}
layers {
  bottom: "deconv0"
  bottom: "target_ims"
  name: "loss"
  type: EUCLIDEAN_LOSS
}
I0825 20:12:29.005623 10195 net.cpp:65] Creating Layer source_ims
I0825 20:12:29.005632 10195 net.cpp:189] source_ims -> source_ims
I0825 20:12:29.005739 10195 data_layer.cpp:223] Opening lmdb /scr/r6/tgebru/inverting_conv/caffe_invert_alexnet/data/siggraph/tiny_winter_train_227lmdb
I0825 20:12:29.005910 10195 data_layer.cpp:285] output data size: 12,3,227,227
I0825 20:12:29.005916 10195 data_layer.cpp:304] Loading mean file from/scr/r6/tgebru/timnit_caffe/data/ilsvrc12/imagenet_mean227.binaryproto
I0825 20:12:29.142583 10195 net.cpp:84] Top shape: 12 3 227 227 (1855044)
I0825 20:12:29.142606 10195 net.cpp:116] source_ims does not need backward computation.
I0825 20:12:29.142618 10195 net.cpp:65] Creating Layer target_ims
I0825 20:12:29.142623 10195 net.cpp:189] target_ims -> target_ims
I0825 20:12:29.142760 10195 data_layer.cpp:223] Opening lmdb /scr/r6/tgebru/inverting_conv/caffe_invert_alexnet/data/siggraph/tiny_summer_train_216lmdb
I0825 20:12:29.142856 10195 data_layer.cpp:285] output data size: 12,3,216,216
I0825 20:12:29.142860 10195 data_layer.cpp:304] Loading mean file from/scr/r6/tgebru/timnit_caffe/data/ilsvrc12/imagenet_mean216.binaryproto
I0825 20:12:29.147444 10195 net.cpp:84] Top shape: 12 3 216 216 (1679616)
I0825 20:12:29.147451 10195 net.cpp:116] target_ims does not need backward computation.
I0825 20:12:29.147462 10195 net.cpp:65] Creating Layer conv1
I0825 20:12:29.147466 10195 net.cpp:228] conv1 <- source_ims
I0825 20:12:29.147497 10195 net.cpp:189] conv1 -> conv1
I0825 20:12:29.148790 10195 net.cpp:84] Top shape: 12 96 55 55 (3484800)
I0825 20:12:29.148797 10195 net.cpp:116] conv1 does not need backward computation.
I0825 20:12:29.148802 10195 net.cpp:65] Creating Layer relu1
I0825 20:12:29.148804 10195 net.cpp:228] relu1 <- conv1
I0825 20:12:29.148809 10195 net.cpp:179] relu1 -> conv1 (in-place)
I0825 20:12:29.148818 10195 net.cpp:84] Top shape: 12 96 55 55 (3484800)
I0825 20:12:29.148821 10195 net.cpp:116] relu1 does not need backward computation.
I0825 20:12:29.148826 10195 net.cpp:65] Creating Layer pool1
I0825 20:12:29.148829 10195 net.cpp:228] pool1 <- conv1
I0825 20:12:29.148833 10195 net.cpp:189] pool1 -> pool1
I0825 20:12:29.148845 10195 net.cpp:84] Top shape: 12 96 27 27 (839808)
I0825 20:12:29.148849 10195 net.cpp:116] pool1 does not need backward computation.
I0825 20:12:29.148854 10195 net.cpp:65] Creating Layer norm1
I0825 20:12:29.148856 10195 net.cpp:228] norm1 <- pool1
I0825 20:12:29.148859 10195 net.cpp:189] norm1 -> norm1
I0825 20:12:29.148869 10195 net.cpp:84] Top shape: 12 96 27 27 (839808)
I0825 20:12:29.148871 10195 net.cpp:116] norm1 does not need backward computation.
I0825 20:12:29.148876 10195 net.cpp:65] Creating Layer Rconv6
I0825 20:12:29.148880 10195 net.cpp:228] Rconv6 <- norm1
I0825 20:12:29.148883 10195 net.cpp:189] Rconv6 -> Rconv6
I0825 20:12:29.149055 10195 net.cpp:84] Top shape: 12 256 27 27 (2239488)
I0825 20:12:29.149060 10195 net.cpp:111] Rconv6 needs backward computation.
I0825 20:12:29.149065 10195 net.cpp:65] Creating Layer Rrelu6
I0825 20:12:29.149067 10195 net.cpp:228] Rrelu6 <- Rconv6
I0825 20:12:29.149071 10195 net.cpp:179] Rrelu6 -> Rconv6 (in-place)
I0825 20:12:29.149075 10195 net.cpp:84] Top shape: 12 256 27 27 (2239488)
I0825 20:12:29.149078 10195 net.cpp:111] Rrelu6 needs backward computation.
I0825 20:12:29.149085 10195 net.cpp:65] Creating Layer Rconv7
I0825 20:12:29.149086 10195 net.cpp:228] Rconv7 <- Rconv6
I0825 20:12:29.149091 10195 net.cpp:189] Rconv7 -> Rconv7
I0825 20:12:29.149807 10195 net.cpp:84] Top shape: 12 256 27 27 (2239488)
I0825 20:12:29.149812 10195 net.cpp:111] Rconv7 needs backward computation.
I0825 20:12:29.149842 10195 net.cpp:65] Creating Layer Rrelu7
I0825 20:12:29.149845 10195 net.cpp:228] Rrelu7 <- Rconv7
I0825 20:12:29.149852 10195 net.cpp:179] Rrelu7 -> Rconv7 (in-place)
I0825 20:12:29.149857 10195 net.cpp:84] Top shape: 12 256 27 27 (2239488)
I0825 20:12:29.149859 10195 net.cpp:111] Rrelu7 needs backward computation.
I0825 20:12:29.149863 10195 net.cpp:65] Creating Layer Rconv8
I0825 20:12:29.149866 10195 net.cpp:228] Rconv8 <- Rconv7
I0825 20:12:29.149869 10195 net.cpp:189] Rconv8 -> Rconv8
I0825 20:12:29.150657 10195 net.cpp:84] Top shape: 12 256 27 27 (2239488)
I0825 20:12:29.150661 10195 net.cpp:111] Rconv8 needs backward computation.
I0825 20:12:29.150665 10195 net.cpp:65] Creating Layer Rrelu8
I0825 20:12:29.150668 10195 net.cpp:228] Rrelu8 <- Rconv8
I0825 20:12:29.150671 10195 net.cpp:179] Rrelu8 -> Rconv8 (in-place)
I0825 20:12:29.150676 10195 net.cpp:84] Top shape: 12 256 27 27 (2239488)
I0825 20:12:29.150678 10195 net.cpp:111] Rrelu8 needs backward computation.
I0825 20:12:29.150684 10195 net.cpp:65] Creating Layer deconv2
I0825 20:12:29.150688 10195 net.cpp:228] deconv2 <- Rconv8
I0825 20:12:29.150692 10195 net.cpp:189] deconv2 -> deconv2
I0825 20:12:29.151772 10195 net.cpp:84] Top shape: 12 64 54 54 (2239488)
I0825 20:12:29.151777 10195 net.cpp:111] deconv2 needs backward computation.
I0825 20:12:29.151782 10195 net.cpp:65] Creating Layer relu_deconv2
I0825 20:12:29.151784 10195 net.cpp:228] relu_deconv2 <- deconv2
I0825 20:12:29.151788 10195 net.cpp:179] relu_deconv2 -> deconv2 (in-place)
I0825 20:12:29.151793 10195 net.cpp:84] Top shape: 12 64 54 54 (2239488)
I0825 20:12:29.151795 10195 net.cpp:111] relu_deconv2 needs backward computation.
I0825 20:12:29.151803 10195 net.cpp:65] Creating Layer deconv1
I0825 20:12:29.151804 10195 net.cpp:228] deconv1 <- deconv2
I0825 20:12:29.151808 10195 net.cpp:189] deconv1 -> deconv1
I0825 20:12:29.151953 10195 net.cpp:84] Top shape: 12 32 108 108 (4478976)
I0825 20:12:29.151957 10195 net.cpp:111] deconv1 needs backward computation.
I0825 20:12:29.151962 10195 net.cpp:65] Creating Layer relu_deconv1
I0825 20:12:29.151964 10195 net.cpp:228] relu_deconv1 <- deconv1
I0825 20:12:29.151969 10195 net.cpp:179] relu_deconv1 -> deconv1 (in-place)
I0825 20:12:29.151973 10195 net.cpp:84] Top shape: 12 32 108 108 (4478976)
I0825 20:12:29.151976 10195 net.cpp:111] relu_deconv1 needs backward computation.
I0825 20:12:29.151983 10195 net.cpp:65] Creating Layer deconv0
I0825 20:12:29.151984 10195 net.cpp:228] deconv0 <- deconv1
I0825 20:12:29.151988 10195 net.cpp:189] deconv0 -> deconv0
I0825 20:12:29.152029 10195 net.cpp:84] Top shape: 12 3 216 216 (1679616)
I0825 20:12:29.152032 10195 net.cpp:111] deconv0 needs backward computation.
I0825 20:12:29.152039 10195 net.cpp:65] Creating Layer loss
I0825 20:12:29.152040 10195 net.cpp:228] loss <- deconv0
I0825 20:12:29.152043 10195 net.cpp:228] loss <- target_ims
I0825 20:12:29.152051 10195 net.cpp:111] loss needs backward computation.
I0825 20:12:29.152065 10195 net.cpp:238] Collecting Learning Rate and Weight Decay.
…
  data_param {
    source: "/scr/r6/tgebru/inverting_conv/caffe_invert_alexnet/data/siggraph/tiny_winter_val_227lmdb"
    mean_file: "/scr/r6/tgebru/timnit_caffe/data/ilsvrc12/imagenet_mean227.binaryproto"
    batch_size: 2
    mirror: false
    backend: LMDB
  }
}
layers {
  top: "target_ims"
  name: "target_ims"
  type: DATA
  data_param {
    source: "/scr/r6/tgebru/inverting_conv/caffe_invert_alexnet/data/siggraph/tiny_summer_val_216lmdb"
    mean_file: "/scr/r6/tgebru/timnit_caffe/data/ilsvrc12/imagenet_mean216.binaryproto"
    batch_size: 2
    mirror: false
    backend: LMDB
  }
}
layers {
  bottom: "source_ims"
  top: "conv1"
  name: "conv1"
  type: CONVOLUTION
  blobs_lr: 0
  blobs_lr: 0
  weight_decay: 1
  weight_decay: 0
  convolution_param {
    num_output: 96
    kernel_size: 11
    stride: 4
    weight_filler {
      type: "gaussian"
      std: 0.01
    }
    bias_filler {
      type: "constant"
      value: 0
    }
  }
}
layers {
  bottom: "conv1"
  top: "conv1"
  name: "relu1"
  type: RELU
}
layers {
  bottom: "conv1"
  top: "pool1"
  name: "pool1"
  type: POOLING
  pooling_param {
    pool: MAX
    kernel_size: 3
    stride: 2
  }
}
layers {
  bottom: "pool1"
  top: "norm1"
  name: "norm1"
  type: LRN
  lrn_param {
    local_size: 5
    alpha: 0.0001
    beta: 0.75
  }
}
layers {
  bottom: "norm1"
  top: "Rconv6"
  name: "Rconv6"
  type: CONVOLUTION
  blobs_lr: 0
  blobs_lr: 0
  weight_decay: 1
  weight_decay: 0
  convolution_param {
    num_output: 256
    pad: 1
    kernel_size: 3
  }
}
layers {
  bottom: "Rconv6"
  top: "Rconv6"
  name: "Rrelu6"
  type: RELU
}
layers {
  bottom: "Rconv6"
  top: "Rconv7"
  name: "Rconv7"
  type: CONVOLUTION
  blobs_lr: 0
  blobs_lr: 0
  weight_decay: 1
  weight_decay: 0
  convolution_param {
    num_output: 256
    pad: 1
    kernel_size: 3
    group: 2
  }
}
layers {
  bottom: "Rconv7"
  top: "Rconv7"
  name: "Rrelu7"
  type: RELU
}
layers {
  bottom: "Rconv7"
  top: "Rconv8"
  name: "Rconv8"
  type: CONVOLUTION
  blobs_lr: 0
  blobs_lr: 0
  weight_decay: 1
  weight_decay: 0
  convolution_param {
    num_output: 256
    pad: 1
    kernel_size: 3
    group: 2
  }
}
layers {
  bottom: "Rconv8"
  top: "Rconv8"
  name: "Rrelu8"
  type: RELU
}
layers {
  bottom: "Rconv8"
  top: "deconv2"
  name: "deconv2"
  type: DECONVOLUTION
  blobs_lr: 0
  blobs_lr: 0
  weight_decay: 1
  weight_decay: 0
  deconvolution_param {
    pad: 2
    kernel_size: 5
    stride: 2
    output_height: 54
    output_width: 54
    output_channels: 64
  }
}
layers {
  bottom: "deconv2"
  top: "deconv2"
  name: "relu_deconv2"
  type: RELU
  relu_param {
    negative_slope: 0.3
  }
}
layers {
  bottom: "deconv2"
  top: "deconv1"
  name: "deconv1"
  type: DECONVOLUTION
  blobs_lr: 0
  blobs_lr: 0
  weight_decay: 1
  weight_decay: 0
  deconvolution_param {
    pad: 2
    kernel_size: 5
    stride: 2
    output_height: 108
    output_width: 108
    output_channels: 32
  }
}
layers {
  bottom: "deconv1"
  top: "deconv1"
  name: "relu_deconv1"
  type: RELU
  relu_param {
    negative_slope: 0.3
  }
}
layers {
  bottom: "deconv1"
  top: "deconv0"
  name: "deconv0"
  type: DECONVOLUTION
  blobs_lr: 0
  blobs_lr: 0
  weight_decay: 1
  weight_decay: 0
  deconvolution_param {
    pad: 2
    kernel_size: 5
    stride: 2
    output_height: 216
    output_width: 216
    output_channels: 3
  }
}
layers {
  bottom: "deconv0"
  bottom: "target_ims"
  name: "loss"
  type: EUCLIDEAN_LOSS
}
I0825 20:12:29.152809 10195 net.cpp:65] Creating Layer source_ims
I0825 20:12:29.152814 10195 net.cpp:189] source_ims -> source_ims
I0825 20:12:29.152868 10195 data_layer.cpp:223] Opening lmdb /scr/r6/tgebru/inverting_conv/caffe_invert_alexnet/data/siggraph/tiny_winter_val_227lmdb
I0825 20:12:29.153009 10195 data_layer.cpp:285] output data size: 2,3,227,227
I0825 20:12:29.153013 10195 data_layer.cpp:304] Loading mean file from/scr/r6/tgebru/timnit_caffe/data/ilsvrc12/imagenet_mean227.binaryproto
I0825 20:12:29.154975 10195 net.cpp:84] Top shape: 2 3 227 227 (309174)
I0825 20:12:29.154983 10195 net.cpp:116] source_ims does not need backward computation.
I0825 20:12:29.154989 10195 net.cpp:65] Creating Layer target_ims
I0825 20:12:29.154992 10195 net.cpp:189] target_ims -> target_ims
I0825 20:12:29.155047 10195 data_layer.cpp:223] Opening lmdb /scr/r6/tgebru/inverting_conv/caffe_invert_alexnet/data/siggraph/tiny_summer_val_216lmdb
I0825 20:12:29.155118 10195 data_layer.cpp:285] output data size: 2,3,216,216
I0825 20:12:29.155122 10195 data_layer.cpp:304] Loading mean file from/scr/r6/tgebru/timnit_caffe/data/ilsvrc12/imagenet_mean216.binaryproto
I0825 20:12:29.156894 10195 net.cpp:84] Top shape: 2 3 216 216 (279936)
I0825 20:12:29.156913 10195 net.cpp:116] target_ims does not need backward computation.
I0825 20:12:29.156921 10195 net.cpp:65] Creating Layer conv1
I0825 20:12:29.156924 10195 net.cpp:228] conv1 <- source_ims
I0825 20:12:29.156930 10195 net.cpp:189] conv1 -> conv1
I0825 20:12:29.158179 10195 net.cpp:84] Top shape: 2 96 55 55 (580800)
I0825 20:12:29.158185 10195 net.cpp:116] conv1 does not need backward computation.
I0825 20:12:29.158188 10195 net.cpp:65] Creating Layer relu1
I0825 20:12:29.158191 10195 net.cpp:228] relu1 <- conv1
I0825 20:12:29.158195 10195 net.cpp:179] relu1 -> conv1 (in-place)
I0825 20:12:29.158200 10195 net.cpp:84] Top shape: 2 96 55 55 (580800)
I0825 20:12:29.158203 10195 net.cpp:116] relu1 does not need backward computation.
I0825 20:12:29.158208 10195 net.cpp:65] Creating Layer pool1
I0825 20:12:29.158211 10195 net.cpp:228] pool1 <- conv1
I0825 20:12:29.158215 10195 net.cpp:189] pool1 -> pool1
I0825 20:12:29.158221 10195 net.cpp:84] Top shape: 2 96 27 27 (139968)
I0825 20:12:29.158224 10195 net.cpp:116] pool1 does not need backward computation.
I0825 20:12:29.158231 10195 net.cpp:65] Creating Layer norm1
I0825 20:12:29.158232 10195 net.cpp:228] norm1 <- pool1
I0825 20:12:29.158236 10195 net.cpp:189] norm1 -> norm1
I0825 20:12:29.158243 10195 net.cpp:84] Top shape: 2 96 27 27 (139968)
I0825 20:12:29.158246 10195 net.cpp:116] norm1 does not need backward computation.
I0825 20:12:29.158251 10195 net.cpp:65] Creating Layer Rconv6
I0825 20:12:29.158253 10195 net.cpp:228] Rconv6 <- norm1
I0825 20:12:29.158257 10195 net.cpp:189] Rconv6 -> Rconv6
I0825 20:12:29.158789 10195 net.cpp:84] Top shape: 2 256 27 27 (373248)
I0825 20:12:29.158793 10195 net.cpp:116] Rconv6 does not need backward computation.
I0825 20:12:29.158799 10195 net.cpp:65] Creating Layer Rrelu6
I0825 20:12:29.158802 10195 net.cpp:228] Rrelu6 <- Rconv6
I0825 20:12:29.158807 10195 net.cpp:179] Rrelu6 -> Rconv6 (in-place)
I0825 20:12:29.158810 10195 net.cpp:84] Top shape: 2 256 27 27 (373248)
I0825 20:12:29.158813 10195 net.cpp:116] Rrelu6 does not need backward computation.
I0825 20:12:29.158818 10195 net.cpp:65] Creating Layer Rconv7
I0825 20:12:29.158823 10195 net.cpp:228] Rconv7 <- Rconv6
I0825 20:12:29.158826 10195 net.cpp:189] Rconv7 -> Rconv7
I0825 20:12:29.159585 10195 net.cpp:84] Top shape: 2 256 27 27 (373248)
I0825 20:12:29.159590 10195 net.cpp:116] Rconv7 does not need backward computation.
I0825 20:12:29.159592 10195 net.cpp:65] Creating Layer Rrelu7
I0825 20:12:29.159595 10195 net.cpp:228] Rrelu7 <- Rconv7
I0825 20:12:29.159600 10195 net.cpp:179] Rrelu7 -> Rconv7 (in-place)
I0825 20:12:29.159605 10195 net.cpp:84] Top shape: 2 256 27 27 (373248)
I0825 20:12:29.159607 10195 net.cpp:116] Rrelu7 does not need backward computation.
I0825 20:12:29.159610 10195 net.cpp:65] Creating Layer Rconv8
I0825 20:12:29.159613 10195 net.cpp:228] Rconv8 <- Rconv7
I0825 20:12:29.159617 10195 net.cpp:189] Rconv8 -> Rconv8
I0825 20:12:29.160327 10195 net.cpp:84] Top shape: 2 256 27 27 (373248)
I0825 20:12:29.160331 10195 net.cpp:116] Rconv8 does not need backward computation.
I0825 20:12:29.160336 10195 net.cpp:65] Creating Layer Rrelu8
I0825 20:12:29.160338 10195 net.cpp:228] Rrelu8 <- Rconv8
I0825 20:12:29.160341 10195 net.cpp:179] Rrelu8 -> Rconv8 (in-place)
I0825 20:12:29.160346 10195 net.cpp:84] Top shape: 2 256 27 27 (373248)
I0825 20:12:29.160348 10195 net.cpp:116] Rrelu8 does not need backward computation.
I0825 20:12:29.160351 10195 net.cpp:65] Creating Layer deconv2
I0825 20:12:29.160354 10195 net.cpp:228] deconv2 <- Rconv8
I0825 20:12:29.160359 10195 net.cpp:189] deconv2 -> deconv2
I0825 20:12:29.161347 10195 net.cpp:84] Top shape: 2 64 54 54 (373248)
I0825 20:12:29.161352 10195 net.cpp:116] deconv2 does not need backward computation.
I0825 20:12:29.161356 10195 net.cpp:65] Creating Layer relu_deconv2
I0825 20:12:29.161360 10195 net.cpp:228] relu_deconv2 <- deconv2
I0825 20:12:29.161363 10195 net.cpp:179] relu_deconv2 -> deconv2 (in-place)
I0825 20:12:29.161367 10195 net.cpp:84] Top shape: 2 64 54 54 (373248)
I0825 20:12:29.161382 10195 net.cpp:116] relu_deconv2 does not need backward computation.
I0825 20:12:29.161388 10195 net.cpp:65] Creating Layer deconv1
I0825 20:12:29.161391 10195 net.cpp:228] deconv1 <- deconv2
I0825 20:12:29.161396 10195 net.cpp:189] deconv1 -> deconv1
I0825 20:12:29.161540 10195 net.cpp:84] Top shape: 2 32 108 108 (746496)
I0825 20:12:29.161543 10195 net.cpp:116] deconv1 does not need backward computation.
I0825 20:12:29.161547 10195 net.cpp:65] Creating Layer relu_deconv1
I0825 20:12:29.161550 10195 net.cpp:228] relu_deconv1 <- deconv1
I0825 20:12:29.161556 10195 net.cpp:179] relu_deconv1 -> deconv1 (in-place)
I0825 20:12:29.161561 10195 net.cpp:84] Top shape: 2 32 108 108 (746496)
I0825 20:12:29.161562 10195 net.cpp:116] relu_deconv1 does not need backward computation.
I0825 20:12:29.161568 10195 net.cpp:65] Creating Layer deconv0
I0825 20:12:29.161571 10195 net.cpp:228] deconv0 <- deconv1
I0825 20:12:29.161576 10195 net.cpp:189] deconv0 -> deconv0
I0825 20:12:29.161613 10195 net.cpp:84] Top shape: 2 3 216 216 (279936)
I0825 20:12:29.161617 10195 net.cpp:116] deconv0 does not need backward computation.
I0825 20:12:29.161623 10195 net.cpp:65] Creating Layer loss
I0825 20:12:29.161624 10195 net.cpp:228] loss <- deconv0
I0825 20:12:29.161628 10195 net.cpp:228] loss <- target_ims
I0825 20:12:29.161633 10195 net.cpp:116] loss does not need backward computation.
I0825 20:12:29.161643 10195 net.cpp:238] Collecting Learning Rate and Weight Decay.
…
