…
    source: "/scr/r6/tgebru/inverting_conv/caffe_invert_alexnet/data/siggraph/tiny_summer_train_lmdb"
    mean_file: "/scr/r6/tgebru/timnit_caffe/data/ilsvrc12/imagenet_mean.binaryproto"
    batch_size: 12
    crop_size: 227
    mirror: false
    backend: LMDB
  }
}
layers {
  top: "target_ims"
  name: "target_ims"
  type: DATA
  data_param {
    source: "/scr/r6/tgebru/inverting_conv/caffe_invert_alexnet/data/siggraph/tiny_winter_train_lmdb"
    mean_file: "/scr/r6/tgebru/timnit_caffe/data/ilsvrc12/imagenet_mean.binaryproto"
    batch_size: 12
    crop_size: 216
    mirror: false
    backend: LMDB
  }
}
layers {
  bottom: "source_ims"
  top: "conv1"
  name: "conv1"
  type: CONVOLUTION
  blobs_lr: 0
  blobs_lr: 0
  weight_decay: 1
  weight_decay: 0
  convolution_param {
    num_output: 96
    kernel_size: 11
    stride: 4
    weight_filler {
      type: "gaussian"
      std: 0.01
    }
    bias_filler {
      type: "constant"
      value: 0
    }
  }
}
layers {
  bottom: "conv1"
  top: "conv1"
  name: "relu1"
  type: RELU
}
layers {
  bottom: "conv1"
  top: "pool1"
  name: "pool1"
  type: POOLING
  pooling_param {
    pool: MAX
    kernel_size: 3
    stride: 2
  }
}
layers {
  bottom: "pool1"
  top: "norm1"
  name: "norm1"
  type: LRN
  lrn_param {
    local_size: 5
    alpha: 0.0001
    beta: 0.75
  }
}
layers {
  bottom: "norm1"
  top: "Rconv6"
  name: "Rconv6"
  type: CONVOLUTION
  blobs_lr: 1
  blobs_lr: 2
  weight_decay: 1
  weight_decay: 0
  convolution_param {
    num_output: 256
    pad: 1
    kernel_size: 3
  }
}
layers {
  bottom: "Rconv6"
  top: "Rconv6"
  name: "Rrelu6"
  type: RELU
}
layers {
  bottom: "Rconv6"
  top: "Rconv7"
  name: "Rconv7"
  type: CONVOLUTION
  blobs_lr: 1
  blobs_lr: 2
  weight_decay: 1
  weight_decay: 0
  convolution_param {
    num_output: 256
    pad: 1
    kernel_size: 3
    group: 2
  }
}
layers {
  bottom: "Rconv7"
  top: "Rconv7"
  name: "Rrelu7"
  type: RELU
}
layers {
  bottom: "Rconv7"
  top: "Rconv8"
  name: "Rconv8"
  type: CONVOLUTION
  blobs_lr: 1
  blobs_lr: 2
  weight_decay: 1
  weight_decay: 0
  convolution_param {
    num_output: 256
    pad: 1
    kernel_size: 3
    group: 2
  }
}
layers {
  bottom: "Rconv8"
  top: "Rconv8"
  name: "Rrelu8"
  type: RELU
}
layers {
  bottom: "Rconv8"
  top: "deconv2"
  name: "deconv2"
  type: DECONVOLUTION
  blobs_lr: 1
  blobs_lr: 2
  weight_decay: 1
  weight_decay: 0
  deconvolution_param {
    pad: 2
    kernel_size: 5
    stride: 2
    output_height: 54
    output_width: 54
    output_channels: 64
  }
}
layers {
  bottom: "deconv2"
  top: "deconv2"
  name: "relu_deconv2"
  type: RELU
  relu_param {
    negative_slope: 0.3
  }
}
layers {
  bottom: "deconv2"
  top: "deconv1"
  name: "deconv1"
  type: DECONVOLUTION
  blobs_lr: 1
  blobs_lr: 2
  weight_decay: 1
  weight_decay: 0
  deconvolution_param {
    pad: 2
    kernel_size: 5
    stride: 2
    output_height: 108
    output_width: 108
    output_channels: 32
  }
}
layers {
  bottom: "deconv1"
  top: "deconv1"
  name: "relu_deconv1"
  type: RELU
  relu_param {
    negative_slope: 0.3
  }
}
layers {
  bottom: "deconv1"
  top: "deconv0"
  name: "deconv0"
  type: DECONVOLUTION
  blobs_lr: 1
  blobs_lr: 2
  weight_decay: 1
  weight_decay: 1
  deconvolution_param {
    pad: 2
    kernel_size: 5
    stride: 2
    output_height: 216
    output_width: 216
    output_channels: 3
  }
}
layers {
  bottom: "deconv0"
  bottom: "target_ims"
  name: "loss"
  type: EUCLIDEAN_LOSS
}
I0813 12:20:09.365094  4206 net.cpp:65] Creating Layer source_ims
I0813 12:20:09.365103  4206 net.cpp:189] source_ims -> source_ims
I0813 12:20:09.365206  4206 data_layer.cpp:223] Opening lmdb /scr/r6/tgebru/inverting_conv/caffe_invert_alexnet/data/siggraph/tiny_summer_train_lmdb
I0813 12:20:09.365409  4206 data_layer.cpp:285] output data size: 12,3,227,227
I0813 12:20:09.365424  4206 data_layer.cpp:304] Loading mean file from/scr/r6/tgebru/timnit_caffe/data/ilsvrc12/imagenet_mean.binaryproto
I0813 12:20:09.370043  4206 net.cpp:84] Top shape: 12 3 227 227 (1855044)
I0813 12:20:09.370050  4206 net.cpp:116] source_ims does not need backward computation.
I0813 12:20:09.370057  4206 net.cpp:65] Creating Layer target_ims
I0813 12:20:09.370061  4206 net.cpp:189] target_ims -> target_ims
I0813 12:20:09.370168  4206 data_layer.cpp:223] Opening lmdb /scr/r6/tgebru/inverting_conv/caffe_invert_alexnet/data/siggraph/tiny_winter_train_lmdb
I0813 12:20:09.370295  4206 data_layer.cpp:285] output data size: 12,3,216,216
I0813 12:20:09.370298  4206 data_layer.cpp:304] Loading mean file from/scr/r6/tgebru/timnit_caffe/data/ilsvrc12/imagenet_mean.binaryproto
I0813 12:20:09.374075  4206 net.cpp:84] Top shape: 12 3 216 216 (1679616)
I0813 12:20:09.374083  4206 net.cpp:116] target_ims does not need backward computation.
I0813 12:20:09.374090  4206 net.cpp:65] Creating Layer conv1
I0813 12:20:09.374094  4206 net.cpp:228] conv1 <- source_ims
I0813 12:20:09.374130  4206 net.cpp:189] conv1 -> conv1
I0813 12:20:09.375396  4206 net.cpp:84] Top shape: 12 96 55 55 (3484800)
I0813 12:20:09.375401  4206 net.cpp:116] conv1 does not need backward computation.
I0813 12:20:09.375406  4206 net.cpp:65] Creating Layer relu1
I0813 12:20:09.375409  4206 net.cpp:228] relu1 <- conv1
I0813 12:20:09.375413  4206 net.cpp:179] relu1 -> conv1 (in-place)
I0813 12:20:09.375422  4206 net.cpp:84] Top shape: 12 96 55 55 (3484800)
I0813 12:20:09.375426  4206 net.cpp:116] relu1 does not need backward computation.
I0813 12:20:09.375430  4206 net.cpp:65] Creating Layer pool1
I0813 12:20:09.375433  4206 net.cpp:228] pool1 <- conv1
I0813 12:20:09.375437  4206 net.cpp:189] pool1 -> pool1
I0813 12:20:09.375449  4206 net.cpp:84] Top shape: 12 96 27 27 (839808)
I0813 12:20:09.375452  4206 net.cpp:116] pool1 does not need backward computation.
I0813 12:20:09.375458  4206 net.cpp:65] Creating Layer norm1
I0813 12:20:09.375460  4206 net.cpp:228] norm1 <- pool1
I0813 12:20:09.375464  4206 net.cpp:189] norm1 -> norm1
I0813 12:20:09.375473  4206 net.cpp:84] Top shape: 12 96 27 27 (839808)
I0813 12:20:09.375476  4206 net.cpp:116] norm1 does not need backward computation.
I0813 12:20:09.375479  4206 net.cpp:65] Creating Layer Rconv6
I0813 12:20:09.375483  4206 net.cpp:228] Rconv6 <- norm1
I0813 12:20:09.375488  4206 net.cpp:189] Rconv6 -> Rconv6
I0813 12:20:09.375658  4206 net.cpp:84] Top shape: 12 256 27 27 (2239488)
I0813 12:20:09.375661  4206 net.cpp:111] Rconv6 needs backward computation.
I0813 12:20:09.375665  4206 net.cpp:65] Creating Layer Rrelu6
I0813 12:20:09.375669  4206 net.cpp:228] Rrelu6 <- Rconv6
I0813 12:20:09.375674  4206 net.cpp:179] Rrelu6 -> Rconv6 (in-place)
I0813 12:20:09.375677  4206 net.cpp:84] Top shape: 12 256 27 27 (2239488)
I0813 12:20:09.375680  4206 net.cpp:111] Rrelu6 needs backward computation.
I0813 12:20:09.375685  4206 net.cpp:65] Creating Layer Rconv7
I0813 12:20:09.375689  4206 net.cpp:228] Rconv7 <- Rconv6
I0813 12:20:09.375692  4206 net.cpp:189] Rconv7 -> Rconv7
I0813 12:20:09.376441  4206 net.cpp:84] Top shape: 12 256 27 27 (2239488)
I0813 12:20:09.376446  4206 net.cpp:111] Rconv7 needs backward computation.
I0813 12:20:09.376449  4206 net.cpp:65] Creating Layer Rrelu7
I0813 12:20:09.376471  4206 net.cpp:228] Rrelu7 <- Rconv7
I0813 12:20:09.376477  4206 net.cpp:179] Rrelu7 -> Rconv7 (in-place)
I0813 12:20:09.376482  4206 net.cpp:84] Top shape: 12 256 27 27 (2239488)
I0813 12:20:09.376483  4206 net.cpp:111] Rrelu7 needs backward computation.
I0813 12:20:09.376487  4206 net.cpp:65] Creating Layer Rconv8
I0813 12:20:09.376490  4206 net.cpp:228] Rconv8 <- Rconv7
I0813 12:20:09.376493  4206 net.cpp:189] Rconv8 -> Rconv8
I0813 12:20:09.377298  4206 net.cpp:84] Top shape: 12 256 27 27 (2239488)
I0813 12:20:09.377302  4206 net.cpp:111] Rconv8 needs backward computation.
I0813 12:20:09.377307  4206 net.cpp:65] Creating Layer Rrelu8
I0813 12:20:09.377310  4206 net.cpp:228] Rrelu8 <- Rconv8
I0813 12:20:09.377313  4206 net.cpp:179] Rrelu8 -> Rconv8 (in-place)
I0813 12:20:09.377317  4206 net.cpp:84] Top shape: 12 256 27 27 (2239488)
I0813 12:20:09.377321  4206 net.cpp:111] Rrelu8 needs backward computation.
I0813 12:20:09.377324  4206 net.cpp:65] Creating Layer deconv2
I0813 12:20:09.377326  4206 net.cpp:228] deconv2 <- Rconv8
I0813 12:20:09.377331  4206 net.cpp:189] deconv2 -> deconv2
I0813 12:20:09.378372  4206 net.cpp:84] Top shape: 12 64 54 54 (2239488)
I0813 12:20:09.378376  4206 net.cpp:111] deconv2 needs backward computation.
I0813 12:20:09.378381  4206 net.cpp:65] Creating Layer relu_deconv2
I0813 12:20:09.378384  4206 net.cpp:228] relu_deconv2 <- deconv2
I0813 12:20:09.378388  4206 net.cpp:179] relu_deconv2 -> deconv2 (in-place)
I0813 12:20:09.378394  4206 net.cpp:84] Top shape: 12 64 54 54 (2239488)
I0813 12:20:09.378397  4206 net.cpp:111] relu_deconv2 needs backward computation.
I0813 12:20:09.378401  4206 net.cpp:65] Creating Layer deconv1
I0813 12:20:09.378403  4206 net.cpp:228] deconv1 <- deconv2
I0813 12:20:09.378407  4206 net.cpp:189] deconv1 -> deconv1
I0813 12:20:09.378554  4206 net.cpp:84] Top shape: 12 32 108 108 (4478976)
I0813 12:20:09.378558  4206 net.cpp:111] deconv1 needs backward computation.
I0813 12:20:09.378561  4206 net.cpp:65] Creating Layer relu_deconv1
I0813 12:20:09.378564  4206 net.cpp:228] relu_deconv1 <- deconv1
I0813 12:20:09.378568  4206 net.cpp:179] relu_deconv1 -> deconv1 (in-place)
I0813 12:20:09.378573  4206 net.cpp:84] Top shape: 12 32 108 108 (4478976)
I0813 12:20:09.378576  4206 net.cpp:111] relu_deconv1 needs backward computation.
I0813 12:20:09.378581  4206 net.cpp:65] Creating Layer deconv0
I0813 12:20:09.378583  4206 net.cpp:228] deconv0 <- deconv1
I0813 12:20:09.378587  4206 net.cpp:189] deconv0 -> deconv0
I0813 12:20:09.378607  4206 net.cpp:84] Top shape: 12 3 216 216 (1679616)
I0813 12:20:09.378612  4206 net.cpp:111] deconv0 needs backward computation.
I0813 12:20:09.378614  4206 net.cpp:65] Creating Layer loss
I0813 12:20:09.378618  4206 net.cpp:228] loss <- deconv0
I0813 12:20:09.378620  4206 net.cpp:228] loss <- target_ims
I0813 12:20:09.378629  4206 net.cpp:111] loss needs backward computation.
I0813 12:20:09.378643  4206 net.cpp:238] Collecting Learning Rate and Weight Decay.
…
    source: "/scr/r6/tgebru/inverting_conv/caffe_invert_alexnet/data/siggraph/tiny_summer_val_lmdb"
    mean_file: "/scr/r6/tgebru/timnit_caffe/data/ilsvrc12/imagenet_mean.binaryproto"
    batch_size: 64
    crop_size: 227
    mirror: false
    backend: LMDB
  }
}
layers {
  top: "target_ims"
  name: "target_ims"
  type: DATA
  data_param {
    source: "/scr/r6/tgebru/inverting_conv/caffe_invert_alexnet/data/siggraph/tiny_winter_val_lmdb"
    mean_file: "/scr/r6/tgebru/timnit_caffe/data/ilsvrc12/imagenet_mean.binaryproto"
    batch_size: 64
    crop_size: 216
    mirror: false
    backend: LMDB
  }
}
layers {
  bottom: "source_ims"
  top: "conv1"
  name: "conv1"
  type: CONVOLUTION
  blobs_lr: 0
  blobs_lr: 0
  weight_decay: 1
  weight_decay: 0
  convolution_param {
    num_output: 96
    kernel_size: 11
    stride: 4
    weight_filler {
      type: "gaussian"
      std: 0.01
    }
    bias_filler {
      type: "constant"
      value: 0
    }
  }
}
layers {
  bottom: "conv1"
  top: "conv1"
  name: "relu1"
  type: RELU
}
layers {
  bottom: "conv1"
  top: "pool1"
  name: "pool1"
  type: POOLING
  pooling_param {
    pool: MAX
    kernel_size: 3
    stride: 2
  }
}
layers {
  bottom: "pool1"
  top: "norm1"
  name: "norm1"
  type: LRN
  lrn_param {
    local_size: 5
    alpha: 0.0001
    beta: 0.75
  }
}
layers {
  bottom: "norm1"
  top: "Rconv6"
  name: "Rconv6"
  type: CONVOLUTION
  blobs_lr: 0
  blobs_lr: 0
  weight_decay: 1
  weight_decay: 0
  convolution_param {
    num_output: 256
    pad: 1
    kernel_size: 3
  }
}
layers {
  bottom: "Rconv6"
  top: "Rconv6"
  name: "Rrelu6"
  type: RELU
}
layers {
  bottom: "Rconv6"
  top: "Rconv7"
  name: "Rconv7"
  type: CONVOLUTION
  blobs_lr: 0
  blobs_lr: 0
  weight_decay: 1
  weight_decay: 0
  convolution_param {
    num_output: 256
    pad: 1
    kernel_size: 3
    group: 2
  }
}
layers {
  bottom: "Rconv7"
  top: "Rconv7"
  name: "Rrelu7"
  type: RELU
}
layers {
  bottom: "Rconv7"
  top: "Rconv8"
  name: "Rconv8"
  type: CONVOLUTION
  blobs_lr: 0
  blobs_lr: 0
  weight_decay: 1
  weight_decay: 0
  convolution_param {
    num_output: 256
    pad: 1
    kernel_size: 3
    group: 2
  }
}
layers {
  bottom: "Rconv8"
  top: "Rconv8"
  name: "Rrelu8"
  type: RELU
}
layers {
  bottom: "Rconv8"
  top: "deconv2"
  name: "deconv2"
  type: DECONVOLUTION
  blobs_lr: 0
  blobs_lr: 0
  weight_decay: 1
  weight_decay: 0
  deconvolution_param {
    pad: 2
    kernel_size: 5
    stride: 2
    output_height: 54
    output_width: 54
    output_channels: 64
  }
}
layers {
  bottom: "deconv2"
  top: "deconv2"
  name: "relu_deconv2"
  type: RELU
  relu_param {
    negative_slope: 0.3
  }
}
layers {
  bottom: "deconv2"
  top: "deconv1"
  name: "deconv1"
  type: DECONVOLUTION
  blobs_lr: 0
  blobs_lr: 0
  weight_decay: 1
  weight_decay: 0
  deconvolution_param {
    pad: 2
    kernel_size: 5
    stride: 2
    output_height: 108
    output_width: 108
    output_channels: 32
  }
}
layers {
  bottom: "deconv1"
  top: "deconv1"
  name: "relu_deconv1"
  type: RELU
  relu_param {
    negative_slope: 0.3
  }
}
layers {
  bottom: "deconv1"
  top: "deconv0"
  name: "deconv0"
  type: DECONVOLUTION
  blobs_lr: 0
  blobs_lr: 0
  weight_decay: 1
  weight_decay: 0
  deconvolution_param {
    pad: 2
    kernel_size: 5
    stride: 2
    output_height: 216
    output_width: 216
    output_channels: 3
  }
}
layers {
  bottom: "deconv0"
  bottom: "target_ims"
  name: "loss"
  type: EUCLIDEAN_LOSS
}
I0813 12:20:09.379361  4206 net.cpp:65] Creating Layer source_ims
I0813 12:20:09.379366  4206 net.cpp:189] source_ims -> source_ims
I0813 12:20:09.379426  4206 data_layer.cpp:223] Opening lmdb /scr/r6/tgebru/inverting_conv/caffe_invert_alexnet/data/siggraph/tiny_summer_val_lmdb
I0813 12:20:09.379649  4206 data_layer.cpp:285] output data size: 64,3,227,227
I0813 12:20:09.379653  4206 data_layer.cpp:304] Loading mean file from/scr/r6/tgebru/timnit_caffe/data/ilsvrc12/imagenet_mean.binaryproto
I0813 12:20:09.393708  4206 net.cpp:84] Top shape: 64 3 227 227 (9893568)
I0813 12:20:09.393728  4206 net.cpp:116] source_ims does not need backward computation.
I0813 12:20:09.393739  4206 net.cpp:65] Creating Layer target_ims
I0813 12:20:09.393745  4206 net.cpp:189] target_ims -> target_ims
I0813 12:20:09.393833  4206 data_layer.cpp:223] Opening lmdb /scr/r6/tgebru/inverting_conv/caffe_invert_alexnet/data/siggraph/tiny_winter_val_lmdb
I0813 12:20:09.393949  4206 data_layer.cpp:285] output data size: 64,3,216,216
I0813 12:20:09.393954  4206 data_layer.cpp:304] Loading mean file from/scr/r6/tgebru/timnit_caffe/data/ilsvrc12/imagenet_mean.binaryproto
I0813 12:20:09.406515  4206 net.cpp:84] Top shape: 64 3 216 216 (8957952)
I0813 12:20:09.406568  4206 net.cpp:116] target_ims does not need backward computation.
I0813 12:20:09.406580  4206 net.cpp:65] Creating Layer conv1
I0813 12:20:09.406585  4206 net.cpp:228] conv1 <- source_ims
I0813 12:20:09.406594  4206 net.cpp:189] conv1 -> conv1
I0813 12:20:09.407853  4206 net.cpp:84] Top shape: 64 96 55 55 (18585600)
I0813 12:20:09.407858  4206 net.cpp:116] conv1 does not need backward computation.
I0813 12:20:09.407863  4206 net.cpp:65] Creating Layer relu1
I0813 12:20:09.407866  4206 net.cpp:228] relu1 <- conv1
I0813 12:20:09.407871  4206 net.cpp:179] relu1 -> conv1 (in-place)
I0813 12:20:09.407876  4206 net.cpp:84] Top shape: 64 96 55 55 (18585600)
I0813 12:20:09.407879  4206 net.cpp:116] relu1 does not need backward computation.
I0813 12:20:09.407884  4206 net.cpp:65] Creating Layer pool1
I0813 12:20:09.407887  4206 net.cpp:228] pool1 <- conv1
I0813 12:20:09.407891  4206 net.cpp:189] pool1 -> pool1
I0813 12:20:09.407898  4206 net.cpp:84] Top shape: 64 96 27 27 (4478976)
I0813 12:20:09.407902  4206 net.cpp:116] pool1 does not need backward computation.
I0813 12:20:09.407907  4206 net.cpp:65] Creating Layer norm1
I0813 12:20:09.407910  4206 net.cpp:228] norm1 <- pool1
I0813 12:20:09.407914  4206 net.cpp:189] norm1 -> norm1
I0813 12:20:09.407922  4206 net.cpp:84] Top shape: 64 96 27 27 (4478976)
I0813 12:20:09.407923  4206 net.cpp:116] norm1 does not need backward computation.
I0813 12:20:09.407927  4206 net.cpp:65] Creating Layer Rconv6
I0813 12:20:09.407930  4206 net.cpp:228] Rconv6 <- norm1
I0813 12:20:09.407934  4206 net.cpp:189] Rconv6 -> Rconv6
I0813 12:20:09.408171  4206 net.cpp:84] Top shape: 64 256 27 27 (11943936)
I0813 12:20:09.408175  4206 net.cpp:116] Rconv6 does not need backward computation.
I0813 12:20:09.408180  4206 net.cpp:65] Creating Layer Rrelu6
I0813 12:20:09.408182  4206 net.cpp:228] Rrelu6 <- Rconv6
I0813 12:20:09.408187  4206 net.cpp:179] Rrelu6 -> Rconv6 (in-place)
I0813 12:20:09.408192  4206 net.cpp:84] Top shape: 64 256 27 27 (11943936)
I0813 12:20:09.408195  4206 net.cpp:116] Rrelu6 does not need backward computation.
I0813 12:20:09.408200  4206 net.cpp:65] Creating Layer Rconv7
I0813 12:20:09.408203  4206 net.cpp:228] Rconv7 <- Rconv6
I0813 12:20:09.408206  4206 net.cpp:189] Rconv7 -> Rconv7
I0813 12:20:09.408923  4206 net.cpp:84] Top shape: 64 256 27 27 (11943936)
I0813 12:20:09.408927  4206 net.cpp:116] Rconv7 does not need backward computation.
I0813 12:20:09.408931  4206 net.cpp:65] Creating Layer Rrelu7
I0813 12:20:09.408934  4206 net.cpp:228] Rrelu7 <- Rconv7
I0813 12:20:09.408938  4206 net.cpp:179] Rrelu7 -> Rconv7 (in-place)
I0813 12:20:09.408943  4206 net.cpp:84] Top shape: 64 256 27 27 (11943936)
I0813 12:20:09.408946  4206 net.cpp:116] Rrelu7 does not need backward computation.
I0813 12:20:09.408951  4206 net.cpp:65] Creating Layer Rconv8
I0813 12:20:09.408952  4206 net.cpp:228] Rconv8 <- Rconv7
I0813 12:20:09.408957  4206 net.cpp:189] Rconv8 -> Rconv8
I0813 12:20:09.409716  4206 net.cpp:84] Top shape: 64 256 27 27 (11943936)
I0813 12:20:09.409721  4206 net.cpp:116] Rconv8 does not need backward computation.
I0813 12:20:09.409725  4206 net.cpp:65] Creating Layer Rrelu8
I0813 12:20:09.409728  4206 net.cpp:228] Rrelu8 <- Rconv8
I0813 12:20:09.409731  4206 net.cpp:179] Rrelu8 -> Rconv8 (in-place)
I0813 12:20:09.409735  4206 net.cpp:84] Top shape: 64 256 27 27 (11943936)
I0813 12:20:09.409739  4206 net.cpp:116] Rrelu8 does not need backward computation.
I0813 12:20:09.409742  4206 net.cpp:65] Creating Layer deconv2
I0813 12:20:09.409745  4206 net.cpp:228] deconv2 <- Rconv8
I0813 12:20:09.409749  4206 net.cpp:189] deconv2 -> deconv2
I0813 12:20:09.410771  4206 net.cpp:84] Top shape: 64 64 54 54 (11943936)
I0813 12:20:09.410775  4206 net.cpp:116] deconv2 does not need backward computation.
I0813 12:20:09.410780  4206 net.cpp:65] Creating Layer relu_deconv2
I0813 12:20:09.410784  4206 net.cpp:228] relu_deconv2 <- deconv2
I0813 12:20:09.410787  4206 net.cpp:179] relu_deconv2 -> deconv2 (in-place)
I0813 12:20:09.410792  4206 net.cpp:84] Top shape: 64 64 54 54 (11943936)
I0813 12:20:09.410809  4206 net.cpp:116] relu_deconv2 does not need backward computation.
I0813 12:20:09.410815  4206 net.cpp:65] Creating Layer deconv1
I0813 12:20:09.410817  4206 net.cpp:228] deconv1 <- deconv2
I0813 12:20:09.410821  4206 net.cpp:189] deconv1 -> deconv1
I0813 12:20:09.410974  4206 net.cpp:84] Top shape: 64 32 108 108 (23887872)
I0813 12:20:09.410977  4206 net.cpp:116] deconv1 does not need backward computation.
I0813 12:20:09.410981  4206 net.cpp:65] Creating Layer relu_deconv1
I0813 12:20:09.410984  4206 net.cpp:228] relu_deconv1 <- deconv1
I0813 12:20:09.410987  4206 net.cpp:179] relu_deconv1 -> deconv1 (in-place)
I0813 12:20:09.410992  4206 net.cpp:84] Top shape: 64 32 108 108 (23887872)
I0813 12:20:09.410995  4206 net.cpp:116] relu_deconv1 does not need backward computation.
I0813 12:20:09.411000  4206 net.cpp:65] Creating Layer deconv0
I0813 12:20:09.411003  4206 net.cpp:228] deconv0 <- deconv1
I0813 12:20:09.411008  4206 net.cpp:189] deconv0 -> deconv0
I0813 12:20:09.411033  4206 net.cpp:84] Top shape: 64 3 216 216 (8957952)
I0813 12:20:09.411036  4206 net.cpp:116] deconv0 does not need backward computation.
I0813 12:20:09.411041  4206 net.cpp:65] Creating Layer loss
I0813 12:20:09.411043  4206 net.cpp:228] loss <- deconv0
I0813 12:20:09.411046  4206 net.cpp:228] loss <- target_ims
I0813 12:20:09.411051  4206 net.cpp:116] loss does not need backward computation.
I0813 12:20:09.411064  4206 net.cpp:238] Collecting Learning Rate and Weight Decay.
…
