…
    source: "/scr/r6/tgebru/inverting_conv/caffe_invert_alexnet/data/siggraph/tiny_winter_train_lmdb"
    mean_file: "/scr/r6/tgebru/timnit_caffe/data/ilsvrc12/imagenet_mean.binaryproto"
    batch_size: 12
    crop_size: 227
    mirror: false
    backend: LMDB
  }
}
layers {
  top: "target_ims"
  name: "target_ims"
  type: DATA
  data_param {
    source: "/scr/r6/tgebru/inverting_conv/caffe_invert_alexnet/data/siggraph/tiny_summer_train_lmdb"
    mean_file: "/scr/r6/tgebru/timnit_caffe/data/ilsvrc12/imagenet_mean.binaryproto"
    batch_size: 12
    crop_size: 216
    mirror: false
    backend: LMDB
  }
}
layers {
  bottom: "source_ims"
  top: "conv1"
  name: "conv1"
  type: CONVOLUTION
  blobs_lr: 0
  blobs_lr: 0
  weight_decay: 1
  weight_decay: 0
  convolution_param {
    num_output: 96
    kernel_size: 11
    stride: 4
    weight_filler {
      type: "gaussian"
      std: 0.01
    }
    bias_filler {
      type: "constant"
      value: 0
    }
  }
}
layers {
  bottom: "conv1"
  top: "conv1"
  name: "relu1"
  type: RELU
}
layers {
  bottom: "conv1"
  top: "pool1"
  name: "pool1"
  type: POOLING
  pooling_param {
    pool: MAX
    kernel_size: 3
    stride: 2
  }
}
layers {
  bottom: "pool1"
  top: "norm1"
  name: "norm1"
  type: LRN
  lrn_param {
    local_size: 5
    alpha: 0.0001
    beta: 0.75
  }
}
layers {
  bottom: "norm1"
  top: "Rconv6"
  name: "Rconv6"
  type: CONVOLUTION
  blobs_lr: 1
  blobs_lr: 2
  weight_decay: 1
  weight_decay: 0
  convolution_param {
    num_output: 256
    pad: 1
    kernel_size: 3
  }
}
layers {
  bottom: "Rconv6"
  top: "Rconv6"
  name: "Rrelu6"
  type: RELU
}
layers {
  bottom: "Rconv6"
  top: "Rconv7"
  name: "Rconv7"
  type: CONVOLUTION
  blobs_lr: 1
  blobs_lr: 2
  weight_decay: 1
  weight_decay: 0
  convolution_param {
    num_output: 256
    pad: 1
    kernel_size: 3
    group: 2
  }
}
layers {
  bottom: "Rconv7"
  top: "Rconv7"
  name: "Rrelu7"
  type: RELU
}
layers {
  bottom: "Rconv7"
  top: "Rconv8"
  name: "Rconv8"
  type: CONVOLUTION
  blobs_lr: 1
  blobs_lr: 2
  weight_decay: 1
  weight_decay: 0
  convolution_param {
    num_output: 256
    pad: 1
    kernel_size: 3
    group: 2
  }
}
layers {
  bottom: "Rconv8"
  top: "Rconv8"
  name: "Rrelu8"
  type: RELU
}
layers {
  bottom: "Rconv8"
  top: "deconv2"
  name: "deconv2"
  type: DECONVOLUTION
  blobs_lr: 1
  blobs_lr: 2
  weight_decay: 1
  weight_decay: 0
  deconvolution_param {
    pad: 2
    kernel_size: 5
    stride: 2
    output_height: 54
    output_width: 54
    output_channels: 64
  }
}
layers {
  bottom: "deconv2"
  top: "deconv2"
  name: "relu_deconv2"
  type: RELU
  relu_param {
    negative_slope: 0.3
  }
}
layers {
  bottom: "deconv2"
  top: "deconv1"
  name: "deconv1"
  type: DECONVOLUTION
  blobs_lr: 1
  blobs_lr: 2
  weight_decay: 1
  weight_decay: 0
  deconvolution_param {
    pad: 2
    kernel_size: 5
    stride: 2
    output_height: 108
    output_width: 108
    output_channels: 32
  }
}
layers {
  bottom: "deconv1"
  top: "deconv1"
  name: "relu_deconv1"
  type: RELU
  relu_param {
    negative_slope: 0.3
  }
}
layers {
  bottom: "deconv1"
  top: "deconv0"
  name: "deconv0"
  type: DECONVOLUTION
  blobs_lr: 1
  blobs_lr: 2
  weight_decay: 1
  weight_decay: 1
  deconvolution_param {
    pad: 2
    kernel_size: 5
    stride: 2
    output_height: 216
    output_width: 216
    output_channels: 3
  }
}
layers {
  bottom: "deconv0"
  bottom: "target_ims"
  name: "loss"
  type: EUCLIDEAN_LOSS
}
I0812 18:53:18.854006 13596 net.cpp:65] Creating Layer source_ims
I0812 18:53:18.854014 13596 net.cpp:189] source_ims -> source_ims
I0812 18:53:18.854130 13596 data_layer.cpp:223] Opening lmdb /scr/r6/tgebru/inverting_conv/caffe_invert_alexnet/data/siggraph/tiny_winter_train_lmdb
I0812 18:53:18.854336 13596 data_layer.cpp:285] output data size: 12,3,227,227
I0812 18:53:18.854342 13596 data_layer.cpp:304] Loading mean file from/scr/r6/tgebru/timnit_caffe/data/ilsvrc12/imagenet_mean.binaryproto
I0812 18:53:18.858858 13596 net.cpp:84] Top shape: 12 3 227 227 (1855044)
I0812 18:53:18.858866 13596 net.cpp:116] source_ims does not need backward computation.
I0812 18:53:18.858875 13596 net.cpp:65] Creating Layer target_ims
I0812 18:53:18.858880 13596 net.cpp:189] target_ims -> target_ims
I0812 18:53:18.859033 13596 data_layer.cpp:223] Opening lmdb /scr/r6/tgebru/inverting_conv/caffe_invert_alexnet/data/siggraph/tiny_summer_train_lmdb
I0812 18:53:18.859170 13596 data_layer.cpp:285] output data size: 12,3,216,216
I0812 18:53:18.859174 13596 data_layer.cpp:304] Loading mean file from/scr/r6/tgebru/timnit_caffe/data/ilsvrc12/imagenet_mean.binaryproto
I0812 18:53:18.863173 13596 net.cpp:84] Top shape: 12 3 216 216 (1679616)
I0812 18:53:18.863181 13596 net.cpp:116] target_ims does not need backward computation.
I0812 18:53:18.863193 13596 net.cpp:65] Creating Layer conv1
I0812 18:53:18.863198 13596 net.cpp:228] conv1 <- source_ims
I0812 18:53:18.863231 13596 net.cpp:189] conv1 -> conv1
I0812 18:53:18.864748 13596 net.cpp:84] Top shape: 12 96 55 55 (3484800)
I0812 18:53:18.864758 13596 net.cpp:116] conv1 does not need backward computation.
I0812 18:53:18.864765 13596 net.cpp:65] Creating Layer relu1
I0812 18:53:18.864769 13596 net.cpp:228] relu1 <- conv1
I0812 18:53:18.864775 13596 net.cpp:179] relu1 -> conv1 (in-place)
I0812 18:53:18.864786 13596 net.cpp:84] Top shape: 12 96 55 55 (3484800)
I0812 18:53:18.864789 13596 net.cpp:116] relu1 does not need backward computation.
I0812 18:53:18.864795 13596 net.cpp:65] Creating Layer pool1
I0812 18:53:18.864799 13596 net.cpp:228] pool1 <- conv1
I0812 18:53:18.864802 13596 net.cpp:189] pool1 -> pool1
I0812 18:53:18.864816 13596 net.cpp:84] Top shape: 12 96 27 27 (839808)
I0812 18:53:18.864820 13596 net.cpp:116] pool1 does not need backward computation.
I0812 18:53:18.864825 13596 net.cpp:65] Creating Layer norm1
I0812 18:53:18.864827 13596 net.cpp:228] norm1 <- pool1
I0812 18:53:18.864832 13596 net.cpp:189] norm1 -> norm1
I0812 18:53:18.864842 13596 net.cpp:84] Top shape: 12 96 27 27 (839808)
I0812 18:53:18.864845 13596 net.cpp:116] norm1 does not need backward computation.
I0812 18:53:18.864850 13596 net.cpp:65] Creating Layer Rconv6
I0812 18:53:18.864855 13596 net.cpp:228] Rconv6 <- norm1
I0812 18:53:18.864858 13596 net.cpp:189] Rconv6 -> Rconv6
I0812 18:53:18.865116 13596 net.cpp:84] Top shape: 12 256 27 27 (2239488)
I0812 18:53:18.865120 13596 net.cpp:111] Rconv6 needs backward computation.
I0812 18:53:18.865125 13596 net.cpp:65] Creating Layer Rrelu6
I0812 18:53:18.865128 13596 net.cpp:228] Rrelu6 <- Rconv6
I0812 18:53:18.865134 13596 net.cpp:179] Rrelu6 -> Rconv6 (in-place)
I0812 18:53:18.865139 13596 net.cpp:84] Top shape: 12 256 27 27 (2239488)
I0812 18:53:18.865141 13596 net.cpp:111] Rrelu6 needs backward computation.
I0812 18:53:18.865146 13596 net.cpp:65] Creating Layer Rconv7
I0812 18:53:18.865149 13596 net.cpp:228] Rconv7 <- Rconv6
I0812 18:53:18.865154 13596 net.cpp:189] Rconv7 -> Rconv7
I0812 18:53:18.865854 13596 net.cpp:84] Top shape: 12 256 27 27 (2239488)
I0812 18:53:18.865859 13596 net.cpp:111] Rconv7 needs backward computation.
I0812 18:53:18.865864 13596 net.cpp:65] Creating Layer Rrelu7
I0812 18:53:18.865890 13596 net.cpp:228] Rrelu7 <- Rconv7
I0812 18:53:18.865895 13596 net.cpp:179] Rrelu7 -> Rconv7 (in-place)
I0812 18:53:18.865900 13596 net.cpp:84] Top shape: 12 256 27 27 (2239488)
I0812 18:53:18.865903 13596 net.cpp:111] Rrelu7 needs backward computation.
I0812 18:53:18.865907 13596 net.cpp:65] Creating Layer Rconv8
I0812 18:53:18.865911 13596 net.cpp:228] Rconv8 <- Rconv7
I0812 18:53:18.865914 13596 net.cpp:189] Rconv8 -> Rconv8
I0812 18:53:18.866714 13596 net.cpp:84] Top shape: 12 256 27 27 (2239488)
I0812 18:53:18.866719 13596 net.cpp:111] Rconv8 needs backward computation.
I0812 18:53:18.866724 13596 net.cpp:65] Creating Layer Rrelu8
I0812 18:53:18.866727 13596 net.cpp:228] Rrelu8 <- Rconv8
I0812 18:53:18.866731 13596 net.cpp:179] Rrelu8 -> Rconv8 (in-place)
I0812 18:53:18.866736 13596 net.cpp:84] Top shape: 12 256 27 27 (2239488)
I0812 18:53:18.866739 13596 net.cpp:111] Rrelu8 needs backward computation.
I0812 18:53:18.866744 13596 net.cpp:65] Creating Layer deconv2
I0812 18:53:18.866745 13596 net.cpp:228] deconv2 <- Rconv8
I0812 18:53:18.866750 13596 net.cpp:189] deconv2 -> deconv2
I0812 18:53:18.867847 13596 net.cpp:84] Top shape: 12 64 54 54 (2239488)
I0812 18:53:18.867852 13596 net.cpp:111] deconv2 needs backward computation.
I0812 18:53:18.867857 13596 net.cpp:65] Creating Layer relu_deconv2
I0812 18:53:18.867861 13596 net.cpp:228] relu_deconv2 <- deconv2
I0812 18:53:18.867864 13596 net.cpp:179] relu_deconv2 -> deconv2 (in-place)
I0812 18:53:18.867869 13596 net.cpp:84] Top shape: 12 64 54 54 (2239488)
I0812 18:53:18.867872 13596 net.cpp:111] relu_deconv2 needs backward computation.
I0812 18:53:18.867877 13596 net.cpp:65] Creating Layer deconv1
I0812 18:53:18.867879 13596 net.cpp:228] deconv1 <- deconv2
I0812 18:53:18.867883 13596 net.cpp:189] deconv1 -> deconv1
I0812 18:53:18.868024 13596 net.cpp:84] Top shape: 12 32 108 108 (4478976)
I0812 18:53:18.868028 13596 net.cpp:111] deconv1 needs backward computation.
I0812 18:53:18.868033 13596 net.cpp:65] Creating Layer relu_deconv1
I0812 18:53:18.868036 13596 net.cpp:228] relu_deconv1 <- deconv1
I0812 18:53:18.868041 13596 net.cpp:179] relu_deconv1 -> deconv1 (in-place)
I0812 18:53:18.868046 13596 net.cpp:84] Top shape: 12 32 108 108 (4478976)
I0812 18:53:18.868048 13596 net.cpp:111] relu_deconv1 needs backward computation.
I0812 18:53:18.868053 13596 net.cpp:65] Creating Layer deconv0
I0812 18:53:18.868057 13596 net.cpp:228] deconv0 <- deconv1
I0812 18:53:18.868060 13596 net.cpp:189] deconv0 -> deconv0
I0812 18:53:18.868103 13596 net.cpp:84] Top shape: 12 3 216 216 (1679616)
I0812 18:53:18.868108 13596 net.cpp:111] deconv0 needs backward computation.
I0812 18:53:18.868110 13596 net.cpp:65] Creating Layer loss
I0812 18:53:18.868113 13596 net.cpp:228] loss <- deconv0
I0812 18:53:18.868118 13596 net.cpp:228] loss <- target_ims
I0812 18:53:18.868125 13596 net.cpp:111] loss needs backward computation.
I0812 18:53:18.868139 13596 net.cpp:238] Collecting Learning Rate and Weight Decay.
…
    source: "/scr/r6/tgebru/inverting_conv/caffe_invert_alexnet/data/siggraph/tiny_winter_val_lmdb"
    mean_file: "/scr/r6/tgebru/timnit_caffe/data/ilsvrc12/imagenet_mean.binaryproto"
    batch_size: 2
    crop_size: 227
    mirror: false
    backend: LMDB
  }
}
layers {
  top: "target_ims"
  name: "target_ims"
  type: DATA
  data_param {
    source: "/scr/r6/tgebru/inverting_conv/caffe_invert_alexnet/data/siggraph/tiny_summer_val_lmdb"
    mean_file: "/scr/r6/tgebru/timnit_caffe/data/ilsvrc12/imagenet_mean.binaryproto"
    batch_size: 2
    crop_size: 216
    mirror: false
    backend: LMDB
  }
}
layers {
  bottom: "source_ims"
  top: "conv1"
  name: "conv1"
  type: CONVOLUTION
  blobs_lr: 0
  blobs_lr: 0
  weight_decay: 1
  weight_decay: 0
  convolution_param {
    num_output: 96
    kernel_size: 11
    stride: 4
    weight_filler {
      type: "gaussian"
      std: 0.01
    }
    bias_filler {
      type: "constant"
      value: 0
    }
  }
}
layers {
  bottom: "conv1"
  top: "conv1"
  name: "relu1"
  type: RELU
}
layers {
  bottom: "conv1"
  top: "pool1"
  name: "pool1"
  type: POOLING
  pooling_param {
    pool: MAX
    kernel_size: 3
    stride: 2
  }
}
layers {
  bottom: "pool1"
  top: "norm1"
  name: "norm1"
  type: LRN
  lrn_param {
    local_size: 5
    alpha: 0.0001
    beta: 0.75
  }
}
layers {
  bottom: "norm1"
  top: "Rconv6"
  name: "Rconv6"
  type: CONVOLUTION
  blobs_lr: 0
  blobs_lr: 0
  weight_decay: 1
  weight_decay: 0
  convolution_param {
    num_output: 256
    pad: 1
    kernel_size: 3
  }
}
layers {
  bottom: "Rconv6"
  top: "Rconv6"
  name: "Rrelu6"
  type: RELU
}
layers {
  bottom: "Rconv6"
  top: "Rconv7"
  name: "Rconv7"
  type: CONVOLUTION
  blobs_lr: 0
  blobs_lr: 0
  weight_decay: 1
  weight_decay: 0
  convolution_param {
    num_output: 256
    pad: 1
    kernel_size: 3
    group: 2
  }
}
layers {
  bottom: "Rconv7"
  top: "Rconv7"
  name: "Rrelu7"
  type: RELU
}
layers {
  bottom: "Rconv7"
  top: "Rconv8"
  name: "Rconv8"
  type: CONVOLUTION
  blobs_lr: 0
  blobs_lr: 0
  weight_decay: 1
  weight_decay: 0
  convolution_param {
    num_output: 256
    pad: 1
    kernel_size: 3
    group: 2
  }
}
layers {
  bottom: "Rconv8"
  top: "Rconv8"
  name: "Rrelu8"
  type: RELU
}
layers {
  bottom: "Rconv8"
  top: "deconv2"
  name: "deconv2"
  type: DECONVOLUTION
  blobs_lr: 0
  blobs_lr: 0
  weight_decay: 1
  weight_decay: 0
  deconvolution_param {
    pad: 2
    kernel_size: 5
    stride: 2
    output_height: 54
    output_width: 54
    output_channels: 64
  }
}
layers {
  bottom: "deconv2"
  top: "deconv2"
  name: "relu_deconv2"
  type: RELU
  relu_param {
    negative_slope: 0.3
  }
}
layers {
  bottom: "deconv2"
  top: "deconv1"
  name: "deconv1"
  type: DECONVOLUTION
  blobs_lr: 0
  blobs_lr: 0
  weight_decay: 1
  weight_decay: 0
  deconvolution_param {
    pad: 2
    kernel_size: 5
    stride: 2
    output_height: 108
    output_width: 108
    output_channels: 32
  }
}
layers {
  bottom: "deconv1"
  top: "deconv1"
  name: "relu_deconv1"
  type: RELU
  relu_param {
    negative_slope: 0.3
  }
}
layers {
  bottom: "deconv1"
  top: "deconv0"
  name: "deconv0"
  type: DECONVOLUTION
  blobs_lr: 0
  blobs_lr: 0
  weight_decay: 1
  weight_decay: 0
  deconvolution_param {
    pad: 2
    kernel_size: 5
    stride: 2
    output_height: 216
    output_width: 216
    output_channels: 3
  }
}
layers {
  bottom: "deconv0"
  bottom: "target_ims"
  name: "loss"
  type: EUCLIDEAN_LOSS
}
I0812 18:53:18.868872 13596 net.cpp:65] Creating Layer source_ims
I0812 18:53:18.868878 13596 net.cpp:189] source_ims -> source_ims
I0812 18:53:18.868937 13596 data_layer.cpp:223] Opening lmdb /scr/r6/tgebru/inverting_conv/caffe_invert_alexnet/data/siggraph/tiny_winter_val_lmdb
I0812 18:53:18.869140 13596 data_layer.cpp:285] output data size: 2,3,227,227
I0812 18:53:18.869145 13596 data_layer.cpp:304] Loading mean file from/scr/r6/tgebru/timnit_caffe/data/ilsvrc12/imagenet_mean.binaryproto
I0812 18:53:18.871446 13596 net.cpp:84] Top shape: 2 3 227 227 (309174)
I0812 18:53:18.871454 13596 net.cpp:116] source_ims does not need backward computation.
I0812 18:53:18.871460 13596 net.cpp:65] Creating Layer target_ims
I0812 18:53:18.871464 13596 net.cpp:189] target_ims -> target_ims
I0812 18:53:18.871521 13596 data_layer.cpp:223] Opening lmdb /scr/r6/tgebru/inverting_conv/caffe_invert_alexnet/data/siggraph/tiny_summer_val_lmdb
I0812 18:53:18.871700 13596 data_layer.cpp:285] output data size: 2,3,216,216
I0812 18:53:18.871703 13596 data_layer.cpp:304] Loading mean file from/scr/r6/tgebru/timnit_caffe/data/ilsvrc12/imagenet_mean.binaryproto
I0812 18:53:18.873901 13596 net.cpp:84] Top shape: 2 3 216 216 (279936)
I0812 18:53:18.873920 13596 net.cpp:116] target_ims does not need backward computation.
I0812 18:53:18.873929 13596 net.cpp:65] Creating Layer conv1
I0812 18:53:18.873932 13596 net.cpp:228] conv1 <- source_ims
I0812 18:53:18.873937 13596 net.cpp:189] conv1 -> conv1
I0812 18:53:18.875180 13596 net.cpp:84] Top shape: 2 96 55 55 (580800)
I0812 18:53:18.875185 13596 net.cpp:116] conv1 does not need backward computation.
I0812 18:53:18.875190 13596 net.cpp:65] Creating Layer relu1
I0812 18:53:18.875192 13596 net.cpp:228] relu1 <- conv1
I0812 18:53:18.875197 13596 net.cpp:179] relu1 -> conv1 (in-place)
I0812 18:53:18.875202 13596 net.cpp:84] Top shape: 2 96 55 55 (580800)
I0812 18:53:18.875205 13596 net.cpp:116] relu1 does not need backward computation.
I0812 18:53:18.875211 13596 net.cpp:65] Creating Layer pool1
I0812 18:53:18.875213 13596 net.cpp:228] pool1 <- conv1
I0812 18:53:18.875217 13596 net.cpp:189] pool1 -> pool1
I0812 18:53:18.875223 13596 net.cpp:84] Top shape: 2 96 27 27 (139968)
I0812 18:53:18.875226 13596 net.cpp:116] pool1 does not need backward computation.
I0812 18:53:18.875231 13596 net.cpp:65] Creating Layer norm1
I0812 18:53:18.875233 13596 net.cpp:228] norm1 <- pool1
I0812 18:53:18.875237 13596 net.cpp:189] norm1 -> norm1
I0812 18:53:18.875243 13596 net.cpp:84] Top shape: 2 96 27 27 (139968)
I0812 18:53:18.875247 13596 net.cpp:116] norm1 does not need backward computation.
I0812 18:53:18.875250 13596 net.cpp:65] Creating Layer Rconv6
I0812 18:53:18.875253 13596 net.cpp:228] Rconv6 <- norm1
I0812 18:53:18.875257 13596 net.cpp:189] Rconv6 -> Rconv6
I0812 18:53:18.875800 13596 net.cpp:84] Top shape: 2 256 27 27 (373248)
I0812 18:53:18.875805 13596 net.cpp:116] Rconv6 does not need backward computation.
I0812 18:53:18.875809 13596 net.cpp:65] Creating Layer Rrelu6
I0812 18:53:18.875813 13596 net.cpp:228] Rrelu6 <- Rconv6
I0812 18:53:18.875818 13596 net.cpp:179] Rrelu6 -> Rconv6 (in-place)
I0812 18:53:18.875823 13596 net.cpp:84] Top shape: 2 256 27 27 (373248)
I0812 18:53:18.875824 13596 net.cpp:116] Rrelu6 does not need backward computation.
I0812 18:53:18.875829 13596 net.cpp:65] Creating Layer Rconv7
I0812 18:53:18.875833 13596 net.cpp:228] Rconv7 <- Rconv6
I0812 18:53:18.875836 13596 net.cpp:189] Rconv7 -> Rconv7
I0812 18:53:18.876559 13596 net.cpp:84] Top shape: 2 256 27 27 (373248)
I0812 18:53:18.876564 13596 net.cpp:116] Rconv7 does not need backward computation.
I0812 18:53:18.876567 13596 net.cpp:65] Creating Layer Rrelu7
I0812 18:53:18.876571 13596 net.cpp:228] Rrelu7 <- Rconv7
I0812 18:53:18.876575 13596 net.cpp:179] Rrelu7 -> Rconv7 (in-place)
I0812 18:53:18.876579 13596 net.cpp:84] Top shape: 2 256 27 27 (373248)
I0812 18:53:18.876582 13596 net.cpp:116] Rrelu7 does not need backward computation.
I0812 18:53:18.876586 13596 net.cpp:65] Creating Layer Rconv8
I0812 18:53:18.876588 13596 net.cpp:228] Rconv8 <- Rconv7
I0812 18:53:18.876592 13596 net.cpp:189] Rconv8 -> Rconv8
I0812 18:53:18.877307 13596 net.cpp:84] Top shape: 2 256 27 27 (373248)
I0812 18:53:18.877312 13596 net.cpp:116] Rconv8 does not need backward computation.
I0812 18:53:18.877315 13596 net.cpp:65] Creating Layer Rrelu8
I0812 18:53:18.877318 13596 net.cpp:228] Rrelu8 <- Rconv8
I0812 18:53:18.877322 13596 net.cpp:179] Rrelu8 -> Rconv8 (in-place)
I0812 18:53:18.877326 13596 net.cpp:84] Top shape: 2 256 27 27 (373248)
I0812 18:53:18.877329 13596 net.cpp:116] Rrelu8 does not need backward computation.
I0812 18:53:18.877333 13596 net.cpp:65] Creating Layer deconv2
I0812 18:53:18.877336 13596 net.cpp:228] deconv2 <- Rconv8
I0812 18:53:18.877341 13596 net.cpp:189] deconv2 -> deconv2
I0812 18:53:18.878404 13596 net.cpp:84] Top shape: 2 64 54 54 (373248)
I0812 18:53:18.878409 13596 net.cpp:116] deconv2 does not need backward computation.
I0812 18:53:18.878415 13596 net.cpp:65] Creating Layer relu_deconv2
I0812 18:53:18.878418 13596 net.cpp:228] relu_deconv2 <- deconv2
I0812 18:53:18.878422 13596 net.cpp:179] relu_deconv2 -> deconv2 (in-place)
I0812 18:53:18.878427 13596 net.cpp:84] Top shape: 2 64 54 54 (373248)
I0812 18:53:18.878430 13596 net.cpp:116] relu_deconv2 does not need backward computation.
I0812 18:53:18.878448 13596 net.cpp:65] Creating Layer deconv1
I0812 18:53:18.878451 13596 net.cpp:228] deconv1 <- deconv2
I0812 18:53:18.878455 13596 net.cpp:189] deconv1 -> deconv1
I0812 18:53:18.878587 13596 net.cpp:84] Top shape: 2 32 108 108 (746496)
I0812 18:53:18.878592 13596 net.cpp:116] deconv1 does not need backward computation.
I0812 18:53:18.878595 13596 net.cpp:65] Creating Layer relu_deconv1
I0812 18:53:18.878598 13596 net.cpp:228] relu_deconv1 <- deconv1
I0812 18:53:18.878602 13596 net.cpp:179] relu_deconv1 -> deconv1 (in-place)
I0812 18:53:18.878607 13596 net.cpp:84] Top shape: 2 32 108 108 (746496)
I0812 18:53:18.878610 13596 net.cpp:116] relu_deconv1 does not need backward computation.
I0812 18:53:18.878615 13596 net.cpp:65] Creating Layer deconv0
I0812 18:53:18.878618 13596 net.cpp:228] deconv0 <- deconv1
I0812 18:53:18.878623 13596 net.cpp:189] deconv0 -> deconv0
I0812 18:53:18.878639 13596 net.cpp:84] Top shape: 2 3 216 216 (279936)
I0812 18:53:18.878643 13596 net.cpp:116] deconv0 does not need backward computation.
I0812 18:53:18.878646 13596 net.cpp:65] Creating Layer loss
I0812 18:53:18.878649 13596 net.cpp:228] loss <- deconv0
I0812 18:53:18.878654 13596 net.cpp:228] loss <- target_ims
I0812 18:53:18.878657 13596 net.cpp:116] loss does not need backward computation.
I0812 18:53:18.878669 13596 net.cpp:238] Collecting Learning Rate and Weight Decay.
…
