…
  data_param {
    source: "/scr/r6/tgebru/inverting_conv/caffe_invert_alexnet/data/siggraph/tiny_summer_train_227lmdb"
    mean_file: "/scr/r6/tgebru/timnit_caffe/data/ilsvrc12/imagenet_mean227.binaryproto"
    batch_size: 12
    mirror: false
    backend: LMDB
  }
}
layers {
  top: "target_ims"
  name: "target_ims"
  type: DATA
  data_param {
    source: "/scr/r6/tgebru/inverting_conv/caffe_invert_alexnet/data/siggraph/tiny_winter_train_216lmdb"
    mean_file: "/scr/r6/tgebru/timnit_caffe/data/ilsvrc12/imagenet_mean216.binaryproto"
    batch_size: 12
    mirror: false
    backend: LMDB
  }
}
layers {
  bottom: "source_ims"
  top: "conv1"
  name: "conv1"
  type: CONVOLUTION
  blobs_lr: 0
  blobs_lr: 0
  weight_decay: 1
  weight_decay: 0
  convolution_param {
    num_output: 96
    kernel_size: 11
    stride: 4
    weight_filler {
      type: "gaussian"
      std: 0.01
    }
    bias_filler {
      type: "constant"
      value: 0
    }
  }
}
layers {
  bottom: "conv1"
  top: "conv1"
  name: "relu1"
  type: RELU
}
layers {
  bottom: "conv1"
  top: "pool1"
  name: "pool1"
  type: POOLING
  pooling_param {
    pool: MAX
    kernel_size: 3
    stride: 2
  }
}
layers {
  bottom: "pool1"
  top: "norm1"
  name: "norm1"
  type: LRN
  lrn_param {
    local_size: 5
    alpha: 0.0001
    beta: 0.75
  }
}
layers {
  bottom: "norm1"
  top: "Rconv6"
  name: "Rconv6"
  type: CONVOLUTION
  blobs_lr: 1
  blobs_lr: 2
  weight_decay: 1
  weight_decay: 0
  convolution_param {
    num_output: 256
    pad: 1
    kernel_size: 3
  }
}
layers {
  bottom: "Rconv6"
  top: "Rconv6"
  name: "Rrelu6"
  type: RELU
}
layers {
  bottom: "Rconv6"
  top: "Rconv7"
  name: "Rconv7"
  type: CONVOLUTION
  blobs_lr: 1
  blobs_lr: 2
  weight_decay: 1
  weight_decay: 0
  convolution_param {
    num_output: 256
    pad: 1
    kernel_size: 3
    group: 2
  }
}
layers {
  bottom: "Rconv7"
  top: "Rconv7"
  name: "Rrelu7"
  type: RELU
}
layers {
  bottom: "Rconv7"
  top: "Rconv8"
  name: "Rconv8"
  type: CONVOLUTION
  blobs_lr: 1
  blobs_lr: 2
  weight_decay: 1
  weight_decay: 0
  convolution_param {
    num_output: 256
    pad: 1
    kernel_size: 3
    group: 2
  }
}
layers {
  bottom: "Rconv8"
  top: "Rconv8"
  name: "Rrelu8"
  type: RELU
}
layers {
  bottom: "Rconv8"
  top: "deconv2"
  name: "deconv2"
  type: DECONVOLUTION
  blobs_lr: 1
  blobs_lr: 2
  weight_decay: 1
  weight_decay: 0
  deconvolution_param {
    pad: 2
    kernel_size: 5
    stride: 2
    output_height: 54
    output_width: 54
    output_channels: 64
  }
}
layers {
  bottom: "deconv2"
  top: "deconv2"
  name: "relu_deconv2"
  type: RELU
  relu_param {
    negative_slope: 0.3
  }
}
layers {
  bottom: "deconv2"
  top: "deconv1"
  name: "deconv1"
  type: DECONVOLUTION
  blobs_lr: 1
  blobs_lr: 2
  weight_decay: 1
  weight_decay: 0
  deconvolution_param {
    pad: 2
    kernel_size: 5
    stride: 2
    output_height: 108
    output_width: 108
    output_channels: 32
  }
}
layers {
  bottom: "deconv1"
  top: "deconv1"
  name: "relu_deconv1"
  type: RELU
  relu_param {
    negative_slope: 0.3
  }
}
layers {
  bottom: "deconv1"
  top: "deconv0"
  name: "deconv0"
  type: DECONVOLUTION
  blobs_lr: 1
  blobs_lr: 2
  weight_decay: 1
  weight_decay: 1
  deconvolution_param {
    pad: 2
    kernel_size: 5
    stride: 2
    output_height: 216
    output_width: 216
    output_channels: 3
  }
}
layers {
  bottom: "deconv0"
  bottom: "target_ims"
  name: "loss"
  type: EUCLIDEAN_LOSS
}
I0825 19:57:21.819032 21008 net.cpp:65] Creating Layer source_ims
I0825 19:57:21.819042 21008 net.cpp:189] source_ims -> source_ims
I0825 19:57:21.819159 21008 data_layer.cpp:223] Opening lmdb /scr/r6/tgebru/inverting_conv/caffe_invert_alexnet/data/siggraph/tiny_summer_train_227lmdb
I0825 19:57:21.819339 21008 data_layer.cpp:285] output data size: 12,3,227,227
I0825 19:57:21.819345 21008 data_layer.cpp:304] Loading mean file from/scr/r6/tgebru/timnit_caffe/data/ilsvrc12/imagenet_mean227.binaryproto
I0825 19:57:21.824954 21008 net.cpp:84] Top shape: 12 3 227 227 (1855044)
I0825 19:57:21.824964 21008 net.cpp:116] source_ims does not need backward computation.
I0825 19:57:21.824970 21008 net.cpp:65] Creating Layer target_ims
I0825 19:57:21.824975 21008 net.cpp:189] target_ims -> target_ims
I0825 19:57:21.825111 21008 data_layer.cpp:223] Opening lmdb /scr/r6/tgebru/inverting_conv/caffe_invert_alexnet/data/siggraph/tiny_winter_train_216lmdb
I0825 19:57:21.825215 21008 data_layer.cpp:285] output data size: 12,3,216,216
I0825 19:57:21.825220 21008 data_layer.cpp:304] Loading mean file from/scr/r6/tgebru/timnit_caffe/data/ilsvrc12/imagenet_mean216.binaryproto
I0825 19:57:21.830155 21008 net.cpp:84] Top shape: 12 3 216 216 (1679616)
I0825 19:57:21.830164 21008 net.cpp:116] target_ims does not need backward computation.
I0825 19:57:21.830176 21008 net.cpp:65] Creating Layer conv1
I0825 19:57:21.830180 21008 net.cpp:228] conv1 <- source_ims
I0825 19:57:21.830246 21008 net.cpp:189] conv1 -> conv1
I0825 19:57:21.831547 21008 net.cpp:84] Top shape: 12 96 55 55 (3484800)
I0825 19:57:21.831553 21008 net.cpp:116] conv1 does not need backward computation.
I0825 19:57:21.831558 21008 net.cpp:65] Creating Layer relu1
I0825 19:57:21.831562 21008 net.cpp:228] relu1 <- conv1
I0825 19:57:21.831567 21008 net.cpp:179] relu1 -> conv1 (in-place)
I0825 19:57:21.831575 21008 net.cpp:84] Top shape: 12 96 55 55 (3484800)
I0825 19:57:21.831578 21008 net.cpp:116] relu1 does not need backward computation.
I0825 19:57:21.831584 21008 net.cpp:65] Creating Layer pool1
I0825 19:57:21.831588 21008 net.cpp:228] pool1 <- conv1
I0825 19:57:21.831591 21008 net.cpp:189] pool1 -> pool1
I0825 19:57:21.831604 21008 net.cpp:84] Top shape: 12 96 27 27 (839808)
I0825 19:57:21.831606 21008 net.cpp:116] pool1 does not need backward computation.
I0825 19:57:21.831612 21008 net.cpp:65] Creating Layer norm1
I0825 19:57:21.831614 21008 net.cpp:228] norm1 <- pool1
I0825 19:57:21.831619 21008 net.cpp:189] norm1 -> norm1
I0825 19:57:21.831629 21008 net.cpp:84] Top shape: 12 96 27 27 (839808)
I0825 19:57:21.831631 21008 net.cpp:116] norm1 does not need backward computation.
I0825 19:57:21.831636 21008 net.cpp:65] Creating Layer Rconv6
I0825 19:57:21.831640 21008 net.cpp:228] Rconv6 <- norm1
I0825 19:57:21.831643 21008 net.cpp:189] Rconv6 -> Rconv6
I0825 19:57:21.831902 21008 net.cpp:84] Top shape: 12 256 27 27 (2239488)
I0825 19:57:21.831907 21008 net.cpp:111] Rconv6 needs backward computation.
I0825 19:57:21.831912 21008 net.cpp:65] Creating Layer Rrelu6
I0825 19:57:21.831914 21008 net.cpp:228] Rrelu6 <- Rconv6
I0825 19:57:21.831918 21008 net.cpp:179] Rrelu6 -> Rconv6 (in-place)
I0825 19:57:21.831923 21008 net.cpp:84] Top shape: 12 256 27 27 (2239488)
I0825 19:57:21.831926 21008 net.cpp:111] Rrelu6 needs backward computation.
I0825 19:57:21.831931 21008 net.cpp:65] Creating Layer Rconv7
I0825 19:57:21.831934 21008 net.cpp:228] Rconv7 <- Rconv6
I0825 19:57:21.831938 21008 net.cpp:189] Rconv7 -> Rconv7
I0825 19:57:21.832655 21008 net.cpp:84] Top shape: 12 256 27 27 (2239488)
I0825 19:57:21.832660 21008 net.cpp:111] Rconv7 needs backward computation.
I0825 19:57:21.832684 21008 net.cpp:65] Creating Layer Rrelu7
I0825 19:57:21.832687 21008 net.cpp:228] Rrelu7 <- Rconv7
I0825 19:57:21.832694 21008 net.cpp:179] Rrelu7 -> Rconv7 (in-place)
I0825 19:57:21.832698 21008 net.cpp:84] Top shape: 12 256 27 27 (2239488)
I0825 19:57:21.832700 21008 net.cpp:111] Rrelu7 needs backward computation.
I0825 19:57:21.832705 21008 net.cpp:65] Creating Layer Rconv8
I0825 19:57:21.832707 21008 net.cpp:228] Rconv8 <- Rconv7
I0825 19:57:21.832710 21008 net.cpp:189] Rconv8 -> Rconv8
I0825 19:57:21.833554 21008 net.cpp:84] Top shape: 12 256 27 27 (2239488)
I0825 19:57:21.833559 21008 net.cpp:111] Rconv8 needs backward computation.
I0825 19:57:21.833565 21008 net.cpp:65] Creating Layer Rrelu8
I0825 19:57:21.833569 21008 net.cpp:228] Rrelu8 <- Rconv8
I0825 19:57:21.833572 21008 net.cpp:179] Rrelu8 -> Rconv8 (in-place)
I0825 19:57:21.833576 21008 net.cpp:84] Top shape: 12 256 27 27 (2239488)
I0825 19:57:21.833580 21008 net.cpp:111] Rrelu8 needs backward computation.
I0825 19:57:21.833583 21008 net.cpp:65] Creating Layer deconv2
I0825 19:57:21.833585 21008 net.cpp:228] deconv2 <- Rconv8
I0825 19:57:21.833591 21008 net.cpp:189] deconv2 -> deconv2
I0825 19:57:21.834622 21008 net.cpp:84] Top shape: 12 64 54 54 (2239488)
I0825 19:57:21.834627 21008 net.cpp:111] deconv2 needs backward computation.
I0825 19:57:21.834631 21008 net.cpp:65] Creating Layer relu_deconv2
I0825 19:57:21.834635 21008 net.cpp:228] relu_deconv2 <- deconv2
I0825 19:57:21.834638 21008 net.cpp:179] relu_deconv2 -> deconv2 (in-place)
I0825 19:57:21.834643 21008 net.cpp:84] Top shape: 12 64 54 54 (2239488)
I0825 19:57:21.834646 21008 net.cpp:111] relu_deconv2 needs backward computation.
I0825 19:57:21.834650 21008 net.cpp:65] Creating Layer deconv1
I0825 19:57:21.834652 21008 net.cpp:228] deconv1 <- deconv2
I0825 19:57:21.834658 21008 net.cpp:189] deconv1 -> deconv1
I0825 19:57:21.834792 21008 net.cpp:84] Top shape: 12 32 108 108 (4478976)
I0825 19:57:21.834796 21008 net.cpp:111] deconv1 needs backward computation.
I0825 19:57:21.834800 21008 net.cpp:65] Creating Layer relu_deconv1
I0825 19:57:21.834803 21008 net.cpp:228] relu_deconv1 <- deconv1
I0825 19:57:21.834810 21008 net.cpp:179] relu_deconv1 -> deconv1 (in-place)
I0825 19:57:21.834813 21008 net.cpp:84] Top shape: 12 32 108 108 (4478976)
I0825 19:57:21.834816 21008 net.cpp:111] relu_deconv1 needs backward computation.
I0825 19:57:21.834821 21008 net.cpp:65] Creating Layer deconv0
I0825 19:57:21.834823 21008 net.cpp:228] deconv0 <- deconv1
I0825 19:57:21.834828 21008 net.cpp:189] deconv0 -> deconv0
I0825 19:57:21.834872 21008 net.cpp:84] Top shape: 12 3 216 216 (1679616)
I0825 19:57:21.834875 21008 net.cpp:111] deconv0 needs backward computation.
I0825 19:57:21.834878 21008 net.cpp:65] Creating Layer loss
I0825 19:57:21.834882 21008 net.cpp:228] loss <- deconv0
I0825 19:57:21.834884 21008 net.cpp:228] loss <- target_ims
I0825 19:57:21.834893 21008 net.cpp:111] loss needs backward computation.
I0825 19:57:21.834908 21008 net.cpp:238] Collecting Learning Rate and Weight Decay.
…
  data_param {
    source: "/scr/r6/tgebru/inverting_conv/caffe_invert_alexnet/data/siggraph/tiny_summer_val_227lmdb"
    mean_file: "/scr/r6/tgebru/timnit_caffe/data/ilsvrc12/imagenet_mean227.binaryproto"
    batch_size: 2
    mirror: false
    backend: LMDB
  }
}
layers {
  top: "target_ims"
  name: "target_ims"
  type: DATA
  data_param {
    source: "/scr/r6/tgebru/inverting_conv/caffe_invert_alexnet/data/siggraph/tiny_winter_val_216lmdb"
    mean_file: "/scr/r6/tgebru/timnit_caffe/data/ilsvrc12/imagenet_mean216.binaryproto"
    batch_size: 2
    mirror: false
    backend: LMDB
  }
}
layers {
  bottom: "source_ims"
  top: "conv1"
  name: "conv1"
  type: CONVOLUTION
  blobs_lr: 0
  blobs_lr: 0
  weight_decay: 1
  weight_decay: 0
  convolution_param {
    num_output: 96
    kernel_size: 11
    stride: 4
    weight_filler {
      type: "gaussian"
      std: 0.01
    }
    bias_filler {
      type: "constant"
      value: 0
    }
  }
}
layers {
  bottom: "conv1"
  top: "conv1"
  name: "relu1"
  type: RELU
}
layers {
  bottom: "conv1"
  top: "pool1"
  name: "pool1"
  type: POOLING
  pooling_param {
    pool: MAX
    kernel_size: 3
    stride: 2
  }
}
layers {
  bottom: "pool1"
  top: "norm1"
  name: "norm1"
  type: LRN
  lrn_param {
    local_size: 5
    alpha: 0.0001
    beta: 0.75
  }
}
layers {
  bottom: "norm1"
  top: "Rconv6"
  name: "Rconv6"
  type: CONVOLUTION
  blobs_lr: 0
  blobs_lr: 0
  weight_decay: 1
  weight_decay: 0
  convolution_param {
    num_output: 256
    pad: 1
    kernel_size: 3
  }
}
layers {
  bottom: "Rconv6"
  top: "Rconv6"
  name: "Rrelu6"
  type: RELU
}
layers {
  bottom: "Rconv6"
  top: "Rconv7"
  name: "Rconv7"
  type: CONVOLUTION
  blobs_lr: 0
  blobs_lr: 0
  weight_decay: 1
  weight_decay: 0
  convolution_param {
    num_output: 256
    pad: 1
    kernel_size: 3
    group: 2
  }
}
layers {
  bottom: "Rconv7"
  top: "Rconv7"
  name: "Rrelu7"
  type: RELU
}
layers {
  bottom: "Rconv7"
  top: "Rconv8"
  name: "Rconv8"
  type: CONVOLUTION
  blobs_lr: 0
  blobs_lr: 0
  weight_decay: 1
  weight_decay: 0
  convolution_param {
    num_output: 256
    pad: 1
    kernel_size: 3
    group: 2
  }
}
layers {
  bottom: "Rconv8"
  top: "Rconv8"
  name: "Rrelu8"
  type: RELU
}
layers {
  bottom: "Rconv8"
  top: "deconv2"
  name: "deconv2"
  type: DECONVOLUTION
  blobs_lr: 0
  blobs_lr: 0
  weight_decay: 1
  weight_decay: 0
  deconvolution_param {
    pad: 2
    kernel_size: 5
    stride: 2
    output_height: 54
    output_width: 54
    output_channels: 64
  }
}
layers {
  bottom: "deconv2"
  top: "deconv2"
  name: "relu_deconv2"
  type: RELU
  relu_param {
    negative_slope: 0.3
  }
}
layers {
  bottom: "deconv2"
  top: "deconv1"
  name: "deconv1"
  type: DECONVOLUTION
  blobs_lr: 0
  blobs_lr: 0
  weight_decay: 1
  weight_decay: 0
  deconvolution_param {
    pad: 2
    kernel_size: 5
    stride: 2
    output_height: 108
    output_width: 108
    output_channels: 32
  }
}
layers {
  bottom: "deconv1"
  top: "deconv1"
  name: "relu_deconv1"
  type: RELU
  relu_param {
    negative_slope: 0.3
  }
}
layers {
  bottom: "deconv1"
  top: "deconv0"
  name: "deconv0"
  type: DECONVOLUTION
  blobs_lr: 0
  blobs_lr: 0
  weight_decay: 1
  weight_decay: 0
  deconvolution_param {
    pad: 2
    kernel_size: 5
    stride: 2
    output_height: 216
    output_width: 216
    output_channels: 3
  }
}
layers {
  bottom: "deconv0"
  bottom: "target_ims"
  name: "loss"
  type: EUCLIDEAN_LOSS
}
I0825 19:57:21.835628 21008 net.cpp:65] Creating Layer source_ims
I0825 19:57:21.835633 21008 net.cpp:189] source_ims -> source_ims
I0825 19:57:21.835690 21008 data_layer.cpp:223] Opening lmdb /scr/r6/tgebru/inverting_conv/caffe_invert_alexnet/data/siggraph/tiny_summer_val_227lmdb
I0825 19:57:21.835851 21008 data_layer.cpp:285] output data size: 2,3,227,227
I0825 19:57:21.835856 21008 data_layer.cpp:304] Loading mean file from/scr/r6/tgebru/timnit_caffe/data/ilsvrc12/imagenet_mean227.binaryproto
I0825 19:57:21.837853 21008 net.cpp:84] Top shape: 2 3 227 227 (309174)
I0825 19:57:21.837860 21008 net.cpp:116] source_ims does not need backward computation.
I0825 19:57:21.837867 21008 net.cpp:65] Creating Layer target_ims
I0825 19:57:21.837870 21008 net.cpp:189] target_ims -> target_ims
I0825 19:57:21.837924 21008 data_layer.cpp:223] Opening lmdb /scr/r6/tgebru/inverting_conv/caffe_invert_alexnet/data/siggraph/tiny_winter_val_216lmdb
I0825 19:57:21.838011 21008 data_layer.cpp:285] output data size: 2,3,216,216
I0825 19:57:21.838014 21008 data_layer.cpp:304] Loading mean file from/scr/r6/tgebru/timnit_caffe/data/ilsvrc12/imagenet_mean216.binaryproto
I0825 19:57:21.839988 21008 net.cpp:84] Top shape: 2 3 216 216 (279936)
I0825 19:57:21.840028 21008 net.cpp:116] target_ims does not need backward computation.
I0825 19:57:21.840039 21008 net.cpp:65] Creating Layer conv1
I0825 19:57:21.840044 21008 net.cpp:228] conv1 <- source_ims
I0825 19:57:21.840050 21008 net.cpp:189] conv1 -> conv1
I0825 19:57:21.841316 21008 net.cpp:84] Top shape: 2 96 55 55 (580800)
I0825 19:57:21.841321 21008 net.cpp:116] conv1 does not need backward computation.
I0825 19:57:21.841326 21008 net.cpp:65] Creating Layer relu1
I0825 19:57:21.841331 21008 net.cpp:228] relu1 <- conv1
I0825 19:57:21.841334 21008 net.cpp:179] relu1 -> conv1 (in-place)
I0825 19:57:21.841341 21008 net.cpp:84] Top shape: 2 96 55 55 (580800)
I0825 19:57:21.841343 21008 net.cpp:116] relu1 does not need backward computation.
I0825 19:57:21.841348 21008 net.cpp:65] Creating Layer pool1
I0825 19:57:21.841351 21008 net.cpp:228] pool1 <- conv1
I0825 19:57:21.841356 21008 net.cpp:189] pool1 -> pool1
I0825 19:57:21.841361 21008 net.cpp:84] Top shape: 2 96 27 27 (139968)
I0825 19:57:21.841364 21008 net.cpp:116] pool1 does not need backward computation.
I0825 19:57:21.841372 21008 net.cpp:65] Creating Layer norm1
I0825 19:57:21.841373 21008 net.cpp:228] norm1 <- pool1
I0825 19:57:21.841377 21008 net.cpp:189] norm1 -> norm1
I0825 19:57:21.841383 21008 net.cpp:84] Top shape: 2 96 27 27 (139968)
I0825 19:57:21.841387 21008 net.cpp:116] norm1 does not need backward computation.
I0825 19:57:21.841393 21008 net.cpp:65] Creating Layer Rconv6
I0825 19:57:21.841397 21008 net.cpp:228] Rconv6 <- norm1
I0825 19:57:21.841400 21008 net.cpp:189] Rconv6 -> Rconv6
I0825 19:57:21.841989 21008 net.cpp:84] Top shape: 2 256 27 27 (373248)
I0825 19:57:21.841995 21008 net.cpp:116] Rconv6 does not need backward computation.
I0825 19:57:21.841999 21008 net.cpp:65] Creating Layer Rrelu6
I0825 19:57:21.842001 21008 net.cpp:228] Rrelu6 <- Rconv6
I0825 19:57:21.842007 21008 net.cpp:179] Rrelu6 -> Rconv6 (in-place)
I0825 19:57:21.842012 21008 net.cpp:84] Top shape: 2 256 27 27 (373248)
I0825 19:57:21.842015 21008 net.cpp:116] Rrelu6 does not need backward computation.
I0825 19:57:21.842020 21008 net.cpp:65] Creating Layer Rconv7
I0825 19:57:21.842023 21008 net.cpp:228] Rconv7 <- Rconv6
I0825 19:57:21.842030 21008 net.cpp:189] Rconv7 -> Rconv7
I0825 19:57:21.842792 21008 net.cpp:84] Top shape: 2 256 27 27 (373248)
I0825 19:57:21.842797 21008 net.cpp:116] Rconv7 does not need backward computation.
I0825 19:57:21.842800 21008 net.cpp:65] Creating Layer Rrelu7
I0825 19:57:21.842803 21008 net.cpp:228] Rrelu7 <- Rconv7
I0825 19:57:21.842806 21008 net.cpp:179] Rrelu7 -> Rconv7 (in-place)
I0825 19:57:21.842811 21008 net.cpp:84] Top shape: 2 256 27 27 (373248)
I0825 19:57:21.842813 21008 net.cpp:116] Rrelu7 does not need backward computation.
I0825 19:57:21.842820 21008 net.cpp:65] Creating Layer Rconv8
I0825 19:57:21.842823 21008 net.cpp:228] Rconv8 <- Rconv7
I0825 19:57:21.842826 21008 net.cpp:189] Rconv8 -> Rconv8
I0825 19:57:21.843590 21008 net.cpp:84] Top shape: 2 256 27 27 (373248)
I0825 19:57:21.843595 21008 net.cpp:116] Rconv8 does not need backward computation.
I0825 19:57:21.843600 21008 net.cpp:65] Creating Layer Rrelu8
I0825 19:57:21.843603 21008 net.cpp:228] Rrelu8 <- Rconv8
I0825 19:57:21.843607 21008 net.cpp:179] Rrelu8 -> Rconv8 (in-place)
I0825 19:57:21.843611 21008 net.cpp:84] Top shape: 2 256 27 27 (373248)
I0825 19:57:21.843613 21008 net.cpp:116] Rrelu8 does not need backward computation.
I0825 19:57:21.843619 21008 net.cpp:65] Creating Layer deconv2
I0825 19:57:21.843621 21008 net.cpp:228] deconv2 <- Rconv8
I0825 19:57:21.843626 21008 net.cpp:189] deconv2 -> deconv2
I0825 19:57:21.844677 21008 net.cpp:84] Top shape: 2 64 54 54 (373248)
I0825 19:57:21.844681 21008 net.cpp:116] deconv2 does not need backward computation.
I0825 19:57:21.844688 21008 net.cpp:65] Creating Layer relu_deconv2
I0825 19:57:21.844691 21008 net.cpp:228] relu_deconv2 <- deconv2
I0825 19:57:21.844696 21008 net.cpp:179] relu_deconv2 -> deconv2 (in-place)
I0825 19:57:21.844699 21008 net.cpp:84] Top shape: 2 64 54 54 (373248)
I0825 19:57:21.844715 21008 net.cpp:116] relu_deconv2 does not need backward computation.
I0825 19:57:21.844720 21008 net.cpp:65] Creating Layer deconv1
I0825 19:57:21.844723 21008 net.cpp:228] deconv1 <- deconv2
I0825 19:57:21.844729 21008 net.cpp:189] deconv1 -> deconv1
I0825 19:57:21.844876 21008 net.cpp:84] Top shape: 2 32 108 108 (746496)
I0825 19:57:21.844879 21008 net.cpp:116] deconv1 does not need backward computation.
I0825 19:57:21.844883 21008 net.cpp:65] Creating Layer relu_deconv1
I0825 19:57:21.844887 21008 net.cpp:228] relu_deconv1 <- deconv1
I0825 19:57:21.844890 21008 net.cpp:179] relu_deconv1 -> deconv1 (in-place)
I0825 19:57:21.844894 21008 net.cpp:84] Top shape: 2 32 108 108 (746496)
I0825 19:57:21.844897 21008 net.cpp:116] relu_deconv1 does not need backward computation.
I0825 19:57:21.844907 21008 net.cpp:65] Creating Layer deconv0
I0825 19:57:21.844908 21008 net.cpp:228] deconv0 <- deconv1
I0825 19:57:21.844913 21008 net.cpp:189] deconv0 -> deconv0
I0825 19:57:21.844952 21008 net.cpp:84] Top shape: 2 3 216 216 (279936)
I0825 19:57:21.844955 21008 net.cpp:116] deconv0 does not need backward computation.
I0825 19:57:21.844959 21008 net.cpp:65] Creating Layer loss
I0825 19:57:21.844961 21008 net.cpp:228] loss <- deconv0
I0825 19:57:21.844965 21008 net.cpp:228] loss <- target_ims
I0825 19:57:21.844969 21008 net.cpp:116] loss does not need backward computation.
I0825 19:57:21.844985 21008 net.cpp:238] Collecting Learning Rate and Weight Decay.
…
