…
    source: "/scr/r6/tgebru/inverting_conv/caffe_invert_alexnet/data/siggraph/tiny_summer_train_lmdb"
    mean_file: "/scr/r6/tgebru/timnit_caffe/data/ilsvrc12/imagenet_mean.binaryproto"
    batch_size: 12
    crop_size: 227
    mirror: false
    backend: LMDB
  }
}
layers {
  top: "target_ims"
  name: "target_ims"
  type: DATA
  data_param {
    source: "/scr/r6/tgebru/inverting_conv/caffe_invert_alexnet/data/siggraph/tiny_summer_train_lmdb"
    mean_file: "/scr/r6/tgebru/timnit_caffe/data/ilsvrc12/imagenet_mean.binaryproto"
    batch_size: 12
    crop_size: 216
    mirror: false
    backend: LMDB
  }
}
layers {
  bottom: "source_ims"
  top: "conv1"
  name: "conv1"
  type: CONVOLUTION
  blobs_lr: 0
  blobs_lr: 0
  weight_decay: 1
  weight_decay: 0
  convolution_param {
    num_output: 96
    kernel_size: 11
    stride: 4
    weight_filler {
      type: "gaussian"
      std: 0.01
    }
    bias_filler {
      type: "constant"
      value: 0
    }
  }
}
layers {
  bottom: "conv1"
  top: "conv1"
  name: "relu1"
  type: RELU
}
layers {
  bottom: "conv1"
  top: "pool1"
  name: "pool1"
  type: POOLING
  pooling_param {
    pool: MAX
    kernel_size: 3
    stride: 2
  }
}
layers {
  bottom: "pool1"
  top: "norm1"
  name: "norm1"
  type: LRN
  lrn_param {
    local_size: 5
    alpha: 0.0001
    beta: 0.75
  }
}
layers {
  bottom: "norm1"
  top: "Rconv6"
  name: "Rconv6"
  type: CONVOLUTION
  blobs_lr: 1
  blobs_lr: 2
  weight_decay: 1
  weight_decay: 0
  convolution_param {
    num_output: 256
    pad: 1
    kernel_size: 3
  }
}
layers {
  bottom: "Rconv6"
  top: "Rconv6"
  name: "Rrelu6"
  type: RELU
}
layers {
  bottom: "Rconv6"
  top: "Rconv7"
  name: "Rconv7"
  type: CONVOLUTION
  blobs_lr: 1
  blobs_lr: 2
  weight_decay: 1
  weight_decay: 0
  convolution_param {
    num_output: 256
    pad: 1
    kernel_size: 3
    group: 2
  }
}
layers {
  bottom: "Rconv7"
  top: "Rconv7"
  name: "Rrelu7"
  type: RELU
}
layers {
  bottom: "Rconv7"
  top: "Rconv8"
  name: "Rconv8"
  type: CONVOLUTION
  blobs_lr: 1
  blobs_lr: 2
  weight_decay: 1
  weight_decay: 0
  convolution_param {
    num_output: 256
    pad: 1
    kernel_size: 3
    group: 2
  }
}
layers {
  bottom: "Rconv8"
  top: "Rconv8"
  name: "Rrelu8"
  type: RELU
}
layers {
  bottom: "Rconv8"
  top: "deconv2"
  name: "deconv2"
  type: DECONVOLUTION
  blobs_lr: 1
  blobs_lr: 2
  weight_decay: 1
  weight_decay: 0
  deconvolution_param {
    pad: 2
    kernel_size: 5
    stride: 2
    output_height: 54
    output_width: 54
    output_channels: 64
  }
}
layers {
  bottom: "deconv2"
  top: "deconv2"
  name: "relu_deconv2"
  type: RELU
  relu_param {
    negative_slope: 0.3
  }
}
layers {
  bottom: "deconv2"
  top: "deconv1"
  name: "deconv1"
  type: DECONVOLUTION
  blobs_lr: 1
  blobs_lr: 2
  weight_decay: 1
  weight_decay: 0
  deconvolution_param {
    pad: 2
    kernel_size: 5
    stride: 2
    output_height: 108
    output_width: 108
    output_channels: 32
  }
}
layers {
  bottom: "deconv1"
  top: "deconv1"
  name: "relu_deconv1"
  type: RELU
  relu_param {
    negative_slope: 0.3
  }
}
layers {
  bottom: "deconv1"
  top: "deconv0"
  name: "deconv0"
  type: DECONVOLUTION
  blobs_lr: 1
  blobs_lr: 2
  weight_decay: 1
  weight_decay: 1
  deconvolution_param {
    pad: 2
    kernel_size: 5
    stride: 2
    output_height: 216
    output_width: 216
    output_channels: 3
  }
}
layers {
  bottom: "deconv0"
  bottom: "target_ims"
  name: "loss"
  type: EUCLIDEAN_LOSS
}
I0813 00:18:08.599151 28118 net.cpp:65] Creating Layer source_ims
I0813 00:18:08.599160 28118 net.cpp:189] source_ims -> source_ims
I0813 00:18:08.599263 28118 data_layer.cpp:223] Opening lmdb /scr/r6/tgebru/inverting_conv/caffe_invert_alexnet/data/siggraph/tiny_summer_train_lmdb
I0813 00:18:08.599462 28118 data_layer.cpp:285] output data size: 12,3,227,227
I0813 00:18:08.599469 28118 data_layer.cpp:304] Loading mean file from/scr/r6/tgebru/timnit_caffe/data/ilsvrc12/imagenet_mean.binaryproto
I0813 00:18:08.604503 28118 net.cpp:84] Top shape: 12 3 227 227 (1855044)
I0813 00:18:08.604511 28118 net.cpp:116] source_ims does not need backward computation.
I0813 00:18:08.604518 28118 net.cpp:65] Creating Layer target_ims
I0813 00:18:08.604522 28118 net.cpp:189] target_ims -> target_ims
I0813 00:18:08.604687 28118 data_layer.cpp:223] Opening lmdb /scr/r6/tgebru/inverting_conv/caffe_invert_alexnet/data/siggraph/tiny_summer_train_lmdb
I0813 00:18:08.604830 28118 data_layer.cpp:285] output data size: 12,3,216,216
I0813 00:18:08.604835 28118 data_layer.cpp:304] Loading mean file from/scr/r6/tgebru/timnit_caffe/data/ilsvrc12/imagenet_mean.binaryproto
I0813 00:18:08.608810 28118 net.cpp:84] Top shape: 12 3 216 216 (1679616)
I0813 00:18:08.608819 28118 net.cpp:116] target_ims does not need backward computation.
I0813 00:18:08.608831 28118 net.cpp:65] Creating Layer conv1
I0813 00:18:08.608835 28118 net.cpp:228] conv1 <- source_ims
I0813 00:18:08.608906 28118 net.cpp:189] conv1 -> conv1
I0813 00:18:08.610219 28118 net.cpp:84] Top shape: 12 96 55 55 (3484800)
I0813 00:18:08.610224 28118 net.cpp:116] conv1 does not need backward computation.
I0813 00:18:08.610229 28118 net.cpp:65] Creating Layer relu1
I0813 00:18:08.610232 28118 net.cpp:228] relu1 <- conv1
I0813 00:18:08.610237 28118 net.cpp:179] relu1 -> conv1 (in-place)
I0813 00:18:08.610245 28118 net.cpp:84] Top shape: 12 96 55 55 (3484800)
I0813 00:18:08.610249 28118 net.cpp:116] relu1 does not need backward computation.
I0813 00:18:08.610255 28118 net.cpp:65] Creating Layer pool1
I0813 00:18:08.610256 28118 net.cpp:228] pool1 <- conv1
I0813 00:18:08.610260 28118 net.cpp:189] pool1 -> pool1
I0813 00:18:08.610272 28118 net.cpp:84] Top shape: 12 96 27 27 (839808)
I0813 00:18:08.610275 28118 net.cpp:116] pool1 does not need backward computation.
I0813 00:18:08.610280 28118 net.cpp:65] Creating Layer norm1
I0813 00:18:08.610282 28118 net.cpp:228] norm1 <- pool1
I0813 00:18:08.610286 28118 net.cpp:189] norm1 -> norm1
I0813 00:18:08.610296 28118 net.cpp:84] Top shape: 12 96 27 27 (839808)
I0813 00:18:08.610298 28118 net.cpp:116] norm1 does not need backward computation.
I0813 00:18:08.610302 28118 net.cpp:65] Creating Layer Rconv6
I0813 00:18:08.610304 28118 net.cpp:228] Rconv6 <- norm1
I0813 00:18:08.610308 28118 net.cpp:189] Rconv6 -> Rconv6
I0813 00:18:08.610581 28118 net.cpp:84] Top shape: 12 256 27 27 (2239488)
I0813 00:18:08.610585 28118 net.cpp:111] Rconv6 needs backward computation.
I0813 00:18:08.610590 28118 net.cpp:65] Creating Layer Rrelu6
I0813 00:18:08.610594 28118 net.cpp:228] Rrelu6 <- Rconv6
I0813 00:18:08.610597 28118 net.cpp:179] Rrelu6 -> Rconv6 (in-place)
I0813 00:18:08.610601 28118 net.cpp:84] Top shape: 12 256 27 27 (2239488)
I0813 00:18:08.610605 28118 net.cpp:111] Rrelu6 needs backward computation.
I0813 00:18:08.610610 28118 net.cpp:65] Creating Layer Rconv7
I0813 00:18:08.610611 28118 net.cpp:228] Rconv7 <- Rconv6
I0813 00:18:08.610615 28118 net.cpp:189] Rconv7 -> Rconv7
I0813 00:18:08.611340 28118 net.cpp:84] Top shape: 12 256 27 27 (2239488)
I0813 00:18:08.611346 28118 net.cpp:111] Rconv7 needs backward computation.
I0813 00:18:08.611349 28118 net.cpp:65] Creating Layer Rrelu7
I0813 00:18:08.611352 28118 net.cpp:228] Rrelu7 <- Rconv7
I0813 00:18:08.611377 28118 net.cpp:179] Rrelu7 -> Rconv7 (in-place)
I0813 00:18:08.611382 28118 net.cpp:84] Top shape: 12 256 27 27 (2239488)
I0813 00:18:08.611384 28118 net.cpp:111] Rrelu7 needs backward computation.
I0813 00:18:08.611388 28118 net.cpp:65] Creating Layer Rconv8
I0813 00:18:08.611390 28118 net.cpp:228] Rconv8 <- Rconv7
I0813 00:18:08.611394 28118 net.cpp:189] Rconv8 -> Rconv8
I0813 00:18:08.612198 28118 net.cpp:84] Top shape: 12 256 27 27 (2239488)
I0813 00:18:08.612203 28118 net.cpp:111] Rconv8 needs backward computation.
I0813 00:18:08.612208 28118 net.cpp:65] Creating Layer Rrelu8
I0813 00:18:08.612210 28118 net.cpp:228] Rrelu8 <- Rconv8
I0813 00:18:08.612215 28118 net.cpp:179] Rrelu8 -> Rconv8 (in-place)
I0813 00:18:08.612218 28118 net.cpp:84] Top shape: 12 256 27 27 (2239488)
I0813 00:18:08.612221 28118 net.cpp:111] Rrelu8 needs backward computation.
I0813 00:18:08.612226 28118 net.cpp:65] Creating Layer deconv2
I0813 00:18:08.612227 28118 net.cpp:228] deconv2 <- Rconv8
I0813 00:18:08.612231 28118 net.cpp:189] deconv2 -> deconv2
I0813 00:18:08.613262 28118 net.cpp:84] Top shape: 12 64 54 54 (2239488)
I0813 00:18:08.613267 28118 net.cpp:111] deconv2 needs backward computation.
I0813 00:18:08.613271 28118 net.cpp:65] Creating Layer relu_deconv2
I0813 00:18:08.613275 28118 net.cpp:228] relu_deconv2 <- deconv2
I0813 00:18:08.613278 28118 net.cpp:179] relu_deconv2 -> deconv2 (in-place)
I0813 00:18:08.613283 28118 net.cpp:84] Top shape: 12 64 54 54 (2239488)
I0813 00:18:08.613286 28118 net.cpp:111] relu_deconv2 needs backward computation.
I0813 00:18:08.613291 28118 net.cpp:65] Creating Layer deconv1
I0813 00:18:08.613292 28118 net.cpp:228] deconv1 <- deconv2
I0813 00:18:08.613296 28118 net.cpp:189] deconv1 -> deconv1
I0813 00:18:08.613447 28118 net.cpp:84] Top shape: 12 32 108 108 (4478976)
I0813 00:18:08.613451 28118 net.cpp:111] deconv1 needs backward computation.
I0813 00:18:08.613456 28118 net.cpp:65] Creating Layer relu_deconv1
I0813 00:18:08.613459 28118 net.cpp:228] relu_deconv1 <- deconv1
I0813 00:18:08.613462 28118 net.cpp:179] relu_deconv1 -> deconv1 (in-place)
I0813 00:18:08.613467 28118 net.cpp:84] Top shape: 12 32 108 108 (4478976)
I0813 00:18:08.613471 28118 net.cpp:111] relu_deconv1 needs backward computation.
I0813 00:18:08.613476 28118 net.cpp:65] Creating Layer deconv0
I0813 00:18:08.613478 28118 net.cpp:228] deconv0 <- deconv1
I0813 00:18:08.613482 28118 net.cpp:189] deconv0 -> deconv0
I0813 00:18:08.613504 28118 net.cpp:84] Top shape: 12 3 216 216 (1679616)
I0813 00:18:08.613508 28118 net.cpp:111] deconv0 needs backward computation.
I0813 00:18:08.613512 28118 net.cpp:65] Creating Layer loss
I0813 00:18:08.613515 28118 net.cpp:228] loss <- deconv0
I0813 00:18:08.613518 28118 net.cpp:228] loss <- target_ims
I0813 00:18:08.613528 28118 net.cpp:111] loss needs backward computation.
I0813 00:18:08.613540 28118 net.cpp:238] Collecting Learning Rate and Weight Decay.
…
    source: "/scr/r6/tgebru/inverting_conv/caffe_invert_alexnet/data/siggraph/tiny_summer_val_lmdb"
    mean_file: "/scr/r6/tgebru/timnit_caffe/data/ilsvrc12/imagenet_mean.binaryproto"
    batch_size: 2
    crop_size: 227
    mirror: false
    backend: LMDB
  }
}
layers {
  top: "target_ims"
  name: "target_ims"
  type: DATA
  data_param {
    source: "/scr/r6/tgebru/inverting_conv/caffe_invert_alexnet/data/siggraph/tiny_summer_val_lmdb"
    mean_file: "/scr/r6/tgebru/timnit_caffe/data/ilsvrc12/imagenet_mean.binaryproto"
    batch_size: 2
    crop_size: 216
    mirror: false
    backend: LMDB
  }
}
layers {
  bottom: "source_ims"
  top: "conv1"
  name: "conv1"
  type: CONVOLUTION
  blobs_lr: 0
  blobs_lr: 0
  weight_decay: 1
  weight_decay: 0
  convolution_param {
    num_output: 96
    kernel_size: 11
    stride: 4
    weight_filler {
      type: "gaussian"
      std: 0.01
    }
    bias_filler {
      type: "constant"
      value: 0
    }
  }
}
layers {
  bottom: "conv1"
  top: "conv1"
  name: "relu1"
  type: RELU
}
layers {
  bottom: "conv1"
  top: "pool1"
  name: "pool1"
  type: POOLING
  pooling_param {
    pool: MAX
    kernel_size: 3
    stride: 2
  }
}
layers {
  bottom: "pool1"
  top: "norm1"
  name: "norm1"
  type: LRN
  lrn_param {
    local_size: 5
    alpha: 0.0001
    beta: 0.75
  }
}
layers {
  bottom: "norm1"
  top: "Rconv6"
  name: "Rconv6"
  type: CONVOLUTION
  blobs_lr: 0
  blobs_lr: 0
  weight_decay: 1
  weight_decay: 0
  convolution_param {
    num_output: 256
    pad: 1
    kernel_size: 3
  }
}
layers {
  bottom: "Rconv6"
  top: "Rconv6"
  name: "Rrelu6"
  type: RELU
}
layers {
  bottom: "Rconv6"
  top: "Rconv7"
  name: "Rconv7"
  type: CONVOLUTION
  blobs_lr: 0
  blobs_lr: 0
  weight_decay: 1
  weight_decay: 0
  convolution_param {
    num_output: 256
    pad: 1
    kernel_size: 3
    group: 2
  }
}
layers {
  bottom: "Rconv7"
  top: "Rconv7"
  name: "Rrelu7"
  type: RELU
}
layers {
  bottom: "Rconv7"
  top: "Rconv8"
  name: "Rconv8"
  type: CONVOLUTION
  blobs_lr: 0
  blobs_lr: 0
  weight_decay: 1
  weight_decay: 0
  convolution_param {
    num_output: 256
    pad: 1
    kernel_size: 3
    group: 2
  }
}
layers {
  bottom: "Rconv8"
  top: "Rconv8"
  name: "Rrelu8"
  type: RELU
}
layers {
  bottom: "Rconv8"
  top: "deconv2"
  name: "deconv2"
  type: DECONVOLUTION
  blobs_lr: 0
  blobs_lr: 0
  weight_decay: 1
  weight_decay: 0
  deconvolution_param {
    pad: 2
    kernel_size: 5
    stride: 2
    output_height: 54
    output_width: 54
    output_channels: 64
  }
}
layers {
  bottom: "deconv2"
  top: "deconv2"
  name: "relu_deconv2"
  type: RELU
  relu_param {
    negative_slope: 0.3
  }
}
layers {
  bottom: "deconv2"
  top: "deconv1"
  name: "deconv1"
  type: DECONVOLUTION
  blobs_lr: 0
  blobs_lr: 0
  weight_decay: 1
  weight_decay: 0
  deconvolution_param {
    pad: 2
    kernel_size: 5
    stride: 2
    output_height: 108
    output_width: 108
    output_channels: 32
  }
}
layers {
  bottom: "deconv1"
  top: "deconv1"
  name: "relu_deconv1"
  type: RELU
  relu_param {
    negative_slope: 0.3
  }
}
layers {
  bottom: "deconv1"
  top: "deconv0"
  name: "deconv0"
  type: DECONVOLUTION
  blobs_lr: 0
  blobs_lr: 0
  weight_decay: 1
  weight_decay: 0
  deconvolution_param {
    pad: 2
    kernel_size: 5
    stride: 2
    output_height: 216
    output_width: 216
    output_channels: 3
  }
}
layers {
  bottom: "deconv0"
  bottom: "target_ims"
  name: "loss"
  type: EUCLIDEAN_LOSS
}
I0813 00:18:08.614279 28118 net.cpp:65] Creating Layer source_ims
I0813 00:18:08.614285 28118 net.cpp:189] source_ims -> source_ims
I0813 00:18:08.614339 28118 data_layer.cpp:223] Opening lmdb /scr/r6/tgebru/inverting_conv/caffe_invert_alexnet/data/siggraph/tiny_summer_val_lmdb
I0813 00:18:08.614557 28118 data_layer.cpp:285] output data size: 2,3,227,227
I0813 00:18:08.614562 28118 data_layer.cpp:304] Loading mean file from/scr/r6/tgebru/timnit_caffe/data/ilsvrc12/imagenet_mean.binaryproto
I0813 00:18:08.617430 28118 net.cpp:84] Top shape: 2 3 227 227 (309174)
I0813 00:18:08.617439 28118 net.cpp:116] source_ims does not need backward computation.
I0813 00:18:08.617444 28118 net.cpp:65] Creating Layer target_ims
I0813 00:18:08.617449 28118 net.cpp:189] target_ims -> target_ims
I0813 00:18:08.617496 28118 data_layer.cpp:223] Opening lmdb /scr/r6/tgebru/inverting_conv/caffe_invert_alexnet/data/siggraph/tiny_summer_val_lmdb
I0813 00:18:08.617575 28118 data_layer.cpp:285] output data size: 2,3,216,216
I0813 00:18:08.617579 28118 data_layer.cpp:304] Loading mean file from/scr/r6/tgebru/timnit_caffe/data/ilsvrc12/imagenet_mean.binaryproto
I0813 00:18:08.619796 28118 net.cpp:84] Top shape: 2 3 216 216 (279936)
I0813 00:18:08.619801 28118 net.cpp:116] target_ims does not need backward computation.
I0813 00:18:08.619822 28118 net.cpp:65] Creating Layer conv1
I0813 00:18:08.619827 28118 net.cpp:228] conv1 <- source_ims
I0813 00:18:08.619832 28118 net.cpp:189] conv1 -> conv1
I0813 00:18:08.621073 28118 net.cpp:84] Top shape: 2 96 55 55 (580800)
I0813 00:18:08.621078 28118 net.cpp:116] conv1 does not need backward computation.
I0813 00:18:08.621081 28118 net.cpp:65] Creating Layer relu1
I0813 00:18:08.621084 28118 net.cpp:228] relu1 <- conv1
I0813 00:18:08.621089 28118 net.cpp:179] relu1 -> conv1 (in-place)
I0813 00:18:08.621094 28118 net.cpp:84] Top shape: 2 96 55 55 (580800)
I0813 00:18:08.621096 28118 net.cpp:116] relu1 does not need backward computation.
I0813 00:18:08.621101 28118 net.cpp:65] Creating Layer pool1
I0813 00:18:08.621104 28118 net.cpp:228] pool1 <- conv1
I0813 00:18:08.621107 28118 net.cpp:189] pool1 -> pool1
I0813 00:18:08.621114 28118 net.cpp:84] Top shape: 2 96 27 27 (139968)
I0813 00:18:08.621116 28118 net.cpp:116] pool1 does not need backward computation.
I0813 00:18:08.621121 28118 net.cpp:65] Creating Layer norm1
I0813 00:18:08.621124 28118 net.cpp:228] norm1 <- pool1
I0813 00:18:08.621127 28118 net.cpp:189] norm1 -> norm1
I0813 00:18:08.621134 28118 net.cpp:84] Top shape: 2 96 27 27 (139968)
I0813 00:18:08.621135 28118 net.cpp:116] norm1 does not need backward computation.
I0813 00:18:08.621140 28118 net.cpp:65] Creating Layer Rconv6
I0813 00:18:08.621142 28118 net.cpp:228] Rconv6 <- norm1
I0813 00:18:08.621146 28118 net.cpp:189] Rconv6 -> Rconv6
I0813 00:18:08.621704 28118 net.cpp:84] Top shape: 2 256 27 27 (373248)
I0813 00:18:08.621708 28118 net.cpp:116] Rconv6 does not need backward computation.
I0813 00:18:08.621712 28118 net.cpp:65] Creating Layer Rrelu6
I0813 00:18:08.621716 28118 net.cpp:228] Rrelu6 <- Rconv6
I0813 00:18:08.621719 28118 net.cpp:179] Rrelu6 -> Rconv6 (in-place)
I0813 00:18:08.621724 28118 net.cpp:84] Top shape: 2 256 27 27 (373248)
I0813 00:18:08.621726 28118 net.cpp:116] Rrelu6 does not need backward computation.
I0813 00:18:08.621731 28118 net.cpp:65] Creating Layer Rconv7
I0813 00:18:08.621734 28118 net.cpp:228] Rconv7 <- Rconv6
I0813 00:18:08.621738 28118 net.cpp:189] Rconv7 -> Rconv7
I0813 00:18:08.622517 28118 net.cpp:84] Top shape: 2 256 27 27 (373248)
I0813 00:18:08.622522 28118 net.cpp:116] Rconv7 does not need backward computation.
I0813 00:18:08.622526 28118 net.cpp:65] Creating Layer Rrelu7
I0813 00:18:08.622529 28118 net.cpp:228] Rrelu7 <- Rconv7
I0813 00:18:08.622534 28118 net.cpp:179] Rrelu7 -> Rconv7 (in-place)
I0813 00:18:08.622537 28118 net.cpp:84] Top shape: 2 256 27 27 (373248)
I0813 00:18:08.622540 28118 net.cpp:116] Rrelu7 does not need backward computation.
I0813 00:18:08.622545 28118 net.cpp:65] Creating Layer Rconv8
I0813 00:18:08.622546 28118 net.cpp:228] Rconv8 <- Rconv7
I0813 00:18:08.622550 28118 net.cpp:189] Rconv8 -> Rconv8
I0813 00:18:08.623330 28118 net.cpp:84] Top shape: 2 256 27 27 (373248)
I0813 00:18:08.623335 28118 net.cpp:116] Rconv8 does not need backward computation.
I0813 00:18:08.623339 28118 net.cpp:65] Creating Layer Rrelu8
I0813 00:18:08.623342 28118 net.cpp:228] Rrelu8 <- Rconv8
I0813 00:18:08.623345 28118 net.cpp:179] Rrelu8 -> Rconv8 (in-place)
I0813 00:18:08.623349 28118 net.cpp:84] Top shape: 2 256 27 27 (373248)
I0813 00:18:08.623353 28118 net.cpp:116] Rrelu8 does not need backward computation.
I0813 00:18:08.623356 28118 net.cpp:65] Creating Layer deconv2
I0813 00:18:08.623358 28118 net.cpp:228] deconv2 <- Rconv8
I0813 00:18:08.623363 28118 net.cpp:189] deconv2 -> deconv2
I0813 00:18:08.624375 28118 net.cpp:84] Top shape: 2 64 54 54 (373248)
I0813 00:18:08.624380 28118 net.cpp:116] deconv2 does not need backward computation.
I0813 00:18:08.624384 28118 net.cpp:65] Creating Layer relu_deconv2
I0813 00:18:08.624387 28118 net.cpp:228] relu_deconv2 <- deconv2
I0813 00:18:08.624392 28118 net.cpp:179] relu_deconv2 -> deconv2 (in-place)
I0813 00:18:08.624397 28118 net.cpp:84] Top shape: 2 64 54 54 (373248)
I0813 00:18:08.624399 28118 net.cpp:116] relu_deconv2 does not need backward computation.
I0813 00:18:08.624414 28118 net.cpp:65] Creating Layer deconv1
I0813 00:18:08.624418 28118 net.cpp:228] deconv1 <- deconv2
I0813 00:18:08.624421 28118 net.cpp:189] deconv1 -> deconv1
I0813 00:18:08.624562 28118 net.cpp:84] Top shape: 2 32 108 108 (746496)
I0813 00:18:08.624567 28118 net.cpp:116] deconv1 does not need backward computation.
I0813 00:18:08.624569 28118 net.cpp:65] Creating Layer relu_deconv1
I0813 00:18:08.624572 28118 net.cpp:228] relu_deconv1 <- deconv1
I0813 00:18:08.624577 28118 net.cpp:179] relu_deconv1 -> deconv1 (in-place)
I0813 00:18:08.624580 28118 net.cpp:84] Top shape: 2 32 108 108 (746496)
I0813 00:18:08.624583 28118 net.cpp:116] relu_deconv1 does not need backward computation.
I0813 00:18:08.624589 28118 net.cpp:65] Creating Layer deconv0
I0813 00:18:08.624591 28118 net.cpp:228] deconv0 <- deconv1
I0813 00:18:08.624595 28118 net.cpp:189] deconv0 -> deconv0
I0813 00:18:08.624614 28118 net.cpp:84] Top shape: 2 3 216 216 (279936)
I0813 00:18:08.624618 28118 net.cpp:116] deconv0 does not need backward computation.
I0813 00:18:08.624621 28118 net.cpp:65] Creating Layer loss
I0813 00:18:08.624624 28118 net.cpp:228] loss <- deconv0
I0813 00:18:08.624627 28118 net.cpp:228] loss <- target_ims
I0813 00:18:08.624631 28118 net.cpp:116] loss does not need backward computation.
I0813 00:18:08.624644 28118 net.cpp:238] Collecting Learning Rate and Weight Decay.
…
