…
    source: "/scr/r6/tgebru/inverting_conv/caffe_invert_alexnet/data/siggraph/tiny_summer_train_lmdb"
    mean_file: "/scr/r6/tgebru/timnit_caffe/data/ilsvrc12/imagenet_mean.binaryproto"
    batch_size: 12
    crop_size: 227
    mirror: false
    backend: LMDB
  }
}
layers {
  top: "target_ims"
  name: "target_ims"
  type: DATA
  data_param {
    source: "/scr/r6/tgebru/inverting_conv/caffe_invert_alexnet/data/siggraph/tiny_summer_train_lmdb"
    mean_file: "/scr/r6/tgebru/timnit_caffe/data/ilsvrc12/imagenet_mean.binaryproto"
    batch_size: 12
    crop_size: 216
    mirror: false
    backend: LMDB
  }
}
layers {
  bottom: "source_ims"
  top: "conv1"
  name: "conv1"
  type: CONVOLUTION
  blobs_lr: 0
  blobs_lr: 0
  weight_decay: 1
  weight_decay: 0
  convolution_param {
    num_output: 96
    kernel_size: 11
    stride: 4
    weight_filler {
      type: "gaussian"
      std: 0.01
    }
    bias_filler {
      type: "constant"
      value: 0
    }
  }
}
layers {
  bottom: "conv1"
  top: "conv1"
  name: "relu1"
  type: RELU
}
layers {
  bottom: "conv1"
  top: "pool1"
  name: "pool1"
  type: POOLING
  pooling_param {
    pool: MAX
    kernel_size: 3
    stride: 2
  }
}
layers {
  bottom: "pool1"
  top: "norm1"
  name: "norm1"
  type: LRN
  lrn_param {
    local_size: 5
    alpha: 0.0001
    beta: 0.75
  }
}
layers {
  bottom: "norm1"
  top: "Rconv6"
  name: "Rconv6"
  type: CONVOLUTION
  blobs_lr: 1
  blobs_lr: 2
  weight_decay: 1
  weight_decay: 0
  convolution_param {
    num_output: 256
    pad: 1
    kernel_size: 3
  }
}
layers {
  bottom: "Rconv6"
  top: "Rconv6"
  name: "Rrelu6"
  type: RELU
}
layers {
  bottom: "Rconv6"
  top: "Rconv7"
  name: "Rconv7"
  type: CONVOLUTION
  blobs_lr: 1
  blobs_lr: 2
  weight_decay: 1
  weight_decay: 0
  convolution_param {
    num_output: 256
    pad: 1
    kernel_size: 3
    group: 2
  }
}
layers {
  bottom: "Rconv7"
  top: "Rconv7"
  name: "Rrelu7"
  type: RELU
}
layers {
  bottom: "Rconv7"
  top: "Rconv8"
  name: "Rconv8"
  type: CONVOLUTION
  blobs_lr: 1
  blobs_lr: 2
  weight_decay: 1
  weight_decay: 0
  convolution_param {
    num_output: 256
    pad: 1
    kernel_size: 3
    group: 2
  }
}
layers {
  bottom: "Rconv8"
  top: "Rconv8"
  name: "Rrelu8"
  type: RELU
}
layers {
  bottom: "Rconv8"
  top: "deconv2"
  name: "deconv2"
  type: DECONVOLUTION
  blobs_lr: 1
  blobs_lr: 2
  weight_decay: 1
  weight_decay: 0
  deconvolution_param {
    pad: 2
    kernel_size: 5
    stride: 2
    output_height: 54
    output_width: 54
    output_channels: 64
  }
}
layers {
  bottom: "deconv2"
  top: "deconv2"
  name: "relu_deconv2"
  type: RELU
  relu_param {
    negative_slope: 0.3
  }
}
layers {
  bottom: "deconv2"
  top: "deconv1"
  name: "deconv1"
  type: DECONVOLUTION
  blobs_lr: 1
  blobs_lr: 2
  weight_decay: 1
  weight_decay: 0
  deconvolution_param {
    pad: 2
    kernel_size: 5
    stride: 2
    output_height: 108
    output_width: 108
    output_channels: 32
  }
}
layers {
  bottom: "deconv1"
  top: "deconv1"
  name: "relu_deconv1"
  type: RELU
  relu_param {
    negative_slope: 0.3
  }
}
layers {
  bottom: "deconv1"
  top: "deconv0"
  name: "deconv0"
  type: DECONVOLUTION
  blobs_lr: 1
  blobs_lr: 2
  weight_decay: 1
  weight_decay: 1
  deconvolution_param {
    pad: 2
    kernel_size: 5
    stride: 2
    output_height: 216
    output_width: 216
    output_channels: 3
  }
}
layers {
  bottom: "deconv0"
  bottom: "target_ims"
  name: "loss"
  type: EUCLIDEAN_LOSS
}
I0812 16:10:24.592129  5834 net.cpp:65] Creating Layer source_ims
I0812 16:10:24.592139  5834 net.cpp:189] source_ims -> source_ims
I0812 16:10:24.592258  5834 data_layer.cpp:223] Opening lmdb /scr/r6/tgebru/inverting_conv/caffe_invert_alexnet/data/siggraph/tiny_summer_train_lmdb
I0812 16:10:24.592484  5834 data_layer.cpp:285] output data size: 12,3,227,227
I0812 16:10:24.592491  5834 data_layer.cpp:304] Loading mean file from/scr/r6/tgebru/timnit_caffe/data/ilsvrc12/imagenet_mean.binaryproto
I0812 16:10:24.597522  5834 net.cpp:84] Top shape: 12 3 227 227 (1855044)
I0812 16:10:24.597532  5834 net.cpp:116] source_ims does not need backward computation.
I0812 16:10:24.597537  5834 net.cpp:65] Creating Layer target_ims
I0812 16:10:24.597542  5834 net.cpp:189] target_ims -> target_ims
I0812 16:10:24.597695  5834 data_layer.cpp:223] Opening lmdb /scr/r6/tgebru/inverting_conv/caffe_invert_alexnet/data/siggraph/tiny_summer_train_lmdb
I0812 16:10:24.597821  5834 data_layer.cpp:285] output data size: 12,3,216,216
I0812 16:10:24.597826  5834 data_layer.cpp:304] Loading mean file from/scr/r6/tgebru/timnit_caffe/data/ilsvrc12/imagenet_mean.binaryproto
I0812 16:10:24.602298  5834 net.cpp:84] Top shape: 12 3 216 216 (1679616)
I0812 16:10:24.602306  5834 net.cpp:116] target_ims does not need backward computation.
I0812 16:10:24.602318  5834 net.cpp:65] Creating Layer conv1
I0812 16:10:24.602322  5834 net.cpp:228] conv1 <- source_ims
I0812 16:10:24.602357  5834 net.cpp:189] conv1 -> conv1
I0812 16:10:24.603713  5834 net.cpp:84] Top shape: 12 96 55 55 (3484800)
I0812 16:10:24.603723  5834 net.cpp:116] conv1 does not need backward computation.
I0812 16:10:24.603729  5834 net.cpp:65] Creating Layer relu1
I0812 16:10:24.603734  5834 net.cpp:228] relu1 <- conv1
I0812 16:10:24.603739  5834 net.cpp:179] relu1 -> conv1 (in-place)
I0812 16:10:24.603749  5834 net.cpp:84] Top shape: 12 96 55 55 (3484800)
I0812 16:10:24.603751  5834 net.cpp:116] relu1 does not need backward computation.
I0812 16:10:24.603757  5834 net.cpp:65] Creating Layer pool1
I0812 16:10:24.603760  5834 net.cpp:228] pool1 <- conv1
I0812 16:10:24.603763  5834 net.cpp:189] pool1 -> pool1
I0812 16:10:24.603776  5834 net.cpp:84] Top shape: 12 96 27 27 (839808)
I0812 16:10:24.603780  5834 net.cpp:116] pool1 does not need backward computation.
I0812 16:10:24.603785  5834 net.cpp:65] Creating Layer norm1
I0812 16:10:24.603786  5834 net.cpp:228] norm1 <- pool1
I0812 16:10:24.603790  5834 net.cpp:189] norm1 -> norm1
I0812 16:10:24.603801  5834 net.cpp:84] Top shape: 12 96 27 27 (839808)
I0812 16:10:24.603802  5834 net.cpp:116] norm1 does not need backward computation.
I0812 16:10:24.603807  5834 net.cpp:65] Creating Layer Rconv6
I0812 16:10:24.603809  5834 net.cpp:228] Rconv6 <- norm1
I0812 16:10:24.603813  5834 net.cpp:189] Rconv6 -> Rconv6
I0812 16:10:24.604087  5834 net.cpp:84] Top shape: 12 256 27 27 (2239488)
I0812 16:10:24.604091  5834 net.cpp:111] Rconv6 needs backward computation.
I0812 16:10:24.604095  5834 net.cpp:65] Creating Layer Rrelu6
I0812 16:10:24.604099  5834 net.cpp:228] Rrelu6 <- Rconv6
I0812 16:10:24.604102  5834 net.cpp:179] Rrelu6 -> Rconv6 (in-place)
I0812 16:10:24.604107  5834 net.cpp:84] Top shape: 12 256 27 27 (2239488)
I0812 16:10:24.604110  5834 net.cpp:111] Rrelu6 needs backward computation.
I0812 16:10:24.604115  5834 net.cpp:65] Creating Layer Rconv7
I0812 16:10:24.604117  5834 net.cpp:228] Rconv7 <- Rconv6
I0812 16:10:24.604120  5834 net.cpp:189] Rconv7 -> Rconv7
I0812 16:10:24.604930  5834 net.cpp:84] Top shape: 12 256 27 27 (2239488)
I0812 16:10:24.604935  5834 net.cpp:111] Rconv7 needs backward computation.
I0812 16:10:24.604939  5834 net.cpp:65] Creating Layer Rrelu7
I0812 16:10:24.604941  5834 net.cpp:228] Rrelu7 <- Rconv7
I0812 16:10:24.604967  5834 net.cpp:179] Rrelu7 -> Rconv7 (in-place)
I0812 16:10:24.604974  5834 net.cpp:84] Top shape: 12 256 27 27 (2239488)
I0812 16:10:24.604975  5834 net.cpp:111] Rrelu7 needs backward computation.
I0812 16:10:24.604979  5834 net.cpp:65] Creating Layer Rconv8
I0812 16:10:24.604982  5834 net.cpp:228] Rconv8 <- Rconv7
I0812 16:10:24.604986  5834 net.cpp:189] Rconv8 -> Rconv8
I0812 16:10:24.605767  5834 net.cpp:84] Top shape: 12 256 27 27 (2239488)
I0812 16:10:24.605772  5834 net.cpp:111] Rconv8 needs backward computation.
I0812 16:10:24.605775  5834 net.cpp:65] Creating Layer Rrelu8
I0812 16:10:24.605778  5834 net.cpp:228] Rrelu8 <- Rconv8
I0812 16:10:24.605782  5834 net.cpp:179] Rrelu8 -> Rconv8 (in-place)
I0812 16:10:24.605787  5834 net.cpp:84] Top shape: 12 256 27 27 (2239488)
I0812 16:10:24.605789  5834 net.cpp:111] Rrelu8 needs backward computation.
I0812 16:10:24.605793  5834 net.cpp:65] Creating Layer deconv2
I0812 16:10:24.605797  5834 net.cpp:228] deconv2 <- Rconv8
I0812 16:10:24.605799  5834 net.cpp:189] deconv2 -> deconv2
I0812 16:10:24.606863  5834 net.cpp:84] Top shape: 12 64 54 54 (2239488)
I0812 16:10:24.606868  5834 net.cpp:111] deconv2 needs backward computation.
I0812 16:10:24.606871  5834 net.cpp:65] Creating Layer relu_deconv2
I0812 16:10:24.606874  5834 net.cpp:228] relu_deconv2 <- deconv2
I0812 16:10:24.606878  5834 net.cpp:179] relu_deconv2 -> deconv2 (in-place)
I0812 16:10:24.606884  5834 net.cpp:84] Top shape: 12 64 54 54 (2239488)
I0812 16:10:24.606885  5834 net.cpp:111] relu_deconv2 needs backward computation.
I0812 16:10:24.606889  5834 net.cpp:65] Creating Layer deconv1
I0812 16:10:24.606892  5834 net.cpp:228] deconv1 <- deconv2
I0812 16:10:24.606895  5834 net.cpp:189] deconv1 -> deconv1
I0812 16:10:24.607048  5834 net.cpp:84] Top shape: 12 32 108 108 (4478976)
I0812 16:10:24.607053  5834 net.cpp:111] deconv1 needs backward computation.
I0812 16:10:24.607055  5834 net.cpp:65] Creating Layer relu_deconv1
I0812 16:10:24.607059  5834 net.cpp:228] relu_deconv1 <- deconv1
I0812 16:10:24.607062  5834 net.cpp:179] relu_deconv1 -> deconv1 (in-place)
I0812 16:10:24.607066  5834 net.cpp:84] Top shape: 12 32 108 108 (4478976)
I0812 16:10:24.607069  5834 net.cpp:111] relu_deconv1 needs backward computation.
I0812 16:10:24.607074  5834 net.cpp:65] Creating Layer deconv0
I0812 16:10:24.607076  5834 net.cpp:228] deconv0 <- deconv1
I0812 16:10:24.607080  5834 net.cpp:189] deconv0 -> deconv0
I0812 16:10:24.607103  5834 net.cpp:84] Top shape: 12 3 216 216 (1679616)
I0812 16:10:24.607107  5834 net.cpp:111] deconv0 needs backward computation.
I0812 16:10:24.607111  5834 net.cpp:65] Creating Layer loss
I0812 16:10:24.607113  5834 net.cpp:228] loss <- deconv0
I0812 16:10:24.607116  5834 net.cpp:228] loss <- target_ims
I0812 16:10:24.607125  5834 net.cpp:111] loss needs backward computation.
I0812 16:10:24.607138  5834 net.cpp:238] Collecting Learning Rate and Weight Decay.
…
    source: "/scr/r6/tgebru/inverting_conv/caffe_invert_alexnet/data/siggraph/tiny_summer_val_lmdb"
    mean_file: "/scr/r6/tgebru/timnit_caffe/data/ilsvrc12/imagenet_mean.binaryproto"
    batch_size: 2
    crop_size: 227
    mirror: false
    backend: LMDB
  }
}
layers {
  top: "target_ims"
  name: "target_ims"
  type: DATA
  data_param {
    source: "/scr/r6/tgebru/inverting_conv/caffe_invert_alexnet/data/siggraph/tiny_summer_val_lmdb"
    mean_file: "/scr/r6/tgebru/timnit_caffe/data/ilsvrc12/imagenet_mean.binaryproto"
    batch_size: 2
    crop_size: 216
    mirror: false
    backend: LMDB
  }
}
layers {
  bottom: "source_ims"
  top: "conv1"
  name: "conv1"
  type: CONVOLUTION
  blobs_lr: 0
  blobs_lr: 0
  weight_decay: 1
  weight_decay: 0
  convolution_param {
    num_output: 96
    kernel_size: 11
    stride: 4
    weight_filler {
      type: "gaussian"
      std: 0.01
    }
    bias_filler {
      type: "constant"
      value: 0
    }
  }
}
layers {
  bottom: "conv1"
  top: "conv1"
  name: "relu1"
  type: RELU
}
layers {
  bottom: "conv1"
  top: "pool1"
  name: "pool1"
  type: POOLING
  pooling_param {
    pool: MAX
    kernel_size: 3
    stride: 2
  }
}
layers {
  bottom: "pool1"
  top: "norm1"
  name: "norm1"
  type: LRN
  lrn_param {
    local_size: 5
    alpha: 0.0001
    beta: 0.75
  }
}
layers {
  bottom: "norm1"
  top: "Rconv6"
  name: "Rconv6"
  type: CONVOLUTION
  blobs_lr: 0
  blobs_lr: 0
  weight_decay: 1
  weight_decay: 0
  convolution_param {
    num_output: 256
    pad: 1
    kernel_size: 3
  }
}
layers {
  bottom: "Rconv6"
  top: "Rconv6"
  name: "Rrelu6"
  type: RELU
}
layers {
  bottom: "Rconv6"
  top: "Rconv7"
  name: "Rconv7"
  type: CONVOLUTION
  blobs_lr: 0
  blobs_lr: 0
  weight_decay: 1
  weight_decay: 0
  convolution_param {
    num_output: 256
    pad: 1
    kernel_size: 3
    group: 2
  }
}
layers {
  bottom: "Rconv7"
  top: "Rconv7"
  name: "Rrelu7"
  type: RELU
}
layers {
  bottom: "Rconv7"
  top: "Rconv8"
  name: "Rconv8"
  type: CONVOLUTION
  blobs_lr: 0
  blobs_lr: 0
  weight_decay: 1
  weight_decay: 0
  convolution_param {
    num_output: 256
    pad: 1
    kernel_size: 3
    group: 2
  }
}
layers {
  bottom: "Rconv8"
  top: "Rconv8"
  name: "Rrelu8"
  type: RELU
}
layers {
  bottom: "Rconv8"
  top: "deconv2"
  name: "deconv2"
  type: DECONVOLUTION
  blobs_lr: 0
  blobs_lr: 0
  weight_decay: 1
  weight_decay: 0
  deconvolution_param {
    pad: 2
    kernel_size: 5
    stride: 2
    output_height: 54
    output_width: 54
    output_channels: 64
  }
}
layers {
  bottom: "deconv2"
  top: "deconv2"
  name: "relu_deconv2"
  type: RELU
  relu_param {
    negative_slope: 0.3
  }
}
layers {
  bottom: "deconv2"
  top: "deconv1"
  name: "deconv1"
  type: DECONVOLUTION
  blobs_lr: 0
  blobs_lr: 0
  weight_decay: 1
  weight_decay: 0
  deconvolution_param {
    pad: 2
    kernel_size: 5
    stride: 2
    output_height: 108
    output_width: 108
    output_channels: 32
  }
}
layers {
  bottom: "deconv1"
  top: "deconv1"
  name: "relu_deconv1"
  type: RELU
  relu_param {
    negative_slope: 0.3
  }
}
layers {
  bottom: "deconv1"
  top: "deconv0"
  name: "deconv0"
  type: DECONVOLUTION
  blobs_lr: 0
  blobs_lr: 0
  weight_decay: 1
  weight_decay: 0
  deconvolution_param {
    pad: 2
    kernel_size: 5
    stride: 2
    output_height: 216
    output_width: 216
    output_channels: 3
  }
}
layers {
  bottom: "deconv0"
  bottom: "target_ims"
  name: "loss"
  type: EUCLIDEAN_LOSS
}
I0812 16:10:24.607853  5834 net.cpp:65] Creating Layer source_ims
I0812 16:10:24.607859  5834 net.cpp:189] source_ims -> source_ims
I0812 16:10:24.607913  5834 data_layer.cpp:223] Opening lmdb /scr/r6/tgebru/inverting_conv/caffe_invert_alexnet/data/siggraph/tiny_summer_val_lmdb
I0812 16:10:24.608104  5834 data_layer.cpp:285] output data size: 2,3,227,227
I0812 16:10:24.608109  5834 data_layer.cpp:304] Loading mean file from/scr/r6/tgebru/timnit_caffe/data/ilsvrc12/imagenet_mean.binaryproto
I0812 16:10:24.610451  5834 net.cpp:84] Top shape: 2 3 227 227 (309174)
I0812 16:10:24.610460  5834 net.cpp:116] source_ims does not need backward computation.
I0812 16:10:24.610466  5834 net.cpp:65] Creating Layer target_ims
I0812 16:10:24.610471  5834 net.cpp:189] target_ims -> target_ims
I0812 16:10:24.610512  5834 data_layer.cpp:223] Opening lmdb /scr/r6/tgebru/inverting_conv/caffe_invert_alexnet/data/siggraph/tiny_summer_val_lmdb
I0812 16:10:24.610584  5834 data_layer.cpp:285] output data size: 2,3,216,216
I0812 16:10:24.610589  5834 data_layer.cpp:304] Loading mean file from/scr/r6/tgebru/timnit_caffe/data/ilsvrc12/imagenet_mean.binaryproto
I0812 16:10:24.612817  5834 net.cpp:84] Top shape: 2 3 216 216 (279936)
I0812 16:10:24.612823  5834 net.cpp:116] target_ims does not need backward computation.
I0812 16:10:24.612843  5834 net.cpp:65] Creating Layer conv1
I0812 16:10:24.612845  5834 net.cpp:228] conv1 <- source_ims
I0812 16:10:24.612851  5834 net.cpp:189] conv1 -> conv1
I0812 16:10:24.614095  5834 net.cpp:84] Top shape: 2 96 55 55 (580800)
I0812 16:10:24.614100  5834 net.cpp:116] conv1 does not need backward computation.
I0812 16:10:24.614104  5834 net.cpp:65] Creating Layer relu1
I0812 16:10:24.614107  5834 net.cpp:228] relu1 <- conv1
I0812 16:10:24.614111  5834 net.cpp:179] relu1 -> conv1 (in-place)
I0812 16:10:24.614116  5834 net.cpp:84] Top shape: 2 96 55 55 (580800)
I0812 16:10:24.614119  5834 net.cpp:116] relu1 does not need backward computation.
I0812 16:10:24.614123  5834 net.cpp:65] Creating Layer pool1
I0812 16:10:24.614125  5834 net.cpp:228] pool1 <- conv1
I0812 16:10:24.614130  5834 net.cpp:189] pool1 -> pool1
I0812 16:10:24.614135  5834 net.cpp:84] Top shape: 2 96 27 27 (139968)
I0812 16:10:24.614138  5834 net.cpp:116] pool1 does not need backward computation.
I0812 16:10:24.614142  5834 net.cpp:65] Creating Layer norm1
I0812 16:10:24.614145  5834 net.cpp:228] norm1 <- pool1
I0812 16:10:24.614148  5834 net.cpp:189] norm1 -> norm1
I0812 16:10:24.614154  5834 net.cpp:84] Top shape: 2 96 27 27 (139968)
I0812 16:10:24.614156  5834 net.cpp:116] norm1 does not need backward computation.
I0812 16:10:24.614161  5834 net.cpp:65] Creating Layer Rconv6
I0812 16:10:24.614163  5834 net.cpp:228] Rconv6 <- norm1
I0812 16:10:24.614167  5834 net.cpp:189] Rconv6 -> Rconv6
I0812 16:10:24.614727  5834 net.cpp:84] Top shape: 2 256 27 27 (373248)
I0812 16:10:24.614732  5834 net.cpp:116] Rconv6 does not need backward computation.
I0812 16:10:24.614735  5834 net.cpp:65] Creating Layer Rrelu6
I0812 16:10:24.614738  5834 net.cpp:228] Rrelu6 <- Rconv6
I0812 16:10:24.614742  5834 net.cpp:179] Rrelu6 -> Rconv6 (in-place)
I0812 16:10:24.614747  5834 net.cpp:84] Top shape: 2 256 27 27 (373248)
I0812 16:10:24.614749  5834 net.cpp:116] Rrelu6 does not need backward computation.
I0812 16:10:24.614754  5834 net.cpp:65] Creating Layer Rconv7
I0812 16:10:24.614756  5834 net.cpp:228] Rconv7 <- Rconv6
I0812 16:10:24.614760  5834 net.cpp:189] Rconv7 -> Rconv7
I0812 16:10:24.615499  5834 net.cpp:84] Top shape: 2 256 27 27 (373248)
I0812 16:10:24.615504  5834 net.cpp:116] Rconv7 does not need backward computation.
I0812 16:10:24.615507  5834 net.cpp:65] Creating Layer Rrelu7
I0812 16:10:24.615510  5834 net.cpp:228] Rrelu7 <- Rconv7
I0812 16:10:24.615514  5834 net.cpp:179] Rrelu7 -> Rconv7 (in-place)
I0812 16:10:24.615519  5834 net.cpp:84] Top shape: 2 256 27 27 (373248)
I0812 16:10:24.615521  5834 net.cpp:116] Rrelu7 does not need backward computation.
I0812 16:10:24.615525  5834 net.cpp:65] Creating Layer Rconv8
I0812 16:10:24.615527  5834 net.cpp:228] Rconv8 <- Rconv7
I0812 16:10:24.615530  5834 net.cpp:189] Rconv8 -> Rconv8
I0812 16:10:24.616271  5834 net.cpp:84] Top shape: 2 256 27 27 (373248)
I0812 16:10:24.616276  5834 net.cpp:116] Rconv8 does not need backward computation.
I0812 16:10:24.616279  5834 net.cpp:65] Creating Layer Rrelu8
I0812 16:10:24.616282  5834 net.cpp:228] Rrelu8 <- Rconv8
I0812 16:10:24.616286  5834 net.cpp:179] Rrelu8 -> Rconv8 (in-place)
I0812 16:10:24.616289  5834 net.cpp:84] Top shape: 2 256 27 27 (373248)
I0812 16:10:24.616292  5834 net.cpp:116] Rrelu8 does not need backward computation.
I0812 16:10:24.616297  5834 net.cpp:65] Creating Layer deconv2
I0812 16:10:24.616298  5834 net.cpp:228] deconv2 <- Rconv8
I0812 16:10:24.616302  5834 net.cpp:189] deconv2 -> deconv2
I0812 16:10:24.617321  5834 net.cpp:84] Top shape: 2 64 54 54 (373248)
I0812 16:10:24.617326  5834 net.cpp:116] deconv2 does not need backward computation.
I0812 16:10:24.617329  5834 net.cpp:65] Creating Layer relu_deconv2
I0812 16:10:24.617332  5834 net.cpp:228] relu_deconv2 <- deconv2
I0812 16:10:24.617336  5834 net.cpp:179] relu_deconv2 -> deconv2 (in-place)
I0812 16:10:24.617341  5834 net.cpp:84] Top shape: 2 64 54 54 (373248)
I0812 16:10:24.617342  5834 net.cpp:116] relu_deconv2 does not need backward computation.
I0812 16:10:24.617358  5834 net.cpp:65] Creating Layer deconv1
I0812 16:10:24.617362  5834 net.cpp:228] deconv1 <- deconv2
I0812 16:10:24.617365  5834 net.cpp:189] deconv1 -> deconv1
I0812 16:10:24.617521  5834 net.cpp:84] Top shape: 2 32 108 108 (746496)
I0812 16:10:24.617524  5834 net.cpp:116] deconv1 does not need backward computation.
I0812 16:10:24.617528  5834 net.cpp:65] Creating Layer relu_deconv1
I0812 16:10:24.617532  5834 net.cpp:228] relu_deconv1 <- deconv1
I0812 16:10:24.617535  5834 net.cpp:179] relu_deconv1 -> deconv1 (in-place)
I0812 16:10:24.617539  5834 net.cpp:84] Top shape: 2 32 108 108 (746496)
I0812 16:10:24.617542  5834 net.cpp:116] relu_deconv1 does not need backward computation.
I0812 16:10:24.617547  5834 net.cpp:65] Creating Layer deconv0
I0812 16:10:24.617550  5834 net.cpp:228] deconv0 <- deconv1
I0812 16:10:24.617554  5834 net.cpp:189] deconv0 -> deconv0
I0812 16:10:24.617573  5834 net.cpp:84] Top shape: 2 3 216 216 (279936)
I0812 16:10:24.617575  5834 net.cpp:116] deconv0 does not need backward computation.
I0812 16:10:24.617579  5834 net.cpp:65] Creating Layer loss
I0812 16:10:24.617581  5834 net.cpp:228] loss <- deconv0
I0812 16:10:24.617584  5834 net.cpp:228] loss <- target_ims
I0812 16:10:24.617589  5834 net.cpp:116] loss does not need backward computation.
I0812 16:10:24.617601  5834 net.cpp:238] Collecting Learning Rate and Weight Decay.
…
