…
    source: "/scr/r6/tgebru/inverting_conv/caffe_invert_alexnet/data/siggraph/tiny_summer_train_lmdb"
    mean_file: "/scr/r6/tgebru/timnit_caffe/data/ilsvrc12/imagenet_mean.binaryproto"
    batch_size: 12
    crop_size: 227
    mirror: false
    backend: LMDB
  }
}
layers {
  top: "target_ims"
  name: "target_ims"
  type: DATA
  data_param {
    source: "/scr/r6/tgebru/inverting_conv/caffe_invert_alexnet/data/siggraph/tiny_summer_train_lmdb"
    mean_file: "/scr/r6/tgebru/timnit_caffe/data/ilsvrc12/imagenet_mean.binaryproto"
    batch_size: 12
    crop_size: 216
    mirror: false
    backend: LMDB
  }
}
layers {
  bottom: "source_ims"
  top: "conv1"
  name: "conv1"
  type: CONVOLUTION
  blobs_lr: 0
  blobs_lr: 0
  weight_decay: 1
  weight_decay: 0
  convolution_param {
    num_output: 96
    kernel_size: 11
    stride: 4
    weight_filler {
      type: "gaussian"
      std: 0.01
    }
    bias_filler {
      type: "constant"
      value: 0
    }
  }
}
layers {
  bottom: "conv1"
  top: "conv1"
  name: "relu1"
  type: RELU
}
layers {
  bottom: "conv1"
  top: "pool1"
  name: "pool1"
  type: POOLING
  pooling_param {
    pool: MAX
    kernel_size: 3
    stride: 2
  }
}
layers {
  bottom: "pool1"
  top: "norm1"
  name: "norm1"
  type: LRN
  lrn_param {
    local_size: 5
    alpha: 0.0001
    beta: 0.75
  }
}
layers {
  bottom: "norm1"
  top: "Rconv6"
  name: "Rconv6"
  type: CONVOLUTION
  blobs_lr: 1
  blobs_lr: 2
  weight_decay: 1
  weight_decay: 0
  convolution_param {
    num_output: 256
    pad: 1
    kernel_size: 3
  }
}
layers {
  bottom: "Rconv6"
  top: "Rconv6"
  name: "Rrelu6"
  type: RELU
}
layers {
  bottom: "Rconv6"
  top: "Rconv7"
  name: "Rconv7"
  type: CONVOLUTION
  blobs_lr: 1
  blobs_lr: 2
  weight_decay: 1
  weight_decay: 0
  convolution_param {
    num_output: 256
    pad: 1
    kernel_size: 3
    group: 2
  }
}
layers {
  bottom: "Rconv7"
  top: "Rconv7"
  name: "Rrelu7"
  type: RELU
}
layers {
  bottom: "Rconv7"
  top: "Rconv8"
  name: "Rconv8"
  type: CONVOLUTION
  blobs_lr: 1
  blobs_lr: 2
  weight_decay: 1
  weight_decay: 0
  convolution_param {
    num_output: 256
    pad: 1
    kernel_size: 3
    group: 2
  }
}
layers {
  bottom: "Rconv8"
  top: "Rconv8"
  name: "Rrelu8"
  type: RELU
}
layers {
  bottom: "Rconv8"
  top: "deconv2"
  name: "deconv2"
  type: DECONVOLUTION
  blobs_lr: 1
  blobs_lr: 2
  weight_decay: 1
  weight_decay: 0
  deconvolution_param {
    pad: 2
    kernel_size: 5
    stride: 2
    output_height: 54
    output_width: 54
    output_channels: 64
  }
}
layers {
  bottom: "deconv2"
  top: "deconv2"
  name: "relu_deconv2"
  type: RELU
  relu_param {
    negative_slope: 0.3
  }
}
layers {
  bottom: "deconv2"
  top: "deconv1"
  name: "deconv1"
  type: DECONVOLUTION
  blobs_lr: 1
  blobs_lr: 2
  weight_decay: 1
  weight_decay: 0
  deconvolution_param {
    pad: 2
    kernel_size: 5
    stride: 2
    output_height: 108
    output_width: 108
    output_channels: 32
  }
}
layers {
  bottom: "deconv1"
  top: "deconv1"
  name: "relu_deconv1"
  type: RELU
  relu_param {
    negative_slope: 0.3
  }
}
layers {
  bottom: "deconv1"
  top: "deconv0"
  name: "deconv0"
  type: DECONVOLUTION
  blobs_lr: 1
  blobs_lr: 2
  weight_decay: 1
  weight_decay: 1
  deconvolution_param {
    pad: 2
    kernel_size: 5
    stride: 2
    output_height: 216
    output_width: 216
    output_channels: 3
  }
}
layers {
  bottom: "deconv0"
  bottom: "target_ims"
  name: "loss"
  type: EUCLIDEAN_LOSS
}
I0812 19:51:53.039876  2950 net.cpp:65] Creating Layer source_ims
I0812 19:51:53.039885  2950 net.cpp:189] source_ims -> source_ims
I0812 19:51:53.040002  2950 data_layer.cpp:223] Opening lmdb /scr/r6/tgebru/inverting_conv/caffe_invert_alexnet/data/siggraph/tiny_summer_train_lmdb
I0812 19:51:53.040222  2950 data_layer.cpp:285] output data size: 12,3,227,227
I0812 19:51:53.040230  2950 data_layer.cpp:304] Loading mean file from/scr/r6/tgebru/timnit_caffe/data/ilsvrc12/imagenet_mean.binaryproto
I0812 19:51:53.044769  2950 net.cpp:84] Top shape: 12 3 227 227 (1855044)
I0812 19:51:53.044777  2950 net.cpp:116] source_ims does not need backward computation.
I0812 19:51:53.044785  2950 net.cpp:65] Creating Layer target_ims
I0812 19:51:53.044790  2950 net.cpp:189] target_ims -> target_ims
I0812 19:51:53.044945  2950 data_layer.cpp:223] Opening lmdb /scr/r6/tgebru/inverting_conv/caffe_invert_alexnet/data/siggraph/tiny_summer_train_lmdb
I0812 19:51:53.045070  2950 data_layer.cpp:285] output data size: 12,3,216,216
I0812 19:51:53.045074  2950 data_layer.cpp:304] Loading mean file from/scr/r6/tgebru/timnit_caffe/data/ilsvrc12/imagenet_mean.binaryproto
I0812 19:51:53.049592  2950 net.cpp:84] Top shape: 12 3 216 216 (1679616)
I0812 19:51:53.049602  2950 net.cpp:116] target_ims does not need backward computation.
I0812 19:51:53.049612  2950 net.cpp:65] Creating Layer conv1
I0812 19:51:53.049617  2950 net.cpp:228] conv1 <- source_ims
I0812 19:51:53.049653  2950 net.cpp:189] conv1 -> conv1
I0812 19:51:53.051069  2950 net.cpp:84] Top shape: 12 96 55 55 (3484800)
I0812 19:51:53.051079  2950 net.cpp:116] conv1 does not need backward computation.
I0812 19:51:53.051085  2950 net.cpp:65] Creating Layer relu1
I0812 19:51:53.051090  2950 net.cpp:228] relu1 <- conv1
I0812 19:51:53.051096  2950 net.cpp:179] relu1 -> conv1 (in-place)
I0812 19:51:53.051107  2950 net.cpp:84] Top shape: 12 96 55 55 (3484800)
I0812 19:51:53.051110  2950 net.cpp:116] relu1 does not need backward computation.
I0812 19:51:53.051116  2950 net.cpp:65] Creating Layer pool1
I0812 19:51:53.051120  2950 net.cpp:228] pool1 <- conv1
I0812 19:51:53.051123  2950 net.cpp:189] pool1 -> pool1
I0812 19:51:53.051137  2950 net.cpp:84] Top shape: 12 96 27 27 (839808)
I0812 19:51:53.051141  2950 net.cpp:116] pool1 does not need backward computation.
I0812 19:51:53.051146  2950 net.cpp:65] Creating Layer norm1
I0812 19:51:53.051149  2950 net.cpp:228] norm1 <- pool1
I0812 19:51:53.051153  2950 net.cpp:189] norm1 -> norm1
I0812 19:51:53.051164  2950 net.cpp:84] Top shape: 12 96 27 27 (839808)
I0812 19:51:53.051167  2950 net.cpp:116] norm1 does not need backward computation.
I0812 19:51:53.051172  2950 net.cpp:65] Creating Layer Rconv6
I0812 19:51:53.051175  2950 net.cpp:228] Rconv6 <- norm1
I0812 19:51:53.051180  2950 net.cpp:189] Rconv6 -> Rconv6
I0812 19:51:53.051439  2950 net.cpp:84] Top shape: 12 256 27 27 (2239488)
I0812 19:51:53.051444  2950 net.cpp:111] Rconv6 needs backward computation.
I0812 19:51:53.051447  2950 net.cpp:65] Creating Layer Rrelu6
I0812 19:51:53.051450  2950 net.cpp:228] Rrelu6 <- Rconv6
I0812 19:51:53.051455  2950 net.cpp:179] Rrelu6 -> Rconv6 (in-place)
I0812 19:51:53.051461  2950 net.cpp:84] Top shape: 12 256 27 27 (2239488)
I0812 19:51:53.051465  2950 net.cpp:111] Rrelu6 needs backward computation.
I0812 19:51:53.051470  2950 net.cpp:65] Creating Layer Rconv7
I0812 19:51:53.051472  2950 net.cpp:228] Rconv7 <- Rconv6
I0812 19:51:53.051476  2950 net.cpp:189] Rconv7 -> Rconv7
I0812 19:51:53.052156  2950 net.cpp:84] Top shape: 12 256 27 27 (2239488)
I0812 19:51:53.052160  2950 net.cpp:111] Rconv7 needs backward computation.
I0812 19:51:53.052165  2950 net.cpp:65] Creating Layer Rrelu7
I0812 19:51:53.052168  2950 net.cpp:228] Rrelu7 <- Rconv7
I0812 19:51:53.052199  2950 net.cpp:179] Rrelu7 -> Rconv7 (in-place)
I0812 19:51:53.052206  2950 net.cpp:84] Top shape: 12 256 27 27 (2239488)
I0812 19:51:53.052208  2950 net.cpp:111] Rrelu7 needs backward computation.
I0812 19:51:53.052213  2950 net.cpp:65] Creating Layer Rconv8
I0812 19:51:53.052216  2950 net.cpp:228] Rconv8 <- Rconv7
I0812 19:51:53.052220  2950 net.cpp:189] Rconv8 -> Rconv8
I0812 19:51:53.053017  2950 net.cpp:84] Top shape: 12 256 27 27 (2239488)
I0812 19:51:53.053022  2950 net.cpp:111] Rconv8 needs backward computation.
I0812 19:51:53.053027  2950 net.cpp:65] Creating Layer Rrelu8
I0812 19:51:53.053030  2950 net.cpp:228] Rrelu8 <- Rconv8
I0812 19:51:53.053035  2950 net.cpp:179] Rrelu8 -> Rconv8 (in-place)
I0812 19:51:53.053040  2950 net.cpp:84] Top shape: 12 256 27 27 (2239488)
I0812 19:51:53.053043  2950 net.cpp:111] Rrelu8 needs backward computation.
I0812 19:51:53.053047  2950 net.cpp:65] Creating Layer deconv2
I0812 19:51:53.053050  2950 net.cpp:228] deconv2 <- Rconv8
I0812 19:51:53.053053  2950 net.cpp:189] deconv2 -> deconv2
I0812 19:51:53.054162  2950 net.cpp:84] Top shape: 12 64 54 54 (2239488)
I0812 19:51:53.054167  2950 net.cpp:111] deconv2 needs backward computation.
I0812 19:51:53.054172  2950 net.cpp:65] Creating Layer relu_deconv2
I0812 19:51:53.054175  2950 net.cpp:228] relu_deconv2 <- deconv2
I0812 19:51:53.054179  2950 net.cpp:179] relu_deconv2 -> deconv2 (in-place)
I0812 19:51:53.054184  2950 net.cpp:84] Top shape: 12 64 54 54 (2239488)
I0812 19:51:53.054188  2950 net.cpp:111] relu_deconv2 needs backward computation.
I0812 19:51:53.054191  2950 net.cpp:65] Creating Layer deconv1
I0812 19:51:53.054194  2950 net.cpp:228] deconv1 <- deconv2
I0812 19:51:53.054198  2950 net.cpp:189] deconv1 -> deconv1
I0812 19:51:53.054335  2950 net.cpp:84] Top shape: 12 32 108 108 (4478976)
I0812 19:51:53.054339  2950 net.cpp:111] deconv1 needs backward computation.
I0812 19:51:53.054343  2950 net.cpp:65] Creating Layer relu_deconv1
I0812 19:51:53.054347  2950 net.cpp:228] relu_deconv1 <- deconv1
I0812 19:51:53.054350  2950 net.cpp:179] relu_deconv1 -> deconv1 (in-place)
I0812 19:51:53.054355  2950 net.cpp:84] Top shape: 12 32 108 108 (4478976)
I0812 19:51:53.054358  2950 net.cpp:111] relu_deconv1 needs backward computation.
I0812 19:51:53.054364  2950 net.cpp:65] Creating Layer deconv0
I0812 19:51:53.054366  2950 net.cpp:228] deconv0 <- deconv1
I0812 19:51:53.054370  2950 net.cpp:189] deconv0 -> deconv0
I0812 19:51:53.054415  2950 net.cpp:84] Top shape: 12 3 216 216 (1679616)
I0812 19:51:53.054419  2950 net.cpp:111] deconv0 needs backward computation.
I0812 19:51:53.054424  2950 net.cpp:65] Creating Layer loss
I0812 19:51:53.054425  2950 net.cpp:228] loss <- deconv0
I0812 19:51:53.054430  2950 net.cpp:228] loss <- target_ims
I0812 19:51:53.054437  2950 net.cpp:111] loss needs backward computation.
I0812 19:51:53.054450  2950 net.cpp:238] Collecting Learning Rate and Weight Decay.
…
    source: "/scr/r6/tgebru/inverting_conv/caffe_invert_alexnet/data/siggraph/tiny_summer_val_lmdb"
    mean_file: "/scr/r6/tgebru/timnit_caffe/data/ilsvrc12/imagenet_mean.binaryproto"
    batch_size: 2
    crop_size: 227
    mirror: false
    backend: LMDB
  }
}
layers {
  top: "target_ims"
  name: "target_ims"
  type: DATA
  data_param {
    source: "/scr/r6/tgebru/inverting_conv/caffe_invert_alexnet/data/siggraph/tiny_summer_val_lmdb"
    mean_file: "/scr/r6/tgebru/timnit_caffe/data/ilsvrc12/imagenet_mean.binaryproto"
    batch_size: 2
    crop_size: 216
    mirror: false
    backend: LMDB
  }
}
layers {
  bottom: "source_ims"
  top: "conv1"
  name: "conv1"
  type: CONVOLUTION
  blobs_lr: 0
  blobs_lr: 0
  weight_decay: 1
  weight_decay: 0
  convolution_param {
    num_output: 96
    kernel_size: 11
    stride: 4
    weight_filler {
      type: "gaussian"
      std: 0.01
    }
    bias_filler {
      type: "constant"
      value: 0
    }
  }
}
layers {
  bottom: "conv1"
  top: "conv1"
  name: "relu1"
  type: RELU
}
layers {
  bottom: "conv1"
  top: "pool1"
  name: "pool1"
  type: POOLING
  pooling_param {
    pool: MAX
    kernel_size: 3
    stride: 2
  }
}
layers {
  bottom: "pool1"
  top: "norm1"
  name: "norm1"
  type: LRN
  lrn_param {
    local_size: 5
    alpha: 0.0001
    beta: 0.75
  }
}
layers {
  bottom: "norm1"
  top: "Rconv6"
  name: "Rconv6"
  type: CONVOLUTION
  blobs_lr: 0
  blobs_lr: 0
  weight_decay: 1
  weight_decay: 0
  convolution_param {
    num_output: 256
    pad: 1
    kernel_size: 3
  }
}
layers {
  bottom: "Rconv6"
  top: "Rconv6"
  name: "Rrelu6"
  type: RELU
}
layers {
  bottom: "Rconv6"
  top: "Rconv7"
  name: "Rconv7"
  type: CONVOLUTION
  blobs_lr: 0
  blobs_lr: 0
  weight_decay: 1
  weight_decay: 0
  convolution_param {
    num_output: 256
    pad: 1
    kernel_size: 3
    group: 2
  }
}
layers {
  bottom: "Rconv7"
  top: "Rconv7"
  name: "Rrelu7"
  type: RELU
}
layers {
  bottom: "Rconv7"
  top: "Rconv8"
  name: "Rconv8"
  type: CONVOLUTION
  blobs_lr: 0
  blobs_lr: 0
  weight_decay: 1
  weight_decay: 0
  convolution_param {
    num_output: 256
    pad: 1
    kernel_size: 3
    group: 2
  }
}
layers {
  bottom: "Rconv8"
  top: "Rconv8"
  name: "Rrelu8"
  type: RELU
}
layers {
  bottom: "Rconv8"
  top: "deconv2"
  name: "deconv2"
  type: DECONVOLUTION
  blobs_lr: 0
  blobs_lr: 0
  weight_decay: 1
  weight_decay: 0
  deconvolution_param {
    pad: 2
    kernel_size: 5
    stride: 2
    output_height: 54
    output_width: 54
    output_channels: 64
  }
}
layers {
  bottom: "deconv2"
  top: "deconv2"
  name: "relu_deconv2"
  type: RELU
  relu_param {
    negative_slope: 0.3
  }
}
layers {
  bottom: "deconv2"
  top: "deconv1"
  name: "deconv1"
  type: DECONVOLUTION
  blobs_lr: 0
  blobs_lr: 0
  weight_decay: 1
  weight_decay: 0
  deconvolution_param {
    pad: 2
    kernel_size: 5
    stride: 2
    output_height: 108
    output_width: 108
    output_channels: 32
  }
}
layers {
  bottom: "deconv1"
  top: "deconv1"
  name: "relu_deconv1"
  type: RELU
  relu_param {
    negative_slope: 0.3
  }
}
layers {
  bottom: "deconv1"
  top: "deconv0"
  name: "deconv0"
  type: DECONVOLUTION
  blobs_lr: 0
  blobs_lr: 0
  weight_decay: 1
  weight_decay: 0
  deconvolution_param {
    pad: 2
    kernel_size: 5
    stride: 2
    output_height: 216
    output_width: 216
    output_channels: 3
  }
}
layers {
  bottom: "deconv0"
  bottom: "target_ims"
  name: "loss"
  type: EUCLIDEAN_LOSS
}
I0812 19:51:53.055214  2950 net.cpp:65] Creating Layer source_ims
I0812 19:51:53.055222  2950 net.cpp:189] source_ims -> source_ims
I0812 19:51:53.055280  2950 data_layer.cpp:223] Opening lmdb /scr/r6/tgebru/inverting_conv/caffe_invert_alexnet/data/siggraph/tiny_summer_val_lmdb
I0812 19:51:53.055464  2950 data_layer.cpp:285] output data size: 2,3,227,227
I0812 19:51:53.055469  2950 data_layer.cpp:304] Loading mean file from/scr/r6/tgebru/timnit_caffe/data/ilsvrc12/imagenet_mean.binaryproto
I0812 19:51:53.057777  2950 net.cpp:84] Top shape: 2 3 227 227 (309174)
I0812 19:51:53.057785  2950 net.cpp:116] source_ims does not need backward computation.
I0812 19:51:53.057791  2950 net.cpp:65] Creating Layer target_ims
I0812 19:51:53.057796  2950 net.cpp:189] target_ims -> target_ims
I0812 19:51:53.057843  2950 data_layer.cpp:223] Opening lmdb /scr/r6/tgebru/inverting_conv/caffe_invert_alexnet/data/siggraph/tiny_summer_val_lmdb
I0812 19:51:53.058004  2950 data_layer.cpp:285] output data size: 2,3,216,216
I0812 19:51:53.058008  2950 data_layer.cpp:304] Loading mean file from/scr/r6/tgebru/timnit_caffe/data/ilsvrc12/imagenet_mean.binaryproto
I0812 19:51:53.060649  2950 net.cpp:84] Top shape: 2 3 216 216 (279936)
I0812 19:51:53.060655  2950 net.cpp:116] target_ims does not need backward computation.
I0812 19:51:53.060678  2950 net.cpp:65] Creating Layer conv1
I0812 19:51:53.060683  2950 net.cpp:228] conv1 <- source_ims
I0812 19:51:53.060688  2950 net.cpp:189] conv1 -> conv1
I0812 19:51:53.061938  2950 net.cpp:84] Top shape: 2 96 55 55 (580800)
I0812 19:51:53.061941  2950 net.cpp:116] conv1 does not need backward computation.
I0812 19:51:53.061946  2950 net.cpp:65] Creating Layer relu1
I0812 19:51:53.061949  2950 net.cpp:228] relu1 <- conv1
I0812 19:51:53.061954  2950 net.cpp:179] relu1 -> conv1 (in-place)
I0812 19:51:53.061959  2950 net.cpp:84] Top shape: 2 96 55 55 (580800)
I0812 19:51:53.061961  2950 net.cpp:116] relu1 does not need backward computation.
I0812 19:51:53.061966  2950 net.cpp:65] Creating Layer pool1
I0812 19:51:53.061969  2950 net.cpp:228] pool1 <- conv1
I0812 19:51:53.061972  2950 net.cpp:189] pool1 -> pool1
I0812 19:51:53.061980  2950 net.cpp:84] Top shape: 2 96 27 27 (139968)
I0812 19:51:53.061982  2950 net.cpp:116] pool1 does not need backward computation.
I0812 19:51:53.061987  2950 net.cpp:65] Creating Layer norm1
I0812 19:51:53.061990  2950 net.cpp:228] norm1 <- pool1
I0812 19:51:53.061993  2950 net.cpp:189] norm1 -> norm1
I0812 19:51:53.062000  2950 net.cpp:84] Top shape: 2 96 27 27 (139968)
I0812 19:51:53.062003  2950 net.cpp:116] norm1 does not need backward computation.
I0812 19:51:53.062007  2950 net.cpp:65] Creating Layer Rconv6
I0812 19:51:53.062010  2950 net.cpp:228] Rconv6 <- norm1
I0812 19:51:53.062014  2950 net.cpp:189] Rconv6 -> Rconv6
I0812 19:51:53.062589  2950 net.cpp:84] Top shape: 2 256 27 27 (373248)
I0812 19:51:53.062594  2950 net.cpp:116] Rconv6 does not need backward computation.
I0812 19:51:53.062599  2950 net.cpp:65] Creating Layer Rrelu6
I0812 19:51:53.062602  2950 net.cpp:228] Rrelu6 <- Rconv6
I0812 19:51:53.062607  2950 net.cpp:179] Rrelu6 -> Rconv6 (in-place)
I0812 19:51:53.062613  2950 net.cpp:84] Top shape: 2 256 27 27 (373248)
I0812 19:51:53.062615  2950 net.cpp:116] Rrelu6 does not need backward computation.
I0812 19:51:53.062620  2950 net.cpp:65] Creating Layer Rconv7
I0812 19:51:53.062623  2950 net.cpp:228] Rconv7 <- Rconv6
I0812 19:51:53.062626  2950 net.cpp:189] Rconv7 -> Rconv7
I0812 19:51:53.063359  2950 net.cpp:84] Top shape: 2 256 27 27 (373248)
I0812 19:51:53.063364  2950 net.cpp:116] Rconv7 does not need backward computation.
I0812 19:51:53.063369  2950 net.cpp:65] Creating Layer Rrelu7
I0812 19:51:53.063371  2950 net.cpp:228] Rrelu7 <- Rconv7
I0812 19:51:53.063374  2950 net.cpp:179] Rrelu7 -> Rconv7 (in-place)
I0812 19:51:53.063380  2950 net.cpp:84] Top shape: 2 256 27 27 (373248)
I0812 19:51:53.063382  2950 net.cpp:116] Rrelu7 does not need backward computation.
I0812 19:51:53.063386  2950 net.cpp:65] Creating Layer Rconv8
I0812 19:51:53.063390  2950 net.cpp:228] Rconv8 <- Rconv7
I0812 19:51:53.063392  2950 net.cpp:189] Rconv8 -> Rconv8
I0812 19:51:53.064112  2950 net.cpp:84] Top shape: 2 256 27 27 (373248)
I0812 19:51:53.064116  2950 net.cpp:116] Rconv8 does not need backward computation.
I0812 19:51:53.064121  2950 net.cpp:65] Creating Layer Rrelu8
I0812 19:51:53.064123  2950 net.cpp:228] Rrelu8 <- Rconv8
I0812 19:51:53.064127  2950 net.cpp:179] Rrelu8 -> Rconv8 (in-place)
I0812 19:51:53.064132  2950 net.cpp:84] Top shape: 2 256 27 27 (373248)
I0812 19:51:53.064136  2950 net.cpp:116] Rrelu8 does not need backward computation.
I0812 19:51:53.064139  2950 net.cpp:65] Creating Layer deconv2
I0812 19:51:53.064141  2950 net.cpp:228] deconv2 <- Rconv8
I0812 19:51:53.064146  2950 net.cpp:189] deconv2 -> deconv2
I0812 19:51:53.065138  2950 net.cpp:84] Top shape: 2 64 54 54 (373248)
I0812 19:51:53.065143  2950 net.cpp:116] deconv2 does not need backward computation.
I0812 19:51:53.065147  2950 net.cpp:65] Creating Layer relu_deconv2
I0812 19:51:53.065150  2950 net.cpp:228] relu_deconv2 <- deconv2
I0812 19:51:53.065155  2950 net.cpp:179] relu_deconv2 -> deconv2 (in-place)
I0812 19:51:53.065160  2950 net.cpp:84] Top shape: 2 64 54 54 (373248)
I0812 19:51:53.065162  2950 net.cpp:116] relu_deconv2 does not need backward computation.
I0812 19:51:53.065178  2950 net.cpp:65] Creating Layer deconv1
I0812 19:51:53.065181  2950 net.cpp:228] deconv1 <- deconv2
I0812 19:51:53.065186  2950 net.cpp:189] deconv1 -> deconv1
I0812 19:51:53.065320  2950 net.cpp:84] Top shape: 2 32 108 108 (746496)
I0812 19:51:53.065325  2950 net.cpp:116] deconv1 does not need backward computation.
I0812 19:51:53.065330  2950 net.cpp:65] Creating Layer relu_deconv1
I0812 19:51:53.065331  2950 net.cpp:228] relu_deconv1 <- deconv1
I0812 19:51:53.065335  2950 net.cpp:179] relu_deconv1 -> deconv1 (in-place)
I0812 19:51:53.065340  2950 net.cpp:84] Top shape: 2 32 108 108 (746496)
I0812 19:51:53.065343  2950 net.cpp:116] relu_deconv1 does not need backward computation.
I0812 19:51:53.065348  2950 net.cpp:65] Creating Layer deconv0
I0812 19:51:53.065351  2950 net.cpp:228] deconv0 <- deconv1
I0812 19:51:53.065356  2950 net.cpp:189] deconv0 -> deconv0
I0812 19:51:53.065373  2950 net.cpp:84] Top shape: 2 3 216 216 (279936)
I0812 19:51:53.065376  2950 net.cpp:116] deconv0 does not need backward computation.
I0812 19:51:53.065381  2950 net.cpp:65] Creating Layer loss
I0812 19:51:53.065383  2950 net.cpp:228] loss <- deconv0
I0812 19:51:53.065387  2950 net.cpp:228] loss <- target_ims
I0812 19:51:53.065392  2950 net.cpp:116] loss does not need backward computation.
I0812 19:51:53.065402  2950 net.cpp:238] Collecting Learning Rate and Weight Decay.
…
