…
    source: "/scr/r6/tgebru/inverting_conv/caffe_invert_alexnet/data/siggraph/tiny_winter_train_lmdb"
    mean_file: "/scr/r6/tgebru/timnit_caffe/data/ilsvrc12/imagenet_mean.binaryproto"
    batch_size: 12
    crop_size: 227
    mirror: false
    backend: LMDB
  }
}
layers {
  top: "target_ims"
  name: "target_ims"
  type: DATA
  data_param {
    source: "/scr/r6/tgebru/inverting_conv/caffe_invert_alexnet/data/siggraph/tiny_summer_train_lmdb"
    mean_file: "/scr/r6/tgebru/timnit_caffe/data/ilsvrc12/imagenet_mean.binaryproto"
    batch_size: 12
    crop_size: 216
    mirror: false
    backend: LMDB
  }
}
layers {
  bottom: "source_ims"
  top: "conv1"
  name: "conv1"
  type: CONVOLUTION
  blobs_lr: 0
  blobs_lr: 0
  weight_decay: 1
  weight_decay: 0
  convolution_param {
    num_output: 96
    kernel_size: 11
    stride: 4
    weight_filler {
      type: "gaussian"
      std: 0.01
    }
    bias_filler {
      type: "constant"
      value: 0
    }
  }
}
layers {
  bottom: "conv1"
  top: "conv1"
  name: "relu1"
  type: RELU
}
layers {
  bottom: "conv1"
  top: "pool1"
  name: "pool1"
  type: POOLING
  pooling_param {
    pool: MAX
    kernel_size: 3
    stride: 2
  }
}
layers {
  bottom: "pool1"
  top: "norm1"
  name: "norm1"
  type: LRN
  lrn_param {
    local_size: 5
    alpha: 0.0001
    beta: 0.75
  }
}
layers {
  bottom: "norm1"
  top: "Rconv6"
  name: "Rconv6"
  type: CONVOLUTION
  blobs_lr: 1
  blobs_lr: 2
  weight_decay: 1
  weight_decay: 0
  convolution_param {
    num_output: 256
    pad: 1
    kernel_size: 3
  }
}
layers {
  bottom: "Rconv6"
  top: "Rconv6"
  name: "Rrelu6"
  type: RELU
}
layers {
  bottom: "Rconv6"
  top: "Rconv7"
  name: "Rconv7"
  type: CONVOLUTION
  blobs_lr: 1
  blobs_lr: 2
  weight_decay: 1
  weight_decay: 0
  convolution_param {
    num_output: 256
    pad: 1
    kernel_size: 3
    group: 2
  }
}
layers {
  bottom: "Rconv7"
  top: "Rconv7"
  name: "Rrelu7"
  type: RELU
}
layers {
  bottom: "Rconv7"
  top: "Rconv8"
  name: "Rconv8"
  type: CONVOLUTION
  blobs_lr: 1
  blobs_lr: 2
  weight_decay: 1
  weight_decay: 0
  convolution_param {
    num_output: 256
    pad: 1
    kernel_size: 3
    group: 2
  }
}
layers {
  bottom: "Rconv8"
  top: "Rconv8"
  name: "Rrelu8"
  type: RELU
}
layers {
  bottom: "Rconv8"
  top: "deconv2"
  name: "deconv2"
  type: DECONVOLUTION
  blobs_lr: 1
  blobs_lr: 2
  weight_decay: 1
  weight_decay: 0
  deconvolution_param {
    pad: 2
    kernel_size: 5
    stride: 2
    output_height: 54
    output_width: 54
    output_channels: 64
  }
}
layers {
  bottom: "deconv2"
  top: "deconv2"
  name: "relu_deconv2"
  type: RELU
  relu_param {
    negative_slope: 0.3
  }
}
layers {
  bottom: "deconv2"
  top: "deconv1"
  name: "deconv1"
  type: DECONVOLUTION
  blobs_lr: 1
  blobs_lr: 2
  weight_decay: 1
  weight_decay: 0
  deconvolution_param {
    pad: 2
    kernel_size: 5
    stride: 2
    output_height: 108
    output_width: 108
    output_channels: 32
  }
}
layers {
  bottom: "deconv1"
  top: "deconv1"
  name: "relu_deconv1"
  type: RELU
  relu_param {
    negative_slope: 0.3
  }
}
layers {
  bottom: "deconv1"
  top: "deconv0"
  name: "deconv0"
  type: DECONVOLUTION
  blobs_lr: 1
  blobs_lr: 2
  weight_decay: 1
  weight_decay: 1
  deconvolution_param {
    pad: 2
    kernel_size: 5
    stride: 2
    output_height: 216
    output_width: 216
    output_channels: 3
  }
}
layers {
  bottom: "deconv0"
  bottom: "target_ims"
  name: "loss"
  type: EUCLIDEAN_LOSS
}
I0813 05:57:11.711364   768 net.cpp:65] Creating Layer source_ims
I0813 05:57:11.711371   768 net.cpp:189] source_ims -> source_ims
I0813 05:57:11.711473   768 data_layer.cpp:223] Opening lmdb /scr/r6/tgebru/inverting_conv/caffe_invert_alexnet/data/siggraph/tiny_winter_train_lmdb
I0813 05:57:11.711688   768 data_layer.cpp:285] output data size: 12,3,227,227
I0813 05:57:11.711695   768 data_layer.cpp:304] Loading mean file from/scr/r6/tgebru/timnit_caffe/data/ilsvrc12/imagenet_mean.binaryproto
I0813 05:57:11.716341   768 net.cpp:84] Top shape: 12 3 227 227 (1855044)
I0813 05:57:11.716349   768 net.cpp:116] source_ims does not need backward computation.
I0813 05:57:11.716356   768 net.cpp:65] Creating Layer target_ims
I0813 05:57:11.716359   768 net.cpp:189] target_ims -> target_ims
I0813 05:57:11.716498   768 data_layer.cpp:223] Opening lmdb /scr/r6/tgebru/inverting_conv/caffe_invert_alexnet/data/siggraph/tiny_summer_train_lmdb
I0813 05:57:11.716693   768 data_layer.cpp:285] output data size: 12,3,216,216
I0813 05:57:11.716698   768 data_layer.cpp:304] Loading mean file from/scr/r6/tgebru/timnit_caffe/data/ilsvrc12/imagenet_mean.binaryproto
I0813 05:57:11.721048   768 net.cpp:84] Top shape: 12 3 216 216 (1679616)
I0813 05:57:11.721057   768 net.cpp:116] target_ims does not need backward computation.
I0813 05:57:11.721070   768 net.cpp:65] Creating Layer conv1
I0813 05:57:11.721073   768 net.cpp:228] conv1 <- source_ims
I0813 05:57:11.721142   768 net.cpp:189] conv1 -> conv1
I0813 05:57:11.722440   768 net.cpp:84] Top shape: 12 96 55 55 (3484800)
I0813 05:57:11.722445   768 net.cpp:116] conv1 does not need backward computation.
I0813 05:57:11.722450   768 net.cpp:65] Creating Layer relu1
I0813 05:57:11.722453   768 net.cpp:228] relu1 <- conv1
I0813 05:57:11.722457   768 net.cpp:179] relu1 -> conv1 (in-place)
I0813 05:57:11.722466   768 net.cpp:84] Top shape: 12 96 55 55 (3484800)
I0813 05:57:11.722470   768 net.cpp:116] relu1 does not need backward computation.
I0813 05:57:11.722476   768 net.cpp:65] Creating Layer pool1
I0813 05:57:11.722477   768 net.cpp:228] pool1 <- conv1
I0813 05:57:11.722482   768 net.cpp:189] pool1 -> pool1
I0813 05:57:11.722493   768 net.cpp:84] Top shape: 12 96 27 27 (839808)
I0813 05:57:11.722497   768 net.cpp:116] pool1 does not need backward computation.
I0813 05:57:11.722502   768 net.cpp:65] Creating Layer norm1
I0813 05:57:11.722506   768 net.cpp:228] norm1 <- pool1
I0813 05:57:11.722509   768 net.cpp:189] norm1 -> norm1
I0813 05:57:11.722518   768 net.cpp:84] Top shape: 12 96 27 27 (839808)
I0813 05:57:11.722522   768 net.cpp:116] norm1 does not need backward computation.
I0813 05:57:11.722527   768 net.cpp:65] Creating Layer Rconv6
I0813 05:57:11.722529   768 net.cpp:228] Rconv6 <- norm1
I0813 05:57:11.722534   768 net.cpp:189] Rconv6 -> Rconv6
I0813 05:57:11.722792   768 net.cpp:84] Top shape: 12 256 27 27 (2239488)
I0813 05:57:11.722796   768 net.cpp:111] Rconv6 needs backward computation.
I0813 05:57:11.722800   768 net.cpp:65] Creating Layer Rrelu6
I0813 05:57:11.722803   768 net.cpp:228] Rrelu6 <- Rconv6
I0813 05:57:11.722808   768 net.cpp:179] Rrelu6 -> Rconv6 (in-place)
I0813 05:57:11.722812   768 net.cpp:84] Top shape: 12 256 27 27 (2239488)
I0813 05:57:11.722815   768 net.cpp:111] Rrelu6 needs backward computation.
I0813 05:57:11.722820   768 net.cpp:65] Creating Layer Rconv7
I0813 05:57:11.722823   768 net.cpp:228] Rconv7 <- Rconv6
I0813 05:57:11.722828   768 net.cpp:189] Rconv7 -> Rconv7
I0813 05:57:11.723536   768 net.cpp:84] Top shape: 12 256 27 27 (2239488)
I0813 05:57:11.723541   768 net.cpp:111] Rconv7 needs backward computation.
I0813 05:57:11.723546   768 net.cpp:65] Creating Layer Rrelu7
I0813 05:57:11.723567   768 net.cpp:228] Rrelu7 <- Rconv7
I0813 05:57:11.723572   768 net.cpp:179] Rrelu7 -> Rconv7 (in-place)
I0813 05:57:11.723577   768 net.cpp:84] Top shape: 12 256 27 27 (2239488)
I0813 05:57:11.723579   768 net.cpp:111] Rrelu7 needs backward computation.
I0813 05:57:11.723583   768 net.cpp:65] Creating Layer Rconv8
I0813 05:57:11.723587   768 net.cpp:228] Rconv8 <- Rconv7
I0813 05:57:11.723590   768 net.cpp:189] Rconv8 -> Rconv8
I0813 05:57:11.724393   768 net.cpp:84] Top shape: 12 256 27 27 (2239488)
I0813 05:57:11.724397   768 net.cpp:111] Rconv8 needs backward computation.
I0813 05:57:11.724401   768 net.cpp:65] Creating Layer Rrelu8
I0813 05:57:11.724405   768 net.cpp:228] Rrelu8 <- Rconv8
I0813 05:57:11.724408   768 net.cpp:179] Rrelu8 -> Rconv8 (in-place)
I0813 05:57:11.724413   768 net.cpp:84] Top shape: 12 256 27 27 (2239488)
I0813 05:57:11.724416   768 net.cpp:111] Rrelu8 needs backward computation.
I0813 05:57:11.724419   768 net.cpp:65] Creating Layer deconv2
I0813 05:57:11.724422   768 net.cpp:228] deconv2 <- Rconv8
I0813 05:57:11.724426   768 net.cpp:189] deconv2 -> deconv2
I0813 05:57:11.725492   768 net.cpp:84] Top shape: 12 64 54 54 (2239488)
I0813 05:57:11.725497   768 net.cpp:111] deconv2 needs backward computation.
I0813 05:57:11.725502   768 net.cpp:65] Creating Layer relu_deconv2
I0813 05:57:11.725504   768 net.cpp:228] relu_deconv2 <- deconv2
I0813 05:57:11.725508   768 net.cpp:179] relu_deconv2 -> deconv2 (in-place)
I0813 05:57:11.725513   768 net.cpp:84] Top shape: 12 64 54 54 (2239488)
I0813 05:57:11.725517   768 net.cpp:111] relu_deconv2 needs backward computation.
I0813 05:57:11.725519   768 net.cpp:65] Creating Layer deconv1
I0813 05:57:11.725522   768 net.cpp:228] deconv1 <- deconv2
I0813 05:57:11.725525   768 net.cpp:189] deconv1 -> deconv1
I0813 05:57:11.725662   768 net.cpp:84] Top shape: 12 32 108 108 (4478976)
I0813 05:57:11.725666   768 net.cpp:111] deconv1 needs backward computation.
I0813 05:57:11.725671   768 net.cpp:65] Creating Layer relu_deconv1
I0813 05:57:11.725672   768 net.cpp:228] relu_deconv1 <- deconv1
I0813 05:57:11.725677   768 net.cpp:179] relu_deconv1 -> deconv1 (in-place)
I0813 05:57:11.725682   768 net.cpp:84] Top shape: 12 32 108 108 (4478976)
I0813 05:57:11.725683   768 net.cpp:111] relu_deconv1 needs backward computation.
I0813 05:57:11.725689   768 net.cpp:65] Creating Layer deconv0
I0813 05:57:11.725692   768 net.cpp:228] deconv0 <- deconv1
I0813 05:57:11.725695   768 net.cpp:189] deconv0 -> deconv0
I0813 05:57:11.725745   768 net.cpp:84] Top shape: 12 3 216 216 (1679616)
I0813 05:57:11.725749   768 net.cpp:111] deconv0 needs backward computation.
I0813 05:57:11.725752   768 net.cpp:65] Creating Layer loss
I0813 05:57:11.725754   768 net.cpp:228] loss <- deconv0
I0813 05:57:11.725759   768 net.cpp:228] loss <- target_ims
I0813 05:57:11.725766   768 net.cpp:111] loss needs backward computation.
I0813 05:57:11.725780   768 net.cpp:238] Collecting Learning Rate and Weight Decay.
…
    source: "/scr/r6/tgebru/inverting_conv/caffe_invert_alexnet/data/siggraph/tiny_winter_val_lmdb"
    mean_file: "/scr/r6/tgebru/timnit_caffe/data/ilsvrc12/imagenet_mean.binaryproto"
    batch_size: 2
    crop_size: 227
    mirror: false
    backend: LMDB
  }
}
layers {
  top: "target_ims"
  name: "target_ims"
  type: DATA
  data_param {
    source: "/scr/r6/tgebru/inverting_conv/caffe_invert_alexnet/data/siggraph/tiny_summer_val_lmdb"
    mean_file: "/scr/r6/tgebru/timnit_caffe/data/ilsvrc12/imagenet_mean.binaryproto"
    batch_size: 2
    crop_size: 216
    mirror: false
    backend: LMDB
  }
}
layers {
  bottom: "source_ims"
  top: "conv1"
  name: "conv1"
  type: CONVOLUTION
  blobs_lr: 0
  blobs_lr: 0
  weight_decay: 1
  weight_decay: 0
  convolution_param {
    num_output: 96
    kernel_size: 11
    stride: 4
    weight_filler {
      type: "gaussian"
      std: 0.01
    }
    bias_filler {
      type: "constant"
      value: 0
    }
  }
}
layers {
  bottom: "conv1"
  top: "conv1"
  name: "relu1"
  type: RELU
}
layers {
  bottom: "conv1"
  top: "pool1"
  name: "pool1"
  type: POOLING
  pooling_param {
    pool: MAX
    kernel_size: 3
    stride: 2
  }
}
layers {
  bottom: "pool1"
  top: "norm1"
  name: "norm1"
  type: LRN
  lrn_param {
    local_size: 5
    alpha: 0.0001
    beta: 0.75
  }
}
layers {
  bottom: "norm1"
  top: "Rconv6"
  name: "Rconv6"
  type: CONVOLUTION
  blobs_lr: 0
  blobs_lr: 0
  weight_decay: 1
  weight_decay: 0
  convolution_param {
    num_output: 256
    pad: 1
    kernel_size: 3
  }
}
layers {
  bottom: "Rconv6"
  top: "Rconv6"
  name: "Rrelu6"
  type: RELU
}
layers {
  bottom: "Rconv6"
  top: "Rconv7"
  name: "Rconv7"
  type: CONVOLUTION
  blobs_lr: 0
  blobs_lr: 0
  weight_decay: 1
  weight_decay: 0
  convolution_param {
    num_output: 256
    pad: 1
    kernel_size: 3
    group: 2
  }
}
layers {
  bottom: "Rconv7"
  top: "Rconv7"
  name: "Rrelu7"
  type: RELU
}
layers {
  bottom: "Rconv7"
  top: "Rconv8"
  name: "Rconv8"
  type: CONVOLUTION
  blobs_lr: 0
  blobs_lr: 0
  weight_decay: 1
  weight_decay: 0
  convolution_param {
    num_output: 256
    pad: 1
    kernel_size: 3
    group: 2
  }
}
layers {
  bottom: "Rconv8"
  top: "Rconv8"
  name: "Rrelu8"
  type: RELU
}
layers {
  bottom: "Rconv8"
  top: "deconv2"
  name: "deconv2"
  type: DECONVOLUTION
  blobs_lr: 0
  blobs_lr: 0
  weight_decay: 1
  weight_decay: 0
  deconvolution_param {
    pad: 2
    kernel_size: 5
    stride: 2
    output_height: 54
    output_width: 54
    output_channels: 64
  }
}
layers {
  bottom: "deconv2"
  top: "deconv2"
  name: "relu_deconv2"
  type: RELU
  relu_param {
    negative_slope: 0.3
  }
}
layers {
  bottom: "deconv2"
  top: "deconv1"
  name: "deconv1"
  type: DECONVOLUTION
  blobs_lr: 0
  blobs_lr: 0
  weight_decay: 1
  weight_decay: 0
  deconvolution_param {
    pad: 2
    kernel_size: 5
    stride: 2
    output_height: 108
    output_width: 108
    output_channels: 32
  }
}
layers {
  bottom: "deconv1"
  top: "deconv1"
  name: "relu_deconv1"
  type: RELU
  relu_param {
    negative_slope: 0.3
  }
}
layers {
  bottom: "deconv1"
  top: "deconv0"
  name: "deconv0"
  type: DECONVOLUTION
  blobs_lr: 0
  blobs_lr: 0
  weight_decay: 1
  weight_decay: 0
  deconvolution_param {
    pad: 2
    kernel_size: 5
    stride: 2
    output_height: 216
    output_width: 216
    output_channels: 3
  }
}
layers {
  bottom: "deconv0"
  bottom: "target_ims"
  name: "loss"
  type: EUCLIDEAN_LOSS
}
I0813 05:57:11.726490   768 net.cpp:65] Creating Layer source_ims
I0813 05:57:11.726495   768 net.cpp:189] source_ims -> source_ims
I0813 05:57:11.726565   768 data_layer.cpp:223] Opening lmdb /scr/r6/tgebru/inverting_conv/caffe_invert_alexnet/data/siggraph/tiny_winter_val_lmdb
I0813 05:57:11.726752   768 data_layer.cpp:285] output data size: 2,3,227,227
I0813 05:57:11.726755   768 data_layer.cpp:304] Loading mean file from/scr/r6/tgebru/timnit_caffe/data/ilsvrc12/imagenet_mean.binaryproto
I0813 05:57:11.729089   768 net.cpp:84] Top shape: 2 3 227 227 (309174)
I0813 05:57:11.729095   768 net.cpp:116] source_ims does not need backward computation.
I0813 05:57:11.729101   768 net.cpp:65] Creating Layer target_ims
I0813 05:57:11.729105   768 net.cpp:189] target_ims -> target_ims
I0813 05:57:11.729156   768 data_layer.cpp:223] Opening lmdb /scr/r6/tgebru/inverting_conv/caffe_invert_alexnet/data/siggraph/tiny_summer_val_lmdb
I0813 05:57:11.729367   768 data_layer.cpp:285] output data size: 2,3,216,216
I0813 05:57:11.729372   768 data_layer.cpp:304] Loading mean file from/scr/r6/tgebru/timnit_caffe/data/ilsvrc12/imagenet_mean.binaryproto
I0813 05:57:11.731587   768 net.cpp:84] Top shape: 2 3 216 216 (279936)
I0813 05:57:11.731606   768 net.cpp:116] target_ims does not need backward computation.
I0813 05:57:11.731614   768 net.cpp:65] Creating Layer conv1
I0813 05:57:11.731617   768 net.cpp:228] conv1 <- source_ims
I0813 05:57:11.731623   768 net.cpp:189] conv1 -> conv1
I0813 05:57:11.732866   768 net.cpp:84] Top shape: 2 96 55 55 (580800)
I0813 05:57:11.732868   768 net.cpp:116] conv1 does not need backward computation.
I0813 05:57:11.732872   768 net.cpp:65] Creating Layer relu1
I0813 05:57:11.732875   768 net.cpp:228] relu1 <- conv1
I0813 05:57:11.732880   768 net.cpp:179] relu1 -> conv1 (in-place)
I0813 05:57:11.732885   768 net.cpp:84] Top shape: 2 96 55 55 (580800)
I0813 05:57:11.732887   768 net.cpp:116] relu1 does not need backward computation.
I0813 05:57:11.732892   768 net.cpp:65] Creating Layer pool1
I0813 05:57:11.732894   768 net.cpp:228] pool1 <- conv1
I0813 05:57:11.732898   768 net.cpp:189] pool1 -> pool1
I0813 05:57:11.732904   768 net.cpp:84] Top shape: 2 96 27 27 (139968)
I0813 05:57:11.732908   768 net.cpp:116] pool1 does not need backward computation.
I0813 05:57:11.732911   768 net.cpp:65] Creating Layer norm1
I0813 05:57:11.732914   768 net.cpp:228] norm1 <- pool1
I0813 05:57:11.732918   768 net.cpp:189] norm1 -> norm1
I0813 05:57:11.732923   768 net.cpp:84] Top shape: 2 96 27 27 (139968)
I0813 05:57:11.732926   768 net.cpp:116] norm1 does not need backward computation.
I0813 05:57:11.732930   768 net.cpp:65] Creating Layer Rconv6
I0813 05:57:11.732933   768 net.cpp:228] Rconv6 <- norm1
I0813 05:57:11.732938   768 net.cpp:189] Rconv6 -> Rconv6
I0813 05:57:11.733535   768 net.cpp:84] Top shape: 2 256 27 27 (373248)
I0813 05:57:11.733539   768 net.cpp:116] Rconv6 does not need backward computation.
I0813 05:57:11.733543   768 net.cpp:65] Creating Layer Rrelu6
I0813 05:57:11.733546   768 net.cpp:228] Rrelu6 <- Rconv6
I0813 05:57:11.733551   768 net.cpp:179] Rrelu6 -> Rconv6 (in-place)
I0813 05:57:11.733556   768 net.cpp:84] Top shape: 2 256 27 27 (373248)
I0813 05:57:11.733558   768 net.cpp:116] Rrelu6 does not need backward computation.
I0813 05:57:11.733563   768 net.cpp:65] Creating Layer Rconv7
I0813 05:57:11.733566   768 net.cpp:228] Rconv7 <- Rconv6
I0813 05:57:11.733569   768 net.cpp:189] Rconv7 -> Rconv7
I0813 05:57:11.734299   768 net.cpp:84] Top shape: 2 256 27 27 (373248)
I0813 05:57:11.734303   768 net.cpp:116] Rconv7 does not need backward computation.
I0813 05:57:11.734308   768 net.cpp:65] Creating Layer Rrelu7
I0813 05:57:11.734310   768 net.cpp:228] Rrelu7 <- Rconv7
I0813 05:57:11.734313   768 net.cpp:179] Rrelu7 -> Rconv7 (in-place)
I0813 05:57:11.734318   768 net.cpp:84] Top shape: 2 256 27 27 (373248)
I0813 05:57:11.734320   768 net.cpp:116] Rrelu7 does not need backward computation.
I0813 05:57:11.734324   768 net.cpp:65] Creating Layer Rconv8
I0813 05:57:11.734326   768 net.cpp:228] Rconv8 <- Rconv7
I0813 05:57:11.734330   768 net.cpp:189] Rconv8 -> Rconv8
I0813 05:57:11.735064   768 net.cpp:84] Top shape: 2 256 27 27 (373248)
I0813 05:57:11.735067   768 net.cpp:116] Rconv8 does not need backward computation.
I0813 05:57:11.735071   768 net.cpp:65] Creating Layer Rrelu8
I0813 05:57:11.735074   768 net.cpp:228] Rrelu8 <- Rconv8
I0813 05:57:11.735077   768 net.cpp:179] Rrelu8 -> Rconv8 (in-place)
I0813 05:57:11.735081   768 net.cpp:84] Top shape: 2 256 27 27 (373248)
I0813 05:57:11.735085   768 net.cpp:116] Rrelu8 does not need backward computation.
I0813 05:57:11.735088   768 net.cpp:65] Creating Layer deconv2
I0813 05:57:11.735091   768 net.cpp:228] deconv2 <- Rconv8
I0813 05:57:11.735095   768 net.cpp:189] deconv2 -> deconv2
I0813 05:57:11.736102   768 net.cpp:84] Top shape: 2 64 54 54 (373248)
I0813 05:57:11.736107   768 net.cpp:116] deconv2 does not need backward computation.
I0813 05:57:11.736111   768 net.cpp:65] Creating Layer relu_deconv2
I0813 05:57:11.736114   768 net.cpp:228] relu_deconv2 <- deconv2
I0813 05:57:11.736119   768 net.cpp:179] relu_deconv2 -> deconv2 (in-place)
I0813 05:57:11.736124   768 net.cpp:84] Top shape: 2 64 54 54 (373248)
I0813 05:57:11.736125   768 net.cpp:116] relu_deconv2 does not need backward computation.
I0813 05:57:11.736141   768 net.cpp:65] Creating Layer deconv1
I0813 05:57:11.736145   768 net.cpp:228] deconv1 <- deconv2
I0813 05:57:11.736150   768 net.cpp:189] deconv1 -> deconv1
I0813 05:57:11.736284   768 net.cpp:84] Top shape: 2 32 108 108 (746496)
I0813 05:57:11.736289   768 net.cpp:116] deconv1 does not need backward computation.
I0813 05:57:11.736292   768 net.cpp:65] Creating Layer relu_deconv1
I0813 05:57:11.736295   768 net.cpp:228] relu_deconv1 <- deconv1
I0813 05:57:11.736299   768 net.cpp:179] relu_deconv1 -> deconv1 (in-place)
I0813 05:57:11.736304   768 net.cpp:84] Top shape: 2 32 108 108 (746496)
I0813 05:57:11.736306   768 net.cpp:116] relu_deconv1 does not need backward computation.
I0813 05:57:11.736311   768 net.cpp:65] Creating Layer deconv0
I0813 05:57:11.736313   768 net.cpp:228] deconv0 <- deconv1
I0813 05:57:11.736317   768 net.cpp:189] deconv0 -> deconv0
I0813 05:57:11.736335   768 net.cpp:84] Top shape: 2 3 216 216 (279936)
I0813 05:57:11.736338   768 net.cpp:116] deconv0 does not need backward computation.
I0813 05:57:11.736341   768 net.cpp:65] Creating Layer loss
I0813 05:57:11.736345   768 net.cpp:228] loss <- deconv0
I0813 05:57:11.736347   768 net.cpp:228] loss <- target_ims
I0813 05:57:11.736352   768 net.cpp:116] loss does not need backward computation.
I0813 05:57:11.736363   768 net.cpp:238] Collecting Learning Rate and Weight Decay.
…
