…
    source: "/scr/r6/tgebru/inverting_conv/caffe_invert_alexnet/data/siggraph/tiny_winter_train_lmdb"
    mean_file: "/scr/r6/tgebru/timnit_caffe/data/ilsvrc12/imagenet_mean.binaryproto"
    batch_size: 12
    crop_size: 227
    mirror: false
    backend: LMDB
  }
}
layers {
  top: "target_ims"
  name: "target_ims"
  type: DATA
  data_param {
    source: "/scr/r6/tgebru/inverting_conv/caffe_invert_alexnet/data/siggraph/tiny_summer_train_lmdb"
    mean_file: "/scr/r6/tgebru/timnit_caffe/data/ilsvrc12/imagenet_mean.binaryproto"
    batch_size: 12
    crop_size: 216
    mirror: false
    backend: LMDB
  }
}
layers {
  bottom: "source_ims"
  top: "conv1"
  name: "conv1"
  type: CONVOLUTION
  blobs_lr: 0
  blobs_lr: 0
  weight_decay: 1
  weight_decay: 0
  convolution_param {
    num_output: 96
    kernel_size: 11
    stride: 4
    weight_filler {
      type: "gaussian"
      std: 0.01
    }
    bias_filler {
      type: "constant"
      value: 0
    }
  }
}
layers {
  bottom: "conv1"
  top: "conv1"
  name: "relu1"
  type: RELU
}
layers {
  bottom: "conv1"
  top: "pool1"
  name: "pool1"
  type: POOLING
  pooling_param {
    pool: MAX
    kernel_size: 3
    stride: 2
  }
}
layers {
  bottom: "pool1"
  top: "norm1"
  name: "norm1"
  type: LRN
  lrn_param {
    local_size: 5
    alpha: 0.0001
    beta: 0.75
  }
}
layers {
  bottom: "norm1"
  top: "Rconv6"
  name: "Rconv6"
  type: CONVOLUTION
  blobs_lr: 1
  blobs_lr: 2
  weight_decay: 1
  weight_decay: 0
  convolution_param {
    num_output: 256
    pad: 1
    kernel_size: 3
  }
}
layers {
  bottom: "Rconv6"
  top: "Rconv6"
  name: "Rrelu6"
  type: RELU
}
layers {
  bottom: "Rconv6"
  top: "Rconv7"
  name: "Rconv7"
  type: CONVOLUTION
  blobs_lr: 1
  blobs_lr: 2
  weight_decay: 1
  weight_decay: 0
  convolution_param {
    num_output: 256
    pad: 1
    kernel_size: 3
    group: 2
  }
}
layers {
  bottom: "Rconv7"
  top: "Rconv7"
  name: "Rrelu7"
  type: RELU
}
layers {
  bottom: "Rconv7"
  top: "Rconv8"
  name: "Rconv8"
  type: CONVOLUTION
  blobs_lr: 1
  blobs_lr: 2
  weight_decay: 1
  weight_decay: 0
  convolution_param {
    num_output: 256
    pad: 1
    kernel_size: 3
    group: 2
  }
}
layers {
  bottom: "Rconv8"
  top: "Rconv8"
  name: "Rrelu8"
  type: RELU
}
layers {
  bottom: "Rconv8"
  top: "deconv2"
  name: "deconv2"
  type: DECONVOLUTION
  blobs_lr: 1
  blobs_lr: 2
  weight_decay: 1
  weight_decay: 0
  deconvolution_param {
    pad: 2
    kernel_size: 5
    stride: 2
    output_height: 54
    output_width: 54
    output_channels: 64
  }
}
layers {
  bottom: "deconv2"
  top: "deconv2"
  name: "relu_deconv2"
  type: RELU
  relu_param {
    negative_slope: 0.3
  }
}
layers {
  bottom: "deconv2"
  top: "deconv1"
  name: "deconv1"
  type: DECONVOLUTION
  blobs_lr: 1
  blobs_lr: 2
  weight_decay: 1
  weight_decay: 0
  deconvolution_param {
    pad: 2
    kernel_size: 5
    stride: 2
    output_height: 108
    output_width: 108
    output_channels: 32
  }
}
layers {
  bottom: "deconv1"
  top: "deconv1"
  name: "relu_deconv1"
  type: RELU
  relu_param {
    negative_slope: 0.3
  }
}
layers {
  bottom: "deconv1"
  top: "deconv0"
  name: "deconv0"
  type: DECONVOLUTION
  blobs_lr: 1
  blobs_lr: 2
  weight_decay: 1
  weight_decay: 1
  deconvolution_param {
    pad: 2
    kernel_size: 5
    stride: 2
    output_height: 216
    output_width: 216
    output_channels: 3
  }
}
layers {
  bottom: "deconv0"
  bottom: "target_ims"
  name: "loss"
  type: EUCLIDEAN_LOSS
}
I0813 08:54:05.505343 29463 net.cpp:65] Creating Layer source_ims
I0813 08:54:05.505352 29463 net.cpp:189] source_ims -> source_ims
I0813 08:54:05.505471 29463 data_layer.cpp:223] Opening lmdb /scr/r6/tgebru/inverting_conv/caffe_invert_alexnet/data/siggraph/tiny_winter_train_lmdb
I0813 08:54:05.505674 29463 data_layer.cpp:285] output data size: 12,3,227,227
I0813 08:54:05.505681 29463 data_layer.cpp:304] Loading mean file from/scr/r6/tgebru/timnit_caffe/data/ilsvrc12/imagenet_mean.binaryproto
I0813 08:54:05.510186 29463 net.cpp:84] Top shape: 12 3 227 227 (1855044)
I0813 08:54:05.510195 29463 net.cpp:116] source_ims does not need backward computation.
I0813 08:54:05.510201 29463 net.cpp:65] Creating Layer target_ims
I0813 08:54:05.510205 29463 net.cpp:189] target_ims -> target_ims
I0813 08:54:05.510359 29463 data_layer.cpp:223] Opening lmdb /scr/r6/tgebru/inverting_conv/caffe_invert_alexnet/data/siggraph/tiny_summer_train_lmdb
I0813 08:54:05.510496 29463 data_layer.cpp:285] output data size: 12,3,216,216
I0813 08:54:05.510501 29463 data_layer.cpp:304] Loading mean file from/scr/r6/tgebru/timnit_caffe/data/ilsvrc12/imagenet_mean.binaryproto
I0813 08:54:05.514936 29463 net.cpp:84] Top shape: 12 3 216 216 (1679616)
I0813 08:54:05.514945 29463 net.cpp:116] target_ims does not need backward computation.
I0813 08:54:05.514956 29463 net.cpp:65] Creating Layer conv1
I0813 08:54:05.514966 29463 net.cpp:228] conv1 <- source_ims
I0813 08:54:05.515036 29463 net.cpp:189] conv1 -> conv1
I0813 08:54:05.516326 29463 net.cpp:84] Top shape: 12 96 55 55 (3484800)
I0813 08:54:05.516331 29463 net.cpp:116] conv1 does not need backward computation.
I0813 08:54:05.516336 29463 net.cpp:65] Creating Layer relu1
I0813 08:54:05.516340 29463 net.cpp:228] relu1 <- conv1
I0813 08:54:05.516345 29463 net.cpp:179] relu1 -> conv1 (in-place)
I0813 08:54:05.516353 29463 net.cpp:84] Top shape: 12 96 55 55 (3484800)
I0813 08:54:05.516356 29463 net.cpp:116] relu1 does not need backward computation.
I0813 08:54:05.516361 29463 net.cpp:65] Creating Layer pool1
I0813 08:54:05.516365 29463 net.cpp:228] pool1 <- conv1
I0813 08:54:05.516367 29463 net.cpp:189] pool1 -> pool1
I0813 08:54:05.516381 29463 net.cpp:84] Top shape: 12 96 27 27 (839808)
I0813 08:54:05.516383 29463 net.cpp:116] pool1 does not need backward computation.
I0813 08:54:05.516388 29463 net.cpp:65] Creating Layer norm1
I0813 08:54:05.516391 29463 net.cpp:228] norm1 <- pool1
I0813 08:54:05.516394 29463 net.cpp:189] norm1 -> norm1
I0813 08:54:05.516403 29463 net.cpp:84] Top shape: 12 96 27 27 (839808)
I0813 08:54:05.516407 29463 net.cpp:116] norm1 does not need backward computation.
I0813 08:54:05.516410 29463 net.cpp:65] Creating Layer Rconv6
I0813 08:54:05.516413 29463 net.cpp:228] Rconv6 <- norm1
I0813 08:54:05.516417 29463 net.cpp:189] Rconv6 -> Rconv6
I0813 08:54:05.516690 29463 net.cpp:84] Top shape: 12 256 27 27 (2239488)
I0813 08:54:05.516695 29463 net.cpp:111] Rconv6 needs backward computation.
I0813 08:54:05.516700 29463 net.cpp:65] Creating Layer Rrelu6
I0813 08:54:05.516702 29463 net.cpp:228] Rrelu6 <- Rconv6
I0813 08:54:05.516706 29463 net.cpp:179] Rrelu6 -> Rconv6 (in-place)
I0813 08:54:05.516710 29463 net.cpp:84] Top shape: 12 256 27 27 (2239488)
I0813 08:54:05.516713 29463 net.cpp:111] Rrelu6 needs backward computation.
I0813 08:54:05.516718 29463 net.cpp:65] Creating Layer Rconv7
I0813 08:54:05.516721 29463 net.cpp:228] Rconv7 <- Rconv6
I0813 08:54:05.516726 29463 net.cpp:189] Rconv7 -> Rconv7
I0813 08:54:05.517524 29463 net.cpp:84] Top shape: 12 256 27 27 (2239488)
I0813 08:54:05.517529 29463 net.cpp:111] Rconv7 needs backward computation.
I0813 08:54:05.517534 29463 net.cpp:65] Creating Layer Rrelu7
I0813 08:54:05.517554 29463 net.cpp:228] Rrelu7 <- Rconv7
I0813 08:54:05.517560 29463 net.cpp:179] Rrelu7 -> Rconv7 (in-place)
I0813 08:54:05.517563 29463 net.cpp:84] Top shape: 12 256 27 27 (2239488)
I0813 08:54:05.517566 29463 net.cpp:111] Rrelu7 needs backward computation.
I0813 08:54:05.517570 29463 net.cpp:65] Creating Layer Rconv8
I0813 08:54:05.517573 29463 net.cpp:228] Rconv8 <- Rconv7
I0813 08:54:05.517576 29463 net.cpp:189] Rconv8 -> Rconv8
I0813 08:54:05.518362 29463 net.cpp:84] Top shape: 12 256 27 27 (2239488)
I0813 08:54:05.518367 29463 net.cpp:111] Rconv8 needs backward computation.
I0813 08:54:05.518369 29463 net.cpp:65] Creating Layer Rrelu8
I0813 08:54:05.518373 29463 net.cpp:228] Rrelu8 <- Rconv8
I0813 08:54:05.518376 29463 net.cpp:179] Rrelu8 -> Rconv8 (in-place)
I0813 08:54:05.518380 29463 net.cpp:84] Top shape: 12 256 27 27 (2239488)
I0813 08:54:05.518383 29463 net.cpp:111] Rrelu8 needs backward computation.
I0813 08:54:05.518388 29463 net.cpp:65] Creating Layer deconv2
I0813 08:54:05.518389 29463 net.cpp:228] deconv2 <- Rconv8
I0813 08:54:05.518393 29463 net.cpp:189] deconv2 -> deconv2
I0813 08:54:05.519413 29463 net.cpp:84] Top shape: 12 64 54 54 (2239488)
I0813 08:54:05.519418 29463 net.cpp:111] deconv2 needs backward computation.
I0813 08:54:05.519423 29463 net.cpp:65] Creating Layer relu_deconv2
I0813 08:54:05.519425 29463 net.cpp:228] relu_deconv2 <- deconv2
I0813 08:54:05.519429 29463 net.cpp:179] relu_deconv2 -> deconv2 (in-place)
I0813 08:54:05.519434 29463 net.cpp:84] Top shape: 12 64 54 54 (2239488)
I0813 08:54:05.519438 29463 net.cpp:111] relu_deconv2 needs backward computation.
I0813 08:54:05.519440 29463 net.cpp:65] Creating Layer deconv1
I0813 08:54:05.519443 29463 net.cpp:228] deconv1 <- deconv2
I0813 08:54:05.519448 29463 net.cpp:189] deconv1 -> deconv1
I0813 08:54:05.519598 29463 net.cpp:84] Top shape: 12 32 108 108 (4478976)
I0813 08:54:05.519603 29463 net.cpp:111] deconv1 needs backward computation.
I0813 08:54:05.519606 29463 net.cpp:65] Creating Layer relu_deconv1
I0813 08:54:05.519609 29463 net.cpp:228] relu_deconv1 <- deconv1
I0813 08:54:05.519613 29463 net.cpp:179] relu_deconv1 -> deconv1 (in-place)
I0813 08:54:05.519618 29463 net.cpp:84] Top shape: 12 32 108 108 (4478976)
I0813 08:54:05.519620 29463 net.cpp:111] relu_deconv1 needs backward computation.
I0813 08:54:05.519626 29463 net.cpp:65] Creating Layer deconv0
I0813 08:54:05.519629 29463 net.cpp:228] deconv0 <- deconv1
I0813 08:54:05.519634 29463 net.cpp:189] deconv0 -> deconv0
I0813 08:54:05.519656 29463 net.cpp:84] Top shape: 12 3 216 216 (1679616)
I0813 08:54:05.519659 29463 net.cpp:111] deconv0 needs backward computation.
I0813 08:54:05.519664 29463 net.cpp:65] Creating Layer loss
I0813 08:54:05.519665 29463 net.cpp:228] loss <- deconv0
I0813 08:54:05.519668 29463 net.cpp:228] loss <- target_ims
I0813 08:54:05.519677 29463 net.cpp:111] loss needs backward computation.
I0813 08:54:05.519691 29463 net.cpp:238] Collecting Learning Rate and Weight Decay.
…
    source: "/scr/r6/tgebru/inverting_conv/caffe_invert_alexnet/data/siggraph/tiny_winter_val_lmdb"
    mean_file: "/scr/r6/tgebru/timnit_caffe/data/ilsvrc12/imagenet_mean.binaryproto"
    batch_size: 2
    crop_size: 227
    mirror: false
    backend: LMDB
  }
}
layers {
  top: "target_ims"
  name: "target_ims"
  type: DATA
  data_param {
    source: "/scr/r6/tgebru/inverting_conv/caffe_invert_alexnet/data/siggraph/tiny_summer_val_lmdb"
    mean_file: "/scr/r6/tgebru/timnit_caffe/data/ilsvrc12/imagenet_mean.binaryproto"
    batch_size: 2
    crop_size: 216
    mirror: false
    backend: LMDB
  }
}
layers {
  bottom: "source_ims"
  top: "conv1"
  name: "conv1"
  type: CONVOLUTION
  blobs_lr: 0
  blobs_lr: 0
  weight_decay: 1
  weight_decay: 0
  convolution_param {
    num_output: 96
    kernel_size: 11
    stride: 4
    weight_filler {
      type: "gaussian"
      std: 0.01
    }
    bias_filler {
      type: "constant"
      value: 0
    }
  }
}
layers {
  bottom: "conv1"
  top: "conv1"
  name: "relu1"
  type: RELU
}
layers {
  bottom: "conv1"
  top: "pool1"
  name: "pool1"
  type: POOLING
  pooling_param {
    pool: MAX
    kernel_size: 3
    stride: 2
  }
}
layers {
  bottom: "pool1"
  top: "norm1"
  name: "norm1"
  type: LRN
  lrn_param {
    local_size: 5
    alpha: 0.0001
    beta: 0.75
  }
}
layers {
  bottom: "norm1"
  top: "Rconv6"
  name: "Rconv6"
  type: CONVOLUTION
  blobs_lr: 0
  blobs_lr: 0
  weight_decay: 1
  weight_decay: 0
  convolution_param {
    num_output: 256
    pad: 1
    kernel_size: 3
  }
}
layers {
  bottom: "Rconv6"
  top: "Rconv6"
  name: "Rrelu6"
  type: RELU
}
layers {
  bottom: "Rconv6"
  top: "Rconv7"
  name: "Rconv7"
  type: CONVOLUTION
  blobs_lr: 0
  blobs_lr: 0
  weight_decay: 1
  weight_decay: 0
  convolution_param {
    num_output: 256
    pad: 1
    kernel_size: 3
    group: 2
  }
}
layers {
  bottom: "Rconv7"
  top: "Rconv7"
  name: "Rrelu7"
  type: RELU
}
layers {
  bottom: "Rconv7"
  top: "Rconv8"
  name: "Rconv8"
  type: CONVOLUTION
  blobs_lr: 0
  blobs_lr: 0
  weight_decay: 1
  weight_decay: 0
  convolution_param {
    num_output: 256
    pad: 1
    kernel_size: 3
    group: 2
  }
}
layers {
  bottom: "Rconv8"
  top: "Rconv8"
  name: "Rrelu8"
  type: RELU
}
layers {
  bottom: "Rconv8"
  top: "deconv2"
  name: "deconv2"
  type: DECONVOLUTION
  blobs_lr: 0
  blobs_lr: 0
  weight_decay: 1
  weight_decay: 0
  deconvolution_param {
    pad: 2
    kernel_size: 5
    stride: 2
    output_height: 54
    output_width: 54
    output_channels: 64
  }
}
layers {
  bottom: "deconv2"
  top: "deconv2"
  name: "relu_deconv2"
  type: RELU
  relu_param {
    negative_slope: 0.3
  }
}
layers {
  bottom: "deconv2"
  top: "deconv1"
  name: "deconv1"
  type: DECONVOLUTION
  blobs_lr: 0
  blobs_lr: 0
  weight_decay: 1
  weight_decay: 0
  deconvolution_param {
    pad: 2
    kernel_size: 5
    stride: 2
    output_height: 108
    output_width: 108
    output_channels: 32
  }
}
layers {
  bottom: "deconv1"
  top: "deconv1"
  name: "relu_deconv1"
  type: RELU
  relu_param {
    negative_slope: 0.3
  }
}
layers {
  bottom: "deconv1"
  top: "deconv0"
  name: "deconv0"
  type: DECONVOLUTION
  blobs_lr: 0
  blobs_lr: 0
  weight_decay: 1
  weight_decay: 0
  deconvolution_param {
    pad: 2
    kernel_size: 5
    stride: 2
    output_height: 216
    output_width: 216
    output_channels: 3
  }
}
layers {
  bottom: "deconv0"
  bottom: "target_ims"
  name: "loss"
  type: EUCLIDEAN_LOSS
}
I0813 08:54:05.520424 29463 net.cpp:65] Creating Layer source_ims
I0813 08:54:05.520431 29463 net.cpp:189] source_ims -> source_ims
I0813 08:54:05.520485 29463 data_layer.cpp:223] Opening lmdb /scr/r6/tgebru/inverting_conv/caffe_invert_alexnet/data/siggraph/tiny_winter_val_lmdb
I0813 08:54:05.520684 29463 data_layer.cpp:285] output data size: 2,3,227,227
I0813 08:54:05.520689 29463 data_layer.cpp:304] Loading mean file from/scr/r6/tgebru/timnit_caffe/data/ilsvrc12/imagenet_mean.binaryproto
I0813 08:54:05.522955 29463 net.cpp:84] Top shape: 2 3 227 227 (309174)
I0813 08:54:05.522963 29463 net.cpp:116] source_ims does not need backward computation.
I0813 08:54:05.522969 29463 net.cpp:65] Creating Layer target_ims
I0813 08:54:05.522972 29463 net.cpp:189] target_ims -> target_ims
I0813 08:54:05.523022 29463 data_layer.cpp:223] Opening lmdb /scr/r6/tgebru/inverting_conv/caffe_invert_alexnet/data/siggraph/tiny_summer_val_lmdb
I0813 08:54:05.523118 29463 data_layer.cpp:285] output data size: 2,3,216,216
I0813 08:54:05.523123 29463 data_layer.cpp:304] Loading mean file from/scr/r6/tgebru/timnit_caffe/data/ilsvrc12/imagenet_mean.binaryproto
I0813 08:54:05.525264 29463 net.cpp:84] Top shape: 2 3 216 216 (279936)
I0813 08:54:05.525281 29463 net.cpp:116] target_ims does not need backward computation.
I0813 08:54:05.525290 29463 net.cpp:65] Creating Layer conv1
I0813 08:54:05.525292 29463 net.cpp:228] conv1 <- source_ims
I0813 08:54:05.525298 29463 net.cpp:189] conv1 -> conv1
I0813 08:54:05.526547 29463 net.cpp:84] Top shape: 2 96 55 55 (580800)
I0813 08:54:05.526552 29463 net.cpp:116] conv1 does not need backward computation.
I0813 08:54:05.526556 29463 net.cpp:65] Creating Layer relu1
I0813 08:54:05.526559 29463 net.cpp:228] relu1 <- conv1
I0813 08:54:05.526564 29463 net.cpp:179] relu1 -> conv1 (in-place)
I0813 08:54:05.526569 29463 net.cpp:84] Top shape: 2 96 55 55 (580800)
I0813 08:54:05.526572 29463 net.cpp:116] relu1 does not need backward computation.
I0813 08:54:05.526577 29463 net.cpp:65] Creating Layer pool1
I0813 08:54:05.526579 29463 net.cpp:228] pool1 <- conv1
I0813 08:54:05.526583 29463 net.cpp:189] pool1 -> pool1
I0813 08:54:05.526590 29463 net.cpp:84] Top shape: 2 96 27 27 (139968)
I0813 08:54:05.526592 29463 net.cpp:116] pool1 does not need backward computation.
I0813 08:54:05.526597 29463 net.cpp:65] Creating Layer norm1
I0813 08:54:05.526599 29463 net.cpp:228] norm1 <- pool1
I0813 08:54:05.526603 29463 net.cpp:189] norm1 -> norm1
I0813 08:54:05.526609 29463 net.cpp:84] Top shape: 2 96 27 27 (139968)
I0813 08:54:05.526612 29463 net.cpp:116] norm1 does not need backward computation.
I0813 08:54:05.526615 29463 net.cpp:65] Creating Layer Rconv6
I0813 08:54:05.526618 29463 net.cpp:228] Rconv6 <- norm1
I0813 08:54:05.526623 29463 net.cpp:189] Rconv6 -> Rconv6
I0813 08:54:05.527199 29463 net.cpp:84] Top shape: 2 256 27 27 (373248)
I0813 08:54:05.527204 29463 net.cpp:116] Rconv6 does not need backward computation.
I0813 08:54:05.527206 29463 net.cpp:65] Creating Layer Rrelu6
I0813 08:54:05.527209 29463 net.cpp:228] Rrelu6 <- Rconv6
I0813 08:54:05.527214 29463 net.cpp:179] Rrelu6 -> Rconv6 (in-place)
I0813 08:54:05.527218 29463 net.cpp:84] Top shape: 2 256 27 27 (373248)
I0813 08:54:05.527221 29463 net.cpp:116] Rrelu6 does not need backward computation.
I0813 08:54:05.527226 29463 net.cpp:65] Creating Layer Rconv7
I0813 08:54:05.527228 29463 net.cpp:228] Rconv7 <- Rconv6
I0813 08:54:05.527232 29463 net.cpp:189] Rconv7 -> Rconv7
I0813 08:54:05.527943 29463 net.cpp:84] Top shape: 2 256 27 27 (373248)
I0813 08:54:05.527947 29463 net.cpp:116] Rconv7 does not need backward computation.
I0813 08:54:05.527951 29463 net.cpp:65] Creating Layer Rrelu7
I0813 08:54:05.527954 29463 net.cpp:228] Rrelu7 <- Rconv7
I0813 08:54:05.527958 29463 net.cpp:179] Rrelu7 -> Rconv7 (in-place)
I0813 08:54:05.527962 29463 net.cpp:84] Top shape: 2 256 27 27 (373248)
I0813 08:54:05.527966 29463 net.cpp:116] Rrelu7 does not need backward computation.
I0813 08:54:05.527968 29463 net.cpp:65] Creating Layer Rconv8
I0813 08:54:05.527971 29463 net.cpp:228] Rconv8 <- Rconv7
I0813 08:54:05.527976 29463 net.cpp:189] Rconv8 -> Rconv8
I0813 08:54:05.528688 29463 net.cpp:84] Top shape: 2 256 27 27 (373248)
I0813 08:54:05.528692 29463 net.cpp:116] Rconv8 does not need backward computation.
I0813 08:54:05.528697 29463 net.cpp:65] Creating Layer Rrelu8
I0813 08:54:05.528699 29463 net.cpp:228] Rrelu8 <- Rconv8
I0813 08:54:05.528702 29463 net.cpp:179] Rrelu8 -> Rconv8 (in-place)
I0813 08:54:05.528707 29463 net.cpp:84] Top shape: 2 256 27 27 (373248)
I0813 08:54:05.528709 29463 net.cpp:116] Rrelu8 does not need backward computation.
I0813 08:54:05.528713 29463 net.cpp:65] Creating Layer deconv2
I0813 08:54:05.528715 29463 net.cpp:228] deconv2 <- Rconv8
I0813 08:54:05.528719 29463 net.cpp:189] deconv2 -> deconv2
I0813 08:54:05.529706 29463 net.cpp:84] Top shape: 2 64 54 54 (373248)
I0813 08:54:05.529711 29463 net.cpp:116] deconv2 does not need backward computation.
I0813 08:54:05.529714 29463 net.cpp:65] Creating Layer relu_deconv2
I0813 08:54:05.529717 29463 net.cpp:228] relu_deconv2 <- deconv2
I0813 08:54:05.529721 29463 net.cpp:179] relu_deconv2 -> deconv2 (in-place)
I0813 08:54:05.529726 29463 net.cpp:84] Top shape: 2 64 54 54 (373248)
I0813 08:54:05.529728 29463 net.cpp:116] relu_deconv2 does not need backward computation.
I0813 08:54:05.529744 29463 net.cpp:65] Creating Layer deconv1
I0813 08:54:05.529747 29463 net.cpp:228] deconv1 <- deconv2
I0813 08:54:05.529752 29463 net.cpp:189] deconv1 -> deconv1
I0813 08:54:05.529882 29463 net.cpp:84] Top shape: 2 32 108 108 (746496)
I0813 08:54:05.529886 29463 net.cpp:116] deconv1 does not need backward computation.
I0813 08:54:05.529889 29463 net.cpp:65] Creating Layer relu_deconv1
I0813 08:54:05.529892 29463 net.cpp:228] relu_deconv1 <- deconv1
I0813 08:54:05.529896 29463 net.cpp:179] relu_deconv1 -> deconv1 (in-place)
I0813 08:54:05.529901 29463 net.cpp:84] Top shape: 2 32 108 108 (746496)
I0813 08:54:05.529903 29463 net.cpp:116] relu_deconv1 does not need backward computation.
I0813 08:54:05.529909 29463 net.cpp:65] Creating Layer deconv0
I0813 08:54:05.529911 29463 net.cpp:228] deconv0 <- deconv1
I0813 08:54:05.529916 29463 net.cpp:189] deconv0 -> deconv0
I0813 08:54:05.529934 29463 net.cpp:84] Top shape: 2 3 216 216 (279936)
I0813 08:54:05.529937 29463 net.cpp:116] deconv0 does not need backward computation.
I0813 08:54:05.529942 29463 net.cpp:65] Creating Layer loss
I0813 08:54:05.529943 29463 net.cpp:228] loss <- deconv0
I0813 08:54:05.529947 29463 net.cpp:228] loss <- target_ims
I0813 08:54:05.529952 29463 net.cpp:116] loss does not need backward computation.
I0813 08:54:05.529963 29463 net.cpp:238] Collecting Learning Rate and Weight Decay.
…
