…
    source: "/scr/r6/tgebru/inverting_conv/caffe_invert_alexnet/data/siggraph/tiny_winter_train_lmdb"
    mean_file: "/scr/r6/tgebru/timnit_caffe/data/ilsvrc12/imagenet_mean.binaryproto"
    batch_size: 12
    crop_size: 227
    mirror: false
    backend: LMDB
  }
}
layers {
  top: "target_ims"
  name: "target_ims"
  type: DATA
  data_param {
    source: "/scr/r6/tgebru/inverting_conv/caffe_invert_alexnet/data/siggraph/tiny_summer_train_lmdb"
    mean_file: "/scr/r6/tgebru/timnit_caffe/data/ilsvrc12/imagenet_mean.binaryproto"
    batch_size: 12
    crop_size: 216
    mirror: false
    backend: LMDB
  }
}
layers {
  bottom: "source_ims"
  top: "conv1"
  name: "conv1"
  type: CONVOLUTION
  blobs_lr: 0
  blobs_lr: 0
  weight_decay: 1
  weight_decay: 0
  convolution_param {
    num_output: 96
    kernel_size: 11
    stride: 4
    weight_filler {
      type: "gaussian"
      std: 0.01
    }
    bias_filler {
      type: "constant"
      value: 0
    }
  }
}
layers {
  bottom: "conv1"
  top: "conv1"
  name: "relu1"
  type: RELU
}
layers {
  bottom: "conv1"
  top: "pool1"
  name: "pool1"
  type: POOLING
  pooling_param {
    pool: MAX
    kernel_size: 3
    stride: 2
  }
}
layers {
  bottom: "pool1"
  top: "norm1"
  name: "norm1"
  type: LRN
  lrn_param {
    local_size: 5
    alpha: 0.0001
    beta: 0.75
  }
}
layers {
  bottom: "norm1"
  top: "Rconv6"
  name: "Rconv6"
  type: CONVOLUTION
  blobs_lr: 1
  blobs_lr: 2
  weight_decay: 1
  weight_decay: 0
  convolution_param {
    num_output: 256
    pad: 1
    kernel_size: 3
  }
}
layers {
  bottom: "Rconv6"
  top: "Rconv6"
  name: "Rrelu6"
  type: RELU
}
layers {
  bottom: "Rconv6"
  top: "Rconv7"
  name: "Rconv7"
  type: CONVOLUTION
  blobs_lr: 1
  blobs_lr: 2
  weight_decay: 1
  weight_decay: 0
  convolution_param {
    num_output: 256
    pad: 1
    kernel_size: 3
    group: 2
  }
}
layers {
  bottom: "Rconv7"
  top: "Rconv7"
  name: "Rrelu7"
  type: RELU
}
layers {
  bottom: "Rconv7"
  top: "Rconv8"
  name: "Rconv8"
  type: CONVOLUTION
  blobs_lr: 1
  blobs_lr: 2
  weight_decay: 1
  weight_decay: 0
  convolution_param {
    num_output: 256
    pad: 1
    kernel_size: 3
    group: 2
  }
}
layers {
  bottom: "Rconv8"
  top: "Rconv8"
  name: "Rrelu8"
  type: RELU
}
layers {
  bottom: "Rconv8"
  top: "deconv2"
  name: "deconv2"
  type: DECONVOLUTION
  blobs_lr: 1
  blobs_lr: 2
  weight_decay: 1
  weight_decay: 0
  deconvolution_param {
    pad: 2
    kernel_size: 5
    stride: 2
    output_height: 54
    output_width: 54
    output_channels: 64
  }
}
layers {
  bottom: "deconv2"
  top: "deconv2"
  name: "relu_deconv2"
  type: RELU
  relu_param {
    negative_slope: 0.3
  }
}
layers {
  bottom: "deconv2"
  top: "deconv1"
  name: "deconv1"
  type: DECONVOLUTION
  blobs_lr: 1
  blobs_lr: 2
  weight_decay: 1
  weight_decay: 0
  deconvolution_param {
    pad: 2
    kernel_size: 5
    stride: 2
    output_height: 108
    output_width: 108
    output_channels: 32
  }
}
layers {
  bottom: "deconv1"
  top: "deconv1"
  name: "relu_deconv1"
  type: RELU
  relu_param {
    negative_slope: 0.3
  }
}
layers {
  bottom: "deconv1"
  top: "deconv0"
  name: "deconv0"
  type: DECONVOLUTION
  blobs_lr: 1
  blobs_lr: 2
  weight_decay: 1
  weight_decay: 1
  deconvolution_param {
    pad: 2
    kernel_size: 5
    stride: 2
    output_height: 216
    output_width: 216
    output_channels: 3
  }
}
layers {
  bottom: "deconv0"
  bottom: "target_ims"
  name: "loss"
  type: EUCLIDEAN_LOSS
}
I0813 00:47:53.850522  7003 net.cpp:65] Creating Layer source_ims
I0813 00:47:53.850531  7003 net.cpp:189] source_ims -> source_ims
I0813 00:47:53.850648  7003 data_layer.cpp:223] Opening lmdb /scr/r6/tgebru/inverting_conv/caffe_invert_alexnet/data/siggraph/tiny_winter_train_lmdb
I0813 00:47:53.850849  7003 data_layer.cpp:285] output data size: 12,3,227,227
I0813 00:47:53.850857  7003 data_layer.cpp:304] Loading mean file from/scr/r6/tgebru/timnit_caffe/data/ilsvrc12/imagenet_mean.binaryproto
I0813 00:47:53.855829  7003 net.cpp:84] Top shape: 12 3 227 227 (1855044)
I0813 00:47:53.855839  7003 net.cpp:116] source_ims does not need backward computation.
I0813 00:47:53.855846  7003 net.cpp:65] Creating Layer target_ims
I0813 00:47:53.855851  7003 net.cpp:189] target_ims -> target_ims
I0813 00:47:53.856012  7003 data_layer.cpp:223] Opening lmdb /scr/r6/tgebru/inverting_conv/caffe_invert_alexnet/data/siggraph/tiny_summer_train_lmdb
I0813 00:47:53.856159  7003 data_layer.cpp:285] output data size: 12,3,216,216
I0813 00:47:53.856165  7003 data_layer.cpp:304] Loading mean file from/scr/r6/tgebru/timnit_caffe/data/ilsvrc12/imagenet_mean.binaryproto
I0813 00:47:53.860673  7003 net.cpp:84] Top shape: 12 3 216 216 (1679616)
I0813 00:47:53.860682  7003 net.cpp:116] target_ims does not need backward computation.
I0813 00:47:53.860693  7003 net.cpp:65] Creating Layer conv1
I0813 00:47:53.860697  7003 net.cpp:228] conv1 <- source_ims
I0813 00:47:53.860757  7003 net.cpp:189] conv1 -> conv1
I0813 00:47:53.862064  7003 net.cpp:84] Top shape: 12 96 55 55 (3484800)
I0813 00:47:53.862071  7003 net.cpp:116] conv1 does not need backward computation.
I0813 00:47:53.862077  7003 net.cpp:65] Creating Layer relu1
I0813 00:47:53.862081  7003 net.cpp:228] relu1 <- conv1
I0813 00:47:53.862087  7003 net.cpp:179] relu1 -> conv1 (in-place)
I0813 00:47:53.862097  7003 net.cpp:84] Top shape: 12 96 55 55 (3484800)
I0813 00:47:53.862099  7003 net.cpp:116] relu1 does not need backward computation.
I0813 00:47:53.862107  7003 net.cpp:65] Creating Layer pool1
I0813 00:47:53.862109  7003 net.cpp:228] pool1 <- conv1
I0813 00:47:53.862114  7003 net.cpp:189] pool1 -> pool1
I0813 00:47:53.862128  7003 net.cpp:84] Top shape: 12 96 27 27 (839808)
I0813 00:47:53.862130  7003 net.cpp:116] pool1 does not need backward computation.
I0813 00:47:53.862138  7003 net.cpp:65] Creating Layer norm1
I0813 00:47:53.862140  7003 net.cpp:228] norm1 <- pool1
I0813 00:47:53.862145  7003 net.cpp:189] norm1 -> norm1
I0813 00:47:53.862154  7003 net.cpp:84] Top shape: 12 96 27 27 (839808)
I0813 00:47:53.862157  7003 net.cpp:116] norm1 does not need backward computation.
I0813 00:47:53.862162  7003 net.cpp:65] Creating Layer Rconv6
I0813 00:47:53.862165  7003 net.cpp:228] Rconv6 <- norm1
I0813 00:47:53.862170  7003 net.cpp:189] Rconv6 -> Rconv6
I0813 00:47:53.862345  7003 net.cpp:84] Top shape: 12 256 27 27 (2239488)
I0813 00:47:53.862350  7003 net.cpp:111] Rconv6 needs backward computation.
I0813 00:47:53.862355  7003 net.cpp:65] Creating Layer Rrelu6
I0813 00:47:53.862360  7003 net.cpp:228] Rrelu6 <- Rconv6
I0813 00:47:53.862364  7003 net.cpp:179] Rrelu6 -> Rconv6 (in-place)
I0813 00:47:53.862368  7003 net.cpp:84] Top shape: 12 256 27 27 (2239488)
I0813 00:47:53.862371  7003 net.cpp:111] Rrelu6 needs backward computation.
I0813 00:47:53.862378  7003 net.cpp:65] Creating Layer Rconv7
I0813 00:47:53.862381  7003 net.cpp:228] Rconv7 <- Rconv6
I0813 00:47:53.862385  7003 net.cpp:189] Rconv7 -> Rconv7
I0813 00:47:53.863165  7003 net.cpp:84] Top shape: 12 256 27 27 (2239488)
I0813 00:47:53.863171  7003 net.cpp:111] Rconv7 needs backward computation.
I0813 00:47:53.863175  7003 net.cpp:65] Creating Layer Rrelu7
I0813 00:47:53.863203  7003 net.cpp:228] Rrelu7 <- Rconv7
I0813 00:47:53.863207  7003 net.cpp:179] Rrelu7 -> Rconv7 (in-place)
I0813 00:47:53.863212  7003 net.cpp:84] Top shape: 12 256 27 27 (2239488)
I0813 00:47:53.863215  7003 net.cpp:111] Rrelu7 needs backward computation.
I0813 00:47:53.863220  7003 net.cpp:65] Creating Layer Rconv8
I0813 00:47:53.863224  7003 net.cpp:228] Rconv8 <- Rconv7
I0813 00:47:53.863227  7003 net.cpp:189] Rconv8 -> Rconv8
I0813 00:47:53.864070  7003 net.cpp:84] Top shape: 12 256 27 27 (2239488)
I0813 00:47:53.864076  7003 net.cpp:111] Rconv8 needs backward computation.
I0813 00:47:53.864081  7003 net.cpp:65] Creating Layer Rrelu8
I0813 00:47:53.864084  7003 net.cpp:228] Rrelu8 <- Rconv8
I0813 00:47:53.864089  7003 net.cpp:179] Rrelu8 -> Rconv8 (in-place)
I0813 00:47:53.864094  7003 net.cpp:84] Top shape: 12 256 27 27 (2239488)
I0813 00:47:53.864096  7003 net.cpp:111] Rrelu8 needs backward computation.
I0813 00:47:53.864101  7003 net.cpp:65] Creating Layer deconv2
I0813 00:47:53.864104  7003 net.cpp:228] deconv2 <- Rconv8
I0813 00:47:53.864109  7003 net.cpp:189] deconv2 -> deconv2
I0813 00:47:53.865208  7003 net.cpp:84] Top shape: 12 64 54 54 (2239488)
I0813 00:47:53.865213  7003 net.cpp:111] deconv2 needs backward computation.
I0813 00:47:53.865218  7003 net.cpp:65] Creating Layer relu_deconv2
I0813 00:47:53.865222  7003 net.cpp:228] relu_deconv2 <- deconv2
I0813 00:47:53.865226  7003 net.cpp:179] relu_deconv2 -> deconv2 (in-place)
I0813 00:47:53.865231  7003 net.cpp:84] Top shape: 12 64 54 54 (2239488)
I0813 00:47:53.865234  7003 net.cpp:111] relu_deconv2 needs backward computation.
I0813 00:47:53.865238  7003 net.cpp:65] Creating Layer deconv1
I0813 00:47:53.865242  7003 net.cpp:228] deconv1 <- deconv2
I0813 00:47:53.865247  7003 net.cpp:189] deconv1 -> deconv1
I0813 00:47:53.865393  7003 net.cpp:84] Top shape: 12 32 108 108 (4478976)
I0813 00:47:53.865398  7003 net.cpp:111] deconv1 needs backward computation.
I0813 00:47:53.865403  7003 net.cpp:65] Creating Layer relu_deconv1
I0813 00:47:53.865406  7003 net.cpp:228] relu_deconv1 <- deconv1
I0813 00:47:53.865411  7003 net.cpp:179] relu_deconv1 -> deconv1 (in-place)
I0813 00:47:53.865416  7003 net.cpp:84] Top shape: 12 32 108 108 (4478976)
I0813 00:47:53.865424  7003 net.cpp:111] relu_deconv1 needs backward computation.
I0813 00:47:53.865430  7003 net.cpp:65] Creating Layer deconv0
I0813 00:47:53.865433  7003 net.cpp:228] deconv0 <- deconv1
I0813 00:47:53.865438  7003 net.cpp:189] deconv0 -> deconv0
I0813 00:47:53.865468  7003 net.cpp:84] Top shape: 12 3 216 216 (1679616)
I0813 00:47:53.865471  7003 net.cpp:111] deconv0 needs backward computation.
I0813 00:47:53.865475  7003 net.cpp:65] Creating Layer loss
I0813 00:47:53.865478  7003 net.cpp:228] loss <- deconv0
I0813 00:47:53.865483  7003 net.cpp:228] loss <- target_ims
I0813 00:47:53.865490  7003 net.cpp:111] loss needs backward computation.
I0813 00:47:53.865504  7003 net.cpp:238] Collecting Learning Rate and Weight Decay.
…
    source: "/scr/r6/tgebru/inverting_conv/caffe_invert_alexnet/data/siggraph/tiny_winter_val_lmdb"
    mean_file: "/scr/r6/tgebru/timnit_caffe/data/ilsvrc12/imagenet_mean.binaryproto"
    batch_size: 2
    crop_size: 227
    mirror: false
    backend: LMDB
  }
}
layers {
  top: "target_ims"
  name: "target_ims"
  type: DATA
  data_param {
    source: "/scr/r6/tgebru/inverting_conv/caffe_invert_alexnet/data/siggraph/tiny_summer_val_lmdb"
    mean_file: "/scr/r6/tgebru/timnit_caffe/data/ilsvrc12/imagenet_mean.binaryproto"
    batch_size: 2
    crop_size: 216
    mirror: false
    backend: LMDB
  }
}
layers {
  bottom: "source_ims"
  top: "conv1"
  name: "conv1"
  type: CONVOLUTION
  blobs_lr: 0
  blobs_lr: 0
  weight_decay: 1
  weight_decay: 0
  convolution_param {
    num_output: 96
    kernel_size: 11
    stride: 4
    weight_filler {
      type: "gaussian"
      std: 0.01
    }
    bias_filler {
      type: "constant"
      value: 0
    }
  }
}
layers {
  bottom: "conv1"
  top: "conv1"
  name: "relu1"
  type: RELU
}
layers {
  bottom: "conv1"
  top: "pool1"
  name: "pool1"
  type: POOLING
  pooling_param {
    pool: MAX
    kernel_size: 3
    stride: 2
  }
}
layers {
  bottom: "pool1"
  top: "norm1"
  name: "norm1"
  type: LRN
  lrn_param {
    local_size: 5
    alpha: 0.0001
    beta: 0.75
  }
}
layers {
  bottom: "norm1"
  top: "Rconv6"
  name: "Rconv6"
  type: CONVOLUTION
  blobs_lr: 0
  blobs_lr: 0
  weight_decay: 1
  weight_decay: 0
  convolution_param {
    num_output: 256
    pad: 1
    kernel_size: 3
  }
}
layers {
  bottom: "Rconv6"
  top: "Rconv6"
  name: "Rrelu6"
  type: RELU
}
layers {
  bottom: "Rconv6"
  top: "Rconv7"
  name: "Rconv7"
  type: CONVOLUTION
  blobs_lr: 0
  blobs_lr: 0
  weight_decay: 1
  weight_decay: 0
  convolution_param {
    num_output: 256
    pad: 1
    kernel_size: 3
    group: 2
  }
}
layers {
  bottom: "Rconv7"
  top: "Rconv7"
  name: "Rrelu7"
  type: RELU
}
layers {
  bottom: "Rconv7"
  top: "Rconv8"
  name: "Rconv8"
  type: CONVOLUTION
  blobs_lr: 0
  blobs_lr: 0
  weight_decay: 1
  weight_decay: 0
  convolution_param {
    num_output: 256
    pad: 1
    kernel_size: 3
    group: 2
  }
}
layers {
  bottom: "Rconv8"
  top: "Rconv8"
  name: "Rrelu8"
  type: RELU
}
layers {
  bottom: "Rconv8"
  top: "deconv2"
  name: "deconv2"
  type: DECONVOLUTION
  blobs_lr: 0
  blobs_lr: 0
  weight_decay: 1
  weight_decay: 0
  deconvolution_param {
    pad: 2
    kernel_size: 5
    stride: 2
    output_height: 54
    output_width: 54
    output_channels: 64
  }
}
layers {
  bottom: "deconv2"
  top: "deconv2"
  name: "relu_deconv2"
  type: RELU
  relu_param {
    negative_slope: 0.3
  }
}
layers {
  bottom: "deconv2"
  top: "deconv1"
  name: "deconv1"
  type: DECONVOLUTION
  blobs_lr: 0
  blobs_lr: 0
  weight_decay: 1
  weight_decay: 0
  deconvolution_param {
    pad: 2
    kernel_size: 5
    stride: 2
    output_height: 108
    output_width: 108
    output_channels: 32
  }
}
layers {
  bottom: "deconv1"
  top: "deconv1"
  name: "relu_deconv1"
  type: RELU
  relu_param {
    negative_slope: 0.3
  }
}
layers {
  bottom: "deconv1"
  top: "deconv0"
  name: "deconv0"
  type: DECONVOLUTION
  blobs_lr: 0
  blobs_lr: 0
  weight_decay: 1
  weight_decay: 0
  deconvolution_param {
    pad: 2
    kernel_size: 5
    stride: 2
    output_height: 216
    output_width: 216
    output_channels: 3
  }
}
layers {
  bottom: "deconv0"
  bottom: "target_ims"
  name: "loss"
  type: EUCLIDEAN_LOSS
}
I0813 00:47:53.866256  7003 net.cpp:65] Creating Layer source_ims
I0813 00:47:53.866262  7003 net.cpp:189] source_ims -> source_ims
I0813 00:47:53.866322  7003 data_layer.cpp:223] Opening lmdb /scr/r6/tgebru/inverting_conv/caffe_invert_alexnet/data/siggraph/tiny_winter_val_lmdb
I0813 00:47:53.866529  7003 data_layer.cpp:285] output data size: 2,3,227,227
I0813 00:47:53.866534  7003 data_layer.cpp:304] Loading mean file from/scr/r6/tgebru/timnit_caffe/data/ilsvrc12/imagenet_mean.binaryproto
I0813 00:47:53.868999  7003 net.cpp:84] Top shape: 2 3 227 227 (309174)
I0813 00:47:53.869006  7003 net.cpp:116] source_ims does not need backward computation.
I0813 00:47:53.869014  7003 net.cpp:65] Creating Layer target_ims
I0813 00:47:53.869017  7003 net.cpp:189] target_ims -> target_ims
I0813 00:47:53.869063  7003 data_layer.cpp:223] Opening lmdb /scr/r6/tgebru/inverting_conv/caffe_invert_alexnet/data/siggraph/tiny_summer_val_lmdb
I0813 00:47:53.869176  7003 data_layer.cpp:285] output data size: 2,3,216,216
I0813 00:47:53.869181  7003 data_layer.cpp:304] Loading mean file from/scr/r6/tgebru/timnit_caffe/data/ilsvrc12/imagenet_mean.binaryproto
I0813 00:47:53.871448  7003 net.cpp:84] Top shape: 2 3 216 216 (279936)
I0813 00:47:53.871466  7003 net.cpp:116] target_ims does not need backward computation.
I0813 00:47:53.871474  7003 net.cpp:65] Creating Layer conv1
I0813 00:47:53.871480  7003 net.cpp:228] conv1 <- source_ims
I0813 00:47:53.871486  7003 net.cpp:189] conv1 -> conv1
I0813 00:47:53.872726  7003 net.cpp:84] Top shape: 2 96 55 55 (580800)
I0813 00:47:53.872730  7003 net.cpp:116] conv1 does not need backward computation.
I0813 00:47:53.872735  7003 net.cpp:65] Creating Layer relu1
I0813 00:47:53.872738  7003 net.cpp:228] relu1 <- conv1
I0813 00:47:53.872742  7003 net.cpp:179] relu1 -> conv1 (in-place)
I0813 00:47:53.872748  7003 net.cpp:84] Top shape: 2 96 55 55 (580800)
I0813 00:47:53.872751  7003 net.cpp:116] relu1 does not need backward computation.
I0813 00:47:53.872756  7003 net.cpp:65] Creating Layer pool1
I0813 00:47:53.872758  7003 net.cpp:228] pool1 <- conv1
I0813 00:47:53.872762  7003 net.cpp:189] pool1 -> pool1
I0813 00:47:53.872768  7003 net.cpp:84] Top shape: 2 96 27 27 (139968)
I0813 00:47:53.872771  7003 net.cpp:116] pool1 does not need backward computation.
I0813 00:47:53.872776  7003 net.cpp:65] Creating Layer norm1
I0813 00:47:53.872778  7003 net.cpp:228] norm1 <- pool1
I0813 00:47:53.872782  7003 net.cpp:189] norm1 -> norm1
I0813 00:47:53.872788  7003 net.cpp:84] Top shape: 2 96 27 27 (139968)
I0813 00:47:53.872792  7003 net.cpp:116] norm1 does not need backward computation.
I0813 00:47:53.872795  7003 net.cpp:65] Creating Layer Rconv6
I0813 00:47:53.872798  7003 net.cpp:228] Rconv6 <- norm1
I0813 00:47:53.872802  7003 net.cpp:189] Rconv6 -> Rconv6
I0813 00:47:53.873374  7003 net.cpp:84] Top shape: 2 256 27 27 (373248)
I0813 00:47:53.873379  7003 net.cpp:116] Rconv6 does not need backward computation.
I0813 00:47:53.873383  7003 net.cpp:65] Creating Layer Rrelu6
I0813 00:47:53.873386  7003 net.cpp:228] Rrelu6 <- Rconv6
I0813 00:47:53.873390  7003 net.cpp:179] Rrelu6 -> Rconv6 (in-place)
I0813 00:47:53.873395  7003 net.cpp:84] Top shape: 2 256 27 27 (373248)
I0813 00:47:53.873399  7003 net.cpp:116] Rrelu6 does not need backward computation.
I0813 00:47:53.873404  7003 net.cpp:65] Creating Layer Rconv7
I0813 00:47:53.873406  7003 net.cpp:228] Rconv7 <- Rconv6
I0813 00:47:53.873410  7003 net.cpp:189] Rconv7 -> Rconv7
I0813 00:47:53.874181  7003 net.cpp:84] Top shape: 2 256 27 27 (373248)
I0813 00:47:53.874186  7003 net.cpp:116] Rconv7 does not need backward computation.
I0813 00:47:53.874189  7003 net.cpp:65] Creating Layer Rrelu7
I0813 00:47:53.874193  7003 net.cpp:228] Rrelu7 <- Rconv7
I0813 00:47:53.874197  7003 net.cpp:179] Rrelu7 -> Rconv7 (in-place)
I0813 00:47:53.874202  7003 net.cpp:84] Top shape: 2 256 27 27 (373248)
I0813 00:47:53.874204  7003 net.cpp:116] Rrelu7 does not need backward computation.
I0813 00:47:53.874208  7003 net.cpp:65] Creating Layer Rconv8
I0813 00:47:53.874212  7003 net.cpp:228] Rconv8 <- Rconv7
I0813 00:47:53.874215  7003 net.cpp:189] Rconv8 -> Rconv8
I0813 00:47:53.874976  7003 net.cpp:84] Top shape: 2 256 27 27 (373248)
I0813 00:47:53.874981  7003 net.cpp:116] Rconv8 does not need backward computation.
I0813 00:47:53.874985  7003 net.cpp:65] Creating Layer Rrelu8
I0813 00:47:53.874989  7003 net.cpp:228] Rrelu8 <- Rconv8
I0813 00:47:53.874992  7003 net.cpp:179] Rrelu8 -> Rconv8 (in-place)
I0813 00:47:53.874997  7003 net.cpp:84] Top shape: 2 256 27 27 (373248)
I0813 00:47:53.875000  7003 net.cpp:116] Rrelu8 does not need backward computation.
I0813 00:47:53.875005  7003 net.cpp:65] Creating Layer deconv2
I0813 00:47:53.875006  7003 net.cpp:228] deconv2 <- Rconv8
I0813 00:47:53.875010  7003 net.cpp:189] deconv2 -> deconv2
I0813 00:47:53.876070  7003 net.cpp:84] Top shape: 2 64 54 54 (373248)
I0813 00:47:53.876075  7003 net.cpp:116] deconv2 does not need backward computation.
I0813 00:47:53.876078  7003 net.cpp:65] Creating Layer relu_deconv2
I0813 00:47:53.876081  7003 net.cpp:228] relu_deconv2 <- deconv2
I0813 00:47:53.876086  7003 net.cpp:179] relu_deconv2 -> deconv2 (in-place)
I0813 00:47:53.876091  7003 net.cpp:84] Top shape: 2 64 54 54 (373248)
I0813 00:47:53.876094  7003 net.cpp:116] relu_deconv2 does not need backward computation.
I0813 00:47:53.876109  7003 net.cpp:65] Creating Layer deconv1
I0813 00:47:53.876113  7003 net.cpp:228] deconv1 <- deconv2
I0813 00:47:53.876117  7003 net.cpp:189] deconv1 -> deconv1
I0813 00:47:53.876261  7003 net.cpp:84] Top shape: 2 32 108 108 (746496)
I0813 00:47:53.876266  7003 net.cpp:116] deconv1 does not need backward computation.
I0813 00:47:53.876271  7003 net.cpp:65] Creating Layer relu_deconv1
I0813 00:47:53.876273  7003 net.cpp:228] relu_deconv1 <- deconv1
I0813 00:47:53.876277  7003 net.cpp:179] relu_deconv1 -> deconv1 (in-place)
I0813 00:47:53.876282  7003 net.cpp:84] Top shape: 2 32 108 108 (746496)
I0813 00:47:53.876286  7003 net.cpp:116] relu_deconv1 does not need backward computation.
I0813 00:47:53.876291  7003 net.cpp:65] Creating Layer deconv0
I0813 00:47:53.876294  7003 net.cpp:228] deconv0 <- deconv1
I0813 00:47:53.876298  7003 net.cpp:189] deconv0 -> deconv0
I0813 00:47:53.876318  7003 net.cpp:84] Top shape: 2 3 216 216 (279936)
I0813 00:47:53.876322  7003 net.cpp:116] deconv0 does not need backward computation.
I0813 00:47:53.876327  7003 net.cpp:65] Creating Layer loss
I0813 00:47:53.876329  7003 net.cpp:228] loss <- deconv0
I0813 00:47:53.876332  7003 net.cpp:228] loss <- target_ims
I0813 00:47:53.876338  7003 net.cpp:116] loss does not need backward computation.
I0813 00:47:53.876349  7003 net.cpp:238] Collecting Learning Rate and Weight Decay.
…
