…
    source: "/scr/r6/tgebru/inverting_conv/caffe_invert_alexnet/data/siggraph/tiny_winter_train_lmdb"
    mean_file: "/scr/r6/tgebru/timnit_caffe/data/ilsvrc12/imagenet_mean.binaryproto"
    batch_size: 12
    crop_size: 227
    mirror: false
    backend: LMDB
  }
}
layers {
  top: "target_ims"
  name: "target_ims"
  type: DATA
  data_param {
    source: "/scr/r6/tgebru/inverting_conv/caffe_invert_alexnet/data/siggraph/tiny_summer_train_lmdb"
    mean_file: "/scr/r6/tgebru/timnit_caffe/data/ilsvrc12/imagenet_mean.binaryproto"
    batch_size: 12
    crop_size: 216
    mirror: false
    backend: LMDB
  }
}
layers {
  bottom: "source_ims"
  top: "conv1"
  name: "conv1"
  type: CONVOLUTION
  blobs_lr: 0
  blobs_lr: 0
  weight_decay: 1
  weight_decay: 0
  convolution_param {
    num_output: 96
    kernel_size: 11
    stride: 4
    weight_filler {
      type: "gaussian"
      std: 0.01
    }
    bias_filler {
      type: "constant"
      value: 0
    }
  }
}
layers {
  bottom: "conv1"
  top: "conv1"
  name: "relu1"
  type: RELU
}
layers {
  bottom: "conv1"
  top: "pool1"
  name: "pool1"
  type: POOLING
  pooling_param {
    pool: MAX
    kernel_size: 3
    stride: 2
  }
}
layers {
  bottom: "pool1"
  top: "norm1"
  name: "norm1"
  type: LRN
  lrn_param {
    local_size: 5
    alpha: 0.0001
    beta: 0.75
  }
}
layers {
  bottom: "norm1"
  top: "Rconv6"
  name: "Rconv6"
  type: CONVOLUTION
  blobs_lr: 1
  blobs_lr: 2
  weight_decay: 1
  weight_decay: 0
  convolution_param {
    num_output: 256
    pad: 1
    kernel_size: 3
  }
}
layers {
  bottom: "Rconv6"
  top: "Rconv6"
  name: "Rrelu6"
  type: RELU
}
layers {
  bottom: "Rconv6"
  top: "Rconv7"
  name: "Rconv7"
  type: CONVOLUTION
  blobs_lr: 1
  blobs_lr: 2
  weight_decay: 1
  weight_decay: 0
  convolution_param {
    num_output: 256
    pad: 1
    kernel_size: 3
    group: 2
  }
}
layers {
  bottom: "Rconv7"
  top: "Rconv7"
  name: "Rrelu7"
  type: RELU
}
layers {
  bottom: "Rconv7"
  top: "Rconv8"
  name: "Rconv8"
  type: CONVOLUTION
  blobs_lr: 1
  blobs_lr: 2
  weight_decay: 1
  weight_decay: 0
  convolution_param {
    num_output: 256
    pad: 1
    kernel_size: 3
    group: 2
  }
}
layers {
  bottom: "Rconv8"
  top: "Rconv8"
  name: "Rrelu8"
  type: RELU
}
layers {
  bottom: "Rconv8"
  top: "deconv2"
  name: "deconv2"
  type: DECONVOLUTION
  blobs_lr: 1
  blobs_lr: 2
  weight_decay: 1
  weight_decay: 0
  deconvolution_param {
    pad: 2
    kernel_size: 5
    stride: 2
    output_height: 54
    output_width: 54
    output_channels: 64
  }
}
layers {
  bottom: "deconv2"
  top: "deconv2"
  name: "relu_deconv2"
  type: RELU
  relu_param {
    negative_slope: 0.3
  }
}
layers {
  bottom: "deconv2"
  top: "deconv1"
  name: "deconv1"
  type: DECONVOLUTION
  blobs_lr: 1
  blobs_lr: 2
  weight_decay: 1
  weight_decay: 0
  deconvolution_param {
    pad: 2
    kernel_size: 5
    stride: 2
    output_height: 108
    output_width: 108
    output_channels: 32
  }
}
layers {
  bottom: "deconv1"
  top: "deconv1"
  name: "relu_deconv1"
  type: RELU
  relu_param {
    negative_slope: 0.3
  }
}
layers {
  bottom: "deconv1"
  top: "deconv0"
  name: "deconv0"
  type: DECONVOLUTION
  blobs_lr: 1
  blobs_lr: 2
  weight_decay: 1
  weight_decay: 1
  deconvolution_param {
    pad: 2
    kernel_size: 5
    stride: 2
    output_height: 216
    output_width: 216
    output_channels: 3
  }
}
layers {
  bottom: "deconv0"
  bottom: "target_ims"
  name: "loss"
  type: EUCLIDEAN_LOSS
}
I0812 16:40:10.293907 16290 net.cpp:65] Creating Layer source_ims
I0812 16:40:10.293916 16290 net.cpp:189] source_ims -> source_ims
I0812 16:40:10.294021 16290 data_layer.cpp:223] Opening lmdb /scr/r6/tgebru/inverting_conv/caffe_invert_alexnet/data/siggraph/tiny_winter_train_lmdb
I0812 16:40:10.294250 16290 data_layer.cpp:285] output data size: 12,3,227,227
I0812 16:40:10.294256 16290 data_layer.cpp:304] Loading mean file from/scr/r6/tgebru/timnit_caffe/data/ilsvrc12/imagenet_mean.binaryproto
I0812 16:40:10.299422 16290 net.cpp:84] Top shape: 12 3 227 227 (1855044)
I0812 16:40:10.299430 16290 net.cpp:116] source_ims does not need backward computation.
I0812 16:40:10.299437 16290 net.cpp:65] Creating Layer target_ims
I0812 16:40:10.299440 16290 net.cpp:189] target_ims -> target_ims
I0812 16:40:10.299579 16290 data_layer.cpp:223] Opening lmdb /scr/r6/tgebru/inverting_conv/caffe_invert_alexnet/data/siggraph/tiny_summer_train_lmdb
I0812 16:40:10.299777 16290 data_layer.cpp:285] output data size: 12,3,216,216
I0812 16:40:10.299782 16290 data_layer.cpp:304] Loading mean file from/scr/r6/tgebru/timnit_caffe/data/ilsvrc12/imagenet_mean.binaryproto
I0812 16:40:10.304226 16290 net.cpp:84] Top shape: 12 3 216 216 (1679616)
I0812 16:40:10.304234 16290 net.cpp:116] target_ims does not need backward computation.
I0812 16:40:10.304246 16290 net.cpp:65] Creating Layer conv1
I0812 16:40:10.304250 16290 net.cpp:228] conv1 <- source_ims
I0812 16:40:10.304280 16290 net.cpp:189] conv1 -> conv1
I0812 16:40:10.305626 16290 net.cpp:84] Top shape: 12 96 55 55 (3484800)
I0812 16:40:10.305637 16290 net.cpp:116] conv1 does not need backward computation.
I0812 16:40:10.305644 16290 net.cpp:65] Creating Layer relu1
I0812 16:40:10.305649 16290 net.cpp:228] relu1 <- conv1
I0812 16:40:10.305655 16290 net.cpp:179] relu1 -> conv1 (in-place)
I0812 16:40:10.305665 16290 net.cpp:84] Top shape: 12 96 55 55 (3484800)
I0812 16:40:10.305667 16290 net.cpp:116] relu1 does not need backward computation.
I0812 16:40:10.305672 16290 net.cpp:65] Creating Layer pool1
I0812 16:40:10.305675 16290 net.cpp:228] pool1 <- conv1
I0812 16:40:10.305680 16290 net.cpp:189] pool1 -> pool1
I0812 16:40:10.305692 16290 net.cpp:84] Top shape: 12 96 27 27 (839808)
I0812 16:40:10.305696 16290 net.cpp:116] pool1 does not need backward computation.
I0812 16:40:10.305701 16290 net.cpp:65] Creating Layer norm1
I0812 16:40:10.305703 16290 net.cpp:228] norm1 <- pool1
I0812 16:40:10.305708 16290 net.cpp:189] norm1 -> norm1
I0812 16:40:10.305717 16290 net.cpp:84] Top shape: 12 96 27 27 (839808)
I0812 16:40:10.305721 16290 net.cpp:116] norm1 does not need backward computation.
I0812 16:40:10.305726 16290 net.cpp:65] Creating Layer Rconv6
I0812 16:40:10.305728 16290 net.cpp:228] Rconv6 <- norm1
I0812 16:40:10.305733 16290 net.cpp:189] Rconv6 -> Rconv6
I0812 16:40:10.305994 16290 net.cpp:84] Top shape: 12 256 27 27 (2239488)
I0812 16:40:10.305997 16290 net.cpp:111] Rconv6 needs backward computation.
I0812 16:40:10.306001 16290 net.cpp:65] Creating Layer Rrelu6
I0812 16:40:10.306005 16290 net.cpp:228] Rrelu6 <- Rconv6
I0812 16:40:10.306008 16290 net.cpp:179] Rrelu6 -> Rconv6 (in-place)
I0812 16:40:10.306012 16290 net.cpp:84] Top shape: 12 256 27 27 (2239488)
I0812 16:40:10.306015 16290 net.cpp:111] Rrelu6 needs backward computation.
I0812 16:40:10.306020 16290 net.cpp:65] Creating Layer Rconv7
I0812 16:40:10.306023 16290 net.cpp:228] Rconv7 <- Rconv6
I0812 16:40:10.306028 16290 net.cpp:189] Rconv7 -> Rconv7
I0812 16:40:10.306753 16290 net.cpp:84] Top shape: 12 256 27 27 (2239488)
I0812 16:40:10.306758 16290 net.cpp:111] Rconv7 needs backward computation.
I0812 16:40:10.306763 16290 net.cpp:65] Creating Layer Rrelu7
I0812 16:40:10.306785 16290 net.cpp:228] Rrelu7 <- Rconv7
I0812 16:40:10.306790 16290 net.cpp:179] Rrelu7 -> Rconv7 (in-place)
I0812 16:40:10.306795 16290 net.cpp:84] Top shape: 12 256 27 27 (2239488)
I0812 16:40:10.306798 16290 net.cpp:111] Rrelu7 needs backward computation.
I0812 16:40:10.306802 16290 net.cpp:65] Creating Layer Rconv8
I0812 16:40:10.306804 16290 net.cpp:228] Rconv8 <- Rconv7
I0812 16:40:10.306808 16290 net.cpp:189] Rconv8 -> Rconv8
I0812 16:40:10.307607 16290 net.cpp:84] Top shape: 12 256 27 27 (2239488)
I0812 16:40:10.307611 16290 net.cpp:111] Rconv8 needs backward computation.
I0812 16:40:10.307615 16290 net.cpp:65] Creating Layer Rrelu8
I0812 16:40:10.307618 16290 net.cpp:228] Rrelu8 <- Rconv8
I0812 16:40:10.307622 16290 net.cpp:179] Rrelu8 -> Rconv8 (in-place)
I0812 16:40:10.307626 16290 net.cpp:84] Top shape: 12 256 27 27 (2239488)
I0812 16:40:10.307629 16290 net.cpp:111] Rrelu8 needs backward computation.
I0812 16:40:10.307633 16290 net.cpp:65] Creating Layer deconv2
I0812 16:40:10.307636 16290 net.cpp:228] deconv2 <- Rconv8
I0812 16:40:10.307639 16290 net.cpp:189] deconv2 -> deconv2
I0812 16:40:10.308723 16290 net.cpp:84] Top shape: 12 64 54 54 (2239488)
I0812 16:40:10.308728 16290 net.cpp:111] deconv2 needs backward computation.
I0812 16:40:10.308733 16290 net.cpp:65] Creating Layer relu_deconv2
I0812 16:40:10.308737 16290 net.cpp:228] relu_deconv2 <- deconv2
I0812 16:40:10.308740 16290 net.cpp:179] relu_deconv2 -> deconv2 (in-place)
I0812 16:40:10.308744 16290 net.cpp:84] Top shape: 12 64 54 54 (2239488)
I0812 16:40:10.308748 16290 net.cpp:111] relu_deconv2 needs backward computation.
I0812 16:40:10.308750 16290 net.cpp:65] Creating Layer deconv1
I0812 16:40:10.308753 16290 net.cpp:228] deconv1 <- deconv2
I0812 16:40:10.308756 16290 net.cpp:189] deconv1 -> deconv1
I0812 16:40:10.308929 16290 net.cpp:84] Top shape: 12 32 108 108 (4478976)
I0812 16:40:10.308933 16290 net.cpp:111] deconv1 needs backward computation.
I0812 16:40:10.308938 16290 net.cpp:65] Creating Layer relu_deconv1
I0812 16:40:10.308940 16290 net.cpp:228] relu_deconv1 <- deconv1
I0812 16:40:10.308944 16290 net.cpp:179] relu_deconv1 -> deconv1 (in-place)
I0812 16:40:10.308948 16290 net.cpp:84] Top shape: 12 32 108 108 (4478976)
I0812 16:40:10.308951 16290 net.cpp:111] relu_deconv1 needs backward computation.
I0812 16:40:10.308956 16290 net.cpp:65] Creating Layer deconv0
I0812 16:40:10.308959 16290 net.cpp:228] deconv0 <- deconv1
I0812 16:40:10.308962 16290 net.cpp:189] deconv0 -> deconv0
I0812 16:40:10.309007 16290 net.cpp:84] Top shape: 12 3 216 216 (1679616)
I0812 16:40:10.309011 16290 net.cpp:111] deconv0 needs backward computation.
I0812 16:40:10.309015 16290 net.cpp:65] Creating Layer loss
I0812 16:40:10.309017 16290 net.cpp:228] loss <- deconv0
I0812 16:40:10.309021 16290 net.cpp:228] loss <- target_ims
I0812 16:40:10.309028 16290 net.cpp:111] loss needs backward computation.
I0812 16:40:10.309044 16290 net.cpp:238] Collecting Learning Rate and Weight Decay.
…
    source: "/scr/r6/tgebru/inverting_conv/caffe_invert_alexnet/data/siggraph/tiny_winter_val_lmdb"
    mean_file: "/scr/r6/tgebru/timnit_caffe/data/ilsvrc12/imagenet_mean.binaryproto"
    batch_size: 2
    crop_size: 227
    mirror: false
    backend: LMDB
  }
}
layers {
  top: "target_ims"
  name: "target_ims"
  type: DATA
  data_param {
    source: "/scr/r6/tgebru/inverting_conv/caffe_invert_alexnet/data/siggraph/tiny_summer_val_lmdb"
    mean_file: "/scr/r6/tgebru/timnit_caffe/data/ilsvrc12/imagenet_mean.binaryproto"
    batch_size: 2
    crop_size: 216
    mirror: false
    backend: LMDB
  }
}
layers {
  bottom: "source_ims"
  top: "conv1"
  name: "conv1"
  type: CONVOLUTION
  blobs_lr: 0
  blobs_lr: 0
  weight_decay: 1
  weight_decay: 0
  convolution_param {
    num_output: 96
    kernel_size: 11
    stride: 4
    weight_filler {
      type: "gaussian"
      std: 0.01
    }
    bias_filler {
      type: "constant"
      value: 0
    }
  }
}
layers {
  bottom: "conv1"
  top: "conv1"
  name: "relu1"
  type: RELU
}
layers {
  bottom: "conv1"
  top: "pool1"
  name: "pool1"
  type: POOLING
  pooling_param {
    pool: MAX
    kernel_size: 3
    stride: 2
  }
}
layers {
  bottom: "pool1"
  top: "norm1"
  name: "norm1"
  type: LRN
  lrn_param {
    local_size: 5
    alpha: 0.0001
    beta: 0.75
  }
}
layers {
  bottom: "norm1"
  top: "Rconv6"
  name: "Rconv6"
  type: CONVOLUTION
  blobs_lr: 0
  blobs_lr: 0
  weight_decay: 1
  weight_decay: 0
  convolution_param {
    num_output: 256
    pad: 1
    kernel_size: 3
  }
}
layers {
  bottom: "Rconv6"
  top: "Rconv6"
  name: "Rrelu6"
  type: RELU
}
layers {
  bottom: "Rconv6"
  top: "Rconv7"
  name: "Rconv7"
  type: CONVOLUTION
  blobs_lr: 0
  blobs_lr: 0
  weight_decay: 1
  weight_decay: 0
  convolution_param {
    num_output: 256
    pad: 1
    kernel_size: 3
    group: 2
  }
}
layers {
  bottom: "Rconv7"
  top: "Rconv7"
  name: "Rrelu7"
  type: RELU
}
layers {
  bottom: "Rconv7"
  top: "Rconv8"
  name: "Rconv8"
  type: CONVOLUTION
  blobs_lr: 0
  blobs_lr: 0
  weight_decay: 1
  weight_decay: 0
  convolution_param {
    num_output: 256
    pad: 1
    kernel_size: 3
    group: 2
  }
}
layers {
  bottom: "Rconv8"
  top: "Rconv8"
  name: "Rrelu8"
  type: RELU
}
layers {
  bottom: "Rconv8"
  top: "deconv2"
  name: "deconv2"
  type: DECONVOLUTION
  blobs_lr: 0
  blobs_lr: 0
  weight_decay: 1
  weight_decay: 0
  deconvolution_param {
    pad: 2
    kernel_size: 5
    stride: 2
    output_height: 54
    output_width: 54
    output_channels: 64
  }
}
layers {
  bottom: "deconv2"
  top: "deconv2"
  name: "relu_deconv2"
  type: RELU
  relu_param {
    negative_slope: 0.3
  }
}
layers {
  bottom: "deconv2"
  top: "deconv1"
  name: "deconv1"
  type: DECONVOLUTION
  blobs_lr: 0
  blobs_lr: 0
  weight_decay: 1
  weight_decay: 0
  deconvolution_param {
    pad: 2
    kernel_size: 5
    stride: 2
    output_height: 108
    output_width: 108
    output_channels: 32
  }
}
layers {
  bottom: "deconv1"
  top: "deconv1"
  name: "relu_deconv1"
  type: RELU
  relu_param {
    negative_slope: 0.3
  }
}
layers {
  bottom: "deconv1"
  top: "deconv0"
  name: "deconv0"
  type: DECONVOLUTION
  blobs_lr: 0
  blobs_lr: 0
  weight_decay: 1
  weight_decay: 0
  deconvolution_param {
    pad: 2
    kernel_size: 5
    stride: 2
    output_height: 216
    output_width: 216
    output_channels: 3
  }
}
layers {
  bottom: "deconv0"
  bottom: "target_ims"
  name: "loss"
  type: EUCLIDEAN_LOSS
}
I0812 16:40:10.309762 16290 net.cpp:65] Creating Layer source_ims
I0812 16:40:10.309767 16290 net.cpp:189] source_ims -> source_ims
I0812 16:40:10.309820 16290 data_layer.cpp:223] Opening lmdb /scr/r6/tgebru/inverting_conv/caffe_invert_alexnet/data/siggraph/tiny_winter_val_lmdb
I0812 16:40:10.310012 16290 data_layer.cpp:285] output data size: 2,3,227,227
I0812 16:40:10.310017 16290 data_layer.cpp:304] Loading mean file from/scr/r6/tgebru/timnit_caffe/data/ilsvrc12/imagenet_mean.binaryproto
I0812 16:40:10.312407 16290 net.cpp:84] Top shape: 2 3 227 227 (309174)
I0812 16:40:10.312414 16290 net.cpp:116] source_ims does not need backward computation.
I0812 16:40:10.312420 16290 net.cpp:65] Creating Layer target_ims
I0812 16:40:10.312424 16290 net.cpp:189] target_ims -> target_ims
I0812 16:40:10.312475 16290 data_layer.cpp:223] Opening lmdb /scr/r6/tgebru/inverting_conv/caffe_invert_alexnet/data/siggraph/tiny_summer_val_lmdb
I0812 16:40:10.312692 16290 data_layer.cpp:285] output data size: 2,3,216,216
I0812 16:40:10.312696 16290 data_layer.cpp:304] Loading mean file from/scr/r6/tgebru/timnit_caffe/data/ilsvrc12/imagenet_mean.binaryproto
I0812 16:40:10.314968 16290 net.cpp:84] Top shape: 2 3 216 216 (279936)
I0812 16:40:10.314975 16290 net.cpp:116] target_ims does not need backward computation.
I0812 16:40:10.314996 16290 net.cpp:65] Creating Layer conv1
I0812 16:40:10.315001 16290 net.cpp:228] conv1 <- source_ims
I0812 16:40:10.315006 16290 net.cpp:189] conv1 -> conv1
I0812 16:40:10.316246 16290 net.cpp:84] Top shape: 2 96 55 55 (580800)
I0812 16:40:10.316251 16290 net.cpp:116] conv1 does not need backward computation.
I0812 16:40:10.316254 16290 net.cpp:65] Creating Layer relu1
I0812 16:40:10.316257 16290 net.cpp:228] relu1 <- conv1
I0812 16:40:10.316262 16290 net.cpp:179] relu1 -> conv1 (in-place)
I0812 16:40:10.316267 16290 net.cpp:84] Top shape: 2 96 55 55 (580800)
I0812 16:40:10.316269 16290 net.cpp:116] relu1 does not need backward computation.
I0812 16:40:10.316273 16290 net.cpp:65] Creating Layer pool1
I0812 16:40:10.316277 16290 net.cpp:228] pool1 <- conv1
I0812 16:40:10.316280 16290 net.cpp:189] pool1 -> pool1
I0812 16:40:10.316287 16290 net.cpp:84] Top shape: 2 96 27 27 (139968)
I0812 16:40:10.316289 16290 net.cpp:116] pool1 does not need backward computation.
I0812 16:40:10.316293 16290 net.cpp:65] Creating Layer norm1
I0812 16:40:10.316296 16290 net.cpp:228] norm1 <- pool1
I0812 16:40:10.316299 16290 net.cpp:189] norm1 -> norm1
I0812 16:40:10.316305 16290 net.cpp:84] Top shape: 2 96 27 27 (139968)
I0812 16:40:10.316308 16290 net.cpp:116] norm1 does not need backward computation.
I0812 16:40:10.316311 16290 net.cpp:65] Creating Layer Rconv6
I0812 16:40:10.316314 16290 net.cpp:228] Rconv6 <- norm1
I0812 16:40:10.316318 16290 net.cpp:189] Rconv6 -> Rconv6
I0812 16:40:10.316931 16290 net.cpp:84] Top shape: 2 256 27 27 (373248)
I0812 16:40:10.316936 16290 net.cpp:116] Rconv6 does not need backward computation.
I0812 16:40:10.316941 16290 net.cpp:65] Creating Layer Rrelu6
I0812 16:40:10.316943 16290 net.cpp:228] Rrelu6 <- Rconv6
I0812 16:40:10.316947 16290 net.cpp:179] Rrelu6 -> Rconv6 (in-place)
I0812 16:40:10.316952 16290 net.cpp:84] Top shape: 2 256 27 27 (373248)
I0812 16:40:10.316956 16290 net.cpp:116] Rrelu6 does not need backward computation.
I0812 16:40:10.316961 16290 net.cpp:65] Creating Layer Rconv7
I0812 16:40:10.316962 16290 net.cpp:228] Rconv7 <- Rconv6
I0812 16:40:10.316967 16290 net.cpp:189] Rconv7 -> Rconv7
I0812 16:40:10.317725 16290 net.cpp:84] Top shape: 2 256 27 27 (373248)
I0812 16:40:10.317730 16290 net.cpp:116] Rconv7 does not need backward computation.
I0812 16:40:10.317734 16290 net.cpp:65] Creating Layer Rrelu7
I0812 16:40:10.317736 16290 net.cpp:228] Rrelu7 <- Rconv7
I0812 16:40:10.317740 16290 net.cpp:179] Rrelu7 -> Rconv7 (in-place)
I0812 16:40:10.317744 16290 net.cpp:84] Top shape: 2 256 27 27 (373248)
I0812 16:40:10.317747 16290 net.cpp:116] Rrelu7 does not need backward computation.
I0812 16:40:10.317751 16290 net.cpp:65] Creating Layer Rconv8
I0812 16:40:10.317754 16290 net.cpp:228] Rconv8 <- Rconv7
I0812 16:40:10.317757 16290 net.cpp:189] Rconv8 -> Rconv8
I0812 16:40:10.318507 16290 net.cpp:84] Top shape: 2 256 27 27 (373248)
I0812 16:40:10.318512 16290 net.cpp:116] Rconv8 does not need backward computation.
I0812 16:40:10.318516 16290 net.cpp:65] Creating Layer Rrelu8
I0812 16:40:10.318518 16290 net.cpp:228] Rrelu8 <- Rconv8
I0812 16:40:10.318522 16290 net.cpp:179] Rrelu8 -> Rconv8 (in-place)
I0812 16:40:10.318526 16290 net.cpp:84] Top shape: 2 256 27 27 (373248)
I0812 16:40:10.318528 16290 net.cpp:116] Rrelu8 does not need backward computation.
I0812 16:40:10.318532 16290 net.cpp:65] Creating Layer deconv2
I0812 16:40:10.318536 16290 net.cpp:228] deconv2 <- Rconv8
I0812 16:40:10.318538 16290 net.cpp:189] deconv2 -> deconv2
I0812 16:40:10.319591 16290 net.cpp:84] Top shape: 2 64 54 54 (373248)
I0812 16:40:10.319594 16290 net.cpp:116] deconv2 does not need backward computation.
I0812 16:40:10.319598 16290 net.cpp:65] Creating Layer relu_deconv2
I0812 16:40:10.319602 16290 net.cpp:228] relu_deconv2 <- deconv2
I0812 16:40:10.319605 16290 net.cpp:179] relu_deconv2 -> deconv2 (in-place)
I0812 16:40:10.319610 16290 net.cpp:84] Top shape: 2 64 54 54 (373248)
I0812 16:40:10.319612 16290 net.cpp:116] relu_deconv2 does not need backward computation.
I0812 16:40:10.319628 16290 net.cpp:65] Creating Layer deconv1
I0812 16:40:10.319632 16290 net.cpp:228] deconv1 <- deconv2
I0812 16:40:10.319635 16290 net.cpp:189] deconv1 -> deconv1
I0812 16:40:10.319775 16290 net.cpp:84] Top shape: 2 32 108 108 (746496)
I0812 16:40:10.319779 16290 net.cpp:116] deconv1 does not need backward computation.
I0812 16:40:10.319783 16290 net.cpp:65] Creating Layer relu_deconv1
I0812 16:40:10.319787 16290 net.cpp:228] relu_deconv1 <- deconv1
I0812 16:40:10.319790 16290 net.cpp:179] relu_deconv1 -> deconv1 (in-place)
I0812 16:40:10.319794 16290 net.cpp:84] Top shape: 2 32 108 108 (746496)
I0812 16:40:10.319797 16290 net.cpp:116] relu_deconv1 does not need backward computation.
I0812 16:40:10.319802 16290 net.cpp:65] Creating Layer deconv0
I0812 16:40:10.319804 16290 net.cpp:228] deconv0 <- deconv1
I0812 16:40:10.319808 16290 net.cpp:189] deconv0 -> deconv0
I0812 16:40:10.319826 16290 net.cpp:84] Top shape: 2 3 216 216 (279936)
I0812 16:40:10.319829 16290 net.cpp:116] deconv0 does not need backward computation.
I0812 16:40:10.319833 16290 net.cpp:65] Creating Layer loss
I0812 16:40:10.319835 16290 net.cpp:228] loss <- deconv0
I0812 16:40:10.319839 16290 net.cpp:228] loss <- target_ims
I0812 16:40:10.319844 16290 net.cpp:116] loss does not need backward computation.
I0812 16:40:10.319854 16290 net.cpp:238] Collecting Learning Rate and Weight Decay.
…
