…
    source: "/scr/r6/tgebru/inverting_conv/caffe_invert_alexnet/data/siggraph/tiny_winter_train_lmdb"
    mean_file: "/scr/r6/tgebru/timnit_caffe/data/ilsvrc12/imagenet_mean.binaryproto"
    batch_size: 12
    crop_size: 227
    mirror: false
    backend: LMDB
  }
}
layers {
  top: "target_ims"
  name: "target_ims"
  type: DATA
  data_param {
    source: "/scr/r6/tgebru/inverting_conv/caffe_invert_alexnet/data/siggraph/tiny_summer_train_lmdb"
    mean_file: "/scr/r6/tgebru/timnit_caffe/data/ilsvrc12/imagenet_mean.binaryproto"
    batch_size: 12
    crop_size: 216
    mirror: false
    backend: LMDB
  }
}
layers {
  bottom: "source_ims"
  top: "conv1"
  name: "conv1"
  type: CONVOLUTION
  blobs_lr: 0
  blobs_lr: 0
  weight_decay: 1
  weight_decay: 0
  convolution_param {
    num_output: 96
    kernel_size: 11
    stride: 4
    weight_filler {
      type: "gaussian"
      std: 0.01
    }
    bias_filler {
      type: "constant"
      value: 0
    }
  }
}
layers {
  bottom: "conv1"
  top: "conv1"
  name: "relu1"
  type: RELU
}
layers {
  bottom: "conv1"
  top: "pool1"
  name: "pool1"
  type: POOLING
  pooling_param {
    pool: MAX
    kernel_size: 3
    stride: 2
  }
}
layers {
  bottom: "pool1"
  top: "norm1"
  name: "norm1"
  type: LRN
  lrn_param {
    local_size: 5
    alpha: 0.0001
    beta: 0.75
  }
}
layers {
  bottom: "norm1"
  top: "Rconv6"
  name: "Rconv6"
  type: CONVOLUTION
  blobs_lr: 1
  blobs_lr: 2
  weight_decay: 1
  weight_decay: 0
  convolution_param {
    num_output: 256
    pad: 1
    kernel_size: 3
  }
}
layers {
  bottom: "Rconv6"
  top: "Rconv6"
  name: "Rrelu6"
  type: RELU
}
layers {
  bottom: "Rconv6"
  top: "Rconv7"
  name: "Rconv7"
  type: CONVOLUTION
  blobs_lr: 1
  blobs_lr: 2
  weight_decay: 1
  weight_decay: 0
  convolution_param {
    num_output: 256
    pad: 1
    kernel_size: 3
    group: 2
  }
}
layers {
  bottom: "Rconv7"
  top: "Rconv7"
  name: "Rrelu7"
  type: RELU
}
layers {
  bottom: "Rconv7"
  top: "Rconv8"
  name: "Rconv8"
  type: CONVOLUTION
  blobs_lr: 1
  blobs_lr: 2
  weight_decay: 1
  weight_decay: 0
  convolution_param {
    num_output: 256
    pad: 1
    kernel_size: 3
    group: 2
  }
}
layers {
  bottom: "Rconv8"
  top: "Rconv8"
  name: "Rrelu8"
  type: RELU
}
layers {
  bottom: "Rconv8"
  top: "deconv2"
  name: "deconv2"
  type: DECONVOLUTION
  blobs_lr: 1
  blobs_lr: 2
  weight_decay: 1
  weight_decay: 0
  deconvolution_param {
    pad: 2
    kernel_size: 5
    stride: 2
    output_height: 54
    output_width: 54
    output_channels: 64
  }
}
layers {
  bottom: "deconv2"
  top: "deconv2"
  name: "relu_deconv2"
  type: RELU
  relu_param {
    negative_slope: 0.3
  }
}
layers {
  bottom: "deconv2"
  top: "deconv1"
  name: "deconv1"
  type: DECONVOLUTION
  blobs_lr: 1
  blobs_lr: 2
  weight_decay: 1
  weight_decay: 0
  deconvolution_param {
    pad: 2
    kernel_size: 5
    stride: 2
    output_height: 108
    output_width: 108
    output_channels: 32
  }
}
layers {
  bottom: "deconv1"
  top: "deconv1"
  name: "relu_deconv1"
  type: RELU
  relu_param {
    negative_slope: 0.3
  }
}
layers {
  bottom: "deconv1"
  top: "deconv0"
  name: "deconv0"
  type: DECONVOLUTION
  blobs_lr: 1
  blobs_lr: 2
  weight_decay: 1
  weight_decay: 1
  deconvolution_param {
    pad: 2
    kernel_size: 5
    stride: 2
    output_height: 216
    output_width: 216
    output_channels: 3
  }
}
layers {
  bottom: "deconv0"
  bottom: "target_ims"
  name: "loss"
  type: EUCLIDEAN_LOSS
}
I0813 03:00:32.093906  3247 net.cpp:65] Creating Layer source_ims
I0813 03:00:32.093916  3247 net.cpp:189] source_ims -> source_ims
I0813 03:00:32.094030  3247 data_layer.cpp:223] Opening lmdb /scr/r6/tgebru/inverting_conv/caffe_invert_alexnet/data/siggraph/tiny_winter_train_lmdb
I0813 03:00:32.094235  3247 data_layer.cpp:285] output data size: 12,3,227,227
I0813 03:00:32.094243  3247 data_layer.cpp:304] Loading mean file from/scr/r6/tgebru/timnit_caffe/data/ilsvrc12/imagenet_mean.binaryproto
I0813 03:00:32.099138  3247 net.cpp:84] Top shape: 12 3 227 227 (1855044)
I0813 03:00:32.099145  3247 net.cpp:116] source_ims does not need backward computation.
I0813 03:00:32.099153  3247 net.cpp:65] Creating Layer target_ims
I0813 03:00:32.099156  3247 net.cpp:189] target_ims -> target_ims
I0813 03:00:32.099259  3247 data_layer.cpp:223] Opening lmdb /scr/r6/tgebru/inverting_conv/caffe_invert_alexnet/data/siggraph/tiny_summer_train_lmdb
I0813 03:00:32.099390  3247 data_layer.cpp:285] output data size: 12,3,216,216
I0813 03:00:32.099393  3247 data_layer.cpp:304] Loading mean file from/scr/r6/tgebru/timnit_caffe/data/ilsvrc12/imagenet_mean.binaryproto
I0813 03:00:32.103108  3247 net.cpp:84] Top shape: 12 3 216 216 (1679616)
I0813 03:00:32.103116  3247 net.cpp:116] target_ims does not need backward computation.
I0813 03:00:32.103123  3247 net.cpp:65] Creating Layer conv1
I0813 03:00:32.103127  3247 net.cpp:228] conv1 <- source_ims
I0813 03:00:32.103163  3247 net.cpp:189] conv1 -> conv1
I0813 03:00:32.104441  3247 net.cpp:84] Top shape: 12 96 55 55 (3484800)
I0813 03:00:32.104446  3247 net.cpp:116] conv1 does not need backward computation.
I0813 03:00:32.104450  3247 net.cpp:65] Creating Layer relu1
I0813 03:00:32.104454  3247 net.cpp:228] relu1 <- conv1
I0813 03:00:32.104459  3247 net.cpp:179] relu1 -> conv1 (in-place)
I0813 03:00:32.104467  3247 net.cpp:84] Top shape: 12 96 55 55 (3484800)
I0813 03:00:32.104470  3247 net.cpp:116] relu1 does not need backward computation.
I0813 03:00:32.104475  3247 net.cpp:65] Creating Layer pool1
I0813 03:00:32.104478  3247 net.cpp:228] pool1 <- conv1
I0813 03:00:32.104482  3247 net.cpp:189] pool1 -> pool1
I0813 03:00:32.104496  3247 net.cpp:84] Top shape: 12 96 27 27 (839808)
I0813 03:00:32.104498  3247 net.cpp:116] pool1 does not need backward computation.
I0813 03:00:32.104503  3247 net.cpp:65] Creating Layer norm1
I0813 03:00:32.104506  3247 net.cpp:228] norm1 <- pool1
I0813 03:00:32.104511  3247 net.cpp:189] norm1 -> norm1
I0813 03:00:32.104519  3247 net.cpp:84] Top shape: 12 96 27 27 (839808)
I0813 03:00:32.104522  3247 net.cpp:116] norm1 does not need backward computation.
I0813 03:00:32.104526  3247 net.cpp:65] Creating Layer Rconv6
I0813 03:00:32.104529  3247 net.cpp:228] Rconv6 <- norm1
I0813 03:00:32.104533  3247 net.cpp:189] Rconv6 -> Rconv6
I0813 03:00:32.104702  3247 net.cpp:84] Top shape: 12 256 27 27 (2239488)
I0813 03:00:32.104707  3247 net.cpp:111] Rconv6 needs backward computation.
I0813 03:00:32.104710  3247 net.cpp:65] Creating Layer Rrelu6
I0813 03:00:32.104713  3247 net.cpp:228] Rrelu6 <- Rconv6
I0813 03:00:32.104717  3247 net.cpp:179] Rrelu6 -> Rconv6 (in-place)
I0813 03:00:32.104722  3247 net.cpp:84] Top shape: 12 256 27 27 (2239488)
I0813 03:00:32.104724  3247 net.cpp:111] Rrelu6 needs backward computation.
I0813 03:00:32.104729  3247 net.cpp:65] Creating Layer Rconv7
I0813 03:00:32.104732  3247 net.cpp:228] Rconv7 <- Rconv6
I0813 03:00:32.104737  3247 net.cpp:189] Rconv7 -> Rconv7
I0813 03:00:32.105408  3247 net.cpp:84] Top shape: 12 256 27 27 (2239488)
I0813 03:00:32.105412  3247 net.cpp:111] Rconv7 needs backward computation.
I0813 03:00:32.105423  3247 net.cpp:65] Creating Layer Rrelu7
I0813 03:00:32.105445  3247 net.cpp:228] Rrelu7 <- Rconv7
I0813 03:00:32.105450  3247 net.cpp:179] Rrelu7 -> Rconv7 (in-place)
I0813 03:00:32.105454  3247 net.cpp:84] Top shape: 12 256 27 27 (2239488)
I0813 03:00:32.105458  3247 net.cpp:111] Rrelu7 needs backward computation.
I0813 03:00:32.105463  3247 net.cpp:65] Creating Layer Rconv8
I0813 03:00:32.105464  3247 net.cpp:228] Rconv8 <- Rconv7
I0813 03:00:32.105468  3247 net.cpp:189] Rconv8 -> Rconv8
I0813 03:00:32.106267  3247 net.cpp:84] Top shape: 12 256 27 27 (2239488)
I0813 03:00:32.106271  3247 net.cpp:111] Rconv8 needs backward computation.
I0813 03:00:32.106276  3247 net.cpp:65] Creating Layer Rrelu8
I0813 03:00:32.106278  3247 net.cpp:228] Rrelu8 <- Rconv8
I0813 03:00:32.106282  3247 net.cpp:179] Rrelu8 -> Rconv8 (in-place)
I0813 03:00:32.106287  3247 net.cpp:84] Top shape: 12 256 27 27 (2239488)
I0813 03:00:32.106289  3247 net.cpp:111] Rrelu8 needs backward computation.
I0813 03:00:32.106293  3247 net.cpp:65] Creating Layer deconv2
I0813 03:00:32.106295  3247 net.cpp:228] deconv2 <- Rconv8
I0813 03:00:32.106299  3247 net.cpp:189] deconv2 -> deconv2
I0813 03:00:32.107322  3247 net.cpp:84] Top shape: 12 64 54 54 (2239488)
I0813 03:00:32.107326  3247 net.cpp:111] deconv2 needs backward computation.
I0813 03:00:32.107331  3247 net.cpp:65] Creating Layer relu_deconv2
I0813 03:00:32.107334  3247 net.cpp:228] relu_deconv2 <- deconv2
I0813 03:00:32.107338  3247 net.cpp:179] relu_deconv2 -> deconv2 (in-place)
I0813 03:00:32.107343  3247 net.cpp:84] Top shape: 12 64 54 54 (2239488)
I0813 03:00:32.107347  3247 net.cpp:111] relu_deconv2 needs backward computation.
I0813 03:00:32.107350  3247 net.cpp:65] Creating Layer deconv1
I0813 03:00:32.107353  3247 net.cpp:228] deconv1 <- deconv2
I0813 03:00:32.107357  3247 net.cpp:189] deconv1 -> deconv1
I0813 03:00:32.107489  3247 net.cpp:84] Top shape: 12 32 108 108 (4478976)
I0813 03:00:32.107494  3247 net.cpp:111] deconv1 needs backward computation.
I0813 03:00:32.107498  3247 net.cpp:65] Creating Layer relu_deconv1
I0813 03:00:32.107501  3247 net.cpp:228] relu_deconv1 <- deconv1
I0813 03:00:32.107504  3247 net.cpp:179] relu_deconv1 -> deconv1 (in-place)
I0813 03:00:32.107509  3247 net.cpp:84] Top shape: 12 32 108 108 (4478976)
I0813 03:00:32.107512  3247 net.cpp:111] relu_deconv1 needs backward computation.
I0813 03:00:32.107517  3247 net.cpp:65] Creating Layer deconv0
I0813 03:00:32.107519  3247 net.cpp:228] deconv0 <- deconv1
I0813 03:00:32.107523  3247 net.cpp:189] deconv0 -> deconv0
I0813 03:00:32.107573  3247 net.cpp:84] Top shape: 12 3 216 216 (1679616)
I0813 03:00:32.107575  3247 net.cpp:111] deconv0 needs backward computation.
I0813 03:00:32.107579  3247 net.cpp:65] Creating Layer loss
I0813 03:00:32.107581  3247 net.cpp:228] loss <- deconv0
I0813 03:00:32.107585  3247 net.cpp:228] loss <- target_ims
I0813 03:00:32.107594  3247 net.cpp:111] loss needs backward computation.
I0813 03:00:32.107606  3247 net.cpp:238] Collecting Learning Rate and Weight Decay.
…
    source: "/scr/r6/tgebru/inverting_conv/caffe_invert_alexnet/data/siggraph/tiny_winter_val_lmdb"
    mean_file: "/scr/r6/tgebru/timnit_caffe/data/ilsvrc12/imagenet_mean.binaryproto"
    batch_size: 2
    crop_size: 227
    mirror: false
    backend: LMDB
  }
}
layers {
  top: "target_ims"
  name: "target_ims"
  type: DATA
  data_param {
    source: "/scr/r6/tgebru/inverting_conv/caffe_invert_alexnet/data/siggraph/tiny_summer_val_lmdb"
    mean_file: "/scr/r6/tgebru/timnit_caffe/data/ilsvrc12/imagenet_mean.binaryproto"
    batch_size: 2
    crop_size: 216
    mirror: false
    backend: LMDB
  }
}
layers {
  bottom: "source_ims"
  top: "conv1"
  name: "conv1"
  type: CONVOLUTION
  blobs_lr: 0
  blobs_lr: 0
  weight_decay: 1
  weight_decay: 0
  convolution_param {
    num_output: 96
    kernel_size: 11
    stride: 4
    weight_filler {
      type: "gaussian"
      std: 0.01
    }
    bias_filler {
      type: "constant"
      value: 0
    }
  }
}
layers {
  bottom: "conv1"
  top: "conv1"
  name: "relu1"
  type: RELU
}
layers {
  bottom: "conv1"
  top: "pool1"
  name: "pool1"
  type: POOLING
  pooling_param {
    pool: MAX
    kernel_size: 3
    stride: 2
  }
}
layers {
  bottom: "pool1"
  top: "norm1"
  name: "norm1"
  type: LRN
  lrn_param {
    local_size: 5
    alpha: 0.0001
    beta: 0.75
  }
}
layers {
  bottom: "norm1"
  top: "Rconv6"
  name: "Rconv6"
  type: CONVOLUTION
  blobs_lr: 0
  blobs_lr: 0
  weight_decay: 1
  weight_decay: 0
  convolution_param {
    num_output: 256
    pad: 1
    kernel_size: 3
  }
}
layers {
  bottom: "Rconv6"
  top: "Rconv6"
  name: "Rrelu6"
  type: RELU
}
layers {
  bottom: "Rconv6"
  top: "Rconv7"
  name: "Rconv7"
  type: CONVOLUTION
  blobs_lr: 0
  blobs_lr: 0
  weight_decay: 1
  weight_decay: 0
  convolution_param {
    num_output: 256
    pad: 1
    kernel_size: 3
    group: 2
  }
}
layers {
  bottom: "Rconv7"
  top: "Rconv7"
  name: "Rrelu7"
  type: RELU
}
layers {
  bottom: "Rconv7"
  top: "Rconv8"
  name: "Rconv8"
  type: CONVOLUTION
  blobs_lr: 0
  blobs_lr: 0
  weight_decay: 1
  weight_decay: 0
  convolution_param {
    num_output: 256
    pad: 1
    kernel_size: 3
    group: 2
  }
}
layers {
  bottom: "Rconv8"
  top: "Rconv8"
  name: "Rrelu8"
  type: RELU
}
layers {
  bottom: "Rconv8"
  top: "deconv2"
  name: "deconv2"
  type: DECONVOLUTION
  blobs_lr: 0
  blobs_lr: 0
  weight_decay: 1
  weight_decay: 0
  deconvolution_param {
    pad: 2
    kernel_size: 5
    stride: 2
    output_height: 54
    output_width: 54
    output_channels: 64
  }
}
layers {
  bottom: "deconv2"
  top: "deconv2"
  name: "relu_deconv2"
  type: RELU
  relu_param {
    negative_slope: 0.3
  }
}
layers {
  bottom: "deconv2"
  top: "deconv1"
  name: "deconv1"
  type: DECONVOLUTION
  blobs_lr: 0
  blobs_lr: 0
  weight_decay: 1
  weight_decay: 0
  deconvolution_param {
    pad: 2
    kernel_size: 5
    stride: 2
    output_height: 108
    output_width: 108
    output_channels: 32
  }
}
layers {
  bottom: "deconv1"
  top: "deconv1"
  name: "relu_deconv1"
  type: RELU
  relu_param {
    negative_slope: 0.3
  }
}
layers {
  bottom: "deconv1"
  top: "deconv0"
  name: "deconv0"
  type: DECONVOLUTION
  blobs_lr: 0
  blobs_lr: 0
  weight_decay: 1
  weight_decay: 0
  deconvolution_param {
    pad: 2
    kernel_size: 5
    stride: 2
    output_height: 216
    output_width: 216
    output_channels: 3
  }
}
layers {
  bottom: "deconv0"
  bottom: "target_ims"
  name: "loss"
  type: EUCLIDEAN_LOSS
}
I0813 03:00:32.108341  3247 net.cpp:65] Creating Layer source_ims
I0813 03:00:32.108350  3247 net.cpp:189] source_ims -> source_ims
I0813 03:00:32.108402  3247 data_layer.cpp:223] Opening lmdb /scr/r6/tgebru/inverting_conv/caffe_invert_alexnet/data/siggraph/tiny_winter_val_lmdb
I0813 03:00:32.108605  3247 data_layer.cpp:285] output data size: 2,3,227,227
I0813 03:00:32.108609  3247 data_layer.cpp:304] Loading mean file from/scr/r6/tgebru/timnit_caffe/data/ilsvrc12/imagenet_mean.binaryproto
I0813 03:00:32.110867  3247 net.cpp:84] Top shape: 2 3 227 227 (309174)
I0813 03:00:32.110874  3247 net.cpp:116] source_ims does not need backward computation.
I0813 03:00:32.110882  3247 net.cpp:65] Creating Layer target_ims
I0813 03:00:32.110885  3247 net.cpp:189] target_ims -> target_ims
I0813 03:00:32.110932  3247 data_layer.cpp:223] Opening lmdb /scr/r6/tgebru/inverting_conv/caffe_invert_alexnet/data/siggraph/tiny_summer_val_lmdb
I0813 03:00:32.111109  3247 data_layer.cpp:285] output data size: 2,3,216,216
I0813 03:00:32.111112  3247 data_layer.cpp:304] Loading mean file from/scr/r6/tgebru/timnit_caffe/data/ilsvrc12/imagenet_mean.binaryproto
I0813 03:00:32.113276  3247 net.cpp:84] Top shape: 2 3 216 216 (279936)
I0813 03:00:32.113296  3247 net.cpp:116] target_ims does not need backward computation.
I0813 03:00:32.113303  3247 net.cpp:65] Creating Layer conv1
I0813 03:00:32.113306  3247 net.cpp:228] conv1 <- source_ims
I0813 03:00:32.113312  3247 net.cpp:189] conv1 -> conv1
I0813 03:00:32.114560  3247 net.cpp:84] Top shape: 2 96 55 55 (580800)
I0813 03:00:32.114565  3247 net.cpp:116] conv1 does not need backward computation.
I0813 03:00:32.114569  3247 net.cpp:65] Creating Layer relu1
I0813 03:00:32.114573  3247 net.cpp:228] relu1 <- conv1
I0813 03:00:32.114576  3247 net.cpp:179] relu1 -> conv1 (in-place)
I0813 03:00:32.114581  3247 net.cpp:84] Top shape: 2 96 55 55 (580800)
I0813 03:00:32.114584  3247 net.cpp:116] relu1 does not need backward computation.
I0813 03:00:32.114588  3247 net.cpp:65] Creating Layer pool1
I0813 03:00:32.114591  3247 net.cpp:228] pool1 <- conv1
I0813 03:00:32.114594  3247 net.cpp:189] pool1 -> pool1
I0813 03:00:32.114600  3247 net.cpp:84] Top shape: 2 96 27 27 (139968)
I0813 03:00:32.114603  3247 net.cpp:116] pool1 does not need backward computation.
I0813 03:00:32.114608  3247 net.cpp:65] Creating Layer norm1
I0813 03:00:32.114610  3247 net.cpp:228] norm1 <- pool1
I0813 03:00:32.114614  3247 net.cpp:189] norm1 -> norm1
I0813 03:00:32.114620  3247 net.cpp:84] Top shape: 2 96 27 27 (139968)
I0813 03:00:32.114624  3247 net.cpp:116] norm1 does not need backward computation.
I0813 03:00:32.114626  3247 net.cpp:65] Creating Layer Rconv6
I0813 03:00:32.114629  3247 net.cpp:228] Rconv6 <- norm1
I0813 03:00:32.114634  3247 net.cpp:189] Rconv6 -> Rconv6
I0813 03:00:32.115216  3247 net.cpp:84] Top shape: 2 256 27 27 (373248)
I0813 03:00:32.115221  3247 net.cpp:116] Rconv6 does not need backward computation.
I0813 03:00:32.115224  3247 net.cpp:65] Creating Layer Rrelu6
I0813 03:00:32.115227  3247 net.cpp:228] Rrelu6 <- Rconv6
I0813 03:00:32.115231  3247 net.cpp:179] Rrelu6 -> Rconv6 (in-place)
I0813 03:00:32.115236  3247 net.cpp:84] Top shape: 2 256 27 27 (373248)
I0813 03:00:32.115239  3247 net.cpp:116] Rrelu6 does not need backward computation.
I0813 03:00:32.115243  3247 net.cpp:65] Creating Layer Rconv7
I0813 03:00:32.115247  3247 net.cpp:228] Rconv7 <- Rconv6
I0813 03:00:32.115250  3247 net.cpp:189] Rconv7 -> Rconv7
I0813 03:00:32.115965  3247 net.cpp:84] Top shape: 2 256 27 27 (373248)
I0813 03:00:32.115970  3247 net.cpp:116] Rconv7 does not need backward computation.
I0813 03:00:32.115973  3247 net.cpp:65] Creating Layer Rrelu7
I0813 03:00:32.115977  3247 net.cpp:228] Rrelu7 <- Rconv7
I0813 03:00:32.115980  3247 net.cpp:179] Rrelu7 -> Rconv7 (in-place)
I0813 03:00:32.115984  3247 net.cpp:84] Top shape: 2 256 27 27 (373248)
I0813 03:00:32.115988  3247 net.cpp:116] Rrelu7 does not need backward computation.
I0813 03:00:32.115990  3247 net.cpp:65] Creating Layer Rconv8
I0813 03:00:32.115993  3247 net.cpp:228] Rconv8 <- Rconv7
I0813 03:00:32.115998  3247 net.cpp:189] Rconv8 -> Rconv8
I0813 03:00:32.116714  3247 net.cpp:84] Top shape: 2 256 27 27 (373248)
I0813 03:00:32.116719  3247 net.cpp:116] Rconv8 does not need backward computation.
I0813 03:00:32.116721  3247 net.cpp:65] Creating Layer Rrelu8
I0813 03:00:32.116724  3247 net.cpp:228] Rrelu8 <- Rconv8
I0813 03:00:32.116729  3247 net.cpp:179] Rrelu8 -> Rconv8 (in-place)
I0813 03:00:32.116732  3247 net.cpp:84] Top shape: 2 256 27 27 (373248)
I0813 03:00:32.116735  3247 net.cpp:116] Rrelu8 does not need backward computation.
I0813 03:00:32.116739  3247 net.cpp:65] Creating Layer deconv2
I0813 03:00:32.116742  3247 net.cpp:228] deconv2 <- Rconv8
I0813 03:00:32.116745  3247 net.cpp:189] deconv2 -> deconv2
I0813 03:00:32.117738  3247 net.cpp:84] Top shape: 2 64 54 54 (373248)
I0813 03:00:32.117741  3247 net.cpp:116] deconv2 does not need backward computation.
I0813 03:00:32.117745  3247 net.cpp:65] Creating Layer relu_deconv2
I0813 03:00:32.117748  3247 net.cpp:228] relu_deconv2 <- deconv2
I0813 03:00:32.117753  3247 net.cpp:179] relu_deconv2 -> deconv2 (in-place)
I0813 03:00:32.117758  3247 net.cpp:84] Top shape: 2 64 54 54 (373248)
I0813 03:00:32.117760  3247 net.cpp:116] relu_deconv2 does not need backward computation.
I0813 03:00:32.117775  3247 net.cpp:65] Creating Layer deconv1
I0813 03:00:32.117779  3247 net.cpp:228] deconv1 <- deconv2
I0813 03:00:32.117782  3247 net.cpp:189] deconv1 -> deconv1
I0813 03:00:32.117918  3247 net.cpp:84] Top shape: 2 32 108 108 (746496)
I0813 03:00:32.117923  3247 net.cpp:116] deconv1 does not need backward computation.
I0813 03:00:32.117926  3247 net.cpp:65] Creating Layer relu_deconv1
I0813 03:00:32.117929  3247 net.cpp:228] relu_deconv1 <- deconv1
I0813 03:00:32.117933  3247 net.cpp:179] relu_deconv1 -> deconv1 (in-place)
I0813 03:00:32.117938  3247 net.cpp:84] Top shape: 2 32 108 108 (746496)
I0813 03:00:32.117939  3247 net.cpp:116] relu_deconv1 does not need backward computation.
I0813 03:00:32.117944  3247 net.cpp:65] Creating Layer deconv0
I0813 03:00:32.117947  3247 net.cpp:228] deconv0 <- deconv1
I0813 03:00:32.117951  3247 net.cpp:189] deconv0 -> deconv0
I0813 03:00:32.117969  3247 net.cpp:84] Top shape: 2 3 216 216 (279936)
I0813 03:00:32.117971  3247 net.cpp:116] deconv0 does not need backward computation.
I0813 03:00:32.117975  3247 net.cpp:65] Creating Layer loss
I0813 03:00:32.117977  3247 net.cpp:228] loss <- deconv0
I0813 03:00:32.117981  3247 net.cpp:228] loss <- target_ims
I0813 03:00:32.117985  3247 net.cpp:116] loss does not need backward computation.
I0813 03:00:32.117996  3247 net.cpp:238] Collecting Learning Rate and Weight Decay.
…
