…
    source: "/scr/r6/tgebru/inverting_conv/caffe_invert_alexnet/data/siggraph/tiny_summer_train_lmdb"
    mean_file: "/scr/r6/tgebru/timnit_caffe/data/ilsvrc12/imagenet_mean.binaryproto"
    batch_size: 12
    crop_size: 227
    mirror: false
    backend: LMDB
  }
}
layers {
  top: "target_ims"
  name: "target_ims"
  type: DATA
  data_param {
    source: "/scr/r6/tgebru/inverting_conv/caffe_invert_alexnet/data/siggraph/tiny_summer_train_lmdb"
    mean_file: "/scr/r6/tgebru/timnit_caffe/data/ilsvrc12/imagenet_mean.binaryproto"
    batch_size: 12
    crop_size: 216
    mirror: false
    backend: LMDB
  }
}
layers {
  bottom: "source_ims"
  top: "conv1"
  name: "conv1"
  type: CONVOLUTION
  blobs_lr: 0
  blobs_lr: 0
  weight_decay: 1
  weight_decay: 0
  convolution_param {
    num_output: 96
    kernel_size: 11
    stride: 4
    weight_filler {
      type: "gaussian"
      std: 0.01
    }
    bias_filler {
      type: "constant"
      value: 0
    }
  }
}
layers {
  bottom: "conv1"
  top: "conv1"
  name: "relu1"
  type: RELU
}
layers {
  bottom: "conv1"
  top: "pool1"
  name: "pool1"
  type: POOLING
  pooling_param {
    pool: MAX
    kernel_size: 3
    stride: 2
  }
}
layers {
  bottom: "pool1"
  top: "norm1"
  name: "norm1"
  type: LRN
  lrn_param {
    local_size: 5
    alpha: 0.0001
    beta: 0.75
  }
}
layers {
  bottom: "norm1"
  top: "Rconv6"
  name: "Rconv6"
  type: CONVOLUTION
  blobs_lr: 1
  blobs_lr: 2
  weight_decay: 1
  weight_decay: 0
  convolution_param {
    num_output: 256
    pad: 1
    kernel_size: 3
  }
}
layers {
  bottom: "Rconv6"
  top: "Rconv6"
  name: "Rrelu6"
  type: RELU
}
layers {
  bottom: "Rconv6"
  top: "Rconv7"
  name: "Rconv7"
  type: CONVOLUTION
  blobs_lr: 1
  blobs_lr: 2
  weight_decay: 1
  weight_decay: 0
  convolution_param {
    num_output: 256
    pad: 1
    kernel_size: 3
    group: 2
  }
}
layers {
  bottom: "Rconv7"
  top: "Rconv7"
  name: "Rrelu7"
  type: RELU
}
layers {
  bottom: "Rconv7"
  top: "Rconv8"
  name: "Rconv8"
  type: CONVOLUTION
  blobs_lr: 1
  blobs_lr: 2
  weight_decay: 1
  weight_decay: 0
  convolution_param {
    num_output: 256
    pad: 1
    kernel_size: 3
    group: 2
  }
}
layers {
  bottom: "Rconv8"
  top: "Rconv8"
  name: "Rrelu8"
  type: RELU
}
layers {
  bottom: "Rconv8"
  top: "deconv2"
  name: "deconv2"
  type: DECONVOLUTION
  blobs_lr: 1
  blobs_lr: 2
  weight_decay: 1
  weight_decay: 0
  deconvolution_param {
    pad: 2
    kernel_size: 5
    stride: 2
    output_height: 54
    output_width: 54
    output_channels: 64
  }
}
layers {
  bottom: "deconv2"
  top: "deconv2"
  name: "relu_deconv2"
  type: RELU
  relu_param {
    negative_slope: 0.3
  }
}
layers {
  bottom: "deconv2"
  top: "deconv1"
  name: "deconv1"
  type: DECONVOLUTION
  blobs_lr: 1
  blobs_lr: 2
  weight_decay: 1
  weight_decay: 0
  deconvolution_param {
    pad: 2
    kernel_size: 5
    stride: 2
    output_height: 108
    output_width: 108
    output_channels: 32
  }
}
layers {
  bottom: "deconv1"
  top: "deconv1"
  name: "relu_deconv1"
  type: RELU
  relu_param {
    negative_slope: 0.3
  }
}
layers {
  bottom: "deconv1"
  top: "deconv0"
  name: "deconv0"
  type: DECONVOLUTION
  blobs_lr: 1
  blobs_lr: 2
  weight_decay: 1
  weight_decay: 1
  deconvolution_param {
    pad: 2
    kernel_size: 5
    stride: 2
    output_height: 216
    output_width: 216
    output_channels: 3
  }
}
layers {
  bottom: "deconv0"
  bottom: "target_ims"
  name: "loss"
  type: EUCLIDEAN_LOSS
}
I0813 11:21:05.551583 15749 net.cpp:65] Creating Layer source_ims
I0813 11:21:05.551591 15749 net.cpp:189] source_ims -> source_ims
I0813 11:21:05.551710 15749 data_layer.cpp:223] Opening lmdb /scr/r6/tgebru/inverting_conv/caffe_invert_alexnet/data/siggraph/tiny_summer_train_lmdb
I0813 11:21:05.551925 15749 data_layer.cpp:285] output data size: 12,3,227,227
I0813 11:21:05.551933 15749 data_layer.cpp:304] Loading mean file from/scr/r6/tgebru/timnit_caffe/data/ilsvrc12/imagenet_mean.binaryproto
I0813 11:21:05.556435 15749 net.cpp:84] Top shape: 12 3 227 227 (1855044)
I0813 11:21:05.556443 15749 net.cpp:116] source_ims does not need backward computation.
I0813 11:21:05.556450 15749 net.cpp:65] Creating Layer target_ims
I0813 11:21:05.556453 15749 net.cpp:189] target_ims -> target_ims
I0813 11:21:05.556607 15749 data_layer.cpp:223] Opening lmdb /scr/r6/tgebru/inverting_conv/caffe_invert_alexnet/data/siggraph/tiny_summer_train_lmdb
I0813 11:21:05.556731 15749 data_layer.cpp:285] output data size: 12,3,216,216
I0813 11:21:05.556736 15749 data_layer.cpp:304] Loading mean file from/scr/r6/tgebru/timnit_caffe/data/ilsvrc12/imagenet_mean.binaryproto
I0813 11:21:05.561172 15749 net.cpp:84] Top shape: 12 3 216 216 (1679616)
I0813 11:21:05.561180 15749 net.cpp:116] target_ims does not need backward computation.
I0813 11:21:05.561192 15749 net.cpp:65] Creating Layer conv1
I0813 11:21:05.561197 15749 net.cpp:228] conv1 <- source_ims
I0813 11:21:05.561259 15749 net.cpp:189] conv1 -> conv1
I0813 11:21:05.562562 15749 net.cpp:84] Top shape: 12 96 55 55 (3484800)
I0813 11:21:05.562568 15749 net.cpp:116] conv1 does not need backward computation.
I0813 11:21:05.562573 15749 net.cpp:65] Creating Layer relu1
I0813 11:21:05.562577 15749 net.cpp:228] relu1 <- conv1
I0813 11:21:05.562582 15749 net.cpp:179] relu1 -> conv1 (in-place)
I0813 11:21:05.562590 15749 net.cpp:84] Top shape: 12 96 55 55 (3484800)
I0813 11:21:05.562593 15749 net.cpp:116] relu1 does not need backward computation.
I0813 11:21:05.562598 15749 net.cpp:65] Creating Layer pool1
I0813 11:21:05.562602 15749 net.cpp:228] pool1 <- conv1
I0813 11:21:05.562605 15749 net.cpp:189] pool1 -> pool1
I0813 11:21:05.562618 15749 net.cpp:84] Top shape: 12 96 27 27 (839808)
I0813 11:21:05.562620 15749 net.cpp:116] pool1 does not need backward computation.
I0813 11:21:05.562625 15749 net.cpp:65] Creating Layer norm1
I0813 11:21:05.562628 15749 net.cpp:228] norm1 <- pool1
I0813 11:21:05.562631 15749 net.cpp:189] norm1 -> norm1
I0813 11:21:05.562640 15749 net.cpp:84] Top shape: 12 96 27 27 (839808)
I0813 11:21:05.562644 15749 net.cpp:116] norm1 does not need backward computation.
I0813 11:21:05.562647 15749 net.cpp:65] Creating Layer Rconv6
I0813 11:21:05.562649 15749 net.cpp:228] Rconv6 <- norm1
I0813 11:21:05.562654 15749 net.cpp:189] Rconv6 -> Rconv6
I0813 11:21:05.562932 15749 net.cpp:84] Top shape: 12 256 27 27 (2239488)
I0813 11:21:05.562937 15749 net.cpp:111] Rconv6 needs backward computation.
I0813 11:21:05.562942 15749 net.cpp:65] Creating Layer Rrelu6
I0813 11:21:05.562944 15749 net.cpp:228] Rrelu6 <- Rconv6
I0813 11:21:05.562948 15749 net.cpp:179] Rrelu6 -> Rconv6 (in-place)
I0813 11:21:05.562952 15749 net.cpp:84] Top shape: 12 256 27 27 (2239488)
I0813 11:21:05.562955 15749 net.cpp:111] Rrelu6 needs backward computation.
I0813 11:21:05.562960 15749 net.cpp:65] Creating Layer Rconv7
I0813 11:21:05.562963 15749 net.cpp:228] Rconv7 <- Rconv6
I0813 11:21:05.562968 15749 net.cpp:189] Rconv7 -> Rconv7
I0813 11:21:05.563743 15749 net.cpp:84] Top shape: 12 256 27 27 (2239488)
I0813 11:21:05.563747 15749 net.cpp:111] Rconv7 needs backward computation.
I0813 11:21:05.563751 15749 net.cpp:65] Creating Layer Rrelu7
I0813 11:21:05.563753 15749 net.cpp:228] Rrelu7 <- Rconv7
I0813 11:21:05.563776 15749 net.cpp:179] Rrelu7 -> Rconv7 (in-place)
I0813 11:21:05.563781 15749 net.cpp:84] Top shape: 12 256 27 27 (2239488)
I0813 11:21:05.563783 15749 net.cpp:111] Rrelu7 needs backward computation.
I0813 11:21:05.563787 15749 net.cpp:65] Creating Layer Rconv8
I0813 11:21:05.563791 15749 net.cpp:228] Rconv8 <- Rconv7
I0813 11:21:05.563794 15749 net.cpp:189] Rconv8 -> Rconv8
I0813 11:21:05.564584 15749 net.cpp:84] Top shape: 12 256 27 27 (2239488)
I0813 11:21:05.564589 15749 net.cpp:111] Rconv8 needs backward computation.
I0813 11:21:05.564592 15749 net.cpp:65] Creating Layer Rrelu8
I0813 11:21:05.564595 15749 net.cpp:228] Rrelu8 <- Rconv8
I0813 11:21:05.564599 15749 net.cpp:179] Rrelu8 -> Rconv8 (in-place)
I0813 11:21:05.564602 15749 net.cpp:84] Top shape: 12 256 27 27 (2239488)
I0813 11:21:05.564605 15749 net.cpp:111] Rrelu8 needs backward computation.
I0813 11:21:05.564609 15749 net.cpp:65] Creating Layer deconv2
I0813 11:21:05.564611 15749 net.cpp:228] deconv2 <- Rconv8
I0813 11:21:05.564615 15749 net.cpp:189] deconv2 -> deconv2
I0813 11:21:05.565634 15749 net.cpp:84] Top shape: 12 64 54 54 (2239488)
I0813 11:21:05.565639 15749 net.cpp:111] deconv2 needs backward computation.
I0813 11:21:05.565642 15749 net.cpp:65] Creating Layer relu_deconv2
I0813 11:21:05.565645 15749 net.cpp:228] relu_deconv2 <- deconv2
I0813 11:21:05.565649 15749 net.cpp:179] relu_deconv2 -> deconv2 (in-place)
I0813 11:21:05.565654 15749 net.cpp:84] Top shape: 12 64 54 54 (2239488)
I0813 11:21:05.565656 15749 net.cpp:111] relu_deconv2 needs backward computation.
I0813 11:21:05.565660 15749 net.cpp:65] Creating Layer deconv1
I0813 11:21:05.565662 15749 net.cpp:228] deconv1 <- deconv2
I0813 11:21:05.565666 15749 net.cpp:189] deconv1 -> deconv1
I0813 11:21:05.565805 15749 net.cpp:84] Top shape: 12 32 108 108 (4478976)
I0813 11:21:05.565809 15749 net.cpp:111] deconv1 needs backward computation.
I0813 11:21:05.565812 15749 net.cpp:65] Creating Layer relu_deconv1
I0813 11:21:05.565815 15749 net.cpp:228] relu_deconv1 <- deconv1
I0813 11:21:05.565819 15749 net.cpp:179] relu_deconv1 -> deconv1 (in-place)
I0813 11:21:05.565824 15749 net.cpp:84] Top shape: 12 32 108 108 (4478976)
I0813 11:21:05.565826 15749 net.cpp:111] relu_deconv1 needs backward computation.
I0813 11:21:05.565831 15749 net.cpp:65] Creating Layer deconv0
I0813 11:21:05.565834 15749 net.cpp:228] deconv0 <- deconv1
I0813 11:21:05.565837 15749 net.cpp:189] deconv0 -> deconv0
I0813 11:21:05.565860 15749 net.cpp:84] Top shape: 12 3 216 216 (1679616)
I0813 11:21:05.565863 15749 net.cpp:111] deconv0 needs backward computation.
I0813 11:21:05.565867 15749 net.cpp:65] Creating Layer loss
I0813 11:21:05.565870 15749 net.cpp:228] loss <- deconv0
I0813 11:21:05.565873 15749 net.cpp:228] loss <- target_ims
I0813 11:21:05.565881 15749 net.cpp:111] loss needs backward computation.
I0813 11:21:05.565894 15749 net.cpp:238] Collecting Learning Rate and Weight Decay.
…
    source: "/scr/r6/tgebru/inverting_conv/caffe_invert_alexnet/data/siggraph/tiny_summer_val_lmdb"
    mean_file: "/scr/r6/tgebru/timnit_caffe/data/ilsvrc12/imagenet_mean.binaryproto"
    batch_size: 2
    crop_size: 227
    mirror: false
    backend: LMDB
  }
}
layers {
  top: "target_ims"
  name: "target_ims"
  type: DATA
  data_param {
    source: "/scr/r6/tgebru/inverting_conv/caffe_invert_alexnet/data/siggraph/tiny_summer_val_lmdb"
    mean_file: "/scr/r6/tgebru/timnit_caffe/data/ilsvrc12/imagenet_mean.binaryproto"
    batch_size: 2
    crop_size: 216
    mirror: false
    backend: LMDB
  }
}
layers {
  bottom: "source_ims"
  top: "conv1"
  name: "conv1"
  type: CONVOLUTION
  blobs_lr: 0
  blobs_lr: 0
  weight_decay: 1
  weight_decay: 0
  convolution_param {
    num_output: 96
    kernel_size: 11
    stride: 4
    weight_filler {
      type: "gaussian"
      std: 0.01
    }
    bias_filler {
      type: "constant"
      value: 0
    }
  }
}
layers {
  bottom: "conv1"
  top: "conv1"
  name: "relu1"
  type: RELU
}
layers {
  bottom: "conv1"
  top: "pool1"
  name: "pool1"
  type: POOLING
  pooling_param {
    pool: MAX
    kernel_size: 3
    stride: 2
  }
}
layers {
  bottom: "pool1"
  top: "norm1"
  name: "norm1"
  type: LRN
  lrn_param {
    local_size: 5
    alpha: 0.0001
    beta: 0.75
  }
}
layers {
  bottom: "norm1"
  top: "Rconv6"
  name: "Rconv6"
  type: CONVOLUTION
  blobs_lr: 0
  blobs_lr: 0
  weight_decay: 1
  weight_decay: 0
  convolution_param {
    num_output: 256
    pad: 1
    kernel_size: 3
  }
}
layers {
  bottom: "Rconv6"
  top: "Rconv6"
  name: "Rrelu6"
  type: RELU
}
layers {
  bottom: "Rconv6"
  top: "Rconv7"
  name: "Rconv7"
  type: CONVOLUTION
  blobs_lr: 0
  blobs_lr: 0
  weight_decay: 1
  weight_decay: 0
  convolution_param {
    num_output: 256
    pad: 1
    kernel_size: 3
    group: 2
  }
}
layers {
  bottom: "Rconv7"
  top: "Rconv7"
  name: "Rrelu7"
  type: RELU
}
layers {
  bottom: "Rconv7"
  top: "Rconv8"
  name: "Rconv8"
  type: CONVOLUTION
  blobs_lr: 0
  blobs_lr: 0
  weight_decay: 1
  weight_decay: 0
  convolution_param {
    num_output: 256
    pad: 1
    kernel_size: 3
    group: 2
  }
}
layers {
  bottom: "Rconv8"
  top: "Rconv8"
  name: "Rrelu8"
  type: RELU
}
layers {
  bottom: "Rconv8"
  top: "deconv2"
  name: "deconv2"
  type: DECONVOLUTION
  blobs_lr: 0
  blobs_lr: 0
  weight_decay: 1
  weight_decay: 0
  deconvolution_param {
    pad: 2
    kernel_size: 5
    stride: 2
    output_height: 54
    output_width: 54
    output_channels: 64
  }
}
layers {
  bottom: "deconv2"
  top: "deconv2"
  name: "relu_deconv2"
  type: RELU
  relu_param {
    negative_slope: 0.3
  }
}
layers {
  bottom: "deconv2"
  top: "deconv1"
  name: "deconv1"
  type: DECONVOLUTION
  blobs_lr: 0
  blobs_lr: 0
  weight_decay: 1
  weight_decay: 0
  deconvolution_param {
    pad: 2
    kernel_size: 5
    stride: 2
    output_height: 108
    output_width: 108
    output_channels: 32
  }
}
layers {
  bottom: "deconv1"
  top: "deconv1"
  name: "relu_deconv1"
  type: RELU
  relu_param {
    negative_slope: 0.3
  }
}
layers {
  bottom: "deconv1"
  top: "deconv0"
  name: "deconv0"
  type: DECONVOLUTION
  blobs_lr: 0
  blobs_lr: 0
  weight_decay: 1
  weight_decay: 0
  deconvolution_param {
    pad: 2
    kernel_size: 5
    stride: 2
    output_height: 216
    output_width: 216
    output_channels: 3
  }
}
layers {
  bottom: "deconv0"
  bottom: "target_ims"
  name: "loss"
  type: EUCLIDEAN_LOSS
}
I0813 11:21:05.566591 15749 net.cpp:65] Creating Layer source_ims
I0813 11:21:05.566596 15749 net.cpp:189] source_ims -> source_ims
I0813 11:21:05.566648 15749 data_layer.cpp:223] Opening lmdb /scr/r6/tgebru/inverting_conv/caffe_invert_alexnet/data/siggraph/tiny_summer_val_lmdb
I0813 11:21:05.566829 15749 data_layer.cpp:285] output data size: 2,3,227,227
I0813 11:21:05.566834 15749 data_layer.cpp:304] Loading mean file from/scr/r6/tgebru/timnit_caffe/data/ilsvrc12/imagenet_mean.binaryproto
I0813 11:21:05.569541 15749 net.cpp:84] Top shape: 2 3 227 227 (309174)
I0813 11:21:05.569548 15749 net.cpp:116] source_ims does not need backward computation.
I0813 11:21:05.569553 15749 net.cpp:65] Creating Layer target_ims
I0813 11:21:05.569558 15749 net.cpp:189] target_ims -> target_ims
I0813 11:21:05.569602 15749 data_layer.cpp:223] Opening lmdb /scr/r6/tgebru/inverting_conv/caffe_invert_alexnet/data/siggraph/tiny_summer_val_lmdb
I0813 11:21:05.569679 15749 data_layer.cpp:285] output data size: 2,3,216,216
I0813 11:21:05.569684 15749 data_layer.cpp:304] Loading mean file from/scr/r6/tgebru/timnit_caffe/data/ilsvrc12/imagenet_mean.binaryproto
I0813 11:21:05.571879 15749 net.cpp:84] Top shape: 2 3 216 216 (279936)
I0813 11:21:05.571887 15749 net.cpp:116] target_ims does not need backward computation.
I0813 11:21:05.571907 15749 net.cpp:65] Creating Layer conv1
I0813 11:21:05.571910 15749 net.cpp:228] conv1 <- source_ims
I0813 11:21:05.571915 15749 net.cpp:189] conv1 -> conv1
I0813 11:21:05.573158 15749 net.cpp:84] Top shape: 2 96 55 55 (580800)
I0813 11:21:05.573161 15749 net.cpp:116] conv1 does not need backward computation.
I0813 11:21:05.573165 15749 net.cpp:65] Creating Layer relu1
I0813 11:21:05.573168 15749 net.cpp:228] relu1 <- conv1
I0813 11:21:05.573173 15749 net.cpp:179] relu1 -> conv1 (in-place)
I0813 11:21:05.573178 15749 net.cpp:84] Top shape: 2 96 55 55 (580800)
I0813 11:21:05.573180 15749 net.cpp:116] relu1 does not need backward computation.
I0813 11:21:05.573184 15749 net.cpp:65] Creating Layer pool1
I0813 11:21:05.573187 15749 net.cpp:228] pool1 <- conv1
I0813 11:21:05.573191 15749 net.cpp:189] pool1 -> pool1
I0813 11:21:05.573197 15749 net.cpp:84] Top shape: 2 96 27 27 (139968)
I0813 11:21:05.573200 15749 net.cpp:116] pool1 does not need backward computation.
I0813 11:21:05.573204 15749 net.cpp:65] Creating Layer norm1
I0813 11:21:05.573206 15749 net.cpp:228] norm1 <- pool1
I0813 11:21:05.573210 15749 net.cpp:189] norm1 -> norm1
I0813 11:21:05.573215 15749 net.cpp:84] Top shape: 2 96 27 27 (139968)
I0813 11:21:05.573218 15749 net.cpp:116] norm1 does not need backward computation.
I0813 11:21:05.573222 15749 net.cpp:65] Creating Layer Rconv6
I0813 11:21:05.573225 15749 net.cpp:228] Rconv6 <- norm1
I0813 11:21:05.573228 15749 net.cpp:189] Rconv6 -> Rconv6
I0813 11:21:05.573778 15749 net.cpp:84] Top shape: 2 256 27 27 (373248)
I0813 11:21:05.573783 15749 net.cpp:116] Rconv6 does not need backward computation.
I0813 11:21:05.573786 15749 net.cpp:65] Creating Layer Rrelu6
I0813 11:21:05.573789 15749 net.cpp:228] Rrelu6 <- Rconv6
I0813 11:21:05.573793 15749 net.cpp:179] Rrelu6 -> Rconv6 (in-place)
I0813 11:21:05.573798 15749 net.cpp:84] Top shape: 2 256 27 27 (373248)
I0813 11:21:05.573801 15749 net.cpp:116] Rrelu6 does not need backward computation.
I0813 11:21:05.573806 15749 net.cpp:65] Creating Layer Rconv7
I0813 11:21:05.573808 15749 net.cpp:228] Rconv7 <- Rconv6
I0813 11:21:05.573812 15749 net.cpp:189] Rconv7 -> Rconv7
I0813 11:21:05.574522 15749 net.cpp:84] Top shape: 2 256 27 27 (373248)
I0813 11:21:05.574525 15749 net.cpp:116] Rconv7 does not need backward computation.
I0813 11:21:05.574529 15749 net.cpp:65] Creating Layer Rrelu7
I0813 11:21:05.574532 15749 net.cpp:228] Rrelu7 <- Rconv7
I0813 11:21:05.574537 15749 net.cpp:179] Rrelu7 -> Rconv7 (in-place)
I0813 11:21:05.574540 15749 net.cpp:84] Top shape: 2 256 27 27 (373248)
I0813 11:21:05.574543 15749 net.cpp:116] Rrelu7 does not need backward computation.
I0813 11:21:05.574547 15749 net.cpp:65] Creating Layer Rconv8
I0813 11:21:05.574549 15749 net.cpp:228] Rconv8 <- Rconv7
I0813 11:21:05.574553 15749 net.cpp:189] Rconv8 -> Rconv8
I0813 11:21:05.575261 15749 net.cpp:84] Top shape: 2 256 27 27 (373248)
I0813 11:21:05.575265 15749 net.cpp:116] Rconv8 does not need backward computation.
I0813 11:21:05.575269 15749 net.cpp:65] Creating Layer Rrelu8
I0813 11:21:05.575273 15749 net.cpp:228] Rrelu8 <- Rconv8
I0813 11:21:05.575275 15749 net.cpp:179] Rrelu8 -> Rconv8 (in-place)
I0813 11:21:05.575279 15749 net.cpp:84] Top shape: 2 256 27 27 (373248)
I0813 11:21:05.575283 15749 net.cpp:116] Rrelu8 does not need backward computation.
I0813 11:21:05.575286 15749 net.cpp:65] Creating Layer deconv2
I0813 11:21:05.575289 15749 net.cpp:228] deconv2 <- Rconv8
I0813 11:21:05.575292 15749 net.cpp:189] deconv2 -> deconv2
I0813 11:21:05.576275 15749 net.cpp:84] Top shape: 2 64 54 54 (373248)
I0813 11:21:05.576280 15749 net.cpp:116] deconv2 does not need backward computation.
I0813 11:21:05.576284 15749 net.cpp:65] Creating Layer relu_deconv2
I0813 11:21:05.576287 15749 net.cpp:228] relu_deconv2 <- deconv2
I0813 11:21:05.576292 15749 net.cpp:179] relu_deconv2 -> deconv2 (in-place)
I0813 11:21:05.576295 15749 net.cpp:84] Top shape: 2 64 54 54 (373248)
I0813 11:21:05.576298 15749 net.cpp:116] relu_deconv2 does not need backward computation.
I0813 11:21:05.576314 15749 net.cpp:65] Creating Layer deconv1
I0813 11:21:05.576318 15749 net.cpp:228] deconv1 <- deconv2
I0813 11:21:05.576321 15749 net.cpp:189] deconv1 -> deconv1
I0813 11:21:05.576457 15749 net.cpp:84] Top shape: 2 32 108 108 (746496)
I0813 11:21:05.576460 15749 net.cpp:116] deconv1 does not need backward computation.
I0813 11:21:05.576464 15749 net.cpp:65] Creating Layer relu_deconv1
I0813 11:21:05.576467 15749 net.cpp:228] relu_deconv1 <- deconv1
I0813 11:21:05.576472 15749 net.cpp:179] relu_deconv1 -> deconv1 (in-place)
I0813 11:21:05.576475 15749 net.cpp:84] Top shape: 2 32 108 108 (746496)
I0813 11:21:05.576478 15749 net.cpp:116] relu_deconv1 does not need backward computation.
I0813 11:21:05.576483 15749 net.cpp:65] Creating Layer deconv0
I0813 11:21:05.576486 15749 net.cpp:228] deconv0 <- deconv1
I0813 11:21:05.576490 15749 net.cpp:189] deconv0 -> deconv0
I0813 11:21:05.576509 15749 net.cpp:84] Top shape: 2 3 216 216 (279936)
I0813 11:21:05.576513 15749 net.cpp:116] deconv0 does not need backward computation.
I0813 11:21:05.576516 15749 net.cpp:65] Creating Layer loss
I0813 11:21:05.576519 15749 net.cpp:228] loss <- deconv0
I0813 11:21:05.576522 15749 net.cpp:228] loss <- target_ims
I0813 11:21:05.576526 15749 net.cpp:116] loss does not need backward computation.
I0813 11:21:05.576539 15749 net.cpp:238] Collecting Learning Rate and Weight Decay.
…
