…
    source: "/scr/r6/tgebru/inverting_conv/caffe_invert_alexnet/data/siggraph/tiny_summer_train_lmdb"
    mean_file: "/scr/r6/tgebru/timnit_caffe/data/ilsvrc12/imagenet_mean.binaryproto"
    batch_size: 12
    crop_size: 227
    mirror: false
    backend: LMDB
  }
}
layers {
  top: "target_ims"
  name: "target_ims"
  type: DATA
  data_param {
    source: "/scr/r6/tgebru/inverting_conv/caffe_invert_alexnet/data/siggraph/tiny_winter_train_lmdb"
    mean_file: "/scr/r6/tgebru/timnit_caffe/data/ilsvrc12/imagenet_mean.binaryproto"
    batch_size: 12
    crop_size: 216
    mirror: false
    backend: LMDB
  }
}
layers {
  bottom: "source_ims"
  top: "conv1"
  name: "conv1"
  type: CONVOLUTION
  blobs_lr: 0
  blobs_lr: 0
  weight_decay: 1
  weight_decay: 0
  convolution_param {
    num_output: 96
    kernel_size: 11
    stride: 4
    weight_filler {
      type: "gaussian"
      std: 0.01
    }
    bias_filler {
      type: "constant"
      value: 0
    }
  }
}
layers {
  bottom: "conv1"
  top: "conv1"
  name: "relu1"
  type: RELU
}
layers {
  bottom: "conv1"
  top: "pool1"
  name: "pool1"
  type: POOLING
  pooling_param {
    pool: MAX
    kernel_size: 3
    stride: 2
  }
}
layers {
  bottom: "pool1"
  top: "norm1"
  name: "norm1"
  type: LRN
  lrn_param {
    local_size: 5
    alpha: 0.0001
    beta: 0.75
  }
}
layers {
  bottom: "norm1"
  top: "Rconv6"
  name: "Rconv6"
  type: CONVOLUTION
  blobs_lr: 1
  blobs_lr: 2
  weight_decay: 1
  weight_decay: 0
  convolution_param {
    num_output: 256
    pad: 1
    kernel_size: 3
  }
}
layers {
  bottom: "Rconv6"
  top: "Rconv6"
  name: "Rrelu6"
  type: RELU
}
layers {
  bottom: "Rconv6"
  top: "Rconv7"
  name: "Rconv7"
  type: CONVOLUTION
  blobs_lr: 1
  blobs_lr: 2
  weight_decay: 1
  weight_decay: 0
  convolution_param {
    num_output: 256
    pad: 1
    kernel_size: 3
    group: 2
  }
}
layers {
  bottom: "Rconv7"
  top: "Rconv7"
  name: "Rrelu7"
  type: RELU
}
layers {
  bottom: "Rconv7"
  top: "Rconv8"
  name: "Rconv8"
  type: CONVOLUTION
  blobs_lr: 1
  blobs_lr: 2
  weight_decay: 1
  weight_decay: 0
  convolution_param {
    num_output: 256
    pad: 1
    kernel_size: 3
    group: 2
  }
}
layers {
  bottom: "Rconv8"
  top: "Rconv8"
  name: "Rrelu8"
  type: RELU
}
layers {
  bottom: "Rconv8"
  top: "deconv2"
  name: "deconv2"
  type: DECONVOLUTION
  blobs_lr: 1
  blobs_lr: 2
  weight_decay: 1
  weight_decay: 0
  deconvolution_param {
    pad: 2
    kernel_size: 5
    stride: 2
    output_height: 54
    output_width: 54
    output_channels: 64
  }
}
layers {
  bottom: "deconv2"
  top: "deconv2"
  name: "relu_deconv2"
  type: RELU
  relu_param {
    negative_slope: 0.3
  }
}
layers {
  bottom: "deconv2"
  top: "deconv1"
  name: "deconv1"
  type: DECONVOLUTION
  blobs_lr: 1
  blobs_lr: 2
  weight_decay: 1
  weight_decay: 0
  deconvolution_param {
    pad: 2
    kernel_size: 5
    stride: 2
    output_height: 108
    output_width: 108
    output_channels: 32
  }
}
layers {
  bottom: "deconv1"
  top: "deconv1"
  name: "relu_deconv1"
  type: RELU
  relu_param {
    negative_slope: 0.3
  }
}
layers {
  bottom: "deconv1"
  top: "deconv0"
  name: "deconv0"
  type: DECONVOLUTION
  blobs_lr: 1
  blobs_lr: 2
  weight_decay: 1
  weight_decay: 1
  deconvolution_param {
    pad: 2
    kernel_size: 5
    stride: 2
    output_height: 216
    output_width: 216
    output_channels: 3
  }
}
layers {
  bottom: "deconv0"
  bottom: "target_ims"
  name: "loss"
  type: EUCLIDEAN_LOSS
}
I0812 19:22:28.103564 23104 net.cpp:65] Creating Layer source_ims
I0812 19:22:28.103574 23104 net.cpp:189] source_ims -> source_ims
I0812 19:22:28.103674 23104 data_layer.cpp:223] Opening lmdb /scr/r6/tgebru/inverting_conv/caffe_invert_alexnet/data/siggraph/tiny_summer_train_lmdb
I0812 19:22:28.103891 23104 data_layer.cpp:285] output data size: 12,3,227,227
I0812 19:22:28.103899 23104 data_layer.cpp:304] Loading mean file from/scr/r6/tgebru/timnit_caffe/data/ilsvrc12/imagenet_mean.binaryproto
I0812 19:22:28.108628 23104 net.cpp:84] Top shape: 12 3 227 227 (1855044)
I0812 19:22:28.108635 23104 net.cpp:116] source_ims does not need backward computation.
I0812 19:22:28.108644 23104 net.cpp:65] Creating Layer target_ims
I0812 19:22:28.108647 23104 net.cpp:189] target_ims -> target_ims
I0812 19:22:28.108809 23104 data_layer.cpp:223] Opening lmdb /scr/r6/tgebru/inverting_conv/caffe_invert_alexnet/data/siggraph/tiny_winter_train_lmdb
I0812 19:22:28.108970 23104 data_layer.cpp:285] output data size: 12,3,216,216
I0812 19:22:28.108974 23104 data_layer.cpp:304] Loading mean file from/scr/r6/tgebru/timnit_caffe/data/ilsvrc12/imagenet_mean.binaryproto
I0812 19:22:28.113366 23104 net.cpp:84] Top shape: 12 3 216 216 (1679616)
I0812 19:22:28.113374 23104 net.cpp:116] target_ims does not need backward computation.
I0812 19:22:28.113386 23104 net.cpp:65] Creating Layer conv1
I0812 19:22:28.113390 23104 net.cpp:228] conv1 <- source_ims
I0812 19:22:28.113479 23104 net.cpp:189] conv1 -> conv1
I0812 19:22:28.114986 23104 net.cpp:84] Top shape: 12 96 55 55 (3484800)
I0812 19:22:28.114992 23104 net.cpp:116] conv1 does not need backward computation.
I0812 19:22:28.114997 23104 net.cpp:65] Creating Layer relu1
I0812 19:22:28.115000 23104 net.cpp:228] relu1 <- conv1
I0812 19:22:28.115006 23104 net.cpp:179] relu1 -> conv1 (in-place)
I0812 19:22:28.115015 23104 net.cpp:84] Top shape: 12 96 55 55 (3484800)
I0812 19:22:28.115018 23104 net.cpp:116] relu1 does not need backward computation.
I0812 19:22:28.115023 23104 net.cpp:65] Creating Layer pool1
I0812 19:22:28.115026 23104 net.cpp:228] pool1 <- conv1
I0812 19:22:28.115031 23104 net.cpp:189] pool1 -> pool1
I0812 19:22:28.115041 23104 net.cpp:84] Top shape: 12 96 27 27 (839808)
I0812 19:22:28.115044 23104 net.cpp:116] pool1 does not need backward computation.
I0812 19:22:28.115049 23104 net.cpp:65] Creating Layer norm1
I0812 19:22:28.115051 23104 net.cpp:228] norm1 <- pool1
I0812 19:22:28.115056 23104 net.cpp:189] norm1 -> norm1
I0812 19:22:28.115066 23104 net.cpp:84] Top shape: 12 96 27 27 (839808)
I0812 19:22:28.115067 23104 net.cpp:116] norm1 does not need backward computation.
I0812 19:22:28.115072 23104 net.cpp:65] Creating Layer Rconv6
I0812 19:22:28.115074 23104 net.cpp:228] Rconv6 <- norm1
I0812 19:22:28.115078 23104 net.cpp:189] Rconv6 -> Rconv6
I0812 19:22:28.115350 23104 net.cpp:84] Top shape: 12 256 27 27 (2239488)
I0812 19:22:28.115355 23104 net.cpp:111] Rconv6 needs backward computation.
I0812 19:22:28.115358 23104 net.cpp:65] Creating Layer Rrelu6
I0812 19:22:28.115361 23104 net.cpp:228] Rrelu6 <- Rconv6
I0812 19:22:28.115365 23104 net.cpp:179] Rrelu6 -> Rconv6 (in-place)
I0812 19:22:28.115370 23104 net.cpp:84] Top shape: 12 256 27 27 (2239488)
I0812 19:22:28.115372 23104 net.cpp:111] Rrelu6 needs backward computation.
I0812 19:22:28.115377 23104 net.cpp:65] Creating Layer Rconv7
I0812 19:22:28.115381 23104 net.cpp:228] Rconv7 <- Rconv6
I0812 19:22:28.115384 23104 net.cpp:189] Rconv7 -> Rconv7
I0812 19:22:28.116170 23104 net.cpp:84] Top shape: 12 256 27 27 (2239488)
I0812 19:22:28.116175 23104 net.cpp:111] Rconv7 needs backward computation.
I0812 19:22:28.116178 23104 net.cpp:65] Creating Layer Rrelu7
I0812 19:22:28.116206 23104 net.cpp:228] Rrelu7 <- Rconv7
I0812 19:22:28.116210 23104 net.cpp:179] Rrelu7 -> Rconv7 (in-place)
I0812 19:22:28.116215 23104 net.cpp:84] Top shape: 12 256 27 27 (2239488)
I0812 19:22:28.116219 23104 net.cpp:111] Rrelu7 needs backward computation.
I0812 19:22:28.116221 23104 net.cpp:65] Creating Layer Rconv8
I0812 19:22:28.116225 23104 net.cpp:228] Rconv8 <- Rconv7
I0812 19:22:28.116228 23104 net.cpp:189] Rconv8 -> Rconv8
I0812 19:22:28.117023 23104 net.cpp:84] Top shape: 12 256 27 27 (2239488)
I0812 19:22:28.117028 23104 net.cpp:111] Rconv8 needs backward computation.
I0812 19:22:28.117032 23104 net.cpp:65] Creating Layer Rrelu8
I0812 19:22:28.117034 23104 net.cpp:228] Rrelu8 <- Rconv8
I0812 19:22:28.117038 23104 net.cpp:179] Rrelu8 -> Rconv8 (in-place)
I0812 19:22:28.117043 23104 net.cpp:84] Top shape: 12 256 27 27 (2239488)
I0812 19:22:28.117044 23104 net.cpp:111] Rrelu8 needs backward computation.
I0812 19:22:28.117048 23104 net.cpp:65] Creating Layer deconv2
I0812 19:22:28.117051 23104 net.cpp:228] deconv2 <- Rconv8
I0812 19:22:28.117054 23104 net.cpp:189] deconv2 -> deconv2
I0812 19:22:28.118160 23104 net.cpp:84] Top shape: 12 64 54 54 (2239488)
I0812 19:22:28.118165 23104 net.cpp:111] deconv2 needs backward computation.
I0812 19:22:28.118170 23104 net.cpp:65] Creating Layer relu_deconv2
I0812 19:22:28.118172 23104 net.cpp:228] relu_deconv2 <- deconv2
I0812 19:22:28.118176 23104 net.cpp:179] relu_deconv2 -> deconv2 (in-place)
I0812 19:22:28.118181 23104 net.cpp:84] Top shape: 12 64 54 54 (2239488)
I0812 19:22:28.118183 23104 net.cpp:111] relu_deconv2 needs backward computation.
I0812 19:22:28.118187 23104 net.cpp:65] Creating Layer deconv1
I0812 19:22:28.118191 23104 net.cpp:228] deconv1 <- deconv2
I0812 19:22:28.118193 23104 net.cpp:189] deconv1 -> deconv1
I0812 19:22:28.118369 23104 net.cpp:84] Top shape: 12 32 108 108 (4478976)
I0812 19:22:28.118373 23104 net.cpp:111] deconv1 needs backward computation.
I0812 19:22:28.118377 23104 net.cpp:65] Creating Layer relu_deconv1
I0812 19:22:28.118381 23104 net.cpp:228] relu_deconv1 <- deconv1
I0812 19:22:28.118384 23104 net.cpp:179] relu_deconv1 -> deconv1 (in-place)
I0812 19:22:28.118388 23104 net.cpp:84] Top shape: 12 32 108 108 (4478976)
I0812 19:22:28.118391 23104 net.cpp:111] relu_deconv1 needs backward computation.
I0812 19:22:28.118396 23104 net.cpp:65] Creating Layer deconv0
I0812 19:22:28.118398 23104 net.cpp:228] deconv0 <- deconv1
I0812 19:22:28.118402 23104 net.cpp:189] deconv0 -> deconv0
I0812 19:22:28.118427 23104 net.cpp:84] Top shape: 12 3 216 216 (1679616)
I0812 19:22:28.118429 23104 net.cpp:111] deconv0 needs backward computation.
I0812 19:22:28.118433 23104 net.cpp:65] Creating Layer loss
I0812 19:22:28.118435 23104 net.cpp:228] loss <- deconv0
I0812 19:22:28.118439 23104 net.cpp:228] loss <- target_ims
I0812 19:22:28.118448 23104 net.cpp:111] loss needs backward computation.
I0812 19:22:28.118460 23104 net.cpp:238] Collecting Learning Rate and Weight Decay.
…
    source: "/scr/r6/tgebru/inverting_conv/caffe_invert_alexnet/data/siggraph/tiny_summer_val_lmdb"
    mean_file: "/scr/r6/tgebru/timnit_caffe/data/ilsvrc12/imagenet_mean.binaryproto"
    batch_size: 64
    crop_size: 227
    mirror: false
    backend: LMDB
  }
}
layers {
  top: "target_ims"
  name: "target_ims"
  type: DATA
  data_param {
    source: "/scr/r6/tgebru/inverting_conv/caffe_invert_alexnet/data/siggraph/tiny_winter_val_lmdb"
    mean_file: "/scr/r6/tgebru/timnit_caffe/data/ilsvrc12/imagenet_mean.binaryproto"
    batch_size: 64
    crop_size: 216
    mirror: false
    backend: LMDB
  }
}
layers {
  bottom: "source_ims"
  top: "conv1"
  name: "conv1"
  type: CONVOLUTION
  blobs_lr: 0
  blobs_lr: 0
  weight_decay: 1
  weight_decay: 0
  convolution_param {
    num_output: 96
    kernel_size: 11
    stride: 4
    weight_filler {
      type: "gaussian"
      std: 0.01
    }
    bias_filler {
      type: "constant"
      value: 0
    }
  }
}
layers {
  bottom: "conv1"
  top: "conv1"
  name: "relu1"
  type: RELU
}
layers {
  bottom: "conv1"
  top: "pool1"
  name: "pool1"
  type: POOLING
  pooling_param {
    pool: MAX
    kernel_size: 3
    stride: 2
  }
}
layers {
  bottom: "pool1"
  top: "norm1"
  name: "norm1"
  type: LRN
  lrn_param {
    local_size: 5
    alpha: 0.0001
    beta: 0.75
  }
}
layers {
  bottom: "norm1"
  top: "Rconv6"
  name: "Rconv6"
  type: CONVOLUTION
  blobs_lr: 0
  blobs_lr: 0
  weight_decay: 1
  weight_decay: 0
  convolution_param {
    num_output: 256
    pad: 1
    kernel_size: 3
  }
}
layers {
  bottom: "Rconv6"
  top: "Rconv6"
  name: "Rrelu6"
  type: RELU
}
layers {
  bottom: "Rconv6"
  top: "Rconv7"
  name: "Rconv7"
  type: CONVOLUTION
  blobs_lr: 0
  blobs_lr: 0
  weight_decay: 1
  weight_decay: 0
  convolution_param {
    num_output: 256
    pad: 1
    kernel_size: 3
    group: 2
  }
}
layers {
  bottom: "Rconv7"
  top: "Rconv7"
  name: "Rrelu7"
  type: RELU
}
layers {
  bottom: "Rconv7"
  top: "Rconv8"
  name: "Rconv8"
  type: CONVOLUTION
  blobs_lr: 0
  blobs_lr: 0
  weight_decay: 1
  weight_decay: 0
  convolution_param {
    num_output: 256
    pad: 1
    kernel_size: 3
    group: 2
  }
}
layers {
  bottom: "Rconv8"
  top: "Rconv8"
  name: "Rrelu8"
  type: RELU
}
layers {
  bottom: "Rconv8"
  top: "deconv2"
  name: "deconv2"
  type: DECONVOLUTION
  blobs_lr: 0
  blobs_lr: 0
  weight_decay: 1
  weight_decay: 0
  deconvolution_param {
    pad: 2
    kernel_size: 5
    stride: 2
    output_height: 54
    output_width: 54
    output_channels: 64
  }
}
layers {
  bottom: "deconv2"
  top: "deconv2"
  name: "relu_deconv2"
  type: RELU
  relu_param {
    negative_slope: 0.3
  }
}
layers {
  bottom: "deconv2"
  top: "deconv1"
  name: "deconv1"
  type: DECONVOLUTION
  blobs_lr: 0
  blobs_lr: 0
  weight_decay: 1
  weight_decay: 0
  deconvolution_param {
    pad: 2
    kernel_size: 5
    stride: 2
    output_height: 108
    output_width: 108
    output_channels: 32
  }
}
layers {
  bottom: "deconv1"
  top: "deconv1"
  name: "relu_deconv1"
  type: RELU
  relu_param {
    negative_slope: 0.3
  }
}
layers {
  bottom: "deconv1"
  top: "deconv0"
  name: "deconv0"
  type: DECONVOLUTION
  blobs_lr: 0
  blobs_lr: 0
  weight_decay: 1
  weight_decay: 0
  deconvolution_param {
    pad: 2
    kernel_size: 5
    stride: 2
    output_height: 216
    output_width: 216
    output_channels: 3
  }
}
layers {
  bottom: "deconv0"
  bottom: "target_ims"
  name: "loss"
  type: EUCLIDEAN_LOSS
}
I0812 19:22:28.119194 23104 net.cpp:65] Creating Layer source_ims
I0812 19:22:28.119199 23104 net.cpp:189] source_ims -> source_ims
I0812 19:22:28.119256 23104 data_layer.cpp:223] Opening lmdb /scr/r6/tgebru/inverting_conv/caffe_invert_alexnet/data/siggraph/tiny_summer_val_lmdb
I0812 19:22:28.119467 23104 data_layer.cpp:285] output data size: 64,3,227,227
I0812 19:22:28.119472 23104 data_layer.cpp:304] Loading mean file from/scr/r6/tgebru/timnit_caffe/data/ilsvrc12/imagenet_mean.binaryproto
I0812 19:22:28.133818 23104 net.cpp:84] Top shape: 64 3 227 227 (9893568)
I0812 19:22:28.133836 23104 net.cpp:116] source_ims does not need backward computation.
I0812 19:22:28.133846 23104 net.cpp:65] Creating Layer target_ims
I0812 19:22:28.133852 23104 net.cpp:189] target_ims -> target_ims
I0812 19:22:28.133934 23104 data_layer.cpp:223] Opening lmdb /scr/r6/tgebru/inverting_conv/caffe_invert_alexnet/data/siggraph/tiny_winter_val_lmdb
I0812 19:22:28.134055 23104 data_layer.cpp:285] output data size: 64,3,216,216
I0812 19:22:28.134059 23104 data_layer.cpp:304] Loading mean file from/scr/r6/tgebru/timnit_caffe/data/ilsvrc12/imagenet_mean.binaryproto
I0812 19:22:28.146692 23104 net.cpp:84] Top shape: 64 3 216 216 (8957952)
I0812 19:22:28.146739 23104 net.cpp:116] target_ims does not need backward computation.
I0812 19:22:28.146754 23104 net.cpp:65] Creating Layer conv1
I0812 19:22:28.146759 23104 net.cpp:228] conv1 <- source_ims
I0812 19:22:28.146767 23104 net.cpp:189] conv1 -> conv1
I0812 19:22:28.148028 23104 net.cpp:84] Top shape: 64 96 55 55 (18585600)
I0812 19:22:28.148032 23104 net.cpp:116] conv1 does not need backward computation.
I0812 19:22:28.148036 23104 net.cpp:65] Creating Layer relu1
I0812 19:22:28.148039 23104 net.cpp:228] relu1 <- conv1
I0812 19:22:28.148044 23104 net.cpp:179] relu1 -> conv1 (in-place)
I0812 19:22:28.148051 23104 net.cpp:84] Top shape: 64 96 55 55 (18585600)
I0812 19:22:28.148053 23104 net.cpp:116] relu1 does not need backward computation.
I0812 19:22:28.148058 23104 net.cpp:65] Creating Layer pool1
I0812 19:22:28.148061 23104 net.cpp:228] pool1 <- conv1
I0812 19:22:28.148064 23104 net.cpp:189] pool1 -> pool1
I0812 19:22:28.148072 23104 net.cpp:84] Top shape: 64 96 27 27 (4478976)
I0812 19:22:28.148074 23104 net.cpp:116] pool1 does not need backward computation.
I0812 19:22:28.148079 23104 net.cpp:65] Creating Layer norm1
I0812 19:22:28.148082 23104 net.cpp:228] norm1 <- pool1
I0812 19:22:28.148087 23104 net.cpp:189] norm1 -> norm1
I0812 19:22:28.148093 23104 net.cpp:84] Top shape: 64 96 27 27 (4478976)
I0812 19:22:28.148097 23104 net.cpp:116] norm1 does not need backward computation.
I0812 19:22:28.148100 23104 net.cpp:65] Creating Layer Rconv6
I0812 19:22:28.148103 23104 net.cpp:228] Rconv6 <- norm1
I0812 19:22:28.148108 23104 net.cpp:189] Rconv6 -> Rconv6
I0812 19:22:28.148345 23104 net.cpp:84] Top shape: 64 256 27 27 (11943936)
I0812 19:22:28.148350 23104 net.cpp:116] Rconv6 does not need backward computation.
I0812 19:22:28.148354 23104 net.cpp:65] Creating Layer Rrelu6
I0812 19:22:28.148356 23104 net.cpp:228] Rrelu6 <- Rconv6
I0812 19:22:28.148361 23104 net.cpp:179] Rrelu6 -> Rconv6 (in-place)
I0812 19:22:28.148365 23104 net.cpp:84] Top shape: 64 256 27 27 (11943936)
I0812 19:22:28.148368 23104 net.cpp:116] Rrelu6 does not need backward computation.
I0812 19:22:28.148373 23104 net.cpp:65] Creating Layer Rconv7
I0812 19:22:28.148376 23104 net.cpp:228] Rconv7 <- Rconv6
I0812 19:22:28.148380 23104 net.cpp:189] Rconv7 -> Rconv7
I0812 19:22:28.149106 23104 net.cpp:84] Top shape: 64 256 27 27 (11943936)
I0812 19:22:28.149111 23104 net.cpp:116] Rconv7 does not need backward computation.
I0812 19:22:28.149116 23104 net.cpp:65] Creating Layer Rrelu7
I0812 19:22:28.149118 23104 net.cpp:228] Rrelu7 <- Rconv7
I0812 19:22:28.149122 23104 net.cpp:179] Rrelu7 -> Rconv7 (in-place)
I0812 19:22:28.149127 23104 net.cpp:84] Top shape: 64 256 27 27 (11943936)
I0812 19:22:28.149129 23104 net.cpp:116] Rrelu7 does not need backward computation.
I0812 19:22:28.149134 23104 net.cpp:65] Creating Layer Rconv8
I0812 19:22:28.149137 23104 net.cpp:228] Rconv8 <- Rconv7
I0812 19:22:28.149140 23104 net.cpp:189] Rconv8 -> Rconv8
I0812 19:22:28.149982 23104 net.cpp:84] Top shape: 64 256 27 27 (11943936)
I0812 19:22:28.149987 23104 net.cpp:116] Rconv8 does not need backward computation.
I0812 19:22:28.149992 23104 net.cpp:65] Creating Layer Rrelu8
I0812 19:22:28.149996 23104 net.cpp:228] Rrelu8 <- Rconv8
I0812 19:22:28.149998 23104 net.cpp:179] Rrelu8 -> Rconv8 (in-place)
I0812 19:22:28.150002 23104 net.cpp:84] Top shape: 64 256 27 27 (11943936)
I0812 19:22:28.150005 23104 net.cpp:116] Rrelu8 does not need backward computation.
I0812 19:22:28.150010 23104 net.cpp:65] Creating Layer deconv2
I0812 19:22:28.150012 23104 net.cpp:228] deconv2 <- Rconv8
I0812 19:22:28.150017 23104 net.cpp:189] deconv2 -> deconv2
I0812 19:22:28.151098 23104 net.cpp:84] Top shape: 64 64 54 54 (11943936)
I0812 19:22:28.151103 23104 net.cpp:116] deconv2 does not need backward computation.
I0812 19:22:28.151108 23104 net.cpp:65] Creating Layer relu_deconv2
I0812 19:22:28.151111 23104 net.cpp:228] relu_deconv2 <- deconv2
I0812 19:22:28.151115 23104 net.cpp:179] relu_deconv2 -> deconv2 (in-place)
I0812 19:22:28.151120 23104 net.cpp:84] Top shape: 64 64 54 54 (11943936)
I0812 19:22:28.151141 23104 net.cpp:116] relu_deconv2 does not need backward computation.
I0812 19:22:28.151146 23104 net.cpp:65] Creating Layer deconv1
I0812 19:22:28.151149 23104 net.cpp:228] deconv1 <- deconv2
I0812 19:22:28.151154 23104 net.cpp:189] deconv1 -> deconv1
I0812 19:22:28.151314 23104 net.cpp:84] Top shape: 64 32 108 108 (23887872)
I0812 19:22:28.151319 23104 net.cpp:116] deconv1 does not need backward computation.
I0812 19:22:28.151324 23104 net.cpp:65] Creating Layer relu_deconv1
I0812 19:22:28.151326 23104 net.cpp:228] relu_deconv1 <- deconv1
I0812 19:22:28.151330 23104 net.cpp:179] relu_deconv1 -> deconv1 (in-place)
I0812 19:22:28.151335 23104 net.cpp:84] Top shape: 64 32 108 108 (23887872)
I0812 19:22:28.151337 23104 net.cpp:116] relu_deconv1 does not need backward computation.
I0812 19:22:28.151343 23104 net.cpp:65] Creating Layer deconv0
I0812 19:22:28.151346 23104 net.cpp:228] deconv0 <- deconv1
I0812 19:22:28.151351 23104 net.cpp:189] deconv0 -> deconv0
I0812 19:22:28.151374 23104 net.cpp:84] Top shape: 64 3 216 216 (8957952)
I0812 19:22:28.151377 23104 net.cpp:116] deconv0 does not need backward computation.
I0812 19:22:28.151382 23104 net.cpp:65] Creating Layer loss
I0812 19:22:28.151384 23104 net.cpp:228] loss <- deconv0
I0812 19:22:28.151388 23104 net.cpp:228] loss <- target_ims
I0812 19:22:28.151393 23104 net.cpp:116] loss does not need backward computation.
I0812 19:22:28.151406 23104 net.cpp:238] Collecting Learning Rate and Weight Decay.
…
