…
    source: "/scr/r6/tgebru/inverting_conv/caffe_invert_alexnet/data/siggraph/tiny_summer_train_lmdb"
    mean_file: "/scr/r6/tgebru/timnit_caffe/data/ilsvrc12/imagenet_mean.binaryproto"
    batch_size: 12
    crop_size: 227
    mirror: false
    backend: LMDB
  }
}
layers {
  top: "target_ims"
  name: "target_ims"
  type: DATA
  data_param {
    source: "/scr/r6/tgebru/inverting_conv/caffe_invert_alexnet/data/siggraph/tiny_summer_train_lmdb"
    mean_file: "/scr/r6/tgebru/timnit_caffe/data/ilsvrc12/imagenet_mean.binaryproto"
    batch_size: 12
    crop_size: 216
    mirror: false
    backend: LMDB
  }
}
layers {
  bottom: "source_ims"
  top: "conv1"
  name: "conv1"
  type: CONVOLUTION
  blobs_lr: 0
  blobs_lr: 0
  weight_decay: 1
  weight_decay: 0
  convolution_param {
    num_output: 96
    kernel_size: 11
    stride: 4
    weight_filler {
      type: "gaussian"
      std: 0.01
    }
    bias_filler {
      type: "constant"
      value: 0
    }
  }
}
layers {
  bottom: "conv1"
  top: "conv1"
  name: "relu1"
  type: RELU
}
layers {
  bottom: "conv1"
  top: "pool1"
  name: "pool1"
  type: POOLING
  pooling_param {
    pool: MAX
    kernel_size: 3
    stride: 2
  }
}
layers {
  bottom: "pool1"
  top: "norm1"
  name: "norm1"
  type: LRN
  lrn_param {
    local_size: 5
    alpha: 0.0001
    beta: 0.75
  }
}
layers {
  bottom: "norm1"
  top: "Rconv6"
  name: "Rconv6"
  type: CONVOLUTION
  blobs_lr: 1
  blobs_lr: 2
  weight_decay: 1
  weight_decay: 0
  convolution_param {
    num_output: 256
    pad: 1
    kernel_size: 3
  }
}
layers {
  bottom: "Rconv6"
  top: "Rconv6"
  name: "Rrelu6"
  type: RELU
}
layers {
  bottom: "Rconv6"
  top: "Rconv7"
  name: "Rconv7"
  type: CONVOLUTION
  blobs_lr: 1
  blobs_lr: 2
  weight_decay: 1
  weight_decay: 0
  convolution_param {
    num_output: 256
    pad: 1
    kernel_size: 3
    group: 2
  }
}
layers {
  bottom: "Rconv7"
  top: "Rconv7"
  name: "Rrelu7"
  type: RELU
}
layers {
  bottom: "Rconv7"
  top: "Rconv8"
  name: "Rconv8"
  type: CONVOLUTION
  blobs_lr: 1
  blobs_lr: 2
  weight_decay: 1
  weight_decay: 0
  convolution_param {
    num_output: 256
    pad: 1
    kernel_size: 3
    group: 2
  }
}
layers {
  bottom: "Rconv8"
  top: "Rconv8"
  name: "Rrelu8"
  type: RELU
}
layers {
  bottom: "Rconv8"
  top: "deconv2"
  name: "deconv2"
  type: DECONVOLUTION
  blobs_lr: 1
  blobs_lr: 2
  weight_decay: 1
  weight_decay: 0
  deconvolution_param {
    pad: 2
    kernel_size: 5
    stride: 2
    output_height: 54
    output_width: 54
    output_channels: 64
  }
}
layers {
  bottom: "deconv2"
  top: "deconv2"
  name: "relu_deconv2"
  type: RELU
  relu_param {
    negative_slope: 0.3
  }
}
layers {
  bottom: "deconv2"
  top: "deconv1"
  name: "deconv1"
  type: DECONVOLUTION
  blobs_lr: 1
  blobs_lr: 2
  weight_decay: 1
  weight_decay: 0
  deconvolution_param {
    pad: 2
    kernel_size: 5
    stride: 2
    output_height: 108
    output_width: 108
    output_channels: 32
  }
}
layers {
  bottom: "deconv1"
  top: "deconv1"
  name: "relu_deconv1"
  type: RELU
  relu_param {
    negative_slope: 0.3
  }
}
layers {
  bottom: "deconv1"
  top: "deconv0"
  name: "deconv0"
  type: DECONVOLUTION
  blobs_lr: 1
  blobs_lr: 2
  weight_decay: 1
  weight_decay: 1
  deconvolution_param {
    pad: 2
    kernel_size: 5
    stride: 2
    output_height: 216
    output_width: 216
    output_channels: 3
  }
}
layers {
  bottom: "deconv0"
  bottom: "target_ims"
  name: "loss"
  type: EUCLIDEAN_LOSS
}
I0813 06:56:12.919883 19809 net.cpp:65] Creating Layer source_ims
I0813 06:56:12.919893 19809 net.cpp:189] source_ims -> source_ims
I0813 06:56:12.920012 19809 data_layer.cpp:223] Opening lmdb /scr/r6/tgebru/inverting_conv/caffe_invert_alexnet/data/siggraph/tiny_summer_train_lmdb
I0813 06:56:12.920229 19809 data_layer.cpp:285] output data size: 12,3,227,227
I0813 06:56:12.920236 19809 data_layer.cpp:304] Loading mean file from/scr/r6/tgebru/timnit_caffe/data/ilsvrc12/imagenet_mean.binaryproto
I0813 06:56:12.924718 19809 net.cpp:84] Top shape: 12 3 227 227 (1855044)
I0813 06:56:12.924726 19809 net.cpp:116] source_ims does not need backward computation.
I0813 06:56:12.924732 19809 net.cpp:65] Creating Layer target_ims
I0813 06:56:12.924736 19809 net.cpp:189] target_ims -> target_ims
I0813 06:56:12.924902 19809 data_layer.cpp:223] Opening lmdb /scr/r6/tgebru/inverting_conv/caffe_invert_alexnet/data/siggraph/tiny_summer_train_lmdb
I0813 06:56:12.925029 19809 data_layer.cpp:285] output data size: 12,3,216,216
I0813 06:56:12.925034 19809 data_layer.cpp:304] Loading mean file from/scr/r6/tgebru/timnit_caffe/data/ilsvrc12/imagenet_mean.binaryproto
I0813 06:56:12.929529 19809 net.cpp:84] Top shape: 12 3 216 216 (1679616)
I0813 06:56:12.929538 19809 net.cpp:116] target_ims does not need backward computation.
I0813 06:56:12.929548 19809 net.cpp:65] Creating Layer conv1
I0813 06:56:12.929553 19809 net.cpp:228] conv1 <- source_ims
I0813 06:56:12.929662 19809 net.cpp:189] conv1 -> conv1
I0813 06:56:12.931059 19809 net.cpp:84] Top shape: 12 96 55 55 (3484800)
I0813 06:56:12.931066 19809 net.cpp:116] conv1 does not need backward computation.
I0813 06:56:12.931071 19809 net.cpp:65] Creating Layer relu1
I0813 06:56:12.931073 19809 net.cpp:228] relu1 <- conv1
I0813 06:56:12.931077 19809 net.cpp:179] relu1 -> conv1 (in-place)
I0813 06:56:12.931087 19809 net.cpp:84] Top shape: 12 96 55 55 (3484800)
I0813 06:56:12.931089 19809 net.cpp:116] relu1 does not need backward computation.
I0813 06:56:12.931095 19809 net.cpp:65] Creating Layer pool1
I0813 06:56:12.931098 19809 net.cpp:228] pool1 <- conv1
I0813 06:56:12.931102 19809 net.cpp:189] pool1 -> pool1
I0813 06:56:12.931114 19809 net.cpp:84] Top shape: 12 96 27 27 (839808)
I0813 06:56:12.931118 19809 net.cpp:116] pool1 does not need backward computation.
I0813 06:56:12.931121 19809 net.cpp:65] Creating Layer norm1
I0813 06:56:12.931124 19809 net.cpp:228] norm1 <- pool1
I0813 06:56:12.931128 19809 net.cpp:189] norm1 -> norm1
I0813 06:56:12.931138 19809 net.cpp:84] Top shape: 12 96 27 27 (839808)
I0813 06:56:12.931140 19809 net.cpp:116] norm1 does not need backward computation.
I0813 06:56:12.931144 19809 net.cpp:65] Creating Layer Rconv6
I0813 06:56:12.931148 19809 net.cpp:228] Rconv6 <- norm1
I0813 06:56:12.931151 19809 net.cpp:189] Rconv6 -> Rconv6
I0813 06:56:12.931427 19809 net.cpp:84] Top shape: 12 256 27 27 (2239488)
I0813 06:56:12.931432 19809 net.cpp:111] Rconv6 needs backward computation.
I0813 06:56:12.931437 19809 net.cpp:65] Creating Layer Rrelu6
I0813 06:56:12.931439 19809 net.cpp:228] Rrelu6 <- Rconv6
I0813 06:56:12.931443 19809 net.cpp:179] Rrelu6 -> Rconv6 (in-place)
I0813 06:56:12.931447 19809 net.cpp:84] Top shape: 12 256 27 27 (2239488)
I0813 06:56:12.931450 19809 net.cpp:111] Rrelu6 needs backward computation.
I0813 06:56:12.931455 19809 net.cpp:65] Creating Layer Rconv7
I0813 06:56:12.931458 19809 net.cpp:228] Rconv7 <- Rconv6
I0813 06:56:12.931463 19809 net.cpp:189] Rconv7 -> Rconv7
I0813 06:56:12.932171 19809 net.cpp:84] Top shape: 12 256 27 27 (2239488)
I0813 06:56:12.932175 19809 net.cpp:111] Rconv7 needs backward computation.
I0813 06:56:12.932179 19809 net.cpp:65] Creating Layer Rrelu7
I0813 06:56:12.932183 19809 net.cpp:228] Rrelu7 <- Rconv7
I0813 06:56:12.932202 19809 net.cpp:179] Rrelu7 -> Rconv7 (in-place)
I0813 06:56:12.932207 19809 net.cpp:84] Top shape: 12 256 27 27 (2239488)
I0813 06:56:12.932209 19809 net.cpp:111] Rrelu7 needs backward computation.
I0813 06:56:12.932214 19809 net.cpp:65] Creating Layer Rconv8
I0813 06:56:12.932216 19809 net.cpp:228] Rconv8 <- Rconv7
I0813 06:56:12.932219 19809 net.cpp:189] Rconv8 -> Rconv8
I0813 06:56:12.932996 19809 net.cpp:84] Top shape: 12 256 27 27 (2239488)
I0813 06:56:12.933001 19809 net.cpp:111] Rconv8 needs backward computation.
I0813 06:56:12.933004 19809 net.cpp:65] Creating Layer Rrelu8
I0813 06:56:12.933007 19809 net.cpp:228] Rrelu8 <- Rconv8
I0813 06:56:12.933010 19809 net.cpp:179] Rrelu8 -> Rconv8 (in-place)
I0813 06:56:12.933014 19809 net.cpp:84] Top shape: 12 256 27 27 (2239488)
I0813 06:56:12.933017 19809 net.cpp:111] Rrelu8 needs backward computation.
I0813 06:56:12.933022 19809 net.cpp:65] Creating Layer deconv2
I0813 06:56:12.933023 19809 net.cpp:228] deconv2 <- Rconv8
I0813 06:56:12.933027 19809 net.cpp:189] deconv2 -> deconv2
I0813 06:56:12.934124 19809 net.cpp:84] Top shape: 12 64 54 54 (2239488)
I0813 06:56:12.934129 19809 net.cpp:111] deconv2 needs backward computation.
I0813 06:56:12.934134 19809 net.cpp:65] Creating Layer relu_deconv2
I0813 06:56:12.934136 19809 net.cpp:228] relu_deconv2 <- deconv2
I0813 06:56:12.934139 19809 net.cpp:179] relu_deconv2 -> deconv2 (in-place)
I0813 06:56:12.934144 19809 net.cpp:84] Top shape: 12 64 54 54 (2239488)
I0813 06:56:12.934147 19809 net.cpp:111] relu_deconv2 needs backward computation.
I0813 06:56:12.934151 19809 net.cpp:65] Creating Layer deconv1
I0813 06:56:12.934154 19809 net.cpp:228] deconv1 <- deconv2
I0813 06:56:12.934157 19809 net.cpp:189] deconv1 -> deconv1
I0813 06:56:12.934294 19809 net.cpp:84] Top shape: 12 32 108 108 (4478976)
I0813 06:56:12.934298 19809 net.cpp:111] deconv1 needs backward computation.
I0813 06:56:12.934303 19809 net.cpp:65] Creating Layer relu_deconv1
I0813 06:56:12.934305 19809 net.cpp:228] relu_deconv1 <- deconv1
I0813 06:56:12.934309 19809 net.cpp:179] relu_deconv1 -> deconv1 (in-place)
I0813 06:56:12.934314 19809 net.cpp:84] Top shape: 12 32 108 108 (4478976)
I0813 06:56:12.934315 19809 net.cpp:111] relu_deconv1 needs backward computation.
I0813 06:56:12.934320 19809 net.cpp:65] Creating Layer deconv0
I0813 06:56:12.934324 19809 net.cpp:228] deconv0 <- deconv1
I0813 06:56:12.934327 19809 net.cpp:189] deconv0 -> deconv0
I0813 06:56:12.934350 19809 net.cpp:84] Top shape: 12 3 216 216 (1679616)
I0813 06:56:12.934353 19809 net.cpp:111] deconv0 needs backward computation.
I0813 06:56:12.934357 19809 net.cpp:65] Creating Layer loss
I0813 06:56:12.934360 19809 net.cpp:228] loss <- deconv0
I0813 06:56:12.934363 19809 net.cpp:228] loss <- target_ims
I0813 06:56:12.934371 19809 net.cpp:111] loss needs backward computation.
I0813 06:56:12.934384 19809 net.cpp:238] Collecting Learning Rate and Weight Decay.
…
    source: "/scr/r6/tgebru/inverting_conv/caffe_invert_alexnet/data/siggraph/tiny_summer_val_lmdb"
    mean_file: "/scr/r6/tgebru/timnit_caffe/data/ilsvrc12/imagenet_mean.binaryproto"
    batch_size: 2
    crop_size: 227
    mirror: false
    backend: LMDB
  }
}
layers {
  top: "target_ims"
  name: "target_ims"
  type: DATA
  data_param {
    source: "/scr/r6/tgebru/inverting_conv/caffe_invert_alexnet/data/siggraph/tiny_summer_val_lmdb"
    mean_file: "/scr/r6/tgebru/timnit_caffe/data/ilsvrc12/imagenet_mean.binaryproto"
    batch_size: 2
    crop_size: 216
    mirror: false
    backend: LMDB
  }
}
layers {
  bottom: "source_ims"
  top: "conv1"
  name: "conv1"
  type: CONVOLUTION
  blobs_lr: 0
  blobs_lr: 0
  weight_decay: 1
  weight_decay: 0
  convolution_param {
    num_output: 96
    kernel_size: 11
    stride: 4
    weight_filler {
      type: "gaussian"
      std: 0.01
    }
    bias_filler {
      type: "constant"
      value: 0
    }
  }
}
layers {
  bottom: "conv1"
  top: "conv1"
  name: "relu1"
  type: RELU
}
layers {
  bottom: "conv1"
  top: "pool1"
  name: "pool1"
  type: POOLING
  pooling_param {
    pool: MAX
    kernel_size: 3
    stride: 2
  }
}
layers {
  bottom: "pool1"
  top: "norm1"
  name: "norm1"
  type: LRN
  lrn_param {
    local_size: 5
    alpha: 0.0001
    beta: 0.75
  }
}
layers {
  bottom: "norm1"
  top: "Rconv6"
  name: "Rconv6"
  type: CONVOLUTION
  blobs_lr: 0
  blobs_lr: 0
  weight_decay: 1
  weight_decay: 0
  convolution_param {
    num_output: 256
    pad: 1
    kernel_size: 3
  }
}
layers {
  bottom: "Rconv6"
  top: "Rconv6"
  name: "Rrelu6"
  type: RELU
}
layers {
  bottom: "Rconv6"
  top: "Rconv7"
  name: "Rconv7"
  type: CONVOLUTION
  blobs_lr: 0
  blobs_lr: 0
  weight_decay: 1
  weight_decay: 0
  convolution_param {
    num_output: 256
    pad: 1
    kernel_size: 3
    group: 2
  }
}
layers {
  bottom: "Rconv7"
  top: "Rconv7"
  name: "Rrelu7"
  type: RELU
}
layers {
  bottom: "Rconv7"
  top: "Rconv8"
  name: "Rconv8"
  type: CONVOLUTION
  blobs_lr: 0
  blobs_lr: 0
  weight_decay: 1
  weight_decay: 0
  convolution_param {
    num_output: 256
    pad: 1
    kernel_size: 3
    group: 2
  }
}
layers {
  bottom: "Rconv8"
  top: "Rconv8"
  name: "Rrelu8"
  type: RELU
}
layers {
  bottom: "Rconv8"
  top: "deconv2"
  name: "deconv2"
  type: DECONVOLUTION
  blobs_lr: 0
  blobs_lr: 0
  weight_decay: 1
  weight_decay: 0
  deconvolution_param {
    pad: 2
    kernel_size: 5
    stride: 2
    output_height: 54
    output_width: 54
    output_channels: 64
  }
}
layers {
  bottom: "deconv2"
  top: "deconv2"
  name: "relu_deconv2"
  type: RELU
  relu_param {
    negative_slope: 0.3
  }
}
layers {
  bottom: "deconv2"
  top: "deconv1"
  name: "deconv1"
  type: DECONVOLUTION
  blobs_lr: 0
  blobs_lr: 0
  weight_decay: 1
  weight_decay: 0
  deconvolution_param {
    pad: 2
    kernel_size: 5
    stride: 2
    output_height: 108
    output_width: 108
    output_channels: 32
  }
}
layers {
  bottom: "deconv1"
  top: "deconv1"
  name: "relu_deconv1"
  type: RELU
  relu_param {
    negative_slope: 0.3
  }
}
layers {
  bottom: "deconv1"
  top: "deconv0"
  name: "deconv0"
  type: DECONVOLUTION
  blobs_lr: 0
  blobs_lr: 0
  weight_decay: 1
  weight_decay: 0
  deconvolution_param {
    pad: 2
    kernel_size: 5
    stride: 2
    output_height: 216
    output_width: 216
    output_channels: 3
  }
}
layers {
  bottom: "deconv0"
  bottom: "target_ims"
  name: "loss"
  type: EUCLIDEAN_LOSS
}
I0813 06:56:12.935080 19809 net.cpp:65] Creating Layer source_ims
I0813 06:56:12.935086 19809 net.cpp:189] source_ims -> source_ims
I0813 06:56:12.935142 19809 data_layer.cpp:223] Opening lmdb /scr/r6/tgebru/inverting_conv/caffe_invert_alexnet/data/siggraph/tiny_summer_val_lmdb
I0813 06:56:12.935329 19809 data_layer.cpp:285] output data size: 2,3,227,227
I0813 06:56:12.935334 19809 data_layer.cpp:304] Loading mean file from/scr/r6/tgebru/timnit_caffe/data/ilsvrc12/imagenet_mean.binaryproto
I0813 06:56:12.938062 19809 net.cpp:84] Top shape: 2 3 227 227 (309174)
I0813 06:56:12.938069 19809 net.cpp:116] source_ims does not need backward computation.
I0813 06:56:12.938076 19809 net.cpp:65] Creating Layer target_ims
I0813 06:56:12.938079 19809 net.cpp:189] target_ims -> target_ims
I0813 06:56:12.938128 19809 data_layer.cpp:223] Opening lmdb /scr/r6/tgebru/inverting_conv/caffe_invert_alexnet/data/siggraph/tiny_summer_val_lmdb
I0813 06:56:12.938205 19809 data_layer.cpp:285] output data size: 2,3,216,216
I0813 06:56:12.938210 19809 data_layer.cpp:304] Loading mean file from/scr/r6/tgebru/timnit_caffe/data/ilsvrc12/imagenet_mean.binaryproto
I0813 06:56:12.940352 19809 net.cpp:84] Top shape: 2 3 216 216 (279936)
I0813 06:56:12.940359 19809 net.cpp:116] target_ims does not need backward computation.
I0813 06:56:12.940382 19809 net.cpp:65] Creating Layer conv1
I0813 06:56:12.940384 19809 net.cpp:228] conv1 <- source_ims
I0813 06:56:12.940390 19809 net.cpp:189] conv1 -> conv1
I0813 06:56:12.941639 19809 net.cpp:84] Top shape: 2 96 55 55 (580800)
I0813 06:56:12.941643 19809 net.cpp:116] conv1 does not need backward computation.
I0813 06:56:12.941648 19809 net.cpp:65] Creating Layer relu1
I0813 06:56:12.941650 19809 net.cpp:228] relu1 <- conv1
I0813 06:56:12.941654 19809 net.cpp:179] relu1 -> conv1 (in-place)
I0813 06:56:12.941659 19809 net.cpp:84] Top shape: 2 96 55 55 (580800)
I0813 06:56:12.941663 19809 net.cpp:116] relu1 does not need backward computation.
I0813 06:56:12.941668 19809 net.cpp:65] Creating Layer pool1
I0813 06:56:12.941669 19809 net.cpp:228] pool1 <- conv1
I0813 06:56:12.941673 19809 net.cpp:189] pool1 -> pool1
I0813 06:56:12.941679 19809 net.cpp:84] Top shape: 2 96 27 27 (139968)
I0813 06:56:12.941683 19809 net.cpp:116] pool1 does not need backward computation.
I0813 06:56:12.941686 19809 net.cpp:65] Creating Layer norm1
I0813 06:56:12.941689 19809 net.cpp:228] norm1 <- pool1
I0813 06:56:12.941692 19809 net.cpp:189] norm1 -> norm1
I0813 06:56:12.941699 19809 net.cpp:84] Top shape: 2 96 27 27 (139968)
I0813 06:56:12.941701 19809 net.cpp:116] norm1 does not need backward computation.
I0813 06:56:12.941705 19809 net.cpp:65] Creating Layer Rconv6
I0813 06:56:12.941707 19809 net.cpp:228] Rconv6 <- norm1
I0813 06:56:12.941711 19809 net.cpp:189] Rconv6 -> Rconv6
I0813 06:56:12.942250 19809 net.cpp:84] Top shape: 2 256 27 27 (373248)
I0813 06:56:12.942253 19809 net.cpp:116] Rconv6 does not need backward computation.
I0813 06:56:12.942257 19809 net.cpp:65] Creating Layer Rrelu6
I0813 06:56:12.942260 19809 net.cpp:228] Rrelu6 <- Rconv6
I0813 06:56:12.942265 19809 net.cpp:179] Rrelu6 -> Rconv6 (in-place)
I0813 06:56:12.942268 19809 net.cpp:84] Top shape: 2 256 27 27 (373248)
I0813 06:56:12.942271 19809 net.cpp:116] Rrelu6 does not need backward computation.
I0813 06:56:12.942276 19809 net.cpp:65] Creating Layer Rconv7
I0813 06:56:12.942278 19809 net.cpp:228] Rconv7 <- Rconv6
I0813 06:56:12.942282 19809 net.cpp:189] Rconv7 -> Rconv7
I0813 06:56:12.942989 19809 net.cpp:84] Top shape: 2 256 27 27 (373248)
I0813 06:56:12.942994 19809 net.cpp:116] Rconv7 does not need backward computation.
I0813 06:56:12.942998 19809 net.cpp:65] Creating Layer Rrelu7
I0813 06:56:12.943001 19809 net.cpp:228] Rrelu7 <- Rconv7
I0813 06:56:12.943006 19809 net.cpp:179] Rrelu7 -> Rconv7 (in-place)
I0813 06:56:12.943009 19809 net.cpp:84] Top shape: 2 256 27 27 (373248)
I0813 06:56:12.943011 19809 net.cpp:116] Rrelu7 does not need backward computation.
I0813 06:56:12.943016 19809 net.cpp:65] Creating Layer Rconv8
I0813 06:56:12.943017 19809 net.cpp:228] Rconv8 <- Rconv7
I0813 06:56:12.943022 19809 net.cpp:189] Rconv8 -> Rconv8
I0813 06:56:12.943728 19809 net.cpp:84] Top shape: 2 256 27 27 (373248)
I0813 06:56:12.943732 19809 net.cpp:116] Rconv8 does not need backward computation.
I0813 06:56:12.943735 19809 net.cpp:65] Creating Layer Rrelu8
I0813 06:56:12.943738 19809 net.cpp:228] Rrelu8 <- Rconv8
I0813 06:56:12.943742 19809 net.cpp:179] Rrelu8 -> Rconv8 (in-place)
I0813 06:56:12.943747 19809 net.cpp:84] Top shape: 2 256 27 27 (373248)
I0813 06:56:12.943748 19809 net.cpp:116] Rrelu8 does not need backward computation.
I0813 06:56:12.943753 19809 net.cpp:65] Creating Layer deconv2
I0813 06:56:12.943755 19809 net.cpp:228] deconv2 <- Rconv8
I0813 06:56:12.943758 19809 net.cpp:189] deconv2 -> deconv2
I0813 06:56:12.944811 19809 net.cpp:84] Top shape: 2 64 54 54 (373248)
I0813 06:56:12.944816 19809 net.cpp:116] deconv2 does not need backward computation.
I0813 06:56:12.944820 19809 net.cpp:65] Creating Layer relu_deconv2
I0813 06:56:12.944823 19809 net.cpp:228] relu_deconv2 <- deconv2
I0813 06:56:12.944828 19809 net.cpp:179] relu_deconv2 -> deconv2 (in-place)
I0813 06:56:12.944831 19809 net.cpp:84] Top shape: 2 64 54 54 (373248)
I0813 06:56:12.944834 19809 net.cpp:116] relu_deconv2 does not need backward computation.
I0813 06:56:12.944854 19809 net.cpp:65] Creating Layer deconv1
I0813 06:56:12.944855 19809 net.cpp:228] deconv1 <- deconv2
I0813 06:56:12.944860 19809 net.cpp:189] deconv1 -> deconv1
I0813 06:56:12.944990 19809 net.cpp:84] Top shape: 2 32 108 108 (746496)
I0813 06:56:12.944994 19809 net.cpp:116] deconv1 does not need backward computation.
I0813 06:56:12.944998 19809 net.cpp:65] Creating Layer relu_deconv1
I0813 06:56:12.945001 19809 net.cpp:228] relu_deconv1 <- deconv1
I0813 06:56:12.945005 19809 net.cpp:179] relu_deconv1 -> deconv1 (in-place)
I0813 06:56:12.945009 19809 net.cpp:84] Top shape: 2 32 108 108 (746496)
I0813 06:56:12.945013 19809 net.cpp:116] relu_deconv1 does not need backward computation.
I0813 06:56:12.945019 19809 net.cpp:65] Creating Layer deconv0
I0813 06:56:12.945020 19809 net.cpp:228] deconv0 <- deconv1
I0813 06:56:12.945024 19809 net.cpp:189] deconv0 -> deconv0
I0813 06:56:12.945042 19809 net.cpp:84] Top shape: 2 3 216 216 (279936)
I0813 06:56:12.945045 19809 net.cpp:116] deconv0 does not need backward computation.
I0813 06:56:12.945050 19809 net.cpp:65] Creating Layer loss
I0813 06:56:12.945051 19809 net.cpp:228] loss <- deconv0
I0813 06:56:12.945055 19809 net.cpp:228] loss <- target_ims
I0813 06:56:12.945060 19809 net.cpp:116] loss does not need backward computation.
I0813 06:56:12.945071 19809 net.cpp:238] Collecting Learning Rate and Weight Decay.
…
