…
    source: "/scr/r6/tgebru/inverting_conv/caffe_invert_alexnet/data/siggraph/tiny_summer_train_lmdb"
    mean_file: "/scr/r6/tgebru/timnit_caffe/data/ilsvrc12/imagenet_mean.binaryproto"
    batch_size: 12
    crop_size: 227
    mirror: false
    backend: LMDB
  }
}
layers {
  top: "target_ims"
  name: "target_ims"
  type: DATA
  data_param {
    source: "/scr/r6/tgebru/inverting_conv/caffe_invert_alexnet/data/siggraph/tiny_winter_train_lmdb"
    mean_file: "/scr/r6/tgebru/timnit_caffe/data/ilsvrc12/imagenet_mean.binaryproto"
    batch_size: 12
    crop_size: 216
    mirror: false
    backend: LMDB
  }
}
layers {
  bottom: "source_ims"
  top: "conv1"
  name: "conv1"
  type: CONVOLUTION
  blobs_lr: 0
  blobs_lr: 0
  weight_decay: 1
  weight_decay: 0
  convolution_param {
    num_output: 96
    kernel_size: 11
    stride: 4
    weight_filler {
      type: "gaussian"
      std: 0.01
    }
    bias_filler {
      type: "constant"
      value: 0
    }
  }
}
layers {
  bottom: "conv1"
  top: "conv1"
  name: "relu1"
  type: RELU
}
layers {
  bottom: "conv1"
  top: "pool1"
  name: "pool1"
  type: POOLING
  pooling_param {
    pool: MAX
    kernel_size: 3
    stride: 2
  }
}
layers {
  bottom: "pool1"
  top: "norm1"
  name: "norm1"
  type: LRN
  lrn_param {
    local_size: 5
    alpha: 0.0001
    beta: 0.75
  }
}
layers {
  bottom: "norm1"
  top: "Rconv6"
  name: "Rconv6"
  type: CONVOLUTION
  blobs_lr: 1
  blobs_lr: 2
  weight_decay: 1
  weight_decay: 0
  convolution_param {
    num_output: 256
    pad: 1
    kernel_size: 3
  }
}
layers {
  bottom: "Rconv6"
  top: "Rconv6"
  name: "Rrelu6"
  type: RELU
}
layers {
  bottom: "Rconv6"
  top: "Rconv7"
  name: "Rconv7"
  type: CONVOLUTION
  blobs_lr: 1
  blobs_lr: 2
  weight_decay: 1
  weight_decay: 0
  convolution_param {
    num_output: 256
    pad: 1
    kernel_size: 3
    group: 2
  }
}
layers {
  bottom: "Rconv7"
  top: "Rconv7"
  name: "Rrelu7"
  type: RELU
}
layers {
  bottom: "Rconv7"
  top: "Rconv8"
  name: "Rconv8"
  type: CONVOLUTION
  blobs_lr: 1
  blobs_lr: 2
  weight_decay: 1
  weight_decay: 0
  convolution_param {
    num_output: 256
    pad: 1
    kernel_size: 3
    group: 2
  }
}
layers {
  bottom: "Rconv8"
  top: "Rconv8"
  name: "Rrelu8"
  type: RELU
}
layers {
  bottom: "Rconv8"
  top: "deconv2"
  name: "deconv2"
  type: DECONVOLUTION
  blobs_lr: 1
  blobs_lr: 2
  weight_decay: 1
  weight_decay: 0
  deconvolution_param {
    pad: 2
    kernel_size: 5
    stride: 2
    output_height: 54
    output_width: 54
    output_channels: 64
  }
}
layers {
  bottom: "deconv2"
  top: "deconv2"
  name: "relu_deconv2"
  type: RELU
  relu_param {
    negative_slope: 0.3
  }
}
layers {
  bottom: "deconv2"
  top: "deconv1"
  name: "deconv1"
  type: DECONVOLUTION
  blobs_lr: 1
  blobs_lr: 2
  weight_decay: 1
  weight_decay: 0
  deconvolution_param {
    pad: 2
    kernel_size: 5
    stride: 2
    output_height: 108
    output_width: 108
    output_channels: 32
  }
}
layers {
  bottom: "deconv1"
  top: "deconv1"
  name: "relu_deconv1"
  type: RELU
  relu_param {
    negative_slope: 0.3
  }
}
layers {
  bottom: "deconv1"
  top: "deconv0"
  name: "deconv0"
  type: DECONVOLUTION
  blobs_lr: 1
  blobs_lr: 2
  weight_decay: 1
  weight_decay: 1
  deconvolution_param {
    pad: 2
    kernel_size: 5
    stride: 2
    output_height: 216
    output_width: 216
    output_channels: 3
  }
}
layers {
  bottom: "deconv0"
  bottom: "target_ims"
  name: "loss"
  type: EUCLIDEAN_LOSS
}
I0813 04:57:37.303828 11543 net.cpp:65] Creating Layer source_ims
I0813 04:57:37.303836 11543 net.cpp:189] source_ims -> source_ims
I0813 04:57:37.303942 11543 data_layer.cpp:223] Opening lmdb /scr/r6/tgebru/inverting_conv/caffe_invert_alexnet/data/siggraph/tiny_summer_train_lmdb
I0813 04:57:37.304146 11543 data_layer.cpp:285] output data size: 12,3,227,227
I0813 04:57:37.304152 11543 data_layer.cpp:304] Loading mean file from/scr/r6/tgebru/timnit_caffe/data/ilsvrc12/imagenet_mean.binaryproto
I0813 04:57:37.308794 11543 net.cpp:84] Top shape: 12 3 227 227 (1855044)
I0813 04:57:37.308802 11543 net.cpp:116] source_ims does not need backward computation.
I0813 04:57:37.308809 11543 net.cpp:65] Creating Layer target_ims
I0813 04:57:37.308814 11543 net.cpp:189] target_ims -> target_ims
I0813 04:57:37.308931 11543 data_layer.cpp:223] Opening lmdb /scr/r6/tgebru/inverting_conv/caffe_invert_alexnet/data/siggraph/tiny_winter_train_lmdb
I0813 04:57:37.309058 11543 data_layer.cpp:285] output data size: 12,3,216,216
I0813 04:57:37.309062 11543 data_layer.cpp:304] Loading mean file from/scr/r6/tgebru/timnit_caffe/data/ilsvrc12/imagenet_mean.binaryproto
I0813 04:57:37.313331 11543 net.cpp:84] Top shape: 12 3 216 216 (1679616)
I0813 04:57:37.313338 11543 net.cpp:116] target_ims does not need backward computation.
I0813 04:57:37.313346 11543 net.cpp:65] Creating Layer conv1
I0813 04:57:37.313349 11543 net.cpp:228] conv1 <- source_ims
I0813 04:57:37.313383 11543 net.cpp:189] conv1 -> conv1
I0813 04:57:37.314666 11543 net.cpp:84] Top shape: 12 96 55 55 (3484800)
I0813 04:57:37.314671 11543 net.cpp:116] conv1 does not need backward computation.
I0813 04:57:37.314677 11543 net.cpp:65] Creating Layer relu1
I0813 04:57:37.314679 11543 net.cpp:228] relu1 <- conv1
I0813 04:57:37.314684 11543 net.cpp:179] relu1 -> conv1 (in-place)
I0813 04:57:37.314693 11543 net.cpp:84] Top shape: 12 96 55 55 (3484800)
I0813 04:57:37.314697 11543 net.cpp:116] relu1 does not need backward computation.
I0813 04:57:37.314702 11543 net.cpp:65] Creating Layer pool1
I0813 04:57:37.314704 11543 net.cpp:228] pool1 <- conv1
I0813 04:57:37.314708 11543 net.cpp:189] pool1 -> pool1
I0813 04:57:37.314721 11543 net.cpp:84] Top shape: 12 96 27 27 (839808)
I0813 04:57:37.314724 11543 net.cpp:116] pool1 does not need backward computation.
I0813 04:57:37.314728 11543 net.cpp:65] Creating Layer norm1
I0813 04:57:37.314731 11543 net.cpp:228] norm1 <- pool1
I0813 04:57:37.314735 11543 net.cpp:189] norm1 -> norm1
I0813 04:57:37.314744 11543 net.cpp:84] Top shape: 12 96 27 27 (839808)
I0813 04:57:37.314748 11543 net.cpp:116] norm1 does not need backward computation.
I0813 04:57:37.314751 11543 net.cpp:65] Creating Layer Rconv6
I0813 04:57:37.314754 11543 net.cpp:228] Rconv6 <- norm1
I0813 04:57:37.314759 11543 net.cpp:189] Rconv6 -> Rconv6
I0813 04:57:37.314929 11543 net.cpp:84] Top shape: 12 256 27 27 (2239488)
I0813 04:57:37.314934 11543 net.cpp:111] Rconv6 needs backward computation.
I0813 04:57:37.314937 11543 net.cpp:65] Creating Layer Rrelu6
I0813 04:57:37.314940 11543 net.cpp:228] Rrelu6 <- Rconv6
I0813 04:57:37.314944 11543 net.cpp:179] Rrelu6 -> Rconv6 (in-place)
I0813 04:57:37.314949 11543 net.cpp:84] Top shape: 12 256 27 27 (2239488)
I0813 04:57:37.314952 11543 net.cpp:111] Rrelu6 needs backward computation.
I0813 04:57:37.314957 11543 net.cpp:65] Creating Layer Rconv7
I0813 04:57:37.314960 11543 net.cpp:228] Rconv7 <- Rconv6
I0813 04:57:37.314965 11543 net.cpp:189] Rconv7 -> Rconv7
I0813 04:57:37.315704 11543 net.cpp:84] Top shape: 12 256 27 27 (2239488)
I0813 04:57:37.315709 11543 net.cpp:111] Rconv7 needs backward computation.
I0813 04:57:37.315713 11543 net.cpp:65] Creating Layer Rrelu7
I0813 04:57:37.315739 11543 net.cpp:228] Rrelu7 <- Rconv7
I0813 04:57:37.315744 11543 net.cpp:179] Rrelu7 -> Rconv7 (in-place)
I0813 04:57:37.315749 11543 net.cpp:84] Top shape: 12 256 27 27 (2239488)
I0813 04:57:37.315752 11543 net.cpp:111] Rrelu7 needs backward computation.
I0813 04:57:37.315757 11543 net.cpp:65] Creating Layer Rconv8
I0813 04:57:37.315758 11543 net.cpp:228] Rconv8 <- Rconv7
I0813 04:57:37.315763 11543 net.cpp:189] Rconv8 -> Rconv8
I0813 04:57:37.316570 11543 net.cpp:84] Top shape: 12 256 27 27 (2239488)
I0813 04:57:37.316575 11543 net.cpp:111] Rconv8 needs backward computation.
I0813 04:57:37.316579 11543 net.cpp:65] Creating Layer Rrelu8
I0813 04:57:37.316582 11543 net.cpp:228] Rrelu8 <- Rconv8
I0813 04:57:37.316586 11543 net.cpp:179] Rrelu8 -> Rconv8 (in-place)
I0813 04:57:37.316591 11543 net.cpp:84] Top shape: 12 256 27 27 (2239488)
I0813 04:57:37.316593 11543 net.cpp:111] Rrelu8 needs backward computation.
I0813 04:57:37.316598 11543 net.cpp:65] Creating Layer deconv2
I0813 04:57:37.316601 11543 net.cpp:228] deconv2 <- Rconv8
I0813 04:57:37.316604 11543 net.cpp:189] deconv2 -> deconv2
I0813 04:57:37.317656 11543 net.cpp:84] Top shape: 12 64 54 54 (2239488)
I0813 04:57:37.317662 11543 net.cpp:111] deconv2 needs backward computation.
I0813 04:57:37.317667 11543 net.cpp:65] Creating Layer relu_deconv2
I0813 04:57:37.317669 11543 net.cpp:228] relu_deconv2 <- deconv2
I0813 04:57:37.317673 11543 net.cpp:179] relu_deconv2 -> deconv2 (in-place)
I0813 04:57:37.317678 11543 net.cpp:84] Top shape: 12 64 54 54 (2239488)
I0813 04:57:37.317682 11543 net.cpp:111] relu_deconv2 needs backward computation.
I0813 04:57:37.317685 11543 net.cpp:65] Creating Layer deconv1
I0813 04:57:37.317688 11543 net.cpp:228] deconv1 <- deconv2
I0813 04:57:37.317692 11543 net.cpp:189] deconv1 -> deconv1
I0813 04:57:37.317828 11543 net.cpp:84] Top shape: 12 32 108 108 (4478976)
I0813 04:57:37.317832 11543 net.cpp:111] deconv1 needs backward computation.
I0813 04:57:37.317836 11543 net.cpp:65] Creating Layer relu_deconv1
I0813 04:57:37.317839 11543 net.cpp:228] relu_deconv1 <- deconv1
I0813 04:57:37.317843 11543 net.cpp:179] relu_deconv1 -> deconv1 (in-place)
I0813 04:57:37.317848 11543 net.cpp:84] Top shape: 12 32 108 108 (4478976)
I0813 04:57:37.317850 11543 net.cpp:111] relu_deconv1 needs backward computation.
I0813 04:57:37.317857 11543 net.cpp:65] Creating Layer deconv0
I0813 04:57:37.317858 11543 net.cpp:228] deconv0 <- deconv1
I0813 04:57:37.317863 11543 net.cpp:189] deconv0 -> deconv0
I0813 04:57:37.317881 11543 net.cpp:84] Top shape: 12 3 216 216 (1679616)
I0813 04:57:37.317885 11543 net.cpp:111] deconv0 needs backward computation.
I0813 04:57:37.317888 11543 net.cpp:65] Creating Layer loss
I0813 04:57:37.317891 11543 net.cpp:228] loss <- deconv0
I0813 04:57:37.317894 11543 net.cpp:228] loss <- target_ims
I0813 04:57:37.317903 11543 net.cpp:111] loss needs backward computation.
I0813 04:57:37.317915 11543 net.cpp:238] Collecting Learning Rate and Weight Decay.
…
    source: "/scr/r6/tgebru/inverting_conv/caffe_invert_alexnet/data/siggraph/tiny_summer_val_lmdb"
    mean_file: "/scr/r6/tgebru/timnit_caffe/data/ilsvrc12/imagenet_mean.binaryproto"
    batch_size: 64
    crop_size: 227
    mirror: false
    backend: LMDB
  }
}
layers {
  top: "target_ims"
  name: "target_ims"
  type: DATA
  data_param {
    source: "/scr/r6/tgebru/inverting_conv/caffe_invert_alexnet/data/siggraph/tiny_winter_val_lmdb"
    mean_file: "/scr/r6/tgebru/timnit_caffe/data/ilsvrc12/imagenet_mean.binaryproto"
    batch_size: 64
    crop_size: 216
    mirror: false
    backend: LMDB
  }
}
layers {
  bottom: "source_ims"
  top: "conv1"
  name: "conv1"
  type: CONVOLUTION
  blobs_lr: 0
  blobs_lr: 0
  weight_decay: 1
  weight_decay: 0
  convolution_param {
    num_output: 96
    kernel_size: 11
    stride: 4
    weight_filler {
      type: "gaussian"
      std: 0.01
    }
    bias_filler {
      type: "constant"
      value: 0
    }
  }
}
layers {
  bottom: "conv1"
  top: "conv1"
  name: "relu1"
  type: RELU
}
layers {
  bottom: "conv1"
  top: "pool1"
  name: "pool1"
  type: POOLING
  pooling_param {
    pool: MAX
    kernel_size: 3
    stride: 2
  }
}
layers {
  bottom: "pool1"
  top: "norm1"
  name: "norm1"
  type: LRN
  lrn_param {
    local_size: 5
    alpha: 0.0001
    beta: 0.75
  }
}
layers {
  bottom: "norm1"
  top: "Rconv6"
  name: "Rconv6"
  type: CONVOLUTION
  blobs_lr: 0
  blobs_lr: 0
  weight_decay: 1
  weight_decay: 0
  convolution_param {
    num_output: 256
    pad: 1
    kernel_size: 3
  }
}
layers {
  bottom: "Rconv6"
  top: "Rconv6"
  name: "Rrelu6"
  type: RELU
}
layers {
  bottom: "Rconv6"
  top: "Rconv7"
  name: "Rconv7"
  type: CONVOLUTION
  blobs_lr: 0
  blobs_lr: 0
  weight_decay: 1
  weight_decay: 0
  convolution_param {
    num_output: 256
    pad: 1
    kernel_size: 3
    group: 2
  }
}
layers {
  bottom: "Rconv7"
  top: "Rconv7"
  name: "Rrelu7"
  type: RELU
}
layers {
  bottom: "Rconv7"
  top: "Rconv8"
  name: "Rconv8"
  type: CONVOLUTION
  blobs_lr: 0
  blobs_lr: 0
  weight_decay: 1
  weight_decay: 0
  convolution_param {
    num_output: 256
    pad: 1
    kernel_size: 3
    group: 2
  }
}
layers {
  bottom: "Rconv8"
  top: "Rconv8"
  name: "Rrelu8"
  type: RELU
}
layers {
  bottom: "Rconv8"
  top: "deconv2"
  name: "deconv2"
  type: DECONVOLUTION
  blobs_lr: 0
  blobs_lr: 0
  weight_decay: 1
  weight_decay: 0
  deconvolution_param {
    pad: 2
    kernel_size: 5
    stride: 2
    output_height: 54
    output_width: 54
    output_channels: 64
  }
}
layers {
  bottom: "deconv2"
  top: "deconv2"
  name: "relu_deconv2"
  type: RELU
  relu_param {
    negative_slope: 0.3
  }
}
layers {
  bottom: "deconv2"
  top: "deconv1"
  name: "deconv1"
  type: DECONVOLUTION
  blobs_lr: 0
  blobs_lr: 0
  weight_decay: 1
  weight_decay: 0
  deconvolution_param {
    pad: 2
    kernel_size: 5
    stride: 2
    output_height: 108
    output_width: 108
    output_channels: 32
  }
}
layers {
  bottom: "deconv1"
  top: "deconv1"
  name: "relu_deconv1"
  type: RELU
  relu_param {
    negative_slope: 0.3
  }
}
layers {
  bottom: "deconv1"
  top: "deconv0"
  name: "deconv0"
  type: DECONVOLUTION
  blobs_lr: 0
  blobs_lr: 0
  weight_decay: 1
  weight_decay: 0
  deconvolution_param {
    pad: 2
    kernel_size: 5
    stride: 2
    output_height: 216
    output_width: 216
    output_channels: 3
  }
}
layers {
  bottom: "deconv0"
  bottom: "target_ims"
  name: "loss"
  type: EUCLIDEAN_LOSS
}
I0813 04:57:37.318641 11543 net.cpp:65] Creating Layer source_ims
I0813 04:57:37.318647 11543 net.cpp:189] source_ims -> source_ims
I0813 04:57:37.318708 11543 data_layer.cpp:223] Opening lmdb /scr/r6/tgebru/inverting_conv/caffe_invert_alexnet/data/siggraph/tiny_summer_val_lmdb
I0813 04:57:37.318928 11543 data_layer.cpp:285] output data size: 64,3,227,227
I0813 04:57:37.318933 11543 data_layer.cpp:304] Loading mean file from/scr/r6/tgebru/timnit_caffe/data/ilsvrc12/imagenet_mean.binaryproto
I0813 04:57:37.333215 11543 net.cpp:84] Top shape: 64 3 227 227 (9893568)
I0813 04:57:37.333235 11543 net.cpp:116] source_ims does not need backward computation.
I0813 04:57:37.333247 11543 net.cpp:65] Creating Layer target_ims
I0813 04:57:37.333253 11543 net.cpp:189] target_ims -> target_ims
I0813 04:57:37.333338 11543 data_layer.cpp:223] Opening lmdb /scr/r6/tgebru/inverting_conv/caffe_invert_alexnet/data/siggraph/tiny_winter_val_lmdb
I0813 04:57:37.333469 11543 data_layer.cpp:285] output data size: 64,3,216,216
I0813 04:57:37.333473 11543 data_layer.cpp:304] Loading mean file from/scr/r6/tgebru/timnit_caffe/data/ilsvrc12/imagenet_mean.binaryproto
I0813 04:57:37.346074 11543 net.cpp:84] Top shape: 64 3 216 216 (8957952)
I0813 04:57:37.346128 11543 net.cpp:116] target_ims does not need backward computation.
I0813 04:57:37.346142 11543 net.cpp:65] Creating Layer conv1
I0813 04:57:37.346145 11543 net.cpp:228] conv1 <- source_ims
I0813 04:57:37.346154 11543 net.cpp:189] conv1 -> conv1
I0813 04:57:37.347414 11543 net.cpp:84] Top shape: 64 96 55 55 (18585600)
I0813 04:57:37.347419 11543 net.cpp:116] conv1 does not need backward computation.
I0813 04:57:37.347422 11543 net.cpp:65] Creating Layer relu1
I0813 04:57:37.347425 11543 net.cpp:228] relu1 <- conv1
I0813 04:57:37.347431 11543 net.cpp:179] relu1 -> conv1 (in-place)
I0813 04:57:37.347437 11543 net.cpp:84] Top shape: 64 96 55 55 (18585600)
I0813 04:57:37.347440 11543 net.cpp:116] relu1 does not need backward computation.
I0813 04:57:37.347445 11543 net.cpp:65] Creating Layer pool1
I0813 04:57:37.347447 11543 net.cpp:228] pool1 <- conv1
I0813 04:57:37.347451 11543 net.cpp:189] pool1 -> pool1
I0813 04:57:37.347458 11543 net.cpp:84] Top shape: 64 96 27 27 (4478976)
I0813 04:57:37.347461 11543 net.cpp:116] pool1 does not need backward computation.
I0813 04:57:37.347467 11543 net.cpp:65] Creating Layer norm1
I0813 04:57:37.347470 11543 net.cpp:228] norm1 <- pool1
I0813 04:57:37.347475 11543 net.cpp:189] norm1 -> norm1
I0813 04:57:37.347481 11543 net.cpp:84] Top shape: 64 96 27 27 (4478976)
I0813 04:57:37.347483 11543 net.cpp:116] norm1 does not need backward computation.
I0813 04:57:37.347487 11543 net.cpp:65] Creating Layer Rconv6
I0813 04:57:37.347491 11543 net.cpp:228] Rconv6 <- norm1
I0813 04:57:37.347494 11543 net.cpp:189] Rconv6 -> Rconv6
I0813 04:57:37.347729 11543 net.cpp:84] Top shape: 64 256 27 27 (11943936)
I0813 04:57:37.347733 11543 net.cpp:116] Rconv6 does not need backward computation.
I0813 04:57:37.347738 11543 net.cpp:65] Creating Layer Rrelu6
I0813 04:57:37.347740 11543 net.cpp:228] Rrelu6 <- Rconv6
I0813 04:57:37.347745 11543 net.cpp:179] Rrelu6 -> Rconv6 (in-place)
I0813 04:57:37.347749 11543 net.cpp:84] Top shape: 64 256 27 27 (11943936)
I0813 04:57:37.347753 11543 net.cpp:116] Rrelu6 does not need backward computation.
I0813 04:57:37.347759 11543 net.cpp:65] Creating Layer Rconv7
I0813 04:57:37.347761 11543 net.cpp:228] Rconv7 <- Rconv6
I0813 04:57:37.347765 11543 net.cpp:189] Rconv7 -> Rconv7
I0813 04:57:37.348484 11543 net.cpp:84] Top shape: 64 256 27 27 (11943936)
I0813 04:57:37.348489 11543 net.cpp:116] Rconv7 does not need backward computation.
I0813 04:57:37.348494 11543 net.cpp:65] Creating Layer Rrelu7
I0813 04:57:37.348496 11543 net.cpp:228] Rrelu7 <- Rconv7
I0813 04:57:37.348500 11543 net.cpp:179] Rrelu7 -> Rconv7 (in-place)
I0813 04:57:37.348505 11543 net.cpp:84] Top shape: 64 256 27 27 (11943936)
I0813 04:57:37.348507 11543 net.cpp:116] Rrelu7 does not need backward computation.
I0813 04:57:37.348512 11543 net.cpp:65] Creating Layer Rconv8
I0813 04:57:37.348515 11543 net.cpp:228] Rconv8 <- Rconv7
I0813 04:57:37.348520 11543 net.cpp:189] Rconv8 -> Rconv8
I0813 04:57:37.349318 11543 net.cpp:84] Top shape: 64 256 27 27 (11943936)
I0813 04:57:37.349323 11543 net.cpp:116] Rconv8 does not need backward computation.
I0813 04:57:37.349328 11543 net.cpp:65] Creating Layer Rrelu8
I0813 04:57:37.349329 11543 net.cpp:228] Rrelu8 <- Rconv8
I0813 04:57:37.349334 11543 net.cpp:179] Rrelu8 -> Rconv8 (in-place)
I0813 04:57:37.349339 11543 net.cpp:84] Top shape: 64 256 27 27 (11943936)
I0813 04:57:37.349341 11543 net.cpp:116] Rrelu8 does not need backward computation.
I0813 04:57:37.349345 11543 net.cpp:65] Creating Layer deconv2
I0813 04:57:37.349349 11543 net.cpp:228] deconv2 <- Rconv8
I0813 04:57:37.349352 11543 net.cpp:189] deconv2 -> deconv2
I0813 04:57:37.350380 11543 net.cpp:84] Top shape: 64 64 54 54 (11943936)
I0813 04:57:37.350386 11543 net.cpp:116] deconv2 does not need backward computation.
I0813 04:57:37.350391 11543 net.cpp:65] Creating Layer relu_deconv2
I0813 04:57:37.350394 11543 net.cpp:228] relu_deconv2 <- deconv2
I0813 04:57:37.350399 11543 net.cpp:179] relu_deconv2 -> deconv2 (in-place)
I0813 04:57:37.350404 11543 net.cpp:84] Top shape: 64 64 54 54 (11943936)
I0813 04:57:37.350425 11543 net.cpp:116] relu_deconv2 does not need backward computation.
I0813 04:57:37.350430 11543 net.cpp:65] Creating Layer deconv1
I0813 04:57:37.350432 11543 net.cpp:228] deconv1 <- deconv2
I0813 04:57:37.350437 11543 net.cpp:189] deconv1 -> deconv1
I0813 04:57:37.350579 11543 net.cpp:84] Top shape: 64 32 108 108 (23887872)
I0813 04:57:37.350584 11543 net.cpp:116] deconv1 does not need backward computation.
I0813 04:57:37.350587 11543 net.cpp:65] Creating Layer relu_deconv1
I0813 04:57:37.350590 11543 net.cpp:228] relu_deconv1 <- deconv1
I0813 04:57:37.350595 11543 net.cpp:179] relu_deconv1 -> deconv1 (in-place)
I0813 04:57:37.350600 11543 net.cpp:84] Top shape: 64 32 108 108 (23887872)
I0813 04:57:37.350602 11543 net.cpp:116] relu_deconv1 does not need backward computation.
I0813 04:57:37.350608 11543 net.cpp:65] Creating Layer deconv0
I0813 04:57:37.350611 11543 net.cpp:228] deconv0 <- deconv1
I0813 04:57:37.350616 11543 net.cpp:189] deconv0 -> deconv0
I0813 04:57:37.350641 11543 net.cpp:84] Top shape: 64 3 216 216 (8957952)
I0813 04:57:37.350644 11543 net.cpp:116] deconv0 does not need backward computation.
I0813 04:57:37.350648 11543 net.cpp:65] Creating Layer loss
I0813 04:57:37.350651 11543 net.cpp:228] loss <- deconv0
I0813 04:57:37.350654 11543 net.cpp:228] loss <- target_ims
I0813 04:57:37.350661 11543 net.cpp:116] loss does not need backward computation.
I0813 04:57:37.350673 11543 net.cpp:238] Collecting Learning Rate and Weight Decay.
…
