…
    source: "/scr/r6/tgebru/inverting_conv/caffe_invert_alexnet/data/siggraph/tiny_summer_train_lmdb"
    mean_file: "/scr/r6/tgebru/timnit_caffe/data/ilsvrc12/imagenet_mean.binaryproto"
    batch_size: 12
    crop_size: 227
    mirror: false
    backend: LMDB
  }
}
layers {
  top: "target_ims"
  name: "target_ims"
  type: DATA
  data_param {
    source: "/scr/r6/tgebru/inverting_conv/caffe_invert_alexnet/data/siggraph/tiny_summer_train_lmdb"
    mean_file: "/scr/r6/tgebru/timnit_caffe/data/ilsvrc12/imagenet_mean.binaryproto"
    batch_size: 12
    crop_size: 216
    mirror: false
    backend: LMDB
  }
}
layers {
  bottom: "source_ims"
  top: "conv1"
  name: "conv1"
  type: CONVOLUTION
  blobs_lr: 0
  blobs_lr: 0
  weight_decay: 1
  weight_decay: 0
  convolution_param {
    num_output: 96
    kernel_size: 11
    stride: 4
    weight_filler {
      type: "gaussian"
      std: 0.01
    }
    bias_filler {
      type: "constant"
      value: 0
    }
  }
}
layers {
  bottom: "conv1"
  top: "conv1"
  name: "relu1"
  type: RELU
}
layers {
  bottom: "conv1"
  top: "pool1"
  name: "pool1"
  type: POOLING
  pooling_param {
    pool: MAX
    kernel_size: 3
    stride: 2
  }
}
layers {
  bottom: "pool1"
  top: "norm1"
  name: "norm1"
  type: LRN
  lrn_param {
    local_size: 5
    alpha: 0.0001
    beta: 0.75
  }
}
layers {
  bottom: "norm1"
  top: "Rconv6"
  name: "Rconv6"
  type: CONVOLUTION
  blobs_lr: 1
  blobs_lr: 2
  weight_decay: 1
  weight_decay: 0
  convolution_param {
    num_output: 256
    pad: 1
    kernel_size: 3
  }
}
layers {
  bottom: "Rconv6"
  top: "Rconv6"
  name: "Rrelu6"
  type: RELU
}
layers {
  bottom: "Rconv6"
  top: "Rconv7"
  name: "Rconv7"
  type: CONVOLUTION
  blobs_lr: 1
  blobs_lr: 2
  weight_decay: 1
  weight_decay: 0
  convolution_param {
    num_output: 256
    pad: 1
    kernel_size: 3
    group: 2
  }
}
layers {
  bottom: "Rconv7"
  top: "Rconv7"
  name: "Rrelu7"
  type: RELU
}
layers {
  bottom: "Rconv7"
  top: "Rconv8"
  name: "Rconv8"
  type: CONVOLUTION
  blobs_lr: 1
  blobs_lr: 2
  weight_decay: 1
  weight_decay: 0
  convolution_param {
    num_output: 256
    pad: 1
    kernel_size: 3
    group: 2
  }
}
layers {
  bottom: "Rconv8"
  top: "Rconv8"
  name: "Rrelu8"
  type: RELU
}
layers {
  bottom: "Rconv8"
  top: "deconv2"
  name: "deconv2"
  type: DECONVOLUTION
  blobs_lr: 1
  blobs_lr: 2
  weight_decay: 1
  weight_decay: 0
  deconvolution_param {
    pad: 2
    kernel_size: 5
    stride: 2
    output_height: 54
    output_width: 54
    output_channels: 64
  }
}
layers {
  bottom: "deconv2"
  top: "deconv2"
  name: "relu_deconv2"
  type: RELU
  relu_param {
    negative_slope: 0.3
  }
}
layers {
  bottom: "deconv2"
  top: "deconv1"
  name: "deconv1"
  type: DECONVOLUTION
  blobs_lr: 1
  blobs_lr: 2
  weight_decay: 1
  weight_decay: 0
  deconvolution_param {
    pad: 2
    kernel_size: 5
    stride: 2
    output_height: 108
    output_width: 108
    output_channels: 32
  }
}
layers {
  bottom: "deconv1"
  top: "deconv1"
  name: "relu_deconv1"
  type: RELU
  relu_param {
    negative_slope: 0.3
  }
}
layers {
  bottom: "deconv1"
  top: "deconv0"
  name: "deconv0"
  type: DECONVOLUTION
  blobs_lr: 1
  blobs_lr: 2
  weight_decay: 1
  weight_decay: 1
  deconvolution_param {
    pad: 2
    kernel_size: 5
    stride: 2
    output_height: 216
    output_width: 216
    output_channels: 3
  }
}
layers {
  bottom: "deconv0"
  bottom: "target_ims"
  name: "loss"
  type: EUCLIDEAN_LOSS
}
I0813 12:49:09.703624 13699 net.cpp:65] Creating Layer source_ims
I0813 12:49:09.703634 13699 net.cpp:189] source_ims -> source_ims
I0813 12:49:09.703758 13699 data_layer.cpp:223] Opening lmdb /scr/r6/tgebru/inverting_conv/caffe_invert_alexnet/data/siggraph/tiny_summer_train_lmdb
I0813 12:49:09.703977 13699 data_layer.cpp:285] output data size: 12,3,227,227
I0813 12:49:09.703984 13699 data_layer.cpp:304] Loading mean file from/scr/r6/tgebru/timnit_caffe/data/ilsvrc12/imagenet_mean.binaryproto
I0813 12:49:09.708853 13699 net.cpp:84] Top shape: 12 3 227 227 (1855044)
I0813 12:49:09.708861 13699 net.cpp:116] source_ims does not need backward computation.
I0813 12:49:09.708868 13699 net.cpp:65] Creating Layer target_ims
I0813 12:49:09.708873 13699 net.cpp:189] target_ims -> target_ims
I0813 12:49:09.709030 13699 data_layer.cpp:223] Opening lmdb /scr/r6/tgebru/inverting_conv/caffe_invert_alexnet/data/siggraph/tiny_summer_train_lmdb
I0813 12:49:09.709152 13699 data_layer.cpp:285] output data size: 12,3,216,216
I0813 12:49:09.709156 13699 data_layer.cpp:304] Loading mean file from/scr/r6/tgebru/timnit_caffe/data/ilsvrc12/imagenet_mean.binaryproto
I0813 12:49:09.713572 13699 net.cpp:84] Top shape: 12 3 216 216 (1679616)
I0813 12:49:09.713580 13699 net.cpp:116] target_ims does not need backward computation.
I0813 12:49:09.713593 13699 net.cpp:65] Creating Layer conv1
I0813 12:49:09.713596 13699 net.cpp:228] conv1 <- source_ims
I0813 12:49:09.713634 13699 net.cpp:189] conv1 -> conv1
I0813 12:49:09.714969 13699 net.cpp:84] Top shape: 12 96 55 55 (3484800)
I0813 12:49:09.714977 13699 net.cpp:116] conv1 does not need backward computation.
I0813 12:49:09.714982 13699 net.cpp:65] Creating Layer relu1
I0813 12:49:09.714985 13699 net.cpp:228] relu1 <- conv1
I0813 12:49:09.714990 13699 net.cpp:179] relu1 -> conv1 (in-place)
I0813 12:49:09.714999 13699 net.cpp:84] Top shape: 12 96 55 55 (3484800)
I0813 12:49:09.715003 13699 net.cpp:116] relu1 does not need backward computation.
I0813 12:49:09.715008 13699 net.cpp:65] Creating Layer pool1
I0813 12:49:09.715010 13699 net.cpp:228] pool1 <- conv1
I0813 12:49:09.715015 13699 net.cpp:189] pool1 -> pool1
I0813 12:49:09.715028 13699 net.cpp:84] Top shape: 12 96 27 27 (839808)
I0813 12:49:09.715031 13699 net.cpp:116] pool1 does not need backward computation.
I0813 12:49:09.715036 13699 net.cpp:65] Creating Layer norm1
I0813 12:49:09.715039 13699 net.cpp:228] norm1 <- pool1
I0813 12:49:09.715044 13699 net.cpp:189] norm1 -> norm1
I0813 12:49:09.715052 13699 net.cpp:84] Top shape: 12 96 27 27 (839808)
I0813 12:49:09.715055 13699 net.cpp:116] norm1 does not need backward computation.
I0813 12:49:09.715060 13699 net.cpp:65] Creating Layer Rconv6
I0813 12:49:09.715064 13699 net.cpp:228] Rconv6 <- norm1
I0813 12:49:09.715067 13699 net.cpp:189] Rconv6 -> Rconv6
I0813 12:49:09.715247 13699 net.cpp:84] Top shape: 12 256 27 27 (2239488)
I0813 12:49:09.715251 13699 net.cpp:111] Rconv6 needs backward computation.
I0813 12:49:09.715256 13699 net.cpp:65] Creating Layer Rrelu6
I0813 12:49:09.715260 13699 net.cpp:228] Rrelu6 <- Rconv6
I0813 12:49:09.715263 13699 net.cpp:179] Rrelu6 -> Rconv6 (in-place)
I0813 12:49:09.715268 13699 net.cpp:84] Top shape: 12 256 27 27 (2239488)
I0813 12:49:09.715270 13699 net.cpp:111] Rrelu6 needs backward computation.
I0813 12:49:09.715276 13699 net.cpp:65] Creating Layer Rconv7
I0813 12:49:09.715279 13699 net.cpp:228] Rconv7 <- Rconv6
I0813 12:49:09.715283 13699 net.cpp:189] Rconv7 -> Rconv7
I0813 12:49:09.715973 13699 net.cpp:84] Top shape: 12 256 27 27 (2239488)
I0813 12:49:09.715977 13699 net.cpp:111] Rconv7 needs backward computation.
I0813 12:49:09.715981 13699 net.cpp:65] Creating Layer Rrelu7
I0813 12:49:09.715984 13699 net.cpp:228] Rrelu7 <- Rconv7
I0813 12:49:09.716014 13699 net.cpp:179] Rrelu7 -> Rconv7 (in-place)
I0813 12:49:09.716019 13699 net.cpp:84] Top shape: 12 256 27 27 (2239488)
I0813 12:49:09.716022 13699 net.cpp:111] Rrelu7 needs backward computation.
I0813 12:49:09.716027 13699 net.cpp:65] Creating Layer Rconv8
I0813 12:49:09.716029 13699 net.cpp:228] Rconv8 <- Rconv7
I0813 12:49:09.716033 13699 net.cpp:189] Rconv8 -> Rconv8
I0813 12:49:09.716810 13699 net.cpp:84] Top shape: 12 256 27 27 (2239488)
I0813 12:49:09.716815 13699 net.cpp:111] Rconv8 needs backward computation.
I0813 12:49:09.716820 13699 net.cpp:65] Creating Layer Rrelu8
I0813 12:49:09.716822 13699 net.cpp:228] Rrelu8 <- Rconv8
I0813 12:49:09.716826 13699 net.cpp:179] Rrelu8 -> Rconv8 (in-place)
I0813 12:49:09.716831 13699 net.cpp:84] Top shape: 12 256 27 27 (2239488)
I0813 12:49:09.716835 13699 net.cpp:111] Rrelu8 needs backward computation.
I0813 12:49:09.716838 13699 net.cpp:65] Creating Layer deconv2
I0813 12:49:09.716840 13699 net.cpp:228] deconv2 <- Rconv8
I0813 12:49:09.716845 13699 net.cpp:189] deconv2 -> deconv2
I0813 12:49:09.717924 13699 net.cpp:84] Top shape: 12 64 54 54 (2239488)
I0813 12:49:09.717929 13699 net.cpp:111] deconv2 needs backward computation.
I0813 12:49:09.717934 13699 net.cpp:65] Creating Layer relu_deconv2
I0813 12:49:09.717937 13699 net.cpp:228] relu_deconv2 <- deconv2
I0813 12:49:09.717941 13699 net.cpp:179] relu_deconv2 -> deconv2 (in-place)
I0813 12:49:09.717947 13699 net.cpp:84] Top shape: 12 64 54 54 (2239488)
I0813 12:49:09.717949 13699 net.cpp:111] relu_deconv2 needs backward computation.
I0813 12:49:09.717953 13699 net.cpp:65] Creating Layer deconv1
I0813 12:49:09.717955 13699 net.cpp:228] deconv1 <- deconv2
I0813 12:49:09.717959 13699 net.cpp:189] deconv1 -> deconv1
I0813 12:49:09.718097 13699 net.cpp:84] Top shape: 12 32 108 108 (4478976)
I0813 12:49:09.718101 13699 net.cpp:111] deconv1 needs backward computation.
I0813 12:49:09.718106 13699 net.cpp:65] Creating Layer relu_deconv1
I0813 12:49:09.718108 13699 net.cpp:228] relu_deconv1 <- deconv1
I0813 12:49:09.718112 13699 net.cpp:179] relu_deconv1 -> deconv1 (in-place)
I0813 12:49:09.718116 13699 net.cpp:84] Top shape: 12 32 108 108 (4478976)
I0813 12:49:09.718119 13699 net.cpp:111] relu_deconv1 needs backward computation.
I0813 12:49:09.718124 13699 net.cpp:65] Creating Layer deconv0
I0813 12:49:09.718127 13699 net.cpp:228] deconv0 <- deconv1
I0813 12:49:09.718132 13699 net.cpp:189] deconv0 -> deconv0
I0813 12:49:09.718175 13699 net.cpp:84] Top shape: 12 3 216 216 (1679616)
I0813 12:49:09.718178 13699 net.cpp:111] deconv0 needs backward computation.
I0813 12:49:09.718183 13699 net.cpp:65] Creating Layer loss
I0813 12:49:09.718185 13699 net.cpp:228] loss <- deconv0
I0813 12:49:09.718189 13699 net.cpp:228] loss <- target_ims
I0813 12:49:09.718196 13699 net.cpp:111] loss needs backward computation.
I0813 12:49:09.718210 13699 net.cpp:238] Collecting Learning Rate and Weight Decay.
…
    source: "/scr/r6/tgebru/inverting_conv/caffe_invert_alexnet/data/siggraph/tiny_summer_val_lmdb"
    mean_file: "/scr/r6/tgebru/timnit_caffe/data/ilsvrc12/imagenet_mean.binaryproto"
    batch_size: 2
    crop_size: 227
    mirror: false
    backend: LMDB
  }
}
layers {
  top: "target_ims"
  name: "target_ims"
  type: DATA
  data_param {
    source: "/scr/r6/tgebru/inverting_conv/caffe_invert_alexnet/data/siggraph/tiny_summer_val_lmdb"
    mean_file: "/scr/r6/tgebru/timnit_caffe/data/ilsvrc12/imagenet_mean.binaryproto"
    batch_size: 2
    crop_size: 216
    mirror: false
    backend: LMDB
  }
}
layers {
  bottom: "source_ims"
  top: "conv1"
  name: "conv1"
  type: CONVOLUTION
  blobs_lr: 0
  blobs_lr: 0
  weight_decay: 1
  weight_decay: 0
  convolution_param {
    num_output: 96
    kernel_size: 11
    stride: 4
    weight_filler {
      type: "gaussian"
      std: 0.01
    }
    bias_filler {
      type: "constant"
      value: 0
    }
  }
}
layers {
  bottom: "conv1"
  top: "conv1"
  name: "relu1"
  type: RELU
}
layers {
  bottom: "conv1"
  top: "pool1"
  name: "pool1"
  type: POOLING
  pooling_param {
    pool: MAX
    kernel_size: 3
    stride: 2
  }
}
layers {
  bottom: "pool1"
  top: "norm1"
  name: "norm1"
  type: LRN
  lrn_param {
    local_size: 5
    alpha: 0.0001
    beta: 0.75
  }
}
layers {
  bottom: "norm1"
  top: "Rconv6"
  name: "Rconv6"
  type: CONVOLUTION
  blobs_lr: 0
  blobs_lr: 0
  weight_decay: 1
  weight_decay: 0
  convolution_param {
    num_output: 256
    pad: 1
    kernel_size: 3
  }
}
layers {
  bottom: "Rconv6"
  top: "Rconv6"
  name: "Rrelu6"
  type: RELU
}
layers {
  bottom: "Rconv6"
  top: "Rconv7"
  name: "Rconv7"
  type: CONVOLUTION
  blobs_lr: 0
  blobs_lr: 0
  weight_decay: 1
  weight_decay: 0
  convolution_param {
    num_output: 256
    pad: 1
    kernel_size: 3
    group: 2
  }
}
layers {
  bottom: "Rconv7"
  top: "Rconv7"
  name: "Rrelu7"
  type: RELU
}
layers {
  bottom: "Rconv7"
  top: "Rconv8"
  name: "Rconv8"
  type: CONVOLUTION
  blobs_lr: 0
  blobs_lr: 0
  weight_decay: 1
  weight_decay: 0
  convolution_param {
    num_output: 256
    pad: 1
    kernel_size: 3
    group: 2
  }
}
layers {
  bottom: "Rconv8"
  top: "Rconv8"
  name: "Rrelu8"
  type: RELU
}
layers {
  bottom: "Rconv8"
  top: "deconv2"
  name: "deconv2"
  type: DECONVOLUTION
  blobs_lr: 0
  blobs_lr: 0
  weight_decay: 1
  weight_decay: 0
  deconvolution_param {
    pad: 2
    kernel_size: 5
    stride: 2
    output_height: 54
    output_width: 54
    output_channels: 64
  }
}
layers {
  bottom: "deconv2"
  top: "deconv2"
  name: "relu_deconv2"
  type: RELU
  relu_param {
    negative_slope: 0.3
  }
}
layers {
  bottom: "deconv2"
  top: "deconv1"
  name: "deconv1"
  type: DECONVOLUTION
  blobs_lr: 0
  blobs_lr: 0
  weight_decay: 1
  weight_decay: 0
  deconvolution_param {
    pad: 2
    kernel_size: 5
    stride: 2
    output_height: 108
    output_width: 108
    output_channels: 32
  }
}
layers {
  bottom: "deconv1"
  top: "deconv1"
  name: "relu_deconv1"
  type: RELU
  relu_param {
    negative_slope: 0.3
  }
}
layers {
  bottom: "deconv1"
  top: "deconv0"
  name: "deconv0"
  type: DECONVOLUTION
  blobs_lr: 0
  blobs_lr: 0
  weight_decay: 1
  weight_decay: 0
  deconvolution_param {
    pad: 2
    kernel_size: 5
    stride: 2
    output_height: 216
    output_width: 216
    output_channels: 3
  }
}
layers {
  bottom: "deconv0"
  bottom: "target_ims"
  name: "loss"
  type: EUCLIDEAN_LOSS
}
I0813 12:49:09.718955 13699 net.cpp:65] Creating Layer source_ims
I0813 12:49:09.718960 13699 net.cpp:189] source_ims -> source_ims
I0813 12:49:09.719015 13699 data_layer.cpp:223] Opening lmdb /scr/r6/tgebru/inverting_conv/caffe_invert_alexnet/data/siggraph/tiny_summer_val_lmdb
I0813 12:49:09.719241 13699 data_layer.cpp:285] output data size: 2,3,227,227
I0813 12:49:09.719245 13699 data_layer.cpp:304] Loading mean file from/scr/r6/tgebru/timnit_caffe/data/ilsvrc12/imagenet_mean.binaryproto
I0813 12:49:09.721688 13699 net.cpp:84] Top shape: 2 3 227 227 (309174)
I0813 12:49:09.721694 13699 net.cpp:116] source_ims does not need backward computation.
I0813 12:49:09.721700 13699 net.cpp:65] Creating Layer target_ims
I0813 12:49:09.721704 13699 net.cpp:189] target_ims -> target_ims
I0813 12:49:09.721746 13699 data_layer.cpp:223] Opening lmdb /scr/r6/tgebru/inverting_conv/caffe_invert_alexnet/data/siggraph/tiny_summer_val_lmdb
I0813 12:49:09.721899 13699 data_layer.cpp:285] output data size: 2,3,216,216
I0813 12:49:09.721904 13699 data_layer.cpp:304] Loading mean file from/scr/r6/tgebru/timnit_caffe/data/ilsvrc12/imagenet_mean.binaryproto
I0813 12:49:09.724148 13699 net.cpp:84] Top shape: 2 3 216 216 (279936)
I0813 12:49:09.724155 13699 net.cpp:116] target_ims does not need backward computation.
I0813 12:49:09.724175 13699 net.cpp:65] Creating Layer conv1
I0813 12:49:09.724179 13699 net.cpp:228] conv1 <- source_ims
I0813 12:49:09.724184 13699 net.cpp:189] conv1 -> conv1
I0813 12:49:09.725432 13699 net.cpp:84] Top shape: 2 96 55 55 (580800)
I0813 12:49:09.725436 13699 net.cpp:116] conv1 does not need backward computation.
I0813 12:49:09.725441 13699 net.cpp:65] Creating Layer relu1
I0813 12:49:09.725445 13699 net.cpp:228] relu1 <- conv1
I0813 12:49:09.725448 13699 net.cpp:179] relu1 -> conv1 (in-place)
I0813 12:49:09.725453 13699 net.cpp:84] Top shape: 2 96 55 55 (580800)
I0813 12:49:09.725456 13699 net.cpp:116] relu1 does not need backward computation.
I0813 12:49:09.725461 13699 net.cpp:65] Creating Layer pool1
I0813 12:49:09.725463 13699 net.cpp:228] pool1 <- conv1
I0813 12:49:09.725467 13699 net.cpp:189] pool1 -> pool1
I0813 12:49:09.725473 13699 net.cpp:84] Top shape: 2 96 27 27 (139968)
I0813 12:49:09.725476 13699 net.cpp:116] pool1 does not need backward computation.
I0813 12:49:09.725479 13699 net.cpp:65] Creating Layer norm1
I0813 12:49:09.725482 13699 net.cpp:228] norm1 <- pool1
I0813 12:49:09.725486 13699 net.cpp:189] norm1 -> norm1
I0813 12:49:09.725492 13699 net.cpp:84] Top shape: 2 96 27 27 (139968)
I0813 12:49:09.725494 13699 net.cpp:116] norm1 does not need backward computation.
I0813 12:49:09.725498 13699 net.cpp:65] Creating Layer Rconv6
I0813 12:49:09.725500 13699 net.cpp:228] Rconv6 <- norm1
I0813 12:49:09.725504 13699 net.cpp:189] Rconv6 -> Rconv6
I0813 12:49:09.726059 13699 net.cpp:84] Top shape: 2 256 27 27 (373248)
I0813 12:49:09.726063 13699 net.cpp:116] Rconv6 does not need backward computation.
I0813 12:49:09.726068 13699 net.cpp:65] Creating Layer Rrelu6
I0813 12:49:09.726070 13699 net.cpp:228] Rrelu6 <- Rconv6
I0813 12:49:09.726074 13699 net.cpp:179] Rrelu6 -> Rconv6 (in-place)
I0813 12:49:09.726079 13699 net.cpp:84] Top shape: 2 256 27 27 (373248)
I0813 12:49:09.726081 13699 net.cpp:116] Rrelu6 does not need backward computation.
I0813 12:49:09.726086 13699 net.cpp:65] Creating Layer Rconv7
I0813 12:49:09.726089 13699 net.cpp:228] Rconv7 <- Rconv6
I0813 12:49:09.726094 13699 net.cpp:189] Rconv7 -> Rconv7
I0813 12:49:09.726826 13699 net.cpp:84] Top shape: 2 256 27 27 (373248)
I0813 12:49:09.726831 13699 net.cpp:116] Rconv7 does not need backward computation.
I0813 12:49:09.726835 13699 net.cpp:65] Creating Layer Rrelu7
I0813 12:49:09.726837 13699 net.cpp:228] Rrelu7 <- Rconv7
I0813 12:49:09.726840 13699 net.cpp:179] Rrelu7 -> Rconv7 (in-place)
I0813 12:49:09.726845 13699 net.cpp:84] Top shape: 2 256 27 27 (373248)
I0813 12:49:09.726847 13699 net.cpp:116] Rrelu7 does not need backward computation.
I0813 12:49:09.726851 13699 net.cpp:65] Creating Layer Rconv8
I0813 12:49:09.726853 13699 net.cpp:228] Rconv8 <- Rconv7
I0813 12:49:09.726857 13699 net.cpp:189] Rconv8 -> Rconv8
I0813 12:49:09.727596 13699 net.cpp:84] Top shape: 2 256 27 27 (373248)
I0813 12:49:09.727601 13699 net.cpp:116] Rconv8 does not need backward computation.
I0813 12:49:09.727609 13699 net.cpp:65] Creating Layer Rrelu8
I0813 12:49:09.727612 13699 net.cpp:228] Rrelu8 <- Rconv8
I0813 12:49:09.727615 13699 net.cpp:179] Rrelu8 -> Rconv8 (in-place)
I0813 12:49:09.727619 13699 net.cpp:84] Top shape: 2 256 27 27 (373248)
I0813 12:49:09.727622 13699 net.cpp:116] Rrelu8 does not need backward computation.
I0813 12:49:09.727627 13699 net.cpp:65] Creating Layer deconv2
I0813 12:49:09.727628 13699 net.cpp:228] deconv2 <- Rconv8
I0813 12:49:09.727632 13699 net.cpp:189] deconv2 -> deconv2
I0813 12:49:09.728648 13699 net.cpp:84] Top shape: 2 64 54 54 (373248)
I0813 12:49:09.728653 13699 net.cpp:116] deconv2 does not need backward computation.
I0813 12:49:09.728657 13699 net.cpp:65] Creating Layer relu_deconv2
I0813 12:49:09.728660 13699 net.cpp:228] relu_deconv2 <- deconv2
I0813 12:49:09.728664 13699 net.cpp:179] relu_deconv2 -> deconv2 (in-place)
I0813 12:49:09.728669 13699 net.cpp:84] Top shape: 2 64 54 54 (373248)
I0813 12:49:09.728672 13699 net.cpp:116] relu_deconv2 does not need backward computation.
I0813 12:49:09.728688 13699 net.cpp:65] Creating Layer deconv1
I0813 12:49:09.728690 13699 net.cpp:228] deconv1 <- deconv2
I0813 12:49:09.728694 13699 net.cpp:189] deconv1 -> deconv1
I0813 12:49:09.728829 13699 net.cpp:84] Top shape: 2 32 108 108 (746496)
I0813 12:49:09.728833 13699 net.cpp:116] deconv1 does not need backward computation.
I0813 12:49:09.728837 13699 net.cpp:65] Creating Layer relu_deconv1
I0813 12:49:09.728839 13699 net.cpp:228] relu_deconv1 <- deconv1
I0813 12:49:09.728843 13699 net.cpp:179] relu_deconv1 -> deconv1 (in-place)
I0813 12:49:09.728847 13699 net.cpp:84] Top shape: 2 32 108 108 (746496)
I0813 12:49:09.728850 13699 net.cpp:116] relu_deconv1 does not need backward computation.
I0813 12:49:09.728854 13699 net.cpp:65] Creating Layer deconv0
I0813 12:49:09.728857 13699 net.cpp:228] deconv0 <- deconv1
I0813 12:49:09.728862 13699 net.cpp:189] deconv0 -> deconv0
I0813 12:49:09.728878 13699 net.cpp:84] Top shape: 2 3 216 216 (279936)
I0813 12:49:09.728881 13699 net.cpp:116] deconv0 does not need backward computation.
I0813 12:49:09.728884 13699 net.cpp:65] Creating Layer loss
I0813 12:49:09.728888 13699 net.cpp:228] loss <- deconv0
I0813 12:49:09.728890 13699 net.cpp:228] loss <- target_ims
I0813 12:49:09.728894 13699 net.cpp:116] loss does not need backward computation.
I0813 12:49:09.728906 13699 net.cpp:238] Collecting Learning Rate and Weight Decay.
…
