…
    source: "/scr/r6/tgebru/inverting_conv/caffe_invert_alexnet/data/siggraph/tiny_winter_train_lmdb"
    mean_file: "/scr/r6/tgebru/timnit_caffe/data/ilsvrc12/imagenet_mean.binaryproto"
    batch_size: 12
    crop_size: 227
    mirror: false
    backend: LMDB
  }
}
layers {
  top: "target_ims"
  name: "target_ims"
  type: DATA
  data_param {
    source: "/scr/r6/tgebru/inverting_conv/caffe_invert_alexnet/data/siggraph/tiny_summer_train_lmdb"
    mean_file: "/scr/r6/tgebru/timnit_caffe/data/ilsvrc12/imagenet_mean.binaryproto"
    batch_size: 12
    crop_size: 216
    mirror: false
    backend: LMDB
  }
}
layers {
  bottom: "source_ims"
  top: "conv1"
  name: "conv1"
  type: CONVOLUTION
  blobs_lr: 0
  blobs_lr: 0
  weight_decay: 1
  weight_decay: 0
  convolution_param {
    num_output: 96
    kernel_size: 11
    stride: 4
    weight_filler {
      type: "gaussian"
      std: 0.01
    }
    bias_filler {
      type: "constant"
      value: 0
    }
  }
}
layers {
  bottom: "conv1"
  top: "conv1"
  name: "relu1"
  type: RELU
}
layers {
  bottom: "conv1"
  top: "pool1"
  name: "pool1"
  type: POOLING
  pooling_param {
    pool: MAX
    kernel_size: 3
    stride: 2
  }
}
layers {
  bottom: "pool1"
  top: "norm1"
  name: "norm1"
  type: LRN
  lrn_param {
    local_size: 5
    alpha: 0.0001
    beta: 0.75
  }
}
layers {
  bottom: "norm1"
  top: "Rconv6"
  name: "Rconv6"
  type: CONVOLUTION
  blobs_lr: 1
  blobs_lr: 2
  weight_decay: 1
  weight_decay: 0
  convolution_param {
    num_output: 256
    pad: 1
    kernel_size: 3
  }
}
layers {
  bottom: "Rconv6"
  top: "Rconv6"
  name: "Rrelu6"
  type: RELU
}
layers {
  bottom: "Rconv6"
  top: "Rconv7"
  name: "Rconv7"
  type: CONVOLUTION
  blobs_lr: 1
  blobs_lr: 2
  weight_decay: 1
  weight_decay: 0
  convolution_param {
    num_output: 256
    pad: 1
    kernel_size: 3
    group: 2
  }
}
layers {
  bottom: "Rconv7"
  top: "Rconv7"
  name: "Rrelu7"
  type: RELU
}
layers {
  bottom: "Rconv7"
  top: "Rconv8"
  name: "Rconv8"
  type: CONVOLUTION
  blobs_lr: 1
  blobs_lr: 2
  weight_decay: 1
  weight_decay: 0
  convolution_param {
    num_output: 256
    pad: 1
    kernel_size: 3
    group: 2
  }
}
layers {
  bottom: "Rconv8"
  top: "Rconv8"
  name: "Rrelu8"
  type: RELU
}
layers {
  bottom: "Rconv8"
  top: "deconv2"
  name: "deconv2"
  type: DECONVOLUTION
  blobs_lr: 1
  blobs_lr: 2
  weight_decay: 1
  weight_decay: 0
  deconvolution_param {
    pad: 2
    kernel_size: 5
    stride: 2
    output_height: 54
    output_width: 54
    output_channels: 64
  }
}
layers {
  bottom: "deconv2"
  top: "deconv2"
  name: "relu_deconv2"
  type: RELU
  relu_param {
    negative_slope: 0.3
  }
}
layers {
  bottom: "deconv2"
  top: "deconv1"
  name: "deconv1"
  type: DECONVOLUTION
  blobs_lr: 1
  blobs_lr: 2
  weight_decay: 1
  weight_decay: 0
  deconvolution_param {
    pad: 2
    kernel_size: 5
    stride: 2
    output_height: 108
    output_width: 108
    output_channels: 32
  }
}
layers {
  bottom: "deconv1"
  top: "deconv1"
  name: "relu_deconv1"
  type: RELU
  relu_param {
    negative_slope: 0.3
  }
}
layers {
  bottom: "deconv1"
  top: "deconv0"
  name: "deconv0"
  type: DECONVOLUTION
  blobs_lr: 1
  blobs_lr: 2
  weight_decay: 1
  weight_decay: 1
  deconvolution_param {
    pad: 2
    kernel_size: 5
    stride: 2
    output_height: 216
    output_width: 216
    output_channels: 3
  }
}
layers {
  bottom: "deconv0"
  bottom: "target_ims"
  name: "loss"
  type: EUCLIDEAN_LOSS
}
I0813 04:28:21.171206  2078 net.cpp:65] Creating Layer source_ims
I0813 04:28:21.171216  2078 net.cpp:189] source_ims -> source_ims
I0813 04:28:21.171334  2078 data_layer.cpp:223] Opening lmdb /scr/r6/tgebru/inverting_conv/caffe_invert_alexnet/data/siggraph/tiny_winter_train_lmdb
I0813 04:28:21.171535  2078 data_layer.cpp:285] output data size: 12,3,227,227
I0813 04:28:21.171541  2078 data_layer.cpp:304] Loading mean file from/scr/r6/tgebru/timnit_caffe/data/ilsvrc12/imagenet_mean.binaryproto
I0813 04:28:21.176439  2078 net.cpp:84] Top shape: 12 3 227 227 (1855044)
I0813 04:28:21.176447  2078 net.cpp:116] source_ims does not need backward computation.
I0813 04:28:21.176455  2078 net.cpp:65] Creating Layer target_ims
I0813 04:28:21.176460  2078 net.cpp:189] target_ims -> target_ims
I0813 04:28:21.176625  2078 data_layer.cpp:223] Opening lmdb /scr/r6/tgebru/inverting_conv/caffe_invert_alexnet/data/siggraph/tiny_summer_train_lmdb
I0813 04:28:21.176761  2078 data_layer.cpp:285] output data size: 12,3,216,216
I0813 04:28:21.176766  2078 data_layer.cpp:304] Loading mean file from/scr/r6/tgebru/timnit_caffe/data/ilsvrc12/imagenet_mean.binaryproto
I0813 04:28:21.180789  2078 net.cpp:84] Top shape: 12 3 216 216 (1679616)
I0813 04:28:21.180799  2078 net.cpp:116] target_ims does not need backward computation.
I0813 04:28:21.180809  2078 net.cpp:65] Creating Layer conv1
I0813 04:28:21.180812  2078 net.cpp:228] conv1 <- source_ims
I0813 04:28:21.180927  2078 net.cpp:189] conv1 -> conv1
I0813 04:28:21.182308  2078 net.cpp:84] Top shape: 12 96 55 55 (3484800)
I0813 04:28:21.182314  2078 net.cpp:116] conv1 does not need backward computation.
I0813 04:28:21.182320  2078 net.cpp:65] Creating Layer relu1
I0813 04:28:21.182323  2078 net.cpp:228] relu1 <- conv1
I0813 04:28:21.182329  2078 net.cpp:179] relu1 -> conv1 (in-place)
I0813 04:28:21.182338  2078 net.cpp:84] Top shape: 12 96 55 55 (3484800)
I0813 04:28:21.182342  2078 net.cpp:116] relu1 does not need backward computation.
I0813 04:28:21.182346  2078 net.cpp:65] Creating Layer pool1
I0813 04:28:21.182349  2078 net.cpp:228] pool1 <- conv1
I0813 04:28:21.182354  2078 net.cpp:189] pool1 -> pool1
I0813 04:28:21.182368  2078 net.cpp:84] Top shape: 12 96 27 27 (839808)
I0813 04:28:21.182370  2078 net.cpp:116] pool1 does not need backward computation.
I0813 04:28:21.182376  2078 net.cpp:65] Creating Layer norm1
I0813 04:28:21.182379  2078 net.cpp:228] norm1 <- pool1
I0813 04:28:21.182384  2078 net.cpp:189] norm1 -> norm1
I0813 04:28:21.182394  2078 net.cpp:84] Top shape: 12 96 27 27 (839808)
I0813 04:28:21.182397  2078 net.cpp:116] norm1 does not need backward computation.
I0813 04:28:21.182401  2078 net.cpp:65] Creating Layer Rconv6
I0813 04:28:21.182404  2078 net.cpp:228] Rconv6 <- norm1
I0813 04:28:21.182410  2078 net.cpp:189] Rconv6 -> Rconv6
I0813 04:28:21.182667  2078 net.cpp:84] Top shape: 12 256 27 27 (2239488)
I0813 04:28:21.182672  2078 net.cpp:111] Rconv6 needs backward computation.
I0813 04:28:21.182675  2078 net.cpp:65] Creating Layer Rrelu6
I0813 04:28:21.182678  2078 net.cpp:228] Rrelu6 <- Rconv6
I0813 04:28:21.182682  2078 net.cpp:179] Rrelu6 -> Rconv6 (in-place)
I0813 04:28:21.182687  2078 net.cpp:84] Top shape: 12 256 27 27 (2239488)
I0813 04:28:21.182689  2078 net.cpp:111] Rrelu6 needs backward computation.
I0813 04:28:21.182694  2078 net.cpp:65] Creating Layer Rconv7
I0813 04:28:21.182698  2078 net.cpp:228] Rconv7 <- Rconv6
I0813 04:28:21.182703  2078 net.cpp:189] Rconv7 -> Rconv7
I0813 04:28:21.183389  2078 net.cpp:84] Top shape: 12 256 27 27 (2239488)
I0813 04:28:21.183394  2078 net.cpp:111] Rconv7 needs backward computation.
I0813 04:28:21.183398  2078 net.cpp:65] Creating Layer Rrelu7
I0813 04:28:21.183420  2078 net.cpp:228] Rrelu7 <- Rconv7
I0813 04:28:21.183425  2078 net.cpp:179] Rrelu7 -> Rconv7 (in-place)
I0813 04:28:21.183430  2078 net.cpp:84] Top shape: 12 256 27 27 (2239488)
I0813 04:28:21.183434  2078 net.cpp:111] Rrelu7 needs backward computation.
I0813 04:28:21.183437  2078 net.cpp:65] Creating Layer Rconv8
I0813 04:28:21.183439  2078 net.cpp:228] Rconv8 <- Rconv7
I0813 04:28:21.183444  2078 net.cpp:189] Rconv8 -> Rconv8
I0813 04:28:21.184232  2078 net.cpp:84] Top shape: 12 256 27 27 (2239488)
I0813 04:28:21.184237  2078 net.cpp:111] Rconv8 needs backward computation.
I0813 04:28:21.184242  2078 net.cpp:65] Creating Layer Rrelu8
I0813 04:28:21.184245  2078 net.cpp:228] Rrelu8 <- Rconv8
I0813 04:28:21.184249  2078 net.cpp:179] Rrelu8 -> Rconv8 (in-place)
I0813 04:28:21.184253  2078 net.cpp:84] Top shape: 12 256 27 27 (2239488)
I0813 04:28:21.184257  2078 net.cpp:111] Rrelu8 needs backward computation.
I0813 04:28:21.184260  2078 net.cpp:65] Creating Layer deconv2
I0813 04:28:21.184263  2078 net.cpp:228] deconv2 <- Rconv8
I0813 04:28:21.184267  2078 net.cpp:189] deconv2 -> deconv2
I0813 04:28:21.185283  2078 net.cpp:84] Top shape: 12 64 54 54 (2239488)
I0813 04:28:21.185287  2078 net.cpp:111] deconv2 needs backward computation.
I0813 04:28:21.185292  2078 net.cpp:65] Creating Layer relu_deconv2
I0813 04:28:21.185295  2078 net.cpp:228] relu_deconv2 <- deconv2
I0813 04:28:21.185299  2078 net.cpp:179] relu_deconv2 -> deconv2 (in-place)
I0813 04:28:21.185303  2078 net.cpp:84] Top shape: 12 64 54 54 (2239488)
I0813 04:28:21.185307  2078 net.cpp:111] relu_deconv2 needs backward computation.
I0813 04:28:21.185310  2078 net.cpp:65] Creating Layer deconv1
I0813 04:28:21.185313  2078 net.cpp:228] deconv1 <- deconv2
I0813 04:28:21.185317  2078 net.cpp:189] deconv1 -> deconv1
I0813 04:28:21.185461  2078 net.cpp:84] Top shape: 12 32 108 108 (4478976)
I0813 04:28:21.185466  2078 net.cpp:111] deconv1 needs backward computation.
I0813 04:28:21.185469  2078 net.cpp:65] Creating Layer relu_deconv1
I0813 04:28:21.185472  2078 net.cpp:228] relu_deconv1 <- deconv1
I0813 04:28:21.185477  2078 net.cpp:179] relu_deconv1 -> deconv1 (in-place)
I0813 04:28:21.185482  2078 net.cpp:84] Top shape: 12 32 108 108 (4478976)
I0813 04:28:21.185483  2078 net.cpp:111] relu_deconv1 needs backward computation.
I0813 04:28:21.185488  2078 net.cpp:65] Creating Layer deconv0
I0813 04:28:21.185492  2078 net.cpp:228] deconv0 <- deconv1
I0813 04:28:21.185495  2078 net.cpp:189] deconv0 -> deconv0
I0813 04:28:21.185538  2078 net.cpp:84] Top shape: 12 3 216 216 (1679616)
I0813 04:28:21.185541  2078 net.cpp:111] deconv0 needs backward computation.
I0813 04:28:21.185544  2078 net.cpp:65] Creating Layer loss
I0813 04:28:21.185547  2078 net.cpp:228] loss <- deconv0
I0813 04:28:21.185551  2078 net.cpp:228] loss <- target_ims
I0813 04:28:21.185559  2078 net.cpp:111] loss needs backward computation.
I0813 04:28:21.185575  2078 net.cpp:238] Collecting Learning Rate and Weight Decay.
…
    source: "/scr/r6/tgebru/inverting_conv/caffe_invert_alexnet/data/siggraph/tiny_winter_val_lmdb"
    mean_file: "/scr/r6/tgebru/timnit_caffe/data/ilsvrc12/imagenet_mean.binaryproto"
    batch_size: 2
    crop_size: 227
    mirror: false
    backend: LMDB
  }
}
layers {
  top: "target_ims"
  name: "target_ims"
  type: DATA
  data_param {
    source: "/scr/r6/tgebru/inverting_conv/caffe_invert_alexnet/data/siggraph/tiny_summer_val_lmdb"
    mean_file: "/scr/r6/tgebru/timnit_caffe/data/ilsvrc12/imagenet_mean.binaryproto"
    batch_size: 2
    crop_size: 216
    mirror: false
    backend: LMDB
  }
}
layers {
  bottom: "source_ims"
  top: "conv1"
  name: "conv1"
  type: CONVOLUTION
  blobs_lr: 0
  blobs_lr: 0
  weight_decay: 1
  weight_decay: 0
  convolution_param {
    num_output: 96
    kernel_size: 11
    stride: 4
    weight_filler {
      type: "gaussian"
      std: 0.01
    }
    bias_filler {
      type: "constant"
      value: 0
    }
  }
}
layers {
  bottom: "conv1"
  top: "conv1"
  name: "relu1"
  type: RELU
}
layers {
  bottom: "conv1"
  top: "pool1"
  name: "pool1"
  type: POOLING
  pooling_param {
    pool: MAX
    kernel_size: 3
    stride: 2
  }
}
layers {
  bottom: "pool1"
  top: "norm1"
  name: "norm1"
  type: LRN
  lrn_param {
    local_size: 5
    alpha: 0.0001
    beta: 0.75
  }
}
layers {
  bottom: "norm1"
  top: "Rconv6"
  name: "Rconv6"
  type: CONVOLUTION
  blobs_lr: 0
  blobs_lr: 0
  weight_decay: 1
  weight_decay: 0
  convolution_param {
    num_output: 256
    pad: 1
    kernel_size: 3
  }
}
layers {
  bottom: "Rconv6"
  top: "Rconv6"
  name: "Rrelu6"
  type: RELU
}
layers {
  bottom: "Rconv6"
  top: "Rconv7"
  name: "Rconv7"
  type: CONVOLUTION
  blobs_lr: 0
  blobs_lr: 0
  weight_decay: 1
  weight_decay: 0
  convolution_param {
    num_output: 256
    pad: 1
    kernel_size: 3
    group: 2
  }
}
layers {
  bottom: "Rconv7"
  top: "Rconv7"
  name: "Rrelu7"
  type: RELU
}
layers {
  bottom: "Rconv7"
  top: "Rconv8"
  name: "Rconv8"
  type: CONVOLUTION
  blobs_lr: 0
  blobs_lr: 0
  weight_decay: 1
  weight_decay: 0
  convolution_param {
    num_output: 256
    pad: 1
    kernel_size: 3
    group: 2
  }
}
layers {
  bottom: "Rconv8"
  top: "Rconv8"
  name: "Rrelu8"
  type: RELU
}
layers {
  bottom: "Rconv8"
  top: "deconv2"
  name: "deconv2"
  type: DECONVOLUTION
  blobs_lr: 0
  blobs_lr: 0
  weight_decay: 1
  weight_decay: 0
  deconvolution_param {
    pad: 2
    kernel_size: 5
    stride: 2
    output_height: 54
    output_width: 54
    output_channels: 64
  }
}
layers {
  bottom: "deconv2"
  top: "deconv2"
  name: "relu_deconv2"
  type: RELU
  relu_param {
    negative_slope: 0.3
  }
}
layers {
  bottom: "deconv2"
  top: "deconv1"
  name: "deconv1"
  type: DECONVOLUTION
  blobs_lr: 0
  blobs_lr: 0
  weight_decay: 1
  weight_decay: 0
  deconvolution_param {
    pad: 2
    kernel_size: 5
    stride: 2
    output_height: 108
    output_width: 108
    output_channels: 32
  }
}
layers {
  bottom: "deconv1"
  top: "deconv1"
  name: "relu_deconv1"
  type: RELU
  relu_param {
    negative_slope: 0.3
  }
}
layers {
  bottom: "deconv1"
  top: "deconv0"
  name: "deconv0"
  type: DECONVOLUTION
  blobs_lr: 0
  blobs_lr: 0
  weight_decay: 1
  weight_decay: 0
  deconvolution_param {
    pad: 2
    kernel_size: 5
    stride: 2
    output_height: 216
    output_width: 216
    output_channels: 3
  }
}
layers {
  bottom: "deconv0"
  bottom: "target_ims"
  name: "loss"
  type: EUCLIDEAN_LOSS
}
I0813 04:28:21.186300  2078 net.cpp:65] Creating Layer source_ims
I0813 04:28:21.186305  2078 net.cpp:189] source_ims -> source_ims
I0813 04:28:21.186377  2078 data_layer.cpp:223] Opening lmdb /scr/r6/tgebru/inverting_conv/caffe_invert_alexnet/data/siggraph/tiny_winter_val_lmdb
I0813 04:28:21.186620  2078 data_layer.cpp:285] output data size: 2,3,227,227
I0813 04:28:21.186627  2078 data_layer.cpp:304] Loading mean file from/scr/r6/tgebru/timnit_caffe/data/ilsvrc12/imagenet_mean.binaryproto
I0813 04:28:21.189337  2078 net.cpp:84] Top shape: 2 3 227 227 (309174)
I0813 04:28:21.189345  2078 net.cpp:116] source_ims does not need backward computation.
I0813 04:28:21.189352  2078 net.cpp:65] Creating Layer target_ims
I0813 04:28:21.189355  2078 net.cpp:189] target_ims -> target_ims
I0813 04:28:21.189424  2078 data_layer.cpp:223] Opening lmdb /scr/r6/tgebru/inverting_conv/caffe_invert_alexnet/data/siggraph/tiny_summer_val_lmdb
I0813 04:28:21.189609  2078 data_layer.cpp:285] output data size: 2,3,216,216
I0813 04:28:21.189612  2078 data_layer.cpp:304] Loading mean file from/scr/r6/tgebru/timnit_caffe/data/ilsvrc12/imagenet_mean.binaryproto
I0813 04:28:21.191814  2078 net.cpp:84] Top shape: 2 3 216 216 (279936)
I0813 04:28:21.191833  2078 net.cpp:116] target_ims does not need backward computation.
I0813 04:28:21.191843  2078 net.cpp:65] Creating Layer conv1
I0813 04:28:21.191845  2078 net.cpp:228] conv1 <- source_ims
I0813 04:28:21.191851  2078 net.cpp:189] conv1 -> conv1
I0813 04:28:21.193092  2078 net.cpp:84] Top shape: 2 96 55 55 (580800)
I0813 04:28:21.193096  2078 net.cpp:116] conv1 does not need backward computation.
I0813 04:28:21.193100  2078 net.cpp:65] Creating Layer relu1
I0813 04:28:21.193104  2078 net.cpp:228] relu1 <- conv1
I0813 04:28:21.193107  2078 net.cpp:179] relu1 -> conv1 (in-place)
I0813 04:28:21.193112  2078 net.cpp:84] Top shape: 2 96 55 55 (580800)
I0813 04:28:21.193115  2078 net.cpp:116] relu1 does not need backward computation.
I0813 04:28:21.193120  2078 net.cpp:65] Creating Layer pool1
I0813 04:28:21.193122  2078 net.cpp:228] pool1 <- conv1
I0813 04:28:21.193126  2078 net.cpp:189] pool1 -> pool1
I0813 04:28:21.193132  2078 net.cpp:84] Top shape: 2 96 27 27 (139968)
I0813 04:28:21.193135  2078 net.cpp:116] pool1 does not need backward computation.
I0813 04:28:21.193140  2078 net.cpp:65] Creating Layer norm1
I0813 04:28:21.193142  2078 net.cpp:228] norm1 <- pool1
I0813 04:28:21.193146  2078 net.cpp:189] norm1 -> norm1
I0813 04:28:21.193152  2078 net.cpp:84] Top shape: 2 96 27 27 (139968)
I0813 04:28:21.193156  2078 net.cpp:116] norm1 does not need backward computation.
I0813 04:28:21.193158  2078 net.cpp:65] Creating Layer Rconv6
I0813 04:28:21.193161  2078 net.cpp:228] Rconv6 <- norm1
I0813 04:28:21.193166  2078 net.cpp:189] Rconv6 -> Rconv6
I0813 04:28:21.193712  2078 net.cpp:84] Top shape: 2 256 27 27 (373248)
I0813 04:28:21.193718  2078 net.cpp:116] Rconv6 does not need backward computation.
I0813 04:28:21.193722  2078 net.cpp:65] Creating Layer Rrelu6
I0813 04:28:21.193727  2078 net.cpp:228] Rrelu6 <- Rconv6
I0813 04:28:21.193730  2078 net.cpp:179] Rrelu6 -> Rconv6 (in-place)
I0813 04:28:21.193735  2078 net.cpp:84] Top shape: 2 256 27 27 (373248)
I0813 04:28:21.193737  2078 net.cpp:116] Rrelu6 does not need backward computation.
I0813 04:28:21.193742  2078 net.cpp:65] Creating Layer Rconv7
I0813 04:28:21.193745  2078 net.cpp:228] Rconv7 <- Rconv6
I0813 04:28:21.193749  2078 net.cpp:189] Rconv7 -> Rconv7
I0813 04:28:21.194458  2078 net.cpp:84] Top shape: 2 256 27 27 (373248)
I0813 04:28:21.194463  2078 net.cpp:116] Rconv7 does not need backward computation.
I0813 04:28:21.194466  2078 net.cpp:65] Creating Layer Rrelu7
I0813 04:28:21.194468  2078 net.cpp:228] Rrelu7 <- Rconv7
I0813 04:28:21.194473  2078 net.cpp:179] Rrelu7 -> Rconv7 (in-place)
I0813 04:28:21.194476  2078 net.cpp:84] Top shape: 2 256 27 27 (373248)
I0813 04:28:21.194479  2078 net.cpp:116] Rrelu7 does not need backward computation.
I0813 04:28:21.194483  2078 net.cpp:65] Creating Layer Rconv8
I0813 04:28:21.194485  2078 net.cpp:228] Rconv8 <- Rconv7
I0813 04:28:21.194489  2078 net.cpp:189] Rconv8 -> Rconv8
I0813 04:28:21.195204  2078 net.cpp:84] Top shape: 2 256 27 27 (373248)
I0813 04:28:21.195209  2078 net.cpp:116] Rconv8 does not need backward computation.
I0813 04:28:21.195212  2078 net.cpp:65] Creating Layer Rrelu8
I0813 04:28:21.195215  2078 net.cpp:228] Rrelu8 <- Rconv8
I0813 04:28:21.195219  2078 net.cpp:179] Rrelu8 -> Rconv8 (in-place)
I0813 04:28:21.195224  2078 net.cpp:84] Top shape: 2 256 27 27 (373248)
I0813 04:28:21.195226  2078 net.cpp:116] Rrelu8 does not need backward computation.
I0813 04:28:21.195230  2078 net.cpp:65] Creating Layer deconv2
I0813 04:28:21.195232  2078 net.cpp:228] deconv2 <- Rconv8
I0813 04:28:21.195236  2078 net.cpp:189] deconv2 -> deconv2
I0813 04:28:21.196223  2078 net.cpp:84] Top shape: 2 64 54 54 (373248)
I0813 04:28:21.196228  2078 net.cpp:116] deconv2 does not need backward computation.
I0813 04:28:21.196233  2078 net.cpp:65] Creating Layer relu_deconv2
I0813 04:28:21.196235  2078 net.cpp:228] relu_deconv2 <- deconv2
I0813 04:28:21.196240  2078 net.cpp:179] relu_deconv2 -> deconv2 (in-place)
I0813 04:28:21.196244  2078 net.cpp:84] Top shape: 2 64 54 54 (373248)
I0813 04:28:21.196247  2078 net.cpp:116] relu_deconv2 does not need backward computation.
I0813 04:28:21.196262  2078 net.cpp:65] Creating Layer deconv1
I0813 04:28:21.196265  2078 net.cpp:228] deconv1 <- deconv2
I0813 04:28:21.196270  2078 net.cpp:189] deconv1 -> deconv1
I0813 04:28:21.196403  2078 net.cpp:84] Top shape: 2 32 108 108 (746496)
I0813 04:28:21.196408  2078 net.cpp:116] deconv1 does not need backward computation.
I0813 04:28:21.196411  2078 net.cpp:65] Creating Layer relu_deconv1
I0813 04:28:21.196414  2078 net.cpp:228] relu_deconv1 <- deconv1
I0813 04:28:21.196419  2078 net.cpp:179] relu_deconv1 -> deconv1 (in-place)
I0813 04:28:21.196423  2078 net.cpp:84] Top shape: 2 32 108 108 (746496)
I0813 04:28:21.196425  2078 net.cpp:116] relu_deconv1 does not need backward computation.
I0813 04:28:21.196430  2078 net.cpp:65] Creating Layer deconv0
I0813 04:28:21.196432  2078 net.cpp:228] deconv0 <- deconv1
I0813 04:28:21.196436  2078 net.cpp:189] deconv0 -> deconv0
I0813 04:28:21.196455  2078 net.cpp:84] Top shape: 2 3 216 216 (279936)
I0813 04:28:21.196457  2078 net.cpp:116] deconv0 does not need backward computation.
I0813 04:28:21.196461  2078 net.cpp:65] Creating Layer loss
I0813 04:28:21.196463  2078 net.cpp:228] loss <- deconv0
I0813 04:28:21.196467  2078 net.cpp:228] loss <- target_ims
I0813 04:28:21.196471  2078 net.cpp:116] loss does not need backward computation.
I0813 04:28:21.196483  2078 net.cpp:238] Collecting Learning Rate and Weight Decay.
…
