…
    source: "/scr/r6/tgebru/inverting_conv/caffe_invert_alexnet/data/siggraph/tiny_summer_train_lmdb"
    mean_file: "/scr/r6/tgebru/timnit_caffe/data/ilsvrc12/imagenet_mean.binaryproto"
    batch_size: 12
    crop_size: 227
    mirror: false
    backend: LMDB
  }
}
layers {
  top: "target_ims"
  name: "target_ims"
  type: DATA
  data_param {
    source: "/scr/r6/tgebru/inverting_conv/caffe_invert_alexnet/data/siggraph/tiny_summer_train_lmdb"
    mean_file: "/scr/r6/tgebru/timnit_caffe/data/ilsvrc12/imagenet_mean.binaryproto"
    batch_size: 12
    crop_size: 216
    mirror: false
    backend: LMDB
  }
}
layers {
  bottom: "source_ims"
  top: "conv1"
  name: "conv1"
  type: CONVOLUTION
  blobs_lr: 0
  blobs_lr: 0
  weight_decay: 1
  weight_decay: 0
  convolution_param {
    num_output: 96
    kernel_size: 11
    stride: 4
    weight_filler {
      type: "gaussian"
      std: 0.01
    }
    bias_filler {
      type: "constant"
      value: 0
    }
  }
}
layers {
  bottom: "conv1"
  top: "conv1"
  name: "relu1"
  type: RELU
}
layers {
  bottom: "conv1"
  top: "pool1"
  name: "pool1"
  type: POOLING
  pooling_param {
    pool: MAX
    kernel_size: 3
    stride: 2
  }
}
layers {
  bottom: "pool1"
  top: "norm1"
  name: "norm1"
  type: LRN
  lrn_param {
    local_size: 5
    alpha: 0.0001
    beta: 0.75
  }
}
layers {
  bottom: "norm1"
  top: "Rconv6"
  name: "Rconv6"
  type: CONVOLUTION
  blobs_lr: 1
  blobs_lr: 2
  weight_decay: 1
  weight_decay: 0
  convolution_param {
    num_output: 256
    pad: 1
    kernel_size: 3
  }
}
layers {
  bottom: "Rconv6"
  top: "Rconv6"
  name: "Rrelu6"
  type: RELU
}
layers {
  bottom: "Rconv6"
  top: "Rconv7"
  name: "Rconv7"
  type: CONVOLUTION
  blobs_lr: 1
  blobs_lr: 2
  weight_decay: 1
  weight_decay: 0
  convolution_param {
    num_output: 256
    pad: 1
    kernel_size: 3
    group: 2
  }
}
layers {
  bottom: "Rconv7"
  top: "Rconv7"
  name: "Rrelu7"
  type: RELU
}
layers {
  bottom: "Rconv7"
  top: "Rconv8"
  name: "Rconv8"
  type: CONVOLUTION
  blobs_lr: 1
  blobs_lr: 2
  weight_decay: 1
  weight_decay: 0
  convolution_param {
    num_output: 256
    pad: 1
    kernel_size: 3
    group: 2
  }
}
layers {
  bottom: "Rconv8"
  top: "Rconv8"
  name: "Rrelu8"
  type: RELU
}
layers {
  bottom: "Rconv8"
  top: "deconv2"
  name: "deconv2"
  type: DECONVOLUTION
  blobs_lr: 1
  blobs_lr: 2
  weight_decay: 1
  weight_decay: 0
  deconvolution_param {
    pad: 2
    kernel_size: 5
    stride: 2
    output_height: 54
    output_width: 54
    output_channels: 64
  }
}
layers {
  bottom: "deconv2"
  top: "deconv2"
  name: "relu_deconv2"
  type: RELU
  relu_param {
    negative_slope: 0.3
  }
}
layers {
  bottom: "deconv2"
  top: "deconv1"
  name: "deconv1"
  type: DECONVOLUTION
  blobs_lr: 1
  blobs_lr: 2
  weight_decay: 1
  weight_decay: 0
  deconvolution_param {
    pad: 2
    kernel_size: 5
    stride: 2
    output_height: 108
    output_width: 108
    output_channels: 32
  }
}
layers {
  bottom: "deconv1"
  top: "deconv1"
  name: "relu_deconv1"
  type: RELU
  relu_param {
    negative_slope: 0.3
  }
}
layers {
  bottom: "deconv1"
  top: "deconv0"
  name: "deconv0"
  type: DECONVOLUTION
  blobs_lr: 1
  blobs_lr: 2
  weight_decay: 1
  weight_decay: 1
  deconvolution_param {
    pad: 2
    kernel_size: 5
    stride: 2
    output_height: 216
    output_width: 216
    output_channels: 3
  }
}
layers {
  bottom: "deconv0"
  bottom: "target_ims"
  name: "loss"
  type: EUCLIDEAN_LOSS
}
I0813 01:46:56.921727 25977 net.cpp:65] Creating Layer source_ims
I0813 01:46:56.921736 25977 net.cpp:189] source_ims -> source_ims
I0813 01:46:56.921855 25977 data_layer.cpp:223] Opening lmdb /scr/r6/tgebru/inverting_conv/caffe_invert_alexnet/data/siggraph/tiny_summer_train_lmdb
I0813 01:46:56.922076 25977 data_layer.cpp:285] output data size: 12,3,227,227
I0813 01:46:56.922083 25977 data_layer.cpp:304] Loading mean file from/scr/r6/tgebru/timnit_caffe/data/ilsvrc12/imagenet_mean.binaryproto
I0813 01:46:56.926950 25977 net.cpp:84] Top shape: 12 3 227 227 (1855044)
I0813 01:46:56.926959 25977 net.cpp:116] source_ims does not need backward computation.
I0813 01:46:56.926965 25977 net.cpp:65] Creating Layer target_ims
I0813 01:46:56.926970 25977 net.cpp:189] target_ims -> target_ims
I0813 01:46:56.927098 25977 data_layer.cpp:223] Opening lmdb /scr/r6/tgebru/inverting_conv/caffe_invert_alexnet/data/siggraph/tiny_summer_train_lmdb
I0813 01:46:56.927234 25977 data_layer.cpp:285] output data size: 12,3,216,216
I0813 01:46:56.927239 25977 data_layer.cpp:304] Loading mean file from/scr/r6/tgebru/timnit_caffe/data/ilsvrc12/imagenet_mean.binaryproto
I0813 01:46:56.931259 25977 net.cpp:84] Top shape: 12 3 216 216 (1679616)
I0813 01:46:56.931267 25977 net.cpp:116] target_ims does not need backward computation.
I0813 01:46:56.931280 25977 net.cpp:65] Creating Layer conv1
I0813 01:46:56.931284 25977 net.cpp:228] conv1 <- source_ims
I0813 01:46:56.931396 25977 net.cpp:189] conv1 -> conv1
I0813 01:46:56.932782 25977 net.cpp:84] Top shape: 12 96 55 55 (3484800)
I0813 01:46:56.932788 25977 net.cpp:116] conv1 does not need backward computation.
I0813 01:46:56.932793 25977 net.cpp:65] Creating Layer relu1
I0813 01:46:56.932797 25977 net.cpp:228] relu1 <- conv1
I0813 01:46:56.932801 25977 net.cpp:179] relu1 -> conv1 (in-place)
I0813 01:46:56.932811 25977 net.cpp:84] Top shape: 12 96 55 55 (3484800)
I0813 01:46:56.932814 25977 net.cpp:116] relu1 does not need backward computation.
I0813 01:46:56.932821 25977 net.cpp:65] Creating Layer pool1
I0813 01:46:56.932822 25977 net.cpp:228] pool1 <- conv1
I0813 01:46:56.932827 25977 net.cpp:189] pool1 -> pool1
I0813 01:46:56.932840 25977 net.cpp:84] Top shape: 12 96 27 27 (839808)
I0813 01:46:56.932843 25977 net.cpp:116] pool1 does not need backward computation.
I0813 01:46:56.932848 25977 net.cpp:65] Creating Layer norm1
I0813 01:46:56.932852 25977 net.cpp:228] norm1 <- pool1
I0813 01:46:56.932857 25977 net.cpp:189] norm1 -> norm1
I0813 01:46:56.932867 25977 net.cpp:84] Top shape: 12 96 27 27 (839808)
I0813 01:46:56.932869 25977 net.cpp:116] norm1 does not need backward computation.
I0813 01:46:56.932873 25977 net.cpp:65] Creating Layer Rconv6
I0813 01:46:56.932876 25977 net.cpp:228] Rconv6 <- norm1
I0813 01:46:56.932881 25977 net.cpp:189] Rconv6 -> Rconv6
I0813 01:46:56.933138 25977 net.cpp:84] Top shape: 12 256 27 27 (2239488)
I0813 01:46:56.933143 25977 net.cpp:111] Rconv6 needs backward computation.
I0813 01:46:56.933147 25977 net.cpp:65] Creating Layer Rrelu6
I0813 01:46:56.933151 25977 net.cpp:228] Rrelu6 <- Rconv6
I0813 01:46:56.933154 25977 net.cpp:179] Rrelu6 -> Rconv6 (in-place)
I0813 01:46:56.933159 25977 net.cpp:84] Top shape: 12 256 27 27 (2239488)
I0813 01:46:56.933162 25977 net.cpp:111] Rrelu6 needs backward computation.
I0813 01:46:56.933167 25977 net.cpp:65] Creating Layer Rconv7
I0813 01:46:56.933171 25977 net.cpp:228] Rconv7 <- Rconv6
I0813 01:46:56.933174 25977 net.cpp:189] Rconv7 -> Rconv7
I0813 01:46:56.933872 25977 net.cpp:84] Top shape: 12 256 27 27 (2239488)
I0813 01:46:56.933877 25977 net.cpp:111] Rconv7 needs backward computation.
I0813 01:46:56.933881 25977 net.cpp:65] Creating Layer Rrelu7
I0813 01:46:56.933884 25977 net.cpp:228] Rrelu7 <- Rconv7
I0813 01:46:56.933907 25977 net.cpp:179] Rrelu7 -> Rconv7 (in-place)
I0813 01:46:56.933912 25977 net.cpp:84] Top shape: 12 256 27 27 (2239488)
I0813 01:46:56.933915 25977 net.cpp:111] Rrelu7 needs backward computation.
I0813 01:46:56.933919 25977 net.cpp:65] Creating Layer Rconv8
I0813 01:46:56.933922 25977 net.cpp:228] Rconv8 <- Rconv7
I0813 01:46:56.933926 25977 net.cpp:189] Rconv8 -> Rconv8
I0813 01:46:56.934664 25977 net.cpp:84] Top shape: 12 256 27 27 (2239488)
I0813 01:46:56.934667 25977 net.cpp:111] Rconv8 needs backward computation.
I0813 01:46:56.934671 25977 net.cpp:65] Creating Layer Rrelu8
I0813 01:46:56.934674 25977 net.cpp:228] Rrelu8 <- Rconv8
I0813 01:46:56.934679 25977 net.cpp:179] Rrelu8 -> Rconv8 (in-place)
I0813 01:46:56.934684 25977 net.cpp:84] Top shape: 12 256 27 27 (2239488)
I0813 01:46:56.934685 25977 net.cpp:111] Rrelu8 needs backward computation.
I0813 01:46:56.934689 25977 net.cpp:65] Creating Layer deconv2
I0813 01:46:56.934692 25977 net.cpp:228] deconv2 <- Rconv8
I0813 01:46:56.934696 25977 net.cpp:189] deconv2 -> deconv2
I0813 01:46:56.935776 25977 net.cpp:84] Top shape: 12 64 54 54 (2239488)
I0813 01:46:56.935781 25977 net.cpp:111] deconv2 needs backward computation.
I0813 01:46:56.935786 25977 net.cpp:65] Creating Layer relu_deconv2
I0813 01:46:56.935788 25977 net.cpp:228] relu_deconv2 <- deconv2
I0813 01:46:56.935792 25977 net.cpp:179] relu_deconv2 -> deconv2 (in-place)
I0813 01:46:56.935797 25977 net.cpp:84] Top shape: 12 64 54 54 (2239488)
I0813 01:46:56.935799 25977 net.cpp:111] relu_deconv2 needs backward computation.
I0813 01:46:56.935803 25977 net.cpp:65] Creating Layer deconv1
I0813 01:46:56.935806 25977 net.cpp:228] deconv1 <- deconv2
I0813 01:46:56.935811 25977 net.cpp:189] deconv1 -> deconv1
I0813 01:46:56.935951 25977 net.cpp:84] Top shape: 12 32 108 108 (4478976)
I0813 01:46:56.935956 25977 net.cpp:111] deconv1 needs backward computation.
I0813 01:46:56.935959 25977 net.cpp:65] Creating Layer relu_deconv1
I0813 01:46:56.935962 25977 net.cpp:228] relu_deconv1 <- deconv1
I0813 01:46:56.935966 25977 net.cpp:179] relu_deconv1 -> deconv1 (in-place)
I0813 01:46:56.935971 25977 net.cpp:84] Top shape: 12 32 108 108 (4478976)
I0813 01:46:56.935973 25977 net.cpp:111] relu_deconv1 needs backward computation.
I0813 01:46:56.935978 25977 net.cpp:65] Creating Layer deconv0
I0813 01:46:56.935981 25977 net.cpp:228] deconv0 <- deconv1
I0813 01:46:56.935986 25977 net.cpp:189] deconv0 -> deconv0
I0813 01:46:56.936034 25977 net.cpp:84] Top shape: 12 3 216 216 (1679616)
I0813 01:46:56.936038 25977 net.cpp:111] deconv0 needs backward computation.
I0813 01:46:56.936043 25977 net.cpp:65] Creating Layer loss
I0813 01:46:56.936045 25977 net.cpp:228] loss <- deconv0
I0813 01:46:56.936048 25977 net.cpp:228] loss <- target_ims
I0813 01:46:56.936058 25977 net.cpp:111] loss needs backward computation.
I0813 01:46:56.936074 25977 net.cpp:238] Collecting Learning Rate and Weight Decay.
…
    source: "/scr/r6/tgebru/inverting_conv/caffe_invert_alexnet/data/siggraph/tiny_summer_val_lmdb"
    mean_file: "/scr/r6/tgebru/timnit_caffe/data/ilsvrc12/imagenet_mean.binaryproto"
    batch_size: 2
    crop_size: 227
    mirror: false
    backend: LMDB
  }
}
layers {
  top: "target_ims"
  name: "target_ims"
  type: DATA
  data_param {
    source: "/scr/r6/tgebru/inverting_conv/caffe_invert_alexnet/data/siggraph/tiny_summer_val_lmdb"
    mean_file: "/scr/r6/tgebru/timnit_caffe/data/ilsvrc12/imagenet_mean.binaryproto"
    batch_size: 2
    crop_size: 216
    mirror: false
    backend: LMDB
  }
}
layers {
  bottom: "source_ims"
  top: "conv1"
  name: "conv1"
  type: CONVOLUTION
  blobs_lr: 0
  blobs_lr: 0
  weight_decay: 1
  weight_decay: 0
  convolution_param {
    num_output: 96
    kernel_size: 11
    stride: 4
    weight_filler {
      type: "gaussian"
      std: 0.01
    }
    bias_filler {
      type: "constant"
      value: 0
    }
  }
}
layers {
  bottom: "conv1"
  top: "conv1"
  name: "relu1"
  type: RELU
}
layers {
  bottom: "conv1"
  top: "pool1"
  name: "pool1"
  type: POOLING
  pooling_param {
    pool: MAX
    kernel_size: 3
    stride: 2
  }
}
layers {
  bottom: "pool1"
  top: "norm1"
  name: "norm1"
  type: LRN
  lrn_param {
    local_size: 5
    alpha: 0.0001
    beta: 0.75
  }
}
layers {
  bottom: "norm1"
  top: "Rconv6"
  name: "Rconv6"
  type: CONVOLUTION
  blobs_lr: 0
  blobs_lr: 0
  weight_decay: 1
  weight_decay: 0
  convolution_param {
    num_output: 256
    pad: 1
    kernel_size: 3
  }
}
layers {
  bottom: "Rconv6"
  top: "Rconv6"
  name: "Rrelu6"
  type: RELU
}
layers {
  bottom: "Rconv6"
  top: "Rconv7"
  name: "Rconv7"
  type: CONVOLUTION
  blobs_lr: 0
  blobs_lr: 0
  weight_decay: 1
  weight_decay: 0
  convolution_param {
    num_output: 256
    pad: 1
    kernel_size: 3
    group: 2
  }
}
layers {
  bottom: "Rconv7"
  top: "Rconv7"
  name: "Rrelu7"
  type: RELU
}
layers {
  bottom: "Rconv7"
  top: "Rconv8"
  name: "Rconv8"
  type: CONVOLUTION
  blobs_lr: 0
  blobs_lr: 0
  weight_decay: 1
  weight_decay: 0
  convolution_param {
    num_output: 256
    pad: 1
    kernel_size: 3
    group: 2
  }
}
layers {
  bottom: "Rconv8"
  top: "Rconv8"
  name: "Rrelu8"
  type: RELU
}
layers {
  bottom: "Rconv8"
  top: "deconv2"
  name: "deconv2"
  type: DECONVOLUTION
  blobs_lr: 0
  blobs_lr: 0
  weight_decay: 1
  weight_decay: 0
  deconvolution_param {
    pad: 2
    kernel_size: 5
    stride: 2
    output_height: 54
    output_width: 54
    output_channels: 64
  }
}
layers {
  bottom: "deconv2"
  top: "deconv2"
  name: "relu_deconv2"
  type: RELU
  relu_param {
    negative_slope: 0.3
  }
}
layers {
  bottom: "deconv2"
  top: "deconv1"
  name: "deconv1"
  type: DECONVOLUTION
  blobs_lr: 0
  blobs_lr: 0
  weight_decay: 1
  weight_decay: 0
  deconvolution_param {
    pad: 2
    kernel_size: 5
    stride: 2
    output_height: 108
    output_width: 108
    output_channels: 32
  }
}
layers {
  bottom: "deconv1"
  top: "deconv1"
  name: "relu_deconv1"
  type: RELU
  relu_param {
    negative_slope: 0.3
  }
}
layers {
  bottom: "deconv1"
  top: "deconv0"
  name: "deconv0"
  type: DECONVOLUTION
  blobs_lr: 0
  blobs_lr: 0
  weight_decay: 1
  weight_decay: 0
  deconvolution_param {
    pad: 2
    kernel_size: 5
    stride: 2
    output_height: 216
    output_width: 216
    output_channels: 3
  }
}
layers {
  bottom: "deconv0"
  bottom: "target_ims"
  name: "loss"
  type: EUCLIDEAN_LOSS
}
I0813 01:46:56.936791 25977 net.cpp:65] Creating Layer source_ims
I0813 01:46:56.936796 25977 net.cpp:189] source_ims -> source_ims
I0813 01:46:56.936851 25977 data_layer.cpp:223] Opening lmdb /scr/r6/tgebru/inverting_conv/caffe_invert_alexnet/data/siggraph/tiny_summer_val_lmdb
I0813 01:46:56.937026 25977 data_layer.cpp:285] output data size: 2,3,227,227
I0813 01:46:56.937031 25977 data_layer.cpp:304] Loading mean file from/scr/r6/tgebru/timnit_caffe/data/ilsvrc12/imagenet_mean.binaryproto
I0813 01:46:56.939769 25977 net.cpp:84] Top shape: 2 3 227 227 (309174)
I0813 01:46:56.939776 25977 net.cpp:116] source_ims does not need backward computation.
I0813 01:46:56.939784 25977 net.cpp:65] Creating Layer target_ims
I0813 01:46:56.939787 25977 net.cpp:189] target_ims -> target_ims
I0813 01:46:56.939836 25977 data_layer.cpp:223] Opening lmdb /scr/r6/tgebru/inverting_conv/caffe_invert_alexnet/data/siggraph/tiny_summer_val_lmdb
I0813 01:46:56.939995 25977 data_layer.cpp:285] output data size: 2,3,216,216
I0813 01:46:56.939997 25977 data_layer.cpp:304] Loading mean file from/scr/r6/tgebru/timnit_caffe/data/ilsvrc12/imagenet_mean.binaryproto
I0813 01:46:56.942208 25977 net.cpp:84] Top shape: 2 3 216 216 (279936)
I0813 01:46:56.942214 25977 net.cpp:116] target_ims does not need backward computation.
I0813 01:46:56.942235 25977 net.cpp:65] Creating Layer conv1
I0813 01:46:56.942239 25977 net.cpp:228] conv1 <- source_ims
I0813 01:46:56.942245 25977 net.cpp:189] conv1 -> conv1
I0813 01:46:56.943486 25977 net.cpp:84] Top shape: 2 96 55 55 (580800)
I0813 01:46:56.943491 25977 net.cpp:116] conv1 does not need backward computation.
I0813 01:46:56.943495 25977 net.cpp:65] Creating Layer relu1
I0813 01:46:56.943498 25977 net.cpp:228] relu1 <- conv1
I0813 01:46:56.943502 25977 net.cpp:179] relu1 -> conv1 (in-place)
I0813 01:46:56.943507 25977 net.cpp:84] Top shape: 2 96 55 55 (580800)
I0813 01:46:56.943511 25977 net.cpp:116] relu1 does not need backward computation.
I0813 01:46:56.943514 25977 net.cpp:65] Creating Layer pool1
I0813 01:46:56.943517 25977 net.cpp:228] pool1 <- conv1
I0813 01:46:56.943521 25977 net.cpp:189] pool1 -> pool1
I0813 01:46:56.943527 25977 net.cpp:84] Top shape: 2 96 27 27 (139968)
I0813 01:46:56.943531 25977 net.cpp:116] pool1 does not need backward computation.
I0813 01:46:56.943534 25977 net.cpp:65] Creating Layer norm1
I0813 01:46:56.943537 25977 net.cpp:228] norm1 <- pool1
I0813 01:46:56.943541 25977 net.cpp:189] norm1 -> norm1
I0813 01:46:56.943547 25977 net.cpp:84] Top shape: 2 96 27 27 (139968)
I0813 01:46:56.943549 25977 net.cpp:116] norm1 does not need backward computation.
I0813 01:46:56.943553 25977 net.cpp:65] Creating Layer Rconv6
I0813 01:46:56.943557 25977 net.cpp:228] Rconv6 <- norm1
I0813 01:46:56.943560 25977 net.cpp:189] Rconv6 -> Rconv6
I0813 01:46:56.944104 25977 net.cpp:84] Top shape: 2 256 27 27 (373248)
I0813 01:46:56.944109 25977 net.cpp:116] Rconv6 does not need backward computation.
I0813 01:46:56.944113 25977 net.cpp:65] Creating Layer Rrelu6
I0813 01:46:56.944116 25977 net.cpp:228] Rrelu6 <- Rconv6
I0813 01:46:56.944120 25977 net.cpp:179] Rrelu6 -> Rconv6 (in-place)
I0813 01:46:56.944125 25977 net.cpp:84] Top shape: 2 256 27 27 (373248)
I0813 01:46:56.944128 25977 net.cpp:116] Rrelu6 does not need backward computation.
I0813 01:46:56.944133 25977 net.cpp:65] Creating Layer Rconv7
I0813 01:46:56.944135 25977 net.cpp:228] Rconv7 <- Rconv6
I0813 01:46:56.944139 25977 net.cpp:189] Rconv7 -> Rconv7
I0813 01:46:56.944900 25977 net.cpp:84] Top shape: 2 256 27 27 (373248)
I0813 01:46:56.944905 25977 net.cpp:116] Rconv7 does not need backward computation.
I0813 01:46:56.944908 25977 net.cpp:65] Creating Layer Rrelu7
I0813 01:46:56.944911 25977 net.cpp:228] Rrelu7 <- Rconv7
I0813 01:46:56.944914 25977 net.cpp:179] Rrelu7 -> Rconv7 (in-place)
I0813 01:46:56.944919 25977 net.cpp:84] Top shape: 2 256 27 27 (373248)
I0813 01:46:56.944921 25977 net.cpp:116] Rrelu7 does not need backward computation.
I0813 01:46:56.944926 25977 net.cpp:65] Creating Layer Rconv8
I0813 01:46:56.944927 25977 net.cpp:228] Rconv8 <- Rconv7
I0813 01:46:56.944931 25977 net.cpp:189] Rconv8 -> Rconv8
I0813 01:46:56.945693 25977 net.cpp:84] Top shape: 2 256 27 27 (373248)
I0813 01:46:56.945698 25977 net.cpp:116] Rconv8 does not need backward computation.
I0813 01:46:56.945701 25977 net.cpp:65] Creating Layer Rrelu8
I0813 01:46:56.945703 25977 net.cpp:228] Rrelu8 <- Rconv8
I0813 01:46:56.945708 25977 net.cpp:179] Rrelu8 -> Rconv8 (in-place)
I0813 01:46:56.945711 25977 net.cpp:84] Top shape: 2 256 27 27 (373248)
I0813 01:46:56.945714 25977 net.cpp:116] Rrelu8 does not need backward computation.
I0813 01:46:56.945719 25977 net.cpp:65] Creating Layer deconv2
I0813 01:46:56.945721 25977 net.cpp:228] deconv2 <- Rconv8
I0813 01:46:56.945724 25977 net.cpp:189] deconv2 -> deconv2
I0813 01:46:56.946712 25977 net.cpp:84] Top shape: 2 64 54 54 (373248)
I0813 01:46:56.946715 25977 net.cpp:116] deconv2 does not need backward computation.
I0813 01:46:56.946719 25977 net.cpp:65] Creating Layer relu_deconv2
I0813 01:46:56.946723 25977 net.cpp:228] relu_deconv2 <- deconv2
I0813 01:46:56.946727 25977 net.cpp:179] relu_deconv2 -> deconv2 (in-place)
I0813 01:46:56.946732 25977 net.cpp:84] Top shape: 2 64 54 54 (373248)
I0813 01:46:56.946734 25977 net.cpp:116] relu_deconv2 does not need backward computation.
I0813 01:46:56.946750 25977 net.cpp:65] Creating Layer deconv1
I0813 01:46:56.946753 25977 net.cpp:228] deconv1 <- deconv2
I0813 01:46:56.946758 25977 net.cpp:189] deconv1 -> deconv1
I0813 01:46:56.946894 25977 net.cpp:84] Top shape: 2 32 108 108 (746496)
I0813 01:46:56.946898 25977 net.cpp:116] deconv1 does not need backward computation.
I0813 01:46:56.946902 25977 net.cpp:65] Creating Layer relu_deconv1
I0813 01:46:56.946905 25977 net.cpp:228] relu_deconv1 <- deconv1
I0813 01:46:56.946908 25977 net.cpp:179] relu_deconv1 -> deconv1 (in-place)
I0813 01:46:56.946913 25977 net.cpp:84] Top shape: 2 32 108 108 (746496)
I0813 01:46:56.946916 25977 net.cpp:116] relu_deconv1 does not need backward computation.
I0813 01:46:56.946921 25977 net.cpp:65] Creating Layer deconv0
I0813 01:46:56.946923 25977 net.cpp:228] deconv0 <- deconv1
I0813 01:46:56.946928 25977 net.cpp:189] deconv0 -> deconv0
I0813 01:46:56.946945 25977 net.cpp:84] Top shape: 2 3 216 216 (279936)
I0813 01:46:56.946949 25977 net.cpp:116] deconv0 does not need backward computation.
I0813 01:46:56.946952 25977 net.cpp:65] Creating Layer loss
I0813 01:46:56.946954 25977 net.cpp:228] loss <- deconv0
I0813 01:46:56.946959 25977 net.cpp:228] loss <- target_ims
I0813 01:46:56.946962 25977 net.cpp:116] loss does not need backward computation.
I0813 01:46:56.946979 25977 net.cpp:238] Collecting Learning Rate and Weight Decay.
…
