…
    source: "/scr/r6/tgebru/inverting_conv/caffe_invert_alexnet/data/siggraph/tiny_summer_train_lmdb"
    mean_file: "/scr/r6/tgebru/timnit_caffe/data/ilsvrc12/imagenet_mean.binaryproto"
    batch_size: 12
    crop_size: 227
    mirror: false
    backend: LMDB
  }
}
layers {
  top: "target_ims"
  name: "target_ims"
  type: DATA
  data_param {
    source: "/scr/r6/tgebru/inverting_conv/caffe_invert_alexnet/data/siggraph/tiny_summer_train_lmdb"
    mean_file: "/scr/r6/tgebru/timnit_caffe/data/ilsvrc12/imagenet_mean.binaryproto"
    batch_size: 12
    crop_size: 216
    mirror: false
    backend: LMDB
  }
}
layers {
  bottom: "source_ims"
  top: "conv1"
  name: "conv1"
  type: CONVOLUTION
  blobs_lr: 0
  blobs_lr: 0
  weight_decay: 1
  weight_decay: 0
  convolution_param {
    num_output: 96
    kernel_size: 11
    stride: 4
    weight_filler {
      type: "gaussian"
      std: 0.01
    }
    bias_filler {
      type: "constant"
      value: 0
    }
  }
}
layers {
  bottom: "conv1"
  top: "conv1"
  name: "relu1"
  type: RELU
}
layers {
  bottom: "conv1"
  top: "pool1"
  name: "pool1"
  type: POOLING
  pooling_param {
    pool: MAX
    kernel_size: 3
    stride: 2
  }
}
layers {
  bottom: "pool1"
  top: "norm1"
  name: "norm1"
  type: LRN
  lrn_param {
    local_size: 5
    alpha: 0.0001
    beta: 0.75
  }
}
layers {
  bottom: "norm1"
  top: "Rconv6"
  name: "Rconv6"
  type: CONVOLUTION
  blobs_lr: 1
  blobs_lr: 2
  weight_decay: 1
  weight_decay: 0
  convolution_param {
    num_output: 256
    pad: 1
    kernel_size: 3
  }
}
layers {
  bottom: "Rconv6"
  top: "Rconv6"
  name: "Rrelu6"
  type: RELU
}
layers {
  bottom: "Rconv6"
  top: "Rconv7"
  name: "Rconv7"
  type: CONVOLUTION
  blobs_lr: 1
  blobs_lr: 2
  weight_decay: 1
  weight_decay: 0
  convolution_param {
    num_output: 256
    pad: 1
    kernel_size: 3
    group: 2
  }
}
layers {
  bottom: "Rconv7"
  top: "Rconv7"
  name: "Rrelu7"
  type: RELU
}
layers {
  bottom: "Rconv7"
  top: "Rconv8"
  name: "Rconv8"
  type: CONVOLUTION
  blobs_lr: 1
  blobs_lr: 2
  weight_decay: 1
  weight_decay: 0
  convolution_param {
    num_output: 256
    pad: 1
    kernel_size: 3
    group: 2
  }
}
layers {
  bottom: "Rconv8"
  top: "Rconv8"
  name: "Rrelu8"
  type: RELU
}
layers {
  bottom: "Rconv8"
  top: "deconv2"
  name: "deconv2"
  type: DECONVOLUTION
  blobs_lr: 1
  blobs_lr: 2
  weight_decay: 1
  weight_decay: 0
  deconvolution_param {
    pad: 2
    kernel_size: 5
    stride: 2
    output_height: 54
    output_width: 54
    output_channels: 64
  }
}
layers {
  bottom: "deconv2"
  top: "deconv2"
  name: "relu_deconv2"
  type: RELU
  relu_param {
    negative_slope: 0.3
  }
}
layers {
  bottom: "deconv2"
  top: "deconv1"
  name: "deconv1"
  type: DECONVOLUTION
  blobs_lr: 1
  blobs_lr: 2
  weight_decay: 1
  weight_decay: 0
  deconvolution_param {
    pad: 2
    kernel_size: 5
    stride: 2
    output_height: 108
    output_width: 108
    output_channels: 32
  }
}
layers {
  bottom: "deconv1"
  top: "deconv1"
  name: "relu_deconv1"
  type: RELU
  relu_param {
    negative_slope: 0.3
  }
}
layers {
  bottom: "deconv1"
  top: "deconv0"
  name: "deconv0"
  type: DECONVOLUTION
  blobs_lr: 1
  blobs_lr: 2
  weight_decay: 1
  weight_decay: 1
  deconvolution_param {
    pad: 2
    kernel_size: 5
    stride: 2
    output_height: 216
    output_width: 216
    output_channels: 3
  }
}
layers {
  bottom: "deconv0"
  bottom: "target_ims"
  name: "loss"
  type: EUCLIDEAN_LOSS
}
I0813 02:30:56.164762 25392 net.cpp:65] Creating Layer source_ims
I0813 02:30:56.164770 25392 net.cpp:189] source_ims -> source_ims
I0813 02:30:56.164891 25392 data_layer.cpp:223] Opening lmdb /scr/r6/tgebru/inverting_conv/caffe_invert_alexnet/data/siggraph/tiny_summer_train_lmdb
I0813 02:30:56.165114 25392 data_layer.cpp:285] output data size: 12,3,227,227
I0813 02:30:56.165122 25392 data_layer.cpp:304] Loading mean file from/scr/r6/tgebru/timnit_caffe/data/ilsvrc12/imagenet_mean.binaryproto
I0813 02:30:56.169656 25392 net.cpp:84] Top shape: 12 3 227 227 (1855044)
I0813 02:30:56.169664 25392 net.cpp:116] source_ims does not need backward computation.
I0813 02:30:56.169672 25392 net.cpp:65] Creating Layer target_ims
I0813 02:30:56.169677 25392 net.cpp:189] target_ims -> target_ims
I0813 02:30:56.169827 25392 data_layer.cpp:223] Opening lmdb /scr/r6/tgebru/inverting_conv/caffe_invert_alexnet/data/siggraph/tiny_summer_train_lmdb
I0813 02:30:56.169962 25392 data_layer.cpp:285] output data size: 12,3,216,216
I0813 02:30:56.169967 25392 data_layer.cpp:304] Loading mean file from/scr/r6/tgebru/timnit_caffe/data/ilsvrc12/imagenet_mean.binaryproto
I0813 02:30:56.174460 25392 net.cpp:84] Top shape: 12 3 216 216 (1679616)
I0813 02:30:56.174468 25392 net.cpp:116] target_ims does not need backward computation.
I0813 02:30:56.174479 25392 net.cpp:65] Creating Layer conv1
I0813 02:30:56.174484 25392 net.cpp:228] conv1 <- source_ims
I0813 02:30:56.174579 25392 net.cpp:189] conv1 -> conv1
I0813 02:30:56.175952 25392 net.cpp:84] Top shape: 12 96 55 55 (3484800)
I0813 02:30:56.175959 25392 net.cpp:116] conv1 does not need backward computation.
I0813 02:30:56.175964 25392 net.cpp:65] Creating Layer relu1
I0813 02:30:56.175968 25392 net.cpp:228] relu1 <- conv1
I0813 02:30:56.175973 25392 net.cpp:179] relu1 -> conv1 (in-place)
I0813 02:30:56.175982 25392 net.cpp:84] Top shape: 12 96 55 55 (3484800)
I0813 02:30:56.175986 25392 net.cpp:116] relu1 does not need backward computation.
I0813 02:30:56.175992 25392 net.cpp:65] Creating Layer pool1
I0813 02:30:56.175994 25392 net.cpp:228] pool1 <- conv1
I0813 02:30:56.175998 25392 net.cpp:189] pool1 -> pool1
I0813 02:30:56.176012 25392 net.cpp:84] Top shape: 12 96 27 27 (839808)
I0813 02:30:56.176014 25392 net.cpp:116] pool1 does not need backward computation.
I0813 02:30:56.176019 25392 net.cpp:65] Creating Layer norm1
I0813 02:30:56.176022 25392 net.cpp:228] norm1 <- pool1
I0813 02:30:56.176025 25392 net.cpp:189] norm1 -> norm1
I0813 02:30:56.176035 25392 net.cpp:84] Top shape: 12 96 27 27 (839808)
I0813 02:30:56.176038 25392 net.cpp:116] norm1 does not need backward computation.
I0813 02:30:56.176043 25392 net.cpp:65] Creating Layer Rconv6
I0813 02:30:56.176045 25392 net.cpp:228] Rconv6 <- norm1
I0813 02:30:56.176049 25392 net.cpp:189] Rconv6 -> Rconv6
I0813 02:30:56.176322 25392 net.cpp:84] Top shape: 12 256 27 27 (2239488)
I0813 02:30:56.176326 25392 net.cpp:111] Rconv6 needs backward computation.
I0813 02:30:56.176331 25392 net.cpp:65] Creating Layer Rrelu6
I0813 02:30:56.176334 25392 net.cpp:228] Rrelu6 <- Rconv6
I0813 02:30:56.176338 25392 net.cpp:179] Rrelu6 -> Rconv6 (in-place)
I0813 02:30:56.176342 25392 net.cpp:84] Top shape: 12 256 27 27 (2239488)
I0813 02:30:56.176345 25392 net.cpp:111] Rrelu6 needs backward computation.
I0813 02:30:56.176350 25392 net.cpp:65] Creating Layer Rconv7
I0813 02:30:56.176353 25392 net.cpp:228] Rconv7 <- Rconv6
I0813 02:30:56.176357 25392 net.cpp:189] Rconv7 -> Rconv7
I0813 02:30:56.177127 25392 net.cpp:84] Top shape: 12 256 27 27 (2239488)
I0813 02:30:56.177132 25392 net.cpp:111] Rconv7 needs backward computation.
I0813 02:30:56.177136 25392 net.cpp:65] Creating Layer Rrelu7
I0813 02:30:56.177139 25392 net.cpp:228] Rrelu7 <- Rconv7
I0813 02:30:56.177171 25392 net.cpp:179] Rrelu7 -> Rconv7 (in-place)
I0813 02:30:56.177177 25392 net.cpp:84] Top shape: 12 256 27 27 (2239488)
I0813 02:30:56.177181 25392 net.cpp:111] Rrelu7 needs backward computation.
I0813 02:30:56.177183 25392 net.cpp:65] Creating Layer Rconv8
I0813 02:30:56.177186 25392 net.cpp:228] Rconv8 <- Rconv7
I0813 02:30:56.177191 25392 net.cpp:189] Rconv8 -> Rconv8
I0813 02:30:56.177980 25392 net.cpp:84] Top shape: 12 256 27 27 (2239488)
I0813 02:30:56.177985 25392 net.cpp:111] Rconv8 needs backward computation.
I0813 02:30:56.177989 25392 net.cpp:65] Creating Layer Rrelu8
I0813 02:30:56.177992 25392 net.cpp:228] Rrelu8 <- Rconv8
I0813 02:30:56.177996 25392 net.cpp:179] Rrelu8 -> Rconv8 (in-place)
I0813 02:30:56.178000 25392 net.cpp:84] Top shape: 12 256 27 27 (2239488)
I0813 02:30:56.178004 25392 net.cpp:111] Rrelu8 needs backward computation.
I0813 02:30:56.178007 25392 net.cpp:65] Creating Layer deconv2
I0813 02:30:56.178010 25392 net.cpp:228] deconv2 <- Rconv8
I0813 02:30:56.178014 25392 net.cpp:189] deconv2 -> deconv2
I0813 02:30:56.179036 25392 net.cpp:84] Top shape: 12 64 54 54 (2239488)
I0813 02:30:56.179041 25392 net.cpp:111] deconv2 needs backward computation.
I0813 02:30:56.179045 25392 net.cpp:65] Creating Layer relu_deconv2
I0813 02:30:56.179049 25392 net.cpp:228] relu_deconv2 <- deconv2
I0813 02:30:56.179052 25392 net.cpp:179] relu_deconv2 -> deconv2 (in-place)
I0813 02:30:56.179057 25392 net.cpp:84] Top shape: 12 64 54 54 (2239488)
I0813 02:30:56.179060 25392 net.cpp:111] relu_deconv2 needs backward computation.
I0813 02:30:56.179064 25392 net.cpp:65] Creating Layer deconv1
I0813 02:30:56.179066 25392 net.cpp:228] deconv1 <- deconv2
I0813 02:30:56.179070 25392 net.cpp:189] deconv1 -> deconv1
I0813 02:30:56.179216 25392 net.cpp:84] Top shape: 12 32 108 108 (4478976)
I0813 02:30:56.179220 25392 net.cpp:111] deconv1 needs backward computation.
I0813 02:30:56.179224 25392 net.cpp:65] Creating Layer relu_deconv1
I0813 02:30:56.179227 25392 net.cpp:228] relu_deconv1 <- deconv1
I0813 02:30:56.179230 25392 net.cpp:179] relu_deconv1 -> deconv1 (in-place)
I0813 02:30:56.179235 25392 net.cpp:84] Top shape: 12 32 108 108 (4478976)
I0813 02:30:56.179239 25392 net.cpp:111] relu_deconv1 needs backward computation.
I0813 02:30:56.179244 25392 net.cpp:65] Creating Layer deconv0
I0813 02:30:56.179245 25392 net.cpp:228] deconv0 <- deconv1
I0813 02:30:56.179250 25392 net.cpp:189] deconv0 -> deconv0
I0813 02:30:56.179272 25392 net.cpp:84] Top shape: 12 3 216 216 (1679616)
I0813 02:30:56.179275 25392 net.cpp:111] deconv0 needs backward computation.
I0813 02:30:56.179280 25392 net.cpp:65] Creating Layer loss
I0813 02:30:56.179281 25392 net.cpp:228] loss <- deconv0
I0813 02:30:56.179286 25392 net.cpp:228] loss <- target_ims
I0813 02:30:56.179294 25392 net.cpp:111] loss needs backward computation.
I0813 02:30:56.179307 25392 net.cpp:238] Collecting Learning Rate and Weight Decay.
…
    source: "/scr/r6/tgebru/inverting_conv/caffe_invert_alexnet/data/siggraph/tiny_summer_val_lmdb"
    mean_file: "/scr/r6/tgebru/timnit_caffe/data/ilsvrc12/imagenet_mean.binaryproto"
    batch_size: 2
    crop_size: 227
    mirror: false
    backend: LMDB
  }
}
layers {
  top: "target_ims"
  name: "target_ims"
  type: DATA
  data_param {
    source: "/scr/r6/tgebru/inverting_conv/caffe_invert_alexnet/data/siggraph/tiny_summer_val_lmdb"
    mean_file: "/scr/r6/tgebru/timnit_caffe/data/ilsvrc12/imagenet_mean.binaryproto"
    batch_size: 2
    crop_size: 216
    mirror: false
    backend: LMDB
  }
}
layers {
  bottom: "source_ims"
  top: "conv1"
  name: "conv1"
  type: CONVOLUTION
  blobs_lr: 0
  blobs_lr: 0
  weight_decay: 1
  weight_decay: 0
  convolution_param {
    num_output: 96
    kernel_size: 11
    stride: 4
    weight_filler {
      type: "gaussian"
      std: 0.01
    }
    bias_filler {
      type: "constant"
      value: 0
    }
  }
}
layers {
  bottom: "conv1"
  top: "conv1"
  name: "relu1"
  type: RELU
}
layers {
  bottom: "conv1"
  top: "pool1"
  name: "pool1"
  type: POOLING
  pooling_param {
    pool: MAX
    kernel_size: 3
    stride: 2
  }
}
layers {
  bottom: "pool1"
  top: "norm1"
  name: "norm1"
  type: LRN
  lrn_param {
    local_size: 5
    alpha: 0.0001
    beta: 0.75
  }
}
layers {
  bottom: "norm1"
  top: "Rconv6"
  name: "Rconv6"
  type: CONVOLUTION
  blobs_lr: 0
  blobs_lr: 0
  weight_decay: 1
  weight_decay: 0
  convolution_param {
    num_output: 256
    pad: 1
    kernel_size: 3
  }
}
layers {
  bottom: "Rconv6"
  top: "Rconv6"
  name: "Rrelu6"
  type: RELU
}
layers {
  bottom: "Rconv6"
  top: "Rconv7"
  name: "Rconv7"
  type: CONVOLUTION
  blobs_lr: 0
  blobs_lr: 0
  weight_decay: 1
  weight_decay: 0
  convolution_param {
    num_output: 256
    pad: 1
    kernel_size: 3
    group: 2
  }
}
layers {
  bottom: "Rconv7"
  top: "Rconv7"
  name: "Rrelu7"
  type: RELU
}
layers {
  bottom: "Rconv7"
  top: "Rconv8"
  name: "Rconv8"
  type: CONVOLUTION
  blobs_lr: 0
  blobs_lr: 0
  weight_decay: 1
  weight_decay: 0
  convolution_param {
    num_output: 256
    pad: 1
    kernel_size: 3
    group: 2
  }
}
layers {
  bottom: "Rconv8"
  top: "Rconv8"
  name: "Rrelu8"
  type: RELU
}
layers {
  bottom: "Rconv8"
  top: "deconv2"
  name: "deconv2"
  type: DECONVOLUTION
  blobs_lr: 0
  blobs_lr: 0
  weight_decay: 1
  weight_decay: 0
  deconvolution_param {
    pad: 2
    kernel_size: 5
    stride: 2
    output_height: 54
    output_width: 54
    output_channels: 64
  }
}
layers {
  bottom: "deconv2"
  top: "deconv2"
  name: "relu_deconv2"
  type: RELU
  relu_param {
    negative_slope: 0.3
  }
}
layers {
  bottom: "deconv2"
  top: "deconv1"
  name: "deconv1"
  type: DECONVOLUTION
  blobs_lr: 0
  blobs_lr: 0
  weight_decay: 1
  weight_decay: 0
  deconvolution_param {
    pad: 2
    kernel_size: 5
    stride: 2
    output_height: 108
    output_width: 108
    output_channels: 32
  }
}
layers {
  bottom: "deconv1"
  top: "deconv1"
  name: "relu_deconv1"
  type: RELU
  relu_param {
    negative_slope: 0.3
  }
}
layers {
  bottom: "deconv1"
  top: "deconv0"
  name: "deconv0"
  type: DECONVOLUTION
  blobs_lr: 0
  blobs_lr: 0
  weight_decay: 1
  weight_decay: 0
  deconvolution_param {
    pad: 2
    kernel_size: 5
    stride: 2
    output_height: 216
    output_width: 216
    output_channels: 3
  }
}
layers {
  bottom: "deconv0"
  bottom: "target_ims"
  name: "loss"
  type: EUCLIDEAN_LOSS
}
I0813 02:30:56.180047 25392 net.cpp:65] Creating Layer source_ims
I0813 02:30:56.180052 25392 net.cpp:189] source_ims -> source_ims
I0813 02:30:56.180109 25392 data_layer.cpp:223] Opening lmdb /scr/r6/tgebru/inverting_conv/caffe_invert_alexnet/data/siggraph/tiny_summer_val_lmdb
I0813 02:30:56.180290 25392 data_layer.cpp:285] output data size: 2,3,227,227
I0813 02:30:56.180295 25392 data_layer.cpp:304] Loading mean file from/scr/r6/tgebru/timnit_caffe/data/ilsvrc12/imagenet_mean.binaryproto
I0813 02:30:56.182591 25392 net.cpp:84] Top shape: 2 3 227 227 (309174)
I0813 02:30:56.182598 25392 net.cpp:116] source_ims does not need backward computation.
I0813 02:30:56.182605 25392 net.cpp:65] Creating Layer target_ims
I0813 02:30:56.182610 25392 net.cpp:189] target_ims -> target_ims
I0813 02:30:56.182659 25392 data_layer.cpp:223] Opening lmdb /scr/r6/tgebru/inverting_conv/caffe_invert_alexnet/data/siggraph/tiny_summer_val_lmdb
I0813 02:30:56.182732 25392 data_layer.cpp:285] output data size: 2,3,216,216
I0813 02:30:56.182736 25392 data_layer.cpp:304] Loading mean file from/scr/r6/tgebru/timnit_caffe/data/ilsvrc12/imagenet_mean.binaryproto
I0813 02:30:56.184919 25392 net.cpp:84] Top shape: 2 3 216 216 (279936)
I0813 02:30:56.184926 25392 net.cpp:116] target_ims does not need backward computation.
I0813 02:30:56.184948 25392 net.cpp:65] Creating Layer conv1
I0813 02:30:56.184952 25392 net.cpp:228] conv1 <- source_ims
I0813 02:30:56.184958 25392 net.cpp:189] conv1 -> conv1
I0813 02:30:56.186208 25392 net.cpp:84] Top shape: 2 96 55 55 (580800)
I0813 02:30:56.186213 25392 net.cpp:116] conv1 does not need backward computation.
I0813 02:30:56.186218 25392 net.cpp:65] Creating Layer relu1
I0813 02:30:56.186220 25392 net.cpp:228] relu1 <- conv1
I0813 02:30:56.186224 25392 net.cpp:179] relu1 -> conv1 (in-place)
I0813 02:30:56.186229 25392 net.cpp:84] Top shape: 2 96 55 55 (580800)
I0813 02:30:56.186233 25392 net.cpp:116] relu1 does not need backward computation.
I0813 02:30:56.186238 25392 net.cpp:65] Creating Layer pool1
I0813 02:30:56.186239 25392 net.cpp:228] pool1 <- conv1
I0813 02:30:56.186244 25392 net.cpp:189] pool1 -> pool1
I0813 02:30:56.186250 25392 net.cpp:84] Top shape: 2 96 27 27 (139968)
I0813 02:30:56.186254 25392 net.cpp:116] pool1 does not need backward computation.
I0813 02:30:56.186259 25392 net.cpp:65] Creating Layer norm1
I0813 02:30:56.186260 25392 net.cpp:228] norm1 <- pool1
I0813 02:30:56.186264 25392 net.cpp:189] norm1 -> norm1
I0813 02:30:56.186270 25392 net.cpp:84] Top shape: 2 96 27 27 (139968)
I0813 02:30:56.186274 25392 net.cpp:116] norm1 does not need backward computation.
I0813 02:30:56.186276 25392 net.cpp:65] Creating Layer Rconv6
I0813 02:30:56.186280 25392 net.cpp:228] Rconv6 <- norm1
I0813 02:30:56.186283 25392 net.cpp:189] Rconv6 -> Rconv6
I0813 02:30:56.186861 25392 net.cpp:84] Top shape: 2 256 27 27 (373248)
I0813 02:30:56.186866 25392 net.cpp:116] Rconv6 does not need backward computation.
I0813 02:30:56.186871 25392 net.cpp:65] Creating Layer Rrelu6
I0813 02:30:56.186873 25392 net.cpp:228] Rrelu6 <- Rconv6
I0813 02:30:56.186877 25392 net.cpp:179] Rrelu6 -> Rconv6 (in-place)
I0813 02:30:56.186882 25392 net.cpp:84] Top shape: 2 256 27 27 (373248)
I0813 02:30:56.186885 25392 net.cpp:116] Rrelu6 does not need backward computation.
I0813 02:30:56.186889 25392 net.cpp:65] Creating Layer Rconv7
I0813 02:30:56.186892 25392 net.cpp:228] Rconv7 <- Rconv6
I0813 02:30:56.186897 25392 net.cpp:189] Rconv7 -> Rconv7
I0813 02:30:56.187609 25392 net.cpp:84] Top shape: 2 256 27 27 (373248)
I0813 02:30:56.187614 25392 net.cpp:116] Rconv7 does not need backward computation.
I0813 02:30:56.187618 25392 net.cpp:65] Creating Layer Rrelu7
I0813 02:30:56.187621 25392 net.cpp:228] Rrelu7 <- Rconv7
I0813 02:30:56.187625 25392 net.cpp:179] Rrelu7 -> Rconv7 (in-place)
I0813 02:30:56.187629 25392 net.cpp:84] Top shape: 2 256 27 27 (373248)
I0813 02:30:56.187633 25392 net.cpp:116] Rrelu7 does not need backward computation.
I0813 02:30:56.187636 25392 net.cpp:65] Creating Layer Rconv8
I0813 02:30:56.187638 25392 net.cpp:228] Rconv8 <- Rconv7
I0813 02:30:56.187643 25392 net.cpp:189] Rconv8 -> Rconv8
I0813 02:30:56.188361 25392 net.cpp:84] Top shape: 2 256 27 27 (373248)
I0813 02:30:56.188365 25392 net.cpp:116] Rconv8 does not need backward computation.
I0813 02:30:56.188369 25392 net.cpp:65] Creating Layer Rrelu8
I0813 02:30:56.188372 25392 net.cpp:228] Rrelu8 <- Rconv8
I0813 02:30:56.188375 25392 net.cpp:179] Rrelu8 -> Rconv8 (in-place)
I0813 02:30:56.188380 25392 net.cpp:84] Top shape: 2 256 27 27 (373248)
I0813 02:30:56.188383 25392 net.cpp:116] Rrelu8 does not need backward computation.
I0813 02:30:56.188386 25392 net.cpp:65] Creating Layer deconv2
I0813 02:30:56.188390 25392 net.cpp:228] deconv2 <- Rconv8
I0813 02:30:56.188393 25392 net.cpp:189] deconv2 -> deconv2
I0813 02:30:56.189379 25392 net.cpp:84] Top shape: 2 64 54 54 (373248)
I0813 02:30:56.189383 25392 net.cpp:116] deconv2 does not need backward computation.
I0813 02:30:56.189388 25392 net.cpp:65] Creating Layer relu_deconv2
I0813 02:30:56.189390 25392 net.cpp:228] relu_deconv2 <- deconv2
I0813 02:30:56.189394 25392 net.cpp:179] relu_deconv2 -> deconv2 (in-place)
I0813 02:30:56.189399 25392 net.cpp:84] Top shape: 2 64 54 54 (373248)
I0813 02:30:56.189401 25392 net.cpp:116] relu_deconv2 does not need backward computation.
I0813 02:30:56.189422 25392 net.cpp:65] Creating Layer deconv1
I0813 02:30:56.189425 25392 net.cpp:228] deconv1 <- deconv2
I0813 02:30:56.189429 25392 net.cpp:189] deconv1 -> deconv1
I0813 02:30:56.189574 25392 net.cpp:84] Top shape: 2 32 108 108 (746496)
I0813 02:30:56.189579 25392 net.cpp:116] deconv1 does not need backward computation.
I0813 02:30:56.189582 25392 net.cpp:65] Creating Layer relu_deconv1
I0813 02:30:56.189585 25392 net.cpp:228] relu_deconv1 <- deconv1
I0813 02:30:56.189589 25392 net.cpp:179] relu_deconv1 -> deconv1 (in-place)
I0813 02:30:56.189594 25392 net.cpp:84] Top shape: 2 32 108 108 (746496)
I0813 02:30:56.189596 25392 net.cpp:116] relu_deconv1 does not need backward computation.
I0813 02:30:56.189602 25392 net.cpp:65] Creating Layer deconv0
I0813 02:30:56.189604 25392 net.cpp:228] deconv0 <- deconv1
I0813 02:30:56.189610 25392 net.cpp:189] deconv0 -> deconv0
I0813 02:30:56.189627 25392 net.cpp:84] Top shape: 2 3 216 216 (279936)
I0813 02:30:56.189630 25392 net.cpp:116] deconv0 does not need backward computation.
I0813 02:30:56.189635 25392 net.cpp:65] Creating Layer loss
I0813 02:30:56.189637 25392 net.cpp:228] loss <- deconv0
I0813 02:30:56.189640 25392 net.cpp:228] loss <- target_ims
I0813 02:30:56.189646 25392 net.cpp:116] loss does not need backward computation.
I0813 02:30:56.189657 25392 net.cpp:238] Collecting Learning Rate and Weight Decay.
…
