…
    source: "/scr/r6/tgebru/inverting_conv/caffe_invert_alexnet/data/siggraph/tiny_winter_train_lmdb"
    mean_file: "/scr/r6/tgebru/timnit_caffe/data/ilsvrc12/imagenet_mean.binaryproto"
    batch_size: 12
    crop_size: 227
    mirror: false
    backend: LMDB
  }
}
layers {
  top: "target_ims"
  name: "target_ims"
  type: DATA
  data_param {
    source: "/scr/r6/tgebru/inverting_conv/caffe_invert_alexnet/data/siggraph/tiny_summer_train_lmdb"
    mean_file: "/scr/r6/tgebru/timnit_caffe/data/ilsvrc12/imagenet_mean.binaryproto"
    batch_size: 12
    crop_size: 216
    mirror: false
    backend: LMDB
  }
}
layers {
  bottom: "source_ims"
  top: "conv1"
  name: "conv1"
  type: CONVOLUTION
  blobs_lr: 0
  blobs_lr: 0
  weight_decay: 1
  weight_decay: 0
  convolution_param {
    num_output: 96
    kernel_size: 11
    stride: 4
    weight_filler {
      type: "gaussian"
      std: 0.01
    }
    bias_filler {
      type: "constant"
      value: 0
    }
  }
}
layers {
  bottom: "conv1"
  top: "conv1"
  name: "relu1"
  type: RELU
}
layers {
  bottom: "conv1"
  top: "pool1"
  name: "pool1"
  type: POOLING
  pooling_param {
    pool: MAX
    kernel_size: 3
    stride: 2
  }
}
layers {
  bottom: "pool1"
  top: "norm1"
  name: "norm1"
  type: LRN
  lrn_param {
    local_size: 5
    alpha: 0.0001
    beta: 0.75
  }
}
layers {
  bottom: "norm1"
  top: "Rconv6"
  name: "Rconv6"
  type: CONVOLUTION
  blobs_lr: 1
  blobs_lr: 2
  weight_decay: 1
  weight_decay: 0
  convolution_param {
    num_output: 256
    pad: 1
    kernel_size: 3
  }
}
layers {
  bottom: "Rconv6"
  top: "Rconv6"
  name: "Rrelu6"
  type: RELU
}
layers {
  bottom: "Rconv6"
  top: "Rconv7"
  name: "Rconv7"
  type: CONVOLUTION
  blobs_lr: 1
  blobs_lr: 2
  weight_decay: 1
  weight_decay: 0
  convolution_param {
    num_output: 256
    pad: 1
    kernel_size: 3
    group: 2
  }
}
layers {
  bottom: "Rconv7"
  top: "Rconv7"
  name: "Rrelu7"
  type: RELU
}
layers {
  bottom: "Rconv7"
  top: "Rconv8"
  name: "Rconv8"
  type: CONVOLUTION
  blobs_lr: 1
  blobs_lr: 2
  weight_decay: 1
  weight_decay: 0
  convolution_param {
    num_output: 256
    pad: 1
    kernel_size: 3
    group: 2
  }
}
layers {
  bottom: "Rconv8"
  top: "Rconv8"
  name: "Rrelu8"
  type: RELU
}
layers {
  bottom: "Rconv8"
  top: "deconv2"
  name: "deconv2"
  type: DECONVOLUTION
  blobs_lr: 1
  blobs_lr: 2
  weight_decay: 1
  weight_decay: 0
  deconvolution_param {
    pad: 2
    kernel_size: 5
    stride: 2
    output_height: 54
    output_width: 54
    output_channels: 64
  }
}
layers {
  bottom: "deconv2"
  top: "deconv2"
  name: "relu_deconv2"
  type: RELU
  relu_param {
    negative_slope: 0.3
  }
}
layers {
  bottom: "deconv2"
  top: "deconv1"
  name: "deconv1"
  type: DECONVOLUTION
  blobs_lr: 1
  blobs_lr: 2
  weight_decay: 1
  weight_decay: 0
  deconvolution_param {
    pad: 2
    kernel_size: 5
    stride: 2
    output_height: 108
    output_width: 108
    output_channels: 32
  }
}
layers {
  bottom: "deconv1"
  top: "deconv1"
  name: "relu_deconv1"
  type: RELU
  relu_param {
    negative_slope: 0.3
  }
}
layers {
  bottom: "deconv1"
  top: "deconv0"
  name: "deconv0"
  type: DECONVOLUTION
  blobs_lr: 1
  blobs_lr: 2
  weight_decay: 1
  weight_decay: 1
  deconvolution_param {
    pad: 2
    kernel_size: 5
    stride: 2
    output_height: 216
    output_width: 216
    output_channels: 3
  }
}
layers {
  bottom: "deconv0"
  bottom: "target_ims"
  name: "loss"
  type: EUCLIDEAN_LOSS
}
I0812 23:18:47.598706  9142 net.cpp:65] Creating Layer source_ims
I0812 23:18:47.598714  9142 net.cpp:189] source_ims -> source_ims
I0812 23:18:47.598829  9142 data_layer.cpp:223] Opening lmdb /scr/r6/tgebru/inverting_conv/caffe_invert_alexnet/data/siggraph/tiny_winter_train_lmdb
I0812 23:18:47.599033  9142 data_layer.cpp:285] output data size: 12,3,227,227
I0812 23:18:47.599040  9142 data_layer.cpp:304] Loading mean file from/scr/r6/tgebru/timnit_caffe/data/ilsvrc12/imagenet_mean.binaryproto
I0812 23:18:47.603935  9142 net.cpp:84] Top shape: 12 3 227 227 (1855044)
I0812 23:18:47.603943  9142 net.cpp:116] source_ims does not need backward computation.
I0812 23:18:47.603950  9142 net.cpp:65] Creating Layer target_ims
I0812 23:18:47.603955  9142 net.cpp:189] target_ims -> target_ims
I0812 23:18:47.604087  9142 data_layer.cpp:223] Opening lmdb /scr/r6/tgebru/inverting_conv/caffe_invert_alexnet/data/siggraph/tiny_summer_train_lmdb
I0812 23:18:47.604225  9142 data_layer.cpp:285] output data size: 12,3,216,216
I0812 23:18:47.604229  9142 data_layer.cpp:304] Loading mean file from/scr/r6/tgebru/timnit_caffe/data/ilsvrc12/imagenet_mean.binaryproto
I0812 23:18:47.608223  9142 net.cpp:84] Top shape: 12 3 216 216 (1679616)
I0812 23:18:47.608232  9142 net.cpp:116] target_ims does not need backward computation.
I0812 23:18:47.608242  9142 net.cpp:65] Creating Layer conv1
I0812 23:18:47.608247  9142 net.cpp:228] conv1 <- source_ims
I0812 23:18:47.608341  9142 net.cpp:189] conv1 -> conv1
I0812 23:18:47.609807  9142 net.cpp:84] Top shape: 12 96 55 55 (3484800)
I0812 23:18:47.609812  9142 net.cpp:116] conv1 does not need backward computation.
I0812 23:18:47.609817  9142 net.cpp:65] Creating Layer relu1
I0812 23:18:47.609820  9142 net.cpp:228] relu1 <- conv1
I0812 23:18:47.609827  9142 net.cpp:179] relu1 -> conv1 (in-place)
I0812 23:18:47.609835  9142 net.cpp:84] Top shape: 12 96 55 55 (3484800)
I0812 23:18:47.609838  9142 net.cpp:116] relu1 does not need backward computation.
I0812 23:18:47.609843  9142 net.cpp:65] Creating Layer pool1
I0812 23:18:47.609846  9142 net.cpp:228] pool1 <- conv1
I0812 23:18:47.609851  9142 net.cpp:189] pool1 -> pool1
I0812 23:18:47.609864  9142 net.cpp:84] Top shape: 12 96 27 27 (839808)
I0812 23:18:47.609868  9142 net.cpp:116] pool1 does not need backward computation.
I0812 23:18:47.609871  9142 net.cpp:65] Creating Layer norm1
I0812 23:18:47.609874  9142 net.cpp:228] norm1 <- pool1
I0812 23:18:47.609879  9142 net.cpp:189] norm1 -> norm1
I0812 23:18:47.609887  9142 net.cpp:84] Top shape: 12 96 27 27 (839808)
I0812 23:18:47.609890  9142 net.cpp:116] norm1 does not need backward computation.
I0812 23:18:47.609895  9142 net.cpp:65] Creating Layer Rconv6
I0812 23:18:47.609899  9142 net.cpp:228] Rconv6 <- norm1
I0812 23:18:47.609904  9142 net.cpp:189] Rconv6 -> Rconv6
I0812 23:18:47.610162  9142 net.cpp:84] Top shape: 12 256 27 27 (2239488)
I0812 23:18:47.610165  9142 net.cpp:111] Rconv6 needs backward computation.
I0812 23:18:47.610170  9142 net.cpp:65] Creating Layer Rrelu6
I0812 23:18:47.610173  9142 net.cpp:228] Rrelu6 <- Rconv6
I0812 23:18:47.610178  9142 net.cpp:179] Rrelu6 -> Rconv6 (in-place)
I0812 23:18:47.610183  9142 net.cpp:84] Top shape: 12 256 27 27 (2239488)
I0812 23:18:47.610185  9142 net.cpp:111] Rrelu6 needs backward computation.
I0812 23:18:47.610190  9142 net.cpp:65] Creating Layer Rconv7
I0812 23:18:47.610193  9142 net.cpp:228] Rconv7 <- Rconv6
I0812 23:18:47.610198  9142 net.cpp:189] Rconv7 -> Rconv7
I0812 23:18:47.610877  9142 net.cpp:84] Top shape: 12 256 27 27 (2239488)
I0812 23:18:47.610882  9142 net.cpp:111] Rconv7 needs backward computation.
I0812 23:18:47.610887  9142 net.cpp:65] Creating Layer Rrelu7
I0812 23:18:47.610908  9142 net.cpp:228] Rrelu7 <- Rconv7
I0812 23:18:47.610911  9142 net.cpp:179] Rrelu7 -> Rconv7 (in-place)
I0812 23:18:47.610916  9142 net.cpp:84] Top shape: 12 256 27 27 (2239488)
I0812 23:18:47.610919  9142 net.cpp:111] Rrelu7 needs backward computation.
I0812 23:18:47.610924  9142 net.cpp:65] Creating Layer Rconv8
I0812 23:18:47.610925  9142 net.cpp:228] Rconv8 <- Rconv7
I0812 23:18:47.610929  9142 net.cpp:189] Rconv8 -> Rconv8
I0812 23:18:47.611714  9142 net.cpp:84] Top shape: 12 256 27 27 (2239488)
I0812 23:18:47.611719  9142 net.cpp:111] Rconv8 needs backward computation.
I0812 23:18:47.611723  9142 net.cpp:65] Creating Layer Rrelu8
I0812 23:18:47.611726  9142 net.cpp:228] Rrelu8 <- Rconv8
I0812 23:18:47.611731  9142 net.cpp:179] Rrelu8 -> Rconv8 (in-place)
I0812 23:18:47.611734  9142 net.cpp:84] Top shape: 12 256 27 27 (2239488)
I0812 23:18:47.611737  9142 net.cpp:111] Rrelu8 needs backward computation.
I0812 23:18:47.611742  9142 net.cpp:65] Creating Layer deconv2
I0812 23:18:47.611743  9142 net.cpp:228] deconv2 <- Rconv8
I0812 23:18:47.611747  9142 net.cpp:189] deconv2 -> deconv2
I0812 23:18:47.612830  9142 net.cpp:84] Top shape: 12 64 54 54 (2239488)
I0812 23:18:47.612834  9142 net.cpp:111] deconv2 needs backward computation.
I0812 23:18:47.612839  9142 net.cpp:65] Creating Layer relu_deconv2
I0812 23:18:47.612843  9142 net.cpp:228] relu_deconv2 <- deconv2
I0812 23:18:47.612846  9142 net.cpp:179] relu_deconv2 -> deconv2 (in-place)
I0812 23:18:47.612850  9142 net.cpp:84] Top shape: 12 64 54 54 (2239488)
I0812 23:18:47.612854  9142 net.cpp:111] relu_deconv2 needs backward computation.
I0812 23:18:47.612857  9142 net.cpp:65] Creating Layer deconv1
I0812 23:18:47.612859  9142 net.cpp:228] deconv1 <- deconv2
I0812 23:18:47.612864  9142 net.cpp:189] deconv1 -> deconv1
I0812 23:18:47.612996  9142 net.cpp:84] Top shape: 12 32 108 108 (4478976)
I0812 23:18:47.613000  9142 net.cpp:111] deconv1 needs backward computation.
I0812 23:18:47.613004  9142 net.cpp:65] Creating Layer relu_deconv1
I0812 23:18:47.613008  9142 net.cpp:228] relu_deconv1 <- deconv1
I0812 23:18:47.613011  9142 net.cpp:179] relu_deconv1 -> deconv1 (in-place)
I0812 23:18:47.613015  9142 net.cpp:84] Top shape: 12 32 108 108 (4478976)
I0812 23:18:47.613018  9142 net.cpp:111] relu_deconv1 needs backward computation.
I0812 23:18:47.613023  9142 net.cpp:65] Creating Layer deconv0
I0812 23:18:47.613026  9142 net.cpp:228] deconv0 <- deconv1
I0812 23:18:47.613030  9142 net.cpp:189] deconv0 -> deconv0
I0812 23:18:47.613075  9142 net.cpp:84] Top shape: 12 3 216 216 (1679616)
I0812 23:18:47.613078  9142 net.cpp:111] deconv0 needs backward computation.
I0812 23:18:47.613082  9142 net.cpp:65] Creating Layer loss
I0812 23:18:47.613085  9142 net.cpp:228] loss <- deconv0
I0812 23:18:47.613088  9142 net.cpp:228] loss <- target_ims
I0812 23:18:47.613097  9142 net.cpp:111] loss needs backward computation.
I0812 23:18:47.613111  9142 net.cpp:238] Collecting Learning Rate and Weight Decay.
…
    source: "/scr/r6/tgebru/inverting_conv/caffe_invert_alexnet/data/siggraph/tiny_winter_val_lmdb"
    mean_file: "/scr/r6/tgebru/timnit_caffe/data/ilsvrc12/imagenet_mean.binaryproto"
    batch_size: 2
    crop_size: 227
    mirror: false
    backend: LMDB
  }
}
layers {
  top: "target_ims"
  name: "target_ims"
  type: DATA
  data_param {
    source: "/scr/r6/tgebru/inverting_conv/caffe_invert_alexnet/data/siggraph/tiny_summer_val_lmdb"
    mean_file: "/scr/r6/tgebru/timnit_caffe/data/ilsvrc12/imagenet_mean.binaryproto"
    batch_size: 2
    crop_size: 216
    mirror: false
    backend: LMDB
  }
}
layers {
  bottom: "source_ims"
  top: "conv1"
  name: "conv1"
  type: CONVOLUTION
  blobs_lr: 0
  blobs_lr: 0
  weight_decay: 1
  weight_decay: 0
  convolution_param {
    num_output: 96
    kernel_size: 11
    stride: 4
    weight_filler {
      type: "gaussian"
      std: 0.01
    }
    bias_filler {
      type: "constant"
      value: 0
    }
  }
}
layers {
  bottom: "conv1"
  top: "conv1"
  name: "relu1"
  type: RELU
}
layers {
  bottom: "conv1"
  top: "pool1"
  name: "pool1"
  type: POOLING
  pooling_param {
    pool: MAX
    kernel_size: 3
    stride: 2
  }
}
layers {
  bottom: "pool1"
  top: "norm1"
  name: "norm1"
  type: LRN
  lrn_param {
    local_size: 5
    alpha: 0.0001
    beta: 0.75
  }
}
layers {
  bottom: "norm1"
  top: "Rconv6"
  name: "Rconv6"
  type: CONVOLUTION
  blobs_lr: 0
  blobs_lr: 0
  weight_decay: 1
  weight_decay: 0
  convolution_param {
    num_output: 256
    pad: 1
    kernel_size: 3
  }
}
layers {
  bottom: "Rconv6"
  top: "Rconv6"
  name: "Rrelu6"
  type: RELU
}
layers {
  bottom: "Rconv6"
  top: "Rconv7"
  name: "Rconv7"
  type: CONVOLUTION
  blobs_lr: 0
  blobs_lr: 0
  weight_decay: 1
  weight_decay: 0
  convolution_param {
    num_output: 256
    pad: 1
    kernel_size: 3
    group: 2
  }
}
layers {
  bottom: "Rconv7"
  top: "Rconv7"
  name: "Rrelu7"
  type: RELU
}
layers {
  bottom: "Rconv7"
  top: "Rconv8"
  name: "Rconv8"
  type: CONVOLUTION
  blobs_lr: 0
  blobs_lr: 0
  weight_decay: 1
  weight_decay: 0
  convolution_param {
    num_output: 256
    pad: 1
    kernel_size: 3
    group: 2
  }
}
layers {
  bottom: "Rconv8"
  top: "Rconv8"
  name: "Rrelu8"
  type: RELU
}
layers {
  bottom: "Rconv8"
  top: "deconv2"
  name: "deconv2"
  type: DECONVOLUTION
  blobs_lr: 0
  blobs_lr: 0
  weight_decay: 1
  weight_decay: 0
  deconvolution_param {
    pad: 2
    kernel_size: 5
    stride: 2
    output_height: 54
    output_width: 54
    output_channels: 64
  }
}
layers {
  bottom: "deconv2"
  top: "deconv2"
  name: "relu_deconv2"
  type: RELU
  relu_param {
    negative_slope: 0.3
  }
}
layers {
  bottom: "deconv2"
  top: "deconv1"
  name: "deconv1"
  type: DECONVOLUTION
  blobs_lr: 0
  blobs_lr: 0
  weight_decay: 1
  weight_decay: 0
  deconvolution_param {
    pad: 2
    kernel_size: 5
    stride: 2
    output_height: 108
    output_width: 108
    output_channels: 32
  }
}
layers {
  bottom: "deconv1"
  top: "deconv1"
  name: "relu_deconv1"
  type: RELU
  relu_param {
    negative_slope: 0.3
  }
}
layers {
  bottom: "deconv1"
  top: "deconv0"
  name: "deconv0"
  type: DECONVOLUTION
  blobs_lr: 0
  blobs_lr: 0
  weight_decay: 1
  weight_decay: 0
  deconvolution_param {
    pad: 2
    kernel_size: 5
    stride: 2
    output_height: 216
    output_width: 216
    output_channels: 3
  }
}
layers {
  bottom: "deconv0"
  bottom: "target_ims"
  name: "loss"
  type: EUCLIDEAN_LOSS
}
I0812 23:18:47.613883  9142 net.cpp:65] Creating Layer source_ims
I0812 23:18:47.613889  9142 net.cpp:189] source_ims -> source_ims
I0812 23:18:47.613941  9142 data_layer.cpp:223] Opening lmdb /scr/r6/tgebru/inverting_conv/caffe_invert_alexnet/data/siggraph/tiny_winter_val_lmdb
I0812 23:18:47.614145  9142 data_layer.cpp:285] output data size: 2,3,227,227
I0812 23:18:47.614150  9142 data_layer.cpp:304] Loading mean file from/scr/r6/tgebru/timnit_caffe/data/ilsvrc12/imagenet_mean.binaryproto
I0812 23:18:47.616926  9142 net.cpp:84] Top shape: 2 3 227 227 (309174)
I0812 23:18:47.616933  9142 net.cpp:116] source_ims does not need backward computation.
I0812 23:18:47.616940  9142 net.cpp:65] Creating Layer target_ims
I0812 23:18:47.616945  9142 net.cpp:189] target_ims -> target_ims
I0812 23:18:47.616998  9142 data_layer.cpp:223] Opening lmdb /scr/r6/tgebru/inverting_conv/caffe_invert_alexnet/data/siggraph/tiny_summer_val_lmdb
I0812 23:18:47.617180  9142 data_layer.cpp:285] output data size: 2,3,216,216
I0812 23:18:47.617184  9142 data_layer.cpp:304] Loading mean file from/scr/r6/tgebru/timnit_caffe/data/ilsvrc12/imagenet_mean.binaryproto
I0812 23:18:47.619413  9142 net.cpp:84] Top shape: 2 3 216 216 (279936)
I0812 23:18:47.619432  9142 net.cpp:116] target_ims does not need backward computation.
I0812 23:18:47.619441  9142 net.cpp:65] Creating Layer conv1
I0812 23:18:47.619443  9142 net.cpp:228] conv1 <- source_ims
I0812 23:18:47.619449  9142 net.cpp:189] conv1 -> conv1
I0812 23:18:47.620692  9142 net.cpp:84] Top shape: 2 96 55 55 (580800)
I0812 23:18:47.620695  9142 net.cpp:116] conv1 does not need backward computation.
I0812 23:18:47.620699  9142 net.cpp:65] Creating Layer relu1
I0812 23:18:47.620702  9142 net.cpp:228] relu1 <- conv1
I0812 23:18:47.620707  9142 net.cpp:179] relu1 -> conv1 (in-place)
I0812 23:18:47.620712  9142 net.cpp:84] Top shape: 2 96 55 55 (580800)
I0812 23:18:47.620714  9142 net.cpp:116] relu1 does not need backward computation.
I0812 23:18:47.620719  9142 net.cpp:65] Creating Layer pool1
I0812 23:18:47.620723  9142 net.cpp:228] pool1 <- conv1
I0812 23:18:47.620725  9142 net.cpp:189] pool1 -> pool1
I0812 23:18:47.620733  9142 net.cpp:84] Top shape: 2 96 27 27 (139968)
I0812 23:18:47.620735  9142 net.cpp:116] pool1 does not need backward computation.
I0812 23:18:47.620739  9142 net.cpp:65] Creating Layer norm1
I0812 23:18:47.620741  9142 net.cpp:228] norm1 <- pool1
I0812 23:18:47.620745  9142 net.cpp:189] norm1 -> norm1
I0812 23:18:47.620751  9142 net.cpp:84] Top shape: 2 96 27 27 (139968)
I0812 23:18:47.620754  9142 net.cpp:116] norm1 does not need backward computation.
I0812 23:18:47.620757  9142 net.cpp:65] Creating Layer Rconv6
I0812 23:18:47.620760  9142 net.cpp:228] Rconv6 <- norm1
I0812 23:18:47.620764  9142 net.cpp:189] Rconv6 -> Rconv6
I0812 23:18:47.621309  9142 net.cpp:84] Top shape: 2 256 27 27 (373248)
I0812 23:18:47.621312  9142 net.cpp:116] Rconv6 does not need backward computation.
I0812 23:18:47.621316  9142 net.cpp:65] Creating Layer Rrelu6
I0812 23:18:47.621320  9142 net.cpp:228] Rrelu6 <- Rconv6
I0812 23:18:47.621325  9142 net.cpp:179] Rrelu6 -> Rconv6 (in-place)
I0812 23:18:47.621328  9142 net.cpp:84] Top shape: 2 256 27 27 (373248)
I0812 23:18:47.621331  9142 net.cpp:116] Rrelu6 does not need backward computation.
I0812 23:18:47.621336  9142 net.cpp:65] Creating Layer Rconv7
I0812 23:18:47.621338  9142 net.cpp:228] Rconv7 <- Rconv6
I0812 23:18:47.621342  9142 net.cpp:189] Rconv7 -> Rconv7
I0812 23:18:47.622114  9142 net.cpp:84] Top shape: 2 256 27 27 (373248)
I0812 23:18:47.622119  9142 net.cpp:116] Rconv7 does not need backward computation.
I0812 23:18:47.622123  9142 net.cpp:65] Creating Layer Rrelu7
I0812 23:18:47.622125  9142 net.cpp:228] Rrelu7 <- Rconv7
I0812 23:18:47.622129  9142 net.cpp:179] Rrelu7 -> Rconv7 (in-place)
I0812 23:18:47.622133  9142 net.cpp:84] Top shape: 2 256 27 27 (373248)
I0812 23:18:47.622136  9142 net.cpp:116] Rrelu7 does not need backward computation.
I0812 23:18:47.622139  9142 net.cpp:65] Creating Layer Rconv8
I0812 23:18:47.622143  9142 net.cpp:228] Rconv8 <- Rconv7
I0812 23:18:47.622146  9142 net.cpp:189] Rconv8 -> Rconv8
I0812 23:18:47.622859  9142 net.cpp:84] Top shape: 2 256 27 27 (373248)
I0812 23:18:47.622864  9142 net.cpp:116] Rconv8 does not need backward computation.
I0812 23:18:47.622866  9142 net.cpp:65] Creating Layer Rrelu8
I0812 23:18:47.622869  9142 net.cpp:228] Rrelu8 <- Rconv8
I0812 23:18:47.622872  9142 net.cpp:179] Rrelu8 -> Rconv8 (in-place)
I0812 23:18:47.622877  9142 net.cpp:84] Top shape: 2 256 27 27 (373248)
I0812 23:18:47.622879  9142 net.cpp:116] Rrelu8 does not need backward computation.
I0812 23:18:47.622884  9142 net.cpp:65] Creating Layer deconv2
I0812 23:18:47.622886  9142 net.cpp:228] deconv2 <- Rconv8
I0812 23:18:47.622889  9142 net.cpp:189] deconv2 -> deconv2
I0812 23:18:47.623875  9142 net.cpp:84] Top shape: 2 64 54 54 (373248)
I0812 23:18:47.623879  9142 net.cpp:116] deconv2 does not need backward computation.
I0812 23:18:47.623883  9142 net.cpp:65] Creating Layer relu_deconv2
I0812 23:18:47.623886  9142 net.cpp:228] relu_deconv2 <- deconv2
I0812 23:18:47.623890  9142 net.cpp:179] relu_deconv2 -> deconv2 (in-place)
I0812 23:18:47.623895  9142 net.cpp:84] Top shape: 2 64 54 54 (373248)
I0812 23:18:47.623898  9142 net.cpp:116] relu_deconv2 does not need backward computation.
I0812 23:18:47.623914  9142 net.cpp:65] Creating Layer deconv1
I0812 23:18:47.623915  9142 net.cpp:228] deconv1 <- deconv2
I0812 23:18:47.623919  9142 net.cpp:189] deconv1 -> deconv1
I0812 23:18:47.624055  9142 net.cpp:84] Top shape: 2 32 108 108 (746496)
I0812 23:18:47.624059  9142 net.cpp:116] deconv1 does not need backward computation.
I0812 23:18:47.624063  9142 net.cpp:65] Creating Layer relu_deconv1
I0812 23:18:47.624065  9142 net.cpp:228] relu_deconv1 <- deconv1
I0812 23:18:47.624069  9142 net.cpp:179] relu_deconv1 -> deconv1 (in-place)
I0812 23:18:47.624073  9142 net.cpp:84] Top shape: 2 32 108 108 (746496)
I0812 23:18:47.624076  9142 net.cpp:116] relu_deconv1 does not need backward computation.
I0812 23:18:47.624081  9142 net.cpp:65] Creating Layer deconv0
I0812 23:18:47.624083  9142 net.cpp:228] deconv0 <- deconv1
I0812 23:18:47.624088  9142 net.cpp:189] deconv0 -> deconv0
I0812 23:18:47.624105  9142 net.cpp:84] Top shape: 2 3 216 216 (279936)
I0812 23:18:47.624109  9142 net.cpp:116] deconv0 does not need backward computation.
I0812 23:18:47.624111  9142 net.cpp:65] Creating Layer loss
I0812 23:18:47.624114  9142 net.cpp:228] loss <- deconv0
I0812 23:18:47.624117  9142 net.cpp:228] loss <- target_ims
I0812 23:18:47.624122  9142 net.cpp:116] loss does not need backward computation.
I0812 23:18:47.624133  9142 net.cpp:238] Collecting Learning Rate and Weight Decay.
…
