…
    source: "/scr/r6/tgebru/inverting_conv/caffe_invert_alexnet/data/siggraph/tiny_summer_train_lmdb"
    mean_file: "/scr/r6/tgebru/timnit_caffe/data/ilsvrc12/imagenet_mean.binaryproto"
    batch_size: 12
    crop_size: 227
    mirror: false
    backend: LMDB
  }
}
layers {
  top: "target_ims"
  name: "target_ims"
  type: DATA
  data_param {
    source: "/scr/r6/tgebru/inverting_conv/caffe_invert_alexnet/data/siggraph/tiny_summer_train_lmdb"
    mean_file: "/scr/r6/tgebru/timnit_caffe/data/ilsvrc12/imagenet_mean.binaryproto"
    batch_size: 12
    crop_size: 216
    mirror: false
    backend: LMDB
  }
}
layers {
  bottom: "source_ims"
  top: "conv1"
  name: "conv1"
  type: CONVOLUTION
  blobs_lr: 0
  blobs_lr: 0
  weight_decay: 1
  weight_decay: 0
  convolution_param {
    num_output: 96
    kernel_size: 11
    stride: 4
    weight_filler {
      type: "gaussian"
      std: 0.01
    }
    bias_filler {
      type: "constant"
      value: 0
    }
  }
}
layers {
  bottom: "conv1"
  top: "conv1"
  name: "relu1"
  type: RELU
}
layers {
  bottom: "conv1"
  top: "pool1"
  name: "pool1"
  type: POOLING
  pooling_param {
    pool: MAX
    kernel_size: 3
    stride: 2
  }
}
layers {
  bottom: "pool1"
  top: "norm1"
  name: "norm1"
  type: LRN
  lrn_param {
    local_size: 5
    alpha: 0.0001
    beta: 0.75
  }
}
layers {
  bottom: "norm1"
  top: "Rconv6"
  name: "Rconv6"
  type: CONVOLUTION
  blobs_lr: 1
  blobs_lr: 2
  weight_decay: 1
  weight_decay: 0
  convolution_param {
    num_output: 256
    pad: 1
    kernel_size: 3
  }
}
layers {
  bottom: "Rconv6"
  top: "Rconv6"
  name: "Rrelu6"
  type: RELU
}
layers {
  bottom: "Rconv6"
  top: "Rconv7"
  name: "Rconv7"
  type: CONVOLUTION
  blobs_lr: 1
  blobs_lr: 2
  weight_decay: 1
  weight_decay: 0
  convolution_param {
    num_output: 256
    pad: 1
    kernel_size: 3
    group: 2
  }
}
layers {
  bottom: "Rconv7"
  top: "Rconv7"
  name: "Rrelu7"
  type: RELU
}
layers {
  bottom: "Rconv7"
  top: "Rconv8"
  name: "Rconv8"
  type: CONVOLUTION
  blobs_lr: 1
  blobs_lr: 2
  weight_decay: 1
  weight_decay: 0
  convolution_param {
    num_output: 256
    pad: 1
    kernel_size: 3
    group: 2
  }
}
layers {
  bottom: "Rconv8"
  top: "Rconv8"
  name: "Rrelu8"
  type: RELU
}
layers {
  bottom: "Rconv8"
  top: "deconv2"
  name: "deconv2"
  type: DECONVOLUTION
  blobs_lr: 1
  blobs_lr: 2
  weight_decay: 1
  weight_decay: 0
  deconvolution_param {
    pad: 2
    kernel_size: 5
    stride: 2
    output_height: 54
    output_width: 54
    output_channels: 64
  }
}
layers {
  bottom: "deconv2"
  top: "deconv2"
  name: "relu_deconv2"
  type: RELU
  relu_param {
    negative_slope: 0.3
  }
}
layers {
  bottom: "deconv2"
  top: "deconv1"
  name: "deconv1"
  type: DECONVOLUTION
  blobs_lr: 1
  blobs_lr: 2
  weight_decay: 1
  weight_decay: 0
  deconvolution_param {
    pad: 2
    kernel_size: 5
    stride: 2
    output_height: 108
    output_width: 108
    output_channels: 32
  }
}
layers {
  bottom: "deconv1"
  top: "deconv1"
  name: "relu_deconv1"
  type: RELU
  relu_param {
    negative_slope: 0.3
  }
}
layers {
  bottom: "deconv1"
  top: "deconv0"
  name: "deconv0"
  type: DECONVOLUTION
  blobs_lr: 1
  blobs_lr: 2
  weight_decay: 1
  weight_decay: 1
  deconvolution_param {
    pad: 2
    kernel_size: 5
    stride: 2
    output_height: 216
    output_width: 216
    output_channels: 3
  }
}
layers {
  bottom: "deconv0"
  bottom: "target_ims"
  name: "loss"
  type: EUCLIDEAN_LOSS
}
I0812 18:24:06.416715  4151 net.cpp:65] Creating Layer source_ims
I0812 18:24:06.416725  4151 net.cpp:189] source_ims -> source_ims
I0812 18:24:06.416843  4151 data_layer.cpp:223] Opening lmdb /scr/r6/tgebru/inverting_conv/caffe_invert_alexnet/data/siggraph/tiny_summer_train_lmdb
I0812 18:24:06.417063  4151 data_layer.cpp:285] output data size: 12,3,227,227
I0812 18:24:06.417070  4151 data_layer.cpp:304] Loading mean file from/scr/r6/tgebru/timnit_caffe/data/ilsvrc12/imagenet_mean.binaryproto
I0812 18:24:06.421617  4151 net.cpp:84] Top shape: 12 3 227 227 (1855044)
I0812 18:24:06.421627  4151 net.cpp:116] source_ims does not need backward computation.
I0812 18:24:06.421634  4151 net.cpp:65] Creating Layer target_ims
I0812 18:24:06.421639  4151 net.cpp:189] target_ims -> target_ims
I0812 18:24:06.421800  4151 data_layer.cpp:223] Opening lmdb /scr/r6/tgebru/inverting_conv/caffe_invert_alexnet/data/siggraph/tiny_summer_train_lmdb
I0812 18:24:06.421926  4151 data_layer.cpp:285] output data size: 12,3,216,216
I0812 18:24:06.421931  4151 data_layer.cpp:304] Loading mean file from/scr/r6/tgebru/timnit_caffe/data/ilsvrc12/imagenet_mean.binaryproto
I0812 18:24:06.426901  4151 net.cpp:84] Top shape: 12 3 216 216 (1679616)
I0812 18:24:06.426910  4151 net.cpp:116] target_ims does not need backward computation.
I0812 18:24:06.426921  4151 net.cpp:65] Creating Layer conv1
I0812 18:24:06.426925  4151 net.cpp:228] conv1 <- source_ims
I0812 18:24:06.427038  4151 net.cpp:189] conv1 -> conv1
I0812 18:24:06.428412  4151 net.cpp:84] Top shape: 12 96 55 55 (3484800)
I0812 18:24:06.428418  4151 net.cpp:116] conv1 does not need backward computation.
I0812 18:24:06.428423  4151 net.cpp:65] Creating Layer relu1
I0812 18:24:06.428426  4151 net.cpp:228] relu1 <- conv1
I0812 18:24:06.428431  4151 net.cpp:179] relu1 -> conv1 (in-place)
I0812 18:24:06.428439  4151 net.cpp:84] Top shape: 12 96 55 55 (3484800)
I0812 18:24:06.428442  4151 net.cpp:116] relu1 does not need backward computation.
I0812 18:24:06.428448  4151 net.cpp:65] Creating Layer pool1
I0812 18:24:06.428450  4151 net.cpp:228] pool1 <- conv1
I0812 18:24:06.428455  4151 net.cpp:189] pool1 -> pool1
I0812 18:24:06.428467  4151 net.cpp:84] Top shape: 12 96 27 27 (839808)
I0812 18:24:06.428472  4151 net.cpp:116] pool1 does not need backward computation.
I0812 18:24:06.428475  4151 net.cpp:65] Creating Layer norm1
I0812 18:24:06.428478  4151 net.cpp:228] norm1 <- pool1
I0812 18:24:06.428481  4151 net.cpp:189] norm1 -> norm1
I0812 18:24:06.428490  4151 net.cpp:84] Top shape: 12 96 27 27 (839808)
I0812 18:24:06.428493  4151 net.cpp:116] norm1 does not need backward computation.
I0812 18:24:06.428498  4151 net.cpp:65] Creating Layer Rconv6
I0812 18:24:06.428500  4151 net.cpp:228] Rconv6 <- norm1
I0812 18:24:06.428504  4151 net.cpp:189] Rconv6 -> Rconv6
I0812 18:24:06.428777  4151 net.cpp:84] Top shape: 12 256 27 27 (2239488)
I0812 18:24:06.428781  4151 net.cpp:111] Rconv6 needs backward computation.
I0812 18:24:06.428786  4151 net.cpp:65] Creating Layer Rrelu6
I0812 18:24:06.428788  4151 net.cpp:228] Rrelu6 <- Rconv6
I0812 18:24:06.428792  4151 net.cpp:179] Rrelu6 -> Rconv6 (in-place)
I0812 18:24:06.428797  4151 net.cpp:84] Top shape: 12 256 27 27 (2239488)
I0812 18:24:06.428800  4151 net.cpp:111] Rrelu6 needs backward computation.
I0812 18:24:06.428805  4151 net.cpp:65] Creating Layer Rconv7
I0812 18:24:06.428808  4151 net.cpp:228] Rconv7 <- Rconv6
I0812 18:24:06.428812  4151 net.cpp:189] Rconv7 -> Rconv7
I0812 18:24:06.429656  4151 net.cpp:84] Top shape: 12 256 27 27 (2239488)
I0812 18:24:06.429661  4151 net.cpp:111] Rconv7 needs backward computation.
I0812 18:24:06.429664  4151 net.cpp:65] Creating Layer Rrelu7
I0812 18:24:06.429666  4151 net.cpp:228] Rrelu7 <- Rconv7
I0812 18:24:06.429699  4151 net.cpp:179] Rrelu7 -> Rconv7 (in-place)
I0812 18:24:06.429704  4151 net.cpp:84] Top shape: 12 256 27 27 (2239488)
I0812 18:24:06.429708  4151 net.cpp:111] Rrelu7 needs backward computation.
I0812 18:24:06.429711  4151 net.cpp:65] Creating Layer Rconv8
I0812 18:24:06.429713  4151 net.cpp:228] Rconv8 <- Rconv7
I0812 18:24:06.429718  4151 net.cpp:189] Rconv8 -> Rconv8
I0812 18:24:06.430507  4151 net.cpp:84] Top shape: 12 256 27 27 (2239488)
I0812 18:24:06.430512  4151 net.cpp:111] Rconv8 needs backward computation.
I0812 18:24:06.430516  4151 net.cpp:65] Creating Layer Rrelu8
I0812 18:24:06.430519  4151 net.cpp:228] Rrelu8 <- Rconv8
I0812 18:24:06.430522  4151 net.cpp:179] Rrelu8 -> Rconv8 (in-place)
I0812 18:24:06.430526  4151 net.cpp:84] Top shape: 12 256 27 27 (2239488)
I0812 18:24:06.430529  4151 net.cpp:111] Rrelu8 needs backward computation.
I0812 18:24:06.430533  4151 net.cpp:65] Creating Layer deconv2
I0812 18:24:06.430536  4151 net.cpp:228] deconv2 <- Rconv8
I0812 18:24:06.430539  4151 net.cpp:189] deconv2 -> deconv2
I0812 18:24:06.431617  4151 net.cpp:84] Top shape: 12 64 54 54 (2239488)
I0812 18:24:06.431622  4151 net.cpp:111] deconv2 needs backward computation.
I0812 18:24:06.431627  4151 net.cpp:65] Creating Layer relu_deconv2
I0812 18:24:06.431630  4151 net.cpp:228] relu_deconv2 <- deconv2
I0812 18:24:06.431633  4151 net.cpp:179] relu_deconv2 -> deconv2 (in-place)
I0812 18:24:06.431638  4151 net.cpp:84] Top shape: 12 64 54 54 (2239488)
I0812 18:24:06.431641  4151 net.cpp:111] relu_deconv2 needs backward computation.
I0812 18:24:06.431645  4151 net.cpp:65] Creating Layer deconv1
I0812 18:24:06.431648  4151 net.cpp:228] deconv1 <- deconv2
I0812 18:24:06.431651  4151 net.cpp:189] deconv1 -> deconv1
I0812 18:24:06.431810  4151 net.cpp:84] Top shape: 12 32 108 108 (4478976)
I0812 18:24:06.431815  4151 net.cpp:111] deconv1 needs backward computation.
I0812 18:24:06.431818  4151 net.cpp:65] Creating Layer relu_deconv1
I0812 18:24:06.431821  4151 net.cpp:228] relu_deconv1 <- deconv1
I0812 18:24:06.431825  4151 net.cpp:179] relu_deconv1 -> deconv1 (in-place)
I0812 18:24:06.431829  4151 net.cpp:84] Top shape: 12 32 108 108 (4478976)
I0812 18:24:06.431833  4151 net.cpp:111] relu_deconv1 needs backward computation.
I0812 18:24:06.431838  4151 net.cpp:65] Creating Layer deconv0
I0812 18:24:06.431839  4151 net.cpp:228] deconv0 <- deconv1
I0812 18:24:06.431843  4151 net.cpp:189] deconv0 -> deconv0
I0812 18:24:06.431866  4151 net.cpp:84] Top shape: 12 3 216 216 (1679616)
I0812 18:24:06.431869  4151 net.cpp:111] deconv0 needs backward computation.
I0812 18:24:06.431874  4151 net.cpp:65] Creating Layer loss
I0812 18:24:06.431875  4151 net.cpp:228] loss <- deconv0
I0812 18:24:06.431879  4151 net.cpp:228] loss <- target_ims
I0812 18:24:06.431887  4151 net.cpp:111] loss needs backward computation.
I0812 18:24:06.431900  4151 net.cpp:238] Collecting Learning Rate and Weight Decay.
…
    source: "/scr/r6/tgebru/inverting_conv/caffe_invert_alexnet/data/siggraph/tiny_summer_val_lmdb"
    mean_file: "/scr/r6/tgebru/timnit_caffe/data/ilsvrc12/imagenet_mean.binaryproto"
    batch_size: 2
    crop_size: 227
    mirror: false
    backend: LMDB
  }
}
layers {
  top: "target_ims"
  name: "target_ims"
  type: DATA
  data_param {
    source: "/scr/r6/tgebru/inverting_conv/caffe_invert_alexnet/data/siggraph/tiny_summer_val_lmdb"
    mean_file: "/scr/r6/tgebru/timnit_caffe/data/ilsvrc12/imagenet_mean.binaryproto"
    batch_size: 2
    crop_size: 216
    mirror: false
    backend: LMDB
  }
}
layers {
  bottom: "source_ims"
  top: "conv1"
  name: "conv1"
  type: CONVOLUTION
  blobs_lr: 0
  blobs_lr: 0
  weight_decay: 1
  weight_decay: 0
  convolution_param {
    num_output: 96
    kernel_size: 11
    stride: 4
    weight_filler {
      type: "gaussian"
      std: 0.01
    }
    bias_filler {
      type: "constant"
      value: 0
    }
  }
}
layers {
  bottom: "conv1"
  top: "conv1"
  name: "relu1"
  type: RELU
}
layers {
  bottom: "conv1"
  top: "pool1"
  name: "pool1"
  type: POOLING
  pooling_param {
    pool: MAX
    kernel_size: 3
    stride: 2
  }
}
layers {
  bottom: "pool1"
  top: "norm1"
  name: "norm1"
  type: LRN
  lrn_param {
    local_size: 5
    alpha: 0.0001
    beta: 0.75
  }
}
layers {
  bottom: "norm1"
  top: "Rconv6"
  name: "Rconv6"
  type: CONVOLUTION
  blobs_lr: 0
  blobs_lr: 0
  weight_decay: 1
  weight_decay: 0
  convolution_param {
    num_output: 256
    pad: 1
    kernel_size: 3
  }
}
layers {
  bottom: "Rconv6"
  top: "Rconv6"
  name: "Rrelu6"
  type: RELU
}
layers {
  bottom: "Rconv6"
  top: "Rconv7"
  name: "Rconv7"
  type: CONVOLUTION
  blobs_lr: 0
  blobs_lr: 0
  weight_decay: 1
  weight_decay: 0
  convolution_param {
    num_output: 256
    pad: 1
    kernel_size: 3
    group: 2
  }
}
layers {
  bottom: "Rconv7"
  top: "Rconv7"
  name: "Rrelu7"
  type: RELU
}
layers {
  bottom: "Rconv7"
  top: "Rconv8"
  name: "Rconv8"
  type: CONVOLUTION
  blobs_lr: 0
  blobs_lr: 0
  weight_decay: 1
  weight_decay: 0
  convolution_param {
    num_output: 256
    pad: 1
    kernel_size: 3
    group: 2
  }
}
layers {
  bottom: "Rconv8"
  top: "Rconv8"
  name: "Rrelu8"
  type: RELU
}
layers {
  bottom: "Rconv8"
  top: "deconv2"
  name: "deconv2"
  type: DECONVOLUTION
  blobs_lr: 0
  blobs_lr: 0
  weight_decay: 1
  weight_decay: 0
  deconvolution_param {
    pad: 2
    kernel_size: 5
    stride: 2
    output_height: 54
    output_width: 54
    output_channels: 64
  }
}
layers {
  bottom: "deconv2"
  top: "deconv2"
  name: "relu_deconv2"
  type: RELU
  relu_param {
    negative_slope: 0.3
  }
}
layers {
  bottom: "deconv2"
  top: "deconv1"
  name: "deconv1"
  type: DECONVOLUTION
  blobs_lr: 0
  blobs_lr: 0
  weight_decay: 1
  weight_decay: 0
  deconvolution_param {
    pad: 2
    kernel_size: 5
    stride: 2
    output_height: 108
    output_width: 108
    output_channels: 32
  }
}
layers {
  bottom: "deconv1"
  top: "deconv1"
  name: "relu_deconv1"
  type: RELU
  relu_param {
    negative_slope: 0.3
  }
}
layers {
  bottom: "deconv1"
  top: "deconv0"
  name: "deconv0"
  type: DECONVOLUTION
  blobs_lr: 0
  blobs_lr: 0
  weight_decay: 1
  weight_decay: 0
  deconvolution_param {
    pad: 2
    kernel_size: 5
    stride: 2
    output_height: 216
    output_width: 216
    output_channels: 3
  }
}
layers {
  bottom: "deconv0"
  bottom: "target_ims"
  name: "loss"
  type: EUCLIDEAN_LOSS
}
I0812 18:24:06.432621  4151 net.cpp:65] Creating Layer source_ims
I0812 18:24:06.432626  4151 net.cpp:189] source_ims -> source_ims
I0812 18:24:06.432683  4151 data_layer.cpp:223] Opening lmdb /scr/r6/tgebru/inverting_conv/caffe_invert_alexnet/data/siggraph/tiny_summer_val_lmdb
I0812 18:24:06.432868  4151 data_layer.cpp:285] output data size: 2,3,227,227
I0812 18:24:06.432871  4151 data_layer.cpp:304] Loading mean file from/scr/r6/tgebru/timnit_caffe/data/ilsvrc12/imagenet_mean.binaryproto
I0812 18:24:06.435192  4151 net.cpp:84] Top shape: 2 3 227 227 (309174)
I0812 18:24:06.435199  4151 net.cpp:116] source_ims does not need backward computation.
I0812 18:24:06.435205  4151 net.cpp:65] Creating Layer target_ims
I0812 18:24:06.435209  4151 net.cpp:189] target_ims -> target_ims
I0812 18:24:06.435256  4151 data_layer.cpp:223] Opening lmdb /scr/r6/tgebru/inverting_conv/caffe_invert_alexnet/data/siggraph/tiny_summer_val_lmdb
I0812 18:24:06.435335  4151 data_layer.cpp:285] output data size: 2,3,216,216
I0812 18:24:06.435339  4151 data_layer.cpp:304] Loading mean file from/scr/r6/tgebru/timnit_caffe/data/ilsvrc12/imagenet_mean.binaryproto
I0812 18:24:06.437532  4151 net.cpp:84] Top shape: 2 3 216 216 (279936)
I0812 18:24:06.437539  4151 net.cpp:116] target_ims does not need backward computation.
I0812 18:24:06.437561  4151 net.cpp:65] Creating Layer conv1
I0812 18:24:06.437564  4151 net.cpp:228] conv1 <- source_ims
I0812 18:24:06.437569  4151 net.cpp:189] conv1 -> conv1
I0812 18:24:06.438809  4151 net.cpp:84] Top shape: 2 96 55 55 (580800)
I0812 18:24:06.438813  4151 net.cpp:116] conv1 does not need backward computation.
I0812 18:24:06.438817  4151 net.cpp:65] Creating Layer relu1
I0812 18:24:06.438820  4151 net.cpp:228] relu1 <- conv1
I0812 18:24:06.438824  4151 net.cpp:179] relu1 -> conv1 (in-place)
I0812 18:24:06.438830  4151 net.cpp:84] Top shape: 2 96 55 55 (580800)
I0812 18:24:06.438832  4151 net.cpp:116] relu1 does not need backward computation.
I0812 18:24:06.438838  4151 net.cpp:65] Creating Layer pool1
I0812 18:24:06.438839  4151 net.cpp:228] pool1 <- conv1
I0812 18:24:06.438843  4151 net.cpp:189] pool1 -> pool1
I0812 18:24:06.438850  4151 net.cpp:84] Top shape: 2 96 27 27 (139968)
I0812 18:24:06.438853  4151 net.cpp:116] pool1 does not need backward computation.
I0812 18:24:06.438858  4151 net.cpp:65] Creating Layer norm1
I0812 18:24:06.438860  4151 net.cpp:228] norm1 <- pool1
I0812 18:24:06.438863  4151 net.cpp:189] norm1 -> norm1
I0812 18:24:06.438870  4151 net.cpp:84] Top shape: 2 96 27 27 (139968)
I0812 18:24:06.438874  4151 net.cpp:116] norm1 does not need backward computation.
I0812 18:24:06.438876  4151 net.cpp:65] Creating Layer Rconv6
I0812 18:24:06.438879  4151 net.cpp:228] Rconv6 <- norm1
I0812 18:24:06.438884  4151 net.cpp:189] Rconv6 -> Rconv6
I0812 18:24:06.439427  4151 net.cpp:84] Top shape: 2 256 27 27 (373248)
I0812 18:24:06.439432  4151 net.cpp:116] Rconv6 does not need backward computation.
I0812 18:24:06.439436  4151 net.cpp:65] Creating Layer Rrelu6
I0812 18:24:06.439440  4151 net.cpp:228] Rrelu6 <- Rconv6
I0812 18:24:06.439443  4151 net.cpp:179] Rrelu6 -> Rconv6 (in-place)
I0812 18:24:06.439447  4151 net.cpp:84] Top shape: 2 256 27 27 (373248)
I0812 18:24:06.439450  4151 net.cpp:116] Rrelu6 does not need backward computation.
I0812 18:24:06.439455  4151 net.cpp:65] Creating Layer Rconv7
I0812 18:24:06.439457  4151 net.cpp:228] Rconv7 <- Rconv6
I0812 18:24:06.439461  4151 net.cpp:189] Rconv7 -> Rconv7
I0812 18:24:06.440179  4151 net.cpp:84] Top shape: 2 256 27 27 (373248)
I0812 18:24:06.440184  4151 net.cpp:116] Rconv7 does not need backward computation.
I0812 18:24:06.440187  4151 net.cpp:65] Creating Layer Rrelu7
I0812 18:24:06.440191  4151 net.cpp:228] Rrelu7 <- Rconv7
I0812 18:24:06.440194  4151 net.cpp:179] Rrelu7 -> Rconv7 (in-place)
I0812 18:24:06.440198  4151 net.cpp:84] Top shape: 2 256 27 27 (373248)
I0812 18:24:06.440201  4151 net.cpp:116] Rrelu7 does not need backward computation.
I0812 18:24:06.440206  4151 net.cpp:65] Creating Layer Rconv8
I0812 18:24:06.440207  4151 net.cpp:228] Rconv8 <- Rconv7
I0812 18:24:06.440212  4151 net.cpp:189] Rconv8 -> Rconv8
I0812 18:24:06.440929  4151 net.cpp:84] Top shape: 2 256 27 27 (373248)
I0812 18:24:06.440933  4151 net.cpp:116] Rconv8 does not need backward computation.
I0812 18:24:06.440937  4151 net.cpp:65] Creating Layer Rrelu8
I0812 18:24:06.440940  4151 net.cpp:228] Rrelu8 <- Rconv8
I0812 18:24:06.440943  4151 net.cpp:179] Rrelu8 -> Rconv8 (in-place)
I0812 18:24:06.440948  4151 net.cpp:84] Top shape: 2 256 27 27 (373248)
I0812 18:24:06.440950  4151 net.cpp:116] Rrelu8 does not need backward computation.
I0812 18:24:06.440954  4151 net.cpp:65] Creating Layer deconv2
I0812 18:24:06.440956  4151 net.cpp:228] deconv2 <- Rconv8
I0812 18:24:06.440960  4151 net.cpp:189] deconv2 -> deconv2
I0812 18:24:06.442028  4151 net.cpp:84] Top shape: 2 64 54 54 (373248)
I0812 18:24:06.442033  4151 net.cpp:116] deconv2 does not need backward computation.
I0812 18:24:06.442036  4151 net.cpp:65] Creating Layer relu_deconv2
I0812 18:24:06.442039  4151 net.cpp:228] relu_deconv2 <- deconv2
I0812 18:24:06.442044  4151 net.cpp:179] relu_deconv2 -> deconv2 (in-place)
I0812 18:24:06.442047  4151 net.cpp:84] Top shape: 2 64 54 54 (373248)
I0812 18:24:06.442050  4151 net.cpp:116] relu_deconv2 does not need backward computation.
I0812 18:24:06.442066  4151 net.cpp:65] Creating Layer deconv1
I0812 18:24:06.442070  4151 net.cpp:228] deconv1 <- deconv2
I0812 18:24:06.442073  4151 net.cpp:189] deconv1 -> deconv1
I0812 18:24:06.442209  4151 net.cpp:84] Top shape: 2 32 108 108 (746496)
I0812 18:24:06.442212  4151 net.cpp:116] deconv1 does not need backward computation.
I0812 18:24:06.442216  4151 net.cpp:65] Creating Layer relu_deconv1
I0812 18:24:06.442219  4151 net.cpp:228] relu_deconv1 <- deconv1
I0812 18:24:06.442222  4151 net.cpp:179] relu_deconv1 -> deconv1 (in-place)
I0812 18:24:06.442227  4151 net.cpp:84] Top shape: 2 32 108 108 (746496)
I0812 18:24:06.442229  4151 net.cpp:116] relu_deconv1 does not need backward computation.
I0812 18:24:06.442235  4151 net.cpp:65] Creating Layer deconv0
I0812 18:24:06.442237  4151 net.cpp:228] deconv0 <- deconv1
I0812 18:24:06.442241  4151 net.cpp:189] deconv0 -> deconv0
I0812 18:24:06.442260  4151 net.cpp:84] Top shape: 2 3 216 216 (279936)
I0812 18:24:06.442263  4151 net.cpp:116] deconv0 does not need backward computation.
I0812 18:24:06.442266  4151 net.cpp:65] Creating Layer loss
I0812 18:24:06.442270  4151 net.cpp:228] loss <- deconv0
I0812 18:24:06.442272  4151 net.cpp:228] loss <- target_ims
I0812 18:24:06.442277  4151 net.cpp:116] loss does not need backward computation.
I0812 18:24:06.442289  4151 net.cpp:238] Collecting Learning Rate and Weight Decay.
…
