…
    source: "/scr/r6/tgebru/inverting_conv/caffe_invert_alexnet/data/siggraph/tiny_winter_train_lmdb"
    mean_file: "/scr/r6/tgebru/timnit_caffe/data/ilsvrc12/imagenet_mean.binaryproto"
    batch_size: 12
    crop_size: 227
    mirror: false
    backend: LMDB
  }
}
layers {
  top: "target_ims"
  name: "target_ims"
  type: DATA
  data_param {
    source: "/scr/r6/tgebru/inverting_conv/caffe_invert_alexnet/data/siggraph/tiny_summer_train_lmdb"
    mean_file: "/scr/r6/tgebru/timnit_caffe/data/ilsvrc12/imagenet_mean.binaryproto"
    batch_size: 12
    crop_size: 216
    mirror: false
    backend: LMDB
  }
}
layers {
  bottom: "source_ims"
  top: "conv1"
  name: "conv1"
  type: CONVOLUTION
  blobs_lr: 0
  blobs_lr: 0
  weight_decay: 1
  weight_decay: 0
  convolution_param {
    num_output: 96
    kernel_size: 11
    stride: 4
    weight_filler {
      type: "gaussian"
      std: 0.01
    }
    bias_filler {
      type: "constant"
      value: 0
    }
  }
}
layers {
  bottom: "conv1"
  top: "conv1"
  name: "relu1"
  type: RELU
}
layers {
  bottom: "conv1"
  top: "pool1"
  name: "pool1"
  type: POOLING
  pooling_param {
    pool: MAX
    kernel_size: 3
    stride: 2
  }
}
layers {
  bottom: "pool1"
  top: "norm1"
  name: "norm1"
  type: LRN
  lrn_param {
    local_size: 5
    alpha: 0.0001
    beta: 0.75
  }
}
layers {
  bottom: "norm1"
  top: "Rconv6"
  name: "Rconv6"
  type: CONVOLUTION
  blobs_lr: 1
  blobs_lr: 2
  weight_decay: 1
  weight_decay: 0
  convolution_param {
    num_output: 256
    pad: 1
    kernel_size: 3
  }
}
layers {
  bottom: "Rconv6"
  top: "Rconv6"
  name: "Rrelu6"
  type: RELU
}
layers {
  bottom: "Rconv6"
  top: "Rconv7"
  name: "Rconv7"
  type: CONVOLUTION
  blobs_lr: 1
  blobs_lr: 2
  weight_decay: 1
  weight_decay: 0
  convolution_param {
    num_output: 256
    pad: 1
    kernel_size: 3
    group: 2
  }
}
layers {
  bottom: "Rconv7"
  top: "Rconv7"
  name: "Rrelu7"
  type: RELU
}
layers {
  bottom: "Rconv7"
  top: "Rconv8"
  name: "Rconv8"
  type: CONVOLUTION
  blobs_lr: 1
  blobs_lr: 2
  weight_decay: 1
  weight_decay: 0
  convolution_param {
    num_output: 256
    pad: 1
    kernel_size: 3
    group: 2
  }
}
layers {
  bottom: "Rconv8"
  top: "Rconv8"
  name: "Rrelu8"
  type: RELU
}
layers {
  bottom: "Rconv8"
  top: "deconv2"
  name: "deconv2"
  type: DECONVOLUTION
  blobs_lr: 1
  blobs_lr: 2
  weight_decay: 1
  weight_decay: 0
  deconvolution_param {
    pad: 2
    kernel_size: 5
    stride: 2
    output_height: 54
    output_width: 54
    output_channels: 64
  }
}
layers {
  bottom: "deconv2"
  top: "deconv2"
  name: "relu_deconv2"
  type: RELU
  relu_param {
    negative_slope: 0.3
  }
}
layers {
  bottom: "deconv2"
  top: "deconv1"
  name: "deconv1"
  type: DECONVOLUTION
  blobs_lr: 1
  blobs_lr: 2
  weight_decay: 1
  weight_decay: 0
  deconvolution_param {
    pad: 2
    kernel_size: 5
    stride: 2
    output_height: 108
    output_width: 108
    output_channels: 32
  }
}
layers {
  bottom: "deconv1"
  top: "deconv1"
  name: "relu_deconv1"
  type: RELU
  relu_param {
    negative_slope: 0.3
  }
}
layers {
  bottom: "deconv1"
  top: "deconv0"
  name: "deconv0"
  type: DECONVOLUTION
  blobs_lr: 1
  blobs_lr: 2
  weight_decay: 1
  weight_decay: 1
  deconvolution_param {
    pad: 2
    kernel_size: 5
    stride: 2
    output_height: 216
    output_width: 216
    output_channels: 3
  }
}
layers {
  bottom: "deconv0"
  bottom: "target_ims"
  name: "loss"
  type: EUCLIDEAN_LOSS
}
I0812 15:55:57.454844 16849 net.cpp:65] Creating Layer source_ims
I0812 15:55:57.454852 16849 net.cpp:189] source_ims -> source_ims
I0812 15:55:57.454955 16849 data_layer.cpp:223] Opening lmdb /scr/r6/tgebru/inverting_conv/caffe_invert_alexnet/data/siggraph/tiny_winter_train_lmdb
I0812 15:55:57.455175 16849 data_layer.cpp:285] output data size: 12,3,227,227
I0812 15:55:57.455183 16849 data_layer.cpp:304] Loading mean file from/scr/r6/tgebru/timnit_caffe/data/ilsvrc12/imagenet_mean.binaryproto
I0812 15:55:57.459933 16849 net.cpp:84] Top shape: 12 3 227 227 (1855044)
I0812 15:55:57.459941 16849 net.cpp:116] source_ims does not need backward computation.
I0812 15:55:57.459947 16849 net.cpp:65] Creating Layer target_ims
I0812 15:55:57.459951 16849 net.cpp:189] target_ims -> target_ims
I0812 15:55:57.460042 16849 data_layer.cpp:223] Opening lmdb /scr/r6/tgebru/inverting_conv/caffe_invert_alexnet/data/siggraph/tiny_summer_train_lmdb
I0812 15:55:57.460172 16849 data_layer.cpp:285] output data size: 12,3,216,216
I0812 15:55:57.460176 16849 data_layer.cpp:304] Loading mean file from/scr/r6/tgebru/timnit_caffe/data/ilsvrc12/imagenet_mean.binaryproto
I0812 15:55:57.464444 16849 net.cpp:84] Top shape: 12 3 216 216 (1679616)
I0812 15:55:57.464452 16849 net.cpp:116] target_ims does not need backward computation.
I0812 15:55:57.464459 16849 net.cpp:65] Creating Layer conv1
I0812 15:55:57.464462 16849 net.cpp:228] conv1 <- source_ims
I0812 15:55:57.464498 16849 net.cpp:189] conv1 -> conv1
I0812 15:55:57.465781 16849 net.cpp:84] Top shape: 12 96 55 55 (3484800)
I0812 15:55:57.465786 16849 net.cpp:116] conv1 does not need backward computation.
I0812 15:55:57.465791 16849 net.cpp:65] Creating Layer relu1
I0812 15:55:57.465795 16849 net.cpp:228] relu1 <- conv1
I0812 15:55:57.465800 16849 net.cpp:179] relu1 -> conv1 (in-place)
I0812 15:55:57.465807 16849 net.cpp:84] Top shape: 12 96 55 55 (3484800)
I0812 15:55:57.465811 16849 net.cpp:116] relu1 does not need backward computation.
I0812 15:55:57.465816 16849 net.cpp:65] Creating Layer pool1
I0812 15:55:57.465819 16849 net.cpp:228] pool1 <- conv1
I0812 15:55:57.465823 16849 net.cpp:189] pool1 -> pool1
I0812 15:55:57.465836 16849 net.cpp:84] Top shape: 12 96 27 27 (839808)
I0812 15:55:57.465838 16849 net.cpp:116] pool1 does not need backward computation.
I0812 15:55:57.465844 16849 net.cpp:65] Creating Layer norm1
I0812 15:55:57.465847 16849 net.cpp:228] norm1 <- pool1
I0812 15:55:57.465850 16849 net.cpp:189] norm1 -> norm1
I0812 15:55:57.465859 16849 net.cpp:84] Top shape: 12 96 27 27 (839808)
I0812 15:55:57.465862 16849 net.cpp:116] norm1 does not need backward computation.
I0812 15:55:57.465867 16849 net.cpp:65] Creating Layer Rconv6
I0812 15:55:57.465869 16849 net.cpp:228] Rconv6 <- norm1
I0812 15:55:57.465873 16849 net.cpp:189] Rconv6 -> Rconv6
I0812 15:55:57.466047 16849 net.cpp:84] Top shape: 12 256 27 27 (2239488)
I0812 15:55:57.466050 16849 net.cpp:111] Rconv6 needs backward computation.
I0812 15:55:57.466054 16849 net.cpp:65] Creating Layer Rrelu6
I0812 15:55:57.466058 16849 net.cpp:228] Rrelu6 <- Rconv6
I0812 15:55:57.466061 16849 net.cpp:179] Rrelu6 -> Rconv6 (in-place)
I0812 15:55:57.466066 16849 net.cpp:84] Top shape: 12 256 27 27 (2239488)
I0812 15:55:57.466069 16849 net.cpp:111] Rrelu6 needs backward computation.
I0812 15:55:57.466074 16849 net.cpp:65] Creating Layer Rconv7
I0812 15:55:57.466078 16849 net.cpp:228] Rconv7 <- Rconv6
I0812 15:55:57.466080 16849 net.cpp:189] Rconv7 -> Rconv7
I0812 15:55:57.466778 16849 net.cpp:84] Top shape: 12 256 27 27 (2239488)
I0812 15:55:57.466784 16849 net.cpp:111] Rconv7 needs backward computation.
I0812 15:55:57.466788 16849 net.cpp:65] Creating Layer Rrelu7
I0812 15:55:57.466809 16849 net.cpp:228] Rrelu7 <- Rconv7
I0812 15:55:57.466814 16849 net.cpp:179] Rrelu7 -> Rconv7 (in-place)
I0812 15:55:57.466820 16849 net.cpp:84] Top shape: 12 256 27 27 (2239488)
I0812 15:55:57.466821 16849 net.cpp:111] Rrelu7 needs backward computation.
I0812 15:55:57.466825 16849 net.cpp:65] Creating Layer Rconv8
I0812 15:55:57.466828 16849 net.cpp:228] Rconv8 <- Rconv7
I0812 15:55:57.466832 16849 net.cpp:189] Rconv8 -> Rconv8
I0812 15:55:57.467630 16849 net.cpp:84] Top shape: 12 256 27 27 (2239488)
I0812 15:55:57.467635 16849 net.cpp:111] Rconv8 needs backward computation.
I0812 15:55:57.467640 16849 net.cpp:65] Creating Layer Rrelu8
I0812 15:55:57.467643 16849 net.cpp:228] Rrelu8 <- Rconv8
I0812 15:55:57.467646 16849 net.cpp:179] Rrelu8 -> Rconv8 (in-place)
I0812 15:55:57.467651 16849 net.cpp:84] Top shape: 12 256 27 27 (2239488)
I0812 15:55:57.467654 16849 net.cpp:111] Rrelu8 needs backward computation.
I0812 15:55:57.467658 16849 net.cpp:65] Creating Layer deconv2
I0812 15:55:57.467660 16849 net.cpp:228] deconv2 <- Rconv8
I0812 15:55:57.467664 16849 net.cpp:189] deconv2 -> deconv2
I0812 15:55:57.468766 16849 net.cpp:84] Top shape: 12 64 54 54 (2239488)
I0812 15:55:57.468771 16849 net.cpp:111] deconv2 needs backward computation.
I0812 15:55:57.468776 16849 net.cpp:65] Creating Layer relu_deconv2
I0812 15:55:57.468780 16849 net.cpp:228] relu_deconv2 <- deconv2
I0812 15:55:57.468783 16849 net.cpp:179] relu_deconv2 -> deconv2 (in-place)
I0812 15:55:57.468788 16849 net.cpp:84] Top shape: 12 64 54 54 (2239488)
I0812 15:55:57.468791 16849 net.cpp:111] relu_deconv2 needs backward computation.
I0812 15:55:57.468796 16849 net.cpp:65] Creating Layer deconv1
I0812 15:55:57.468797 16849 net.cpp:228] deconv1 <- deconv2
I0812 15:55:57.468801 16849 net.cpp:189] deconv1 -> deconv1
I0812 15:55:57.468948 16849 net.cpp:84] Top shape: 12 32 108 108 (4478976)
I0812 15:55:57.468952 16849 net.cpp:111] deconv1 needs backward computation.
I0812 15:55:57.468956 16849 net.cpp:65] Creating Layer relu_deconv1
I0812 15:55:57.468960 16849 net.cpp:228] relu_deconv1 <- deconv1
I0812 15:55:57.468963 16849 net.cpp:179] relu_deconv1 -> deconv1 (in-place)
I0812 15:55:57.468967 16849 net.cpp:84] Top shape: 12 32 108 108 (4478976)
I0812 15:55:57.468971 16849 net.cpp:111] relu_deconv1 needs backward computation.
I0812 15:55:57.468976 16849 net.cpp:65] Creating Layer deconv0
I0812 15:55:57.468978 16849 net.cpp:228] deconv0 <- deconv1
I0812 15:55:57.468982 16849 net.cpp:189] deconv0 -> deconv0
I0812 15:55:57.469027 16849 net.cpp:84] Top shape: 12 3 216 216 (1679616)
I0812 15:55:57.469030 16849 net.cpp:111] deconv0 needs backward computation.
I0812 15:55:57.469033 16849 net.cpp:65] Creating Layer loss
I0812 15:55:57.469036 16849 net.cpp:228] loss <- deconv0
I0812 15:55:57.469039 16849 net.cpp:228] loss <- target_ims
I0812 15:55:57.469048 16849 net.cpp:111] loss needs backward computation.
I0812 15:55:57.469060 16849 net.cpp:238] Collecting Learning Rate and Weight Decay.
…
    source: "/scr/r6/tgebru/inverting_conv/caffe_invert_alexnet/data/siggraph/tiny_winter_val_lmdb"
    mean_file: "/scr/r6/tgebru/timnit_caffe/data/ilsvrc12/imagenet_mean.binaryproto"
    batch_size: 2
    crop_size: 227
    mirror: false
    backend: LMDB
  }
}
layers {
  top: "target_ims"
  name: "target_ims"
  type: DATA
  data_param {
    source: "/scr/r6/tgebru/inverting_conv/caffe_invert_alexnet/data/siggraph/tiny_summer_val_lmdb"
    mean_file: "/scr/r6/tgebru/timnit_caffe/data/ilsvrc12/imagenet_mean.binaryproto"
    batch_size: 2
    crop_size: 216
    mirror: false
    backend: LMDB
  }
}
layers {
  bottom: "source_ims"
  top: "conv1"
  name: "conv1"
  type: CONVOLUTION
  blobs_lr: 0
  blobs_lr: 0
  weight_decay: 1
  weight_decay: 0
  convolution_param {
    num_output: 96
    kernel_size: 11
    stride: 4
    weight_filler {
      type: "gaussian"
      std: 0.01
    }
    bias_filler {
      type: "constant"
      value: 0
    }
  }
}
layers {
  bottom: "conv1"
  top: "conv1"
  name: "relu1"
  type: RELU
}
layers {
  bottom: "conv1"
  top: "pool1"
  name: "pool1"
  type: POOLING
  pooling_param {
    pool: MAX
    kernel_size: 3
    stride: 2
  }
}
layers {
  bottom: "pool1"
  top: "norm1"
  name: "norm1"
  type: LRN
  lrn_param {
    local_size: 5
    alpha: 0.0001
    beta: 0.75
  }
}
layers {
  bottom: "norm1"
  top: "Rconv6"
  name: "Rconv6"
  type: CONVOLUTION
  blobs_lr: 0
  blobs_lr: 0
  weight_decay: 1
  weight_decay: 0
  convolution_param {
    num_output: 256
    pad: 1
    kernel_size: 3
  }
}
layers {
  bottom: "Rconv6"
  top: "Rconv6"
  name: "Rrelu6"
  type: RELU
}
layers {
  bottom: "Rconv6"
  top: "Rconv7"
  name: "Rconv7"
  type: CONVOLUTION
  blobs_lr: 0
  blobs_lr: 0
  weight_decay: 1
  weight_decay: 0
  convolution_param {
    num_output: 256
    pad: 1
    kernel_size: 3
    group: 2
  }
}
layers {
  bottom: "Rconv7"
  top: "Rconv7"
  name: "Rrelu7"
  type: RELU
}
layers {
  bottom: "Rconv7"
  top: "Rconv8"
  name: "Rconv8"
  type: CONVOLUTION
  blobs_lr: 0
  blobs_lr: 0
  weight_decay: 1
  weight_decay: 0
  convolution_param {
    num_output: 256
    pad: 1
    kernel_size: 3
    group: 2
  }
}
layers {
  bottom: "Rconv8"
  top: "Rconv8"
  name: "Rrelu8"
  type: RELU
}
layers {
  bottom: "Rconv8"
  top: "deconv2"
  name: "deconv2"
  type: DECONVOLUTION
  blobs_lr: 0
  blobs_lr: 0
  weight_decay: 1
  weight_decay: 0
  deconvolution_param {
    pad: 2
    kernel_size: 5
    stride: 2
    output_height: 54
    output_width: 54
    output_channels: 64
  }
}
layers {
  bottom: "deconv2"
  top: "deconv2"
  name: "relu_deconv2"
  type: RELU
  relu_param {
    negative_slope: 0.3
  }
}
layers {
  bottom: "deconv2"
  top: "deconv1"
  name: "deconv1"
  type: DECONVOLUTION
  blobs_lr: 0
  blobs_lr: 0
  weight_decay: 1
  weight_decay: 0
  deconvolution_param {
    pad: 2
    kernel_size: 5
    stride: 2
    output_height: 108
    output_width: 108
    output_channels: 32
  }
}
layers {
  bottom: "deconv1"
  top: "deconv1"
  name: "relu_deconv1"
  type: RELU
  relu_param {
    negative_slope: 0.3
  }
}
layers {
  bottom: "deconv1"
  top: "deconv0"
  name: "deconv0"
  type: DECONVOLUTION
  blobs_lr: 0
  blobs_lr: 0
  weight_decay: 1
  weight_decay: 0
  deconvolution_param {
    pad: 2
    kernel_size: 5
    stride: 2
    output_height: 216
    output_width: 216
    output_channels: 3
  }
}
layers {
  bottom: "deconv0"
  bottom: "target_ims"
  name: "loss"
  type: EUCLIDEAN_LOSS
}
I0812 15:55:57.469806 16849 net.cpp:65] Creating Layer source_ims
I0812 15:55:57.469811 16849 net.cpp:189] source_ims -> source_ims
I0812 15:55:57.469862 16849 data_layer.cpp:223] Opening lmdb /scr/r6/tgebru/inverting_conv/caffe_invert_alexnet/data/siggraph/tiny_winter_val_lmdb
I0812 15:55:57.470044 16849 data_layer.cpp:285] output data size: 2,3,227,227
I0812 15:55:57.470048 16849 data_layer.cpp:304] Loading mean file from/scr/r6/tgebru/timnit_caffe/data/ilsvrc12/imagenet_mean.binaryproto
I0812 15:55:57.472406 16849 net.cpp:84] Top shape: 2 3 227 227 (309174)
I0812 15:55:57.472414 16849 net.cpp:116] source_ims does not need backward computation.
I0812 15:55:57.472420 16849 net.cpp:65] Creating Layer target_ims
I0812 15:55:57.472424 16849 net.cpp:189] target_ims -> target_ims
I0812 15:55:57.472468 16849 data_layer.cpp:223] Opening lmdb /scr/r6/tgebru/inverting_conv/caffe_invert_alexnet/data/siggraph/tiny_summer_val_lmdb
I0812 15:55:57.472684 16849 data_layer.cpp:285] output data size: 2,3,216,216
I0812 15:55:57.472688 16849 data_layer.cpp:304] Loading mean file from/scr/r6/tgebru/timnit_caffe/data/ilsvrc12/imagenet_mean.binaryproto
I0812 15:55:57.474951 16849 net.cpp:84] Top shape: 2 3 216 216 (279936)
I0812 15:55:57.474957 16849 net.cpp:116] target_ims does not need backward computation.
I0812 15:55:57.474977 16849 net.cpp:65] Creating Layer conv1
I0812 15:55:57.474980 16849 net.cpp:228] conv1 <- source_ims
I0812 15:55:57.474987 16849 net.cpp:189] conv1 -> conv1
I0812 15:55:57.476229 16849 net.cpp:84] Top shape: 2 96 55 55 (580800)
I0812 15:55:57.476233 16849 net.cpp:116] conv1 does not need backward computation.
I0812 15:55:57.476238 16849 net.cpp:65] Creating Layer relu1
I0812 15:55:57.476240 16849 net.cpp:228] relu1 <- conv1
I0812 15:55:57.476244 16849 net.cpp:179] relu1 -> conv1 (in-place)
I0812 15:55:57.476249 16849 net.cpp:84] Top shape: 2 96 55 55 (580800)
I0812 15:55:57.476253 16849 net.cpp:116] relu1 does not need backward computation.
I0812 15:55:57.476258 16849 net.cpp:65] Creating Layer pool1
I0812 15:55:57.476259 16849 net.cpp:228] pool1 <- conv1
I0812 15:55:57.476263 16849 net.cpp:189] pool1 -> pool1
I0812 15:55:57.476269 16849 net.cpp:84] Top shape: 2 96 27 27 (139968)
I0812 15:55:57.476272 16849 net.cpp:116] pool1 does not need backward computation.
I0812 15:55:57.476276 16849 net.cpp:65] Creating Layer norm1
I0812 15:55:57.476279 16849 net.cpp:228] norm1 <- pool1
I0812 15:55:57.476282 16849 net.cpp:189] norm1 -> norm1
I0812 15:55:57.476289 16849 net.cpp:84] Top shape: 2 96 27 27 (139968)
I0812 15:55:57.476291 16849 net.cpp:116] norm1 does not need backward computation.
I0812 15:55:57.476295 16849 net.cpp:65] Creating Layer Rconv6
I0812 15:55:57.476297 16849 net.cpp:228] Rconv6 <- norm1
I0812 15:55:57.476301 16849 net.cpp:189] Rconv6 -> Rconv6
I0812 15:55:57.476888 16849 net.cpp:84] Top shape: 2 256 27 27 (373248)
I0812 15:55:57.476893 16849 net.cpp:116] Rconv6 does not need backward computation.
I0812 15:55:57.476897 16849 net.cpp:65] Creating Layer Rrelu6
I0812 15:55:57.476900 16849 net.cpp:228] Rrelu6 <- Rconv6
I0812 15:55:57.476904 16849 net.cpp:179] Rrelu6 -> Rconv6 (in-place)
I0812 15:55:57.476909 16849 net.cpp:84] Top shape: 2 256 27 27 (373248)
I0812 15:55:57.476912 16849 net.cpp:116] Rrelu6 does not need backward computation.
I0812 15:55:57.476917 16849 net.cpp:65] Creating Layer Rconv7
I0812 15:55:57.476919 16849 net.cpp:228] Rconv7 <- Rconv6
I0812 15:55:57.476923 16849 net.cpp:189] Rconv7 -> Rconv7
I0812 15:55:57.477744 16849 net.cpp:84] Top shape: 2 256 27 27 (373248)
I0812 15:55:57.477749 16849 net.cpp:116] Rconv7 does not need backward computation.
I0812 15:55:57.477753 16849 net.cpp:65] Creating Layer Rrelu7
I0812 15:55:57.477756 16849 net.cpp:228] Rrelu7 <- Rconv7
I0812 15:55:57.477761 16849 net.cpp:179] Rrelu7 -> Rconv7 (in-place)
I0812 15:55:57.477764 16849 net.cpp:84] Top shape: 2 256 27 27 (373248)
I0812 15:55:57.477767 16849 net.cpp:116] Rrelu7 does not need backward computation.
I0812 15:55:57.477771 16849 net.cpp:65] Creating Layer Rconv8
I0812 15:55:57.477773 16849 net.cpp:228] Rconv8 <- Rconv7
I0812 15:55:57.477777 16849 net.cpp:189] Rconv8 -> Rconv8
I0812 15:55:57.478541 16849 net.cpp:84] Top shape: 2 256 27 27 (373248)
I0812 15:55:57.478546 16849 net.cpp:116] Rconv8 does not need backward computation.
I0812 15:55:57.478549 16849 net.cpp:65] Creating Layer Rrelu8
I0812 15:55:57.478552 16849 net.cpp:228] Rrelu8 <- Rconv8
I0812 15:55:57.478556 16849 net.cpp:179] Rrelu8 -> Rconv8 (in-place)
I0812 15:55:57.478560 16849 net.cpp:84] Top shape: 2 256 27 27 (373248)
I0812 15:55:57.478564 16849 net.cpp:116] Rrelu8 does not need backward computation.
I0812 15:55:57.478566 16849 net.cpp:65] Creating Layer deconv2
I0812 15:55:57.478569 16849 net.cpp:228] deconv2 <- Rconv8
I0812 15:55:57.478572 16849 net.cpp:189] deconv2 -> deconv2
I0812 15:55:57.479635 16849 net.cpp:84] Top shape: 2 64 54 54 (373248)
I0812 15:55:57.479640 16849 net.cpp:116] deconv2 does not need backward computation.
I0812 15:55:57.479645 16849 net.cpp:65] Creating Layer relu_deconv2
I0812 15:55:57.479647 16849 net.cpp:228] relu_deconv2 <- deconv2
I0812 15:55:57.479651 16849 net.cpp:179] relu_deconv2 -> deconv2 (in-place)
I0812 15:55:57.479655 16849 net.cpp:84] Top shape: 2 64 54 54 (373248)
I0812 15:55:57.479658 16849 net.cpp:116] relu_deconv2 does not need backward computation.
I0812 15:55:57.479674 16849 net.cpp:65] Creating Layer deconv1
I0812 15:55:57.479676 16849 net.cpp:228] deconv1 <- deconv2
I0812 15:55:57.479681 16849 net.cpp:189] deconv1 -> deconv1
I0812 15:55:57.479826 16849 net.cpp:84] Top shape: 2 32 108 108 (746496)
I0812 15:55:57.479830 16849 net.cpp:116] deconv1 does not need backward computation.
I0812 15:55:57.479835 16849 net.cpp:65] Creating Layer relu_deconv1
I0812 15:55:57.479837 16849 net.cpp:228] relu_deconv1 <- deconv1
I0812 15:55:57.479841 16849 net.cpp:179] relu_deconv1 -> deconv1 (in-place)
I0812 15:55:57.479846 16849 net.cpp:84] Top shape: 2 32 108 108 (746496)
I0812 15:55:57.479848 16849 net.cpp:116] relu_deconv1 does not need backward computation.
I0812 15:55:57.479853 16849 net.cpp:65] Creating Layer deconv0
I0812 15:55:57.479856 16849 net.cpp:228] deconv0 <- deconv1
I0812 15:55:57.479859 16849 net.cpp:189] deconv0 -> deconv0
I0812 15:55:57.479877 16849 net.cpp:84] Top shape: 2 3 216 216 (279936)
I0812 15:55:57.479881 16849 net.cpp:116] deconv0 does not need backward computation.
I0812 15:55:57.479884 16849 net.cpp:65] Creating Layer loss
I0812 15:55:57.479887 16849 net.cpp:228] loss <- deconv0
I0812 15:55:57.479890 16849 net.cpp:228] loss <- target_ims
I0812 15:55:57.479894 16849 net.cpp:116] loss does not need backward computation.
I0812 15:55:57.479905 16849 net.cpp:238] Collecting Learning Rate and Weight Decay.
…
