…
  data_param {
    source: "/scr/r6/tgebru/inverting_conv/caffe_invert_alexnet/data/siggraph/small_winter_train_227lmdb"
    mean_file: "/scr/r6/tgebru/timnit_caffe/data/ilsvrc12/imagenet_mean227.binaryproto"
    batch_size: 12
    mirror: false
    backend: LMDB
  }
}
layers {
  top: "target_ims"
  name: "target_ims"
  type: DATA
  data_param {
    source: "/scr/r6/tgebru/inverting_conv/caffe_invert_alexnet/data/siggraph/small_summer_train_216lmdb"
    mean_file: "/scr/r6/tgebru/timnit_caffe/data/ilsvrc12/imagenet_mean216.binaryproto"
    batch_size: 12
    mirror: false
    backend: LMDB
  }
}
layers {
  bottom: "source_ims"
  top: "conv1"
  name: "conv1"
  type: CONVOLUTION
  blobs_lr: 0
  blobs_lr: 0
  weight_decay: 1
  weight_decay: 0
  convolution_param {
    num_output: 96
    kernel_size: 11
    stride: 4
    weight_filler {
      type: "gaussian"
      std: 0.01
    }
    bias_filler {
      type: "constant"
      value: 0
    }
  }
}
layers {
  bottom: "conv1"
  top: "conv1"
  name: "relu1"
  type: RELU
}
layers {
  bottom: "conv1"
  top: "pool1"
  name: "pool1"
  type: POOLING
  pooling_param {
    pool: MAX
    kernel_size: 3
    stride: 2
  }
}
layers {
  bottom: "pool1"
  top: "norm1"
  name: "norm1"
  type: LRN
  lrn_param {
    local_size: 5
    alpha: 0.0001
    beta: 0.75
  }
}
layers {
  bottom: "norm1"
  top: "Rconv6"
  name: "Rconv6"
  type: CONVOLUTION
  blobs_lr: 1
  blobs_lr: 2
  weight_decay: 1
  weight_decay: 0
  convolution_param {
    num_output: 256
    pad: 1
    kernel_size: 3
  }
}
layers {
  bottom: "Rconv6"
  top: "Rconv6"
  name: "Rrelu6"
  type: RELU
}
layers {
  bottom: "Rconv6"
  top: "Rconv7"
  name: "Rconv7"
  type: CONVOLUTION
  blobs_lr: 1
  blobs_lr: 2
  weight_decay: 1
  weight_decay: 0
  convolution_param {
    num_output: 256
    pad: 1
    kernel_size: 3
    group: 2
  }
}
layers {
  bottom: "Rconv7"
  top: "Rconv7"
  name: "Rrelu7"
  type: RELU
}
layers {
  bottom: "Rconv7"
  top: "Rconv8"
  name: "Rconv8"
  type: CONVOLUTION
  blobs_lr: 1
  blobs_lr: 2
  weight_decay: 1
  weight_decay: 0
  convolution_param {
    num_output: 256
    pad: 1
    kernel_size: 3
    group: 2
  }
}
layers {
  bottom: "Rconv8"
  top: "Rconv8"
  name: "Rrelu8"
  type: RELU
}
layers {
  bottom: "Rconv8"
  top: "deconv2"
  name: "deconv2"
  type: DECONVOLUTION
  blobs_lr: 1
  blobs_lr: 2
  weight_decay: 1
  weight_decay: 0
  deconvolution_param {
    pad: 2
    kernel_size: 5
    stride: 2
    output_height: 54
    output_width: 54
    output_channels: 64
  }
}
layers {
  bottom: "deconv2"
  top: "deconv2"
  name: "relu_deconv2"
  type: RELU
  relu_param {
    negative_slope: 0.3
  }
}
layers {
  bottom: "deconv2"
  top: "deconv1"
  name: "deconv1"
  type: DECONVOLUTION
  blobs_lr: 1
  blobs_lr: 2
  weight_decay: 1
  weight_decay: 0
  deconvolution_param {
    pad: 2
    kernel_size: 5
    stride: 2
    output_height: 108
    output_width: 108
    output_channels: 32
  }
}
layers {
  bottom: "deconv1"
  top: "deconv1"
  name: "relu_deconv1"
  type: RELU
  relu_param {
    negative_slope: 0.3
  }
}
layers {
  bottom: "deconv1"
  top: "deconv0"
  name: "deconv0"
  type: DECONVOLUTION
  blobs_lr: 1
  blobs_lr: 2
  weight_decay: 1
  weight_decay: 1
  deconvolution_param {
    pad: 2
    kernel_size: 5
    stride: 2
    output_height: 216
    output_width: 216
    output_channels: 3
  }
}
layers {
  bottom: "deconv0"
  bottom: "target_ims"
  name: "loss"
  type: EUCLIDEAN_LOSS
}
I0825 20:56:26.910207 11433 net.cpp:65] Creating Layer source_ims
I0825 20:56:26.910215 11433 net.cpp:189] source_ims -> source_ims
I0825 20:56:26.910331 11433 data_layer.cpp:223] Opening lmdb /scr/r6/tgebru/inverting_conv/caffe_invert_alexnet/data/siggraph/small_winter_train_227lmdb
I0825 20:56:26.910498 11433 data_layer.cpp:285] output data size: 12,3,227,227
I0825 20:56:26.910506 11433 data_layer.cpp:304] Loading mean file from/scr/r6/tgebru/timnit_caffe/data/ilsvrc12/imagenet_mean227.binaryproto
I0825 20:56:26.915164 11433 net.cpp:84] Top shape: 12 3 227 227 (1855044)
I0825 20:56:26.915174 11433 net.cpp:116] source_ims does not need backward computation.
I0825 20:56:26.915180 11433 net.cpp:65] Creating Layer target_ims
I0825 20:56:26.915184 11433 net.cpp:189] target_ims -> target_ims
I0825 20:56:26.915338 11433 data_layer.cpp:223] Opening lmdb /scr/r6/tgebru/inverting_conv/caffe_invert_alexnet/data/siggraph/small_summer_train_216lmdb
I0825 20:56:26.915446 11433 data_layer.cpp:285] output data size: 12,3,216,216
I0825 20:56:26.915452 11433 data_layer.cpp:304] Loading mean file from/scr/r6/tgebru/timnit_caffe/data/ilsvrc12/imagenet_mean216.binaryproto
I0825 20:56:26.919417 11433 net.cpp:84] Top shape: 12 3 216 216 (1679616)
I0825 20:56:26.919425 11433 net.cpp:116] target_ims does not need backward computation.
I0825 20:56:26.919438 11433 net.cpp:65] Creating Layer conv1
I0825 20:56:26.919442 11433 net.cpp:228] conv1 <- source_ims
I0825 20:56:26.919486 11433 net.cpp:189] conv1 -> conv1
I0825 20:56:26.920809 11433 net.cpp:84] Top shape: 12 96 55 55 (3484800)
I0825 20:56:26.920814 11433 net.cpp:116] conv1 does not need backward computation.
I0825 20:56:26.920819 11433 net.cpp:65] Creating Layer relu1
I0825 20:56:26.920821 11433 net.cpp:228] relu1 <- conv1
I0825 20:56:26.920826 11433 net.cpp:179] relu1 -> conv1 (in-place)
I0825 20:56:26.920835 11433 net.cpp:84] Top shape: 12 96 55 55 (3484800)
I0825 20:56:26.920838 11433 net.cpp:116] relu1 does not need backward computation.
I0825 20:56:26.920845 11433 net.cpp:65] Creating Layer pool1
I0825 20:56:26.920846 11433 net.cpp:228] pool1 <- conv1
I0825 20:56:26.920850 11433 net.cpp:189] pool1 -> pool1
I0825 20:56:26.920863 11433 net.cpp:84] Top shape: 12 96 27 27 (839808)
I0825 20:56:26.920866 11433 net.cpp:116] pool1 does not need backward computation.
I0825 20:56:26.920871 11433 net.cpp:65] Creating Layer norm1
I0825 20:56:26.920874 11433 net.cpp:228] norm1 <- pool1
I0825 20:56:26.920878 11433 net.cpp:189] norm1 -> norm1
I0825 20:56:26.920887 11433 net.cpp:84] Top shape: 12 96 27 27 (839808)
I0825 20:56:26.920891 11433 net.cpp:116] norm1 does not need backward computation.
I0825 20:56:26.920896 11433 net.cpp:65] Creating Layer Rconv6
I0825 20:56:26.920898 11433 net.cpp:228] Rconv6 <- norm1
I0825 20:56:26.920902 11433 net.cpp:189] Rconv6 -> Rconv6
I0825 20:56:26.921072 11433 net.cpp:84] Top shape: 12 256 27 27 (2239488)
I0825 20:56:26.921077 11433 net.cpp:111] Rconv6 needs backward computation.
I0825 20:56:26.921080 11433 net.cpp:65] Creating Layer Rrelu6
I0825 20:56:26.921083 11433 net.cpp:228] Rrelu6 <- Rconv6
I0825 20:56:26.921088 11433 net.cpp:179] Rrelu6 -> Rconv6 (in-place)
I0825 20:56:26.921092 11433 net.cpp:84] Top shape: 12 256 27 27 (2239488)
I0825 20:56:26.921095 11433 net.cpp:111] Rrelu6 needs backward computation.
I0825 20:56:26.921100 11433 net.cpp:65] Creating Layer Rconv7
I0825 20:56:26.921103 11433 net.cpp:228] Rconv7 <- Rconv6
I0825 20:56:26.921108 11433 net.cpp:189] Rconv7 -> Rconv7
I0825 20:56:26.921830 11433 net.cpp:84] Top shape: 12 256 27 27 (2239488)
I0825 20:56:26.921835 11433 net.cpp:111] Rconv7 needs backward computation.
I0825 20:56:26.921862 11433 net.cpp:65] Creating Layer Rrelu7
I0825 20:56:26.921866 11433 net.cpp:228] Rrelu7 <- Rconv7
I0825 20:56:26.921870 11433 net.cpp:179] Rrelu7 -> Rconv7 (in-place)
I0825 20:56:26.921877 11433 net.cpp:84] Top shape: 12 256 27 27 (2239488)
I0825 20:56:26.921880 11433 net.cpp:111] Rrelu7 needs backward computation.
I0825 20:56:26.921885 11433 net.cpp:65] Creating Layer Rconv8
I0825 20:56:26.921887 11433 net.cpp:228] Rconv8 <- Rconv7
I0825 20:56:26.921890 11433 net.cpp:189] Rconv8 -> Rconv8
I0825 20:56:26.922734 11433 net.cpp:84] Top shape: 12 256 27 27 (2239488)
I0825 20:56:26.922739 11433 net.cpp:111] Rconv8 needs backward computation.
I0825 20:56:26.922744 11433 net.cpp:65] Creating Layer Rrelu8
I0825 20:56:26.922746 11433 net.cpp:228] Rrelu8 <- Rconv8
I0825 20:56:26.922751 11433 net.cpp:179] Rrelu8 -> Rconv8 (in-place)
I0825 20:56:26.922755 11433 net.cpp:84] Top shape: 12 256 27 27 (2239488)
I0825 20:56:26.922758 11433 net.cpp:111] Rrelu8 needs backward computation.
I0825 20:56:26.922763 11433 net.cpp:65] Creating Layer deconv2
I0825 20:56:26.922765 11433 net.cpp:228] deconv2 <- Rconv8
I0825 20:56:26.922771 11433 net.cpp:189] deconv2 -> deconv2
I0825 20:56:26.923926 11433 net.cpp:84] Top shape: 12 64 54 54 (2239488)
I0825 20:56:26.923931 11433 net.cpp:111] deconv2 needs backward computation.
I0825 20:56:26.923936 11433 net.cpp:65] Creating Layer relu_deconv2
I0825 20:56:26.923938 11433 net.cpp:228] relu_deconv2 <- deconv2
I0825 20:56:26.923943 11433 net.cpp:179] relu_deconv2 -> deconv2 (in-place)
I0825 20:56:26.923948 11433 net.cpp:84] Top shape: 12 64 54 54 (2239488)
I0825 20:56:26.923949 11433 net.cpp:111] relu_deconv2 needs backward computation.
I0825 20:56:26.923954 11433 net.cpp:65] Creating Layer deconv1
I0825 20:56:26.923956 11433 net.cpp:228] deconv1 <- deconv2
I0825 20:56:26.923962 11433 net.cpp:189] deconv1 -> deconv1
I0825 20:56:26.924108 11433 net.cpp:84] Top shape: 12 32 108 108 (4478976)
I0825 20:56:26.924113 11433 net.cpp:111] deconv1 needs backward computation.
I0825 20:56:26.924118 11433 net.cpp:65] Creating Layer relu_deconv1
I0825 20:56:26.924119 11433 net.cpp:228] relu_deconv1 <- deconv1
I0825 20:56:26.924126 11433 net.cpp:179] relu_deconv1 -> deconv1 (in-place)
I0825 20:56:26.924130 11433 net.cpp:84] Top shape: 12 32 108 108 (4478976)
I0825 20:56:26.924134 11433 net.cpp:111] relu_deconv1 needs backward computation.
I0825 20:56:26.924139 11433 net.cpp:65] Creating Layer deconv0
I0825 20:56:26.924141 11433 net.cpp:228] deconv0 <- deconv1
I0825 20:56:26.924145 11433 net.cpp:189] deconv0 -> deconv0
I0825 20:56:26.924188 11433 net.cpp:84] Top shape: 12 3 216 216 (1679616)
I0825 20:56:26.924191 11433 net.cpp:111] deconv0 needs backward computation.
I0825 20:56:26.924196 11433 net.cpp:65] Creating Layer loss
I0825 20:56:26.924197 11433 net.cpp:228] loss <- deconv0
I0825 20:56:26.924201 11433 net.cpp:228] loss <- target_ims
I0825 20:56:26.924208 11433 net.cpp:111] loss needs backward computation.
I0825 20:56:26.924222 11433 net.cpp:238] Collecting Learning Rate and Weight Decay.
…
  data_param {
    source: "/scr/r6/tgebru/inverting_conv/caffe_invert_alexnet/data/siggraph/small_winter_val_227lmdb"
    mean_file: "/scr/r6/tgebru/timnit_caffe/data/ilsvrc12/imagenet_mean227.binaryproto"
    batch_size: 2
    mirror: false
    backend: LMDB
  }
}
layers {
  top: "target_ims"
  name: "target_ims"
  type: DATA
  data_param {
    source: "/scr/r6/tgebru/inverting_conv/caffe_invert_alexnet/data/siggraph/small_summer_val_216lmdb"
    mean_file: "/scr/r6/tgebru/timnit_caffe/data/ilsvrc12/imagenet_mean216.binaryproto"
    batch_size: 2
    mirror: false
    backend: LMDB
  }
}
layers {
  bottom: "source_ims"
  top: "conv1"
  name: "conv1"
  type: CONVOLUTION
  blobs_lr: 0
  blobs_lr: 0
  weight_decay: 1
  weight_decay: 0
  convolution_param {
    num_output: 96
    kernel_size: 11
    stride: 4
    weight_filler {
      type: "gaussian"
      std: 0.01
    }
    bias_filler {
      type: "constant"
      value: 0
    }
  }
}
layers {
  bottom: "conv1"
  top: "conv1"
  name: "relu1"
  type: RELU
}
layers {
  bottom: "conv1"
  top: "pool1"
  name: "pool1"
  type: POOLING
  pooling_param {
    pool: MAX
    kernel_size: 3
    stride: 2
  }
}
layers {
  bottom: "pool1"
  top: "norm1"
  name: "norm1"
  type: LRN
  lrn_param {
    local_size: 5
    alpha: 0.0001
    beta: 0.75
  }
}
layers {
  bottom: "norm1"
  top: "Rconv6"
  name: "Rconv6"
  type: CONVOLUTION
  blobs_lr: 0
  blobs_lr: 0
  weight_decay: 1
  weight_decay: 0
  convolution_param {
    num_output: 256
    pad: 1
    kernel_size: 3
  }
}
layers {
  bottom: "Rconv6"
  top: "Rconv6"
  name: "Rrelu6"
  type: RELU
}
layers {
  bottom: "Rconv6"
  top: "Rconv7"
  name: "Rconv7"
  type: CONVOLUTION
  blobs_lr: 0
  blobs_lr: 0
  weight_decay: 1
  weight_decay: 0
  convolution_param {
    num_output: 256
    pad: 1
    kernel_size: 3
    group: 2
  }
}
layers {
  bottom: "Rconv7"
  top: "Rconv7"
  name: "Rrelu7"
  type: RELU
}
layers {
  bottom: "Rconv7"
  top: "Rconv8"
  name: "Rconv8"
  type: CONVOLUTION
  blobs_lr: 0
  blobs_lr: 0
  weight_decay: 1
  weight_decay: 0
  convolution_param {
    num_output: 256
    pad: 1
    kernel_size: 3
    group: 2
  }
}
layers {
  bottom: "Rconv8"
  top: "Rconv8"
  name: "Rrelu8"
  type: RELU
}
layers {
  bottom: "Rconv8"
  top: "deconv2"
  name: "deconv2"
  type: DECONVOLUTION
  blobs_lr: 0
  blobs_lr: 0
  weight_decay: 1
  weight_decay: 0
  deconvolution_param {
    pad: 2
    kernel_size: 5
    stride: 2
    output_height: 54
    output_width: 54
    output_channels: 64
  }
}
layers {
  bottom: "deconv2"
  top: "deconv2"
  name: "relu_deconv2"
  type: RELU
  relu_param {
    negative_slope: 0.3
  }
}
layers {
  bottom: "deconv2"
  top: "deconv1"
  name: "deconv1"
  type: DECONVOLUTION
  blobs_lr: 0
  blobs_lr: 0
  weight_decay: 1
  weight_decay: 0
  deconvolution_param {
    pad: 2
    kernel_size: 5
    stride: 2
    output_height: 108
    output_width: 108
    output_channels: 32
  }
}
layers {
  bottom: "deconv1"
  top: "deconv1"
  name: "relu_deconv1"
  type: RELU
  relu_param {
    negative_slope: 0.3
  }
}
layers {
  bottom: "deconv1"
  top: "deconv0"
  name: "deconv0"
  type: DECONVOLUTION
  blobs_lr: 0
  blobs_lr: 0
  weight_decay: 1
  weight_decay: 0
  deconvolution_param {
    pad: 2
    kernel_size: 5
    stride: 2
    output_height: 216
    output_width: 216
    output_channels: 3
  }
}
layers {
  bottom: "deconv0"
  bottom: "target_ims"
  name: "loss"
  type: EUCLIDEAN_LOSS
}
I0825 20:56:26.924974 11433 net.cpp:65] Creating Layer source_ims
I0825 20:56:26.924979 11433 net.cpp:189] source_ims -> source_ims
I0825 20:56:26.925034 11433 data_layer.cpp:223] Opening lmdb /scr/r6/tgebru/inverting_conv/caffe_invert_alexnet/data/siggraph/small_winter_val_227lmdb
I0825 20:56:26.925215 11433 data_layer.cpp:285] output data size: 2,3,227,227
I0825 20:56:26.925220 11433 data_layer.cpp:304] Loading mean file from/scr/r6/tgebru/timnit_caffe/data/ilsvrc12/imagenet_mean227.binaryproto
I0825 20:56:26.927304 11433 net.cpp:84] Top shape: 2 3 227 227 (309174)
I0825 20:56:26.927310 11433 net.cpp:116] source_ims does not need backward computation.
I0825 20:56:26.927316 11433 net.cpp:65] Creating Layer target_ims
I0825 20:56:26.927320 11433 net.cpp:189] target_ims -> target_ims
I0825 20:56:26.927376 11433 data_layer.cpp:223] Opening lmdb /scr/r6/tgebru/inverting_conv/caffe_invert_alexnet/data/siggraph/small_summer_val_216lmdb
I0825 20:56:26.927446 11433 data_layer.cpp:285] output data size: 2,3,216,216
I0825 20:56:26.927451 11433 data_layer.cpp:304] Loading mean file from/scr/r6/tgebru/timnit_caffe/data/ilsvrc12/imagenet_mean216.binaryproto
I0825 20:56:26.929304 11433 net.cpp:84] Top shape: 2 3 216 216 (279936)
I0825 20:56:26.929323 11433 net.cpp:116] target_ims does not need backward computation.
I0825 20:56:26.929330 11433 net.cpp:65] Creating Layer conv1
I0825 20:56:26.929353 11433 net.cpp:228] conv1 <- source_ims
I0825 20:56:26.929363 11433 net.cpp:189] conv1 -> conv1
I0825 20:56:26.930609 11433 net.cpp:84] Top shape: 2 96 55 55 (580800)
I0825 20:56:26.930614 11433 net.cpp:116] conv1 does not need backward computation.
I0825 20:56:26.930619 11433 net.cpp:65] Creating Layer relu1
I0825 20:56:26.930621 11433 net.cpp:228] relu1 <- conv1
I0825 20:56:26.930625 11433 net.cpp:179] relu1 -> conv1 (in-place)
I0825 20:56:26.930630 11433 net.cpp:84] Top shape: 2 96 55 55 (580800)
I0825 20:56:26.930634 11433 net.cpp:116] relu1 does not need backward computation.
I0825 20:56:26.930639 11433 net.cpp:65] Creating Layer pool1
I0825 20:56:26.930640 11433 net.cpp:228] pool1 <- conv1
I0825 20:56:26.930644 11433 net.cpp:189] pool1 -> pool1
I0825 20:56:26.930650 11433 net.cpp:84] Top shape: 2 96 27 27 (139968)
I0825 20:56:26.930654 11433 net.cpp:116] pool1 does not need backward computation.
I0825 20:56:26.930660 11433 net.cpp:65] Creating Layer norm1
I0825 20:56:26.930661 11433 net.cpp:228] norm1 <- pool1
I0825 20:56:26.930665 11433 net.cpp:189] norm1 -> norm1
I0825 20:56:26.930671 11433 net.cpp:84] Top shape: 2 96 27 27 (139968)
I0825 20:56:26.930673 11433 net.cpp:116] norm1 does not need backward computation.
I0825 20:56:26.930680 11433 net.cpp:65] Creating Layer Rconv6
I0825 20:56:26.930682 11433 net.cpp:228] Rconv6 <- norm1
I0825 20:56:26.930685 11433 net.cpp:189] Rconv6 -> Rconv6
I0825 20:56:26.931263 11433 net.cpp:84] Top shape: 2 256 27 27 (373248)
I0825 20:56:26.931268 11433 net.cpp:116] Rconv6 does not need backward computation.
I0825 20:56:26.931272 11433 net.cpp:65] Creating Layer Rrelu6
I0825 20:56:26.931274 11433 net.cpp:228] Rrelu6 <- Rconv6
I0825 20:56:26.931280 11433 net.cpp:179] Rrelu6 -> Rconv6 (in-place)
I0825 20:56:26.931284 11433 net.cpp:84] Top shape: 2 256 27 27 (373248)
I0825 20:56:26.931288 11433 net.cpp:116] Rrelu6 does not need backward computation.
I0825 20:56:26.931293 11433 net.cpp:65] Creating Layer Rconv7
I0825 20:56:26.931294 11433 net.cpp:228] Rconv7 <- Rconv6
I0825 20:56:26.931300 11433 net.cpp:189] Rconv7 -> Rconv7
I0825 20:56:26.932056 11433 net.cpp:84] Top shape: 2 256 27 27 (373248)
I0825 20:56:26.932060 11433 net.cpp:116] Rconv7 does not need backward computation.
I0825 20:56:26.932065 11433 net.cpp:65] Creating Layer Rrelu7
I0825 20:56:26.932066 11433 net.cpp:228] Rrelu7 <- Rconv7
I0825 20:56:26.932070 11433 net.cpp:179] Rrelu7 -> Rconv7 (in-place)
I0825 20:56:26.932075 11433 net.cpp:84] Top shape: 2 256 27 27 (373248)
I0825 20:56:26.932077 11433 net.cpp:116] Rrelu7 does not need backward computation.
I0825 20:56:26.932080 11433 net.cpp:65] Creating Layer Rconv8
I0825 20:56:26.932082 11433 net.cpp:228] Rconv8 <- Rconv7
I0825 20:56:26.932088 11433 net.cpp:189] Rconv8 -> Rconv8
I0825 20:56:26.932855 11433 net.cpp:84] Top shape: 2 256 27 27 (373248)
I0825 20:56:26.932860 11433 net.cpp:116] Rconv8 does not need backward computation.
I0825 20:56:26.932865 11433 net.cpp:65] Creating Layer Rrelu8
I0825 20:56:26.932868 11433 net.cpp:228] Rrelu8 <- Rconv8
I0825 20:56:26.932871 11433 net.cpp:179] Rrelu8 -> Rconv8 (in-place)
I0825 20:56:26.932875 11433 net.cpp:84] Top shape: 2 256 27 27 (373248)
I0825 20:56:26.932878 11433 net.cpp:116] Rrelu8 does not need backward computation.
I0825 20:56:26.932883 11433 net.cpp:65] Creating Layer deconv2
I0825 20:56:26.932884 11433 net.cpp:228] deconv2 <- Rconv8
I0825 20:56:26.932888 11433 net.cpp:189] deconv2 -> deconv2
I0825 20:56:26.934006 11433 net.cpp:84] Top shape: 2 64 54 54 (373248)
I0825 20:56:26.934011 11433 net.cpp:116] deconv2 does not need backward computation.
I0825 20:56:26.934018 11433 net.cpp:65] Creating Layer relu_deconv2
I0825 20:56:26.934021 11433 net.cpp:228] relu_deconv2 <- deconv2
I0825 20:56:26.934026 11433 net.cpp:179] relu_deconv2 -> deconv2 (in-place)
I0825 20:56:26.934029 11433 net.cpp:84] Top shape: 2 64 54 54 (373248)
I0825 20:56:26.934044 11433 net.cpp:116] relu_deconv2 does not need backward computation.
I0825 20:56:26.934049 11433 net.cpp:65] Creating Layer deconv1
I0825 20:56:26.934051 11433 net.cpp:228] deconv1 <- deconv2
I0825 20:56:26.934057 11433 net.cpp:189] deconv1 -> deconv1
I0825 20:56:26.934202 11433 net.cpp:84] Top shape: 2 32 108 108 (746496)
I0825 20:56:26.934206 11433 net.cpp:116] deconv1 does not need backward computation.
I0825 20:56:26.934209 11433 net.cpp:65] Creating Layer relu_deconv1
I0825 20:56:26.934211 11433 net.cpp:228] relu_deconv1 <- deconv1
I0825 20:56:26.934216 11433 net.cpp:179] relu_deconv1 -> deconv1 (in-place)
I0825 20:56:26.934219 11433 net.cpp:84] Top shape: 2 32 108 108 (746496)
I0825 20:56:26.934221 11433 net.cpp:116] relu_deconv1 does not need backward computation.
I0825 20:56:26.934228 11433 net.cpp:65] Creating Layer deconv0
I0825 20:56:26.934231 11433 net.cpp:228] deconv0 <- deconv1
I0825 20:56:26.934234 11433 net.cpp:189] deconv0 -> deconv0
I0825 20:56:26.934275 11433 net.cpp:84] Top shape: 2 3 216 216 (279936)
I0825 20:56:26.934278 11433 net.cpp:116] deconv0 does not need backward computation.
I0825 20:56:26.934283 11433 net.cpp:65] Creating Layer loss
I0825 20:56:26.934284 11433 net.cpp:228] loss <- deconv0
I0825 20:56:26.934288 11433 net.cpp:228] loss <- target_ims
I0825 20:56:26.934293 11433 net.cpp:116] loss does not need backward computation.
I0825 20:56:26.934305 11433 net.cpp:238] Collecting Learning Rate and Weight Decay.
…
