…
    source: "/scr/r6/tgebru/inverting_conv/caffe_invert_alexnet/data/siggraph/tiny_winter_train_lmdb"
    mean_file: "/scr/r6/tgebru/timnit_caffe/data/ilsvrc12/imagenet_mean.binaryproto"
    batch_size: 12
    crop_size: 227
    mirror: false
    backend: LMDB
  }
}
layers {
  top: "target_ims"
  name: "target_ims"
  type: DATA
  data_param {
    source: "/scr/r6/tgebru/inverting_conv/caffe_invert_alexnet/data/siggraph/tiny_summer_train_lmdb"
    mean_file: "/scr/r6/tgebru/timnit_caffe/data/ilsvrc12/imagenet_mean.binaryproto"
    batch_size: 12
    crop_size: 216
    mirror: false
    backend: LMDB
  }
}
layers {
  bottom: "source_ims"
  top: "conv1"
  name: "conv1"
  type: CONVOLUTION
  blobs_lr: 0
  blobs_lr: 0
  weight_decay: 1
  weight_decay: 0
  convolution_param {
    num_output: 96
    kernel_size: 11
    stride: 4
    weight_filler {
      type: "gaussian"
      std: 0.01
    }
    bias_filler {
      type: "constant"
      value: 0
    }
  }
}
layers {
  bottom: "conv1"
  top: "conv1"
  name: "relu1"
  type: RELU
}
layers {
  bottom: "conv1"
  top: "pool1"
  name: "pool1"
  type: POOLING
  pooling_param {
    pool: MAX
    kernel_size: 3
    stride: 2
  }
}
layers {
  bottom: "pool1"
  top: "norm1"
  name: "norm1"
  type: LRN
  lrn_param {
    local_size: 5
    alpha: 0.0001
    beta: 0.75
  }
}
layers {
  bottom: "norm1"
  top: "Rconv6"
  name: "Rconv6"
  type: CONVOLUTION
  blobs_lr: 1
  blobs_lr: 2
  weight_decay: 1
  weight_decay: 0
  convolution_param {
    num_output: 256
    pad: 1
    kernel_size: 3
  }
}
layers {
  bottom: "Rconv6"
  top: "Rconv6"
  name: "Rrelu6"
  type: RELU
}
layers {
  bottom: "Rconv6"
  top: "Rconv7"
  name: "Rconv7"
  type: CONVOLUTION
  blobs_lr: 1
  blobs_lr: 2
  weight_decay: 1
  weight_decay: 0
  convolution_param {
    num_output: 256
    pad: 1
    kernel_size: 3
    group: 2
  }
}
layers {
  bottom: "Rconv7"
  top: "Rconv7"
  name: "Rrelu7"
  type: RELU
}
layers {
  bottom: "Rconv7"
  top: "Rconv8"
  name: "Rconv8"
  type: CONVOLUTION
  blobs_lr: 1
  blobs_lr: 2
  weight_decay: 1
  weight_decay: 0
  convolution_param {
    num_output: 256
    pad: 1
    kernel_size: 3
    group: 2
  }
}
layers {
  bottom: "Rconv8"
  top: "Rconv8"
  name: "Rrelu8"
  type: RELU
}
layers {
  bottom: "Rconv8"
  top: "deconv2"
  name: "deconv2"
  type: DECONVOLUTION
  blobs_lr: 1
  blobs_lr: 2
  weight_decay: 1
  weight_decay: 0
  deconvolution_param {
    pad: 2
    kernel_size: 5
    stride: 2
    output_height: 54
    output_width: 54
    output_channels: 64
  }
}
layers {
  bottom: "deconv2"
  top: "deconv2"
  name: "relu_deconv2"
  type: RELU
  relu_param {
    negative_slope: 0.3
  }
}
layers {
  bottom: "deconv2"
  top: "deconv1"
  name: "deconv1"
  type: DECONVOLUTION
  blobs_lr: 1
  blobs_lr: 2
  weight_decay: 1
  weight_decay: 0
  deconvolution_param {
    pad: 2
    kernel_size: 5
    stride: 2
    output_height: 108
    output_width: 108
    output_channels: 32
  }
}
layers {
  bottom: "deconv1"
  top: "deconv1"
  name: "relu_deconv1"
  type: RELU
  relu_param {
    negative_slope: 0.3
  }
}
layers {
  bottom: "deconv1"
  top: "deconv0"
  name: "deconv0"
  type: DECONVOLUTION
  blobs_lr: 1
  blobs_lr: 2
  weight_decay: 1
  weight_decay: 1
  deconvolution_param {
    pad: 2
    kernel_size: 5
    stride: 2
    output_height: 216
    output_width: 216
    output_channels: 3
  }
}
layers {
  bottom: "deconv0"
  bottom: "target_ims"
  name: "loss"
  type: EUCLIDEAN_LOSS
}
I0813 03:44:27.676385  3677 net.cpp:65] Creating Layer source_ims
I0813 03:44:27.676394  3677 net.cpp:189] source_ims -> source_ims
I0813 03:44:27.676513  3677 data_layer.cpp:223] Opening lmdb /scr/r6/tgebru/inverting_conv/caffe_invert_alexnet/data/siggraph/tiny_winter_train_lmdb
I0813 03:44:27.676719  3677 data_layer.cpp:285] output data size: 12,3,227,227
I0813 03:44:27.676726  3677 data_layer.cpp:304] Loading mean file from/scr/r6/tgebru/timnit_caffe/data/ilsvrc12/imagenet_mean.binaryproto
I0813 03:44:27.681627  3677 net.cpp:84] Top shape: 12 3 227 227 (1855044)
I0813 03:44:27.681635  3677 net.cpp:116] source_ims does not need backward computation.
I0813 03:44:27.681643  3677 net.cpp:65] Creating Layer target_ims
I0813 03:44:27.681646  3677 net.cpp:189] target_ims -> target_ims
I0813 03:44:27.681802  3677 data_layer.cpp:223] Opening lmdb /scr/r6/tgebru/inverting_conv/caffe_invert_alexnet/data/siggraph/tiny_summer_train_lmdb
I0813 03:44:27.681941  3677 data_layer.cpp:285] output data size: 12,3,216,216
I0813 03:44:27.681946  3677 data_layer.cpp:304] Loading mean file from/scr/r6/tgebru/timnit_caffe/data/ilsvrc12/imagenet_mean.binaryproto
I0813 03:44:27.686424  3677 net.cpp:84] Top shape: 12 3 216 216 (1679616)
I0813 03:44:27.686431  3677 net.cpp:116] target_ims does not need backward computation.
I0813 03:44:27.686444  3677 net.cpp:65] Creating Layer conv1
I0813 03:44:27.686447  3677 net.cpp:228] conv1 <- source_ims
I0813 03:44:27.686560  3677 net.cpp:189] conv1 -> conv1
I0813 03:44:27.688021  3677 net.cpp:84] Top shape: 12 96 55 55 (3484800)
I0813 03:44:27.688026  3677 net.cpp:116] conv1 does not need backward computation.
I0813 03:44:27.688032  3677 net.cpp:65] Creating Layer relu1
I0813 03:44:27.688035  3677 net.cpp:228] relu1 <- conv1
I0813 03:44:27.688040  3677 net.cpp:179] relu1 -> conv1 (in-place)
I0813 03:44:27.688050  3677 net.cpp:84] Top shape: 12 96 55 55 (3484800)
I0813 03:44:27.688052  3677 net.cpp:116] relu1 does not need backward computation.
I0813 03:44:27.688057  3677 net.cpp:65] Creating Layer pool1
I0813 03:44:27.688061  3677 net.cpp:228] pool1 <- conv1
I0813 03:44:27.688066  3677 net.cpp:189] pool1 -> pool1
I0813 03:44:27.688078  3677 net.cpp:84] Top shape: 12 96 27 27 (839808)
I0813 03:44:27.688082  3677 net.cpp:116] pool1 does not need backward computation.
I0813 03:44:27.688086  3677 net.cpp:65] Creating Layer norm1
I0813 03:44:27.688089  3677 net.cpp:228] norm1 <- pool1
I0813 03:44:27.688094  3677 net.cpp:189] norm1 -> norm1
I0813 03:44:27.688103  3677 net.cpp:84] Top shape: 12 96 27 27 (839808)
I0813 03:44:27.688107  3677 net.cpp:116] norm1 does not need backward computation.
I0813 03:44:27.688112  3677 net.cpp:65] Creating Layer Rconv6
I0813 03:44:27.688114  3677 net.cpp:228] Rconv6 <- norm1
I0813 03:44:27.688119  3677 net.cpp:189] Rconv6 -> Rconv6
I0813 03:44:27.688377  3677 net.cpp:84] Top shape: 12 256 27 27 (2239488)
I0813 03:44:27.688381  3677 net.cpp:111] Rconv6 needs backward computation.
I0813 03:44:27.688386  3677 net.cpp:65] Creating Layer Rrelu6
I0813 03:44:27.688390  3677 net.cpp:228] Rrelu6 <- Rconv6
I0813 03:44:27.688393  3677 net.cpp:179] Rrelu6 -> Rconv6 (in-place)
I0813 03:44:27.688398  3677 net.cpp:84] Top shape: 12 256 27 27 (2239488)
I0813 03:44:27.688401  3677 net.cpp:111] Rrelu6 needs backward computation.
I0813 03:44:27.688406  3677 net.cpp:65] Creating Layer Rconv7
I0813 03:44:27.688410  3677 net.cpp:228] Rconv7 <- Rconv6
I0813 03:44:27.688413  3677 net.cpp:189] Rconv7 -> Rconv7
I0813 03:44:27.689144  3677 net.cpp:84] Top shape: 12 256 27 27 (2239488)
I0813 03:44:27.689149  3677 net.cpp:111] Rconv7 needs backward computation.
I0813 03:44:27.689153  3677 net.cpp:65] Creating Layer Rrelu7
I0813 03:44:27.689174  3677 net.cpp:228] Rrelu7 <- Rconv7
I0813 03:44:27.689179  3677 net.cpp:179] Rrelu7 -> Rconv7 (in-place)
I0813 03:44:27.689184  3677 net.cpp:84] Top shape: 12 256 27 27 (2239488)
I0813 03:44:27.689188  3677 net.cpp:111] Rrelu7 needs backward computation.
I0813 03:44:27.689191  3677 net.cpp:65] Creating Layer Rconv8
I0813 03:44:27.689194  3677 net.cpp:228] Rconv8 <- Rconv7
I0813 03:44:27.689198  3677 net.cpp:189] Rconv8 -> Rconv8
I0813 03:44:27.689985  3677 net.cpp:84] Top shape: 12 256 27 27 (2239488)
I0813 03:44:27.689990  3677 net.cpp:111] Rconv8 needs backward computation.
I0813 03:44:27.689995  3677 net.cpp:65] Creating Layer Rrelu8
I0813 03:44:27.689997  3677 net.cpp:228] Rrelu8 <- Rconv8
I0813 03:44:27.690001  3677 net.cpp:179] Rrelu8 -> Rconv8 (in-place)
I0813 03:44:27.690006  3677 net.cpp:84] Top shape: 12 256 27 27 (2239488)
I0813 03:44:27.690008  3677 net.cpp:111] Rrelu8 needs backward computation.
I0813 03:44:27.690012  3677 net.cpp:65] Creating Layer deconv2
I0813 03:44:27.690016  3677 net.cpp:228] deconv2 <- Rconv8
I0813 03:44:27.690018  3677 net.cpp:189] deconv2 -> deconv2
I0813 03:44:27.691107  3677 net.cpp:84] Top shape: 12 64 54 54 (2239488)
I0813 03:44:27.691112  3677 net.cpp:111] deconv2 needs backward computation.
I0813 03:44:27.691115  3677 net.cpp:65] Creating Layer relu_deconv2
I0813 03:44:27.691119  3677 net.cpp:228] relu_deconv2 <- deconv2
I0813 03:44:27.691123  3677 net.cpp:179] relu_deconv2 -> deconv2 (in-place)
I0813 03:44:27.691128  3677 net.cpp:84] Top shape: 12 64 54 54 (2239488)
I0813 03:44:27.691130  3677 net.cpp:111] relu_deconv2 needs backward computation.
I0813 03:44:27.691134  3677 net.cpp:65] Creating Layer deconv1
I0813 03:44:27.691136  3677 net.cpp:228] deconv1 <- deconv2
I0813 03:44:27.691140  3677 net.cpp:189] deconv1 -> deconv1
I0813 03:44:27.691272  3677 net.cpp:84] Top shape: 12 32 108 108 (4478976)
I0813 03:44:27.691277  3677 net.cpp:111] deconv1 needs backward computation.
I0813 03:44:27.691280  3677 net.cpp:65] Creating Layer relu_deconv1
I0813 03:44:27.691283  3677 net.cpp:228] relu_deconv1 <- deconv1
I0813 03:44:27.691287  3677 net.cpp:179] relu_deconv1 -> deconv1 (in-place)
I0813 03:44:27.691292  3677 net.cpp:84] Top shape: 12 32 108 108 (4478976)
I0813 03:44:27.691293  3677 net.cpp:111] relu_deconv1 needs backward computation.
I0813 03:44:27.691298  3677 net.cpp:65] Creating Layer deconv0
I0813 03:44:27.691301  3677 net.cpp:228] deconv0 <- deconv1
I0813 03:44:27.691305  3677 net.cpp:189] deconv0 -> deconv0
I0813 03:44:27.691359  3677 net.cpp:84] Top shape: 12 3 216 216 (1679616)
I0813 03:44:27.691362  3677 net.cpp:111] deconv0 needs backward computation.
I0813 03:44:27.691366  3677 net.cpp:65] Creating Layer loss
I0813 03:44:27.691370  3677 net.cpp:228] loss <- deconv0
I0813 03:44:27.691372  3677 net.cpp:228] loss <- target_ims
I0813 03:44:27.691381  3677 net.cpp:111] loss needs backward computation.
I0813 03:44:27.691395  3677 net.cpp:238] Collecting Learning Rate and Weight Decay.
…
    source: "/scr/r6/tgebru/inverting_conv/caffe_invert_alexnet/data/siggraph/tiny_winter_val_lmdb"
    mean_file: "/scr/r6/tgebru/timnit_caffe/data/ilsvrc12/imagenet_mean.binaryproto"
    batch_size: 2
    crop_size: 227
    mirror: false
    backend: LMDB
  }
}
layers {
  top: "target_ims"
  name: "target_ims"
  type: DATA
  data_param {
    source: "/scr/r6/tgebru/inverting_conv/caffe_invert_alexnet/data/siggraph/tiny_summer_val_lmdb"
    mean_file: "/scr/r6/tgebru/timnit_caffe/data/ilsvrc12/imagenet_mean.binaryproto"
    batch_size: 2
    crop_size: 216
    mirror: false
    backend: LMDB
  }
}
layers {
  bottom: "source_ims"
  top: "conv1"
  name: "conv1"
  type: CONVOLUTION
  blobs_lr: 0
  blobs_lr: 0
  weight_decay: 1
  weight_decay: 0
  convolution_param {
    num_output: 96
    kernel_size: 11
    stride: 4
    weight_filler {
      type: "gaussian"
      std: 0.01
    }
    bias_filler {
      type: "constant"
      value: 0
    }
  }
}
layers {
  bottom: "conv1"
  top: "conv1"
  name: "relu1"
  type: RELU
}
layers {
  bottom: "conv1"
  top: "pool1"
  name: "pool1"
  type: POOLING
  pooling_param {
    pool: MAX
    kernel_size: 3
    stride: 2
  }
}
layers {
  bottom: "pool1"
  top: "norm1"
  name: "norm1"
  type: LRN
  lrn_param {
    local_size: 5
    alpha: 0.0001
    beta: 0.75
  }
}
layers {
  bottom: "norm1"
  top: "Rconv6"
  name: "Rconv6"
  type: CONVOLUTION
  blobs_lr: 0
  blobs_lr: 0
  weight_decay: 1
  weight_decay: 0
  convolution_param {
    num_output: 256
    pad: 1
    kernel_size: 3
  }
}
layers {
  bottom: "Rconv6"
  top: "Rconv6"
  name: "Rrelu6"
  type: RELU
}
layers {
  bottom: "Rconv6"
  top: "Rconv7"
  name: "Rconv7"
  type: CONVOLUTION
  blobs_lr: 0
  blobs_lr: 0
  weight_decay: 1
  weight_decay: 0
  convolution_param {
    num_output: 256
    pad: 1
    kernel_size: 3
    group: 2
  }
}
layers {
  bottom: "Rconv7"
  top: "Rconv7"
  name: "Rrelu7"
  type: RELU
}
layers {
  bottom: "Rconv7"
  top: "Rconv8"
  name: "Rconv8"
  type: CONVOLUTION
  blobs_lr: 0
  blobs_lr: 0
  weight_decay: 1
  weight_decay: 0
  convolution_param {
    num_output: 256
    pad: 1
    kernel_size: 3
    group: 2
  }
}
layers {
  bottom: "Rconv8"
  top: "Rconv8"
  name: "Rrelu8"
  type: RELU
}
layers {
  bottom: "Rconv8"
  top: "deconv2"
  name: "deconv2"
  type: DECONVOLUTION
  blobs_lr: 0
  blobs_lr: 0
  weight_decay: 1
  weight_decay: 0
  deconvolution_param {
    pad: 2
    kernel_size: 5
    stride: 2
    output_height: 54
    output_width: 54
    output_channels: 64
  }
}
layers {
  bottom: "deconv2"
  top: "deconv2"
  name: "relu_deconv2"
  type: RELU
  relu_param {
    negative_slope: 0.3
  }
}
layers {
  bottom: "deconv2"
  top: "deconv1"
  name: "deconv1"
  type: DECONVOLUTION
  blobs_lr: 0
  blobs_lr: 0
  weight_decay: 1
  weight_decay: 0
  deconvolution_param {
    pad: 2
    kernel_size: 5
    stride: 2
    output_height: 108
    output_width: 108
    output_channels: 32
  }
}
layers {
  bottom: "deconv1"
  top: "deconv1"
  name: "relu_deconv1"
  type: RELU
  relu_param {
    negative_slope: 0.3
  }
}
layers {
  bottom: "deconv1"
  top: "deconv0"
  name: "deconv0"
  type: DECONVOLUTION
  blobs_lr: 0
  blobs_lr: 0
  weight_decay: 1
  weight_decay: 0
  deconvolution_param {
    pad: 2
    kernel_size: 5
    stride: 2
    output_height: 216
    output_width: 216
    output_channels: 3
  }
}
layers {
  bottom: "deconv0"
  bottom: "target_ims"
  name: "loss"
  type: EUCLIDEAN_LOSS
}
I0813 03:44:27.692121  3677 net.cpp:65] Creating Layer source_ims
I0813 03:44:27.692126  3677 net.cpp:189] source_ims -> source_ims
I0813 03:44:27.692181  3677 data_layer.cpp:223] Opening lmdb /scr/r6/tgebru/inverting_conv/caffe_invert_alexnet/data/siggraph/tiny_winter_val_lmdb
I0813 03:44:27.692378  3677 data_layer.cpp:285] output data size: 2,3,227,227
I0813 03:44:27.692383  3677 data_layer.cpp:304] Loading mean file from/scr/r6/tgebru/timnit_caffe/data/ilsvrc12/imagenet_mean.binaryproto
I0813 03:44:27.694665  3677 net.cpp:84] Top shape: 2 3 227 227 (309174)
I0813 03:44:27.694674  3677 net.cpp:116] source_ims does not need backward computation.
I0813 03:44:27.694680  3677 net.cpp:65] Creating Layer target_ims
I0813 03:44:27.694684  3677 net.cpp:189] target_ims -> target_ims
I0813 03:44:27.694733  3677 data_layer.cpp:223] Opening lmdb /scr/r6/tgebru/inverting_conv/caffe_invert_alexnet/data/siggraph/tiny_summer_val_lmdb
I0813 03:44:27.694911  3677 data_layer.cpp:285] output data size: 2,3,216,216
I0813 03:44:27.694914  3677 data_layer.cpp:304] Loading mean file from/scr/r6/tgebru/timnit_caffe/data/ilsvrc12/imagenet_mean.binaryproto
I0813 03:44:27.697525  3677 net.cpp:84] Top shape: 2 3 216 216 (279936)
I0813 03:44:27.697548  3677 net.cpp:116] target_ims does not need backward computation.
I0813 03:44:27.697556  3677 net.cpp:65] Creating Layer conv1
I0813 03:44:27.697561  3677 net.cpp:228] conv1 <- source_ims
I0813 03:44:27.697566  3677 net.cpp:189] conv1 -> conv1
I0813 03:44:27.698809  3677 net.cpp:84] Top shape: 2 96 55 55 (580800)
I0813 03:44:27.698813  3677 net.cpp:116] conv1 does not need backward computation.
I0813 03:44:27.698817  3677 net.cpp:65] Creating Layer relu1
I0813 03:44:27.698820  3677 net.cpp:228] relu1 <- conv1
I0813 03:44:27.698825  3677 net.cpp:179] relu1 -> conv1 (in-place)
I0813 03:44:27.698829  3677 net.cpp:84] Top shape: 2 96 55 55 (580800)
I0813 03:44:27.698832  3677 net.cpp:116] relu1 does not need backward computation.
I0813 03:44:27.698837  3677 net.cpp:65] Creating Layer pool1
I0813 03:44:27.698839  3677 net.cpp:228] pool1 <- conv1
I0813 03:44:27.698843  3677 net.cpp:189] pool1 -> pool1
I0813 03:44:27.698850  3677 net.cpp:84] Top shape: 2 96 27 27 (139968)
I0813 03:44:27.698853  3677 net.cpp:116] pool1 does not need backward computation.
I0813 03:44:27.698858  3677 net.cpp:65] Creating Layer norm1
I0813 03:44:27.698859  3677 net.cpp:228] norm1 <- pool1
I0813 03:44:27.698863  3677 net.cpp:189] norm1 -> norm1
I0813 03:44:27.698869  3677 net.cpp:84] Top shape: 2 96 27 27 (139968)
I0813 03:44:27.698873  3677 net.cpp:116] norm1 does not need backward computation.
I0813 03:44:27.698876  3677 net.cpp:65] Creating Layer Rconv6
I0813 03:44:27.698879  3677 net.cpp:228] Rconv6 <- norm1
I0813 03:44:27.698882  3677 net.cpp:189] Rconv6 -> Rconv6
I0813 03:44:27.699486  3677 net.cpp:84] Top shape: 2 256 27 27 (373248)
I0813 03:44:27.699491  3677 net.cpp:116] Rconv6 does not need backward computation.
I0813 03:44:27.699496  3677 net.cpp:65] Creating Layer Rrelu6
I0813 03:44:27.699498  3677 net.cpp:228] Rrelu6 <- Rconv6
I0813 03:44:27.699502  3677 net.cpp:179] Rrelu6 -> Rconv6 (in-place)
I0813 03:44:27.699507  3677 net.cpp:84] Top shape: 2 256 27 27 (373248)
I0813 03:44:27.699511  3677 net.cpp:116] Rrelu6 does not need backward computation.
I0813 03:44:27.699514  3677 net.cpp:65] Creating Layer Rconv7
I0813 03:44:27.699517  3677 net.cpp:228] Rconv7 <- Rconv6
I0813 03:44:27.699522  3677 net.cpp:189] Rconv7 -> Rconv7
I0813 03:44:27.700289  3677 net.cpp:84] Top shape: 2 256 27 27 (373248)
I0813 03:44:27.700294  3677 net.cpp:116] Rconv7 does not need backward computation.
I0813 03:44:27.700296  3677 net.cpp:65] Creating Layer Rrelu7
I0813 03:44:27.700299  3677 net.cpp:228] Rrelu7 <- Rconv7
I0813 03:44:27.700304  3677 net.cpp:179] Rrelu7 -> Rconv7 (in-place)
I0813 03:44:27.700307  3677 net.cpp:84] Top shape: 2 256 27 27 (373248)
I0813 03:44:27.700310  3677 net.cpp:116] Rrelu7 does not need backward computation.
I0813 03:44:27.700314  3677 net.cpp:65] Creating Layer Rconv8
I0813 03:44:27.700316  3677 net.cpp:228] Rconv8 <- Rconv7
I0813 03:44:27.700320  3677 net.cpp:189] Rconv8 -> Rconv8
I0813 03:44:27.701028  3677 net.cpp:84] Top shape: 2 256 27 27 (373248)
I0813 03:44:27.701032  3677 net.cpp:116] Rconv8 does not need backward computation.
I0813 03:44:27.701035  3677 net.cpp:65] Creating Layer Rrelu8
I0813 03:44:27.701038  3677 net.cpp:228] Rrelu8 <- Rconv8
I0813 03:44:27.701042  3677 net.cpp:179] Rrelu8 -> Rconv8 (in-place)
I0813 03:44:27.701046  3677 net.cpp:84] Top shape: 2 256 27 27 (373248)
I0813 03:44:27.701050  3677 net.cpp:116] Rrelu8 does not need backward computation.
I0813 03:44:27.701053  3677 net.cpp:65] Creating Layer deconv2
I0813 03:44:27.701056  3677 net.cpp:228] deconv2 <- Rconv8
I0813 03:44:27.701059  3677 net.cpp:189] deconv2 -> deconv2
I0813 03:44:27.702116  3677 net.cpp:84] Top shape: 2 64 54 54 (373248)
I0813 03:44:27.702121  3677 net.cpp:116] deconv2 does not need backward computation.
I0813 03:44:27.702126  3677 net.cpp:65] Creating Layer relu_deconv2
I0813 03:44:27.702131  3677 net.cpp:228] relu_deconv2 <- deconv2
I0813 03:44:27.702134  3677 net.cpp:179] relu_deconv2 -> deconv2 (in-place)
I0813 03:44:27.702138  3677 net.cpp:84] Top shape: 2 64 54 54 (373248)
I0813 03:44:27.702142  3677 net.cpp:116] relu_deconv2 does not need backward computation.
I0813 03:44:27.702157  3677 net.cpp:65] Creating Layer deconv1
I0813 03:44:27.702160  3677 net.cpp:228] deconv1 <- deconv2
I0813 03:44:27.702164  3677 net.cpp:189] deconv1 -> deconv1
I0813 03:44:27.702301  3677 net.cpp:84] Top shape: 2 32 108 108 (746496)
I0813 03:44:27.702306  3677 net.cpp:116] deconv1 does not need backward computation.
I0813 03:44:27.702309  3677 net.cpp:65] Creating Layer relu_deconv1
I0813 03:44:27.702312  3677 net.cpp:228] relu_deconv1 <- deconv1
I0813 03:44:27.702316  3677 net.cpp:179] relu_deconv1 -> deconv1 (in-place)
I0813 03:44:27.702321  3677 net.cpp:84] Top shape: 2 32 108 108 (746496)
I0813 03:44:27.702323  3677 net.cpp:116] relu_deconv1 does not need backward computation.
I0813 03:44:27.702328  3677 net.cpp:65] Creating Layer deconv0
I0813 03:44:27.702330  3677 net.cpp:228] deconv0 <- deconv1
I0813 03:44:27.702334  3677 net.cpp:189] deconv0 -> deconv0
I0813 03:44:27.702353  3677 net.cpp:84] Top shape: 2 3 216 216 (279936)
I0813 03:44:27.702355  3677 net.cpp:116] deconv0 does not need backward computation.
I0813 03:44:27.702359  3677 net.cpp:65] Creating Layer loss
I0813 03:44:27.702361  3677 net.cpp:228] loss <- deconv0
I0813 03:44:27.702365  3677 net.cpp:228] loss <- target_ims
I0813 03:44:27.702369  3677 net.cpp:116] loss does not need backward computation.
I0813 03:44:27.702381  3677 net.cpp:238] Collecting Learning Rate and Weight Decay.
…
