…
    source: "/scr/r6/tgebru/inverting_conv/caffe_invert_alexnet/data/siggraph/tiny_summer_train_lmdb"
    mean_file: "/scr/r6/tgebru/timnit_caffe/data/ilsvrc12/imagenet_mean.binaryproto"
    batch_size: 12
    crop_size: 227
    mirror: false
    backend: LMDB
  }
}
layers {
  top: "target_ims"
  name: "target_ims"
  type: DATA
  data_param {
    source: "/scr/r6/tgebru/inverting_conv/caffe_invert_alexnet/data/siggraph/tiny_summer_train_lmdb"
    mean_file: "/scr/r6/tgebru/timnit_caffe/data/ilsvrc12/imagenet_mean.binaryproto"
    batch_size: 12
    crop_size: 216
    mirror: false
    backend: LMDB
  }
}
layers {
  bottom: "source_ims"
  top: "conv1"
  name: "conv1"
  type: CONVOLUTION
  blobs_lr: 0
  blobs_lr: 0
  weight_decay: 1
  weight_decay: 0
  convolution_param {
    num_output: 96
    kernel_size: 11
    stride: 4
    weight_filler {
      type: "gaussian"
      std: 0.01
    }
    bias_filler {
      type: "constant"
      value: 0
    }
  }
}
layers {
  bottom: "conv1"
  top: "conv1"
  name: "relu1"
  type: RELU
}
layers {
  bottom: "conv1"
  top: "pool1"
  name: "pool1"
  type: POOLING
  pooling_param {
    pool: MAX
    kernel_size: 3
    stride: 2
  }
}
layers {
  bottom: "pool1"
  top: "norm1"
  name: "norm1"
  type: LRN
  lrn_param {
    local_size: 5
    alpha: 0.0001
    beta: 0.75
  }
}
layers {
  bottom: "norm1"
  top: "Rconv6"
  name: "Rconv6"
  type: CONVOLUTION
  blobs_lr: 1
  blobs_lr: 2
  weight_decay: 1
  weight_decay: 0
  convolution_param {
    num_output: 256
    pad: 1
    kernel_size: 3
  }
}
layers {
  bottom: "Rconv6"
  top: "Rconv6"
  name: "Rrelu6"
  type: RELU
}
layers {
  bottom: "Rconv6"
  top: "Rconv7"
  name: "Rconv7"
  type: CONVOLUTION
  blobs_lr: 1
  blobs_lr: 2
  weight_decay: 1
  weight_decay: 0
  convolution_param {
    num_output: 256
    pad: 1
    kernel_size: 3
    group: 2
  }
}
layers {
  bottom: "Rconv7"
  top: "Rconv7"
  name: "Rrelu7"
  type: RELU
}
layers {
  bottom: "Rconv7"
  top: "Rconv8"
  name: "Rconv8"
  type: CONVOLUTION
  blobs_lr: 1
  blobs_lr: 2
  weight_decay: 1
  weight_decay: 0
  convolution_param {
    num_output: 256
    pad: 1
    kernel_size: 3
    group: 2
  }
}
layers {
  bottom: "Rconv8"
  top: "Rconv8"
  name: "Rrelu8"
  type: RELU
}
layers {
  bottom: "Rconv8"
  top: "deconv2"
  name: "deconv2"
  type: DECONVOLUTION
  blobs_lr: 1
  blobs_lr: 2
  weight_decay: 1
  weight_decay: 0
  deconvolution_param {
    pad: 2
    kernel_size: 5
    stride: 2
    output_height: 54
    output_width: 54
    output_channels: 64
  }
}
layers {
  bottom: "deconv2"
  top: "deconv2"
  name: "relu_deconv2"
  type: RELU
  relu_param {
    negative_slope: 0.3
  }
}
layers {
  bottom: "deconv2"
  top: "deconv1"
  name: "deconv1"
  type: DECONVOLUTION
  blobs_lr: 1
  blobs_lr: 2
  weight_decay: 1
  weight_decay: 0
  deconvolution_param {
    pad: 2
    kernel_size: 5
    stride: 2
    output_height: 108
    output_width: 108
    output_channels: 32
  }
}
layers {
  bottom: "deconv1"
  top: "deconv1"
  name: "relu_deconv1"
  type: RELU
  relu_param {
    negative_slope: 0.3
  }
}
layers {
  bottom: "deconv1"
  top: "deconv0"
  name: "deconv0"
  type: DECONVOLUTION
  blobs_lr: 1
  blobs_lr: 2
  weight_decay: 1
  weight_decay: 1
  deconvolution_param {
    pad: 2
    kernel_size: 5
    stride: 2
    output_height: 216
    output_width: 216
    output_channels: 3
  }
}
layers {
  bottom: "deconv0"
  bottom: "target_ims"
  name: "loss"
  type: EUCLIDEAN_LOSS
}
I0813 04:42:56.859625 22667 net.cpp:65] Creating Layer source_ims
I0813 04:42:56.859637 22667 net.cpp:189] source_ims -> source_ims
I0813 04:42:56.859753 22667 data_layer.cpp:223] Opening lmdb /scr/r6/tgebru/inverting_conv/caffe_invert_alexnet/data/siggraph/tiny_summer_train_lmdb
I0813 04:42:56.859977 22667 data_layer.cpp:285] output data size: 12,3,227,227
I0813 04:42:56.859984 22667 data_layer.cpp:304] Loading mean file from/scr/r6/tgebru/timnit_caffe/data/ilsvrc12/imagenet_mean.binaryproto
I0813 04:42:56.864482 22667 net.cpp:84] Top shape: 12 3 227 227 (1855044)
I0813 04:42:56.864491 22667 net.cpp:116] source_ims does not need backward computation.
I0813 04:42:56.864498 22667 net.cpp:65] Creating Layer target_ims
I0813 04:42:56.864502 22667 net.cpp:189] target_ims -> target_ims
I0813 04:42:56.864667 22667 data_layer.cpp:223] Opening lmdb /scr/r6/tgebru/inverting_conv/caffe_invert_alexnet/data/siggraph/tiny_summer_train_lmdb
I0813 04:42:56.864790 22667 data_layer.cpp:285] output data size: 12,3,216,216
I0813 04:42:56.864795 22667 data_layer.cpp:304] Loading mean file from/scr/r6/tgebru/timnit_caffe/data/ilsvrc12/imagenet_mean.binaryproto
I0813 04:42:56.869321 22667 net.cpp:84] Top shape: 12 3 216 216 (1679616)
I0813 04:42:56.869329 22667 net.cpp:116] target_ims does not need backward computation.
I0813 04:42:56.869340 22667 net.cpp:65] Creating Layer conv1
I0813 04:42:56.869344 22667 net.cpp:228] conv1 <- source_ims
I0813 04:42:56.869448 22667 net.cpp:189] conv1 -> conv1
I0813 04:42:56.870908 22667 net.cpp:84] Top shape: 12 96 55 55 (3484800)
I0813 04:42:56.870913 22667 net.cpp:116] conv1 does not need backward computation.
I0813 04:42:56.870918 22667 net.cpp:65] Creating Layer relu1
I0813 04:42:56.870921 22667 net.cpp:228] relu1 <- conv1
I0813 04:42:56.870926 22667 net.cpp:179] relu1 -> conv1 (in-place)
I0813 04:42:56.870935 22667 net.cpp:84] Top shape: 12 96 55 55 (3484800)
I0813 04:42:56.870939 22667 net.cpp:116] relu1 does not need backward computation.
I0813 04:42:56.870944 22667 net.cpp:65] Creating Layer pool1
I0813 04:42:56.870946 22667 net.cpp:228] pool1 <- conv1
I0813 04:42:56.870951 22667 net.cpp:189] pool1 -> pool1
I0813 04:42:56.870964 22667 net.cpp:84] Top shape: 12 96 27 27 (839808)
I0813 04:42:56.870967 22667 net.cpp:116] pool1 does not need backward computation.
I0813 04:42:56.870971 22667 net.cpp:65] Creating Layer norm1
I0813 04:42:56.870975 22667 net.cpp:228] norm1 <- pool1
I0813 04:42:56.870978 22667 net.cpp:189] norm1 -> norm1
I0813 04:42:56.870988 22667 net.cpp:84] Top shape: 12 96 27 27 (839808)
I0813 04:42:56.870991 22667 net.cpp:116] norm1 does not need backward computation.
I0813 04:42:56.870995 22667 net.cpp:65] Creating Layer Rconv6
I0813 04:42:56.870998 22667 net.cpp:228] Rconv6 <- norm1
I0813 04:42:56.871002 22667 net.cpp:189] Rconv6 -> Rconv6
I0813 04:42:56.871279 22667 net.cpp:84] Top shape: 12 256 27 27 (2239488)
I0813 04:42:56.871284 22667 net.cpp:111] Rconv6 needs backward computation.
I0813 04:42:56.871289 22667 net.cpp:65] Creating Layer Rrelu6
I0813 04:42:56.871291 22667 net.cpp:228] Rrelu6 <- Rconv6
I0813 04:42:56.871295 22667 net.cpp:179] Rrelu6 -> Rconv6 (in-place)
I0813 04:42:56.871300 22667 net.cpp:84] Top shape: 12 256 27 27 (2239488)
I0813 04:42:56.871302 22667 net.cpp:111] Rrelu6 needs backward computation.
I0813 04:42:56.871307 22667 net.cpp:65] Creating Layer Rconv7
I0813 04:42:56.871310 22667 net.cpp:228] Rconv7 <- Rconv6
I0813 04:42:56.871315 22667 net.cpp:189] Rconv7 -> Rconv7
I0813 04:42:56.872027 22667 net.cpp:84] Top shape: 12 256 27 27 (2239488)
I0813 04:42:56.872033 22667 net.cpp:111] Rconv7 needs backward computation.
I0813 04:42:56.872037 22667 net.cpp:65] Creating Layer Rrelu7
I0813 04:42:56.872040 22667 net.cpp:228] Rrelu7 <- Rconv7
I0813 04:42:56.872063 22667 net.cpp:179] Rrelu7 -> Rconv7 (in-place)
I0813 04:42:56.872068 22667 net.cpp:84] Top shape: 12 256 27 27 (2239488)
I0813 04:42:56.872071 22667 net.cpp:111] Rrelu7 needs backward computation.
I0813 04:42:56.872076 22667 net.cpp:65] Creating Layer Rconv8
I0813 04:42:56.872077 22667 net.cpp:228] Rconv8 <- Rconv7
I0813 04:42:56.872081 22667 net.cpp:189] Rconv8 -> Rconv8
I0813 04:42:56.872853 22667 net.cpp:84] Top shape: 12 256 27 27 (2239488)
I0813 04:42:56.872858 22667 net.cpp:111] Rconv8 needs backward computation.
I0813 04:42:56.872861 22667 net.cpp:65] Creating Layer Rrelu8
I0813 04:42:56.872864 22667 net.cpp:228] Rrelu8 <- Rconv8
I0813 04:42:56.872869 22667 net.cpp:179] Rrelu8 -> Rconv8 (in-place)
I0813 04:42:56.872872 22667 net.cpp:84] Top shape: 12 256 27 27 (2239488)
I0813 04:42:56.872875 22667 net.cpp:111] Rrelu8 needs backward computation.
I0813 04:42:56.872879 22667 net.cpp:65] Creating Layer deconv2
I0813 04:42:56.872881 22667 net.cpp:228] deconv2 <- Rconv8
I0813 04:42:56.872885 22667 net.cpp:189] deconv2 -> deconv2
I0813 04:42:56.873980 22667 net.cpp:84] Top shape: 12 64 54 54 (2239488)
I0813 04:42:56.873986 22667 net.cpp:111] deconv2 needs backward computation.
I0813 04:42:56.873989 22667 net.cpp:65] Creating Layer relu_deconv2
I0813 04:42:56.873992 22667 net.cpp:228] relu_deconv2 <- deconv2
I0813 04:42:56.873996 22667 net.cpp:179] relu_deconv2 -> deconv2 (in-place)
I0813 04:42:56.874001 22667 net.cpp:84] Top shape: 12 64 54 54 (2239488)
I0813 04:42:56.874004 22667 net.cpp:111] relu_deconv2 needs backward computation.
I0813 04:42:56.874008 22667 net.cpp:65] Creating Layer deconv1
I0813 04:42:56.874011 22667 net.cpp:228] deconv1 <- deconv2
I0813 04:42:56.874014 22667 net.cpp:189] deconv1 -> deconv1
I0813 04:42:56.874161 22667 net.cpp:84] Top shape: 12 32 108 108 (4478976)
I0813 04:42:56.874166 22667 net.cpp:111] deconv1 needs backward computation.
I0813 04:42:56.874169 22667 net.cpp:65] Creating Layer relu_deconv1
I0813 04:42:56.874172 22667 net.cpp:228] relu_deconv1 <- deconv1
I0813 04:42:56.874176 22667 net.cpp:179] relu_deconv1 -> deconv1 (in-place)
I0813 04:42:56.874181 22667 net.cpp:84] Top shape: 12 32 108 108 (4478976)
I0813 04:42:56.874183 22667 net.cpp:111] relu_deconv1 needs backward computation.
I0813 04:42:56.874188 22667 net.cpp:65] Creating Layer deconv0
I0813 04:42:56.874191 22667 net.cpp:228] deconv0 <- deconv1
I0813 04:42:56.874194 22667 net.cpp:189] deconv0 -> deconv0
I0813 04:42:56.874217 22667 net.cpp:84] Top shape: 12 3 216 216 (1679616)
I0813 04:42:56.874220 22667 net.cpp:111] deconv0 needs backward computation.
I0813 04:42:56.874224 22667 net.cpp:65] Creating Layer loss
I0813 04:42:56.874227 22667 net.cpp:228] loss <- deconv0
I0813 04:42:56.874230 22667 net.cpp:228] loss <- target_ims
I0813 04:42:56.874238 22667 net.cpp:111] loss needs backward computation.
I0813 04:42:56.874251 22667 net.cpp:238] Collecting Learning Rate and Weight Decay.
…
    source: "/scr/r6/tgebru/inverting_conv/caffe_invert_alexnet/data/siggraph/tiny_summer_val_lmdb"
    mean_file: "/scr/r6/tgebru/timnit_caffe/data/ilsvrc12/imagenet_mean.binaryproto"
    batch_size: 2
    crop_size: 227
    mirror: false
    backend: LMDB
  }
}
layers {
  top: "target_ims"
  name: "target_ims"
  type: DATA
  data_param {
    source: "/scr/r6/tgebru/inverting_conv/caffe_invert_alexnet/data/siggraph/tiny_summer_val_lmdb"
    mean_file: "/scr/r6/tgebru/timnit_caffe/data/ilsvrc12/imagenet_mean.binaryproto"
    batch_size: 2
    crop_size: 216
    mirror: false
    backend: LMDB
  }
}
layers {
  bottom: "source_ims"
  top: "conv1"
  name: "conv1"
  type: CONVOLUTION
  blobs_lr: 0
  blobs_lr: 0
  weight_decay: 1
  weight_decay: 0
  convolution_param {
    num_output: 96
    kernel_size: 11
    stride: 4
    weight_filler {
      type: "gaussian"
      std: 0.01
    }
    bias_filler {
      type: "constant"
      value: 0
    }
  }
}
layers {
  bottom: "conv1"
  top: "conv1"
  name: "relu1"
  type: RELU
}
layers {
  bottom: "conv1"
  top: "pool1"
  name: "pool1"
  type: POOLING
  pooling_param {
    pool: MAX
    kernel_size: 3
    stride: 2
  }
}
layers {
  bottom: "pool1"
  top: "norm1"
  name: "norm1"
  type: LRN
  lrn_param {
    local_size: 5
    alpha: 0.0001
    beta: 0.75
  }
}
layers {
  bottom: "norm1"
  top: "Rconv6"
  name: "Rconv6"
  type: CONVOLUTION
  blobs_lr: 0
  blobs_lr: 0
  weight_decay: 1
  weight_decay: 0
  convolution_param {
    num_output: 256
    pad: 1
    kernel_size: 3
  }
}
layers {
  bottom: "Rconv6"
  top: "Rconv6"
  name: "Rrelu6"
  type: RELU
}
layers {
  bottom: "Rconv6"
  top: "Rconv7"
  name: "Rconv7"
  type: CONVOLUTION
  blobs_lr: 0
  blobs_lr: 0
  weight_decay: 1
  weight_decay: 0
  convolution_param {
    num_output: 256
    pad: 1
    kernel_size: 3
    group: 2
  }
}
layers {
  bottom: "Rconv7"
  top: "Rconv7"
  name: "Rrelu7"
  type: RELU
}
layers {
  bottom: "Rconv7"
  top: "Rconv8"
  name: "Rconv8"
  type: CONVOLUTION
  blobs_lr: 0
  blobs_lr: 0
  weight_decay: 1
  weight_decay: 0
  convolution_param {
    num_output: 256
    pad: 1
    kernel_size: 3
    group: 2
  }
}
layers {
  bottom: "Rconv8"
  top: "Rconv8"
  name: "Rrelu8"
  type: RELU
}
layers {
  bottom: "Rconv8"
  top: "deconv2"
  name: "deconv2"
  type: DECONVOLUTION
  blobs_lr: 0
  blobs_lr: 0
  weight_decay: 1
  weight_decay: 0
  deconvolution_param {
    pad: 2
    kernel_size: 5
    stride: 2
    output_height: 54
    output_width: 54
    output_channels: 64
  }
}
layers {
  bottom: "deconv2"
  top: "deconv2"
  name: "relu_deconv2"
  type: RELU
  relu_param {
    negative_slope: 0.3
  }
}
layers {
  bottom: "deconv2"
  top: "deconv1"
  name: "deconv1"
  type: DECONVOLUTION
  blobs_lr: 0
  blobs_lr: 0
  weight_decay: 1
  weight_decay: 0
  deconvolution_param {
    pad: 2
    kernel_size: 5
    stride: 2
    output_height: 108
    output_width: 108
    output_channels: 32
  }
}
layers {
  bottom: "deconv1"
  top: "deconv1"
  name: "relu_deconv1"
  type: RELU
  relu_param {
    negative_slope: 0.3
  }
}
layers {
  bottom: "deconv1"
  top: "deconv0"
  name: "deconv0"
  type: DECONVOLUTION
  blobs_lr: 0
  blobs_lr: 0
  weight_decay: 1
  weight_decay: 0
  deconvolution_param {
    pad: 2
    kernel_size: 5
    stride: 2
    output_height: 216
    output_width: 216
    output_channels: 3
  }
}
layers {
  bottom: "deconv0"
  bottom: "target_ims"
  name: "loss"
  type: EUCLIDEAN_LOSS
}
I0813 04:42:56.874949 22667 net.cpp:65] Creating Layer source_ims
I0813 04:42:56.874955 22667 net.cpp:189] source_ims -> source_ims
I0813 04:42:56.875010 22667 data_layer.cpp:223] Opening lmdb /scr/r6/tgebru/inverting_conv/caffe_invert_alexnet/data/siggraph/tiny_summer_val_lmdb
I0813 04:42:56.875195 22667 data_layer.cpp:285] output data size: 2,3,227,227
I0813 04:42:56.875201 22667 data_layer.cpp:304] Loading mean file from/scr/r6/tgebru/timnit_caffe/data/ilsvrc12/imagenet_mean.binaryproto
I0813 04:42:56.877925 22667 net.cpp:84] Top shape: 2 3 227 227 (309174)
I0813 04:42:56.877933 22667 net.cpp:116] source_ims does not need backward computation.
I0813 04:42:56.877938 22667 net.cpp:65] Creating Layer target_ims
I0813 04:42:56.877943 22667 net.cpp:189] target_ims -> target_ims
I0813 04:42:56.877990 22667 data_layer.cpp:223] Opening lmdb /scr/r6/tgebru/inverting_conv/caffe_invert_alexnet/data/siggraph/tiny_summer_val_lmdb
I0813 04:42:56.878068 22667 data_layer.cpp:285] output data size: 2,3,216,216
I0813 04:42:56.878072 22667 data_layer.cpp:304] Loading mean file from/scr/r6/tgebru/timnit_caffe/data/ilsvrc12/imagenet_mean.binaryproto
I0813 04:42:56.880249 22667 net.cpp:84] Top shape: 2 3 216 216 (279936)
I0813 04:42:56.880256 22667 net.cpp:116] target_ims does not need backward computation.
I0813 04:42:56.880277 22667 net.cpp:65] Creating Layer conv1
I0813 04:42:56.880280 22667 net.cpp:228] conv1 <- source_ims
I0813 04:42:56.880286 22667 net.cpp:189] conv1 -> conv1
I0813 04:42:56.881532 22667 net.cpp:84] Top shape: 2 96 55 55 (580800)
I0813 04:42:56.881536 22667 net.cpp:116] conv1 does not need backward computation.
I0813 04:42:56.881541 22667 net.cpp:65] Creating Layer relu1
I0813 04:42:56.881543 22667 net.cpp:228] relu1 <- conv1
I0813 04:42:56.881548 22667 net.cpp:179] relu1 -> conv1 (in-place)
I0813 04:42:56.881553 22667 net.cpp:84] Top shape: 2 96 55 55 (580800)
I0813 04:42:56.881556 22667 net.cpp:116] relu1 does not need backward computation.
I0813 04:42:56.881561 22667 net.cpp:65] Creating Layer pool1
I0813 04:42:56.881563 22667 net.cpp:228] pool1 <- conv1
I0813 04:42:56.881567 22667 net.cpp:189] pool1 -> pool1
I0813 04:42:56.881572 22667 net.cpp:84] Top shape: 2 96 27 27 (139968)
I0813 04:42:56.881575 22667 net.cpp:116] pool1 does not need backward computation.
I0813 04:42:56.881579 22667 net.cpp:65] Creating Layer norm1
I0813 04:42:56.881582 22667 net.cpp:228] norm1 <- pool1
I0813 04:42:56.881585 22667 net.cpp:189] norm1 -> norm1
I0813 04:42:56.881592 22667 net.cpp:84] Top shape: 2 96 27 27 (139968)
I0813 04:42:56.881594 22667 net.cpp:116] norm1 does not need backward computation.
I0813 04:42:56.881598 22667 net.cpp:65] Creating Layer Rconv6
I0813 04:42:56.881600 22667 net.cpp:228] Rconv6 <- norm1
I0813 04:42:56.881604 22667 net.cpp:189] Rconv6 -> Rconv6
I0813 04:42:56.882143 22667 net.cpp:84] Top shape: 2 256 27 27 (373248)
I0813 04:42:56.882148 22667 net.cpp:116] Rconv6 does not need backward computation.
I0813 04:42:56.882151 22667 net.cpp:65] Creating Layer Rrelu6
I0813 04:42:56.882154 22667 net.cpp:228] Rrelu6 <- Rconv6
I0813 04:42:56.882158 22667 net.cpp:179] Rrelu6 -> Rconv6 (in-place)
I0813 04:42:56.882164 22667 net.cpp:84] Top shape: 2 256 27 27 (373248)
I0813 04:42:56.882166 22667 net.cpp:116] Rrelu6 does not need backward computation.
I0813 04:42:56.882171 22667 net.cpp:65] Creating Layer Rconv7
I0813 04:42:56.882174 22667 net.cpp:228] Rconv7 <- Rconv6
I0813 04:42:56.882177 22667 net.cpp:189] Rconv7 -> Rconv7
I0813 04:42:56.882889 22667 net.cpp:84] Top shape: 2 256 27 27 (373248)
I0813 04:42:56.882894 22667 net.cpp:116] Rconv7 does not need backward computation.
I0813 04:42:56.882899 22667 net.cpp:65] Creating Layer Rrelu7
I0813 04:42:56.882901 22667 net.cpp:228] Rrelu7 <- Rconv7
I0813 04:42:56.882905 22667 net.cpp:179] Rrelu7 -> Rconv7 (in-place)
I0813 04:42:56.882910 22667 net.cpp:84] Top shape: 2 256 27 27 (373248)
I0813 04:42:56.882912 22667 net.cpp:116] Rrelu7 does not need backward computation.
I0813 04:42:56.882915 22667 net.cpp:65] Creating Layer Rconv8
I0813 04:42:56.882918 22667 net.cpp:228] Rconv8 <- Rconv7
I0813 04:42:56.882922 22667 net.cpp:189] Rconv8 -> Rconv8
I0813 04:42:56.883633 22667 net.cpp:84] Top shape: 2 256 27 27 (373248)
I0813 04:42:56.883638 22667 net.cpp:116] Rconv8 does not need backward computation.
I0813 04:42:56.883642 22667 net.cpp:65] Creating Layer Rrelu8
I0813 04:42:56.883646 22667 net.cpp:228] Rrelu8 <- Rconv8
I0813 04:42:56.883649 22667 net.cpp:179] Rrelu8 -> Rconv8 (in-place)
I0813 04:42:56.883653 22667 net.cpp:84] Top shape: 2 256 27 27 (373248)
I0813 04:42:56.883656 22667 net.cpp:116] Rrelu8 does not need backward computation.
I0813 04:42:56.883661 22667 net.cpp:65] Creating Layer deconv2
I0813 04:42:56.883662 22667 net.cpp:228] deconv2 <- Rconv8
I0813 04:42:56.883666 22667 net.cpp:189] deconv2 -> deconv2
I0813 04:42:56.884654 22667 net.cpp:84] Top shape: 2 64 54 54 (373248)
I0813 04:42:56.884660 22667 net.cpp:116] deconv2 does not need backward computation.
I0813 04:42:56.884665 22667 net.cpp:65] Creating Layer relu_deconv2
I0813 04:42:56.884667 22667 net.cpp:228] relu_deconv2 <- deconv2
I0813 04:42:56.884671 22667 net.cpp:179] relu_deconv2 -> deconv2 (in-place)
I0813 04:42:56.884676 22667 net.cpp:84] Top shape: 2 64 54 54 (373248)
I0813 04:42:56.884678 22667 net.cpp:116] relu_deconv2 does not need backward computation.
I0813 04:42:56.884695 22667 net.cpp:65] Creating Layer deconv1
I0813 04:42:56.884697 22667 net.cpp:228] deconv1 <- deconv2
I0813 04:42:56.884701 22667 net.cpp:189] deconv1 -> deconv1
I0813 04:42:56.884834 22667 net.cpp:84] Top shape: 2 32 108 108 (746496)
I0813 04:42:56.884837 22667 net.cpp:116] deconv1 does not need backward computation.
I0813 04:42:56.884841 22667 net.cpp:65] Creating Layer relu_deconv1
I0813 04:42:56.884845 22667 net.cpp:228] relu_deconv1 <- deconv1
I0813 04:42:56.884848 22667 net.cpp:179] relu_deconv1 -> deconv1 (in-place)
I0813 04:42:56.884853 22667 net.cpp:84] Top shape: 2 32 108 108 (746496)
I0813 04:42:56.884855 22667 net.cpp:116] relu_deconv1 does not need backward computation.
I0813 04:42:56.884860 22667 net.cpp:65] Creating Layer deconv0
I0813 04:42:56.884863 22667 net.cpp:228] deconv0 <- deconv1
I0813 04:42:56.884867 22667 net.cpp:189] deconv0 -> deconv0
I0813 04:42:56.884886 22667 net.cpp:84] Top shape: 2 3 216 216 (279936)
I0813 04:42:56.884889 22667 net.cpp:116] deconv0 does not need backward computation.
I0813 04:42:56.884892 22667 net.cpp:65] Creating Layer loss
I0813 04:42:56.884896 22667 net.cpp:228] loss <- deconv0
I0813 04:42:56.884898 22667 net.cpp:228] loss <- target_ims
I0813 04:42:56.884902 22667 net.cpp:116] loss does not need backward computation.
I0813 04:42:56.884914 22667 net.cpp:238] Collecting Learning Rate and Weight Decay.
…
