…
    source: "/scr/r6/tgebru/inverting_conv/caffe_invert_alexnet/data/siggraph/tiny_winter_train_lmdb"
    mean_file: "/scr/r6/tgebru/timnit_caffe/data/ilsvrc12/imagenet_mean.binaryproto"
    batch_size: 12
    crop_size: 227
    mirror: false
    backend: LMDB
  }
}
layers {
  top: "target_ims"
  name: "target_ims"
  type: DATA
  data_param {
    source: "/scr/r6/tgebru/inverting_conv/caffe_invert_alexnet/data/siggraph/tiny_summer_train_lmdb"
    mean_file: "/scr/r6/tgebru/timnit_caffe/data/ilsvrc12/imagenet_mean.binaryproto"
    batch_size: 12
    crop_size: 216
    mirror: false
    backend: LMDB
  }
}
layers {
  bottom: "source_ims"
  top: "conv1"
  name: "conv1"
  type: CONVOLUTION
  blobs_lr: 0
  blobs_lr: 0
  weight_decay: 1
  weight_decay: 0
  convolution_param {
    num_output: 96
    kernel_size: 11
    stride: 4
    weight_filler {
      type: "gaussian"
      std: 0.01
    }
    bias_filler {
      type: "constant"
      value: 0
    }
  }
}
layers {
  bottom: "conv1"
  top: "conv1"
  name: "relu1"
  type: RELU
}
layers {
  bottom: "conv1"
  top: "pool1"
  name: "pool1"
  type: POOLING
  pooling_param {
    pool: MAX
    kernel_size: 3
    stride: 2
  }
}
layers {
  bottom: "pool1"
  top: "norm1"
  name: "norm1"
  type: LRN
  lrn_param {
    local_size: 5
    alpha: 0.0001
    beta: 0.75
  }
}
layers {
  bottom: "norm1"
  top: "Rconv6"
  name: "Rconv6"
  type: CONVOLUTION
  blobs_lr: 1
  blobs_lr: 2
  weight_decay: 1
  weight_decay: 0
  convolution_param {
    num_output: 256
    pad: 1
    kernel_size: 3
  }
}
layers {
  bottom: "Rconv6"
  top: "Rconv6"
  name: "Rrelu6"
  type: RELU
}
layers {
  bottom: "Rconv6"
  top: "Rconv7"
  name: "Rconv7"
  type: CONVOLUTION
  blobs_lr: 1
  blobs_lr: 2
  weight_decay: 1
  weight_decay: 0
  convolution_param {
    num_output: 256
    pad: 1
    kernel_size: 3
    group: 2
  }
}
layers {
  bottom: "Rconv7"
  top: "Rconv7"
  name: "Rrelu7"
  type: RELU
}
layers {
  bottom: "Rconv7"
  top: "Rconv8"
  name: "Rconv8"
  type: CONVOLUTION
  blobs_lr: 1
  blobs_lr: 2
  weight_decay: 1
  weight_decay: 0
  convolution_param {
    num_output: 256
    pad: 1
    kernel_size: 3
    group: 2
  }
}
layers {
  bottom: "Rconv8"
  top: "Rconv8"
  name: "Rrelu8"
  type: RELU
}
layers {
  bottom: "Rconv8"
  top: "deconv2"
  name: "deconv2"
  type: DECONVOLUTION
  blobs_lr: 1
  blobs_lr: 2
  weight_decay: 1
  weight_decay: 0
  deconvolution_param {
    pad: 2
    kernel_size: 5
    stride: 2
    output_height: 54
    output_width: 54
    output_channels: 64
  }
}
layers {
  bottom: "deconv2"
  top: "deconv2"
  name: "relu_deconv2"
  type: RELU
  relu_param {
    negative_slope: 0.3
  }
}
layers {
  bottom: "deconv2"
  top: "deconv1"
  name: "deconv1"
  type: DECONVOLUTION
  blobs_lr: 1
  blobs_lr: 2
  weight_decay: 1
  weight_decay: 0
  deconvolution_param {
    pad: 2
    kernel_size: 5
    stride: 2
    output_height: 108
    output_width: 108
    output_channels: 32
  }
}
layers {
  bottom: "deconv1"
  top: "deconv1"
  name: "relu_deconv1"
  type: RELU
  relu_param {
    negative_slope: 0.3
  }
}
layers {
  bottom: "deconv1"
  top: "deconv0"
  name: "deconv0"
  type: DECONVOLUTION
  blobs_lr: 1
  blobs_lr: 2
  weight_decay: 1
  weight_decay: 1
  deconvolution_param {
    pad: 2
    kernel_size: 5
    stride: 2
    output_height: 216
    output_width: 216
    output_channels: 3
  }
}
layers {
  bottom: "deconv0"
  bottom: "target_ims"
  name: "loss"
  type: EUCLIDEAN_LOSS
}
I0813 14:03:25.161587 23697 net.cpp:65] Creating Layer source_ims
I0813 14:03:25.161595 23697 net.cpp:189] source_ims -> source_ims
I0813 14:03:25.161698 23697 data_layer.cpp:223] Opening lmdb /scr/r6/tgebru/inverting_conv/caffe_invert_alexnet/data/siggraph/tiny_winter_train_lmdb
I0813 14:03:25.161916 23697 data_layer.cpp:285] output data size: 12,3,227,227
I0813 14:03:25.161923 23697 data_layer.cpp:304] Loading mean file from/scr/r6/tgebru/timnit_caffe/data/ilsvrc12/imagenet_mean.binaryproto
I0813 14:03:25.166975 23697 net.cpp:84] Top shape: 12 3 227 227 (1855044)
I0813 14:03:25.166983 23697 net.cpp:116] source_ims does not need backward computation.
I0813 14:03:25.166990 23697 net.cpp:65] Creating Layer target_ims
I0813 14:03:25.166993 23697 net.cpp:189] target_ims -> target_ims
I0813 14:03:25.167074 23697 data_layer.cpp:223] Opening lmdb /scr/r6/tgebru/inverting_conv/caffe_invert_alexnet/data/siggraph/tiny_summer_train_lmdb
I0813 14:03:25.167188 23697 data_layer.cpp:285] output data size: 12,3,216,216
I0813 14:03:25.167192 23697 data_layer.cpp:304] Loading mean file from/scr/r6/tgebru/timnit_caffe/data/ilsvrc12/imagenet_mean.binaryproto
I0813 14:03:25.170929 23697 net.cpp:84] Top shape: 12 3 216 216 (1679616)
I0813 14:03:25.170935 23697 net.cpp:116] target_ims does not need backward computation.
I0813 14:03:25.170943 23697 net.cpp:65] Creating Layer conv1
I0813 14:03:25.170946 23697 net.cpp:228] conv1 <- source_ims
I0813 14:03:25.170975 23697 net.cpp:189] conv1 -> conv1
I0813 14:03:25.172243 23697 net.cpp:84] Top shape: 12 96 55 55 (3484800)
I0813 14:03:25.172248 23697 net.cpp:116] conv1 does not need backward computation.
I0813 14:03:25.172252 23697 net.cpp:65] Creating Layer relu1
I0813 14:03:25.172255 23697 net.cpp:228] relu1 <- conv1
I0813 14:03:25.172260 23697 net.cpp:179] relu1 -> conv1 (in-place)
I0813 14:03:25.172268 23697 net.cpp:84] Top shape: 12 96 55 55 (3484800)
I0813 14:03:25.172271 23697 net.cpp:116] relu1 does not need backward computation.
I0813 14:03:25.172277 23697 net.cpp:65] Creating Layer pool1
I0813 14:03:25.172279 23697 net.cpp:228] pool1 <- conv1
I0813 14:03:25.172284 23697 net.cpp:189] pool1 -> pool1
I0813 14:03:25.172297 23697 net.cpp:84] Top shape: 12 96 27 27 (839808)
I0813 14:03:25.172299 23697 net.cpp:116] pool1 does not need backward computation.
I0813 14:03:25.172303 23697 net.cpp:65] Creating Layer norm1
I0813 14:03:25.172307 23697 net.cpp:228] norm1 <- pool1
I0813 14:03:25.172310 23697 net.cpp:189] norm1 -> norm1
I0813 14:03:25.172319 23697 net.cpp:84] Top shape: 12 96 27 27 (839808)
I0813 14:03:25.172322 23697 net.cpp:116] norm1 does not need backward computation.
I0813 14:03:25.172327 23697 net.cpp:65] Creating Layer Rconv6
I0813 14:03:25.172329 23697 net.cpp:228] Rconv6 <- norm1
I0813 14:03:25.172333 23697 net.cpp:189] Rconv6 -> Rconv6
I0813 14:03:25.172502 23697 net.cpp:84] Top shape: 12 256 27 27 (2239488)
I0813 14:03:25.172507 23697 net.cpp:111] Rconv6 needs backward computation.
I0813 14:03:25.172510 23697 net.cpp:65] Creating Layer Rrelu6
I0813 14:03:25.172513 23697 net.cpp:228] Rrelu6 <- Rconv6
I0813 14:03:25.172518 23697 net.cpp:179] Rrelu6 -> Rconv6 (in-place)
I0813 14:03:25.172523 23697 net.cpp:84] Top shape: 12 256 27 27 (2239488)
I0813 14:03:25.172525 23697 net.cpp:111] Rrelu6 needs backward computation.
I0813 14:03:25.172530 23697 net.cpp:65] Creating Layer Rconv7
I0813 14:03:25.172533 23697 net.cpp:228] Rconv7 <- Rconv6
I0813 14:03:25.172536 23697 net.cpp:189] Rconv7 -> Rconv7
I0813 14:03:25.173226 23697 net.cpp:84] Top shape: 12 256 27 27 (2239488)
I0813 14:03:25.173230 23697 net.cpp:111] Rconv7 needs backward computation.
I0813 14:03:25.173234 23697 net.cpp:65] Creating Layer Rrelu7
I0813 14:03:25.173256 23697 net.cpp:228] Rrelu7 <- Rconv7
I0813 14:03:25.173261 23697 net.cpp:179] Rrelu7 -> Rconv7 (in-place)
I0813 14:03:25.173265 23697 net.cpp:84] Top shape: 12 256 27 27 (2239488)
I0813 14:03:25.173269 23697 net.cpp:111] Rrelu7 needs backward computation.
I0813 14:03:25.173274 23697 net.cpp:65] Creating Layer Rconv8
I0813 14:03:25.173275 23697 net.cpp:228] Rconv8 <- Rconv7
I0813 14:03:25.173280 23697 net.cpp:189] Rconv8 -> Rconv8
I0813 14:03:25.174103 23697 net.cpp:84] Top shape: 12 256 27 27 (2239488)
I0813 14:03:25.174106 23697 net.cpp:111] Rconv8 needs backward computation.
I0813 14:03:25.174110 23697 net.cpp:65] Creating Layer Rrelu8
I0813 14:03:25.174113 23697 net.cpp:228] Rrelu8 <- Rconv8
I0813 14:03:25.174118 23697 net.cpp:179] Rrelu8 -> Rconv8 (in-place)
I0813 14:03:25.174121 23697 net.cpp:84] Top shape: 12 256 27 27 (2239488)
I0813 14:03:25.174124 23697 net.cpp:111] Rrelu8 needs backward computation.
I0813 14:03:25.174129 23697 net.cpp:65] Creating Layer deconv2
I0813 14:03:25.174130 23697 net.cpp:228] deconv2 <- Rconv8
I0813 14:03:25.174134 23697 net.cpp:189] deconv2 -> deconv2
I0813 14:03:25.175184 23697 net.cpp:84] Top shape: 12 64 54 54 (2239488)
I0813 14:03:25.175187 23697 net.cpp:111] deconv2 needs backward computation.
I0813 14:03:25.175192 23697 net.cpp:65] Creating Layer relu_deconv2
I0813 14:03:25.175195 23697 net.cpp:228] relu_deconv2 <- deconv2
I0813 14:03:25.175199 23697 net.cpp:179] relu_deconv2 -> deconv2 (in-place)
I0813 14:03:25.175204 23697 net.cpp:84] Top shape: 12 64 54 54 (2239488)
I0813 14:03:25.175206 23697 net.cpp:111] relu_deconv2 needs backward computation.
I0813 14:03:25.175210 23697 net.cpp:65] Creating Layer deconv1
I0813 14:03:25.175212 23697 net.cpp:228] deconv1 <- deconv2
I0813 14:03:25.175216 23697 net.cpp:189] deconv1 -> deconv1
I0813 14:03:25.175364 23697 net.cpp:84] Top shape: 12 32 108 108 (4478976)
I0813 14:03:25.175367 23697 net.cpp:111] deconv1 needs backward computation.
I0813 14:03:25.175371 23697 net.cpp:65] Creating Layer relu_deconv1
I0813 14:03:25.175374 23697 net.cpp:228] relu_deconv1 <- deconv1
I0813 14:03:25.175377 23697 net.cpp:179] relu_deconv1 -> deconv1 (in-place)
I0813 14:03:25.175381 23697 net.cpp:84] Top shape: 12 32 108 108 (4478976)
I0813 14:03:25.175384 23697 net.cpp:111] relu_deconv1 needs backward computation.
I0813 14:03:25.175390 23697 net.cpp:65] Creating Layer deconv0
I0813 14:03:25.175392 23697 net.cpp:228] deconv0 <- deconv1
I0813 14:03:25.175396 23697 net.cpp:189] deconv0 -> deconv0
I0813 14:03:25.175438 23697 net.cpp:84] Top shape: 12 3 216 216 (1679616)
I0813 14:03:25.175441 23697 net.cpp:111] deconv0 needs backward computation.
I0813 14:03:25.175446 23697 net.cpp:65] Creating Layer loss
I0813 14:03:25.175447 23697 net.cpp:228] loss <- deconv0
I0813 14:03:25.175451 23697 net.cpp:228] loss <- target_ims
I0813 14:03:25.175459 23697 net.cpp:111] loss needs backward computation.
I0813 14:03:25.175472 23697 net.cpp:238] Collecting Learning Rate and Weight Decay.
…
    source: "/scr/r6/tgebru/inverting_conv/caffe_invert_alexnet/data/siggraph/tiny_winter_val_lmdb"
    mean_file: "/scr/r6/tgebru/timnit_caffe/data/ilsvrc12/imagenet_mean.binaryproto"
    batch_size: 2
    crop_size: 227
    mirror: false
    backend: LMDB
  }
}
layers {
  top: "target_ims"
  name: "target_ims"
  type: DATA
  data_param {
    source: "/scr/r6/tgebru/inverting_conv/caffe_invert_alexnet/data/siggraph/tiny_summer_val_lmdb"
    mean_file: "/scr/r6/tgebru/timnit_caffe/data/ilsvrc12/imagenet_mean.binaryproto"
    batch_size: 2
    crop_size: 216
    mirror: false
    backend: LMDB
  }
}
layers {
  bottom: "source_ims"
  top: "conv1"
  name: "conv1"
  type: CONVOLUTION
  blobs_lr: 0
  blobs_lr: 0
  weight_decay: 1
  weight_decay: 0
  convolution_param {
    num_output: 96
    kernel_size: 11
    stride: 4
    weight_filler {
      type: "gaussian"
      std: 0.01
    }
    bias_filler {
      type: "constant"
      value: 0
    }
  }
}
layers {
  bottom: "conv1"
  top: "conv1"
  name: "relu1"
  type: RELU
}
layers {
  bottom: "conv1"
  top: "pool1"
  name: "pool1"
  type: POOLING
  pooling_param {
    pool: MAX
    kernel_size: 3
    stride: 2
  }
}
layers {
  bottom: "pool1"
  top: "norm1"
  name: "norm1"
  type: LRN
  lrn_param {
    local_size: 5
    alpha: 0.0001
    beta: 0.75
  }
}
layers {
  bottom: "norm1"
  top: "Rconv6"
  name: "Rconv6"
  type: CONVOLUTION
  blobs_lr: 0
  blobs_lr: 0
  weight_decay: 1
  weight_decay: 0
  convolution_param {
    num_output: 256
    pad: 1
    kernel_size: 3
  }
}
layers {
  bottom: "Rconv6"
  top: "Rconv6"
  name: "Rrelu6"
  type: RELU
}
layers {
  bottom: "Rconv6"
  top: "Rconv7"
  name: "Rconv7"
  type: CONVOLUTION
  blobs_lr: 0
  blobs_lr: 0
  weight_decay: 1
  weight_decay: 0
  convolution_param {
    num_output: 256
    pad: 1
    kernel_size: 3
    group: 2
  }
}
layers {
  bottom: "Rconv7"
  top: "Rconv7"
  name: "Rrelu7"
  type: RELU
}
layers {
  bottom: "Rconv7"
  top: "Rconv8"
  name: "Rconv8"
  type: CONVOLUTION
  blobs_lr: 0
  blobs_lr: 0
  weight_decay: 1
  weight_decay: 0
  convolution_param {
    num_output: 256
    pad: 1
    kernel_size: 3
    group: 2
  }
}
layers {
  bottom: "Rconv8"
  top: "Rconv8"
  name: "Rrelu8"
  type: RELU
}
layers {
  bottom: "Rconv8"
  top: "deconv2"
  name: "deconv2"
  type: DECONVOLUTION
  blobs_lr: 0
  blobs_lr: 0
  weight_decay: 1
  weight_decay: 0
  deconvolution_param {
    pad: 2
    kernel_size: 5
    stride: 2
    output_height: 54
    output_width: 54
    output_channels: 64
  }
}
layers {
  bottom: "deconv2"
  top: "deconv2"
  name: "relu_deconv2"
  type: RELU
  relu_param {
    negative_slope: 0.3
  }
}
layers {
  bottom: "deconv2"
  top: "deconv1"
  name: "deconv1"
  type: DECONVOLUTION
  blobs_lr: 0
  blobs_lr: 0
  weight_decay: 1
  weight_decay: 0
  deconvolution_param {
    pad: 2
    kernel_size: 5
    stride: 2
    output_height: 108
    output_width: 108
    output_channels: 32
  }
}
layers {
  bottom: "deconv1"
  top: "deconv1"
  name: "relu_deconv1"
  type: RELU
  relu_param {
    negative_slope: 0.3
  }
}
layers {
  bottom: "deconv1"
  top: "deconv0"
  name: "deconv0"
  type: DECONVOLUTION
  blobs_lr: 0
  blobs_lr: 0
  weight_decay: 1
  weight_decay: 0
  deconvolution_param {
    pad: 2
    kernel_size: 5
    stride: 2
    output_height: 216
    output_width: 216
    output_channels: 3
  }
}
layers {
  bottom: "deconv0"
  bottom: "target_ims"
  name: "loss"
  type: EUCLIDEAN_LOSS
}
I0813 14:03:25.176205 23697 net.cpp:65] Creating Layer source_ims
I0813 14:03:25.176210 23697 net.cpp:189] source_ims -> source_ims
I0813 14:03:25.176280 23697 data_layer.cpp:223] Opening lmdb /scr/r6/tgebru/inverting_conv/caffe_invert_alexnet/data/siggraph/tiny_winter_val_lmdb
I0813 14:03:25.176484 23697 data_layer.cpp:285] output data size: 2,3,227,227
I0813 14:03:25.176488 23697 data_layer.cpp:304] Loading mean file from/scr/r6/tgebru/timnit_caffe/data/ilsvrc12/imagenet_mean.binaryproto
I0813 14:03:25.178813 23697 net.cpp:84] Top shape: 2 3 227 227 (309174)
I0813 14:03:25.178820 23697 net.cpp:116] source_ims does not need backward computation.
I0813 14:03:25.178828 23697 net.cpp:65] Creating Layer target_ims
I0813 14:03:25.178831 23697 net.cpp:189] target_ims -> target_ims
I0813 14:03:25.178882 23697 data_layer.cpp:223] Opening lmdb /scr/r6/tgebru/inverting_conv/caffe_invert_alexnet/data/siggraph/tiny_summer_val_lmdb
I0813 14:03:25.179086 23697 data_layer.cpp:285] output data size: 2,3,216,216
I0813 14:03:25.179090 23697 data_layer.cpp:304] Loading mean file from/scr/r6/tgebru/timnit_caffe/data/ilsvrc12/imagenet_mean.binaryproto
I0813 14:03:25.181749 23697 net.cpp:84] Top shape: 2 3 216 216 (279936)
I0813 14:03:25.181768 23697 net.cpp:116] target_ims does not need backward computation.
I0813 14:03:25.181777 23697 net.cpp:65] Creating Layer conv1
I0813 14:03:25.181779 23697 net.cpp:228] conv1 <- source_ims
I0813 14:03:25.181785 23697 net.cpp:189] conv1 -> conv1
I0813 14:03:25.183027 23697 net.cpp:84] Top shape: 2 96 55 55 (580800)
I0813 14:03:25.183030 23697 net.cpp:116] conv1 does not need backward computation.
I0813 14:03:25.183034 23697 net.cpp:65] Creating Layer relu1
I0813 14:03:25.183037 23697 net.cpp:228] relu1 <- conv1
I0813 14:03:25.183042 23697 net.cpp:179] relu1 -> conv1 (in-place)
I0813 14:03:25.183046 23697 net.cpp:84] Top shape: 2 96 55 55 (580800)
I0813 14:03:25.183048 23697 net.cpp:116] relu1 does not need backward computation.
I0813 14:03:25.183053 23697 net.cpp:65] Creating Layer pool1
I0813 14:03:25.183056 23697 net.cpp:228] pool1 <- conv1
I0813 14:03:25.183059 23697 net.cpp:189] pool1 -> pool1
I0813 14:03:25.183065 23697 net.cpp:84] Top shape: 2 96 27 27 (139968)
I0813 14:03:25.183068 23697 net.cpp:116] pool1 does not need backward computation.
I0813 14:03:25.183073 23697 net.cpp:65] Creating Layer norm1
I0813 14:03:25.183075 23697 net.cpp:228] norm1 <- pool1
I0813 14:03:25.183079 23697 net.cpp:189] norm1 -> norm1
I0813 14:03:25.183084 23697 net.cpp:84] Top shape: 2 96 27 27 (139968)
I0813 14:03:25.183087 23697 net.cpp:116] norm1 does not need backward computation.
I0813 14:03:25.183091 23697 net.cpp:65] Creating Layer Rconv6
I0813 14:03:25.183094 23697 net.cpp:228] Rconv6 <- norm1
I0813 14:03:25.183099 23697 net.cpp:189] Rconv6 -> Rconv6
I0813 14:03:25.183703 23697 net.cpp:84] Top shape: 2 256 27 27 (373248)
I0813 14:03:25.183708 23697 net.cpp:116] Rconv6 does not need backward computation.
I0813 14:03:25.183713 23697 net.cpp:65] Creating Layer Rrelu6
I0813 14:03:25.183717 23697 net.cpp:228] Rrelu6 <- Rconv6
I0813 14:03:25.183720 23697 net.cpp:179] Rrelu6 -> Rconv6 (in-place)
I0813 14:03:25.183725 23697 net.cpp:84] Top shape: 2 256 27 27 (373248)
I0813 14:03:25.183728 23697 net.cpp:116] Rrelu6 does not need backward computation.
I0813 14:03:25.183732 23697 net.cpp:65] Creating Layer Rconv7
I0813 14:03:25.183735 23697 net.cpp:228] Rconv7 <- Rconv6
I0813 14:03:25.183739 23697 net.cpp:189] Rconv7 -> Rconv7
I0813 14:03:25.184470 23697 net.cpp:84] Top shape: 2 256 27 27 (373248)
I0813 14:03:25.184475 23697 net.cpp:116] Rconv7 does not need backward computation.
I0813 14:03:25.184479 23697 net.cpp:65] Creating Layer Rrelu7
I0813 14:03:25.184481 23697 net.cpp:228] Rrelu7 <- Rconv7
I0813 14:03:25.184485 23697 net.cpp:179] Rrelu7 -> Rconv7 (in-place)
I0813 14:03:25.184489 23697 net.cpp:84] Top shape: 2 256 27 27 (373248)
I0813 14:03:25.184492 23697 net.cpp:116] Rrelu7 does not need backward computation.
I0813 14:03:25.184496 23697 net.cpp:65] Creating Layer Rconv8
I0813 14:03:25.184499 23697 net.cpp:228] Rconv8 <- Rconv7
I0813 14:03:25.184502 23697 net.cpp:189] Rconv8 -> Rconv8
I0813 14:03:25.185236 23697 net.cpp:84] Top shape: 2 256 27 27 (373248)
I0813 14:03:25.185240 23697 net.cpp:116] Rconv8 does not need backward computation.
I0813 14:03:25.185245 23697 net.cpp:65] Creating Layer Rrelu8
I0813 14:03:25.185247 23697 net.cpp:228] Rrelu8 <- Rconv8
I0813 14:03:25.185250 23697 net.cpp:179] Rrelu8 -> Rconv8 (in-place)
I0813 14:03:25.185255 23697 net.cpp:84] Top shape: 2 256 27 27 (373248)
I0813 14:03:25.185257 23697 net.cpp:116] Rrelu8 does not need backward computation.
I0813 14:03:25.185261 23697 net.cpp:65] Creating Layer deconv2
I0813 14:03:25.185264 23697 net.cpp:228] deconv2 <- Rconv8
I0813 14:03:25.185267 23697 net.cpp:189] deconv2 -> deconv2
I0813 14:03:25.186293 23697 net.cpp:84] Top shape: 2 64 54 54 (373248)
I0813 14:03:25.186298 23697 net.cpp:116] deconv2 does not need backward computation.
I0813 14:03:25.186302 23697 net.cpp:65] Creating Layer relu_deconv2
I0813 14:03:25.186305 23697 net.cpp:228] relu_deconv2 <- deconv2
I0813 14:03:25.186310 23697 net.cpp:179] relu_deconv2 -> deconv2 (in-place)
I0813 14:03:25.186314 23697 net.cpp:84] Top shape: 2 64 54 54 (373248)
I0813 14:03:25.186316 23697 net.cpp:116] relu_deconv2 does not need backward computation.
I0813 14:03:25.186333 23697 net.cpp:65] Creating Layer deconv1
I0813 14:03:25.186336 23697 net.cpp:228] deconv1 <- deconv2
I0813 14:03:25.186341 23697 net.cpp:189] deconv1 -> deconv1
I0813 14:03:25.186487 23697 net.cpp:84] Top shape: 2 32 108 108 (746496)
I0813 14:03:25.186491 23697 net.cpp:116] deconv1 does not need backward computation.
I0813 14:03:25.186496 23697 net.cpp:65] Creating Layer relu_deconv1
I0813 14:03:25.186497 23697 net.cpp:228] relu_deconv1 <- deconv1
I0813 14:03:25.186501 23697 net.cpp:179] relu_deconv1 -> deconv1 (in-place)
I0813 14:03:25.186506 23697 net.cpp:84] Top shape: 2 32 108 108 (746496)
I0813 14:03:25.186508 23697 net.cpp:116] relu_deconv1 does not need backward computation.
I0813 14:03:25.186513 23697 net.cpp:65] Creating Layer deconv0
I0813 14:03:25.186517 23697 net.cpp:228] deconv0 <- deconv1
I0813 14:03:25.186519 23697 net.cpp:189] deconv0 -> deconv0
I0813 14:03:25.186537 23697 net.cpp:84] Top shape: 2 3 216 216 (279936)
I0813 14:03:25.186540 23697 net.cpp:116] deconv0 does not need backward computation.
I0813 14:03:25.186544 23697 net.cpp:65] Creating Layer loss
I0813 14:03:25.186547 23697 net.cpp:228] loss <- deconv0
I0813 14:03:25.186550 23697 net.cpp:228] loss <- target_ims
I0813 14:03:25.186555 23697 net.cpp:116] loss does not need backward computation.
I0813 14:03:25.186568 23697 net.cpp:238] Collecting Learning Rate and Weight Decay.
…
