…
    source: "/scr/r6/tgebru/inverting_conv/caffe_invert_alexnet/data/siggraph/tiny_summer_train_lmdb"
    mean_file: "/scr/r6/tgebru/timnit_caffe/data/ilsvrc12/imagenet_mean.binaryproto"
    batch_size: 12
    crop_size: 227
    mirror: false
    backend: LMDB
  }
}
layers {
  top: "target_ims"
  name: "target_ims"
  type: DATA
  data_param {
    source: "/scr/r6/tgebru/inverting_conv/caffe_invert_alexnet/data/siggraph/tiny_winter_train_lmdb"
    mean_file: "/scr/r6/tgebru/timnit_caffe/data/ilsvrc12/imagenet_mean.binaryproto"
    batch_size: 12
    crop_size: 216
    mirror: false
    backend: LMDB
  }
}
layers {
  bottom: "source_ims"
  top: "conv1"
  name: "conv1"
  type: CONVOLUTION
  blobs_lr: 0
  blobs_lr: 0
  weight_decay: 1
  weight_decay: 0
  convolution_param {
    num_output: 96
    kernel_size: 11
    stride: 4
    weight_filler {
      type: "gaussian"
      std: 0.01
    }
    bias_filler {
      type: "constant"
      value: 0
    }
  }
}
layers {
  bottom: "conv1"
  top: "conv1"
  name: "relu1"
  type: RELU
}
layers {
  bottom: "conv1"
  top: "pool1"
  name: "pool1"
  type: POOLING
  pooling_param {
    pool: MAX
    kernel_size: 3
    stride: 2
  }
}
layers {
  bottom: "pool1"
  top: "norm1"
  name: "norm1"
  type: LRN
  lrn_param {
    local_size: 5
    alpha: 0.0001
    beta: 0.75
  }
}
layers {
  bottom: "norm1"
  top: "Rconv6"
  name: "Rconv6"
  type: CONVOLUTION
  blobs_lr: 1
  blobs_lr: 2
  weight_decay: 1
  weight_decay: 0
  convolution_param {
    num_output: 256
    pad: 1
    kernel_size: 3
  }
}
layers {
  bottom: "Rconv6"
  top: "Rconv6"
  name: "Rrelu6"
  type: RELU
}
layers {
  bottom: "Rconv6"
  top: "Rconv7"
  name: "Rconv7"
  type: CONVOLUTION
  blobs_lr: 1
  blobs_lr: 2
  weight_decay: 1
  weight_decay: 0
  convolution_param {
    num_output: 256
    pad: 1
    kernel_size: 3
    group: 2
  }
}
layers {
  bottom: "Rconv7"
  top: "Rconv7"
  name: "Rrelu7"
  type: RELU
}
layers {
  bottom: "Rconv7"
  top: "Rconv8"
  name: "Rconv8"
  type: CONVOLUTION
  blobs_lr: 1
  blobs_lr: 2
  weight_decay: 1
  weight_decay: 0
  convolution_param {
    num_output: 256
    pad: 1
    kernel_size: 3
    group: 2
  }
}
layers {
  bottom: "Rconv8"
  top: "Rconv8"
  name: "Rrelu8"
  type: RELU
}
layers {
  bottom: "Rconv8"
  top: "deconv2"
  name: "deconv2"
  type: DECONVOLUTION
  blobs_lr: 1
  blobs_lr: 2
  weight_decay: 1
  weight_decay: 0
  deconvolution_param {
    pad: 2
    kernel_size: 5
    stride: 2
    output_height: 54
    output_width: 54
    output_channels: 64
  }
}
layers {
  bottom: "deconv2"
  top: "deconv2"
  name: "relu_deconv2"
  type: RELU
  relu_param {
    negative_slope: 0.3
  }
}
layers {
  bottom: "deconv2"
  top: "deconv1"
  name: "deconv1"
  type: DECONVOLUTION
  blobs_lr: 1
  blobs_lr: 2
  weight_decay: 1
  weight_decay: 0
  deconvolution_param {
    pad: 2
    kernel_size: 5
    stride: 2
    output_height: 108
    output_width: 108
    output_channels: 32
  }
}
layers {
  bottom: "deconv1"
  top: "deconv1"
  name: "relu_deconv1"
  type: RELU
  relu_param {
    negative_slope: 0.3
  }
}
layers {
  bottom: "deconv1"
  top: "deconv0"
  name: "deconv0"
  type: DECONVOLUTION
  blobs_lr: 1
  blobs_lr: 2
  weight_decay: 1
  weight_decay: 1
  deconvolution_param {
    pad: 2
    kernel_size: 5
    stride: 2
    output_height: 216
    output_width: 216
    output_channels: 3
  }
}
layers {
  bottom: "deconv0"
  bottom: "target_ims"
  name: "loss"
  type: EUCLIDEAN_LOSS
}
I0813 07:10:48.941093  8803 net.cpp:65] Creating Layer source_ims
I0813 07:10:48.941102  8803 net.cpp:189] source_ims -> source_ims
I0813 07:10:48.941203  8803 data_layer.cpp:223] Opening lmdb /scr/r6/tgebru/inverting_conv/caffe_invert_alexnet/data/siggraph/tiny_summer_train_lmdb
I0813 07:10:48.941411  8803 data_layer.cpp:285] output data size: 12,3,227,227
I0813 07:10:48.941426  8803 data_layer.cpp:304] Loading mean file from/scr/r6/tgebru/timnit_caffe/data/ilsvrc12/imagenet_mean.binaryproto
I0813 07:10:48.946051  8803 net.cpp:84] Top shape: 12 3 227 227 (1855044)
I0813 07:10:48.946059  8803 net.cpp:116] source_ims does not need backward computation.
I0813 07:10:48.946065  8803 net.cpp:65] Creating Layer target_ims
I0813 07:10:48.946069  8803 net.cpp:189] target_ims -> target_ims
I0813 07:10:48.946229  8803 data_layer.cpp:223] Opening lmdb /scr/r6/tgebru/inverting_conv/caffe_invert_alexnet/data/siggraph/tiny_winter_train_lmdb
I0813 07:10:48.946383  8803 data_layer.cpp:285] output data size: 12,3,216,216
I0813 07:10:48.946388  8803 data_layer.cpp:304] Loading mean file from/scr/r6/tgebru/timnit_caffe/data/ilsvrc12/imagenet_mean.binaryproto
I0813 07:10:48.950337  8803 net.cpp:84] Top shape: 12 3 216 216 (1679616)
I0813 07:10:48.950346  8803 net.cpp:116] target_ims does not need backward computation.
I0813 07:10:48.950357  8803 net.cpp:65] Creating Layer conv1
I0813 07:10:48.950362  8803 net.cpp:228] conv1 <- source_ims
I0813 07:10:48.950474  8803 net.cpp:189] conv1 -> conv1
I0813 07:10:48.951876  8803 net.cpp:84] Top shape: 12 96 55 55 (3484800)
I0813 07:10:48.951882  8803 net.cpp:116] conv1 does not need backward computation.
I0813 07:10:48.951889  8803 net.cpp:65] Creating Layer relu1
I0813 07:10:48.951891  8803 net.cpp:228] relu1 <- conv1
I0813 07:10:48.951896  8803 net.cpp:179] relu1 -> conv1 (in-place)
I0813 07:10:48.951905  8803 net.cpp:84] Top shape: 12 96 55 55 (3484800)
I0813 07:10:48.951908  8803 net.cpp:116] relu1 does not need backward computation.
I0813 07:10:48.951913  8803 net.cpp:65] Creating Layer pool1
I0813 07:10:48.951916  8803 net.cpp:228] pool1 <- conv1
I0813 07:10:48.951921  8803 net.cpp:189] pool1 -> pool1
I0813 07:10:48.951933  8803 net.cpp:84] Top shape: 12 96 27 27 (839808)
I0813 07:10:48.951936  8803 net.cpp:116] pool1 does not need backward computation.
I0813 07:10:48.951941  8803 net.cpp:65] Creating Layer norm1
I0813 07:10:48.951944  8803 net.cpp:228] norm1 <- pool1
I0813 07:10:48.951949  8803 net.cpp:189] norm1 -> norm1
I0813 07:10:48.951957  8803 net.cpp:84] Top shape: 12 96 27 27 (839808)
I0813 07:10:48.951961  8803 net.cpp:116] norm1 does not need backward computation.
I0813 07:10:48.951966  8803 net.cpp:65] Creating Layer Rconv6
I0813 07:10:48.951968  8803 net.cpp:228] Rconv6 <- norm1
I0813 07:10:48.951973  8803 net.cpp:189] Rconv6 -> Rconv6
I0813 07:10:48.952229  8803 net.cpp:84] Top shape: 12 256 27 27 (2239488)
I0813 07:10:48.952234  8803 net.cpp:111] Rconv6 needs backward computation.
I0813 07:10:48.952237  8803 net.cpp:65] Creating Layer Rrelu6
I0813 07:10:48.952240  8803 net.cpp:228] Rrelu6 <- Rconv6
I0813 07:10:48.952244  8803 net.cpp:179] Rrelu6 -> Rconv6 (in-place)
I0813 07:10:48.952250  8803 net.cpp:84] Top shape: 12 256 27 27 (2239488)
I0813 07:10:48.952252  8803 net.cpp:111] Rrelu6 needs backward computation.
I0813 07:10:48.952257  8803 net.cpp:65] Creating Layer Rconv7
I0813 07:10:48.952260  8803 net.cpp:228] Rconv7 <- Rconv6
I0813 07:10:48.952265  8803 net.cpp:189] Rconv7 -> Rconv7
I0813 07:10:48.952958  8803 net.cpp:84] Top shape: 12 256 27 27 (2239488)
I0813 07:10:48.952963  8803 net.cpp:111] Rconv7 needs backward computation.
I0813 07:10:48.952968  8803 net.cpp:65] Creating Layer Rrelu7
I0813 07:10:48.952991  8803 net.cpp:228] Rrelu7 <- Rconv7
I0813 07:10:48.952996  8803 net.cpp:179] Rrelu7 -> Rconv7 (in-place)
I0813 07:10:48.953001  8803 net.cpp:84] Top shape: 12 256 27 27 (2239488)
I0813 07:10:48.953004  8803 net.cpp:111] Rrelu7 needs backward computation.
I0813 07:10:48.953008  8803 net.cpp:65] Creating Layer Rconv8
I0813 07:10:48.953011  8803 net.cpp:228] Rconv8 <- Rconv7
I0813 07:10:48.953014  8803 net.cpp:189] Rconv8 -> Rconv8
I0813 07:10:48.953774  8803 net.cpp:84] Top shape: 12 256 27 27 (2239488)
I0813 07:10:48.953779  8803 net.cpp:111] Rconv8 needs backward computation.
I0813 07:10:48.953784  8803 net.cpp:65] Creating Layer Rrelu8
I0813 07:10:48.953786  8803 net.cpp:228] Rrelu8 <- Rconv8
I0813 07:10:48.953790  8803 net.cpp:179] Rrelu8 -> Rconv8 (in-place)
I0813 07:10:48.953795  8803 net.cpp:84] Top shape: 12 256 27 27 (2239488)
I0813 07:10:48.953797  8803 net.cpp:111] Rrelu8 needs backward computation.
I0813 07:10:48.953802  8803 net.cpp:65] Creating Layer deconv2
I0813 07:10:48.953804  8803 net.cpp:228] deconv2 <- Rconv8
I0813 07:10:48.953809  8803 net.cpp:189] deconv2 -> deconv2
I0813 07:10:48.954915  8803 net.cpp:84] Top shape: 12 64 54 54 (2239488)
I0813 07:10:48.954920  8803 net.cpp:111] deconv2 needs backward computation.
I0813 07:10:48.954924  8803 net.cpp:65] Creating Layer relu_deconv2
I0813 07:10:48.954927  8803 net.cpp:228] relu_deconv2 <- deconv2
I0813 07:10:48.954931  8803 net.cpp:179] relu_deconv2 -> deconv2 (in-place)
I0813 07:10:48.954936  8803 net.cpp:84] Top shape: 12 64 54 54 (2239488)
I0813 07:10:48.954938  8803 net.cpp:111] relu_deconv2 needs backward computation.
I0813 07:10:48.954942  8803 net.cpp:65] Creating Layer deconv1
I0813 07:10:48.954946  8803 net.cpp:228] deconv1 <- deconv2
I0813 07:10:48.954949  8803 net.cpp:189] deconv1 -> deconv1
I0813 07:10:48.955086  8803 net.cpp:84] Top shape: 12 32 108 108 (4478976)
I0813 07:10:48.955090  8803 net.cpp:111] deconv1 needs backward computation.
I0813 07:10:48.955095  8803 net.cpp:65] Creating Layer relu_deconv1
I0813 07:10:48.955097  8803 net.cpp:228] relu_deconv1 <- deconv1
I0813 07:10:48.955101  8803 net.cpp:179] relu_deconv1 -> deconv1 (in-place)
I0813 07:10:48.955106  8803 net.cpp:84] Top shape: 12 32 108 108 (4478976)
I0813 07:10:48.955108  8803 net.cpp:111] relu_deconv1 needs backward computation.
I0813 07:10:48.955113  8803 net.cpp:65] Creating Layer deconv0
I0813 07:10:48.955116  8803 net.cpp:228] deconv0 <- deconv1
I0813 07:10:48.955121  8803 net.cpp:189] deconv0 -> deconv0
I0813 07:10:48.955166  8803 net.cpp:84] Top shape: 12 3 216 216 (1679616)
I0813 07:10:48.955170  8803 net.cpp:111] deconv0 needs backward computation.
I0813 07:10:48.955173  8803 net.cpp:65] Creating Layer loss
I0813 07:10:48.955176  8803 net.cpp:228] loss <- deconv0
I0813 07:10:48.955179  8803 net.cpp:228] loss <- target_ims
I0813 07:10:48.955188  8803 net.cpp:111] loss needs backward computation.
I0813 07:10:48.955200  8803 net.cpp:238] Collecting Learning Rate and Weight Decay.
…
    source: "/scr/r6/tgebru/inverting_conv/caffe_invert_alexnet/data/siggraph/tiny_summer_val_lmdb"
    mean_file: "/scr/r6/tgebru/timnit_caffe/data/ilsvrc12/imagenet_mean.binaryproto"
    batch_size: 64
    crop_size: 227
    mirror: false
    backend: LMDB
  }
}
layers {
  top: "target_ims"
  name: "target_ims"
  type: DATA
  data_param {
    source: "/scr/r6/tgebru/inverting_conv/caffe_invert_alexnet/data/siggraph/tiny_winter_val_lmdb"
    mean_file: "/scr/r6/tgebru/timnit_caffe/data/ilsvrc12/imagenet_mean.binaryproto"
    batch_size: 64
    crop_size: 216
    mirror: false
    backend: LMDB
  }
}
layers {
  bottom: "source_ims"
  top: "conv1"
  name: "conv1"
  type: CONVOLUTION
  blobs_lr: 0
  blobs_lr: 0
  weight_decay: 1
  weight_decay: 0
  convolution_param {
    num_output: 96
    kernel_size: 11
    stride: 4
    weight_filler {
      type: "gaussian"
      std: 0.01
    }
    bias_filler {
      type: "constant"
      value: 0
    }
  }
}
layers {
  bottom: "conv1"
  top: "conv1"
  name: "relu1"
  type: RELU
}
layers {
  bottom: "conv1"
  top: "pool1"
  name: "pool1"
  type: POOLING
  pooling_param {
    pool: MAX
    kernel_size: 3
    stride: 2
  }
}
layers {
  bottom: "pool1"
  top: "norm1"
  name: "norm1"
  type: LRN
  lrn_param {
    local_size: 5
    alpha: 0.0001
    beta: 0.75
  }
}
layers {
  bottom: "norm1"
  top: "Rconv6"
  name: "Rconv6"
  type: CONVOLUTION
  blobs_lr: 0
  blobs_lr: 0
  weight_decay: 1
  weight_decay: 0
  convolution_param {
    num_output: 256
    pad: 1
    kernel_size: 3
  }
}
layers {
  bottom: "Rconv6"
  top: "Rconv6"
  name: "Rrelu6"
  type: RELU
}
layers {
  bottom: "Rconv6"
  top: "Rconv7"
  name: "Rconv7"
  type: CONVOLUTION
  blobs_lr: 0
  blobs_lr: 0
  weight_decay: 1
  weight_decay: 0
  convolution_param {
    num_output: 256
    pad: 1
    kernel_size: 3
    group: 2
  }
}
layers {
  bottom: "Rconv7"
  top: "Rconv7"
  name: "Rrelu7"
  type: RELU
}
layers {
  bottom: "Rconv7"
  top: "Rconv8"
  name: "Rconv8"
  type: CONVOLUTION
  blobs_lr: 0
  blobs_lr: 0
  weight_decay: 1
  weight_decay: 0
  convolution_param {
    num_output: 256
    pad: 1
    kernel_size: 3
    group: 2
  }
}
layers {
  bottom: "Rconv8"
  top: "Rconv8"
  name: "Rrelu8"
  type: RELU
}
layers {
  bottom: "Rconv8"
  top: "deconv2"
  name: "deconv2"
  type: DECONVOLUTION
  blobs_lr: 0
  blobs_lr: 0
  weight_decay: 1
  weight_decay: 0
  deconvolution_param {
    pad: 2
    kernel_size: 5
    stride: 2
    output_height: 54
    output_width: 54
    output_channels: 64
  }
}
layers {
  bottom: "deconv2"
  top: "deconv2"
  name: "relu_deconv2"
  type: RELU
  relu_param {
    negative_slope: 0.3
  }
}
layers {
  bottom: "deconv2"
  top: "deconv1"
  name: "deconv1"
  type: DECONVOLUTION
  blobs_lr: 0
  blobs_lr: 0
  weight_decay: 1
  weight_decay: 0
  deconvolution_param {
    pad: 2
    kernel_size: 5
    stride: 2
    output_height: 108
    output_width: 108
    output_channels: 32
  }
}
layers {
  bottom: "deconv1"
  top: "deconv1"
  name: "relu_deconv1"
  type: RELU
  relu_param {
    negative_slope: 0.3
  }
}
layers {
  bottom: "deconv1"
  top: "deconv0"
  name: "deconv0"
  type: DECONVOLUTION
  blobs_lr: 0
  blobs_lr: 0
  weight_decay: 1
  weight_decay: 0
  deconvolution_param {
    pad: 2
    kernel_size: 5
    stride: 2
    output_height: 216
    output_width: 216
    output_channels: 3
  }
}
layers {
  bottom: "deconv0"
  bottom: "target_ims"
  name: "loss"
  type: EUCLIDEAN_LOSS
}
I0813 07:10:48.955950  8803 net.cpp:65] Creating Layer source_ims
I0813 07:10:48.955955  8803 net.cpp:189] source_ims -> source_ims
I0813 07:10:48.956010  8803 data_layer.cpp:223] Opening lmdb /scr/r6/tgebru/inverting_conv/caffe_invert_alexnet/data/siggraph/tiny_summer_val_lmdb
I0813 07:10:48.956220  8803 data_layer.cpp:285] output data size: 64,3,227,227
I0813 07:10:48.956225  8803 data_layer.cpp:304] Loading mean file from/scr/r6/tgebru/timnit_caffe/data/ilsvrc12/imagenet_mean.binaryproto
I0813 07:10:48.970366  8803 net.cpp:84] Top shape: 64 3 227 227 (9893568)
I0813 07:10:48.970384  8803 net.cpp:116] source_ims does not need backward computation.
I0813 07:10:48.970396  8803 net.cpp:65] Creating Layer target_ims
I0813 07:10:48.970402  8803 net.cpp:189] target_ims -> target_ims
I0813 07:10:48.970480  8803 data_layer.cpp:223] Opening lmdb /scr/r6/tgebru/inverting_conv/caffe_invert_alexnet/data/siggraph/tiny_winter_val_lmdb
I0813 07:10:48.970597  8803 data_layer.cpp:285] output data size: 64,3,216,216
I0813 07:10:48.970602  8803 data_layer.cpp:304] Loading mean file from/scr/r6/tgebru/timnit_caffe/data/ilsvrc12/imagenet_mean.binaryproto
I0813 07:10:48.983146  8803 net.cpp:84] Top shape: 64 3 216 216 (8957952)
I0813 07:10:48.983194  8803 net.cpp:116] target_ims does not need backward computation.
I0813 07:10:48.983208  8803 net.cpp:65] Creating Layer conv1
I0813 07:10:48.983212  8803 net.cpp:228] conv1 <- source_ims
I0813 07:10:48.983222  8803 net.cpp:189] conv1 -> conv1
I0813 07:10:48.984480  8803 net.cpp:84] Top shape: 64 96 55 55 (18585600)
I0813 07:10:48.984484  8803 net.cpp:116] conv1 does not need backward computation.
I0813 07:10:48.984489  8803 net.cpp:65] Creating Layer relu1
I0813 07:10:48.984493  8803 net.cpp:228] relu1 <- conv1
I0813 07:10:48.984498  8803 net.cpp:179] relu1 -> conv1 (in-place)
I0813 07:10:48.984503  8803 net.cpp:84] Top shape: 64 96 55 55 (18585600)
I0813 07:10:48.984505  8803 net.cpp:116] relu1 does not need backward computation.
I0813 07:10:48.984511  8803 net.cpp:65] Creating Layer pool1
I0813 07:10:48.984514  8803 net.cpp:228] pool1 <- conv1
I0813 07:10:48.984519  8803 net.cpp:189] pool1 -> pool1
I0813 07:10:48.984525  8803 net.cpp:84] Top shape: 64 96 27 27 (4478976)
I0813 07:10:48.984529  8803 net.cpp:116] pool1 does not need backward computation.
I0813 07:10:48.984532  8803 net.cpp:65] Creating Layer norm1
I0813 07:10:48.984535  8803 net.cpp:228] norm1 <- pool1
I0813 07:10:48.984539  8803 net.cpp:189] norm1 -> norm1
I0813 07:10:48.984546  8803 net.cpp:84] Top shape: 64 96 27 27 (4478976)
I0813 07:10:48.984549  8803 net.cpp:116] norm1 does not need backward computation.
I0813 07:10:48.984554  8803 net.cpp:65] Creating Layer Rconv6
I0813 07:10:48.984556  8803 net.cpp:228] Rconv6 <- norm1
I0813 07:10:48.984560  8803 net.cpp:189] Rconv6 -> Rconv6
I0813 07:10:48.984797  8803 net.cpp:84] Top shape: 64 256 27 27 (11943936)
I0813 07:10:48.984801  8803 net.cpp:116] Rconv6 does not need backward computation.
I0813 07:10:48.984805  8803 net.cpp:65] Creating Layer Rrelu6
I0813 07:10:48.984808  8803 net.cpp:228] Rrelu6 <- Rconv6
I0813 07:10:48.984813  8803 net.cpp:179] Rrelu6 -> Rconv6 (in-place)
I0813 07:10:48.984817  8803 net.cpp:84] Top shape: 64 256 27 27 (11943936)
I0813 07:10:48.984820  8803 net.cpp:116] Rrelu6 does not need backward computation.
I0813 07:10:48.984827  8803 net.cpp:65] Creating Layer Rconv7
I0813 07:10:48.984829  8803 net.cpp:228] Rconv7 <- Rconv6
I0813 07:10:48.984833  8803 net.cpp:189] Rconv7 -> Rconv7
I0813 07:10:48.985568  8803 net.cpp:84] Top shape: 64 256 27 27 (11943936)
I0813 07:10:48.985573  8803 net.cpp:116] Rconv7 does not need backward computation.
I0813 07:10:48.985577  8803 net.cpp:65] Creating Layer Rrelu7
I0813 07:10:48.985580  8803 net.cpp:228] Rrelu7 <- Rconv7
I0813 07:10:48.985584  8803 net.cpp:179] Rrelu7 -> Rconv7 (in-place)
I0813 07:10:48.985589  8803 net.cpp:84] Top shape: 64 256 27 27 (11943936)
I0813 07:10:48.985592  8803 net.cpp:116] Rrelu7 does not need backward computation.
I0813 07:10:48.985595  8803 net.cpp:65] Creating Layer Rconv8
I0813 07:10:48.985599  8803 net.cpp:228] Rconv8 <- Rconv7
I0813 07:10:48.985602  8803 net.cpp:189] Rconv8 -> Rconv8
I0813 07:10:48.986395  8803 net.cpp:84] Top shape: 64 256 27 27 (11943936)
I0813 07:10:48.986400  8803 net.cpp:116] Rconv8 does not need backward computation.
I0813 07:10:48.986403  8803 net.cpp:65] Creating Layer Rrelu8
I0813 07:10:48.986407  8803 net.cpp:228] Rrelu8 <- Rconv8
I0813 07:10:48.986410  8803 net.cpp:179] Rrelu8 -> Rconv8 (in-place)
I0813 07:10:48.986415  8803 net.cpp:84] Top shape: 64 256 27 27 (11943936)
I0813 07:10:48.986418  8803 net.cpp:116] Rrelu8 does not need backward computation.
I0813 07:10:48.986423  8803 net.cpp:65] Creating Layer deconv2
I0813 07:10:48.986425  8803 net.cpp:228] deconv2 <- Rconv8
I0813 07:10:48.986429  8803 net.cpp:189] deconv2 -> deconv2
I0813 07:10:48.987526  8803 net.cpp:84] Top shape: 64 64 54 54 (11943936)
I0813 07:10:48.987531  8803 net.cpp:116] deconv2 does not need backward computation.
I0813 07:10:48.987536  8803 net.cpp:65] Creating Layer relu_deconv2
I0813 07:10:48.987540  8803 net.cpp:228] relu_deconv2 <- deconv2
I0813 07:10:48.987542  8803 net.cpp:179] relu_deconv2 -> deconv2 (in-place)
I0813 07:10:48.987547  8803 net.cpp:84] Top shape: 64 64 54 54 (11943936)
I0813 07:10:48.987562  8803 net.cpp:116] relu_deconv2 does not need backward computation.
I0813 07:10:48.987567  8803 net.cpp:65] Creating Layer deconv1
I0813 07:10:48.987571  8803 net.cpp:228] deconv1 <- deconv2
I0813 07:10:48.987574  8803 net.cpp:189] deconv1 -> deconv1
I0813 07:10:48.987730  8803 net.cpp:84] Top shape: 64 32 108 108 (23887872)
I0813 07:10:48.987735  8803 net.cpp:116] deconv1 does not need backward computation.
I0813 07:10:48.987740  8803 net.cpp:65] Creating Layer relu_deconv1
I0813 07:10:48.987741  8803 net.cpp:228] relu_deconv1 <- deconv1
I0813 07:10:48.987746  8803 net.cpp:179] relu_deconv1 -> deconv1 (in-place)
I0813 07:10:48.987751  8803 net.cpp:84] Top shape: 64 32 108 108 (23887872)
I0813 07:10:48.987752  8803 net.cpp:116] relu_deconv1 does not need backward computation.
I0813 07:10:48.987758  8803 net.cpp:65] Creating Layer deconv0
I0813 07:10:48.987761  8803 net.cpp:228] deconv0 <- deconv1
I0813 07:10:48.987764  8803 net.cpp:189] deconv0 -> deconv0
I0813 07:10:48.987787  8803 net.cpp:84] Top shape: 64 3 216 216 (8957952)
I0813 07:10:48.987792  8803 net.cpp:116] deconv0 does not need backward computation.
I0813 07:10:48.987795  8803 net.cpp:65] Creating Layer loss
I0813 07:10:48.987797  8803 net.cpp:228] loss <- deconv0
I0813 07:10:48.987802  8803 net.cpp:228] loss <- target_ims
I0813 07:10:48.987807  8803 net.cpp:116] loss does not need backward computation.
I0813 07:10:48.987818  8803 net.cpp:238] Collecting Learning Rate and Weight Decay.
…
