…
    source: "/scr/r6/tgebru/inverting_conv/caffe_invert_alexnet/data/siggraph/tiny_winter_train_lmdb"
    mean_file: "/scr/r6/tgebru/timnit_caffe/data/ilsvrc12/imagenet_mean.binaryproto"
    batch_size: 12
    crop_size: 227
    mirror: false
    backend: LMDB
  }
}
layers {
  top: "target_ims"
  name: "target_ims"
  type: DATA
  data_param {
    source: "/scr/r6/tgebru/inverting_conv/caffe_invert_alexnet/data/siggraph/tiny_summer_train_lmdb"
    mean_file: "/scr/r6/tgebru/timnit_caffe/data/ilsvrc12/imagenet_mean.binaryproto"
    batch_size: 12
    crop_size: 216
    mirror: false
    backend: LMDB
  }
}
layers {
  bottom: "source_ims"
  top: "conv1"
  name: "conv1"
  type: CONVOLUTION
  blobs_lr: 0
  blobs_lr: 0
  weight_decay: 1
  weight_decay: 0
  convolution_param {
    num_output: 96
    kernel_size: 11
    stride: 4
    weight_filler {
      type: "gaussian"
      std: 0.01
    }
    bias_filler {
      type: "constant"
      value: 0
    }
  }
}
layers {
  bottom: "conv1"
  top: "conv1"
  name: "relu1"
  type: RELU
}
layers {
  bottom: "conv1"
  top: "pool1"
  name: "pool1"
  type: POOLING
  pooling_param {
    pool: MAX
    kernel_size: 3
    stride: 2
  }
}
layers {
  bottom: "pool1"
  top: "norm1"
  name: "norm1"
  type: LRN
  lrn_param {
    local_size: 5
    alpha: 0.0001
    beta: 0.75
  }
}
layers {
  bottom: "norm1"
  top: "Rconv6"
  name: "Rconv6"
  type: CONVOLUTION
  blobs_lr: 1
  blobs_lr: 2
  weight_decay: 1
  weight_decay: 0
  convolution_param {
    num_output: 256
    pad: 1
    kernel_size: 3
  }
}
layers {
  bottom: "Rconv6"
  top: "Rconv6"
  name: "Rrelu6"
  type: RELU
}
layers {
  bottom: "Rconv6"
  top: "Rconv7"
  name: "Rconv7"
  type: CONVOLUTION
  blobs_lr: 1
  blobs_lr: 2
  weight_decay: 1
  weight_decay: 0
  convolution_param {
    num_output: 256
    pad: 1
    kernel_size: 3
    group: 2
  }
}
layers {
  bottom: "Rconv7"
  top: "Rconv7"
  name: "Rrelu7"
  type: RELU
}
layers {
  bottom: "Rconv7"
  top: "Rconv8"
  name: "Rconv8"
  type: CONVOLUTION
  blobs_lr: 1
  blobs_lr: 2
  weight_decay: 1
  weight_decay: 0
  convolution_param {
    num_output: 256
    pad: 1
    kernel_size: 3
    group: 2
  }
}
layers {
  bottom: "Rconv8"
  top: "Rconv8"
  name: "Rrelu8"
  type: RELU
}
layers {
  bottom: "Rconv8"
  top: "deconv2"
  name: "deconv2"
  type: DECONVOLUTION
  blobs_lr: 1
  blobs_lr: 2
  weight_decay: 1
  weight_decay: 0
  deconvolution_param {
    pad: 2
    kernel_size: 5
    stride: 2
    output_height: 54
    output_width: 54
    output_channels: 64
  }
}
layers {
  bottom: "deconv2"
  top: "deconv2"
  name: "relu_deconv2"
  type: RELU
  relu_param {
    negative_slope: 0.3
  }
}
layers {
  bottom: "deconv2"
  top: "deconv1"
  name: "deconv1"
  type: DECONVOLUTION
  blobs_lr: 1
  blobs_lr: 2
  weight_decay: 1
  weight_decay: 0
  deconvolution_param {
    pad: 2
    kernel_size: 5
    stride: 2
    output_height: 108
    output_width: 108
    output_channels: 32
  }
}
layers {
  bottom: "deconv1"
  top: "deconv1"
  name: "relu_deconv1"
  type: RELU
  relu_param {
    negative_slope: 0.3
  }
}
layers {
  bottom: "deconv1"
  top: "deconv0"
  name: "deconv0"
  type: DECONVOLUTION
  blobs_lr: 1
  blobs_lr: 2
  weight_decay: 1
  weight_decay: 1
  deconvolution_param {
    pad: 2
    kernel_size: 5
    stride: 2
    output_height: 216
    output_width: 216
    output_channels: 3
  }
}
layers {
  bottom: "deconv0"
  bottom: "target_ims"
  name: "loss"
  type: EUCLIDEAN_LOSS
}
I0813 12:34:46.857657 24783 net.cpp:65] Creating Layer source_ims
I0813 12:34:46.857666 24783 net.cpp:189] source_ims -> source_ims
I0813 12:34:46.857769 24783 data_layer.cpp:223] Opening lmdb /scr/r6/tgebru/inverting_conv/caffe_invert_alexnet/data/siggraph/tiny_winter_train_lmdb
I0813 12:34:46.857988 24783 data_layer.cpp:285] output data size: 12,3,227,227
I0813 12:34:46.857995 24783 data_layer.cpp:304] Loading mean file from/scr/r6/tgebru/timnit_caffe/data/ilsvrc12/imagenet_mean.binaryproto
I0813 12:34:46.863025 24783 net.cpp:84] Top shape: 12 3 227 227 (1855044)
I0813 12:34:46.863034 24783 net.cpp:116] source_ims does not need backward computation.
I0813 12:34:46.863040 24783 net.cpp:65] Creating Layer target_ims
I0813 12:34:46.863044 24783 net.cpp:189] target_ims -> target_ims
I0813 12:34:46.863136 24783 data_layer.cpp:223] Opening lmdb /scr/r6/tgebru/inverting_conv/caffe_invert_alexnet/data/siggraph/tiny_summer_train_lmdb
I0813 12:34:46.863267 24783 data_layer.cpp:285] output data size: 12,3,216,216
I0813 12:34:46.863272 24783 data_layer.cpp:304] Loading mean file from/scr/r6/tgebru/timnit_caffe/data/ilsvrc12/imagenet_mean.binaryproto
I0813 12:34:46.867046 24783 net.cpp:84] Top shape: 12 3 216 216 (1679616)
I0813 12:34:46.867053 24783 net.cpp:116] target_ims does not need backward computation.
I0813 12:34:46.867061 24783 net.cpp:65] Creating Layer conv1
I0813 12:34:46.867064 24783 net.cpp:228] conv1 <- source_ims
I0813 12:34:46.867101 24783 net.cpp:189] conv1 -> conv1
I0813 12:34:46.868373 24783 net.cpp:84] Top shape: 12 96 55 55 (3484800)
I0813 12:34:46.868378 24783 net.cpp:116] conv1 does not need backward computation.
I0813 12:34:46.868383 24783 net.cpp:65] Creating Layer relu1
I0813 12:34:46.868386 24783 net.cpp:228] relu1 <- conv1
I0813 12:34:46.868391 24783 net.cpp:179] relu1 -> conv1 (in-place)
I0813 12:34:46.868399 24783 net.cpp:84] Top shape: 12 96 55 55 (3484800)
I0813 12:34:46.868403 24783 net.cpp:116] relu1 does not need backward computation.
I0813 12:34:46.868408 24783 net.cpp:65] Creating Layer pool1
I0813 12:34:46.868412 24783 net.cpp:228] pool1 <- conv1
I0813 12:34:46.868415 24783 net.cpp:189] pool1 -> pool1
I0813 12:34:46.868427 24783 net.cpp:84] Top shape: 12 96 27 27 (839808)
I0813 12:34:46.868430 24783 net.cpp:116] pool1 does not need backward computation.
I0813 12:34:46.868437 24783 net.cpp:65] Creating Layer norm1
I0813 12:34:46.868438 24783 net.cpp:228] norm1 <- pool1
I0813 12:34:46.868443 24783 net.cpp:189] norm1 -> norm1
I0813 12:34:46.868453 24783 net.cpp:84] Top shape: 12 96 27 27 (839808)
I0813 12:34:46.868454 24783 net.cpp:116] norm1 does not need backward computation.
I0813 12:34:46.868459 24783 net.cpp:65] Creating Layer Rconv6
I0813 12:34:46.868463 24783 net.cpp:228] Rconv6 <- norm1
I0813 12:34:46.868466 24783 net.cpp:189] Rconv6 -> Rconv6
I0813 12:34:46.868636 24783 net.cpp:84] Top shape: 12 256 27 27 (2239488)
I0813 12:34:46.868640 24783 net.cpp:111] Rconv6 needs backward computation.
I0813 12:34:46.868645 24783 net.cpp:65] Creating Layer Rrelu6
I0813 12:34:46.868649 24783 net.cpp:228] Rrelu6 <- Rconv6
I0813 12:34:46.868651 24783 net.cpp:179] Rrelu6 -> Rconv6 (in-place)
I0813 12:34:46.868656 24783 net.cpp:84] Top shape: 12 256 27 27 (2239488)
I0813 12:34:46.868659 24783 net.cpp:111] Rrelu6 needs backward computation.
I0813 12:34:46.868664 24783 net.cpp:65] Creating Layer Rconv7
I0813 12:34:46.868666 24783 net.cpp:228] Rconv7 <- Rconv6
I0813 12:34:46.868670 24783 net.cpp:189] Rconv7 -> Rconv7
I0813 12:34:46.869469 24783 net.cpp:84] Top shape: 12 256 27 27 (2239488)
I0813 12:34:46.869474 24783 net.cpp:111] Rconv7 needs backward computation.
I0813 12:34:46.869478 24783 net.cpp:65] Creating Layer Rrelu7
I0813 12:34:46.869501 24783 net.cpp:228] Rrelu7 <- Rconv7
I0813 12:34:46.869506 24783 net.cpp:179] Rrelu7 -> Rconv7 (in-place)
I0813 12:34:46.869510 24783 net.cpp:84] Top shape: 12 256 27 27 (2239488)
I0813 12:34:46.869513 24783 net.cpp:111] Rrelu7 needs backward computation.
I0813 12:34:46.869518 24783 net.cpp:65] Creating Layer Rconv8
I0813 12:34:46.869520 24783 net.cpp:228] Rconv8 <- Rconv7
I0813 12:34:46.869524 24783 net.cpp:189] Rconv8 -> Rconv8
I0813 12:34:46.870277 24783 net.cpp:84] Top shape: 12 256 27 27 (2239488)
I0813 12:34:46.870281 24783 net.cpp:111] Rconv8 needs backward computation.
I0813 12:34:46.870285 24783 net.cpp:65] Creating Layer Rrelu8
I0813 12:34:46.870288 24783 net.cpp:228] Rrelu8 <- Rconv8
I0813 12:34:46.870292 24783 net.cpp:179] Rrelu8 -> Rconv8 (in-place)
I0813 12:34:46.870296 24783 net.cpp:84] Top shape: 12 256 27 27 (2239488)
I0813 12:34:46.870298 24783 net.cpp:111] Rrelu8 needs backward computation.
I0813 12:34:46.870303 24783 net.cpp:65] Creating Layer deconv2
I0813 12:34:46.870306 24783 net.cpp:228] deconv2 <- Rconv8
I0813 12:34:46.870311 24783 net.cpp:189] deconv2 -> deconv2
I0813 12:34:46.871351 24783 net.cpp:84] Top shape: 12 64 54 54 (2239488)
I0813 12:34:46.871356 24783 net.cpp:111] deconv2 needs backward computation.
I0813 12:34:46.871359 24783 net.cpp:65] Creating Layer relu_deconv2
I0813 12:34:46.871362 24783 net.cpp:228] relu_deconv2 <- deconv2
I0813 12:34:46.871366 24783 net.cpp:179] relu_deconv2 -> deconv2 (in-place)
I0813 12:34:46.871371 24783 net.cpp:84] Top shape: 12 64 54 54 (2239488)
I0813 12:34:46.871374 24783 net.cpp:111] relu_deconv2 needs backward computation.
I0813 12:34:46.871378 24783 net.cpp:65] Creating Layer deconv1
I0813 12:34:46.871381 24783 net.cpp:228] deconv1 <- deconv2
I0813 12:34:46.871384 24783 net.cpp:189] deconv1 -> deconv1
I0813 12:34:46.871538 24783 net.cpp:84] Top shape: 12 32 108 108 (4478976)
I0813 12:34:46.871542 24783 net.cpp:111] deconv1 needs backward computation.
I0813 12:34:46.871546 24783 net.cpp:65] Creating Layer relu_deconv1
I0813 12:34:46.871549 24783 net.cpp:228] relu_deconv1 <- deconv1
I0813 12:34:46.871553 24783 net.cpp:179] relu_deconv1 -> deconv1 (in-place)
I0813 12:34:46.871557 24783 net.cpp:84] Top shape: 12 32 108 108 (4478976)
I0813 12:34:46.871561 24783 net.cpp:111] relu_deconv1 needs backward computation.
I0813 12:34:46.871565 24783 net.cpp:65] Creating Layer deconv0
I0813 12:34:46.871567 24783 net.cpp:228] deconv0 <- deconv1
I0813 12:34:46.871572 24783 net.cpp:189] deconv0 -> deconv0
I0813 12:34:46.871592 24783 net.cpp:84] Top shape: 12 3 216 216 (1679616)
I0813 12:34:46.871595 24783 net.cpp:111] deconv0 needs backward computation.
I0813 12:34:46.871598 24783 net.cpp:65] Creating Layer loss
I0813 12:34:46.871601 24783 net.cpp:228] loss <- deconv0
I0813 12:34:46.871604 24783 net.cpp:228] loss <- target_ims
I0813 12:34:46.871613 24783 net.cpp:111] loss needs backward computation.
I0813 12:34:46.871626 24783 net.cpp:238] Collecting Learning Rate and Weight Decay.
…
    source: "/scr/r6/tgebru/inverting_conv/caffe_invert_alexnet/data/siggraph/tiny_winter_val_lmdb"
    mean_file: "/scr/r6/tgebru/timnit_caffe/data/ilsvrc12/imagenet_mean.binaryproto"
    batch_size: 2
    crop_size: 227
    mirror: false
    backend: LMDB
  }
}
layers {
  top: "target_ims"
  name: "target_ims"
  type: DATA
  data_param {
    source: "/scr/r6/tgebru/inverting_conv/caffe_invert_alexnet/data/siggraph/tiny_summer_val_lmdb"
    mean_file: "/scr/r6/tgebru/timnit_caffe/data/ilsvrc12/imagenet_mean.binaryproto"
    batch_size: 2
    crop_size: 216
    mirror: false
    backend: LMDB
  }
}
layers {
  bottom: "source_ims"
  top: "conv1"
  name: "conv1"
  type: CONVOLUTION
  blobs_lr: 0
  blobs_lr: 0
  weight_decay: 1
  weight_decay: 0
  convolution_param {
    num_output: 96
    kernel_size: 11
    stride: 4
    weight_filler {
      type: "gaussian"
      std: 0.01
    }
    bias_filler {
      type: "constant"
      value: 0
    }
  }
}
layers {
  bottom: "conv1"
  top: "conv1"
  name: "relu1"
  type: RELU
}
layers {
  bottom: "conv1"
  top: "pool1"
  name: "pool1"
  type: POOLING
  pooling_param {
    pool: MAX
    kernel_size: 3
    stride: 2
  }
}
layers {
  bottom: "pool1"
  top: "norm1"
  name: "norm1"
  type: LRN
  lrn_param {
    local_size: 5
    alpha: 0.0001
    beta: 0.75
  }
}
layers {
  bottom: "norm1"
  top: "Rconv6"
  name: "Rconv6"
  type: CONVOLUTION
  blobs_lr: 0
  blobs_lr: 0
  weight_decay: 1
  weight_decay: 0
  convolution_param {
    num_output: 256
    pad: 1
    kernel_size: 3
  }
}
layers {
  bottom: "Rconv6"
  top: "Rconv6"
  name: "Rrelu6"
  type: RELU
}
layers {
  bottom: "Rconv6"
  top: "Rconv7"
  name: "Rconv7"
  type: CONVOLUTION
  blobs_lr: 0
  blobs_lr: 0
  weight_decay: 1
  weight_decay: 0
  convolution_param {
    num_output: 256
    pad: 1
    kernel_size: 3
    group: 2
  }
}
layers {
  bottom: "Rconv7"
  top: "Rconv7"
  name: "Rrelu7"
  type: RELU
}
layers {
  bottom: "Rconv7"
  top: "Rconv8"
  name: "Rconv8"
  type: CONVOLUTION
  blobs_lr: 0
  blobs_lr: 0
  weight_decay: 1
  weight_decay: 0
  convolution_param {
    num_output: 256
    pad: 1
    kernel_size: 3
    group: 2
  }
}
layers {
  bottom: "Rconv8"
  top: "Rconv8"
  name: "Rrelu8"
  type: RELU
}
layers {
  bottom: "Rconv8"
  top: "deconv2"
  name: "deconv2"
  type: DECONVOLUTION
  blobs_lr: 0
  blobs_lr: 0
  weight_decay: 1
  weight_decay: 0
  deconvolution_param {
    pad: 2
    kernel_size: 5
    stride: 2
    output_height: 54
    output_width: 54
    output_channels: 64
  }
}
layers {
  bottom: "deconv2"
  top: "deconv2"
  name: "relu_deconv2"
  type: RELU
  relu_param {
    negative_slope: 0.3
  }
}
layers {
  bottom: "deconv2"
  top: "deconv1"
  name: "deconv1"
  type: DECONVOLUTION
  blobs_lr: 0
  blobs_lr: 0
  weight_decay: 1
  weight_decay: 0
  deconvolution_param {
    pad: 2
    kernel_size: 5
    stride: 2
    output_height: 108
    output_width: 108
    output_channels: 32
  }
}
layers {
  bottom: "deconv1"
  top: "deconv1"
  name: "relu_deconv1"
  type: RELU
  relu_param {
    negative_slope: 0.3
  }
}
layers {
  bottom: "deconv1"
  top: "deconv0"
  name: "deconv0"
  type: DECONVOLUTION
  blobs_lr: 0
  blobs_lr: 0
  weight_decay: 1
  weight_decay: 0
  deconvolution_param {
    pad: 2
    kernel_size: 5
    stride: 2
    output_height: 216
    output_width: 216
    output_channels: 3
  }
}
layers {
  bottom: "deconv0"
  bottom: "target_ims"
  name: "loss"
  type: EUCLIDEAN_LOSS
}
I0813 12:34:46.872347 24783 net.cpp:65] Creating Layer source_ims
I0813 12:34:46.872352 24783 net.cpp:189] source_ims -> source_ims
I0813 12:34:46.872422 24783 data_layer.cpp:223] Opening lmdb /scr/r6/tgebru/inverting_conv/caffe_invert_alexnet/data/siggraph/tiny_winter_val_lmdb
I0813 12:34:46.872629 24783 data_layer.cpp:285] output data size: 2,3,227,227
I0813 12:34:46.872634 24783 data_layer.cpp:304] Loading mean file from/scr/r6/tgebru/timnit_caffe/data/ilsvrc12/imagenet_mean.binaryproto
I0813 12:34:46.874959 24783 net.cpp:84] Top shape: 2 3 227 227 (309174)
I0813 12:34:46.874966 24783 net.cpp:116] source_ims does not need backward computation.
I0813 12:34:46.874972 24783 net.cpp:65] Creating Layer target_ims
I0813 12:34:46.874976 24783 net.cpp:189] target_ims -> target_ims
I0813 12:34:46.875025 24783 data_layer.cpp:223] Opening lmdb /scr/r6/tgebru/inverting_conv/caffe_invert_alexnet/data/siggraph/tiny_summer_val_lmdb
I0813 12:34:46.875139 24783 data_layer.cpp:285] output data size: 2,3,216,216
I0813 12:34:46.875144 24783 data_layer.cpp:304] Loading mean file from/scr/r6/tgebru/timnit_caffe/data/ilsvrc12/imagenet_mean.binaryproto
I0813 12:34:46.877353 24783 net.cpp:84] Top shape: 2 3 216 216 (279936)
I0813 12:34:46.877372 24783 net.cpp:116] target_ims does not need backward computation.
I0813 12:34:46.877379 24783 net.cpp:65] Creating Layer conv1
I0813 12:34:46.877382 24783 net.cpp:228] conv1 <- source_ims
I0813 12:34:46.877388 24783 net.cpp:189] conv1 -> conv1
I0813 12:34:46.878633 24783 net.cpp:84] Top shape: 2 96 55 55 (580800)
I0813 12:34:46.878636 24783 net.cpp:116] conv1 does not need backward computation.
I0813 12:34:46.878640 24783 net.cpp:65] Creating Layer relu1
I0813 12:34:46.878643 24783 net.cpp:228] relu1 <- conv1
I0813 12:34:46.878648 24783 net.cpp:179] relu1 -> conv1 (in-place)
I0813 12:34:46.878654 24783 net.cpp:84] Top shape: 2 96 55 55 (580800)
I0813 12:34:46.878655 24783 net.cpp:116] relu1 does not need backward computation.
I0813 12:34:46.878660 24783 net.cpp:65] Creating Layer pool1
I0813 12:34:46.878662 24783 net.cpp:228] pool1 <- conv1
I0813 12:34:46.878666 24783 net.cpp:189] pool1 -> pool1
I0813 12:34:46.878672 24783 net.cpp:84] Top shape: 2 96 27 27 (139968)
I0813 12:34:46.878675 24783 net.cpp:116] pool1 does not need backward computation.
I0813 12:34:46.878679 24783 net.cpp:65] Creating Layer norm1
I0813 12:34:46.878682 24783 net.cpp:228] norm1 <- pool1
I0813 12:34:46.878685 24783 net.cpp:189] norm1 -> norm1
I0813 12:34:46.878691 24783 net.cpp:84] Top shape: 2 96 27 27 (139968)
I0813 12:34:46.878695 24783 net.cpp:116] norm1 does not need backward computation.
I0813 12:34:46.878698 24783 net.cpp:65] Creating Layer Rconv6
I0813 12:34:46.878700 24783 net.cpp:228] Rconv6 <- norm1
I0813 12:34:46.878705 24783 net.cpp:189] Rconv6 -> Rconv6
I0813 12:34:46.879259 24783 net.cpp:84] Top shape: 2 256 27 27 (373248)
I0813 12:34:46.879264 24783 net.cpp:116] Rconv6 does not need backward computation.
I0813 12:34:46.879267 24783 net.cpp:65] Creating Layer Rrelu6
I0813 12:34:46.879271 24783 net.cpp:228] Rrelu6 <- Rconv6
I0813 12:34:46.879274 24783 net.cpp:179] Rrelu6 -> Rconv6 (in-place)
I0813 12:34:46.879279 24783 net.cpp:84] Top shape: 2 256 27 27 (373248)
I0813 12:34:46.879282 24783 net.cpp:116] Rrelu6 does not need backward computation.
I0813 12:34:46.879287 24783 net.cpp:65] Creating Layer Rconv7
I0813 12:34:46.879289 24783 net.cpp:228] Rconv7 <- Rconv6
I0813 12:34:46.879293 24783 net.cpp:189] Rconv7 -> Rconv7
I0813 12:34:46.880023 24783 net.cpp:84] Top shape: 2 256 27 27 (373248)
I0813 12:34:46.880028 24783 net.cpp:116] Rconv7 does not need backward computation.
I0813 12:34:46.880031 24783 net.cpp:65] Creating Layer Rrelu7
I0813 12:34:46.880034 24783 net.cpp:228] Rrelu7 <- Rconv7
I0813 12:34:46.880038 24783 net.cpp:179] Rrelu7 -> Rconv7 (in-place)
I0813 12:34:46.880043 24783 net.cpp:84] Top shape: 2 256 27 27 (373248)
I0813 12:34:46.880045 24783 net.cpp:116] Rrelu7 does not need backward computation.
I0813 12:34:46.880048 24783 net.cpp:65] Creating Layer Rconv8
I0813 12:34:46.880051 24783 net.cpp:228] Rconv8 <- Rconv7
I0813 12:34:46.880054 24783 net.cpp:189] Rconv8 -> Rconv8
I0813 12:34:46.880786 24783 net.cpp:84] Top shape: 2 256 27 27 (373248)
I0813 12:34:46.880790 24783 net.cpp:116] Rconv8 does not need backward computation.
I0813 12:34:46.880795 24783 net.cpp:65] Creating Layer Rrelu8
I0813 12:34:46.880796 24783 net.cpp:228] Rrelu8 <- Rconv8
I0813 12:34:46.880800 24783 net.cpp:179] Rrelu8 -> Rconv8 (in-place)
I0813 12:34:46.880805 24783 net.cpp:84] Top shape: 2 256 27 27 (373248)
I0813 12:34:46.880807 24783 net.cpp:116] Rrelu8 does not need backward computation.
I0813 12:34:46.880810 24783 net.cpp:65] Creating Layer deconv2
I0813 12:34:46.880813 24783 net.cpp:228] deconv2 <- Rconv8
I0813 12:34:46.880817 24783 net.cpp:189] deconv2 -> deconv2
I0813 12:34:46.881834 24783 net.cpp:84] Top shape: 2 64 54 54 (373248)
I0813 12:34:46.881839 24783 net.cpp:116] deconv2 does not need backward computation.
I0813 12:34:46.881844 24783 net.cpp:65] Creating Layer relu_deconv2
I0813 12:34:46.881846 24783 net.cpp:228] relu_deconv2 <- deconv2
I0813 12:34:46.881850 24783 net.cpp:179] relu_deconv2 -> deconv2 (in-place)
I0813 12:34:46.881855 24783 net.cpp:84] Top shape: 2 64 54 54 (373248)
I0813 12:34:46.881857 24783 net.cpp:116] relu_deconv2 does not need backward computation.
I0813 12:34:46.881872 24783 net.cpp:65] Creating Layer deconv1
I0813 12:34:46.881875 24783 net.cpp:228] deconv1 <- deconv2
I0813 12:34:46.881880 24783 net.cpp:189] deconv1 -> deconv1
I0813 12:34:46.882016 24783 net.cpp:84] Top shape: 2 32 108 108 (746496)
I0813 12:34:46.882020 24783 net.cpp:116] deconv1 does not need backward computation.
I0813 12:34:46.882025 24783 net.cpp:65] Creating Layer relu_deconv1
I0813 12:34:46.882027 24783 net.cpp:228] relu_deconv1 <- deconv1
I0813 12:34:46.882031 24783 net.cpp:179] relu_deconv1 -> deconv1 (in-place)
I0813 12:34:46.882035 24783 net.cpp:84] Top shape: 2 32 108 108 (746496)
I0813 12:34:46.882038 24783 net.cpp:116] relu_deconv1 does not need backward computation.
I0813 12:34:46.882043 24783 net.cpp:65] Creating Layer deconv0
I0813 12:34:46.882046 24783 net.cpp:228] deconv0 <- deconv1
I0813 12:34:46.882050 24783 net.cpp:189] deconv0 -> deconv0
I0813 12:34:46.882068 24783 net.cpp:84] Top shape: 2 3 216 216 (279936)
I0813 12:34:46.882072 24783 net.cpp:116] deconv0 does not need backward computation.
I0813 12:34:46.882076 24783 net.cpp:65] Creating Layer loss
I0813 12:34:46.882078 24783 net.cpp:228] loss <- deconv0
I0813 12:34:46.882081 24783 net.cpp:228] loss <- target_ims
I0813 12:34:46.882086 24783 net.cpp:116] loss does not need backward computation.
I0813 12:34:46.882097 24783 net.cpp:238] Collecting Learning Rate and Weight Decay.
…
