…
    source: "/scr/r6/tgebru/inverting_conv/caffe_invert_alexnet/data/siggraph/tiny_summer_train_lmdb"
    mean_file: "/scr/r6/tgebru/timnit_caffe/data/ilsvrc12/imagenet_mean.binaryproto"
    batch_size: 12
    crop_size: 227
    mirror: false
    backend: LMDB
  }
}
layers {
  top: "target_ims"
  name: "target_ims"
  type: DATA
  data_param {
    source: "/scr/r6/tgebru/inverting_conv/caffe_invert_alexnet/data/siggraph/tiny_winter_train_lmdb"
    mean_file: "/scr/r6/tgebru/timnit_caffe/data/ilsvrc12/imagenet_mean.binaryproto"
    batch_size: 12
    crop_size: 216
    mirror: false
    backend: LMDB
  }
}
layers {
  bottom: "source_ims"
  top: "conv1"
  name: "conv1"
  type: CONVOLUTION
  blobs_lr: 0
  blobs_lr: 0
  weight_decay: 1
  weight_decay: 0
  convolution_param {
    num_output: 96
    kernel_size: 11
    stride: 4
    weight_filler {
      type: "gaussian"
      std: 0.01
    }
    bias_filler {
      type: "constant"
      value: 0
    }
  }
}
layers {
  bottom: "conv1"
  top: "conv1"
  name: "relu1"
  type: RELU
}
layers {
  bottom: "conv1"
  top: "pool1"
  name: "pool1"
  type: POOLING
  pooling_param {
    pool: MAX
    kernel_size: 3
    stride: 2
  }
}
layers {
  bottom: "pool1"
  top: "norm1"
  name: "norm1"
  type: LRN
  lrn_param {
    local_size: 5
    alpha: 0.0001
    beta: 0.75
  }
}
layers {
  bottom: "norm1"
  top: "Rconv6"
  name: "Rconv6"
  type: CONVOLUTION
  blobs_lr: 1
  blobs_lr: 2
  weight_decay: 1
  weight_decay: 0
  convolution_param {
    num_output: 256
    pad: 1
    kernel_size: 3
  }
}
layers {
  bottom: "Rconv6"
  top: "Rconv6"
  name: "Rrelu6"
  type: RELU
}
layers {
  bottom: "Rconv6"
  top: "Rconv7"
  name: "Rconv7"
  type: CONVOLUTION
  blobs_lr: 1
  blobs_lr: 2
  weight_decay: 1
  weight_decay: 0
  convolution_param {
    num_output: 256
    pad: 1
    kernel_size: 3
    group: 2
  }
}
layers {
  bottom: "Rconv7"
  top: "Rconv7"
  name: "Rrelu7"
  type: RELU
}
layers {
  bottom: "Rconv7"
  top: "Rconv8"
  name: "Rconv8"
  type: CONVOLUTION
  blobs_lr: 1
  blobs_lr: 2
  weight_decay: 1
  weight_decay: 0
  convolution_param {
    num_output: 256
    pad: 1
    kernel_size: 3
    group: 2
  }
}
layers {
  bottom: "Rconv8"
  top: "Rconv8"
  name: "Rrelu8"
  type: RELU
}
layers {
  bottom: "Rconv8"
  top: "deconv2"
  name: "deconv2"
  type: DECONVOLUTION
  blobs_lr: 1
  blobs_lr: 2
  weight_decay: 1
  weight_decay: 0
  deconvolution_param {
    pad: 2
    kernel_size: 5
    stride: 2
    output_height: 54
    output_width: 54
    output_channels: 64
  }
}
layers {
  bottom: "deconv2"
  top: "deconv2"
  name: "relu_deconv2"
  type: RELU
  relu_param {
    negative_slope: 0.3
  }
}
layers {
  bottom: "deconv2"
  top: "deconv1"
  name: "deconv1"
  type: DECONVOLUTION
  blobs_lr: 1
  blobs_lr: 2
  weight_decay: 1
  weight_decay: 0
  deconvolution_param {
    pad: 2
    kernel_size: 5
    stride: 2
    output_height: 108
    output_width: 108
    output_channels: 32
  }
}
layers {
  bottom: "deconv1"
  top: "deconv1"
  name: "relu_deconv1"
  type: RELU
  relu_param {
    negative_slope: 0.3
  }
}
layers {
  bottom: "deconv1"
  top: "deconv0"
  name: "deconv0"
  type: DECONVOLUTION
  blobs_lr: 1
  blobs_lr: 2
  weight_decay: 1
  weight_decay: 1
  deconvolution_param {
    pad: 2
    kernel_size: 5
    stride: 2
    output_height: 216
    output_width: 216
    output_channels: 3
  }
}
layers {
  bottom: "deconv0"
  bottom: "target_ims"
  name: "loss"
  type: EUCLIDEAN_LOSS
}
I0813 05:41:48.619711 11968 net.cpp:65] Creating Layer source_ims
I0813 05:41:48.619721 11968 net.cpp:189] source_ims -> source_ims
I0813 05:41:48.619839 11968 data_layer.cpp:223] Opening lmdb /scr/r6/tgebru/inverting_conv/caffe_invert_alexnet/data/siggraph/tiny_summer_train_lmdb
I0813 05:41:48.620055 11968 data_layer.cpp:285] output data size: 12,3,227,227
I0813 05:41:48.620064 11968 data_layer.cpp:304] Loading mean file from/scr/r6/tgebru/timnit_caffe/data/ilsvrc12/imagenet_mean.binaryproto
I0813 05:41:48.624953 11968 net.cpp:84] Top shape: 12 3 227 227 (1855044)
I0813 05:41:48.624963 11968 net.cpp:116] source_ims does not need backward computation.
I0813 05:41:48.624969 11968 net.cpp:65] Creating Layer target_ims
I0813 05:41:48.624972 11968 net.cpp:189] target_ims -> target_ims
I0813 05:41:48.625113 11968 data_layer.cpp:223] Opening lmdb /scr/r6/tgebru/inverting_conv/caffe_invert_alexnet/data/siggraph/tiny_winter_train_lmdb
I0813 05:41:48.625273 11968 data_layer.cpp:285] output data size: 12,3,216,216
I0813 05:41:48.625277 11968 data_layer.cpp:304] Loading mean file from/scr/r6/tgebru/timnit_caffe/data/ilsvrc12/imagenet_mean.binaryproto
I0813 05:41:48.629263 11968 net.cpp:84] Top shape: 12 3 216 216 (1679616)
I0813 05:41:48.629272 11968 net.cpp:116] target_ims does not need backward computation.
I0813 05:41:48.629283 11968 net.cpp:65] Creating Layer conv1
I0813 05:41:48.629287 11968 net.cpp:228] conv1 <- source_ims
I0813 05:41:48.629380 11968 net.cpp:189] conv1 -> conv1
I0813 05:41:48.630725 11968 net.cpp:84] Top shape: 12 96 55 55 (3484800)
I0813 05:41:48.630731 11968 net.cpp:116] conv1 does not need backward computation.
I0813 05:41:48.630736 11968 net.cpp:65] Creating Layer relu1
I0813 05:41:48.630739 11968 net.cpp:228] relu1 <- conv1
I0813 05:41:48.630744 11968 net.cpp:179] relu1 -> conv1 (in-place)
I0813 05:41:48.630753 11968 net.cpp:84] Top shape: 12 96 55 55 (3484800)
I0813 05:41:48.630756 11968 net.cpp:116] relu1 does not need backward computation.
I0813 05:41:48.630761 11968 net.cpp:65] Creating Layer pool1
I0813 05:41:48.630764 11968 net.cpp:228] pool1 <- conv1
I0813 05:41:48.630769 11968 net.cpp:189] pool1 -> pool1
I0813 05:41:48.630781 11968 net.cpp:84] Top shape: 12 96 27 27 (839808)
I0813 05:41:48.630784 11968 net.cpp:116] pool1 does not need backward computation.
I0813 05:41:48.630789 11968 net.cpp:65] Creating Layer norm1
I0813 05:41:48.630791 11968 net.cpp:228] norm1 <- pool1
I0813 05:41:48.630795 11968 net.cpp:189] norm1 -> norm1
I0813 05:41:48.630805 11968 net.cpp:84] Top shape: 12 96 27 27 (839808)
I0813 05:41:48.630807 11968 net.cpp:116] norm1 does not need backward computation.
I0813 05:41:48.630811 11968 net.cpp:65] Creating Layer Rconv6
I0813 05:41:48.630815 11968 net.cpp:228] Rconv6 <- norm1
I0813 05:41:48.630818 11968 net.cpp:189] Rconv6 -> Rconv6
I0813 05:41:48.631094 11968 net.cpp:84] Top shape: 12 256 27 27 (2239488)
I0813 05:41:48.631098 11968 net.cpp:111] Rconv6 needs backward computation.
I0813 05:41:48.631103 11968 net.cpp:65] Creating Layer Rrelu6
I0813 05:41:48.631106 11968 net.cpp:228] Rrelu6 <- Rconv6
I0813 05:41:48.631110 11968 net.cpp:179] Rrelu6 -> Rconv6 (in-place)
I0813 05:41:48.631114 11968 net.cpp:84] Top shape: 12 256 27 27 (2239488)
I0813 05:41:48.631117 11968 net.cpp:111] Rrelu6 needs backward computation.
I0813 05:41:48.631122 11968 net.cpp:65] Creating Layer Rconv7
I0813 05:41:48.631124 11968 net.cpp:228] Rconv7 <- Rconv6
I0813 05:41:48.631129 11968 net.cpp:189] Rconv7 -> Rconv7
I0813 05:41:48.631906 11968 net.cpp:84] Top shape: 12 256 27 27 (2239488)
I0813 05:41:48.631911 11968 net.cpp:111] Rconv7 needs backward computation.
I0813 05:41:48.631916 11968 net.cpp:65] Creating Layer Rrelu7
I0813 05:41:48.631935 11968 net.cpp:228] Rrelu7 <- Rconv7
I0813 05:41:48.631939 11968 net.cpp:179] Rrelu7 -> Rconv7 (in-place)
I0813 05:41:48.631944 11968 net.cpp:84] Top shape: 12 256 27 27 (2239488)
I0813 05:41:48.631947 11968 net.cpp:111] Rrelu7 needs backward computation.
I0813 05:41:48.631950 11968 net.cpp:65] Creating Layer Rconv8
I0813 05:41:48.631953 11968 net.cpp:228] Rconv8 <- Rconv7
I0813 05:41:48.631956 11968 net.cpp:189] Rconv8 -> Rconv8
I0813 05:41:48.632745 11968 net.cpp:84] Top shape: 12 256 27 27 (2239488)
I0813 05:41:48.632750 11968 net.cpp:111] Rconv8 needs backward computation.
I0813 05:41:48.632755 11968 net.cpp:65] Creating Layer Rrelu8
I0813 05:41:48.632757 11968 net.cpp:228] Rrelu8 <- Rconv8
I0813 05:41:48.632761 11968 net.cpp:179] Rrelu8 -> Rconv8 (in-place)
I0813 05:41:48.632766 11968 net.cpp:84] Top shape: 12 256 27 27 (2239488)
I0813 05:41:48.632767 11968 net.cpp:111] Rrelu8 needs backward computation.
I0813 05:41:48.632771 11968 net.cpp:65] Creating Layer deconv2
I0813 05:41:48.632774 11968 net.cpp:228] deconv2 <- Rconv8
I0813 05:41:48.632778 11968 net.cpp:189] deconv2 -> deconv2
I0813 05:41:48.633806 11968 net.cpp:84] Top shape: 12 64 54 54 (2239488)
I0813 05:41:48.633811 11968 net.cpp:111] deconv2 needs backward computation.
I0813 05:41:48.633816 11968 net.cpp:65] Creating Layer relu_deconv2
I0813 05:41:48.633818 11968 net.cpp:228] relu_deconv2 <- deconv2
I0813 05:41:48.633822 11968 net.cpp:179] relu_deconv2 -> deconv2 (in-place)
I0813 05:41:48.633827 11968 net.cpp:84] Top shape: 12 64 54 54 (2239488)
I0813 05:41:48.633829 11968 net.cpp:111] relu_deconv2 needs backward computation.
I0813 05:41:48.633833 11968 net.cpp:65] Creating Layer deconv1
I0813 05:41:48.633836 11968 net.cpp:228] deconv1 <- deconv2
I0813 05:41:48.633841 11968 net.cpp:189] deconv1 -> deconv1
I0813 05:41:48.633985 11968 net.cpp:84] Top shape: 12 32 108 108 (4478976)
I0813 05:41:48.633990 11968 net.cpp:111] deconv1 needs backward computation.
I0813 05:41:48.633992 11968 net.cpp:65] Creating Layer relu_deconv1
I0813 05:41:48.633996 11968 net.cpp:228] relu_deconv1 <- deconv1
I0813 05:41:48.633999 11968 net.cpp:179] relu_deconv1 -> deconv1 (in-place)
I0813 05:41:48.634003 11968 net.cpp:84] Top shape: 12 32 108 108 (4478976)
I0813 05:41:48.634006 11968 net.cpp:111] relu_deconv1 needs backward computation.
I0813 05:41:48.634011 11968 net.cpp:65] Creating Layer deconv0
I0813 05:41:48.634014 11968 net.cpp:228] deconv0 <- deconv1
I0813 05:41:48.634018 11968 net.cpp:189] deconv0 -> deconv0
I0813 05:41:48.634042 11968 net.cpp:84] Top shape: 12 3 216 216 (1679616)
I0813 05:41:48.634044 11968 net.cpp:111] deconv0 needs backward computation.
I0813 05:41:48.634048 11968 net.cpp:65] Creating Layer loss
I0813 05:41:48.634052 11968 net.cpp:228] loss <- deconv0
I0813 05:41:48.634054 11968 net.cpp:228] loss <- target_ims
I0813 05:41:48.634064 11968 net.cpp:111] loss needs backward computation.
I0813 05:41:48.634076 11968 net.cpp:238] Collecting Learning Rate and Weight Decay.
…
    source: "/scr/r6/tgebru/inverting_conv/caffe_invert_alexnet/data/siggraph/tiny_summer_val_lmdb"
    mean_file: "/scr/r6/tgebru/timnit_caffe/data/ilsvrc12/imagenet_mean.binaryproto"
    batch_size: 64
    crop_size: 227
    mirror: false
    backend: LMDB
  }
}
layers {
  top: "target_ims"
  name: "target_ims"
  type: DATA
  data_param {
    source: "/scr/r6/tgebru/inverting_conv/caffe_invert_alexnet/data/siggraph/tiny_winter_val_lmdb"
    mean_file: "/scr/r6/tgebru/timnit_caffe/data/ilsvrc12/imagenet_mean.binaryproto"
    batch_size: 64
    crop_size: 216
    mirror: false
    backend: LMDB
  }
}
layers {
  bottom: "source_ims"
  top: "conv1"
  name: "conv1"
  type: CONVOLUTION
  blobs_lr: 0
  blobs_lr: 0
  weight_decay: 1
  weight_decay: 0
  convolution_param {
    num_output: 96
    kernel_size: 11
    stride: 4
    weight_filler {
      type: "gaussian"
      std: 0.01
    }
    bias_filler {
      type: "constant"
      value: 0
    }
  }
}
layers {
  bottom: "conv1"
  top: "conv1"
  name: "relu1"
  type: RELU
}
layers {
  bottom: "conv1"
  top: "pool1"
  name: "pool1"
  type: POOLING
  pooling_param {
    pool: MAX
    kernel_size: 3
    stride: 2
  }
}
layers {
  bottom: "pool1"
  top: "norm1"
  name: "norm1"
  type: LRN
  lrn_param {
    local_size: 5
    alpha: 0.0001
    beta: 0.75
  }
}
layers {
  bottom: "norm1"
  top: "Rconv6"
  name: "Rconv6"
  type: CONVOLUTION
  blobs_lr: 0
  blobs_lr: 0
  weight_decay: 1
  weight_decay: 0
  convolution_param {
    num_output: 256
    pad: 1
    kernel_size: 3
  }
}
layers {
  bottom: "Rconv6"
  top: "Rconv6"
  name: "Rrelu6"
  type: RELU
}
layers {
  bottom: "Rconv6"
  top: "Rconv7"
  name: "Rconv7"
  type: CONVOLUTION
  blobs_lr: 0
  blobs_lr: 0
  weight_decay: 1
  weight_decay: 0
  convolution_param {
    num_output: 256
    pad: 1
    kernel_size: 3
    group: 2
  }
}
layers {
  bottom: "Rconv7"
  top: "Rconv7"
  name: "Rrelu7"
  type: RELU
}
layers {
  bottom: "Rconv7"
  top: "Rconv8"
  name: "Rconv8"
  type: CONVOLUTION
  blobs_lr: 0
  blobs_lr: 0
  weight_decay: 1
  weight_decay: 0
  convolution_param {
    num_output: 256
    pad: 1
    kernel_size: 3
    group: 2
  }
}
layers {
  bottom: "Rconv8"
  top: "Rconv8"
  name: "Rrelu8"
  type: RELU
}
layers {
  bottom: "Rconv8"
  top: "deconv2"
  name: "deconv2"
  type: DECONVOLUTION
  blobs_lr: 0
  blobs_lr: 0
  weight_decay: 1
  weight_decay: 0
  deconvolution_param {
    pad: 2
    kernel_size: 5
    stride: 2
    output_height: 54
    output_width: 54
    output_channels: 64
  }
}
layers {
  bottom: "deconv2"
  top: "deconv2"
  name: "relu_deconv2"
  type: RELU
  relu_param {
    negative_slope: 0.3
  }
}
layers {
  bottom: "deconv2"
  top: "deconv1"
  name: "deconv1"
  type: DECONVOLUTION
  blobs_lr: 0
  blobs_lr: 0
  weight_decay: 1
  weight_decay: 0
  deconvolution_param {
    pad: 2
    kernel_size: 5
    stride: 2
    output_height: 108
    output_width: 108
    output_channels: 32
  }
}
layers {
  bottom: "deconv1"
  top: "deconv1"
  name: "relu_deconv1"
  type: RELU
  relu_param {
    negative_slope: 0.3
  }
}
layers {
  bottom: "deconv1"
  top: "deconv0"
  name: "deconv0"
  type: DECONVOLUTION
  blobs_lr: 0
  blobs_lr: 0
  weight_decay: 1
  weight_decay: 0
  deconvolution_param {
    pad: 2
    kernel_size: 5
    stride: 2
    output_height: 216
    output_width: 216
    output_channels: 3
  }
}
layers {
  bottom: "deconv0"
  bottom: "target_ims"
  name: "loss"
  type: EUCLIDEAN_LOSS
}
I0813 05:41:48.634781 11968 net.cpp:65] Creating Layer source_ims
I0813 05:41:48.634788 11968 net.cpp:189] source_ims -> source_ims
I0813 05:41:48.634855 11968 data_layer.cpp:223] Opening lmdb /scr/r6/tgebru/inverting_conv/caffe_invert_alexnet/data/siggraph/tiny_summer_val_lmdb
I0813 05:41:48.635038 11968 data_layer.cpp:285] output data size: 64,3,227,227
I0813 05:41:48.635043 11968 data_layer.cpp:304] Loading mean file from/scr/r6/tgebru/timnit_caffe/data/ilsvrc12/imagenet_mean.binaryproto
I0813 05:41:48.649106 11968 net.cpp:84] Top shape: 64 3 227 227 (9893568)
I0813 05:41:48.649124 11968 net.cpp:116] source_ims does not need backward computation.
I0813 05:41:48.649137 11968 net.cpp:65] Creating Layer target_ims
I0813 05:41:48.649142 11968 net.cpp:189] target_ims -> target_ims
I0813 05:41:48.649236 11968 data_layer.cpp:223] Opening lmdb /scr/r6/tgebru/inverting_conv/caffe_invert_alexnet/data/siggraph/tiny_winter_val_lmdb
I0813 05:41:48.649371 11968 data_layer.cpp:285] output data size: 64,3,216,216
I0813 05:41:48.649375 11968 data_layer.cpp:304] Loading mean file from/scr/r6/tgebru/timnit_caffe/data/ilsvrc12/imagenet_mean.binaryproto
I0813 05:41:48.661834 11968 net.cpp:84] Top shape: 64 3 216 216 (8957952)
I0813 05:41:48.661907 11968 net.cpp:116] target_ims does not need backward computation.
I0813 05:41:48.661923 11968 net.cpp:65] Creating Layer conv1
I0813 05:41:48.661928 11968 net.cpp:228] conv1 <- source_ims
I0813 05:41:48.661938 11968 net.cpp:189] conv1 -> conv1
I0813 05:41:48.663202 11968 net.cpp:84] Top shape: 64 96 55 55 (18585600)
I0813 05:41:48.663206 11968 net.cpp:116] conv1 does not need backward computation.
I0813 05:41:48.663211 11968 net.cpp:65] Creating Layer relu1
I0813 05:41:48.663214 11968 net.cpp:228] relu1 <- conv1
I0813 05:41:48.663219 11968 net.cpp:179] relu1 -> conv1 (in-place)
I0813 05:41:48.663224 11968 net.cpp:84] Top shape: 64 96 55 55 (18585600)
I0813 05:41:48.663228 11968 net.cpp:116] relu1 does not need backward computation.
I0813 05:41:48.663234 11968 net.cpp:65] Creating Layer pool1
I0813 05:41:48.663238 11968 net.cpp:228] pool1 <- conv1
I0813 05:41:48.663241 11968 net.cpp:189] pool1 -> pool1
I0813 05:41:48.663249 11968 net.cpp:84] Top shape: 64 96 27 27 (4478976)
I0813 05:41:48.663251 11968 net.cpp:116] pool1 does not need backward computation.
I0813 05:41:48.663256 11968 net.cpp:65] Creating Layer norm1
I0813 05:41:48.663259 11968 net.cpp:228] norm1 <- pool1
I0813 05:41:48.663264 11968 net.cpp:189] norm1 -> norm1
I0813 05:41:48.663270 11968 net.cpp:84] Top shape: 64 96 27 27 (4478976)
I0813 05:41:48.663274 11968 net.cpp:116] norm1 does not need backward computation.
I0813 05:41:48.663277 11968 net.cpp:65] Creating Layer Rconv6
I0813 05:41:48.663280 11968 net.cpp:228] Rconv6 <- norm1
I0813 05:41:48.663285 11968 net.cpp:189] Rconv6 -> Rconv6
I0813 05:41:48.663521 11968 net.cpp:84] Top shape: 64 256 27 27 (11943936)
I0813 05:41:48.663525 11968 net.cpp:116] Rconv6 does not need backward computation.
I0813 05:41:48.663529 11968 net.cpp:65] Creating Layer Rrelu6
I0813 05:41:48.663532 11968 net.cpp:228] Rrelu6 <- Rconv6
I0813 05:41:48.663537 11968 net.cpp:179] Rrelu6 -> Rconv6 (in-place)
I0813 05:41:48.663542 11968 net.cpp:84] Top shape: 64 256 27 27 (11943936)
I0813 05:41:48.663544 11968 net.cpp:116] Rrelu6 does not need backward computation.
I0813 05:41:48.663550 11968 net.cpp:65] Creating Layer Rconv7
I0813 05:41:48.663552 11968 net.cpp:228] Rconv7 <- Rconv6
I0813 05:41:48.663558 11968 net.cpp:189] Rconv7 -> Rconv7
I0813 05:41:48.664304 11968 net.cpp:84] Top shape: 64 256 27 27 (11943936)
I0813 05:41:48.664309 11968 net.cpp:116] Rconv7 does not need backward computation.
I0813 05:41:48.664314 11968 net.cpp:65] Creating Layer Rrelu7
I0813 05:41:48.664316 11968 net.cpp:228] Rrelu7 <- Rconv7
I0813 05:41:48.664321 11968 net.cpp:179] Rrelu7 -> Rconv7 (in-place)
I0813 05:41:48.664325 11968 net.cpp:84] Top shape: 64 256 27 27 (11943936)
I0813 05:41:48.664329 11968 net.cpp:116] Rrelu7 does not need backward computation.
I0813 05:41:48.664332 11968 net.cpp:65] Creating Layer Rconv8
I0813 05:41:48.664335 11968 net.cpp:228] Rconv8 <- Rconv7
I0813 05:41:48.664340 11968 net.cpp:189] Rconv8 -> Rconv8
I0813 05:41:48.665117 11968 net.cpp:84] Top shape: 64 256 27 27 (11943936)
I0813 05:41:48.665122 11968 net.cpp:116] Rconv8 does not need backward computation.
I0813 05:41:48.665127 11968 net.cpp:65] Creating Layer Rrelu8
I0813 05:41:48.665129 11968 net.cpp:228] Rrelu8 <- Rconv8
I0813 05:41:48.665133 11968 net.cpp:179] Rrelu8 -> Rconv8 (in-place)
I0813 05:41:48.665138 11968 net.cpp:84] Top shape: 64 256 27 27 (11943936)
I0813 05:41:48.665140 11968 net.cpp:116] Rrelu8 does not need backward computation.
I0813 05:41:48.665145 11968 net.cpp:65] Creating Layer deconv2
I0813 05:41:48.665148 11968 net.cpp:228] deconv2 <- Rconv8
I0813 05:41:48.665153 11968 net.cpp:189] deconv2 -> deconv2
I0813 05:41:48.666159 11968 net.cpp:84] Top shape: 64 64 54 54 (11943936)
I0813 05:41:48.666164 11968 net.cpp:116] deconv2 does not need backward computation.
I0813 05:41:48.666169 11968 net.cpp:65] Creating Layer relu_deconv2
I0813 05:41:48.666172 11968 net.cpp:228] relu_deconv2 <- deconv2
I0813 05:41:48.666177 11968 net.cpp:179] relu_deconv2 -> deconv2 (in-place)
I0813 05:41:48.666182 11968 net.cpp:84] Top shape: 64 64 54 54 (11943936)
I0813 05:41:48.666196 11968 net.cpp:116] relu_deconv2 does not need backward computation.
I0813 05:41:48.666201 11968 net.cpp:65] Creating Layer deconv1
I0813 05:41:48.666204 11968 net.cpp:228] deconv1 <- deconv2
I0813 05:41:48.666208 11968 net.cpp:189] deconv1 -> deconv1
I0813 05:41:48.666352 11968 net.cpp:84] Top shape: 64 32 108 108 (23887872)
I0813 05:41:48.666357 11968 net.cpp:116] deconv1 does not need backward computation.
I0813 05:41:48.666362 11968 net.cpp:65] Creating Layer relu_deconv1
I0813 05:41:48.666364 11968 net.cpp:228] relu_deconv1 <- deconv1
I0813 05:41:48.666368 11968 net.cpp:179] relu_deconv1 -> deconv1 (in-place)
I0813 05:41:48.666373 11968 net.cpp:84] Top shape: 64 32 108 108 (23887872)
I0813 05:41:48.666376 11968 net.cpp:116] relu_deconv1 does not need backward computation.
I0813 05:41:48.666383 11968 net.cpp:65] Creating Layer deconv0
I0813 05:41:48.666385 11968 net.cpp:228] deconv0 <- deconv1
I0813 05:41:48.666390 11968 net.cpp:189] deconv0 -> deconv0
I0813 05:41:48.666415 11968 net.cpp:84] Top shape: 64 3 216 216 (8957952)
I0813 05:41:48.666419 11968 net.cpp:116] deconv0 does not need backward computation.
I0813 05:41:48.666421 11968 net.cpp:65] Creating Layer loss
I0813 05:41:48.666424 11968 net.cpp:228] loss <- deconv0
I0813 05:41:48.666427 11968 net.cpp:228] loss <- target_ims
I0813 05:41:48.666434 11968 net.cpp:116] loss does not need backward computation.
I0813 05:41:48.666445 11968 net.cpp:238] Collecting Learning Rate and Weight Decay.
…
