…
  data_param {
    source: "/scr/r6/tgebru/inverting_conv/caffe_invert_alexnet/data/siggraph/tiny_summer_train_227lmdb"
    mean_file: "/scr/r6/tgebru/timnit_caffe/data/ilsvrc12/imagenet_mean227.binaryproto"
    batch_size: 12
    mirror: false
    backend: LMDB
  }
}
layers {
  top: "target_ims"
  name: "target_ims"
  type: DATA
  data_param {
    source: "/scr/r6/tgebru/inverting_conv/caffe_invert_alexnet/data/siggraph/tiny_summer_train_216lmdb"
    mean_file: "/scr/r6/tgebru/timnit_caffe/data/ilsvrc12/imagenet_mean216.binaryproto"
    batch_size: 12
    mirror: false
    backend: LMDB
  }
}
layers {
  bottom: "source_ims"
  top: "conv1"
  name: "conv1"
  type: CONVOLUTION
  blobs_lr: 0
  blobs_lr: 0
  weight_decay: 1
  weight_decay: 0
  convolution_param {
    num_output: 96
    kernel_size: 11
    stride: 4
    weight_filler {
      type: "gaussian"
      std: 0.01
    }
    bias_filler {
      type: "constant"
      value: 0
    }
  }
}
layers {
  bottom: "conv1"
  top: "conv1"
  name: "relu1"
  type: RELU
}
layers {
  bottom: "conv1"
  top: "pool1"
  name: "pool1"
  type: POOLING
  pooling_param {
    pool: MAX
    kernel_size: 3
    stride: 2
  }
}
layers {
  bottom: "pool1"
  top: "norm1"
  name: "norm1"
  type: LRN
  lrn_param {
    local_size: 5
    alpha: 0.0001
    beta: 0.75
  }
}
layers {
  bottom: "norm1"
  top: "Rconv6"
  name: "Rconv6"
  type: CONVOLUTION
  blobs_lr: 1
  blobs_lr: 2
  weight_decay: 1
  weight_decay: 0
  convolution_param {
    num_output: 256
    pad: 1
    kernel_size: 3
  }
}
layers {
  bottom: "Rconv6"
  top: "Rconv6"
  name: "Rrelu6"
  type: RELU
}
layers {
  bottom: "Rconv6"
  top: "Rconv7"
  name: "Rconv7"
  type: CONVOLUTION
  blobs_lr: 1
  blobs_lr: 2
  weight_decay: 1
  weight_decay: 0
  convolution_param {
    num_output: 256
    pad: 1
    kernel_size: 3
    group: 2
  }
}
layers {
  bottom: "Rconv7"
  top: "Rconv7"
  name: "Rrelu7"
  type: RELU
}
layers {
  bottom: "Rconv7"
  top: "Rconv8"
  name: "Rconv8"
  type: CONVOLUTION
  blobs_lr: 1
  blobs_lr: 2
  weight_decay: 1
  weight_decay: 0
  convolution_param {
    num_output: 256
    pad: 1
    kernel_size: 3
    group: 2
  }
}
layers {
  bottom: "Rconv8"
  top: "Rconv8"
  name: "Rrelu8"
  type: RELU
}
layers {
  bottom: "Rconv8"
  top: "deconv2"
  name: "deconv2"
  type: DECONVOLUTION
  blobs_lr: 1
  blobs_lr: 2
  weight_decay: 1
  weight_decay: 0
  deconvolution_param {
    pad: 2
    kernel_size: 5
    stride: 2
    output_height: 54
    output_width: 54
    output_channels: 64
  }
}
layers {
  bottom: "deconv2"
  top: "deconv2"
  name: "relu_deconv2"
  type: RELU
  relu_param {
    negative_slope: 0.3
  }
}
layers {
  bottom: "deconv2"
  top: "deconv1"
  name: "deconv1"
  type: DECONVOLUTION
  blobs_lr: 1
  blobs_lr: 2
  weight_decay: 1
  weight_decay: 0
  deconvolution_param {
    pad: 2
    kernel_size: 5
    stride: 2
    output_height: 108
    output_width: 108
    output_channels: 32
  }
}
layers {
  bottom: "deconv1"
  top: "deconv1"
  name: "relu_deconv1"
  type: RELU
  relu_param {
    negative_slope: 0.3
  }
}
layers {
  bottom: "deconv1"
  top: "deconv0"
  name: "deconv0"
  type: DECONVOLUTION
  blobs_lr: 1
  blobs_lr: 2
  weight_decay: 1
  weight_decay: 1
  deconvolution_param {
    pad: 2
    kernel_size: 5
    stride: 2
    output_height: 216
    output_width: 216
    output_channels: 3
  }
}
layers {
  bottom: "deconv0"
  bottom: "target_ims"
  name: "loss"
  type: EUCLIDEAN_LOSS
}
I0824 15:59:34.671886 24466 net.cpp:65] Creating Layer source_ims
I0824 15:59:34.671895 24466 net.cpp:189] source_ims -> source_ims
I0824 15:59:34.672001 24466 data_layer.cpp:223] Opening lmdb /scr/r6/tgebru/inverting_conv/caffe_invert_alexnet/data/siggraph/tiny_summer_train_227lmdb
I0824 15:59:34.672170 24466 data_layer.cpp:285] output data size: 12,3,227,227
I0824 15:59:34.672178 24466 data_layer.cpp:304] Loading mean file from/scr/r6/tgebru/timnit_caffe/data/ilsvrc12/imagenet_mean227.binaryproto
I0824 15:59:34.676486 24466 net.cpp:84] Top shape: 12 3 227 227 (1855044)
I0824 15:59:34.676494 24466 net.cpp:116] source_ims does not need backward computation.
I0824 15:59:34.676501 24466 net.cpp:65] Creating Layer target_ims
I0824 15:59:34.676506 24466 net.cpp:189] target_ims -> target_ims
I0824 15:59:34.676666 24466 data_layer.cpp:223] Opening lmdb /scr/r6/tgebru/inverting_conv/caffe_invert_alexnet/data/siggraph/tiny_summer_train_216lmdb
I0824 15:59:34.676836 24466 data_layer.cpp:285] output data size: 12,3,216,216
I0824 15:59:34.676841 24466 data_layer.cpp:304] Loading mean file from/scr/r6/tgebru/timnit_caffe/data/ilsvrc12/imagenet_mean216.binaryproto
I0824 15:59:34.681020 24466 net.cpp:84] Top shape: 12 3 216 216 (1679616)
I0824 15:59:34.681031 24466 net.cpp:116] target_ims does not need backward computation.
I0824 15:59:34.681043 24466 net.cpp:65] Creating Layer conv1
I0824 15:59:34.681048 24466 net.cpp:228] conv1 <- source_ims
I0824 15:59:34.681157 24466 net.cpp:189] conv1 -> conv1
I0824 15:59:34.682592 24466 net.cpp:84] Top shape: 12 96 55 55 (3484800)
I0824 15:59:34.682598 24466 net.cpp:116] conv1 does not need backward computation.
I0824 15:59:34.682605 24466 net.cpp:65] Creating Layer relu1
I0824 15:59:34.682607 24466 net.cpp:228] relu1 <- conv1
I0824 15:59:34.682611 24466 net.cpp:179] relu1 -> conv1 (in-place)
I0824 15:59:34.682621 24466 net.cpp:84] Top shape: 12 96 55 55 (3484800)
I0824 15:59:34.682623 24466 net.cpp:116] relu1 does not need backward computation.
I0824 15:59:34.682628 24466 net.cpp:65] Creating Layer pool1
I0824 15:59:34.682631 24466 net.cpp:228] pool1 <- conv1
I0824 15:59:34.682634 24466 net.cpp:189] pool1 -> pool1
I0824 15:59:34.682646 24466 net.cpp:84] Top shape: 12 96 27 27 (839808)
I0824 15:59:34.682649 24466 net.cpp:116] pool1 does not need backward computation.
I0824 15:59:34.682654 24466 net.cpp:65] Creating Layer norm1
I0824 15:59:34.682657 24466 net.cpp:228] norm1 <- pool1
I0824 15:59:34.682660 24466 net.cpp:189] norm1 -> norm1
I0824 15:59:34.682668 24466 net.cpp:84] Top shape: 12 96 27 27 (839808)
I0824 15:59:34.682672 24466 net.cpp:116] norm1 does not need backward computation.
I0824 15:59:34.682675 24466 net.cpp:65] Creating Layer Rconv6
I0824 15:59:34.682678 24466 net.cpp:228] Rconv6 <- norm1
I0824 15:59:34.682683 24466 net.cpp:189] Rconv6 -> Rconv6
I0824 15:59:34.682924 24466 net.cpp:84] Top shape: 12 256 27 27 (2239488)
I0824 15:59:34.682929 24466 net.cpp:111] Rconv6 needs backward computation.
I0824 15:59:34.682932 24466 net.cpp:65] Creating Layer Rrelu6
I0824 15:59:34.682935 24466 net.cpp:228] Rrelu6 <- Rconv6
I0824 15:59:34.682940 24466 net.cpp:179] Rrelu6 -> Rconv6 (in-place)
I0824 15:59:34.682945 24466 net.cpp:84] Top shape: 12 256 27 27 (2239488)
I0824 15:59:34.682947 24466 net.cpp:111] Rrelu6 needs backward computation.
I0824 15:59:34.682952 24466 net.cpp:65] Creating Layer Rconv7
I0824 15:59:34.682955 24466 net.cpp:228] Rconv7 <- Rconv6
I0824 15:59:34.682958 24466 net.cpp:189] Rconv7 -> Rconv7
I0824 15:59:34.683749 24466 net.cpp:84] Top shape: 12 256 27 27 (2239488)
I0824 15:59:34.683753 24466 net.cpp:111] Rconv7 needs backward computation.
I0824 15:59:34.683759 24466 net.cpp:65] Creating Layer Rrelu7
I0824 15:59:34.683763 24466 net.cpp:228] Rrelu7 <- Rconv7
I0824 15:59:34.683784 24466 net.cpp:179] Rrelu7 -> Rconv7 (in-place)
I0824 15:59:34.683789 24466 net.cpp:84] Top shape: 12 256 27 27 (2239488)
I0824 15:59:34.683791 24466 net.cpp:111] Rrelu7 needs backward computation.
I0824 15:59:34.683795 24466 net.cpp:65] Creating Layer Rconv8
I0824 15:59:34.683797 24466 net.cpp:228] Rconv8 <- Rconv7
I0824 15:59:34.683804 24466 net.cpp:189] Rconv8 -> Rconv8
I0824 15:59:34.684646 24466 net.cpp:84] Top shape: 12 256 27 27 (2239488)
I0824 15:59:34.684650 24466 net.cpp:111] Rconv8 needs backward computation.
I0824 15:59:34.684654 24466 net.cpp:65] Creating Layer Rrelu8
I0824 15:59:34.684658 24466 net.cpp:228] Rrelu8 <- Rconv8
I0824 15:59:34.684660 24466 net.cpp:179] Rrelu8 -> Rconv8 (in-place)
I0824 15:59:34.684664 24466 net.cpp:84] Top shape: 12 256 27 27 (2239488)
I0824 15:59:34.684667 24466 net.cpp:111] Rrelu8 needs backward computation.
I0824 15:59:34.684672 24466 net.cpp:65] Creating Layer deconv2
I0824 15:59:34.684675 24466 net.cpp:228] deconv2 <- Rconv8
I0824 15:59:34.684679 24466 net.cpp:189] deconv2 -> deconv2
I0824 15:59:34.685768 24466 net.cpp:84] Top shape: 12 64 54 54 (2239488)
I0824 15:59:34.685772 24466 net.cpp:111] deconv2 needs backward computation.
I0824 15:59:34.685777 24466 net.cpp:65] Creating Layer relu_deconv2
I0824 15:59:34.685782 24466 net.cpp:228] relu_deconv2 <- deconv2
I0824 15:59:34.685786 24466 net.cpp:179] relu_deconv2 -> deconv2 (in-place)
I0824 15:59:34.685791 24466 net.cpp:84] Top shape: 12 64 54 54 (2239488)
I0824 15:59:34.685793 24466 net.cpp:111] relu_deconv2 needs backward computation.
I0824 15:59:34.685797 24466 net.cpp:65] Creating Layer deconv1
I0824 15:59:34.685799 24466 net.cpp:228] deconv1 <- deconv2
I0824 15:59:34.685803 24466 net.cpp:189] deconv1 -> deconv1
I0824 15:59:34.685951 24466 net.cpp:84] Top shape: 12 32 108 108 (4478976)
I0824 15:59:34.685956 24466 net.cpp:111] deconv1 needs backward computation.
I0824 15:59:34.685961 24466 net.cpp:65] Creating Layer relu_deconv1
I0824 15:59:34.685963 24466 net.cpp:228] relu_deconv1 <- deconv1
I0824 15:59:34.685967 24466 net.cpp:179] relu_deconv1 -> deconv1 (in-place)
I0824 15:59:34.685971 24466 net.cpp:84] Top shape: 12 32 108 108 (4478976)
I0824 15:59:34.685974 24466 net.cpp:111] relu_deconv1 needs backward computation.
I0824 15:59:34.685981 24466 net.cpp:65] Creating Layer deconv0
I0824 15:59:34.685984 24466 net.cpp:228] deconv0 <- deconv1
I0824 15:59:34.685988 24466 net.cpp:189] deconv0 -> deconv0
I0824 15:59:34.686028 24466 net.cpp:84] Top shape: 12 3 216 216 (1679616)
I0824 15:59:34.686033 24466 net.cpp:111] deconv0 needs backward computation.
I0824 15:59:34.686035 24466 net.cpp:65] Creating Layer loss
I0824 15:59:34.686038 24466 net.cpp:228] loss <- deconv0
I0824 15:59:34.686041 24466 net.cpp:228] loss <- target_ims
I0824 15:59:34.686048 24466 net.cpp:111] loss needs backward computation.
I0824 15:59:34.686066 24466 net.cpp:238] Collecting Learning Rate and Weight Decay.
…
  data_param {
    source: "/scr/r6/tgebru/inverting_conv/caffe_invert_alexnet/data/siggraph/tiny_summer_val_227lmdb"
    mean_file: "/scr/r6/tgebru/timnit_caffe/data/ilsvrc12/imagenet_mean227.binaryproto"
    batch_size: 2
    mirror: false
    backend: LMDB
  }
}
layers {
  top: "target_ims"
  name: "target_ims"
  type: DATA
  data_param {
    source: "/scr/r6/tgebru/inverting_conv/caffe_invert_alexnet/data/siggraph/tiny_summer_val_216lmdb"
    mean_file: "/scr/r6/tgebru/timnit_caffe/data/ilsvrc12/imagenet_mean216.binaryproto"
    batch_size: 2
    mirror: false
    backend: LMDB
  }
}
layers {
  bottom: "source_ims"
  top: "conv1"
  name: "conv1"
  type: CONVOLUTION
  blobs_lr: 0
  blobs_lr: 0
  weight_decay: 1
  weight_decay: 0
  convolution_param {
    num_output: 96
    kernel_size: 11
    stride: 4
    weight_filler {
      type: "gaussian"
      std: 0.01
    }
    bias_filler {
      type: "constant"
      value: 0
    }
  }
}
layers {
  bottom: "conv1"
  top: "conv1"
  name: "relu1"
  type: RELU
}
layers {
  bottom: "conv1"
  top: "pool1"
  name: "pool1"
  type: POOLING
  pooling_param {
    pool: MAX
    kernel_size: 3
    stride: 2
  }
}
layers {
  bottom: "pool1"
  top: "norm1"
  name: "norm1"
  type: LRN
  lrn_param {
    local_size: 5
    alpha: 0.0001
    beta: 0.75
  }
}
layers {
  bottom: "norm1"
  top: "Rconv6"
  name: "Rconv6"
  type: CONVOLUTION
  blobs_lr: 0
  blobs_lr: 0
  weight_decay: 1
  weight_decay: 0
  convolution_param {
    num_output: 256
    pad: 1
    kernel_size: 3
  }
}
layers {
  bottom: "Rconv6"
  top: "Rconv6"
  name: "Rrelu6"
  type: RELU
}
layers {
  bottom: "Rconv6"
  top: "Rconv7"
  name: "Rconv7"
  type: CONVOLUTION
  blobs_lr: 0
  blobs_lr: 0
  weight_decay: 1
  weight_decay: 0
  convolution_param {
    num_output: 256
    pad: 1
    kernel_size: 3
    group: 2
  }
}
layers {
  bottom: "Rconv7"
  top: "Rconv7"
  name: "Rrelu7"
  type: RELU
}
layers {
  bottom: "Rconv7"
  top: "Rconv8"
  name: "Rconv8"
  type: CONVOLUTION
  blobs_lr: 0
  blobs_lr: 0
  weight_decay: 1
  weight_decay: 0
  convolution_param {
    num_output: 256
    pad: 1
    kernel_size: 3
    group: 2
  }
}
layers {
  bottom: "Rconv8"
  top: "Rconv8"
  name: "Rrelu8"
  type: RELU
}
layers {
  bottom: "Rconv8"
  top: "deconv2"
  name: "deconv2"
  type: DECONVOLUTION
  blobs_lr: 0
  blobs_lr: 0
  weight_decay: 1
  weight_decay: 0
  deconvolution_param {
    pad: 2
    kernel_size: 5
    stride: 2
    output_height: 54
    output_width: 54
    output_channels: 64
  }
}
layers {
  bottom: "deconv2"
  top: "deconv2"
  name: "relu_deconv2"
  type: RELU
  relu_param {
    negative_slope: 0.3
  }
}
layers {
  bottom: "deconv2"
  top: "deconv1"
  name: "deconv1"
  type: DECONVOLUTION
  blobs_lr: 0
  blobs_lr: 0
  weight_decay: 1
  weight_decay: 0
  deconvolution_param {
    pad: 2
    kernel_size: 5
    stride: 2
    output_height: 108
    output_width: 108
    output_channels: 32
  }
}
layers {
  bottom: "deconv1"
  top: "deconv1"
  name: "relu_deconv1"
  type: RELU
  relu_param {
    negative_slope: 0.3
  }
}
layers {
  bottom: "deconv1"
  top: "deconv0"
  name: "deconv0"
  type: DECONVOLUTION
  blobs_lr: 0
  blobs_lr: 0
  weight_decay: 1
  weight_decay: 0
  deconvolution_param {
    pad: 2
    kernel_size: 5
    stride: 2
    output_height: 216
    output_width: 216
    output_channels: 3
  }
}
layers {
  bottom: "deconv0"
  bottom: "target_ims"
  name: "loss"
  type: EUCLIDEAN_LOSS
}
I0824 15:59:34.686771 24466 net.cpp:65] Creating Layer source_ims
I0824 15:59:34.686776 24466 net.cpp:189] source_ims -> source_ims
I0824 15:59:34.686830 24466 data_layer.cpp:223] Opening lmdb /scr/r6/tgebru/inverting_conv/caffe_invert_alexnet/data/siggraph/tiny_summer_val_227lmdb
I0824 15:59:34.686982 24466 data_layer.cpp:285] output data size: 2,3,227,227
I0824 15:59:34.686987 24466 data_layer.cpp:304] Loading mean file from/scr/r6/tgebru/timnit_caffe/data/ilsvrc12/imagenet_mean227.binaryproto
I0824 15:59:34.689031 24466 net.cpp:84] Top shape: 2 3 227 227 (309174)
I0824 15:59:34.689038 24466 net.cpp:116] source_ims does not need backward computation.
I0824 15:59:34.689043 24466 net.cpp:65] Creating Layer target_ims
I0824 15:59:34.689048 24466 net.cpp:189] target_ims -> target_ims
I0824 15:59:34.689096 24466 data_layer.cpp:223] Opening lmdb /scr/r6/tgebru/inverting_conv/caffe_invert_alexnet/data/siggraph/tiny_summer_val_216lmdb
I0824 15:59:34.689173 24466 data_layer.cpp:285] output data size: 2,3,216,216
I0824 15:59:34.689177 24466 data_layer.cpp:304] Loading mean file from/scr/r6/tgebru/timnit_caffe/data/ilsvrc12/imagenet_mean216.binaryproto
I0824 15:59:34.691076 24466 net.cpp:84] Top shape: 2 3 216 216 (279936)
I0824 15:59:34.691082 24466 net.cpp:116] target_ims does not need backward computation.
I0824 15:59:34.691104 24466 net.cpp:65] Creating Layer conv1
I0824 15:59:34.691108 24466 net.cpp:228] conv1 <- source_ims
I0824 15:59:34.691113 24466 net.cpp:189] conv1 -> conv1
I0824 15:59:34.692355 24466 net.cpp:84] Top shape: 2 96 55 55 (580800)
I0824 15:59:34.692361 24466 net.cpp:116] conv1 does not need backward computation.
I0824 15:59:34.692366 24466 net.cpp:65] Creating Layer relu1
I0824 15:59:34.692368 24466 net.cpp:228] relu1 <- conv1
I0824 15:59:34.692373 24466 net.cpp:179] relu1 -> conv1 (in-place)
I0824 15:59:34.692378 24466 net.cpp:84] Top shape: 2 96 55 55 (580800)
I0824 15:59:34.692381 24466 net.cpp:116] relu1 does not need backward computation.
I0824 15:59:34.692385 24466 net.cpp:65] Creating Layer pool1
I0824 15:59:34.692389 24466 net.cpp:228] pool1 <- conv1
I0824 15:59:34.692392 24466 net.cpp:189] pool1 -> pool1
I0824 15:59:34.692399 24466 net.cpp:84] Top shape: 2 96 27 27 (139968)
I0824 15:59:34.692401 24466 net.cpp:116] pool1 does not need backward computation.
I0824 15:59:34.692405 24466 net.cpp:65] Creating Layer norm1
I0824 15:59:34.692407 24466 net.cpp:228] norm1 <- pool1
I0824 15:59:34.692414 24466 net.cpp:189] norm1 -> norm1
I0824 15:59:34.692419 24466 net.cpp:84] Top shape: 2 96 27 27 (139968)
I0824 15:59:34.692421 24466 net.cpp:116] norm1 does not need backward computation.
I0824 15:59:34.692425 24466 net.cpp:65] Creating Layer Rconv6
I0824 15:59:34.692427 24466 net.cpp:228] Rconv6 <- norm1
I0824 15:59:34.692433 24466 net.cpp:189] Rconv6 -> Rconv6
I0824 15:59:34.693009 24466 net.cpp:84] Top shape: 2 256 27 27 (373248)
I0824 15:59:34.693014 24466 net.cpp:116] Rconv6 does not need backward computation.
I0824 15:59:34.693017 24466 net.cpp:65] Creating Layer Rrelu6
I0824 15:59:34.693020 24466 net.cpp:228] Rrelu6 <- Rconv6
I0824 15:59:34.693024 24466 net.cpp:179] Rrelu6 -> Rconv6 (in-place)
I0824 15:59:34.693028 24466 net.cpp:84] Top shape: 2 256 27 27 (373248)
I0824 15:59:34.693032 24466 net.cpp:116] Rrelu6 does not need backward computation.
I0824 15:59:34.693038 24466 net.cpp:65] Creating Layer Rconv7
I0824 15:59:34.693040 24466 net.cpp:228] Rconv7 <- Rconv6
I0824 15:59:34.693044 24466 net.cpp:189] Rconv7 -> Rconv7
I0824 15:59:34.693845 24466 net.cpp:84] Top shape: 2 256 27 27 (373248)
I0824 15:59:34.693851 24466 net.cpp:116] Rconv7 does not need backward computation.
I0824 15:59:34.693856 24466 net.cpp:65] Creating Layer Rrelu7
I0824 15:59:34.693858 24466 net.cpp:228] Rrelu7 <- Rconv7
I0824 15:59:34.693861 24466 net.cpp:179] Rrelu7 -> Rconv7 (in-place)
I0824 15:59:34.693866 24466 net.cpp:84] Top shape: 2 256 27 27 (373248)
I0824 15:59:34.693868 24466 net.cpp:116] Rrelu7 does not need backward computation.
I0824 15:59:34.693871 24466 net.cpp:65] Creating Layer Rconv8
I0824 15:59:34.693874 24466 net.cpp:228] Rconv8 <- Rconv7
I0824 15:59:34.693879 24466 net.cpp:189] Rconv8 -> Rconv8
I0824 15:59:34.694695 24466 net.cpp:84] Top shape: 2 256 27 27 (373248)
I0824 15:59:34.694700 24466 net.cpp:116] Rconv8 does not need backward computation.
I0824 15:59:34.694705 24466 net.cpp:65] Creating Layer Rrelu8
I0824 15:59:34.694706 24466 net.cpp:228] Rrelu8 <- Rconv8
I0824 15:59:34.694712 24466 net.cpp:179] Rrelu8 -> Rconv8 (in-place)
I0824 15:59:34.694716 24466 net.cpp:84] Top shape: 2 256 27 27 (373248)
I0824 15:59:34.694718 24466 net.cpp:116] Rrelu8 does not need backward computation.
I0824 15:59:34.694722 24466 net.cpp:65] Creating Layer deconv2
I0824 15:59:34.694725 24466 net.cpp:228] deconv2 <- Rconv8
I0824 15:59:34.694728 24466 net.cpp:189] deconv2 -> deconv2
I0824 15:59:34.695785 24466 net.cpp:84] Top shape: 2 64 54 54 (373248)
I0824 15:59:34.695790 24466 net.cpp:116] deconv2 does not need backward computation.
I0824 15:59:34.695793 24466 net.cpp:65] Creating Layer relu_deconv2
I0824 15:59:34.695796 24466 net.cpp:228] relu_deconv2 <- deconv2
I0824 15:59:34.695801 24466 net.cpp:179] relu_deconv2 -> deconv2 (in-place)
I0824 15:59:34.695806 24466 net.cpp:84] Top shape: 2 64 54 54 (373248)
I0824 15:59:34.695808 24466 net.cpp:116] relu_deconv2 does not need backward computation.
I0824 15:59:34.695824 24466 net.cpp:65] Creating Layer deconv1
I0824 15:59:34.695827 24466 net.cpp:228] deconv1 <- deconv2
I0824 15:59:34.695830 24466 net.cpp:189] deconv1 -> deconv1
I0824 15:59:34.695973 24466 net.cpp:84] Top shape: 2 32 108 108 (746496)
I0824 15:59:34.695977 24466 net.cpp:116] deconv1 does not need backward computation.
I0824 15:59:34.695982 24466 net.cpp:65] Creating Layer relu_deconv1
I0824 15:59:34.695986 24466 net.cpp:228] relu_deconv1 <- deconv1
I0824 15:59:34.695989 24466 net.cpp:179] relu_deconv1 -> deconv1 (in-place)
I0824 15:59:34.695993 24466 net.cpp:84] Top shape: 2 32 108 108 (746496)
I0824 15:59:34.695996 24466 net.cpp:116] relu_deconv1 does not need backward computation.
I0824 15:59:34.696001 24466 net.cpp:65] Creating Layer deconv0
I0824 15:59:34.696002 24466 net.cpp:228] deconv0 <- deconv1
I0824 15:59:34.696009 24466 net.cpp:189] deconv0 -> deconv0
I0824 15:59:34.696056 24466 net.cpp:84] Top shape: 2 3 216 216 (279936)
I0824 15:59:34.696059 24466 net.cpp:116] deconv0 does not need backward computation.
I0824 15:59:34.696063 24466 net.cpp:65] Creating Layer loss
I0824 15:59:34.696065 24466 net.cpp:228] loss <- deconv0
I0824 15:59:34.696069 24466 net.cpp:228] loss <- target_ims
I0824 15:59:34.696072 24466 net.cpp:116] loss does not need backward computation.
I0824 15:59:34.696085 24466 net.cpp:238] Collecting Learning Rate and Weight Decay.
…
