…
    source: "/scr/r6/tgebru/inverting_conv/caffe_invert_alexnet/data/siggraph/tiny_summer_train_lmdb"
    mean_file: "/scr/r6/tgebru/timnit_caffe/data/ilsvrc12/imagenet_mean.binaryproto"
    batch_size: 12
    crop_size: 227
    mirror: false
    backend: LMDB
  }
}
layers {
  top: "target_ims"
  name: "target_ims"
  type: DATA
  data_param {
    source: "/scr/r6/tgebru/inverting_conv/caffe_invert_alexnet/data/siggraph/tiny_winter_train_lmdb"
    mean_file: "/scr/r6/tgebru/timnit_caffe/data/ilsvrc12/imagenet_mean.binaryproto"
    batch_size: 12
    crop_size: 216
    mirror: false
    backend: LMDB
  }
}
layers {
  bottom: "source_ims"
  top: "conv1"
  name: "conv1"
  type: CONVOLUTION
  blobs_lr: 0
  blobs_lr: 0
  weight_decay: 1
  weight_decay: 0
  convolution_param {
    num_output: 96
    kernel_size: 11
    stride: 4
    weight_filler {
      type: "gaussian"
      std: 0.01
    }
    bias_filler {
      type: "constant"
      value: 0
    }
  }
}
layers {
  bottom: "conv1"
  top: "conv1"
  name: "relu1"
  type: RELU
}
layers {
  bottom: "conv1"
  top: "pool1"
  name: "pool1"
  type: POOLING
  pooling_param {
    pool: MAX
    kernel_size: 3
    stride: 2
  }
}
layers {
  bottom: "pool1"
  top: "norm1"
  name: "norm1"
  type: LRN
  lrn_param {
    local_size: 5
    alpha: 0.0001
    beta: 0.75
  }
}
layers {
  bottom: "norm1"
  top: "Rconv6"
  name: "Rconv6"
  type: CONVOLUTION
  blobs_lr: 1
  blobs_lr: 2
  weight_decay: 1
  weight_decay: 0
  convolution_param {
    num_output: 256
    pad: 1
    kernel_size: 3
  }
}
layers {
  bottom: "Rconv6"
  top: "Rconv6"
  name: "Rrelu6"
  type: RELU
}
layers {
  bottom: "Rconv6"
  top: "Rconv7"
  name: "Rconv7"
  type: CONVOLUTION
  blobs_lr: 1
  blobs_lr: 2
  weight_decay: 1
  weight_decay: 0
  convolution_param {
    num_output: 256
    pad: 1
    kernel_size: 3
    group: 2
  }
}
layers {
  bottom: "Rconv7"
  top: "Rconv7"
  name: "Rrelu7"
  type: RELU
}
layers {
  bottom: "Rconv7"
  top: "Rconv8"
  name: "Rconv8"
  type: CONVOLUTION
  blobs_lr: 1
  blobs_lr: 2
  weight_decay: 1
  weight_decay: 0
  convolution_param {
    num_output: 256
    pad: 1
    kernel_size: 3
    group: 2
  }
}
layers {
  bottom: "Rconv8"
  top: "Rconv8"
  name: "Rrelu8"
  type: RELU
}
layers {
  bottom: "Rconv8"
  top: "deconv2"
  name: "deconv2"
  type: DECONVOLUTION
  blobs_lr: 1
  blobs_lr: 2
  weight_decay: 1
  weight_decay: 0
  deconvolution_param {
    pad: 2
    kernel_size: 5
    stride: 2
    output_height: 54
    output_width: 54
    output_channels: 64
  }
}
layers {
  bottom: "deconv2"
  top: "deconv2"
  name: "relu_deconv2"
  type: RELU
  relu_param {
    negative_slope: 0.3
  }
}
layers {
  bottom: "deconv2"
  top: "deconv1"
  name: "deconv1"
  type: DECONVOLUTION
  blobs_lr: 1
  blobs_lr: 2
  weight_decay: 1
  weight_decay: 0
  deconvolution_param {
    pad: 2
    kernel_size: 5
    stride: 2
    output_height: 108
    output_width: 108
    output_channels: 32
  }
}
layers {
  bottom: "deconv1"
  top: "deconv1"
  name: "relu_deconv1"
  type: RELU
  relu_param {
    negative_slope: 0.3
  }
}
layers {
  bottom: "deconv1"
  top: "deconv0"
  name: "deconv0"
  type: DECONVOLUTION
  blobs_lr: 1
  blobs_lr: 2
  weight_decay: 1
  weight_decay: 1
  deconvolution_param {
    pad: 2
    kernel_size: 5
    stride: 2
    output_height: 216
    output_width: 216
    output_channels: 3
  }
}
layers {
  bottom: "deconv0"
  bottom: "target_ims"
  name: "loss"
  type: EUCLIDEAN_LOSS
}
I0812 15:41:20.247050 27954 net.cpp:65] Creating Layer source_ims
I0812 15:41:20.247057 27954 net.cpp:189] source_ims -> source_ims
I0812 15:41:20.247156 27954 data_layer.cpp:223] Opening lmdb /scr/r6/tgebru/inverting_conv/caffe_invert_alexnet/data/siggraph/tiny_summer_train_lmdb
I0812 15:41:20.247364 27954 data_layer.cpp:285] output data size: 12,3,227,227
I0812 15:41:20.247370 27954 data_layer.cpp:304] Loading mean file from/scr/r6/tgebru/timnit_caffe/data/ilsvrc12/imagenet_mean.binaryproto
I0812 15:41:20.252562 27954 net.cpp:84] Top shape: 12 3 227 227 (1855044)
I0812 15:41:20.252570 27954 net.cpp:116] source_ims does not need backward computation.
I0812 15:41:20.252576 27954 net.cpp:65] Creating Layer target_ims
I0812 15:41:20.252581 27954 net.cpp:189] target_ims -> target_ims
I0812 15:41:20.252670 27954 data_layer.cpp:223] Opening lmdb /scr/r6/tgebru/inverting_conv/caffe_invert_alexnet/data/siggraph/tiny_winter_train_lmdb
I0812 15:41:20.252825 27954 data_layer.cpp:285] output data size: 12,3,216,216
I0812 15:41:20.252830 27954 data_layer.cpp:304] Loading mean file from/scr/r6/tgebru/timnit_caffe/data/ilsvrc12/imagenet_mean.binaryproto
I0812 15:41:20.257133 27954 net.cpp:84] Top shape: 12 3 216 216 (1679616)
I0812 15:41:20.257139 27954 net.cpp:116] target_ims does not need backward computation.
I0812 15:41:20.257146 27954 net.cpp:65] Creating Layer conv1
I0812 15:41:20.257150 27954 net.cpp:228] conv1 <- source_ims
I0812 15:41:20.257184 27954 net.cpp:189] conv1 -> conv1
I0812 15:41:20.258469 27954 net.cpp:84] Top shape: 12 96 55 55 (3484800)
I0812 15:41:20.258476 27954 net.cpp:116] conv1 does not need backward computation.
I0812 15:41:20.258481 27954 net.cpp:65] Creating Layer relu1
I0812 15:41:20.258483 27954 net.cpp:228] relu1 <- conv1
I0812 15:41:20.258488 27954 net.cpp:179] relu1 -> conv1 (in-place)
I0812 15:41:20.258496 27954 net.cpp:84] Top shape: 12 96 55 55 (3484800)
I0812 15:41:20.258499 27954 net.cpp:116] relu1 does not need backward computation.
I0812 15:41:20.258504 27954 net.cpp:65] Creating Layer pool1
I0812 15:41:20.258507 27954 net.cpp:228] pool1 <- conv1
I0812 15:41:20.258512 27954 net.cpp:189] pool1 -> pool1
I0812 15:41:20.258523 27954 net.cpp:84] Top shape: 12 96 27 27 (839808)
I0812 15:41:20.258527 27954 net.cpp:116] pool1 does not need backward computation.
I0812 15:41:20.258532 27954 net.cpp:65] Creating Layer norm1
I0812 15:41:20.258534 27954 net.cpp:228] norm1 <- pool1
I0812 15:41:20.258539 27954 net.cpp:189] norm1 -> norm1
I0812 15:41:20.258548 27954 net.cpp:84] Top shape: 12 96 27 27 (839808)
I0812 15:41:20.258551 27954 net.cpp:116] norm1 does not need backward computation.
I0812 15:41:20.258555 27954 net.cpp:65] Creating Layer Rconv6
I0812 15:41:20.258558 27954 net.cpp:228] Rconv6 <- norm1
I0812 15:41:20.258563 27954 net.cpp:189] Rconv6 -> Rconv6
I0812 15:41:20.258733 27954 net.cpp:84] Top shape: 12 256 27 27 (2239488)
I0812 15:41:20.258738 27954 net.cpp:111] Rconv6 needs backward computation.
I0812 15:41:20.258743 27954 net.cpp:65] Creating Layer Rrelu6
I0812 15:41:20.258745 27954 net.cpp:228] Rrelu6 <- Rconv6
I0812 15:41:20.258749 27954 net.cpp:179] Rrelu6 -> Rconv6 (in-place)
I0812 15:41:20.258754 27954 net.cpp:84] Top shape: 12 256 27 27 (2239488)
I0812 15:41:20.258757 27954 net.cpp:111] Rrelu6 needs backward computation.
I0812 15:41:20.258762 27954 net.cpp:65] Creating Layer Rconv7
I0812 15:41:20.258765 27954 net.cpp:228] Rconv7 <- Rconv6
I0812 15:41:20.258769 27954 net.cpp:189] Rconv7 -> Rconv7
I0812 15:41:20.259541 27954 net.cpp:84] Top shape: 12 256 27 27 (2239488)
I0812 15:41:20.259546 27954 net.cpp:111] Rconv7 needs backward computation.
I0812 15:41:20.259551 27954 net.cpp:65] Creating Layer Rrelu7
I0812 15:41:20.259572 27954 net.cpp:228] Rrelu7 <- Rconv7
I0812 15:41:20.259577 27954 net.cpp:179] Rrelu7 -> Rconv7 (in-place)
I0812 15:41:20.259582 27954 net.cpp:84] Top shape: 12 256 27 27 (2239488)
I0812 15:41:20.259584 27954 net.cpp:111] Rrelu7 needs backward computation.
I0812 15:41:20.259588 27954 net.cpp:65] Creating Layer Rconv8
I0812 15:41:20.259590 27954 net.cpp:228] Rconv8 <- Rconv7
I0812 15:41:20.259594 27954 net.cpp:189] Rconv8 -> Rconv8
I0812 15:41:20.260378 27954 net.cpp:84] Top shape: 12 256 27 27 (2239488)
I0812 15:41:20.260383 27954 net.cpp:111] Rconv8 needs backward computation.
I0812 15:41:20.260387 27954 net.cpp:65] Creating Layer Rrelu8
I0812 15:41:20.260390 27954 net.cpp:228] Rrelu8 <- Rconv8
I0812 15:41:20.260395 27954 net.cpp:179] Rrelu8 -> Rconv8 (in-place)
I0812 15:41:20.260398 27954 net.cpp:84] Top shape: 12 256 27 27 (2239488)
I0812 15:41:20.260401 27954 net.cpp:111] Rrelu8 needs backward computation.
I0812 15:41:20.260406 27954 net.cpp:65] Creating Layer deconv2
I0812 15:41:20.260408 27954 net.cpp:228] deconv2 <- Rconv8
I0812 15:41:20.260411 27954 net.cpp:189] deconv2 -> deconv2
I0812 15:41:20.261509 27954 net.cpp:84] Top shape: 12 64 54 54 (2239488)
I0812 15:41:20.261514 27954 net.cpp:111] deconv2 needs backward computation.
I0812 15:41:20.261519 27954 net.cpp:65] Creating Layer relu_deconv2
I0812 15:41:20.261523 27954 net.cpp:228] relu_deconv2 <- deconv2
I0812 15:41:20.261526 27954 net.cpp:179] relu_deconv2 -> deconv2 (in-place)
I0812 15:41:20.261531 27954 net.cpp:84] Top shape: 12 64 54 54 (2239488)
I0812 15:41:20.261534 27954 net.cpp:111] relu_deconv2 needs backward computation.
I0812 15:41:20.261538 27954 net.cpp:65] Creating Layer deconv1
I0812 15:41:20.261540 27954 net.cpp:228] deconv1 <- deconv2
I0812 15:41:20.261544 27954 net.cpp:189] deconv1 -> deconv1
I0812 15:41:20.261687 27954 net.cpp:84] Top shape: 12 32 108 108 (4478976)
I0812 15:41:20.261690 27954 net.cpp:111] deconv1 needs backward computation.
I0812 15:41:20.261694 27954 net.cpp:65] Creating Layer relu_deconv1
I0812 15:41:20.261698 27954 net.cpp:228] relu_deconv1 <- deconv1
I0812 15:41:20.261701 27954 net.cpp:179] relu_deconv1 -> deconv1 (in-place)
I0812 15:41:20.261705 27954 net.cpp:84] Top shape: 12 32 108 108 (4478976)
I0812 15:41:20.261708 27954 net.cpp:111] relu_deconv1 needs backward computation.
I0812 15:41:20.261713 27954 net.cpp:65] Creating Layer deconv0
I0812 15:41:20.261715 27954 net.cpp:228] deconv0 <- deconv1
I0812 15:41:20.261719 27954 net.cpp:189] deconv0 -> deconv0
I0812 15:41:20.261739 27954 net.cpp:84] Top shape: 12 3 216 216 (1679616)
I0812 15:41:20.261742 27954 net.cpp:111] deconv0 needs backward computation.
I0812 15:41:20.261746 27954 net.cpp:65] Creating Layer loss
I0812 15:41:20.261749 27954 net.cpp:228] loss <- deconv0
I0812 15:41:20.261752 27954 net.cpp:228] loss <- target_ims
I0812 15:41:20.261760 27954 net.cpp:111] loss needs backward computation.
I0812 15:41:20.261772 27954 net.cpp:238] Collecting Learning Rate and Weight Decay.
…
    source: "/scr/r6/tgebru/inverting_conv/caffe_invert_alexnet/data/siggraph/tiny_summer_val_lmdb"
    mean_file: "/scr/r6/tgebru/timnit_caffe/data/ilsvrc12/imagenet_mean.binaryproto"
    batch_size: 64
    crop_size: 227
    mirror: false
    backend: LMDB
  }
}
layers {
  top: "target_ims"
  name: "target_ims"
  type: DATA
  data_param {
    source: "/scr/r6/tgebru/inverting_conv/caffe_invert_alexnet/data/siggraph/tiny_winter_val_lmdb"
    mean_file: "/scr/r6/tgebru/timnit_caffe/data/ilsvrc12/imagenet_mean.binaryproto"
    batch_size: 64
    crop_size: 216
    mirror: false
    backend: LMDB
  }
}
layers {
  bottom: "source_ims"
  top: "conv1"
  name: "conv1"
  type: CONVOLUTION
  blobs_lr: 0
  blobs_lr: 0
  weight_decay: 1
  weight_decay: 0
  convolution_param {
    num_output: 96
    kernel_size: 11
    stride: 4
    weight_filler {
      type: "gaussian"
      std: 0.01
    }
    bias_filler {
      type: "constant"
      value: 0
    }
  }
}
layers {
  bottom: "conv1"
  top: "conv1"
  name: "relu1"
  type: RELU
}
layers {
  bottom: "conv1"
  top: "pool1"
  name: "pool1"
  type: POOLING
  pooling_param {
    pool: MAX
    kernel_size: 3
    stride: 2
  }
}
layers {
  bottom: "pool1"
  top: "norm1"
  name: "norm1"
  type: LRN
  lrn_param {
    local_size: 5
    alpha: 0.0001
    beta: 0.75
  }
}
layers {
  bottom: "norm1"
  top: "Rconv6"
  name: "Rconv6"
  type: CONVOLUTION
  blobs_lr: 0
  blobs_lr: 0
  weight_decay: 1
  weight_decay: 0
  convolution_param {
    num_output: 256
    pad: 1
    kernel_size: 3
  }
}
layers {
  bottom: "Rconv6"
  top: "Rconv6"
  name: "Rrelu6"
  type: RELU
}
layers {
  bottom: "Rconv6"
  top: "Rconv7"
  name: "Rconv7"
  type: CONVOLUTION
  blobs_lr: 0
  blobs_lr: 0
  weight_decay: 1
  weight_decay: 0
  convolution_param {
    num_output: 256
    pad: 1
    kernel_size: 3
    group: 2
  }
}
layers {
  bottom: "Rconv7"
  top: "Rconv7"
  name: "Rrelu7"
  type: RELU
}
layers {
  bottom: "Rconv7"
  top: "Rconv8"
  name: "Rconv8"
  type: CONVOLUTION
  blobs_lr: 0
  blobs_lr: 0
  weight_decay: 1
  weight_decay: 0
  convolution_param {
    num_output: 256
    pad: 1
    kernel_size: 3
    group: 2
  }
}
layers {
  bottom: "Rconv8"
  top: "Rconv8"
  name: "Rrelu8"
  type: RELU
}
layers {
  bottom: "Rconv8"
  top: "deconv2"
  name: "deconv2"
  type: DECONVOLUTION
  blobs_lr: 0
  blobs_lr: 0
  weight_decay: 1
  weight_decay: 0
  deconvolution_param {
    pad: 2
    kernel_size: 5
    stride: 2
    output_height: 54
    output_width: 54
    output_channels: 64
  }
}
layers {
  bottom: "deconv2"
  top: "deconv2"
  name: "relu_deconv2"
  type: RELU
  relu_param {
    negative_slope: 0.3
  }
}
layers {
  bottom: "deconv2"
  top: "deconv1"
  name: "deconv1"
  type: DECONVOLUTION
  blobs_lr: 0
  blobs_lr: 0
  weight_decay: 1
  weight_decay: 0
  deconvolution_param {
    pad: 2
    kernel_size: 5
    stride: 2
    output_height: 108
    output_width: 108
    output_channels: 32
  }
}
layers {
  bottom: "deconv1"
  top: "deconv1"
  name: "relu_deconv1"
  type: RELU
  relu_param {
    negative_slope: 0.3
  }
}
layers {
  bottom: "deconv1"
  top: "deconv0"
  name: "deconv0"
  type: DECONVOLUTION
  blobs_lr: 0
  blobs_lr: 0
  weight_decay: 1
  weight_decay: 0
  deconvolution_param {
    pad: 2
    kernel_size: 5
    stride: 2
    output_height: 216
    output_width: 216
    output_channels: 3
  }
}
layers {
  bottom: "deconv0"
  bottom: "target_ims"
  name: "loss"
  type: EUCLIDEAN_LOSS
}
I0812 15:41:20.262481 27954 net.cpp:65] Creating Layer source_ims
I0812 15:41:20.262487 27954 net.cpp:189] source_ims -> source_ims
I0812 15:41:20.262540 27954 data_layer.cpp:223] Opening lmdb /scr/r6/tgebru/inverting_conv/caffe_invert_alexnet/data/siggraph/tiny_summer_val_lmdb
I0812 15:41:20.262754 27954 data_layer.cpp:285] output data size: 64,3,227,227
I0812 15:41:20.262759 27954 data_layer.cpp:304] Loading mean file from/scr/r6/tgebru/timnit_caffe/data/ilsvrc12/imagenet_mean.binaryproto
I0812 15:41:20.277127 27954 net.cpp:84] Top shape: 64 3 227 227 (9893568)
I0812 15:41:20.277145 27954 net.cpp:116] source_ims does not need backward computation.
I0812 15:41:20.277156 27954 net.cpp:65] Creating Layer target_ims
I0812 15:41:20.277161 27954 net.cpp:189] target_ims -> target_ims
I0812 15:41:20.277248 27954 data_layer.cpp:223] Opening lmdb /scr/r6/tgebru/inverting_conv/caffe_invert_alexnet/data/siggraph/tiny_winter_val_lmdb
I0812 15:41:20.277367 27954 data_layer.cpp:285] output data size: 64,3,216,216
I0812 15:41:20.277371 27954 data_layer.cpp:304] Loading mean file from/scr/r6/tgebru/timnit_caffe/data/ilsvrc12/imagenet_mean.binaryproto
I0812 15:41:20.290002 27954 net.cpp:84] Top shape: 64 3 216 216 (8957952)
I0812 15:41:20.290050 27954 net.cpp:116] target_ims does not need backward computation.
I0812 15:41:20.290061 27954 net.cpp:65] Creating Layer conv1
I0812 15:41:20.290066 27954 net.cpp:228] conv1 <- source_ims
I0812 15:41:20.290073 27954 net.cpp:189] conv1 -> conv1
I0812 15:41:20.291339 27954 net.cpp:84] Top shape: 64 96 55 55 (18585600)
I0812 15:41:20.291344 27954 net.cpp:116] conv1 does not need backward computation.
I0812 15:41:20.291349 27954 net.cpp:65] Creating Layer relu1
I0812 15:41:20.291352 27954 net.cpp:228] relu1 <- conv1
I0812 15:41:20.291357 27954 net.cpp:179] relu1 -> conv1 (in-place)
I0812 15:41:20.291363 27954 net.cpp:84] Top shape: 64 96 55 55 (18585600)
I0812 15:41:20.291365 27954 net.cpp:116] relu1 does not need backward computation.
I0812 15:41:20.291370 27954 net.cpp:65] Creating Layer pool1
I0812 15:41:20.291373 27954 net.cpp:228] pool1 <- conv1
I0812 15:41:20.291378 27954 net.cpp:189] pool1 -> pool1
I0812 15:41:20.291384 27954 net.cpp:84] Top shape: 64 96 27 27 (4478976)
I0812 15:41:20.291386 27954 net.cpp:116] pool1 does not need backward computation.
I0812 15:41:20.291393 27954 net.cpp:65] Creating Layer norm1
I0812 15:41:20.291395 27954 net.cpp:228] norm1 <- pool1
I0812 15:41:20.291399 27954 net.cpp:189] norm1 -> norm1
I0812 15:41:20.291405 27954 net.cpp:84] Top shape: 64 96 27 27 (4478976)
I0812 15:41:20.291409 27954 net.cpp:116] norm1 does not need backward computation.
I0812 15:41:20.291412 27954 net.cpp:65] Creating Layer Rconv6
I0812 15:41:20.291415 27954 net.cpp:228] Rconv6 <- norm1
I0812 15:41:20.291419 27954 net.cpp:189] Rconv6 -> Rconv6
I0812 15:41:20.291656 27954 net.cpp:84] Top shape: 64 256 27 27 (11943936)
I0812 15:41:20.291661 27954 net.cpp:116] Rconv6 does not need backward computation.
I0812 15:41:20.291666 27954 net.cpp:65] Creating Layer Rrelu6
I0812 15:41:20.291668 27954 net.cpp:228] Rrelu6 <- Rconv6
I0812 15:41:20.291672 27954 net.cpp:179] Rrelu6 -> Rconv6 (in-place)
I0812 15:41:20.291677 27954 net.cpp:84] Top shape: 64 256 27 27 (11943936)
I0812 15:41:20.291679 27954 net.cpp:116] Rrelu6 does not need backward computation.
I0812 15:41:20.291685 27954 net.cpp:65] Creating Layer Rconv7
I0812 15:41:20.291688 27954 net.cpp:228] Rconv7 <- Rconv6
I0812 15:41:20.291692 27954 net.cpp:189] Rconv7 -> Rconv7
I0812 15:41:20.292500 27954 net.cpp:84] Top shape: 64 256 27 27 (11943936)
I0812 15:41:20.292503 27954 net.cpp:116] Rconv7 does not need backward computation.
I0812 15:41:20.292510 27954 net.cpp:65] Creating Layer Rrelu7
I0812 15:41:20.292512 27954 net.cpp:228] Rrelu7 <- Rconv7
I0812 15:41:20.292516 27954 net.cpp:179] Rrelu7 -> Rconv7 (in-place)
I0812 15:41:20.292520 27954 net.cpp:84] Top shape: 64 256 27 27 (11943936)
I0812 15:41:20.292523 27954 net.cpp:116] Rrelu7 does not need backward computation.
I0812 15:41:20.292528 27954 net.cpp:65] Creating Layer Rconv8
I0812 15:41:20.292531 27954 net.cpp:228] Rconv8 <- Rconv7
I0812 15:41:20.292536 27954 net.cpp:189] Rconv8 -> Rconv8
I0812 15:41:20.293368 27954 net.cpp:84] Top shape: 64 256 27 27 (11943936)
I0812 15:41:20.293372 27954 net.cpp:116] Rconv8 does not need backward computation.
I0812 15:41:20.293377 27954 net.cpp:65] Creating Layer Rrelu8
I0812 15:41:20.293380 27954 net.cpp:228] Rrelu8 <- Rconv8
I0812 15:41:20.293383 27954 net.cpp:179] Rrelu8 -> Rconv8 (in-place)
I0812 15:41:20.293387 27954 net.cpp:84] Top shape: 64 256 27 27 (11943936)
I0812 15:41:20.293390 27954 net.cpp:116] Rrelu8 does not need backward computation.
I0812 15:41:20.293395 27954 net.cpp:65] Creating Layer deconv2
I0812 15:41:20.293397 27954 net.cpp:228] deconv2 <- Rconv8
I0812 15:41:20.293401 27954 net.cpp:189] deconv2 -> deconv2
I0812 15:41:20.294467 27954 net.cpp:84] Top shape: 64 64 54 54 (11943936)
I0812 15:41:20.294472 27954 net.cpp:116] deconv2 does not need backward computation.
I0812 15:41:20.294477 27954 net.cpp:65] Creating Layer relu_deconv2
I0812 15:41:20.294481 27954 net.cpp:228] relu_deconv2 <- deconv2
I0812 15:41:20.294484 27954 net.cpp:179] relu_deconv2 -> deconv2 (in-place)
I0812 15:41:20.294489 27954 net.cpp:84] Top shape: 64 64 54 54 (11943936)
I0812 15:41:20.294504 27954 net.cpp:116] relu_deconv2 does not need backward computation.
I0812 15:41:20.294509 27954 net.cpp:65] Creating Layer deconv1
I0812 15:41:20.294512 27954 net.cpp:228] deconv1 <- deconv2
I0812 15:41:20.294515 27954 net.cpp:189] deconv1 -> deconv1
I0812 15:41:20.294661 27954 net.cpp:84] Top shape: 64 32 108 108 (23887872)
I0812 15:41:20.294664 27954 net.cpp:116] deconv1 does not need backward computation.
I0812 15:41:20.294669 27954 net.cpp:65] Creating Layer relu_deconv1
I0812 15:41:20.294672 27954 net.cpp:228] relu_deconv1 <- deconv1
I0812 15:41:20.294675 27954 net.cpp:179] relu_deconv1 -> deconv1 (in-place)
I0812 15:41:20.294680 27954 net.cpp:84] Top shape: 64 32 108 108 (23887872)
I0812 15:41:20.294682 27954 net.cpp:116] relu_deconv1 does not need backward computation.
I0812 15:41:20.294688 27954 net.cpp:65] Creating Layer deconv0
I0812 15:41:20.294692 27954 net.cpp:228] deconv0 <- deconv1
I0812 15:41:20.294697 27954 net.cpp:189] deconv0 -> deconv0
I0812 15:41:20.294719 27954 net.cpp:84] Top shape: 64 3 216 216 (8957952)
I0812 15:41:20.294723 27954 net.cpp:116] deconv0 does not need backward computation.
I0812 15:41:20.294726 27954 net.cpp:65] Creating Layer loss
I0812 15:41:20.294729 27954 net.cpp:228] loss <- deconv0
I0812 15:41:20.294733 27954 net.cpp:228] loss <- target_ims
I0812 15:41:20.294737 27954 net.cpp:116] loss does not need backward computation.
I0812 15:41:20.294750 27954 net.cpp:238] Collecting Learning Rate and Weight Decay.
…
