…
    source: "/scr/r6/tgebru/inverting_conv/caffe_invert_alexnet/data/siggraph/tiny_summer_train_lmdb"
    mean_file: "/scr/r6/tgebru/timnit_caffe/data/ilsvrc12/imagenet_mean.binaryproto"
    batch_size: 12
    crop_size: 227
    mirror: false
    backend: LMDB
  }
}
layers {
  top: "target_ims"
  name: "target_ims"
  type: DATA
  data_param {
    source: "/scr/r6/tgebru/inverting_conv/caffe_invert_alexnet/data/siggraph/tiny_winter_train_lmdb"
    mean_file: "/scr/r6/tgebru/timnit_caffe/data/ilsvrc12/imagenet_mean.binaryproto"
    batch_size: 12
    crop_size: 216
    mirror: false
    backend: LMDB
  }
}
layers {
  bottom: "source_ims"
  top: "conv1"
  name: "conv1"
  type: CONVOLUTION
  blobs_lr: 0
  blobs_lr: 0
  weight_decay: 1
  weight_decay: 0
  convolution_param {
    num_output: 96
    kernel_size: 11
    stride: 4
    weight_filler {
      type: "gaussian"
      std: 0.01
    }
    bias_filler {
      type: "constant"
      value: 0
    }
  }
}
layers {
  bottom: "conv1"
  top: "conv1"
  name: "relu1"
  type: RELU
}
layers {
  bottom: "conv1"
  top: "pool1"
  name: "pool1"
  type: POOLING
  pooling_param {
    pool: MAX
    kernel_size: 3
    stride: 2
  }
}
layers {
  bottom: "pool1"
  top: "norm1"
  name: "norm1"
  type: LRN
  lrn_param {
    local_size: 5
    alpha: 0.0001
    beta: 0.75
  }
}
layers {
  bottom: "norm1"
  top: "Rconv6"
  name: "Rconv6"
  type: CONVOLUTION
  blobs_lr: 1
  blobs_lr: 2
  weight_decay: 1
  weight_decay: 0
  convolution_param {
    num_output: 256
    pad: 1
    kernel_size: 3
  }
}
layers {
  bottom: "Rconv6"
  top: "Rconv6"
  name: "Rrelu6"
  type: RELU
}
layers {
  bottom: "Rconv6"
  top: "Rconv7"
  name: "Rconv7"
  type: CONVOLUTION
  blobs_lr: 1
  blobs_lr: 2
  weight_decay: 1
  weight_decay: 0
  convolution_param {
    num_output: 256
    pad: 1
    kernel_size: 3
    group: 2
  }
}
layers {
  bottom: "Rconv7"
  top: "Rconv7"
  name: "Rrelu7"
  type: RELU
}
layers {
  bottom: "Rconv7"
  top: "Rconv8"
  name: "Rconv8"
  type: CONVOLUTION
  blobs_lr: 1
  blobs_lr: 2
  weight_decay: 1
  weight_decay: 0
  convolution_param {
    num_output: 256
    pad: 1
    kernel_size: 3
    group: 2
  }
}
layers {
  bottom: "Rconv8"
  top: "Rconv8"
  name: "Rrelu8"
  type: RELU
}
layers {
  bottom: "Rconv8"
  top: "deconv2"
  name: "deconv2"
  type: DECONVOLUTION
  blobs_lr: 1
  blobs_lr: 2
  weight_decay: 1
  weight_decay: 0
  deconvolution_param {
    pad: 2
    kernel_size: 5
    stride: 2
    output_height: 54
    output_width: 54
    output_channels: 64
  }
}
layers {
  bottom: "deconv2"
  top: "deconv2"
  name: "relu_deconv2"
  type: RELU
  relu_param {
    negative_slope: 0.3
  }
}
layers {
  bottom: "deconv2"
  top: "deconv1"
  name: "deconv1"
  type: DECONVOLUTION
  blobs_lr: 1
  blobs_lr: 2
  weight_decay: 1
  weight_decay: 0
  deconvolution_param {
    pad: 2
    kernel_size: 5
    stride: 2
    output_height: 108
    output_width: 108
    output_channels: 32
  }
}
layers {
  bottom: "deconv1"
  top: "deconv1"
  name: "relu_deconv1"
  type: RELU
  relu_param {
    negative_slope: 0.3
  }
}
layers {
  bottom: "deconv1"
  top: "deconv0"
  name: "deconv0"
  type: DECONVOLUTION
  blobs_lr: 1
  blobs_lr: 2
  weight_decay: 1
  weight_decay: 1
  deconvolution_param {
    pad: 2
    kernel_size: 5
    stride: 2
    output_height: 216
    output_width: 216
    output_channels: 3
  }
}
layers {
  bottom: "deconv0"
  bottom: "target_ims"
  name: "loss"
  type: EUCLIDEAN_LOSS
}
I0812 23:47:40.824563 18589 net.cpp:65] Creating Layer source_ims
I0812 23:47:40.824573 18589 net.cpp:189] source_ims -> source_ims
I0812 23:47:40.824689 18589 data_layer.cpp:223] Opening lmdb /scr/r6/tgebru/inverting_conv/caffe_invert_alexnet/data/siggraph/tiny_summer_train_lmdb
I0812 23:47:40.824903 18589 data_layer.cpp:285] output data size: 12,3,227,227
I0812 23:47:40.824909 18589 data_layer.cpp:304] Loading mean file from/scr/r6/tgebru/timnit_caffe/data/ilsvrc12/imagenet_mean.binaryproto
I0812 23:47:40.829408 18589 net.cpp:84] Top shape: 12 3 227 227 (1855044)
I0812 23:47:40.829421 18589 net.cpp:116] source_ims does not need backward computation.
I0812 23:47:40.829428 18589 net.cpp:65] Creating Layer target_ims
I0812 23:47:40.829432 18589 net.cpp:189] target_ims -> target_ims
I0812 23:47:40.829592 18589 data_layer.cpp:223] Opening lmdb /scr/r6/tgebru/inverting_conv/caffe_invert_alexnet/data/siggraph/tiny_winter_train_lmdb
I0812 23:47:40.829753 18589 data_layer.cpp:285] output data size: 12,3,216,216
I0812 23:47:40.829758 18589 data_layer.cpp:304] Loading mean file from/scr/r6/tgebru/timnit_caffe/data/ilsvrc12/imagenet_mean.binaryproto
I0812 23:47:40.834224 18589 net.cpp:84] Top shape: 12 3 216 216 (1679616)
I0812 23:47:40.834233 18589 net.cpp:116] target_ims does not need backward computation.
I0812 23:47:40.834244 18589 net.cpp:65] Creating Layer conv1
I0812 23:47:40.834249 18589 net.cpp:228] conv1 <- source_ims
I0812 23:47:40.834342 18589 net.cpp:189] conv1 -> conv1
I0812 23:47:40.835723 18589 net.cpp:84] Top shape: 12 96 55 55 (3484800)
I0812 23:47:40.835728 18589 net.cpp:116] conv1 does not need backward computation.
I0812 23:47:40.835733 18589 net.cpp:65] Creating Layer relu1
I0812 23:47:40.835736 18589 net.cpp:228] relu1 <- conv1
I0812 23:47:40.835741 18589 net.cpp:179] relu1 -> conv1 (in-place)
I0812 23:47:40.835750 18589 net.cpp:84] Top shape: 12 96 55 55 (3484800)
I0812 23:47:40.835753 18589 net.cpp:116] relu1 does not need backward computation.
I0812 23:47:40.835758 18589 net.cpp:65] Creating Layer pool1
I0812 23:47:40.835762 18589 net.cpp:228] pool1 <- conv1
I0812 23:47:40.835765 18589 net.cpp:189] pool1 -> pool1
I0812 23:47:40.835777 18589 net.cpp:84] Top shape: 12 96 27 27 (839808)
I0812 23:47:40.835780 18589 net.cpp:116] pool1 does not need backward computation.
I0812 23:47:40.835785 18589 net.cpp:65] Creating Layer norm1
I0812 23:47:40.835788 18589 net.cpp:228] norm1 <- pool1
I0812 23:47:40.835791 18589 net.cpp:189] norm1 -> norm1
I0812 23:47:40.835800 18589 net.cpp:84] Top shape: 12 96 27 27 (839808)
I0812 23:47:40.835803 18589 net.cpp:116] norm1 does not need backward computation.
I0812 23:47:40.835808 18589 net.cpp:65] Creating Layer Rconv6
I0812 23:47:40.835810 18589 net.cpp:228] Rconv6 <- norm1
I0812 23:47:40.835814 18589 net.cpp:189] Rconv6 -> Rconv6
I0812 23:47:40.836086 18589 net.cpp:84] Top shape: 12 256 27 27 (2239488)
I0812 23:47:40.836091 18589 net.cpp:111] Rconv6 needs backward computation.
I0812 23:47:40.836096 18589 net.cpp:65] Creating Layer Rrelu6
I0812 23:47:40.836098 18589 net.cpp:228] Rrelu6 <- Rconv6
I0812 23:47:40.836102 18589 net.cpp:179] Rrelu6 -> Rconv6 (in-place)
I0812 23:47:40.836107 18589 net.cpp:84] Top shape: 12 256 27 27 (2239488)
I0812 23:47:40.836109 18589 net.cpp:111] Rrelu6 needs backward computation.
I0812 23:47:40.836114 18589 net.cpp:65] Creating Layer Rconv7
I0812 23:47:40.836117 18589 net.cpp:228] Rconv7 <- Rconv6
I0812 23:47:40.836120 18589 net.cpp:189] Rconv7 -> Rconv7
I0812 23:47:40.836879 18589 net.cpp:84] Top shape: 12 256 27 27 (2239488)
I0812 23:47:40.836882 18589 net.cpp:111] Rconv7 needs backward computation.
I0812 23:47:40.836886 18589 net.cpp:65] Creating Layer Rrelu7
I0812 23:47:40.836905 18589 net.cpp:228] Rrelu7 <- Rconv7
I0812 23:47:40.836910 18589 net.cpp:179] Rrelu7 -> Rconv7 (in-place)
I0812 23:47:40.836915 18589 net.cpp:84] Top shape: 12 256 27 27 (2239488)
I0812 23:47:40.836917 18589 net.cpp:111] Rrelu7 needs backward computation.
I0812 23:47:40.836921 18589 net.cpp:65] Creating Layer Rconv8
I0812 23:47:40.836923 18589 net.cpp:228] Rconv8 <- Rconv7
I0812 23:47:40.836927 18589 net.cpp:189] Rconv8 -> Rconv8
I0812 23:47:40.837661 18589 net.cpp:84] Top shape: 12 256 27 27 (2239488)
I0812 23:47:40.837664 18589 net.cpp:111] Rconv8 needs backward computation.
I0812 23:47:40.837667 18589 net.cpp:65] Creating Layer Rrelu8
I0812 23:47:40.837671 18589 net.cpp:228] Rrelu8 <- Rconv8
I0812 23:47:40.837674 18589 net.cpp:179] Rrelu8 -> Rconv8 (in-place)
I0812 23:47:40.837678 18589 net.cpp:84] Top shape: 12 256 27 27 (2239488)
I0812 23:47:40.837680 18589 net.cpp:111] Rrelu8 needs backward computation.
I0812 23:47:40.837684 18589 net.cpp:65] Creating Layer deconv2
I0812 23:47:40.837687 18589 net.cpp:228] deconv2 <- Rconv8
I0812 23:47:40.837690 18589 net.cpp:189] deconv2 -> deconv2
I0812 23:47:40.838716 18589 net.cpp:84] Top shape: 12 64 54 54 (2239488)
I0812 23:47:40.838721 18589 net.cpp:111] deconv2 needs backward computation.
I0812 23:47:40.838726 18589 net.cpp:65] Creating Layer relu_deconv2
I0812 23:47:40.838728 18589 net.cpp:228] relu_deconv2 <- deconv2
I0812 23:47:40.838732 18589 net.cpp:179] relu_deconv2 -> deconv2 (in-place)
I0812 23:47:40.838737 18589 net.cpp:84] Top shape: 12 64 54 54 (2239488)
I0812 23:47:40.838739 18589 net.cpp:111] relu_deconv2 needs backward computation.
I0812 23:47:40.838743 18589 net.cpp:65] Creating Layer deconv1
I0812 23:47:40.838745 18589 net.cpp:228] deconv1 <- deconv2
I0812 23:47:40.838749 18589 net.cpp:189] deconv1 -> deconv1
I0812 23:47:40.838886 18589 net.cpp:84] Top shape: 12 32 108 108 (4478976)
I0812 23:47:40.838889 18589 net.cpp:111] deconv1 needs backward computation.
I0812 23:47:40.838893 18589 net.cpp:65] Creating Layer relu_deconv1
I0812 23:47:40.838896 18589 net.cpp:228] relu_deconv1 <- deconv1
I0812 23:47:40.838899 18589 net.cpp:179] relu_deconv1 -> deconv1 (in-place)
I0812 23:47:40.838903 18589 net.cpp:84] Top shape: 12 32 108 108 (4478976)
I0812 23:47:40.838907 18589 net.cpp:111] relu_deconv1 needs backward computation.
I0812 23:47:40.838912 18589 net.cpp:65] Creating Layer deconv0
I0812 23:47:40.838913 18589 net.cpp:228] deconv0 <- deconv1
I0812 23:47:40.838917 18589 net.cpp:189] deconv0 -> deconv0
I0812 23:47:40.838939 18589 net.cpp:84] Top shape: 12 3 216 216 (1679616)
I0812 23:47:40.838943 18589 net.cpp:111] deconv0 needs backward computation.
I0812 23:47:40.838946 18589 net.cpp:65] Creating Layer loss
I0812 23:47:40.838949 18589 net.cpp:228] loss <- deconv0
I0812 23:47:40.838953 18589 net.cpp:228] loss <- target_ims
I0812 23:47:40.838961 18589 net.cpp:111] loss needs backward computation.
I0812 23:47:40.838974 18589 net.cpp:238] Collecting Learning Rate and Weight Decay.
…
    source: "/scr/r6/tgebru/inverting_conv/caffe_invert_alexnet/data/siggraph/tiny_summer_val_lmdb"
    mean_file: "/scr/r6/tgebru/timnit_caffe/data/ilsvrc12/imagenet_mean.binaryproto"
    batch_size: 64
    crop_size: 227
    mirror: false
    backend: LMDB
  }
}
layers {
  top: "target_ims"
  name: "target_ims"
  type: DATA
  data_param {
    source: "/scr/r6/tgebru/inverting_conv/caffe_invert_alexnet/data/siggraph/tiny_winter_val_lmdb"
    mean_file: "/scr/r6/tgebru/timnit_caffe/data/ilsvrc12/imagenet_mean.binaryproto"
    batch_size: 64
    crop_size: 216
    mirror: false
    backend: LMDB
  }
}
layers {
  bottom: "source_ims"
  top: "conv1"
  name: "conv1"
  type: CONVOLUTION
  blobs_lr: 0
  blobs_lr: 0
  weight_decay: 1
  weight_decay: 0
  convolution_param {
    num_output: 96
    kernel_size: 11
    stride: 4
    weight_filler {
      type: "gaussian"
      std: 0.01
    }
    bias_filler {
      type: "constant"
      value: 0
    }
  }
}
layers {
  bottom: "conv1"
  top: "conv1"
  name: "relu1"
  type: RELU
}
layers {
  bottom: "conv1"
  top: "pool1"
  name: "pool1"
  type: POOLING
  pooling_param {
    pool: MAX
    kernel_size: 3
    stride: 2
  }
}
layers {
  bottom: "pool1"
  top: "norm1"
  name: "norm1"
  type: LRN
  lrn_param {
    local_size: 5
    alpha: 0.0001
    beta: 0.75
  }
}
layers {
  bottom: "norm1"
  top: "Rconv6"
  name: "Rconv6"
  type: CONVOLUTION
  blobs_lr: 0
  blobs_lr: 0
  weight_decay: 1
  weight_decay: 0
  convolution_param {
    num_output: 256
    pad: 1
    kernel_size: 3
  }
}
layers {
  bottom: "Rconv6"
  top: "Rconv6"
  name: "Rrelu6"
  type: RELU
}
layers {
  bottom: "Rconv6"
  top: "Rconv7"
  name: "Rconv7"
  type: CONVOLUTION
  blobs_lr: 0
  blobs_lr: 0
  weight_decay: 1
  weight_decay: 0
  convolution_param {
    num_output: 256
    pad: 1
    kernel_size: 3
    group: 2
  }
}
layers {
  bottom: "Rconv7"
  top: "Rconv7"
  name: "Rrelu7"
  type: RELU
}
layers {
  bottom: "Rconv7"
  top: "Rconv8"
  name: "Rconv8"
  type: CONVOLUTION
  blobs_lr: 0
  blobs_lr: 0
  weight_decay: 1
  weight_decay: 0
  convolution_param {
    num_output: 256
    pad: 1
    kernel_size: 3
    group: 2
  }
}
layers {
  bottom: "Rconv8"
  top: "Rconv8"
  name: "Rrelu8"
  type: RELU
}
layers {
  bottom: "Rconv8"
  top: "deconv2"
  name: "deconv2"
  type: DECONVOLUTION
  blobs_lr: 0
  blobs_lr: 0
  weight_decay: 1
  weight_decay: 0
  deconvolution_param {
    pad: 2
    kernel_size: 5
    stride: 2
    output_height: 54
    output_width: 54
    output_channels: 64
  }
}
layers {
  bottom: "deconv2"
  top: "deconv2"
  name: "relu_deconv2"
  type: RELU
  relu_param {
    negative_slope: 0.3
  }
}
layers {
  bottom: "deconv2"
  top: "deconv1"
  name: "deconv1"
  type: DECONVOLUTION
  blobs_lr: 0
  blobs_lr: 0
  weight_decay: 1
  weight_decay: 0
  deconvolution_param {
    pad: 2
    kernel_size: 5
    stride: 2
    output_height: 108
    output_width: 108
    output_channels: 32
  }
}
layers {
  bottom: "deconv1"
  top: "deconv1"
  name: "relu_deconv1"
  type: RELU
  relu_param {
    negative_slope: 0.3
  }
}
layers {
  bottom: "deconv1"
  top: "deconv0"
  name: "deconv0"
  type: DECONVOLUTION
  blobs_lr: 0
  blobs_lr: 0
  weight_decay: 1
  weight_decay: 0
  deconvolution_param {
    pad: 2
    kernel_size: 5
    stride: 2
    output_height: 216
    output_width: 216
    output_channels: 3
  }
}
layers {
  bottom: "deconv0"
  bottom: "target_ims"
  name: "loss"
  type: EUCLIDEAN_LOSS
}
I0812 23:47:40.839671 18589 net.cpp:65] Creating Layer source_ims
I0812 23:47:40.839678 18589 net.cpp:189] source_ims -> source_ims
I0812 23:47:40.839728 18589 data_layer.cpp:223] Opening lmdb /scr/r6/tgebru/inverting_conv/caffe_invert_alexnet/data/siggraph/tiny_summer_val_lmdb
I0812 23:47:40.839934 18589 data_layer.cpp:285] output data size: 64,3,227,227
I0812 23:47:40.839939 18589 data_layer.cpp:304] Loading mean file from/scr/r6/tgebru/timnit_caffe/data/ilsvrc12/imagenet_mean.binaryproto
I0812 23:47:40.854032 18589 net.cpp:84] Top shape: 64 3 227 227 (9893568)
I0812 23:47:40.854050 18589 net.cpp:116] source_ims does not need backward computation.
I0812 23:47:40.854061 18589 net.cpp:65] Creating Layer target_ims
I0812 23:47:40.854068 18589 net.cpp:189] target_ims -> target_ims
I0812 23:47:40.854161 18589 data_layer.cpp:223] Opening lmdb /scr/r6/tgebru/inverting_conv/caffe_invert_alexnet/data/siggraph/tiny_winter_val_lmdb
I0812 23:47:40.854296 18589 data_layer.cpp:285] output data size: 64,3,216,216
I0812 23:47:40.854300 18589 data_layer.cpp:304] Loading mean file from/scr/r6/tgebru/timnit_caffe/data/ilsvrc12/imagenet_mean.binaryproto
I0812 23:47:40.866724 18589 net.cpp:84] Top shape: 64 3 216 216 (8957952)
I0812 23:47:40.866793 18589 net.cpp:116] target_ims does not need backward computation.
I0812 23:47:40.866808 18589 net.cpp:65] Creating Layer conv1
I0812 23:47:40.866813 18589 net.cpp:228] conv1 <- source_ims
I0812 23:47:40.866823 18589 net.cpp:189] conv1 -> conv1
I0812 23:47:40.868088 18589 net.cpp:84] Top shape: 64 96 55 55 (18585600)
I0812 23:47:40.868093 18589 net.cpp:116] conv1 does not need backward computation.
I0812 23:47:40.868098 18589 net.cpp:65] Creating Layer relu1
I0812 23:47:40.868100 18589 net.cpp:228] relu1 <- conv1
I0812 23:47:40.868105 18589 net.cpp:179] relu1 -> conv1 (in-place)
I0812 23:47:40.868111 18589 net.cpp:84] Top shape: 64 96 55 55 (18585600)
I0812 23:47:40.868114 18589 net.cpp:116] relu1 does not need backward computation.
I0812 23:47:40.868120 18589 net.cpp:65] Creating Layer pool1
I0812 23:47:40.868122 18589 net.cpp:228] pool1 <- conv1
I0812 23:47:40.868126 18589 net.cpp:189] pool1 -> pool1
I0812 23:47:40.868134 18589 net.cpp:84] Top shape: 64 96 27 27 (4478976)
I0812 23:47:40.868137 18589 net.cpp:116] pool1 does not need backward computation.
I0812 23:47:40.868142 18589 net.cpp:65] Creating Layer norm1
I0812 23:47:40.868145 18589 net.cpp:228] norm1 <- pool1
I0812 23:47:40.868149 18589 net.cpp:189] norm1 -> norm1
I0812 23:47:40.868156 18589 net.cpp:84] Top shape: 64 96 27 27 (4478976)
I0812 23:47:40.868160 18589 net.cpp:116] norm1 does not need backward computation.
I0812 23:47:40.868163 18589 net.cpp:65] Creating Layer Rconv6
I0812 23:47:40.868166 18589 net.cpp:228] Rconv6 <- norm1
I0812 23:47:40.868170 18589 net.cpp:189] Rconv6 -> Rconv6
I0812 23:47:40.868407 18589 net.cpp:84] Top shape: 64 256 27 27 (11943936)
I0812 23:47:40.868410 18589 net.cpp:116] Rconv6 does not need backward computation.
I0812 23:47:40.868415 18589 net.cpp:65] Creating Layer Rrelu6
I0812 23:47:40.868418 18589 net.cpp:228] Rrelu6 <- Rconv6
I0812 23:47:40.868422 18589 net.cpp:179] Rrelu6 -> Rconv6 (in-place)
I0812 23:47:40.868428 18589 net.cpp:84] Top shape: 64 256 27 27 (11943936)
I0812 23:47:40.868430 18589 net.cpp:116] Rrelu6 does not need backward computation.
I0812 23:47:40.868437 18589 net.cpp:65] Creating Layer Rconv7
I0812 23:47:40.868439 18589 net.cpp:228] Rconv7 <- Rconv6
I0812 23:47:40.868443 18589 net.cpp:189] Rconv7 -> Rconv7
I0812 23:47:40.869134 18589 net.cpp:84] Top shape: 64 256 27 27 (11943936)
I0812 23:47:40.869138 18589 net.cpp:116] Rconv7 does not need backward computation.
I0812 23:47:40.869143 18589 net.cpp:65] Creating Layer Rrelu7
I0812 23:47:40.869146 18589 net.cpp:228] Rrelu7 <- Rconv7
I0812 23:47:40.869150 18589 net.cpp:179] Rrelu7 -> Rconv7 (in-place)
I0812 23:47:40.869154 18589 net.cpp:84] Top shape: 64 256 27 27 (11943936)
I0812 23:47:40.869158 18589 net.cpp:116] Rrelu7 does not need backward computation.
I0812 23:47:40.869161 18589 net.cpp:65] Creating Layer Rconv8
I0812 23:47:40.869164 18589 net.cpp:228] Rconv8 <- Rconv7
I0812 23:47:40.869168 18589 net.cpp:189] Rconv8 -> Rconv8
I0812 23:47:40.869954 18589 net.cpp:84] Top shape: 64 256 27 27 (11943936)
I0812 23:47:40.869958 18589 net.cpp:116] Rconv8 does not need backward computation.
I0812 23:47:40.869962 18589 net.cpp:65] Creating Layer Rrelu8
I0812 23:47:40.869966 18589 net.cpp:228] Rrelu8 <- Rconv8
I0812 23:47:40.869969 18589 net.cpp:179] Rrelu8 -> Rconv8 (in-place)
I0812 23:47:40.869973 18589 net.cpp:84] Top shape: 64 256 27 27 (11943936)
I0812 23:47:40.869976 18589 net.cpp:116] Rrelu8 does not need backward computation.
I0812 23:47:40.869982 18589 net.cpp:65] Creating Layer deconv2
I0812 23:47:40.869984 18589 net.cpp:228] deconv2 <- Rconv8
I0812 23:47:40.869987 18589 net.cpp:189] deconv2 -> deconv2
I0812 23:47:40.870988 18589 net.cpp:84] Top shape: 64 64 54 54 (11943936)
I0812 23:47:40.870993 18589 net.cpp:116] deconv2 does not need backward computation.
I0812 23:47:40.870998 18589 net.cpp:65] Creating Layer relu_deconv2
I0812 23:47:40.871001 18589 net.cpp:228] relu_deconv2 <- deconv2
I0812 23:47:40.871006 18589 net.cpp:179] relu_deconv2 -> deconv2 (in-place)
I0812 23:47:40.871011 18589 net.cpp:84] Top shape: 64 64 54 54 (11943936)
I0812 23:47:40.871026 18589 net.cpp:116] relu_deconv2 does not need backward computation.
I0812 23:47:40.871029 18589 net.cpp:65] Creating Layer deconv1
I0812 23:47:40.871032 18589 net.cpp:228] deconv1 <- deconv2
I0812 23:47:40.871037 18589 net.cpp:189] deconv1 -> deconv1
I0812 23:47:40.871171 18589 net.cpp:84] Top shape: 64 32 108 108 (23887872)
I0812 23:47:40.871176 18589 net.cpp:116] deconv1 does not need backward computation.
I0812 23:47:40.871179 18589 net.cpp:65] Creating Layer relu_deconv1
I0812 23:47:40.871182 18589 net.cpp:228] relu_deconv1 <- deconv1
I0812 23:47:40.871186 18589 net.cpp:179] relu_deconv1 -> deconv1 (in-place)
I0812 23:47:40.871191 18589 net.cpp:84] Top shape: 64 32 108 108 (23887872)
I0812 23:47:40.871193 18589 net.cpp:116] relu_deconv1 does not need backward computation.
I0812 23:47:40.871199 18589 net.cpp:65] Creating Layer deconv0
I0812 23:47:40.871202 18589 net.cpp:228] deconv0 <- deconv1
I0812 23:47:40.871207 18589 net.cpp:189] deconv0 -> deconv0
I0812 23:47:40.871232 18589 net.cpp:84] Top shape: 64 3 216 216 (8957952)
I0812 23:47:40.871235 18589 net.cpp:116] deconv0 does not need backward computation.
I0812 23:47:40.871238 18589 net.cpp:65] Creating Layer loss
I0812 23:47:40.871242 18589 net.cpp:228] loss <- deconv0
I0812 23:47:40.871244 18589 net.cpp:228] loss <- target_ims
I0812 23:47:40.871250 18589 net.cpp:116] loss does not need backward computation.
I0812 23:47:40.871263 18589 net.cpp:238] Collecting Learning Rate and Weight Decay.
…
