…
    source: "/scr/r6/tgebru/inverting_conv/caffe_invert_alexnet/data/siggraph/tiny_summer_train_lmdb"
    mean_file: "/scr/r6/tgebru/timnit_caffe/data/ilsvrc12/imagenet_mean.binaryproto"
    batch_size: 12
    crop_size: 227
    mirror: false
    backend: LMDB
  }
}
layers {
  top: "target_ims"
  name: "target_ims"
  type: DATA
  data_param {
    source: "/scr/r6/tgebru/inverting_conv/caffe_invert_alexnet/data/siggraph/tiny_summer_train_lmdb"
    mean_file: "/scr/r6/tgebru/timnit_caffe/data/ilsvrc12/imagenet_mean.binaryproto"
    batch_size: 12
    crop_size: 216
    mirror: false
    backend: LMDB
  }
}
layers {
  bottom: "source_ims"
  top: "conv1"
  name: "conv1"
  type: CONVOLUTION
  blobs_lr: 0
  blobs_lr: 0
  weight_decay: 1
  weight_decay: 0
  convolution_param {
    num_output: 96
    kernel_size: 11
    stride: 4
    weight_filler {
      type: "gaussian"
      std: 0.01
    }
    bias_filler {
      type: "constant"
      value: 0
    }
  }
}
layers {
  bottom: "conv1"
  top: "conv1"
  name: "relu1"
  type: RELU
}
layers {
  bottom: "conv1"
  top: "pool1"
  name: "pool1"
  type: POOLING
  pooling_param {
    pool: MAX
    kernel_size: 3
    stride: 2
  }
}
layers {
  bottom: "pool1"
  top: "norm1"
  name: "norm1"
  type: LRN
  lrn_param {
    local_size: 5
    alpha: 0.0001
    beta: 0.75
  }
}
layers {
  bottom: "norm1"
  top: "Rconv6"
  name: "Rconv6"
  type: CONVOLUTION
  blobs_lr: 1
  blobs_lr: 2
  weight_decay: 1
  weight_decay: 0
  convolution_param {
    num_output: 256
    pad: 1
    kernel_size: 3
  }
}
layers {
  bottom: "Rconv6"
  top: "Rconv6"
  name: "Rrelu6"
  type: RELU
}
layers {
  bottom: "Rconv6"
  top: "Rconv7"
  name: "Rconv7"
  type: CONVOLUTION
  blobs_lr: 1
  blobs_lr: 2
  weight_decay: 1
  weight_decay: 0
  convolution_param {
    num_output: 256
    pad: 1
    kernel_size: 3
    group: 2
  }
}
layers {
  bottom: "Rconv7"
  top: "Rconv7"
  name: "Rrelu7"
  type: RELU
}
layers {
  bottom: "Rconv7"
  top: "Rconv8"
  name: "Rconv8"
  type: CONVOLUTION
  blobs_lr: 1
  blobs_lr: 2
  weight_decay: 1
  weight_decay: 0
  convolution_param {
    num_output: 256
    pad: 1
    kernel_size: 3
    group: 2
  }
}
layers {
  bottom: "Rconv8"
  top: "Rconv8"
  name: "Rrelu8"
  type: RELU
}
layers {
  bottom: "Rconv8"
  top: "deconv2"
  name: "deconv2"
  type: DECONVOLUTION
  blobs_lr: 1
  blobs_lr: 2
  weight_decay: 1
  weight_decay: 0
  deconvolution_param {
    pad: 2
    kernel_size: 5
    stride: 2
    output_height: 54
    output_width: 54
    output_channels: 64
  }
}
layers {
  bottom: "deconv2"
  top: "deconv2"
  name: "relu_deconv2"
  type: RELU
  relu_param {
    negative_slope: 0.3
  }
}
layers {
  bottom: "deconv2"
  top: "deconv1"
  name: "deconv1"
  type: DECONVOLUTION
  blobs_lr: 1
  blobs_lr: 2
  weight_decay: 1
  weight_decay: 0
  deconvolution_param {
    pad: 2
    kernel_size: 5
    stride: 2
    output_height: 108
    output_width: 108
    output_channels: 32
  }
}
layers {
  bottom: "deconv1"
  top: "deconv1"
  name: "relu_deconv1"
  type: RELU
  relu_param {
    negative_slope: 0.3
  }
}
layers {
  bottom: "deconv1"
  top: "deconv0"
  name: "deconv0"
  type: DECONVOLUTION
  blobs_lr: 1
  blobs_lr: 2
  weight_decay: 1
  weight_decay: 1
  deconvolution_param {
    pad: 2
    kernel_size: 5
    stride: 2
    output_height: 216
    output_width: 216
    output_channels: 3
  }
}
layers {
  bottom: "deconv0"
  bottom: "target_ims"
  name: "loss"
  type: EUCLIDEAN_LOSS
}
I0812 19:07:53.605633  2540 net.cpp:65] Creating Layer source_ims
I0812 19:07:53.605643  2540 net.cpp:189] source_ims -> source_ims
I0812 19:07:53.605763  2540 data_layer.cpp:223] Opening lmdb /scr/r6/tgebru/inverting_conv/caffe_invert_alexnet/data/siggraph/tiny_summer_train_lmdb
I0812 19:07:53.605983  2540 data_layer.cpp:285] output data size: 12,3,227,227
I0812 19:07:53.605990  2540 data_layer.cpp:304] Loading mean file from/scr/r6/tgebru/timnit_caffe/data/ilsvrc12/imagenet_mean.binaryproto
I0812 19:07:53.611376  2540 net.cpp:84] Top shape: 12 3 227 227 (1855044)
I0812 19:07:53.611385  2540 net.cpp:116] source_ims does not need backward computation.
I0812 19:07:53.611394  2540 net.cpp:65] Creating Layer target_ims
I0812 19:07:53.611398  2540 net.cpp:189] target_ims -> target_ims
I0812 19:07:53.611560  2540 data_layer.cpp:223] Opening lmdb /scr/r6/tgebru/inverting_conv/caffe_invert_alexnet/data/siggraph/tiny_summer_train_lmdb
I0812 19:07:53.611685  2540 data_layer.cpp:285] output data size: 12,3,216,216
I0812 19:07:53.611690  2540 data_layer.cpp:304] Loading mean file from/scr/r6/tgebru/timnit_caffe/data/ilsvrc12/imagenet_mean.binaryproto
I0812 19:07:53.616174  2540 net.cpp:84] Top shape: 12 3 216 216 (1679616)
I0812 19:07:53.616183  2540 net.cpp:116] target_ims does not need backward computation.
I0812 19:07:53.616194  2540 net.cpp:65] Creating Layer conv1
I0812 19:07:53.616199  2540 net.cpp:228] conv1 <- source_ims
I0812 19:07:53.616298  2540 net.cpp:189] conv1 -> conv1
I0812 19:07:53.617671  2540 net.cpp:84] Top shape: 12 96 55 55 (3484800)
I0812 19:07:53.617678  2540 net.cpp:116] conv1 does not need backward computation.
I0812 19:07:53.617684  2540 net.cpp:65] Creating Layer relu1
I0812 19:07:53.617687  2540 net.cpp:228] relu1 <- conv1
I0812 19:07:53.617693  2540 net.cpp:179] relu1 -> conv1 (in-place)
I0812 19:07:53.617702  2540 net.cpp:84] Top shape: 12 96 55 55 (3484800)
I0812 19:07:53.617705  2540 net.cpp:116] relu1 does not need backward computation.
I0812 19:07:53.617712  2540 net.cpp:65] Creating Layer pool1
I0812 19:07:53.617714  2540 net.cpp:228] pool1 <- conv1
I0812 19:07:53.617719  2540 net.cpp:189] pool1 -> pool1
I0812 19:07:53.617733  2540 net.cpp:84] Top shape: 12 96 27 27 (839808)
I0812 19:07:53.617735  2540 net.cpp:116] pool1 does not need backward computation.
I0812 19:07:53.617740  2540 net.cpp:65] Creating Layer norm1
I0812 19:07:53.617743  2540 net.cpp:228] norm1 <- pool1
I0812 19:07:53.617748  2540 net.cpp:189] norm1 -> norm1
I0812 19:07:53.617758  2540 net.cpp:84] Top shape: 12 96 27 27 (839808)
I0812 19:07:53.617761  2540 net.cpp:116] norm1 does not need backward computation.
I0812 19:07:53.617765  2540 net.cpp:65] Creating Layer Rconv6
I0812 19:07:53.617769  2540 net.cpp:228] Rconv6 <- norm1
I0812 19:07:53.617774  2540 net.cpp:189] Rconv6 -> Rconv6
I0812 19:07:53.618043  2540 net.cpp:84] Top shape: 12 256 27 27 (2239488)
I0812 19:07:53.618047  2540 net.cpp:111] Rconv6 needs backward computation.
I0812 19:07:53.618052  2540 net.cpp:65] Creating Layer Rrelu6
I0812 19:07:53.618055  2540 net.cpp:228] Rrelu6 <- Rconv6
I0812 19:07:53.618060  2540 net.cpp:179] Rrelu6 -> Rconv6 (in-place)
I0812 19:07:53.618064  2540 net.cpp:84] Top shape: 12 256 27 27 (2239488)
I0812 19:07:53.618067  2540 net.cpp:111] Rrelu6 needs backward computation.
I0812 19:07:53.618072  2540 net.cpp:65] Creating Layer Rconv7
I0812 19:07:53.618074  2540 net.cpp:228] Rconv7 <- Rconv6
I0812 19:07:53.618078  2540 net.cpp:189] Rconv7 -> Rconv7
I0812 19:07:53.618755  2540 net.cpp:84] Top shape: 12 256 27 27 (2239488)
I0812 19:07:53.618760  2540 net.cpp:111] Rconv7 needs backward computation.
I0812 19:07:53.618764  2540 net.cpp:65] Creating Layer Rrelu7
I0812 19:07:53.618767  2540 net.cpp:228] Rrelu7 <- Rconv7
I0812 19:07:53.618798  2540 net.cpp:179] Rrelu7 -> Rconv7 (in-place)
I0812 19:07:53.618803  2540 net.cpp:84] Top shape: 12 256 27 27 (2239488)
I0812 19:07:53.618806  2540 net.cpp:111] Rrelu7 needs backward computation.
I0812 19:07:53.618810  2540 net.cpp:65] Creating Layer Rconv8
I0812 19:07:53.618813  2540 net.cpp:228] Rconv8 <- Rconv7
I0812 19:07:53.618818  2540 net.cpp:189] Rconv8 -> Rconv8
I0812 19:07:53.619614  2540 net.cpp:84] Top shape: 12 256 27 27 (2239488)
I0812 19:07:53.619619  2540 net.cpp:111] Rconv8 needs backward computation.
I0812 19:07:53.619623  2540 net.cpp:65] Creating Layer Rrelu8
I0812 19:07:53.619626  2540 net.cpp:228] Rrelu8 <- Rconv8
I0812 19:07:53.619631  2540 net.cpp:179] Rrelu8 -> Rconv8 (in-place)
I0812 19:07:53.619634  2540 net.cpp:84] Top shape: 12 256 27 27 (2239488)
I0812 19:07:53.619637  2540 net.cpp:111] Rrelu8 needs backward computation.
I0812 19:07:53.619642  2540 net.cpp:65] Creating Layer deconv2
I0812 19:07:53.619644  2540 net.cpp:228] deconv2 <- Rconv8
I0812 19:07:53.619648  2540 net.cpp:189] deconv2 -> deconv2
I0812 19:07:53.620745  2540 net.cpp:84] Top shape: 12 64 54 54 (2239488)
I0812 19:07:53.620750  2540 net.cpp:111] deconv2 needs backward computation.
I0812 19:07:53.620755  2540 net.cpp:65] Creating Layer relu_deconv2
I0812 19:07:53.620759  2540 net.cpp:228] relu_deconv2 <- deconv2
I0812 19:07:53.620762  2540 net.cpp:179] relu_deconv2 -> deconv2 (in-place)
I0812 19:07:53.620767  2540 net.cpp:84] Top shape: 12 64 54 54 (2239488)
I0812 19:07:53.620769  2540 net.cpp:111] relu_deconv2 needs backward computation.
I0812 19:07:53.620774  2540 net.cpp:65] Creating Layer deconv1
I0812 19:07:53.620776  2540 net.cpp:228] deconv1 <- deconv2
I0812 19:07:53.620780  2540 net.cpp:189] deconv1 -> deconv1
I0812 19:07:53.620935  2540 net.cpp:84] Top shape: 12 32 108 108 (4478976)
I0812 19:07:53.620940  2540 net.cpp:111] deconv1 needs backward computation.
I0812 19:07:53.620944  2540 net.cpp:65] Creating Layer relu_deconv1
I0812 19:07:53.620946  2540 net.cpp:228] relu_deconv1 <- deconv1
I0812 19:07:53.620950  2540 net.cpp:179] relu_deconv1 -> deconv1 (in-place)
I0812 19:07:53.620955  2540 net.cpp:84] Top shape: 12 32 108 108 (4478976)
I0812 19:07:53.620957  2540 net.cpp:111] relu_deconv1 needs backward computation.
I0812 19:07:53.620964  2540 net.cpp:65] Creating Layer deconv0
I0812 19:07:53.620965  2540 net.cpp:228] deconv0 <- deconv1
I0812 19:07:53.620970  2540 net.cpp:189] deconv0 -> deconv0
I0812 19:07:53.621014  2540 net.cpp:84] Top shape: 12 3 216 216 (1679616)
I0812 19:07:53.621017  2540 net.cpp:111] deconv0 needs backward computation.
I0812 19:07:53.621021  2540 net.cpp:65] Creating Layer loss
I0812 19:07:53.621023  2540 net.cpp:228] loss <- deconv0
I0812 19:07:53.621027  2540 net.cpp:228] loss <- target_ims
I0812 19:07:53.621036  2540 net.cpp:111] loss needs backward computation.
I0812 19:07:53.621050  2540 net.cpp:238] Collecting Learning Rate and Weight Decay.
…
    source: "/scr/r6/tgebru/inverting_conv/caffe_invert_alexnet/data/siggraph/tiny_summer_val_lmdb"
    mean_file: "/scr/r6/tgebru/timnit_caffe/data/ilsvrc12/imagenet_mean.binaryproto"
    batch_size: 2
    crop_size: 227
    mirror: false
    backend: LMDB
  }
}
layers {
  top: "target_ims"
  name: "target_ims"
  type: DATA
  data_param {
    source: "/scr/r6/tgebru/inverting_conv/caffe_invert_alexnet/data/siggraph/tiny_summer_val_lmdb"
    mean_file: "/scr/r6/tgebru/timnit_caffe/data/ilsvrc12/imagenet_mean.binaryproto"
    batch_size: 2
    crop_size: 216
    mirror: false
    backend: LMDB
  }
}
layers {
  bottom: "source_ims"
  top: "conv1"
  name: "conv1"
  type: CONVOLUTION
  blobs_lr: 0
  blobs_lr: 0
  weight_decay: 1
  weight_decay: 0
  convolution_param {
    num_output: 96
    kernel_size: 11
    stride: 4
    weight_filler {
      type: "gaussian"
      std: 0.01
    }
    bias_filler {
      type: "constant"
      value: 0
    }
  }
}
layers {
  bottom: "conv1"
  top: "conv1"
  name: "relu1"
  type: RELU
}
layers {
  bottom: "conv1"
  top: "pool1"
  name: "pool1"
  type: POOLING
  pooling_param {
    pool: MAX
    kernel_size: 3
    stride: 2
  }
}
layers {
  bottom: "pool1"
  top: "norm1"
  name: "norm1"
  type: LRN
  lrn_param {
    local_size: 5
    alpha: 0.0001
    beta: 0.75
  }
}
layers {
  bottom: "norm1"
  top: "Rconv6"
  name: "Rconv6"
  type: CONVOLUTION
  blobs_lr: 0
  blobs_lr: 0
  weight_decay: 1
  weight_decay: 0
  convolution_param {
    num_output: 256
    pad: 1
    kernel_size: 3
  }
}
layers {
  bottom: "Rconv6"
  top: "Rconv6"
  name: "Rrelu6"
  type: RELU
}
layers {
  bottom: "Rconv6"
  top: "Rconv7"
  name: "Rconv7"
  type: CONVOLUTION
  blobs_lr: 0
  blobs_lr: 0
  weight_decay: 1
  weight_decay: 0
  convolution_param {
    num_output: 256
    pad: 1
    kernel_size: 3
    group: 2
  }
}
layers {
  bottom: "Rconv7"
  top: "Rconv7"
  name: "Rrelu7"
  type: RELU
}
layers {
  bottom: "Rconv7"
  top: "Rconv8"
  name: "Rconv8"
  type: CONVOLUTION
  blobs_lr: 0
  blobs_lr: 0
  weight_decay: 1
  weight_decay: 0
  convolution_param {
    num_output: 256
    pad: 1
    kernel_size: 3
    group: 2
  }
}
layers {
  bottom: "Rconv8"
  top: "Rconv8"
  name: "Rrelu8"
  type: RELU
}
layers {
  bottom: "Rconv8"
  top: "deconv2"
  name: "deconv2"
  type: DECONVOLUTION
  blobs_lr: 0
  blobs_lr: 0
  weight_decay: 1
  weight_decay: 0
  deconvolution_param {
    pad: 2
    kernel_size: 5
    stride: 2
    output_height: 54
    output_width: 54
    output_channels: 64
  }
}
layers {
  bottom: "deconv2"
  top: "deconv2"
  name: "relu_deconv2"
  type: RELU
  relu_param {
    negative_slope: 0.3
  }
}
layers {
  bottom: "deconv2"
  top: "deconv1"
  name: "deconv1"
  type: DECONVOLUTION
  blobs_lr: 0
  blobs_lr: 0
  weight_decay: 1
  weight_decay: 0
  deconvolution_param {
    pad: 2
    kernel_size: 5
    stride: 2
    output_height: 108
    output_width: 108
    output_channels: 32
  }
}
layers {
  bottom: "deconv1"
  top: "deconv1"
  name: "relu_deconv1"
  type: RELU
  relu_param {
    negative_slope: 0.3
  }
}
layers {
  bottom: "deconv1"
  top: "deconv0"
  name: "deconv0"
  type: DECONVOLUTION
  blobs_lr: 0
  blobs_lr: 0
  weight_decay: 1
  weight_decay: 0
  deconvolution_param {
    pad: 2
    kernel_size: 5
    stride: 2
    output_height: 216
    output_width: 216
    output_channels: 3
  }
}
layers {
  bottom: "deconv0"
  bottom: "target_ims"
  name: "loss"
  type: EUCLIDEAN_LOSS
}
I0812 19:07:53.621806  2540 net.cpp:65] Creating Layer source_ims
I0812 19:07:53.621812  2540 net.cpp:189] source_ims -> source_ims
I0812 19:07:53.621870  2540 data_layer.cpp:223] Opening lmdb /scr/r6/tgebru/inverting_conv/caffe_invert_alexnet/data/siggraph/tiny_summer_val_lmdb
I0812 19:07:53.622042  2540 data_layer.cpp:285] output data size: 2,3,227,227
I0812 19:07:53.622047  2540 data_layer.cpp:304] Loading mean file from/scr/r6/tgebru/timnit_caffe/data/ilsvrc12/imagenet_mean.binaryproto
I0812 19:07:53.624351  2540 net.cpp:84] Top shape: 2 3 227 227 (309174)
I0812 19:07:53.624358  2540 net.cpp:116] source_ims does not need backward computation.
I0812 19:07:53.624364  2540 net.cpp:65] Creating Layer target_ims
I0812 19:07:53.624368  2540 net.cpp:189] target_ims -> target_ims
I0812 19:07:53.624425  2540 data_layer.cpp:223] Opening lmdb /scr/r6/tgebru/inverting_conv/caffe_invert_alexnet/data/siggraph/tiny_summer_val_lmdb
I0812 19:07:53.624591  2540 data_layer.cpp:285] output data size: 2,3,216,216
I0812 19:07:53.624596  2540 data_layer.cpp:304] Loading mean file from/scr/r6/tgebru/timnit_caffe/data/ilsvrc12/imagenet_mean.binaryproto
I0812 19:07:53.626790  2540 net.cpp:84] Top shape: 2 3 216 216 (279936)
I0812 19:07:53.626796  2540 net.cpp:116] target_ims does not need backward computation.
I0812 19:07:53.626817  2540 net.cpp:65] Creating Layer conv1
I0812 19:07:53.626821  2540 net.cpp:228] conv1 <- source_ims
I0812 19:07:53.626827  2540 net.cpp:189] conv1 -> conv1
I0812 19:07:53.628113  2540 net.cpp:84] Top shape: 2 96 55 55 (580800)
I0812 19:07:53.628118  2540 net.cpp:116] conv1 does not need backward computation.
I0812 19:07:53.628120  2540 net.cpp:65] Creating Layer relu1
I0812 19:07:53.628123  2540 net.cpp:228] relu1 <- conv1
I0812 19:07:53.628128  2540 net.cpp:179] relu1 -> conv1 (in-place)
I0812 19:07:53.628132  2540 net.cpp:84] Top shape: 2 96 55 55 (580800)
I0812 19:07:53.628135  2540 net.cpp:116] relu1 does not need backward computation.
I0812 19:07:53.628140  2540 net.cpp:65] Creating Layer pool1
I0812 19:07:53.628142  2540 net.cpp:228] pool1 <- conv1
I0812 19:07:53.628146  2540 net.cpp:189] pool1 -> pool1
I0812 19:07:53.628154  2540 net.cpp:84] Top shape: 2 96 27 27 (139968)
I0812 19:07:53.628156  2540 net.cpp:116] pool1 does not need backward computation.
I0812 19:07:53.628160  2540 net.cpp:65] Creating Layer norm1
I0812 19:07:53.628162  2540 net.cpp:228] norm1 <- pool1
I0812 19:07:53.628166  2540 net.cpp:189] norm1 -> norm1
I0812 19:07:53.628173  2540 net.cpp:84] Top shape: 2 96 27 27 (139968)
I0812 19:07:53.628176  2540 net.cpp:116] norm1 does not need backward computation.
I0812 19:07:53.628180  2540 net.cpp:65] Creating Layer Rconv6
I0812 19:07:53.628182  2540 net.cpp:228] Rconv6 <- norm1
I0812 19:07:53.628186  2540 net.cpp:189] Rconv6 -> Rconv6
I0812 19:07:53.628773  2540 net.cpp:84] Top shape: 2 256 27 27 (373248)
I0812 19:07:53.628779  2540 net.cpp:116] Rconv6 does not need backward computation.
I0812 19:07:53.628783  2540 net.cpp:65] Creating Layer Rrelu6
I0812 19:07:53.628787  2540 net.cpp:228] Rrelu6 <- Rconv6
I0812 19:07:53.628790  2540 net.cpp:179] Rrelu6 -> Rconv6 (in-place)
I0812 19:07:53.628795  2540 net.cpp:84] Top shape: 2 256 27 27 (373248)
I0812 19:07:53.628798  2540 net.cpp:116] Rrelu6 does not need backward computation.
I0812 19:07:53.628803  2540 net.cpp:65] Creating Layer Rconv7
I0812 19:07:53.628805  2540 net.cpp:228] Rconv7 <- Rconv6
I0812 19:07:53.628809  2540 net.cpp:189] Rconv7 -> Rconv7
I0812 19:07:53.629569  2540 net.cpp:84] Top shape: 2 256 27 27 (373248)
I0812 19:07:53.629573  2540 net.cpp:116] Rconv7 does not need backward computation.
I0812 19:07:53.629577  2540 net.cpp:65] Creating Layer Rrelu7
I0812 19:07:53.629580  2540 net.cpp:228] Rrelu7 <- Rconv7
I0812 19:07:53.629583  2540 net.cpp:179] Rrelu7 -> Rconv7 (in-place)
I0812 19:07:53.629588  2540 net.cpp:84] Top shape: 2 256 27 27 (373248)
I0812 19:07:53.629590  2540 net.cpp:116] Rrelu7 does not need backward computation.
I0812 19:07:53.629595  2540 net.cpp:65] Creating Layer Rconv8
I0812 19:07:53.629596  2540 net.cpp:228] Rconv8 <- Rconv7
I0812 19:07:53.629601  2540 net.cpp:189] Rconv8 -> Rconv8
I0812 19:07:53.630316  2540 net.cpp:84] Top shape: 2 256 27 27 (373248)
I0812 19:07:53.630321  2540 net.cpp:116] Rconv8 does not need backward computation.
I0812 19:07:53.630326  2540 net.cpp:65] Creating Layer Rrelu8
I0812 19:07:53.630327  2540 net.cpp:228] Rrelu8 <- Rconv8
I0812 19:07:53.630331  2540 net.cpp:179] Rrelu8 -> Rconv8 (in-place)
I0812 19:07:53.630336  2540 net.cpp:84] Top shape: 2 256 27 27 (373248)
I0812 19:07:53.630338  2540 net.cpp:116] Rrelu8 does not need backward computation.
I0812 19:07:53.630342  2540 net.cpp:65] Creating Layer deconv2
I0812 19:07:53.630344  2540 net.cpp:228] deconv2 <- Rconv8
I0812 19:07:53.630348  2540 net.cpp:189] deconv2 -> deconv2
I0812 19:07:53.631338  2540 net.cpp:84] Top shape: 2 64 54 54 (373248)
I0812 19:07:53.631343  2540 net.cpp:116] deconv2 does not need backward computation.
I0812 19:07:53.631347  2540 net.cpp:65] Creating Layer relu_deconv2
I0812 19:07:53.631350  2540 net.cpp:228] relu_deconv2 <- deconv2
I0812 19:07:53.631355  2540 net.cpp:179] relu_deconv2 -> deconv2 (in-place)
I0812 19:07:53.631360  2540 net.cpp:84] Top shape: 2 64 54 54 (373248)
I0812 19:07:53.631362  2540 net.cpp:116] relu_deconv2 does not need backward computation.
I0812 19:07:53.631377  2540 net.cpp:65] Creating Layer deconv1
I0812 19:07:53.631381  2540 net.cpp:228] deconv1 <- deconv2
I0812 19:07:53.631386  2540 net.cpp:189] deconv1 -> deconv1
I0812 19:07:53.631528  2540 net.cpp:84] Top shape: 2 32 108 108 (746496)
I0812 19:07:53.631532  2540 net.cpp:116] deconv1 does not need backward computation.
I0812 19:07:53.631536  2540 net.cpp:65] Creating Layer relu_deconv1
I0812 19:07:53.631539  2540 net.cpp:228] relu_deconv1 <- deconv1
I0812 19:07:53.631543  2540 net.cpp:179] relu_deconv1 -> deconv1 (in-place)
I0812 19:07:53.631547  2540 net.cpp:84] Top shape: 2 32 108 108 (746496)
I0812 19:07:53.631551  2540 net.cpp:116] relu_deconv1 does not need backward computation.
I0812 19:07:53.631554  2540 net.cpp:65] Creating Layer deconv0
I0812 19:07:53.631557  2540 net.cpp:228] deconv0 <- deconv1
I0812 19:07:53.631561  2540 net.cpp:189] deconv0 -> deconv0
I0812 19:07:53.631578  2540 net.cpp:84] Top shape: 2 3 216 216 (279936)
I0812 19:07:53.631582  2540 net.cpp:116] deconv0 does not need backward computation.
I0812 19:07:53.631585  2540 net.cpp:65] Creating Layer loss
I0812 19:07:53.631588  2540 net.cpp:228] loss <- deconv0
I0812 19:07:53.631592  2540 net.cpp:228] loss <- target_ims
I0812 19:07:53.631597  2540 net.cpp:116] loss does not need backward computation.
I0812 19:07:53.631608  2540 net.cpp:238] Collecting Learning Rate and Weight Decay.
…
