…
    source: "/scr/r6/tgebru/inverting_conv/caffe_invert_alexnet/data/siggraph/tiny_winter_train_lmdb"
    mean_file: "/scr/r6/tgebru/timnit_caffe/data/ilsvrc12/imagenet_mean.binaryproto"
    batch_size: 12
    crop_size: 227
    mirror: false
    backend: LMDB
  }
}
layers {
  top: "target_ims"
  name: "target_ims"
  type: DATA
  data_param {
    source: "/scr/r6/tgebru/inverting_conv/caffe_invert_alexnet/data/siggraph/tiny_summer_train_lmdb"
    mean_file: "/scr/r6/tgebru/timnit_caffe/data/ilsvrc12/imagenet_mean.binaryproto"
    batch_size: 12
    crop_size: 216
    mirror: false
    backend: LMDB
  }
}
layers {
  bottom: "source_ims"
  top: "conv1"
  name: "conv1"
  type: CONVOLUTION
  blobs_lr: 0
  blobs_lr: 0
  weight_decay: 1
  weight_decay: 0
  convolution_param {
    num_output: 96
    kernel_size: 11
    stride: 4
    weight_filler {
      type: "gaussian"
      std: 0.01
    }
    bias_filler {
      type: "constant"
      value: 0
    }
  }
}
layers {
  bottom: "conv1"
  top: "conv1"
  name: "relu1"
  type: RELU
}
layers {
  bottom: "conv1"
  top: "pool1"
  name: "pool1"
  type: POOLING
  pooling_param {
    pool: MAX
    kernel_size: 3
    stride: 2
  }
}
layers {
  bottom: "pool1"
  top: "norm1"
  name: "norm1"
  type: LRN
  lrn_param {
    local_size: 5
    alpha: 0.0001
    beta: 0.75
  }
}
layers {
  bottom: "norm1"
  top: "Rconv6"
  name: "Rconv6"
  type: CONVOLUTION
  blobs_lr: 1
  blobs_lr: 2
  weight_decay: 1
  weight_decay: 0
  convolution_param {
    num_output: 256
    pad: 1
    kernel_size: 3
  }
}
layers {
  bottom: "Rconv6"
  top: "Rconv6"
  name: "Rrelu6"
  type: RELU
}
layers {
  bottom: "Rconv6"
  top: "Rconv7"
  name: "Rconv7"
  type: CONVOLUTION
  blobs_lr: 1
  blobs_lr: 2
  weight_decay: 1
  weight_decay: 0
  convolution_param {
    num_output: 256
    pad: 1
    kernel_size: 3
    group: 2
  }
}
layers {
  bottom: "Rconv7"
  top: "Rconv7"
  name: "Rrelu7"
  type: RELU
}
layers {
  bottom: "Rconv7"
  top: "Rconv8"
  name: "Rconv8"
  type: CONVOLUTION
  blobs_lr: 1
  blobs_lr: 2
  weight_decay: 1
  weight_decay: 0
  convolution_param {
    num_output: 256
    pad: 1
    kernel_size: 3
    group: 2
  }
}
layers {
  bottom: "Rconv8"
  top: "Rconv8"
  name: "Rrelu8"
  type: RELU
}
layers {
  bottom: "Rconv8"
  top: "deconv2"
  name: "deconv2"
  type: DECONVOLUTION
  blobs_lr: 1
  blobs_lr: 2
  weight_decay: 1
  weight_decay: 0
  deconvolution_param {
    pad: 2
    kernel_size: 5
    stride: 2
    output_height: 54
    output_width: 54
    output_channels: 64
  }
}
layers {
  bottom: "deconv2"
  top: "deconv2"
  name: "relu_deconv2"
  type: RELU
  relu_param {
    negative_slope: 0.3
  }
}
layers {
  bottom: "deconv2"
  top: "deconv1"
  name: "deconv1"
  type: DECONVOLUTION
  blobs_lr: 1
  blobs_lr: 2
  weight_decay: 1
  weight_decay: 0
  deconvolution_param {
    pad: 2
    kernel_size: 5
    stride: 2
    output_height: 108
    output_width: 108
    output_channels: 32
  }
}
layers {
  bottom: "deconv1"
  top: "deconv1"
  name: "relu_deconv1"
  type: RELU
  relu_param {
    negative_slope: 0.3
  }
}
layers {
  bottom: "deconv1"
  top: "deconv0"
  name: "deconv0"
  type: DECONVOLUTION
  blobs_lr: 1
  blobs_lr: 2
  weight_decay: 1
  weight_decay: 1
  deconvolution_param {
    pad: 2
    kernel_size: 5
    stride: 2
    output_height: 216
    output_width: 216
    output_channels: 3
  }
}
layers {
  bottom: "deconv0"
  bottom: "target_ims"
  name: "loss"
  type: EUCLIDEAN_LOSS
}
I0813 10:22:20.589609 26416 net.cpp:65] Creating Layer source_ims
I0813 10:22:20.589618 26416 net.cpp:189] source_ims -> source_ims
I0813 10:22:20.589740 26416 data_layer.cpp:223] Opening lmdb /scr/r6/tgebru/inverting_conv/caffe_invert_alexnet/data/siggraph/tiny_winter_train_lmdb
I0813 10:22:20.589939 26416 data_layer.cpp:285] output data size: 12,3,227,227
I0813 10:22:20.589946 26416 data_layer.cpp:304] Loading mean file from/scr/r6/tgebru/timnit_caffe/data/ilsvrc12/imagenet_mean.binaryproto
I0813 10:22:20.594445 26416 net.cpp:84] Top shape: 12 3 227 227 (1855044)
I0813 10:22:20.594452 26416 net.cpp:116] source_ims does not need backward computation.
I0813 10:22:20.594458 26416 net.cpp:65] Creating Layer target_ims
I0813 10:22:20.594463 26416 net.cpp:189] target_ims -> target_ims
I0813 10:22:20.594620 26416 data_layer.cpp:223] Opening lmdb /scr/r6/tgebru/inverting_conv/caffe_invert_alexnet/data/siggraph/tiny_summer_train_lmdb
I0813 10:22:20.594755 26416 data_layer.cpp:285] output data size: 12,3,216,216
I0813 10:22:20.594760 26416 data_layer.cpp:304] Loading mean file from/scr/r6/tgebru/timnit_caffe/data/ilsvrc12/imagenet_mean.binaryproto
I0813 10:22:20.599160 26416 net.cpp:84] Top shape: 12 3 216 216 (1679616)
I0813 10:22:20.599169 26416 net.cpp:116] target_ims does not need backward computation.
I0813 10:22:20.599180 26416 net.cpp:65] Creating Layer conv1
I0813 10:22:20.599184 26416 net.cpp:228] conv1 <- source_ims
I0813 10:22:20.599251 26416 net.cpp:189] conv1 -> conv1
I0813 10:22:20.600543 26416 net.cpp:84] Top shape: 12 96 55 55 (3484800)
I0813 10:22:20.600548 26416 net.cpp:116] conv1 does not need backward computation.
I0813 10:22:20.600553 26416 net.cpp:65] Creating Layer relu1
I0813 10:22:20.600556 26416 net.cpp:228] relu1 <- conv1
I0813 10:22:20.600561 26416 net.cpp:179] relu1 -> conv1 (in-place)
I0813 10:22:20.600570 26416 net.cpp:84] Top shape: 12 96 55 55 (3484800)
I0813 10:22:20.600574 26416 net.cpp:116] relu1 does not need backward computation.
I0813 10:22:20.600579 26416 net.cpp:65] Creating Layer pool1
I0813 10:22:20.600581 26416 net.cpp:228] pool1 <- conv1
I0813 10:22:20.600586 26416 net.cpp:189] pool1 -> pool1
I0813 10:22:20.600599 26416 net.cpp:84] Top shape: 12 96 27 27 (839808)
I0813 10:22:20.600601 26416 net.cpp:116] pool1 does not need backward computation.
I0813 10:22:20.600606 26416 net.cpp:65] Creating Layer norm1
I0813 10:22:20.600610 26416 net.cpp:228] norm1 <- pool1
I0813 10:22:20.600613 26416 net.cpp:189] norm1 -> norm1
I0813 10:22:20.600623 26416 net.cpp:84] Top shape: 12 96 27 27 (839808)
I0813 10:22:20.600626 26416 net.cpp:116] norm1 does not need backward computation.
I0813 10:22:20.600630 26416 net.cpp:65] Creating Layer Rconv6
I0813 10:22:20.600633 26416 net.cpp:228] Rconv6 <- norm1
I0813 10:22:20.600637 26416 net.cpp:189] Rconv6 -> Rconv6
I0813 10:22:20.600893 26416 net.cpp:84] Top shape: 12 256 27 27 (2239488)
I0813 10:22:20.600898 26416 net.cpp:111] Rconv6 needs backward computation.
I0813 10:22:20.600903 26416 net.cpp:65] Creating Layer Rrelu6
I0813 10:22:20.600905 26416 net.cpp:228] Rrelu6 <- Rconv6
I0813 10:22:20.600909 26416 net.cpp:179] Rrelu6 -> Rconv6 (in-place)
I0813 10:22:20.600914 26416 net.cpp:84] Top shape: 12 256 27 27 (2239488)
I0813 10:22:20.600917 26416 net.cpp:111] Rrelu6 needs backward computation.
I0813 10:22:20.600921 26416 net.cpp:65] Creating Layer Rconv7
I0813 10:22:20.600924 26416 net.cpp:228] Rconv7 <- Rconv6
I0813 10:22:20.600929 26416 net.cpp:189] Rconv7 -> Rconv7
I0813 10:22:20.601634 26416 net.cpp:84] Top shape: 12 256 27 27 (2239488)
I0813 10:22:20.601637 26416 net.cpp:111] Rconv7 needs backward computation.
I0813 10:22:20.601642 26416 net.cpp:65] Creating Layer Rrelu7
I0813 10:22:20.601663 26416 net.cpp:228] Rrelu7 <- Rconv7
I0813 10:22:20.601668 26416 net.cpp:179] Rrelu7 -> Rconv7 (in-place)
I0813 10:22:20.601673 26416 net.cpp:84] Top shape: 12 256 27 27 (2239488)
I0813 10:22:20.601676 26416 net.cpp:111] Rrelu7 needs backward computation.
I0813 10:22:20.601680 26416 net.cpp:65] Creating Layer Rconv8
I0813 10:22:20.601682 26416 net.cpp:228] Rconv8 <- Rconv7
I0813 10:22:20.601686 26416 net.cpp:189] Rconv8 -> Rconv8
I0813 10:22:20.602473 26416 net.cpp:84] Top shape: 12 256 27 27 (2239488)
I0813 10:22:20.602478 26416 net.cpp:111] Rconv8 needs backward computation.
I0813 10:22:20.602481 26416 net.cpp:65] Creating Layer Rrelu8
I0813 10:22:20.602484 26416 net.cpp:228] Rrelu8 <- Rconv8
I0813 10:22:20.602488 26416 net.cpp:179] Rrelu8 -> Rconv8 (in-place)
I0813 10:22:20.602491 26416 net.cpp:84] Top shape: 12 256 27 27 (2239488)
I0813 10:22:20.602494 26416 net.cpp:111] Rrelu8 needs backward computation.
I0813 10:22:20.602499 26416 net.cpp:65] Creating Layer deconv2
I0813 10:22:20.602500 26416 net.cpp:228] deconv2 <- Rconv8
I0813 10:22:20.602504 26416 net.cpp:189] deconv2 -> deconv2
I0813 10:22:20.603518 26416 net.cpp:84] Top shape: 12 64 54 54 (2239488)
I0813 10:22:20.603523 26416 net.cpp:111] deconv2 needs backward computation.
I0813 10:22:20.603528 26416 net.cpp:65] Creating Layer relu_deconv2
I0813 10:22:20.603530 26416 net.cpp:228] relu_deconv2 <- deconv2
I0813 10:22:20.603534 26416 net.cpp:179] relu_deconv2 -> deconv2 (in-place)
I0813 10:22:20.603539 26416 net.cpp:84] Top shape: 12 64 54 54 (2239488)
I0813 10:22:20.603541 26416 net.cpp:111] relu_deconv2 needs backward computation.
I0813 10:22:20.603545 26416 net.cpp:65] Creating Layer deconv1
I0813 10:22:20.603549 26416 net.cpp:228] deconv1 <- deconv2
I0813 10:22:20.603551 26416 net.cpp:189] deconv1 -> deconv1
I0813 10:22:20.603715 26416 net.cpp:84] Top shape: 12 32 108 108 (4478976)
I0813 10:22:20.603719 26416 net.cpp:111] deconv1 needs backward computation.
I0813 10:22:20.603723 26416 net.cpp:65] Creating Layer relu_deconv1
I0813 10:22:20.603725 26416 net.cpp:228] relu_deconv1 <- deconv1
I0813 10:22:20.603729 26416 net.cpp:179] relu_deconv1 -> deconv1 (in-place)
I0813 10:22:20.603734 26416 net.cpp:84] Top shape: 12 32 108 108 (4478976)
I0813 10:22:20.603736 26416 net.cpp:111] relu_deconv1 needs backward computation.
I0813 10:22:20.603741 26416 net.cpp:65] Creating Layer deconv0
I0813 10:22:20.603744 26416 net.cpp:228] deconv0 <- deconv1
I0813 10:22:20.603747 26416 net.cpp:189] deconv0 -> deconv0
I0813 10:22:20.603792 26416 net.cpp:84] Top shape: 12 3 216 216 (1679616)
I0813 10:22:20.603796 26416 net.cpp:111] deconv0 needs backward computation.
I0813 10:22:20.603799 26416 net.cpp:65] Creating Layer loss
I0813 10:22:20.603802 26416 net.cpp:228] loss <- deconv0
I0813 10:22:20.603806 26416 net.cpp:228] loss <- target_ims
I0813 10:22:20.603813 26416 net.cpp:111] loss needs backward computation.
I0813 10:22:20.603826 26416 net.cpp:238] Collecting Learning Rate and Weight Decay.
…
    source: "/scr/r6/tgebru/inverting_conv/caffe_invert_alexnet/data/siggraph/tiny_winter_val_lmdb"
    mean_file: "/scr/r6/tgebru/timnit_caffe/data/ilsvrc12/imagenet_mean.binaryproto"
    batch_size: 2
    crop_size: 227
    mirror: false
    backend: LMDB
  }
}
layers {
  top: "target_ims"
  name: "target_ims"
  type: DATA
  data_param {
    source: "/scr/r6/tgebru/inverting_conv/caffe_invert_alexnet/data/siggraph/tiny_summer_val_lmdb"
    mean_file: "/scr/r6/tgebru/timnit_caffe/data/ilsvrc12/imagenet_mean.binaryproto"
    batch_size: 2
    crop_size: 216
    mirror: false
    backend: LMDB
  }
}
layers {
  bottom: "source_ims"
  top: "conv1"
  name: "conv1"
  type: CONVOLUTION
  blobs_lr: 0
  blobs_lr: 0
  weight_decay: 1
  weight_decay: 0
  convolution_param {
    num_output: 96
    kernel_size: 11
    stride: 4
    weight_filler {
      type: "gaussian"
      std: 0.01
    }
    bias_filler {
      type: "constant"
      value: 0
    }
  }
}
layers {
  bottom: "conv1"
  top: "conv1"
  name: "relu1"
  type: RELU
}
layers {
  bottom: "conv1"
  top: "pool1"
  name: "pool1"
  type: POOLING
  pooling_param {
    pool: MAX
    kernel_size: 3
    stride: 2
  }
}
layers {
  bottom: "pool1"
  top: "norm1"
  name: "norm1"
  type: LRN
  lrn_param {
    local_size: 5
    alpha: 0.0001
    beta: 0.75
  }
}
layers {
  bottom: "norm1"
  top: "Rconv6"
  name: "Rconv6"
  type: CONVOLUTION
  blobs_lr: 0
  blobs_lr: 0
  weight_decay: 1
  weight_decay: 0
  convolution_param {
    num_output: 256
    pad: 1
    kernel_size: 3
  }
}
layers {
  bottom: "Rconv6"
  top: "Rconv6"
  name: "Rrelu6"
  type: RELU
}
layers {
  bottom: "Rconv6"
  top: "Rconv7"
  name: "Rconv7"
  type: CONVOLUTION
  blobs_lr: 0
  blobs_lr: 0
  weight_decay: 1
  weight_decay: 0
  convolution_param {
    num_output: 256
    pad: 1
    kernel_size: 3
    group: 2
  }
}
layers {
  bottom: "Rconv7"
  top: "Rconv7"
  name: "Rrelu7"
  type: RELU
}
layers {
  bottom: "Rconv7"
  top: "Rconv8"
  name: "Rconv8"
  type: CONVOLUTION
  blobs_lr: 0
  blobs_lr: 0
  weight_decay: 1
  weight_decay: 0
  convolution_param {
    num_output: 256
    pad: 1
    kernel_size: 3
    group: 2
  }
}
layers {
  bottom: "Rconv8"
  top: "Rconv8"
  name: "Rrelu8"
  type: RELU
}
layers {
  bottom: "Rconv8"
  top: "deconv2"
  name: "deconv2"
  type: DECONVOLUTION
  blobs_lr: 0
  blobs_lr: 0
  weight_decay: 1
  weight_decay: 0
  deconvolution_param {
    pad: 2
    kernel_size: 5
    stride: 2
    output_height: 54
    output_width: 54
    output_channels: 64
  }
}
layers {
  bottom: "deconv2"
  top: "deconv2"
  name: "relu_deconv2"
  type: RELU
  relu_param {
    negative_slope: 0.3
  }
}
layers {
  bottom: "deconv2"
  top: "deconv1"
  name: "deconv1"
  type: DECONVOLUTION
  blobs_lr: 0
  blobs_lr: 0
  weight_decay: 1
  weight_decay: 0
  deconvolution_param {
    pad: 2
    kernel_size: 5
    stride: 2
    output_height: 108
    output_width: 108
    output_channels: 32
  }
}
layers {
  bottom: "deconv1"
  top: "deconv1"
  name: "relu_deconv1"
  type: RELU
  relu_param {
    negative_slope: 0.3
  }
}
layers {
  bottom: "deconv1"
  top: "deconv0"
  name: "deconv0"
  type: DECONVOLUTION
  blobs_lr: 0
  blobs_lr: 0
  weight_decay: 1
  weight_decay: 0
  deconvolution_param {
    pad: 2
    kernel_size: 5
    stride: 2
    output_height: 216
    output_width: 216
    output_channels: 3
  }
}
layers {
  bottom: "deconv0"
  bottom: "target_ims"
  name: "loss"
  type: EUCLIDEAN_LOSS
}
I0813 10:22:20.604540 26416 net.cpp:65] Creating Layer source_ims
I0813 10:22:20.604545 26416 net.cpp:189] source_ims -> source_ims
I0813 10:22:20.604622 26416 data_layer.cpp:223] Opening lmdb /scr/r6/tgebru/inverting_conv/caffe_invert_alexnet/data/siggraph/tiny_winter_val_lmdb
I0813 10:22:20.604837 26416 data_layer.cpp:285] output data size: 2,3,227,227
I0813 10:22:20.604842 26416 data_layer.cpp:304] Loading mean file from/scr/r6/tgebru/timnit_caffe/data/ilsvrc12/imagenet_mean.binaryproto
I0813 10:22:20.607095 26416 net.cpp:84] Top shape: 2 3 227 227 (309174)
I0813 10:22:20.607101 26416 net.cpp:116] source_ims does not need backward computation.
I0813 10:22:20.607107 26416 net.cpp:65] Creating Layer target_ims
I0813 10:22:20.607112 26416 net.cpp:189] target_ims -> target_ims
I0813 10:22:20.607163 26416 data_layer.cpp:223] Opening lmdb /scr/r6/tgebru/inverting_conv/caffe_invert_alexnet/data/siggraph/tiny_summer_val_lmdb
I0813 10:22:20.607339 26416 data_layer.cpp:285] output data size: 2,3,216,216
I0813 10:22:20.607343 26416 data_layer.cpp:304] Loading mean file from/scr/r6/tgebru/timnit_caffe/data/ilsvrc12/imagenet_mean.binaryproto
I0813 10:22:20.609942 26416 net.cpp:84] Top shape: 2 3 216 216 (279936)
I0813 10:22:20.609961 26416 net.cpp:116] target_ims does not need backward computation.
I0813 10:22:20.609971 26416 net.cpp:65] Creating Layer conv1
I0813 10:22:20.609973 26416 net.cpp:228] conv1 <- source_ims
I0813 10:22:20.609979 26416 net.cpp:189] conv1 -> conv1
I0813 10:22:20.611222 26416 net.cpp:84] Top shape: 2 96 55 55 (580800)
I0813 10:22:20.611225 26416 net.cpp:116] conv1 does not need backward computation.
I0813 10:22:20.611229 26416 net.cpp:65] Creating Layer relu1
I0813 10:22:20.611232 26416 net.cpp:228] relu1 <- conv1
I0813 10:22:20.611237 26416 net.cpp:179] relu1 -> conv1 (in-place)
I0813 10:22:20.611241 26416 net.cpp:84] Top shape: 2 96 55 55 (580800)
I0813 10:22:20.611244 26416 net.cpp:116] relu1 does not need backward computation.
I0813 10:22:20.611248 26416 net.cpp:65] Creating Layer pool1
I0813 10:22:20.611251 26416 net.cpp:228] pool1 <- conv1
I0813 10:22:20.611255 26416 net.cpp:189] pool1 -> pool1
I0813 10:22:20.611261 26416 net.cpp:84] Top shape: 2 96 27 27 (139968)
I0813 10:22:20.611264 26416 net.cpp:116] pool1 does not need backward computation.
I0813 10:22:20.611268 26416 net.cpp:65] Creating Layer norm1
I0813 10:22:20.611270 26416 net.cpp:228] norm1 <- pool1
I0813 10:22:20.611274 26416 net.cpp:189] norm1 -> norm1
I0813 10:22:20.611280 26416 net.cpp:84] Top shape: 2 96 27 27 (139968)
I0813 10:22:20.611282 26416 net.cpp:116] norm1 does not need backward computation.
I0813 10:22:20.611286 26416 net.cpp:65] Creating Layer Rconv6
I0813 10:22:20.611289 26416 net.cpp:228] Rconv6 <- norm1
I0813 10:22:20.611294 26416 net.cpp:189] Rconv6 -> Rconv6
I0813 10:22:20.611862 26416 net.cpp:84] Top shape: 2 256 27 27 (373248)
I0813 10:22:20.611867 26416 net.cpp:116] Rconv6 does not need backward computation.
I0813 10:22:20.611871 26416 net.cpp:65] Creating Layer Rrelu6
I0813 10:22:20.611874 26416 net.cpp:228] Rrelu6 <- Rconv6
I0813 10:22:20.611878 26416 net.cpp:179] Rrelu6 -> Rconv6 (in-place)
I0813 10:22:20.611883 26416 net.cpp:84] Top shape: 2 256 27 27 (373248)
I0813 10:22:20.611886 26416 net.cpp:116] Rrelu6 does not need backward computation.
I0813 10:22:20.611891 26416 net.cpp:65] Creating Layer Rconv7
I0813 10:22:20.611893 26416 net.cpp:228] Rconv7 <- Rconv6
I0813 10:22:20.611897 26416 net.cpp:189] Rconv7 -> Rconv7
I0813 10:22:20.612653 26416 net.cpp:84] Top shape: 2 256 27 27 (373248)
I0813 10:22:20.612658 26416 net.cpp:116] Rconv7 does not need backward computation.
I0813 10:22:20.612660 26416 net.cpp:65] Creating Layer Rrelu7
I0813 10:22:20.612663 26416 net.cpp:228] Rrelu7 <- Rconv7
I0813 10:22:20.612668 26416 net.cpp:179] Rrelu7 -> Rconv7 (in-place)
I0813 10:22:20.612671 26416 net.cpp:84] Top shape: 2 256 27 27 (373248)
I0813 10:22:20.612673 26416 net.cpp:116] Rrelu7 does not need backward computation.
I0813 10:22:20.612678 26416 net.cpp:65] Creating Layer Rconv8
I0813 10:22:20.612679 26416 net.cpp:228] Rconv8 <- Rconv7
I0813 10:22:20.612684 26416 net.cpp:189] Rconv8 -> Rconv8
I0813 10:22:20.613390 26416 net.cpp:84] Top shape: 2 256 27 27 (373248)
I0813 10:22:20.613395 26416 net.cpp:116] Rconv8 does not need backward computation.
I0813 10:22:20.613399 26416 net.cpp:65] Creating Layer Rrelu8
I0813 10:22:20.613401 26416 net.cpp:228] Rrelu8 <- Rconv8
I0813 10:22:20.613405 26416 net.cpp:179] Rrelu8 -> Rconv8 (in-place)
I0813 10:22:20.613409 26416 net.cpp:84] Top shape: 2 256 27 27 (373248)
I0813 10:22:20.613412 26416 net.cpp:116] Rrelu8 does not need backward computation.
I0813 10:22:20.613423 26416 net.cpp:65] Creating Layer deconv2
I0813 10:22:20.613426 26416 net.cpp:228] deconv2 <- Rconv8
I0813 10:22:20.613430 26416 net.cpp:189] deconv2 -> deconv2
I0813 10:22:20.614408 26416 net.cpp:84] Top shape: 2 64 54 54 (373248)
I0813 10:22:20.614413 26416 net.cpp:116] deconv2 does not need backward computation.
I0813 10:22:20.614416 26416 net.cpp:65] Creating Layer relu_deconv2
I0813 10:22:20.614419 26416 net.cpp:228] relu_deconv2 <- deconv2
I0813 10:22:20.614423 26416 net.cpp:179] relu_deconv2 -> deconv2 (in-place)
I0813 10:22:20.614428 26416 net.cpp:84] Top shape: 2 64 54 54 (373248)
I0813 10:22:20.614431 26416 net.cpp:116] relu_deconv2 does not need backward computation.
I0813 10:22:20.614446 26416 net.cpp:65] Creating Layer deconv1
I0813 10:22:20.614449 26416 net.cpp:228] deconv1 <- deconv2
I0813 10:22:20.614454 26416 net.cpp:189] deconv1 -> deconv1
I0813 10:22:20.614593 26416 net.cpp:84] Top shape: 2 32 108 108 (746496)
I0813 10:22:20.614596 26416 net.cpp:116] deconv1 does not need backward computation.
I0813 10:22:20.614600 26416 net.cpp:65] Creating Layer relu_deconv1
I0813 10:22:20.614603 26416 net.cpp:228] relu_deconv1 <- deconv1
I0813 10:22:20.614608 26416 net.cpp:179] relu_deconv1 -> deconv1 (in-place)
I0813 10:22:20.614611 26416 net.cpp:84] Top shape: 2 32 108 108 (746496)
I0813 10:22:20.614614 26416 net.cpp:116] relu_deconv1 does not need backward computation.
I0813 10:22:20.614619 26416 net.cpp:65] Creating Layer deconv0
I0813 10:22:20.614621 26416 net.cpp:228] deconv0 <- deconv1
I0813 10:22:20.614625 26416 net.cpp:189] deconv0 -> deconv0
I0813 10:22:20.614642 26416 net.cpp:84] Top shape: 2 3 216 216 (279936)
I0813 10:22:20.614645 26416 net.cpp:116] deconv0 does not need backward computation.
I0813 10:22:20.614648 26416 net.cpp:65] Creating Layer loss
I0813 10:22:20.614651 26416 net.cpp:228] loss <- deconv0
I0813 10:22:20.614655 26416 net.cpp:228] loss <- target_ims
I0813 10:22:20.614660 26416 net.cpp:116] loss does not need backward computation.
I0813 10:22:20.614671 26416 net.cpp:238] Collecting Learning Rate and Weight Decay.
…
