…
  type: DATA
  data_param {
    source: "/scr/r6/tgebru/inverting_conv/caffe_invert_alexnet/data/siggraph/summer_train_227lmdb"
    mean_file: "/scr/r6/tgebru/timnit_caffe/data/ilsvrc12/imagenet_mean227.binaryproto"
    batch_size: 12
    mirror: false
    backend: LMDB
  }
}
layers {
  top: "target_ims"
  name: "target_ims"
  type: DATA
  data_param {
    source: "/scr/r6/tgebru/inverting_conv/caffe_invert_alexnet/data/siggraph/winter_train_216lmdb"
    mean_file: "/scr/r6/tgebru/timnit_caffe/data/ilsvrc12/imagenet_mean216.binaryproto"
    batch_size: 12
    mirror: false
    backend: LMDB
  }
}
layers {
  bottom: "source_ims"
  top: "conv1"
  name: "conv1"
  type: CONVOLUTION
  blobs_lr: 0
  blobs_lr: 0
  weight_decay: 1
  weight_decay: 0
  convolution_param {
    num_output: 96
    kernel_size: 11
    stride: 4
    weight_filler {
      type: "gaussian"
      std: 0.01
    }
    bias_filler {
      type: "constant"
      value: 0
    }
  }
}
layers {
  bottom: "conv1"
  top: "conv1"
  name: "relu1"
  type: RELU
}
layers {
  bottom: "conv1"
  top: "pool1"
  name: "pool1"
  type: POOLING
  pooling_param {
    pool: MAX
    kernel_size: 3
    stride: 2
  }
}
layers {
  bottom: "pool1"
  top: "norm1"
  name: "norm1"
  type: LRN
  lrn_param {
    local_size: 5
    alpha: 0.0001
    beta: 0.75
  }
}
layers {
  bottom: "norm1"
  top: "Rconv6"
  name: "Rconv6"
  type: CONVOLUTION
  blobs_lr: 1
  blobs_lr: 2
  weight_decay: 1
  weight_decay: 0
  convolution_param {
    num_output: 256
    pad: 1
    kernel_size: 3
  }
}
layers {
  bottom: "Rconv6"
  top: "Rconv6"
  name: "Rrelu6"
  type: RELU
}
layers {
  bottom: "Rconv6"
  top: "Rconv7"
  name: "Rconv7"
  type: CONVOLUTION
  blobs_lr: 1
  blobs_lr: 2
  weight_decay: 1
  weight_decay: 0
  convolution_param {
    num_output: 256
    pad: 1
    kernel_size: 3
    group: 2
  }
}
layers {
  bottom: "Rconv7"
  top: "Rconv7"
  name: "Rrelu7"
  type: RELU
}
layers {
  bottom: "Rconv7"
  top: "Rconv8"
  name: "Rconv8"
  type: CONVOLUTION
  blobs_lr: 1
  blobs_lr: 2
  weight_decay: 1
  weight_decay: 0
  convolution_param {
    num_output: 256
    pad: 1
    kernel_size: 3
    group: 2
  }
}
layers {
  bottom: "Rconv8"
  top: "Rconv8"
  name: "Rrelu8"
  type: RELU
}
layers {
  bottom: "Rconv8"
  top: "deconv2"
  name: "deconv2"
  type: DECONVOLUTION
  blobs_lr: 1
  blobs_lr: 2
  weight_decay: 1
  weight_decay: 0
  deconvolution_param {
    pad: 2
    kernel_size: 5
    stride: 2
    output_height: 54
    output_width: 54
    output_channels: 64
  }
}
layers {
  bottom: "deconv2"
  top: "deconv2"
  name: "relu_deconv2"
  type: RELU
  relu_param {
    negative_slope: 0.3
  }
}
layers {
  bottom: "deconv2"
  top: "deconv1"
  name: "deconv1"
  type: DECONVOLUTION
  blobs_lr: 1
  blobs_lr: 2
  weight_decay: 1
  weight_decay: 0
  deconvolution_param {
    pad: 2
    kernel_size: 5
    stride: 2
    output_height: 108
    output_width: 108
    output_channels: 32
  }
}
layers {
  bottom: "deconv1"
  top: "deconv1"
  name: "relu_deconv1"
  type: RELU
  relu_param {
    negative_slope: 0.3
  }
}
layers {
  bottom: "deconv1"
  top: "deconv0"
  name: "deconv0"
  type: DECONVOLUTION
  blobs_lr: 1
  blobs_lr: 2
  weight_decay: 1
  weight_decay: 1
  deconvolution_param {
    pad: 2
    kernel_size: 5
    stride: 2
    output_height: 216
    output_width: 216
    output_channels: 3
  }
}
layers {
  bottom: "deconv0"
  bottom: "target_ims"
  name: "loss"
  type: EUCLIDEAN_LOSS
}
I0824 21:43:20.479346 26881 net.cpp:65] Creating Layer source_ims
I0824 21:43:20.479356 26881 net.cpp:189] source_ims -> source_ims
I0824 21:43:20.479466 26881 data_layer.cpp:223] Opening lmdb /scr/r6/tgebru/inverting_conv/caffe_invert_alexnet/data/siggraph/summer_train_227lmdb
I0824 21:43:20.479656 26881 data_layer.cpp:285] output data size: 12,3,227,227
I0824 21:43:20.479663 26881 data_layer.cpp:304] Loading mean file from/scr/r6/tgebru/timnit_caffe/data/ilsvrc12/imagenet_mean227.binaryproto
I0824 21:43:20.484210 26881 net.cpp:84] Top shape: 12 3 227 227 (1855044)
I0824 21:43:20.484218 26881 net.cpp:116] source_ims does not need backward computation.
I0824 21:43:20.484225 26881 net.cpp:65] Creating Layer target_ims
I0824 21:43:20.484228 26881 net.cpp:189] target_ims -> target_ims
I0824 21:43:20.484400 26881 data_layer.cpp:223] Opening lmdb /scr/r6/tgebru/inverting_conv/caffe_invert_alexnet/data/siggraph/winter_train_216lmdb
I0824 21:43:20.484501 26881 data_layer.cpp:285] output data size: 12,3,216,216
I0824 21:43:20.484506 26881 data_layer.cpp:304] Loading mean file from/scr/r6/tgebru/timnit_caffe/data/ilsvrc12/imagenet_mean216.binaryproto
I0824 21:43:20.488796 26881 net.cpp:84] Top shape: 12 3 216 216 (1679616)
I0824 21:43:20.488804 26881 net.cpp:116] target_ims does not need backward computation.
I0824 21:43:20.488816 26881 net.cpp:65] Creating Layer conv1
I0824 21:43:20.488821 26881 net.cpp:228] conv1 <- source_ims
I0824 21:43:20.488886 26881 net.cpp:189] conv1 -> conv1
I0824 21:43:20.490198 26881 net.cpp:84] Top shape: 12 96 55 55 (3484800)
I0824 21:43:20.490206 26881 net.cpp:116] conv1 does not need backward computation.
I0824 21:43:20.490211 26881 net.cpp:65] Creating Layer relu1
I0824 21:43:20.490214 26881 net.cpp:228] relu1 <- conv1
I0824 21:43:20.490218 26881 net.cpp:179] relu1 -> conv1 (in-place)
I0824 21:43:20.490227 26881 net.cpp:84] Top shape: 12 96 55 55 (3484800)
I0824 21:43:20.490231 26881 net.cpp:116] relu1 does not need backward computation.
I0824 21:43:20.490236 26881 net.cpp:65] Creating Layer pool1
I0824 21:43:20.490238 26881 net.cpp:228] pool1 <- conv1
I0824 21:43:20.490243 26881 net.cpp:189] pool1 -> pool1
I0824 21:43:20.490254 26881 net.cpp:84] Top shape: 12 96 27 27 (839808)
I0824 21:43:20.490257 26881 net.cpp:116] pool1 does not need backward computation.
I0824 21:43:20.490263 26881 net.cpp:65] Creating Layer norm1
I0824 21:43:20.490265 26881 net.cpp:228] norm1 <- pool1
I0824 21:43:20.490269 26881 net.cpp:189] norm1 -> norm1
I0824 21:43:20.490278 26881 net.cpp:84] Top shape: 12 96 27 27 (839808)
I0824 21:43:20.490281 26881 net.cpp:116] norm1 does not need backward computation.
I0824 21:43:20.490285 26881 net.cpp:65] Creating Layer Rconv6
I0824 21:43:20.490288 26881 net.cpp:228] Rconv6 <- norm1
I0824 21:43:20.490293 26881 net.cpp:189] Rconv6 -> Rconv6
I0824 21:43:20.490588 26881 net.cpp:84] Top shape: 12 256 27 27 (2239488)
I0824 21:43:20.490592 26881 net.cpp:111] Rconv6 needs backward computation.
I0824 21:43:20.490597 26881 net.cpp:65] Creating Layer Rrelu6
I0824 21:43:20.490600 26881 net.cpp:228] Rrelu6 <- Rconv6
I0824 21:43:20.490605 26881 net.cpp:179] Rrelu6 -> Rconv6 (in-place)
I0824 21:43:20.490609 26881 net.cpp:84] Top shape: 12 256 27 27 (2239488)
I0824 21:43:20.490612 26881 net.cpp:111] Rrelu6 needs backward computation.
I0824 21:43:20.490617 26881 net.cpp:65] Creating Layer Rconv7
I0824 21:43:20.490620 26881 net.cpp:228] Rconv7 <- Rconv6
I0824 21:43:20.490624 26881 net.cpp:189] Rconv7 -> Rconv7
I0824 21:43:20.491430 26881 net.cpp:84] Top shape: 12 256 27 27 (2239488)
I0824 21:43:20.491436 26881 net.cpp:111] Rconv7 needs backward computation.
I0824 21:43:20.491441 26881 net.cpp:65] Creating Layer Rrelu7
I0824 21:43:20.491464 26881 net.cpp:228] Rrelu7 <- Rconv7
I0824 21:43:20.491468 26881 net.cpp:179] Rrelu7 -> Rconv7 (in-place)
I0824 21:43:20.491473 26881 net.cpp:84] Top shape: 12 256 27 27 (2239488)
I0824 21:43:20.491477 26881 net.cpp:111] Rrelu7 needs backward computation.
I0824 21:43:20.491480 26881 net.cpp:65] Creating Layer Rconv8
I0824 21:43:20.491482 26881 net.cpp:228] Rconv8 <- Rconv7
I0824 21:43:20.491488 26881 net.cpp:189] Rconv8 -> Rconv8
I0824 21:43:20.492328 26881 net.cpp:84] Top shape: 12 256 27 27 (2239488)
I0824 21:43:20.492333 26881 net.cpp:111] Rconv8 needs backward computation.
I0824 21:43:20.492337 26881 net.cpp:65] Creating Layer Rrelu8
I0824 21:43:20.492341 26881 net.cpp:228] Rrelu8 <- Rconv8
I0824 21:43:20.492343 26881 net.cpp:179] Rrelu8 -> Rconv8 (in-place)
I0824 21:43:20.492347 26881 net.cpp:84] Top shape: 12 256 27 27 (2239488)
I0824 21:43:20.492350 26881 net.cpp:111] Rrelu8 needs backward computation.
I0824 21:43:20.492357 26881 net.cpp:65] Creating Layer deconv2
I0824 21:43:20.492360 26881 net.cpp:228] deconv2 <- Rconv8
I0824 21:43:20.492364 26881 net.cpp:189] deconv2 -> deconv2
I0824 21:43:20.493633 26881 net.cpp:84] Top shape: 12 64 54 54 (2239488)
I0824 21:43:20.493638 26881 net.cpp:111] deconv2 needs backward computation.
I0824 21:43:20.493641 26881 net.cpp:65] Creating Layer relu_deconv2
I0824 21:43:20.493648 26881 net.cpp:228] relu_deconv2 <- deconv2
I0824 21:43:20.493652 26881 net.cpp:179] relu_deconv2 -> deconv2 (in-place)
I0824 21:43:20.493656 26881 net.cpp:84] Top shape: 12 64 54 54 (2239488)
I0824 21:43:20.493659 26881 net.cpp:111] relu_deconv2 needs backward computation.
I0824 21:43:20.493664 26881 net.cpp:65] Creating Layer deconv1
I0824 21:43:20.493666 26881 net.cpp:228] deconv1 <- deconv2
I0824 21:43:20.493669 26881 net.cpp:189] deconv1 -> deconv1
I0824 21:43:20.493840 26881 net.cpp:84] Top shape: 12 32 108 108 (4478976)
I0824 21:43:20.493845 26881 net.cpp:111] deconv1 needs backward computation.
I0824 21:43:20.493852 26881 net.cpp:65] Creating Layer relu_deconv1
I0824 21:43:20.493855 26881 net.cpp:228] relu_deconv1 <- deconv1
I0824 21:43:20.493860 26881 net.cpp:179] relu_deconv1 -> deconv1 (in-place)
I0824 21:43:20.493863 26881 net.cpp:84] Top shape: 12 32 108 108 (4478976)
I0824 21:43:20.493865 26881 net.cpp:111] relu_deconv1 needs backward computation.
I0824 21:43:20.493875 26881 net.cpp:65] Creating Layer deconv0
I0824 21:43:20.493876 26881 net.cpp:228] deconv0 <- deconv1
I0824 21:43:20.493881 26881 net.cpp:189] deconv0 -> deconv0
I0824 21:43:20.493929 26881 net.cpp:84] Top shape: 12 3 216 216 (1679616)
I0824 21:43:20.493933 26881 net.cpp:111] deconv0 needs backward computation.
I0824 21:43:20.493937 26881 net.cpp:65] Creating Layer loss
I0824 21:43:20.493939 26881 net.cpp:228] loss <- deconv0
I0824 21:43:20.493942 26881 net.cpp:228] loss <- target_ims
I0824 21:43:20.493950 26881 net.cpp:111] loss needs backward computation.
I0824 21:43:20.493965 26881 net.cpp:238] Collecting Learning Rate and Weight Decay.
…
  type: DATA
  data_param {
    source: "/scr/r6/tgebru/inverting_conv/caffe_invert_alexnet/data/siggraph/summer_val_227lmdb"
    mean_file: "/scr/r6/tgebru/timnit_caffe/data/ilsvrc12/imagenet_mean227.binaryproto"
    batch_size: 64
    mirror: false
    backend: LMDB
  }
}
layers {
  top: "target_ims"
  name: "target_ims"
  type: DATA
  data_param {
    source: "/scr/r6/tgebru/inverting_conv/caffe_invert_alexnet/data/siggraph/winter_val_216lmdb"
    mean_file: "/scr/r6/tgebru/timnit_caffe/data/ilsvrc12/imagenet_mean216.binaryproto"
    batch_size: 64
    mirror: false
    backend: LMDB
  }
}
layers {
  bottom: "source_ims"
  top: "conv1"
  name: "conv1"
  type: CONVOLUTION
  blobs_lr: 0
  blobs_lr: 0
  weight_decay: 1
  weight_decay: 0
  convolution_param {
    num_output: 96
    kernel_size: 11
    stride: 4
    weight_filler {
      type: "gaussian"
      std: 0.01
    }
    bias_filler {
      type: "constant"
      value: 0
    }
  }
}
layers {
  bottom: "conv1"
  top: "conv1"
  name: "relu1"
  type: RELU
}
layers {
  bottom: "conv1"
  top: "pool1"
  name: "pool1"
  type: POOLING
  pooling_param {
    pool: MAX
    kernel_size: 3
    stride: 2
  }
}
layers {
  bottom: "pool1"
  top: "norm1"
  name: "norm1"
  type: LRN
  lrn_param {
    local_size: 5
    alpha: 0.0001
    beta: 0.75
  }
}
layers {
  bottom: "norm1"
  top: "Rconv6"
  name: "Rconv6"
  type: CONVOLUTION
  blobs_lr: 0
  blobs_lr: 0
  weight_decay: 1
  weight_decay: 0
  convolution_param {
    num_output: 256
    pad: 1
    kernel_size: 3
  }
}
layers {
  bottom: "Rconv6"
  top: "Rconv6"
  name: "Rrelu6"
  type: RELU
}
layers {
  bottom: "Rconv6"
  top: "Rconv7"
  name: "Rconv7"
  type: CONVOLUTION
  blobs_lr: 0
  blobs_lr: 0
  weight_decay: 1
  weight_decay: 0
  convolution_param {
    num_output: 256
    pad: 1
    kernel_size: 3
    group: 2
  }
}
layers {
  bottom: "Rconv7"
  top: "Rconv7"
  name: "Rrelu7"
  type: RELU
}
layers {
  bottom: "Rconv7"
  top: "Rconv8"
  name: "Rconv8"
  type: CONVOLUTION
  blobs_lr: 0
  blobs_lr: 0
  weight_decay: 1
  weight_decay: 0
  convolution_param {
    num_output: 256
    pad: 1
    kernel_size: 3
    group: 2
  }
}
layers {
  bottom: "Rconv8"
  top: "Rconv8"
  name: "Rrelu8"
  type: RELU
}
layers {
  bottom: "Rconv8"
  top: "deconv2"
  name: "deconv2"
  type: DECONVOLUTION
  blobs_lr: 0
  blobs_lr: 0
  weight_decay: 1
  weight_decay: 0
  deconvolution_param {
    pad: 2
    kernel_size: 5
    stride: 2
    output_height: 54
    output_width: 54
    output_channels: 64
  }
}
layers {
  bottom: "deconv2"
  top: "deconv2"
  name: "relu_deconv2"
  type: RELU
  relu_param {
    negative_slope: 0.3
  }
}
layers {
  bottom: "deconv2"
  top: "deconv1"
  name: "deconv1"
  type: DECONVOLUTION
  blobs_lr: 0
  blobs_lr: 0
  weight_decay: 1
  weight_decay: 0
  deconvolution_param {
    pad: 2
    kernel_size: 5
    stride: 2
    output_height: 108
    output_width: 108
    output_channels: 32
  }
}
layers {
  bottom: "deconv1"
  top: "deconv1"
  name: "relu_deconv1"
  type: RELU
  relu_param {
    negative_slope: 0.3
  }
}
layers {
  bottom: "deconv1"
  top: "deconv0"
  name: "deconv0"
  type: DECONVOLUTION
  blobs_lr: 0
  blobs_lr: 0
  weight_decay: 1
  weight_decay: 0
  deconvolution_param {
    pad: 2
    kernel_size: 5
    stride: 2
    output_height: 216
    output_width: 216
    output_channels: 3
  }
}
layers {
  bottom: "deconv0"
  bottom: "target_ims"
  name: "loss"
  type: EUCLIDEAN_LOSS
}
I0824 21:43:20.494704 26881 net.cpp:65] Creating Layer source_ims
I0824 21:43:20.494709 26881 net.cpp:189] source_ims -> source_ims
I0824 21:43:20.494784 26881 data_layer.cpp:223] Opening lmdb /scr/r6/tgebru/inverting_conv/caffe_invert_alexnet/data/siggraph/summer_val_227lmdb
I0824 21:43:20.494971 26881 data_layer.cpp:285] output data size: 64,3,227,227
I0824 21:43:20.494976 26881 data_layer.cpp:304] Loading mean file from/scr/r6/tgebru/timnit_caffe/data/ilsvrc12/imagenet_mean227.binaryproto
I0824 21:43:20.510516 26881 net.cpp:84] Top shape: 64 3 227 227 (9893568)
I0824 21:43:20.510534 26881 net.cpp:116] source_ims does not need backward computation.
I0824 21:43:20.510545 26881 net.cpp:65] Creating Layer target_ims
I0824 21:43:20.510550 26881 net.cpp:189] target_ims -> target_ims
I0824 21:43:20.510675 26881 data_layer.cpp:223] Opening lmdb /scr/r6/tgebru/inverting_conv/caffe_invert_alexnet/data/siggraph/winter_val_216lmdb
I0824 21:43:20.510808 26881 data_layer.cpp:285] output data size: 64,3,216,216
I0824 21:43:20.510813 26881 data_layer.cpp:304] Loading mean file from/scr/r6/tgebru/timnit_caffe/data/ilsvrc12/imagenet_mean216.binaryproto
I0824 21:43:20.524262 26881 net.cpp:84] Top shape: 64 3 216 216 (8957952)
I0824 21:43:20.524317 26881 net.cpp:116] target_ims does not need backward computation.
I0824 21:43:20.524334 26881 net.cpp:65] Creating Layer conv1
I0824 21:43:20.524340 26881 net.cpp:228] conv1 <- source_ims
I0824 21:43:20.524350 26881 net.cpp:189] conv1 -> conv1
I0824 21:43:20.525670 26881 net.cpp:84] Top shape: 64 96 55 55 (18585600)
I0824 21:43:20.525673 26881 net.cpp:116] conv1 does not need backward computation.
I0824 21:43:20.525678 26881 net.cpp:65] Creating Layer relu1
I0824 21:43:20.525681 26881 net.cpp:228] relu1 <- conv1
I0824 21:43:20.525686 26881 net.cpp:179] relu1 -> conv1 (in-place)
I0824 21:43:20.525691 26881 net.cpp:84] Top shape: 64 96 55 55 (18585600)
I0824 21:43:20.525693 26881 net.cpp:116] relu1 does not need backward computation.
I0824 21:43:20.525699 26881 net.cpp:65] Creating Layer pool1
I0824 21:43:20.525702 26881 net.cpp:228] pool1 <- conv1
I0824 21:43:20.525707 26881 net.cpp:189] pool1 -> pool1
I0824 21:43:20.525714 26881 net.cpp:84] Top shape: 64 96 27 27 (4478976)
I0824 21:43:20.525717 26881 net.cpp:116] pool1 does not need backward computation.
I0824 21:43:20.525723 26881 net.cpp:65] Creating Layer norm1
I0824 21:43:20.525727 26881 net.cpp:228] norm1 <- pool1
I0824 21:43:20.525730 26881 net.cpp:189] norm1 -> norm1
I0824 21:43:20.525737 26881 net.cpp:84] Top shape: 64 96 27 27 (4478976)
I0824 21:43:20.525738 26881 net.cpp:116] norm1 does not need backward computation.
I0824 21:43:20.525743 26881 net.cpp:65] Creating Layer Rconv6
I0824 21:43:20.525745 26881 net.cpp:228] Rconv6 <- norm1
I0824 21:43:20.525750 26881 net.cpp:189] Rconv6 -> Rconv6
I0824 21:43:20.526168 26881 net.cpp:84] Top shape: 64 256 27 27 (11943936)
I0824 21:43:20.526172 26881 net.cpp:116] Rconv6 does not need backward computation.
I0824 21:43:20.526177 26881 net.cpp:65] Creating Layer Rrelu6
I0824 21:43:20.526180 26881 net.cpp:228] Rrelu6 <- Rconv6
I0824 21:43:20.526185 26881 net.cpp:179] Rrelu6 -> Rconv6 (in-place)
I0824 21:43:20.526190 26881 net.cpp:84] Top shape: 64 256 27 27 (11943936)
I0824 21:43:20.526193 26881 net.cpp:116] Rrelu6 does not need backward computation.
I0824 21:43:20.526199 26881 net.cpp:65] Creating Layer Rconv7
I0824 21:43:20.526201 26881 net.cpp:228] Rconv7 <- Rconv6
I0824 21:43:20.526206 26881 net.cpp:189] Rconv7 -> Rconv7
I0824 21:43:20.527067 26881 net.cpp:84] Top shape: 64 256 27 27 (11943936)
I0824 21:43:20.527072 26881 net.cpp:116] Rconv7 does not need backward computation.
I0824 21:43:20.527076 26881 net.cpp:65] Creating Layer Rrelu7
I0824 21:43:20.527078 26881 net.cpp:228] Rrelu7 <- Rconv7
I0824 21:43:20.527082 26881 net.cpp:179] Rrelu7 -> Rconv7 (in-place)
I0824 21:43:20.527086 26881 net.cpp:84] Top shape: 64 256 27 27 (11943936)
I0824 21:43:20.527089 26881 net.cpp:116] Rrelu7 does not need backward computation.
I0824 21:43:20.527096 26881 net.cpp:65] Creating Layer Rconv8
I0824 21:43:20.527099 26881 net.cpp:228] Rconv8 <- Rconv7
I0824 21:43:20.527103 26881 net.cpp:189] Rconv8 -> Rconv8
I0824 21:43:20.528012 26881 net.cpp:84] Top shape: 64 256 27 27 (11943936)
I0824 21:43:20.528017 26881 net.cpp:116] Rconv8 does not need backward computation.
I0824 21:43:20.528023 26881 net.cpp:65] Creating Layer Rrelu8
I0824 21:43:20.528025 26881 net.cpp:228] Rrelu8 <- Rconv8
I0824 21:43:20.528031 26881 net.cpp:179] Rrelu8 -> Rconv8 (in-place)
I0824 21:43:20.528036 26881 net.cpp:84] Top shape: 64 256 27 27 (11943936)
I0824 21:43:20.528039 26881 net.cpp:116] Rrelu8 does not need backward computation.
I0824 21:43:20.528046 26881 net.cpp:65] Creating Layer deconv2
I0824 21:43:20.528048 26881 net.cpp:228] deconv2 <- Rconv8
I0824 21:43:20.528051 26881 net.cpp:189] deconv2 -> deconv2
I0824 21:43:20.529294 26881 net.cpp:84] Top shape: 64 64 54 54 (11943936)
I0824 21:43:20.529304 26881 net.cpp:116] deconv2 does not need backward computation.
I0824 21:43:20.529310 26881 net.cpp:65] Creating Layer relu_deconv2
I0824 21:43:20.529314 26881 net.cpp:228] relu_deconv2 <- deconv2
I0824 21:43:20.529316 26881 net.cpp:179] relu_deconv2 -> deconv2 (in-place)
I0824 21:43:20.529321 26881 net.cpp:84] Top shape: 64 64 54 54 (11943936)
I0824 21:43:20.529336 26881 net.cpp:116] relu_deconv2 does not need backward computation.
I0824 21:43:20.529342 26881 net.cpp:65] Creating Layer deconv1
I0824 21:43:20.529345 26881 net.cpp:228] deconv1 <- deconv2
I0824 21:43:20.529352 26881 net.cpp:189] deconv1 -> deconv1
I0824 21:43:20.529532 26881 net.cpp:84] Top shape: 64 32 108 108 (23887872)
I0824 21:43:20.529536 26881 net.cpp:116] deconv1 does not need backward computation.
I0824 21:43:20.529542 26881 net.cpp:65] Creating Layer relu_deconv1
I0824 21:43:20.529544 26881 net.cpp:228] relu_deconv1 <- deconv1
I0824 21:43:20.529548 26881 net.cpp:179] relu_deconv1 -> deconv1 (in-place)
I0824 21:43:20.529552 26881 net.cpp:84] Top shape: 64 32 108 108 (23887872)
I0824 21:43:20.529556 26881 net.cpp:116] relu_deconv1 does not need backward computation.
I0824 21:43:20.529564 26881 net.cpp:65] Creating Layer deconv0
I0824 21:43:20.529567 26881 net.cpp:228] deconv0 <- deconv1
I0824 21:43:20.529570 26881 net.cpp:189] deconv0 -> deconv0
I0824 21:43:20.529620 26881 net.cpp:84] Top shape: 64 3 216 216 (8957952)
I0824 21:43:20.529623 26881 net.cpp:116] deconv0 does not need backward computation.
I0824 21:43:20.529628 26881 net.cpp:65] Creating Layer loss
I0824 21:43:20.529630 26881 net.cpp:228] loss <- deconv0
I0824 21:43:20.529633 26881 net.cpp:228] loss <- target_ims
I0824 21:43:20.529638 26881 net.cpp:116] loss does not need backward computation.
I0824 21:43:20.529652 26881 net.cpp:238] Collecting Learning Rate and Weight Decay.
…
