…
    source: "/scr/r6/tgebru/inverting_conv/caffe_invert_alexnet/data/siggraph/tiny_winter_train_lmdb"
    mean_file: "/scr/r6/tgebru/timnit_caffe/data/ilsvrc12/imagenet_mean.binaryproto"
    batch_size: 12
    crop_size: 227
    mirror: false
    backend: LMDB
  }
}
layers {
  top: "target_ims"
  name: "target_ims"
  type: DATA
  data_param {
    source: "/scr/r6/tgebru/inverting_conv/caffe_invert_alexnet/data/siggraph/tiny_summer_train_lmdb"
    mean_file: "/scr/r6/tgebru/timnit_caffe/data/ilsvrc12/imagenet_mean.binaryproto"
    batch_size: 12
    crop_size: 216
    mirror: false
    backend: LMDB
  }
}
layers {
  bottom: "source_ims"
  top: "conv1"
  name: "conv1"
  type: CONVOLUTION
  blobs_lr: 0
  blobs_lr: 0
  weight_decay: 1
  weight_decay: 0
  convolution_param {
    num_output: 96
    kernel_size: 11
    stride: 4
    weight_filler {
      type: "gaussian"
      std: 0.01
    }
    bias_filler {
      type: "constant"
      value: 0
    }
  }
}
layers {
  bottom: "conv1"
  top: "conv1"
  name: "relu1"
  type: RELU
}
layers {
  bottom: "conv1"
  top: "pool1"
  name: "pool1"
  type: POOLING
  pooling_param {
    pool: MAX
    kernel_size: 3
    stride: 2
  }
}
layers {
  bottom: "pool1"
  top: "norm1"
  name: "norm1"
  type: LRN
  lrn_param {
    local_size: 5
    alpha: 0.0001
    beta: 0.75
  }
}
layers {
  bottom: "norm1"
  top: "Rconv6"
  name: "Rconv6"
  type: CONVOLUTION
  blobs_lr: 1
  blobs_lr: 2
  weight_decay: 1
  weight_decay: 0
  convolution_param {
    num_output: 256
    pad: 1
    kernel_size: 3
  }
}
layers {
  bottom: "Rconv6"
  top: "Rconv6"
  name: "Rrelu6"
  type: RELU
}
layers {
  bottom: "Rconv6"
  top: "Rconv7"
  name: "Rconv7"
  type: CONVOLUTION
  blobs_lr: 1
  blobs_lr: 2
  weight_decay: 1
  weight_decay: 0
  convolution_param {
    num_output: 256
    pad: 1
    kernel_size: 3
    group: 2
  }
}
layers {
  bottom: "Rconv7"
  top: "Rconv7"
  name: "Rrelu7"
  type: RELU
}
layers {
  bottom: "Rconv7"
  top: "Rconv8"
  name: "Rconv8"
  type: CONVOLUTION
  blobs_lr: 1
  blobs_lr: 2
  weight_decay: 1
  weight_decay: 0
  convolution_param {
    num_output: 256
    pad: 1
    kernel_size: 3
    group: 2
  }
}
layers {
  bottom: "Rconv8"
  top: "Rconv8"
  name: "Rrelu8"
  type: RELU
}
layers {
  bottom: "Rconv8"
  top: "deconv2"
  name: "deconv2"
  type: DECONVOLUTION
  blobs_lr: 1
  blobs_lr: 2
  weight_decay: 1
  weight_decay: 0
  deconvolution_param {
    pad: 2
    kernel_size: 5
    stride: 2
    output_height: 54
    output_width: 54
    output_channels: 64
  }
}
layers {
  bottom: "deconv2"
  top: "deconv2"
  name: "relu_deconv2"
  type: RELU
  relu_param {
    negative_slope: 0.3
  }
}
layers {
  bottom: "deconv2"
  top: "deconv1"
  name: "deconv1"
  type: DECONVOLUTION
  blobs_lr: 1
  blobs_lr: 2
  weight_decay: 1
  weight_decay: 0
  deconvolution_param {
    pad: 2
    kernel_size: 5
    stride: 2
    output_height: 108
    output_width: 108
    output_channels: 32
  }
}
layers {
  bottom: "deconv1"
  top: "deconv1"
  name: "relu_deconv1"
  type: RELU
  relu_param {
    negative_slope: 0.3
  }
}
layers {
  bottom: "deconv1"
  top: "deconv0"
  name: "deconv0"
  type: DECONVOLUTION
  blobs_lr: 1
  blobs_lr: 2
  weight_decay: 1
  weight_decay: 1
  deconvolution_param {
    pad: 2
    kernel_size: 5
    stride: 2
    output_height: 216
    output_width: 216
    output_channels: 3
  }
}
layers {
  bottom: "deconv0"
  bottom: "target_ims"
  name: "loss"
  type: EUCLIDEAN_LOSS
}
I0812 18:09:04.575827 15152 net.cpp:65] Creating Layer source_ims
I0812 18:09:04.575837 15152 net.cpp:189] source_ims -> source_ims
I0812 18:09:04.575954 15152 data_layer.cpp:223] Opening lmdb /scr/r6/tgebru/inverting_conv/caffe_invert_alexnet/data/siggraph/tiny_winter_train_lmdb
I0812 18:09:04.576159 15152 data_layer.cpp:285] output data size: 12,3,227,227
I0812 18:09:04.576166 15152 data_layer.cpp:304] Loading mean file from/scr/r6/tgebru/timnit_caffe/data/ilsvrc12/imagenet_mean.binaryproto
I0812 18:09:04.580677 15152 net.cpp:84] Top shape: 12 3 227 227 (1855044)
I0812 18:09:04.580687 15152 net.cpp:116] source_ims does not need backward computation.
I0812 18:09:04.580695 15152 net.cpp:65] Creating Layer target_ims
I0812 18:09:04.580699 15152 net.cpp:189] target_ims -> target_ims
I0812 18:09:04.580862 15152 data_layer.cpp:223] Opening lmdb /scr/r6/tgebru/inverting_conv/caffe_invert_alexnet/data/siggraph/tiny_summer_train_lmdb
I0812 18:09:04.581002 15152 data_layer.cpp:285] output data size: 12,3,216,216
I0812 18:09:04.581007 15152 data_layer.cpp:304] Loading mean file from/scr/r6/tgebru/timnit_caffe/data/ilsvrc12/imagenet_mean.binaryproto
I0812 18:09:04.585523 15152 net.cpp:84] Top shape: 12 3 216 216 (1679616)
I0812 18:09:04.585532 15152 net.cpp:116] target_ims does not need backward computation.
I0812 18:09:04.585543 15152 net.cpp:65] Creating Layer conv1
I0812 18:09:04.585547 15152 net.cpp:228] conv1 <- source_ims
I0812 18:09:04.585656 15152 net.cpp:189] conv1 -> conv1
I0812 18:09:04.587137 15152 net.cpp:84] Top shape: 12 96 55 55 (3484800)
I0812 18:09:04.587144 15152 net.cpp:116] conv1 does not need backward computation.
I0812 18:09:04.587148 15152 net.cpp:65] Creating Layer relu1
I0812 18:09:04.587152 15152 net.cpp:228] relu1 <- conv1
I0812 18:09:04.587157 15152 net.cpp:179] relu1 -> conv1 (in-place)
I0812 18:09:04.587165 15152 net.cpp:84] Top shape: 12 96 55 55 (3484800)
I0812 18:09:04.587168 15152 net.cpp:116] relu1 does not need backward computation.
I0812 18:09:04.587174 15152 net.cpp:65] Creating Layer pool1
I0812 18:09:04.587177 15152 net.cpp:228] pool1 <- conv1
I0812 18:09:04.587180 15152 net.cpp:189] pool1 -> pool1
I0812 18:09:04.587193 15152 net.cpp:84] Top shape: 12 96 27 27 (839808)
I0812 18:09:04.587196 15152 net.cpp:116] pool1 does not need backward computation.
I0812 18:09:04.587201 15152 net.cpp:65] Creating Layer norm1
I0812 18:09:04.587204 15152 net.cpp:228] norm1 <- pool1
I0812 18:09:04.587208 15152 net.cpp:189] norm1 -> norm1
I0812 18:09:04.587218 15152 net.cpp:84] Top shape: 12 96 27 27 (839808)
I0812 18:09:04.587220 15152 net.cpp:116] norm1 does not need backward computation.
I0812 18:09:04.587224 15152 net.cpp:65] Creating Layer Rconv6
I0812 18:09:04.587226 15152 net.cpp:228] Rconv6 <- norm1
I0812 18:09:04.587230 15152 net.cpp:189] Rconv6 -> Rconv6
I0812 18:09:04.587502 15152 net.cpp:84] Top shape: 12 256 27 27 (2239488)
I0812 18:09:04.587507 15152 net.cpp:111] Rconv6 needs backward computation.
I0812 18:09:04.587512 15152 net.cpp:65] Creating Layer Rrelu6
I0812 18:09:04.587514 15152 net.cpp:228] Rrelu6 <- Rconv6
I0812 18:09:04.587518 15152 net.cpp:179] Rrelu6 -> Rconv6 (in-place)
I0812 18:09:04.587522 15152 net.cpp:84] Top shape: 12 256 27 27 (2239488)
I0812 18:09:04.587525 15152 net.cpp:111] Rrelu6 needs backward computation.
I0812 18:09:04.587530 15152 net.cpp:65] Creating Layer Rconv7
I0812 18:09:04.587533 15152 net.cpp:228] Rconv7 <- Rconv6
I0812 18:09:04.587538 15152 net.cpp:189] Rconv7 -> Rconv7
I0812 18:09:04.588263 15152 net.cpp:84] Top shape: 12 256 27 27 (2239488)
I0812 18:09:04.588268 15152 net.cpp:111] Rconv7 needs backward computation.
I0812 18:09:04.588271 15152 net.cpp:65] Creating Layer Rrelu7
I0812 18:09:04.588295 15152 net.cpp:228] Rrelu7 <- Rconv7
I0812 18:09:04.588300 15152 net.cpp:179] Rrelu7 -> Rconv7 (in-place)
I0812 18:09:04.588305 15152 net.cpp:84] Top shape: 12 256 27 27 (2239488)
I0812 18:09:04.588307 15152 net.cpp:111] Rrelu7 needs backward computation.
I0812 18:09:04.588311 15152 net.cpp:65] Creating Layer Rconv8
I0812 18:09:04.588313 15152 net.cpp:228] Rconv8 <- Rconv7
I0812 18:09:04.588317 15152 net.cpp:189] Rconv8 -> Rconv8
I0812 18:09:04.589041 15152 net.cpp:84] Top shape: 12 256 27 27 (2239488)
I0812 18:09:04.589046 15152 net.cpp:111] Rconv8 needs backward computation.
I0812 18:09:04.589049 15152 net.cpp:65] Creating Layer Rrelu8
I0812 18:09:04.589052 15152 net.cpp:228] Rrelu8 <- Rconv8
I0812 18:09:04.589056 15152 net.cpp:179] Rrelu8 -> Rconv8 (in-place)
I0812 18:09:04.589059 15152 net.cpp:84] Top shape: 12 256 27 27 (2239488)
I0812 18:09:04.589062 15152 net.cpp:111] Rrelu8 needs backward computation.
I0812 18:09:04.589066 15152 net.cpp:65] Creating Layer deconv2
I0812 18:09:04.589068 15152 net.cpp:228] deconv2 <- Rconv8
I0812 18:09:04.589072 15152 net.cpp:189] deconv2 -> deconv2
I0812 18:09:04.590111 15152 net.cpp:84] Top shape: 12 64 54 54 (2239488)
I0812 18:09:04.590116 15152 net.cpp:111] deconv2 needs backward computation.
I0812 18:09:04.590121 15152 net.cpp:65] Creating Layer relu_deconv2
I0812 18:09:04.590123 15152 net.cpp:228] relu_deconv2 <- deconv2
I0812 18:09:04.590127 15152 net.cpp:179] relu_deconv2 -> deconv2 (in-place)
I0812 18:09:04.590132 15152 net.cpp:84] Top shape: 12 64 54 54 (2239488)
I0812 18:09:04.590134 15152 net.cpp:111] relu_deconv2 needs backward computation.
I0812 18:09:04.590138 15152 net.cpp:65] Creating Layer deconv1
I0812 18:09:04.590140 15152 net.cpp:228] deconv1 <- deconv2
I0812 18:09:04.590144 15152 net.cpp:189] deconv1 -> deconv1
I0812 18:09:04.590298 15152 net.cpp:84] Top shape: 12 32 108 108 (4478976)
I0812 18:09:04.590302 15152 net.cpp:111] deconv1 needs backward computation.
I0812 18:09:04.590306 15152 net.cpp:65] Creating Layer relu_deconv1
I0812 18:09:04.590309 15152 net.cpp:228] relu_deconv1 <- deconv1
I0812 18:09:04.590312 15152 net.cpp:179] relu_deconv1 -> deconv1 (in-place)
I0812 18:09:04.590317 15152 net.cpp:84] Top shape: 12 32 108 108 (4478976)
I0812 18:09:04.590319 15152 net.cpp:111] relu_deconv1 needs backward computation.
I0812 18:09:04.590324 15152 net.cpp:65] Creating Layer deconv0
I0812 18:09:04.590327 15152 net.cpp:228] deconv0 <- deconv1
I0812 18:09:04.590330 15152 net.cpp:189] deconv0 -> deconv0
I0812 18:09:04.590353 15152 net.cpp:84] Top shape: 12 3 216 216 (1679616)
I0812 18:09:04.590356 15152 net.cpp:111] deconv0 needs backward computation.
I0812 18:09:04.590359 15152 net.cpp:65] Creating Layer loss
I0812 18:09:04.590363 15152 net.cpp:228] loss <- deconv0
I0812 18:09:04.590365 15152 net.cpp:228] loss <- target_ims
I0812 18:09:04.590374 15152 net.cpp:111] loss needs backward computation.
I0812 18:09:04.590387 15152 net.cpp:238] Collecting Learning Rate and Weight Decay.
…
    source: "/scr/r6/tgebru/inverting_conv/caffe_invert_alexnet/data/siggraph/tiny_winter_val_lmdb"
    mean_file: "/scr/r6/tgebru/timnit_caffe/data/ilsvrc12/imagenet_mean.binaryproto"
    batch_size: 2
    crop_size: 227
    mirror: false
    backend: LMDB
  }
}
layers {
  top: "target_ims"
  name: "target_ims"
  type: DATA
  data_param {
    source: "/scr/r6/tgebru/inverting_conv/caffe_invert_alexnet/data/siggraph/tiny_summer_val_lmdb"
    mean_file: "/scr/r6/tgebru/timnit_caffe/data/ilsvrc12/imagenet_mean.binaryproto"
    batch_size: 2
    crop_size: 216
    mirror: false
    backend: LMDB
  }
}
layers {
  bottom: "source_ims"
  top: "conv1"
  name: "conv1"
  type: CONVOLUTION
  blobs_lr: 0
  blobs_lr: 0
  weight_decay: 1
  weight_decay: 0
  convolution_param {
    num_output: 96
    kernel_size: 11
    stride: 4
    weight_filler {
      type: "gaussian"
      std: 0.01
    }
    bias_filler {
      type: "constant"
      value: 0
    }
  }
}
layers {
  bottom: "conv1"
  top: "conv1"
  name: "relu1"
  type: RELU
}
layers {
  bottom: "conv1"
  top: "pool1"
  name: "pool1"
  type: POOLING
  pooling_param {
    pool: MAX
    kernel_size: 3
    stride: 2
  }
}
layers {
  bottom: "pool1"
  top: "norm1"
  name: "norm1"
  type: LRN
  lrn_param {
    local_size: 5
    alpha: 0.0001
    beta: 0.75
  }
}
layers {
  bottom: "norm1"
  top: "Rconv6"
  name: "Rconv6"
  type: CONVOLUTION
  blobs_lr: 0
  blobs_lr: 0
  weight_decay: 1
  weight_decay: 0
  convolution_param {
    num_output: 256
    pad: 1
    kernel_size: 3
  }
}
layers {
  bottom: "Rconv6"
  top: "Rconv6"
  name: "Rrelu6"
  type: RELU
}
layers {
  bottom: "Rconv6"
  top: "Rconv7"
  name: "Rconv7"
  type: CONVOLUTION
  blobs_lr: 0
  blobs_lr: 0
  weight_decay: 1
  weight_decay: 0
  convolution_param {
    num_output: 256
    pad: 1
    kernel_size: 3
    group: 2
  }
}
layers {
  bottom: "Rconv7"
  top: "Rconv7"
  name: "Rrelu7"
  type: RELU
}
layers {
  bottom: "Rconv7"
  top: "Rconv8"
  name: "Rconv8"
  type: CONVOLUTION
  blobs_lr: 0
  blobs_lr: 0
  weight_decay: 1
  weight_decay: 0
  convolution_param {
    num_output: 256
    pad: 1
    kernel_size: 3
    group: 2
  }
}
layers {
  bottom: "Rconv8"
  top: "Rconv8"
  name: "Rrelu8"
  type: RELU
}
layers {
  bottom: "Rconv8"
  top: "deconv2"
  name: "deconv2"
  type: DECONVOLUTION
  blobs_lr: 0
  blobs_lr: 0
  weight_decay: 1
  weight_decay: 0
  deconvolution_param {
    pad: 2
    kernel_size: 5
    stride: 2
    output_height: 54
    output_width: 54
    output_channels: 64
  }
}
layers {
  bottom: "deconv2"
  top: "deconv2"
  name: "relu_deconv2"
  type: RELU
  relu_param {
    negative_slope: 0.3
  }
}
layers {
  bottom: "deconv2"
  top: "deconv1"
  name: "deconv1"
  type: DECONVOLUTION
  blobs_lr: 0
  blobs_lr: 0
  weight_decay: 1
  weight_decay: 0
  deconvolution_param {
    pad: 2
    kernel_size: 5
    stride: 2
    output_height: 108
    output_width: 108
    output_channels: 32
  }
}
layers {
  bottom: "deconv1"
  top: "deconv1"
  name: "relu_deconv1"
  type: RELU
  relu_param {
    negative_slope: 0.3
  }
}
layers {
  bottom: "deconv1"
  top: "deconv0"
  name: "deconv0"
  type: DECONVOLUTION
  blobs_lr: 0
  blobs_lr: 0
  weight_decay: 1
  weight_decay: 0
  deconvolution_param {
    pad: 2
    kernel_size: 5
    stride: 2
    output_height: 216
    output_width: 216
    output_channels: 3
  }
}
layers {
  bottom: "deconv0"
  bottom: "target_ims"
  name: "loss"
  type: EUCLIDEAN_LOSS
}
I0812 18:09:04.591107 15152 net.cpp:65] Creating Layer source_ims
I0812 18:09:04.591112 15152 net.cpp:189] source_ims -> source_ims
I0812 18:09:04.591187 15152 data_layer.cpp:223] Opening lmdb /scr/r6/tgebru/inverting_conv/caffe_invert_alexnet/data/siggraph/tiny_winter_val_lmdb
I0812 18:09:04.591392 15152 data_layer.cpp:285] output data size: 2,3,227,227
I0812 18:09:04.591397 15152 data_layer.cpp:304] Loading mean file from/scr/r6/tgebru/timnit_caffe/data/ilsvrc12/imagenet_mean.binaryproto
I0812 18:09:04.594210 15152 net.cpp:84] Top shape: 2 3 227 227 (309174)
I0812 18:09:04.594218 15152 net.cpp:116] source_ims does not need backward computation.
I0812 18:09:04.594224 15152 net.cpp:65] Creating Layer target_ims
I0812 18:09:04.594228 15152 net.cpp:189] target_ims -> target_ims
I0812 18:09:04.594287 15152 data_layer.cpp:223] Opening lmdb /scr/r6/tgebru/inverting_conv/caffe_invert_alexnet/data/siggraph/tiny_summer_val_lmdb
I0812 18:09:04.594384 15152 data_layer.cpp:285] output data size: 2,3,216,216
I0812 18:09:04.594388 15152 data_layer.cpp:304] Loading mean file from/scr/r6/tgebru/timnit_caffe/data/ilsvrc12/imagenet_mean.binaryproto
I0812 18:09:04.596606 15152 net.cpp:84] Top shape: 2 3 216 216 (279936)
I0812 18:09:04.596626 15152 net.cpp:116] target_ims does not need backward computation.
I0812 18:09:04.596635 15152 net.cpp:65] Creating Layer conv1
I0812 18:09:04.596638 15152 net.cpp:228] conv1 <- source_ims
I0812 18:09:04.596643 15152 net.cpp:189] conv1 -> conv1
I0812 18:09:04.597892 15152 net.cpp:84] Top shape: 2 96 55 55 (580800)
I0812 18:09:04.597895 15152 net.cpp:116] conv1 does not need backward computation.
I0812 18:09:04.597899 15152 net.cpp:65] Creating Layer relu1
I0812 18:09:04.597903 15152 net.cpp:228] relu1 <- conv1
I0812 18:09:04.597908 15152 net.cpp:179] relu1 -> conv1 (in-place)
I0812 18:09:04.597913 15152 net.cpp:84] Top shape: 2 96 55 55 (580800)
I0812 18:09:04.597914 15152 net.cpp:116] relu1 does not need backward computation.
I0812 18:09:04.597919 15152 net.cpp:65] Creating Layer pool1
I0812 18:09:04.597921 15152 net.cpp:228] pool1 <- conv1
I0812 18:09:04.597925 15152 net.cpp:189] pool1 -> pool1
I0812 18:09:04.597931 15152 net.cpp:84] Top shape: 2 96 27 27 (139968)
I0812 18:09:04.597934 15152 net.cpp:116] pool1 does not need backward computation.
I0812 18:09:04.597939 15152 net.cpp:65] Creating Layer norm1
I0812 18:09:04.597941 15152 net.cpp:228] norm1 <- pool1
I0812 18:09:04.597945 15152 net.cpp:189] norm1 -> norm1
I0812 18:09:04.597951 15152 net.cpp:84] Top shape: 2 96 27 27 (139968)
I0812 18:09:04.597954 15152 net.cpp:116] norm1 does not need backward computation.
I0812 18:09:04.597957 15152 net.cpp:65] Creating Layer Rconv6
I0812 18:09:04.597960 15152 net.cpp:228] Rconv6 <- norm1
I0812 18:09:04.597965 15152 net.cpp:189] Rconv6 -> Rconv6
I0812 18:09:04.598546 15152 net.cpp:84] Top shape: 2 256 27 27 (373248)
I0812 18:09:04.598551 15152 net.cpp:116] Rconv6 does not need backward computation.
I0812 18:09:04.598553 15152 net.cpp:65] Creating Layer Rrelu6
I0812 18:09:04.598556 15152 net.cpp:228] Rrelu6 <- Rconv6
I0812 18:09:04.598561 15152 net.cpp:179] Rrelu6 -> Rconv6 (in-place)
I0812 18:09:04.598565 15152 net.cpp:84] Top shape: 2 256 27 27 (373248)
I0812 18:09:04.598568 15152 net.cpp:116] Rrelu6 does not need backward computation.
I0812 18:09:04.598572 15152 net.cpp:65] Creating Layer Rconv7
I0812 18:09:04.598575 15152 net.cpp:228] Rconv7 <- Rconv6
I0812 18:09:04.598579 15152 net.cpp:189] Rconv7 -> Rconv7
I0812 18:09:04.599292 15152 net.cpp:84] Top shape: 2 256 27 27 (373248)
I0812 18:09:04.599295 15152 net.cpp:116] Rconv7 does not need backward computation.
I0812 18:09:04.599299 15152 net.cpp:65] Creating Layer Rrelu7
I0812 18:09:04.599303 15152 net.cpp:228] Rrelu7 <- Rconv7
I0812 18:09:04.599306 15152 net.cpp:179] Rrelu7 -> Rconv7 (in-place)
I0812 18:09:04.599310 15152 net.cpp:84] Top shape: 2 256 27 27 (373248)
I0812 18:09:04.599313 15152 net.cpp:116] Rrelu7 does not need backward computation.
I0812 18:09:04.599316 15152 net.cpp:65] Creating Layer Rconv8
I0812 18:09:04.599319 15152 net.cpp:228] Rconv8 <- Rconv7
I0812 18:09:04.599323 15152 net.cpp:189] Rconv8 -> Rconv8
I0812 18:09:04.600041 15152 net.cpp:84] Top shape: 2 256 27 27 (373248)
I0812 18:09:04.600045 15152 net.cpp:116] Rconv8 does not need backward computation.
I0812 18:09:04.600049 15152 net.cpp:65] Creating Layer Rrelu8
I0812 18:09:04.600051 15152 net.cpp:228] Rrelu8 <- Rconv8
I0812 18:09:04.600055 15152 net.cpp:179] Rrelu8 -> Rconv8 (in-place)
I0812 18:09:04.600059 15152 net.cpp:84] Top shape: 2 256 27 27 (373248)
I0812 18:09:04.600062 15152 net.cpp:116] Rrelu8 does not need backward computation.
I0812 18:09:04.600066 15152 net.cpp:65] Creating Layer deconv2
I0812 18:09:04.600069 15152 net.cpp:228] deconv2 <- Rconv8
I0812 18:09:04.600072 15152 net.cpp:189] deconv2 -> deconv2
I0812 18:09:04.601063 15152 net.cpp:84] Top shape: 2 64 54 54 (373248)
I0812 18:09:04.601068 15152 net.cpp:116] deconv2 does not need backward computation.
I0812 18:09:04.601070 15152 net.cpp:65] Creating Layer relu_deconv2
I0812 18:09:04.601073 15152 net.cpp:228] relu_deconv2 <- deconv2
I0812 18:09:04.601078 15152 net.cpp:179] relu_deconv2 -> deconv2 (in-place)
I0812 18:09:04.601083 15152 net.cpp:84] Top shape: 2 64 54 54 (373248)
I0812 18:09:04.601084 15152 net.cpp:116] relu_deconv2 does not need backward computation.
I0812 18:09:04.601104 15152 net.cpp:65] Creating Layer deconv1
I0812 18:09:04.601106 15152 net.cpp:228] deconv1 <- deconv2
I0812 18:09:04.601110 15152 net.cpp:189] deconv1 -> deconv1
I0812 18:09:04.601243 15152 net.cpp:84] Top shape: 2 32 108 108 (746496)
I0812 18:09:04.601248 15152 net.cpp:116] deconv1 does not need backward computation.
I0812 18:09:04.601250 15152 net.cpp:65] Creating Layer relu_deconv1
I0812 18:09:04.601253 15152 net.cpp:228] relu_deconv1 <- deconv1
I0812 18:09:04.601258 15152 net.cpp:179] relu_deconv1 -> deconv1 (in-place)
I0812 18:09:04.601261 15152 net.cpp:84] Top shape: 2 32 108 108 (746496)
I0812 18:09:04.601264 15152 net.cpp:116] relu_deconv1 does not need backward computation.
I0812 18:09:04.601269 15152 net.cpp:65] Creating Layer deconv0
I0812 18:09:04.601272 15152 net.cpp:228] deconv0 <- deconv1
I0812 18:09:04.601276 15152 net.cpp:189] deconv0 -> deconv0
I0812 18:09:04.601294 15152 net.cpp:84] Top shape: 2 3 216 216 (279936)
I0812 18:09:04.601299 15152 net.cpp:116] deconv0 does not need backward computation.
I0812 18:09:04.601302 15152 net.cpp:65] Creating Layer loss
I0812 18:09:04.601305 15152 net.cpp:228] loss <- deconv0
I0812 18:09:04.601308 15152 net.cpp:228] loss <- target_ims
I0812 18:09:04.601312 15152 net.cpp:116] loss does not need backward computation.
I0812 18:09:04.601325 15152 net.cpp:238] Collecting Learning Rate and Weight Decay.
…
