…
    source: "/scr/r6/tgebru/inverting_conv/caffe_invert_alexnet/data/siggraph/tiny_summer_train_lmdb"
    mean_file: "/scr/r6/tgebru/timnit_caffe/data/ilsvrc12/imagenet_mean.binaryproto"
    batch_size: 12
    crop_size: 227
    mirror: false
    backend: LMDB
  }
}
layers {
  top: "target_ims"
  name: "target_ims"
  type: DATA
  data_param {
    source: "/scr/r6/tgebru/inverting_conv/caffe_invert_alexnet/data/siggraph/tiny_winter_train_lmdb"
    mean_file: "/scr/r6/tgebru/timnit_caffe/data/ilsvrc12/imagenet_mean.binaryproto"
    batch_size: 12
    crop_size: 216
    mirror: false
    backend: LMDB
  }
}
layers {
  bottom: "source_ims"
  top: "conv1"
  name: "conv1"
  type: CONVOLUTION
  blobs_lr: 0
  blobs_lr: 0
  weight_decay: 1
  weight_decay: 0
  convolution_param {
    num_output: 96
    kernel_size: 11
    stride: 4
    weight_filler {
      type: "gaussian"
      std: 0.01
    }
    bias_filler {
      type: "constant"
      value: 0
    }
  }
}
layers {
  bottom: "conv1"
  top: "conv1"
  name: "relu1"
  type: RELU
}
layers {
  bottom: "conv1"
  top: "pool1"
  name: "pool1"
  type: POOLING
  pooling_param {
    pool: MAX
    kernel_size: 3
    stride: 2
  }
}
layers {
  bottom: "pool1"
  top: "norm1"
  name: "norm1"
  type: LRN
  lrn_param {
    local_size: 5
    alpha: 0.0001
    beta: 0.75
  }
}
layers {
  bottom: "norm1"
  top: "Rconv6"
  name: "Rconv6"
  type: CONVOLUTION
  blobs_lr: 1
  blobs_lr: 2
  weight_decay: 1
  weight_decay: 0
  convolution_param {
    num_output: 256
    pad: 1
    kernel_size: 3
  }
}
layers {
  bottom: "Rconv6"
  top: "Rconv6"
  name: "Rrelu6"
  type: RELU
}
layers {
  bottom: "Rconv6"
  top: "Rconv7"
  name: "Rconv7"
  type: CONVOLUTION
  blobs_lr: 1
  blobs_lr: 2
  weight_decay: 1
  weight_decay: 0
  convolution_param {
    num_output: 256
    pad: 1
    kernel_size: 3
    group: 2
  }
}
layers {
  bottom: "Rconv7"
  top: "Rconv7"
  name: "Rrelu7"
  type: RELU
}
layers {
  bottom: "Rconv7"
  top: "Rconv8"
  name: "Rconv8"
  type: CONVOLUTION
  blobs_lr: 1
  blobs_lr: 2
  weight_decay: 1
  weight_decay: 0
  convolution_param {
    num_output: 256
    pad: 1
    kernel_size: 3
    group: 2
  }
}
layers {
  bottom: "Rconv8"
  top: "Rconv8"
  name: "Rrelu8"
  type: RELU
}
layers {
  bottom: "Rconv8"
  top: "deconv2"
  name: "deconv2"
  type: DECONVOLUTION
  blobs_lr: 1
  blobs_lr: 2
  weight_decay: 1
  weight_decay: 0
  deconvolution_param {
    pad: 2
    kernel_size: 5
    stride: 2
    output_height: 54
    output_width: 54
    output_channels: 64
  }
}
layers {
  bottom: "deconv2"
  top: "deconv2"
  name: "relu_deconv2"
  type: RELU
  relu_param {
    negative_slope: 0.3
  }
}
layers {
  bottom: "deconv2"
  top: "deconv1"
  name: "deconv1"
  type: DECONVOLUTION
  blobs_lr: 1
  blobs_lr: 2
  weight_decay: 1
  weight_decay: 0
  deconvolution_param {
    pad: 2
    kernel_size: 5
    stride: 2
    output_height: 108
    output_width: 108
    output_channels: 32
  }
}
layers {
  bottom: "deconv1"
  top: "deconv1"
  name: "relu_deconv1"
  type: RELU
  relu_param {
    negative_slope: 0.3
  }
}
layers {
  bottom: "deconv1"
  top: "deconv0"
  name: "deconv0"
  type: DECONVOLUTION
  blobs_lr: 1
  blobs_lr: 2
  weight_decay: 1
  weight_decay: 1
  deconvolution_param {
    pad: 2
    kernel_size: 5
    stride: 2
    output_height: 216
    output_width: 216
    output_channels: 3
  }
}
layers {
  bottom: "deconv0"
  bottom: "target_ims"
  name: "loss"
  type: EUCLIDEAN_LOSS
}
I0813 07:54:32.244240  8454 net.cpp:65] Creating Layer source_ims
I0813 07:54:32.244249  8454 net.cpp:189] source_ims -> source_ims
I0813 07:54:32.244367  8454 data_layer.cpp:223] Opening lmdb /scr/r6/tgebru/inverting_conv/caffe_invert_alexnet/data/siggraph/tiny_summer_train_lmdb
I0813 07:54:32.244588  8454 data_layer.cpp:285] output data size: 12,3,227,227
I0813 07:54:32.244596  8454 data_layer.cpp:304] Loading mean file from/scr/r6/tgebru/timnit_caffe/data/ilsvrc12/imagenet_mean.binaryproto
I0813 07:54:32.249475  8454 net.cpp:84] Top shape: 12 3 227 227 (1855044)
I0813 07:54:32.249483  8454 net.cpp:116] source_ims does not need backward computation.
I0813 07:54:32.249490  8454 net.cpp:65] Creating Layer target_ims
I0813 07:54:32.249493  8454 net.cpp:189] target_ims -> target_ims
I0813 07:54:32.249660  8454 data_layer.cpp:223] Opening lmdb /scr/r6/tgebru/inverting_conv/caffe_invert_alexnet/data/siggraph/tiny_winter_train_lmdb
I0813 07:54:32.249833  8454 data_layer.cpp:285] output data size: 12,3,216,216
I0813 07:54:32.249840  8454 data_layer.cpp:304] Loading mean file from/scr/r6/tgebru/timnit_caffe/data/ilsvrc12/imagenet_mean.binaryproto
I0813 07:54:32.254293  8454 net.cpp:84] Top shape: 12 3 216 216 (1679616)
I0813 07:54:32.254302  8454 net.cpp:116] target_ims does not need backward computation.
I0813 07:54:32.254313  8454 net.cpp:65] Creating Layer conv1
I0813 07:54:32.254317  8454 net.cpp:228] conv1 <- source_ims
I0813 07:54:32.254410  8454 net.cpp:189] conv1 -> conv1
I0813 07:54:32.255810  8454 net.cpp:84] Top shape: 12 96 55 55 (3484800)
I0813 07:54:32.255815  8454 net.cpp:116] conv1 does not need backward computation.
I0813 07:54:32.255820  8454 net.cpp:65] Creating Layer relu1
I0813 07:54:32.255823  8454 net.cpp:228] relu1 <- conv1
I0813 07:54:32.255828  8454 net.cpp:179] relu1 -> conv1 (in-place)
I0813 07:54:32.255837  8454 net.cpp:84] Top shape: 12 96 55 55 (3484800)
I0813 07:54:32.255841  8454 net.cpp:116] relu1 does not need backward computation.
I0813 07:54:32.255846  8454 net.cpp:65] Creating Layer pool1
I0813 07:54:32.255848  8454 net.cpp:228] pool1 <- conv1
I0813 07:54:32.255853  8454 net.cpp:189] pool1 -> pool1
I0813 07:54:32.255867  8454 net.cpp:84] Top shape: 12 96 27 27 (839808)
I0813 07:54:32.255869  8454 net.cpp:116] pool1 does not need backward computation.
I0813 07:54:32.255873  8454 net.cpp:65] Creating Layer norm1
I0813 07:54:32.255877  8454 net.cpp:228] norm1 <- pool1
I0813 07:54:32.255880  8454 net.cpp:189] norm1 -> norm1
I0813 07:54:32.255889  8454 net.cpp:84] Top shape: 12 96 27 27 (839808)
I0813 07:54:32.255892  8454 net.cpp:116] norm1 does not need backward computation.
I0813 07:54:32.255897  8454 net.cpp:65] Creating Layer Rconv6
I0813 07:54:32.255898  8454 net.cpp:228] Rconv6 <- norm1
I0813 07:54:32.255903  8454 net.cpp:189] Rconv6 -> Rconv6
I0813 07:54:32.256175  8454 net.cpp:84] Top shape: 12 256 27 27 (2239488)
I0813 07:54:32.256178  8454 net.cpp:111] Rconv6 needs backward computation.
I0813 07:54:32.256183  8454 net.cpp:65] Creating Layer Rrelu6
I0813 07:54:32.256186  8454 net.cpp:228] Rrelu6 <- Rconv6
I0813 07:54:32.256191  8454 net.cpp:179] Rrelu6 -> Rconv6 (in-place)
I0813 07:54:32.256194  8454 net.cpp:84] Top shape: 12 256 27 27 (2239488)
I0813 07:54:32.256197  8454 net.cpp:111] Rrelu6 needs backward computation.
I0813 07:54:32.256203  8454 net.cpp:65] Creating Layer Rconv7
I0813 07:54:32.256206  8454 net.cpp:228] Rconv7 <- Rconv6
I0813 07:54:32.256209  8454 net.cpp:189] Rconv7 -> Rconv7
I0813 07:54:32.256975  8454 net.cpp:84] Top shape: 12 256 27 27 (2239488)
I0813 07:54:32.256980  8454 net.cpp:111] Rconv7 needs backward computation.
I0813 07:54:32.256984  8454 net.cpp:65] Creating Layer Rrelu7
I0813 07:54:32.257005  8454 net.cpp:228] Rrelu7 <- Rconv7
I0813 07:54:32.257010  8454 net.cpp:179] Rrelu7 -> Rconv7 (in-place)
I0813 07:54:32.257014  8454 net.cpp:84] Top shape: 12 256 27 27 (2239488)
I0813 07:54:32.257017  8454 net.cpp:111] Rrelu7 needs backward computation.
I0813 07:54:32.257021  8454 net.cpp:65] Creating Layer Rconv8
I0813 07:54:32.257024  8454 net.cpp:228] Rconv8 <- Rconv7
I0813 07:54:32.257027  8454 net.cpp:189] Rconv8 -> Rconv8
I0813 07:54:32.257755  8454 net.cpp:84] Top shape: 12 256 27 27 (2239488)
I0813 07:54:32.257761  8454 net.cpp:111] Rconv8 needs backward computation.
I0813 07:54:32.257764  8454 net.cpp:65] Creating Layer Rrelu8
I0813 07:54:32.257767  8454 net.cpp:228] Rrelu8 <- Rconv8
I0813 07:54:32.257771  8454 net.cpp:179] Rrelu8 -> Rconv8 (in-place)
I0813 07:54:32.257774  8454 net.cpp:84] Top shape: 12 256 27 27 (2239488)
I0813 07:54:32.257777  8454 net.cpp:111] Rrelu8 needs backward computation.
I0813 07:54:32.257781  8454 net.cpp:65] Creating Layer deconv2
I0813 07:54:32.257784  8454 net.cpp:228] deconv2 <- Rconv8
I0813 07:54:32.257788  8454 net.cpp:189] deconv2 -> deconv2
I0813 07:54:32.258870  8454 net.cpp:84] Top shape: 12 64 54 54 (2239488)
I0813 07:54:32.258875  8454 net.cpp:111] deconv2 needs backward computation.
I0813 07:54:32.258879  8454 net.cpp:65] Creating Layer relu_deconv2
I0813 07:54:32.258882  8454 net.cpp:228] relu_deconv2 <- deconv2
I0813 07:54:32.258887  8454 net.cpp:179] relu_deconv2 -> deconv2 (in-place)
I0813 07:54:32.258891  8454 net.cpp:84] Top shape: 12 64 54 54 (2239488)
I0813 07:54:32.258894  8454 net.cpp:111] relu_deconv2 needs backward computation.
I0813 07:54:32.258898  8454 net.cpp:65] Creating Layer deconv1
I0813 07:54:32.258900  8454 net.cpp:228] deconv1 <- deconv2
I0813 07:54:32.258904  8454 net.cpp:189] deconv1 -> deconv1
I0813 07:54:32.259047  8454 net.cpp:84] Top shape: 12 32 108 108 (4478976)
I0813 07:54:32.259050  8454 net.cpp:111] deconv1 needs backward computation.
I0813 07:54:32.259054  8454 net.cpp:65] Creating Layer relu_deconv1
I0813 07:54:32.259057  8454 net.cpp:228] relu_deconv1 <- deconv1
I0813 07:54:32.259060  8454 net.cpp:179] relu_deconv1 -> deconv1 (in-place)
I0813 07:54:32.259064  8454 net.cpp:84] Top shape: 12 32 108 108 (4478976)
I0813 07:54:32.259068  8454 net.cpp:111] relu_deconv1 needs backward computation.
I0813 07:54:32.259073  8454 net.cpp:65] Creating Layer deconv0
I0813 07:54:32.259075  8454 net.cpp:228] deconv0 <- deconv1
I0813 07:54:32.259079  8454 net.cpp:189] deconv0 -> deconv0
I0813 07:54:32.259102  8454 net.cpp:84] Top shape: 12 3 216 216 (1679616)
I0813 07:54:32.259105  8454 net.cpp:111] deconv0 needs backward computation.
I0813 07:54:32.259109  8454 net.cpp:65] Creating Layer loss
I0813 07:54:32.259111  8454 net.cpp:228] loss <- deconv0
I0813 07:54:32.259114  8454 net.cpp:228] loss <- target_ims
I0813 07:54:32.259124  8454 net.cpp:111] loss needs backward computation.
I0813 07:54:32.259137  8454 net.cpp:238] Collecting Learning Rate and Weight Decay.
…
    source: "/scr/r6/tgebru/inverting_conv/caffe_invert_alexnet/data/siggraph/tiny_summer_val_lmdb"
    mean_file: "/scr/r6/tgebru/timnit_caffe/data/ilsvrc12/imagenet_mean.binaryproto"
    batch_size: 64
    crop_size: 227
    mirror: false
    backend: LMDB
  }
}
layers {
  top: "target_ims"
  name: "target_ims"
  type: DATA
  data_param {
    source: "/scr/r6/tgebru/inverting_conv/caffe_invert_alexnet/data/siggraph/tiny_winter_val_lmdb"
    mean_file: "/scr/r6/tgebru/timnit_caffe/data/ilsvrc12/imagenet_mean.binaryproto"
    batch_size: 64
    crop_size: 216
    mirror: false
    backend: LMDB
  }
}
layers {
  bottom: "source_ims"
  top: "conv1"
  name: "conv1"
  type: CONVOLUTION
  blobs_lr: 0
  blobs_lr: 0
  weight_decay: 1
  weight_decay: 0
  convolution_param {
    num_output: 96
    kernel_size: 11
    stride: 4
    weight_filler {
      type: "gaussian"
      std: 0.01
    }
    bias_filler {
      type: "constant"
      value: 0
    }
  }
}
layers {
  bottom: "conv1"
  top: "conv1"
  name: "relu1"
  type: RELU
}
layers {
  bottom: "conv1"
  top: "pool1"
  name: "pool1"
  type: POOLING
  pooling_param {
    pool: MAX
    kernel_size: 3
    stride: 2
  }
}
layers {
  bottom: "pool1"
  top: "norm1"
  name: "norm1"
  type: LRN
  lrn_param {
    local_size: 5
    alpha: 0.0001
    beta: 0.75
  }
}
layers {
  bottom: "norm1"
  top: "Rconv6"
  name: "Rconv6"
  type: CONVOLUTION
  blobs_lr: 0
  blobs_lr: 0
  weight_decay: 1
  weight_decay: 0
  convolution_param {
    num_output: 256
    pad: 1
    kernel_size: 3
  }
}
layers {
  bottom: "Rconv6"
  top: "Rconv6"
  name: "Rrelu6"
  type: RELU
}
layers {
  bottom: "Rconv6"
  top: "Rconv7"
  name: "Rconv7"
  type: CONVOLUTION
  blobs_lr: 0
  blobs_lr: 0
  weight_decay: 1
  weight_decay: 0
  convolution_param {
    num_output: 256
    pad: 1
    kernel_size: 3
    group: 2
  }
}
layers {
  bottom: "Rconv7"
  top: "Rconv7"
  name: "Rrelu7"
  type: RELU
}
layers {
  bottom: "Rconv7"
  top: "Rconv8"
  name: "Rconv8"
  type: CONVOLUTION
  blobs_lr: 0
  blobs_lr: 0
  weight_decay: 1
  weight_decay: 0
  convolution_param {
    num_output: 256
    pad: 1
    kernel_size: 3
    group: 2
  }
}
layers {
  bottom: "Rconv8"
  top: "Rconv8"
  name: "Rrelu8"
  type: RELU
}
layers {
  bottom: "Rconv8"
  top: "deconv2"
  name: "deconv2"
  type: DECONVOLUTION
  blobs_lr: 0
  blobs_lr: 0
  weight_decay: 1
  weight_decay: 0
  deconvolution_param {
    pad: 2
    kernel_size: 5
    stride: 2
    output_height: 54
    output_width: 54
    output_channels: 64
  }
}
layers {
  bottom: "deconv2"
  top: "deconv2"
  name: "relu_deconv2"
  type: RELU
  relu_param {
    negative_slope: 0.3
  }
}
layers {
  bottom: "deconv2"
  top: "deconv1"
  name: "deconv1"
  type: DECONVOLUTION
  blobs_lr: 0
  blobs_lr: 0
  weight_decay: 1
  weight_decay: 0
  deconvolution_param {
    pad: 2
    kernel_size: 5
    stride: 2
    output_height: 108
    output_width: 108
    output_channels: 32
  }
}
layers {
  bottom: "deconv1"
  top: "deconv1"
  name: "relu_deconv1"
  type: RELU
  relu_param {
    negative_slope: 0.3
  }
}
layers {
  bottom: "deconv1"
  top: "deconv0"
  name: "deconv0"
  type: DECONVOLUTION
  blobs_lr: 0
  blobs_lr: 0
  weight_decay: 1
  weight_decay: 0
  deconvolution_param {
    pad: 2
    kernel_size: 5
    stride: 2
    output_height: 216
    output_width: 216
    output_channels: 3
  }
}
layers {
  bottom: "deconv0"
  bottom: "target_ims"
  name: "loss"
  type: EUCLIDEAN_LOSS
}
I0813 07:54:32.259845  8454 net.cpp:65] Creating Layer source_ims
I0813 07:54:32.259850  8454 net.cpp:189] source_ims -> source_ims
I0813 07:54:32.259922  8454 data_layer.cpp:223] Opening lmdb /scr/r6/tgebru/inverting_conv/caffe_invert_alexnet/data/siggraph/tiny_summer_val_lmdb
I0813 07:54:32.260108  8454 data_layer.cpp:285] output data size: 64,3,227,227
I0813 07:54:32.260113  8454 data_layer.cpp:304] Loading mean file from/scr/r6/tgebru/timnit_caffe/data/ilsvrc12/imagenet_mean.binaryproto
I0813 07:54:32.274188  8454 net.cpp:84] Top shape: 64 3 227 227 (9893568)
I0813 07:54:32.274205  8454 net.cpp:116] source_ims does not need backward computation.
I0813 07:54:32.274217  8454 net.cpp:65] Creating Layer target_ims
I0813 07:54:32.274224  8454 net.cpp:189] target_ims -> target_ims
I0813 07:54:32.274318  8454 data_layer.cpp:223] Opening lmdb /scr/r6/tgebru/inverting_conv/caffe_invert_alexnet/data/siggraph/tiny_winter_val_lmdb
I0813 07:54:32.274454  8454 data_layer.cpp:285] output data size: 64,3,216,216
I0813 07:54:32.274458  8454 data_layer.cpp:304] Loading mean file from/scr/r6/tgebru/timnit_caffe/data/ilsvrc12/imagenet_mean.binaryproto
I0813 07:54:32.286892  8454 net.cpp:84] Top shape: 64 3 216 216 (8957952)
I0813 07:54:32.286967  8454 net.cpp:116] target_ims does not need backward computation.
I0813 07:54:32.286983  8454 net.cpp:65] Creating Layer conv1
I0813 07:54:32.286988  8454 net.cpp:228] conv1 <- source_ims
I0813 07:54:32.286998  8454 net.cpp:189] conv1 -> conv1
I0813 07:54:32.288259  8454 net.cpp:84] Top shape: 64 96 55 55 (18585600)
I0813 07:54:32.288264  8454 net.cpp:116] conv1 does not need backward computation.
I0813 07:54:32.288269  8454 net.cpp:65] Creating Layer relu1
I0813 07:54:32.288272  8454 net.cpp:228] relu1 <- conv1
I0813 07:54:32.288276  8454 net.cpp:179] relu1 -> conv1 (in-place)
I0813 07:54:32.288282  8454 net.cpp:84] Top shape: 64 96 55 55 (18585600)
I0813 07:54:32.288285  8454 net.cpp:116] relu1 does not need backward computation.
I0813 07:54:32.288290  8454 net.cpp:65] Creating Layer pool1
I0813 07:54:32.288293  8454 net.cpp:228] pool1 <- conv1
I0813 07:54:32.288297  8454 net.cpp:189] pool1 -> pool1
I0813 07:54:32.288305  8454 net.cpp:84] Top shape: 64 96 27 27 (4478976)
I0813 07:54:32.288307  8454 net.cpp:116] pool1 does not need backward computation.
I0813 07:54:32.288313  8454 net.cpp:65] Creating Layer norm1
I0813 07:54:32.288316  8454 net.cpp:228] norm1 <- pool1
I0813 07:54:32.288321  8454 net.cpp:189] norm1 -> norm1
I0813 07:54:32.288326  8454 net.cpp:84] Top shape: 64 96 27 27 (4478976)
I0813 07:54:32.288329  8454 net.cpp:116] norm1 does not need backward computation.
I0813 07:54:32.288333  8454 net.cpp:65] Creating Layer Rconv6
I0813 07:54:32.288337  8454 net.cpp:228] Rconv6 <- norm1
I0813 07:54:32.288341  8454 net.cpp:189] Rconv6 -> Rconv6
I0813 07:54:32.288580  8454 net.cpp:84] Top shape: 64 256 27 27 (11943936)
I0813 07:54:32.288584  8454 net.cpp:116] Rconv6 does not need backward computation.
I0813 07:54:32.288589  8454 net.cpp:65] Creating Layer Rrelu6
I0813 07:54:32.288593  8454 net.cpp:228] Rrelu6 <- Rconv6
I0813 07:54:32.288596  8454 net.cpp:179] Rrelu6 -> Rconv6 (in-place)
I0813 07:54:32.288601  8454 net.cpp:84] Top shape: 64 256 27 27 (11943936)
I0813 07:54:32.288604  8454 net.cpp:116] Rrelu6 does not need backward computation.
I0813 07:54:32.288609  8454 net.cpp:65] Creating Layer Rconv7
I0813 07:54:32.288612  8454 net.cpp:228] Rconv7 <- Rconv6
I0813 07:54:32.288616  8454 net.cpp:189] Rconv7 -> Rconv7
I0813 07:54:32.289310  8454 net.cpp:84] Top shape: 64 256 27 27 (11943936)
I0813 07:54:32.289314  8454 net.cpp:116] Rconv7 does not need backward computation.
I0813 07:54:32.289319  8454 net.cpp:65] Creating Layer Rrelu7
I0813 07:54:32.289322  8454 net.cpp:228] Rrelu7 <- Rconv7
I0813 07:54:32.289327  8454 net.cpp:179] Rrelu7 -> Rconv7 (in-place)
I0813 07:54:32.289331  8454 net.cpp:84] Top shape: 64 256 27 27 (11943936)
I0813 07:54:32.289335  8454 net.cpp:116] Rrelu7 does not need backward computation.
I0813 07:54:32.289340  8454 net.cpp:65] Creating Layer Rconv8
I0813 07:54:32.289341  8454 net.cpp:228] Rconv8 <- Rconv7
I0813 07:54:32.289346  8454 net.cpp:189] Rconv8 -> Rconv8
I0813 07:54:32.290120  8454 net.cpp:84] Top shape: 64 256 27 27 (11943936)
I0813 07:54:32.290125  8454 net.cpp:116] Rconv8 does not need backward computation.
I0813 07:54:32.290129  8454 net.cpp:65] Creating Layer Rrelu8
I0813 07:54:32.290132  8454 net.cpp:228] Rrelu8 <- Rconv8
I0813 07:54:32.290137  8454 net.cpp:179] Rrelu8 -> Rconv8 (in-place)
I0813 07:54:32.290140  8454 net.cpp:84] Top shape: 64 256 27 27 (11943936)
I0813 07:54:32.290143  8454 net.cpp:116] Rrelu8 does not need backward computation.
I0813 07:54:32.290148  8454 net.cpp:65] Creating Layer deconv2
I0813 07:54:32.290150  8454 net.cpp:228] deconv2 <- Rconv8
I0813 07:54:32.290154  8454 net.cpp:189] deconv2 -> deconv2
I0813 07:54:32.291149  8454 net.cpp:84] Top shape: 64 64 54 54 (11943936)
I0813 07:54:32.291154  8454 net.cpp:116] deconv2 does not need backward computation.
I0813 07:54:32.291159  8454 net.cpp:65] Creating Layer relu_deconv2
I0813 07:54:32.291162  8454 net.cpp:228] relu_deconv2 <- deconv2
I0813 07:54:32.291167  8454 net.cpp:179] relu_deconv2 -> deconv2 (in-place)
I0813 07:54:32.291170  8454 net.cpp:84] Top shape: 64 64 54 54 (11943936)
I0813 07:54:32.291185  8454 net.cpp:116] relu_deconv2 does not need backward computation.
I0813 07:54:32.291190  8454 net.cpp:65] Creating Layer deconv1
I0813 07:54:32.291193  8454 net.cpp:228] deconv1 <- deconv2
I0813 07:54:32.291196  8454 net.cpp:189] deconv1 -> deconv1
I0813 07:54:32.291344  8454 net.cpp:84] Top shape: 64 32 108 108 (23887872)
I0813 07:54:32.291348  8454 net.cpp:116] deconv1 does not need backward computation.
I0813 07:54:32.291353  8454 net.cpp:65] Creating Layer relu_deconv1
I0813 07:54:32.291357  8454 net.cpp:228] relu_deconv1 <- deconv1
I0813 07:54:32.291360  8454 net.cpp:179] relu_deconv1 -> deconv1 (in-place)
I0813 07:54:32.291364  8454 net.cpp:84] Top shape: 64 32 108 108 (23887872)
I0813 07:54:32.291368  8454 net.cpp:116] relu_deconv1 does not need backward computation.
I0813 07:54:32.291373  8454 net.cpp:65] Creating Layer deconv0
I0813 07:54:32.291376  8454 net.cpp:228] deconv0 <- deconv1
I0813 07:54:32.291381  8454 net.cpp:189] deconv0 -> deconv0
I0813 07:54:32.291404  8454 net.cpp:84] Top shape: 64 3 216 216 (8957952)
I0813 07:54:32.291409  8454 net.cpp:116] deconv0 does not need backward computation.
I0813 07:54:32.291412  8454 net.cpp:65] Creating Layer loss
I0813 07:54:32.291415  8454 net.cpp:228] loss <- deconv0
I0813 07:54:32.291419  8454 net.cpp:228] loss <- target_ims
I0813 07:54:32.291424  8454 net.cpp:116] loss does not need backward computation.
I0813 07:54:32.291436  8454 net.cpp:238] Collecting Learning Rate and Weight Decay.
…
