…
    source: "/scr/r6/tgebru/inverting_conv/caffe_invert_alexnet/data/siggraph/tiny_summer_train_lmdb"
    mean_file: "/scr/r6/tgebru/timnit_caffe/data/ilsvrc12/imagenet_mean.binaryproto"
    batch_size: 12
    crop_size: 227
    mirror: false
    backend: LMDB
  }
}
layers {
  top: "target_ims"
  name: "target_ims"
  type: DATA
  data_param {
    source: "/scr/r6/tgebru/inverting_conv/caffe_invert_alexnet/data/siggraph/tiny_winter_train_lmdb"
    mean_file: "/scr/r6/tgebru/timnit_caffe/data/ilsvrc12/imagenet_mean.binaryproto"
    batch_size: 12
    crop_size: 216
    mirror: false
    backend: LMDB
  }
}
layers {
  bottom: "source_ims"
  top: "conv1"
  name: "conv1"
  type: CONVOLUTION
  blobs_lr: 0
  blobs_lr: 0
  weight_decay: 1
  weight_decay: 0
  convolution_param {
    num_output: 96
    kernel_size: 11
    stride: 4
    weight_filler {
      type: "gaussian"
      std: 0.01
    }
    bias_filler {
      type: "constant"
      value: 0
    }
  }
}
layers {
  bottom: "conv1"
  top: "conv1"
  name: "relu1"
  type: RELU
}
layers {
  bottom: "conv1"
  top: "pool1"
  name: "pool1"
  type: POOLING
  pooling_param {
    pool: MAX
    kernel_size: 3
    stride: 2
  }
}
layers {
  bottom: "pool1"
  top: "norm1"
  name: "norm1"
  type: LRN
  lrn_param {
    local_size: 5
    alpha: 0.0001
    beta: 0.75
  }
}
layers {
  bottom: "norm1"
  top: "Rconv6"
  name: "Rconv6"
  type: CONVOLUTION
  blobs_lr: 1
  blobs_lr: 2
  weight_decay: 1
  weight_decay: 0
  convolution_param {
    num_output: 256
    pad: 1
    kernel_size: 3
  }
}
layers {
  bottom: "Rconv6"
  top: "Rconv6"
  name: "Rrelu6"
  type: RELU
}
layers {
  bottom: "Rconv6"
  top: "Rconv7"
  name: "Rconv7"
  type: CONVOLUTION
  blobs_lr: 1
  blobs_lr: 2
  weight_decay: 1
  weight_decay: 0
  convolution_param {
    num_output: 256
    pad: 1
    kernel_size: 3
    group: 2
  }
}
layers {
  bottom: "Rconv7"
  top: "Rconv7"
  name: "Rrelu7"
  type: RELU
}
layers {
  bottom: "Rconv7"
  top: "Rconv8"
  name: "Rconv8"
  type: CONVOLUTION
  blobs_lr: 1
  blobs_lr: 2
  weight_decay: 1
  weight_decay: 0
  convolution_param {
    num_output: 256
    pad: 1
    kernel_size: 3
    group: 2
  }
}
layers {
  bottom: "Rconv8"
  top: "Rconv8"
  name: "Rrelu8"
  type: RELU
}
layers {
  bottom: "Rconv8"
  top: "deconv2"
  name: "deconv2"
  type: DECONVOLUTION
  blobs_lr: 1
  blobs_lr: 2
  weight_decay: 1
  weight_decay: 0
  deconvolution_param {
    pad: 2
    kernel_size: 5
    stride: 2
    output_height: 54
    output_width: 54
    output_channels: 64
  }
}
layers {
  bottom: "deconv2"
  top: "deconv2"
  name: "relu_deconv2"
  type: RELU
  relu_param {
    negative_slope: 0.3
  }
}
layers {
  bottom: "deconv2"
  top: "deconv1"
  name: "deconv1"
  type: DECONVOLUTION
  blobs_lr: 1
  blobs_lr: 2
  weight_decay: 1
  weight_decay: 0
  deconvolution_param {
    pad: 2
    kernel_size: 5
    stride: 2
    output_height: 108
    output_width: 108
    output_channels: 32
  }
}
layers {
  bottom: "deconv1"
  top: "deconv1"
  name: "relu_deconv1"
  type: RELU
  relu_param {
    negative_slope: 0.3
  }
}
layers {
  bottom: "deconv1"
  top: "deconv0"
  name: "deconv0"
  type: DECONVOLUTION
  blobs_lr: 1
  blobs_lr: 2
  weight_decay: 1
  weight_decay: 1
  deconvolution_param {
    pad: 2
    kernel_size: 5
    stride: 2
    output_height: 216
    output_width: 216
    output_channels: 3
  }
}
layers {
  bottom: "deconv0"
  bottom: "target_ims"
  name: "loss"
  type: EUCLIDEAN_LOSS
}
I0812 21:34:56.066820 21326 net.cpp:65] Creating Layer source_ims
I0812 21:34:56.066830 21326 net.cpp:189] source_ims -> source_ims
I0812 21:34:56.066949 21326 data_layer.cpp:223] Opening lmdb /scr/r6/tgebru/inverting_conv/caffe_invert_alexnet/data/siggraph/tiny_summer_train_lmdb
I0812 21:34:56.067172 21326 data_layer.cpp:285] output data size: 12,3,227,227
I0812 21:34:56.067178 21326 data_layer.cpp:304] Loading mean file from/scr/r6/tgebru/timnit_caffe/data/ilsvrc12/imagenet_mean.binaryproto
I0812 21:34:56.072108 21326 net.cpp:84] Top shape: 12 3 227 227 (1855044)
I0812 21:34:56.072116 21326 net.cpp:116] source_ims does not need backward computation.
I0812 21:34:56.072123 21326 net.cpp:65] Creating Layer target_ims
I0812 21:34:56.072126 21326 net.cpp:189] target_ims -> target_ims
I0812 21:34:56.072288 21326 data_layer.cpp:223] Opening lmdb /scr/r6/tgebru/inverting_conv/caffe_invert_alexnet/data/siggraph/tiny_winter_train_lmdb
I0812 21:34:56.072448 21326 data_layer.cpp:285] output data size: 12,3,216,216
I0812 21:34:56.072453 21326 data_layer.cpp:304] Loading mean file from/scr/r6/tgebru/timnit_caffe/data/ilsvrc12/imagenet_mean.binaryproto
I0812 21:34:56.076946 21326 net.cpp:84] Top shape: 12 3 216 216 (1679616)
I0812 21:34:56.076954 21326 net.cpp:116] target_ims does not need backward computation.
I0812 21:34:56.076967 21326 net.cpp:65] Creating Layer conv1
I0812 21:34:56.076970 21326 net.cpp:228] conv1 <- source_ims
I0812 21:34:56.077035 21326 net.cpp:189] conv1 -> conv1
I0812 21:34:56.078347 21326 net.cpp:84] Top shape: 12 96 55 55 (3484800)
I0812 21:34:56.078353 21326 net.cpp:116] conv1 does not need backward computation.
I0812 21:34:56.078359 21326 net.cpp:65] Creating Layer relu1
I0812 21:34:56.078362 21326 net.cpp:228] relu1 <- conv1
I0812 21:34:56.078367 21326 net.cpp:179] relu1 -> conv1 (in-place)
I0812 21:34:56.078377 21326 net.cpp:84] Top shape: 12 96 55 55 (3484800)
I0812 21:34:56.078379 21326 net.cpp:116] relu1 does not need backward computation.
I0812 21:34:56.078385 21326 net.cpp:65] Creating Layer pool1
I0812 21:34:56.078387 21326 net.cpp:228] pool1 <- conv1
I0812 21:34:56.078392 21326 net.cpp:189] pool1 -> pool1
I0812 21:34:56.078405 21326 net.cpp:84] Top shape: 12 96 27 27 (839808)
I0812 21:34:56.078408 21326 net.cpp:116] pool1 does not need backward computation.
I0812 21:34:56.078413 21326 net.cpp:65] Creating Layer norm1
I0812 21:34:56.078415 21326 net.cpp:228] norm1 <- pool1
I0812 21:34:56.078420 21326 net.cpp:189] norm1 -> norm1
I0812 21:34:56.078430 21326 net.cpp:84] Top shape: 12 96 27 27 (839808)
I0812 21:34:56.078433 21326 net.cpp:116] norm1 does not need backward computation.
I0812 21:34:56.078438 21326 net.cpp:65] Creating Layer Rconv6
I0812 21:34:56.078441 21326 net.cpp:228] Rconv6 <- norm1
I0812 21:34:56.078445 21326 net.cpp:189] Rconv6 -> Rconv6
I0812 21:34:56.078703 21326 net.cpp:84] Top shape: 12 256 27 27 (2239488)
I0812 21:34:56.078707 21326 net.cpp:111] Rconv6 needs backward computation.
I0812 21:34:56.078712 21326 net.cpp:65] Creating Layer Rrelu6
I0812 21:34:56.078716 21326 net.cpp:228] Rrelu6 <- Rconv6
I0812 21:34:56.078721 21326 net.cpp:179] Rrelu6 -> Rconv6 (in-place)
I0812 21:34:56.078726 21326 net.cpp:84] Top shape: 12 256 27 27 (2239488)
I0812 21:34:56.078727 21326 net.cpp:111] Rrelu6 needs backward computation.
I0812 21:34:56.078733 21326 net.cpp:65] Creating Layer Rconv7
I0812 21:34:56.078735 21326 net.cpp:228] Rconv7 <- Rconv6
I0812 21:34:56.078740 21326 net.cpp:189] Rconv7 -> Rconv7
I0812 21:34:56.079443 21326 net.cpp:84] Top shape: 12 256 27 27 (2239488)
I0812 21:34:56.079449 21326 net.cpp:111] Rconv7 needs backward computation.
I0812 21:34:56.079453 21326 net.cpp:65] Creating Layer Rrelu7
I0812 21:34:56.079474 21326 net.cpp:228] Rrelu7 <- Rconv7
I0812 21:34:56.079480 21326 net.cpp:179] Rrelu7 -> Rconv7 (in-place)
I0812 21:34:56.079485 21326 net.cpp:84] Top shape: 12 256 27 27 (2239488)
I0812 21:34:56.079488 21326 net.cpp:111] Rrelu7 needs backward computation.
I0812 21:34:56.079493 21326 net.cpp:65] Creating Layer Rconv8
I0812 21:34:56.079494 21326 net.cpp:228] Rconv8 <- Rconv7
I0812 21:34:56.079499 21326 net.cpp:189] Rconv8 -> Rconv8
I0812 21:34:56.080245 21326 net.cpp:84] Top shape: 12 256 27 27 (2239488)
I0812 21:34:56.080250 21326 net.cpp:111] Rconv8 needs backward computation.
I0812 21:34:56.080255 21326 net.cpp:65] Creating Layer Rrelu8
I0812 21:34:56.080257 21326 net.cpp:228] Rrelu8 <- Rconv8
I0812 21:34:56.080261 21326 net.cpp:179] Rrelu8 -> Rconv8 (in-place)
I0812 21:34:56.080265 21326 net.cpp:84] Top shape: 12 256 27 27 (2239488)
I0812 21:34:56.080268 21326 net.cpp:111] Rrelu8 needs backward computation.
I0812 21:34:56.080272 21326 net.cpp:65] Creating Layer deconv2
I0812 21:34:56.080274 21326 net.cpp:228] deconv2 <- Rconv8
I0812 21:34:56.080278 21326 net.cpp:189] deconv2 -> deconv2
I0812 21:34:56.081308 21326 net.cpp:84] Top shape: 12 64 54 54 (2239488)
I0812 21:34:56.081312 21326 net.cpp:111] deconv2 needs backward computation.
I0812 21:34:56.081316 21326 net.cpp:65] Creating Layer relu_deconv2
I0812 21:34:56.081320 21326 net.cpp:228] relu_deconv2 <- deconv2
I0812 21:34:56.081324 21326 net.cpp:179] relu_deconv2 -> deconv2 (in-place)
I0812 21:34:56.081329 21326 net.cpp:84] Top shape: 12 64 54 54 (2239488)
I0812 21:34:56.081331 21326 net.cpp:111] relu_deconv2 needs backward computation.
I0812 21:34:56.081336 21326 net.cpp:65] Creating Layer deconv1
I0812 21:34:56.081338 21326 net.cpp:228] deconv1 <- deconv2
I0812 21:34:56.081342 21326 net.cpp:189] deconv1 -> deconv1
I0812 21:34:56.081502 21326 net.cpp:84] Top shape: 12 32 108 108 (4478976)
I0812 21:34:56.081507 21326 net.cpp:111] deconv1 needs backward computation.
I0812 21:34:56.081511 21326 net.cpp:65] Creating Layer relu_deconv1
I0812 21:34:56.081514 21326 net.cpp:228] relu_deconv1 <- deconv1
I0812 21:34:56.081518 21326 net.cpp:179] relu_deconv1 -> deconv1 (in-place)
I0812 21:34:56.081522 21326 net.cpp:84] Top shape: 12 32 108 108 (4478976)
I0812 21:34:56.081526 21326 net.cpp:111] relu_deconv1 needs backward computation.
I0812 21:34:56.081531 21326 net.cpp:65] Creating Layer deconv0
I0812 21:34:56.081533 21326 net.cpp:228] deconv0 <- deconv1
I0812 21:34:56.081537 21326 net.cpp:189] deconv0 -> deconv0
I0812 21:34:56.081583 21326 net.cpp:84] Top shape: 12 3 216 216 (1679616)
I0812 21:34:56.081585 21326 net.cpp:111] deconv0 needs backward computation.
I0812 21:34:56.081589 21326 net.cpp:65] Creating Layer loss
I0812 21:34:56.081591 21326 net.cpp:228] loss <- deconv0
I0812 21:34:56.081595 21326 net.cpp:228] loss <- target_ims
I0812 21:34:56.081604 21326 net.cpp:111] loss needs backward computation.
I0812 21:34:56.081619 21326 net.cpp:238] Collecting Learning Rate and Weight Decay.
…
    source: "/scr/r6/tgebru/inverting_conv/caffe_invert_alexnet/data/siggraph/tiny_summer_val_lmdb"
    mean_file: "/scr/r6/tgebru/timnit_caffe/data/ilsvrc12/imagenet_mean.binaryproto"
    batch_size: 64
    crop_size: 227
    mirror: false
    backend: LMDB
  }
}
layers {
  top: "target_ims"
  name: "target_ims"
  type: DATA
  data_param {
    source: "/scr/r6/tgebru/inverting_conv/caffe_invert_alexnet/data/siggraph/tiny_winter_val_lmdb"
    mean_file: "/scr/r6/tgebru/timnit_caffe/data/ilsvrc12/imagenet_mean.binaryproto"
    batch_size: 64
    crop_size: 216
    mirror: false
    backend: LMDB
  }
}
layers {
  bottom: "source_ims"
  top: "conv1"
  name: "conv1"
  type: CONVOLUTION
  blobs_lr: 0
  blobs_lr: 0
  weight_decay: 1
  weight_decay: 0
  convolution_param {
    num_output: 96
    kernel_size: 11
    stride: 4
    weight_filler {
      type: "gaussian"
      std: 0.01
    }
    bias_filler {
      type: "constant"
      value: 0
    }
  }
}
layers {
  bottom: "conv1"
  top: "conv1"
  name: "relu1"
  type: RELU
}
layers {
  bottom: "conv1"
  top: "pool1"
  name: "pool1"
  type: POOLING
  pooling_param {
    pool: MAX
    kernel_size: 3
    stride: 2
  }
}
layers {
  bottom: "pool1"
  top: "norm1"
  name: "norm1"
  type: LRN
  lrn_param {
    local_size: 5
    alpha: 0.0001
    beta: 0.75
  }
}
layers {
  bottom: "norm1"
  top: "Rconv6"
  name: "Rconv6"
  type: CONVOLUTION
  blobs_lr: 0
  blobs_lr: 0
  weight_decay: 1
  weight_decay: 0
  convolution_param {
    num_output: 256
    pad: 1
    kernel_size: 3
  }
}
layers {
  bottom: "Rconv6"
  top: "Rconv6"
  name: "Rrelu6"
  type: RELU
}
layers {
  bottom: "Rconv6"
  top: "Rconv7"
  name: "Rconv7"
  type: CONVOLUTION
  blobs_lr: 0
  blobs_lr: 0
  weight_decay: 1
  weight_decay: 0
  convolution_param {
    num_output: 256
    pad: 1
    kernel_size: 3
    group: 2
  }
}
layers {
  bottom: "Rconv7"
  top: "Rconv7"
  name: "Rrelu7"
  type: RELU
}
layers {
  bottom: "Rconv7"
  top: "Rconv8"
  name: "Rconv8"
  type: CONVOLUTION
  blobs_lr: 0
  blobs_lr: 0
  weight_decay: 1
  weight_decay: 0
  convolution_param {
    num_output: 256
    pad: 1
    kernel_size: 3
    group: 2
  }
}
layers {
  bottom: "Rconv8"
  top: "Rconv8"
  name: "Rrelu8"
  type: RELU
}
layers {
  bottom: "Rconv8"
  top: "deconv2"
  name: "deconv2"
  type: DECONVOLUTION
  blobs_lr: 0
  blobs_lr: 0
  weight_decay: 1
  weight_decay: 0
  deconvolution_param {
    pad: 2
    kernel_size: 5
    stride: 2
    output_height: 54
    output_width: 54
    output_channels: 64
  }
}
layers {
  bottom: "deconv2"
  top: "deconv2"
  name: "relu_deconv2"
  type: RELU
  relu_param {
    negative_slope: 0.3
  }
}
layers {
  bottom: "deconv2"
  top: "deconv1"
  name: "deconv1"
  type: DECONVOLUTION
  blobs_lr: 0
  blobs_lr: 0
  weight_decay: 1
  weight_decay: 0
  deconvolution_param {
    pad: 2
    kernel_size: 5
    stride: 2
    output_height: 108
    output_width: 108
    output_channels: 32
  }
}
layers {
  bottom: "deconv1"
  top: "deconv1"
  name: "relu_deconv1"
  type: RELU
  relu_param {
    negative_slope: 0.3
  }
}
layers {
  bottom: "deconv1"
  top: "deconv0"
  name: "deconv0"
  type: DECONVOLUTION
  blobs_lr: 0
  blobs_lr: 0
  weight_decay: 1
  weight_decay: 0
  deconvolution_param {
    pad: 2
    kernel_size: 5
    stride: 2
    output_height: 216
    output_width: 216
    output_channels: 3
  }
}
layers {
  bottom: "deconv0"
  bottom: "target_ims"
  name: "loss"
  type: EUCLIDEAN_LOSS
}
I0812 21:34:56.082345 21326 net.cpp:65] Creating Layer source_ims
I0812 21:34:56.082350 21326 net.cpp:189] source_ims -> source_ims
I0812 21:34:56.082422 21326 data_layer.cpp:223] Opening lmdb /scr/r6/tgebru/inverting_conv/caffe_invert_alexnet/data/siggraph/tiny_summer_val_lmdb
I0812 21:34:56.082607 21326 data_layer.cpp:285] output data size: 64,3,227,227
I0812 21:34:56.082612 21326 data_layer.cpp:304] Loading mean file from/scr/r6/tgebru/timnit_caffe/data/ilsvrc12/imagenet_mean.binaryproto
I0812 21:34:56.096699 21326 net.cpp:84] Top shape: 64 3 227 227 (9893568)
I0812 21:34:56.096717 21326 net.cpp:116] source_ims does not need backward computation.
I0812 21:34:56.096730 21326 net.cpp:65] Creating Layer target_ims
I0812 21:34:56.096736 21326 net.cpp:189] target_ims -> target_ims
I0812 21:34:56.096827 21326 data_layer.cpp:223] Opening lmdb /scr/r6/tgebru/inverting_conv/caffe_invert_alexnet/data/siggraph/tiny_winter_val_lmdb
I0812 21:34:56.096964 21326 data_layer.cpp:285] output data size: 64,3,216,216
I0812 21:34:56.096969 21326 data_layer.cpp:304] Loading mean file from/scr/r6/tgebru/timnit_caffe/data/ilsvrc12/imagenet_mean.binaryproto
I0812 21:34:56.109483 21326 net.cpp:84] Top shape: 64 3 216 216 (8957952)
I0812 21:34:56.109555 21326 net.cpp:116] target_ims does not need backward computation.
I0812 21:34:56.109571 21326 net.cpp:65] Creating Layer conv1
I0812 21:34:56.109576 21326 net.cpp:228] conv1 <- source_ims
I0812 21:34:56.109586 21326 net.cpp:189] conv1 -> conv1
I0812 21:34:56.110853 21326 net.cpp:84] Top shape: 64 96 55 55 (18585600)
I0812 21:34:56.110858 21326 net.cpp:116] conv1 does not need backward computation.
I0812 21:34:56.110862 21326 net.cpp:65] Creating Layer relu1
I0812 21:34:56.110865 21326 net.cpp:228] relu1 <- conv1
I0812 21:34:56.110870 21326 net.cpp:179] relu1 -> conv1 (in-place)
I0812 21:34:56.110875 21326 net.cpp:84] Top shape: 64 96 55 55 (18585600)
I0812 21:34:56.110878 21326 net.cpp:116] relu1 does not need backward computation.
I0812 21:34:56.110883 21326 net.cpp:65] Creating Layer pool1
I0812 21:34:56.110887 21326 net.cpp:228] pool1 <- conv1
I0812 21:34:56.110890 21326 net.cpp:189] pool1 -> pool1
I0812 21:34:56.110898 21326 net.cpp:84] Top shape: 64 96 27 27 (4478976)
I0812 21:34:56.110901 21326 net.cpp:116] pool1 does not need backward computation.
I0812 21:34:56.110906 21326 net.cpp:65] Creating Layer norm1
I0812 21:34:56.110909 21326 net.cpp:228] norm1 <- pool1
I0812 21:34:56.110913 21326 net.cpp:189] norm1 -> norm1
I0812 21:34:56.110920 21326 net.cpp:84] Top shape: 64 96 27 27 (4478976)
I0812 21:34:56.110924 21326 net.cpp:116] norm1 does not need backward computation.
I0812 21:34:56.110927 21326 net.cpp:65] Creating Layer Rconv6
I0812 21:34:56.110930 21326 net.cpp:228] Rconv6 <- norm1
I0812 21:34:56.110934 21326 net.cpp:189] Rconv6 -> Rconv6
I0812 21:34:56.111171 21326 net.cpp:84] Top shape: 64 256 27 27 (11943936)
I0812 21:34:56.111176 21326 net.cpp:116] Rconv6 does not need backward computation.
I0812 21:34:56.111181 21326 net.cpp:65] Creating Layer Rrelu6
I0812 21:34:56.111183 21326 net.cpp:228] Rrelu6 <- Rconv6
I0812 21:34:56.111188 21326 net.cpp:179] Rrelu6 -> Rconv6 (in-place)
I0812 21:34:56.111192 21326 net.cpp:84] Top shape: 64 256 27 27 (11943936)
I0812 21:34:56.111196 21326 net.cpp:116] Rrelu6 does not need backward computation.
I0812 21:34:56.111201 21326 net.cpp:65] Creating Layer Rconv7
I0812 21:34:56.111203 21326 net.cpp:228] Rconv7 <- Rconv6
I0812 21:34:56.111207 21326 net.cpp:189] Rconv7 -> Rconv7
I0812 21:34:56.111989 21326 net.cpp:84] Top shape: 64 256 27 27 (11943936)
I0812 21:34:56.111992 21326 net.cpp:116] Rconv7 does not need backward computation.
I0812 21:34:56.111996 21326 net.cpp:65] Creating Layer Rrelu7
I0812 21:34:56.111999 21326 net.cpp:228] Rrelu7 <- Rconv7
I0812 21:34:56.112004 21326 net.cpp:179] Rrelu7 -> Rconv7 (in-place)
I0812 21:34:56.112009 21326 net.cpp:84] Top shape: 64 256 27 27 (11943936)
I0812 21:34:56.112010 21326 net.cpp:116] Rrelu7 does not need backward computation.
I0812 21:34:56.112015 21326 net.cpp:65] Creating Layer Rconv8
I0812 21:34:56.112017 21326 net.cpp:228] Rconv8 <- Rconv7
I0812 21:34:56.112021 21326 net.cpp:189] Rconv8 -> Rconv8
I0812 21:34:56.112761 21326 net.cpp:84] Top shape: 64 256 27 27 (11943936)
I0812 21:34:56.112764 21326 net.cpp:116] Rconv8 does not need backward computation.
I0812 21:34:56.112769 21326 net.cpp:65] Creating Layer Rrelu8
I0812 21:34:56.112772 21326 net.cpp:228] Rrelu8 <- Rconv8
I0812 21:34:56.112776 21326 net.cpp:179] Rrelu8 -> Rconv8 (in-place)
I0812 21:34:56.112781 21326 net.cpp:84] Top shape: 64 256 27 27 (11943936)
I0812 21:34:56.112783 21326 net.cpp:116] Rrelu8 does not need backward computation.
I0812 21:34:56.112788 21326 net.cpp:65] Creating Layer deconv2
I0812 21:34:56.112790 21326 net.cpp:228] deconv2 <- Rconv8
I0812 21:34:56.112794 21326 net.cpp:189] deconv2 -> deconv2
I0812 21:34:56.113873 21326 net.cpp:84] Top shape: 64 64 54 54 (11943936)
I0812 21:34:56.113878 21326 net.cpp:116] deconv2 does not need backward computation.
I0812 21:34:56.113883 21326 net.cpp:65] Creating Layer relu_deconv2
I0812 21:34:56.113886 21326 net.cpp:228] relu_deconv2 <- deconv2
I0812 21:34:56.113890 21326 net.cpp:179] relu_deconv2 -> deconv2 (in-place)
I0812 21:34:56.113895 21326 net.cpp:84] Top shape: 64 64 54 54 (11943936)
I0812 21:34:56.113910 21326 net.cpp:116] relu_deconv2 does not need backward computation.
I0812 21:34:56.113914 21326 net.cpp:65] Creating Layer deconv1
I0812 21:34:56.113917 21326 net.cpp:228] deconv1 <- deconv2
I0812 21:34:56.113921 21326 net.cpp:189] deconv1 -> deconv1
I0812 21:34:56.114054 21326 net.cpp:84] Top shape: 64 32 108 108 (23887872)
I0812 21:34:56.114058 21326 net.cpp:116] deconv1 does not need backward computation.
I0812 21:34:56.114063 21326 net.cpp:65] Creating Layer relu_deconv1
I0812 21:34:56.114065 21326 net.cpp:228] relu_deconv1 <- deconv1
I0812 21:34:56.114069 21326 net.cpp:179] relu_deconv1 -> deconv1 (in-place)
I0812 21:34:56.114074 21326 net.cpp:84] Top shape: 64 32 108 108 (23887872)
I0812 21:34:56.114076 21326 net.cpp:116] relu_deconv1 does not need backward computation.
I0812 21:34:56.114083 21326 net.cpp:65] Creating Layer deconv0
I0812 21:34:56.114084 21326 net.cpp:228] deconv0 <- deconv1
I0812 21:34:56.114089 21326 net.cpp:189] deconv0 -> deconv0
I0812 21:34:56.114112 21326 net.cpp:84] Top shape: 64 3 216 216 (8957952)
I0812 21:34:56.114115 21326 net.cpp:116] deconv0 does not need backward computation.
I0812 21:34:56.114120 21326 net.cpp:65] Creating Layer loss
I0812 21:34:56.114121 21326 net.cpp:228] loss <- deconv0
I0812 21:34:56.114125 21326 net.cpp:228] loss <- target_ims
I0812 21:34:56.114130 21326 net.cpp:116] loss does not need backward computation.
I0812 21:34:56.114142 21326 net.cpp:238] Collecting Learning Rate and Weight Decay.
…
