…
    source: "/scr/r6/tgebru/inverting_conv/caffe_invert_alexnet/data/siggraph/tiny_summer_train_lmdb"
    mean_file: "/scr/r6/tgebru/timnit_caffe/data/ilsvrc12/imagenet_mean.binaryproto"
    batch_size: 12
    crop_size: 227
    mirror: false
    backend: LMDB
  }
}
layers {
  top: "target_ims"
  name: "target_ims"
  type: DATA
  data_param {
    source: "/scr/r6/tgebru/inverting_conv/caffe_invert_alexnet/data/siggraph/tiny_winter_train_lmdb"
    mean_file: "/scr/r6/tgebru/timnit_caffe/data/ilsvrc12/imagenet_mean.binaryproto"
    batch_size: 12
    crop_size: 216
    mirror: false
    backend: LMDB
  }
}
layers {
  bottom: "source_ims"
  top: "conv1"
  name: "conv1"
  type: CONVOLUTION
  blobs_lr: 0
  blobs_lr: 0
  weight_decay: 1
  weight_decay: 0
  convolution_param {
    num_output: 96
    kernel_size: 11
    stride: 4
    weight_filler {
      type: "gaussian"
      std: 0.01
    }
    bias_filler {
      type: "constant"
      value: 0
    }
  }
}
layers {
  bottom: "conv1"
  top: "conv1"
  name: "relu1"
  type: RELU
}
layers {
  bottom: "conv1"
  top: "pool1"
  name: "pool1"
  type: POOLING
  pooling_param {
    pool: MAX
    kernel_size: 3
    stride: 2
  }
}
layers {
  bottom: "pool1"
  top: "norm1"
  name: "norm1"
  type: LRN
  lrn_param {
    local_size: 5
    alpha: 0.0001
    beta: 0.75
  }
}
layers {
  bottom: "norm1"
  top: "Rconv6"
  name: "Rconv6"
  type: CONVOLUTION
  blobs_lr: 1
  blobs_lr: 2
  weight_decay: 1
  weight_decay: 0
  convolution_param {
    num_output: 256
    pad: 1
    kernel_size: 3
  }
}
layers {
  bottom: "Rconv6"
  top: "Rconv6"
  name: "Rrelu6"
  type: RELU
}
layers {
  bottom: "Rconv6"
  top: "Rconv7"
  name: "Rconv7"
  type: CONVOLUTION
  blobs_lr: 1
  blobs_lr: 2
  weight_decay: 1
  weight_decay: 0
  convolution_param {
    num_output: 256
    pad: 1
    kernel_size: 3
    group: 2
  }
}
layers {
  bottom: "Rconv7"
  top: "Rconv7"
  name: "Rrelu7"
  type: RELU
}
layers {
  bottom: "Rconv7"
  top: "Rconv8"
  name: "Rconv8"
  type: CONVOLUTION
  blobs_lr: 1
  blobs_lr: 2
  weight_decay: 1
  weight_decay: 0
  convolution_param {
    num_output: 256
    pad: 1
    kernel_size: 3
    group: 2
  }
}
layers {
  bottom: "Rconv8"
  top: "Rconv8"
  name: "Rrelu8"
  type: RELU
}
layers {
  bottom: "Rconv8"
  top: "deconv2"
  name: "deconv2"
  type: DECONVOLUTION
  blobs_lr: 1
  blobs_lr: 2
  weight_decay: 1
  weight_decay: 0
  deconvolution_param {
    pad: 2
    kernel_size: 5
    stride: 2
    output_height: 54
    output_width: 54
    output_channels: 64
  }
}
layers {
  bottom: "deconv2"
  top: "deconv2"
  name: "relu_deconv2"
  type: RELU
  relu_param {
    negative_slope: 0.3
  }
}
layers {
  bottom: "deconv2"
  top: "deconv1"
  name: "deconv1"
  type: DECONVOLUTION
  blobs_lr: 1
  blobs_lr: 2
  weight_decay: 1
  weight_decay: 0
  deconvolution_param {
    pad: 2
    kernel_size: 5
    stride: 2
    output_height: 108
    output_width: 108
    output_channels: 32
  }
}
layers {
  bottom: "deconv1"
  top: "deconv1"
  name: "relu_deconv1"
  type: RELU
  relu_param {
    negative_slope: 0.3
  }
}
layers {
  bottom: "deconv1"
  top: "deconv0"
  name: "deconv0"
  type: DECONVOLUTION
  blobs_lr: 1
  blobs_lr: 2
  weight_decay: 1
  weight_decay: 1
  deconvolution_param {
    pad: 2
    kernel_size: 5
    stride: 2
    output_height: 216
    output_width: 216
    output_channels: 3
  }
}
layers {
  bottom: "deconv0"
  bottom: "target_ims"
  name: "loss"
  type: EUCLIDEAN_LOSS
}
I0812 20:06:29.937718 23584 net.cpp:65] Creating Layer source_ims
I0812 20:06:29.937728 23584 net.cpp:189] source_ims -> source_ims
I0812 20:06:29.937847 23584 data_layer.cpp:223] Opening lmdb /scr/r6/tgebru/inverting_conv/caffe_invert_alexnet/data/siggraph/tiny_summer_train_lmdb
I0812 20:06:29.938065 23584 data_layer.cpp:285] output data size: 12,3,227,227
I0812 20:06:29.938071 23584 data_layer.cpp:304] Loading mean file from/scr/r6/tgebru/timnit_caffe/data/ilsvrc12/imagenet_mean.binaryproto
I0812 20:06:29.942606 23584 net.cpp:84] Top shape: 12 3 227 227 (1855044)
I0812 20:06:29.942613 23584 net.cpp:116] source_ims does not need backward computation.
I0812 20:06:29.942620 23584 net.cpp:65] Creating Layer target_ims
I0812 20:06:29.942625 23584 net.cpp:189] target_ims -> target_ims
I0812 20:06:29.942790 23584 data_layer.cpp:223] Opening lmdb /scr/r6/tgebru/inverting_conv/caffe_invert_alexnet/data/siggraph/tiny_winter_train_lmdb
I0812 20:06:29.942950 23584 data_layer.cpp:285] output data size: 12,3,216,216
I0812 20:06:29.942955 23584 data_layer.cpp:304] Loading mean file from/scr/r6/tgebru/timnit_caffe/data/ilsvrc12/imagenet_mean.binaryproto
I0812 20:06:29.947439 23584 net.cpp:84] Top shape: 12 3 216 216 (1679616)
I0812 20:06:29.947448 23584 net.cpp:116] target_ims does not need backward computation.
I0812 20:06:29.947459 23584 net.cpp:65] Creating Layer conv1
I0812 20:06:29.947463 23584 net.cpp:228] conv1 <- source_ims
I0812 20:06:29.947526 23584 net.cpp:189] conv1 -> conv1
I0812 20:06:29.948817 23584 net.cpp:84] Top shape: 12 96 55 55 (3484800)
I0812 20:06:29.948822 23584 net.cpp:116] conv1 does not need backward computation.
I0812 20:06:29.948827 23584 net.cpp:65] Creating Layer relu1
I0812 20:06:29.948829 23584 net.cpp:228] relu1 <- conv1
I0812 20:06:29.948834 23584 net.cpp:179] relu1 -> conv1 (in-place)
I0812 20:06:29.948843 23584 net.cpp:84] Top shape: 12 96 55 55 (3484800)
I0812 20:06:29.948846 23584 net.cpp:116] relu1 does not need backward computation.
I0812 20:06:29.948851 23584 net.cpp:65] Creating Layer pool1
I0812 20:06:29.948853 23584 net.cpp:228] pool1 <- conv1
I0812 20:06:29.948858 23584 net.cpp:189] pool1 -> pool1
I0812 20:06:29.948870 23584 net.cpp:84] Top shape: 12 96 27 27 (839808)
I0812 20:06:29.948873 23584 net.cpp:116] pool1 does not need backward computation.
I0812 20:06:29.948879 23584 net.cpp:65] Creating Layer norm1
I0812 20:06:29.948880 23584 net.cpp:228] norm1 <- pool1
I0812 20:06:29.948884 23584 net.cpp:189] norm1 -> norm1
I0812 20:06:29.948894 23584 net.cpp:84] Top shape: 12 96 27 27 (839808)
I0812 20:06:29.948896 23584 net.cpp:116] norm1 does not need backward computation.
I0812 20:06:29.948900 23584 net.cpp:65] Creating Layer Rconv6
I0812 20:06:29.948902 23584 net.cpp:228] Rconv6 <- norm1
I0812 20:06:29.948907 23584 net.cpp:189] Rconv6 -> Rconv6
I0812 20:06:29.949180 23584 net.cpp:84] Top shape: 12 256 27 27 (2239488)
I0812 20:06:29.949184 23584 net.cpp:111] Rconv6 needs backward computation.
I0812 20:06:29.949188 23584 net.cpp:65] Creating Layer Rrelu6
I0812 20:06:29.949193 23584 net.cpp:228] Rrelu6 <- Rconv6
I0812 20:06:29.949195 23584 net.cpp:179] Rrelu6 -> Rconv6 (in-place)
I0812 20:06:29.949200 23584 net.cpp:84] Top shape: 12 256 27 27 (2239488)
I0812 20:06:29.949203 23584 net.cpp:111] Rrelu6 needs backward computation.
I0812 20:06:29.949208 23584 net.cpp:65] Creating Layer Rconv7
I0812 20:06:29.949210 23584 net.cpp:228] Rconv7 <- Rconv6
I0812 20:06:29.949214 23584 net.cpp:189] Rconv7 -> Rconv7
I0812 20:06:29.949993 23584 net.cpp:84] Top shape: 12 256 27 27 (2239488)
I0812 20:06:29.950000 23584 net.cpp:111] Rconv7 needs backward computation.
I0812 20:06:29.950003 23584 net.cpp:65] Creating Layer Rrelu7
I0812 20:06:29.950026 23584 net.cpp:228] Rrelu7 <- Rconv7
I0812 20:06:29.950029 23584 net.cpp:179] Rrelu7 -> Rconv7 (in-place)
I0812 20:06:29.950034 23584 net.cpp:84] Top shape: 12 256 27 27 (2239488)
I0812 20:06:29.950037 23584 net.cpp:111] Rrelu7 needs backward computation.
I0812 20:06:29.950042 23584 net.cpp:65] Creating Layer Rconv8
I0812 20:06:29.950043 23584 net.cpp:228] Rconv8 <- Rconv7
I0812 20:06:29.950047 23584 net.cpp:189] Rconv8 -> Rconv8
I0812 20:06:29.950791 23584 net.cpp:84] Top shape: 12 256 27 27 (2239488)
I0812 20:06:29.950796 23584 net.cpp:111] Rconv8 needs backward computation.
I0812 20:06:29.950800 23584 net.cpp:65] Creating Layer Rrelu8
I0812 20:06:29.950803 23584 net.cpp:228] Rrelu8 <- Rconv8
I0812 20:06:29.950806 23584 net.cpp:179] Rrelu8 -> Rconv8 (in-place)
I0812 20:06:29.950810 23584 net.cpp:84] Top shape: 12 256 27 27 (2239488)
I0812 20:06:29.950814 23584 net.cpp:111] Rrelu8 needs backward computation.
I0812 20:06:29.950817 23584 net.cpp:65] Creating Layer deconv2
I0812 20:06:29.950820 23584 net.cpp:228] deconv2 <- Rconv8
I0812 20:06:29.950824 23584 net.cpp:189] deconv2 -> deconv2
I0812 20:06:29.951920 23584 net.cpp:84] Top shape: 12 64 54 54 (2239488)
I0812 20:06:29.951925 23584 net.cpp:111] deconv2 needs backward computation.
I0812 20:06:29.951930 23584 net.cpp:65] Creating Layer relu_deconv2
I0812 20:06:29.951932 23584 net.cpp:228] relu_deconv2 <- deconv2
I0812 20:06:29.951936 23584 net.cpp:179] relu_deconv2 -> deconv2 (in-place)
I0812 20:06:29.951941 23584 net.cpp:84] Top shape: 12 64 54 54 (2239488)
I0812 20:06:29.951944 23584 net.cpp:111] relu_deconv2 needs backward computation.
I0812 20:06:29.951947 23584 net.cpp:65] Creating Layer deconv1
I0812 20:06:29.951951 23584 net.cpp:228] deconv1 <- deconv2
I0812 20:06:29.951954 23584 net.cpp:189] deconv1 -> deconv1
I0812 20:06:29.952090 23584 net.cpp:84] Top shape: 12 32 108 108 (4478976)
I0812 20:06:29.952093 23584 net.cpp:111] deconv1 needs backward computation.
I0812 20:06:29.952096 23584 net.cpp:65] Creating Layer relu_deconv1
I0812 20:06:29.952100 23584 net.cpp:228] relu_deconv1 <- deconv1
I0812 20:06:29.952103 23584 net.cpp:179] relu_deconv1 -> deconv1 (in-place)
I0812 20:06:29.952108 23584 net.cpp:84] Top shape: 12 32 108 108 (4478976)
I0812 20:06:29.952111 23584 net.cpp:111] relu_deconv1 needs backward computation.
I0812 20:06:29.952116 23584 net.cpp:65] Creating Layer deconv0
I0812 20:06:29.952118 23584 net.cpp:228] deconv0 <- deconv1
I0812 20:06:29.952122 23584 net.cpp:189] deconv0 -> deconv0
I0812 20:06:29.952147 23584 net.cpp:84] Top shape: 12 3 216 216 (1679616)
I0812 20:06:29.952149 23584 net.cpp:111] deconv0 needs backward computation.
I0812 20:06:29.952153 23584 net.cpp:65] Creating Layer loss
I0812 20:06:29.952155 23584 net.cpp:228] loss <- deconv0
I0812 20:06:29.952159 23584 net.cpp:228] loss <- target_ims
I0812 20:06:29.952167 23584 net.cpp:111] loss needs backward computation.
I0812 20:06:29.952180 23584 net.cpp:238] Collecting Learning Rate and Weight Decay.
…
    source: "/scr/r6/tgebru/inverting_conv/caffe_invert_alexnet/data/siggraph/tiny_summer_val_lmdb"
    mean_file: "/scr/r6/tgebru/timnit_caffe/data/ilsvrc12/imagenet_mean.binaryproto"
    batch_size: 64
    crop_size: 227
    mirror: false
    backend: LMDB
  }
}
layers {
  top: "target_ims"
  name: "target_ims"
  type: DATA
  data_param {
    source: "/scr/r6/tgebru/inverting_conv/caffe_invert_alexnet/data/siggraph/tiny_winter_val_lmdb"
    mean_file: "/scr/r6/tgebru/timnit_caffe/data/ilsvrc12/imagenet_mean.binaryproto"
    batch_size: 64
    crop_size: 216
    mirror: false
    backend: LMDB
  }
}
layers {
  bottom: "source_ims"
  top: "conv1"
  name: "conv1"
  type: CONVOLUTION
  blobs_lr: 0
  blobs_lr: 0
  weight_decay: 1
  weight_decay: 0
  convolution_param {
    num_output: 96
    kernel_size: 11
    stride: 4
    weight_filler {
      type: "gaussian"
      std: 0.01
    }
    bias_filler {
      type: "constant"
      value: 0
    }
  }
}
layers {
  bottom: "conv1"
  top: "conv1"
  name: "relu1"
  type: RELU
}
layers {
  bottom: "conv1"
  top: "pool1"
  name: "pool1"
  type: POOLING
  pooling_param {
    pool: MAX
    kernel_size: 3
    stride: 2
  }
}
layers {
  bottom: "pool1"
  top: "norm1"
  name: "norm1"
  type: LRN
  lrn_param {
    local_size: 5
    alpha: 0.0001
    beta: 0.75
  }
}
layers {
  bottom: "norm1"
  top: "Rconv6"
  name: "Rconv6"
  type: CONVOLUTION
  blobs_lr: 0
  blobs_lr: 0
  weight_decay: 1
  weight_decay: 0
  convolution_param {
    num_output: 256
    pad: 1
    kernel_size: 3
  }
}
layers {
  bottom: "Rconv6"
  top: "Rconv6"
  name: "Rrelu6"
  type: RELU
}
layers {
  bottom: "Rconv6"
  top: "Rconv7"
  name: "Rconv7"
  type: CONVOLUTION
  blobs_lr: 0
  blobs_lr: 0
  weight_decay: 1
  weight_decay: 0
  convolution_param {
    num_output: 256
    pad: 1
    kernel_size: 3
    group: 2
  }
}
layers {
  bottom: "Rconv7"
  top: "Rconv7"
  name: "Rrelu7"
  type: RELU
}
layers {
  bottom: "Rconv7"
  top: "Rconv8"
  name: "Rconv8"
  type: CONVOLUTION
  blobs_lr: 0
  blobs_lr: 0
  weight_decay: 1
  weight_decay: 0
  convolution_param {
    num_output: 256
    pad: 1
    kernel_size: 3
    group: 2
  }
}
layers {
  bottom: "Rconv8"
  top: "Rconv8"
  name: "Rrelu8"
  type: RELU
}
layers {
  bottom: "Rconv8"
  top: "deconv2"
  name: "deconv2"
  type: DECONVOLUTION
  blobs_lr: 0
  blobs_lr: 0
  weight_decay: 1
  weight_decay: 0
  deconvolution_param {
    pad: 2
    kernel_size: 5
    stride: 2
    output_height: 54
    output_width: 54
    output_channels: 64
  }
}
layers {
  bottom: "deconv2"
  top: "deconv2"
  name: "relu_deconv2"
  type: RELU
  relu_param {
    negative_slope: 0.3
  }
}
layers {
  bottom: "deconv2"
  top: "deconv1"
  name: "deconv1"
  type: DECONVOLUTION
  blobs_lr: 0
  blobs_lr: 0
  weight_decay: 1
  weight_decay: 0
  deconvolution_param {
    pad: 2
    kernel_size: 5
    stride: 2
    output_height: 108
    output_width: 108
    output_channels: 32
  }
}
layers {
  bottom: "deconv1"
  top: "deconv1"
  name: "relu_deconv1"
  type: RELU
  relu_param {
    negative_slope: 0.3
  }
}
layers {
  bottom: "deconv1"
  top: "deconv0"
  name: "deconv0"
  type: DECONVOLUTION
  blobs_lr: 0
  blobs_lr: 0
  weight_decay: 1
  weight_decay: 0
  deconvolution_param {
    pad: 2
    kernel_size: 5
    stride: 2
    output_height: 216
    output_width: 216
    output_channels: 3
  }
}
layers {
  bottom: "deconv0"
  bottom: "target_ims"
  name: "loss"
  type: EUCLIDEAN_LOSS
}
I0812 20:06:29.952882 23584 net.cpp:65] Creating Layer source_ims
I0812 20:06:29.952886 23584 net.cpp:189] source_ims -> source_ims
I0812 20:06:29.952939 23584 data_layer.cpp:223] Opening lmdb /scr/r6/tgebru/inverting_conv/caffe_invert_alexnet/data/siggraph/tiny_summer_val_lmdb
I0812 20:06:29.953129 23584 data_layer.cpp:285] output data size: 64,3,227,227
I0812 20:06:29.953133 23584 data_layer.cpp:304] Loading mean file from/scr/r6/tgebru/timnit_caffe/data/ilsvrc12/imagenet_mean.binaryproto
I0812 20:06:29.967221 23584 net.cpp:84] Top shape: 64 3 227 227 (9893568)
I0812 20:06:29.967236 23584 net.cpp:116] source_ims does not need backward computation.
I0812 20:06:29.967247 23584 net.cpp:65] Creating Layer target_ims
I0812 20:06:29.967253 23584 net.cpp:189] target_ims -> target_ims
I0812 20:06:29.967347 23584 data_layer.cpp:223] Opening lmdb /scr/r6/tgebru/inverting_conv/caffe_invert_alexnet/data/siggraph/tiny_winter_val_lmdb
I0812 20:06:29.967483 23584 data_layer.cpp:285] output data size: 64,3,216,216
I0812 20:06:29.967488 23584 data_layer.cpp:304] Loading mean file from/scr/r6/tgebru/timnit_caffe/data/ilsvrc12/imagenet_mean.binaryproto
I0812 20:06:29.979929 23584 net.cpp:84] Top shape: 64 3 216 216 (8957952)
I0812 20:06:29.979990 23584 net.cpp:116] target_ims does not need backward computation.
I0812 20:06:29.980005 23584 net.cpp:65] Creating Layer conv1
I0812 20:06:29.980010 23584 net.cpp:228] conv1 <- source_ims
I0812 20:06:29.980020 23584 net.cpp:189] conv1 -> conv1
I0812 20:06:29.981283 23584 net.cpp:84] Top shape: 64 96 55 55 (18585600)
I0812 20:06:29.981287 23584 net.cpp:116] conv1 does not need backward computation.
I0812 20:06:29.981292 23584 net.cpp:65] Creating Layer relu1
I0812 20:06:29.981295 23584 net.cpp:228] relu1 <- conv1
I0812 20:06:29.981300 23584 net.cpp:179] relu1 -> conv1 (in-place)
I0812 20:06:29.981307 23584 net.cpp:84] Top shape: 64 96 55 55 (18585600)
I0812 20:06:29.981308 23584 net.cpp:116] relu1 does not need backward computation.
I0812 20:06:29.981314 23584 net.cpp:65] Creating Layer pool1
I0812 20:06:29.981317 23584 net.cpp:228] pool1 <- conv1
I0812 20:06:29.981322 23584 net.cpp:189] pool1 -> pool1
I0812 20:06:29.981328 23584 net.cpp:84] Top shape: 64 96 27 27 (4478976)
I0812 20:06:29.981331 23584 net.cpp:116] pool1 does not need backward computation.
I0812 20:06:29.981336 23584 net.cpp:65] Creating Layer norm1
I0812 20:06:29.981339 23584 net.cpp:228] norm1 <- pool1
I0812 20:06:29.981343 23584 net.cpp:189] norm1 -> norm1
I0812 20:06:29.981350 23584 net.cpp:84] Top shape: 64 96 27 27 (4478976)
I0812 20:06:29.981353 23584 net.cpp:116] norm1 does not need backward computation.
I0812 20:06:29.981356 23584 net.cpp:65] Creating Layer Rconv6
I0812 20:06:29.981359 23584 net.cpp:228] Rconv6 <- norm1
I0812 20:06:29.981364 23584 net.cpp:189] Rconv6 -> Rconv6
I0812 20:06:29.981607 23584 net.cpp:84] Top shape: 64 256 27 27 (11943936)
I0812 20:06:29.981611 23584 net.cpp:116] Rconv6 does not need backward computation.
I0812 20:06:29.981616 23584 net.cpp:65] Creating Layer Rrelu6
I0812 20:06:29.981618 23584 net.cpp:228] Rrelu6 <- Rconv6
I0812 20:06:29.981623 23584 net.cpp:179] Rrelu6 -> Rconv6 (in-place)
I0812 20:06:29.981627 23584 net.cpp:84] Top shape: 64 256 27 27 (11943936)
I0812 20:06:29.981631 23584 net.cpp:116] Rrelu6 does not need backward computation.
I0812 20:06:29.981636 23584 net.cpp:65] Creating Layer Rconv7
I0812 20:06:29.981638 23584 net.cpp:228] Rconv7 <- Rconv6
I0812 20:06:29.981643 23584 net.cpp:189] Rconv7 -> Rconv7
I0812 20:06:29.982354 23584 net.cpp:84] Top shape: 64 256 27 27 (11943936)
I0812 20:06:29.982359 23584 net.cpp:116] Rconv7 does not need backward computation.
I0812 20:06:29.982363 23584 net.cpp:65] Creating Layer Rrelu7
I0812 20:06:29.982367 23584 net.cpp:228] Rrelu7 <- Rconv7
I0812 20:06:29.982370 23584 net.cpp:179] Rrelu7 -> Rconv7 (in-place)
I0812 20:06:29.982375 23584 net.cpp:84] Top shape: 64 256 27 27 (11943936)
I0812 20:06:29.982378 23584 net.cpp:116] Rrelu7 does not need backward computation.
I0812 20:06:29.982383 23584 net.cpp:65] Creating Layer Rconv8
I0812 20:06:29.982384 23584 net.cpp:228] Rconv8 <- Rconv7
I0812 20:06:29.982388 23584 net.cpp:189] Rconv8 -> Rconv8
I0812 20:06:29.983121 23584 net.cpp:84] Top shape: 64 256 27 27 (11943936)
I0812 20:06:29.983126 23584 net.cpp:116] Rconv8 does not need backward computation.
I0812 20:06:29.983130 23584 net.cpp:65] Creating Layer Rrelu8
I0812 20:06:29.983134 23584 net.cpp:228] Rrelu8 <- Rconv8
I0812 20:06:29.983137 23584 net.cpp:179] Rrelu8 -> Rconv8 (in-place)
I0812 20:06:29.983141 23584 net.cpp:84] Top shape: 64 256 27 27 (11943936)
I0812 20:06:29.983144 23584 net.cpp:116] Rrelu8 does not need backward computation.
I0812 20:06:29.983150 23584 net.cpp:65] Creating Layer deconv2
I0812 20:06:29.983151 23584 net.cpp:228] deconv2 <- Rconv8
I0812 20:06:29.983155 23584 net.cpp:189] deconv2 -> deconv2
I0812 20:06:29.984168 23584 net.cpp:84] Top shape: 64 64 54 54 (11943936)
I0812 20:06:29.984171 23584 net.cpp:116] deconv2 does not need backward computation.
I0812 20:06:29.984176 23584 net.cpp:65] Creating Layer relu_deconv2
I0812 20:06:29.984179 23584 net.cpp:228] relu_deconv2 <- deconv2
I0812 20:06:29.984184 23584 net.cpp:179] relu_deconv2 -> deconv2 (in-place)
I0812 20:06:29.984189 23584 net.cpp:84] Top shape: 64 64 54 54 (11943936)
I0812 20:06:29.984202 23584 net.cpp:116] relu_deconv2 does not need backward computation.
I0812 20:06:29.984207 23584 net.cpp:65] Creating Layer deconv1
I0812 20:06:29.984210 23584 net.cpp:228] deconv1 <- deconv2
I0812 20:06:29.984213 23584 net.cpp:189] deconv1 -> deconv1
I0812 20:06:29.984352 23584 net.cpp:84] Top shape: 64 32 108 108 (23887872)
I0812 20:06:29.984356 23584 net.cpp:116] deconv1 does not need backward computation.
I0812 20:06:29.984360 23584 net.cpp:65] Creating Layer relu_deconv1
I0812 20:06:29.984364 23584 net.cpp:228] relu_deconv1 <- deconv1
I0812 20:06:29.984367 23584 net.cpp:179] relu_deconv1 -> deconv1 (in-place)
I0812 20:06:29.984372 23584 net.cpp:84] Top shape: 64 32 108 108 (23887872)
I0812 20:06:29.984375 23584 net.cpp:116] relu_deconv1 does not need backward computation.
I0812 20:06:29.984380 23584 net.cpp:65] Creating Layer deconv0
I0812 20:06:29.984383 23584 net.cpp:228] deconv0 <- deconv1
I0812 20:06:29.984390 23584 net.cpp:189] deconv0 -> deconv0
I0812 20:06:29.984412 23584 net.cpp:84] Top shape: 64 3 216 216 (8957952)
I0812 20:06:29.984416 23584 net.cpp:116] deconv0 does not need backward computation.
I0812 20:06:29.984419 23584 net.cpp:65] Creating Layer loss
I0812 20:06:29.984422 23584 net.cpp:228] loss <- deconv0
I0812 20:06:29.984426 23584 net.cpp:228] loss <- target_ims
I0812 20:06:29.984431 23584 net.cpp:116] loss does not need backward computation.
I0812 20:06:29.984444 23584 net.cpp:238] Collecting Learning Rate and Weight Decay.
…
