…
    source: "/scr/r6/tgebru/inverting_conv/caffe_invert_alexnet/data/siggraph/tiny_summer_train_lmdb"
    mean_file: "/scr/r6/tgebru/timnit_caffe/data/ilsvrc12/imagenet_mean.binaryproto"
    batch_size: 12
    crop_size: 227
    mirror: false
    backend: LMDB
  }
}
layers {
  top: "target_ims"
  name: "target_ims"
  type: DATA
  data_param {
    source: "/scr/r6/tgebru/inverting_conv/caffe_invert_alexnet/data/siggraph/tiny_summer_train_lmdb"
    mean_file: "/scr/r6/tgebru/timnit_caffe/data/ilsvrc12/imagenet_mean.binaryproto"
    batch_size: 12
    crop_size: 216
    mirror: false
    backend: LMDB
  }
}
layers {
  bottom: "source_ims"
  top: "conv1"
  name: "conv1"
  type: CONVOLUTION
  blobs_lr: 0
  blobs_lr: 0
  weight_decay: 1
  weight_decay: 0
  convolution_param {
    num_output: 96
    kernel_size: 11
    stride: 4
    weight_filler {
      type: "gaussian"
      std: 0.01
    }
    bias_filler {
      type: "constant"
      value: 0
    }
  }
}
layers {
  bottom: "conv1"
  top: "conv1"
  name: "relu1"
  type: RELU
}
layers {
  bottom: "conv1"
  top: "pool1"
  name: "pool1"
  type: POOLING
  pooling_param {
    pool: MAX
    kernel_size: 3
    stride: 2
  }
}
layers {
  bottom: "pool1"
  top: "norm1"
  name: "norm1"
  type: LRN
  lrn_param {
    local_size: 5
    alpha: 0.0001
    beta: 0.75
  }
}
layers {
  bottom: "norm1"
  top: "Rconv6"
  name: "Rconv6"
  type: CONVOLUTION
  blobs_lr: 1
  blobs_lr: 2
  weight_decay: 1
  weight_decay: 0
  convolution_param {
    num_output: 256
    pad: 1
    kernel_size: 3
  }
}
layers {
  bottom: "Rconv6"
  top: "Rconv6"
  name: "Rrelu6"
  type: RELU
}
layers {
  bottom: "Rconv6"
  top: "Rconv7"
  name: "Rconv7"
  type: CONVOLUTION
  blobs_lr: 1
  blobs_lr: 2
  weight_decay: 1
  weight_decay: 0
  convolution_param {
    num_output: 256
    pad: 1
    kernel_size: 3
    group: 2
  }
}
layers {
  bottom: "Rconv7"
  top: "Rconv7"
  name: "Rrelu7"
  type: RELU
}
layers {
  bottom: "Rconv7"
  top: "Rconv8"
  name: "Rconv8"
  type: CONVOLUTION
  blobs_lr: 1
  blobs_lr: 2
  weight_decay: 1
  weight_decay: 0
  convolution_param {
    num_output: 256
    pad: 1
    kernel_size: 3
    group: 2
  }
}
layers {
  bottom: "Rconv8"
  top: "Rconv8"
  name: "Rrelu8"
  type: RELU
}
layers {
  bottom: "Rconv8"
  top: "deconv2"
  name: "deconv2"
  type: DECONVOLUTION
  blobs_lr: 1
  blobs_lr: 2
  weight_decay: 1
  weight_decay: 0
  deconvolution_param {
    pad: 2
    kernel_size: 5
    stride: 2
    output_height: 54
    output_width: 54
    output_channels: 64
  }
}
layers {
  bottom: "deconv2"
  top: "deconv2"
  name: "relu_deconv2"
  type: RELU
  relu_param {
    negative_slope: 0.3
  }
}
layers {
  bottom: "deconv2"
  top: "deconv1"
  name: "deconv1"
  type: DECONVOLUTION
  blobs_lr: 1
  blobs_lr: 2
  weight_decay: 1
  weight_decay: 0
  deconvolution_param {
    pad: 2
    kernel_size: 5
    stride: 2
    output_height: 108
    output_width: 108
    output_channels: 32
  }
}
layers {
  bottom: "deconv1"
  top: "deconv1"
  name: "relu_deconv1"
  type: RELU
  relu_param {
    negative_slope: 0.3
  }
}
layers {
  bottom: "deconv1"
  top: "deconv0"
  name: "deconv0"
  type: DECONVOLUTION
  blobs_lr: 1
  blobs_lr: 2
  weight_decay: 1
  weight_decay: 1
  deconvolution_param {
    pad: 2
    kernel_size: 5
    stride: 2
    output_height: 216
    output_width: 216
    output_channels: 3
  }
}
layers {
  bottom: "deconv0"
  bottom: "target_ims"
  name: "loss"
  type: EUCLIDEAN_LOSS
}
I0813 09:52:42.414638 16823 net.cpp:65] Creating Layer source_ims
I0813 09:52:42.414645 16823 net.cpp:189] source_ims -> source_ims
I0813 09:52:42.414751 16823 data_layer.cpp:223] Opening lmdb /scr/r6/tgebru/inverting_conv/caffe_invert_alexnet/data/siggraph/tiny_summer_train_lmdb
I0813 09:52:42.414954 16823 data_layer.cpp:285] output data size: 12,3,227,227
I0813 09:52:42.414962 16823 data_layer.cpp:304] Loading mean file from/scr/r6/tgebru/timnit_caffe/data/ilsvrc12/imagenet_mean.binaryproto
I0813 09:52:42.419592 16823 net.cpp:84] Top shape: 12 3 227 227 (1855044)
I0813 09:52:42.419600 16823 net.cpp:116] source_ims does not need backward computation.
I0813 09:52:42.419606 16823 net.cpp:65] Creating Layer target_ims
I0813 09:52:42.419611 16823 net.cpp:189] target_ims -> target_ims
I0813 09:52:42.419747 16823 data_layer.cpp:223] Opening lmdb /scr/r6/tgebru/inverting_conv/caffe_invert_alexnet/data/siggraph/tiny_summer_train_lmdb
I0813 09:52:42.419896 16823 data_layer.cpp:285] output data size: 12,3,216,216
I0813 09:52:42.419901 16823 data_layer.cpp:304] Loading mean file from/scr/r6/tgebru/timnit_caffe/data/ilsvrc12/imagenet_mean.binaryproto
I0813 09:52:42.424250 16823 net.cpp:84] Top shape: 12 3 216 216 (1679616)
I0813 09:52:42.424258 16823 net.cpp:116] target_ims does not need backward computation.
I0813 09:52:42.424270 16823 net.cpp:65] Creating Layer conv1
I0813 09:52:42.424274 16823 net.cpp:228] conv1 <- source_ims
I0813 09:52:42.424377 16823 net.cpp:189] conv1 -> conv1
I0813 09:52:42.425757 16823 net.cpp:84] Top shape: 12 96 55 55 (3484800)
I0813 09:52:42.425763 16823 net.cpp:116] conv1 does not need backward computation.
I0813 09:52:42.425770 16823 net.cpp:65] Creating Layer relu1
I0813 09:52:42.425772 16823 net.cpp:228] relu1 <- conv1
I0813 09:52:42.425777 16823 net.cpp:179] relu1 -> conv1 (in-place)
I0813 09:52:42.425786 16823 net.cpp:84] Top shape: 12 96 55 55 (3484800)
I0813 09:52:42.425789 16823 net.cpp:116] relu1 does not need backward computation.
I0813 09:52:42.425794 16823 net.cpp:65] Creating Layer pool1
I0813 09:52:42.425797 16823 net.cpp:228] pool1 <- conv1
I0813 09:52:42.425802 16823 net.cpp:189] pool1 -> pool1
I0813 09:52:42.425814 16823 net.cpp:84] Top shape: 12 96 27 27 (839808)
I0813 09:52:42.425817 16823 net.cpp:116] pool1 does not need backward computation.
I0813 09:52:42.425822 16823 net.cpp:65] Creating Layer norm1
I0813 09:52:42.425825 16823 net.cpp:228] norm1 <- pool1
I0813 09:52:42.425830 16823 net.cpp:189] norm1 -> norm1
I0813 09:52:42.425838 16823 net.cpp:84] Top shape: 12 96 27 27 (839808)
I0813 09:52:42.425842 16823 net.cpp:116] norm1 does not need backward computation.
I0813 09:52:42.425847 16823 net.cpp:65] Creating Layer Rconv6
I0813 09:52:42.425849 16823 net.cpp:228] Rconv6 <- norm1
I0813 09:52:42.425853 16823 net.cpp:189] Rconv6 -> Rconv6
I0813 09:52:42.426110 16823 net.cpp:84] Top shape: 12 256 27 27 (2239488)
I0813 09:52:42.426113 16823 net.cpp:111] Rconv6 needs backward computation.
I0813 09:52:42.426118 16823 net.cpp:65] Creating Layer Rrelu6
I0813 09:52:42.426121 16823 net.cpp:228] Rrelu6 <- Rconv6
I0813 09:52:42.426126 16823 net.cpp:179] Rrelu6 -> Rconv6 (in-place)
I0813 09:52:42.426131 16823 net.cpp:84] Top shape: 12 256 27 27 (2239488)
I0813 09:52:42.426133 16823 net.cpp:111] Rrelu6 needs backward computation.
I0813 09:52:42.426138 16823 net.cpp:65] Creating Layer Rconv7
I0813 09:52:42.426141 16823 net.cpp:228] Rconv7 <- Rconv6
I0813 09:52:42.426146 16823 net.cpp:189] Rconv7 -> Rconv7
I0813 09:52:42.426856 16823 net.cpp:84] Top shape: 12 256 27 27 (2239488)
I0813 09:52:42.426862 16823 net.cpp:111] Rconv7 needs backward computation.
I0813 09:52:42.426867 16823 net.cpp:65] Creating Layer Rrelu7
I0813 09:52:42.426869 16823 net.cpp:228] Rrelu7 <- Rconv7
I0813 09:52:42.426894 16823 net.cpp:179] Rrelu7 -> Rconv7 (in-place)
I0813 09:52:42.426899 16823 net.cpp:84] Top shape: 12 256 27 27 (2239488)
I0813 09:52:42.426903 16823 net.cpp:111] Rrelu7 needs backward computation.
I0813 09:52:42.426906 16823 net.cpp:65] Creating Layer Rconv8
I0813 09:52:42.426909 16823 net.cpp:228] Rconv8 <- Rconv7
I0813 09:52:42.426913 16823 net.cpp:189] Rconv8 -> Rconv8
I0813 09:52:42.427675 16823 net.cpp:84] Top shape: 12 256 27 27 (2239488)
I0813 09:52:42.427680 16823 net.cpp:111] Rconv8 needs backward computation.
I0813 09:52:42.427685 16823 net.cpp:65] Creating Layer Rrelu8
I0813 09:52:42.427688 16823 net.cpp:228] Rrelu8 <- Rconv8
I0813 09:52:42.427691 16823 net.cpp:179] Rrelu8 -> Rconv8 (in-place)
I0813 09:52:42.427696 16823 net.cpp:84] Top shape: 12 256 27 27 (2239488)
I0813 09:52:42.427698 16823 net.cpp:111] Rrelu8 needs backward computation.
I0813 09:52:42.427702 16823 net.cpp:65] Creating Layer deconv2
I0813 09:52:42.427706 16823 net.cpp:228] deconv2 <- Rconv8
I0813 09:52:42.427708 16823 net.cpp:189] deconv2 -> deconv2
I0813 09:52:42.428755 16823 net.cpp:84] Top shape: 12 64 54 54 (2239488)
I0813 09:52:42.428758 16823 net.cpp:111] deconv2 needs backward computation.
I0813 09:52:42.428763 16823 net.cpp:65] Creating Layer relu_deconv2
I0813 09:52:42.428766 16823 net.cpp:228] relu_deconv2 <- deconv2
I0813 09:52:42.428771 16823 net.cpp:179] relu_deconv2 -> deconv2 (in-place)
I0813 09:52:42.428774 16823 net.cpp:84] Top shape: 12 64 54 54 (2239488)
I0813 09:52:42.428777 16823 net.cpp:111] relu_deconv2 needs backward computation.
I0813 09:52:42.428781 16823 net.cpp:65] Creating Layer deconv1
I0813 09:52:42.428783 16823 net.cpp:228] deconv1 <- deconv2
I0813 09:52:42.428787 16823 net.cpp:189] deconv1 -> deconv1
I0813 09:52:42.428935 16823 net.cpp:84] Top shape: 12 32 108 108 (4478976)
I0813 09:52:42.428938 16823 net.cpp:111] deconv1 needs backward computation.
I0813 09:52:42.428942 16823 net.cpp:65] Creating Layer relu_deconv1
I0813 09:52:42.428946 16823 net.cpp:228] relu_deconv1 <- deconv1
I0813 09:52:42.428949 16823 net.cpp:179] relu_deconv1 -> deconv1 (in-place)
I0813 09:52:42.428953 16823 net.cpp:84] Top shape: 12 32 108 108 (4478976)
I0813 09:52:42.428956 16823 net.cpp:111] relu_deconv1 needs backward computation.
I0813 09:52:42.428961 16823 net.cpp:65] Creating Layer deconv0
I0813 09:52:42.428963 16823 net.cpp:228] deconv0 <- deconv1
I0813 09:52:42.428967 16823 net.cpp:189] deconv0 -> deconv0
I0813 09:52:42.429015 16823 net.cpp:84] Top shape: 12 3 216 216 (1679616)
I0813 09:52:42.429018 16823 net.cpp:111] deconv0 needs backward computation.
I0813 09:52:42.429021 16823 net.cpp:65] Creating Layer loss
I0813 09:52:42.429024 16823 net.cpp:228] loss <- deconv0
I0813 09:52:42.429028 16823 net.cpp:228] loss <- target_ims
I0813 09:52:42.429035 16823 net.cpp:111] loss needs backward computation.
I0813 09:52:42.429049 16823 net.cpp:238] Collecting Learning Rate and Weight Decay.
…
    source: "/scr/r6/tgebru/inverting_conv/caffe_invert_alexnet/data/siggraph/tiny_summer_val_lmdb"
    mean_file: "/scr/r6/tgebru/timnit_caffe/data/ilsvrc12/imagenet_mean.binaryproto"
    batch_size: 2
    crop_size: 227
    mirror: false
    backend: LMDB
  }
}
layers {
  top: "target_ims"
  name: "target_ims"
  type: DATA
  data_param {
    source: "/scr/r6/tgebru/inverting_conv/caffe_invert_alexnet/data/siggraph/tiny_summer_val_lmdb"
    mean_file: "/scr/r6/tgebru/timnit_caffe/data/ilsvrc12/imagenet_mean.binaryproto"
    batch_size: 2
    crop_size: 216
    mirror: false
    backend: LMDB
  }
}
layers {
  bottom: "source_ims"
  top: "conv1"
  name: "conv1"
  type: CONVOLUTION
  blobs_lr: 0
  blobs_lr: 0
  weight_decay: 1
  weight_decay: 0
  convolution_param {
    num_output: 96
    kernel_size: 11
    stride: 4
    weight_filler {
      type: "gaussian"
      std: 0.01
    }
    bias_filler {
      type: "constant"
      value: 0
    }
  }
}
layers {
  bottom: "conv1"
  top: "conv1"
  name: "relu1"
  type: RELU
}
layers {
  bottom: "conv1"
  top: "pool1"
  name: "pool1"
  type: POOLING
  pooling_param {
    pool: MAX
    kernel_size: 3
    stride: 2
  }
}
layers {
  bottom: "pool1"
  top: "norm1"
  name: "norm1"
  type: LRN
  lrn_param {
    local_size: 5
    alpha: 0.0001
    beta: 0.75
  }
}
layers {
  bottom: "norm1"
  top: "Rconv6"
  name: "Rconv6"
  type: CONVOLUTION
  blobs_lr: 0
  blobs_lr: 0
  weight_decay: 1
  weight_decay: 0
  convolution_param {
    num_output: 256
    pad: 1
    kernel_size: 3
  }
}
layers {
  bottom: "Rconv6"
  top: "Rconv6"
  name: "Rrelu6"
  type: RELU
}
layers {
  bottom: "Rconv6"
  top: "Rconv7"
  name: "Rconv7"
  type: CONVOLUTION
  blobs_lr: 0
  blobs_lr: 0
  weight_decay: 1
  weight_decay: 0
  convolution_param {
    num_output: 256
    pad: 1
    kernel_size: 3
    group: 2
  }
}
layers {
  bottom: "Rconv7"
  top: "Rconv7"
  name: "Rrelu7"
  type: RELU
}
layers {
  bottom: "Rconv7"
  top: "Rconv8"
  name: "Rconv8"
  type: CONVOLUTION
  blobs_lr: 0
  blobs_lr: 0
  weight_decay: 1
  weight_decay: 0
  convolution_param {
    num_output: 256
    pad: 1
    kernel_size: 3
    group: 2
  }
}
layers {
  bottom: "Rconv8"
  top: "Rconv8"
  name: "Rrelu8"
  type: RELU
}
layers {
  bottom: "Rconv8"
  top: "deconv2"
  name: "deconv2"
  type: DECONVOLUTION
  blobs_lr: 0
  blobs_lr: 0
  weight_decay: 1
  weight_decay: 0
  deconvolution_param {
    pad: 2
    kernel_size: 5
    stride: 2
    output_height: 54
    output_width: 54
    output_channels: 64
  }
}
layers {
  bottom: "deconv2"
  top: "deconv2"
  name: "relu_deconv2"
  type: RELU
  relu_param {
    negative_slope: 0.3
  }
}
layers {
  bottom: "deconv2"
  top: "deconv1"
  name: "deconv1"
  type: DECONVOLUTION
  blobs_lr: 0
  blobs_lr: 0
  weight_decay: 1
  weight_decay: 0
  deconvolution_param {
    pad: 2
    kernel_size: 5
    stride: 2
    output_height: 108
    output_width: 108
    output_channels: 32
  }
}
layers {
  bottom: "deconv1"
  top: "deconv1"
  name: "relu_deconv1"
  type: RELU
  relu_param {
    negative_slope: 0.3
  }
}
layers {
  bottom: "deconv1"
  top: "deconv0"
  name: "deconv0"
  type: DECONVOLUTION
  blobs_lr: 0
  blobs_lr: 0
  weight_decay: 1
  weight_decay: 0
  deconvolution_param {
    pad: 2
    kernel_size: 5
    stride: 2
    output_height: 216
    output_width: 216
    output_channels: 3
  }
}
layers {
  bottom: "deconv0"
  bottom: "target_ims"
  name: "loss"
  type: EUCLIDEAN_LOSS
}
I0813 09:52:42.429772 16823 net.cpp:65] Creating Layer source_ims
I0813 09:52:42.429779 16823 net.cpp:189] source_ims -> source_ims
I0813 09:52:42.429831 16823 data_layer.cpp:223] Opening lmdb /scr/r6/tgebru/inverting_conv/caffe_invert_alexnet/data/siggraph/tiny_summer_val_lmdb
I0813 09:52:42.430032 16823 data_layer.cpp:285] output data size: 2,3,227,227
I0813 09:52:42.430037 16823 data_layer.cpp:304] Loading mean file from/scr/r6/tgebru/timnit_caffe/data/ilsvrc12/imagenet_mean.binaryproto
I0813 09:52:42.432376 16823 net.cpp:84] Top shape: 2 3 227 227 (309174)
I0813 09:52:42.432384 16823 net.cpp:116] source_ims does not need backward computation.
I0813 09:52:42.432390 16823 net.cpp:65] Creating Layer target_ims
I0813 09:52:42.432394 16823 net.cpp:189] target_ims -> target_ims
I0813 09:52:42.432436 16823 data_layer.cpp:223] Opening lmdb /scr/r6/tgebru/inverting_conv/caffe_invert_alexnet/data/siggraph/tiny_summer_val_lmdb
I0813 09:52:42.432603 16823 data_layer.cpp:285] output data size: 2,3,216,216
I0813 09:52:42.432607 16823 data_layer.cpp:304] Loading mean file from/scr/r6/tgebru/timnit_caffe/data/ilsvrc12/imagenet_mean.binaryproto
I0813 09:52:42.434808 16823 net.cpp:84] Top shape: 2 3 216 216 (279936)
I0813 09:52:42.434815 16823 net.cpp:116] target_ims does not need backward computation.
I0813 09:52:42.434839 16823 net.cpp:65] Creating Layer conv1
I0813 09:52:42.434842 16823 net.cpp:228] conv1 <- source_ims
I0813 09:52:42.434847 16823 net.cpp:189] conv1 -> conv1
I0813 09:52:42.436089 16823 net.cpp:84] Top shape: 2 96 55 55 (580800)
I0813 09:52:42.436094 16823 net.cpp:116] conv1 does not need backward computation.
I0813 09:52:42.436097 16823 net.cpp:65] Creating Layer relu1
I0813 09:52:42.436100 16823 net.cpp:228] relu1 <- conv1
I0813 09:52:42.436105 16823 net.cpp:179] relu1 -> conv1 (in-place)
I0813 09:52:42.436110 16823 net.cpp:84] Top shape: 2 96 55 55 (580800)
I0813 09:52:42.436112 16823 net.cpp:116] relu1 does not need backward computation.
I0813 09:52:42.436116 16823 net.cpp:65] Creating Layer pool1
I0813 09:52:42.436120 16823 net.cpp:228] pool1 <- conv1
I0813 09:52:42.436122 16823 net.cpp:189] pool1 -> pool1
I0813 09:52:42.436128 16823 net.cpp:84] Top shape: 2 96 27 27 (139968)
I0813 09:52:42.436131 16823 net.cpp:116] pool1 does not need backward computation.
I0813 09:52:42.436136 16823 net.cpp:65] Creating Layer norm1
I0813 09:52:42.436138 16823 net.cpp:228] norm1 <- pool1
I0813 09:52:42.436141 16823 net.cpp:189] norm1 -> norm1
I0813 09:52:42.436147 16823 net.cpp:84] Top shape: 2 96 27 27 (139968)
I0813 09:52:42.436151 16823 net.cpp:116] norm1 does not need backward computation.
I0813 09:52:42.436154 16823 net.cpp:65] Creating Layer Rconv6
I0813 09:52:42.436157 16823 net.cpp:228] Rconv6 <- norm1
I0813 09:52:42.436161 16823 net.cpp:189] Rconv6 -> Rconv6
I0813 09:52:42.436720 16823 net.cpp:84] Top shape: 2 256 27 27 (373248)
I0813 09:52:42.436725 16823 net.cpp:116] Rconv6 does not need backward computation.
I0813 09:52:42.436729 16823 net.cpp:65] Creating Layer Rrelu6
I0813 09:52:42.436733 16823 net.cpp:228] Rrelu6 <- Rconv6
I0813 09:52:42.436736 16823 net.cpp:179] Rrelu6 -> Rconv6 (in-place)
I0813 09:52:42.436741 16823 net.cpp:84] Top shape: 2 256 27 27 (373248)
I0813 09:52:42.436744 16823 net.cpp:116] Rrelu6 does not need backward computation.
I0813 09:52:42.436749 16823 net.cpp:65] Creating Layer Rconv7
I0813 09:52:42.436753 16823 net.cpp:228] Rconv7 <- Rconv6
I0813 09:52:42.436755 16823 net.cpp:189] Rconv7 -> Rconv7
I0813 09:52:42.437520 16823 net.cpp:84] Top shape: 2 256 27 27 (373248)
I0813 09:52:42.437525 16823 net.cpp:116] Rconv7 does not need backward computation.
I0813 09:52:42.437530 16823 net.cpp:65] Creating Layer Rrelu7
I0813 09:52:42.437531 16823 net.cpp:228] Rrelu7 <- Rconv7
I0813 09:52:42.437536 16823 net.cpp:179] Rrelu7 -> Rconv7 (in-place)
I0813 09:52:42.437539 16823 net.cpp:84] Top shape: 2 256 27 27 (373248)
I0813 09:52:42.437542 16823 net.cpp:116] Rrelu7 does not need backward computation.
I0813 09:52:42.437546 16823 net.cpp:65] Creating Layer Rconv8
I0813 09:52:42.437548 16823 net.cpp:228] Rconv8 <- Rconv7
I0813 09:52:42.437552 16823 net.cpp:189] Rconv8 -> Rconv8
I0813 09:52:42.438279 16823 net.cpp:84] Top shape: 2 256 27 27 (373248)
I0813 09:52:42.438284 16823 net.cpp:116] Rconv8 does not need backward computation.
I0813 09:52:42.438288 16823 net.cpp:65] Creating Layer Rrelu8
I0813 09:52:42.438290 16823 net.cpp:228] Rrelu8 <- Rconv8
I0813 09:52:42.438294 16823 net.cpp:179] Rrelu8 -> Rconv8 (in-place)
I0813 09:52:42.438298 16823 net.cpp:84] Top shape: 2 256 27 27 (373248)
I0813 09:52:42.438302 16823 net.cpp:116] Rrelu8 does not need backward computation.
I0813 09:52:42.438304 16823 net.cpp:65] Creating Layer deconv2
I0813 09:52:42.438308 16823 net.cpp:228] deconv2 <- Rconv8
I0813 09:52:42.438312 16823 net.cpp:189] deconv2 -> deconv2
I0813 09:52:42.439324 16823 net.cpp:84] Top shape: 2 64 54 54 (373248)
I0813 09:52:42.439329 16823 net.cpp:116] deconv2 does not need backward computation.
I0813 09:52:42.439333 16823 net.cpp:65] Creating Layer relu_deconv2
I0813 09:52:42.439337 16823 net.cpp:228] relu_deconv2 <- deconv2
I0813 09:52:42.439340 16823 net.cpp:179] relu_deconv2 -> deconv2 (in-place)
I0813 09:52:42.439344 16823 net.cpp:84] Top shape: 2 64 54 54 (373248)
I0813 09:52:42.439347 16823 net.cpp:116] relu_deconv2 does not need backward computation.
I0813 09:52:42.439363 16823 net.cpp:65] Creating Layer deconv1
I0813 09:52:42.439365 16823 net.cpp:228] deconv1 <- deconv2
I0813 09:52:42.439369 16823 net.cpp:189] deconv1 -> deconv1
I0813 09:52:42.439512 16823 net.cpp:84] Top shape: 2 32 108 108 (746496)
I0813 09:52:42.439515 16823 net.cpp:116] deconv1 does not need backward computation.
I0813 09:52:42.439519 16823 net.cpp:65] Creating Layer relu_deconv1
I0813 09:52:42.439522 16823 net.cpp:228] relu_deconv1 <- deconv1
I0813 09:52:42.439525 16823 net.cpp:179] relu_deconv1 -> deconv1 (in-place)
I0813 09:52:42.439529 16823 net.cpp:84] Top shape: 2 32 108 108 (746496)
I0813 09:52:42.439532 16823 net.cpp:116] relu_deconv1 does not need backward computation.
I0813 09:52:42.439538 16823 net.cpp:65] Creating Layer deconv0
I0813 09:52:42.439539 16823 net.cpp:228] deconv0 <- deconv1
I0813 09:52:42.439543 16823 net.cpp:189] deconv0 -> deconv0
I0813 09:52:42.439560 16823 net.cpp:84] Top shape: 2 3 216 216 (279936)
I0813 09:52:42.439564 16823 net.cpp:116] deconv0 does not need backward computation.
I0813 09:52:42.439568 16823 net.cpp:65] Creating Layer loss
I0813 09:52:42.439570 16823 net.cpp:228] loss <- deconv0
I0813 09:52:42.439574 16823 net.cpp:228] loss <- target_ims
I0813 09:52:42.439579 16823 net.cpp:116] loss does not need backward computation.
I0813 09:52:42.439589 16823 net.cpp:238] Collecting Learning Rate and Weight Decay.
…
