…
I0825 20:41:56.983542 22424 solver.cpp:59] Creating training net from file: /scr/r6/tgebru/inverting_conv/caffe_invert_alexnet/timnit_models/att_conv1/summer_winter/train_summer_winter.prototxt
I0825 20:41:56.984217 22424 net.cpp:36] Initializing net from parameters: 
name: "CaffeNet"
layers {
  top: "source_ims"
  name: "source_ims"
  type: DATA
  data_param {
    source: "/scr/r6/tgebru/inverting_conv/caffe_invert_alexnet/data/siggraph/small_summer_train_227lmdb"
    batch_size: 12
    mirror: false
    backend: LMDB
  }
}
layers {
  top: "target_ims"
  name: "target_ims"
  type: DATA
  data_param {
    source: "/scr/r6/tgebru/inverting_conv/caffe_invert_alexnet/data/siggraph/small_winter_train_216lmdb"
    batch_size: 12
    mirror: false
    backend: LMDB
  }
}
layers {
  bottom: "source_ims"
  top: "conv1"
  name: "conv1"
  type: CONVOLUTION
  blobs_lr: 0
  blobs_lr: 0
  weight_decay: 1
  weight_decay: 0
  convolution_param {
    num_output: 96
    kernel_size: 11
    stride: 4
    weight_filler {
      type: "gaussian"
      std: 0.01
    }
    bias_filler {
      type: "constant"
      value: 0
    }
  }
}
layers {
  bottom: "conv1"
  top: "conv1"
  name: "relu1"
  type: RELU
}
layers {
  bottom: "conv1"
  top: "pool1"
  name: "pool1"
  type: POOLING
  pooling_param {
    pool: MAX
    kernel_size: 3
    stride: 2
  }
}
layers {
  bottom: "pool1"
  top: "norm1"
  name: "norm1"
  type: LRN
  lrn_param {
    local_size: 5
    alpha: 0.0001
    beta: 0.75
  }
}
layers {
  bottom: "norm1"
  top: "Rconv6"
  name: "Rconv6"
  type: CONVOLUTION
  blobs_lr: 1
  blobs_lr: 2
  weight_decay: 1
  weight_decay: 0
  convolution_param {
    num_output: 256
    pad: 1
    kernel_size: 3
  }
}
layers {
  bottom: "Rconv6"
  top: "Rconv6"
  name: "Rrelu6"
  type: RELU
}
layers {
  bottom: "Rconv6"
  top: "Rconv7"
  name: "Rconv7"
  type: CONVOLUTION
  blobs_lr: 1
  blobs_lr: 2
  weight_decay: 1
  weight_decay: 0
  convolution_param {
    num_output: 256
    pad: 1
    kernel_size: 3
    group: 2
  }
}
layers {
  bottom: "Rconv7"
  top: "Rconv7"
  name: "Rrelu7"
  type: RELU
}
layers {
  bottom: "Rconv7"
  top: "Rconv8"
  name: "Rconv8"
  type: CONVOLUTION
  blobs_lr: 1
  blobs_lr: 2
  weight_decay: 1
  weight_decay: 0
  convolution_param {
    num_output: 256
    pad: 1
    kernel_size: 3
    group: 2
  }
}
layers {
  bottom: "Rconv8"
  top: "Rconv8"
  name: "Rrelu8"
  type: RELU
}
layers {
  bottom: "Rconv8"
  top: "deconv2"
  name: "deconv2"
  type: DECONVOLUTION
  blobs_lr: 1
  blobs_lr: 2
  weight_decay: 1
  weight_decay: 0
  deconvolution_param {
    pad: 2
    kernel_size: 5
    stride: 2
    output_height: 54
    output_width: 54
    output_channels: 64
  }
}
layers {
  bottom: "deconv2"
  top: "deconv2"
  name: "relu_deconv2"
  type: RELU
  relu_param {
    negative_slope: 0.3
  }
}
layers {
  bottom: "deconv2"
  top: "deconv1"
  name: "deconv1"
  type: DECONVOLUTION
  blobs_lr: 1
  blobs_lr: 2
  weight_decay: 1
  weight_decay: 0
  deconvolution_param {
    pad: 2
    kernel_size: 5
    stride: 2
    output_height: 108
    output_width: 108
    output_channels: 32
  }
}
layers {
  bottom: "deconv1"
  top: "deconv1"
  name: "relu_deconv1"
  type: RELU
  relu_param {
    negative_slope: 0.3
  }
}
layers {
  bottom: "deconv1"
  top: "deconv0"
  name: "deconv0"
  type: DECONVOLUTION
  blobs_lr: 1
  blobs_lr: 2
  weight_decay: 1
  weight_decay: 1
  deconvolution_param {
    pad: 2
    kernel_size: 5
    stride: 2
    output_height: 216
    output_width: 216
    output_channels: 3
  }
}
layers {
  bottom: "deconv0"
  bottom: "target_ims"
  name: "loss"
  type: EUCLIDEAN_LOSS
}
I0825 20:41:56.984356 22424 net.cpp:65] Creating Layer source_ims
I0825 20:41:56.984366 22424 net.cpp:189] source_ims -> source_ims
I0825 20:41:56.984474 22424 data_layer.cpp:223] Opening lmdb /scr/r6/tgebru/inverting_conv/caffe_invert_alexnet/data/siggraph/small_summer_train_227lmdb
I0825 20:41:56.984652 22424 data_layer.cpp:285] output data size: 12,3,227,227
I0825 20:41:56.987794 22424 net.cpp:84] Top shape: 12 3 227 227 (1855044)
I0825 20:41:56.987802 22424 net.cpp:116] source_ims does not need backward computation.
I0825 20:41:56.987807 22424 net.cpp:65] Creating Layer target_ims
I0825 20:41:56.987812 22424 net.cpp:189] target_ims -> target_ims
I0825 20:41:56.987967 22424 data_layer.cpp:223] Opening lmdb /scr/r6/tgebru/inverting_conv/caffe_invert_alexnet/data/siggraph/small_winter_train_216lmdb
I0825 20:41:56.988093 22424 data_layer.cpp:285] output data size: 12,3,216,216
I0825 20:41:57.003334 22424 net.cpp:84] Top shape: 12 3 216 216 (1679616)
I0825 20:41:57.003357 22424 net.cpp:116] target_ims does not need backward computation.
I0825 20:41:57.003373 22424 net.cpp:65] Creating Layer conv1
I0825 20:41:57.003377 22424 net.cpp:228] conv1 <- source_ims
I0825 20:41:57.003407 22424 net.cpp:189] conv1 -> conv1
I0825 20:41:57.004730 22424 net.cpp:84] Top shape: 12 96 55 55 (3484800)
I0825 20:41:57.004735 22424 net.cpp:116] conv1 does not need backward computation.
I0825 20:41:57.004741 22424 net.cpp:65] Creating Layer relu1
I0825 20:41:57.004745 22424 net.cpp:228] relu1 <- conv1
I0825 20:41:57.004748 22424 net.cpp:179] relu1 -> conv1 (in-place)
I0825 20:41:57.004757 22424 net.cpp:84] Top shape: 12 96 55 55 (3484800)
I0825 20:41:57.004761 22424 net.cpp:116] relu1 does not need backward computation.
I0825 20:41:57.004767 22424 net.cpp:65] Creating Layer pool1
I0825 20:41:57.004770 22424 net.cpp:228] pool1 <- conv1
I0825 20:41:57.004775 22424 net.cpp:189] pool1 -> pool1
I0825 20:41:57.004788 22424 net.cpp:84] Top shape: 12 96 27 27 (839808)
I0825 20:41:57.004791 22424 net.cpp:116] pool1 does not need backward computation.
I0825 20:41:57.004796 22424 net.cpp:65] Creating Layer norm1
I0825 20:41:57.004799 22424 net.cpp:228] norm1 <- pool1
I0825 20:41:57.004803 22424 net.cpp:189] norm1 -> norm1
I0825 20:41:57.004813 22424 net.cpp:84] Top shape: 12 96 27 27 (839808)
I0825 20:41:57.004817 22424 net.cpp:116] norm1 does not need backward computation.
I0825 20:41:57.004822 22424 net.cpp:65] Creating Layer Rconv6
I0825 20:41:57.004824 22424 net.cpp:228] Rconv6 <- norm1
I0825 20:41:57.004829 22424 net.cpp:189] Rconv6 -> Rconv6
I0825 20:41:57.005414 22424 net.cpp:84] Top shape: 12 256 27 27 (2239488)
I0825 20:41:57.005425 22424 net.cpp:111] Rconv6 needs backward computation.
I0825 20:41:57.005429 22424 net.cpp:65] Creating Layer Rrelu6
I0825 20:41:57.005434 22424 net.cpp:228] Rrelu6 <- Rconv6
I0825 20:41:57.005439 22424 net.cpp:179] Rrelu6 -> Rconv6 (in-place)
I0825 20:41:57.005445 22424 net.cpp:84] Top shape: 12 256 27 27 (2239488)
I0825 20:41:57.005447 22424 net.cpp:111] Rrelu6 needs backward computation.
I0825 20:41:57.005453 22424 net.cpp:65] Creating Layer Rconv7
I0825 20:41:57.005455 22424 net.cpp:228] Rconv7 <- Rconv6
I0825 20:41:57.005460 22424 net.cpp:189] Rconv7 -> Rconv7
I0825 20:41:57.006281 22424 net.cpp:84] Top shape: 12 256 27 27 (2239488)
I0825 20:41:57.006285 22424 net.cpp:111] Rconv7 needs backward computation.
I0825 20:41:57.006290 22424 net.cpp:65] Creating Layer Rrelu7
I0825 20:41:57.006292 22424 net.cpp:228] Rrelu7 <- Rconv7
I0825 20:41:57.006296 22424 net.cpp:179] Rrelu7 -> Rconv7 (in-place)
I0825 20:41:57.006300 22424 net.cpp:84] Top shape: 12 256 27 27 (2239488)
I0825 20:41:57.006304 22424 net.cpp:111] Rrelu7 needs backward computation.
I0825 20:41:57.006307 22424 net.cpp:65] Creating Layer Rconv8
I0825 20:41:57.006312 22424 net.cpp:228] Rconv8 <- Rconv7
I0825 20:41:57.006356 22424 net.cpp:189] Rconv8 -> Rconv8
I0825 20:41:57.007155 22424 net.cpp:84] Top shape: 12 256 27 27 (2239488)
I0825 20:41:57.007159 22424 net.cpp:111] Rconv8 needs backward computation.
I0825 20:41:57.007164 22424 net.cpp:65] Creating Layer Rrelu8
I0825 20:41:57.007166 22424 net.cpp:228] Rrelu8 <- Rconv8
I0825 20:41:57.007171 22424 net.cpp:179] Rrelu8 -> Rconv8 (in-place)
I0825 20:41:57.007175 22424 net.cpp:84] Top shape: 12 256 27 27 (2239488)
I0825 20:41:57.007179 22424 net.cpp:111] Rrelu8 needs backward computation.
I0825 20:41:57.007184 22424 net.cpp:65] Creating Layer deconv2
I0825 20:41:57.007185 22424 net.cpp:228] deconv2 <- Rconv8
I0825 20:41:57.007189 22424 net.cpp:189] deconv2 -> deconv2
I0825 20:41:57.008240 22424 net.cpp:84] Top shape: 12 64 54 54 (2239488)
I0825 20:41:57.008244 22424 net.cpp:111] deconv2 needs backward computation.
I0825 20:41:57.008251 22424 net.cpp:65] Creating Layer relu_deconv2
I0825 20:41:57.008254 22424 net.cpp:228] relu_deconv2 <- deconv2
I0825 20:41:57.008257 22424 net.cpp:179] relu_deconv2 -> deconv2 (in-place)
I0825 20:41:57.008262 22424 net.cpp:84] Top shape: 12 64 54 54 (2239488)
I0825 20:41:57.008265 22424 net.cpp:111] relu_deconv2 needs backward computation.
I0825 20:41:57.008270 22424 net.cpp:65] Creating Layer deconv1
I0825 20:41:57.008271 22424 net.cpp:228] deconv1 <- deconv2
I0825 20:41:57.008275 22424 net.cpp:189] deconv1 -> deconv1
I0825 20:41:57.008420 22424 net.cpp:84] Top shape: 12 32 108 108 (4478976)
I0825 20:41:57.008424 22424 net.cpp:111] deconv1 needs backward computation.
I0825 20:41:57.008430 22424 net.cpp:65] Creating Layer relu_deconv1
I0825 20:41:57.008433 22424 net.cpp:228] relu_deconv1 <- deconv1
I0825 20:41:57.008437 22424 net.cpp:179] relu_deconv1 -> deconv1 (in-place)
I0825 20:41:57.008441 22424 net.cpp:84] Top shape: 12 32 108 108 (4478976)
I0825 20:41:57.008445 22424 net.cpp:111] relu_deconv1 needs backward computation.
I0825 20:41:57.008451 22424 net.cpp:65] Creating Layer deconv0
I0825 20:41:57.008455 22424 net.cpp:228] deconv0 <- deconv1
I0825 20:41:57.008458 22424 net.cpp:189] deconv0 -> deconv0
I0825 20:41:57.008512 22424 net.cpp:84] Top shape: 12 3 216 216 (1679616)
I0825 20:41:57.008517 22424 net.cpp:111] deconv0 needs backward computation.
I0825 20:41:57.008520 22424 net.cpp:65] Creating Layer loss
I0825 20:41:57.008522 22424 net.cpp:228] loss <- deconv0
I0825 20:41:57.008527 22424 net.cpp:228] loss <- target_ims
I0825 20:41:57.008534 22424 net.cpp:111] loss needs backward computation.
I0825 20:41:57.008548 22424 net.cpp:238] Collecting Learning Rate and Weight Decay.
I0825 20:41:57.008560 22424 net.cpp:161] Network initialization done.
I0825 20:41:57.008563 22424 net.cpp:162] Memory required for data: 0
I0825 20:41:57.008601 22424 solver.cpp:78] Creating testing net (#0) from file: /scr/r6/tgebru/inverting_conv/caffe_invert_alexnet/timnit_models/att_conv1/summer_winter/val_summer_winter.prototxt
I0825 20:41:57.009222 22424 net.cpp:36] Initializing net from parameters: 
name: "CaffeNet"
layers {
  top: "source_ims"
  name: "source_ims"
  type: DATA
  data_param {
    source: "/scr/r6/tgebru/inverting_conv/caffe_invert_alexnet/data/siggraph/small_summer_val_227lmdb"
    batch_size: 2
    mirror: false
    backend: LMDB
  }
}
layers {
  top: "target_ims"
  name: "target_ims"
  type: DATA
  data_param {
    source: "/scr/r6/tgebru/inverting_conv/caffe_invert_alexnet/data/siggraph/small_winter_val_216lmdb"
    batch_size: 2
    mirror: false
    backend: LMDB
  }
}
layers {
  bottom: "source_ims"
  top: "conv1"
  name: "conv1"
  type: CONVOLUTION
  blobs_lr: 0
  blobs_lr: 0
  weight_decay: 1
  weight_decay: 0
  convolution_param {
    num_output: 96
    kernel_size: 11
    stride: 4
    weight_filler {
      type: "gaussian"
      std: 0.01
    }
    bias_filler {
      type: "constant"
      value: 0
    }
  }
}
layers {
  bottom: "conv1"
  top: "conv1"
  name: "relu1"
  type: RELU
}
layers {
  bottom: "conv1"
  top: "pool1"
  name: "pool1"
  type: POOLING
  pooling_param {
    pool: MAX
    kernel_size: 3
    stride: 2
  }
}
layers {
  bottom: "pool1"
  top: "norm1"
  name: "norm1"
  type: LRN
  lrn_param {
    local_size: 5
    alpha: 0.0001
    beta: 0.75
  }
}
layers {
  bottom: "norm1"
  top: "Rconv6"
  name: "Rconv6"
  type: CONVOLUTION
  blobs_lr: 0
  blobs_lr: 0
  weight_decay: 1
  weight_decay: 0
  convolution_param {
    num_output: 256
    pad: 1
    kernel_size: 3
  }
}
layers {
  bottom: "Rconv6"
  top: "Rconv6"
  name: "Rrelu6"
  type: RELU
}
layers {
  bottom: "Rconv6"
  top: "Rconv7"
  name: "Rconv7"
  type: CONVOLUTION
  blobs_lr: 0
  blobs_lr: 0
  weight_decay: 1
  weight_decay: 0
  convolution_param {
    num_output: 256
    pad: 1
    kernel_size: 3
    group: 2
  }
}
layers {
  bottom: "Rconv7"
  top: "Rconv7"
  name: "Rrelu7"
  type: RELU
}
layers {
  bottom: "Rconv7"
  top: "Rconv8"
  name: "Rconv8"
  type: CONVOLUTION
  blobs_lr: 0
  blobs_lr: 0
  weight_decay: 1
  weight_decay: 0
  convolution_param {
    num_output: 256
    pad: 1
    kernel_size: 3
    group: 2
  }
}
layers {
  bottom: "Rconv8"
  top: "Rconv8"
  name: "Rrelu8"
  type: RELU
}
layers {
  bottom: "Rconv8"
  top: "deconv2"
  name: "deconv2"
  type: DECONVOLUTION
  blobs_lr: 0
  blobs_lr: 0
  weight_decay: 1
  weight_decay: 0
  deconvolution_param {
    pad: 2
    kernel_size: 5
    stride: 2
    output_height: 54
    output_width: 54
    output_channels: 64
  }
}
layers {
  bottom: "deconv2"
  top: "deconv2"
  name: "relu_deconv2"
  type: RELU
  relu_param {
    negative_slope: 0.3
  }
}
layers {
  bottom: "deconv2"
  top: "deconv1"
  name: "deconv1"
  type: DECONVOLUTION
  blobs_lr: 0
  blobs_lr: 0
  weight_decay: 1
  weight_decay: 0
  deconvolution_param {
    pad: 2
    kernel_size: 5
    stride: 2
    output_height: 108
    output_width: 108
    output_channels: 32
  }
}
layers {
  bottom: "deconv1"
  top: "deconv1"
  name: "relu_deconv1"
  type: RELU
  relu_param {
    negative_slope: 0.3
  }
}
layers {
  bottom: "deconv1"
  top: "deconv0"
  name: "deconv0"
  type: DECONVOLUTION
  blobs_lr: 0
  blobs_lr: 0
  weight_decay: 1
  weight_decay: 0
  deconvolution_param {
    pad: 2
    kernel_size: 5
    stride: 2
    output_height: 216
    output_width: 216
    output_channels: 3
  }
}
layers {
  bottom: "deconv0"
  bottom: "target_ims"
  name: "loss"
  type: EUCLIDEAN_LOSS
}
I0825 20:41:57.009309 22424 net.cpp:65] Creating Layer source_ims
I0825 20:41:57.009315 22424 net.cpp:189] source_ims -> source_ims
I0825 20:41:57.009382 22424 data_layer.cpp:223] Opening lmdb /scr/r6/tgebru/inverting_conv/caffe_invert_alexnet/data/siggraph/small_summer_val_227lmdb
I0825 20:41:57.009548 22424 data_layer.cpp:285] output data size: 2,3,227,227
I0825 20:41:57.010534 22424 net.cpp:84] Top shape: 2 3 227 227 (309174)
I0825 20:41:57.010540 22424 net.cpp:116] source_ims does not need backward computation.
I0825 20:41:57.010545 22424 net.cpp:65] Creating Layer target_ims
I0825 20:41:57.010550 22424 net.cpp:189] target_ims -> target_ims
I0825 20:41:57.010679 22424 data_layer.cpp:223] Opening lmdb /scr/r6/tgebru/inverting_conv/caffe_invert_alexnet/data/siggraph/small_winter_val_216lmdb
I0825 20:41:57.010766 22424 data_layer.cpp:285] output data size: 2,3,216,216
I0825 20:41:57.011665 22424 net.cpp:84] Top shape: 2 3 216 216 (279936)
I0825 20:41:57.011672 22424 net.cpp:116] target_ims does not need backward computation.
I0825 20:41:57.011678 22424 net.cpp:65] Creating Layer conv1
I0825 20:41:57.011682 22424 net.cpp:228] conv1 <- source_ims
I0825 20:41:57.011687 22424 net.cpp:189] conv1 -> conv1
I0825 20:41:57.012931 22424 net.cpp:84] Top shape: 2 96 55 55 (580800)
I0825 20:41:57.012935 22424 net.cpp:116] conv1 does not need backward computation.
I0825 20:41:57.012939 22424 net.cpp:65] Creating Layer relu1
I0825 20:41:57.012943 22424 net.cpp:228] relu1 <- conv1
I0825 20:41:57.012948 22424 net.cpp:179] relu1 -> conv1 (in-place)
I0825 20:41:57.012953 22424 net.cpp:84] Top shape: 2 96 55 55 (580800)
I0825 20:41:57.012954 22424 net.cpp:116] relu1 does not need backward computation.
I0825 20:41:57.012959 22424 net.cpp:65] Creating Layer pool1
I0825 20:41:57.012962 22424 net.cpp:228] pool1 <- conv1
I0825 20:41:57.012981 22424 net.cpp:189] pool1 -> pool1
I0825 20:41:57.012989 22424 net.cpp:84] Top shape: 2 96 27 27 (139968)
I0825 20:41:57.012991 22424 net.cpp:116] pool1 does not need backward computation.
I0825 20:41:57.012995 22424 net.cpp:65] Creating Layer norm1
I0825 20:41:57.012998 22424 net.cpp:228] norm1 <- pool1
I0825 20:41:57.013003 22424 net.cpp:189] norm1 -> norm1
I0825 20:41:57.013010 22424 net.cpp:84] Top shape: 2 96 27 27 (139968)
I0825 20:41:57.013011 22424 net.cpp:116] norm1 does not need backward computation.
I0825 20:41:57.013016 22424 net.cpp:65] Creating Layer Rconv6
I0825 20:41:57.013018 22424 net.cpp:228] Rconv6 <- norm1
I0825 20:41:57.013025 22424 net.cpp:189] Rconv6 -> Rconv6
I0825 20:41:57.013602 22424 net.cpp:84] Top shape: 2 256 27 27 (373248)
I0825 20:41:57.013607 22424 net.cpp:116] Rconv6 does not need backward computation.
I0825 20:41:57.013610 22424 net.cpp:65] Creating Layer Rrelu6
I0825 20:41:57.013612 22424 net.cpp:228] Rrelu6 <- Rconv6
I0825 20:41:57.013617 22424 net.cpp:179] Rrelu6 -> Rconv6 (in-place)
I0825 20:41:57.013620 22424 net.cpp:84] Top shape: 2 256 27 27 (373248)
I0825 20:41:57.013623 22424 net.cpp:116] Rrelu6 does not need backward computation.
I0825 20:41:57.013631 22424 net.cpp:65] Creating Layer Rconv7
I0825 20:41:57.013634 22424 net.cpp:228] Rconv7 <- Rconv6
I0825 20:41:57.013638 22424 net.cpp:189] Rconv7 -> Rconv7
I0825 20:41:57.014384 22424 net.cpp:84] Top shape: 2 256 27 27 (373248)
I0825 20:41:57.014389 22424 net.cpp:116] Rconv7 does not need backward computation.
I0825 20:41:57.014394 22424 net.cpp:65] Creating Layer Rrelu7
I0825 20:41:57.014397 22424 net.cpp:228] Rrelu7 <- Rconv7
I0825 20:41:57.014400 22424 net.cpp:179] Rrelu7 -> Rconv7 (in-place)
I0825 20:41:57.014405 22424 net.cpp:84] Top shape: 2 256 27 27 (373248)
I0825 20:41:57.014407 22424 net.cpp:116] Rrelu7 does not need backward computation.
I0825 20:41:57.014410 22424 net.cpp:65] Creating Layer Rconv8
I0825 20:41:57.014412 22424 net.cpp:228] Rconv8 <- Rconv7
I0825 20:41:57.014416 22424 net.cpp:189] Rconv8 -> Rconv8
I0825 20:41:57.015161 22424 net.cpp:84] Top shape: 2 256 27 27 (373248)
I0825 20:41:57.015166 22424 net.cpp:116] Rconv8 does not need backward computation.
I0825 20:41:57.015168 22424 net.cpp:65] Creating Layer Rrelu8
I0825 20:41:57.015172 22424 net.cpp:228] Rrelu8 <- Rconv8
I0825 20:41:57.015174 22424 net.cpp:179] Rrelu8 -> Rconv8 (in-place)
I0825 20:41:57.015178 22424 net.cpp:84] Top shape: 2 256 27 27 (373248)
I0825 20:41:57.015182 22424 net.cpp:116] Rrelu8 does not need backward computation.
I0825 20:41:57.015187 22424 net.cpp:65] Creating Layer deconv2
I0825 20:41:57.015189 22424 net.cpp:228] deconv2 <- Rconv8
I0825 20:41:57.015193 22424 net.cpp:189] deconv2 -> deconv2
I0825 20:41:57.016226 22424 net.cpp:84] Top shape: 2 64 54 54 (373248)
I0825 20:41:57.016229 22424 net.cpp:116] deconv2 does not need backward computation.
I0825 20:41:57.016232 22424 net.cpp:65] Creating Layer relu_deconv2
I0825 20:41:57.016235 22424 net.cpp:228] relu_deconv2 <- deconv2
I0825 20:41:57.016242 22424 net.cpp:179] relu_deconv2 -> deconv2 (in-place)
I0825 20:41:57.016245 22424 net.cpp:84] Top shape: 2 64 54 54 (373248)
I0825 20:41:57.016248 22424 net.cpp:116] relu_deconv2 does not need backward computation.
I0825 20:41:57.016252 22424 net.cpp:65] Creating Layer deconv1
I0825 20:41:57.016255 22424 net.cpp:228] deconv1 <- deconv2
I0825 20:41:57.016258 22424 net.cpp:189] deconv1 -> deconv1
I0825 20:41:57.016402 22424 net.cpp:84] Top shape: 2 32 108 108 (746496)
I0825 20:41:57.016407 22424 net.cpp:116] deconv1 does not need backward computation.
I0825 20:41:57.016412 22424 net.cpp:65] Creating Layer relu_deconv1
I0825 20:41:57.016414 22424 net.cpp:228] relu_deconv1 <- deconv1
I0825 20:41:57.016417 22424 net.cpp:179] relu_deconv1 -> deconv1 (in-place)
I0825 20:41:57.016422 22424 net.cpp:84] Top shape: 2 32 108 108 (746496)
I0825 20:41:57.016424 22424 net.cpp:116] relu_deconv1 does not need backward computation.
I0825 20:41:57.016429 22424 net.cpp:65] Creating Layer deconv0
I0825 20:41:57.016432 22424 net.cpp:228] deconv0 <- deconv1
I0825 20:41:57.016448 22424 net.cpp:189] deconv0 -> deconv0
I0825 20:41:57.016494 22424 net.cpp:84] Top shape: 2 3 216 216 (279936)
I0825 20:41:57.016496 22424 net.cpp:116] deconv0 does not need backward computation.
I0825 20:41:57.016501 22424 net.cpp:65] Creating Layer loss
I0825 20:41:57.016505 22424 net.cpp:228] loss <- deconv0
I0825 20:41:57.016507 22424 net.cpp:228] loss <- target_ims
I0825 20:41:57.016511 22424 net.cpp:116] loss does not need backward computation.
I0825 20:41:57.016525 22424 net.cpp:238] Collecting Learning Rate and Weight Decay.
…
