…
    source: "/scr/r6/tgebru/inverting_conv/caffe_invert_alexnet/data/siggraph/tiny_summer_train_lmdb"
    mean_file: "/scr/r6/tgebru/timnit_caffe/data/ilsvrc12/imagenet_mean.binaryproto"
    batch_size: 12
    crop_size: 227
    mirror: false
    backend: LMDB
  }
}
layers {
  top: "target_ims"
  name: "target_ims"
  type: DATA
  data_param {
    source: "/scr/r6/tgebru/inverting_conv/caffe_invert_alexnet/data/siggraph/tiny_winter_train_lmdb"
    mean_file: "/scr/r6/tgebru/timnit_caffe/data/ilsvrc12/imagenet_mean.binaryproto"
    batch_size: 12
    crop_size: 216
    mirror: false
    backend: LMDB
  }
}
layers {
  bottom: "source_ims"
  top: "conv1"
  name: "conv1"
  type: CONVOLUTION
  blobs_lr: 0
  blobs_lr: 0
  weight_decay: 1
  weight_decay: 0
  convolution_param {
    num_output: 96
    kernel_size: 11
    stride: 4
    weight_filler {
      type: "gaussian"
      std: 0.01
    }
    bias_filler {
      type: "constant"
      value: 0
    }
  }
}
layers {
  bottom: "conv1"
  top: "conv1"
  name: "relu1"
  type: RELU
}
layers {
  bottom: "conv1"
  top: "pool1"
  name: "pool1"
  type: POOLING
  pooling_param {
    pool: MAX
    kernel_size: 3
    stride: 2
  }
}
layers {
  bottom: "pool1"
  top: "norm1"
  name: "norm1"
  type: LRN
  lrn_param {
    local_size: 5
    alpha: 0.0001
    beta: 0.75
  }
}
layers {
  bottom: "norm1"
  top: "Rconv6"
  name: "Rconv6"
  type: CONVOLUTION
  blobs_lr: 1
  blobs_lr: 2
  weight_decay: 1
  weight_decay: 0
  convolution_param {
    num_output: 256
    pad: 1
    kernel_size: 3
  }
}
layers {
  bottom: "Rconv6"
  top: "Rconv6"
  name: "Rrelu6"
  type: RELU
}
layers {
  bottom: "Rconv6"
  top: "Rconv7"
  name: "Rconv7"
  type: CONVOLUTION
  blobs_lr: 1
  blobs_lr: 2
  weight_decay: 1
  weight_decay: 0
  convolution_param {
    num_output: 256
    pad: 1
    kernel_size: 3
    group: 2
  }
}
layers {
  bottom: "Rconv7"
  top: "Rconv7"
  name: "Rrelu7"
  type: RELU
}
layers {
  bottom: "Rconv7"
  top: "Rconv8"
  name: "Rconv8"
  type: CONVOLUTION
  blobs_lr: 1
  blobs_lr: 2
  weight_decay: 1
  weight_decay: 0
  convolution_param {
    num_output: 256
    pad: 1
    kernel_size: 3
    group: 2
  }
}
layers {
  bottom: "Rconv8"
  top: "Rconv8"
  name: "Rrelu8"
  type: RELU
}
layers {
  bottom: "Rconv8"
  top: "deconv2"
  name: "deconv2"
  type: DECONVOLUTION
  blobs_lr: 1
  blobs_lr: 2
  weight_decay: 1
  weight_decay: 0
  deconvolution_param {
    pad: 2
    kernel_size: 5
    stride: 2
    output_height: 54
    output_width: 54
    output_channels: 64
  }
}
layers {
  bottom: "deconv2"
  top: "deconv2"
  name: "relu_deconv2"
  type: RELU
  relu_param {
    negative_slope: 0.3
  }
}
layers {
  bottom: "deconv2"
  top: "deconv1"
  name: "deconv1"
  type: DECONVOLUTION
  blobs_lr: 1
  blobs_lr: 2
  weight_decay: 1
  weight_decay: 0
  deconvolution_param {
    pad: 2
    kernel_size: 5
    stride: 2
    output_height: 108
    output_width: 108
    output_channels: 32
  }
}
layers {
  bottom: "deconv1"
  top: "deconv1"
  name: "relu_deconv1"
  type: RELU
  relu_param {
    negative_slope: 0.3
  }
}
layers {
  bottom: "deconv1"
  top: "deconv0"
  name: "deconv0"
  type: DECONVOLUTION
  blobs_lr: 1
  blobs_lr: 2
  weight_decay: 1
  weight_decay: 1
  deconvolution_param {
    pad: 2
    kernel_size: 5
    stride: 2
    output_height: 216
    output_width: 216
    output_channels: 3
  }
}
layers {
  bottom: "deconv0"
  bottom: "target_ims"
  name: "loss"
  type: EUCLIDEAN_LOSS
}
I0813 11:35:41.531620  4747 net.cpp:65] Creating Layer source_ims
I0813 11:35:41.531630  4747 net.cpp:189] source_ims -> source_ims
I0813 11:35:41.531749  4747 data_layer.cpp:223] Opening lmdb /scr/r6/tgebru/inverting_conv/caffe_invert_alexnet/data/siggraph/tiny_summer_train_lmdb
I0813 11:35:41.531963  4747 data_layer.cpp:285] output data size: 12,3,227,227
I0813 11:35:41.531970  4747 data_layer.cpp:304] Loading mean file from/scr/r6/tgebru/timnit_caffe/data/ilsvrc12/imagenet_mean.binaryproto
I0813 11:35:41.536852  4747 net.cpp:84] Top shape: 12 3 227 227 (1855044)
I0813 11:35:41.536861  4747 net.cpp:116] source_ims does not need backward computation.
I0813 11:35:41.536867  4747 net.cpp:65] Creating Layer target_ims
I0813 11:35:41.536871  4747 net.cpp:189] target_ims -> target_ims
I0813 11:35:41.537030  4747 data_layer.cpp:223] Opening lmdb /scr/r6/tgebru/inverting_conv/caffe_invert_alexnet/data/siggraph/tiny_winter_train_lmdb
I0813 11:35:41.537199  4747 data_layer.cpp:285] output data size: 12,3,216,216
I0813 11:35:41.537204  4747 data_layer.cpp:304] Loading mean file from/scr/r6/tgebru/timnit_caffe/data/ilsvrc12/imagenet_mean.binaryproto
I0813 11:35:41.541183  4747 net.cpp:84] Top shape: 12 3 216 216 (1679616)
I0813 11:35:41.541191  4747 net.cpp:116] target_ims does not need backward computation.
I0813 11:35:41.541203  4747 net.cpp:65] Creating Layer conv1
I0813 11:35:41.541208  4747 net.cpp:228] conv1 <- source_ims
I0813 11:35:41.541275  4747 net.cpp:189] conv1 -> conv1
I0813 11:35:41.542584  4747 net.cpp:84] Top shape: 12 96 55 55 (3484800)
I0813 11:35:41.542590  4747 net.cpp:116] conv1 does not need backward computation.
I0813 11:35:41.542595  4747 net.cpp:65] Creating Layer relu1
I0813 11:35:41.542598  4747 net.cpp:228] relu1 <- conv1
I0813 11:35:41.542603  4747 net.cpp:179] relu1 -> conv1 (in-place)
I0813 11:35:41.542613  4747 net.cpp:84] Top shape: 12 96 55 55 (3484800)
I0813 11:35:41.542615  4747 net.cpp:116] relu1 does not need backward computation.
I0813 11:35:41.542620  4747 net.cpp:65] Creating Layer pool1
I0813 11:35:41.542623  4747 net.cpp:228] pool1 <- conv1
I0813 11:35:41.542626  4747 net.cpp:189] pool1 -> pool1
I0813 11:35:41.542639  4747 net.cpp:84] Top shape: 12 96 27 27 (839808)
I0813 11:35:41.542641  4747 net.cpp:116] pool1 does not need backward computation.
I0813 11:35:41.542646  4747 net.cpp:65] Creating Layer norm1
I0813 11:35:41.542649  4747 net.cpp:228] norm1 <- pool1
I0813 11:35:41.542652  4747 net.cpp:189] norm1 -> norm1
I0813 11:35:41.542662  4747 net.cpp:84] Top shape: 12 96 27 27 (839808)
I0813 11:35:41.542665  4747 net.cpp:116] norm1 does not need backward computation.
I0813 11:35:41.542670  4747 net.cpp:65] Creating Layer Rconv6
I0813 11:35:41.542671  4747 net.cpp:228] Rconv6 <- norm1
I0813 11:35:41.542676  4747 net.cpp:189] Rconv6 -> Rconv6
I0813 11:35:41.542947  4747 net.cpp:84] Top shape: 12 256 27 27 (2239488)
I0813 11:35:41.542951  4747 net.cpp:111] Rconv6 needs backward computation.
I0813 11:35:41.542955  4747 net.cpp:65] Creating Layer Rrelu6
I0813 11:35:41.542958  4747 net.cpp:228] Rrelu6 <- Rconv6
I0813 11:35:41.542963  4747 net.cpp:179] Rrelu6 -> Rconv6 (in-place)
I0813 11:35:41.542968  4747 net.cpp:84] Top shape: 12 256 27 27 (2239488)
I0813 11:35:41.542970  4747 net.cpp:111] Rrelu6 needs backward computation.
I0813 11:35:41.542974  4747 net.cpp:65] Creating Layer Rconv7
I0813 11:35:41.542978  4747 net.cpp:228] Rconv7 <- Rconv6
I0813 11:35:41.542981  4747 net.cpp:189] Rconv7 -> Rconv7
I0813 11:35:41.543709  4747 net.cpp:84] Top shape: 12 256 27 27 (2239488)
I0813 11:35:41.543714  4747 net.cpp:111] Rconv7 needs backward computation.
I0813 11:35:41.543717  4747 net.cpp:65] Creating Layer Rrelu7
I0813 11:35:41.543740  4747 net.cpp:228] Rrelu7 <- Rconv7
I0813 11:35:41.543745  4747 net.cpp:179] Rrelu7 -> Rconv7 (in-place)
I0813 11:35:41.543748  4747 net.cpp:84] Top shape: 12 256 27 27 (2239488)
I0813 11:35:41.543751  4747 net.cpp:111] Rrelu7 needs backward computation.
I0813 11:35:41.543756  4747 net.cpp:65] Creating Layer Rconv8
I0813 11:35:41.543757  4747 net.cpp:228] Rconv8 <- Rconv7
I0813 11:35:41.543761  4747 net.cpp:189] Rconv8 -> Rconv8
I0813 11:35:41.544543  4747 net.cpp:84] Top shape: 12 256 27 27 (2239488)
I0813 11:35:41.544546  4747 net.cpp:111] Rconv8 needs backward computation.
I0813 11:35:41.544550  4747 net.cpp:65] Creating Layer Rrelu8
I0813 11:35:41.544553  4747 net.cpp:228] Rrelu8 <- Rconv8
I0813 11:35:41.544558  4747 net.cpp:179] Rrelu8 -> Rconv8 (in-place)
I0813 11:35:41.544561  4747 net.cpp:84] Top shape: 12 256 27 27 (2239488)
I0813 11:35:41.544564  4747 net.cpp:111] Rrelu8 needs backward computation.
I0813 11:35:41.544569  4747 net.cpp:65] Creating Layer deconv2
I0813 11:35:41.544570  4747 net.cpp:228] deconv2 <- Rconv8
I0813 11:35:41.544574  4747 net.cpp:189] deconv2 -> deconv2
I0813 11:35:41.545593  4747 net.cpp:84] Top shape: 12 64 54 54 (2239488)
I0813 11:35:41.545598  4747 net.cpp:111] deconv2 needs backward computation.
I0813 11:35:41.545603  4747 net.cpp:65] Creating Layer relu_deconv2
I0813 11:35:41.545606  4747 net.cpp:228] relu_deconv2 <- deconv2
I0813 11:35:41.545610  4747 net.cpp:179] relu_deconv2 -> deconv2 (in-place)
I0813 11:35:41.545614  4747 net.cpp:84] Top shape: 12 64 54 54 (2239488)
I0813 11:35:41.545617  4747 net.cpp:111] relu_deconv2 needs backward computation.
I0813 11:35:41.545620  4747 net.cpp:65] Creating Layer deconv1
I0813 11:35:41.545624  4747 net.cpp:228] deconv1 <- deconv2
I0813 11:35:41.545627  4747 net.cpp:189] deconv1 -> deconv1
I0813 11:35:41.545759  4747 net.cpp:84] Top shape: 12 32 108 108 (4478976)
I0813 11:35:41.545764  4747 net.cpp:111] deconv1 needs backward computation.
I0813 11:35:41.545768  4747 net.cpp:65] Creating Layer relu_deconv1
I0813 11:35:41.545770  4747 net.cpp:228] relu_deconv1 <- deconv1
I0813 11:35:41.545774  4747 net.cpp:179] relu_deconv1 -> deconv1 (in-place)
I0813 11:35:41.545778  4747 net.cpp:84] Top shape: 12 32 108 108 (4478976)
I0813 11:35:41.545781  4747 net.cpp:111] relu_deconv1 needs backward computation.
I0813 11:35:41.545786  4747 net.cpp:65] Creating Layer deconv0
I0813 11:35:41.545789  4747 net.cpp:228] deconv0 <- deconv1
I0813 11:35:41.545792  4747 net.cpp:189] deconv0 -> deconv0
I0813 11:35:41.545816  4747 net.cpp:84] Top shape: 12 3 216 216 (1679616)
I0813 11:35:41.545819  4747 net.cpp:111] deconv0 needs backward computation.
I0813 11:35:41.545824  4747 net.cpp:65] Creating Layer loss
I0813 11:35:41.545825  4747 net.cpp:228] loss <- deconv0
I0813 11:35:41.545828  4747 net.cpp:228] loss <- target_ims
I0813 11:35:41.545837  4747 net.cpp:111] loss needs backward computation.
I0813 11:35:41.545850  4747 net.cpp:238] Collecting Learning Rate and Weight Decay.
…
    source: "/scr/r6/tgebru/inverting_conv/caffe_invert_alexnet/data/siggraph/tiny_summer_val_lmdb"
    mean_file: "/scr/r6/tgebru/timnit_caffe/data/ilsvrc12/imagenet_mean.binaryproto"
    batch_size: 64
    crop_size: 227
    mirror: false
    backend: LMDB
  }
}
layers {
  top: "target_ims"
  name: "target_ims"
  type: DATA
  data_param {
    source: "/scr/r6/tgebru/inverting_conv/caffe_invert_alexnet/data/siggraph/tiny_winter_val_lmdb"
    mean_file: "/scr/r6/tgebru/timnit_caffe/data/ilsvrc12/imagenet_mean.binaryproto"
    batch_size: 64
    crop_size: 216
    mirror: false
    backend: LMDB
  }
}
layers {
  bottom: "source_ims"
  top: "conv1"
  name: "conv1"
  type: CONVOLUTION
  blobs_lr: 0
  blobs_lr: 0
  weight_decay: 1
  weight_decay: 0
  convolution_param {
    num_output: 96
    kernel_size: 11
    stride: 4
    weight_filler {
      type: "gaussian"
      std: 0.01
    }
    bias_filler {
      type: "constant"
      value: 0
    }
  }
}
layers {
  bottom: "conv1"
  top: "conv1"
  name: "relu1"
  type: RELU
}
layers {
  bottom: "conv1"
  top: "pool1"
  name: "pool1"
  type: POOLING
  pooling_param {
    pool: MAX
    kernel_size: 3
    stride: 2
  }
}
layers {
  bottom: "pool1"
  top: "norm1"
  name: "norm1"
  type: LRN
  lrn_param {
    local_size: 5
    alpha: 0.0001
    beta: 0.75
  }
}
layers {
  bottom: "norm1"
  top: "Rconv6"
  name: "Rconv6"
  type: CONVOLUTION
  blobs_lr: 0
  blobs_lr: 0
  weight_decay: 1
  weight_decay: 0
  convolution_param {
    num_output: 256
    pad: 1
    kernel_size: 3
  }
}
layers {
  bottom: "Rconv6"
  top: "Rconv6"
  name: "Rrelu6"
  type: RELU
}
layers {
  bottom: "Rconv6"
  top: "Rconv7"
  name: "Rconv7"
  type: CONVOLUTION
  blobs_lr: 0
  blobs_lr: 0
  weight_decay: 1
  weight_decay: 0
  convolution_param {
    num_output: 256
    pad: 1
    kernel_size: 3
    group: 2
  }
}
layers {
  bottom: "Rconv7"
  top: "Rconv7"
  name: "Rrelu7"
  type: RELU
}
layers {
  bottom: "Rconv7"
  top: "Rconv8"
  name: "Rconv8"
  type: CONVOLUTION
  blobs_lr: 0
  blobs_lr: 0
  weight_decay: 1
  weight_decay: 0
  convolution_param {
    num_output: 256
    pad: 1
    kernel_size: 3
    group: 2
  }
}
layers {
  bottom: "Rconv8"
  top: "Rconv8"
  name: "Rrelu8"
  type: RELU
}
layers {
  bottom: "Rconv8"
  top: "deconv2"
  name: "deconv2"
  type: DECONVOLUTION
  blobs_lr: 0
  blobs_lr: 0
  weight_decay: 1
  weight_decay: 0
  deconvolution_param {
    pad: 2
    kernel_size: 5
    stride: 2
    output_height: 54
    output_width: 54
    output_channels: 64
  }
}
layers {
  bottom: "deconv2"
  top: "deconv2"
  name: "relu_deconv2"
  type: RELU
  relu_param {
    negative_slope: 0.3
  }
}
layers {
  bottom: "deconv2"
  top: "deconv1"
  name: "deconv1"
  type: DECONVOLUTION
  blobs_lr: 0
  blobs_lr: 0
  weight_decay: 1
  weight_decay: 0
  deconvolution_param {
    pad: 2
    kernel_size: 5
    stride: 2
    output_height: 108
    output_width: 108
    output_channels: 32
  }
}
layers {
  bottom: "deconv1"
  top: "deconv1"
  name: "relu_deconv1"
  type: RELU
  relu_param {
    negative_slope: 0.3
  }
}
layers {
  bottom: "deconv1"
  top: "deconv0"
  name: "deconv0"
  type: DECONVOLUTION
  blobs_lr: 0
  blobs_lr: 0
  weight_decay: 1
  weight_decay: 0
  deconvolution_param {
    pad: 2
    kernel_size: 5
    stride: 2
    output_height: 216
    output_width: 216
    output_channels: 3
  }
}
layers {
  bottom: "deconv0"
  bottom: "target_ims"
  name: "loss"
  type: EUCLIDEAN_LOSS
}
I0813 11:35:41.546560  4747 net.cpp:65] Creating Layer source_ims
I0813 11:35:41.546564  4747 net.cpp:189] source_ims -> source_ims
I0813 11:35:41.546627  4747 data_layer.cpp:223] Opening lmdb /scr/r6/tgebru/inverting_conv/caffe_invert_alexnet/data/siggraph/tiny_summer_val_lmdb
I0813 11:35:41.546830  4747 data_layer.cpp:285] output data size: 64,3,227,227
I0813 11:35:41.546835  4747 data_layer.cpp:304] Loading mean file from/scr/r6/tgebru/timnit_caffe/data/ilsvrc12/imagenet_mean.binaryproto
I0813 11:35:41.560762  4747 net.cpp:84] Top shape: 64 3 227 227 (9893568)
I0813 11:35:41.560780  4747 net.cpp:116] source_ims does not need backward computation.
I0813 11:35:41.560792  4747 net.cpp:65] Creating Layer target_ims
I0813 11:35:41.560798  4747 net.cpp:189] target_ims -> target_ims
I0813 11:35:41.560897  4747 data_layer.cpp:223] Opening lmdb /scr/r6/tgebru/inverting_conv/caffe_invert_alexnet/data/siggraph/tiny_winter_val_lmdb
I0813 11:35:41.561036  4747 data_layer.cpp:285] output data size: 64,3,216,216
I0813 11:35:41.561040  4747 data_layer.cpp:304] Loading mean file from/scr/r6/tgebru/timnit_caffe/data/ilsvrc12/imagenet_mean.binaryproto
I0813 11:35:41.573482  4747 net.cpp:84] Top shape: 64 3 216 216 (8957952)
I0813 11:35:41.573552  4747 net.cpp:116] target_ims does not need backward computation.
I0813 11:35:41.573568  4747 net.cpp:65] Creating Layer conv1
I0813 11:35:41.573573  4747 net.cpp:228] conv1 <- source_ims
I0813 11:35:41.573585  4747 net.cpp:189] conv1 -> conv1
I0813 11:35:41.574848  4747 net.cpp:84] Top shape: 64 96 55 55 (18585600)
I0813 11:35:41.574852  4747 net.cpp:116] conv1 does not need backward computation.
I0813 11:35:41.574857  4747 net.cpp:65] Creating Layer relu1
I0813 11:35:41.574861  4747 net.cpp:228] relu1 <- conv1
I0813 11:35:41.574867  4747 net.cpp:179] relu1 -> conv1 (in-place)
I0813 11:35:41.574872  4747 net.cpp:84] Top shape: 64 96 55 55 (18585600)
I0813 11:35:41.574874  4747 net.cpp:116] relu1 does not need backward computation.
I0813 11:35:41.574880  4747 net.cpp:65] Creating Layer pool1
I0813 11:35:41.574882  4747 net.cpp:228] pool1 <- conv1
I0813 11:35:41.574887  4747 net.cpp:189] pool1 -> pool1
I0813 11:35:41.574894  4747 net.cpp:84] Top shape: 64 96 27 27 (4478976)
I0813 11:35:41.574898  4747 net.cpp:116] pool1 does not need backward computation.
I0813 11:35:41.574903  4747 net.cpp:65] Creating Layer norm1
I0813 11:35:41.574905  4747 net.cpp:228] norm1 <- pool1
I0813 11:35:41.574909  4747 net.cpp:189] norm1 -> norm1
I0813 11:35:41.574915  4747 net.cpp:84] Top shape: 64 96 27 27 (4478976)
I0813 11:35:41.574918  4747 net.cpp:116] norm1 does not need backward computation.
I0813 11:35:41.574923  4747 net.cpp:65] Creating Layer Rconv6
I0813 11:35:41.574924  4747 net.cpp:228] Rconv6 <- norm1
I0813 11:35:41.574928  4747 net.cpp:189] Rconv6 -> Rconv6
I0813 11:35:41.575168  4747 net.cpp:84] Top shape: 64 256 27 27 (11943936)
I0813 11:35:41.575172  4747 net.cpp:116] Rconv6 does not need backward computation.
I0813 11:35:41.575176  4747 net.cpp:65] Creating Layer Rrelu6
I0813 11:35:41.575180  4747 net.cpp:228] Rrelu6 <- Rconv6
I0813 11:35:41.575184  4747 net.cpp:179] Rrelu6 -> Rconv6 (in-place)
I0813 11:35:41.575189  4747 net.cpp:84] Top shape: 64 256 27 27 (11943936)
I0813 11:35:41.575191  4747 net.cpp:116] Rrelu6 does not need backward computation.
I0813 11:35:41.575197  4747 net.cpp:65] Creating Layer Rconv7
I0813 11:35:41.575199  4747 net.cpp:228] Rconv7 <- Rconv6
I0813 11:35:41.575204  4747 net.cpp:189] Rconv7 -> Rconv7
I0813 11:35:41.575945  4747 net.cpp:84] Top shape: 64 256 27 27 (11943936)
I0813 11:35:41.575949  4747 net.cpp:116] Rconv7 does not need backward computation.
I0813 11:35:41.575955  4747 net.cpp:65] Creating Layer Rrelu7
I0813 11:35:41.575958  4747 net.cpp:228] Rrelu7 <- Rconv7
I0813 11:35:41.575963  4747 net.cpp:179] Rrelu7 -> Rconv7 (in-place)
I0813 11:35:41.575968  4747 net.cpp:84] Top shape: 64 256 27 27 (11943936)
I0813 11:35:41.575969  4747 net.cpp:116] Rrelu7 does not need backward computation.
I0813 11:35:41.575974  4747 net.cpp:65] Creating Layer Rconv8
I0813 11:35:41.575976  4747 net.cpp:228] Rconv8 <- Rconv7
I0813 11:35:41.575980  4747 net.cpp:189] Rconv8 -> Rconv8
I0813 11:35:41.576702  4747 net.cpp:84] Top shape: 64 256 27 27 (11943936)
I0813 11:35:41.576707  4747 net.cpp:116] Rconv8 does not need backward computation.
I0813 11:35:41.576712  4747 net.cpp:65] Creating Layer Rrelu8
I0813 11:35:41.576715  4747 net.cpp:228] Rrelu8 <- Rconv8
I0813 11:35:41.576719  4747 net.cpp:179] Rrelu8 -> Rconv8 (in-place)
I0813 11:35:41.576724  4747 net.cpp:84] Top shape: 64 256 27 27 (11943936)
I0813 11:35:41.576725  4747 net.cpp:116] Rrelu8 does not need backward computation.
I0813 11:35:41.576730  4747 net.cpp:65] Creating Layer deconv2
I0813 11:35:41.576733  4747 net.cpp:228] deconv2 <- Rconv8
I0813 11:35:41.576736  4747 net.cpp:189] deconv2 -> deconv2
I0813 11:35:41.577743  4747 net.cpp:84] Top shape: 64 64 54 54 (11943936)
I0813 11:35:41.577747  4747 net.cpp:116] deconv2 does not need backward computation.
I0813 11:35:41.577751  4747 net.cpp:65] Creating Layer relu_deconv2
I0813 11:35:41.577754  4747 net.cpp:228] relu_deconv2 <- deconv2
I0813 11:35:41.577759  4747 net.cpp:179] relu_deconv2 -> deconv2 (in-place)
I0813 11:35:41.577764  4747 net.cpp:84] Top shape: 64 64 54 54 (11943936)
I0813 11:35:41.577778  4747 net.cpp:116] relu_deconv2 does not need backward computation.
I0813 11:35:41.577785  4747 net.cpp:65] Creating Layer deconv1
I0813 11:35:41.577786  4747 net.cpp:228] deconv1 <- deconv2
I0813 11:35:41.577790  4747 net.cpp:189] deconv1 -> deconv1
I0813 11:35:41.577924  4747 net.cpp:84] Top shape: 64 32 108 108 (23887872)
I0813 11:35:41.577927  4747 net.cpp:116] deconv1 does not need backward computation.
I0813 11:35:41.577932  4747 net.cpp:65] Creating Layer relu_deconv1
I0813 11:35:41.577935  4747 net.cpp:228] relu_deconv1 <- deconv1
I0813 11:35:41.577939  4747 net.cpp:179] relu_deconv1 -> deconv1 (in-place)
I0813 11:35:41.577944  4747 net.cpp:84] Top shape: 64 32 108 108 (23887872)
I0813 11:35:41.577946  4747 net.cpp:116] relu_deconv1 does not need backward computation.
I0813 11:35:41.577952  4747 net.cpp:65] Creating Layer deconv0
I0813 11:35:41.577955  4747 net.cpp:228] deconv0 <- deconv1
I0813 11:35:41.577960  4747 net.cpp:189] deconv0 -> deconv0
I0813 11:35:41.577985  4747 net.cpp:84] Top shape: 64 3 216 216 (8957952)
I0813 11:35:41.577987  4747 net.cpp:116] deconv0 does not need backward computation.
I0813 11:35:41.577991  4747 net.cpp:65] Creating Layer loss
I0813 11:35:41.577994  4747 net.cpp:228] loss <- deconv0
I0813 11:35:41.577997  4747 net.cpp:228] loss <- target_ims
I0813 11:35:41.578003  4747 net.cpp:116] loss does not need backward computation.
I0813 11:35:41.578016  4747 net.cpp:238] Collecting Learning Rate and Weight Decay.
…
